…
  top: "data"
  data_param {
    source: "/home/leonida/ThesisCode/LSTM_on_Create2/NavDatabases/LAB-21-2-new-step-condition/states_db-2-21-15-4_lmdb"
    batch_size: 24
    backend: LMDB
  }
}
layer {
  name: "label"
  type: "Data"
  top: "labels"
  data_param {
    source: "/home/leonida/ThesisCode/LSTM_on_Create2/NavDatabases/LAB-21-2-new-step-condition/labels_db-2-21-15-4_twist-variant_lmdb"
    batch_size: 24
    backend: LMDB
  }
}
layer {
  name: "clip"
  type: "Input"
  top: "clip"
  input_param {
    shape {
      dim: 24
      dim: 26
    }
  }
}
layer {
  name: "lstm1"
  type: "LSTM"
  bottom: "data"
  bottom: "clip"
  top: "lstm1"
  recurrent_param {
    num_output: 16
    weight_filler {
      type: "xavier"
    }
    bias_filler {
      type: "constant"
    }
  }
}
layer {
  name: "out"
  type: "InnerProduct"
  bottom: "lstm1"
  top: "out"
  inner_product_param {
    num_output: 2
    weight_filler {
      type: "gaussian"
      std: 0.1
    }
    bias_filler {
      type: "constant"
    }
  }
}
layer {
  name: "euclideanLoss"
  type: "EuclideanLoss"
  bottom: "out"
  bottom: "labels"
  top: "loss"
}
I0222 17:40:10.228938 24879 layer_factory.hpp:77] Creating layer data
I0222 17:40:10.229008 24879 db_lmdb.cpp:35] Opened lmdb /home/leonida/ThesisCode/LSTM_on_Create2/NavDatabases/LAB-21-2-new-step-condition/states_db-2-21-15-4_lmdb
I0222 17:40:10.229027 24879 net.cpp:84] Creating Layer data
I0222 17:40:10.229032 24879 net.cpp:380] data -> data
I0222 17:40:10.229748 24879 data_layer.cpp:45] output data size: 24,26,1,1
I0222 17:40:10.231076 24879 net.cpp:122] Setting up data
I0222 17:40:10.231091 24879 net.cpp:129] Top shape: 24 26 1 1 (624)
I0222 17:40:10.231093 24879 net.cpp:137] Memory required for data: 2496
I0222 17:40:10.231099 24879 layer_factory.hpp:77] Creating layer label
I0222 17:40:10.231150 24879 db_lmdb.cpp:35] Opened lmdb /home/leonida/ThesisCode/LSTM_on_Create2/NavDatabases/LAB-21-2-new-step-condition/labels_db-2-21-15-4_twist-variant_lmdb
I0222 17:40:10.231165 24879 net.cpp:84] Creating Layer label
I0222 17:40:10.231170 24879 net.cpp:380] label -> labels
I0222 17:40:10.231247 24879 data_layer.cpp:45] output data size: 24,2,1,1
I0222 17:40:10.231809 24879 net.cpp:122] Setting up label
I0222 17:40:10.231817 24879 net.cpp:129] Top shape: 24 2 1 1 (48)
I0222 17:40:10.231819 24879 net.cpp:137] Memory required for data: 2688
I0222 17:40:10.231823 24879 layer_factory.hpp:77] Creating layer clip
I0222 17:40:10.231829 24879 net.cpp:84] Creating Layer clip
I0222 17:40:10.231833 24879 net.cpp:380] clip -> clip
I0222 17:40:10.231853 24879 net.cpp:122] Setting up clip
I0222 17:40:10.231859 24879 net.cpp:129] Top shape: 24 26 (624)
I0222 17:40:10.231863 24879 net.cpp:137] Memory required for data: 5184
I0222 17:40:10.231865 24879 layer_factory.hpp:77] Creating layer lstm1
I0222 17:40:10.231870 24879 net.cpp:84] Creating Layer lstm1
I0222 17:40:10.231884 24879 net.cpp:406] lstm1 <- data
I0222 17:40:10.231891 24879 net.cpp:406] lstm1 <- clip
I0222 17:40:10.231895 24879 net.cpp:380] lstm1 -> lstm1
I0222 17:40:10.231906 24879 recurrent_layer.cpp:20] Initializing recurrent layer: assuming input batch contains 24 timesteps of 26 independent streams.
I0222 17:40:10.232400 24879 net.cpp:51] Initializing net from parameters: 
layer {
  name: "lstm1_"
  type: "Input"
  top: "x"
  top: "cont"
  input_param {
    shape {
      dim: 24
      dim: 26
      dim: 1
      dim: 1
    }
    shape {
      dim: 24
      dim: 26
    }
  }
}
layer {
  name: "lstm1_"
  type: "Input"
  top: "c_0"
  top: "h_0"
  input_param {
    shape {
      dim: 1
      dim: 26
      dim: 16
    }
    shape {
      dim: 1
      dim: 26
      dim: 16
    }
  }
}
layer {
  name: "lstm1_cont_slice"
  type: "Slice"
  bottom: "cont"
  top: "cont_1"
  top: "cont_2"
  top: "cont_3"
  top: "cont_4"
  top: "cont_5"
  top: "cont_6"
  top: "cont_7"
  top: "cont_8"
  top: "cont_9"
  top: "cont_10"
  top: "cont_11"
  top: "cont_12"
  top: "cont_13"
  top: "cont_14"
  top: "cont_15"
  top: "cont_16"
  top: "cont_17"
  top: "cont_18"
  top: "cont_19"
  top: "cont_20"
  top: "cont_21"
  top: "cont_22"
  top: "cont_23"
  top: "cont_24"
  slice_param {
    axis: 0
  }
}
layer {
  name: "lstm1_x_transform"
  type: "InnerProduct"
  bottom: "x"
  top: "W_xc_x"
  param {
    name: "W_xc"
  }
  param {
    name: "b_c"
  }
  propagate_down: true
  inner_product_param {
    num_output: 64
    bias_term: true
    weight_filler {
      type: "xavier"
    }
    bias_filler {
      type: "constant"
    }
    axis: 2
  }
}
layer {
  name: "lstm1_W_xc_x_slice"
  type: "Slice"
  bottom: "W_xc_x"
  top: "W_xc_x_1"
  top: "W_xc_x_2"
  top: "W_xc_x_3"
  top: "W_xc_x_4"
  top: "W_xc_x_5"
  top: "W_xc_x_6"
  top: "W_xc_x_7"
  top: "W_xc_x_8"
  top: "W_xc_x_9"
  top: "W_xc_x_10"
  top: "W_xc_x_11"
  top: "W_xc_x_12"
  top: "W_xc_x_13"
  top: "W_xc_x_14"
  top: "W_xc_x_15"
  top: "W_xc_x_16"
  top: "W_xc_x_17"
  top: "W_xc_x_18"
  top: "W_xc_x_19"
  top: "W_xc_x_20"
  top: "W_xc_x_21"
  top: "W_xc_x_22"
  top: "W_xc_x_23"
  top: "W_xc_x_24"
  slice_param {
    axis: 0
  }
}
layer {
  name: "lstm1_h_conted_0"
  type: "Scale"
  bottom: "h_0"
  bottom: "cont_1"
  top: "h_conted_0"
  scale_param {
    axis: 0
  }
}
layer {
  name: "lstm1_transform_1"
  type: "InnerProduct"
  bottom: "h_conted_0"
  top: "W_hc_h_0"
  param {
    name: "W_hc"
  }
  inner_product_param {
    num_output: 64
    bias_term: false
    weight_filler {
      type: "xavier"
    }
    axis: 2
  }
}
layer {
  name: "lstm1_gate_input_1"
  type: "Eltwise"
  bottom: "W_hc_h_0"
  bottom: "W_xc_x_1"
  top: "gate_input_1"
  eltwise_param {
    operation: SUM
  }
}
layer {
  name: "lstm1_unit_1"
  type: "LSTMUnit"
  bottom: "c_0"
  bottom: "gate_input_1"
  bottom: "cont_1"
  top: "c_1"
  top: "h_1"
}
layer {
  name: "lstm1_h_conted_1"
  type: "Scale"
  bottom: "h_1"
  bottom: "cont_2"
  top: "h_conted_1"
  scale_param {
    axis: 0
  }
}
layer {
  name: "lstm1_transform_2"
  type: "InnerProduct"
  bottom: "h_conted_1"
  top: "W_hc_h_1"
  param {
    name: "W_hc"
  }
  inner_product_param {
    num_output: 64
    bias_term: false
    weight_filler {
      type: "xavier"
    }
    axis: 2
  }
}
layer {
  name: "lstm1_gate_input_2"
  type: "Eltwise"
  bottom: "W_hc_h_1"
  bottom: "W_xc_x_2"
  top: "gate_input_2"
  eltwise_param {
    operation: SUM
  }
}
layer {
  name: "lstm1_unit_2"
  type: "LSTMUnit"
  bottom: "c_1"
  bottom: "gate_input_2"
  bottom: "cont_2"
  top: "c_2"
  top: "h_2"
}
layer {
  name: "lstm1_h_conted_2"
  type: "Scale"
  bottom: "h_2"
  bottom: "cont_3"
  top: "h_conted_2"
  scale_param {
    axis: 0
  }
}
layer {
  name: "lstm1_transform_3"
  type: "InnerProduct"
  bottom: "h_conted_2"
  top: "W_hc_h_2"
  param {
    name: "W_hc"
  }
  inner_product_param {
    num_output: 64
    bias_term: false
    weight_filler {
      type: "xavier"
    }
    axis: 2
  }
}
layer {
  name: "lstm1_gate_input_3"
  type: "Eltwise"
  bottom: "W_hc_h_2"
  bottom: "W_xc_x_3"
  top: "gate_input_3"
  eltwise_param {
    operation: SUM
  }
}
layer {
  name: "lstm1_unit_3"
  type: "LSTMUnit"
  bottom: "c_2"
  bottom: "gate_input_3"
  bottom: "cont_3"
  top: "c_3"
  top: "h_3"
}
layer {
  name: "lstm1_h_conted_3"
  type: "Scale"
  bottom: "h_3"
  bottom: "cont_4"
  top: "h_conted_3"
  scale_param {
    axis: 0
  }
}
layer {
  name: "lstm1_transform_4"
  type: "InnerProduct"
  bottom: "h_conted_3"
  top: "W_hc_h_3"
  param {
    name: "W_hc"
  }
  inner_product_param {
    num_output: 64
    bias_term: false
    weight_filler {
      type: "xavier"
    }
    axis: 2
  }
}
layer {
  name: "lstm1_gate_input_4"
  type: "Eltwise"
  bottom: "W_hc_h_3"
  bottom: "W_xc_x_4"
  top: "gate_input_4"
  eltwise_param {
    operation: SUM
  }
}
layer {
  name: "lstm1_unit_4"
  type: "LSTMUnit"
  bottom: "c_3"
  bottom: "gate_input_4"
  bottom: "cont_4"
  top: "c_4"
  top: "h_4"
}
layer {
  name: "lstm1_h_conted_4"
  type: "Scale"
  bottom: "h_4"
  bottom: "cont_5"
  top: "h_conted_4"
  scale_param {
    axis: 0
  }
}
layer {
  name: "lstm1_transform_5"
  type: "InnerProduct"
  bottom: "h_conted_4"
  top: "W_hc_h_4"
  param {
    name: "W_hc"
  }
  inner_product_param {
    num_output: 64
    bias_term: false
    weight_filler {
      type: "xavier"
    }
    axis: 2
  }
}
layer {
  name: "lstm1_gate_input_5"
  type: "Eltwise"
  bottom: "W_hc_h_4"
  bottom: "W_xc_x_5"
  top: "gate_input_5"
  eltwise_param {
    operation: SUM
  }
}
layer {
  name: "lstm1_unit_5"
  type: "LSTMUnit"
  bottom: "c_4"
  bottom: "gate_input_5"
  bottom: "cont_5"
  top: "c_5"
  top: "h_5"
}
layer {
  name: "lstm1_h_conted_5"
  type: "Scale"
  bottom: "h_5"
  bottom: "cont_6"
  top: "h_conted_5"
  scale_param {
    axis: 0
  }
}
layer {
  name: "lstm1_transform_6"
  type: "InnerProduct"
  bottom: "h_conted_5"
  top: "W_hc_h_5"
  param {
    name: "W_hc"
  }
  inner_product_param {
    num_output: 64
    bias_term: false
    weight_filler {
      type: "xavier"
    }
    axis: 2
  }
}
layer {
  name: "lstm1_gate_input_6"
  type: "Eltwise"
  bottom: "W_hc_h_5"
  bottom: "W_xc_x_6"
  top: "gate_input_6"
  eltwise_param {
    operation: SUM
  }
}
layer {
  name: "lstm1_unit_6"
  type: "LSTMUnit"
  bottom: "c_5"
  bottom: "gate_input_6"
  bottom: "cont_6"
  top: "c_6"
  top: "h_6"
}
layer {
  name: "lstm1_h_conted_6"
  type: "Scale"
  bottom: "h_6"
  bottom: "cont_7"
  top: "h_conted_6"
  scale_param {
    axis: 0
  }
}
layer {
  name: "lstm1_transform_7"
  type: "InnerProduct"
  bottom: "h_conted_6"
  top: "W_hc_h_6"
  param {
    name: "W_hc"
  }
  inner_product_param {
    num_output: 64
    bias_term: false
    weight_filler {
      type: "xavier"
    }
    axis: 2
  }
}
layer {
  name: "lstm1_gate_input_7"
  type: "Eltwise"
  bottom: "W_hc_h_6"
  bottom: "W_xc_x_7"
  top: "gate_input_7"
  eltwise_param {
    operation: SUM
  }
}
layer {
  name: "lstm1_unit_7"
  type: "LSTMUnit"
  bottom: "c_6"
  bottom: "gate_input_7"
  bottom: "cont_7"
  top: "c_7"
  top: "h_7"
}
layer {
  name: "lstm1_h_conted_7"
  type: "Scale"
  bottom: "h_7"
  bottom: "cont_8"
  top: "h_conted_7"
  scale_param {
    axis: 0
  }
}
layer {
  name: "lstm1_transform_8"
  type: "InnerProduct"
  bottom: "h_conted_7"
  top: "W_hc_h_7"
  param {
    name: "W_hc"
  }
  inner_product_param {
    num_output: 64
    bias_term: false
    weight_filler {
      type: "xavier"
    }
    axis: 2
  }
}
layer {
  name: "lstm1_gate_input_8"
  type: "Eltwise"
  bottom: "W_hc_h_7"
  bottom: "W_xc_x_8"
  top: "gate_input_8"
  eltwise_param {
    operation: SUM
  }
}
layer {
  name: "lstm1_unit_8"
  type: "LSTMUnit"
  bottom: "c_7"
  bottom: "gate_input_8"
  bottom: "cont_8"
  top: "c_8"
  top: "h_8"
}
layer {
  name: "lstm1_h_conted_8"
  type: "Scale"
  bottom: "h_8"
  bottom: "cont_9"
  top: "h_conted_8"
  scale_param {
    axis: 0
  }
}
layer {
  name: "lstm1_transform_9"
  type: "InnerProduct"
  bottom: "h_conted_8"
  top: "W_hc_h_8"
  param {
    name: "W_hc"
  }
  inner_product_param {
    num_output: 64
    bias_term: false
    weight_filler {
      type: "xavier"
    }
    axis: 2
  }
}
layer {
  name: "lstm1_gate_input_9"
  type: "Eltwise"
  bottom: "W_hc_h_8"
  bottom: "W_xc_x_9"
  top: "gate_input_9"
  eltwise_param {
    operation: SUM
  }
}
layer {
  name: "lstm1_unit_9"
  type: "LSTMUnit"
  bottom: "c_8"
  bottom: "gate_input_9"
  bottom: "cont_9"
  top: "c_9"
  top: "h_9"
}
layer {
  name: "lstm1_h_conted_9"
  type: "Scale"
  bottom: "h_9"
  bottom: "cont_10"
  top: "h_conted_9"
  scale_param {
    axis: 0
  }
}
layer {
  name: "lstm1_transform_10"
  type: "InnerProduct"
  bottom: "h_conted_9"
  top: "W_hc_h_9"
  param {
    name: "W_hc"
  }
  inner_product_param {
    num_output: 64
    bias_term: false
    weight_filler {
      type: "xavier"
    }
    axis: 2
  }
}
layer {
  name: "lstm1_gate_input_10"
  type: "Eltwise"
  bottom: "W_hc_h_9"
  bottom: "W_xc_x_10"
  top: "gate_input_10"
  eltwise_param {
    operation: SUM
  }
}
layer {
  name: "lstm1_unit_10"
  type: "LSTMUnit"
  bottom: "c_9"
  bottom: "gate_input_10"
  bottom: "cont_10"
  top: "c_10"
  top: "h_10"
}
layer {
  name: "lstm1_h_conted_10"
  type: "Scale"
  bottom: "h_10"
  bottom: "cont_11"
  top: "h_conted_10"
  scale_param {
    axis: 0
  }
}
layer {
  name: "lstm1_transform_11"
  type: "InnerProduct"
  bottom: "h_conted_10"
  top: "W_hc_h_10"
  param {
    name: "W_hc"
  }
  inner_product_param {
    num_output: 64
    bias_term: false
    weight_filler {
      type: "xavier"
    }
    axis: 2
  }
}
layer {
  name: "lstm1_gate_input_11"
  type: "Eltwise"
  bottom: "W_hc_h_10"
  bottom: "W_xc_x_11"
  top: "gate_input_11"
  eltwise_param {
    operation: SUM
  }
}
layer {
  name: "lstm1_unit_11"
  type: "LSTMUnit"
  bottom: "c_10"
  bottom: "gate_input_11"
  bottom: "cont_11"
  top: "c_11"
  top: "h_11"
}
layer {
  name: "lstm1_h_conted_11"
  type: "Scale"
  bottom: "h_11"
  bottom: "cont_12"
  top: "h_conted_11"
  scale_param {
    axis: 0
  }
}
layer {
  name: "lstm1_transform_12"
  type: "InnerProduct"
  bottom: "h_conted_11"
  top: "W_hc_h_11"
  param {
    name: "W_hc"
  }
  inner_product_param {
    num_output: 64
    bias_term: false
    weight_filler {
      type: "xavier"
    }
    axis: 2
  }
}
layer {
  name: "lstm1_gate_input_12"
  type: "Eltwise"
  bottom: "W_hc_h_11"
  bottom: "W_xc_x_12"
  top: "gate_input_12"
  eltwise_param {
    operation: SUM
  }
}
layer {
  name: "lstm1_unit_12"
  type: "LSTMUnit"
  bottom: "c_11"
  bottom: "gate_input_12"
  bottom: "cont_12"
  top: "c_12"
  top: "h_12"
}
layer {
  name: "lstm1_h_conted_12"
  type: "Scale"
  bottom: "h_12"
  bottom: "cont_13"
  top: "h_conted_12"
  scale_param {
    axis: 0
  }
}
layer {
  name: "lstm1_transform_13"
  type: "InnerProduct"
  bottom: "h_conted_12"
  top: "W_hc_h_12"
  param {
    name: "W_hc"
  }
  inner_product_param {
    num_output: 64
    bias_term: false
    weight_filler {
      type: "xavier"
    }
    axis: 2
  }
}
layer {
  name: "lstm1_gate_input_13"
  type: "Eltwise"
  bottom: "W_hc_h_12"
  bottom: "W_xc_x_13"
  top: "gate_input_13"
  eltwise_param {
    operation: SUM
  }
}
layer {
  name: "lstm1_unit_13"
  type: "LSTMUnit"
  bottom: "c_12"
  bottom: "gate_input_13"
  bottom: "cont_13"
  top: "c_13"
  top: "h_13"
}
layer {
  name: "lstm1_h_conted_13"
  type: "Scale"
  bottom: "h_13"
  bottom: "cont_14"
  top: "h_conted_13"
  scale_param {
    axis: 0
  }
}
layer {
  name: "lstm1_transform_14"
  type: "InnerProduct"
  bottom: "h_conted_13"
  top: "W_hc_h_13"
  param {
    name: "W_hc"
  }
  inner_product_param {
    num_output: 64
    bias_term: false
    weight_filler {
      type: "xavier"
    }
    axis: 2
  }
}
layer {
  name: "lstm1_gate_input_14"
  type: "Eltwise"
  bottom: "W_hc_h_13"
  bottom: "W_xc_x_14"
  top: "gate_input_14"
  eltwise_param {
    operation: SUM
  }
}
layer {
  name: "lstm1_unit_14"
  type: "LSTMUnit"
  bottom: "c_13"
  bottom: "gate_input_14"
  bottom: "cont_14"
  top: "c_14"
  top: "h_14"
}
layer {
  name: "lstm1_h_conted_14"
  type: "Scale"
  bottom: "h_14"
  bottom: "cont_15"
  top: "h_conted_14"
  scale_param {
    axis: 0
  }
}
layer {
  name: "lstm1_transform_15"
  type: "InnerProduct"
  bottom: "h_conted_14"
  top: "W_hc_h_14"
  param {
    name: "W_hc"
  }
  inner_product_param {
    num_output: 64
    bias_term: false
    weight_filler {
      type: "xavier"
    }
    axis: 2
  }
}
layer {
  name: "lstm1_gate_input_15"
  type: "Eltwise"
  bottom: "W_hc_h_14"
  bottom: "W_xc_x_15"
  top: "gate_input_15"
  eltwise_param {
    operation: SUM
  }
}
layer {
  name: "lstm1_unit_15"
  type: "LSTMUnit"
  bottom: "c_14"
  bottom: "gate_input_15"
  bottom: "cont_15"
  top: "c_15"
  top: "h_15"
}
layer {
  name: "lstm1_h_conted_15"
  type: "Scale"
  bottom: "h_15"
  bottom: "cont_16"
  top: "h_conted_15"
  scale_param {
    axis: 0
  }
}
layer {
  name: "lstm1_transform_16"
  type: "InnerProduct"
  bottom: "h_conted_15"
  top: "W_hc_h_15"
  param {
    name: "W_hc"
  }
  inner_product_param {
    num_output: 64
    bias_term: false
    weight_filler {
      type: "xavier"
    }
    axis: 2
  }
}
layer {
  name: "lstm1_gate_input_16"
  type: "Eltwise"
  bottom: "W_hc_h_15"
  bottom: "W_xc_x_16"
  top: "gate_input_16"
  eltwise_param {
    operation: SUM
  }
}
layer {
  name: "lstm1_unit_16"
  type: "LSTMUnit"
  bottom: "c_15"
  bottom: "gate_input_16"
  bottom: "cont_16"
  top: "c_16"
  top: "h_16"
}
layer {
  name: "lstm1_h_conted_16"
  type: "Scale"
  bottom: "h_16"
  bottom: "cont_17"
  top: "h_conted_16"
  scale_param {
    axis: 0
  }
}
layer {
  name: "lstm1_transform_17"
  type: "InnerProduct"
  bottom: "h_conted_16"
  top: "W_hc_h_16"
  param {
    name: "W_hc"
  }
  inner_product_param {
    num_output: 64
    bias_term: false
    weight_filler {
      type: "xavier"
    }
    axis: 2
  }
}
layer {
  name: "lstm1_gate_input_17"
  type: "Eltwise"
  bottom: "W_hc_h_16"
  bottom: "W_xc_x_17"
  top: "gate_input_17"
  eltwise_param {
    operation: SUM
  }
}
layer {
  name: "lstm1_unit_17"
  type: "LSTMUnit"
  bottom: "c_16"
  bottom: "gate_input_17"
  bottom: "cont_17"
  top: "c_17"
  top: "h_17"
}
layer {
  name: "lstm1_h_conted_17"
  type: "Scale"
  bottom: "h_17"
  bottom: "cont_18"
  top: "h_conted_17"
  scale_param {
    axis: 0
  }
}
layer {
  name: "lstm1_transform_18"
  type: "InnerProduct"
  bottom: "h_conted_17"
  top: "W_hc_h_17"
  param {
    name: "W_hc"
  }
  inner_product_param {
    num_output: 64
    bias_term: false
    weight_filler {
      type: "xavier"
    }
    axis: 2
  }
}
layer {
  name: "lstm1_gate_input_18"
  type: "Eltwise"
  bottom: "W_hc_h_17"
  bottom: "W_xc_x_18"
  top: "gate_input_18"
  eltwise_param {
    operation: SUM
  }
}
layer {
  name: "lstm1_unit_18"
  type: "LSTMUnit"
  bottom: "c_17"
  bottom: "gate_input_18"
  bottom: "cont_18"
  top: "c_18"
  top: "h_18"
}
layer {
  name: "lstm1_h_conted_18"
  type: "Scale"
  bottom: "h_18"
  bottom: "cont_19"
  top: "h_conted_18"
  scale_param {
    axis: 0
  }
}
layer {
  name: "lstm1_transform_19"
  type: "InnerProduct"
  bottom: "h_conted_18"
  top: "W_hc_h_18"
  param {
    name: "W_hc"
  }
  inner_product_param {
    num_output: 64
    bias_term: false
    weight_filler {
      type: "xavier"
    }
    axis: 2
  }
}
layer {
  name: "lstm1_gate_input_19"
  type: "Eltwise"
  bottom: "W_hc_h_18"
  bottom: "W_xc_x_19"
  top: "gate_input_19"
  eltwise_param {
    operation: SUM
  }
}
layer {
  name: "lstm1_unit_19"
  type: "LSTMUnit"
  bottom: "c_18"
  bottom: "gate_input_19"
  bottom: "cont_19"
  top: "c_19"
  top: "h_19"
}
layer {
  name: "lstm1_h_conted_19"
  type: "Scale"
  bottom: "h_19"
  bottom: "cont_20"
  top: "h_conted_19"
  scale_param {
    axis: 0
  }
}
layer {
  name: "lstm1_transform_20"
  type: "InnerProduct"
  bottom: "h_conted_19"
  top: "W_hc_h_19"
  param {
    name: "W_hc"
  }
  inner_product_param {
    num_output: 64
    bias_term: false
    weight_filler {
      type: "xavier"
    }
    axis: 2
  }
}
layer {
  name: "lstm1_gate_input_20"
  type: "Eltwise"
  bottom: "W_hc_h_19"
  bottom: "W_xc_x_20"
  top: "gate_input_20"
  eltwise_param {
    operation: SUM
  }
}
layer {
  name: "lstm1_unit_20"
  type: "LSTMUnit"
  bottom: "c_19"
  bottom: "gate_input_20"
  bottom: "cont_20"
  top: "c_20"
  top: "h_20"
}
layer {
  name: "lstm1_h_conted_20"
  type: "Scale"
  bottom: "h_20"
  bottom: "cont_21"
  top: "h_conted_20"
  scale_param {
    axis: 0
  }
}
layer {
  name: "lstm1_transform_21"
  type: "InnerProduct"
  bottom: "h_conted_20"
  top: "W_hc_h_20"
  param {
    name: "W_hc"
  }
  inner_product_param {
    num_output: 64
    bias_term: false
    weight_filler {
      type: "xavier"
    }
    axis: 2
  }
}
layer {
  name: "lstm1_gate_input_21"
  type: "Eltwise"
  bottom: "W_hc_h_20"
  bottom: "W_xc_x_21"
  top: "gate_input_21"
  eltwise_param {
    operation: SUM
  }
}
layer {
  name: "lstm1_unit_21"
  type: "LSTMUnit"
  bottom: "c_20"
  bottom: "gate_input_21"
  bottom: "cont_21"
  top: "c_21"
  top: "h_21"
}
layer {
  name: "lstm1_h_conted_21"
  type: "Scale"
  bottom: "h_21"
  bottom: "cont_22"
  top: "h_conted_21"
  scale_param {
    axis: 0
  }
}
layer {
  name: "lstm1_transform_22"
  type: "InnerProduct"
  bottom: "h_conted_21"
  top: "W_hc_h_21"
  param {
    name: "W_hc"
  }
  inner_product_param {
    num_output: 64
    bias_term: false
    weight_filler {
      type: "xavier"
    }
    axis: 2
  }
}
layer {
  name: "lstm1_gate_input_22"
  type: "Eltwise"
  bottom: "W_hc_h_21"
  bottom: "W_xc_x_22"
  top: "gate_input_22"
  eltwise_param {
    operation: SUM
  }
}
layer {
  name: "lstm1_unit_22"
  type: "LSTMUnit"
  bottom: "c_21"
  bottom: "gate_input_22"
  bottom: "cont_22"
  top: "c_22"
  top: "h_22"
}
layer {
  name: "lstm1_h_conted_22"
  type: "Scale"
  bottom: "h_22"
  bottom: "cont_23"
  top: "h_conted_22"
  scale_param {
    axis: 0
  }
}
layer {
  name: "lstm1_transform_23"
  type: "InnerProduct"
  bottom: "h_conted_22"
  top: "W_hc_h_22"
  param {
    name: "W_hc"
  }
  inner_product_param {
    num_output: 64
    bias_term: false
    weight_filler {
      type: "xavier"
    }
    axis: 2
  }
}
layer {
  name: "lstm1_gate_input_23"
  type: "Eltwise"
  bottom: "W_hc_h_22"
  bottom: "W_xc_x_23"
  top: "gate_input_23"
  eltwise_param {
    operation: SUM
  }
}
layer {
  name: "lstm1_unit_23"
  type: "LSTMUnit"
  bottom: "c_22"
  bottom: "gate_input_23"
  bottom: "cont_23"
  top: "c_23"
  top: "h_23"
}
layer {
  name: "lstm1_h_conted_23"
  type: "Scale"
  bottom: "h_23"
  bottom: "cont_24"
  top: "h_conted_23"
  scale_param {
    axis: 0
  }
}
layer {
  name: "lstm1_transform_24"
  type: "InnerProduct"
  bottom: "h_conted_23"
  top: "W_hc_h_23"
  param {
    name: "W_hc"
  }
  inner_product_param {
    num_output: 64
    bias_term: false
    weight_filler {
      type: "xavier"
    }
    axis: 2
  }
}
layer {
  name: "lstm1_gate_input_24"
  type: "Eltwise"
  bottom: "W_hc_h_23"
  bottom: "W_xc_x_24"
  top: "gate_input_24"
  eltwise_param {
    operation: SUM
  }
}
layer {
  name: "lstm1_unit_24"
  type: "LSTMUnit"
  bottom: "c_23"
  bottom: "gate_input_24"
  bottom: "cont_24"
  top: "c_24"
  top: "h_24"
}
layer {
  name: "lstm1_"
  type: "Split"
  bottom: "c_24"
  top: "c_T"
}
layer {
  name: "lstm1_h_concat"
  type: "Concat"
  bottom: "h_1"
  bottom: "h_2"
  bottom: "h_3"
  bottom: "h_4"
  bottom: "h_5"
  bottom: "h_6"
  bottom: "h_7"
  bottom: "h_8"
  bottom: "h_9"
  bottom: "h_10"
  bottom: "h_11"
  bottom: "h_12"
  bottom: "h_13"
  bottom: "h_14"
  bottom: "h_15"
  bottom: "h_16"
  bottom: "h_17"
  bottom: "h_18"
  bottom: "h_19"
  bottom: "h_20"
  bottom: "h_21"
  bottom: "h_22"
  bottom: "h_23"
  bottom: "h_24"
  top: "h"
  concat_param {
    axis: 0
  }
}
layer {
  name: "h_pseudoloss"
  type: "Reduction"
  bottom: "h"
  top: "h_pseudoloss"
  loss_weight: 1
}
I0222 17:40:10.243489 24879 layer_factory.hpp:77] Creating layer lstm1_
I0222 17:40:10.243499 24879 net.cpp:84] Creating Layer lstm1_
I0222 17:40:10.243504 24879 net.cpp:380] lstm1_ -> x
I0222 17:40:10.243510 24879 net.cpp:380] lstm1_ -> cont
I0222 17:40:10.243535 24879 net.cpp:122] Setting up lstm1_
I0222 17:40:10.243541 24879 net.cpp:129] Top shape: 24 26 1 1 (624)
I0222 17:40:10.243546 24879 net.cpp:129] Top shape: 24 26 (624)
I0222 17:40:10.243548 24879 net.cpp:137] Memory required for data: 4992
I0222 17:40:10.243551 24879 layer_factory.hpp:77] Creating layer lstm1_
I0222 17:40:10.243563 24879 net.cpp:84] Creating Layer lstm1_
I0222 17:40:10.243567 24879 net.cpp:380] lstm1_ -> c_0
I0222 17:40:10.243572 24879 net.cpp:380] lstm1_ -> h_0
I0222 17:40:10.243592 24879 net.cpp:122] Setting up lstm1_
I0222 17:40:10.243597 24879 net.cpp:129] Top shape: 1 26 16 (416)
I0222 17:40:10.243599 24879 net.cpp:129] Top shape: 1 26 16 (416)
I0222 17:40:10.243602 24879 net.cpp:137] Memory required for data: 8320
I0222 17:40:10.243605 24879 layer_factory.hpp:77] Creating layer lstm1_cont_slice
I0222 17:40:10.243630 24879 net.cpp:84] Creating Layer lstm1_cont_slice
I0222 17:40:10.243634 24879 net.cpp:406] lstm1_cont_slice <- cont
I0222 17:40:10.243639 24879 net.cpp:380] lstm1_cont_slice -> cont_1
I0222 17:40:10.243645 24879 net.cpp:380] lstm1_cont_slice -> cont_2
…
I0222 17:40:10.244969 24879 net.cpp:380] lstm1_cont_slice -> cont_17
I0222 17:40:10.244976 24879 net.cpp:380] lstm1_cont_slice -> cont_18
I0222 17:40:10.244982 24879 net.cpp:380] lstm1_cont_slice -> cont_19
I0222 17:40:10.244987 24879 net.cpp:380] lstm1_cont_slice -> cont_20
I0222 17:40:10.244992 24879 net.cpp:380] lstm1_cont_slice -> cont_21
I0222 17:40:10.244997 24879 net.cpp:380] lstm1_cont_slice -> cont_22
I0222 17:40:10.245002 24879 net.cpp:380] lstm1_cont_slice -> cont_23
I0222 17:40:10.245008 24879 net.cpp:380] lstm1_cont_slice -> cont_24
I0222 17:40:10.245149 24879 net.cpp:122] Setting up lstm1_cont_slice
I0222 17:40:10.245156 24879 net.cpp:129] Top shape: 1 26 (26)
I0222 17:40:10.245159 24879 net.cpp:129] Top shape: 1 26 (26)
I0222 17:40:10.245162 24879 net.cpp:129] Top shape: 1 26 (26)
I0222 17:40:10.245167 24879 net.cpp:129] Top shape: 1 26 (26)
I0222 17:40:10.245169 24879 net.cpp:129] Top shape: 1 26 (26)
I0222 17:40:10.245173 24879 net.cpp:129] Top shape: 1 26 (26)
I0222 17:40:10.245177 24879 net.cpp:129] Top shape: 1 26 (26)
I0222 17:40:10.245179 24879 net.cpp:129] Top shape: 1 26 (26)
I0222 17:40:10.245183 24879 net.cpp:129] Top shape: 1 26 (26)
I0222 17:40:10.245187 24879 net.cpp:129] Top shape: 1 26 (26)
I0222 17:40:10.245189 24879 net.cpp:129] Top shape: 1 26 (26)
I0222 17:40:10.245193 24879 net.cpp:129] Top shape: 1 26 (26)
I0222 17:40:10.245196 24879 net.cpp:129] Top shape: 1 26 (26)
I0222 17:40:10.245199 24879 net.cpp:129] Top shape: 1 26 (26)
I0222 17:40:10.245203 24879 net.cpp:129] Top shape: 1 26 (26)
I0222 17:40:10.245206 24879 net.cpp:129] Top shape: 1 26 (26)
I0222 17:40:10.245209 24879 net.cpp:129] Top shape: 1 26 (26)
I0222 17:40:10.245213 24879 net.cpp:129] Top shape: 1 26 (26)
I0222 17:40:10.245215 24879 net.cpp:129] Top shape: 1 26 (26)
I0222 17:40:10.245219 24879 net.cpp:129] Top shape: 1 26 (26)
I0222 17:40:10.245223 24879 net.cpp:129] Top shape: 1 26 (26)
I0222 17:40:10.245225 24879 net.cpp:129] Top shape: 1 26 (26)
I0222 17:40:10.245229 24879 net.cpp:129] Top shape: 1 26 (26)
I0222 17:40:10.245231 24879 net.cpp:129] Top shape: 1 26 (26)
I0222 17:40:10.245234 24879 net.cpp:137] Memory required for data: 10816
I0222 17:40:10.245237 24879 layer_factory.hpp:77] Creating layer cont_1_lstm1_cont_slice_0_split
I0222 17:40:10.245245 24879 net.cpp:84] Creating Layer cont_1_lstm1_cont_slice_0_split
I0222 17:40:10.245255 24879 net.cpp:406] cont_1_lstm1_cont_slice_0_split <- cont_1
I0222 17:40:10.245261 24879 net.cpp:380] cont_1_lstm1_cont_slice_0_split -> cont_1_lstm1_cont_slice_0_split_0
I0222 17:40:10.245266 24879 net.cpp:380] cont_1_lstm1_cont_slice_0_split -> cont_1_lstm1_cont_slice_0_split_1
I0222 17:40:10.245288 24879 net.cpp:122] Setting up cont_1_lstm1_cont_slice_0_split
I0222 17:40:10.245293 24879 net.cpp:129] Top shape: 1 26 (26)
I0222 17:40:10.245296 24879 net.cpp:129] Top shape: 1 26 (26)
I0222 17:40:10.245299 24879 net.cpp:137] Memory required for data: 11024
I0222 17:40:10.245302 24879 layer_factory.hpp:77] Creating layer cont_2_lstm1_cont_slice_1_split
I0222 17:40:10.245307 24879 net.cpp:84] Creating Layer cont_2_lstm1_cont_slice_1_split
I0222 17:40:10.245311 24879 net.cpp:406] cont_2_lstm1_cont_slice_1_split <- cont_2
I0222 17:40:10.245316 24879 net.cpp:380] cont_2_lstm1_cont_slice_1_split -> cont_2_lstm1_cont_slice_1_split_0
I0222 17:40:10.245321 24879 net.cpp:380] cont_2_lstm1_cont_slice_1_split -> cont_2_lstm1_cont_slice_1_split_1
I0222 17:40:10.245337 24879 net.cpp:122] Setting up cont_2_lstm1_cont_slice_1_split
I0222 17:40:10.245342 24879 net.cpp:129] Top shape: 1 26 (26)
I0222 17:40:10.245347 24879 net.cpp:129] Top shape: 1 26 (26)
I0222 17:40:10.245348 24879 net.cpp:137] Memory required for data: 11232
I0222 17:40:10.245352 24879 layer_factory.hpp:77] Creating layer cont_3_lstm1_cont_slice_2_split
I0222 17:40:10.245367 24879 net.cpp:84] Creating Layer cont_3_lstm1_cont_slice_2_split
I0222 17:40:10.245384 24879 net.cpp:406] cont_3_lstm1_cont_slice_2_split <- cont_3
I0222 17:40:10.245388 24879 net.cpp:380] cont_3_lstm1_cont_slice_2_split -> cont_3_lstm1_cont_slice_2_split_0
I0222 17:40:10.245396 24879 net.cpp:380] cont_3_lstm1_cont_slice_2_split -> cont_3_lstm1_cont_slice_2_split_1
I0222 17:40:10.245427 24879 net.cpp:122] Setting up cont_3_lstm1_cont_slice_2_split
I0222 17:40:10.245432 24879 net.cpp:129] Top shape: 1 26 (26)
I0222 17:40:10.245435 24879 net.cpp:129] Top shape: 1 26 (26)
I0222 17:40:10.245438 24879 net.cpp:137] Memory required for data: 11440
I0222 17:40:10.245441 24879 layer_factory.hpp:77] Creating layer cont_4_lstm1_cont_slice_3_split
I0222 17:40:10.245446 24879 net.cpp:84] Creating Layer cont_4_lstm1_cont_slice_3_split
I0222 17:40:10.245450 24879 net.cpp:406] cont_4_lstm1_cont_slice_3_split <- cont_4
I0222 17:40:10.245453 24879 net.cpp:380] cont_4_lstm1_cont_slice_3_split -> cont_4_lstm1_cont_slice_3_split_0
I0222 17:40:10.245458 24879 net.cpp:380] cont_4_lstm1_cont_slice_3_split -> cont_4_lstm1_cont_slice_3_split_1
I0222 17:40:10.245476 24879 net.cpp:122] Setting up cont_4_lstm1_cont_slice_3_split
I0222 17:40:10.245481 24879 net.cpp:129] Top shape: 1 26 (26)
I0222 17:40:10.245483 24879 net.cpp:129] Top shape: 1 26 (26)
I0222 17:40:10.245486 24879 net.cpp:137] Memory required for data: 11648
I0222 17:40:10.245489 24879 layer_factory.hpp:77] Creating layer cont_5_lstm1_cont_slice_4_split
I0222 17:40:10.245493 24879 net.cpp:84] Creating Layer cont_5_lstm1_cont_slice_4_split
I0222 17:40:10.245496 24879 net.cpp:406] cont_5_lstm1_cont_slice_4_split <- cont_5
I0222 17:40:10.245501 24879 net.cpp:380] cont_5_lstm1_cont_slice_4_split -> cont_5_lstm1_cont_slice_4_split_0
I0222 17:40:10.245506 24879 net.cpp:380] cont_5_lstm1_cont_slice_4_split -> cont_5_lstm1_cont_slice_4_split_1
I0222 17:40:10.245524 24879 net.cpp:122] Setting up cont_5_lstm1_cont_slice_4_split
I0222 17:40:10.245528 24879 net.cpp:129] Top shape: 1 26 (26)
I0222 17:40:10.245532 24879 net.cpp:129] Top shape: 1 26 (26)
I0222 17:40:10.245534 24879 net.cpp:137] Memory required for data: 11856
I0222 17:40:10.245537 24879 layer_factory.hpp:77] Creating layer cont_6_lstm1_cont_slice_5_split
I0222 17:40:10.245543 24879 net.cpp:84] Creating Layer cont_6_lstm1_cont_slice_5_split
I0222 17:40:10.245545 24879 net.cpp:406] cont_6_lstm1_cont_slice_5_split <- cont_6
I0222 17:40:10.245549 24879 net.cpp:380] cont_6_lstm1_cont_slice_5_split -> cont_6_lstm1_cont_slice_5_split_0
I0222 17:40:10.245554 24879 net.cpp:380] cont_6_lstm1_cont_slice_5_split -> cont_6_lstm1_cont_slice_5_split_1
I0222 17:40:10.245575 24879 net.cpp:122] Setting up cont_6_lstm1_cont_slice_5_split
I0222 17:40:10.245580 24879 net.cpp:129] Top shape: 1 26 (26)
I0222 17:40:10.245584 24879 net.cpp:129] Top shape: 1 26 (26)
I0222 17:40:10.245586 24879 net.cpp:137] Memory required for data: 12064
I0222 17:40:10.245589 24879 layer_factory.hpp:77] Creating layer cont_7_lstm1_cont_slice_6_split
I0222 17:40:10.245594 24879 net.cpp:84] Creating Layer cont_7_lstm1_cont_slice_6_split
I0222 17:40:10.245596 24879 net.cpp:406] cont_7_lstm1_cont_slice_6_split <- cont_7
I0222 17:40:10.245600 24879 net.cpp:380] cont_7_lstm1_cont_slice_6_split -> cont_7_lstm1_cont_slice_6_split_0
I0222 17:40:10.245605 24879 net.cpp:380] cont_7_lstm1_cont_slice_6_split -> cont_7_lstm1_cont_slice_6_split_1
I0222 17:40:10.245620 24879 net.cpp:122] Setting up cont_7_lstm1_cont_slice_6_split
I0222 17:40:10.245625 24879 net.cpp:129] Top shape: 1 26 (26)
I0222 17:40:10.245628 24879 net.cpp:129] Top shape: 1 26 (26)
I0222 17:40:10.275122 24879 net.cpp:137] Memory required for data: 12272
I0222 17:40:10.275131 24879 layer_factory.hpp:77] Creating layer cont_8_lstm1_cont_slice_7_split
I0222 17:40:10.275137 24879 net.cpp:84] Creating Layer cont_8_lstm1_cont_slice_7_split
I0222 17:40:10.275141 24879 net.cpp:406] cont_8_lstm1_cont_slice_7_split <- cont_8
I0222 17:40:10.275146 24879 net.cpp:380] cont_8_lstm1_cont_slice_7_split -> cont_8_lstm1_cont_slice_7_split_0
I0222 17:40:10.275151 24879 net.cpp:380] cont_8_lstm1_cont_slice_7_split -> cont_8_lstm1_cont_slice_7_split_1
I0222 17:40:10.275185 24879 net.cpp:122] Setting up cont_8_lstm1_cont_slice_7_split
I0222 17:40:10.275192 24879 net.cpp:129] Top shape: 1 26 (26)
I0222 17:40:10.275194 24879 net.cpp:129] Top shape: 1 26 (26)
I0222 17:40:10.275197 24879 net.cpp:137] Memory required for data: 12480
I0222 17:40:10.275199 24879 layer_factory.hpp:77] Creating layer cont_9_lstm1_cont_slice_8_split
I0222 17:40:10.275202 24879 net.cpp:84] Creating Layer cont_9_lstm1_cont_slice_8_split
I0222 17:40:10.275205 24879 net.cpp:406] cont_9_lstm1_cont_slice_8_split <- cont_9
I0222 17:40:10.275208 24879 net.cpp:380] cont_9_lstm1_cont_slice_8_split -> cont_9_lstm1_cont_slice_8_split_0
I0222 17:40:10.275213 24879 net.cpp:380] cont_9_lstm1_cont_slice_8_split -> cont_9_lstm1_cont_slice_8_split_1
I0222 17:40:10.275229 24879 net.cpp:122] Setting up cont_9_lstm1_cont_slice_8_split
I0222 17:40:10.275234 24879 net.cpp:129] Top shape: 1 26 (26)
I0222 17:40:10.275238 24879 net.cpp:129] Top shape: 1 26 (26)
I0222 17:40:10.275239 24879 net.cpp:137] Memory required for data: 12688
I0222 17:40:10.275241 24879 layer_factory.hpp:77] Creating layer cont_10_lstm1_cont_slice_9_split
I0222 17:40:10.275245 24879 net.cpp:84] Creating Layer cont_10_lstm1_cont_slice_9_split
I0222 17:40:10.275249 24879 net.cpp:406] cont_10_lstm1_cont_slice_9_split <- cont_10
I0222 17:40:10.275252 24879 net.cpp:380] cont_10_lstm1_cont_slice_9_split -> cont_10_lstm1_cont_slice_9_split_0
I0222 17:40:10.275255 24879 net.cpp:380] cont_10_lstm1_cont_slice_9_split -> cont_10_lstm1_cont_slice_9_split_1
I0222 17:40:10.275274 24879 net.cpp:122] Setting up cont_10_lstm1_cont_slice_9_split
I0222 17:40:10.275279 24879 net.cpp:129] Top shape: 1 26 (26)
I0222 17:40:10.275281 24879 net.cpp:129] Top shape: 1 26 (26)
I0222 17:40:10.275283 24879 net.cpp:137] Memory required for data: 12896
I0222 17:40:10.275285 24879 layer_factory.hpp:77] Creating layer cont_11_lstm1_cont_slice_10_split
I0222 17:40:10.275288 24879 net.cpp:84] Creating Layer cont_11_lstm1_cont_slice_10_split
I0222 17:40:10.275291 24879 net.cpp:406] cont_11_lstm1_cont_slice_10_split <- cont_11
I0222 17:40:10.275295 24879 net.cpp:380] cont_11_lstm1_cont_slice_10_split -> cont_11_lstm1_cont_slice_10_split_0
I0222 17:40:10.275298 24879 net.cpp:380] cont_11_lstm1_cont_slice_10_split -> cont_11_lstm1_cont_slice_10_split_1
I0222 17:40:10.275315 24879 net.cpp:122] Setting up cont_11_lstm1_cont_slice_10_split
I0222 17:40:10.275319 24879 net.cpp:129] Top shape: 1 26 (26)
I0222 17:40:10.275331 24879 net.cpp:129] Top shape: 1 26 (26)
I0222 17:40:10.275332 24879 net.cpp:137] Memory required for data: 13104
I0222 17:40:10.275336 24879 layer_factory.hpp:77] Creating layer cont_12_lstm1_cont_slice_11_split
I0222 17:40:10.275338 24879 net.cpp:84] Creating Layer cont_12_lstm1_cont_slice_11_split
I0222 17:40:10.275341 24879 net.cpp:406] cont_12_lstm1_cont_slice_11_split <- cont_12
I0222 17:40:10.275343 24879 net.cpp:380] cont_12_lstm1_cont_slice_11_split -> cont_12_lstm1_cont_slice_11_split_0
I0222 17:40:10.275347 24879 net.cpp:380] cont_12_lstm1_cont_slice_11_split -> cont_12_lstm1_cont_slice_11_split_1
I0222 17:40:10.275364 24879 net.cpp:122] Setting up cont_12_lstm1_cont_slice_11_split
I0222 17:40:10.275369 24879 net.cpp:129] Top shape: 1 26 (26)
I0222 17:40:10.275372 24879 net.cpp:129] Top shape: 1 26 (26)
I0222 17:40:10.275375 24879 net.cpp:137] Memory required for data: 13312
I0222 17:40:10.275378 24879 layer_factory.hpp:77] Creating layer cont_13_lstm1_cont_slice_12_split
I0222 17:40:10.275382 24879 net.cpp:84] Creating Layer cont_13_lstm1_cont_slice_12_split
I0222 17:40:10.275384 24879 net.cpp:406] cont_13_lstm1_cont_slice_12_split <- cont_13
I0222 17:40:10.275389 24879 net.cpp:380] cont_13_lstm1_cont_slice_12_split -> cont_13_lstm1_cont_slice_12_split_0
I0222 17:40:10.275394 24879 net.cpp:380] cont_13_lstm1_cont_slice_12_split -> cont_13_lstm1_cont_slice_12_split_1
I0222 17:40:10.275410 24879 net.cpp:122] Setting up cont_13_lstm1_cont_slice_12_split
I0222 17:40:10.275414 24879 net.cpp:129] Top shape: 1 26 (26)
I0222 17:40:10.275418 24879 net.cpp:129] Top shape: 1 26 (26)
I0222 17:40:10.275421 24879 net.cpp:137] Memory required for data: 13520
I0222 17:40:10.275424 24879 layer_factory.hpp:77] Creating layer cont_14_lstm1_cont_slice_13_split
I0222 17:40:10.275430 24879 net.cpp:84] Creating Layer cont_14_lstm1_cont_slice_13_split
I0222 17:40:10.275434 24879 net.cpp:406] cont_14_lstm1_cont_slice_13_split <- cont_14
I0222 17:40:10.275437 24879 net.cpp:380] cont_14_lstm1_cont_slice_13_split -> cont_14_lstm1_cont_slice_13_split_0
I0222 17:40:10.275441 24879 net.cpp:380] cont_14_lstm1_cont_slice_13_split -> cont_14_lstm1_cont_slice_13_split_1
I0222 17:40:10.275458 24879 net.cpp:122] Setting up cont_14_lstm1_cont_slice_13_split
I0222 17:40:10.275462 24879 net.cpp:129] Top shape: 1 26 (26)
I0222 17:40:10.275466 24879 net.cpp:129] Top shape: 1 26 (26)
I0222 17:40:10.275470 24879 net.cpp:137] Memory required for data: 13728
I0222 17:40:10.275472 24879 layer_factory.hpp:77] Creating layer cont_15_lstm1_cont_slice_14_split
I0222 17:40:10.275475 24879 net.cpp:84] Creating Layer cont_15_lstm1_cont_slice_14_split
I0222 17:40:10.275478 24879 net.cpp:406] cont_15_lstm1_cont_slice_14_split <- cont_15
I0222 17:40:10.275482 24879 net.cpp:380] cont_15_lstm1_cont_slice_14_split -> cont_15_lstm1_cont_slice_14_split_0
I0222 17:40:10.275486 24879 net.cpp:380] cont_15_lstm1_cont_slice_14_split -> cont_15_lstm1_cont_slice_14_split_1
I0222 17:40:10.275503 24879 net.cpp:122] Setting up cont_15_lstm1_cont_slice_14_split
I0222 17:40:10.275507 24879 net.cpp:129] Top shape: 1 26 (26)
I0222 17:40:10.275511 24879 net.cpp:129] Top shape: 1 26 (26)
I0222 17:40:10.275513 24879 net.cpp:137] Memory required for data: 13936
I0222 17:40:10.275516 24879 layer_factory.hpp:77] Creating layer cont_16_lstm1_cont_slice_15_split
I0222 17:40:10.275521 24879 net.cpp:84] Creating Layer cont_16_lstm1_cont_slice_15_split
I0222 17:40:10.275523 24879 net.cpp:406] cont_16_lstm1_cont_slice_15_split <- cont_16
I0222 17:40:10.275528 24879 net.cpp:380] cont_16_lstm1_cont_slice_15_split -> cont_16_lstm1_cont_slice_15_split_0
I0222 17:40:10.275532 24879 net.cpp:380] cont_16_lstm1_cont_slice_15_split -> cont_16_lstm1_cont_slice_15_split_1
I0222 17:40:10.275552 24879 net.cpp:122] Setting up cont_16_lstm1_cont_slice_15_split
I0222 17:40:10.275557 24879 net.cpp:129] Top shape: 1 26 (26)
I0222 17:40:10.275560 24879 net.cpp:129] Top shape: 1 26 (26)
I0222 17:40:10.275563 24879 net.cpp:137] Memory required for data: 14144
I0222 17:40:10.275566 24879 layer_factory.hpp:77] Creating layer cont_17_lstm1_cont_slice_16_split
I0222 17:40:10.275573 24879 net.cpp:84] Creating Layer cont_17_lstm1_cont_slice_16_split
I0222 17:40:10.275578 24879 net.cpp:406] cont_17_lstm1_cont_slice_16_split <- cont_17
I0222 17:40:10.275581 24879 net.cpp:380] cont_17_lstm1_cont_slice_16_split -> cont_17_lstm1_cont_slice_16_split_0
I0222 17:40:10.275585 24879 net.cpp:380] cont_17_lstm1_cont_slice_16_split -> cont_17_lstm1_cont_slice_16_split_1
I0222 17:40:10.275602 24879 net.cpp:122] Setting up cont_17_lstm1_cont_slice_16_split
I0222 17:40:10.275607 24879 net.cpp:129] Top shape: 1 26 (26)
I0222 17:40:10.275610 24879 net.cpp:129] Top shape: 1 26 (26)
I0222 17:40:10.275614 24879 net.cpp:137] Memory required for data: 14352
I0222 17:40:10.279033 24879 layer_factory.hpp:77] Creating layer cont_18_lstm1_cont_slice_17_split
I0222 17:40:10.279043 24879 net.cpp:84] Creating Layer cont_18_lstm1_cont_slice_17_split
I0222 17:40:10.279048 24879 net.cpp:406] cont_18_lstm1_cont_slice_17_split <- cont_18
I0222 17:40:10.279054 24879 net.cpp:380] cont_18_lstm1_cont_slice_17_split -> cont_18_lstm1_cont_slice_17_split_0
I0222 17:40:10.279062 24879 net.cpp:380] cont_18_lstm1_cont_slice_17_split -> cont_18_lstm1_cont_slice_17_split_1
I0222 17:40:10.279089 24879 net.cpp:122] Setting up cont_18_lstm1_cont_slice_17_split
I0222 17:40:10.279096 24879 net.cpp:129] Top shape: 1 26 (26)
I0222 17:40:10.279101 24879 net.cpp:129] Top shape: 1 26 (26)
I0222 17:40:10.279104 24879 net.cpp:137] Memory required for data: 14560
I0222 17:40:10.279109 24879 layer_factory.hpp:77] Creating layer cont_19_lstm1_cont_slice_18_split
I0222 17:40:10.279112 24879 net.cpp:84] Creating Layer cont_19_lstm1_cont_slice_18_split
I0222 17:40:10.279116 24879 net.cpp:406] cont_19_lstm1_cont_slice_18_split <- cont_19
I0222 17:40:10.279122 24879 net.cpp:380] cont_19_lstm1_cont_slice_18_split -> cont_19_lstm1_cont_slice_18_split_0
I0222 17:40:10.279134 24879 net.cpp:380] cont_19_lstm1_cont_slice_18_split -> cont_19_lstm1_cont_slice_18_split_1
I0222 17:40:10.279153 24879 net.cpp:122] Setting up cont_19_lstm1_cont_slice_18_split
I0222 17:40:10.279160 24879 net.cpp:129] Top shape: 1 26 (26)
I0222 17:40:10.279165 24879 net.cpp:129] Top shape: 1 26 (26)
I0222 17:40:10.279167 24879 net.cpp:137] Memory required for data: 14768
I0222 17:40:10.279170 24879 layer_factory.hpp:77] Creating layer cont_20_lstm1_cont_slice_19_split
I0222 17:40:10.279175 24879 net.cpp:84] Creating Layer cont_20_lstm1_cont_slice_19_split
I0222 17:40:10.279180 24879 net.cpp:406] cont_20_lstm1_cont_slice_19_split <- cont_20
I0222 17:40:10.279184 24879 net.cpp:380] cont_20_lstm1_cont_slice_19_split -> cont_20_lstm1_cont_slice_19_split_0
I0222 17:40:10.279189 24879 net.cpp:380] cont_20_lstm1_cont_slice_19_split -> cont_20_lstm1_cont_slice_19_split_1
I0222 17:40:10.279222 24879 net.cpp:122] Setting up cont_20_lstm1_cont_slice_19_split
I0222 17:40:10.279227 24879 net.cpp:129] Top shape: 1 26 (26)
I0222 17:40:10.279232 24879 net.cpp:129] Top shape: 1 26 (26)
I0222 17:40:10.279234 24879 net.cpp:137] Memory required for data: 14976
I0222 17:40:10.279238 24879 layer_factory.hpp:77] Creating layer cont_21_lstm1_cont_slice_20_split
I0222 17:40:10.279243 24879 net.cpp:84] Creating Layer cont_21_lstm1_cont_slice_20_split
I0222 17:40:10.279247 24879 net.cpp:406] cont_21_lstm1_cont_slice_20_split <- cont_21
I0222 17:40:10.279253 24879 net.cpp:380] cont_21_lstm1_cont_slice_20_split -> cont_21_lstm1_cont_slice_20_split_0
I0222 17:40:10.279258 24879 net.cpp:380] cont_21_lstm1_cont_slice_20_split -> cont_21_lstm1_cont_slice_20_split_1
I0222 17:40:10.279273 24879 net.cpp:122] Setting up cont_21_lstm1_cont_slice_20_split
I0222 17:40:10.279279 24879 net.cpp:129] Top shape: 1 26 (26)
I0222 17:40:10.279284 24879 net.cpp:129] Top shape: 1 26 (26)
I0222 17:40:10.279286 24879 net.cpp:137] Memory required for data: 15184
I0222 17:40:10.279290 24879 layer_factory.hpp:77] Creating layer cont_22_lstm1_cont_slice_21_split
I0222 17:40:10.279295 24879 net.cpp:84] Creating Layer cont_22_lstm1_cont_slice_21_split
I0222 17:40:10.279305 24879 net.cpp:406] cont_22_lstm1_cont_slice_21_split <- cont_22
I0222 17:40:10.279310 24879 net.cpp:380] cont_22_lstm1_cont_slice_21_split -> cont_22_lstm1_cont_slice_21_split_0
I0222 17:40:10.279315 24879 net.cpp:380] cont_22_lstm1_cont_slice_21_split -> cont_22_lstm1_cont_slice_21_split_1
I0222 17:40:10.279335 24879 net.cpp:122] Setting up cont_22_lstm1_cont_slice_21_split
I0222 17:40:10.279340 24879 net.cpp:129] Top shape: 1 26 (26)
I0222 17:40:10.279345 24879 net.cpp:129] Top shape: 1 26 (26)
I0222 17:40:10.279347 24879 net.cpp:137] Memory required for data: 15392
I0222 17:40:10.279350 24879 layer_factory.hpp:77] Creating layer cont_23_lstm1_cont_slice_22_split
I0222 17:40:10.279356 24879 net.cpp:84] Creating Layer cont_23_lstm1_cont_slice_22_split
I0222 17:40:10.279358 24879 net.cpp:406] cont_23_lstm1_cont_slice_22_split <- cont_23
I0222 17:40:10.279363 24879 net.cpp:380] cont_23_lstm1_cont_slice_22_split -> cont_23_lstm1_cont_slice_22_split_0
I0222 17:40:10.279368 24879 net.cpp:380] cont_23_lstm1_cont_slice_22_split -> cont_23_lstm1_cont_slice_22_split_1
I0222 17:40:10.279386 24879 net.cpp:122] Setting up cont_23_lstm1_cont_slice_22_split
I0222 17:40:10.279392 24879 net.cpp:129] Top shape: 1 26 (26)
I0222 17:40:10.279395 24879 net.cpp:129] Top shape: 1 26 (26)
I0222 17:40:10.279398 24879 net.cpp:137] Memory required for data: 15600
I0222 17:40:10.279402 24879 layer_factory.hpp:77] Creating layer cont_24_lstm1_cont_slice_23_split
I0222 17:40:10.279407 24879 net.cpp:84] Creating Layer cont_24_lstm1_cont_slice_23_split
I0222 17:40:10.279409 24879 net.cpp:406] cont_24_lstm1_cont_slice_23_split <- cont_24
I0222 17:40:10.279415 24879 net.cpp:380] cont_24_lstm1_cont_slice_23_split -> cont_24_lstm1_cont_slice_23_split_0
I0222 17:40:10.279420 24879 net.cpp:380] cont_24_lstm1_cont_slice_23_split -> cont_24_lstm1_cont_slice_23_split_1
I0222 17:40:10.279438 24879 net.cpp:122] Setting up cont_24_lstm1_cont_slice_23_split
I0222 17:40:10.279443 24879 net.cpp:129] Top shape: 1 26 (26)
I0222 17:40:10.279446 24879 net.cpp:129] Top shape: 1 26 (26)
I0222 17:40:10.279449 24879 net.cpp:137] Memory required for data: 15808
I0222 17:40:10.279453 24879 layer_factory.hpp:77] Creating layer lstm1_x_transform
I0222 17:40:10.279464 24879 net.cpp:84] Creating Layer lstm1_x_transform
I0222 17:40:10.279467 24879 net.cpp:406] lstm1_x_transform <- x
I0222 17:40:10.279474 24879 net.cpp:380] lstm1_x_transform -> W_xc_x
I0222 17:40:10.279548 24879 net.cpp:122] Setting up lstm1_x_transform
I0222 17:40:10.279554 24879 net.cpp:129] Top shape: 24 26 64 (39936)
I0222 17:40:10.279558 24879 net.cpp:137] Memory required for data: 175552
I0222 17:40:10.279568 24879 layer_factory.hpp:77] Creating layer lstm1_W_xc_x_slice
I0222 17:40:10.279577 24879 net.cpp:84] Creating Layer lstm1_W_xc_x_slice
I0222 17:40:10.279580 24879 net.cpp:406] lstm1_W_xc_x_slice <- W_xc_x
I0222 17:40:10.279585 24879 net.cpp:380] lstm1_W_xc_x_slice -> W_xc_x_1
I0222 17:40:10.279592 24879 net.cpp:380] lstm1_W_xc_x_slice -> W_xc_x_2
…
I0222 17:40:10.279695 24879 net.cpp:380] lstm1_W_xc_x_slice -> W_xc_x_18
I0222 17:40:10.279701 24879 net.cpp:380] lstm1_W_xc_x_slice -> W_xc_x_19
I0222 17:40:10.279707 24879 net.cpp:380] lstm1_W_xc_x_slice -> W_xc_x_20
I0222 17:40:10.279713 24879 net.cpp:380] lstm1_W_xc_x_slice -> W_xc_x_21
I0222 17:40:10.279719 24879 net.cpp:380] lstm1_W_xc_x_slice -> W_xc_x_22
I0222 17:40:10.279726 24879 net.cpp:380] lstm1_W_xc_x_slice -> W_xc_x_23
I0222 17:40:10.279731 24879 net.cpp:380] lstm1_W_xc_x_slice -> W_xc_x_24
I0222 17:40:10.279862 24879 net.cpp:122] Setting up lstm1_W_xc_x_slice
I0222 17:40:10.305322 24879 net.cpp:129] Top shape: 1 26 64 (1664)
I0222 17:40:10.305332 24879 net.cpp:129] Top shape: 1 26 64 (1664)
I0222 17:40:10.305337 24879 net.cpp:129] Top shape: 1 26 64 (1664)
I0222 17:40:10.305341 24879 net.cpp:129] Top shape: 1 26 64 (1664)
I0222 17:40:10.305346 24879 net.cpp:129] Top shape: 1 26 64 (1664)
I0222 17:40:10.305349 24879 net.cpp:129] Top shape: 1 26 64 (1664)
I0222 17:40:10.305352 24879 net.cpp:129] Top shape: 1 26 64 (1664)
I0222 17:40:10.305379 24879 net.cpp:129] Top shape: 1 26 64 (1664)
I0222 17:40:10.305383 24879 net.cpp:129] Top shape: 1 26 64 (1664)
I0222 17:40:10.305387 24879 net.cpp:129] Top shape: 1 26 64 (1664)
I0222 17:40:10.305389 24879 net.cpp:129] Top shape: 1 26 64 (1664)
I0222 17:40:10.305392 24879 net.cpp:129] Top shape: 1 26 64 (1664)
I0222 17:40:10.305394 24879 net.cpp:129] Top shape: 1 26 64 (1664)
I0222 17:40:10.305397 24879 net.cpp:129] Top shape: 1 26 64 (1664)
I0222 17:40:10.305413 24879 net.cpp:129] Top shape: 1 26 64 (1664)
I0222 17:40:10.305416 24879 net.cpp:129] Top shape: 1 26 64 (1664)
I0222 17:40:10.305419 24879 net.cpp:129] Top shape: 1 26 64 (1664)
I0222 17:40:10.305423 24879 net.cpp:129] Top shape: 1 26 64 (1664)
I0222 17:40:10.305425 24879 net.cpp:129] Top shape: 1 26 64 (1664)
I0222 17:40:10.305428 24879 net.cpp:129] Top shape: 1 26 64 (1664)
I0222 17:40:10.305431 24879 net.cpp:129] Top shape: 1 26 64 (1664)
I0222 17:40:10.305434 24879 net.cpp:129] Top shape: 1 26 64 (1664)
I0222 17:40:10.305438 24879 net.cpp:129] Top shape: 1 26 64 (1664)
I0222 17:40:10.305441 24879 net.cpp:129] Top shape: 1 26 64 (1664)
I0222 17:40:10.305444 24879 net.cpp:137] Memory required for data: 335296
I0222 17:40:10.305449 24879 layer_factory.hpp:77] Creating layer lstm1_h_conted_0
I0222 17:40:10.305459 24879 net.cpp:84] Creating Layer lstm1_h_conted_0
I0222 17:40:10.305464 24879 net.cpp:406] lstm1_h_conted_0 <- h_0
I0222 17:40:10.305470 24879 net.cpp:406] lstm1_h_conted_0 <- cont_1_lstm1_cont_slice_0_split_0
I0222 17:40:10.305476 24879 net.cpp:380] lstm1_h_conted_0 -> h_conted_0
I0222 17:40:10.305533 24879 net.cpp:122] Setting up lstm1_h_conted_0
I0222 17:40:10.305539 24879 net.cpp:129] Top shape: 1 26 16 (416)
I0222 17:40:10.305543 24879 net.cpp:137] Memory required for data: 336960
I0222 17:40:10.305547 24879 layer_factory.hpp:77] Creating layer lstm1_transform_1
I0222 17:40:10.305554 24879 net.cpp:84] Creating Layer lstm1_transform_1
I0222 17:40:10.305558 24879 net.cpp:406] lstm1_transform_1 <- h_conted_0
I0222 17:40:10.305564 24879 net.cpp:380] lstm1_transform_1 -> W_hc_h_0
I0222 17:40:10.305606 24879 net.cpp:122] Setting up lstm1_transform_1
I0222 17:40:10.305613 24879 net.cpp:129] Top shape: 1 26 64 (1664)
I0222 17:40:10.305616 24879 net.cpp:137] Memory required for data: 343616
I0222 17:40:10.305624 24879 layer_factory.hpp:77] Creating layer lstm1_gate_input_1
I0222 17:40:10.305634 24879 net.cpp:84] Creating Layer lstm1_gate_input_1
I0222 17:40:10.305637 24879 net.cpp:406] lstm1_gate_input_1 <- W_hc_h_0
I0222 17:40:10.305642 24879 net.cpp:406] lstm1_gate_input_1 <- W_xc_x_1
I0222 17:40:10.305649 24879 net.cpp:380] lstm1_gate_input_1 -> gate_input_1
I0222 17:40:10.305666 24879 net.cpp:122] Setting up lstm1_gate_input_1
I0222 17:40:10.305672 24879 net.cpp:129] Top shape: 1 26 64 (1664)
I0222 17:40:10.305676 24879 net.cpp:137] Memory required for data: 350272
I0222 17:40:10.305680 24879 layer_factory.hpp:77] Creating layer lstm1_unit_1
I0222 17:40:10.305691 24879 net.cpp:84] Creating Layer lstm1_unit_1
I0222 17:40:10.305703 24879 net.cpp:406] lstm1_unit_1 <- c_0
I0222 17:40:10.305709 24879 net.cpp:406] lstm1_unit_1 <- gate_input_1
I0222 17:40:10.305713 24879 net.cpp:406] lstm1_unit_1 <- cont_1_lstm1_cont_slice_0_split_1
I0222 17:40:10.305719 24879 net.cpp:380] lstm1_unit_1 -> c_1
I0222 17:40:10.305724 24879 net.cpp:380] lstm1_unit_1 -> h_1
I0222 17:40:10.305752 24879 net.cpp:122] Setting up lstm1_unit_1
I0222 17:40:10.305757 24879 net.cpp:129] Top shape: 1 26 16 (416)
I0222 17:40:10.305763 24879 net.cpp:129] Top shape: 1 26 16 (416)
I0222 17:40:10.305765 24879 net.cpp:137] Memory required for data: 353600
I0222 17:40:10.305769 24879 layer_factory.hpp:77] Creating layer h_1_lstm1_unit_1_1_split
I0222 17:40:10.305774 24879 net.cpp:84] Creating Layer h_1_lstm1_unit_1_1_split
I0222 17:40:10.305778 24879 net.cpp:406] h_1_lstm1_unit_1_1_split <- h_1
I0222 17:40:10.305783 24879 net.cpp:380] h_1_lstm1_unit_1_1_split -> h_1_lstm1_unit_1_1_split_0
I0222 17:40:10.305789 24879 net.cpp:380] h_1_lstm1_unit_1_1_split -> h_1_lstm1_unit_1_1_split_1
I0222 17:40:10.305807 24879 net.cpp:122] Setting up h_1_lstm1_unit_1_1_split
I0222 17:40:10.305812 24879 net.cpp:129] Top shape: 1 26 16 (416)
I0222 17:40:10.305817 24879 net.cpp:129] Top shape: 1 26 16 (416)
I0222 17:40:10.305820 24879 net.cpp:137] Memory required for data: 356928
I0222 17:40:10.305824 24879 layer_factory.hpp:77] Creating layer lstm1_h_conted_1
I0222 17:40:10.305830 24879 net.cpp:84] Creating Layer lstm1_h_conted_1
I0222 17:40:10.305835 24879 net.cpp:406] lstm1_h_conted_1 <- h_1_lstm1_unit_1_1_split_0
I0222 17:40:10.305840 24879 net.cpp:406] lstm1_h_conted_1 <- cont_2_lstm1_cont_slice_1_split_0
I0222 17:40:10.305845 24879 net.cpp:380] lstm1_h_conted_1 -> h_conted_1
I0222 17:40:10.305876 24879 net.cpp:122] Setting up lstm1_h_conted_1
I0222 17:40:10.305881 24879 net.cpp:129] Top shape: 1 26 16 (416)
I0222 17:40:10.305886 24879 net.cpp:137] Memory required for data: 358592
I0222 17:40:10.305888 24879 layer_factory.hpp:77] Creating layer lstm1_transform_2
I0222 17:40:10.305896 24879 net.cpp:84] Creating Layer lstm1_transform_2
I0222 17:40:10.305899 24879 net.cpp:406] lstm1_transform_2 <- h_conted_1
I0222 17:40:10.305904 24879 net.cpp:380] lstm1_transform_2 -> W_hc_h_1
I0222 17:40:10.305935 24879 net.cpp:122] Setting up lstm1_transform_2
I0222 17:40:10.305941 24879 net.cpp:129] Top shape: 1 26 64 (1664)
I0222 17:40:10.305945 24879 net.cpp:137] Memory required for data: 365248
I0222 17:40:10.305949 24879 net.cpp:465] Sharing parameters 'W_hc' owned by layer 'lstm1_transform_1', param index 0
I0222 17:40:10.305953 24879 layer_factory.hpp:77] Creating layer lstm1_gate_input_2
I0222 17:40:10.305958 24879 net.cpp:84] Creating Layer lstm1_gate_input_2
I0222 17:40:10.305963 24879 net.cpp:406] lstm1_gate_input_2 <- W_hc_h_1
I0222 17:40:10.305968 24879 net.cpp:406] lstm1_gate_input_2 <- W_xc_x_2
I0222 17:40:10.305972 24879 net.cpp:380] lstm1_gate_input_2 -> gate_input_2
I0222 17:40:10.305986 24879 net.cpp:122] Setting up lstm1_gate_input_2
I0222 17:40:10.305991 24879 net.cpp:129] Top shape: 1 26 64 (1664)
I0222 17:40:10.305995 24879 net.cpp:137] Memory required for data: 371904
I0222 17:40:10.305999 24879 layer_factory.hpp:77] Creating layer lstm1_unit_2
I0222 17:40:10.306004 24879 net.cpp:84] Creating Layer lstm1_unit_2
I0222 17:40:10.306007 24879 net.cpp:406] lstm1_unit_2 <- c_1
I0222 17:40:10.306011 24879 net.cpp:406] lstm1_unit_2 <- gate_input_2
I0222 17:40:10.306016 24879 net.cpp:406] lstm1_unit_2 <- cont_2_lstm1_cont_slice_1_split_1
I0222 17:40:10.306021 24879 net.cpp:380] lstm1_unit_2 -> c_2
I0222 17:40:10.306030 24879 net.cpp:380] lstm1_unit_2 -> h_2
I0222 17:40:10.306056 24879 net.cpp:122] Setting up lstm1_unit_2
I0222 17:40:10.306061 24879 net.cpp:129] Top shape: 1 26 16 (416)
I0222 17:40:10.306066 24879 net.cpp:129] Top shape: 1 26 16 (416)
I0222 17:40:10.306068 24879 net.cpp:137] Memory required for data: 375232
I0222 17:40:10.306072 24879 layer_factory.hpp:77] Creating layer h_2_lstm1_unit_2_1_split
I0222 17:40:10.306077 24879 net.cpp:84] Creating Layer h_2_lstm1_unit_2_1_split
I0222 17:40:10.306087 24879 net.cpp:406] h_2_lstm1_unit_2_1_split <- h_2
I0222 17:40:10.306092 24879 net.cpp:380] h_2_lstm1_unit_2_1_split -> h_2_lstm1_unit_2_1_split_0
I0222 17:40:10.306097 24879 net.cpp:380] h_2_lstm1_unit_2_1_split -> h_2_lstm1_unit_2_1_split_1
I0222 17:40:10.309537 24879 net.cpp:122] Setting up h_2_lstm1_unit_2_1_split
I0222 17:40:10.309545 24879 net.cpp:129] Top shape: 1 26 16 (416)
I0222 17:40:10.309550 24879 net.cpp:129] Top shape: 1 26 16 (416)
I0222 17:40:10.309551 24879 net.cpp:137] Memory required for data: 378560
I0222 17:40:10.309554 24879 layer_factory.hpp:77] Creating layer lstm1_h_conted_2
I0222 17:40:10.309558 24879 net.cpp:84] Creating Layer lstm1_h_conted_2
I0222 17:40:10.309561 24879 net.cpp:406] lstm1_h_conted_2 <- h_2_lstm1_unit_2_1_split_0
I0222 17:40:10.309566 24879 net.cpp:406] lstm1_h_conted_2 <- cont_3_lstm1_cont_slice_2_split_0
I0222 17:40:10.309569 24879 net.cpp:380] lstm1_h_conted_2 -> h_conted_2
I0222 17:40:10.309602 24879 net.cpp:122] Setting up lstm1_h_conted_2
I0222 17:40:10.309607 24879 net.cpp:129] Top shape: 1 26 16 (416)
I0222 17:40:10.309609 24879 net.cpp:137] Memory required for data: 380224
I0222 17:40:10.309612 24879 layer_factory.hpp:77] Creating layer lstm1_transform_3
I0222 17:40:10.309618 24879 net.cpp:84] Creating Layer lstm1_transform_3
I0222 17:40:10.309622 24879 net.cpp:406] lstm1_transform_3 <- h_conted_2
I0222 17:40:10.309625 24879 net.cpp:380] lstm1_transform_3 -> W_hc_h_2
I0222 17:40:10.309657 24879 net.cpp:122] Setting up lstm1_transform_3
I0222 17:40:10.309662 24879 net.cpp:129] Top shape: 1 26 64 (1664)
I0222 17:40:10.309665 24879 net.cpp:137] Memory required for data: 386880
I0222 17:40:10.309670 24879 net.cpp:465] Sharing parameters 'W_hc' owned by layer 'lstm1_transform_1', param index 0
I0222 17:40:10.309674 24879 layer_factory.hpp:77] Creating layer lstm1_gate_input_3
I0222 17:40:10.309679 24879 net.cpp:84] Creating Layer lstm1_gate_input_3
I0222 17:40:10.309681 24879 net.cpp:406] lstm1_gate_input_3 <- W_hc_h_2
I0222 17:40:10.309685 24879 net.cpp:406] lstm1_gate_input_3 <- W_xc_x_3
I0222 17:40:10.309690 24879 net.cpp:380] lstm1_gate_input_3 -> gate_input_3
I0222 17:40:10.309703 24879 net.cpp:122] Setting up lstm1_gate_input_3
I0222 17:40:10.309708 24879 net.cpp:129] Top shape: 1 26 64 (1664)
I0222 17:40:10.309711 24879 net.cpp:137] Memory required for data: 393536
I0222 17:40:10.309715 24879 layer_factory.hpp:77] Creating layer lstm1_unit_3
I0222 17:40:10.309718 24879 net.cpp:84] Creating Layer lstm1_unit_3
I0222 17:40:10.309721 24879 net.cpp:406] lstm1_unit_3 <- c_2
I0222 17:40:10.309725 24879 net.cpp:406] lstm1_unit_3 <- gate_input_3
I0222 17:40:10.309729 24879 net.cpp:406] lstm1_unit_3 <- cont_3_lstm1_cont_slice_2_split_1
I0222 17:40:10.309733 24879 net.cpp:380] lstm1_unit_3 -> c_3
I0222 17:40:10.309737 24879 net.cpp:380] lstm1_unit_3 -> h_3
I0222 17:40:10.309761 24879 net.cpp:122] Setting up lstm1_unit_3
I0222 17:40:10.309765 24879 net.cpp:129] Top shape: 1 26 16 (416)
I0222 17:40:10.309769 24879 net.cpp:129] Top shape: 1 26 16 (416)
I0222 17:40:10.309772 24879 net.cpp:137] Memory required for data: 396864
I0222 17:40:10.309774 24879 layer_factory.hpp:77] Creating layer h_3_lstm1_unit_3_1_split
I0222 17:40:10.309778 24879 net.cpp:84] Creating Layer h_3_lstm1_unit_3_1_split
I0222 17:40:10.309782 24879 net.cpp:406] h_3_lstm1_unit_3_1_split <- h_3
I0222 17:40:10.309785 24879 net.cpp:380] h_3_lstm1_unit_3_1_split -> h_3_lstm1_unit_3_1_split_0
I0222 17:40:10.309790 24879 net.cpp:380] h_3_lstm1_unit_3_1_split -> h_3_lstm1_unit_3_1_split_1
I0222 17:40:10.309808 24879 net.cpp:122] Setting up h_3_lstm1_unit_3_1_split
I0222 17:40:10.309811 24879 net.cpp:129] Top shape: 1 26 16 (416)
I0222 17:40:10.309815 24879 net.cpp:129] Top shape: 1 26 16 (416)
I0222 17:40:10.309818 24879 net.cpp:137] Memory required for data: 400192
I0222 17:40:10.309821 24879 layer_factory.hpp:77] Creating layer lstm1_h_conted_3
I0222 17:40:10.309825 24879 net.cpp:84] Creating Layer lstm1_h_conted_3
I0222 17:40:10.309828 24879 net.cpp:406] lstm1_h_conted_3 <- h_3_lstm1_unit_3_1_split_0
I0222 17:40:10.309839 24879 net.cpp:406] lstm1_h_conted_3 <- cont_4_lstm1_cont_slice_3_split_0
I0222 17:40:10.309842 24879 net.cpp:380] lstm1_h_conted_3 -> h_conted_3
I0222 17:40:10.309873 24879 net.cpp:122] Setting up lstm1_h_conted_3
I0222 17:40:10.309877 24879 net.cpp:129] Top shape: 1 26 16 (416)
I0222 17:40:10.309880 24879 net.cpp:137] Memory required for data: 401856
I0222 17:40:10.309883 24879 layer_factory.hpp:77] Creating layer lstm1_transform_4
I0222 17:40:10.309888 24879 net.cpp:84] Creating Layer lstm1_transform_4
I0222 17:40:10.309891 24879 net.cpp:406] lstm1_transform_4 <- h_conted_3
I0222 17:40:10.309896 24879 net.cpp:380] lstm1_transform_4 -> W_hc_h_3
I0222 17:40:10.309926 24879 net.cpp:122] Setting up lstm1_transform_4
I0222 17:40:10.309931 24879 net.cpp:129] Top shape: 1 26 64 (1664)
I0222 17:40:10.309933 24879 net.cpp:137] Memory required for data: 408512
I0222 17:40:10.309937 24879 net.cpp:465] Sharing parameters 'W_hc' owned by layer 'lstm1_transform_1', param index 0
I0222 17:40:10.309939 24879 layer_factory.hpp:77] Creating layer lstm1_gate_input_4
I0222 17:40:10.309943 24879 net.cpp:84] Creating Layer lstm1_gate_input_4
I0222 17:40:10.309947 24879 net.cpp:406] lstm1_gate_input_4 <- W_hc_h_3
I0222 17:40:10.309950 24879 net.cpp:406] lstm1_gate_input_4 <- W_xc_x_4
I0222 17:40:10.309955 24879 net.cpp:380] lstm1_gate_input_4 -> gate_input_4
I0222 17:40:10.309968 24879 net.cpp:122] Setting up lstm1_gate_input_4
I0222 17:40:10.309973 24879 net.cpp:129] Top shape: 1 26 64 (1664)
I0222 17:40:10.309976 24879 net.cpp:137] Memory required for data: 415168
I0222 17:40:10.309979 24879 layer_factory.hpp:77] Creating layer lstm1_unit_4
I0222 17:40:10.309983 24879 net.cpp:84] Creating Layer lstm1_unit_4
I0222 17:40:10.309986 24879 net.cpp:406] lstm1_unit_4 <- c_3
I0222 17:40:10.309990 24879 net.cpp:406] lstm1_unit_4 <- gate_input_4
I0222 17:40:10.309993 24879 net.cpp:406] lstm1_unit_4 <- cont_4_lstm1_cont_slice_3_split_1
I0222 17:40:10.309998 24879 net.cpp:380] lstm1_unit_4 -> c_4
I0222 17:40:10.310003 24879 net.cpp:380] lstm1_unit_4 -> h_4
I0222 17:40:10.310025 24879 net.cpp:122] Setting up lstm1_unit_4
I0222 17:40:10.310030 24879 net.cpp:129] Top shape: 1 26 16 (416)
I0222 17:40:10.310034 24879 net.cpp:129] Top shape: 1 26 16 (416)
I0222 17:40:10.310036 24879 net.cpp:137] Memory required for data: 418496
I0222 17:40:10.310039 24879 layer_factory.hpp:77] Creating layer h_4_lstm1_unit_4_1_split
I0222 17:40:10.310045 24879 net.cpp:84] Creating Layer h_4_lstm1_unit_4_1_split
I0222 17:40:10.310047 24879 net.cpp:406] h_4_lstm1_unit_4_1_split <- h_4
I0222 17:40:10.310051 24879 net.cpp:380] h_4_lstm1_unit_4_1_split -> h_4_lstm1_unit_4_1_split_0
I0222 17:40:10.310055 24879 net.cpp:380] h_4_lstm1_unit_4_1_split -> h_4_lstm1_unit_4_1_split_1
I0222 17:40:10.310081 24879 net.cpp:122] Setting up h_4_lstm1_unit_4_1_split
I0222 17:40:10.310086 24879 net.cpp:129] Top shape: 1 26 16 (416)
I0222 17:40:10.310089 24879 net.cpp:129] Top shape: 1 26 16 (416)
I0222 17:40:10.310092 24879 net.cpp:137] Memory required for data: 421824
I0222 17:40:10.310096 24879 layer_factory.hpp:77] Creating layer lstm1_h_conted_4
I0222 17:40:10.310099 24879 net.cpp:84] Creating Layer lstm1_h_conted_4
I0222 17:40:10.310103 24879 net.cpp:406] lstm1_h_conted_4 <- h_4_lstm1_unit_4_1_split_0
I0222 17:40:10.310107 24879 net.cpp:406] lstm1_h_conted_4 <- cont_5_lstm1_cont_slice_4_split_0
I0222 17:40:10.310111 24879 net.cpp:380] lstm1_h_conted_4 -> h_conted_4
I0222 17:40:10.310140 24879 net.cpp:122] Setting up lstm1_h_conted_4
I0222 17:40:10.310145 24879 net.cpp:129] Top shape: 1 26 16 (416)
I0222 17:40:10.310148 24879 net.cpp:137] Memory required for data: 423488
I0222 17:40:10.310151 24879 layer_factory.hpp:77] Creating layer lstm1_transform_5
I0222 17:40:10.310155 24879 net.cpp:84] Creating Layer lstm1_transform_5
I0222 17:40:10.310158 24879 net.cpp:406] lstm1_transform_5 <- h_conted_4
I0222 17:40:10.310163 24879 net.cpp:380] lstm1_transform_5 -> W_hc_h_4
I0222 17:40:10.310191 24879 net.cpp:122] Setting up lstm1_transform_5
I0222 17:40:10.310201 24879 net.cpp:129] Top shape: 1 26 64 (1664)
I0222 17:40:10.335680 24879 net.cpp:137] Memory required for data: 430144
I0222 17:40:10.335690 24879 net.cpp:465] Sharing parameters 'W_hc' owned by layer 'lstm1_transform_1', param index 0
I0222 17:40:10.335695 24879 layer_factory.hpp:77] Creating layer lstm1_gate_input_5
I0222 17:40:10.335705 24879 net.cpp:84] Creating Layer lstm1_gate_input_5
I0222 17:40:10.335708 24879 net.cpp:406] lstm1_gate_input_5 <- W_hc_h_4
I0222 17:40:10.335714 24879 net.cpp:406] lstm1_gate_input_5 <- W_xc_x_5
I0222 17:40:10.335721 24879 net.cpp:380] lstm1_gate_input_5 -> gate_input_5
I0222 17:40:10.335747 24879 net.cpp:122] Setting up lstm1_gate_input_5
I0222 17:40:10.335752 24879 net.cpp:129] Top shape: 1 26 64 (1664)
I0222 17:40:10.335754 24879 net.cpp:137] Memory required for data: 436800
I0222 17:40:10.335757 24879 layer_factory.hpp:77] Creating layer lstm1_unit_5
I0222 17:40:10.335760 24879 net.cpp:84] Creating Layer lstm1_unit_5
I0222 17:40:10.335763 24879 net.cpp:406] lstm1_unit_5 <- c_4
I0222 17:40:10.335767 24879 net.cpp:406] lstm1_unit_5 <- gate_input_5
I0222 17:40:10.335770 24879 net.cpp:406] lstm1_unit_5 <- cont_5_lstm1_cont_slice_4_split_1
I0222 17:40:10.335775 24879 net.cpp:380] lstm1_unit_5 -> c_5
I0222 17:40:10.335780 24879 net.cpp:380] lstm1_unit_5 -> h_5
I0222 17:40:10.335809 24879 net.cpp:122] Setting up lstm1_unit_5
I0222 17:40:10.335814 24879 net.cpp:129] Top shape: 1 26 16 (416)
I0222 17:40:10.335817 24879 net.cpp:129] Top shape: 1 26 16 (416)
I0222 17:40:10.335820 24879 net.cpp:137] Memory required for data: 440128
I0222 17:40:10.335822 24879 layer_factory.hpp:77] Creating layer h_5_lstm1_unit_5_1_split
I0222 17:40:10.335825 24879 net.cpp:84] Creating Layer h_5_lstm1_unit_5_1_split
I0222 17:40:10.335829 24879 net.cpp:406] h_5_lstm1_unit_5_1_split <- h_5
I0222 17:40:10.335831 24879 net.cpp:380] h_5_lstm1_unit_5_1_split -> h_5_lstm1_unit_5_1_split_0
I0222 17:40:10.335835 24879 net.cpp:380] h_5_lstm1_unit_5_1_split -> h_5_lstm1_unit_5_1_split_1
I0222 17:40:10.335853 24879 net.cpp:122] Setting up h_5_lstm1_unit_5_1_split
I0222 17:40:10.335857 24879 net.cpp:129] Top shape: 1 26 16 (416)
I0222 17:40:10.335861 24879 net.cpp:129] Top shape: 1 26 16 (416)
I0222 17:40:10.335863 24879 net.cpp:137] Memory required for data: 443456
I0222 17:40:10.335865 24879 layer_factory.hpp:77] Creating layer lstm1_h_conted_5
I0222 17:40:10.335870 24879 net.cpp:84] Creating Layer lstm1_h_conted_5
I0222 17:40:10.335873 24879 net.cpp:406] lstm1_h_conted_5 <- h_5_lstm1_unit_5_1_split_0
I0222 17:40:10.335876 24879 net.cpp:406] lstm1_h_conted_5 <- cont_6_lstm1_cont_slice_5_split_0
I0222 17:40:10.335880 24879 net.cpp:380] lstm1_h_conted_5 -> h_conted_5
I0222 17:40:10.335916 24879 net.cpp:122] Setting up lstm1_h_conted_5
I0222 17:40:10.335922 24879 net.cpp:129] Top shape: 1 26 16 (416)
I0222 17:40:10.335923 24879 net.cpp:137] Memory required for data: 445120
I0222 17:40:10.335927 24879 layer_factory.hpp:77] Creating layer lstm1_transform_6
I0222 17:40:10.335932 24879 net.cpp:84] Creating Layer lstm1_transform_6
I0222 17:40:10.335934 24879 net.cpp:406] lstm1_transform_6 <- h_conted_5
I0222 17:40:10.335937 24879 net.cpp:380] lstm1_transform_6 -> W_hc_h_5
I0222 17:40:10.335969 24879 net.cpp:122] Setting up lstm1_transform_6
I0222 17:40:10.335974 24879 net.cpp:129] Top shape: 1 26 64 (1664)
I0222 17:40:10.335978 24879 net.cpp:137] Memory required for data: 451776
I0222 17:40:10.335980 24879 net.cpp:465] Sharing parameters 'W_hc' owned by layer 'lstm1_transform_1', param index 0
I0222 17:40:10.335984 24879 layer_factory.hpp:77] Creating layer lstm1_gate_input_6
I0222 17:40:10.335988 24879 net.cpp:84] Creating Layer lstm1_gate_input_6
I0222 17:40:10.335991 24879 net.cpp:406] lstm1_gate_input_6 <- W_hc_h_5
I0222 17:40:10.335995 24879 net.cpp:406] lstm1_gate_input_6 <- W_xc_x_6
I0222 17:40:10.336000 24879 net.cpp:380] lstm1_gate_input_6 -> gate_input_6
I0222 17:40:10.336014 24879 net.cpp:122] Setting up lstm1_gate_input_6
I0222 17:40:10.336017 24879 net.cpp:129] Top shape: 1 26 64 (1664)
I0222 17:40:10.336027 24879 net.cpp:137] Memory required for data: 458432
I0222 17:40:10.336030 24879 layer_factory.hpp:77] Creating layer lstm1_unit_6
I0222 17:40:10.336035 24879 net.cpp:84] Creating Layer lstm1_unit_6
I0222 17:40:10.336038 24879 net.cpp:406] lstm1_unit_6 <- c_5
I0222 17:40:10.336042 24879 net.cpp:406] lstm1_unit_6 <- gate_input_6
I0222 17:40:10.336045 24879 net.cpp:406] lstm1_unit_6 <- cont_6_lstm1_cont_slice_5_split_1
I0222 17:40:10.336050 24879 net.cpp:380] lstm1_unit_6 -> c_6
I0222 17:40:10.336055 24879 net.cpp:380] lstm1_unit_6 -> h_6
I0222 17:40:10.336079 24879 net.cpp:122] Setting up lstm1_unit_6
I0222 17:40:10.336084 24879 net.cpp:129] Top shape: 1 26 16 (416)
I0222 17:40:10.336087 24879 net.cpp:129] Top shape: 1 26 16 (416)
I0222 17:40:10.336091 24879 net.cpp:137] Memory required for data: 461760
I0222 17:40:10.336093 24879 layer_factory.hpp:77] Creating layer h_6_lstm1_unit_6_1_split
I0222 17:40:10.336097 24879 net.cpp:84] Creating Layer h_6_lstm1_unit_6_1_split
I0222 17:40:10.336100 24879 net.cpp:406] h_6_lstm1_unit_6_1_split <- h_6
I0222 17:40:10.336104 24879 net.cpp:380] h_6_lstm1_unit_6_1_split -> h_6_lstm1_unit_6_1_split_0
I0222 17:40:10.336109 24879 net.cpp:380] h_6_lstm1_unit_6_1_split -> h_6_lstm1_unit_6_1_split_1
I0222 17:40:10.336127 24879 net.cpp:122] Setting up h_6_lstm1_unit_6_1_split
I0222 17:40:10.336132 24879 net.cpp:129] Top shape: 1 26 16 (416)
I0222 17:40:10.336134 24879 net.cpp:129] Top shape: 1 26 16 (416)
I0222 17:40:10.336138 24879 net.cpp:137] Memory required for data: 465088
I0222 17:40:10.336140 24879 layer_factory.hpp:77] Creating layer lstm1_h_conted_6
I0222 17:40:10.336144 24879 net.cpp:84] Creating Layer lstm1_h_conted_6
I0222 17:40:10.336148 24879 net.cpp:406] lstm1_h_conted_6 <- h_6_lstm1_unit_6_1_split_0
I0222 17:40:10.336151 24879 net.cpp:406] lstm1_h_conted_6 <- cont_7_lstm1_cont_slice_6_split_0
I0222 17:40:10.336156 24879 net.cpp:380] lstm1_h_conted_6 -> h_conted_6
I0222 17:40:10.336185 24879 net.cpp:122] Setting up lstm1_h_conted_6
I0222 17:40:10.336190 24879 net.cpp:129] Top shape: 1 26 16 (416)
I0222 17:40:10.336194 24879 net.cpp:137] Memory required for data: 466752
I0222 17:40:10.336196 24879 layer_factory.hpp:77] Creating layer lstm1_transform_7
I0222 17:40:10.336201 24879 net.cpp:84] Creating Layer lstm1_transform_7
I0222 17:40:10.336205 24879 net.cpp:406] lstm1_transform_7 <- h_conted_6
I0222 17:40:10.336210 24879 net.cpp:380] lstm1_transform_7 -> W_hc_h_6
I0222 17:40:10.336239 24879 net.cpp:122] Setting up lstm1_transform_7
I0222 17:40:10.336244 24879 net.cpp:129] Top shape: 1 26 64 (1664)
I0222 17:40:10.336247 24879 net.cpp:137] Memory required for data: 473408
I0222 17:40:10.336253 24879 net.cpp:465] Sharing parameters 'W_hc' owned by layer 'lstm1_transform_1', param index 0
I0222 17:40:10.336257 24879 layer_factory.hpp:77] Creating layer lstm1_gate_input_7
I0222 17:40:10.336261 24879 net.cpp:84] Creating Layer lstm1_gate_input_7
I0222 17:40:10.336264 24879 net.cpp:406] lstm1_gate_input_7 <- W_hc_h_6
I0222 17:40:10.336268 24879 net.cpp:406] lstm1_gate_input_7 <- W_xc_x_7
I0222 17:40:10.336272 24879 net.cpp:380] lstm1_gate_input_7 -> gate_input_7
I0222 17:40:10.336287 24879 net.cpp:122] Setting up lstm1_gate_input_7
I0222 17:40:10.336292 24879 net.cpp:129] Top shape: 1 26 64 (1664)
I0222 17:40:10.336293 24879 net.cpp:137] Memory required for data: 480064
I0222 17:40:10.336297 24879 layer_factory.hpp:77] Creating layer lstm1_unit_7
I0222 17:40:10.336300 24879 net.cpp:84] Creating Layer lstm1_unit_7
I0222 17:40:10.336304 24879 net.cpp:406] lstm1_unit_7 <- c_6
I0222 17:40:10.336308 24879 net.cpp:406] lstm1_unit_7 <- gate_input_7
I0222 17:40:10.336311 24879 net.cpp:406] lstm1_unit_7 <- cont_7_lstm1_cont_slice_6_split_1
I0222 17:40:10.336315 24879 net.cpp:380] lstm1_unit_7 -> c_7
I0222 17:40:10.336320 24879 net.cpp:380] lstm1_unit_7 -> h_7
I0222 17:40:10.336344 24879 net.cpp:122] Setting up lstm1_unit_7
I0222 17:40:10.336349 24879 net.cpp:129] Top shape: 1 26 16 (416)
I0222 17:40:10.336352 24879 net.cpp:129] Top shape: 1 26 16 (416)
I0222 17:40:10.336355 24879 net.cpp:137] Memory required for data: 483392
I0222 17:40:10.336362 24879 layer_factory.hpp:77] Creating layer h_7_lstm1_unit_7_1_split
I0222 17:40:10.336366 24879 net.cpp:84] Creating Layer h_7_lstm1_unit_7_1_split
I0222 17:40:10.336369 24879 net.cpp:406] h_7_lstm1_unit_7_1_split <- h_7
I0222 17:40:10.336374 24879 net.cpp:380] h_7_lstm1_unit_7_1_split -> h_7_lstm1_unit_7_1_split_0
I0222 17:40:10.336378 24879 net.cpp:380] h_7_lstm1_unit_7_1_split -> h_7_lstm1_unit_7_1_split_1
I0222 17:40:10.340322 24879 net.cpp:122] Setting up h_7_lstm1_unit_7_1_split
I0222 17:40:10.340332 24879 net.cpp:129] Top shape: 1 26 16 (416)
I0222 17:40:10.340335 24879 net.cpp:129] Top shape: 1 26 16 (416)
I0222 17:40:10.340337 24879 net.cpp:137] Memory required for data: 486720
I0222 17:40:10.340340 24879 layer_factory.hpp:77] Creating layer lstm1_h_conted_7
I0222 17:40:10.340363 24879 net.cpp:84] Creating Layer lstm1_h_conted_7
I0222 17:40:10.340380 24879 net.cpp:406] lstm1_h_conted_7 <- h_7_lstm1_unit_7_1_split_0
I0222 17:40:10.340386 24879 net.cpp:406] lstm1_h_conted_7 <- cont_8_lstm1_cont_slice_7_split_0
I0222 17:40:10.340392 24879 net.cpp:380] lstm1_h_conted_7 -> h_conted_7
I0222 17:40:10.340440 24879 net.cpp:122] Setting up lstm1_h_conted_7
I0222 17:40:10.340445 24879 net.cpp:129] Top shape: 1 26 16 (416)
I0222 17:40:10.340450 24879 net.cpp:137] Memory required for data: 488384
I0222 17:40:10.340453 24879 layer_factory.hpp:77] Creating layer lstm1_transform_8
I0222 17:40:10.340461 24879 net.cpp:84] Creating Layer lstm1_transform_8
I0222 17:40:10.340464 24879 net.cpp:406] lstm1_transform_8 <- h_conted_7
I0222 17:40:10.340469 24879 net.cpp:380] lstm1_transform_8 -> W_hc_h_7
I0222 17:40:10.340503 24879 net.cpp:122] Setting up lstm1_transform_8
I0222 17:40:10.340510 24879 net.cpp:129] Top shape: 1 26 64 (1664)
I0222 17:40:10.340513 24879 net.cpp:137] Memory required for data: 495040
I0222 17:40:10.340517 24879 net.cpp:465] Sharing parameters 'W_hc' owned by layer 'lstm1_transform_1', param index 0
I0222 17:40:10.340521 24879 layer_factory.hpp:77] Creating layer lstm1_gate_input_8
I0222 17:40:10.340526 24879 net.cpp:84] Creating Layer lstm1_gate_input_8
I0222 17:40:10.340530 24879 net.cpp:406] lstm1_gate_input_8 <- W_hc_h_7
I0222 17:40:10.340535 24879 net.cpp:406] lstm1_gate_input_8 <- W_xc_x_8
I0222 17:40:10.340541 24879 net.cpp:380] lstm1_gate_input_8 -> gate_input_8
I0222 17:40:10.340555 24879 net.cpp:122] Setting up lstm1_gate_input_8
I0222 17:40:10.340560 24879 net.cpp:129] Top shape: 1 26 64 (1664)
I0222 17:40:10.340564 24879 net.cpp:137] Memory required for data: 501696
I0222 17:40:10.340567 24879 layer_factory.hpp:77] Creating layer lstm1_unit_8
I0222 17:40:10.340572 24879 net.cpp:84] Creating Layer lstm1_unit_8
I0222 17:40:10.340576 24879 net.cpp:406] lstm1_unit_8 <- c_7
I0222 17:40:10.340580 24879 net.cpp:406] lstm1_unit_8 <- gate_input_8
I0222 17:40:10.340585 24879 net.cpp:406] lstm1_unit_8 <- cont_8_lstm1_cont_slice_7_split_1
I0222 17:40:10.340590 24879 net.cpp:380] lstm1_unit_8 -> c_8
I0222 17:40:10.340595 24879 net.cpp:380] lstm1_unit_8 -> h_8
I0222 17:40:10.340620 24879 net.cpp:122] Setting up lstm1_unit_8
I0222 17:40:10.340626 24879 net.cpp:129] Top shape: 1 26 16 (416)
I0222 17:40:10.340631 24879 net.cpp:129] Top shape: 1 26 16 (416)
I0222 17:40:10.340633 24879 net.cpp:137] Memory required for data: 505024
I0222 17:40:10.340636 24879 layer_factory.hpp:77] Creating layer h_8_lstm1_unit_8_1_split
I0222 17:40:10.340641 24879 net.cpp:84] Creating Layer h_8_lstm1_unit_8_1_split
I0222 17:40:10.340644 24879 net.cpp:406] h_8_lstm1_unit_8_1_split <- h_8
I0222 17:40:10.340649 24879 net.cpp:380] h_8_lstm1_unit_8_1_split -> h_8_lstm1_unit_8_1_split_0
I0222 17:40:10.340656 24879 net.cpp:380] h_8_lstm1_unit_8_1_split -> h_8_lstm1_unit_8_1_split_1
I0222 17:40:10.340673 24879 net.cpp:122] Setting up h_8_lstm1_unit_8_1_split
I0222 17:40:10.340678 24879 net.cpp:129] Top shape: 1 26 16 (416)
I0222 17:40:10.340683 24879 net.cpp:129] Top shape: 1 26 16 (416)
I0222 17:40:10.340687 24879 net.cpp:137] Memory required for data: 508352
I0222 17:40:10.340698 24879 layer_factory.hpp:77] Creating layer lstm1_h_conted_8
I0222 17:40:10.340703 24879 net.cpp:84] Creating Layer lstm1_h_conted_8
I0222 17:40:10.340706 24879 net.cpp:406] lstm1_h_conted_8 <- h_8_lstm1_unit_8_1_split_0
I0222 17:40:10.340711 24879 net.cpp:406] lstm1_h_conted_8 <- cont_9_lstm1_cont_slice_8_split_0
I0222 17:40:10.340718 24879 net.cpp:380] lstm1_h_conted_8 -> h_conted_8
I0222 17:40:10.340747 24879 net.cpp:122] Setting up lstm1_h_conted_8
I0222 17:40:10.340754 24879 net.cpp:129] Top shape: 1 26 16 (416)
I0222 17:40:10.340756 24879 net.cpp:137] Memory required for data: 510016
I0222 17:40:10.340760 24879 layer_factory.hpp:77] Creating layer lstm1_transform_9
I0222 17:40:10.340766 24879 net.cpp:84] Creating Layer lstm1_transform_9
I0222 17:40:10.340770 24879 net.cpp:406] lstm1_transform_9 <- h_conted_8
I0222 17:40:10.340776 24879 net.cpp:380] lstm1_transform_9 -> W_hc_h_8
I0222 17:40:10.340806 24879 net.cpp:122] Setting up lstm1_transform_9
I0222 17:40:10.340812 24879 net.cpp:129] Top shape: 1 26 64 (1664)
I0222 17:40:10.340816 24879 net.cpp:137] Memory required for data: 516672
I0222 17:40:10.340819 24879 net.cpp:465] Sharing parameters 'W_hc' owned by layer 'lstm1_transform_1', param index 0
I0222 17:40:10.340823 24879 layer_factory.hpp:77] Creating layer lstm1_gate_input_9
I0222 17:40:10.340828 24879 net.cpp:84] Creating Layer lstm1_gate_input_9
I0222 17:40:10.340831 24879 net.cpp:406] lstm1_gate_input_9 <- W_hc_h_8
I0222 17:40:10.340837 24879 net.cpp:406] lstm1_gate_input_9 <- W_xc_x_9
I0222 17:40:10.340842 24879 net.cpp:380] lstm1_gate_input_9 -> gate_input_9
I0222 17:40:10.340855 24879 net.cpp:122] Setting up lstm1_gate_input_9
I0222 17:40:10.340860 24879 net.cpp:129] Top shape: 1 26 64 (1664)
I0222 17:40:10.340864 24879 net.cpp:137] Memory required for data: 523328
I0222 17:40:10.340867 24879 layer_factory.hpp:77] Creating layer lstm1_unit_9
I0222 17:40:10.340873 24879 net.cpp:84] Creating Layer lstm1_unit_9
I0222 17:40:10.340878 24879 net.cpp:406] lstm1_unit_9 <- c_8
I0222 17:40:10.340883 24879 net.cpp:406] lstm1_unit_9 <- gate_input_9
I0222 17:40:10.340886 24879 net.cpp:406] lstm1_unit_9 <- cont_9_lstm1_cont_slice_8_split_1
I0222 17:40:10.340891 24879 net.cpp:380] lstm1_unit_9 -> c_9
I0222 17:40:10.340896 24879 net.cpp:380] lstm1_unit_9 -> h_9
I0222 17:40:10.340922 24879 net.cpp:122] Setting up lstm1_unit_9
I0222 17:40:10.340929 24879 net.cpp:129] Top shape: 1 26 16 (416)
I0222 17:40:10.340932 24879 net.cpp:129] Top shape: 1 26 16 (416)
I0222 17:40:10.340936 24879 net.cpp:137] Memory required for data: 526656
I0222 17:40:10.340939 24879 layer_factory.hpp:77] Creating layer h_9_lstm1_unit_9_1_split
I0222 17:40:10.340945 24879 net.cpp:84] Creating Layer h_9_lstm1_unit_9_1_split
I0222 17:40:10.340948 24879 net.cpp:406] h_9_lstm1_unit_9_1_split <- h_9
I0222 17:40:10.340953 24879 net.cpp:380] h_9_lstm1_unit_9_1_split -> h_9_lstm1_unit_9_1_split_0
I0222 17:40:10.340958 24879 net.cpp:380] h_9_lstm1_unit_9_1_split -> h_9_lstm1_unit_9_1_split_1
I0222 17:40:10.340978 24879 net.cpp:122] Setting up h_9_lstm1_unit_9_1_split
I0222 17:40:10.340983 24879 net.cpp:129] Top shape: 1 26 16 (416)
I0222 17:40:10.340988 24879 net.cpp:129] Top shape: 1 26 16 (416)
I0222 17:40:10.340991 24879 net.cpp:137] Memory required for data: 529984
I0222 17:40:10.340996 24879 layer_factory.hpp:77] Creating layer lstm1_h_conted_9
I0222 17:40:10.340999 24879 net.cpp:84] Creating Layer lstm1_h_conted_9
I0222 17:40:10.341003 24879 net.cpp:406] lstm1_h_conted_9 <- h_9_lstm1_unit_9_1_split_0
I0222 17:40:10.341008 24879 net.cpp:406] lstm1_h_conted_9 <- cont_10_lstm1_cont_slice_9_split_0
I0222 17:40:10.341013 24879 net.cpp:380] lstm1_h_conted_9 -> h_conted_9
I0222 17:40:10.341044 24879 net.cpp:122] Setting up lstm1_h_conted_9
I0222 17:40:10.341050 24879 net.cpp:129] Top shape: 1 26 16 (416)
I0222 17:40:10.341053 24879 net.cpp:137] Memory required for data: 531648
I0222 17:40:10.341058 24879 layer_factory.hpp:77] Creating layer lstm1_transform_10
I0222 17:40:10.341063 24879 net.cpp:84] Creating Layer lstm1_transform_10
I0222 17:40:10.341070 24879 net.cpp:406] lstm1_transform_10 <- h_conted_9
I0222 17:40:10.341078 24879 net.cpp:380] lstm1_transform_10 -> W_hc_h_9
I0222 17:40:10.341109 24879 net.cpp:122] Setting up lstm1_transform_10
I0222 17:40:10.341114 24879 net.cpp:129] Top shape: 1 26 64 (1664)
I0222 17:40:10.366509 24879 net.cpp:137] Memory required for data: 538304
I0222 17:40:10.366518 24879 net.cpp:465] Sharing parameters 'W_hc' owned by layer 'lstm1_transform_1', param index 0
I0222 17:40:10.366523 24879 layer_factory.hpp:77] Creating layer lstm1_gate_input_10
I0222 17:40:10.366528 24879 net.cpp:84] Creating Layer lstm1_gate_input_10
I0222 17:40:10.366531 24879 net.cpp:406] lstm1_gate_input_10 <- W_hc_h_9
I0222 17:40:10.366535 24879 net.cpp:406] lstm1_gate_input_10 <- W_xc_x_10
I0222 17:40:10.366539 24879 net.cpp:380] lstm1_gate_input_10 -> gate_input_10
I0222 17:40:10.366565 24879 net.cpp:122] Setting up lstm1_gate_input_10
I0222 17:40:10.366571 24879 net.cpp:129] Top shape: 1 26 64 (1664)
I0222 17:40:10.366575 24879 net.cpp:137] Memory required for data: 544960
I0222 17:40:10.366576 24879 layer_factory.hpp:77] Creating layer lstm1_unit_10
I0222 17:40:10.366583 24879 net.cpp:84] Creating Layer lstm1_unit_10
I0222 17:40:10.366586 24879 net.cpp:406] lstm1_unit_10 <- c_9
I0222 17:40:10.366590 24879 net.cpp:406] lstm1_unit_10 <- gate_input_10
I0222 17:40:10.366593 24879 net.cpp:406] lstm1_unit_10 <- cont_10_lstm1_cont_slice_9_split_1
I0222 17:40:10.366596 24879 net.cpp:380] lstm1_unit_10 -> c_10
I0222 17:40:10.366601 24879 net.cpp:380] lstm1_unit_10 -> h_10
I0222 17:40:10.366628 24879 net.cpp:122] Setting up lstm1_unit_10
I0222 17:40:10.366632 24879 net.cpp:129] Top shape: 1 26 16 (416)
I0222 17:40:10.366636 24879 net.cpp:129] Top shape: 1 26 16 (416)
I0222 17:40:10.366638 24879 net.cpp:137] Memory required for data: 548288
I0222 17:40:10.366641 24879 layer_factory.hpp:77] Creating layer h_10_lstm1_unit_10_1_split
I0222 17:40:10.366643 24879 net.cpp:84] Creating Layer h_10_lstm1_unit_10_1_split
I0222 17:40:10.366647 24879 net.cpp:406] h_10_lstm1_unit_10_1_split <- h_10
I0222 17:40:10.366650 24879 net.cpp:380] h_10_lstm1_unit_10_1_split -> h_10_lstm1_unit_10_1_split_0
I0222 17:40:10.366655 24879 net.cpp:380] h_10_lstm1_unit_10_1_split -> h_10_lstm1_unit_10_1_split_1
I0222 17:40:10.366673 24879 net.cpp:122] Setting up h_10_lstm1_unit_10_1_split
I0222 17:40:10.366678 24879 net.cpp:129] Top shape: 1 26 16 (416)
I0222 17:40:10.366681 24879 net.cpp:129] Top shape: 1 26 16 (416)
I0222 17:40:10.366684 24879 net.cpp:137] Memory required for data: 551616
I0222 17:40:10.366686 24879 layer_factory.hpp:77] Creating layer lstm1_h_conted_10
I0222 17:40:10.366693 24879 net.cpp:84] Creating Layer lstm1_h_conted_10
I0222 17:40:10.366698 24879 net.cpp:406] lstm1_h_conted_10 <- h_10_lstm1_unit_10_1_split_0
I0222 17:40:10.366703 24879 net.cpp:406] lstm1_h_conted_10 <- cont_11_lstm1_cont_slice_10_split_0
I0222 17:40:10.366709 24879 net.cpp:380] lstm1_h_conted_10 -> h_conted_10
I0222 17:40:10.366744 24879 net.cpp:122] Setting up lstm1_h_conted_10
I0222 17:40:10.366750 24879 net.cpp:129] Top shape: 1 26 16 (416)
I0222 17:40:10.366755 24879 net.cpp:137] Memory required for data: 553280
I0222 17:40:10.366758 24879 layer_factory.hpp:77] Creating layer lstm1_transform_11
I0222 17:40:10.366765 24879 net.cpp:84] Creating Layer lstm1_transform_11
I0222 17:40:10.366768 24879 net.cpp:406] lstm1_transform_11 <- h_conted_10
I0222 17:40:10.366773 24879 net.cpp:380] lstm1_transform_11 -> W_hc_h_10
I0222 17:40:10.366809 24879 net.cpp:122] Setting up lstm1_transform_11
I0222 17:40:10.366816 24879 net.cpp:129] Top shape: 1 26 64 (1664)
I0222 17:40:10.366819 24879 net.cpp:137] Memory required for data: 559936
I0222 17:40:10.366823 24879 net.cpp:465] Sharing parameters 'W_hc' owned by layer 'lstm1_transform_1', param index 0
I0222 17:40:10.366827 24879 layer_factory.hpp:77] Creating layer lstm1_gate_input_11
I0222 17:40:10.366833 24879 net.cpp:84] Creating Layer lstm1_gate_input_11
I0222 17:40:10.366837 24879 net.cpp:406] lstm1_gate_input_11 <- W_hc_h_10
I0222 17:40:10.366842 24879 net.cpp:406] lstm1_gate_input_11 <- W_xc_x_11
I0222 17:40:10.366854 24879 net.cpp:380] lstm1_gate_input_11 -> gate_input_11
I0222 17:40:10.366869 24879 net.cpp:122] Setting up lstm1_gate_input_11
I0222 17:40:10.366875 24879 net.cpp:129] Top shape: 1 26 64 (1664)
I0222 17:40:10.366878 24879 net.cpp:137] Memory required for data: 566592
I0222 17:40:10.366883 24879 layer_factory.hpp:77] Creating layer lstm1_unit_11
I0222 17:40:10.366888 24879 net.cpp:84] Creating Layer lstm1_unit_11
I0222 17:40:10.366891 24879 net.cpp:406] lstm1_unit_11 <- c_10
I0222 17:40:10.366896 24879 net.cpp:406] lstm1_unit_11 <- gate_input_11
I0222 17:40:10.366900 24879 net.cpp:406] lstm1_unit_11 <- cont_11_lstm1_cont_slice_10_split_1
I0222 17:40:10.366906 24879 net.cpp:380] lstm1_unit_11 -> c_11
I0222 17:40:10.366912 24879 net.cpp:380] lstm1_unit_11 -> h_11
I0222 17:40:10.366936 24879 net.cpp:122] Setting up lstm1_unit_11
I0222 17:40:10.366942 24879 net.cpp:129] Top shape: 1 26 16 (416)
I0222 17:40:10.366946 24879 net.cpp:129] Top shape: 1 26 16 (416)
I0222 17:40:10.366950 24879 net.cpp:137] Memory required for data: 569920
I0222 17:40:10.366953 24879 layer_factory.hpp:77] Creating layer h_11_lstm1_unit_11_1_split
I0222 17:40:10.366958 24879 net.cpp:84] Creating Layer h_11_lstm1_unit_11_1_split
I0222 17:40:10.366962 24879 net.cpp:406] h_11_lstm1_unit_11_1_split <- h_11
I0222 17:40:10.366967 24879 net.cpp:380] h_11_lstm1_unit_11_1_split -> h_11_lstm1_unit_11_1_split_0
I0222 17:40:10.366973 24879 net.cpp:380] h_11_lstm1_unit_11_1_split -> h_11_lstm1_unit_11_1_split_1
I0222 17:40:10.366991 24879 net.cpp:122] Setting up h_11_lstm1_unit_11_1_split
I0222 17:40:10.366997 24879 net.cpp:129] Top shape: 1 26 16 (416)
I0222 17:40:10.367002 24879 net.cpp:129] Top shape: 1 26 16 (416)
I0222 17:40:10.367004 24879 net.cpp:137] Memory required for data: 573248
I0222 17:40:10.367008 24879 layer_factory.hpp:77] Creating layer lstm1_h_conted_11
I0222 17:40:10.367014 24879 net.cpp:84] Creating Layer lstm1_h_conted_11
I0222 17:40:10.367018 24879 net.cpp:406] lstm1_h_conted_11 <- h_11_lstm1_unit_11_1_split_0
I0222 17:40:10.367023 24879 net.cpp:406] lstm1_h_conted_11 <- cont_12_lstm1_cont_slice_11_split_0
I0222 17:40:10.367028 24879 net.cpp:380] lstm1_h_conted_11 -> h_conted_11
I0222 17:40:10.367061 24879 net.cpp:122] Setting up lstm1_h_conted_11
I0222 17:40:10.367067 24879 net.cpp:129] Top shape: 1 26 16 (416)
I0222 17:40:10.367070 24879 net.cpp:137] Memory required for data: 574912
I0222 17:40:10.367074 24879 layer_factory.hpp:77] Creating layer lstm1_transform_12
I0222 17:40:10.367080 24879 net.cpp:84] Creating Layer lstm1_transform_12
I0222 17:40:10.367084 24879 net.cpp:406] lstm1_transform_12 <- h_conted_11
I0222 17:40:10.367089 24879 net.cpp:380] lstm1_transform_12 -> W_hc_h_11
I0222 17:40:10.367120 24879 net.cpp:122] Setting up lstm1_transform_12
I0222 17:40:10.367126 24879 net.cpp:129] Top shape: 1 26 64 (1664)
I0222 17:40:10.367130 24879 net.cpp:137] Memory required for data: 581568
I0222 17:40:10.367135 24879 net.cpp:465] Sharing parameters 'W_hc' owned by layer 'lstm1_transform_1', param index 0
I0222 17:40:10.367138 24879 layer_factory.hpp:77] Creating layer lstm1_gate_input_12
I0222 17:40:10.367143 24879 net.cpp:84] Creating Layer lstm1_gate_input_12
I0222 17:40:10.367147 24879 net.cpp:406] lstm1_gate_input_12 <- W_hc_h_11
I0222 17:40:10.367151 24879 net.cpp:406] lstm1_gate_input_12 <- W_xc_x_12
I0222 17:40:10.367157 24879 net.cpp:380] lstm1_gate_input_12 -> gate_input_12
I0222 17:40:10.367172 24879 net.cpp:122] Setting up lstm1_gate_input_12
I0222 17:40:10.367177 24879 net.cpp:129] Top shape: 1 26 64 (1664)
I0222 17:40:10.367180 24879 net.cpp:137] Memory required for data: 588224
I0222 17:40:10.367184 24879 layer_factory.hpp:77] Creating layer lstm1_unit_12
I0222 17:40:10.367188 24879 net.cpp:84] Creating Layer lstm1_unit_12
I0222 17:40:10.367192 24879 net.cpp:406] lstm1_unit_12 <- c_11
I0222 17:40:10.367197 24879 net.cpp:406] lstm1_unit_12 <- gate_input_12
I0222 17:40:10.367202 24879 net.cpp:406] lstm1_unit_12 <- cont_12_lstm1_cont_slice_11_split_1
I0222 17:40:10.367213 24879 net.cpp:380] lstm1_unit_12 -> c_12
I0222 17:40:10.370491 24879 net.cpp:380] lstm1_unit_12 -> h_12
I0222 17:40:10.370527 24879 net.cpp:122] Setting up lstm1_unit_12
I0222 17:40:10.370546 24879 net.cpp:129] Top shape: 1 26 16 (416)
I0222 17:40:10.370551 24879 net.cpp:129] Top shape: 1 26 16 (416)
I0222 17:40:10.370554 24879 net.cpp:137] Memory required for data: 591552
I0222 17:40:10.370558 24879 layer_factory.hpp:77] Creating layer h_12_lstm1_unit_12_1_split
I0222 17:40:10.370563 24879 net.cpp:84] Creating Layer h_12_lstm1_unit_12_1_split
I0222 17:40:10.370568 24879 net.cpp:406] h_12_lstm1_unit_12_1_split <- h_12
I0222 17:40:10.370573 24879 net.cpp:380] h_12_lstm1_unit_12_1_split -> h_12_lstm1_unit_12_1_split_0
I0222 17:40:10.370579 24879 net.cpp:380] h_12_lstm1_unit_12_1_split -> h_12_lstm1_unit_12_1_split_1
I0222 17:40:10.370597 24879 net.cpp:122] Setting up h_12_lstm1_unit_12_1_split
I0222 17:40:10.370602 24879 net.cpp:129] Top shape: 1 26 16 (416)
I0222 17:40:10.370607 24879 net.cpp:129] Top shape: 1 26 16 (416)
I0222 17:40:10.370610 24879 net.cpp:137] Memory required for data: 594880
I0222 17:40:10.370615 24879 layer_factory.hpp:77] Creating layer lstm1_h_conted_12
I0222 17:40:10.370620 24879 net.cpp:84] Creating Layer lstm1_h_conted_12
I0222 17:40:10.370623 24879 net.cpp:406] lstm1_h_conted_12 <- h_12_lstm1_unit_12_1_split_0
I0222 17:40:10.370628 24879 net.cpp:406] lstm1_h_conted_12 <- cont_13_lstm1_cont_slice_12_split_0
I0222 17:40:10.370635 24879 net.cpp:380] lstm1_h_conted_12 -> h_conted_12
I0222 17:40:10.370666 24879 net.cpp:122] Setting up lstm1_h_conted_12
I0222 17:40:10.370671 24879 net.cpp:129] Top shape: 1 26 16 (416)
I0222 17:40:10.370674 24879 net.cpp:137] Memory required for data: 596544
I0222 17:40:10.370678 24879 layer_factory.hpp:77] Creating layer lstm1_transform_13
I0222 17:40:10.370687 24879 net.cpp:84] Creating Layer lstm1_transform_13
I0222 17:40:10.370690 24879 net.cpp:406] lstm1_transform_13 <- h_conted_12
I0222 17:40:10.370695 24879 net.cpp:380] lstm1_transform_13 -> W_hc_h_12
I0222 17:40:10.370728 24879 net.cpp:122] Setting up lstm1_transform_13
I0222 17:40:10.370734 24879 net.cpp:129] Top shape: 1 26 64 (1664)
I0222 17:40:10.370738 24879 net.cpp:137] Memory required for data: 603200
I0222 17:40:10.370741 24879 net.cpp:465] Sharing parameters 'W_hc' owned by layer 'lstm1_transform_1', param index 0
I0222 17:40:10.370745 24879 layer_factory.hpp:77] Creating layer lstm1_gate_input_13
I0222 17:40:10.370750 24879 net.cpp:84] Creating Layer lstm1_gate_input_13
I0222 17:40:10.370754 24879 net.cpp:406] lstm1_gate_input_13 <- W_hc_h_12
I0222 17:40:10.370759 24879 net.cpp:406] lstm1_gate_input_13 <- W_xc_x_13
I0222 17:40:10.370764 24879 net.cpp:380] lstm1_gate_input_13 -> gate_input_13
I0222 17:40:10.370779 24879 net.cpp:122] Setting up lstm1_gate_input_13
I0222 17:40:10.370784 24879 net.cpp:129] Top shape: 1 26 64 (1664)
I0222 17:40:10.370786 24879 net.cpp:137] Memory required for data: 609856
I0222 17:40:10.370790 24879 layer_factory.hpp:77] Creating layer lstm1_unit_13
I0222 17:40:10.370795 24879 net.cpp:84] Creating Layer lstm1_unit_13
I0222 17:40:10.370800 24879 net.cpp:406] lstm1_unit_13 <- c_12
I0222 17:40:10.370803 24879 net.cpp:406] lstm1_unit_13 <- gate_input_13
I0222 17:40:10.370808 24879 net.cpp:406] lstm1_unit_13 <- cont_13_lstm1_cont_slice_12_split_1
I0222 17:40:10.370812 24879 net.cpp:380] lstm1_unit_13 -> c_13
I0222 17:40:10.370818 24879 net.cpp:380] lstm1_unit_13 -> h_13
I0222 17:40:10.370857 24879 net.cpp:122] Setting up lstm1_unit_13
I0222 17:40:10.370863 24879 net.cpp:129] Top shape: 1 26 16 (416)
I0222 17:40:10.370882 24879 net.cpp:129] Top shape: 1 26 16 (416)
I0222 17:40:10.370884 24879 net.cpp:137] Memory required for data: 613184
I0222 17:40:10.370887 24879 layer_factory.hpp:77] Creating layer h_13_lstm1_unit_13_1_split
I0222 17:40:10.370893 24879 net.cpp:84] Creating Layer h_13_lstm1_unit_13_1_split
I0222 17:40:10.370896 24879 net.cpp:406] h_13_lstm1_unit_13_1_split <- h_13
I0222 17:40:10.370901 24879 net.cpp:380] h_13_lstm1_unit_13_1_split -> h_13_lstm1_unit_13_1_split_0
I0222 17:40:10.370913 24879 net.cpp:380] h_13_lstm1_unit_13_1_split -> h_13_lstm1_unit_13_1_split_1
I0222 17:40:10.370931 24879 net.cpp:122] Setting up h_13_lstm1_unit_13_1_split
I0222 17:40:10.370937 24879 net.cpp:129] Top shape: 1 26 16 (416)
I0222 17:40:10.370941 24879 net.cpp:129] Top shape: 1 26 16 (416)
I0222 17:40:10.370944 24879 net.cpp:137] Memory required for data: 616512
I0222 17:40:10.370949 24879 layer_factory.hpp:77] Creating layer lstm1_h_conted_13
I0222 17:40:10.370954 24879 net.cpp:84] Creating Layer lstm1_h_conted_13
I0222 17:40:10.370956 24879 net.cpp:406] lstm1_h_conted_13 <- h_13_lstm1_unit_13_1_split_0
I0222 17:40:10.370961 24879 net.cpp:406] lstm1_h_conted_13 <- cont_14_lstm1_cont_slice_13_split_0
I0222 17:40:10.370966 24879 net.cpp:380] lstm1_h_conted_13 -> h_conted_13
I0222 17:40:10.371001 24879 net.cpp:122] Setting up lstm1_h_conted_13
I0222 17:40:10.371007 24879 net.cpp:129] Top shape: 1 26 16 (416)
I0222 17:40:10.371011 24879 net.cpp:137] Memory required for data: 618176
I0222 17:40:10.371014 24879 layer_factory.hpp:77] Creating layer lstm1_transform_14
I0222 17:40:10.371019 24879 net.cpp:84] Creating Layer lstm1_transform_14
I0222 17:40:10.371023 24879 net.cpp:406] lstm1_transform_14 <- h_conted_13
I0222 17:40:10.371029 24879 net.cpp:380] lstm1_transform_14 -> W_hc_h_13
I0222 17:40:10.371060 24879 net.cpp:122] Setting up lstm1_transform_14
I0222 17:40:10.371065 24879 net.cpp:129] Top shape: 1 26 64 (1664)
I0222 17:40:10.371069 24879 net.cpp:137] Memory required for data: 624832
I0222 17:40:10.371073 24879 net.cpp:465] Sharing parameters 'W_hc' owned by layer 'lstm1_transform_1', param index 0
I0222 17:40:10.371078 24879 layer_factory.hpp:77] Creating layer lstm1_gate_input_14
I0222 17:40:10.371081 24879 net.cpp:84] Creating Layer lstm1_gate_input_14
I0222 17:40:10.371085 24879 net.cpp:406] lstm1_gate_input_14 <- W_hc_h_13
I0222 17:40:10.371090 24879 net.cpp:406] lstm1_gate_input_14 <- W_xc_x_14
I0222 17:40:10.371095 24879 net.cpp:380] lstm1_gate_input_14 -> gate_input_14
I0222 17:40:10.371109 24879 net.cpp:122] Setting up lstm1_gate_input_14
I0222 17:40:10.371114 24879 net.cpp:129] Top shape: 1 26 64 (1664)
I0222 17:40:10.371116 24879 net.cpp:137] Memory required for data: 631488
I0222 17:40:10.371120 24879 layer_factory.hpp:77] Creating layer lstm1_unit_14
I0222 17:40:10.371125 24879 net.cpp:84] Creating Layer lstm1_unit_14
I0222 17:40:10.371129 24879 net.cpp:406] lstm1_unit_14 <- c_13
I0222 17:40:10.371134 24879 net.cpp:406] lstm1_unit_14 <- gate_input_14
I0222 17:40:10.371139 24879 net.cpp:406] lstm1_unit_14 <- cont_14_lstm1_cont_slice_13_split_1
I0222 17:40:10.371143 24879 net.cpp:380] lstm1_unit_14 -> c_14
I0222 17:40:10.371150 24879 net.cpp:380] lstm1_unit_14 -> h_14
I0222 17:40:10.371172 24879 net.cpp:122] Setting up lstm1_unit_14
I0222 17:40:10.371178 24879 net.cpp:129] Top shape: 1 26 16 (416)
I0222 17:40:10.371182 24879 net.cpp:129] Top shape: 1 26 16 (416)
I0222 17:40:10.371186 24879 net.cpp:137] Memory required for data: 634816
I0222 17:40:10.371189 24879 layer_factory.hpp:77] Creating layer h_14_lstm1_unit_14_1_split
I0222 17:40:10.371193 24879 net.cpp:84] Creating Layer h_14_lstm1_unit_14_1_split
I0222 17:40:10.371197 24879 net.cpp:406] h_14_lstm1_unit_14_1_split <- h_14
I0222 17:40:10.371203 24879 net.cpp:380] h_14_lstm1_unit_14_1_split -> h_14_lstm1_unit_14_1_split_0
I0222 17:40:10.371208 24879 net.cpp:380] h_14_lstm1_unit_14_1_split -> h_14_lstm1_unit_14_1_split_1
I0222 17:40:10.371227 24879 net.cpp:122] Setting up h_14_lstm1_unit_14_1_split
I0222 17:40:10.371232 24879 net.cpp:129] Top shape: 1 26 16 (416)
I0222 17:40:10.371237 24879 net.cpp:129] Top shape: 1 26 16 (416)
I0222 17:40:10.371239 24879 net.cpp:137] Memory required for data: 638144
I0222 17:40:10.371243 24879 layer_factory.hpp:77] Creating layer lstm1_h_conted_14
I0222 17:40:10.371248 24879 net.cpp:84] Creating Layer lstm1_h_conted_14
I0222 17:40:10.396719 24879 net.cpp:406] lstm1_h_conted_14 <- h_14_lstm1_unit_14_1_split_0
I0222 17:40:10.396733 24879 net.cpp:406] lstm1_h_conted_14 <- cont_15_lstm1_cont_slice_14_split_0
I0222 17:40:10.396756 24879 net.cpp:380] lstm1_h_conted_14 -> h_conted_14
I0222 17:40:10.396817 24879 net.cpp:122] Setting up lstm1_h_conted_14
I0222 17:40:10.396824 24879 net.cpp:129] Top shape: 1 26 16 (416)
I0222 17:40:10.396827 24879 net.cpp:137] Memory required for data: 639808
I0222 17:40:10.396831 24879 layer_factory.hpp:77] Creating layer lstm1_transform_15
I0222 17:40:10.396836 24879 net.cpp:84] Creating Layer lstm1_transform_15
I0222 17:40:10.396839 24879 net.cpp:406] lstm1_transform_15 <- h_conted_14
I0222 17:40:10.396843 24879 net.cpp:380] lstm1_transform_15 -> W_hc_h_14
I0222 17:40:10.396883 24879 net.cpp:122] Setting up lstm1_transform_15
I0222 17:40:10.396888 24879 net.cpp:129] Top shape: 1 26 64 (1664)
I0222 17:40:10.396889 24879 net.cpp:137] Memory required for data: 646464
I0222 17:40:10.396898 24879 net.cpp:465] Sharing parameters 'W_hc' owned by layer 'lstm1_transform_1', param index 0
I0222 17:40:10.396903 24879 layer_factory.hpp:77] Creating layer lstm1_gate_input_15
I0222 17:40:10.396908 24879 net.cpp:84] Creating Layer lstm1_gate_input_15
I0222 17:40:10.396910 24879 net.cpp:406] lstm1_gate_input_15 <- W_hc_h_14
I0222 17:40:10.396914 24879 net.cpp:406] lstm1_gate_input_15 <- W_xc_x_15
I0222 17:40:10.396917 24879 net.cpp:380] lstm1_gate_input_15 -> gate_input_15
I0222 17:40:10.396931 24879 net.cpp:122] Setting up lstm1_gate_input_15
I0222 17:40:10.396936 24879 net.cpp:129] Top shape: 1 26 64 (1664)
I0222 17:40:10.396939 24879 net.cpp:137] Memory required for data: 653120
I0222 17:40:10.396940 24879 layer_factory.hpp:77] Creating layer lstm1_unit_15
I0222 17:40:10.396945 24879 net.cpp:84] Creating Layer lstm1_unit_15
I0222 17:40:10.396950 24879 net.cpp:406] lstm1_unit_15 <- c_14
I0222 17:40:10.396952 24879 net.cpp:406] lstm1_unit_15 <- gate_input_15
I0222 17:40:10.396955 24879 net.cpp:406] lstm1_unit_15 <- cont_15_lstm1_cont_slice_14_split_1
I0222 17:40:10.396960 24879 net.cpp:380] lstm1_unit_15 -> c_15
I0222 17:40:10.396963 24879 net.cpp:380] lstm1_unit_15 -> h_15
I0222 17:40:10.396987 24879 net.cpp:122] Setting up lstm1_unit_15
I0222 17:40:10.396992 24879 net.cpp:129] Top shape: 1 26 16 (416)
I0222 17:40:10.396996 24879 net.cpp:129] Top shape: 1 26 16 (416)
I0222 17:40:10.396997 24879 net.cpp:137] Memory required for data: 656448
I0222 17:40:10.396999 24879 layer_factory.hpp:77] Creating layer h_15_lstm1_unit_15_1_split
I0222 17:40:10.397003 24879 net.cpp:84] Creating Layer h_15_lstm1_unit_15_1_split
I0222 17:40:10.397006 24879 net.cpp:406] h_15_lstm1_unit_15_1_split <- h_15
I0222 17:40:10.397011 24879 net.cpp:380] h_15_lstm1_unit_15_1_split -> h_15_lstm1_unit_15_1_split_0
I0222 17:40:10.397016 24879 net.cpp:380] h_15_lstm1_unit_15_1_split -> h_15_lstm1_unit_15_1_split_1
I0222 17:40:10.397032 24879 net.cpp:122] Setting up h_15_lstm1_unit_15_1_split
I0222 17:40:10.397037 24879 net.cpp:129] Top shape: 1 26 16 (416)
I0222 17:40:10.397039 24879 net.cpp:129] Top shape: 1 26 16 (416)
I0222 17:40:10.397042 24879 net.cpp:137] Memory required for data: 659776
I0222 17:40:10.397043 24879 layer_factory.hpp:77] Creating layer lstm1_h_conted_15
I0222 17:40:10.397048 24879 net.cpp:84] Creating Layer lstm1_h_conted_15
I0222 17:40:10.397052 24879 net.cpp:406] lstm1_h_conted_15 <- h_15_lstm1_unit_15_1_split_0
I0222 17:40:10.397054 24879 net.cpp:406] lstm1_h_conted_15 <- cont_16_lstm1_cont_slice_15_split_0
I0222 17:40:10.397059 24879 net.cpp:380] lstm1_h_conted_15 -> h_conted_15
I0222 17:40:10.397089 24879 net.cpp:122] Setting up lstm1_h_conted_15
I0222 17:40:10.397094 24879 net.cpp:129] Top shape: 1 26 16 (416)
I0222 17:40:10.397096 24879 net.cpp:137] Memory required for data: 661440
I0222 17:40:10.397099 24879 layer_factory.hpp:77] Creating layer lstm1_transform_16
I0222 17:40:10.397104 24879 net.cpp:84] Creating Layer lstm1_transform_16
I0222 17:40:10.397107 24879 net.cpp:406] lstm1_transform_16 <- h_conted_15
I0222 17:40:10.397112 24879 net.cpp:380] lstm1_transform_16 -> W_hc_h_15
I0222 17:40:10.397142 24879 net.cpp:122] Setting up lstm1_transform_16
I0222 17:40:10.397147 24879 net.cpp:129] Top shape: 1 26 64 (1664)
I0222 17:40:10.397156 24879 net.cpp:137] Memory required for data: 668096
I0222 17:40:10.397158 24879 net.cpp:465] Sharing parameters 'W_hc' owned by layer 'lstm1_transform_1', param index 0
I0222 17:40:10.397162 24879 layer_factory.hpp:77] Creating layer lstm1_gate_input_16
I0222 17:40:10.397167 24879 net.cpp:84] Creating Layer lstm1_gate_input_16
I0222 17:40:10.397171 24879 net.cpp:406] lstm1_gate_input_16 <- W_hc_h_15
I0222 17:40:10.397174 24879 net.cpp:406] lstm1_gate_input_16 <- W_xc_x_16
I0222 17:40:10.397178 24879 net.cpp:380] lstm1_gate_input_16 -> gate_input_16
I0222 17:40:10.397192 24879 net.cpp:122] Setting up lstm1_gate_input_16
I0222 17:40:10.397197 24879 net.cpp:129] Top shape: 1 26 64 (1664)
I0222 17:40:10.397198 24879 net.cpp:137] Memory required for data: 674752
I0222 17:40:10.397202 24879 layer_factory.hpp:77] Creating layer lstm1_unit_16
I0222 17:40:10.397205 24879 net.cpp:84] Creating Layer lstm1_unit_16
I0222 17:40:10.397209 24879 net.cpp:406] lstm1_unit_16 <- c_15
I0222 17:40:10.397213 24879 net.cpp:406] lstm1_unit_16 <- gate_input_16
I0222 17:40:10.397217 24879 net.cpp:406] lstm1_unit_16 <- cont_16_lstm1_cont_slice_15_split_1
I0222 17:40:10.397222 24879 net.cpp:380] lstm1_unit_16 -> c_16
I0222 17:40:10.397227 24879 net.cpp:380] lstm1_unit_16 -> h_16
I0222 17:40:10.397249 24879 net.cpp:122] Setting up lstm1_unit_16
I0222 17:40:10.397254 24879 net.cpp:129] Top shape: 1 26 16 (416)
I0222 17:40:10.397258 24879 net.cpp:129] Top shape: 1 26 16 (416)
I0222 17:40:10.397260 24879 net.cpp:137] Memory required for data: 678080
I0222 17:40:10.397264 24879 layer_factory.hpp:77] Creating layer h_16_lstm1_unit_16_1_split
I0222 17:40:10.397267 24879 net.cpp:84] Creating Layer h_16_lstm1_unit_16_1_split
I0222 17:40:10.397270 24879 net.cpp:406] h_16_lstm1_unit_16_1_split <- h_16
I0222 17:40:10.397274 24879 net.cpp:380] h_16_lstm1_unit_16_1_split -> h_16_lstm1_unit_16_1_split_0
I0222 17:40:10.397279 24879 net.cpp:380] h_16_lstm1_unit_16_1_split -> h_16_lstm1_unit_16_1_split_1
I0222 17:40:10.397296 24879 net.cpp:122] Setting up h_16_lstm1_unit_16_1_split
I0222 17:40:10.397300 24879 net.cpp:129] Top shape: 1 26 16 (416)
I0222 17:40:10.397305 24879 net.cpp:129] Top shape: 1 26 16 (416)
I0222 17:40:10.397307 24879 net.cpp:137] Memory required for data: 681408
I0222 17:40:10.397310 24879 layer_factory.hpp:77] Creating layer lstm1_h_conted_16
I0222 17:40:10.397317 24879 net.cpp:84] Creating Layer lstm1_h_conted_16
I0222 17:40:10.397320 24879 net.cpp:406] lstm1_h_conted_16 <- h_16_lstm1_unit_16_1_split_0
I0222 17:40:10.397325 24879 net.cpp:406] lstm1_h_conted_16 <- cont_17_lstm1_cont_slice_16_split_0
I0222 17:40:10.397330 24879 net.cpp:380] lstm1_h_conted_16 -> h_conted_16
I0222 17:40:10.397368 24879 net.cpp:122] Setting up lstm1_h_conted_16
I0222 17:40:10.397373 24879 net.cpp:129] Top shape: 1 26 16 (416)
I0222 17:40:10.397377 24879 net.cpp:137] Memory required for data: 683072
I0222 17:40:10.397379 24879 layer_factory.hpp:77] Creating layer lstm1_transform_17
I0222 17:40:10.397384 24879 net.cpp:84] Creating Layer lstm1_transform_17
I0222 17:40:10.397388 24879 net.cpp:406] lstm1_transform_17 <- h_conted_16
I0222 17:40:10.397392 24879 net.cpp:380] lstm1_transform_17 -> W_hc_h_16
I0222 17:40:10.397423 24879 net.cpp:122] Setting up lstm1_transform_17
I0222 17:40:10.397428 24879 net.cpp:129] Top shape: 1 26 64 (1664)
I0222 17:40:10.397431 24879 net.cpp:137] Memory required for data: 689728
I0222 17:40:10.397434 24879 net.cpp:465] Sharing parameters 'W_hc' owned by layer 'lstm1_transform_1', param index 0
I0222 17:40:10.397438 24879 layer_factory.hpp:77] Creating layer lstm1_gate_input_17
I0222 17:40:10.397441 24879 net.cpp:84] Creating Layer lstm1_gate_input_17
I0222 17:40:10.399786 24879 net.cpp:406] lstm1_gate_input_17 <- W_hc_h_16
I0222 17:40:10.399796 24879 net.cpp:406] lstm1_gate_input_17 <- W_xc_x_17
I0222 17:40:10.399806 24879 net.cpp:380] lstm1_gate_input_17 -> gate_input_17
I0222 17:40:10.399840 24879 net.cpp:122] Setting up lstm1_gate_input_17
I0222 17:40:10.399847 24879 net.cpp:129] Top shape: 1 26 64 (1664)
I0222 17:40:10.399871 24879 net.cpp:137] Memory required for data: 696384
I0222 17:40:10.399874 24879 layer_factory.hpp:77] Creating layer lstm1_unit_17
I0222 17:40:10.399878 24879 net.cpp:84] Creating Layer lstm1_unit_17
I0222 17:40:10.399881 24879 net.cpp:406] lstm1_unit_17 <- c_16
I0222 17:40:10.399885 24879 net.cpp:406] lstm1_unit_17 <- gate_input_17
I0222 17:40:10.399889 24879 net.cpp:406] lstm1_unit_17 <- cont_17_lstm1_cont_slice_16_split_1
I0222 17:40:10.399893 24879 net.cpp:380] lstm1_unit_17 -> c_17
I0222 17:40:10.399900 24879 net.cpp:380] lstm1_unit_17 -> h_17
I0222 17:40:10.399940 24879 net.cpp:122] Setting up lstm1_unit_17
I0222 17:40:10.399946 24879 net.cpp:129] Top shape: 1 26 16 (416)
I0222 17:40:10.399951 24879 net.cpp:129] Top shape: 1 26 16 (416)
I0222 17:40:10.399955 24879 net.cpp:137] Memory required for data: 699712
I0222 17:40:10.399958 24879 layer_factory.hpp:77] Creating layer h_17_lstm1_unit_17_1_split
I0222 17:40:10.399963 24879 net.cpp:84] Creating Layer h_17_lstm1_unit_17_1_split
I0222 17:40:10.399967 24879 net.cpp:406] h_17_lstm1_unit_17_1_split <- h_17
I0222 17:40:10.399971 24879 net.cpp:380] h_17_lstm1_unit_17_1_split -> h_17_lstm1_unit_17_1_split_0
I0222 17:40:10.399977 24879 net.cpp:380] h_17_lstm1_unit_17_1_split -> h_17_lstm1_unit_17_1_split_1
I0222 17:40:10.399996 24879 net.cpp:122] Setting up h_17_lstm1_unit_17_1_split
I0222 17:40:10.400002 24879 net.cpp:129] Top shape: 1 26 16 (416)
I0222 17:40:10.400007 24879 net.cpp:129] Top shape: 1 26 16 (416)
I0222 17:40:10.400009 24879 net.cpp:137] Memory required for data: 703040
I0222 17:40:10.400012 24879 layer_factory.hpp:77] Creating layer lstm1_h_conted_17
I0222 17:40:10.400017 24879 net.cpp:84] Creating Layer lstm1_h_conted_17
I0222 17:40:10.400022 24879 net.cpp:406] lstm1_h_conted_17 <- h_17_lstm1_unit_17_1_split_0
I0222 17:40:10.400027 24879 net.cpp:406] lstm1_h_conted_17 <- cont_18_lstm1_cont_slice_17_split_0
I0222 17:40:10.400032 24879 net.cpp:380] lstm1_h_conted_17 -> h_conted_17
I0222 17:40:10.400064 24879 net.cpp:122] Setting up lstm1_h_conted_17
I0222 17:40:10.400070 24879 net.cpp:129] Top shape: 1 26 16 (416)
I0222 17:40:10.400074 24879 net.cpp:137] Memory required for data: 704704
I0222 17:40:10.400077 24879 layer_factory.hpp:77] Creating layer lstm1_transform_18
I0222 17:40:10.400084 24879 net.cpp:84] Creating Layer lstm1_transform_18
I0222 17:40:10.400087 24879 net.cpp:406] lstm1_transform_18 <- h_conted_17
I0222 17:40:10.400092 24879 net.cpp:380] lstm1_transform_18 -> W_hc_h_17
I0222 17:40:10.400128 24879 net.cpp:122] Setting up lstm1_transform_18
I0222 17:40:10.400135 24879 net.cpp:129] Top shape: 1 26 64 (1664)
I0222 17:40:10.400138 24879 net.cpp:137] Memory required for data: 711360
I0222 17:40:10.400142 24879 net.cpp:465] Sharing parameters 'W_hc' owned by layer 'lstm1_transform_1', param index 0
I0222 17:40:10.400146 24879 layer_factory.hpp:77] Creating layer lstm1_gate_input_18
I0222 17:40:10.400151 24879 net.cpp:84] Creating Layer lstm1_gate_input_18
I0222 17:40:10.400156 24879 net.cpp:406] lstm1_gate_input_18 <- W_hc_h_17
I0222 17:40:10.400159 24879 net.cpp:406] lstm1_gate_input_18 <- W_xc_x_18
I0222 17:40:10.400164 24879 net.cpp:380] lstm1_gate_input_18 -> gate_input_18
I0222 17:40:10.400178 24879 net.cpp:122] Setting up lstm1_gate_input_18
I0222 17:40:10.400184 24879 net.cpp:129] Top shape: 1 26 64 (1664)
I0222 17:40:10.400187 24879 net.cpp:137] Memory required for data: 718016
I0222 17:40:10.400190 24879 layer_factory.hpp:77] Creating layer lstm1_unit_18
I0222 17:40:10.400195 24879 net.cpp:84] Creating Layer lstm1_unit_18
I0222 17:40:10.400199 24879 net.cpp:406] lstm1_unit_18 <- c_17
I0222 17:40:10.400203 24879 net.cpp:406] lstm1_unit_18 <- gate_input_18
I0222 17:40:10.400208 24879 net.cpp:406] lstm1_unit_18 <- cont_18_lstm1_cont_slice_17_split_1
I0222 17:40:10.400213 24879 net.cpp:380] lstm1_unit_18 -> c_18
I0222 17:40:10.400218 24879 net.cpp:380] lstm1_unit_18 -> h_18
I0222 17:40:10.400243 24879 net.cpp:122] Setting up lstm1_unit_18
I0222 17:40:10.400249 24879 net.cpp:129] Top shape: 1 26 16 (416)
I0222 17:40:10.400257 24879 net.cpp:129] Top shape: 1 26 16 (416)
I0222 17:40:10.400260 24879 net.cpp:137] Memory required for data: 721344
I0222 17:40:10.400264 24879 layer_factory.hpp:77] Creating layer h_18_lstm1_unit_18_1_split
I0222 17:40:10.400269 24879 net.cpp:84] Creating Layer h_18_lstm1_unit_18_1_split
I0222 17:40:10.400274 24879 net.cpp:406] h_18_lstm1_unit_18_1_split <- h_18
I0222 17:40:10.400279 24879 net.cpp:380] h_18_lstm1_unit_18_1_split -> h_18_lstm1_unit_18_1_split_0
I0222 17:40:10.400283 24879 net.cpp:380] h_18_lstm1_unit_18_1_split -> h_18_lstm1_unit_18_1_split_1
I0222 17:40:10.400318 24879 net.cpp:122] Setting up h_18_lstm1_unit_18_1_split
I0222 17:40:10.400324 24879 net.cpp:129] Top shape: 1 26 16 (416)
I0222 17:40:10.400328 24879 net.cpp:129] Top shape: 1 26 16 (416)
I0222 17:40:10.400331 24879 net.cpp:137] Memory required for data: 724672
I0222 17:40:10.400336 24879 layer_factory.hpp:77] Creating layer lstm1_h_conted_18
I0222 17:40:10.400341 24879 net.cpp:84] Creating Layer lstm1_h_conted_18
I0222 17:40:10.400357 24879 net.cpp:406] lstm1_h_conted_18 <- h_18_lstm1_unit_18_1_split_0
I0222 17:40:10.400362 24879 net.cpp:406] lstm1_h_conted_18 <- cont_19_lstm1_cont_slice_18_split_0
I0222 17:40:10.400367 24879 net.cpp:380] lstm1_h_conted_18 -> h_conted_18
I0222 17:40:10.400396 24879 net.cpp:122] Setting up lstm1_h_conted_18
I0222 17:40:10.400401 24879 net.cpp:129] Top shape: 1 26 16 (416)
I0222 17:40:10.400405 24879 net.cpp:137] Memory required for data: 726336
I0222 17:40:10.400408 24879 layer_factory.hpp:77] Creating layer lstm1_transform_19
I0222 17:40:10.400413 24879 net.cpp:84] Creating Layer lstm1_transform_19
I0222 17:40:10.400418 24879 net.cpp:406] lstm1_transform_19 <- h_conted_18
I0222 17:40:10.400424 24879 net.cpp:380] lstm1_transform_19 -> W_hc_h_18
I0222 17:40:10.400485 24879 net.cpp:122] Setting up lstm1_transform_19
I0222 17:40:10.400490 24879 net.cpp:129] Top shape: 1 26 64 (1664)
I0222 17:40:10.400493 24879 net.cpp:137] Memory required for data: 732992
I0222 17:40:10.400497 24879 net.cpp:465] Sharing parameters 'W_hc' owned by layer 'lstm1_transform_1', param index 0
I0222 17:40:10.400501 24879 layer_factory.hpp:77] Creating layer lstm1_gate_input_19
I0222 17:40:10.400506 24879 net.cpp:84] Creating Layer lstm1_gate_input_19
I0222 17:40:10.400511 24879 net.cpp:406] lstm1_gate_input_19 <- W_hc_h_18
I0222 17:40:10.400516 24879 net.cpp:406] lstm1_gate_input_19 <- W_xc_x_19
I0222 17:40:10.400519 24879 net.cpp:380] lstm1_gate_input_19 -> gate_input_19
I0222 17:40:10.400533 24879 net.cpp:122] Setting up lstm1_gate_input_19
I0222 17:40:10.400538 24879 net.cpp:129] Top shape: 1 26 64 (1664)
I0222 17:40:10.400542 24879 net.cpp:137] Memory required for data: 739648
I0222 17:40:10.400545 24879 layer_factory.hpp:77] Creating layer lstm1_unit_19
I0222 17:40:10.400552 24879 net.cpp:84] Creating Layer lstm1_unit_19
I0222 17:40:10.400554 24879 net.cpp:406] lstm1_unit_19 <- c_18
I0222 17:40:10.400559 24879 net.cpp:406] lstm1_unit_19 <- gate_input_19
I0222 17:40:10.400564 24879 net.cpp:406] lstm1_unit_19 <- cont_19_lstm1_cont_slice_18_split_1
I0222 17:40:10.400568 24879 net.cpp:380] lstm1_unit_19 -> c_19
I0222 17:40:10.400574 24879 net.cpp:380] lstm1_unit_19 -> h_19
I0222 17:40:10.400599 24879 net.cpp:122] Setting up lstm1_unit_19
I0222 17:40:10.400619 24879 net.cpp:129] Top shape: 1 26 16 (416)
I0222 17:40:10.400624 24879 net.cpp:129] Top shape: 1 26 16 (416)
I0222 17:40:10.400627 24879 net.cpp:137] Memory required for data: 742976
I0222 17:40:10.400630 24879 layer_factory.hpp:77] Creating layer h_19_lstm1_unit_19_1_split
I0222 17:40:10.400635 24879 net.cpp:84] Creating Layer h_19_lstm1_unit_19_1_split
I0222 17:40:10.400640 24879 net.cpp:406] h_19_lstm1_unit_19_1_split <- h_19
I0222 17:40:10.400645 24879 net.cpp:380] h_19_lstm1_unit_19_1_split -> h_19_lstm1_unit_19_1_split_0
I0222 17:40:10.400663 24879 net.cpp:380] h_19_lstm1_unit_19_1_split -> h_19_lstm1_unit_19_1_split_1
I0222 17:40:10.427024 24879 net.cpp:122] Setting up h_19_lstm1_unit_19_1_split
I0222 17:40:10.427037 24879 net.cpp:129] Top shape: 1 26 16 (416)
I0222 17:40:10.427050 24879 net.cpp:129] Top shape: 1 26 16 (416)
I0222 17:40:10.427053 24879 net.cpp:137] Memory required for data: 746304
I0222 17:40:10.427057 24879 layer_factory.hpp:77] Creating layer lstm1_h_conted_19
I0222 17:40:10.427062 24879 net.cpp:84] Creating Layer lstm1_h_conted_19
I0222 17:40:10.427067 24879 net.cpp:406] lstm1_h_conted_19 <- h_19_lstm1_unit_19_1_split_0
I0222 17:40:10.427072 24879 net.cpp:406] lstm1_h_conted_19 <- cont_20_lstm1_cont_slice_19_split_0
I0222 17:40:10.427078 24879 net.cpp:380] lstm1_h_conted_19 -> h_conted_19
I0222 17:40:10.427114 24879 net.cpp:122] Setting up lstm1_h_conted_19
I0222 17:40:10.427119 24879 net.cpp:129] Top shape: 1 26 16 (416)
I0222 17:40:10.427122 24879 net.cpp:137] Memory required for data: 747968
I0222 17:40:10.427125 24879 layer_factory.hpp:77] Creating layer lstm1_transform_20
I0222 17:40:10.427130 24879 net.cpp:84] Creating Layer lstm1_transform_20
I0222 17:40:10.427134 24879 net.cpp:406] lstm1_transform_20 <- h_conted_19
I0222 17:40:10.427139 24879 net.cpp:380] lstm1_transform_20 -> W_hc_h_19
I0222 17:40:10.427175 24879 net.cpp:122] Setting up lstm1_transform_20
I0222 17:40:10.427181 24879 net.cpp:129] Top shape: 1 26 64 (1664)
I0222 17:40:10.427184 24879 net.cpp:137] Memory required for data: 754624
I0222 17:40:10.427187 24879 net.cpp:465] Sharing parameters 'W_hc' owned by layer 'lstm1_transform_1', param index 0
I0222 17:40:10.427191 24879 layer_factory.hpp:77] Creating layer lstm1_gate_input_20
I0222 17:40:10.427196 24879 net.cpp:84] Creating Layer lstm1_gate_input_20
I0222 17:40:10.427201 24879 net.cpp:406] lstm1_gate_input_20 <- W_hc_h_19
I0222 17:40:10.427203 24879 net.cpp:406] lstm1_gate_input_20 <- W_xc_x_20
I0222 17:40:10.427208 24879 net.cpp:380] lstm1_gate_input_20 -> gate_input_20
I0222 17:40:10.427222 24879 net.cpp:122] Setting up lstm1_gate_input_20
I0222 17:40:10.427227 24879 net.cpp:129] Top shape: 1 26 64 (1664)
I0222 17:40:10.427229 24879 net.cpp:137] Memory required for data: 761280
I0222 17:40:10.427232 24879 layer_factory.hpp:77] Creating layer lstm1_unit_20
I0222 17:40:10.427235 24879 net.cpp:84] Creating Layer lstm1_unit_20
I0222 17:40:10.427239 24879 net.cpp:406] lstm1_unit_20 <- c_19
I0222 17:40:10.427247 24879 net.cpp:406] lstm1_unit_20 <- gate_input_20
I0222 17:40:10.427250 24879 net.cpp:406] lstm1_unit_20 <- cont_20_lstm1_cont_slice_19_split_1
I0222 17:40:10.427254 24879 net.cpp:380] lstm1_unit_20 -> c_20
I0222 17:40:10.427259 24879 net.cpp:380] lstm1_unit_20 -> h_20
I0222 17:40:10.427284 24879 net.cpp:122] Setting up lstm1_unit_20
I0222 17:40:10.427289 24879 net.cpp:129] Top shape: 1 26 16 (416)
I0222 17:40:10.427294 24879 net.cpp:129] Top shape: 1 26 16 (416)
I0222 17:40:10.427295 24879 net.cpp:137] Memory required for data: 764608
I0222 17:40:10.427299 24879 layer_factory.hpp:77] Creating layer h_20_lstm1_unit_20_1_split
I0222 17:40:10.427314 24879 net.cpp:84] Creating Layer h_20_lstm1_unit_20_1_split
I0222 17:40:10.427317 24879 net.cpp:406] h_20_lstm1_unit_20_1_split <- h_20
I0222 17:40:10.427321 24879 net.cpp:380] h_20_lstm1_unit_20_1_split -> h_20_lstm1_unit_20_1_split_0
I0222 17:40:10.427326 24879 net.cpp:380] h_20_lstm1_unit_20_1_split -> h_20_lstm1_unit_20_1_split_1
I0222 17:40:10.427345 24879 net.cpp:122] Setting up h_20_lstm1_unit_20_1_split
I0222 17:40:10.427350 24879 net.cpp:129] Top shape: 1 26 16 (416)
I0222 17:40:10.427353 24879 net.cpp:129] Top shape: 1 26 16 (416)
I0222 17:40:10.427356 24879 net.cpp:137] Memory required for data: 767936
I0222 17:40:10.427359 24879 layer_factory.hpp:77] Creating layer lstm1_h_conted_20
I0222 17:40:10.427363 24879 net.cpp:84] Creating Layer lstm1_h_conted_20
I0222 17:40:10.427366 24879 net.cpp:406] lstm1_h_conted_20 <- h_20_lstm1_unit_20_1_split_0
I0222 17:40:10.427371 24879 net.cpp:406] lstm1_h_conted_20 <- cont_21_lstm1_cont_slice_20_split_0
I0222 17:40:10.427376 24879 net.cpp:380] lstm1_h_conted_20 -> h_conted_20
I0222 17:40:10.427404 24879 net.cpp:122] Setting up lstm1_h_conted_20
I0222 17:40:10.427409 24879 net.cpp:129] Top shape: 1 26 16 (416)
I0222 17:40:10.427417 24879 net.cpp:137] Memory required for data: 769600
I0222 17:40:10.427420 24879 layer_factory.hpp:77] Creating layer lstm1_transform_21
I0222 17:40:10.427425 24879 net.cpp:84] Creating Layer lstm1_transform_21
I0222 17:40:10.427429 24879 net.cpp:406] lstm1_transform_21 <- h_conted_20
I0222 17:40:10.427433 24879 net.cpp:380] lstm1_transform_21 -> W_hc_h_20
I0222 17:40:10.427464 24879 net.cpp:122] Setting up lstm1_transform_21
I0222 17:40:10.427469 24879 net.cpp:129] Top shape: 1 26 64 (1664)
I0222 17:40:10.427472 24879 net.cpp:137] Memory required for data: 776256
I0222 17:40:10.427475 24879 net.cpp:465] Sharing parameters 'W_hc' owned by layer 'lstm1_transform_1', param index 0
I0222 17:40:10.427479 24879 layer_factory.hpp:77] Creating layer lstm1_gate_input_21
I0222 17:40:10.427482 24879 net.cpp:84] Creating Layer lstm1_gate_input_21
I0222 17:40:10.427486 24879 net.cpp:406] lstm1_gate_input_21 <- W_hc_h_20
I0222 17:40:10.427489 24879 net.cpp:406] lstm1_gate_input_21 <- W_xc_x_21
I0222 17:40:10.427494 24879 net.cpp:380] lstm1_gate_input_21 -> gate_input_21
I0222 17:40:10.427506 24879 net.cpp:122] Setting up lstm1_gate_input_21
I0222 17:40:10.427511 24879 net.cpp:129] Top shape: 1 26 64 (1664)
I0222 17:40:10.427515 24879 net.cpp:137] Memory required for data: 782912
I0222 17:40:10.427517 24879 layer_factory.hpp:77] Creating layer lstm1_unit_21
I0222 17:40:10.427521 24879 net.cpp:84] Creating Layer lstm1_unit_21
I0222 17:40:10.427525 24879 net.cpp:406] lstm1_unit_21 <- c_20
I0222 17:40:10.427528 24879 net.cpp:406] lstm1_unit_21 <- gate_input_21
I0222 17:40:10.427531 24879 net.cpp:406] lstm1_unit_21 <- cont_21_lstm1_cont_slice_20_split_1
I0222 17:40:10.427536 24879 net.cpp:380] lstm1_unit_21 -> c_21
I0222 17:40:10.427541 24879 net.cpp:380] lstm1_unit_21 -> h_21
I0222 17:40:10.427564 24879 net.cpp:122] Setting up lstm1_unit_21
I0222 17:40:10.427569 24879 net.cpp:129] Top shape: 1 26 16 (416)
I0222 17:40:10.427572 24879 net.cpp:129] Top shape: 1 26 16 (416)
I0222 17:40:10.427575 24879 net.cpp:137] Memory required for data: 786240
I0222 17:40:10.427578 24879 layer_factory.hpp:77] Creating layer h_21_lstm1_unit_21_1_split
I0222 17:40:10.427582 24879 net.cpp:84] Creating Layer h_21_lstm1_unit_21_1_split
I0222 17:40:10.427585 24879 net.cpp:406] h_21_lstm1_unit_21_1_split <- h_21
I0222 17:40:10.427589 24879 net.cpp:380] h_21_lstm1_unit_21_1_split -> h_21_lstm1_unit_21_1_split_0
I0222 17:40:10.427593 24879 net.cpp:380] h_21_lstm1_unit_21_1_split -> h_21_lstm1_unit_21_1_split_1
I0222 17:40:10.427610 24879 net.cpp:122] Setting up h_21_lstm1_unit_21_1_split
I0222 17:40:10.427615 24879 net.cpp:129] Top shape: 1 26 16 (416)
I0222 17:40:10.427618 24879 net.cpp:129] Top shape: 1 26 16 (416)
I0222 17:40:10.427621 24879 net.cpp:137] Memory required for data: 789568
I0222 17:40:10.427624 24879 layer_factory.hpp:77] Creating layer lstm1_h_conted_21
I0222 17:40:10.427628 24879 net.cpp:84] Creating Layer lstm1_h_conted_21
I0222 17:40:10.427631 24879 net.cpp:406] lstm1_h_conted_21 <- h_21_lstm1_unit_21_1_split_0
I0222 17:40:10.427635 24879 net.cpp:406] lstm1_h_conted_21 <- cont_22_lstm1_cont_slice_21_split_0
I0222 17:40:10.427639 24879 net.cpp:380] lstm1_h_conted_21 -> h_conted_21
I0222 17:40:10.427670 24879 net.cpp:122] Setting up lstm1_h_conted_21
I0222 17:40:10.427675 24879 net.cpp:129] Top shape: 1 26 16 (416)
I0222 17:40:10.427676 24879 net.cpp:137] Memory required for data: 791232
I0222 17:40:10.427680 24879 layer_factory.hpp:77] Creating layer lstm1_transform_22
I0222 17:40:10.427685 24879 net.cpp:84] Creating Layer lstm1_transform_22
I0222 17:40:10.427687 24879 net.cpp:406] lstm1_transform_22 <- h_conted_21
I0222 17:40:10.427693 24879 net.cpp:380] lstm1_transform_22 -> W_hc_h_21
I0222 17:40:10.430114 24879 net.cpp:122] Setting up lstm1_transform_22
I0222 17:40:10.430124 24879 net.cpp:129] Top shape: 1 26 64 (1664)
I0222 17:40:10.430127 24879 net.cpp:137] Memory required for data: 797888
I0222 17:40:10.430130 24879 net.cpp:465] Sharing parameters 'W_hc' owned by layer 'lstm1_transform_1', param index 0
I0222 17:40:10.430135 24879 layer_factory.hpp:77] Creating layer lstm1_gate_input_22
I0222 17:40:10.430145 24879 net.cpp:84] Creating Layer lstm1_gate_input_22
I0222 17:40:10.430150 24879 net.cpp:406] lstm1_gate_input_22 <- W_hc_h_21
I0222 17:40:10.430155 24879 net.cpp:406] lstm1_gate_input_22 <- W_xc_x_22
I0222 17:40:10.430158 24879 net.cpp:380] lstm1_gate_input_22 -> gate_input_22
I0222 17:40:10.430172 24879 net.cpp:122] Setting up lstm1_gate_input_22
I0222 17:40:10.430177 24879 net.cpp:129] Top shape: 1 26 64 (1664)
I0222 17:40:10.430181 24879 net.cpp:137] Memory required for data: 804544
I0222 17:40:10.430183 24879 layer_factory.hpp:77] Creating layer lstm1_unit_22
I0222 17:40:10.430193 24879 net.cpp:84] Creating Layer lstm1_unit_22
I0222 17:40:10.430197 24879 net.cpp:406] lstm1_unit_22 <- c_21
I0222 17:40:10.430202 24879 net.cpp:406] lstm1_unit_22 <- gate_input_22
I0222 17:40:10.430205 24879 net.cpp:406] lstm1_unit_22 <- cont_22_lstm1_cont_slice_21_split_1
I0222 17:40:10.430209 24879 net.cpp:380] lstm1_unit_22 -> c_22
I0222 17:40:10.430214 24879 net.cpp:380] lstm1_unit_22 -> h_22
I0222 17:40:10.430239 24879 net.cpp:122] Setting up lstm1_unit_22
I0222 17:40:10.430244 24879 net.cpp:129] Top shape: 1 26 16 (416)
I0222 17:40:10.430248 24879 net.cpp:129] Top shape: 1 26 16 (416)
I0222 17:40:10.430250 24879 net.cpp:137] Memory required for data: 807872
I0222 17:40:10.430253 24879 layer_factory.hpp:77] Creating layer h_22_lstm1_unit_22_1_split
I0222 17:40:10.430258 24879 net.cpp:84] Creating Layer h_22_lstm1_unit_22_1_split
I0222 17:40:10.430263 24879 net.cpp:406] h_22_lstm1_unit_22_1_split <- h_22
I0222 17:40:10.430266 24879 net.cpp:380] h_22_lstm1_unit_22_1_split -> h_22_lstm1_unit_22_1_split_0
I0222 17:40:10.430270 24879 net.cpp:380] h_22_lstm1_unit_22_1_split -> h_22_lstm1_unit_22_1_split_1
I0222 17:40:10.430289 24879 net.cpp:122] Setting up h_22_lstm1_unit_22_1_split
I0222 17:40:10.430294 24879 net.cpp:129] Top shape: 1 26 16 (416)
I0222 17:40:10.430296 24879 net.cpp:129] Top shape: 1 26 16 (416)
I0222 17:40:10.430299 24879 net.cpp:137] Memory required for data: 811200
I0222 17:40:10.430302 24879 layer_factory.hpp:77] Creating layer lstm1_h_conted_22
I0222 17:40:10.430306 24879 net.cpp:84] Creating Layer lstm1_h_conted_22
I0222 17:40:10.430311 24879 net.cpp:406] lstm1_h_conted_22 <- h_22_lstm1_unit_22_1_split_0
I0222 17:40:10.430315 24879 net.cpp:406] lstm1_h_conted_22 <- cont_23_lstm1_cont_slice_22_split_0
I0222 17:40:10.430320 24879 net.cpp:380] lstm1_h_conted_22 -> h_conted_22
I0222 17:40:10.430351 24879 net.cpp:122] Setting up lstm1_h_conted_22
I0222 17:40:10.430356 24879 net.cpp:129] Top shape: 1 26 16 (416)
I0222 17:40:10.430359 24879 net.cpp:137] Memory required for data: 812864
I0222 17:40:10.430362 24879 layer_factory.hpp:77] Creating layer lstm1_transform_23
I0222 17:40:10.430366 24879 net.cpp:84] Creating Layer lstm1_transform_23
I0222 17:40:10.430371 24879 net.cpp:406] lstm1_transform_23 <- h_conted_22
I0222 17:40:10.430374 24879 net.cpp:380] lstm1_transform_23 -> W_hc_h_22
I0222 17:40:10.430421 24879 net.cpp:122] Setting up lstm1_transform_23
I0222 17:40:10.430428 24879 net.cpp:129] Top shape: 1 26 64 (1664)
I0222 17:40:10.430430 24879 net.cpp:137] Memory required for data: 819520
I0222 17:40:10.430433 24879 net.cpp:465] Sharing parameters 'W_hc' owned by layer 'lstm1_transform_1', param index 0
I0222 17:40:10.430438 24879 layer_factory.hpp:77] Creating layer lstm1_gate_input_23
I0222 17:40:10.430441 24879 net.cpp:84] Creating Layer lstm1_gate_input_23
I0222 17:40:10.430445 24879 net.cpp:406] lstm1_gate_input_23 <- W_hc_h_22
I0222 17:40:10.430449 24879 net.cpp:406] lstm1_gate_input_23 <- W_xc_x_23
I0222 17:40:10.430454 24879 net.cpp:380] lstm1_gate_input_23 -> gate_input_23
I0222 17:40:10.430466 24879 net.cpp:122] Setting up lstm1_gate_input_23
I0222 17:40:10.430471 24879 net.cpp:129] Top shape: 1 26 64 (1664)
I0222 17:40:10.430474 24879 net.cpp:137] Memory required for data: 826176
I0222 17:40:10.430477 24879 layer_factory.hpp:77] Creating layer lstm1_unit_23
I0222 17:40:10.430481 24879 net.cpp:84] Creating Layer lstm1_unit_23
I0222 17:40:10.430490 24879 net.cpp:406] lstm1_unit_23 <- c_22
I0222 17:40:10.430493 24879 net.cpp:406] lstm1_unit_23 <- gate_input_23
I0222 17:40:10.430497 24879 net.cpp:406] lstm1_unit_23 <- cont_23_lstm1_cont_slice_22_split_1
I0222 17:40:10.430502 24879 net.cpp:380] lstm1_unit_23 -> c_23
I0222 17:40:10.430507 24879 net.cpp:380] lstm1_unit_23 -> h_23
I0222 17:40:10.430531 24879 net.cpp:122] Setting up lstm1_unit_23
I0222 17:40:10.430536 24879 net.cpp:129] Top shape: 1 26 16 (416)
I0222 17:40:10.430539 24879 net.cpp:129] Top shape: 1 26 16 (416)
I0222 17:40:10.430542 24879 net.cpp:137] Memory required for data: 829504
I0222 17:40:10.430546 24879 layer_factory.hpp:77] Creating layer h_23_lstm1_unit_23_1_split
I0222 17:40:10.430550 24879 net.cpp:84] Creating Layer h_23_lstm1_unit_23_1_split
I0222 17:40:10.430553 24879 net.cpp:406] h_23_lstm1_unit_23_1_split <- h_23
I0222 17:40:10.430557 24879 net.cpp:380] h_23_lstm1_unit_23_1_split -> h_23_lstm1_unit_23_1_split_0
I0222 17:40:10.430562 24879 net.cpp:380] h_23_lstm1_unit_23_1_split -> h_23_lstm1_unit_23_1_split_1
I0222 17:40:10.430579 24879 net.cpp:122] Setting up h_23_lstm1_unit_23_1_split
I0222 17:40:10.430584 24879 net.cpp:129] Top shape: 1 26 16 (416)
I0222 17:40:10.430588 24879 net.cpp:129] Top shape: 1 26 16 (416)
I0222 17:40:10.430590 24879 net.cpp:137] Memory required for data: 832832
I0222 17:40:10.430593 24879 layer_factory.hpp:77] Creating layer lstm1_h_conted_23
I0222 17:40:10.430598 24879 net.cpp:84] Creating Layer lstm1_h_conted_23
I0222 17:40:10.430601 24879 net.cpp:406] lstm1_h_conted_23 <- h_23_lstm1_unit_23_1_split_0
I0222 17:40:10.430605 24879 net.cpp:406] lstm1_h_conted_23 <- cont_24_lstm1_cont_slice_23_split_0
I0222 17:40:10.430613 24879 net.cpp:380] lstm1_h_conted_23 -> h_conted_23
I0222 17:40:10.430645 24879 net.cpp:122] Setting up lstm1_h_conted_23
I0222 17:40:10.430649 24879 net.cpp:129] Top shape: 1 26 16 (416)
I0222 17:40:10.430652 24879 net.cpp:137] Memory required for data: 834496
I0222 17:40:10.430655 24879 layer_factory.hpp:77] Creating layer lstm1_transform_24
I0222 17:40:10.430660 24879 net.cpp:84] Creating Layer lstm1_transform_24
I0222 17:40:10.430665 24879 net.cpp:406] lstm1_transform_24 <- h_conted_23
I0222 17:40:10.430668 24879 net.cpp:380] lstm1_transform_24 -> W_hc_h_23
I0222 17:40:10.430698 24879 net.cpp:122] Setting up lstm1_transform_24
I0222 17:40:10.430703 24879 net.cpp:129] Top shape: 1 26 64 (1664)
I0222 17:40:10.430706 24879 net.cpp:137] Memory required for data: 841152
I0222 17:40:10.430709 24879 net.cpp:465] Sharing parameters 'W_hc' owned by layer 'lstm1_transform_1', param index 0
I0222 17:40:10.430712 24879 layer_factory.hpp:77] Creating layer lstm1_gate_input_24
I0222 17:40:10.430716 24879 net.cpp:84] Creating Layer lstm1_gate_input_24
I0222 17:40:10.430721 24879 net.cpp:406] lstm1_gate_input_24 <- W_hc_h_23
I0222 17:40:10.430723 24879 net.cpp:406] lstm1_gate_input_24 <- W_xc_x_24
I0222 17:40:10.430727 24879 net.cpp:380] lstm1_gate_input_24 -> gate_input_24
I0222 17:40:10.430742 24879 net.cpp:122] Setting up lstm1_gate_input_24
I0222 17:40:10.430745 24879 net.cpp:129] Top shape: 1 26 64 (1664)
I0222 17:40:10.430748 24879 net.cpp:137] Memory required for data: 847808
I0222 17:40:10.430752 24879 layer_factory.hpp:77] Creating layer lstm1_unit_24
I0222 17:40:10.430755 24879 net.cpp:84] Creating Layer lstm1_unit_24
I0222 17:40:10.430758 24879 net.cpp:406] lstm1_unit_24 <- c_23
I0222 17:40:10.430763 24879 net.cpp:406] lstm1_unit_24 <- gate_input_24
I0222 17:40:10.457223 24879 net.cpp:406] lstm1_unit_24 <- cont_24_lstm1_cont_slice_23_split_1
I0222 17:40:10.457238 24879 net.cpp:380] lstm1_unit_24 -> c_24
I0222 17:40:10.457247 24879 net.cpp:380] lstm1_unit_24 -> h_24
I0222 17:40:10.457298 24879 net.cpp:122] Setting up lstm1_unit_24
I0222 17:40:10.457305 24879 net.cpp:129] Top shape: 1 26 16 (416)
I0222 17:40:10.457309 24879 net.cpp:129] Top shape: 1 26 16 (416)
I0222 17:40:10.457311 24879 net.cpp:137] Memory required for data: 851136
I0222 17:40:10.457314 24879 layer_factory.hpp:77] Creating layer lstm1_
I0222 17:40:10.457319 24879 net.cpp:84] Creating Layer lstm1_
I0222 17:40:10.457330 24879 net.cpp:406] lstm1_ <- c_24
I0222 17:40:10.457335 24879 net.cpp:380] lstm1_ -> c_T
I0222 17:40:10.457348 24879 net.cpp:122] Setting up lstm1_
I0222 17:40:10.457352 24879 net.cpp:129] Top shape: 1 26 16 (416)
I0222 17:40:10.457366 24879 net.cpp:137] Memory required for data: 852800
I0222 17:40:10.457370 24879 layer_factory.hpp:77] Creating layer lstm1_h_concat
I0222 17:40:10.457401 24879 net.cpp:84] Creating Layer lstm1_h_concat
I0222 17:40:10.457404 24879 net.cpp:406] lstm1_h_concat <- h_1_lstm1_unit_1_1_split_1
I0222 17:40:10.457423 24879 net.cpp:406] lstm1_h_concat <- h_2_lstm1_unit_2_1_split_1
…
