…
iter_size: 1
I0228 21:22:01.984861 12120 solver.cpp:87] Creating training net from net file: /home/leonida/ThesisCode/LSTM_on_Create2/src/neural_network_planner/NetModels/LSTM/deep_stack-fc_net.prototxt
I0228 21:22:01.985110 12120 net.cpp:51] Initializing net from parameters: 
name: "LSTM_stack-3-16"
state {
  phase: TRAIN
}
layer {
  name: "Input"
  type: "Input"
  top: "data"
  top: "clip"
  top: "label"
  input_param {
    shape {
      dim: 16
      dim: 13
      dim: 1
    }
    shape {
      dim: 16
      dim: 13
    }
    shape {
      dim: 16
    }
  }
}
layer {
  name: "lstm1"
  type: "LSTM"
  bottom: "data"
  bottom: "clip"
  top: "lstm1"
  recurrent_param {
    num_output: 16
    weight_filler {
      type: "xavier"
    }
    bias_filler {
      type: "constant"
    }
  }
}
layer {
  name: "lstm2"
  type: "LSTM"
  bottom: "lstm1"
  bottom: "clip"
  top: "lstm2"
  recurrent_param {
    num_output: 16
    weight_filler {
      type: "xavier"
    }
    bias_filler {
      type: "constant"
    }
  }
}
layer {
  name: "lstm3"
  type: "LSTM"
  bottom: "lstm2"
  bottom: "clip"
  top: "lstm3"
  recurrent_param {
    num_output: 16
    weight_filler {
      type: "xavier"
    }
    bias_filler {
      type: "constant"
    }
  }
}
layer {
  name: "fc1"
  type: "InnerProduct"
  bottom: "lstm3"
  top: "fc1"
  param {
    lr_mult: 1
    decay_mult: 1
  }
  param {
    lr_mult: 2
    decay_mult: 0
  }
  inner_product_param {
    num_output: 16
    weight_filler {
      type: "gaussian"
      std: 0.01
    }
    bias_filler {
      type: "constant"
      value: 0
    }
  }
}
layer {
  name: "out"
  type: "InnerProduct"
  bottom: "fc1"
  top: "out"
  inner_product_param {
    num_output: 1
    weight_filler {
      type: "gaussian"
      std: 0.1
    }
    bias_filler {
      type: "constant"
    }
  }
}
layer {
  name: "euclideanLoss"
  type: "EuclideanLoss"
  bottom: "out"
  bottom: "label"
  top: "loss"
}
I0228 21:22:01.985182 12120 layer_factory.hpp:77] Creating layer Input
I0228 21:22:01.985199 12120 net.cpp:84] Creating Layer Input
I0228 21:22:01.985205 12120 net.cpp:380] Input -> data
I0228 21:22:01.985225 12120 net.cpp:380] Input -> clip
I0228 21:22:01.985235 12120 net.cpp:380] Input -> label
I0228 21:22:01.985919 12120 net.cpp:122] Setting up Input
I0228 21:22:01.985944 12120 net.cpp:129] Top shape: 16 13 1 (208)
I0228 21:22:01.985950 12120 net.cpp:129] Top shape: 16 13 (208)
I0228 21:22:01.985955 12120 net.cpp:129] Top shape: 16 (16)
I0228 21:22:01.985958 12120 net.cpp:137] Memory required for data: 1728
I0228 21:22:01.985963 12120 layer_factory.hpp:77] Creating layer clip_Input_1_split
I0228 21:22:01.985991 12120 net.cpp:84] Creating Layer clip_Input_1_split
I0228 21:22:01.985997 12120 net.cpp:406] clip_Input_1_split <- clip
I0228 21:22:01.986006 12120 net.cpp:380] clip_Input_1_split -> clip_Input_1_split_0
I0228 21:22:01.986011 12120 net.cpp:380] clip_Input_1_split -> clip_Input_1_split_1
I0228 21:22:01.986030 12120 net.cpp:380] clip_Input_1_split -> clip_Input_1_split_2
I0228 21:22:01.986059 12120 net.cpp:122] Setting up clip_Input_1_split
I0228 21:22:01.986066 12120 net.cpp:129] Top shape: 16 13 (208)
I0228 21:22:01.986071 12120 net.cpp:129] Top shape: 16 13 (208)
I0228 21:22:01.986083 12120 net.cpp:129] Top shape: 16 13 (208)
I0228 21:22:01.986086 12120 net.cpp:137] Memory required for data: 4224
I0228 21:22:01.986089 12120 layer_factory.hpp:77] Creating layer lstm1
I0228 21:22:01.986099 12120 net.cpp:84] Creating Layer lstm1
I0228 21:22:01.986102 12120 net.cpp:406] lstm1 <- data
I0228 21:22:01.986106 12120 net.cpp:406] lstm1 <- clip_Input_1_split_0
I0228 21:22:01.986110 12120 net.cpp:380] lstm1 -> lstm1
I0228 21:22:01.986122 12120 recurrent_layer.cpp:20] Initializing recurrent layer: assuming input batch contains 16 timesteps of 13 independent streams.
I0228 21:22:01.986527 12120 net.cpp:51] Initializing net from parameters: 
layer {
  name: "lstm1_"
  type: "Input"
  top: "x"
  top: "cont"
  input_param {
    shape {
      dim: 16
      dim: 13
      dim: 1
    }
    shape {
      dim: 16
      dim: 13
    }
  }
}
layer {
  name: "lstm1_"
  type: "Input"
  top: "c_0"
  top: "h_0"
  input_param {
    shape {
      dim: 1
      dim: 13
      dim: 16
    }
    shape {
      dim: 1
      dim: 13
      dim: 16
    }
  }
}
layer {
  name: "lstm1_cont_slice"
  type: "Slice"
  bottom: "cont"
  top: "cont_1"
  top: "cont_2"
  top: "cont_3"
  top: "cont_4"
  top: "cont_5"
  top: "cont_6"
  top: "cont_7"
  top: "cont_8"
  top: "cont_9"
  top: "cont_10"
  top: "cont_11"
  top: "cont_12"
  top: "cont_13"
  top: "cont_14"
  top: "cont_15"
  top: "cont_16"
  slice_param {
    axis: 0
  }
}
layer {
  name: "lstm1_x_transform"
  type: "InnerProduct"
  bottom: "x"
  top: "W_xc_x"
  param {
    name: "W_xc"
  }
  param {
    name: "b_c"
  }
  propagate_down: true
  inner_product_param {
    num_output: 64
    bias_term: true
    weight_filler {
      type: "xavier"
    }
    bias_filler {
      type: "constant"
    }
    axis: 2
  }
}
layer {
  name: "lstm1_W_xc_x_slice"
  type: "Slice"
  bottom: "W_xc_x"
  top: "W_xc_x_1"
  top: "W_xc_x_2"
  top: "W_xc_x_3"
  top: "W_xc_x_4"
  top: "W_xc_x_5"
  top: "W_xc_x_6"
  top: "W_xc_x_7"
  top: "W_xc_x_8"
  top: "W_xc_x_9"
  top: "W_xc_x_10"
  top: "W_xc_x_11"
  top: "W_xc_x_12"
  top: "W_xc_x_13"
  top: "W_xc_x_14"
  top: "W_xc_x_15"
  top: "W_xc_x_16"
  slice_param {
    axis: 0
  }
}
layer {
  name: "lstm1_h_conted_0"
  type: "Scale"
  bottom: "h_0"
  bottom: "cont_1"
  top: "h_conted_0"
  scale_param {
    axis: 0
  }
}
layer {
  name: "lstm1_transform_1"
  type: "InnerProduct"
  bottom: "h_conted_0"
  top: "W_hc_h_0"
  param {
    name: "W_hc"
  }
  inner_product_param {
    num_output: 64
    bias_term: false
    weight_filler {
      type: "xavier"
    }
    axis: 2
  }
}
layer {
  name: "lstm1_gate_input_1"
  type: "Eltwise"
  bottom: "W_hc_h_0"
  bottom: "W_xc_x_1"
  top: "gate_input_1"
  eltwise_param {
    operation: SUM
  }
}
layer {
  name: "lstm1_unit_1"
  type: "LSTMUnit"
  bottom: "c_0"
  bottom: "gate_input_1"
  bottom: "cont_1"
  top: "c_1"
  top: "h_1"
}
layer {
  name: "lstm1_h_conted_1"
  type: "Scale"
  bottom: "h_1"
  bottom: "cont_2"
  top: "h_conted_1"
  scale_param {
    axis: 0
  }
}
layer {
  name: "lstm1_transform_2"
  type: "InnerProduct"
  bottom: "h_conted_1"
  top: "W_hc_h_1"
  param {
    name: "W_hc"
  }
  inner_product_param {
    num_output: 64
    bias_term: false
    weight_filler {
      type: "xavier"
    }
    axis: 2
  }
}
layer {
  name: "lstm1_gate_input_2"
  type: "Eltwise"
  bottom: "W_hc_h_1"
  bottom: "W_xc_x_2"
  top: "gate_input_2"
  eltwise_param {
    operation: SUM
  }
}
layer {
  name: "lstm1_unit_2"
  type: "LSTMUnit"
  bottom: "c_1"
  bottom: "gate_input_2"
  bottom: "cont_2"
  top: "c_2"
  top: "h_2"
}
layer {
  name: "lstm1_h_conted_2"
  type: "Scale"
  bottom: "h_2"
  bottom: "cont_3"
  top: "h_conted_2"
  scale_param {
    axis: 0
  }
}
layer {
  name: "lstm1_transform_3"
  type: "InnerProduct"
  bottom: "h_conted_2"
  top: "W_hc_h_2"
  param {
    name: "W_hc"
  }
  inner_product_param {
    num_output: 64
    bias_term: false
    weight_filler {
      type: "xavier"
    }
    axis: 2
  }
}
layer {
  name: "lstm1_gate_input_3"
  type: "Eltwise"
  bottom: "W_hc_h_2"
  bottom: "W_xc_x_3"
  top: "gate_input_3"
  eltwise_param {
    operation: SUM
  }
}
layer {
  name: "lstm1_unit_3"
  type: "LSTMUnit"
  bottom: "c_2"
  bottom: "gate_input_3"
  bottom: "cont_3"
  top: "c_3"
  top: "h_3"
}
layer {
  name: "lstm1_h_conted_3"
  type: "Scale"
  bottom: "h_3"
  bottom: "cont_4"
  top: "h_conted_3"
  scale_param {
    axis: 0
  }
}
layer {
  name: "lstm1_transform_4"
  type: "InnerProduct"
  bottom: "h_conted_3"
  top: "W_hc_h_3"
  param {
    name: "W_hc"
  }
  inner_product_param {
    num_output: 64
    bias_term: false
    weight_filler {
      type: "xavier"
    }
    axis: 2
  }
}
layer {
  name: "lstm1_gate_input_4"
  type: "Eltwise"
  bottom: "W_hc_h_3"
  bottom: "W_xc_x_4"
  top: "gate_input_4"
  eltwise_param {
    operation: SUM
  }
}
layer {
  name: "lstm1_unit_4"
  type: "LSTMUnit"
  bottom: "c_3"
  bottom: "gate_input_4"
  bottom: "cont_4"
  top: "c_4"
  top: "h_4"
}
layer {
  name: "lstm1_h_conted_4"
  type: "Scale"
  bottom: "h_4"
  bottom: "cont_5"
  top: "h_conted_4"
  scale_param {
    axis: 0
  }
}
layer {
  name: "lstm1_transform_5"
  type: "InnerProduct"
  bottom: "h_conted_4"
  top: "W_hc_h_4"
  param {
    name: "W_hc"
  }
  inner_product_param {
    num_output: 64
    bias_term: false
    weight_filler {
      type: "xavier"
    }
    axis: 2
  }
}
layer {
  name: "lstm1_gate_input_5"
  type: "Eltwise"
  bottom: "W_hc_h_4"
  bottom: "W_xc_x_5"
  top: "gate_input_5"
  eltwise_param {
    operation: SUM
  }
}
layer {
  name: "lstm1_unit_5"
  type: "LSTMUnit"
  bottom: "c_4"
  bottom: "gate_input_5"
  bottom: "cont_5"
  top: "c_5"
  top: "h_5"
}
layer {
  name: "lstm1_h_conted_5"
  type: "Scale"
  bottom: "h_5"
  bottom: "cont_6"
  top: "h_conted_5"
  scale_param {
    axis: 0
  }
}
layer {
  name: "lstm1_transform_6"
  type: "InnerProduct"
  bottom: "h_conted_5"
  top: "W_hc_h_5"
  param {
    name: "W_hc"
  }
  inner_product_param {
    num_output: 64
    bias_term: false
    weight_filler {
      type: "xavier"
    }
    axis: 2
  }
}
layer {
  name: "lstm1_gate_input_6"
  type: "Eltwise"
  bottom: "W_hc_h_5"
  bottom: "W_xc_x_6"
  top: "gate_input_6"
  eltwise_param {
    operation: SUM
  }
}
layer {
  name: "lstm1_unit_6"
  type: "LSTMUnit"
  bottom: "c_5"
  bottom: "gate_input_6"
  bottom: "cont_6"
  top: "c_6"
  top: "h_6"
}
layer {
  name: "lstm1_h_conted_6"
  type: "Scale"
  bottom: "h_6"
  bottom: "cont_7"
  top: "h_conted_6"
  scale_param {
    axis: 0
  }
}
layer {
  name: "lstm1_transform_7"
  type: "InnerProduct"
  bottom: "h_conted_6"
  top: "W_hc_h_6"
  param {
    name: "W_hc"
  }
  inner_product_param {
    num_output: 64
    bias_term: false
    weight_filler {
      type: "xavier"
    }
    axis: 2
  }
}
layer {
  name: "lstm1_gate_input_7"
  type: "Eltwise"
  bottom: "W_hc_h_6"
  bottom: "W_xc_x_7"
  top: "gate_input_7"
  eltwise_param {
    operation: SUM
  }
}
layer {
  name: "lstm1_unit_7"
  type: "LSTMUnit"
  bottom: "c_6"
  bottom: "gate_input_7"
  bottom: "cont_7"
  top: "c_7"
  top: "h_7"
}
layer {
  name: "lstm1_h_conted_7"
  type: "Scale"
  bottom: "h_7"
  bottom: "cont_8"
  top: "h_conted_7"
  scale_param {
    axis: 0
  }
}
layer {
  name: "lstm1_transform_8"
  type: "InnerProduct"
  bottom: "h_conted_7"
  top: "W_hc_h_7"
  param {
    name: "W_hc"
  }
  inner_product_param {
    num_output: 64
    bias_term: false
    weight_filler {
      type: "xavier"
    }
    axis: 2
  }
}
layer {
  name: "lstm1_gate_input_8"
  type: "Eltwise"
  bottom: "W_hc_h_7"
  bottom: "W_xc_x_8"
  top: "gate_input_8"
  eltwise_param {
    operation: SUM
  }
}
layer {
  name: "lstm1_unit_8"
  type: "LSTMUnit"
  bottom: "c_7"
  bottom: "gate_input_8"
  bottom: "cont_8"
  top: "c_8"
  top: "h_8"
}
layer {
  name: "lstm1_h_conted_8"
  type: "Scale"
  bottom: "h_8"
  bottom: "cont_9"
  top: "h_conted_8"
  scale_param {
    axis: 0
  }
}
layer {
  name: "lstm1_transform_9"
  type: "InnerProduct"
  bottom: "h_conted_8"
  top: "W_hc_h_8"
  param {
    name: "W_hc"
  }
  inner_product_param {
    num_output: 64
    bias_term: false
    weight_filler {
      type: "xavier"
    }
    axis: 2
  }
}
layer {
  name: "lstm1_gate_input_9"
  type: "Eltwise"
  bottom: "W_hc_h_8"
  bottom: "W_xc_x_9"
  top: "gate_input_9"
  eltwise_param {
    operation: SUM
  }
}
layer {
  name: "lstm1_unit_9"
  type: "LSTMUnit"
  bottom: "c_8"
  bottom: "gate_input_9"
  bottom: "cont_9"
  top: "c_9"
  top: "h_9"
}
layer {
  name: "lstm1_h_conted_9"
  type: "Scale"
  bottom: "h_9"
  bottom: "cont_10"
  top: "h_conted_9"
  scale_param {
    axis: 0
  }
}
layer {
  name: "lstm1_transform_10"
  type: "InnerProduct"
  bottom: "h_conted_9"
  top: "W_hc_h_9"
  param {
    name: "W_hc"
  }
  inner_product_param {
    num_output: 64
    bias_term: false
    weight_filler {
      type: "xavier"
    }
    axis: 2
  }
}
layer {
  name: "lstm1_gate_input_10"
  type: "Eltwise"
  bottom: "W_hc_h_9"
  bottom: "W_xc_x_10"
  top: "gate_input_10"
  eltwise_param {
    operation: SUM
  }
}
layer {
  name: "lstm1_unit_10"
  type: "LSTMUnit"
  bottom: "c_9"
  bottom: "gate_input_10"
  bottom: "cont_10"
  top: "c_10"
  top: "h_10"
}
layer {
  name: "lstm1_h_conted_10"
  type: "Scale"
  bottom: "h_10"
  bottom: "cont_11"
  top: "h_conted_10"
  scale_param {
    axis: 0
  }
}
layer {
  name: "lstm1_transform_11"
  type: "InnerProduct"
  bottom: "h_conted_10"
  top: "W_hc_h_10"
  param {
    name: "W_hc"
  }
  inner_product_param {
    num_output: 64
    bias_term: false
    weight_filler {
      type: "xavier"
    }
    axis: 2
  }
}
layer {
  name: "lstm1_gate_input_11"
  type: "Eltwise"
  bottom: "W_hc_h_10"
  bottom: "W_xc_x_11"
  top: "gate_input_11"
  eltwise_param {
    operation: SUM
  }
}
layer {
  name: "lstm1_unit_11"
  type: "LSTMUnit"
  bottom: "c_10"
  bottom: "gate_input_11"
  bottom: "cont_11"
  top: "c_11"
  top: "h_11"
}
layer {
  name: "lstm1_h_conted_11"
  type: "Scale"
  bottom: "h_11"
  bottom: "cont_12"
  top: "h_conted_11"
  scale_param {
    axis: 0
  }
}
layer {
  name: "lstm1_transform_12"
  type: "InnerProduct"
  bottom: "h_conted_11"
  top: "W_hc_h_11"
  param {
    name: "W_hc"
  }
  inner_product_param {
    num_output: 64
    bias_term: false
    weight_filler {
      type: "xavier"
    }
    axis: 2
  }
}
layer {
  name: "lstm1_gate_input_12"
  type: "Eltwise"
  bottom: "W_hc_h_11"
  bottom: "W_xc_x_12"
  top: "gate_input_12"
  eltwise_param {
    operation: SUM
  }
}
layer {
  name: "lstm1_unit_12"
  type: "LSTMUnit"
  bottom: "c_11"
  bottom: "gate_input_12"
  bottom: "cont_12"
  top: "c_12"
  top: "h_12"
}
layer {
  name: "lstm1_h_conted_12"
  type: "Scale"
  bottom: "h_12"
  bottom: "cont_13"
  top: "h_conted_12"
  scale_param {
    axis: 0
  }
}
layer {
  name: "lstm1_transform_13"
  type: "InnerProduct"
  bottom: "h_conted_12"
  top: "W_hc_h_12"
  param {
    name: "W_hc"
  }
  inner_product_param {
    num_output: 64
    bias_term: false
    weight_filler {
      type: "xavier"
    }
    axis: 2
  }
}
layer {
  name: "lstm1_gate_input_13"
  type: "Eltwise"
  bottom: "W_hc_h_12"
  bottom: "W_xc_x_13"
  top: "gate_input_13"
  eltwise_param {
    operation: SUM
  }
}
layer {
  name: "lstm1_unit_13"
  type: "LSTMUnit"
  bottom: "c_12"
  bottom: "gate_input_13"
  bottom: "cont_13"
  top: "c_13"
  top: "h_13"
}
layer {
  name: "lstm1_h_conted_13"
  type: "Scale"
  bottom: "h_13"
  bottom: "cont_14"
  top: "h_conted_13"
  scale_param {
    axis: 0
  }
}
layer {
  name: "lstm1_transform_14"
  type: "InnerProduct"
  bottom: "h_conted_13"
  top: "W_hc_h_13"
  param {
    name: "W_hc"
  }
  inner_product_param {
    num_output: 64
    bias_term: false
    weight_filler {
      type: "xavier"
    }
    axis: 2
  }
}
layer {
  name: "lstm1_gate_input_14"
  type: "Eltwise"
  bottom: "W_hc_h_13"
  bottom: "W_xc_x_14"
  top: "gate_input_14"
  eltwise_param {
    operation: SUM
  }
}
layer {
  name: "lstm1_unit_14"
  type: "LSTMUnit"
  bottom: "c_13"
  bottom: "gate_input_14"
  bottom: "cont_14"
  top: "c_14"
  top: "h_14"
}
layer {
  name: "lstm1_h_conted_14"
  type: "Scale"
  bottom: "h_14"
  bottom: "cont_15"
  top: "h_conted_14"
  scale_param {
    axis: 0
  }
}
layer {
  name: "lstm1_transform_15"
  type: "InnerProduct"
  bottom: "h_conted_14"
  top: "W_hc_h_14"
  param {
    name: "W_hc"
  }
  inner_product_param {
    num_output: 64
    bias_term: false
    weight_filler {
      type: "xavier"
    }
    axis: 2
  }
}
layer {
  name: "lstm1_gate_input_15"
  type: "Eltwise"
  bottom: "W_hc_h_14"
  bottom: "W_xc_x_15"
  top: "gate_input_15"
  eltwise_param {
    operation: SUM
  }
}
layer {
  name: "lstm1_unit_15"
  type: "LSTMUnit"
  bottom: "c_14"
  bottom: "gate_input_15"
  bottom: "cont_15"
  top: "c_15"
  top: "h_15"
}
layer {
  name: "lstm1_h_conted_15"
  type: "Scale"
  bottom: "h_15"
  bottom: "cont_16"
  top: "h_conted_15"
  scale_param {
    axis: 0
  }
}
layer {
  name: "lstm1_transform_16"
  type: "InnerProduct"
  bottom: "h_conted_15"
  top: "W_hc_h_15"
  param {
    name: "W_hc"
  }
  inner_product_param {
    num_output: 64
    bias_term: false
    weight_filler {
      type: "xavier"
    }
    axis: 2
  }
}
layer {
  name: "lstm1_gate_input_16"
  type: "Eltwise"
  bottom: "W_hc_h_15"
  bottom: "W_xc_x_16"
  top: "gate_input_16"
  eltwise_param {
    operation: SUM
  }
}
layer {
  name: "lstm1_unit_16"
  type: "LSTMUnit"
  bottom: "c_15"
  bottom: "gate_input_16"
  bottom: "cont_16"
  top: "c_16"
  top: "h_16"
}
layer {
  name: "lstm1_"
  type: "Split"
  bottom: "c_16"
  top: "c_T"
}
layer {
  name: "lstm1_h_concat"
  type: "Concat"
  bottom: "h_1"
  bottom: "h_2"
  bottom: "h_3"
  bottom: "h_4"
  bottom: "h_5"
  bottom: "h_6"
  bottom: "h_7"
  bottom: "h_8"
  bottom: "h_9"
  bottom: "h_10"
  bottom: "h_11"
  bottom: "h_12"
  bottom: "h_13"
  bottom: "h_14"
  bottom: "h_15"
  bottom: "h_16"
  top: "h"
  concat_param {
    axis: 0
  }
}
layer {
  name: "h_pseudoloss"
  type: "Reduction"
  bottom: "h"
  top: "h_pseudoloss"
  loss_weight: 1
}
I0228 21:22:01.987263 12120 layer_factory.hpp:77] Creating layer lstm1_
I0228 21:22:01.987272 12120 net.cpp:84] Creating Layer lstm1_
I0228 21:22:01.987277 12120 net.cpp:380] lstm1_ -> x
I0228 21:22:01.987282 12120 net.cpp:380] lstm1_ -> cont
I0228 21:22:01.987306 12120 net.cpp:122] Setting up lstm1_
I0228 21:22:01.987313 12120 net.cpp:129] Top shape: 16 13 1 (208)
I0228 21:22:01.987318 12120 net.cpp:129] Top shape: 16 13 (208)
I0228 21:22:01.987320 12120 net.cpp:137] Memory required for data: 1664
I0228 21:22:01.987324 12120 layer_factory.hpp:77] Creating layer lstm1_
I0228 21:22:01.987329 12120 net.cpp:84] Creating Layer lstm1_
I0228 21:22:01.987334 12120 net.cpp:380] lstm1_ -> c_0
I0228 21:22:01.987339 12120 net.cpp:380] lstm1_ -> h_0
I0228 21:22:01.987356 12120 net.cpp:122] Setting up lstm1_
I0228 21:22:01.987361 12120 net.cpp:129] Top shape: 1 13 16 (208)
I0228 21:22:01.987365 12120 net.cpp:129] Top shape: 1 13 16 (208)
I0228 21:22:01.987368 12120 net.cpp:137] Memory required for data: 3328
I0228 21:22:01.987371 12120 layer_factory.hpp:77] Creating layer lstm1_cont_slice
I0228 21:22:01.987380 12120 net.cpp:84] Creating Layer lstm1_cont_slice
I0228 21:22:01.987383 12120 net.cpp:406] lstm1_cont_slice <- cont
I0228 21:22:01.987388 12120 net.cpp:380] lstm1_cont_slice -> cont_1
I0228 21:22:01.987396 12120 net.cpp:380] lstm1_cont_slice -> cont_2
…
I0228 21:22:01.987432 12120 net.cpp:380] lstm1_cont_slice -> cont_9
I0228 21:22:01.987437 12120 net.cpp:380] lstm1_cont_slice -> cont_10
I0228 21:22:01.987442 12120 net.cpp:380] lstm1_cont_slice -> cont_11
I0228 21:22:01.987447 12120 net.cpp:380] lstm1_cont_slice -> cont_12
I0228 21:22:01.987452 12120 net.cpp:380] lstm1_cont_slice -> cont_13
I0228 21:22:01.987457 12120 net.cpp:380] lstm1_cont_slice -> cont_14
I0228 21:22:01.987462 12120 net.cpp:380] lstm1_cont_slice -> cont_15
I0228 21:22:01.987468 12120 net.cpp:380] lstm1_cont_slice -> cont_16
I0228 21:22:01.987560 12120 net.cpp:122] Setting up lstm1_cont_slice
I0228 21:22:01.987586 12120 net.cpp:129] Top shape: 1 13 (13)
I0228 21:22:01.987591 12120 net.cpp:129] Top shape: 1 13 (13)
I0228 21:22:01.987596 12120 net.cpp:129] Top shape: 1 13 (13)
I0228 21:22:01.987598 12120 net.cpp:129] Top shape: 1 13 (13)
I0228 21:22:01.987602 12120 net.cpp:129] Top shape: 1 13 (13)
I0228 21:22:01.987607 12120 net.cpp:129] Top shape: 1 13 (13)
I0228 21:22:01.987609 12120 net.cpp:129] Top shape: 1 13 (13)
I0228 21:22:01.987613 12120 net.cpp:129] Top shape: 1 13 (13)
I0228 21:22:01.987617 12120 net.cpp:129] Top shape: 1 13 (13)
I0228 21:22:01.987620 12120 net.cpp:129] Top shape: 1 13 (13)
I0228 21:22:01.987624 12120 net.cpp:129] Top shape: 1 13 (13)
I0228 21:22:01.987627 12120 net.cpp:129] Top shape: 1 13 (13)
I0228 21:22:01.987632 12120 net.cpp:129] Top shape: 1 13 (13)
I0228 21:22:01.987635 12120 net.cpp:129] Top shape: 1 13 (13)
I0228 21:22:01.987638 12120 net.cpp:129] Top shape: 1 13 (13)
I0228 21:22:01.987643 12120 net.cpp:129] Top shape: 1 13 (13)
I0228 21:22:01.987645 12120 net.cpp:137] Memory required for data: 4160
I0228 21:22:01.987648 12120 layer_factory.hpp:77] Creating layer cont_1_lstm1_cont_slice_0_split
I0228 21:22:01.987653 12120 net.cpp:84] Creating Layer cont_1_lstm1_cont_slice_0_split
I0228 21:22:01.987655 12120 net.cpp:406] cont_1_lstm1_cont_slice_0_split <- cont_1
I0228 21:22:01.987659 12120 net.cpp:380] cont_1_lstm1_cont_slice_0_split -> cont_1_lstm1_cont_slice_0_split_0
I0228 21:22:01.987663 12120 net.cpp:380] cont_1_lstm1_cont_slice_0_split -> cont_1_lstm1_cont_slice_0_split_1
I0228 21:22:01.987681 12120 net.cpp:122] Setting up cont_1_lstm1_cont_slice_0_split
I0228 21:22:01.987685 12120 net.cpp:129] Top shape: 1 13 (13)
I0228 21:22:01.987689 12120 net.cpp:129] Top shape: 1 13 (13)
I0228 21:22:01.987692 12120 net.cpp:137] Memory required for data: 4264
I0228 21:22:01.987695 12120 layer_factory.hpp:77] Creating layer cont_2_lstm1_cont_slice_1_split
I0228 21:22:01.987700 12120 net.cpp:84] Creating Layer cont_2_lstm1_cont_slice_1_split
I0228 21:22:01.988117 12120 net.cpp:406] cont_2_lstm1_cont_slice_1_split <- cont_2
I0228 21:22:01.988137 12120 net.cpp:380] cont_2_lstm1_cont_slice_1_split -> cont_2_lstm1_cont_slice_1_split_0
I0228 21:22:01.988142 12120 net.cpp:380] cont_2_lstm1_cont_slice_1_split -> cont_2_lstm1_cont_slice_1_split_1
I0228 21:22:01.988160 12120 net.cpp:122] Setting up cont_2_lstm1_cont_slice_1_split
I0228 21:22:01.988165 12120 net.cpp:129] Top shape: 1 13 (13)
I0228 21:22:01.988169 12120 net.cpp:129] Top shape: 1 13 (13)
I0228 21:22:01.988173 12120 net.cpp:137] Memory required for data: 4368
I0228 21:22:01.988175 12120 layer_factory.hpp:77] Creating layer cont_3_lstm1_cont_slice_2_split
I0228 21:22:01.988180 12120 net.cpp:84] Creating Layer cont_3_lstm1_cont_slice_2_split
I0228 21:22:01.988183 12120 net.cpp:406] cont_3_lstm1_cont_slice_2_split <- cont_3
I0228 21:22:01.988188 12120 net.cpp:380] cont_3_lstm1_cont_slice_2_split -> cont_3_lstm1_cont_slice_2_split_0
I0228 21:22:01.988191 12120 net.cpp:380] cont_3_lstm1_cont_slice_2_split -> cont_3_lstm1_cont_slice_2_split_1
I0228 21:22:01.988209 12120 net.cpp:122] Setting up cont_3_lstm1_cont_slice_2_split
I0228 21:22:01.988214 12120 net.cpp:129] Top shape: 1 13 (13)
I0228 21:22:01.988219 12120 net.cpp:129] Top shape: 1 13 (13)
I0228 21:22:01.988221 12120 net.cpp:137] Memory required for data: 4472
I0228 21:22:01.988224 12120 layer_factory.hpp:77] Creating layer cont_4_lstm1_cont_slice_3_split
I0228 21:22:01.988227 12120 net.cpp:84] Creating Layer cont_4_lstm1_cont_slice_3_split
I0228 21:22:01.988231 12120 net.cpp:406] cont_4_lstm1_cont_slice_3_split <- cont_4
I0228 21:22:01.988236 12120 net.cpp:380] cont_4_lstm1_cont_slice_3_split -> cont_4_lstm1_cont_slice_3_split_0
I0228 21:22:01.988240 12120 net.cpp:380] cont_4_lstm1_cont_slice_3_split -> cont_4_lstm1_cont_slice_3_split_1
I0228 21:22:01.988257 12120 net.cpp:122] Setting up cont_4_lstm1_cont_slice_3_split
I0228 21:22:01.988263 12120 net.cpp:129] Top shape: 1 13 (13)
I0228 21:22:01.988266 12120 net.cpp:129] Top shape: 1 13 (13)
I0228 21:22:01.988274 12120 net.cpp:137] Memory required for data: 4576
I0228 21:22:01.988277 12120 layer_factory.hpp:77] Creating layer cont_5_lstm1_cont_slice_4_split
I0228 21:22:01.988281 12120 net.cpp:84] Creating Layer cont_5_lstm1_cont_slice_4_split
I0228 21:22:01.988284 12120 net.cpp:406] cont_5_lstm1_cont_slice_4_split <- cont_5
I0228 21:22:01.988288 12120 net.cpp:380] cont_5_lstm1_cont_slice_4_split -> cont_5_lstm1_cont_slice_4_split_0
I0228 21:22:01.988293 12120 net.cpp:380] cont_5_lstm1_cont_slice_4_split -> cont_5_lstm1_cont_slice_4_split_1
I0228 21:22:01.988312 12120 net.cpp:122] Setting up cont_5_lstm1_cont_slice_4_split
I0228 21:22:01.988317 12120 net.cpp:129] Top shape: 1 13 (13)
I0228 21:22:01.988320 12120 net.cpp:129] Top shape: 1 13 (13)
I0228 21:22:01.988323 12120 net.cpp:137] Memory required for data: 4680
I0228 21:22:01.988327 12120 layer_factory.hpp:77] Creating layer cont_6_lstm1_cont_slice_5_split
I0228 21:22:01.988332 12120 net.cpp:84] Creating Layer cont_6_lstm1_cont_slice_5_split
I0228 21:22:01.988335 12120 net.cpp:406] cont_6_lstm1_cont_slice_5_split <- cont_6
I0228 21:22:01.988339 12120 net.cpp:380] cont_6_lstm1_cont_slice_5_split -> cont_6_lstm1_cont_slice_5_split_0
I0228 21:22:01.988344 12120 net.cpp:380] cont_6_lstm1_cont_slice_5_split -> cont_6_lstm1_cont_slice_5_split_1
I0228 21:22:01.988361 12120 net.cpp:122] Setting up cont_6_lstm1_cont_slice_5_split
I0228 21:22:01.988366 12120 net.cpp:129] Top shape: 1 13 (13)
I0228 21:22:01.988369 12120 net.cpp:129] Top shape: 1 13 (13)
I0228 21:22:01.988373 12120 net.cpp:137] Memory required for data: 4784
I0228 21:22:01.988375 12120 layer_factory.hpp:77] Creating layer cont_7_lstm1_cont_slice_6_split
I0228 21:22:01.989488 12120 net.cpp:84] Creating Layer cont_7_lstm1_cont_slice_6_split
I0228 21:22:01.989497 12120 net.cpp:406] cont_7_lstm1_cont_slice_6_split <- cont_7
I0228 21:22:01.989503 12120 net.cpp:380] cont_7_lstm1_cont_slice_6_split -> cont_7_lstm1_cont_slice_6_split_0
I0228 21:22:01.989516 12120 net.cpp:380] cont_7_lstm1_cont_slice_6_split -> cont_7_lstm1_cont_slice_6_split_1
I0228 21:22:01.989555 12120 net.cpp:122] Setting up cont_7_lstm1_cont_slice_6_split
I0228 21:22:01.989562 12120 net.cpp:129] Top shape: 1 13 (13)
I0228 21:22:01.989567 12120 net.cpp:129] Top shape: 1 13 (13)
I0228 21:22:01.989585 12120 net.cpp:137] Memory required for data: 4888
I0228 21:22:01.989589 12120 layer_factory.hpp:77] Creating layer cont_8_lstm1_cont_slice_7_split
I0228 21:22:01.989593 12120 net.cpp:84] Creating Layer cont_8_lstm1_cont_slice_7_split
I0228 21:22:01.989596 12120 net.cpp:406] cont_8_lstm1_cont_slice_7_split <- cont_8
I0228 21:22:01.989601 12120 net.cpp:380] cont_8_lstm1_cont_slice_7_split -> cont_8_lstm1_cont_slice_7_split_0
I0228 21:22:01.989608 12120 net.cpp:380] cont_8_lstm1_cont_slice_7_split -> cont_8_lstm1_cont_slice_7_split_1
I0228 21:22:01.989624 12120 net.cpp:122] Setting up cont_8_lstm1_cont_slice_7_split
I0228 21:22:01.989630 12120 net.cpp:129] Top shape: 1 13 (13)
I0228 21:22:01.989635 12120 net.cpp:129] Top shape: 1 13 (13)
I0228 21:22:01.989639 12120 net.cpp:137] Memory required for data: 4992
I0228 21:22:01.989642 12120 layer_factory.hpp:77] Creating layer cont_9_lstm1_cont_slice_8_split
I0228 21:22:01.989652 12120 net.cpp:84] Creating Layer cont_9_lstm1_cont_slice_8_split
I0228 21:22:01.989657 12120 net.cpp:406] cont_9_lstm1_cont_slice_8_split <- cont_9
I0228 21:22:01.989663 12120 net.cpp:380] cont_9_lstm1_cont_slice_8_split -> cont_9_lstm1_cont_slice_8_split_0
I0228 21:22:01.989670 12120 net.cpp:380] cont_9_lstm1_cont_slice_8_split -> cont_9_lstm1_cont_slice_8_split_1
I0228 21:22:01.989689 12120 net.cpp:122] Setting up cont_9_lstm1_cont_slice_8_split
I0228 21:22:01.989694 12120 net.cpp:129] Top shape: 1 13 (13)
I0228 21:22:01.989697 12120 net.cpp:129] Top shape: 1 13 (13)
I0228 21:22:01.989699 12120 net.cpp:137] Memory required for data: 5096
I0228 21:22:01.989702 12120 layer_factory.hpp:77] Creating layer cont_10_lstm1_cont_slice_9_split
I0228 21:22:01.989706 12120 net.cpp:84] Creating Layer cont_10_lstm1_cont_slice_9_split
I0228 21:22:01.989717 12120 net.cpp:406] cont_10_lstm1_cont_slice_9_split <- cont_10
I0228 21:22:01.989723 12120 net.cpp:380] cont_10_lstm1_cont_slice_9_split -> cont_10_lstm1_cont_slice_9_split_0
I0228 21:22:01.989732 12120 net.cpp:380] cont_10_lstm1_cont_slice_9_split -> cont_10_lstm1_cont_slice_9_split_1
I0228 21:22:01.989760 12120 net.cpp:122] Setting up cont_10_lstm1_cont_slice_9_split
I0228 21:22:01.989770 12120 net.cpp:129] Top shape: 1 13 (13)
I0228 21:22:01.989778 12120 net.cpp:129] Top shape: 1 13 (13)
I0228 21:22:01.989781 12120 net.cpp:137] Memory required for data: 5200
I0228 21:22:01.989784 12120 layer_factory.hpp:77] Creating layer cont_11_lstm1_cont_slice_10_split
I0228 21:22:01.989789 12120 net.cpp:84] Creating Layer cont_11_lstm1_cont_slice_10_split
I0228 21:22:01.989792 12120 net.cpp:406] cont_11_lstm1_cont_slice_10_split <- cont_11
I0228 21:22:01.989796 12120 net.cpp:380] cont_11_lstm1_cont_slice_10_split -> cont_11_lstm1_cont_slice_10_split_0
I0228 21:22:01.989804 12120 net.cpp:380] cont_11_lstm1_cont_slice_10_split -> cont_11_lstm1_cont_slice_10_split_1
I0228 21:22:01.989821 12120 net.cpp:122] Setting up cont_11_lstm1_cont_slice_10_split
I0228 21:22:01.989826 12120 net.cpp:129] Top shape: 1 13 (13)
I0228 21:22:01.989830 12120 net.cpp:129] Top shape: 1 13 (13)
I0228 21:22:01.989833 12120 net.cpp:137] Memory required for data: 5304
I0228 21:22:01.989836 12120 layer_factory.hpp:77] Creating layer cont_12_lstm1_cont_slice_11_split
I0228 21:22:01.989841 12120 net.cpp:84] Creating Layer cont_12_lstm1_cont_slice_11_split
I0228 21:22:01.989845 12120 net.cpp:406] cont_12_lstm1_cont_slice_11_split <- cont_12
I0228 21:22:01.989848 12120 net.cpp:380] cont_12_lstm1_cont_slice_11_split -> cont_12_lstm1_cont_slice_11_split_0
I0228 21:22:01.989853 12120 net.cpp:380] cont_12_lstm1_cont_slice_11_split -> cont_12_lstm1_cont_slice_11_split_1
I0228 21:22:01.989871 12120 net.cpp:122] Setting up cont_12_lstm1_cont_slice_11_split
I0228 21:22:01.989876 12120 net.cpp:129] Top shape: 1 13 (13)
I0228 21:22:01.989879 12120 net.cpp:129] Top shape: 1 13 (13)
I0228 21:22:01.989897 12120 net.cpp:137] Memory required for data: 5408
I0228 21:22:01.989899 12120 layer_factory.hpp:77] Creating layer cont_13_lstm1_cont_slice_12_split
I0228 21:22:01.989903 12120 net.cpp:84] Creating Layer cont_13_lstm1_cont_slice_12_split
I0228 21:22:01.989907 12120 net.cpp:406] cont_13_lstm1_cont_slice_12_split <- cont_13
I0228 21:22:01.989910 12120 net.cpp:380] cont_13_lstm1_cont_slice_12_split -> cont_13_lstm1_cont_slice_12_split_0
I0228 21:22:01.989914 12120 net.cpp:380] cont_13_lstm1_cont_slice_12_split -> cont_13_lstm1_cont_slice_12_split_1
I0228 21:22:01.989931 12120 net.cpp:122] Setting up cont_13_lstm1_cont_slice_12_split
I0228 21:22:01.989935 12120 net.cpp:129] Top shape: 1 13 (13)
I0228 21:22:01.989939 12120 net.cpp:129] Top shape: 1 13 (13)
I0228 21:22:01.989943 12120 net.cpp:137] Memory required for data: 5512
I0228 21:22:01.989945 12120 layer_factory.hpp:77] Creating layer cont_14_lstm1_cont_slice_13_split
I0228 21:22:01.989950 12120 net.cpp:84] Creating Layer cont_14_lstm1_cont_slice_13_split
I0228 21:22:01.989954 12120 net.cpp:406] cont_14_lstm1_cont_slice_13_split <- cont_14
I0228 21:22:01.989959 12120 net.cpp:380] cont_14_lstm1_cont_slice_13_split -> cont_14_lstm1_cont_slice_13_split_0
I0228 21:22:01.989964 12120 net.cpp:380] cont_14_lstm1_cont_slice_13_split -> cont_14_lstm1_cont_slice_13_split_1
I0228 21:22:01.989979 12120 net.cpp:122] Setting up cont_14_lstm1_cont_slice_13_split
I0228 21:22:01.989984 12120 net.cpp:129] Top shape: 1 13 (13)
I0228 21:22:01.989989 12120 net.cpp:129] Top shape: 1 13 (13)
I0228 21:22:01.989991 12120 net.cpp:137] Memory required for data: 5616
I0228 21:22:01.989994 12120 layer_factory.hpp:77] Creating layer cont_15_lstm1_cont_slice_14_split
I0228 21:22:01.989998 12120 net.cpp:84] Creating Layer cont_15_lstm1_cont_slice_14_split
I0228 21:22:01.990001 12120 net.cpp:406] cont_15_lstm1_cont_slice_14_split <- cont_15
I0228 21:22:01.990005 12120 net.cpp:380] cont_15_lstm1_cont_slice_14_split -> cont_15_lstm1_cont_slice_14_split_0
I0228 21:22:01.990015 12120 net.cpp:380] cont_15_lstm1_cont_slice_14_split -> cont_15_lstm1_cont_slice_14_split_1
I0228 21:22:01.990033 12120 net.cpp:122] Setting up cont_15_lstm1_cont_slice_14_split
I0228 21:22:01.990038 12120 net.cpp:129] Top shape: 1 13 (13)
I0228 21:22:01.990042 12120 net.cpp:129] Top shape: 1 13 (13)
I0228 21:22:01.990046 12120 net.cpp:137] Memory required for data: 5720
I0228 21:22:01.990048 12120 layer_factory.hpp:77] Creating layer cont_16_lstm1_cont_slice_15_split
I0228 21:22:01.990051 12120 net.cpp:84] Creating Layer cont_16_lstm1_cont_slice_15_split
I0228 21:22:01.990054 12120 net.cpp:406] cont_16_lstm1_cont_slice_15_split <- cont_16
I0228 21:22:01.990058 12120 net.cpp:380] cont_16_lstm1_cont_slice_15_split -> cont_16_lstm1_cont_slice_15_split_0
I0228 21:22:01.990062 12120 net.cpp:380] cont_16_lstm1_cont_slice_15_split -> cont_16_lstm1_cont_slice_15_split_1
I0228 21:22:02.003969 12120 net.cpp:122] Setting up cont_16_lstm1_cont_slice_15_split
I0228 21:22:02.003986 12120 net.cpp:129] Top shape: 1 13 (13)
I0228 21:22:02.003993 12120 net.cpp:129] Top shape: 1 13 (13)
I0228 21:22:02.003996 12120 net.cpp:137] Memory required for data: 5824
I0228 21:22:02.004000 12120 layer_factory.hpp:77] Creating layer lstm1_x_transform
I0228 21:22:02.004012 12120 net.cpp:84] Creating Layer lstm1_x_transform
I0228 21:22:02.004017 12120 net.cpp:406] lstm1_x_transform <- x
I0228 21:22:02.004041 12120 net.cpp:380] lstm1_x_transform -> W_xc_x
I0228 21:22:02.004521 12120 net.cpp:122] Setting up lstm1_x_transform
I0228 21:22:02.004546 12120 net.cpp:129] Top shape: 16 13 64 (13312)
I0228 21:22:02.004550 12120 net.cpp:137] Memory required for data: 59072
I0228 21:22:02.004566 12120 layer_factory.hpp:77] Creating layer lstm1_W_xc_x_slice
I0228 21:22:02.004575 12120 net.cpp:84] Creating Layer lstm1_W_xc_x_slice
I0228 21:22:02.004591 12120 net.cpp:406] lstm1_W_xc_x_slice <- W_xc_x
I0228 21:22:02.004597 12120 net.cpp:380] lstm1_W_xc_x_slice -> W_xc_x_1
I0228 21:22:02.004617 12120 net.cpp:380] lstm1_W_xc_x_slice -> W_xc_x_2
…
I0228 21:22:02.004684 12120 net.cpp:380] lstm1_W_xc_x_slice -> W_xc_x_10
I0228 21:22:02.004689 12120 net.cpp:380] lstm1_W_xc_x_slice -> W_xc_x_11
I0228 21:22:02.004695 12120 net.cpp:380] lstm1_W_xc_x_slice -> W_xc_x_12
I0228 21:22:02.004704 12120 net.cpp:380] lstm1_W_xc_x_slice -> W_xc_x_13
I0228 21:22:02.004710 12120 net.cpp:380] lstm1_W_xc_x_slice -> W_xc_x_14
I0228 21:22:02.004714 12120 net.cpp:380] lstm1_W_xc_x_slice -> W_xc_x_15
I0228 21:22:02.004719 12120 net.cpp:380] lstm1_W_xc_x_slice -> W_xc_x_16
I0228 21:22:02.004817 12120 net.cpp:122] Setting up lstm1_W_xc_x_slice
I0228 21:22:02.004823 12120 net.cpp:129] Top shape: 1 13 64 (832)
I0228 21:22:02.004827 12120 net.cpp:129] Top shape: 1 13 64 (832)
I0228 21:22:02.004832 12120 net.cpp:129] Top shape: 1 13 64 (832)
I0228 21:22:02.004835 12120 net.cpp:129] Top shape: 1 13 64 (832)
I0228 21:22:02.004838 12120 net.cpp:129] Top shape: 1 13 64 (832)
I0228 21:22:02.004842 12120 net.cpp:129] Top shape: 1 13 64 (832)
I0228 21:22:02.004847 12120 net.cpp:129] Top shape: 1 13 64 (832)
I0228 21:22:02.004849 12120 net.cpp:129] Top shape: 1 13 64 (832)
I0228 21:22:02.004853 12120 net.cpp:129] Top shape: 1 13 64 (832)
I0228 21:22:02.004858 12120 net.cpp:129] Top shape: 1 13 64 (832)
I0228 21:22:02.004860 12120 net.cpp:129] Top shape: 1 13 64 (832)
I0228 21:22:02.004865 12120 net.cpp:129] Top shape: 1 13 64 (832)
I0228 21:22:02.004869 12120 net.cpp:129] Top shape: 1 13 64 (832)
I0228 21:22:02.004873 12120 net.cpp:129] Top shape: 1 13 64 (832)
I0228 21:22:02.004885 12120 net.cpp:129] Top shape: 1 13 64 (832)
I0228 21:22:02.004889 12120 net.cpp:129] Top shape: 1 13 64 (832)
I0228 21:22:02.004892 12120 net.cpp:137] Memory required for data: 112320
I0228 21:22:02.004895 12120 layer_factory.hpp:77] Creating layer lstm1_h_conted_0
I0228 21:22:02.004902 12120 net.cpp:84] Creating Layer lstm1_h_conted_0
I0228 21:22:02.004905 12120 net.cpp:406] lstm1_h_conted_0 <- h_0
I0228 21:22:02.004910 12120 net.cpp:406] lstm1_h_conted_0 <- cont_1_lstm1_cont_slice_0_split_0
I0228 21:22:02.004915 12120 net.cpp:380] lstm1_h_conted_0 -> h_conted_0
I0228 21:22:02.004952 12120 net.cpp:122] Setting up lstm1_h_conted_0
I0228 21:22:02.004957 12120 net.cpp:129] Top shape: 1 13 16 (208)
I0228 21:22:02.004961 12120 net.cpp:137] Memory required for data: 113152
I0228 21:22:02.004964 12120 layer_factory.hpp:77] Creating layer lstm1_transform_1
I0228 21:22:02.004971 12120 net.cpp:84] Creating Layer lstm1_transform_1
I0228 21:22:02.004973 12120 net.cpp:406] lstm1_transform_1 <- h_conted_0
I0228 21:22:02.004978 12120 net.cpp:380] lstm1_transform_1 -> W_hc_h_0
I0228 21:22:02.005748 12120 net.cpp:122] Setting up lstm1_transform_1
I0228 21:22:02.005761 12120 net.cpp:129] Top shape: 1 13 64 (832)
I0228 21:22:02.005765 12120 net.cpp:137] Memory required for data: 116480
I0228 21:22:02.005775 12120 layer_factory.hpp:77] Creating layer lstm1_gate_input_1
I0228 21:22:02.005789 12120 net.cpp:84] Creating Layer lstm1_gate_input_1
I0228 21:22:02.005795 12120 net.cpp:406] lstm1_gate_input_1 <- W_hc_h_0
I0228 21:22:02.005800 12120 net.cpp:406] lstm1_gate_input_1 <- W_xc_x_1
I0228 21:22:02.005807 12120 net.cpp:380] lstm1_gate_input_1 -> gate_input_1
I0228 21:22:02.005834 12120 net.cpp:122] Setting up lstm1_gate_input_1
I0228 21:22:02.005859 12120 net.cpp:129] Top shape: 1 13 64 (832)
I0228 21:22:02.005864 12120 net.cpp:137] Memory required for data: 119808
I0228 21:22:02.005868 12120 layer_factory.hpp:77] Creating layer lstm1_unit_1
I0228 21:22:02.005875 12120 net.cpp:84] Creating Layer lstm1_unit_1
I0228 21:22:02.005880 12120 net.cpp:406] lstm1_unit_1 <- c_0
I0228 21:22:02.005885 12120 net.cpp:406] lstm1_unit_1 <- gate_input_1
I0228 21:22:02.005892 12120 net.cpp:406] lstm1_unit_1 <- cont_1_lstm1_cont_slice_0_split_1
I0228 21:22:02.005897 12120 net.cpp:380] lstm1_unit_1 -> c_1
I0228 21:22:02.005904 12120 net.cpp:380] lstm1_unit_1 -> h_1
I0228 21:22:02.005939 12120 net.cpp:122] Setting up lstm1_unit_1
I0228 21:22:02.005945 12120 net.cpp:129] Top shape: 1 13 16 (208)
I0228 21:22:02.005950 12120 net.cpp:129] Top shape: 1 13 16 (208)
I0228 21:22:02.005955 12120 net.cpp:137] Memory required for data: 121472
I0228 21:22:02.005959 12120 layer_factory.hpp:77] Creating layer h_1_lstm1_unit_1_1_split
I0228 21:22:02.005966 12120 net.cpp:84] Creating Layer h_1_lstm1_unit_1_1_split
I0228 21:22:02.005971 12120 net.cpp:406] h_1_lstm1_unit_1_1_split <- h_1
I0228 21:22:02.005976 12120 net.cpp:380] h_1_lstm1_unit_1_1_split -> h_1_lstm1_unit_1_1_split_0
I0228 21:22:02.005981 12120 net.cpp:380] h_1_lstm1_unit_1_1_split -> h_1_lstm1_unit_1_1_split_1
I0228 21:22:02.006001 12120 net.cpp:122] Setting up h_1_lstm1_unit_1_1_split
I0228 21:22:02.006006 12120 net.cpp:129] Top shape: 1 13 16 (208)
I0228 21:22:02.006011 12120 net.cpp:129] Top shape: 1 13 16 (208)
I0228 21:22:02.006013 12120 net.cpp:137] Memory required for data: 123136
I0228 21:22:02.006016 12120 layer_factory.hpp:77] Creating layer lstm1_h_conted_1
I0228 21:22:02.006021 12120 net.cpp:84] Creating Layer lstm1_h_conted_1
I0228 21:22:02.006024 12120 net.cpp:406] lstm1_h_conted_1 <- h_1_lstm1_unit_1_1_split_0
I0228 21:22:02.006028 12120 net.cpp:406] lstm1_h_conted_1 <- cont_2_lstm1_cont_slice_1_split_0
I0228 21:22:02.006033 12120 net.cpp:380] lstm1_h_conted_1 -> h_conted_1
I0228 21:22:02.006069 12120 net.cpp:122] Setting up lstm1_h_conted_1
I0228 21:22:02.006075 12120 net.cpp:129] Top shape: 1 13 16 (208)
I0228 21:22:02.006079 12120 net.cpp:137] Memory required for data: 123968
I0228 21:22:02.006083 12120 layer_factory.hpp:77] Creating layer lstm1_transform_2
I0228 21:22:02.006088 12120 net.cpp:84] Creating Layer lstm1_transform_2
I0228 21:22:02.006099 12120 net.cpp:406] lstm1_transform_2 <- h_conted_1
I0228 21:22:02.006105 12120 net.cpp:380] lstm1_transform_2 -> W_hc_h_1
I0228 21:22:02.006157 12120 net.cpp:122] Setting up lstm1_transform_2
I0228 21:22:02.006165 12120 net.cpp:129] Top shape: 1 13 64 (832)
I0228 21:22:02.006167 12120 net.cpp:137] Memory required for data: 127296
I0228 21:22:02.006170 12120 net.cpp:465] Sharing parameters 'W_hc' owned by layer 'lstm1_transform_1', param index 0
I0228 21:22:02.006175 12120 layer_factory.hpp:77] Creating layer lstm1_gate_input_2
I0228 21:22:02.006178 12120 net.cpp:84] Creating Layer lstm1_gate_input_2
I0228 21:22:02.007170 12120 net.cpp:406] lstm1_gate_input_2 <- W_hc_h_1
I0228 21:22:02.007184 12120 net.cpp:406] lstm1_gate_input_2 <- W_xc_x_2
I0228 21:22:02.007192 12120 net.cpp:380] lstm1_gate_input_2 -> gate_input_2
I0228 21:22:02.007220 12120 net.cpp:122] Setting up lstm1_gate_input_2
I0228 21:22:02.007228 12120 net.cpp:129] Top shape: 1 13 64 (832)
I0228 21:22:02.007231 12120 net.cpp:137] Memory required for data: 130624
I0228 21:22:02.007235 12120 layer_factory.hpp:77] Creating layer lstm1_unit_2
I0228 21:22:02.007241 12120 net.cpp:84] Creating Layer lstm1_unit_2
I0228 21:22:02.007246 12120 net.cpp:406] lstm1_unit_2 <- c_1
I0228 21:22:02.007249 12120 net.cpp:406] lstm1_unit_2 <- gate_input_2
I0228 21:22:02.007253 12120 net.cpp:406] lstm1_unit_2 <- cont_2_lstm1_cont_slice_1_split_1
I0228 21:22:02.007258 12120 net.cpp:380] lstm1_unit_2 -> c_2
I0228 21:22:02.007263 12120 net.cpp:380] lstm1_unit_2 -> h_2
I0228 21:22:02.007292 12120 net.cpp:122] Setting up lstm1_unit_2
I0228 21:22:02.007298 12120 net.cpp:129] Top shape: 1 13 16 (208)
I0228 21:22:02.007302 12120 net.cpp:129] Top shape: 1 13 16 (208)
I0228 21:22:02.007305 12120 net.cpp:137] Memory required for data: 132288
I0228 21:22:02.007308 12120 layer_factory.hpp:77] Creating layer h_2_lstm1_unit_2_1_split
I0228 21:22:02.007313 12120 net.cpp:84] Creating Layer h_2_lstm1_unit_2_1_split
I0228 21:22:02.007315 12120 net.cpp:406] h_2_lstm1_unit_2_1_split <- h_2
I0228 21:22:02.007320 12120 net.cpp:380] h_2_lstm1_unit_2_1_split -> h_2_lstm1_unit_2_1_split_0
I0228 21:22:02.007326 12120 net.cpp:380] h_2_lstm1_unit_2_1_split -> h_2_lstm1_unit_2_1_split_1
I0228 21:22:02.007354 12120 net.cpp:122] Setting up h_2_lstm1_unit_2_1_split
I0228 21:22:02.007364 12120 net.cpp:129] Top shape: 1 13 16 (208)
I0228 21:22:02.007371 12120 net.cpp:129] Top shape: 1 13 16 (208)
I0228 21:22:02.007377 12120 net.cpp:137] Memory required for data: 133952
I0228 21:22:02.007382 12120 layer_factory.hpp:77] Creating layer lstm1_h_conted_2
I0228 21:22:02.007392 12120 net.cpp:84] Creating Layer lstm1_h_conted_2
I0228 21:22:02.007397 12120 net.cpp:406] lstm1_h_conted_2 <- h_2_lstm1_unit_2_1_split_0
I0228 21:22:02.007405 12120 net.cpp:406] lstm1_h_conted_2 <- cont_3_lstm1_cont_slice_2_split_0
I0228 21:22:02.007412 12120 net.cpp:380] lstm1_h_conted_2 -> h_conted_2
I0228 21:22:02.007460 12120 net.cpp:122] Setting up lstm1_h_conted_2
I0228 21:22:02.007468 12120 net.cpp:129] Top shape: 1 13 16 (208)
I0228 21:22:02.007472 12120 net.cpp:137] Memory required for data: 134784
I0228 21:22:02.007474 12120 layer_factory.hpp:77] Creating layer lstm1_transform_3
I0228 21:22:02.007495 12120 net.cpp:84] Creating Layer lstm1_transform_3
I0228 21:22:02.007499 12120 net.cpp:406] lstm1_transform_3 <- h_conted_2
I0228 21:22:02.007503 12120 net.cpp:380] lstm1_transform_3 -> W_hc_h_2
I0228 21:22:02.007536 12120 net.cpp:122] Setting up lstm1_transform_3
I0228 21:22:02.007542 12120 net.cpp:129] Top shape: 1 13 64 (832)
I0228 21:22:02.007545 12120 net.cpp:137] Memory required for data: 138112
I0228 21:22:02.007550 12120 net.cpp:465] Sharing parameters 'W_hc' owned by layer 'lstm1_transform_1', param index 0
I0228 21:22:02.007555 12120 layer_factory.hpp:77] Creating layer lstm1_gate_input_3
I0228 21:22:02.007560 12120 net.cpp:84] Creating Layer lstm1_gate_input_3
I0228 21:22:02.007563 12120 net.cpp:406] lstm1_gate_input_3 <- W_hc_h_2
I0228 21:22:02.007567 12120 net.cpp:406] lstm1_gate_input_3 <- W_xc_x_3
I0228 21:22:02.007580 12120 net.cpp:380] lstm1_gate_input_3 -> gate_input_3
I0228 21:22:02.007596 12120 net.cpp:122] Setting up lstm1_gate_input_3
I0228 21:22:02.007601 12120 net.cpp:129] Top shape: 1 13 64 (832)
I0228 21:22:02.007604 12120 net.cpp:137] Memory required for data: 141440
I0228 21:22:02.007606 12120 layer_factory.hpp:77] Creating layer lstm1_unit_3
I0228 21:22:02.007612 12120 net.cpp:84] Creating Layer lstm1_unit_3
I0228 21:22:02.007616 12120 net.cpp:406] lstm1_unit_3 <- c_2
I0228 21:22:02.007621 12120 net.cpp:406] lstm1_unit_3 <- gate_input_3
I0228 21:22:02.007624 12120 net.cpp:406] lstm1_unit_3 <- cont_3_lstm1_cont_slice_2_split_1
I0228 21:22:02.007628 12120 net.cpp:380] lstm1_unit_3 -> c_3
I0228 21:22:02.007633 12120 net.cpp:380] lstm1_unit_3 -> h_3
I0228 21:22:02.007656 12120 net.cpp:122] Setting up lstm1_unit_3
I0228 21:22:02.007661 12120 net.cpp:129] Top shape: 1 13 16 (208)
I0228 21:22:02.007665 12120 net.cpp:129] Top shape: 1 13 16 (208)
I0228 21:22:02.007668 12120 net.cpp:137] Memory required for data: 143104
I0228 21:22:02.007671 12120 layer_factory.hpp:77] Creating layer h_3_lstm1_unit_3_1_split
I0228 21:22:02.007675 12120 net.cpp:84] Creating Layer h_3_lstm1_unit_3_1_split
I0228 21:22:02.007678 12120 net.cpp:406] h_3_lstm1_unit_3_1_split <- h_3
I0228 21:22:02.007683 12120 net.cpp:380] h_3_lstm1_unit_3_1_split -> h_3_lstm1_unit_3_1_split_0
I0228 21:22:02.007689 12120 net.cpp:380] h_3_lstm1_unit_3_1_split -> h_3_lstm1_unit_3_1_split_1
I0228 21:22:02.007706 12120 net.cpp:122] Setting up h_3_lstm1_unit_3_1_split
I0228 21:22:02.007711 12120 net.cpp:129] Top shape: 1 13 16 (208)
I0228 21:22:02.007715 12120 net.cpp:129] Top shape: 1 13 16 (208)
I0228 21:22:02.007719 12120 net.cpp:137] Memory required for data: 144768
I0228 21:22:02.007721 12120 layer_factory.hpp:77] Creating layer lstm1_h_conted_3
I0228 21:22:02.007726 12120 net.cpp:84] Creating Layer lstm1_h_conted_3
I0228 21:22:02.007730 12120 net.cpp:406] lstm1_h_conted_3 <- h_3_lstm1_unit_3_1_split_0
I0228 21:22:02.007733 12120 net.cpp:406] lstm1_h_conted_3 <- cont_4_lstm1_cont_slice_3_split_0
I0228 21:22:02.007737 12120 net.cpp:380] lstm1_h_conted_3 -> h_conted_3
I0228 21:22:02.007768 12120 net.cpp:122] Setting up lstm1_h_conted_3
I0228 21:22:02.007774 12120 net.cpp:129] Top shape: 1 13 16 (208)
I0228 21:22:02.007777 12120 net.cpp:137] Memory required for data: 145600
I0228 21:22:02.007781 12120 layer_factory.hpp:77] Creating layer lstm1_transform_4
I0228 21:22:02.007784 12120 net.cpp:84] Creating Layer lstm1_transform_4
I0228 21:22:02.007787 12120 net.cpp:406] lstm1_transform_4 <- h_conted_3
I0228 21:22:02.007792 12120 net.cpp:380] lstm1_transform_4 -> W_hc_h_3
I0228 21:22:02.007823 12120 net.cpp:122] Setting up lstm1_transform_4
I0228 21:22:02.007828 12120 net.cpp:129] Top shape: 1 13 64 (832)
I0228 21:22:02.007832 12120 net.cpp:137] Memory required for data: 148928
I0228 21:22:02.007835 12120 net.cpp:465] Sharing parameters 'W_hc' owned by layer 'lstm1_transform_1', param index 0
I0228 21:22:02.007838 12120 layer_factory.hpp:77] Creating layer lstm1_gate_input_4
I0228 21:22:02.007843 12120 net.cpp:84] Creating Layer lstm1_gate_input_4
I0228 21:22:02.007845 12120 net.cpp:406] lstm1_gate_input_4 <- W_hc_h_3
I0228 21:22:02.007849 12120 net.cpp:406] lstm1_gate_input_4 <- W_xc_x_4
I0228 21:22:02.007854 12120 net.cpp:380] lstm1_gate_input_4 -> gate_input_4
I0228 21:22:02.007869 12120 net.cpp:122] Setting up lstm1_gate_input_4
I0228 21:22:02.007874 12120 net.cpp:129] Top shape: 1 13 64 (832)
I0228 21:22:02.007876 12120 net.cpp:137] Memory required for data: 152256
I0228 21:22:02.007879 12120 layer_factory.hpp:77] Creating layer lstm1_unit_4
I0228 21:22:02.007884 12120 net.cpp:84] Creating Layer lstm1_unit_4
I0228 21:22:02.007887 12120 net.cpp:406] lstm1_unit_4 <- c_3
I0228 21:22:02.007890 12120 net.cpp:406] lstm1_unit_4 <- gate_input_4
I0228 21:22:02.007894 12120 net.cpp:406] lstm1_unit_4 <- cont_4_lstm1_cont_slice_3_split_1
I0228 21:22:02.007899 12120 net.cpp:380] lstm1_unit_4 -> c_4
I0228 21:22:02.007905 12120 net.cpp:380] lstm1_unit_4 -> h_4
I0228 21:22:02.007935 12120 net.cpp:122] Setting up lstm1_unit_4
I0228 21:22:02.007939 12120 net.cpp:129] Top shape: 1 13 16 (208)
I0228 21:22:02.007943 12120 net.cpp:129] Top shape: 1 13 16 (208)
I0228 21:22:02.007946 12120 net.cpp:137] Memory required for data: 153920
I0228 21:22:02.007949 12120 layer_factory.hpp:77] Creating layer h_4_lstm1_unit_4_1_split
I0228 21:22:02.007953 12120 net.cpp:84] Creating Layer h_4_lstm1_unit_4_1_split
I0228 21:22:02.007957 12120 net.cpp:406] h_4_lstm1_unit_4_1_split <- h_4
I0228 21:22:02.037391 12120 net.cpp:380] h_4_lstm1_unit_4_1_split -> h_4_lstm1_unit_4_1_split_0
I0228 21:22:02.037418 12120 net.cpp:380] h_4_lstm1_unit_4_1_split -> h_4_lstm1_unit_4_1_split_1
I0228 21:22:02.037484 12120 net.cpp:122] Setting up h_4_lstm1_unit_4_1_split
I0228 21:22:02.037500 12120 net.cpp:129] Top shape: 1 13 16 (208)
I0228 21:22:02.037506 12120 net.cpp:129] Top shape: 1 13 16 (208)
I0228 21:22:02.037511 12120 net.cpp:137] Memory required for data: 155584
I0228 21:22:02.037518 12120 layer_factory.hpp:77] Creating layer lstm1_h_conted_4
I0228 21:22:02.037539 12120 net.cpp:84] Creating Layer lstm1_h_conted_4
I0228 21:22:02.037544 12120 net.cpp:406] lstm1_h_conted_4 <- h_4_lstm1_unit_4_1_split_0
I0228 21:22:02.037550 12120 net.cpp:406] lstm1_h_conted_4 <- cont_5_lstm1_cont_slice_4_split_0
I0228 21:22:02.037557 12120 net.cpp:380] lstm1_h_conted_4 -> h_conted_4
I0228 21:22:02.037600 12120 net.cpp:122] Setting up lstm1_h_conted_4
I0228 21:22:02.037606 12120 net.cpp:129] Top shape: 1 13 16 (208)
I0228 21:22:02.037611 12120 net.cpp:137] Memory required for data: 156416
I0228 21:22:02.037614 12120 layer_factory.hpp:77] Creating layer lstm1_transform_5
I0228 21:22:02.037621 12120 net.cpp:84] Creating Layer lstm1_transform_5
I0228 21:22:02.037626 12120 net.cpp:406] lstm1_transform_5 <- h_conted_4
I0228 21:22:02.037632 12120 net.cpp:380] lstm1_transform_5 -> W_hc_h_4
I0228 21:22:02.037673 12120 net.cpp:122] Setting up lstm1_transform_5
I0228 21:22:02.037680 12120 net.cpp:129] Top shape: 1 13 64 (832)
I0228 21:22:02.037683 12120 net.cpp:137] Memory required for data: 159744
I0228 21:22:02.037688 12120 net.cpp:465] Sharing parameters 'W_hc' owned by layer 'lstm1_transform_1', param index 0
I0228 21:22:02.037693 12120 layer_factory.hpp:77] Creating layer lstm1_gate_input_5
I0228 21:22:02.037698 12120 net.cpp:84] Creating Layer lstm1_gate_input_5
I0228 21:22:02.037703 12120 net.cpp:406] lstm1_gate_input_5 <- W_hc_h_4
I0228 21:22:02.037708 12120 net.cpp:406] lstm1_gate_input_5 <- W_xc_x_5
I0228 21:22:02.037714 12120 net.cpp:380] lstm1_gate_input_5 -> gate_input_5
I0228 21:22:02.037734 12120 net.cpp:122] Setting up lstm1_gate_input_5
I0228 21:22:02.037740 12120 net.cpp:129] Top shape: 1 13 64 (832)
I0228 21:22:02.037744 12120 net.cpp:137] Memory required for data: 163072
I0228 21:22:02.037748 12120 layer_factory.hpp:77] Creating layer lstm1_unit_5
I0228 21:22:02.037755 12120 net.cpp:84] Creating Layer lstm1_unit_5
I0228 21:22:02.037758 12120 net.cpp:406] lstm1_unit_5 <- c_4
I0228 21:22:02.037763 12120 net.cpp:406] lstm1_unit_5 <- gate_input_5
I0228 21:22:02.037767 12120 net.cpp:406] lstm1_unit_5 <- cont_5_lstm1_cont_slice_4_split_1
I0228 21:22:02.037773 12120 net.cpp:380] lstm1_unit_5 -> c_5
I0228 21:22:02.037778 12120 net.cpp:380] lstm1_unit_5 -> h_5
I0228 21:22:02.037804 12120 net.cpp:122] Setting up lstm1_unit_5
I0228 21:22:02.037811 12120 net.cpp:129] Top shape: 1 13 16 (208)
I0228 21:22:02.037816 12120 net.cpp:129] Top shape: 1 13 16 (208)
I0228 21:22:02.037819 12120 net.cpp:137] Memory required for data: 164736
I0228 21:22:02.037824 12120 layer_factory.hpp:77] Creating layer h_5_lstm1_unit_5_1_split
I0228 21:22:02.037829 12120 net.cpp:84] Creating Layer h_5_lstm1_unit_5_1_split
I0228 21:22:02.037833 12120 net.cpp:406] h_5_lstm1_unit_5_1_split <- h_5
I0228 21:22:02.037838 12120 net.cpp:380] h_5_lstm1_unit_5_1_split -> h_5_lstm1_unit_5_1_split_0
I0228 21:22:02.037844 12120 net.cpp:380] h_5_lstm1_unit_5_1_split -> h_5_lstm1_unit_5_1_split_1
I0228 21:22:02.037863 12120 net.cpp:122] Setting up h_5_lstm1_unit_5_1_split
I0228 21:22:02.037880 12120 net.cpp:129] Top shape: 1 13 16 (208)
I0228 21:22:02.037886 12120 net.cpp:129] Top shape: 1 13 16 (208)
I0228 21:22:02.037889 12120 net.cpp:137] Memory required for data: 166400
I0228 21:22:02.037894 12120 layer_factory.hpp:77] Creating layer lstm1_h_conted_5
I0228 21:22:02.037899 12120 net.cpp:84] Creating Layer lstm1_h_conted_5
I0228 21:22:02.037904 12120 net.cpp:406] lstm1_h_conted_5 <- h_5_lstm1_unit_5_1_split_0
I0228 21:22:02.037907 12120 net.cpp:406] lstm1_h_conted_5 <- cont_6_lstm1_cont_slice_5_split_0
I0228 21:22:02.037912 12120 net.cpp:380] lstm1_h_conted_5 -> h_conted_5
I0228 21:22:02.037945 12120 net.cpp:122] Setting up lstm1_h_conted_5
I0228 21:22:02.037951 12120 net.cpp:129] Top shape: 1 13 16 (208)
I0228 21:22:02.037955 12120 net.cpp:137] Memory required for data: 167232
I0228 21:22:02.037959 12120 layer_factory.hpp:77] Creating layer lstm1_transform_6
I0228 21:22:02.037966 12120 net.cpp:84] Creating Layer lstm1_transform_6
I0228 21:22:02.037969 12120 net.cpp:406] lstm1_transform_6 <- h_conted_5
I0228 21:22:02.037976 12120 net.cpp:380] lstm1_transform_6 -> W_hc_h_5
I0228 21:22:02.038013 12120 net.cpp:122] Setting up lstm1_transform_6
I0228 21:22:02.038020 12120 net.cpp:129] Top shape: 1 13 64 (832)
I0228 21:22:02.038024 12120 net.cpp:137] Memory required for data: 170560
I0228 21:22:02.038028 12120 net.cpp:465] Sharing parameters 'W_hc' owned by layer 'lstm1_transform_1', param index 0
I0228 21:22:02.038033 12120 layer_factory.hpp:77] Creating layer lstm1_gate_input_6
I0228 21:22:02.038038 12120 net.cpp:84] Creating Layer lstm1_gate_input_6
I0228 21:22:02.038041 12120 net.cpp:406] lstm1_gate_input_6 <- W_hc_h_5
I0228 21:22:02.038046 12120 net.cpp:406] lstm1_gate_input_6 <- W_xc_x_6
I0228 21:22:02.038051 12120 net.cpp:380] lstm1_gate_input_6 -> gate_input_6
I0228 21:22:02.038067 12120 net.cpp:122] Setting up lstm1_gate_input_6
I0228 21:22:02.038074 12120 net.cpp:129] Top shape: 1 13 64 (832)
I0228 21:22:02.038076 12120 net.cpp:137] Memory required for data: 173888
I0228 21:22:02.038080 12120 layer_factory.hpp:77] Creating layer lstm1_unit_6
I0228 21:22:02.038085 12120 net.cpp:84] Creating Layer lstm1_unit_6
I0228 21:22:02.038089 12120 net.cpp:406] lstm1_unit_6 <- c_5
I0228 21:22:02.038094 12120 net.cpp:406] lstm1_unit_6 <- gate_input_6
I0228 21:22:02.038100 12120 net.cpp:406] lstm1_unit_6 <- cont_6_lstm1_cont_slice_5_split_1
I0228 21:22:02.038103 12120 net.cpp:380] lstm1_unit_6 -> c_6
I0228 21:22:02.038110 12120 net.cpp:380] lstm1_unit_6 -> h_6
I0228 21:22:02.038133 12120 net.cpp:122] Setting up lstm1_unit_6
I0228 21:22:02.038141 12120 net.cpp:129] Top shape: 1 13 16 (208)
I0228 21:22:02.038144 12120 net.cpp:129] Top shape: 1 13 16 (208)
I0228 21:22:02.038148 12120 net.cpp:137] Memory required for data: 175552
I0228 21:22:02.038152 12120 layer_factory.hpp:77] Creating layer h_6_lstm1_unit_6_1_split
I0228 21:22:02.038157 12120 net.cpp:84] Creating Layer h_6_lstm1_unit_6_1_split
I0228 21:22:02.038161 12120 net.cpp:406] h_6_lstm1_unit_6_1_split <- h_6
I0228 21:22:02.038166 12120 net.cpp:380] h_6_lstm1_unit_6_1_split -> h_6_lstm1_unit_6_1_split_0
I0228 21:22:02.038172 12120 net.cpp:380] h_6_lstm1_unit_6_1_split -> h_6_lstm1_unit_6_1_split_1
I0228 21:22:02.038192 12120 net.cpp:122] Setting up h_6_lstm1_unit_6_1_split
I0228 21:22:02.038197 12120 net.cpp:129] Top shape: 1 13 16 (208)
I0228 21:22:02.038202 12120 net.cpp:129] Top shape: 1 13 16 (208)
I0228 21:22:02.038205 12120 net.cpp:137] Memory required for data: 177216
I0228 21:22:02.038209 12120 layer_factory.hpp:77] Creating layer lstm1_h_conted_6
I0228 21:22:02.038234 12120 net.cpp:84] Creating Layer lstm1_h_conted_6
I0228 21:22:02.038239 12120 net.cpp:406] lstm1_h_conted_6 <- h_6_lstm1_unit_6_1_split_0
I0228 21:22:02.038244 12120 net.cpp:406] lstm1_h_conted_6 <- cont_7_lstm1_cont_slice_6_split_0
I0228 21:22:02.038249 12120 net.cpp:380] lstm1_h_conted_6 -> h_conted_6
I0228 21:22:02.038311 12120 net.cpp:122] Setting up lstm1_h_conted_6
I0228 21:22:02.038316 12120 net.cpp:129] Top shape: 1 13 16 (208)
I0228 21:22:02.038326 12120 net.cpp:137] Memory required for data: 178048
I0228 21:22:02.038331 12120 layer_factory.hpp:77] Creating layer lstm1_transform_7
I0228 21:22:02.038339 12120 net.cpp:84] Creating Layer lstm1_transform_7
I0228 21:22:02.038345 12120 net.cpp:406] lstm1_transform_7 <- h_conted_6
I0228 21:22:02.038352 12120 net.cpp:380] lstm1_transform_7 -> W_hc_h_6
I0228 21:22:02.038403 12120 net.cpp:122] Setting up lstm1_transform_7
I0228 21:22:02.038413 12120 net.cpp:129] Top shape: 1 13 64 (832)
I0228 21:22:02.038415 12120 net.cpp:137] Memory required for data: 181376
I0228 21:22:02.038424 12120 net.cpp:465] Sharing parameters 'W_hc' owned by layer 'lstm1_transform_1', param index 0
I0228 21:22:02.038427 12120 layer_factory.hpp:77] Creating layer lstm1_gate_input_7
I0228 21:22:02.038431 12120 net.cpp:84] Creating Layer lstm1_gate_input_7
I0228 21:22:02.040645 12120 net.cpp:406] lstm1_gate_input_7 <- W_hc_h_6
I0228 21:22:02.040657 12120 net.cpp:406] lstm1_gate_input_7 <- W_xc_x_7
I0228 21:22:02.040668 12120 net.cpp:380] lstm1_gate_input_7 -> gate_input_7
I0228 21:22:02.040714 12120 net.cpp:122] Setting up lstm1_gate_input_7
I0228 21:22:02.040721 12120 net.cpp:129] Top shape: 1 13 64 (832)
I0228 21:22:02.040725 12120 net.cpp:137] Memory required for data: 184704
I0228 21:22:02.040729 12120 layer_factory.hpp:77] Creating layer lstm1_unit_7
I0228 21:22:02.040736 12120 net.cpp:84] Creating Layer lstm1_unit_7
I0228 21:22:02.040740 12120 net.cpp:406] lstm1_unit_7 <- c_6
I0228 21:22:02.040745 12120 net.cpp:406] lstm1_unit_7 <- gate_input_7
I0228 21:22:02.040750 12120 net.cpp:406] lstm1_unit_7 <- cont_7_lstm1_cont_slice_6_split_1
I0228 21:22:02.040753 12120 net.cpp:380] lstm1_unit_7 -> c_7
I0228 21:22:02.040758 12120 net.cpp:380] lstm1_unit_7 -> h_7
I0228 21:22:02.040786 12120 net.cpp:122] Setting up lstm1_unit_7
I0228 21:22:02.040792 12120 net.cpp:129] Top shape: 1 13 16 (208)
I0228 21:22:02.040796 12120 net.cpp:129] Top shape: 1 13 16 (208)
I0228 21:22:02.040799 12120 net.cpp:137] Memory required for data: 186368
I0228 21:22:02.040802 12120 layer_factory.hpp:77] Creating layer h_7_lstm1_unit_7_1_split
I0228 21:22:02.040807 12120 net.cpp:84] Creating Layer h_7_lstm1_unit_7_1_split
I0228 21:22:02.040809 12120 net.cpp:406] h_7_lstm1_unit_7_1_split <- h_7
I0228 21:22:02.040817 12120 net.cpp:380] h_7_lstm1_unit_7_1_split -> h_7_lstm1_unit_7_1_split_0
I0228 21:22:02.040822 12120 net.cpp:380] h_7_lstm1_unit_7_1_split -> h_7_lstm1_unit_7_1_split_1
I0228 21:22:02.040863 12120 net.cpp:122] Setting up h_7_lstm1_unit_7_1_split
I0228 21:22:02.040884 12120 net.cpp:129] Top shape: 1 13 16 (208)
I0228 21:22:02.040889 12120 net.cpp:129] Top shape: 1 13 16 (208)
I0228 21:22:02.040890 12120 net.cpp:137] Memory required for data: 188032
I0228 21:22:02.040894 12120 layer_factory.hpp:77] Creating layer lstm1_h_conted_7
I0228 21:22:02.040900 12120 net.cpp:84] Creating Layer lstm1_h_conted_7
I0228 21:22:02.040904 12120 net.cpp:406] lstm1_h_conted_7 <- h_7_lstm1_unit_7_1_split_0
I0228 21:22:02.040907 12120 net.cpp:406] lstm1_h_conted_7 <- cont_8_lstm1_cont_slice_7_split_0
I0228 21:22:02.040913 12120 net.cpp:380] lstm1_h_conted_7 -> h_conted_7
I0228 21:22:02.040951 12120 net.cpp:122] Setting up lstm1_h_conted_7
I0228 21:22:02.040957 12120 net.cpp:129] Top shape: 1 13 16 (208)
I0228 21:22:02.040961 12120 net.cpp:137] Memory required for data: 188864
I0228 21:22:02.040963 12120 layer_factory.hpp:77] Creating layer lstm1_transform_8
I0228 21:22:02.040968 12120 net.cpp:84] Creating Layer lstm1_transform_8
I0228 21:22:02.040971 12120 net.cpp:406] lstm1_transform_8 <- h_conted_7
I0228 21:22:02.040977 12120 net.cpp:380] lstm1_transform_8 -> W_hc_h_7
I0228 21:22:02.041013 12120 net.cpp:122] Setting up lstm1_transform_8
I0228 21:22:02.041020 12120 net.cpp:129] Top shape: 1 13 64 (832)
I0228 21:22:02.041023 12120 net.cpp:137] Memory required for data: 192192
I0228 21:22:02.041028 12120 net.cpp:465] Sharing parameters 'W_hc' owned by layer 'lstm1_transform_1', param index 0
I0228 21:22:02.041030 12120 layer_factory.hpp:77] Creating layer lstm1_gate_input_8
I0228 21:22:02.041045 12120 net.cpp:84] Creating Layer lstm1_gate_input_8
I0228 21:22:02.041049 12120 net.cpp:406] lstm1_gate_input_8 <- W_hc_h_7
I0228 21:22:02.041054 12120 net.cpp:406] lstm1_gate_input_8 <- W_xc_x_8
I0228 21:22:02.041059 12120 net.cpp:380] lstm1_gate_input_8 -> gate_input_8
I0228 21:22:02.041072 12120 net.cpp:122] Setting up lstm1_gate_input_8
I0228 21:22:02.041077 12120 net.cpp:129] Top shape: 1 13 64 (832)
I0228 21:22:02.041081 12120 net.cpp:137] Memory required for data: 195520
I0228 21:22:02.041085 12120 layer_factory.hpp:77] Creating layer lstm1_unit_8
I0228 21:22:02.041088 12120 net.cpp:84] Creating Layer lstm1_unit_8
I0228 21:22:02.041091 12120 net.cpp:406] lstm1_unit_8 <- c_7
I0228 21:22:02.041095 12120 net.cpp:406] lstm1_unit_8 <- gate_input_8
I0228 21:22:02.041100 12120 net.cpp:406] lstm1_unit_8 <- cont_8_lstm1_cont_slice_7_split_1
I0228 21:22:02.041105 12120 net.cpp:380] lstm1_unit_8 -> c_8
I0228 21:22:02.041110 12120 net.cpp:380] lstm1_unit_8 -> h_8
I0228 21:22:02.041132 12120 net.cpp:122] Setting up lstm1_unit_8
I0228 21:22:02.041139 12120 net.cpp:129] Top shape: 1 13 16 (208)
I0228 21:22:02.041143 12120 net.cpp:129] Top shape: 1 13 16 (208)
I0228 21:22:02.041146 12120 net.cpp:137] Memory required for data: 197184
I0228 21:22:02.041149 12120 layer_factory.hpp:77] Creating layer h_8_lstm1_unit_8_1_split
I0228 21:22:02.041153 12120 net.cpp:84] Creating Layer h_8_lstm1_unit_8_1_split
I0228 21:22:02.041157 12120 net.cpp:406] h_8_lstm1_unit_8_1_split <- h_8
I0228 21:22:02.041160 12120 net.cpp:380] h_8_lstm1_unit_8_1_split -> h_8_lstm1_unit_8_1_split_0
I0228 21:22:02.041165 12120 net.cpp:380] h_8_lstm1_unit_8_1_split -> h_8_lstm1_unit_8_1_split_1
I0228 21:22:02.041183 12120 net.cpp:122] Setting up h_8_lstm1_unit_8_1_split
I0228 21:22:02.041188 12120 net.cpp:129] Top shape: 1 13 16 (208)
I0228 21:22:02.041193 12120 net.cpp:129] Top shape: 1 13 16 (208)
I0228 21:22:02.041195 12120 net.cpp:137] Memory required for data: 198848
I0228 21:22:02.041198 12120 layer_factory.hpp:77] Creating layer lstm1_h_conted_8
I0228 21:22:02.041204 12120 net.cpp:84] Creating Layer lstm1_h_conted_8
I0228 21:22:02.041208 12120 net.cpp:406] lstm1_h_conted_8 <- h_8_lstm1_unit_8_1_split_0
I0228 21:22:02.041211 12120 net.cpp:406] lstm1_h_conted_8 <- cont_9_lstm1_cont_slice_8_split_0
I0228 21:22:02.041216 12120 net.cpp:380] lstm1_h_conted_8 -> h_conted_8
I0228 21:22:02.041247 12120 net.cpp:122] Setting up lstm1_h_conted_8
I0228 21:22:02.041268 12120 net.cpp:129] Top shape: 1 13 16 (208)
I0228 21:22:02.041271 12120 net.cpp:137] Memory required for data: 199680
I0228 21:22:02.041275 12120 layer_factory.hpp:77] Creating layer lstm1_transform_9
I0228 21:22:02.041280 12120 net.cpp:84] Creating Layer lstm1_transform_9
I0228 21:22:02.041283 12120 net.cpp:406] lstm1_transform_9 <- h_conted_8
I0228 21:22:02.041288 12120 net.cpp:380] lstm1_transform_9 -> W_hc_h_8
I0228 21:22:02.041333 12120 net.cpp:122] Setting up lstm1_transform_9
I0228 21:22:02.041344 12120 net.cpp:129] Top shape: 1 13 64 (832)
I0228 21:22:02.041349 12120 net.cpp:137] Memory required for data: 203008
I0228 21:22:02.041395 12120 net.cpp:465] Sharing parameters 'W_hc' owned by layer 'lstm1_transform_1', param index 0
I0228 21:22:02.041399 12120 layer_factory.hpp:77] Creating layer lstm1_gate_input_9
I0228 21:22:02.041404 12120 net.cpp:84] Creating Layer lstm1_gate_input_9
I0228 21:22:02.041407 12120 net.cpp:406] lstm1_gate_input_9 <- W_hc_h_8
I0228 21:22:02.041410 12120 net.cpp:406] lstm1_gate_input_9 <- W_xc_x_9
I0228 21:22:02.041419 12120 net.cpp:380] lstm1_gate_input_9 -> gate_input_9
I0228 21:22:02.041450 12120 net.cpp:122] Setting up lstm1_gate_input_9
I0228 21:22:02.041471 12120 net.cpp:129] Top shape: 1 13 64 (832)
I0228 21:22:02.041474 12120 net.cpp:137] Memory required for data: 206336
I0228 21:22:02.041477 12120 layer_factory.hpp:77] Creating layer lstm1_unit_9
I0228 21:22:02.041491 12120 net.cpp:84] Creating Layer lstm1_unit_9
I0228 21:22:02.041496 12120 net.cpp:406] lstm1_unit_9 <- c_8
I0228 21:22:02.041499 12120 net.cpp:406] lstm1_unit_9 <- gate_input_9
I0228 21:22:02.041510 12120 net.cpp:406] lstm1_unit_9 <- cont_9_lstm1_cont_slice_8_split_1
I0228 21:22:02.041515 12120 net.cpp:380] lstm1_unit_9 -> c_9
I0228 21:22:02.041528 12120 net.cpp:380] lstm1_unit_9 -> h_9
I0228 21:22:02.041554 12120 net.cpp:122] Setting up lstm1_unit_9
I0228 21:22:02.041560 12120 net.cpp:129] Top shape: 1 13 16 (208)
I0228 21:22:02.041565 12120 net.cpp:129] Top shape: 1 13 16 (208)
I0228 21:22:02.041568 12120 net.cpp:137] Memory required for data: 208000
I0228 21:22:02.041571 12120 layer_factory.hpp:77] Creating layer h_9_lstm1_unit_9_1_split
I0228 21:22:02.041575 12120 net.cpp:84] Creating Layer h_9_lstm1_unit_9_1_split
I0228 21:22:02.041579 12120 net.cpp:406] h_9_lstm1_unit_9_1_split <- h_9
I0228 21:22:02.067828 12120 net.cpp:380] h_9_lstm1_unit_9_1_split -> h_9_lstm1_unit_9_1_split_0
I0228 21:22:02.067845 12120 net.cpp:380] h_9_lstm1_unit_9_1_split -> h_9_lstm1_unit_9_1_split_1
I0228 21:22:02.067893 12120 net.cpp:122] Setting up h_9_lstm1_unit_9_1_split
I0228 21:22:02.067906 12120 net.cpp:129] Top shape: 1 13 16 (208)
I0228 21:22:02.067911 12120 net.cpp:129] Top shape: 1 13 16 (208)
I0228 21:22:02.067915 12120 net.cpp:137] Memory required for data: 209664
I0228 21:22:02.067919 12120 layer_factory.hpp:77] Creating layer lstm1_h_conted_9
I0228 21:22:02.067927 12120 net.cpp:84] Creating Layer lstm1_h_conted_9
I0228 21:22:02.067950 12120 net.cpp:406] lstm1_h_conted_9 <- h_9_lstm1_unit_9_1_split_0
I0228 21:22:02.067956 12120 net.cpp:406] lstm1_h_conted_9 <- cont_10_lstm1_cont_slice_9_split_0
I0228 21:22:02.067961 12120 net.cpp:380] lstm1_h_conted_9 -> h_conted_9
I0228 21:22:02.068032 12120 net.cpp:122] Setting up lstm1_h_conted_9
I0228 21:22:02.068039 12120 net.cpp:129] Top shape: 1 13 16 (208)
I0228 21:22:02.068042 12120 net.cpp:137] Memory required for data: 210496
I0228 21:22:02.068045 12120 layer_factory.hpp:77] Creating layer lstm1_transform_10
I0228 21:22:02.068053 12120 net.cpp:84] Creating Layer lstm1_transform_10
I0228 21:22:02.068056 12120 net.cpp:406] lstm1_transform_10 <- h_conted_9
I0228 21:22:02.068061 12120 net.cpp:380] lstm1_transform_10 -> W_hc_h_9
I0228 21:22:02.068119 12120 net.cpp:122] Setting up lstm1_transform_10
I0228 21:22:02.068125 12120 net.cpp:129] Top shape: 1 13 64 (832)
I0228 21:22:02.068127 12120 net.cpp:137] Memory required for data: 213824
I0228 21:22:02.068131 12120 net.cpp:465] Sharing parameters 'W_hc' owned by layer 'lstm1_transform_1', param index 0
I0228 21:22:02.068135 12120 layer_factory.hpp:77] Creating layer lstm1_gate_input_10
I0228 21:22:02.068140 12120 net.cpp:84] Creating Layer lstm1_gate_input_10
I0228 21:22:02.068145 12120 net.cpp:406] lstm1_gate_input_10 <- W_hc_h_9
I0228 21:22:02.068147 12120 net.cpp:406] lstm1_gate_input_10 <- W_xc_x_10
I0228 21:22:02.068158 12120 net.cpp:380] lstm1_gate_input_10 -> gate_input_10
I0228 21:22:02.068176 12120 net.cpp:122] Setting up lstm1_gate_input_10
I0228 21:22:02.068181 12120 net.cpp:129] Top shape: 1 13 64 (832)
I0228 21:22:02.068183 12120 net.cpp:137] Memory required for data: 217152
I0228 21:22:02.068202 12120 layer_factory.hpp:77] Creating layer lstm1_unit_10
I0228 21:22:02.068207 12120 net.cpp:84] Creating Layer lstm1_unit_10
I0228 21:22:02.068212 12120 net.cpp:406] lstm1_unit_10 <- c_9
I0228 21:22:02.068215 12120 net.cpp:406] lstm1_unit_10 <- gate_input_10
I0228 21:22:02.068219 12120 net.cpp:406] lstm1_unit_10 <- cont_10_lstm1_cont_slice_9_split_1
I0228 21:22:02.068224 12120 net.cpp:380] lstm1_unit_10 -> c_10
I0228 21:22:02.068229 12120 net.cpp:380] lstm1_unit_10 -> h_10
I0228 21:22:02.068260 12120 net.cpp:122] Setting up lstm1_unit_10
I0228 21:22:02.068271 12120 net.cpp:129] Top shape: 1 13 16 (208)
I0228 21:22:02.068277 12120 net.cpp:129] Top shape: 1 13 16 (208)
I0228 21:22:02.068282 12120 net.cpp:137] Memory required for data: 218816
I0228 21:22:02.068287 12120 layer_factory.hpp:77] Creating layer h_10_lstm1_unit_10_1_split
I0228 21:22:02.068295 12120 net.cpp:84] Creating Layer h_10_lstm1_unit_10_1_split
I0228 21:22:02.068315 12120 net.cpp:406] h_10_lstm1_unit_10_1_split <- h_10
I0228 21:22:02.068320 12120 net.cpp:380] h_10_lstm1_unit_10_1_split -> h_10_lstm1_unit_10_1_split_0
I0228 21:22:02.068349 12120 net.cpp:380] h_10_lstm1_unit_10_1_split -> h_10_lstm1_unit_10_1_split_1
I0228 21:22:02.068372 12120 net.cpp:122] Setting up h_10_lstm1_unit_10_1_split
I0228 21:22:02.068377 12120 net.cpp:129] Top shape: 1 13 16 (208)
I0228 21:22:02.068382 12120 net.cpp:129] Top shape: 1 13 16 (208)
I0228 21:22:02.068384 12120 net.cpp:137] Memory required for data: 220480
I0228 21:22:02.068387 12120 layer_factory.hpp:77] Creating layer lstm1_h_conted_10
I0228 21:22:02.068392 12120 net.cpp:84] Creating Layer lstm1_h_conted_10
I0228 21:22:02.068395 12120 net.cpp:406] lstm1_h_conted_10 <- h_10_lstm1_unit_10_1_split_0
I0228 21:22:02.068399 12120 net.cpp:406] lstm1_h_conted_10 <- cont_11_lstm1_cont_slice_10_split_0
I0228 21:22:02.068405 12120 net.cpp:380] lstm1_h_conted_10 -> h_conted_10
I0228 21:22:02.068437 12120 net.cpp:122] Setting up lstm1_h_conted_10
I0228 21:22:02.068442 12120 net.cpp:129] Top shape: 1 13 16 (208)
I0228 21:22:02.068446 12120 net.cpp:137] Memory required for data: 221312
I0228 21:22:02.068449 12120 layer_factory.hpp:77] Creating layer lstm1_transform_11
I0228 21:22:02.068454 12120 net.cpp:84] Creating Layer lstm1_transform_11
I0228 21:22:02.068459 12120 net.cpp:406] lstm1_transform_11 <- h_conted_10
I0228 21:22:02.068462 12120 net.cpp:380] lstm1_transform_11 -> W_hc_h_10
I0228 21:22:02.068495 12120 net.cpp:122] Setting up lstm1_transform_11
I0228 21:22:02.068500 12120 net.cpp:129] Top shape: 1 13 64 (832)
I0228 21:22:02.068503 12120 net.cpp:137] Memory required for data: 224640
I0228 21:22:02.068507 12120 net.cpp:465] Sharing parameters 'W_hc' owned by layer 'lstm1_transform_1', param index 0
I0228 21:22:02.068511 12120 layer_factory.hpp:77] Creating layer lstm1_gate_input_11
I0228 21:22:02.068516 12120 net.cpp:84] Creating Layer lstm1_gate_input_11
I0228 21:22:02.068518 12120 net.cpp:406] lstm1_gate_input_11 <- W_hc_h_10
I0228 21:22:02.068522 12120 net.cpp:406] lstm1_gate_input_11 <- W_xc_x_11
I0228 21:22:02.068527 12120 net.cpp:380] lstm1_gate_input_11 -> gate_input_11
I0228 21:22:02.068542 12120 net.cpp:122] Setting up lstm1_gate_input_11
I0228 21:22:02.068548 12120 net.cpp:129] Top shape: 1 13 64 (832)
I0228 21:22:02.068552 12120 net.cpp:137] Memory required for data: 227968
I0228 21:22:02.068554 12120 layer_factory.hpp:77] Creating layer lstm1_unit_11
I0228 21:22:02.068560 12120 net.cpp:84] Creating Layer lstm1_unit_11
I0228 21:22:02.068564 12120 net.cpp:406] lstm1_unit_11 <- c_10
I0228 21:22:02.068568 12120 net.cpp:406] lstm1_unit_11 <- gate_input_11
I0228 21:22:02.068572 12120 net.cpp:406] lstm1_unit_11 <- cont_11_lstm1_cont_slice_10_split_1
I0228 21:22:02.068576 12120 net.cpp:380] lstm1_unit_11 -> c_11
I0228 21:22:02.068581 12120 net.cpp:380] lstm1_unit_11 -> h_11
I0228 21:22:02.068605 12120 net.cpp:122] Setting up lstm1_unit_11
I0228 21:22:02.068610 12120 net.cpp:129] Top shape: 1 13 16 (208)
I0228 21:22:02.068614 12120 net.cpp:129] Top shape: 1 13 16 (208)
I0228 21:22:02.068617 12120 net.cpp:137] Memory required for data: 229632
I0228 21:22:02.068620 12120 layer_factory.hpp:77] Creating layer h_11_lstm1_unit_11_1_split
I0228 21:22:02.068625 12120 net.cpp:84] Creating Layer h_11_lstm1_unit_11_1_split
I0228 21:22:02.068629 12120 net.cpp:406] h_11_lstm1_unit_11_1_split <- h_11
I0228 21:22:02.068634 12120 net.cpp:380] h_11_lstm1_unit_11_1_split -> h_11_lstm1_unit_11_1_split_0
I0228 21:22:02.068639 12120 net.cpp:380] h_11_lstm1_unit_11_1_split -> h_11_lstm1_unit_11_1_split_1
I0228 21:22:02.068657 12120 net.cpp:122] Setting up h_11_lstm1_unit_11_1_split
I0228 21:22:02.068662 12120 net.cpp:129] Top shape: 1 13 16 (208)
I0228 21:22:02.068666 12120 net.cpp:129] Top shape: 1 13 16 (208)
I0228 21:22:02.068670 12120 net.cpp:137] Memory required for data: 231296
I0228 21:22:02.068672 12120 layer_factory.hpp:77] Creating layer lstm1_h_conted_11
I0228 21:22:02.068676 12120 net.cpp:84] Creating Layer lstm1_h_conted_11
I0228 21:22:02.068680 12120 net.cpp:406] lstm1_h_conted_11 <- h_11_lstm1_unit_11_1_split_0
I0228 21:22:02.068689 12120 net.cpp:406] lstm1_h_conted_11 <- cont_12_lstm1_cont_slice_11_split_0
I0228 21:22:02.068693 12120 net.cpp:380] lstm1_h_conted_11 -> h_conted_11
I0228 21:22:02.068730 12120 net.cpp:122] Setting up lstm1_h_conted_11
I0228 21:22:02.068737 12120 net.cpp:129] Top shape: 1 13 16 (208)
I0228 21:22:02.068739 12120 net.cpp:137] Memory required for data: 232128
I0228 21:22:02.068743 12120 layer_factory.hpp:77] Creating layer lstm1_transform_12
I0228 21:22:02.070879 12120 net.cpp:84] Creating Layer lstm1_transform_12
I0228 21:22:02.070889 12120 net.cpp:406] lstm1_transform_12 <- h_conted_11
I0228 21:22:02.070896 12120 net.cpp:380] lstm1_transform_12 -> W_hc_h_11
I0228 21:22:02.070945 12120 net.cpp:122] Setting up lstm1_transform_12
I0228 21:22:02.070953 12120 net.cpp:129] Top shape: 1 13 64 (832)
I0228 21:22:02.070956 12120 net.cpp:137] Memory required for data: 235456
I0228 21:22:02.070960 12120 net.cpp:465] Sharing parameters 'W_hc' owned by layer 'lstm1_transform_1', param index 0
I0228 21:22:02.070963 12120 layer_factory.hpp:77] Creating layer lstm1_gate_input_12
I0228 21:22:02.070968 12120 net.cpp:84] Creating Layer lstm1_gate_input_12
I0228 21:22:02.070972 12120 net.cpp:406] lstm1_gate_input_12 <- W_hc_h_11
I0228 21:22:02.070976 12120 net.cpp:406] lstm1_gate_input_12 <- W_xc_x_12
I0228 21:22:02.070981 12120 net.cpp:380] lstm1_gate_input_12 -> gate_input_12
I0228 21:22:02.070996 12120 net.cpp:122] Setting up lstm1_gate_input_12
I0228 21:22:02.071002 12120 net.cpp:129] Top shape: 1 13 64 (832)
I0228 21:22:02.071004 12120 net.cpp:137] Memory required for data: 238784
I0228 21:22:02.071007 12120 layer_factory.hpp:77] Creating layer lstm1_unit_12
I0228 21:22:02.071013 12120 net.cpp:84] Creating Layer lstm1_unit_12
I0228 21:22:02.071017 12120 net.cpp:406] lstm1_unit_12 <- c_11
I0228 21:22:02.071022 12120 net.cpp:406] lstm1_unit_12 <- gate_input_12
I0228 21:22:02.071024 12120 net.cpp:406] lstm1_unit_12 <- cont_12_lstm1_cont_slice_11_split_1
I0228 21:22:02.071029 12120 net.cpp:380] lstm1_unit_12 -> c_12
I0228 21:22:02.071034 12120 net.cpp:380] lstm1_unit_12 -> h_12
I0228 21:22:02.071058 12120 net.cpp:122] Setting up lstm1_unit_12
I0228 21:22:02.071063 12120 net.cpp:129] Top shape: 1 13 16 (208)
I0228 21:22:02.071069 12120 net.cpp:129] Top shape: 1 13 16 (208)
I0228 21:22:02.071070 12120 net.cpp:137] Memory required for data: 240448
I0228 21:22:02.071074 12120 layer_factory.hpp:77] Creating layer h_12_lstm1_unit_12_1_split
I0228 21:22:02.071079 12120 net.cpp:84] Creating Layer h_12_lstm1_unit_12_1_split
I0228 21:22:02.071081 12120 net.cpp:406] h_12_lstm1_unit_12_1_split <- h_12
I0228 21:22:02.071086 12120 net.cpp:380] h_12_lstm1_unit_12_1_split -> h_12_lstm1_unit_12_1_split_0
I0228 21:22:02.071091 12120 net.cpp:380] h_12_lstm1_unit_12_1_split -> h_12_lstm1_unit_12_1_split_1
I0228 21:22:02.071110 12120 net.cpp:122] Setting up h_12_lstm1_unit_12_1_split
I0228 21:22:02.071115 12120 net.cpp:129] Top shape: 1 13 16 (208)
I0228 21:22:02.071118 12120 net.cpp:129] Top shape: 1 13 16 (208)
I0228 21:22:02.071121 12120 net.cpp:137] Memory required for data: 242112
I0228 21:22:02.071125 12120 layer_factory.hpp:77] Creating layer lstm1_h_conted_12
I0228 21:22:02.071128 12120 net.cpp:84] Creating Layer lstm1_h_conted_12
I0228 21:22:02.071132 12120 net.cpp:406] lstm1_h_conted_12 <- h_12_lstm1_unit_12_1_split_0
I0228 21:22:02.071136 12120 net.cpp:406] lstm1_h_conted_12 <- cont_13_lstm1_cont_slice_12_split_0
I0228 21:22:02.071142 12120 net.cpp:380] lstm1_h_conted_12 -> h_conted_12
I0228 21:22:02.071190 12120 net.cpp:122] Setting up lstm1_h_conted_12
I0228 21:22:02.071197 12120 net.cpp:129] Top shape: 1 13 16 (208)
I0228 21:22:02.071199 12120 net.cpp:137] Memory required for data: 242944
I0228 21:22:02.071202 12120 layer_factory.hpp:77] Creating layer lstm1_transform_13
I0228 21:22:02.071207 12120 net.cpp:84] Creating Layer lstm1_transform_13
I0228 21:22:02.071210 12120 net.cpp:406] lstm1_transform_13 <- h_conted_12
I0228 21:22:02.071216 12120 net.cpp:380] lstm1_transform_13 -> W_hc_h_12
I0228 21:22:02.071266 12120 net.cpp:122] Setting up lstm1_transform_13
I0228 21:22:02.071287 12120 net.cpp:129] Top shape: 1 13 64 (832)
I0228 21:22:02.071295 12120 net.cpp:137] Memory required for data: 246272
I0228 21:22:02.071300 12120 net.cpp:465] Sharing parameters 'W_hc' owned by layer 'lstm1_transform_1', param index 0
I0228 21:22:02.071305 12120 layer_factory.hpp:77] Creating layer lstm1_gate_input_13
I0228 21:22:02.071315 12120 net.cpp:84] Creating Layer lstm1_gate_input_13
I0228 21:22:02.071318 12120 net.cpp:406] lstm1_gate_input_13 <- W_hc_h_12
I0228 21:22:02.071322 12120 net.cpp:406] lstm1_gate_input_13 <- W_xc_x_13
I0228 21:22:02.071327 12120 net.cpp:380] lstm1_gate_input_13 -> gate_input_13
I0228 21:22:02.071343 12120 net.cpp:122] Setting up lstm1_gate_input_13
I0228 21:22:02.071349 12120 net.cpp:129] Top shape: 1 13 64 (832)
I0228 21:22:02.071352 12120 net.cpp:137] Memory required for data: 249600
I0228 21:22:02.071355 12120 layer_factory.hpp:77] Creating layer lstm1_unit_13
I0228 21:22:02.071360 12120 net.cpp:84] Creating Layer lstm1_unit_13
I0228 21:22:02.071363 12120 net.cpp:406] lstm1_unit_13 <- c_12
I0228 21:22:02.071368 12120 net.cpp:406] lstm1_unit_13 <- gate_input_13
I0228 21:22:02.071372 12120 net.cpp:406] lstm1_unit_13 <- cont_13_lstm1_cont_slice_12_split_1
I0228 21:22:02.071377 12120 net.cpp:380] lstm1_unit_13 -> c_13
I0228 21:22:02.071382 12120 net.cpp:380] lstm1_unit_13 -> h_13
I0228 21:22:02.071408 12120 net.cpp:122] Setting up lstm1_unit_13
I0228 21:22:02.071413 12120 net.cpp:129] Top shape: 1 13 16 (208)
I0228 21:22:02.071418 12120 net.cpp:129] Top shape: 1 13 16 (208)
I0228 21:22:02.071420 12120 net.cpp:137] Memory required for data: 251264
I0228 21:22:02.071424 12120 layer_factory.hpp:77] Creating layer h_13_lstm1_unit_13_1_split
I0228 21:22:02.071429 12120 net.cpp:84] Creating Layer h_13_lstm1_unit_13_1_split
I0228 21:22:02.071431 12120 net.cpp:406] h_13_lstm1_unit_13_1_split <- h_13
I0228 21:22:02.071435 12120 net.cpp:380] h_13_lstm1_unit_13_1_split -> h_13_lstm1_unit_13_1_split_0
I0228 21:22:02.071441 12120 net.cpp:380] h_13_lstm1_unit_13_1_split -> h_13_lstm1_unit_13_1_split_1
I0228 21:22:02.071460 12120 net.cpp:122] Setting up h_13_lstm1_unit_13_1_split
I0228 21:22:02.071465 12120 net.cpp:129] Top shape: 1 13 16 (208)
I0228 21:22:02.071468 12120 net.cpp:129] Top shape: 1 13 16 (208)
I0228 21:22:02.071471 12120 net.cpp:137] Memory required for data: 252928
I0228 21:22:02.071475 12120 layer_factory.hpp:77] Creating layer lstm1_h_conted_13
I0228 21:22:02.071480 12120 net.cpp:84] Creating Layer lstm1_h_conted_13
I0228 21:22:02.071483 12120 net.cpp:406] lstm1_h_conted_13 <- h_13_lstm1_unit_13_1_split_0
I0228 21:22:02.071487 12120 net.cpp:406] lstm1_h_conted_13 <- cont_14_lstm1_cont_slice_13_split_0
I0228 21:22:02.071492 12120 net.cpp:380] lstm1_h_conted_13 -> h_conted_13
I0228 21:22:02.071524 12120 net.cpp:122] Setting up lstm1_h_conted_13
I0228 21:22:02.071529 12120 net.cpp:129] Top shape: 1 13 16 (208)
I0228 21:22:02.071532 12120 net.cpp:137] Memory required for data: 253760
I0228 21:22:02.071535 12120 layer_factory.hpp:77] Creating layer lstm1_transform_14
I0228 21:22:02.071542 12120 net.cpp:84] Creating Layer lstm1_transform_14
I0228 21:22:02.071545 12120 net.cpp:406] lstm1_transform_14 <- h_conted_13
I0228 21:22:02.071549 12120 net.cpp:380] lstm1_transform_14 -> W_hc_h_13
I0228 21:22:02.071581 12120 net.cpp:122] Setting up lstm1_transform_14
I0228 21:22:02.071588 12120 net.cpp:129] Top shape: 1 13 64 (832)
I0228 21:22:02.071590 12120 net.cpp:137] Memory required for data: 257088
I0228 21:22:02.071593 12120 net.cpp:465] Sharing parameters 'W_hc' owned by layer 'lstm1_transform_1', param index 0
I0228 21:22:02.071596 12120 layer_factory.hpp:77] Creating layer lstm1_gate_input_14
I0228 21:22:02.071601 12120 net.cpp:84] Creating Layer lstm1_gate_input_14
I0228 21:22:02.071604 12120 net.cpp:406] lstm1_gate_input_14 <- W_hc_h_13
I0228 21:22:02.071609 12120 net.cpp:406] lstm1_gate_input_14 <- W_xc_x_14
I0228 21:22:02.071614 12120 net.cpp:380] lstm1_gate_input_14 -> gate_input_14
I0228 21:22:02.071627 12120 net.cpp:122] Setting up lstm1_gate_input_14
I0228 21:22:02.071637 12120 net.cpp:129] Top shape: 1 13 64 (832)
I0228 21:22:02.071640 12120 net.cpp:137] Memory required for data: 260416
I0228 21:22:02.071643 12120 layer_factory.hpp:77] Creating layer lstm1_unit_14
I0228 21:22:02.098022 12120 net.cpp:84] Creating Layer lstm1_unit_14
I0228 21:22:02.098042 12120 net.cpp:406] lstm1_unit_14 <- c_13
I0228 21:22:02.098052 12120 net.cpp:406] lstm1_unit_14 <- gate_input_14
I0228 21:22:02.098058 12120 net.cpp:406] lstm1_unit_14 <- cont_14_lstm1_cont_slice_13_split_1
I0228 21:22:02.098064 12120 net.cpp:380] lstm1_unit_14 -> c_14
I0228 21:22:02.098075 12120 net.cpp:380] lstm1_unit_14 -> h_14
I0228 21:22:02.098136 12120 net.cpp:122] Setting up lstm1_unit_14
I0228 21:22:02.098148 12120 net.cpp:129] Top shape: 1 13 16 (208)
I0228 21:22:02.098151 12120 net.cpp:129] Top shape: 1 13 16 (208)
I0228 21:22:02.098155 12120 net.cpp:137] Memory required for data: 262080
I0228 21:22:02.098157 12120 layer_factory.hpp:77] Creating layer h_14_lstm1_unit_14_1_split
I0228 21:22:02.098161 12120 net.cpp:84] Creating Layer h_14_lstm1_unit_14_1_split
I0228 21:22:02.098165 12120 net.cpp:406] h_14_lstm1_unit_14_1_split <- h_14
I0228 21:22:02.098168 12120 net.cpp:380] h_14_lstm1_unit_14_1_split -> h_14_lstm1_unit_14_1_split_0
I0228 21:22:02.098173 12120 net.cpp:380] h_14_lstm1_unit_14_1_split -> h_14_lstm1_unit_14_1_split_1
I0228 21:22:02.098193 12120 net.cpp:122] Setting up h_14_lstm1_unit_14_1_split
I0228 21:22:02.098197 12120 net.cpp:129] Top shape: 1 13 16 (208)
I0228 21:22:02.098201 12120 net.cpp:129] Top shape: 1 13 16 (208)
I0228 21:22:02.098203 12120 net.cpp:137] Memory required for data: 263744
I0228 21:22:02.098206 12120 layer_factory.hpp:77] Creating layer lstm1_h_conted_14
I0228 21:22:02.098211 12120 net.cpp:84] Creating Layer lstm1_h_conted_14
I0228 21:22:02.098228 12120 net.cpp:406] lstm1_h_conted_14 <- h_14_lstm1_unit_14_1_split_0
I0228 21:22:02.098232 12120 net.cpp:406] lstm1_h_conted_14 <- cont_15_lstm1_cont_slice_14_split_0
I0228 21:22:02.098237 12120 net.cpp:380] lstm1_h_conted_14 -> h_conted_14
I0228 21:22:02.098273 12120 net.cpp:122] Setting up lstm1_h_conted_14
I0228 21:22:02.098278 12120 net.cpp:129] Top shape: 1 13 16 (208)
I0228 21:22:02.098280 12120 net.cpp:137] Memory required for data: 264576
I0228 21:22:02.098282 12120 layer_factory.hpp:77] Creating layer lstm1_transform_15
I0228 21:22:02.098289 12120 net.cpp:84] Creating Layer lstm1_transform_15
I0228 21:22:02.098291 12120 net.cpp:406] lstm1_transform_15 <- h_conted_14
I0228 21:22:02.098296 12120 net.cpp:380] lstm1_transform_15 -> W_hc_h_14
I0228 21:22:02.098335 12120 net.cpp:122] Setting up lstm1_transform_15
I0228 21:22:02.098340 12120 net.cpp:129] Top shape: 1 13 64 (832)
I0228 21:22:02.098342 12120 net.cpp:137] Memory required for data: 267904
I0228 21:22:02.098352 12120 net.cpp:465] Sharing parameters 'W_hc' owned by layer 'lstm1_transform_1', param index 0
I0228 21:22:02.098356 12120 layer_factory.hpp:77] Creating layer lstm1_gate_input_15
I0228 21:22:02.098361 12120 net.cpp:84] Creating Layer lstm1_gate_input_15
I0228 21:22:02.098363 12120 net.cpp:406] lstm1_gate_input_15 <- W_hc_h_14
I0228 21:22:02.098366 12120 net.cpp:406] lstm1_gate_input_15 <- W_xc_x_15
I0228 21:22:02.098371 12120 net.cpp:380] lstm1_gate_input_15 -> gate_input_15
I0228 21:22:02.098387 12120 net.cpp:122] Setting up lstm1_gate_input_15
I0228 21:22:02.098392 12120 net.cpp:129] Top shape: 1 13 64 (832)
I0228 21:22:02.098394 12120 net.cpp:137] Memory required for data: 271232
I0228 21:22:02.098397 12120 layer_factory.hpp:77] Creating layer lstm1_unit_15
I0228 21:22:02.098400 12120 net.cpp:84] Creating Layer lstm1_unit_15
I0228 21:22:02.098403 12120 net.cpp:406] lstm1_unit_15 <- c_14
I0228 21:22:02.098407 12120 net.cpp:406] lstm1_unit_15 <- gate_input_15
I0228 21:22:02.098410 12120 net.cpp:406] lstm1_unit_15 <- cont_15_lstm1_cont_slice_14_split_1
I0228 21:22:02.098413 12120 net.cpp:380] lstm1_unit_15 -> c_15
I0228 21:22:02.098474 12120 net.cpp:380] lstm1_unit_15 -> h_15
I0228 21:22:02.098533 12120 net.cpp:122] Setting up lstm1_unit_15
I0228 21:22:02.098552 12120 net.cpp:129] Top shape: 1 13 16 (208)
I0228 21:22:02.098558 12120 net.cpp:129] Top shape: 1 13 16 (208)
I0228 21:22:02.098562 12120 net.cpp:137] Memory required for data: 272896
I0228 21:22:02.098567 12120 layer_factory.hpp:77] Creating layer h_15_lstm1_unit_15_1_split
I0228 21:22:02.098572 12120 net.cpp:84] Creating Layer h_15_lstm1_unit_15_1_split
I0228 21:22:02.098577 12120 net.cpp:406] h_15_lstm1_unit_15_1_split <- h_15
I0228 21:22:02.098582 12120 net.cpp:380] h_15_lstm1_unit_15_1_split -> h_15_lstm1_unit_15_1_split_0
I0228 21:22:02.098588 12120 net.cpp:380] h_15_lstm1_unit_15_1_split -> h_15_lstm1_unit_15_1_split_1
I0228 21:22:02.098610 12120 net.cpp:122] Setting up h_15_lstm1_unit_15_1_split
I0228 21:22:02.098616 12120 net.cpp:129] Top shape: 1 13 16 (208)
I0228 21:22:02.098621 12120 net.cpp:129] Top shape: 1 13 16 (208)
I0228 21:22:02.098625 12120 net.cpp:137] Memory required for data: 274560
I0228 21:22:02.098628 12120 layer_factory.hpp:77] Creating layer lstm1_h_conted_15
I0228 21:22:02.098634 12120 net.cpp:84] Creating Layer lstm1_h_conted_15
I0228 21:22:02.098639 12120 net.cpp:406] lstm1_h_conted_15 <- h_15_lstm1_unit_15_1_split_0
I0228 21:22:02.098644 12120 net.cpp:406] lstm1_h_conted_15 <- cont_16_lstm1_cont_slice_15_split_0
I0228 21:22:02.098651 12120 net.cpp:380] lstm1_h_conted_15 -> h_conted_15
I0228 21:22:02.098703 12120 net.cpp:122] Setting up lstm1_h_conted_15
I0228 21:22:02.098711 12120 net.cpp:129] Top shape: 1 13 16 (208)
I0228 21:22:02.098714 12120 net.cpp:137] Memory required for data: 275392
I0228 21:22:02.098717 12120 layer_factory.hpp:77] Creating layer lstm1_transform_16
I0228 21:22:02.098723 12120 net.cpp:84] Creating Layer lstm1_transform_16
I0228 21:22:02.098728 12120 net.cpp:406] lstm1_transform_16 <- h_conted_15
I0228 21:22:02.098736 12120 net.cpp:380] lstm1_transform_16 -> W_hc_h_15
I0228 21:22:02.098773 12120 net.cpp:122] Setting up lstm1_transform_16
I0228 21:22:02.098780 12120 net.cpp:129] Top shape: 1 13 64 (832)
I0228 21:22:02.098784 12120 net.cpp:137] Memory required for data: 278720
I0228 21:22:02.098789 12120 net.cpp:465] Sharing parameters 'W_hc' owned by layer 'lstm1_transform_1', param index 0
I0228 21:22:02.098793 12120 layer_factory.hpp:77] Creating layer lstm1_gate_input_16
I0228 21:22:02.098799 12120 net.cpp:84] Creating Layer lstm1_gate_input_16
I0228 21:22:02.098803 12120 net.cpp:406] lstm1_gate_input_16 <- W_hc_h_15
I0228 21:22:02.098809 12120 net.cpp:406] lstm1_gate_input_16 <- W_xc_x_16
I0228 21:22:02.098814 12120 net.cpp:380] lstm1_gate_input_16 -> gate_input_16
I0228 21:22:02.098834 12120 net.cpp:122] Setting up lstm1_gate_input_16
I0228 21:22:02.098841 12120 net.cpp:129] Top shape: 1 13 64 (832)
I0228 21:22:02.098845 12120 net.cpp:137] Memory required for data: 282048
I0228 21:22:02.098850 12120 layer_factory.hpp:77] Creating layer lstm1_unit_16
I0228 21:22:02.098855 12120 net.cpp:84] Creating Layer lstm1_unit_16
I0228 21:22:02.098860 12120 net.cpp:406] lstm1_unit_16 <- c_15
I0228 21:22:02.098865 12120 net.cpp:406] lstm1_unit_16 <- gate_input_16
I0228 21:22:02.098884 12120 net.cpp:406] lstm1_unit_16 <- cont_16_lstm1_cont_slice_15_split_1
I0228 21:22:02.098904 12120 net.cpp:380] lstm1_unit_16 -> c_16
I0228 21:22:02.098911 12120 net.cpp:380] lstm1_unit_16 -> h_16
I0228 21:22:02.098937 12120 net.cpp:122] Setting up lstm1_unit_16
I0228 21:22:02.098958 12120 net.cpp:129] Top shape: 1 13 16 (208)
I0228 21:22:02.098978 12120 net.cpp:129] Top shape: 1 13 16 (208)
I0228 21:22:02.098980 12120 net.cpp:137] Memory required for data: 283712
I0228 21:22:02.098984 12120 layer_factory.hpp:77] Creating layer lstm1_
I0228 21:22:02.098990 12120 net.cpp:84] Creating Layer lstm1_
I0228 21:22:02.098994 12120 net.cpp:406] lstm1_ <- c_16
I0228 21:22:02.099000 12120 net.cpp:380] lstm1_ -> c_T
I0228 21:22:02.099014 12120 net.cpp:122] Setting up lstm1_
I0228 21:22:02.099020 12120 net.cpp:129] Top shape: 1 13 16 (208)
I0228 21:22:02.099037 12120 net.cpp:137] Memory required for data: 284544
I0228 21:22:02.099041 12120 layer_factory.hpp:77] Creating layer lstm1_h_concat
I0228 21:22:02.101706 12120 net.cpp:84] Creating Layer lstm1_h_concat
I0228 21:22:02.101716 12120 net.cpp:406] lstm1_h_concat <- h_1_lstm1_unit_1_1_split_1
I0228 21:22:02.101723 12120 net.cpp:406] lstm1_h_concat <- h_2_lstm1_unit_2_1_split_1
…
I0228 21:22:02.129024 12120 net.cpp:200] lstm1_ does not need backward computation.
I0228 21:22:02.129026 12120 net.cpp:242] This network produces output c_T
I0228 21:22:02.129034 12120 net.cpp:242] This network produces output h_pseudoloss
I0228 21:22:02.129200 12120 net.cpp:255] Network initialization done.
I0228 21:22:02.129326 12120 recurrent_layer.cpp:150] Adding parameter 0: W_xc
I0228 21:22:02.129330 12120 recurrent_layer.cpp:150] Adding parameter 1: b_c
I0228 21:22:02.129333 12120 recurrent_layer.cpp:150] Adding parameter 2: W_hc
I0228 21:22:02.129472 12120 net.cpp:122] Setting up lstm1
I0228 21:22:02.129484 12120 net.cpp:129] Top shape: 16 13 16 (3328)
I0228 21:22:02.129487 12120 net.cpp:137] Memory required for data: 17536
I0228 21:22:02.129511 12120 layer_factory.hpp:77] Creating layer lstm2
I0228 21:22:02.129519 12120 net.cpp:84] Creating Layer lstm2
I0228 21:22:02.129523 12120 net.cpp:406] lstm2 <- lstm1
I0228 21:22:02.129526 12120 net.cpp:406] lstm2 <- clip_Input_1_split_1
I0228 21:22:02.129531 12120 net.cpp:380] lstm2 -> lstm2
I0228 21:22:02.129536 12120 recurrent_layer.cpp:20] Initializing recurrent layer: assuming input batch contains 16 timesteps of 13 independent streams.
I0228 21:22:02.129889 12120 net.cpp:51] Initializing net from parameters: 
layer {
  name: "lstm2_"
  type: "Input"
  top: "x"
  top: "cont"
  input_param {
    shape {
      dim: 16
      dim: 13
      dim: 16
    }
    shape {
      dim: 16
      dim: 13
    }
  }
}
layer {
  name: "lstm2_"
  type: "Input"
  top: "c_0"
  top: "h_0"
  input_param {
    shape {
      dim: 1
      dim: 13
      dim: 16
    }
    shape {
      dim: 1
      dim: 13
      dim: 16
    }
  }
}
layer {
  name: "lstm2_cont_slice"
  type: "Slice"
  bottom: "cont"
  top: "cont_1"
  top: "cont_2"
  top: "cont_3"
  top: "cont_4"
  top: "cont_5"
  top: "cont_6"
  top: "cont_7"
  top: "cont_8"
  top: "cont_9"
  top: "cont_10"
  top: "cont_11"
  top: "cont_12"
  top: "cont_13"
  top: "cont_14"
  top: "cont_15"
  top: "cont_16"
  slice_param {
    axis: 0
  }
}
layer {
  name: "lstm2_x_transform"
  type: "InnerProduct"
  bottom: "x"
  top: "W_xc_x"
  param {
    name: "W_xc"
  }
  param {
    name: "b_c"
  }
  propagate_down: true
  inner_product_param {
    num_output: 64
    bias_term: true
    weight_filler {
      type: "xavier"
    }
    bias_filler {
      type: "constant"
    }
    axis: 2
  }
}
layer {
  name: "lstm2_W_xc_x_slice"
  type: "Slice"
  bottom: "W_xc_x"
  top: "W_xc_x_1"
  top: "W_xc_x_2"
  top: "W_xc_x_3"
  top: "W_xc_x_4"
  top: "W_xc_x_5"
  top: "W_xc_x_6"
  top: "W_xc_x_7"
  top: "W_xc_x_8"
  top: "W_xc_x_9"
  top: "W_xc_x_10"
  top: "W_xc_x_11"
  top: "W_xc_x_12"
  top: "W_xc_x_13"
  top: "W_xc_x_14"
  top: "W_xc_x_15"
  top: "W_xc_x_16"
  slice_param {
    axis: 0
  }
}
layer {
  name: "lstm2_h_conted_0"
  type: "Scale"
  bottom: "h_0"
  bottom: "cont_1"
  top: "h_conted_0"
  scale_param {
    axis: 0
  }
}
layer {
  name: "lstm2_transform_1"
  type: "InnerProduct"
  bottom: "h_conted_0"
  top: "W_hc_h_0"
  param {
    name: "W_hc"
  }
  inner_product_param {
    num_output: 64
    bias_term: false
    weight_filler {
      type: "xavier"
    }
    axis: 2
  }
}
layer {
  name: "lstm2_gate_input_1"
  type: "Eltwise"
  bottom: "W_hc_h_0"
  bottom: "W_xc_x_1"
  top: "gate_input_1"
  eltwise_param {
    operation: SUM
  }
}
layer {
  name: "lstm2_unit_1"
  type: "LSTMUnit"
  bottom: "c_0"
  bottom: "gate_input_1"
  bottom: "cont_1"
  top: "c_1"
  top: "h_1"
}
layer {
  name: "lstm2_h_conted_1"
  type: "Scale"
  bottom: "h_1"
  bottom: "cont_2"
  top: "h_conted_1"
  scale_param {
    axis: 0
  }
}
layer {
  name: "lstm2_transform_2"
  type: "InnerProduct"
  bottom: "h_conted_1"
  top: "W_hc_h_1"
  param {
    name: "W_hc"
  }
  inner_product_param {
    num_output: 64
    bias_term: false
    weight_filler {
      type: "xavier"
    }
    axis: 2
  }
}
layer {
  name: "lstm2_gate_input_2"
  type: "Eltwise"
  bottom: "W_hc_h_1"
  bottom: "W_xc_x_2"
  top: "gate_input_2"
  eltwise_param {
    operation: SUM
  }
}
layer {
  name: "lstm2_unit_2"
  type: "LSTMUnit"
  bottom: "c_1"
  bottom: "gate_input_2"
  bottom: "cont_2"
  top: "c_2"
  top: "h_2"
}
layer {
  name: "lstm2_h_conted_2"
  type: "Scale"
  bottom: "h_2"
  bottom: "cont_3"
  top: "h_conted_2"
  scale_param {
    axis: 0
  }
}
layer {
  name: "lstm2_transform_3"
  type: "InnerProduct"
  bottom: "h_conted_2"
  top: "W_hc_h_2"
  param {
    name: "W_hc"
  }
  inner_product_param {
    num_output: 64
    bias_term: false
    weight_filler {
      type: "xavier"
    }
    axis: 2
  }
}
layer {
  name: "lstm2_gate_input_3"
  type: "Eltwise"
  bottom: "W_hc_h_2"
  bottom: "W_xc_x_3"
  top: "gate_input_3"
  eltwise_param {
    operation: SUM
  }
}
layer {
  name: "lstm2_unit_3"
  type: "LSTMUnit"
  bottom: "c_2"
  bottom: "gate_input_3"
  bottom: "cont_3"
  top: "c_3"
  top: "h_3"
}
layer {
  name: "lstm2_h_conted_3"
  type: "Scale"
  bottom: "h_3"
  bottom: "cont_4"
  top: "h_conted_3"
  scale_param {
    axis: 0
  }
}
layer {
  name: "lstm2_transform_4"
  type: "InnerProduct"
  bottom: "h_conted_3"
  top: "W_hc_h_3"
  param {
    name: "W_hc"
  }
  inner_product_param {
    num_output: 64
    bias_term: false
    weight_filler {
      type: "xavier"
    }
    axis: 2
  }
}
layer {
  name: "lstm2_gate_input_4"
  type: "Eltwise"
  bottom: "W_hc_h_3"
  bottom: "W_xc_x_4"
  top: "gate_input_4"
  eltwise_param {
    operation: SUM
  }
}
layer {
  name: "lstm2_unit_4"
  type: "LSTMUnit"
  bottom: "c_3"
  bottom: "gate_input_4"
  bottom: "cont_4"
  top: "c_4"
  top: "h_4"
}
layer {
  name: "lstm2_h_conted_4"
  type: "Scale"
  bottom: "h_4"
  bottom: "cont_5"
  top: "h_conted_4"
  scale_param {
    axis: 0
  }
}
layer {
  name: "lstm2_transform_5"
  type: "InnerProduct"
  bottom: "h_conted_4"
  top: "W_hc_h_4"
  param {
    name: "W_hc"
  }
  inner_product_param {
    num_output: 64
    bias_term: false
    weight_filler {
      type: "xavier"
    }
    axis: 2
  }
}
layer {
  name: "lstm2_gate_input_5"
  type: "Eltwise"
  bottom: "W_hc_h_4"
  bottom: "W_xc_x_5"
  top: "gate_input_5"
  eltwise_param {
    operation: SUM
  }
}
layer {
  name: "lstm2_unit_5"
  type: "LSTMUnit"
  bottom: "c_4"
  bottom: "gate_input_5"
  bottom: "cont_5"
  top: "c_5"
  top: "h_5"
}
layer {
  name: "lstm2_h_conted_5"
  type: "Scale"
  bottom: "h_5"
  bottom: "cont_6"
  top: "h_conted_5"
  scale_param {
    axis: 0
  }
}
layer {
  name: "lstm2_transform_6"
  type: "InnerProduct"
  bottom: "h_conted_5"
  top: "W_hc_h_5"
  param {
    name: "W_hc"
  }
  inner_product_param {
    num_output: 64
    bias_term: false
    weight_filler {
      type: "xavier"
    }
    axis: 2
  }
}
layer {
  name: "lstm2_gate_input_6"
  type: "Eltwise"
  bottom: "W_hc_h_5"
  bottom: "W_xc_x_6"
  top: "gate_input_6"
  eltwise_param {
    operation: SUM
  }
}
layer {
  name: "lstm2_unit_6"
  type: "LSTMUnit"
  bottom: "c_5"
  bottom: "gate_input_6"
  bottom: "cont_6"
  top: "c_6"
  top: "h_6"
}
layer {
  name: "lstm2_h_conted_6"
  type: "Scale"
  bottom: "h_6"
  bottom: "cont_7"
  top: "h_conted_6"
  scale_param {
    axis: 0
  }
}
layer {
  name: "lstm2_transform_7"
  type: "InnerProduct"
  bottom: "h_conted_6"
  top: "W_hc_h_6"
  param {
    name: "W_hc"
  }
  inner_product_param {
    num_output: 64
    bias_term: false
    weight_filler {
      type: "xavier"
    }
    axis: 2
  }
}
layer {
  name: "lstm2_gate_input_7"
  type: "Eltwise"
  bottom: "W_hc_h_6"
  bottom: "W_xc_x_7"
  top: "gate_input_7"
  eltwise_param {
    operation: SUM
  }
}
layer {
  name: "lstm2_unit_7"
  type: "LSTMUnit"
  bottom: "c_6"
  bottom: "gate_input_7"
  bottom: "cont_7"
  top: "c_7"
  top: "h_7"
}
layer {
  name: "lstm2_h_conted_7"
  type: "Scale"
  bottom: "h_7"
  bottom: "cont_8"
  top: "h_conted_7"
  scale_param {
    axis: 0
  }
}
layer {
  name: "lstm2_transform_8"
  type: "InnerProduct"
  bottom: "h_conted_7"
  top: "W_hc_h_7"
  param {
    name: "W_hc"
  }
  inner_product_param {
    num_output: 64
    bias_term: false
    weight_filler {
      type: "xavier"
    }
    axis: 2
  }
}
layer {
  name: "lstm2_gate_input_8"
  type: "Eltwise"
  bottom: "W_hc_h_7"
  bottom: "W_xc_x_8"
  top: "gate_input_8"
  eltwise_param {
    operation: SUM
  }
}
layer {
  name: "lstm2_unit_8"
  type: "LSTMUnit"
  bottom: "c_7"
  bottom: "gate_input_8"
  bottom: "cont_8"
  top: "c_8"
  top: "h_8"
}
layer {
  name: "lstm2_h_conted_8"
  type: "Scale"
  bottom: "h_8"
  bottom: "cont_9"
  top: "h_conted_8"
  scale_param {
    axis: 0
  }
}
layer {
  name: "lstm2_transform_9"
  type: "InnerProduct"
  bottom: "h_conted_8"
  top: "W_hc_h_8"
  param {
    name: "W_hc"
  }
  inner_product_param {
    num_output: 64
    bias_term: false
    weight_filler {
      type: "xavier"
    }
    axis: 2
  }
}
layer {
  name: "lstm2_gate_input_9"
  type: "Eltwise"
  bottom: "W_hc_h_8"
  bottom: "W_xc_x_9"
  top: "gate_input_9"
  eltwise_param {
    operation: SUM
  }
}
layer {
  name: "lstm2_unit_9"
  type: "LSTMUnit"
  bottom: "c_8"
  bottom: "gate_input_9"
  bottom: "cont_9"
  top: "c_9"
  top: "h_9"
}
layer {
  name: "lstm2_h_conted_9"
  type: "Scale"
  bottom: "h_9"
  bottom: "cont_10"
  top: "h_conted_9"
  scale_param {
    axis: 0
  }
}
layer {
  name: "lstm2_transform_10"
  type: "InnerProduct"
  bottom: "h_conted_9"
  top: "W_hc_h_9"
  param {
    name: "W_hc"
  }
  inner_product_param {
    num_output: 64
    bias_term: false
    weight_filler {
      type: "xavier"
    }
    axis: 2
  }
}
layer {
  name: "lstm2_gate_input_10"
  type: "Eltwise"
  bottom: "W_hc_h_9"
  bottom: "W_xc_x_10"
  top: "gate_input_10"
  eltwise_param {
    operation: SUM
  }
}
layer {
  name: "lstm2_unit_10"
  type: "LSTMUnit"
  bottom: "c_9"
  bottom: "gate_input_10"
  bottom: "cont_10"
  top: "c_10"
  top: "h_10"
}
layer {
  name: "lstm2_h_conted_10"
  type: "Scale"
  bottom: "h_10"
  bottom: "cont_11"
  top: "h_conted_10"
  scale_param {
    axis: 0
  }
}
layer {
  name: "lstm2_transform_11"
  type: "InnerProduct"
  bottom: "h_conted_10"
  top: "W_hc_h_10"
  param {
    name: "W_hc"
  }
  inner_product_param {
    num_output: 64
    bias_term: false
    weight_filler {
      type: "xavier"
    }
    axis: 2
  }
}
layer {
  name: "lstm2_gate_input_11"
  type: "Eltwise"
  bottom: "W_hc_h_10"
  bottom: "W_xc_x_11"
  top: "gate_input_11"
  eltwise_param {
    operation: SUM
  }
}
layer {
  name: "lstm2_unit_11"
  type: "LSTMUnit"
  bottom: "c_10"
  bottom: "gate_input_11"
  bottom: "cont_11"
  top: "c_11"
  top: "h_11"
}
layer {
  name: "lstm2_h_conted_11"
  type: "Scale"
  bottom: "h_11"
  bottom: "cont_12"
  top: "h_conted_11"
  scale_param {
    axis: 0
  }
}
layer {
  name: "lstm2_transform_12"
  type: "InnerProduct"
  bottom: "h_conted_11"
  top: "W_hc_h_11"
  param {
    name: "W_hc"
  }
  inner_product_param {
    num_output: 64
    bias_term: false
    weight_filler {
      type: "xavier"
    }
    axis: 2
  }
}
layer {
  name: "lstm2_gate_input_12"
  type: "Eltwise"
  bottom: "W_hc_h_11"
  bottom: "W_xc_x_12"
  top: "gate_input_12"
  eltwise_param {
    operation: SUM
  }
}
layer {
  name: "lstm2_unit_12"
  type: "LSTMUnit"
  bottom: "c_11"
  bottom: "gate_input_12"
  bottom: "cont_12"
  top: "c_12"
  top: "h_12"
}
layer {
  name: "lstm2_h_conted_12"
  type: "Scale"
  bottom: "h_12"
  bottom: "cont_13"
  top: "h_conted_12"
  scale_param {
    axis: 0
  }
}
layer {
  name: "lstm2_transform_13"
  type: "InnerProduct"
  bottom: "h_conted_12"
  top: "W_hc_h_12"
  param {
    name: "W_hc"
  }
  inner_product_param {
    num_output: 64
    bias_term: false
    weight_filler {
      type: "xavier"
    }
    axis: 2
  }
}
layer {
  name: "lstm2_gate_input_13"
  type: "Eltwise"
  bottom: "W_hc_h_12"
  bottom: "W_xc_x_13"
  top: "gate_input_13"
  eltwise_param {
    operation: SUM
  }
}
layer {
  name: "lstm2_unit_13"
  type: "LSTMUnit"
  bottom: "c_12"
  bottom: "gate_input_13"
  bottom: "cont_13"
  top: "c_13"
  top: "h_13"
}
layer {
  name: "lstm2_h_conted_13"
  type: "Scale"
  bottom: "h_13"
  bottom: "cont_14"
  top: "h_conted_13"
  scale_param {
    axis: 0
  }
}
layer {
  name: "lstm2_transform_14"
  type: "InnerProduct"
  bottom: "h_conted_13"
  top: "W_hc_h_13"
  param {
    name: "W_hc"
  }
  inner_product_param {
    num_output: 64
    bias_term: false
    weight_filler {
      type: "xavier"
    }
    axis: 2
  }
}
layer {
  name: "lstm2_gate_input_14"
  type: "Eltwise"
  bottom: "W_hc_h_13"
  bottom: "W_xc_x_14"
  top: "gate_input_14"
  eltwise_param {
    operation: SUM
  }
}
layer {
  name: "lstm2_unit_14"
  type: "LSTMUnit"
  bottom: "c_13"
  bottom: "gate_input_14"
  bottom: "cont_14"
  top: "c_14"
  top: "h_14"
}
layer {
  name: "lstm2_h_conted_14"
  type: "Scale"
  bottom: "h_14"
  bottom: "cont_15"
  top: "h_conted_14"
  scale_param {
    axis: 0
  }
}
layer {
  name: "lstm2_transform_15"
  type: "InnerProduct"
  bottom: "h_conted_14"
  top: "W_hc_h_14"
  param {
    name: "W_hc"
  }
  inner_product_param {
    num_output: 64
    bias_term: false
    weight_filler {
      type: "xavier"
    }
    axis: 2
  }
}
layer {
  name: "lstm2_gate_input_15"
  type: "Eltwise"
  bottom: "W_hc_h_14"
  bottom: "W_xc_x_15"
  top: "gate_input_15"
  eltwise_param {
    operation: SUM
  }
}
layer {
  name: "lstm2_unit_15"
  type: "LSTMUnit"
  bottom: "c_14"
  bottom: "gate_input_15"
  bottom: "cont_15"
  top: "c_15"
  top: "h_15"
}
layer {
  name: "lstm2_h_conted_15"
  type: "Scale"
  bottom: "h_15"
  bottom: "cont_16"
  top: "h_conted_15"
  scale_param {
    axis: 0
  }
}
layer {
  name: "lstm2_transform_16"
  type: "InnerProduct"
  bottom: "h_conted_15"
  top: "W_hc_h_15"
  param {
    name: "W_hc"
  }
  inner_product_param {
    num_output: 64
    bias_term: false
    weight_filler {
      type: "xavier"
    }
    axis: 2
  }
}
layer {
  name: "lstm2_gate_input_16"
  type: "Eltwise"
  bottom: "W_hc_h_15"
  bottom: "W_xc_x_16"
  top: "gate_input_16"
  eltwise_param {
    operation: SUM
  }
}
layer {
  name: "lstm2_unit_16"
  type: "LSTMUnit"
  bottom: "c_15"
  bottom: "gate_input_16"
  bottom: "cont_16"
  top: "c_16"
  top: "h_16"
}
layer {
  name: "lstm2_"
  type: "Split"
  bottom: "c_16"
  top: "c_T"
}
layer {
  name: "lstm2_h_concat"
  type: "Concat"
  bottom: "h_1"
  bottom: "h_2"
  bottom: "h_3"
  bottom: "h_4"
  bottom: "h_5"
  bottom: "h_6"
  bottom: "h_7"
  bottom: "h_8"
  bottom: "h_9"
  bottom: "h_10"
  bottom: "h_11"
  bottom: "h_12"
  bottom: "h_13"
  bottom: "h_14"
  bottom: "h_15"
  bottom: "h_16"
  top: "h"
  concat_param {
    axis: 0
  }
}
layer {
  name: "h_pseudoloss"
  type: "Reduction"
  bottom: "h"
  top: "h_pseudoloss"
  loss_weight: 1
}
I0228 21:22:02.161181 12120 layer_factory.hpp:77] Creating layer lstm2_
I0228 21:22:02.161204 12120 net.cpp:84] Creating Layer lstm2_
I0228 21:22:02.161211 12120 net.cpp:380] lstm2_ -> x
I0228 21:22:02.161222 12120 net.cpp:380] lstm2_ -> cont
I0228 21:22:02.161298 12120 net.cpp:122] Setting up lstm2_
I0228 21:22:02.161314 12120 net.cpp:129] Top shape: 16 13 16 (3328)
I0228 21:22:02.161321 12120 net.cpp:129] Top shape: 16 13 (208)
I0228 21:22:02.161326 12120 net.cpp:137] Memory required for data: 14144
I0228 21:22:02.161332 12120 layer_factory.hpp:77] Creating layer lstm2_
I0228 21:22:02.161340 12120 net.cpp:84] Creating Layer lstm2_
I0228 21:22:02.161346 12120 net.cpp:380] lstm2_ -> c_0
I0228 21:22:02.161362 12120 net.cpp:380] lstm2_ -> h_0
I0228 21:22:02.161398 12120 net.cpp:122] Setting up lstm2_
I0228 21:22:02.161420 12120 net.cpp:129] Top shape: 1 13 16 (208)
I0228 21:22:02.161442 12120 net.cpp:129] Top shape: 1 13 16 (208)
I0228 21:22:02.161444 12120 net.cpp:137] Memory required for data: 15808
I0228 21:22:02.161449 12120 layer_factory.hpp:77] Creating layer lstm2_cont_slice
I0228 21:22:02.161458 12120 net.cpp:84] Creating Layer lstm2_cont_slice
I0228 21:22:02.161464 12120 net.cpp:406] lstm2_cont_slice <- cont
I0228 21:22:02.161473 12120 net.cpp:380] lstm2_cont_slice -> cont_1
I0228 21:22:02.161483 12120 net.cpp:380] lstm2_cont_slice -> cont_2
…
