…
  top: "data"
  data_param {
    source: "/home/leonida/ThesisCode/LSTM_on_Create2/NavDatabases/LAB-21-2-new-step-condition/states_db-2-21-15-4_lmdb"
    batch_size: 16
    backend: LMDB
  }
}
layer {
  name: "label"
  type: "Data"
  top: "labels"
  data_param {
    source: "/home/leonida/ThesisCode/LSTM_on_Create2/NavDatabases/LAB-21-2-new-step-condition/labels_db-2-21-15-4_twist-variant_lmdb"
    batch_size: 16
    backend: LMDB
  }
}
layer {
  name: "clip"
  type: "Input"
  top: "clip"
  input_param {
    shape {
      dim: 16
      dim: 26
    }
  }
}
layer {
  name: "lstm1"
  type: "LSTM"
  bottom: "data"
  bottom: "clip"
  top: "lstm1"
  recurrent_param {
    num_output: 24
    weight_filler {
      type: "xavier"
    }
    bias_filler {
      type: "constant"
    }
  }
}
layer {
  name: "bn1"
  type: "BatchNorm"
  bottom: "lstm1"
  top: "bn1"
  batch_norm_param {
    use_global_stats: false
  }
}
layer {
  name: "lstm2"
  type: "LSTM"
  bottom: "bn1"
  bottom: "clip"
  top: "lstm2"
  recurrent_param {
    num_output: 24
    weight_filler {
      type: "xavier"
    }
    bias_filler {
      type: "constant"
    }
  }
}
layer {
  name: "bn2"
  type: "BatchNorm"
  bottom: "lstm2"
  top: "bn2"
  batch_norm_param {
    use_global_stats: false
  }
}
layer {
  name: "lstm3"
  type: "LSTM"
  bottom: "bn2"
  bottom: "clip"
  top: "lstm3"
  recurrent_param {
    num_output: 24
    weight_filler {
      type: "xavier"
    }
    bias_filler {
      type: "constant"
    }
  }
}
layer {
  name: "bn3"
  type: "BatchNorm"
  bottom: "lstm3"
  top: "bn3"
  batch_norm_param {
    use_global_stats: false
  }
}
layer {
  name: "lstm4"
  type: "LSTM"
  bottom: "bn3"
  bottom: "clip"
  top: "lstm4"
  recurrent_param {
    num_output: 24
    weight_filler {
      type: "xavier"
    }
    bias_filler {
      type: "constant"
    }
  }
}
layer {
  name: "bn4"
  type: "BatchNorm"
  bottom: "lstm4"
  top: "bn4"
  batch_norm_param {
    use_global_stats: false
  }
}
layer {
  name: "lstm5"
  type: "LSTM"
  bottom: "bn4"
  bottom: "clip"
  top: "lstm5"
  recurrent_param {
    num_output: 24
    weight_filler {
      type: "xavier"
    }
    bias_filler {
      type: "constant"
    }
  }
}
layer {
  name: "bn5"
  type: "BatchNorm"
  bottom: "lstm5"
  top: "bn5"
  batch_norm_param {
    use_global_stats: false
  }
}
layer {
  name: "lstm6"
  type: "LSTM"
  bottom: "bn5"
  bottom: "clip"
  top: "lstm6"
  recurrent_param {
    num_output: 24
    weight_filler {
      type: "xavier"
    }
    bias_filler {
      type: "constant"
    }
  }
}
layer {
  name: "bn6"
  type: "BatchNorm"
  bottom: "lstm6"
  top: "bn6"
  batch_norm_param {
    use_global_stats: false
  }
}
layer {
  name: "lstm7"
  type: "LSTM"
  bottom: "bn6"
  bottom: "clip"
  top: "lstm7"
  recurrent_param {
    num_output: 24
    weight_filler {
      type: "xavier"
    }
    bias_filler {
      type: "constant"
    }
  }
}
layer {
  name: "bn7"
  type: "BatchNorm"
  bottom: "lstm7"
  top: "bn7"
  batch_norm_param {
    use_global_stats: false
  }
}
layer {
  name: "fc1"
  type: "InnerProduct"
  bottom: "lstm1"
  top: "fc1"
  inner_product_param {
    num_output: 24
    weight_filler {
      type: "gaussian"
      std: 0.1
    }
    bias_filler {
      type: "constant"
    }
  }
}
layer {
  name: "out"
  type: "InnerProduct"
  bottom: "fc1"
  top: "out"
  inner_product_param {
    num_output: 2
    weight_filler {
      type: "gaussian"
      std: 0.1
    }
    bias_filler {
      type: "constant"
    }
  }
}
layer {
  name: "out-concat"
  type: "Concat"
  bottom: "out"
  top: "out-concat"
  concat_param {
    axis: 1
  }
}
layer {
  name: "loss"
  type: "EuclideanLoss"
  bottom: "out-concat"
  bottom: "labels"
  top: "loss"
}
I0222 18:19:37.430626 26387 layer_factory.hpp:77] Creating layer data
I0222 18:19:37.430733 26387 db_lmdb.cpp:35] Opened lmdb /home/leonida/ThesisCode/LSTM_on_Create2/NavDatabases/LAB-21-2-new-step-condition/states_db-2-21-15-4_lmdb
I0222 18:19:37.430764 26387 net.cpp:84] Creating Layer data
I0222 18:19:37.430771 26387 net.cpp:380] data -> data
I0222 18:19:37.431391 26387 data_layer.cpp:45] output data size: 16,26,1,1
I0222 18:19:37.432375 26387 net.cpp:122] Setting up data
I0222 18:19:37.432420 26387 net.cpp:129] Top shape: 16 26 1 1 (416)
I0222 18:19:37.432423 26387 net.cpp:137] Memory required for data: 1664
I0222 18:19:37.432430 26387 layer_factory.hpp:77] Creating layer label
I0222 18:19:37.432471 26387 db_lmdb.cpp:35] Opened lmdb /home/leonida/ThesisCode/LSTM_on_Create2/NavDatabases/LAB-21-2-new-step-condition/labels_db-2-21-15-4_twist-variant_lmdb
I0222 18:19:37.432495 26387 net.cpp:84] Creating Layer label
I0222 18:19:37.432500 26387 net.cpp:380] label -> labels
I0222 18:19:37.432564 26387 data_layer.cpp:45] output data size: 16,2,1,1
I0222 18:19:37.432679 26387 net.cpp:122] Setting up label
I0222 18:19:37.432688 26387 net.cpp:129] Top shape: 16 2 1 1 (32)
I0222 18:19:37.432690 26387 net.cpp:137] Memory required for data: 1792
I0222 18:19:37.432693 26387 layer_factory.hpp:77] Creating layer clip
I0222 18:19:37.432718 26387 net.cpp:84] Creating Layer clip
I0222 18:19:37.432720 26387 net.cpp:380] clip -> clip
I0222 18:19:37.432740 26387 net.cpp:122] Setting up clip
I0222 18:19:37.432759 26387 net.cpp:129] Top shape: 16 26 (416)
I0222 18:19:37.432760 26387 net.cpp:137] Memory required for data: 3456
I0222 18:19:37.432763 26387 layer_factory.hpp:77] Creating layer clip_clip_0_split
I0222 18:19:37.432770 26387 net.cpp:84] Creating Layer clip_clip_0_split
I0222 18:19:37.432773 26387 net.cpp:406] clip_clip_0_split <- clip
I0222 18:19:37.432798 26387 net.cpp:380] clip_clip_0_split -> clip_clip_0_split_0
I0222 18:19:37.432803 26387 net.cpp:380] clip_clip_0_split -> clip_clip_0_split_1
I0222 18:19:37.432826 26387 net.cpp:380] clip_clip_0_split -> clip_clip_0_split_2
I0222 18:19:37.432831 26387 net.cpp:380] clip_clip_0_split -> clip_clip_0_split_3
I0222 18:19:37.432848 26387 net.cpp:380] clip_clip_0_split -> clip_clip_0_split_4
I0222 18:19:37.432852 26387 net.cpp:380] clip_clip_0_split -> clip_clip_0_split_5
I0222 18:19:37.432874 26387 net.cpp:380] clip_clip_0_split -> clip_clip_0_split_6
I0222 18:19:37.433118 26387 net.cpp:122] Setting up clip_clip_0_split
I0222 18:19:37.433140 26387 net.cpp:129] Top shape: 16 26 (416)
I0222 18:19:37.433143 26387 net.cpp:129] Top shape: 16 26 (416)
I0222 18:19:37.433146 26387 net.cpp:129] Top shape: 16 26 (416)
I0222 18:19:37.433149 26387 net.cpp:129] Top shape: 16 26 (416)
I0222 18:19:37.433152 26387 net.cpp:129] Top shape: 16 26 (416)
I0222 18:19:37.433156 26387 net.cpp:129] Top shape: 16 26 (416)
I0222 18:19:37.433157 26387 net.cpp:129] Top shape: 16 26 (416)
I0222 18:19:37.433161 26387 net.cpp:137] Memory required for data: 15104
I0222 18:19:37.433163 26387 layer_factory.hpp:77] Creating layer lstm1
I0222 18:19:37.433173 26387 net.cpp:84] Creating Layer lstm1
I0222 18:19:37.433177 26387 net.cpp:406] lstm1 <- data
I0222 18:19:37.433182 26387 net.cpp:406] lstm1 <- clip_clip_0_split_0
I0222 18:19:37.433193 26387 net.cpp:380] lstm1 -> lstm1
I0222 18:19:37.433202 26387 recurrent_layer.cpp:20] Initializing recurrent layer: assuming input batch contains 16 timesteps of 26 independent streams.
I0222 18:19:37.433580 26387 net.cpp:51] Initializing net from parameters: 
layer {
  name: "lstm1_"
  type: "Input"
  top: "x"
  top: "cont"
  input_param {
    shape {
      dim: 16
      dim: 26
      dim: 1
      dim: 1
    }
    shape {
      dim: 16
      dim: 26
    }
  }
}
layer {
  name: "lstm1_"
  type: "Input"
  top: "c_0"
  top: "h_0"
  input_param {
    shape {
      dim: 1
      dim: 26
      dim: 24
    }
    shape {
      dim: 1
      dim: 26
      dim: 24
    }
  }
}
layer {
  name: "lstm1_cont_slice"
  type: "Slice"
  bottom: "cont"
  top: "cont_1"
  top: "cont_2"
  top: "cont_3"
  top: "cont_4"
  top: "cont_5"
  top: "cont_6"
  top: "cont_7"
  top: "cont_8"
  top: "cont_9"
  top: "cont_10"
  top: "cont_11"
  top: "cont_12"
  top: "cont_13"
  top: "cont_14"
  top: "cont_15"
  top: "cont_16"
  slice_param {
    axis: 0
  }
}
layer {
  name: "lstm1_x_transform"
  type: "InnerProduct"
  bottom: "x"
  top: "W_xc_x"
  param {
    name: "W_xc"
  }
  param {
    name: "b_c"
  }
  propagate_down: true
  inner_product_param {
    num_output: 96
    bias_term: true
    weight_filler {
      type: "xavier"
    }
    bias_filler {
      type: "constant"
    }
    axis: 2
  }
}
layer {
  name: "lstm1_W_xc_x_slice"
  type: "Slice"
  bottom: "W_xc_x"
  top: "W_xc_x_1"
  top: "W_xc_x_2"
  top: "W_xc_x_3"
  top: "W_xc_x_4"
  top: "W_xc_x_5"
  top: "W_xc_x_6"
  top: "W_xc_x_7"
  top: "W_xc_x_8"
  top: "W_xc_x_9"
  top: "W_xc_x_10"
  top: "W_xc_x_11"
  top: "W_xc_x_12"
  top: "W_xc_x_13"
  top: "W_xc_x_14"
  top: "W_xc_x_15"
  top: "W_xc_x_16"
  slice_param {
    axis: 0
  }
}
layer {
  name: "lstm1_h_conted_0"
  type: "Scale"
  bottom: "h_0"
  bottom: "cont_1"
  top: "h_conted_0"
  scale_param {
    axis: 0
  }
}
layer {
  name: "lstm1_transform_1"
  type: "InnerProduct"
  bottom: "h_conted_0"
  top: "W_hc_h_0"
  param {
    name: "W_hc"
  }
  inner_product_param {
    num_output: 96
    bias_term: false
    weight_filler {
      type: "xavier"
    }
    axis: 2
  }
}
layer {
  name: "lstm1_gate_input_1"
  type: "Eltwise"
  bottom: "W_hc_h_0"
  bottom: "W_xc_x_1"
  top: "gate_input_1"
  eltwise_param {
    operation: SUM
  }
}
layer {
  name: "lstm1_unit_1"
  type: "LSTMUnit"
  bottom: "c_0"
  bottom: "gate_input_1"
  bottom: "cont_1"
  top: "c_1"
  top: "h_1"
}
layer {
  name: "lstm1_h_conted_1"
  type: "Scale"
  bottom: "h_1"
  bottom: "cont_2"
  top: "h_conted_1"
  scale_param {
    axis: 0
  }
}
layer {
  name: "lstm1_transform_2"
  type: "InnerProduct"
  bottom: "h_conted_1"
  top: "W_hc_h_1"
  param {
    name: "W_hc"
  }
  inner_product_param {
    num_output: 96
    bias_term: false
    weight_filler {
      type: "xavier"
    }
    axis: 2
  }
}
layer {
  name: "lstm1_gate_input_2"
  type: "Eltwise"
  bottom: "W_hc_h_1"
  bottom: "W_xc_x_2"
  top: "gate_input_2"
  eltwise_param {
    operation: SUM
  }
}
layer {
  name: "lstm1_unit_2"
  type: "LSTMUnit"
  bottom: "c_1"
  bottom: "gate_input_2"
  bottom: "cont_2"
  top: "c_2"
  top: "h_2"
}
layer {
  name: "lstm1_h_conted_2"
  type: "Scale"
  bottom: "h_2"
  bottom: "cont_3"
  top: "h_conted_2"
  scale_param {
    axis: 0
  }
}
layer {
  name: "lstm1_transform_3"
  type: "InnerProduct"
  bottom: "h_conted_2"
  top: "W_hc_h_2"
  param {
    name: "W_hc"
  }
  inner_product_param {
    num_output: 96
    bias_term: false
    weight_filler {
      type: "xavier"
    }
    axis: 2
  }
}
layer {
  name: "lstm1_gate_input_3"
  type: "Eltwise"
  bottom: "W_hc_h_2"
  bottom: "W_xc_x_3"
  top: "gate_input_3"
  eltwise_param {
    operation: SUM
  }
}
layer {
  name: "lstm1_unit_3"
  type: "LSTMUnit"
  bottom: "c_2"
  bottom: "gate_input_3"
  bottom: "cont_3"
  top: "c_3"
  top: "h_3"
}
layer {
  name: "lstm1_h_conted_3"
  type: "Scale"
  bottom: "h_3"
  bottom: "cont_4"
  top: "h_conted_3"
  scale_param {
    axis: 0
  }
}
layer {
  name: "lstm1_transform_4"
  type: "InnerProduct"
  bottom: "h_conted_3"
  top: "W_hc_h_3"
  param {
    name: "W_hc"
  }
  inner_product_param {
    num_output: 96
    bias_term: false
    weight_filler {
      type: "xavier"
    }
    axis: 2
  }
}
layer {
  name: "lstm1_gate_input_4"
  type: "Eltwise"
  bottom: "W_hc_h_3"
  bottom: "W_xc_x_4"
  top: "gate_input_4"
  eltwise_param {
    operation: SUM
  }
}
layer {
  name: "lstm1_unit_4"
  type: "LSTMUnit"
  bottom: "c_3"
  bottom: "gate_input_4"
  bottom: "cont_4"
  top: "c_4"
  top: "h_4"
}
layer {
  name: "lstm1_h_conted_4"
  type: "Scale"
  bottom: "h_4"
  bottom: "cont_5"
  top: "h_conted_4"
  scale_param {
    axis: 0
  }
}
layer {
  name: "lstm1_transform_5"
  type: "InnerProduct"
  bottom: "h_conted_4"
  top: "W_hc_h_4"
  param {
    name: "W_hc"
  }
  inner_product_param {
    num_output: 96
    bias_term: false
    weight_filler {
      type: "xavier"
    }
    axis: 2
  }
}
layer {
  name: "lstm1_gate_input_5"
  type: "Eltwise"
  bottom: "W_hc_h_4"
  bottom: "W_xc_x_5"
  top: "gate_input_5"
  eltwise_param {
    operation: SUM
  }
}
layer {
  name: "lstm1_unit_5"
  type: "LSTMUnit"
  bottom: "c_4"
  bottom: "gate_input_5"
  bottom: "cont_5"
  top: "c_5"
  top: "h_5"
}
layer {
  name: "lstm1_h_conted_5"
  type: "Scale"
  bottom: "h_5"
  bottom: "cont_6"
  top: "h_conted_5"
  scale_param {
    axis: 0
  }
}
layer {
  name: "lstm1_transform_6"
  type: "InnerProduct"
  bottom: "h_conted_5"
  top: "W_hc_h_5"
  param {
    name: "W_hc"
  }
  inner_product_param {
    num_output: 96
    bias_term: false
    weight_filler {
      type: "xavier"
    }
    axis: 2
  }
}
layer {
  name: "lstm1_gate_input_6"
  type: "Eltwise"
  bottom: "W_hc_h_5"
  bottom: "W_xc_x_6"
  top: "gate_input_6"
  eltwise_param {
    operation: SUM
  }
}
layer {
  name: "lstm1_unit_6"
  type: "LSTMUnit"
  bottom: "c_5"
  bottom: "gate_input_6"
  bottom: "cont_6"
  top: "c_6"
  top: "h_6"
}
layer {
  name: "lstm1_h_conted_6"
  type: "Scale"
  bottom: "h_6"
  bottom: "cont_7"
  top: "h_conted_6"
  scale_param {
    axis: 0
  }
}
layer {
  name: "lstm1_transform_7"
  type: "InnerProduct"
  bottom: "h_conted_6"
  top: "W_hc_h_6"
  param {
    name: "W_hc"
  }
  inner_product_param {
    num_output: 96
    bias_term: false
    weight_filler {
      type: "xavier"
    }
    axis: 2
  }
}
layer {
  name: "lstm1_gate_input_7"
  type: "Eltwise"
  bottom: "W_hc_h_6"
  bottom: "W_xc_x_7"
  top: "gate_input_7"
  eltwise_param {
    operation: SUM
  }
}
layer {
  name: "lstm1_unit_7"
  type: "LSTMUnit"
  bottom: "c_6"
  bottom: "gate_input_7"
  bottom: "cont_7"
  top: "c_7"
  top: "h_7"
}
layer {
  name: "lstm1_h_conted_7"
  type: "Scale"
  bottom: "h_7"
  bottom: "cont_8"
  top: "h_conted_7"
  scale_param {
    axis: 0
  }
}
layer {
  name: "lstm1_transform_8"
  type: "InnerProduct"
  bottom: "h_conted_7"
  top: "W_hc_h_7"
  param {
    name: "W_hc"
  }
  inner_product_param {
    num_output: 96
    bias_term: false
    weight_filler {
      type: "xavier"
    }
    axis: 2
  }
}
layer {
  name: "lstm1_gate_input_8"
  type: "Eltwise"
  bottom: "W_hc_h_7"
  bottom: "W_xc_x_8"
  top: "gate_input_8"
  eltwise_param {
    operation: SUM
  }
}
layer {
  name: "lstm1_unit_8"
  type: "LSTMUnit"
  bottom: "c_7"
  bottom: "gate_input_8"
  bottom: "cont_8"
  top: "c_8"
  top: "h_8"
}
layer {
  name: "lstm1_h_conted_8"
  type: "Scale"
  bottom: "h_8"
  bottom: "cont_9"
  top: "h_conted_8"
  scale_param {
    axis: 0
  }
}
layer {
  name: "lstm1_transform_9"
  type: "InnerProduct"
  bottom: "h_conted_8"
  top: "W_hc_h_8"
  param {
    name: "W_hc"
  }
  inner_product_param {
    num_output: 96
    bias_term: false
    weight_filler {
      type: "xavier"
    }
    axis: 2
  }
}
layer {
  name: "lstm1_gate_input_9"
  type: "Eltwise"
  bottom: "W_hc_h_8"
  bottom: "W_xc_x_9"
  top: "gate_input_9"
  eltwise_param {
    operation: SUM
  }
}
layer {
  name: "lstm1_unit_9"
  type: "LSTMUnit"
  bottom: "c_8"
  bottom: "gate_input_9"
  bottom: "cont_9"
  top: "c_9"
  top: "h_9"
}
layer {
  name: "lstm1_h_conted_9"
  type: "Scale"
  bottom: "h_9"
  bottom: "cont_10"
  top: "h_conted_9"
  scale_param {
    axis: 0
  }
}
layer {
  name: "lstm1_transform_10"
  type: "InnerProduct"
  bottom: "h_conted_9"
  top: "W_hc_h_9"
  param {
    name: "W_hc"
  }
  inner_product_param {
    num_output: 96
    bias_term: false
    weight_filler {
      type: "xavier"
    }
    axis: 2
  }
}
layer {
  name: "lstm1_gate_input_10"
  type: "Eltwise"
  bottom: "W_hc_h_9"
  bottom: "W_xc_x_10"
  top: "gate_input_10"
  eltwise_param {
    operation: SUM
  }
}
layer {
  name: "lstm1_unit_10"
  type: "LSTMUnit"
  bottom: "c_9"
  bottom: "gate_input_10"
  bottom: "cont_10"
  top: "c_10"
  top: "h_10"
}
layer {
  name: "lstm1_h_conted_10"
  type: "Scale"
  bottom: "h_10"
  bottom: "cont_11"
  top: "h_conted_10"
  scale_param {
    axis: 0
  }
}
layer {
  name: "lstm1_transform_11"
  type: "InnerProduct"
  bottom: "h_conted_10"
  top: "W_hc_h_10"
  param {
    name: "W_hc"
  }
  inner_product_param {
    num_output: 96
    bias_term: false
    weight_filler {
      type: "xavier"
    }
    axis: 2
  }
}
layer {
  name: "lstm1_gate_input_11"
  type: "Eltwise"
  bottom: "W_hc_h_10"
  bottom: "W_xc_x_11"
  top: "gate_input_11"
  eltwise_param {
    operation: SUM
  }
}
layer {
  name: "lstm1_unit_11"
  type: "LSTMUnit"
  bottom: "c_10"
  bottom: "gate_input_11"
  bottom: "cont_11"
  top: "c_11"
  top: "h_11"
}
layer {
  name: "lstm1_h_conted_11"
  type: "Scale"
  bottom: "h_11"
  bottom: "cont_12"
  top: "h_conted_11"
  scale_param {
    axis: 0
  }
}
layer {
  name: "lstm1_transform_12"
  type: "InnerProduct"
  bottom: "h_conted_11"
  top: "W_hc_h_11"
  param {
    name: "W_hc"
  }
  inner_product_param {
    num_output: 96
    bias_term: false
    weight_filler {
      type: "xavier"
    }
    axis: 2
  }
}
layer {
  name: "lstm1_gate_input_12"
  type: "Eltwise"
  bottom: "W_hc_h_11"
  bottom: "W_xc_x_12"
  top: "gate_input_12"
  eltwise_param {
    operation: SUM
  }
}
layer {
  name: "lstm1_unit_12"
  type: "LSTMUnit"
  bottom: "c_11"
  bottom: "gate_input_12"
  bottom: "cont_12"
  top: "c_12"
  top: "h_12"
}
layer {
  name: "lstm1_h_conted_12"
  type: "Scale"
  bottom: "h_12"
  bottom: "cont_13"
  top: "h_conted_12"
  scale_param {
    axis: 0
  }
}
layer {
  name: "lstm1_transform_13"
  type: "InnerProduct"
  bottom: "h_conted_12"
  top: "W_hc_h_12"
  param {
    name: "W_hc"
  }
  inner_product_param {
    num_output: 96
    bias_term: false
    weight_filler {
      type: "xavier"
    }
    axis: 2
  }
}
layer {
  name: "lstm1_gate_input_13"
  type: "Eltwise"
  bottom: "W_hc_h_12"
  bottom: "W_xc_x_13"
  top: "gate_input_13"
  eltwise_param {
    operation: SUM
  }
}
layer {
  name: "lstm1_unit_13"
  type: "LSTMUnit"
  bottom: "c_12"
  bottom: "gate_input_13"
  bottom: "cont_13"
  top: "c_13"
  top: "h_13"
}
layer {
  name: "lstm1_h_conted_13"
  type: "Scale"
  bottom: "h_13"
  bottom: "cont_14"
  top: "h_conted_13"
  scale_param {
    axis: 0
  }
}
layer {
  name: "lstm1_transform_14"
  type: "InnerProduct"
  bottom: "h_conted_13"
  top: "W_hc_h_13"
  param {
    name: "W_hc"
  }
  inner_product_param {
    num_output: 96
    bias_term: false
    weight_filler {
      type: "xavier"
    }
    axis: 2
  }
}
layer {
  name: "lstm1_gate_input_14"
  type: "Eltwise"
  bottom: "W_hc_h_13"
  bottom: "W_xc_x_14"
  top: "gate_input_14"
  eltwise_param {
    operation: SUM
  }
}
layer {
  name: "lstm1_unit_14"
  type: "LSTMUnit"
  bottom: "c_13"
  bottom: "gate_input_14"
  bottom: "cont_14"
  top: "c_14"
  top: "h_14"
}
layer {
  name: "lstm1_h_conted_14"
  type: "Scale"
  bottom: "h_14"
  bottom: "cont_15"
  top: "h_conted_14"
  scale_param {
    axis: 0
  }
}
layer {
  name: "lstm1_transform_15"
  type: "InnerProduct"
  bottom: "h_conted_14"
  top: "W_hc_h_14"
  param {
    name: "W_hc"
  }
  inner_product_param {
    num_output: 96
    bias_term: false
    weight_filler {
      type: "xavier"
    }
    axis: 2
  }
}
layer {
  name: "lstm1_gate_input_15"
  type: "Eltwise"
  bottom: "W_hc_h_14"
  bottom: "W_xc_x_15"
  top: "gate_input_15"
  eltwise_param {
    operation: SUM
  }
}
layer {
  name: "lstm1_unit_15"
  type: "LSTMUnit"
  bottom: "c_14"
  bottom: "gate_input_15"
  bottom: "cont_15"
  top: "c_15"
  top: "h_15"
}
layer {
  name: "lstm1_h_conted_15"
  type: "Scale"
  bottom: "h_15"
  bottom: "cont_16"
  top: "h_conted_15"
  scale_param {
    axis: 0
  }
}
layer {
  name: "lstm1_transform_16"
  type: "InnerProduct"
  bottom: "h_conted_15"
  top: "W_hc_h_15"
  param {
    name: "W_hc"
  }
  inner_product_param {
    num_output: 96
    bias_term: false
    weight_filler {
      type: "xavier"
    }
    axis: 2
  }
}
layer {
  name: "lstm1_gate_input_16"
  type: "Eltwise"
  bottom: "W_hc_h_15"
  bottom: "W_xc_x_16"
  top: "gate_input_16"
  eltwise_param {
    operation: SUM
  }
}
layer {
  name: "lstm1_unit_16"
  type: "LSTMUnit"
  bottom: "c_15"
  bottom: "gate_input_16"
  bottom: "cont_16"
  top: "c_16"
  top: "h_16"
}
layer {
  name: "lstm1_"
  type: "Split"
  bottom: "c_16"
  top: "c_T"
}
layer {
  name: "lstm1_h_concat"
  type: "Concat"
  bottom: "h_1"
  bottom: "h_2"
  bottom: "h_3"
  bottom: "h_4"
  bottom: "h_5"
  bottom: "h_6"
  bottom: "h_7"
  bottom: "h_8"
  bottom: "h_9"
  bottom: "h_10"
  bottom: "h_11"
  bottom: "h_12"
  bottom: "h_13"
  bottom: "h_14"
  bottom: "h_15"
  bottom: "h_16"
  top: "h"
  concat_param {
    axis: 0
  }
}
layer {
  name: "h_pseudoloss"
  type: "Reduction"
  bottom: "h"
  top: "h_pseudoloss"
  loss_weight: 1
}
I0222 18:19:37.434278 26387 layer_factory.hpp:77] Creating layer lstm1_
I0222 18:19:37.434288 26387 net.cpp:84] Creating Layer lstm1_
I0222 18:19:37.434291 26387 net.cpp:380] lstm1_ -> x
I0222 18:19:37.434298 26387 net.cpp:380] lstm1_ -> cont
I0222 18:19:37.434324 26387 net.cpp:122] Setting up lstm1_
I0222 18:19:37.434329 26387 net.cpp:129] Top shape: 16 26 1 1 (416)
I0222 18:19:37.434334 26387 net.cpp:129] Top shape: 16 26 (416)
I0222 18:19:37.434336 26387 net.cpp:137] Memory required for data: 3328
I0222 18:19:37.434340 26387 layer_factory.hpp:77] Creating layer lstm1_
I0222 18:19:37.434345 26387 net.cpp:84] Creating Layer lstm1_
I0222 18:19:37.434348 26387 net.cpp:380] lstm1_ -> c_0
I0222 18:19:37.434355 26387 net.cpp:380] lstm1_ -> h_0
I0222 18:19:37.434372 26387 net.cpp:122] Setting up lstm1_
I0222 18:19:37.434377 26387 net.cpp:129] Top shape: 1 26 24 (624)
I0222 18:19:37.434381 26387 net.cpp:129] Top shape: 1 26 24 (624)
I0222 18:19:37.434384 26387 net.cpp:137] Memory required for data: 8320
I0222 18:19:37.434387 26387 layer_factory.hpp:77] Creating layer lstm1_cont_slice
I0222 18:19:37.434396 26387 net.cpp:84] Creating Layer lstm1_cont_slice
I0222 18:19:37.434399 26387 net.cpp:406] lstm1_cont_slice <- cont
I0222 18:19:37.434406 26387 net.cpp:380] lstm1_cont_slice -> cont_1
I0222 18:19:37.434412 26387 net.cpp:380] lstm1_cont_slice -> cont_2
…
I0222 18:19:37.434448 26387 net.cpp:380] lstm1_cont_slice -> cont_9
I0222 18:19:37.434454 26387 net.cpp:380] lstm1_cont_slice -> cont_10
I0222 18:19:37.434459 26387 net.cpp:380] lstm1_cont_slice -> cont_11
I0222 18:19:37.434464 26387 net.cpp:380] lstm1_cont_slice -> cont_12
I0222 18:19:37.434469 26387 net.cpp:380] lstm1_cont_slice -> cont_13
I0222 18:19:37.434475 26387 net.cpp:380] lstm1_cont_slice -> cont_14
I0222 18:19:37.434480 26387 net.cpp:380] lstm1_cont_slice -> cont_15
I0222 18:19:37.434485 26387 net.cpp:380] lstm1_cont_slice -> cont_16
I0222 18:19:37.434581 26387 net.cpp:122] Setting up lstm1_cont_slice
I0222 18:19:37.434586 26387 net.cpp:129] Top shape: 1 26 (26)
I0222 18:19:37.434589 26387 net.cpp:129] Top shape: 1 26 (26)
I0222 18:19:37.434593 26387 net.cpp:129] Top shape: 1 26 (26)
I0222 18:19:37.434597 26387 net.cpp:129] Top shape: 1 26 (26)
I0222 18:19:37.434600 26387 net.cpp:129] Top shape: 1 26 (26)
I0222 18:19:37.434623 26387 net.cpp:129] Top shape: 1 26 (26)
I0222 18:19:37.434628 26387 net.cpp:129] Top shape: 1 26 (26)
I0222 18:19:37.434630 26387 net.cpp:129] Top shape: 1 26 (26)
I0222 18:19:37.434633 26387 net.cpp:129] Top shape: 1 26 (26)
I0222 18:19:37.434638 26387 net.cpp:129] Top shape: 1 26 (26)
I0222 18:19:37.434640 26387 net.cpp:129] Top shape: 1 26 (26)
I0222 18:19:37.434643 26387 net.cpp:129] Top shape: 1 26 (26)
I0222 18:19:37.434648 26387 net.cpp:129] Top shape: 1 26 (26)
I0222 18:19:37.434650 26387 net.cpp:129] Top shape: 1 26 (26)
I0222 18:19:37.434653 26387 net.cpp:129] Top shape: 1 26 (26)
I0222 18:19:37.434656 26387 net.cpp:129] Top shape: 1 26 (26)
I0222 18:19:37.434659 26387 net.cpp:137] Memory required for data: 9984
I0222 18:19:37.434664 26387 layer_factory.hpp:77] Creating layer cont_1_lstm1_cont_slice_0_split
I0222 18:19:37.434667 26387 net.cpp:84] Creating Layer cont_1_lstm1_cont_slice_0_split
I0222 18:19:37.434670 26387 net.cpp:406] cont_1_lstm1_cont_slice_0_split <- cont_1
I0222 18:19:37.434674 26387 net.cpp:380] cont_1_lstm1_cont_slice_0_split -> cont_1_lstm1_cont_slice_0_split_0
I0222 18:19:37.434680 26387 net.cpp:380] cont_1_lstm1_cont_slice_0_split -> cont_1_lstm1_cont_slice_0_split_1
I0222 18:19:37.434698 26387 net.cpp:122] Setting up cont_1_lstm1_cont_slice_0_split
I0222 18:19:37.434703 26387 net.cpp:129] Top shape: 1 26 (26)
I0222 18:19:37.434706 26387 net.cpp:129] Top shape: 1 26 (26)
I0222 18:19:37.434710 26387 net.cpp:137] Memory required for data: 10192
I0222 18:19:37.434712 26387 layer_factory.hpp:77] Creating layer cont_2_lstm1_cont_slice_1_split
I0222 18:19:37.434717 26387 net.cpp:84] Creating Layer cont_2_lstm1_cont_slice_1_split
I0222 18:19:37.434721 26387 net.cpp:406] cont_2_lstm1_cont_slice_1_split <- cont_2
I0222 18:19:37.435278 26387 net.cpp:380] cont_2_lstm1_cont_slice_1_split -> cont_2_lstm1_cont_slice_1_split_0
I0222 18:19:37.435292 26387 net.cpp:380] cont_2_lstm1_cont_slice_1_split -> cont_2_lstm1_cont_slice_1_split_1
I0222 18:19:37.435325 26387 net.cpp:122] Setting up cont_2_lstm1_cont_slice_1_split
I0222 18:19:37.435333 26387 net.cpp:129] Top shape: 1 26 (26)
I0222 18:19:37.435339 26387 net.cpp:129] Top shape: 1 26 (26)
I0222 18:19:37.435343 26387 net.cpp:137] Memory required for data: 10400
I0222 18:19:37.435348 26387 layer_factory.hpp:77] Creating layer cont_3_lstm1_cont_slice_2_split
I0222 18:19:37.435367 26387 net.cpp:84] Creating Layer cont_3_lstm1_cont_slice_2_split
I0222 18:19:37.435389 26387 net.cpp:406] cont_3_lstm1_cont_slice_2_split <- cont_3
I0222 18:19:37.435395 26387 net.cpp:380] cont_3_lstm1_cont_slice_2_split -> cont_3_lstm1_cont_slice_2_split_0
I0222 18:19:37.435402 26387 net.cpp:380] cont_3_lstm1_cont_slice_2_split -> cont_3_lstm1_cont_slice_2_split_1
I0222 18:19:37.435426 26387 net.cpp:122] Setting up cont_3_lstm1_cont_slice_2_split
I0222 18:19:37.435434 26387 net.cpp:129] Top shape: 1 26 (26)
I0222 18:19:37.435439 26387 net.cpp:129] Top shape: 1 26 (26)
I0222 18:19:37.435443 26387 net.cpp:137] Memory required for data: 10608
I0222 18:19:37.435461 26387 layer_factory.hpp:77] Creating layer cont_4_lstm1_cont_slice_3_split
I0222 18:19:37.435467 26387 net.cpp:84] Creating Layer cont_4_lstm1_cont_slice_3_split
I0222 18:19:37.435472 26387 net.cpp:406] cont_4_lstm1_cont_slice_3_split <- cont_4
I0222 18:19:37.435477 26387 net.cpp:380] cont_4_lstm1_cont_slice_3_split -> cont_4_lstm1_cont_slice_3_split_0
I0222 18:19:37.435501 26387 net.cpp:380] cont_4_lstm1_cont_slice_3_split -> cont_4_lstm1_cont_slice_3_split_1
I0222 18:19:37.435525 26387 net.cpp:122] Setting up cont_4_lstm1_cont_slice_3_split
I0222 18:19:37.435546 26387 net.cpp:129] Top shape: 1 26 (26)
I0222 18:19:37.435551 26387 net.cpp:129] Top shape: 1 26 (26)
I0222 18:19:37.435555 26387 net.cpp:137] Memory required for data: 10816
I0222 18:19:37.435559 26387 layer_factory.hpp:77] Creating layer cont_5_lstm1_cont_slice_4_split
I0222 18:19:37.435565 26387 net.cpp:84] Creating Layer cont_5_lstm1_cont_slice_4_split
I0222 18:19:37.435570 26387 net.cpp:406] cont_5_lstm1_cont_slice_4_split <- cont_5
I0222 18:19:37.435583 26387 net.cpp:380] cont_5_lstm1_cont_slice_4_split -> cont_5_lstm1_cont_slice_4_split_0
I0222 18:19:37.435590 26387 net.cpp:380] cont_5_lstm1_cont_slice_4_split -> cont_5_lstm1_cont_slice_4_split_1
I0222 18:19:37.435614 26387 net.cpp:122] Setting up cont_5_lstm1_cont_slice_4_split
I0222 18:19:37.435619 26387 net.cpp:129] Top shape: 1 26 (26)
I0222 18:19:37.435623 26387 net.cpp:129] Top shape: 1 26 (26)
I0222 18:19:37.435626 26387 net.cpp:137] Memory required for data: 11024
I0222 18:19:37.435629 26387 layer_factory.hpp:77] Creating layer cont_6_lstm1_cont_slice_5_split
I0222 18:19:37.435634 26387 net.cpp:84] Creating Layer cont_6_lstm1_cont_slice_5_split
I0222 18:19:37.435638 26387 net.cpp:406] cont_6_lstm1_cont_slice_5_split <- cont_6
I0222 18:19:37.435643 26387 net.cpp:380] cont_6_lstm1_cont_slice_5_split -> cont_6_lstm1_cont_slice_5_split_0
I0222 18:19:37.435648 26387 net.cpp:380] cont_6_lstm1_cont_slice_5_split -> cont_6_lstm1_cont_slice_5_split_1
I0222 18:19:37.435664 26387 net.cpp:122] Setting up cont_6_lstm1_cont_slice_5_split
I0222 18:19:37.435668 26387 net.cpp:129] Top shape: 1 26 (26)
I0222 18:19:37.435672 26387 net.cpp:129] Top shape: 1 26 (26)
I0222 18:19:37.435674 26387 net.cpp:137] Memory required for data: 11232
I0222 18:19:37.435678 26387 layer_factory.hpp:77] Creating layer cont_7_lstm1_cont_slice_6_split
I0222 18:19:37.435683 26387 net.cpp:84] Creating Layer cont_7_lstm1_cont_slice_6_split
I0222 18:19:37.435685 26387 net.cpp:406] cont_7_lstm1_cont_slice_6_split <- cont_7
I0222 18:19:37.435689 26387 net.cpp:380] cont_7_lstm1_cont_slice_6_split -> cont_7_lstm1_cont_slice_6_split_0
I0222 18:19:37.435696 26387 net.cpp:380] cont_7_lstm1_cont_slice_6_split -> cont_7_lstm1_cont_slice_6_split_1
I0222 18:19:37.435712 26387 net.cpp:122] Setting up cont_7_lstm1_cont_slice_6_split
I0222 18:19:37.435717 26387 net.cpp:129] Top shape: 1 26 (26)
I0222 18:19:37.435720 26387 net.cpp:129] Top shape: 1 26 (26)
I0222 18:19:37.435724 26387 net.cpp:137] Memory required for data: 11440
I0222 18:19:37.435726 26387 layer_factory.hpp:77] Creating layer cont_8_lstm1_cont_slice_7_split
I0222 18:19:37.435730 26387 net.cpp:84] Creating Layer cont_8_lstm1_cont_slice_7_split
I0222 18:19:37.435734 26387 net.cpp:406] cont_8_lstm1_cont_slice_7_split <- cont_8
I0222 18:19:37.435737 26387 net.cpp:380] cont_8_lstm1_cont_slice_7_split -> cont_8_lstm1_cont_slice_7_split_0
I0222 18:19:37.435741 26387 net.cpp:380] cont_8_lstm1_cont_slice_7_split -> cont_8_lstm1_cont_slice_7_split_1
I0222 18:19:37.435758 26387 net.cpp:122] Setting up cont_8_lstm1_cont_slice_7_split
I0222 18:19:37.435763 26387 net.cpp:129] Top shape: 1 26 (26)
I0222 18:19:37.435766 26387 net.cpp:129] Top shape: 1 26 (26)
I0222 18:19:37.435770 26387 net.cpp:137] Memory required for data: 11648
I0222 18:19:37.435772 26387 layer_factory.hpp:77] Creating layer cont_9_lstm1_cont_slice_8_split
I0222 18:19:37.435775 26387 net.cpp:84] Creating Layer cont_9_lstm1_cont_slice_8_split
I0222 18:19:37.435780 26387 net.cpp:406] cont_9_lstm1_cont_slice_8_split <- cont_9
I0222 18:19:37.435783 26387 net.cpp:380] cont_9_lstm1_cont_slice_8_split -> cont_9_lstm1_cont_slice_8_split_0
I0222 18:19:37.435788 26387 net.cpp:380] cont_9_lstm1_cont_slice_8_split -> cont_9_lstm1_cont_slice_8_split_1
I0222 18:19:37.435803 26387 net.cpp:122] Setting up cont_9_lstm1_cont_slice_8_split
I0222 18:19:37.435808 26387 net.cpp:129] Top shape: 1 26 (26)
I0222 18:19:37.435812 26387 net.cpp:129] Top shape: 1 26 (26)
I0222 18:19:37.435816 26387 net.cpp:137] Memory required for data: 11856
I0222 18:19:37.435818 26387 layer_factory.hpp:77] Creating layer cont_10_lstm1_cont_slice_9_split
I0222 18:19:37.435822 26387 net.cpp:84] Creating Layer cont_10_lstm1_cont_slice_9_split
I0222 18:19:37.435824 26387 net.cpp:406] cont_10_lstm1_cont_slice_9_split <- cont_10
I0222 18:19:37.435828 26387 net.cpp:380] cont_10_lstm1_cont_slice_9_split -> cont_10_lstm1_cont_slice_9_split_0
I0222 18:19:37.435833 26387 net.cpp:380] cont_10_lstm1_cont_slice_9_split -> cont_10_lstm1_cont_slice_9_split_1
I0222 18:19:37.435849 26387 net.cpp:122] Setting up cont_10_lstm1_cont_slice_9_split
I0222 18:19:37.435858 26387 net.cpp:129] Top shape: 1 26 (26)
I0222 18:19:37.435863 26387 net.cpp:129] Top shape: 1 26 (26)
I0222 18:19:37.435865 26387 net.cpp:137] Memory required for data: 12064
I0222 18:19:37.435868 26387 layer_factory.hpp:77] Creating layer cont_11_lstm1_cont_slice_10_split
I0222 18:19:37.435873 26387 net.cpp:84] Creating Layer cont_11_lstm1_cont_slice_10_split
I0222 18:19:37.435875 26387 net.cpp:406] cont_11_lstm1_cont_slice_10_split <- cont_11
I0222 18:19:37.435879 26387 net.cpp:380] cont_11_lstm1_cont_slice_10_split -> cont_11_lstm1_cont_slice_10_split_0
I0222 18:19:37.435884 26387 net.cpp:380] cont_11_lstm1_cont_slice_10_split -> cont_11_lstm1_cont_slice_10_split_1
I0222 18:19:37.435902 26387 net.cpp:122] Setting up cont_11_lstm1_cont_slice_10_split
I0222 18:19:37.435907 26387 net.cpp:129] Top shape: 1 26 (26)
I0222 18:19:37.435910 26387 net.cpp:129] Top shape: 1 26 (26)
I0222 18:19:37.449522 26387 net.cpp:137] Memory required for data: 12272
I0222 18:19:37.449529 26387 layer_factory.hpp:77] Creating layer cont_12_lstm1_cont_slice_11_split
I0222 18:19:37.449534 26387 net.cpp:84] Creating Layer cont_12_lstm1_cont_slice_11_split
I0222 18:19:37.449538 26387 net.cpp:406] cont_12_lstm1_cont_slice_11_split <- cont_12
I0222 18:19:37.449544 26387 net.cpp:380] cont_12_lstm1_cont_slice_11_split -> cont_12_lstm1_cont_slice_11_split_0
I0222 18:19:37.449549 26387 net.cpp:380] cont_12_lstm1_cont_slice_11_split -> cont_12_lstm1_cont_slice_11_split_1
I0222 18:19:37.449574 26387 net.cpp:122] Setting up cont_12_lstm1_cont_slice_11_split
I0222 18:19:37.449579 26387 net.cpp:129] Top shape: 1 26 (26)
I0222 18:19:37.449582 26387 net.cpp:129] Top shape: 1 26 (26)
I0222 18:19:37.449585 26387 net.cpp:137] Memory required for data: 12480
I0222 18:19:37.449589 26387 layer_factory.hpp:77] Creating layer cont_13_lstm1_cont_slice_12_split
I0222 18:19:37.449592 26387 net.cpp:84] Creating Layer cont_13_lstm1_cont_slice_12_split
I0222 18:19:37.449596 26387 net.cpp:406] cont_13_lstm1_cont_slice_12_split <- cont_13
I0222 18:19:37.449599 26387 net.cpp:380] cont_13_lstm1_cont_slice_12_split -> cont_13_lstm1_cont_slice_12_split_0
I0222 18:19:37.449604 26387 net.cpp:380] cont_13_lstm1_cont_slice_12_split -> cont_13_lstm1_cont_slice_12_split_1
I0222 18:19:37.449622 26387 net.cpp:122] Setting up cont_13_lstm1_cont_slice_12_split
I0222 18:19:37.449627 26387 net.cpp:129] Top shape: 1 26 (26)
I0222 18:19:37.449630 26387 net.cpp:129] Top shape: 1 26 (26)
I0222 18:19:37.449632 26387 net.cpp:137] Memory required for data: 12688
I0222 18:19:37.449635 26387 layer_factory.hpp:77] Creating layer cont_14_lstm1_cont_slice_13_split
I0222 18:19:37.449640 26387 net.cpp:84] Creating Layer cont_14_lstm1_cont_slice_13_split
I0222 18:19:37.449642 26387 net.cpp:406] cont_14_lstm1_cont_slice_13_split <- cont_14
I0222 18:19:37.449646 26387 net.cpp:380] cont_14_lstm1_cont_slice_13_split -> cont_14_lstm1_cont_slice_13_split_0
I0222 18:19:37.449651 26387 net.cpp:380] cont_14_lstm1_cont_slice_13_split -> cont_14_lstm1_cont_slice_13_split_1
I0222 18:19:37.449666 26387 net.cpp:122] Setting up cont_14_lstm1_cont_slice_13_split
I0222 18:19:37.449671 26387 net.cpp:129] Top shape: 1 26 (26)
I0222 18:19:37.449674 26387 net.cpp:129] Top shape: 1 26 (26)
I0222 18:19:37.449676 26387 net.cpp:137] Memory required for data: 12896
I0222 18:19:37.449679 26387 layer_factory.hpp:77] Creating layer cont_15_lstm1_cont_slice_14_split
I0222 18:19:37.449682 26387 net.cpp:84] Creating Layer cont_15_lstm1_cont_slice_14_split
I0222 18:19:37.449684 26387 net.cpp:406] cont_15_lstm1_cont_slice_14_split <- cont_15
I0222 18:19:37.449688 26387 net.cpp:380] cont_15_lstm1_cont_slice_14_split -> cont_15_lstm1_cont_slice_14_split_0
I0222 18:19:37.449692 26387 net.cpp:380] cont_15_lstm1_cont_slice_14_split -> cont_15_lstm1_cont_slice_14_split_1
I0222 18:19:37.449707 26387 net.cpp:122] Setting up cont_15_lstm1_cont_slice_14_split
I0222 18:19:37.449712 26387 net.cpp:129] Top shape: 1 26 (26)
I0222 18:19:37.449715 26387 net.cpp:129] Top shape: 1 26 (26)
I0222 18:19:37.449724 26387 net.cpp:137] Memory required for data: 13104
I0222 18:19:37.449728 26387 layer_factory.hpp:77] Creating layer cont_16_lstm1_cont_slice_15_split
I0222 18:19:37.449731 26387 net.cpp:84] Creating Layer cont_16_lstm1_cont_slice_15_split
I0222 18:19:37.449734 26387 net.cpp:406] cont_16_lstm1_cont_slice_15_split <- cont_16
I0222 18:19:37.449738 26387 net.cpp:380] cont_16_lstm1_cont_slice_15_split -> cont_16_lstm1_cont_slice_15_split_0
I0222 18:19:37.449741 26387 net.cpp:380] cont_16_lstm1_cont_slice_15_split -> cont_16_lstm1_cont_slice_15_split_1
I0222 18:19:37.449759 26387 net.cpp:122] Setting up cont_16_lstm1_cont_slice_15_split
I0222 18:19:37.449764 26387 net.cpp:129] Top shape: 1 26 (26)
I0222 18:19:37.449766 26387 net.cpp:129] Top shape: 1 26 (26)
I0222 18:19:37.449769 26387 net.cpp:137] Memory required for data: 13312
I0222 18:19:37.449786 26387 layer_factory.hpp:77] Creating layer lstm1_x_transform
I0222 18:19:37.449791 26387 net.cpp:84] Creating Layer lstm1_x_transform
I0222 18:19:37.449798 26387 net.cpp:406] lstm1_x_transform <- x
I0222 18:19:37.449802 26387 net.cpp:380] lstm1_x_transform -> W_xc_x
I0222 18:19:37.449893 26387 net.cpp:122] Setting up lstm1_x_transform
I0222 18:19:37.449899 26387 net.cpp:129] Top shape: 16 26 96 (39936)
I0222 18:19:37.449918 26387 net.cpp:137] Memory required for data: 173056
I0222 18:19:37.449926 26387 layer_factory.hpp:77] Creating layer lstm1_W_xc_x_slice
I0222 18:19:37.449932 26387 net.cpp:84] Creating Layer lstm1_W_xc_x_slice
I0222 18:19:37.449935 26387 net.cpp:406] lstm1_W_xc_x_slice <- W_xc_x
I0222 18:19:37.449939 26387 net.cpp:380] lstm1_W_xc_x_slice -> W_xc_x_1
I0222 18:19:37.449959 26387 net.cpp:380] lstm1_W_xc_x_slice -> W_xc_x_2
…
I0222 18:19:37.450012 26387 net.cpp:380] lstm1_W_xc_x_slice -> W_xc_x_10
I0222 18:19:37.450029 26387 net.cpp:380] lstm1_W_xc_x_slice -> W_xc_x_11
I0222 18:19:37.450034 26387 net.cpp:380] lstm1_W_xc_x_slice -> W_xc_x_12
I0222 18:19:37.450057 26387 net.cpp:380] lstm1_W_xc_x_slice -> W_xc_x_13
I0222 18:19:37.450062 26387 net.cpp:380] lstm1_W_xc_x_slice -> W_xc_x_14
I0222 18:19:37.450067 26387 net.cpp:380] lstm1_W_xc_x_slice -> W_xc_x_15
I0222 18:19:37.450084 26387 net.cpp:380] lstm1_W_xc_x_slice -> W_xc_x_16
I0222 18:19:37.450206 26387 net.cpp:122] Setting up lstm1_W_xc_x_slice
I0222 18:19:37.450209 26387 net.cpp:129] Top shape: 1 26 96 (2496)
I0222 18:19:37.450227 26387 net.cpp:129] Top shape: 1 26 96 (2496)
I0222 18:19:37.450232 26387 net.cpp:129] Top shape: 1 26 96 (2496)
I0222 18:19:37.450234 26387 net.cpp:129] Top shape: 1 26 96 (2496)
I0222 18:19:37.450238 26387 net.cpp:129] Top shape: 1 26 96 (2496)
I0222 18:19:37.450242 26387 net.cpp:129] Top shape: 1 26 96 (2496)
I0222 18:19:37.450245 26387 net.cpp:129] Top shape: 1 26 96 (2496)
I0222 18:19:37.450248 26387 net.cpp:129] Top shape: 1 26 96 (2496)
I0222 18:19:37.450253 26387 net.cpp:129] Top shape: 1 26 96 (2496)
I0222 18:19:37.450255 26387 net.cpp:129] Top shape: 1 26 96 (2496)
I0222 18:19:37.450259 26387 net.cpp:129] Top shape: 1 26 96 (2496)
I0222 18:19:37.450263 26387 net.cpp:129] Top shape: 1 26 96 (2496)
I0222 18:19:37.450266 26387 net.cpp:129] Top shape: 1 26 96 (2496)
I0222 18:19:37.450269 26387 net.cpp:129] Top shape: 1 26 96 (2496)
I0222 18:19:37.450273 26387 net.cpp:129] Top shape: 1 26 96 (2496)
I0222 18:19:37.450276 26387 net.cpp:129] Top shape: 1 26 96 (2496)
I0222 18:19:37.450279 26387 net.cpp:137] Memory required for data: 332800
I0222 18:19:37.450284 26387 layer_factory.hpp:77] Creating layer lstm1_h_conted_0
I0222 18:19:37.450287 26387 net.cpp:84] Creating Layer lstm1_h_conted_0
I0222 18:19:37.450296 26387 net.cpp:406] lstm1_h_conted_0 <- h_0
I0222 18:19:37.450300 26387 net.cpp:406] lstm1_h_conted_0 <- cont_1_lstm1_cont_slice_0_split_0
I0222 18:19:37.450305 26387 net.cpp:380] lstm1_h_conted_0 -> h_conted_0
I0222 18:19:37.450341 26387 net.cpp:122] Setting up lstm1_h_conted_0
I0222 18:19:37.450347 26387 net.cpp:129] Top shape: 1 26 24 (624)
I0222 18:19:37.450350 26387 net.cpp:137] Memory required for data: 335296
I0222 18:19:37.450353 26387 layer_factory.hpp:77] Creating layer lstm1_transform_1
I0222 18:19:37.450358 26387 net.cpp:84] Creating Layer lstm1_transform_1
I0222 18:19:37.450361 26387 net.cpp:406] lstm1_transform_1 <- h_conted_0
I0222 18:19:37.450366 26387 net.cpp:380] lstm1_transform_1 -> W_hc_h_0
I0222 18:19:37.452646 26387 net.cpp:122] Setting up lstm1_transform_1
I0222 18:19:37.452656 26387 net.cpp:129] Top shape: 1 26 96 (2496)
I0222 18:19:37.452658 26387 net.cpp:137] Memory required for data: 345280
I0222 18:19:37.452664 26387 layer_factory.hpp:77] Creating layer lstm1_gate_input_1
I0222 18:19:37.452672 26387 net.cpp:84] Creating Layer lstm1_gate_input_1
I0222 18:19:37.452675 26387 net.cpp:406] lstm1_gate_input_1 <- W_hc_h_0
I0222 18:19:37.452679 26387 net.cpp:406] lstm1_gate_input_1 <- W_xc_x_1
I0222 18:19:37.452684 26387 net.cpp:380] lstm1_gate_input_1 -> gate_input_1
I0222 18:19:37.452704 26387 net.cpp:122] Setting up lstm1_gate_input_1
I0222 18:19:37.452709 26387 net.cpp:129] Top shape: 1 26 96 (2496)
I0222 18:19:37.452711 26387 net.cpp:137] Memory required for data: 355264
I0222 18:19:37.452713 26387 layer_factory.hpp:77] Creating layer lstm1_unit_1
I0222 18:19:37.452718 26387 net.cpp:84] Creating Layer lstm1_unit_1
I0222 18:19:37.452721 26387 net.cpp:406] lstm1_unit_1 <- c_0
I0222 18:19:37.452725 26387 net.cpp:406] lstm1_unit_1 <- gate_input_1
I0222 18:19:37.452728 26387 net.cpp:406] lstm1_unit_1 <- cont_1_lstm1_cont_slice_0_split_1
I0222 18:19:37.452733 26387 net.cpp:380] lstm1_unit_1 -> c_1
I0222 18:19:37.452739 26387 net.cpp:380] lstm1_unit_1 -> h_1
I0222 18:19:37.452764 26387 net.cpp:122] Setting up lstm1_unit_1
I0222 18:19:37.452769 26387 net.cpp:129] Top shape: 1 26 24 (624)
I0222 18:19:37.452771 26387 net.cpp:129] Top shape: 1 26 24 (624)
I0222 18:19:37.452775 26387 net.cpp:137] Memory required for data: 360256
I0222 18:19:37.452777 26387 layer_factory.hpp:77] Creating layer h_1_lstm1_unit_1_1_split
I0222 18:19:37.452781 26387 net.cpp:84] Creating Layer h_1_lstm1_unit_1_1_split
I0222 18:19:37.452785 26387 net.cpp:406] h_1_lstm1_unit_1_1_split <- h_1
I0222 18:19:37.452788 26387 net.cpp:380] h_1_lstm1_unit_1_1_split -> h_1_lstm1_unit_1_1_split_0
I0222 18:19:37.452793 26387 net.cpp:380] h_1_lstm1_unit_1_1_split -> h_1_lstm1_unit_1_1_split_1
I0222 18:19:37.452811 26387 net.cpp:122] Setting up h_1_lstm1_unit_1_1_split
I0222 18:19:37.452816 26387 net.cpp:129] Top shape: 1 26 24 (624)
I0222 18:19:37.452818 26387 net.cpp:129] Top shape: 1 26 24 (624)
I0222 18:19:37.452821 26387 net.cpp:137] Memory required for data: 365248
I0222 18:19:37.452824 26387 layer_factory.hpp:77] Creating layer lstm1_h_conted_1
I0222 18:19:37.452829 26387 net.cpp:84] Creating Layer lstm1_h_conted_1
I0222 18:19:37.452832 26387 net.cpp:406] lstm1_h_conted_1 <- h_1_lstm1_unit_1_1_split_0
I0222 18:19:37.452836 26387 net.cpp:406] lstm1_h_conted_1 <- cont_2_lstm1_cont_slice_1_split_0
I0222 18:19:37.452841 26387 net.cpp:380] lstm1_h_conted_1 -> h_conted_1
I0222 18:19:37.452872 26387 net.cpp:122] Setting up lstm1_h_conted_1
I0222 18:19:37.452877 26387 net.cpp:129] Top shape: 1 26 24 (624)
I0222 18:19:37.452880 26387 net.cpp:137] Memory required for data: 367744
I0222 18:19:37.452883 26387 layer_factory.hpp:77] Creating layer lstm1_transform_2
I0222 18:19:37.452888 26387 net.cpp:84] Creating Layer lstm1_transform_2
I0222 18:19:37.452893 26387 net.cpp:406] lstm1_transform_2 <- h_conted_1
I0222 18:19:37.452896 26387 net.cpp:380] lstm1_transform_2 -> W_hc_h_1
I0222 18:19:37.452930 26387 net.cpp:122] Setting up lstm1_transform_2
I0222 18:19:37.452935 26387 net.cpp:129] Top shape: 1 26 96 (2496)
I0222 18:19:37.452945 26387 net.cpp:137] Memory required for data: 377728
I0222 18:19:37.452949 26387 net.cpp:465] Sharing parameters 'W_hc' owned by layer 'lstm1_transform_1', param index 0
I0222 18:19:37.452952 26387 layer_factory.hpp:77] Creating layer lstm1_gate_input_2
I0222 18:19:37.452956 26387 net.cpp:84] Creating Layer lstm1_gate_input_2
I0222 18:19:37.452960 26387 net.cpp:406] lstm1_gate_input_2 <- W_hc_h_1
I0222 18:19:37.452963 26387 net.cpp:406] lstm1_gate_input_2 <- W_xc_x_2
I0222 18:19:37.452967 26387 net.cpp:380] lstm1_gate_input_2 -> gate_input_2
I0222 18:19:37.452981 26387 net.cpp:122] Setting up lstm1_gate_input_2
I0222 18:19:37.452986 26387 net.cpp:129] Top shape: 1 26 96 (2496)
I0222 18:19:37.452988 26387 net.cpp:137] Memory required for data: 387712
I0222 18:19:37.452992 26387 layer_factory.hpp:77] Creating layer lstm1_unit_2
I0222 18:19:37.452996 26387 net.cpp:84] Creating Layer lstm1_unit_2
I0222 18:19:37.452999 26387 net.cpp:406] lstm1_unit_2 <- c_1
I0222 18:19:37.453002 26387 net.cpp:406] lstm1_unit_2 <- gate_input_2
I0222 18:19:37.453006 26387 net.cpp:406] lstm1_unit_2 <- cont_2_lstm1_cont_slice_1_split_1
I0222 18:19:37.453011 26387 net.cpp:380] lstm1_unit_2 -> c_2
I0222 18:19:37.453016 26387 net.cpp:380] lstm1_unit_2 -> h_2
I0222 18:19:37.453054 26387 net.cpp:122] Setting up lstm1_unit_2
I0222 18:19:37.453059 26387 net.cpp:129] Top shape: 1 26 24 (624)
I0222 18:19:37.453063 26387 net.cpp:129] Top shape: 1 26 24 (624)
I0222 18:19:37.453064 26387 net.cpp:137] Memory required for data: 392704
I0222 18:19:37.453068 26387 layer_factory.hpp:77] Creating layer h_2_lstm1_unit_2_1_split
I0222 18:19:37.453070 26387 net.cpp:84] Creating Layer h_2_lstm1_unit_2_1_split
I0222 18:19:37.453073 26387 net.cpp:406] h_2_lstm1_unit_2_1_split <- h_2
I0222 18:19:37.453076 26387 net.cpp:380] h_2_lstm1_unit_2_1_split -> h_2_lstm1_unit_2_1_split_0
I0222 18:19:37.453080 26387 net.cpp:380] h_2_lstm1_unit_2_1_split -> h_2_lstm1_unit_2_1_split_1
I0222 18:19:37.453128 26387 net.cpp:122] Setting up h_2_lstm1_unit_2_1_split
I0222 18:19:37.453135 26387 net.cpp:129] Top shape: 1 26 24 (624)
I0222 18:19:37.453138 26387 net.cpp:129] Top shape: 1 26 24 (624)
I0222 18:19:37.453141 26387 net.cpp:137] Memory required for data: 397696
I0222 18:19:37.453145 26387 layer_factory.hpp:77] Creating layer lstm1_h_conted_2
I0222 18:19:37.453150 26387 net.cpp:84] Creating Layer lstm1_h_conted_2
I0222 18:19:37.453152 26387 net.cpp:406] lstm1_h_conted_2 <- h_2_lstm1_unit_2_1_split_0
I0222 18:19:37.453156 26387 net.cpp:406] lstm1_h_conted_2 <- cont_3_lstm1_cont_slice_2_split_0
I0222 18:19:37.453161 26387 net.cpp:380] lstm1_h_conted_2 -> h_conted_2
I0222 18:19:37.453191 26387 net.cpp:122] Setting up lstm1_h_conted_2
I0222 18:19:37.453197 26387 net.cpp:129] Top shape: 1 26 24 (624)
I0222 18:19:37.453198 26387 net.cpp:137] Memory required for data: 400192
I0222 18:19:37.453202 26387 layer_factory.hpp:77] Creating layer lstm1_transform_3
I0222 18:19:37.453210 26387 net.cpp:84] Creating Layer lstm1_transform_3
I0222 18:19:37.453214 26387 net.cpp:406] lstm1_transform_3 <- h_conted_2
I0222 18:19:37.453219 26387 net.cpp:380] lstm1_transform_3 -> W_hc_h_2
I0222 18:19:37.453255 26387 net.cpp:122] Setting up lstm1_transform_3
I0222 18:19:37.453260 26387 net.cpp:129] Top shape: 1 26 96 (2496)
I0222 18:19:37.453263 26387 net.cpp:137] Memory required for data: 410176
I0222 18:19:37.453267 26387 net.cpp:465] Sharing parameters 'W_hc' owned by layer 'lstm1_transform_1', param index 0
I0222 18:19:37.453271 26387 layer_factory.hpp:77] Creating layer lstm1_gate_input_3
I0222 18:19:37.453276 26387 net.cpp:84] Creating Layer lstm1_gate_input_3
I0222 18:19:37.453279 26387 net.cpp:406] lstm1_gate_input_3 <- W_hc_h_2
I0222 18:19:37.453284 26387 net.cpp:406] lstm1_gate_input_3 <- W_xc_x_3
I0222 18:19:37.453287 26387 net.cpp:380] lstm1_gate_input_3 -> gate_input_3
I0222 18:19:37.453301 26387 net.cpp:122] Setting up lstm1_gate_input_3
I0222 18:19:37.453306 26387 net.cpp:129] Top shape: 1 26 96 (2496)
I0222 18:19:37.453310 26387 net.cpp:137] Memory required for data: 420160
I0222 18:19:37.453316 26387 layer_factory.hpp:77] Creating layer lstm1_unit_3
I0222 18:19:37.453321 26387 net.cpp:84] Creating Layer lstm1_unit_3
I0222 18:19:37.453325 26387 net.cpp:406] lstm1_unit_3 <- c_2
I0222 18:19:37.453330 26387 net.cpp:406] lstm1_unit_3 <- gate_input_3
I0222 18:19:37.453332 26387 net.cpp:406] lstm1_unit_3 <- cont_3_lstm1_cont_slice_2_split_1
I0222 18:19:37.453336 26387 net.cpp:380] lstm1_unit_3 -> c_3
I0222 18:19:37.453341 26387 net.cpp:380] lstm1_unit_3 -> h_3
I0222 18:19:37.453382 26387 net.cpp:122] Setting up lstm1_unit_3
I0222 18:19:37.482213 26387 net.cpp:129] Top shape: 1 26 24 (624)
I0222 18:19:37.482219 26387 net.cpp:129] Top shape: 1 26 24 (624)
I0222 18:19:37.482245 26387 net.cpp:137] Memory required for data: 425152
I0222 18:19:37.482249 26387 layer_factory.hpp:77] Creating layer h_3_lstm1_unit_3_1_split
I0222 18:19:37.482254 26387 net.cpp:84] Creating Layer h_3_lstm1_unit_3_1_split
I0222 18:19:37.482257 26387 net.cpp:406] h_3_lstm1_unit_3_1_split <- h_3
I0222 18:19:37.482261 26387 net.cpp:380] h_3_lstm1_unit_3_1_split -> h_3_lstm1_unit_3_1_split_0
I0222 18:19:37.482267 26387 net.cpp:380] h_3_lstm1_unit_3_1_split -> h_3_lstm1_unit_3_1_split_1
I0222 18:19:37.482295 26387 net.cpp:122] Setting up h_3_lstm1_unit_3_1_split
I0222 18:19:37.482313 26387 net.cpp:129] Top shape: 1 26 24 (624)
I0222 18:19:37.482317 26387 net.cpp:129] Top shape: 1 26 24 (624)
I0222 18:19:37.482319 26387 net.cpp:137] Memory required for data: 430144
I0222 18:19:37.482337 26387 layer_factory.hpp:77] Creating layer lstm1_h_conted_3
I0222 18:19:37.482342 26387 net.cpp:84] Creating Layer lstm1_h_conted_3
I0222 18:19:37.482344 26387 net.cpp:406] lstm1_h_conted_3 <- h_3_lstm1_unit_3_1_split_0
I0222 18:19:37.482348 26387 net.cpp:406] lstm1_h_conted_3 <- cont_4_lstm1_cont_slice_3_split_0
I0222 18:19:37.482352 26387 net.cpp:380] lstm1_h_conted_3 -> h_conted_3
I0222 18:19:37.482399 26387 net.cpp:122] Setting up lstm1_h_conted_3
I0222 18:19:37.482404 26387 net.cpp:129] Top shape: 1 26 24 (624)
I0222 18:19:37.482422 26387 net.cpp:137] Memory required for data: 432640
I0222 18:19:37.482424 26387 layer_factory.hpp:77] Creating layer lstm1_transform_4
I0222 18:19:37.482429 26387 net.cpp:84] Creating Layer lstm1_transform_4
I0222 18:19:37.482432 26387 net.cpp:406] lstm1_transform_4 <- h_conted_3
I0222 18:19:37.482437 26387 net.cpp:380] lstm1_transform_4 -> W_hc_h_3
I0222 18:19:37.482503 26387 net.cpp:122] Setting up lstm1_transform_4
I0222 18:19:37.482508 26387 net.cpp:129] Top shape: 1 26 96 (2496)
I0222 18:19:37.482523 26387 net.cpp:137] Memory required for data: 442624
I0222 18:19:37.482527 26387 net.cpp:465] Sharing parameters 'W_hc' owned by layer 'lstm1_transform_1', param index 0
I0222 18:19:37.482529 26387 layer_factory.hpp:77] Creating layer lstm1_gate_input_4
I0222 18:19:37.482548 26387 net.cpp:84] Creating Layer lstm1_gate_input_4
I0222 18:19:37.482553 26387 net.cpp:406] lstm1_gate_input_4 <- W_hc_h_3
I0222 18:19:37.482556 26387 net.cpp:406] lstm1_gate_input_4 <- W_xc_x_4
I0222 18:19:37.482560 26387 net.cpp:380] lstm1_gate_input_4 -> gate_input_4
I0222 18:19:37.482573 26387 net.cpp:122] Setting up lstm1_gate_input_4
I0222 18:19:37.482578 26387 net.cpp:129] Top shape: 1 26 96 (2496)
I0222 18:19:37.482580 26387 net.cpp:137] Memory required for data: 452608
I0222 18:19:37.482583 26387 layer_factory.hpp:77] Creating layer lstm1_unit_4
I0222 18:19:37.482589 26387 net.cpp:84] Creating Layer lstm1_unit_4
I0222 18:19:37.482592 26387 net.cpp:406] lstm1_unit_4 <- c_3
I0222 18:19:37.482596 26387 net.cpp:406] lstm1_unit_4 <- gate_input_4
I0222 18:19:37.482599 26387 net.cpp:406] lstm1_unit_4 <- cont_4_lstm1_cont_slice_3_split_1
I0222 18:19:37.482604 26387 net.cpp:380] lstm1_unit_4 -> c_4
I0222 18:19:37.482609 26387 net.cpp:380] lstm1_unit_4 -> h_4
I0222 18:19:37.482632 26387 net.cpp:122] Setting up lstm1_unit_4
I0222 18:19:37.482636 26387 net.cpp:129] Top shape: 1 26 24 (624)
I0222 18:19:37.482640 26387 net.cpp:129] Top shape: 1 26 24 (624)
I0222 18:19:37.482643 26387 net.cpp:137] Memory required for data: 457600
I0222 18:19:37.482652 26387 layer_factory.hpp:77] Creating layer h_4_lstm1_unit_4_1_split
I0222 18:19:37.482658 26387 net.cpp:84] Creating Layer h_4_lstm1_unit_4_1_split
I0222 18:19:37.482662 26387 net.cpp:406] h_4_lstm1_unit_4_1_split <- h_4
I0222 18:19:37.482666 26387 net.cpp:380] h_4_lstm1_unit_4_1_split -> h_4_lstm1_unit_4_1_split_0
I0222 18:19:37.482671 26387 net.cpp:380] h_4_lstm1_unit_4_1_split -> h_4_lstm1_unit_4_1_split_1
I0222 18:19:37.482691 26387 net.cpp:122] Setting up h_4_lstm1_unit_4_1_split
I0222 18:19:37.482695 26387 net.cpp:129] Top shape: 1 26 24 (624)
I0222 18:19:37.482698 26387 net.cpp:129] Top shape: 1 26 24 (624)
I0222 18:19:37.482702 26387 net.cpp:137] Memory required for data: 462592
I0222 18:19:37.482704 26387 layer_factory.hpp:77] Creating layer lstm1_h_conted_4
I0222 18:19:37.482708 26387 net.cpp:84] Creating Layer lstm1_h_conted_4
I0222 18:19:37.482713 26387 net.cpp:406] lstm1_h_conted_4 <- h_4_lstm1_unit_4_1_split_0
I0222 18:19:37.482717 26387 net.cpp:406] lstm1_h_conted_4 <- cont_5_lstm1_cont_slice_4_split_0
I0222 18:19:37.482722 26387 net.cpp:380] lstm1_h_conted_4 -> h_conted_4
I0222 18:19:37.482751 26387 net.cpp:122] Setting up lstm1_h_conted_4
I0222 18:19:37.482756 26387 net.cpp:129] Top shape: 1 26 24 (624)
I0222 18:19:37.482759 26387 net.cpp:137] Memory required for data: 465088
I0222 18:19:37.482762 26387 layer_factory.hpp:77] Creating layer lstm1_transform_5
I0222 18:19:37.482766 26387 net.cpp:84] Creating Layer lstm1_transform_5
I0222 18:19:37.482770 26387 net.cpp:406] lstm1_transform_5 <- h_conted_4
I0222 18:19:37.482774 26387 net.cpp:380] lstm1_transform_5 -> W_hc_h_4
I0222 18:19:37.482810 26387 net.cpp:122] Setting up lstm1_transform_5
I0222 18:19:37.482815 26387 net.cpp:129] Top shape: 1 26 96 (2496)
I0222 18:19:37.482817 26387 net.cpp:137] Memory required for data: 475072
I0222 18:19:37.482820 26387 net.cpp:465] Sharing parameters 'W_hc' owned by layer 'lstm1_transform_1', param index 0
I0222 18:19:37.482825 26387 layer_factory.hpp:77] Creating layer lstm1_gate_input_5
I0222 18:19:37.482830 26387 net.cpp:84] Creating Layer lstm1_gate_input_5
I0222 18:19:37.482832 26387 net.cpp:406] lstm1_gate_input_5 <- W_hc_h_4
I0222 18:19:37.482836 26387 net.cpp:406] lstm1_gate_input_5 <- W_xc_x_5
I0222 18:19:37.482841 26387 net.cpp:380] lstm1_gate_input_5 -> gate_input_5
I0222 18:19:37.482853 26387 net.cpp:122] Setting up lstm1_gate_input_5
I0222 18:19:37.482857 26387 net.cpp:129] Top shape: 1 26 96 (2496)
I0222 18:19:37.482861 26387 net.cpp:137] Memory required for data: 485056
I0222 18:19:37.482863 26387 layer_factory.hpp:77] Creating layer lstm1_unit_5
I0222 18:19:37.482868 26387 net.cpp:84] Creating Layer lstm1_unit_5
I0222 18:19:37.482872 26387 net.cpp:406] lstm1_unit_5 <- c_4
I0222 18:19:37.482877 26387 net.cpp:406] lstm1_unit_5 <- gate_input_5
I0222 18:19:37.482879 26387 net.cpp:406] lstm1_unit_5 <- cont_5_lstm1_cont_slice_4_split_1
I0222 18:19:37.482883 26387 net.cpp:380] lstm1_unit_5 -> c_5
I0222 18:19:37.482888 26387 net.cpp:380] lstm1_unit_5 -> h_5
I0222 18:19:37.482911 26387 net.cpp:122] Setting up lstm1_unit_5
I0222 18:19:37.482915 26387 net.cpp:129] Top shape: 1 26 24 (624)
I0222 18:19:37.482919 26387 net.cpp:129] Top shape: 1 26 24 (624)
I0222 18:19:37.482923 26387 net.cpp:137] Memory required for data: 490048
I0222 18:19:37.482925 26387 layer_factory.hpp:77] Creating layer h_5_lstm1_unit_5_1_split
I0222 18:19:37.482929 26387 net.cpp:84] Creating Layer h_5_lstm1_unit_5_1_split
I0222 18:19:37.482933 26387 net.cpp:406] h_5_lstm1_unit_5_1_split <- h_5
I0222 18:19:37.482936 26387 net.cpp:380] h_5_lstm1_unit_5_1_split -> h_5_lstm1_unit_5_1_split_0
I0222 18:19:37.482942 26387 net.cpp:380] h_5_lstm1_unit_5_1_split -> h_5_lstm1_unit_5_1_split_1
I0222 18:19:37.482959 26387 net.cpp:122] Setting up h_5_lstm1_unit_5_1_split
I0222 18:19:37.482964 26387 net.cpp:129] Top shape: 1 26 24 (624)
I0222 18:19:37.482966 26387 net.cpp:129] Top shape: 1 26 24 (624)
I0222 18:19:37.482969 26387 net.cpp:137] Memory required for data: 495040
I0222 18:19:37.482972 26387 layer_factory.hpp:77] Creating layer lstm1_h_conted_5
I0222 18:19:37.482982 26387 net.cpp:84] Creating Layer lstm1_h_conted_5
I0222 18:19:37.482986 26387 net.cpp:406] lstm1_h_conted_5 <- h_5_lstm1_unit_5_1_split_0
I0222 18:19:37.482990 26387 net.cpp:406] lstm1_h_conted_5 <- cont_6_lstm1_cont_slice_5_split_0
I0222 18:19:37.482995 26387 net.cpp:380] lstm1_h_conted_5 -> h_conted_5
I0222 18:19:37.483026 26387 net.cpp:122] Setting up lstm1_h_conted_5
I0222 18:19:37.485273 26387 net.cpp:129] Top shape: 1 26 24 (624)
I0222 18:19:37.485280 26387 net.cpp:137] Memory required for data: 497536
I0222 18:19:37.485283 26387 layer_factory.hpp:77] Creating layer lstm1_transform_6
I0222 18:19:37.485289 26387 net.cpp:84] Creating Layer lstm1_transform_6
I0222 18:19:37.485293 26387 net.cpp:406] lstm1_transform_6 <- h_conted_5
I0222 18:19:37.485298 26387 net.cpp:380] lstm1_transform_6 -> W_hc_h_5
I0222 18:19:37.485347 26387 net.cpp:122] Setting up lstm1_transform_6
I0222 18:19:37.485352 26387 net.cpp:129] Top shape: 1 26 96 (2496)
I0222 18:19:37.485379 26387 net.cpp:137] Memory required for data: 507520
I0222 18:19:37.485384 26387 net.cpp:465] Sharing parameters 'W_hc' owned by layer 'lstm1_transform_1', param index 0
I0222 18:19:37.485388 26387 layer_factory.hpp:77] Creating layer lstm1_gate_input_6
I0222 18:19:37.485394 26387 net.cpp:84] Creating Layer lstm1_gate_input_6
I0222 18:19:37.485397 26387 net.cpp:406] lstm1_gate_input_6 <- W_hc_h_5
I0222 18:19:37.485401 26387 net.cpp:406] lstm1_gate_input_6 <- W_xc_x_6
I0222 18:19:37.485420 26387 net.cpp:380] lstm1_gate_input_6 -> gate_input_6
I0222 18:19:37.485435 26387 net.cpp:122] Setting up lstm1_gate_input_6
I0222 18:19:37.485440 26387 net.cpp:129] Top shape: 1 26 96 (2496)
I0222 18:19:37.485443 26387 net.cpp:137] Memory required for data: 517504
I0222 18:19:37.485446 26387 layer_factory.hpp:77] Creating layer lstm1_unit_6
I0222 18:19:37.485450 26387 net.cpp:84] Creating Layer lstm1_unit_6
I0222 18:19:37.485455 26387 net.cpp:406] lstm1_unit_6 <- c_5
I0222 18:19:37.485458 26387 net.cpp:406] lstm1_unit_6 <- gate_input_6
I0222 18:19:37.485461 26387 net.cpp:406] lstm1_unit_6 <- cont_6_lstm1_cont_slice_5_split_1
I0222 18:19:37.485467 26387 net.cpp:380] lstm1_unit_6 -> c_6
I0222 18:19:37.485472 26387 net.cpp:380] lstm1_unit_6 -> h_6
I0222 18:19:37.485497 26387 net.cpp:122] Setting up lstm1_unit_6
I0222 18:19:37.485502 26387 net.cpp:129] Top shape: 1 26 24 (624)
I0222 18:19:37.485505 26387 net.cpp:129] Top shape: 1 26 24 (624)
I0222 18:19:37.485508 26387 net.cpp:137] Memory required for data: 522496
I0222 18:19:37.485512 26387 layer_factory.hpp:77] Creating layer h_6_lstm1_unit_6_1_split
I0222 18:19:37.485515 26387 net.cpp:84] Creating Layer h_6_lstm1_unit_6_1_split
I0222 18:19:37.485518 26387 net.cpp:406] h_6_lstm1_unit_6_1_split <- h_6
I0222 18:19:37.485522 26387 net.cpp:380] h_6_lstm1_unit_6_1_split -> h_6_lstm1_unit_6_1_split_0
I0222 18:19:37.485527 26387 net.cpp:380] h_6_lstm1_unit_6_1_split -> h_6_lstm1_unit_6_1_split_1
I0222 18:19:37.485546 26387 net.cpp:122] Setting up h_6_lstm1_unit_6_1_split
I0222 18:19:37.485550 26387 net.cpp:129] Top shape: 1 26 24 (624)
I0222 18:19:37.485554 26387 net.cpp:129] Top shape: 1 26 24 (624)
I0222 18:19:37.485558 26387 net.cpp:137] Memory required for data: 527488
I0222 18:19:37.485560 26387 layer_factory.hpp:77] Creating layer lstm1_h_conted_6
I0222 18:19:37.485564 26387 net.cpp:84] Creating Layer lstm1_h_conted_6
I0222 18:19:37.485569 26387 net.cpp:406] lstm1_h_conted_6 <- h_6_lstm1_unit_6_1_split_0
I0222 18:19:37.485571 26387 net.cpp:406] lstm1_h_conted_6 <- cont_7_lstm1_cont_slice_6_split_0
I0222 18:19:37.485576 26387 net.cpp:380] lstm1_h_conted_6 -> h_conted_6
I0222 18:19:37.485607 26387 net.cpp:122] Setting up lstm1_h_conted_6
I0222 18:19:37.485612 26387 net.cpp:129] Top shape: 1 26 24 (624)
I0222 18:19:37.485615 26387 net.cpp:137] Memory required for data: 529984
I0222 18:19:37.485618 26387 layer_factory.hpp:77] Creating layer lstm1_transform_7
I0222 18:19:37.485625 26387 net.cpp:84] Creating Layer lstm1_transform_7
I0222 18:19:37.485627 26387 net.cpp:406] lstm1_transform_7 <- h_conted_6
I0222 18:19:37.485638 26387 net.cpp:380] lstm1_transform_7 -> W_hc_h_6
I0222 18:19:37.485677 26387 net.cpp:122] Setting up lstm1_transform_7
I0222 18:19:37.485682 26387 net.cpp:129] Top shape: 1 26 96 (2496)
I0222 18:19:37.485684 26387 net.cpp:137] Memory required for data: 539968
I0222 18:19:37.485690 26387 net.cpp:465] Sharing parameters 'W_hc' owned by layer 'lstm1_transform_1', param index 0
I0222 18:19:37.485694 26387 layer_factory.hpp:77] Creating layer lstm1_gate_input_7
I0222 18:19:37.485698 26387 net.cpp:84] Creating Layer lstm1_gate_input_7
I0222 18:19:37.485702 26387 net.cpp:406] lstm1_gate_input_7 <- W_hc_h_6
I0222 18:19:37.485707 26387 net.cpp:406] lstm1_gate_input_7 <- W_xc_x_7
I0222 18:19:37.485711 26387 net.cpp:380] lstm1_gate_input_7 -> gate_input_7
I0222 18:19:37.485724 26387 net.cpp:122] Setting up lstm1_gate_input_7
I0222 18:19:37.485729 26387 net.cpp:129] Top shape: 1 26 96 (2496)
I0222 18:19:37.485733 26387 net.cpp:137] Memory required for data: 549952
I0222 18:19:37.485735 26387 layer_factory.hpp:77] Creating layer lstm1_unit_7
I0222 18:19:37.485739 26387 net.cpp:84] Creating Layer lstm1_unit_7
I0222 18:19:37.485743 26387 net.cpp:406] lstm1_unit_7 <- c_6
I0222 18:19:37.485746 26387 net.cpp:406] lstm1_unit_7 <- gate_input_7
I0222 18:19:37.485750 26387 net.cpp:406] lstm1_unit_7 <- cont_7_lstm1_cont_slice_6_split_1
I0222 18:19:37.485754 26387 net.cpp:380] lstm1_unit_7 -> c_7
I0222 18:19:37.485759 26387 net.cpp:380] lstm1_unit_7 -> h_7
I0222 18:19:37.485781 26387 net.cpp:122] Setting up lstm1_unit_7
I0222 18:19:37.485786 26387 net.cpp:129] Top shape: 1 26 24 (624)
I0222 18:19:37.485790 26387 net.cpp:129] Top shape: 1 26 24 (624)
I0222 18:19:37.485793 26387 net.cpp:137] Memory required for data: 554944
I0222 18:19:37.485796 26387 layer_factory.hpp:77] Creating layer h_7_lstm1_unit_7_1_split
I0222 18:19:37.485800 26387 net.cpp:84] Creating Layer h_7_lstm1_unit_7_1_split
I0222 18:19:37.485803 26387 net.cpp:406] h_7_lstm1_unit_7_1_split <- h_7
I0222 18:19:37.485807 26387 net.cpp:380] h_7_lstm1_unit_7_1_split -> h_7_lstm1_unit_7_1_split_0
I0222 18:19:37.485812 26387 net.cpp:380] h_7_lstm1_unit_7_1_split -> h_7_lstm1_unit_7_1_split_1
I0222 18:19:37.485829 26387 net.cpp:122] Setting up h_7_lstm1_unit_7_1_split
I0222 18:19:37.485833 26387 net.cpp:129] Top shape: 1 26 24 (624)
I0222 18:19:37.485837 26387 net.cpp:129] Top shape: 1 26 24 (624)
I0222 18:19:37.485841 26387 net.cpp:137] Memory required for data: 559936
I0222 18:19:37.485843 26387 layer_factory.hpp:77] Creating layer lstm1_h_conted_7
I0222 18:19:37.485847 26387 net.cpp:84] Creating Layer lstm1_h_conted_7
I0222 18:19:37.485851 26387 net.cpp:406] lstm1_h_conted_7 <- h_7_lstm1_unit_7_1_split_0
I0222 18:19:37.485854 26387 net.cpp:406] lstm1_h_conted_7 <- cont_8_lstm1_cont_slice_7_split_0
I0222 18:19:37.485862 26387 net.cpp:380] lstm1_h_conted_7 -> h_conted_7
I0222 18:19:37.485893 26387 net.cpp:122] Setting up lstm1_h_conted_7
I0222 18:19:37.485898 26387 net.cpp:129] Top shape: 1 26 24 (624)
I0222 18:19:37.485901 26387 net.cpp:137] Memory required for data: 562432
I0222 18:19:37.485904 26387 layer_factory.hpp:77] Creating layer lstm1_transform_8
I0222 18:19:37.485908 26387 net.cpp:84] Creating Layer lstm1_transform_8
I0222 18:19:37.485913 26387 net.cpp:406] lstm1_transform_8 <- h_conted_7
I0222 18:19:37.485918 26387 net.cpp:380] lstm1_transform_8 -> W_hc_h_7
I0222 18:19:37.485951 26387 net.cpp:122] Setting up lstm1_transform_8
I0222 18:19:37.485956 26387 net.cpp:129] Top shape: 1 26 96 (2496)
I0222 18:19:37.485960 26387 net.cpp:137] Memory required for data: 572416
I0222 18:19:37.485962 26387 net.cpp:465] Sharing parameters 'W_hc' owned by layer 'lstm1_transform_1', param index 0
I0222 18:19:37.485966 26387 layer_factory.hpp:77] Creating layer lstm1_gate_input_8
I0222 18:19:37.485970 26387 net.cpp:84] Creating Layer lstm1_gate_input_8
I0222 18:19:37.485973 26387 net.cpp:406] lstm1_gate_input_8 <- W_hc_h_7
I0222 18:19:37.485977 26387 net.cpp:406] lstm1_gate_input_8 <- W_xc_x_8
I0222 18:19:37.485981 26387 net.cpp:380] lstm1_gate_input_8 -> gate_input_8
I0222 18:19:37.486001 26387 net.cpp:122] Setting up lstm1_gate_input_8
I0222 18:19:37.486006 26387 net.cpp:129] Top shape: 1 26 96 (2496)
I0222 18:19:37.486008 26387 net.cpp:137] Memory required for data: 582400
I0222 18:19:37.486011 26387 layer_factory.hpp:77] Creating layer lstm1_unit_8
I0222 18:19:37.512471 26387 net.cpp:84] Creating Layer lstm1_unit_8
I0222 18:19:37.512480 26387 net.cpp:406] lstm1_unit_8 <- c_7
I0222 18:19:37.512483 26387 net.cpp:406] lstm1_unit_8 <- gate_input_8
I0222 18:19:37.512490 26387 net.cpp:406] lstm1_unit_8 <- cont_8_lstm1_cont_slice_7_split_1
I0222 18:19:37.512493 26387 net.cpp:380] lstm1_unit_8 -> c_8
I0222 18:19:37.512500 26387 net.cpp:380] lstm1_unit_8 -> h_8
I0222 18:19:37.512532 26387 net.cpp:122] Setting up lstm1_unit_8
I0222 18:19:37.512538 26387 net.cpp:129] Top shape: 1 26 24 (624)
I0222 18:19:37.512542 26387 net.cpp:129] Top shape: 1 26 24 (624)
I0222 18:19:37.512543 26387 net.cpp:137] Memory required for data: 587392
I0222 18:19:37.512547 26387 layer_factory.hpp:77] Creating layer h_8_lstm1_unit_8_1_split
I0222 18:19:37.512552 26387 net.cpp:84] Creating Layer h_8_lstm1_unit_8_1_split
I0222 18:19:37.512553 26387 net.cpp:406] h_8_lstm1_unit_8_1_split <- h_8
I0222 18:19:37.512557 26387 net.cpp:380] h_8_lstm1_unit_8_1_split -> h_8_lstm1_unit_8_1_split_0
I0222 18:19:37.512562 26387 net.cpp:380] h_8_lstm1_unit_8_1_split -> h_8_lstm1_unit_8_1_split_1
I0222 18:19:37.512581 26387 net.cpp:122] Setting up h_8_lstm1_unit_8_1_split
I0222 18:19:37.512588 26387 net.cpp:129] Top shape: 1 26 24 (624)
I0222 18:19:37.512590 26387 net.cpp:129] Top shape: 1 26 24 (624)
I0222 18:19:37.512593 26387 net.cpp:137] Memory required for data: 592384
I0222 18:19:37.512596 26387 layer_factory.hpp:77] Creating layer lstm1_h_conted_8
I0222 18:19:37.512600 26387 net.cpp:84] Creating Layer lstm1_h_conted_8
I0222 18:19:37.512603 26387 net.cpp:406] lstm1_h_conted_8 <- h_8_lstm1_unit_8_1_split_0
I0222 18:19:37.512607 26387 net.cpp:406] lstm1_h_conted_8 <- cont_9_lstm1_cont_slice_8_split_0
I0222 18:19:37.512611 26387 net.cpp:380] lstm1_h_conted_8 -> h_conted_8
I0222 18:19:37.512643 26387 net.cpp:122] Setting up lstm1_h_conted_8
I0222 18:19:37.512650 26387 net.cpp:129] Top shape: 1 26 24 (624)
I0222 18:19:37.512652 26387 net.cpp:137] Memory required for data: 594880
I0222 18:19:37.512655 26387 layer_factory.hpp:77] Creating layer lstm1_transform_9
I0222 18:19:37.512660 26387 net.cpp:84] Creating Layer lstm1_transform_9
I0222 18:19:37.512663 26387 net.cpp:406] lstm1_transform_9 <- h_conted_8
I0222 18:19:37.512668 26387 net.cpp:380] lstm1_transform_9 -> W_hc_h_8
I0222 18:19:37.512706 26387 net.cpp:122] Setting up lstm1_transform_9
I0222 18:19:37.512712 26387 net.cpp:129] Top shape: 1 26 96 (2496)
I0222 18:19:37.512714 26387 net.cpp:137] Memory required for data: 604864
I0222 18:19:37.512717 26387 net.cpp:465] Sharing parameters 'W_hc' owned by layer 'lstm1_transform_1', param index 0
I0222 18:19:37.512722 26387 layer_factory.hpp:77] Creating layer lstm1_gate_input_9
I0222 18:19:37.512725 26387 net.cpp:84] Creating Layer lstm1_gate_input_9
I0222 18:19:37.512729 26387 net.cpp:406] lstm1_gate_input_9 <- W_hc_h_8
I0222 18:19:37.512733 26387 net.cpp:406] lstm1_gate_input_9 <- W_xc_x_9
I0222 18:19:37.512737 26387 net.cpp:380] lstm1_gate_input_9 -> gate_input_9
I0222 18:19:37.512750 26387 net.cpp:122] Setting up lstm1_gate_input_9
I0222 18:19:37.512755 26387 net.cpp:129] Top shape: 1 26 96 (2496)
I0222 18:19:37.512758 26387 net.cpp:137] Memory required for data: 614848
I0222 18:19:37.512761 26387 layer_factory.hpp:77] Creating layer lstm1_unit_9
I0222 18:19:37.512771 26387 net.cpp:84] Creating Layer lstm1_unit_9
I0222 18:19:37.512774 26387 net.cpp:406] lstm1_unit_9 <- c_8
I0222 18:19:37.512779 26387 net.cpp:406] lstm1_unit_9 <- gate_input_9
I0222 18:19:37.512782 26387 net.cpp:406] lstm1_unit_9 <- cont_9_lstm1_cont_slice_8_split_1
I0222 18:19:37.512787 26387 net.cpp:380] lstm1_unit_9 -> c_9
I0222 18:19:37.512799 26387 net.cpp:380] lstm1_unit_9 -> h_9
I0222 18:19:37.512825 26387 net.cpp:122] Setting up lstm1_unit_9
I0222 18:19:37.512835 26387 net.cpp:129] Top shape: 1 26 24 (624)
I0222 18:19:37.512840 26387 net.cpp:129] Top shape: 1 26 24 (624)
I0222 18:19:37.512843 26387 net.cpp:137] Memory required for data: 619840
I0222 18:19:37.512846 26387 layer_factory.hpp:77] Creating layer h_9_lstm1_unit_9_1_split
I0222 18:19:37.512851 26387 net.cpp:84] Creating Layer h_9_lstm1_unit_9_1_split
I0222 18:19:37.512856 26387 net.cpp:406] h_9_lstm1_unit_9_1_split <- h_9
I0222 18:19:37.512859 26387 net.cpp:380] h_9_lstm1_unit_9_1_split -> h_9_lstm1_unit_9_1_split_0
I0222 18:19:37.512866 26387 net.cpp:380] h_9_lstm1_unit_9_1_split -> h_9_lstm1_unit_9_1_split_1
I0222 18:19:37.512883 26387 net.cpp:122] Setting up h_9_lstm1_unit_9_1_split
I0222 18:19:37.512888 26387 net.cpp:129] Top shape: 1 26 24 (624)
I0222 18:19:37.512892 26387 net.cpp:129] Top shape: 1 26 24 (624)
I0222 18:19:37.512894 26387 net.cpp:137] Memory required for data: 624832
I0222 18:19:37.512898 26387 layer_factory.hpp:77] Creating layer lstm1_h_conted_9
I0222 18:19:37.512902 26387 net.cpp:84] Creating Layer lstm1_h_conted_9
I0222 18:19:37.512905 26387 net.cpp:406] lstm1_h_conted_9 <- h_9_lstm1_unit_9_1_split_0
I0222 18:19:37.512909 26387 net.cpp:406] lstm1_h_conted_9 <- cont_10_lstm1_cont_slice_9_split_0
I0222 18:19:37.512913 26387 net.cpp:380] lstm1_h_conted_9 -> h_conted_9
I0222 18:19:37.512944 26387 net.cpp:122] Setting up lstm1_h_conted_9
I0222 18:19:37.512949 26387 net.cpp:129] Top shape: 1 26 24 (624)
I0222 18:19:37.512953 26387 net.cpp:137] Memory required for data: 627328
I0222 18:19:37.512955 26387 layer_factory.hpp:77] Creating layer lstm1_transform_10
I0222 18:19:37.512959 26387 net.cpp:84] Creating Layer lstm1_transform_10
I0222 18:19:37.512962 26387 net.cpp:406] lstm1_transform_10 <- h_conted_9
I0222 18:19:37.512969 26387 net.cpp:380] lstm1_transform_10 -> W_hc_h_9
I0222 18:19:37.513005 26387 net.cpp:122] Setting up lstm1_transform_10
I0222 18:19:37.513010 26387 net.cpp:129] Top shape: 1 26 96 (2496)
I0222 18:19:37.513012 26387 net.cpp:137] Memory required for data: 637312
I0222 18:19:37.513015 26387 net.cpp:465] Sharing parameters 'W_hc' owned by layer 'lstm1_transform_1', param index 0
I0222 18:19:37.513020 26387 layer_factory.hpp:77] Creating layer lstm1_gate_input_10
I0222 18:19:37.513023 26387 net.cpp:84] Creating Layer lstm1_gate_input_10
I0222 18:19:37.513027 26387 net.cpp:406] lstm1_gate_input_10 <- W_hc_h_9
I0222 18:19:37.513031 26387 net.cpp:406] lstm1_gate_input_10 <- W_xc_x_10
I0222 18:19:37.513036 26387 net.cpp:380] lstm1_gate_input_10 -> gate_input_10
I0222 18:19:37.513048 26387 net.cpp:122] Setting up lstm1_gate_input_10
I0222 18:19:37.513052 26387 net.cpp:129] Top shape: 1 26 96 (2496)
I0222 18:19:37.513056 26387 net.cpp:137] Memory required for data: 647296
I0222 18:19:37.513058 26387 layer_factory.hpp:77] Creating layer lstm1_unit_10
I0222 18:19:37.513063 26387 net.cpp:84] Creating Layer lstm1_unit_10
I0222 18:19:37.513067 26387 net.cpp:406] lstm1_unit_10 <- c_9
I0222 18:19:37.513070 26387 net.cpp:406] lstm1_unit_10 <- gate_input_10
I0222 18:19:37.513074 26387 net.cpp:406] lstm1_unit_10 <- cont_10_lstm1_cont_slice_9_split_1
I0222 18:19:37.513078 26387 net.cpp:380] lstm1_unit_10 -> c_10
I0222 18:19:37.513083 26387 net.cpp:380] lstm1_unit_10 -> h_10
I0222 18:19:37.513106 26387 net.cpp:122] Setting up lstm1_unit_10
I0222 18:19:37.513111 26387 net.cpp:129] Top shape: 1 26 24 (624)
I0222 18:19:37.513114 26387 net.cpp:129] Top shape: 1 26 24 (624)
I0222 18:19:37.513118 26387 net.cpp:137] Memory required for data: 652288
I0222 18:19:37.513120 26387 layer_factory.hpp:77] Creating layer h_10_lstm1_unit_10_1_split
I0222 18:19:37.513124 26387 net.cpp:84] Creating Layer h_10_lstm1_unit_10_1_split
I0222 18:19:37.513128 26387 net.cpp:406] h_10_lstm1_unit_10_1_split <- h_10
I0222 18:19:37.513133 26387 net.cpp:380] h_10_lstm1_unit_10_1_split -> h_10_lstm1_unit_10_1_split_0
I0222 18:19:37.513137 26387 net.cpp:380] h_10_lstm1_unit_10_1_split -> h_10_lstm1_unit_10_1_split_1
I0222 18:19:37.513154 26387 net.cpp:122] Setting up h_10_lstm1_unit_10_1_split
I0222 18:19:37.513159 26387 net.cpp:129] Top shape: 1 26 24 (624)
I0222 18:19:37.513166 26387 net.cpp:129] Top shape: 1 26 24 (624)
I0222 18:19:37.515312 26387 net.cpp:137] Memory required for data: 657280
I0222 18:19:37.515319 26387 layer_factory.hpp:77] Creating layer lstm1_h_conted_10
I0222 18:19:37.515348 26387 net.cpp:84] Creating Layer lstm1_h_conted_10
I0222 18:19:37.515353 26387 net.cpp:406] lstm1_h_conted_10 <- h_10_lstm1_unit_10_1_split_0
I0222 18:19:37.515358 26387 net.cpp:406] lstm1_h_conted_10 <- cont_11_lstm1_cont_slice_10_split_0
I0222 18:19:37.515363 26387 net.cpp:380] lstm1_h_conted_10 -> h_conted_10
I0222 18:19:37.515419 26387 net.cpp:122] Setting up lstm1_h_conted_10
I0222 18:19:37.515439 26387 net.cpp:129] Top shape: 1 26 24 (624)
I0222 18:19:37.515441 26387 net.cpp:137] Memory required for data: 659776
I0222 18:19:37.515444 26387 layer_factory.hpp:77] Creating layer lstm1_transform_11
I0222 18:19:37.515462 26387 net.cpp:84] Creating Layer lstm1_transform_11
I0222 18:19:37.515466 26387 net.cpp:406] lstm1_transform_11 <- h_conted_10
I0222 18:19:37.515470 26387 net.cpp:380] lstm1_transform_11 -> W_hc_h_10
I0222 18:19:37.515506 26387 net.cpp:122] Setting up lstm1_transform_11
I0222 18:19:37.515511 26387 net.cpp:129] Top shape: 1 26 96 (2496)
I0222 18:19:37.515514 26387 net.cpp:137] Memory required for data: 669760
I0222 18:19:37.515517 26387 net.cpp:465] Sharing parameters 'W_hc' owned by layer 'lstm1_transform_1', param index 0
I0222 18:19:37.515521 26387 layer_factory.hpp:77] Creating layer lstm1_gate_input_11
I0222 18:19:37.515527 26387 net.cpp:84] Creating Layer lstm1_gate_input_11
I0222 18:19:37.515529 26387 net.cpp:406] lstm1_gate_input_11 <- W_hc_h_10
I0222 18:19:37.515533 26387 net.cpp:406] lstm1_gate_input_11 <- W_xc_x_11
I0222 18:19:37.515537 26387 net.cpp:380] lstm1_gate_input_11 -> gate_input_11
I0222 18:19:37.515550 26387 net.cpp:122] Setting up lstm1_gate_input_11
I0222 18:19:37.515554 26387 net.cpp:129] Top shape: 1 26 96 (2496)
I0222 18:19:37.515558 26387 net.cpp:137] Memory required for data: 679744
I0222 18:19:37.515560 26387 layer_factory.hpp:77] Creating layer lstm1_unit_11
I0222 18:19:37.515565 26387 net.cpp:84] Creating Layer lstm1_unit_11
I0222 18:19:37.515568 26387 net.cpp:406] lstm1_unit_11 <- c_10
I0222 18:19:37.515573 26387 net.cpp:406] lstm1_unit_11 <- gate_input_11
I0222 18:19:37.515575 26387 net.cpp:406] lstm1_unit_11 <- cont_11_lstm1_cont_slice_10_split_1
I0222 18:19:37.515580 26387 net.cpp:380] lstm1_unit_11 -> c_11
I0222 18:19:37.515585 26387 net.cpp:380] lstm1_unit_11 -> h_11
I0222 18:19:37.515609 26387 net.cpp:122] Setting up lstm1_unit_11
I0222 18:19:37.515614 26387 net.cpp:129] Top shape: 1 26 24 (624)
I0222 18:19:37.515617 26387 net.cpp:129] Top shape: 1 26 24 (624)
I0222 18:19:37.515620 26387 net.cpp:137] Memory required for data: 684736
I0222 18:19:37.515622 26387 layer_factory.hpp:77] Creating layer h_11_lstm1_unit_11_1_split
I0222 18:19:37.515627 26387 net.cpp:84] Creating Layer h_11_lstm1_unit_11_1_split
I0222 18:19:37.515630 26387 net.cpp:406] h_11_lstm1_unit_11_1_split <- h_11
I0222 18:19:37.515635 26387 net.cpp:380] h_11_lstm1_unit_11_1_split -> h_11_lstm1_unit_11_1_split_0
I0222 18:19:37.515638 26387 net.cpp:380] h_11_lstm1_unit_11_1_split -> h_11_lstm1_unit_11_1_split_1
I0222 18:19:37.515656 26387 net.cpp:122] Setting up h_11_lstm1_unit_11_1_split
I0222 18:19:37.515661 26387 net.cpp:129] Top shape: 1 26 24 (624)
I0222 18:19:37.515664 26387 net.cpp:129] Top shape: 1 26 24 (624)
I0222 18:19:37.515667 26387 net.cpp:137] Memory required for data: 689728
I0222 18:19:37.515669 26387 layer_factory.hpp:77] Creating layer lstm1_h_conted_11
I0222 18:19:37.515674 26387 net.cpp:84] Creating Layer lstm1_h_conted_11
I0222 18:19:37.515678 26387 net.cpp:406] lstm1_h_conted_11 <- h_11_lstm1_unit_11_1_split_0
I0222 18:19:37.515682 26387 net.cpp:406] lstm1_h_conted_11 <- cont_12_lstm1_cont_slice_11_split_0
I0222 18:19:37.515686 26387 net.cpp:380] lstm1_h_conted_11 -> h_conted_11
I0222 18:19:37.515719 26387 net.cpp:122] Setting up lstm1_h_conted_11
I0222 18:19:37.515724 26387 net.cpp:129] Top shape: 1 26 24 (624)
I0222 18:19:37.515733 26387 net.cpp:137] Memory required for data: 692224
I0222 18:19:37.515736 26387 layer_factory.hpp:77] Creating layer lstm1_transform_12
I0222 18:19:37.515743 26387 net.cpp:84] Creating Layer lstm1_transform_12
I0222 18:19:37.515745 26387 net.cpp:406] lstm1_transform_12 <- h_conted_11
I0222 18:19:37.515750 26387 net.cpp:380] lstm1_transform_12 -> W_hc_h_11
I0222 18:19:37.515786 26387 net.cpp:122] Setting up lstm1_transform_12
I0222 18:19:37.515790 26387 net.cpp:129] Top shape: 1 26 96 (2496)
I0222 18:19:37.515794 26387 net.cpp:137] Memory required for data: 702208
I0222 18:19:37.515797 26387 net.cpp:465] Sharing parameters 'W_hc' owned by layer 'lstm1_transform_1', param index 0
I0222 18:19:37.515800 26387 layer_factory.hpp:77] Creating layer lstm1_gate_input_12
I0222 18:19:37.515805 26387 net.cpp:84] Creating Layer lstm1_gate_input_12
I0222 18:19:37.515807 26387 net.cpp:406] lstm1_gate_input_12 <- W_hc_h_11
I0222 18:19:37.515811 26387 net.cpp:406] lstm1_gate_input_12 <- W_xc_x_12
I0222 18:19:37.515816 26387 net.cpp:380] lstm1_gate_input_12 -> gate_input_12
I0222 18:19:37.515828 26387 net.cpp:122] Setting up lstm1_gate_input_12
I0222 18:19:37.515833 26387 net.cpp:129] Top shape: 1 26 96 (2496)
I0222 18:19:37.515836 26387 net.cpp:137] Memory required for data: 712192
I0222 18:19:37.515838 26387 layer_factory.hpp:77] Creating layer lstm1_unit_12
I0222 18:19:37.515843 26387 net.cpp:84] Creating Layer lstm1_unit_12
I0222 18:19:37.515846 26387 net.cpp:406] lstm1_unit_12 <- c_11
I0222 18:19:37.515851 26387 net.cpp:406] lstm1_unit_12 <- gate_input_12
I0222 18:19:37.515853 26387 net.cpp:406] lstm1_unit_12 <- cont_12_lstm1_cont_slice_11_split_1
I0222 18:19:37.515857 26387 net.cpp:380] lstm1_unit_12 -> c_12
I0222 18:19:37.515862 26387 net.cpp:380] lstm1_unit_12 -> h_12
I0222 18:19:37.515884 26387 net.cpp:122] Setting up lstm1_unit_12
I0222 18:19:37.515889 26387 net.cpp:129] Top shape: 1 26 24 (624)
I0222 18:19:37.515892 26387 net.cpp:129] Top shape: 1 26 24 (624)
I0222 18:19:37.515895 26387 net.cpp:137] Memory required for data: 717184
I0222 18:19:37.515898 26387 layer_factory.hpp:77] Creating layer h_12_lstm1_unit_12_1_split
I0222 18:19:37.515902 26387 net.cpp:84] Creating Layer h_12_lstm1_unit_12_1_split
I0222 18:19:37.515905 26387 net.cpp:406] h_12_lstm1_unit_12_1_split <- h_12
I0222 18:19:37.515909 26387 net.cpp:380] h_12_lstm1_unit_12_1_split -> h_12_lstm1_unit_12_1_split_0
I0222 18:19:37.515914 26387 net.cpp:380] h_12_lstm1_unit_12_1_split -> h_12_lstm1_unit_12_1_split_1
I0222 18:19:37.515931 26387 net.cpp:122] Setting up h_12_lstm1_unit_12_1_split
I0222 18:19:37.515936 26387 net.cpp:129] Top shape: 1 26 24 (624)
I0222 18:19:37.515939 26387 net.cpp:129] Top shape: 1 26 24 (624)
I0222 18:19:37.515943 26387 net.cpp:137] Memory required for data: 722176
I0222 18:19:37.515945 26387 layer_factory.hpp:77] Creating layer lstm1_h_conted_12
I0222 18:19:37.515949 26387 net.cpp:84] Creating Layer lstm1_h_conted_12
I0222 18:19:37.515954 26387 net.cpp:406] lstm1_h_conted_12 <- h_12_lstm1_unit_12_1_split_0
I0222 18:19:37.515956 26387 net.cpp:406] lstm1_h_conted_12 <- cont_13_lstm1_cont_slice_12_split_0
I0222 18:19:37.515961 26387 net.cpp:380] lstm1_h_conted_12 -> h_conted_12
I0222 18:19:37.515990 26387 net.cpp:122] Setting up lstm1_h_conted_12
I0222 18:19:37.515995 26387 net.cpp:129] Top shape: 1 26 24 (624)
I0222 18:19:37.515998 26387 net.cpp:137] Memory required for data: 724672
I0222 18:19:37.516001 26387 layer_factory.hpp:77] Creating layer lstm1_transform_13
I0222 18:19:37.516006 26387 net.cpp:84] Creating Layer lstm1_transform_13
I0222 18:19:37.516010 26387 net.cpp:406] lstm1_transform_13 <- h_conted_12
I0222 18:19:37.516013 26387 net.cpp:380] lstm1_transform_13 -> W_hc_h_12
I0222 18:19:37.516047 26387 net.cpp:122] Setting up lstm1_transform_13
I0222 18:19:37.516052 26387 net.cpp:129] Top shape: 1 26 96 (2496)
I0222 18:19:37.542520 26387 net.cpp:137] Memory required for data: 734656
I0222 18:19:37.542526 26387 net.cpp:465] Sharing parameters 'W_hc' owned by layer 'lstm1_transform_1', param index 0
I0222 18:19:37.542562 26387 layer_factory.hpp:77] Creating layer lstm1_gate_input_13
I0222 18:19:37.542567 26387 net.cpp:84] Creating Layer lstm1_gate_input_13
I0222 18:19:37.542572 26387 net.cpp:406] lstm1_gate_input_13 <- W_hc_h_12
I0222 18:19:37.542575 26387 net.cpp:406] lstm1_gate_input_13 <- W_xc_x_13
I0222 18:19:37.542579 26387 net.cpp:380] lstm1_gate_input_13 -> gate_input_13
I0222 18:19:37.542614 26387 net.cpp:122] Setting up lstm1_gate_input_13
I0222 18:19:37.542620 26387 net.cpp:129] Top shape: 1 26 96 (2496)
I0222 18:19:37.542623 26387 net.cpp:137] Memory required for data: 744640
I0222 18:19:37.542640 26387 layer_factory.hpp:77] Creating layer lstm1_unit_13
I0222 18:19:37.542645 26387 net.cpp:84] Creating Layer lstm1_unit_13
I0222 18:19:37.542649 26387 net.cpp:406] lstm1_unit_13 <- c_12
I0222 18:19:37.542654 26387 net.cpp:406] lstm1_unit_13 <- gate_input_13
I0222 18:19:37.542656 26387 net.cpp:406] lstm1_unit_13 <- cont_13_lstm1_cont_slice_12_split_1
I0222 18:19:37.542660 26387 net.cpp:380] lstm1_unit_13 -> c_13
I0222 18:19:37.542665 26387 net.cpp:380] lstm1_unit_13 -> h_13
I0222 18:19:37.542690 26387 net.cpp:122] Setting up lstm1_unit_13
I0222 18:19:37.542695 26387 net.cpp:129] Top shape: 1 26 24 (624)
I0222 18:19:37.542698 26387 net.cpp:129] Top shape: 1 26 24 (624)
I0222 18:19:37.542701 26387 net.cpp:137] Memory required for data: 749632
I0222 18:19:37.542704 26387 layer_factory.hpp:77] Creating layer h_13_lstm1_unit_13_1_split
I0222 18:19:37.542711 26387 net.cpp:84] Creating Layer h_13_lstm1_unit_13_1_split
I0222 18:19:37.542713 26387 net.cpp:406] h_13_lstm1_unit_13_1_split <- h_13
I0222 18:19:37.542718 26387 net.cpp:380] h_13_lstm1_unit_13_1_split -> h_13_lstm1_unit_13_1_split_0
I0222 18:19:37.542723 26387 net.cpp:380] h_13_lstm1_unit_13_1_split -> h_13_lstm1_unit_13_1_split_1
I0222 18:19:37.542742 26387 net.cpp:122] Setting up h_13_lstm1_unit_13_1_split
I0222 18:19:37.542745 26387 net.cpp:129] Top shape: 1 26 24 (624)
I0222 18:19:37.542749 26387 net.cpp:129] Top shape: 1 26 24 (624)
I0222 18:19:37.542752 26387 net.cpp:137] Memory required for data: 754624
I0222 18:19:37.542755 26387 layer_factory.hpp:77] Creating layer lstm1_h_conted_13
I0222 18:19:37.542759 26387 net.cpp:84] Creating Layer lstm1_h_conted_13
I0222 18:19:37.542763 26387 net.cpp:406] lstm1_h_conted_13 <- h_13_lstm1_unit_13_1_split_0
I0222 18:19:37.542768 26387 net.cpp:406] lstm1_h_conted_13 <- cont_14_lstm1_cont_slice_13_split_0
I0222 18:19:37.542771 26387 net.cpp:380] lstm1_h_conted_13 -> h_conted_13
I0222 18:19:37.542804 26387 net.cpp:122] Setting up lstm1_h_conted_13
I0222 18:19:37.542809 26387 net.cpp:129] Top shape: 1 26 24 (624)
I0222 18:19:37.542812 26387 net.cpp:137] Memory required for data: 757120
I0222 18:19:37.542815 26387 layer_factory.hpp:77] Creating layer lstm1_transform_14
I0222 18:19:37.542820 26387 net.cpp:84] Creating Layer lstm1_transform_14
I0222 18:19:37.542824 26387 net.cpp:406] lstm1_transform_14 <- h_conted_13
I0222 18:19:37.542829 26387 net.cpp:380] lstm1_transform_14 -> W_hc_h_13
I0222 18:19:37.542865 26387 net.cpp:122] Setting up lstm1_transform_14
I0222 18:19:37.542871 26387 net.cpp:129] Top shape: 1 26 96 (2496)
I0222 18:19:37.542874 26387 net.cpp:137] Memory required for data: 767104
I0222 18:19:37.542877 26387 net.cpp:465] Sharing parameters 'W_hc' owned by layer 'lstm1_transform_1', param index 0
I0222 18:19:37.542881 26387 layer_factory.hpp:77] Creating layer lstm1_gate_input_14
I0222 18:19:37.542886 26387 net.cpp:84] Creating Layer lstm1_gate_input_14
I0222 18:19:37.542888 26387 net.cpp:406] lstm1_gate_input_14 <- W_hc_h_13
I0222 18:19:37.542892 26387 net.cpp:406] lstm1_gate_input_14 <- W_xc_x_14
I0222 18:19:37.542896 26387 net.cpp:380] lstm1_gate_input_14 -> gate_input_14
I0222 18:19:37.542909 26387 net.cpp:122] Setting up lstm1_gate_input_14
I0222 18:19:37.542913 26387 net.cpp:129] Top shape: 1 26 96 (2496)
I0222 18:19:37.542917 26387 net.cpp:137] Memory required for data: 777088
I0222 18:19:37.542919 26387 layer_factory.hpp:77] Creating layer lstm1_unit_14
I0222 18:19:37.542925 26387 net.cpp:84] Creating Layer lstm1_unit_14
I0222 18:19:37.542933 26387 net.cpp:406] lstm1_unit_14 <- c_13
I0222 18:19:37.542937 26387 net.cpp:406] lstm1_unit_14 <- gate_input_14
I0222 18:19:37.542942 26387 net.cpp:406] lstm1_unit_14 <- cont_14_lstm1_cont_slice_13_split_1
I0222 18:19:37.542945 26387 net.cpp:380] lstm1_unit_14 -> c_14
I0222 18:19:37.542950 26387 net.cpp:380] lstm1_unit_14 -> h_14
I0222 18:19:37.542974 26387 net.cpp:122] Setting up lstm1_unit_14
I0222 18:19:37.542979 26387 net.cpp:129] Top shape: 1 26 24 (624)
I0222 18:19:37.542982 26387 net.cpp:129] Top shape: 1 26 24 (624)
I0222 18:19:37.542985 26387 net.cpp:137] Memory required for data: 782080
I0222 18:19:37.542989 26387 layer_factory.hpp:77] Creating layer h_14_lstm1_unit_14_1_split
I0222 18:19:37.542992 26387 net.cpp:84] Creating Layer h_14_lstm1_unit_14_1_split
I0222 18:19:37.542995 26387 net.cpp:406] h_14_lstm1_unit_14_1_split <- h_14
I0222 18:19:37.543000 26387 net.cpp:380] h_14_lstm1_unit_14_1_split -> h_14_lstm1_unit_14_1_split_0
I0222 18:19:37.543005 26387 net.cpp:380] h_14_lstm1_unit_14_1_split -> h_14_lstm1_unit_14_1_split_1
I0222 18:19:37.543022 26387 net.cpp:122] Setting up h_14_lstm1_unit_14_1_split
I0222 18:19:37.543027 26387 net.cpp:129] Top shape: 1 26 24 (624)
I0222 18:19:37.543030 26387 net.cpp:129] Top shape: 1 26 24 (624)
I0222 18:19:37.543033 26387 net.cpp:137] Memory required for data: 787072
I0222 18:19:37.543036 26387 layer_factory.hpp:77] Creating layer lstm1_h_conted_14
I0222 18:19:37.543040 26387 net.cpp:84] Creating Layer lstm1_h_conted_14
I0222 18:19:37.543045 26387 net.cpp:406] lstm1_h_conted_14 <- h_14_lstm1_unit_14_1_split_0
I0222 18:19:37.543048 26387 net.cpp:406] lstm1_h_conted_14 <- cont_15_lstm1_cont_slice_14_split_0
I0222 18:19:37.543053 26387 net.cpp:380] lstm1_h_conted_14 -> h_conted_14
I0222 18:19:37.543082 26387 net.cpp:122] Setting up lstm1_h_conted_14
I0222 18:19:37.543087 26387 net.cpp:129] Top shape: 1 26 24 (624)
I0222 18:19:37.543090 26387 net.cpp:137] Memory required for data: 789568
I0222 18:19:37.543093 26387 layer_factory.hpp:77] Creating layer lstm1_transform_15
I0222 18:19:37.543098 26387 net.cpp:84] Creating Layer lstm1_transform_15
I0222 18:19:37.543102 26387 net.cpp:406] lstm1_transform_15 <- h_conted_14
I0222 18:19:37.543105 26387 net.cpp:380] lstm1_transform_15 -> W_hc_h_14
I0222 18:19:37.543141 26387 net.cpp:122] Setting up lstm1_transform_15
I0222 18:19:37.543146 26387 net.cpp:129] Top shape: 1 26 96 (2496)
I0222 18:19:37.543149 26387 net.cpp:137] Memory required for data: 799552
I0222 18:19:37.543156 26387 net.cpp:465] Sharing parameters 'W_hc' owned by layer 'lstm1_transform_1', param index 0
I0222 18:19:37.543160 26387 layer_factory.hpp:77] Creating layer lstm1_gate_input_15
I0222 18:19:37.543164 26387 net.cpp:84] Creating Layer lstm1_gate_input_15
I0222 18:19:37.543167 26387 net.cpp:406] lstm1_gate_input_15 <- W_hc_h_14
I0222 18:19:37.543171 26387 net.cpp:406] lstm1_gate_input_15 <- W_xc_x_15
I0222 18:19:37.543175 26387 net.cpp:380] lstm1_gate_input_15 -> gate_input_15
I0222 18:19:37.543189 26387 net.cpp:122] Setting up lstm1_gate_input_15
I0222 18:19:37.543193 26387 net.cpp:129] Top shape: 1 26 96 (2496)
I0222 18:19:37.543196 26387 net.cpp:137] Memory required for data: 809536
I0222 18:19:37.543200 26387 layer_factory.hpp:77] Creating layer lstm1_unit_15
I0222 18:19:37.543205 26387 net.cpp:84] Creating Layer lstm1_unit_15
I0222 18:19:37.543207 26387 net.cpp:406] lstm1_unit_15 <- c_14
I0222 18:19:37.543211 26387 net.cpp:406] lstm1_unit_15 <- gate_input_15
I0222 18:19:37.543215 26387 net.cpp:406] lstm1_unit_15 <- cont_15_lstm1_cont_slice_14_split_1
I0222 18:19:37.543220 26387 net.cpp:380] lstm1_unit_15 -> c_15
I0222 18:19:37.543225 26387 net.cpp:380] lstm1_unit_15 -> h_15
I0222 18:19:37.543247 26387 net.cpp:122] Setting up lstm1_unit_15
I0222 18:19:37.543251 26387 net.cpp:129] Top shape: 1 26 24 (624)
I0222 18:19:37.543256 26387 net.cpp:129] Top shape: 1 26 24 (624)
I0222 18:19:37.543258 26387 net.cpp:137] Memory required for data: 814528
I0222 18:19:37.543262 26387 layer_factory.hpp:77] Creating layer h_15_lstm1_unit_15_1_split
I0222 18:19:37.543269 26387 net.cpp:84] Creating Layer h_15_lstm1_unit_15_1_split
I0222 18:19:37.545321 26387 net.cpp:406] h_15_lstm1_unit_15_1_split <- h_15
I0222 18:19:37.545333 26387 net.cpp:380] h_15_lstm1_unit_15_1_split -> h_15_lstm1_unit_15_1_split_0
I0222 18:19:37.545341 26387 net.cpp:380] h_15_lstm1_unit_15_1_split -> h_15_lstm1_unit_15_1_split_1
I0222 18:19:37.545377 26387 net.cpp:122] Setting up h_15_lstm1_unit_15_1_split
I0222 18:19:37.545383 26387 net.cpp:129] Top shape: 1 26 24 (624)
I0222 18:19:37.545387 26387 net.cpp:129] Top shape: 1 26 24 (624)
I0222 18:19:37.545390 26387 net.cpp:137] Memory required for data: 819520
I0222 18:19:37.545393 26387 layer_factory.hpp:77] Creating layer lstm1_h_conted_15
I0222 18:19:37.545399 26387 net.cpp:84] Creating Layer lstm1_h_conted_15
I0222 18:19:37.545403 26387 net.cpp:406] lstm1_h_conted_15 <- h_15_lstm1_unit_15_1_split_0
I0222 18:19:37.545408 26387 net.cpp:406] lstm1_h_conted_15 <- cont_16_lstm1_cont_slice_15_split_0
I0222 18:19:37.545414 26387 net.cpp:380] lstm1_h_conted_15 -> h_conted_15
I0222 18:19:37.545449 26387 net.cpp:122] Setting up lstm1_h_conted_15
I0222 18:19:37.545454 26387 net.cpp:129] Top shape: 1 26 24 (624)
I0222 18:19:37.545456 26387 net.cpp:137] Memory required for data: 822016
I0222 18:19:37.545459 26387 layer_factory.hpp:77] Creating layer lstm1_transform_16
I0222 18:19:37.545464 26387 net.cpp:84] Creating Layer lstm1_transform_16
I0222 18:19:37.545469 26387 net.cpp:406] lstm1_transform_16 <- h_conted_15
I0222 18:19:37.545472 26387 net.cpp:380] lstm1_transform_16 -> W_hc_h_15
I0222 18:19:37.545512 26387 net.cpp:122] Setting up lstm1_transform_16
I0222 18:19:37.545518 26387 net.cpp:129] Top shape: 1 26 96 (2496)
I0222 18:19:37.545521 26387 net.cpp:137] Memory required for data: 832000
I0222 18:19:37.545524 26387 net.cpp:465] Sharing parameters 'W_hc' owned by layer 'lstm1_transform_1', param index 0
I0222 18:19:37.545528 26387 layer_factory.hpp:77] Creating layer lstm1_gate_input_16
I0222 18:19:37.545533 26387 net.cpp:84] Creating Layer lstm1_gate_input_16
I0222 18:19:37.545537 26387 net.cpp:406] lstm1_gate_input_16 <- W_hc_h_15
I0222 18:19:37.545542 26387 net.cpp:406] lstm1_gate_input_16 <- W_xc_x_16
I0222 18:19:37.545545 26387 net.cpp:380] lstm1_gate_input_16 -> gate_input_16
I0222 18:19:37.545559 26387 net.cpp:122] Setting up lstm1_gate_input_16
I0222 18:19:37.545563 26387 net.cpp:129] Top shape: 1 26 96 (2496)
I0222 18:19:37.545567 26387 net.cpp:137] Memory required for data: 841984
I0222 18:19:37.545569 26387 layer_factory.hpp:77] Creating layer lstm1_unit_16
I0222 18:19:37.545574 26387 net.cpp:84] Creating Layer lstm1_unit_16
I0222 18:19:37.545578 26387 net.cpp:406] lstm1_unit_16 <- c_15
I0222 18:19:37.545581 26387 net.cpp:406] lstm1_unit_16 <- gate_input_16
I0222 18:19:37.545585 26387 net.cpp:406] lstm1_unit_16 <- cont_16_lstm1_cont_slice_15_split_1
I0222 18:19:37.545590 26387 net.cpp:380] lstm1_unit_16 -> c_16
I0222 18:19:37.545595 26387 net.cpp:380] lstm1_unit_16 -> h_16
I0222 18:19:37.545619 26387 net.cpp:122] Setting up lstm1_unit_16
I0222 18:19:37.545624 26387 net.cpp:129] Top shape: 1 26 24 (624)
I0222 18:19:37.545629 26387 net.cpp:129] Top shape: 1 26 24 (624)
I0222 18:19:37.545631 26387 net.cpp:137] Memory required for data: 846976
I0222 18:19:37.545634 26387 layer_factory.hpp:77] Creating layer lstm1_
I0222 18:19:37.545639 26387 net.cpp:84] Creating Layer lstm1_
I0222 18:19:37.545641 26387 net.cpp:406] lstm1_ <- c_16
I0222 18:19:37.545645 26387 net.cpp:380] lstm1_ -> c_T
I0222 18:19:37.545657 26387 net.cpp:122] Setting up lstm1_
I0222 18:19:37.545662 26387 net.cpp:129] Top shape: 1 26 24 (624)
I0222 18:19:37.545665 26387 net.cpp:137] Memory required for data: 849472
I0222 18:19:37.545668 26387 layer_factory.hpp:77] Creating layer lstm1_h_concat
I0222 18:19:37.545673 26387 net.cpp:84] Creating Layer lstm1_h_concat
I0222 18:19:37.545677 26387 net.cpp:406] lstm1_h_concat <- h_1_lstm1_unit_1_1_split_1
I0222 18:19:37.545681 26387 net.cpp:406] lstm1_h_concat <- h_2_lstm1_unit_2_1_split_1
…
I0222 18:19:37.573835 26387 net.cpp:200] lstm1_ does not need backward computation.
I0222 18:19:37.576449 26387 net.cpp:242] This network produces output c_T
I0222 18:19:37.576459 26387 net.cpp:242] This network produces output h_pseudoloss
I0222 18:19:37.576628 26387 net.cpp:255] Network initialization done.
I0222 18:19:37.576774 26387 recurrent_layer.cpp:150] Adding parameter 0: W_xc
I0222 18:19:37.576779 26387 recurrent_layer.cpp:150] Adding parameter 1: b_c
I0222 18:19:37.576797 26387 recurrent_layer.cpp:150] Adding parameter 2: W_hc
I0222 18:19:37.576918 26387 net.cpp:122] Setting up lstm1
I0222 18:19:37.576926 26387 net.cpp:129] Top shape: 16 26 24 (9984)
I0222 18:19:37.576930 26387 net.cpp:137] Memory required for data: 55040
I0222 18:19:37.576953 26387 layer_factory.hpp:77] Creating layer lstm1_lstm1_0_split
I0222 18:19:37.576959 26387 net.cpp:84] Creating Layer lstm1_lstm1_0_split
I0222 18:19:37.576962 26387 net.cpp:406] lstm1_lstm1_0_split <- lstm1
I0222 18:19:37.576979 26387 net.cpp:380] lstm1_lstm1_0_split -> lstm1_lstm1_0_split_0
I0222 18:19:37.577003 26387 net.cpp:380] lstm1_lstm1_0_split -> lstm1_lstm1_0_split_1
I0222 18:19:37.577026 26387 net.cpp:122] Setting up lstm1_lstm1_0_split
I0222 18:19:37.577030 26387 net.cpp:129] Top shape: 16 26 24 (9984)
I0222 18:19:37.577034 26387 net.cpp:129] Top shape: 16 26 24 (9984)
I0222 18:19:37.577038 26387 net.cpp:137] Memory required for data: 134912
I0222 18:19:37.577040 26387 layer_factory.hpp:77] Creating layer bn1
I0222 18:19:37.577045 26387 net.cpp:84] Creating Layer bn1
I0222 18:19:37.577049 26387 net.cpp:406] bn1 <- lstm1_lstm1_0_split_0
I0222 18:19:37.577054 26387 net.cpp:380] bn1 -> bn1
I0222 18:19:37.577162 26387 net.cpp:122] Setting up bn1
I0222 18:19:37.577167 26387 net.cpp:129] Top shape: 16 26 24 (9984)
I0222 18:19:37.577170 26387 net.cpp:137] Memory required for data: 174848
I0222 18:19:37.577178 26387 layer_factory.hpp:77] Creating layer lstm2
I0222 18:19:37.577183 26387 net.cpp:84] Creating Layer lstm2
I0222 18:19:37.577186 26387 net.cpp:406] lstm2 <- bn1
I0222 18:19:37.577189 26387 net.cpp:406] lstm2 <- clip_clip_0_split_1
I0222 18:19:37.577194 26387 net.cpp:380] lstm2 -> lstm2
I0222 18:19:37.577199 26387 recurrent_layer.cpp:20] Initializing recurrent layer: assuming input batch contains 16 timesteps of 26 independent streams.
I0222 18:19:37.577550 26387 net.cpp:51] Initializing net from parameters: 
layer {
  name: "lstm2_"
  type: "Input"
  top: "x"
  top: "cont"
  input_param {
    shape {
      dim: 16
      dim: 26
      dim: 24
    }
    shape {
      dim: 16
      dim: 26
    }
  }
}
layer {
  name: "lstm2_"
  type: "Input"
  top: "c_0"
  top: "h_0"
  input_param {
    shape {
      dim: 1
      dim: 26
      dim: 24
    }
    shape {
      dim: 1
      dim: 26
      dim: 24
    }
  }
}
layer {
  name: "lstm2_cont_slice"
  type: "Slice"
  bottom: "cont"
  top: "cont_1"
  top: "cont_2"
  top: "cont_3"
  top: "cont_4"
  top: "cont_5"
  top: "cont_6"
  top: "cont_7"
  top: "cont_8"
  top: "cont_9"
  top: "cont_10"
  top: "cont_11"
  top: "cont_12"
  top: "cont_13"
  top: "cont_14"
  top: "cont_15"
  top: "cont_16"
  slice_param {
    axis: 0
  }
}
layer {
  name: "lstm2_x_transform"
  type: "InnerProduct"
  bottom: "x"
  top: "W_xc_x"
  param {
    name: "W_xc"
  }
  param {
    name: "b_c"
  }
  propagate_down: true
  inner_product_param {
    num_output: 96
    bias_term: true
    weight_filler {
      type: "xavier"
    }
    bias_filler {
      type: "constant"
    }
    axis: 2
  }
}
layer {
  name: "lstm2_W_xc_x_slice"
  type: "Slice"
  bottom: "W_xc_x"
  top: "W_xc_x_1"
  top: "W_xc_x_2"
  top: "W_xc_x_3"
  top: "W_xc_x_4"
  top: "W_xc_x_5"
  top: "W_xc_x_6"
  top: "W_xc_x_7"
  top: "W_xc_x_8"
  top: "W_xc_x_9"
  top: "W_xc_x_10"
  top: "W_xc_x_11"
  top: "W_xc_x_12"
  top: "W_xc_x_13"
  top: "W_xc_x_14"
  top: "W_xc_x_15"
  top: "W_xc_x_16"
  slice_param {
    axis: 0
  }
}
layer {
  name: "lstm2_h_conted_0"
  type: "Scale"
  bottom: "h_0"
  bottom: "cont_1"
  top: "h_conted_0"
  scale_param {
    axis: 0
  }
}
layer {
  name: "lstm2_transform_1"
  type: "InnerProduct"
  bottom: "h_conted_0"
  top: "W_hc_h_0"
  param {
    name: "W_hc"
  }
  inner_product_param {
    num_output: 96
    bias_term: false
    weight_filler {
      type: "xavier"
    }
    axis: 2
  }
}
layer {
  name: "lstm2_gate_input_1"
  type: "Eltwise"
  bottom: "W_hc_h_0"
  bottom: "W_xc_x_1"
  top: "gate_input_1"
  eltwise_param {
    operation: SUM
  }
}
layer {
  name: "lstm2_unit_1"
  type: "LSTMUnit"
  bottom: "c_0"
  bottom: "gate_input_1"
  bottom: "cont_1"
  top: "c_1"
  top: "h_1"
}
layer {
  name: "lstm2_h_conted_1"
  type: "Scale"
  bottom: "h_1"
  bottom: "cont_2"
  top: "h_conted_1"
  scale_param {
    axis: 0
  }
}
layer {
  name: "lstm2_transform_2"
  type: "InnerProduct"
  bottom: "h_conted_1"
  top: "W_hc_h_1"
  param {
    name: "W_hc"
  }
  inner_product_param {
    num_output: 96
    bias_term: false
    weight_filler {
      type: "xavier"
    }
    axis: 2
  }
}
layer {
  name: "lstm2_gate_input_2"
  type: "Eltwise"
  bottom: "W_hc_h_1"
  bottom: "W_xc_x_2"
  top: "gate_input_2"
  eltwise_param {
    operation: SUM
  }
}
layer {
  name: "lstm2_unit_2"
  type: "LSTMUnit"
  bottom: "c_1"
  bottom: "gate_input_2"
  bottom: "cont_2"
  top: "c_2"
  top: "h_2"
}
layer {
  name: "lstm2_h_conted_2"
  type: "Scale"
  bottom: "h_2"
  bottom: "cont_3"
  top: "h_conted_2"
  scale_param {
    axis: 0
  }
}
layer {
  name: "lstm2_transform_3"
  type: "InnerProduct"
  bottom: "h_conted_2"
  top: "W_hc_h_2"
  param {
    name: "W_hc"
  }
  inner_product_param {
    num_output: 96
    bias_term: false
    weight_filler {
      type: "xavier"
    }
    axis: 2
  }
}
layer {
  name: "lstm2_gate_input_3"
  type: "Eltwise"
  bottom: "W_hc_h_2"
  bottom: "W_xc_x_3"
  top: "gate_input_3"
  eltwise_param {
    operation: SUM
  }
}
layer {
  name: "lstm2_unit_3"
  type: "LSTMUnit"
  bottom: "c_2"
  bottom: "gate_input_3"
  bottom: "cont_3"
  top: "c_3"
  top: "h_3"
}
layer {
  name: "lstm2_h_conted_3"
  type: "Scale"
  bottom: "h_3"
  bottom: "cont_4"
  top: "h_conted_3"
  scale_param {
    axis: 0
  }
}
layer {
  name: "lstm2_transform_4"
  type: "InnerProduct"
  bottom: "h_conted_3"
  top: "W_hc_h_3"
  param {
    name: "W_hc"
  }
  inner_product_param {
    num_output: 96
    bias_term: false
    weight_filler {
      type: "xavier"
    }
    axis: 2
  }
}
layer {
  name: "lstm2_gate_input_4"
  type: "Eltwise"
  bottom: "W_hc_h_3"
  bottom: "W_xc_x_4"
  top: "gate_input_4"
  eltwise_param {
    operation: SUM
  }
}
layer {
  name: "lstm2_unit_4"
  type: "LSTMUnit"
  bottom: "c_3"
  bottom: "gate_input_4"
  bottom: "cont_4"
  top: "c_4"
  top: "h_4"
}
layer {
  name: "lstm2_h_conted_4"
  type: "Scale"
  bottom: "h_4"
  bottom: "cont_5"
  top: "h_conted_4"
  scale_param {
    axis: 0
  }
}
layer {
  name: "lstm2_transform_5"
  type: "InnerProduct"
  bottom: "h_conted_4"
  top: "W_hc_h_4"
  param {
    name: "W_hc"
  }
  inner_product_param {
    num_output: 96
    bias_term: false
    weight_filler {
      type: "xavier"
    }
    axis: 2
  }
}
layer {
  name: "lstm2_gate_input_5"
  type: "Eltwise"
  bottom: "W_hc_h_4"
  bottom: "W_xc_x_5"
  top: "gate_input_5"
  eltwise_param {
    operation: SUM
  }
}
layer {
  name: "lstm2_unit_5"
  type: "LSTMUnit"
  bottom: "c_4"
  bottom: "gate_input_5"
  bottom: "cont_5"
  top: "c_5"
  top: "h_5"
}
layer {
  name: "lstm2_h_conted_5"
  type: "Scale"
  bottom: "h_5"
  bottom: "cont_6"
  top: "h_conted_5"
  scale_param {
    axis: 0
  }
}
layer {
  name: "lstm2_transform_6"
  type: "InnerProduct"
  bottom: "h_conted_5"
  top: "W_hc_h_5"
  param {
    name: "W_hc"
  }
  inner_product_param {
    num_output: 96
    bias_term: false
    weight_filler {
      type: "xavier"
    }
    axis: 2
  }
}
layer {
  name: "lstm2_gate_input_6"
  type: "Eltwise"
  bottom: "W_hc_h_5"
  bottom: "W_xc_x_6"
  top: "gate_input_6"
  eltwise_param {
    operation: SUM
  }
}
layer {
  name: "lstm2_unit_6"
  type: "LSTMUnit"
  bottom: "c_5"
  bottom: "gate_input_6"
  bottom: "cont_6"
  top: "c_6"
  top: "h_6"
}
layer {
  name: "lstm2_h_conted_6"
  type: "Scale"
  bottom: "h_6"
  bottom: "cont_7"
  top: "h_conted_6"
  scale_param {
    axis: 0
  }
}
layer {
  name: "lstm2_transform_7"
  type: "InnerProduct"
  bottom: "h_conted_6"
  top: "W_hc_h_6"
  param {
    name: "W_hc"
  }
  inner_product_param {
    num_output: 96
    bias_term: false
    weight_filler {
      type: "xavier"
    }
    axis: 2
  }
}
layer {
  name: "lstm2_gate_input_7"
  type: "Eltwise"
  bottom: "W_hc_h_6"
  bottom: "W_xc_x_7"
  top: "gate_input_7"
  eltwise_param {
    operation: SUM
  }
}
layer {
  name: "lstm2_unit_7"
  type: "LSTMUnit"
  bottom: "c_6"
  bottom: "gate_input_7"
  bottom: "cont_7"
  top: "c_7"
  top: "h_7"
}
layer {
  name: "lstm2_h_conted_7"
  type: "Scale"
  bottom: "h_7"
  bottom: "cont_8"
  top: "h_conted_7"
  scale_param {
    axis: 0
  }
}
layer {
  name: "lstm2_transform_8"
  type: "InnerProduct"
  bottom: "h_conted_7"
  top: "W_hc_h_7"
  param {
    name: "W_hc"
  }
  inner_product_param {
    num_output: 96
    bias_term: false
    weight_filler {
      type: "xavier"
    }
    axis: 2
  }
}
layer {
  name: "lstm2_gate_input_8"
  type: "Eltwise"
  bottom: "W_hc_h_7"
  bottom: "W_xc_x_8"
  top: "gate_input_8"
  eltwise_param {
    operation: SUM
  }
}
layer {
  name: "lstm2_unit_8"
  type: "LSTMUnit"
  bottom: "c_7"
  bottom: "gate_input_8"
  bottom: "cont_8"
  top: "c_8"
  top: "h_8"
}
layer {
  name: "lstm2_h_conted_8"
  type: "Scale"
  bottom: "h_8"
  bottom: "cont_9"
  top: "h_conted_8"
  scale_param {
    axis: 0
  }
}
layer {
  name: "lstm2_transform_9"
  type: "InnerProduct"
  bottom: "h_conted_8"
  top: "W_hc_h_8"
  param {
    name: "W_hc"
  }
  inner_product_param {
    num_output: 96
    bias_term: false
    weight_filler {
      type: "xavier"
    }
    axis: 2
  }
}
layer {
  name: "lstm2_gate_input_9"
  type: "Eltwise"
  bottom: "W_hc_h_8"
  bottom: "W_xc_x_9"
  top: "gate_input_9"
  eltwise_param {
    operation: SUM
  }
}
layer {
  name: "lstm2_unit_9"
  type: "LSTMUnit"
  bottom: "c_8"
  bottom: "gate_input_9"
  bottom: "cont_9"
  top: "c_9"
  top: "h_9"
}
layer {
  name: "lstm2_h_conted_9"
  type: "Scale"
  bottom: "h_9"
  bottom: "cont_10"
  top: "h_conted_9"
  scale_param {
    axis: 0
  }
}
layer {
  name: "lstm2_transform_10"
  type: "InnerProduct"
  bottom: "h_conted_9"
  top: "W_hc_h_9"
  param {
    name: "W_hc"
  }
  inner_product_param {
    num_output: 96
    bias_term: false
    weight_filler {
      type: "xavier"
    }
    axis: 2
  }
}
layer {
  name: "lstm2_gate_input_10"
  type: "Eltwise"
  bottom: "W_hc_h_9"
  bottom: "W_xc_x_10"
  top: "gate_input_10"
  eltwise_param {
    operation: SUM
  }
}
layer {
  name: "lstm2_unit_10"
  type: "LSTMUnit"
  bottom: "c_9"
  bottom: "gate_input_10"
  bottom: "cont_10"
  top: "c_10"
  top: "h_10"
}
layer {
  name: "lstm2_h_conted_10"
  type: "Scale"
  bottom: "h_10"
  bottom: "cont_11"
  top: "h_conted_10"
  scale_param {
    axis: 0
  }
}
layer {
  name: "lstm2_transform_11"
  type: "InnerProduct"
  bottom: "h_conted_10"
  top: "W_hc_h_10"
  param {
    name: "W_hc"
  }
  inner_product_param {
    num_output: 96
    bias_term: false
    weight_filler {
      type: "xavier"
    }
    axis: 2
  }
}
layer {
  name: "lstm2_gate_input_11"
  type: "Eltwise"
  bottom: "W_hc_h_10"
  bottom: "W_xc_x_11"
  top: "gate_input_11"
  eltwise_param {
    operation: SUM
  }
}
layer {
  name: "lstm2_unit_11"
  type: "LSTMUnit"
  bottom: "c_10"
  bottom: "gate_input_11"
  bottom: "cont_11"
  top: "c_11"
  top: "h_11"
}
layer {
  name: "lstm2_h_conted_11"
  type: "Scale"
  bottom: "h_11"
  bottom: "cont_12"
  top: "h_conted_11"
  scale_param {
    axis: 0
  }
}
layer {
  name: "lstm2_transform_12"
  type: "InnerProduct"
  bottom: "h_conted_11"
  top: "W_hc_h_11"
  param {
    name: "W_hc"
  }
  inner_product_param {
    num_output: 96
    bias_term: false
    weight_filler {
      type: "xavier"
    }
    axis: 2
  }
}
layer {
  name: "lstm2_gate_input_12"
  type: "Eltwise"
  bottom: "W_hc_h_11"
  bottom: "W_xc_x_12"
  top: "gate_input_12"
  eltwise_param {
    operation: SUM
  }
}
layer {
  name: "lstm2_unit_12"
  type: "LSTMUnit"
  bottom: "c_11"
  bottom: "gate_input_12"
  bottom: "cont_12"
  top: "c_12"
  top: "h_12"
}
layer {
  name: "lstm2_h_conted_12"
  type: "Scale"
  bottom: "h_12"
  bottom: "cont_13"
  top: "h_conted_12"
  scale_param {
    axis: 0
  }
}
layer {
  name: "lstm2_transform_13"
  type: "InnerProduct"
  bottom: "h_conted_12"
  top: "W_hc_h_12"
  param {
    name: "W_hc"
  }
  inner_product_param {
    num_output: 96
    bias_term: false
    weight_filler {
      type: "xavier"
    }
    axis: 2
  }
}
layer {
  name: "lstm2_gate_input_13"
  type: "Eltwise"
  bottom: "W_hc_h_12"
  bottom: "W_xc_x_13"
  top: "gate_input_13"
  eltwise_param {
    operation: SUM
  }
}
layer {
  name: "lstm2_unit_13"
  type: "LSTMUnit"
  bottom: "c_12"
  bottom: "gate_input_13"
  bottom: "cont_13"
  top: "c_13"
  top: "h_13"
}
layer {
  name: "lstm2_h_conted_13"
  type: "Scale"
  bottom: "h_13"
  bottom: "cont_14"
  top: "h_conted_13"
  scale_param {
    axis: 0
  }
}
layer {
  name: "lstm2_transform_14"
  type: "InnerProduct"
  bottom: "h_conted_13"
  top: "W_hc_h_13"
  param {
    name: "W_hc"
  }
  inner_product_param {
    num_output: 96
    bias_term: false
    weight_filler {
      type: "xavier"
    }
    axis: 2
  }
}
layer {
  name: "lstm2_gate_input_14"
  type: "Eltwise"
  bottom: "W_hc_h_13"
  bottom: "W_xc_x_14"
  top: "gate_input_14"
  eltwise_param {
    operation: SUM
  }
}
layer {
  name: "lstm2_unit_14"
  type: "LSTMUnit"
  bottom: "c_13"
  bottom: "gate_input_14"
  bottom: "cont_14"
  top: "c_14"
  top: "h_14"
}
layer {
  name: "lstm2_h_conted_14"
  type: "Scale"
  bottom: "h_14"
  bottom: "cont_15"
  top: "h_conted_14"
  scale_param {
    axis: 0
  }
}
layer {
  name: "lstm2_transform_15"
  type: "InnerProduct"
  bottom: "h_conted_14"
  top: "W_hc_h_14"
  param {
    name: "W_hc"
  }
  inner_product_param {
    num_output: 96
    bias_term: false
    weight_filler {
      type: "xavier"
    }
    axis: 2
  }
}
layer {
  name: "lstm2_gate_input_15"
  type: "Eltwise"
  bottom: "W_hc_h_14"
  bottom: "W_xc_x_15"
  top: "gate_input_15"
  eltwise_param {
    operation: SUM
  }
}
layer {
  name: "lstm2_unit_15"
  type: "LSTMUnit"
  bottom: "c_14"
  bottom: "gate_input_15"
  bottom: "cont_15"
  top: "c_15"
  top: "h_15"
}
layer {
  name: "lstm2_h_conted_15"
  type: "Scale"
  bottom: "h_15"
  bottom: "cont_16"
  top: "h_conted_15"
  scale_param {
    axis: 0
  }
}
layer {
  name: "lstm2_transform_16"
  type: "InnerProduct"
  bottom: "h_conted_15"
  top: "W_hc_h_15"
  param {
    name: "W_hc"
  }
  inner_product_param {
    num_output: 96
    bias_term: false
    weight_filler {
      type: "xavier"
    }
    axis: 2
  }
}
layer {
  name: "lstm2_gate_input_16"
  type: "Eltwise"
  bottom: "W_hc_h_15"
  bottom: "W_xc_x_16"
  top: "gate_input_16"
  eltwise_param {
    operation: SUM
  }
}
layer {
  name: "lstm2_unit_16"
  type: "LSTMUnit"
  bottom: "c_15"
  bottom: "gate_input_16"
  bottom: "cont_16"
  top: "c_16"
  top: "h_16"
}
layer {
  name: "lstm2_"
  type: "Split"
  bottom: "c_16"
  top: "c_T"
}
layer {
  name: "lstm2_h_concat"
  type: "Concat"
  bottom: "h_1"
  bottom: "h_2"
  bottom: "h_3"
  bottom: "h_4"
  bottom: "h_5"
  bottom: "h_6"
  bottom: "h_7"
  bottom: "h_8"
  bottom: "h_9"
  bottom: "h_10"
  bottom: "h_11"
  bottom: "h_12"
  bottom: "h_13"
  bottom: "h_14"
  bottom: "h_15"
  bottom: "h_16"
  top: "h"
  concat_param {
    axis: 0
  }
}
layer {
  name: "h_pseudoloss"
  type: "Reduction"
  bottom: "h"
  top: "h_pseudoloss"
  loss_weight: 1
}
I0222 18:19:37.604039 26387 layer_factory.hpp:77] Creating layer lstm2_
I0222 18:19:37.604050 26387 net.cpp:84] Creating Layer lstm2_
I0222 18:19:37.604055 26387 net.cpp:380] lstm2_ -> x
I0222 18:19:37.604063 26387 net.cpp:380] lstm2_ -> cont
I0222 18:19:37.604094 26387 net.cpp:122] Setting up lstm2_
I0222 18:19:37.604099 26387 net.cpp:129] Top shape: 16 26 24 (9984)
I0222 18:19:37.604104 26387 net.cpp:129] Top shape: 16 26 (416)
I0222 18:19:37.604107 26387 net.cpp:137] Memory required for data: 41600
I0222 18:19:37.604110 26387 layer_factory.hpp:77] Creating layer lstm2_
I0222 18:19:37.604115 26387 net.cpp:84] Creating Layer lstm2_
I0222 18:19:37.604120 26387 net.cpp:380] lstm2_ -> c_0
I0222 18:19:37.604125 26387 net.cpp:380] lstm2_ -> h_0
I0222 18:19:37.604146 26387 net.cpp:122] Setting up lstm2_
I0222 18:19:37.604151 26387 net.cpp:129] Top shape: 1 26 24 (624)
I0222 18:19:37.604154 26387 net.cpp:129] Top shape: 1 26 24 (624)
I0222 18:19:37.604157 26387 net.cpp:137] Memory required for data: 46592
I0222 18:19:37.604161 26387 layer_factory.hpp:77] Creating layer lstm2_cont_slice
I0222 18:19:37.604166 26387 net.cpp:84] Creating Layer lstm2_cont_slice
I0222 18:19:37.606634 26387 net.cpp:406] lstm2_cont_slice <- cont
I0222 18:19:37.606663 26387 net.cpp:380] lstm2_cont_slice -> cont_1
I0222 18:19:37.606685 26387 net.cpp:380] lstm2_cont_slice -> cont_2
…
I0222 18:19:37.759536 26387 net.cpp:200] lstm2_ does not need backward computation.
I0222 18:19:37.759539 26387 net.cpp:242] This network produces output c_T
I0222 18:19:37.759543 26387 net.cpp:242] This network produces output h_pseudoloss
I0222 18:19:37.759678 26387 net.cpp:255] Network initialization done.
I0222 18:19:37.759786 26387 recurrent_layer.cpp:150] Adding parameter 0: W_xc
I0222 18:19:37.759791 26387 recurrent_layer.cpp:150] Adding parameter 1: b_c
I0222 18:19:37.759795 26387 recurrent_layer.cpp:150] Adding parameter 2: W_hc
I0222 18:19:37.759908 26387 net.cpp:122] Setting up lstm2
I0222 18:19:37.759915 26387 net.cpp:129] Top shape: 16 26 24 (9984)
I0222 18:19:37.759918 26387 net.cpp:137] Memory required for data: 214784
I0222 18:19:37.759927 26387 layer_factory.hpp:77] Creating layer bn2
I0222 18:19:37.759934 26387 net.cpp:84] Creating Layer bn2
I0222 18:19:37.759938 26387 net.cpp:406] bn2 <- lstm2
I0222 18:19:37.759943 26387 net.cpp:380] bn2 -> bn2
I0222 18:19:37.760047 26387 net.cpp:122] Setting up bn2
I0222 18:19:37.760053 26387 net.cpp:129] Top shape: 16 26 24 (9984)
I0222 18:19:37.760056 26387 net.cpp:137] Memory required for data: 254720
I0222 18:19:37.760061 26387 layer_factory.hpp:77] Creating layer lstm3
I0222 18:19:37.760066 26387 net.cpp:84] Creating Layer lstm3
I0222 18:19:37.760069 26387 net.cpp:406] lstm3 <- bn2
I0222 18:19:37.760073 26387 net.cpp:406] lstm3 <- clip_clip_0_split_2
I0222 18:19:37.760077 26387 net.cpp:380] lstm3 -> lstm3
I0222 18:19:37.760084 26387 recurrent_layer.cpp:20] Initializing recurrent layer: assuming input batch contains 16 timesteps of 26 independent streams.
I0222 18:19:37.760422 26387 net.cpp:51] Initializing net from parameters: 
layer {
  name: "lstm3_"
  type: "Input"
  top: "x"
  top: "cont"
  input_param {
    shape {
      dim: 16
      dim: 26
      dim: 24
    }
    shape {
      dim: 16
      dim: 26
    }
  }
}
layer {
  name: "lstm3_"
  type: "Input"
  top: "c_0"
  top: "h_0"
  input_param {
    shape {
      dim: 1
      dim: 26
      dim: 24
    }
    shape {
      dim: 1
      dim: 26
      dim: 24
    }
  }
}
layer {
  name: "lstm3_cont_slice"
  type: "Slice"
  bottom: "cont"
  top: "cont_1"
  top: "cont_2"
  top: "cont_3"
  top: "cont_4"
  top: "cont_5"
  top: "cont_6"
  top: "cont_7"
  top: "cont_8"
  top: "cont_9"
  top: "cont_10"
  top: "cont_11"
  top: "cont_12"
  top: "cont_13"
  top: "cont_14"
  top: "cont_15"
  top: "cont_16"
  slice_param {
    axis: 0
  }
}
layer {
  name: "lstm3_x_transform"
  type: "InnerProduct"
  bottom: "x"
  top: "W_xc_x"
  param {
    name: "W_xc"
  }
  param {
    name: "b_c"
  }
  propagate_down: true
  inner_product_param {
    num_output: 96
    bias_term: true
    weight_filler {
      type: "xavier"
    }
    bias_filler {
      type: "constant"
    }
    axis: 2
  }
}
layer {
  name: "lstm3_W_xc_x_slice"
  type: "Slice"
  bottom: "W_xc_x"
  top: "W_xc_x_1"
  top: "W_xc_x_2"
  top: "W_xc_x_3"
  top: "W_xc_x_4"
  top: "W_xc_x_5"
  top: "W_xc_x_6"
  top: "W_xc_x_7"
  top: "W_xc_x_8"
  top: "W_xc_x_9"
  top: "W_xc_x_10"
  top: "W_xc_x_11"
  top: "W_xc_x_12"
  top: "W_xc_x_13"
  top: "W_xc_x_14"
  top: "W_xc_x_15"
  top: "W_xc_x_16"
  slice_param {
    axis: 0
  }
}
layer {
  name: "lstm3_h_conted_0"
  type: "Scale"
  bottom: "h_0"
  bottom: "cont_1"
  top: "h_conted_0"
  scale_param {
    axis: 0
  }
}
layer {
  name: "lstm3_transform_1"
  type: "InnerProduct"
  bottom: "h_conted_0"
  top: "W_hc_h_0"
  param {
    name: "W_hc"
  }
  inner_product_param {
    num_output: 96
    bias_term: false
    weight_filler {
      type: "xavier"
    }
    axis: 2
  }
}
layer {
  name: "lstm3_gate_input_1"
  type: "Eltwise"
  bottom: "W_hc_h_0"
  bottom: "W_xc_x_1"
  top: "gate_input_1"
  eltwise_param {
    operation: SUM
  }
}
layer {
  name: "lstm3_unit_1"
  type: "LSTMUnit"
  bottom: "c_0"
  bottom: "gate_input_1"
  bottom: "cont_1"
  top: "c_1"
  top: "h_1"
}
layer {
  name: "lstm3_h_conted_1"
  type: "Scale"
  bottom: "h_1"
  bottom: "cont_2"
  top: "h_conted_1"
  scale_param {
    axis: 0
  }
}
layer {
  name: "lstm3_transform_2"
  type: "InnerProduct"
  bottom: "h_conted_1"
  top: "W_hc_h_1"
  param {
    name: "W_hc"
  }
  inner_product_param {
    num_output: 96
    bias_term: false
    weight_filler {
      type: "xavier"
    }
    axis: 2
  }
}
layer {
  name: "lstm3_gate_input_2"
  type: "Eltwise"
  bottom: "W_hc_h_1"
  bottom: "W_xc_x_2"
  top: "gate_input_2"
  eltwise_param {
    operation: SUM
  }
}
layer {
  name: "lstm3_unit_2"
  type: "LSTMUnit"
  bottom: "c_1"
  bottom: "gate_input_2"
  bottom: "cont_2"
  top: "c_2"
  top: "h_2"
}
layer {
  name: "lstm3_h_conted_2"
  type: "Scale"
  bottom: "h_2"
  bottom: "cont_3"
  top: "h_conted_2"
  scale_param {
    axis: 0
  }
}
layer {
  name: "lstm3_transform_3"
  type: "InnerProduct"
  bottom: "h_conted_2"
  top: "W_hc_h_2"
  param {
    name: "W_hc"
  }
  inner_product_param {
    num_output: 96
    bias_term: false
    weight_filler {
      type: "xavier"
    }
    axis: 2
  }
}
layer {
  name: "lstm3_gate_input_3"
  type: "Eltwise"
  bottom: "W_hc_h_2"
  bottom: "W_xc_x_3"
  top: "gate_input_3"
  eltwise_param {
    operation: SUM
  }
}
layer {
  name: "lstm3_unit_3"
  type: "LSTMUnit"
  bottom: "c_2"
  bottom: "gate_input_3"
  bottom: "cont_3"
  top: "c_3"
  top: "h_3"
}
layer {
  name: "lstm3_h_conted_3"
  type: "Scale"
  bottom: "h_3"
  bottom: "cont_4"
  top: "h_conted_3"
  scale_param {
    axis: 0
  }
}
layer {
  name: "lstm3_transform_4"
  type: "InnerProduct"
  bottom: "h_conted_3"
  top: "W_hc_h_3"
  param {
    name: "W_hc"
  }
  inner_product_param {
    num_output: 96
    bias_term: false
    weight_filler {
      type: "xavier"
    }
    axis: 2
  }
}
layer {
  name: "lstm3_gate_input_4"
  type: "Eltwise"
  bottom: "W_hc_h_3"
  bottom: "W_xc_x_4"
  top: "gate_input_4"
  eltwise_param {
    operation: SUM
  }
}
layer {
  name: "lstm3_unit_4"
  type: "LSTMUnit"
  bottom: "c_3"
  bottom: "gate_input_4"
  bottom: "cont_4"
  top: "c_4"
  top: "h_4"
}
layer {
  name: "lstm3_h_conted_4"
  type: "Scale"
  bottom: "h_4"
  bottom: "cont_5"
  top: "h_conted_4"
  scale_param {
    axis: 0
  }
}
layer {
  name: "lstm3_transform_5"
  type: "InnerProduct"
  bottom: "h_conted_4"
  top: "W_hc_h_4"
  param {
    name: "W_hc"
  }
  inner_product_param {
    num_output: 96
    bias_term: false
    weight_filler {
      type: "xavier"
    }
    axis: 2
  }
}
layer {
  name: "lstm3_gate_input_5"
  type: "Eltwise"
  bottom: "W_hc_h_4"
  bottom: "W_xc_x_5"
  top: "gate_input_5"
  eltwise_param {
    operation: SUM
  }
}
layer {
  name: "lstm3_unit_5"
  type: "LSTMUnit"
  bottom: "c_4"
  bottom: "gate_input_5"
  bottom: "cont_5"
  top: "c_5"
  top: "h_5"
}
layer {
  name: "lstm3_h_conted_5"
  type: "Scale"
  bottom: "h_5"
  bottom: "cont_6"
  top: "h_conted_5"
  scale_param {
    axis: 0
  }
}
layer {
  name: "lstm3_transform_6"
  type: "InnerProduct"
  bottom: "h_conted_5"
  top: "W_hc_h_5"
  param {
    name: "W_hc"
  }
  inner_product_param {
    num_output: 96
    bias_term: false
    weight_filler {
      type: "xavier"
    }
    axis: 2
  }
}
layer {
  name: "lstm3_gate_input_6"
  type: "Eltwise"
  bottom: "W_hc_h_5"
  bottom: "W_xc_x_6"
  top: "gate_input_6"
  eltwise_param {
    operation: SUM
  }
}
layer {
  name: "lstm3_unit_6"
  type: "LSTMUnit"
  bottom: "c_5"
  bottom: "gate_input_6"
  bottom: "cont_6"
  top: "c_6"
  top: "h_6"
}
layer {
  name: "lstm3_h_conted_6"
  type: "Scale"
  bottom: "h_6"
  bottom: "cont_7"
  top: "h_conted_6"
  scale_param {
    axis: 0
  }
}
layer {
  name: "lstm3_transform_7"
  type: "InnerProduct"
  bottom: "h_conted_6"
  top: "W_hc_h_6"
  param {
    name: "W_hc"
  }
  inner_product_param {
    num_output: 96
    bias_term: false
    weight_filler {
      type: "xavier"
    }
    axis: 2
  }
}
layer {
  name: "lstm3_gate_input_7"
  type: "Eltwise"
  bottom: "W_hc_h_6"
  bottom: "W_xc_x_7"
  top: "gate_input_7"
  eltwise_param {
    operation: SUM
  }
}
layer {
  name: "lstm3_unit_7"
  type: "LSTMUnit"
  bottom: "c_6"
  bottom: "gate_input_7"
  bottom: "cont_7"
  top: "c_7"
  top: "h_7"
}
layer {
  name: "lstm3_h_conted_7"
  type: "Scale"
  bottom: "h_7"
  bottom: "cont_8"
  top: "h_conted_7"
  scale_param {
    axis: 0
  }
}
layer {
  name: "lstm3_transform_8"
  type: "InnerProduct"
  bottom: "h_conted_7"
  top: "W_hc_h_7"
  param {
    name: "W_hc"
  }
  inner_product_param {
    num_output: 96
    bias_term: false
    weight_filler {
      type: "xavier"
    }
    axis: 2
  }
}
layer {
  name: "lstm3_gate_input_8"
  type: "Eltwise"
  bottom: "W_hc_h_7"
  bottom: "W_xc_x_8"
  top: "gate_input_8"
  eltwise_param {
    operation: SUM
  }
}
layer {
  name: "lstm3_unit_8"
  type: "LSTMUnit"
  bottom: "c_7"
  bottom: "gate_input_8"
  bottom: "cont_8"
  top: "c_8"
  top: "h_8"
}
layer {
  name: "lstm3_h_conted_8"
  type: "Scale"
  bottom: "h_8"
  bottom: "cont_9"
  top: "h_conted_8"
  scale_param {
    axis: 0
  }
}
layer {
  name: "lstm3_transform_9"
  type: "InnerProduct"
  bottom: "h_conted_8"
  top: "W_hc_h_8"
  param {
    name: "W_hc"
  }
  inner_product_param {
    num_output: 96
    bias_term: false
    weight_filler {
      type: "xavier"
    }
    axis: 2
  }
}
layer {
  name: "lstm3_gate_input_9"
  type: "Eltwise"
  bottom: "W_hc_h_8"
  bottom: "W_xc_x_9"
  top: "gate_input_9"
  eltwise_param {
    operation: SUM
  }
}
layer {
  name: "lstm3_unit_9"
  type: "LSTMUnit"
  bottom: "c_8"
  bottom: "gate_input_9"
  bottom: "cont_9"
  top: "c_9"
  top: "h_9"
}
layer {
  name: "lstm3_h_conted_9"
  type: "Scale"
  bottom: "h_9"
  bottom: "cont_10"
  top: "h_conted_9"
  scale_param {
    axis: 0
  }
}
layer {
  name: "lstm3_transform_10"
  type: "InnerProduct"
  bottom: "h_conted_9"
  top: "W_hc_h_9"
  param {
    name: "W_hc"
  }
  inner_product_param {
    num_output: 96
    bias_term: false
    weight_filler {
      type: "xavier"
    }
    axis: 2
  }
}
layer {
  name: "lstm3_gate_input_10"
  type: "Eltwise"
  bottom: "W_hc_h_9"
  bottom: "W_xc_x_10"
  top: "gate_input_10"
  eltwise_param {
    operation: SUM
  }
}
layer {
  name: "lstm3_unit_10"
  type: "LSTMUnit"
  bottom: "c_9"
  bottom: "gate_input_10"
  bottom: "cont_10"
  top: "c_10"
  top: "h_10"
}
layer {
  name: "lstm3_h_conted_10"
  type: "Scale"
  bottom: "h_10"
  bottom: "cont_11"
  top: "h_conted_10"
  scale_param {
    axis: 0
  }
}
layer {
  name: "lstm3_transform_11"
  type: "InnerProduct"
  bottom: "h_conted_10"
  top: "W_hc_h_10"
  param {
    name: "W_hc"
  }
  inner_product_param {
    num_output: 96
    bias_term: false
    weight_filler {
      type: "xavier"
    }
    axis: 2
  }
}
layer {
  name: "lstm3_gate_input_11"
  type: "Eltwise"
  bottom: "W_hc_h_10"
  bottom: "W_xc_x_11"
  top: "gate_input_11"
  eltwise_param {
    operation: SUM
  }
}
layer {
  name: "lstm3_unit_11"
  type: "LSTMUnit"
  bottom: "c_10"
  bottom: "gate_input_11"
  bottom: "cont_11"
  top: "c_11"
  top: "h_11"
}
layer {
  name: "lstm3_h_conted_11"
  type: "Scale"
  bottom: "h_11"
  bottom: "cont_12"
  top: "h_conted_11"
  scale_param {
    axis: 0
  }
}
layer {
  name: "lstm3_transform_12"
  type: "InnerProduct"
  bottom: "h_conted_11"
  top: "W_hc_h_11"
  param {
    name: "W_hc"
  }
  inner_product_param {
    num_output: 96
    bias_term: false
    weight_filler {
      type: "xavier"
    }
    axis: 2
  }
}
layer {
  name: "lstm3_gate_input_12"
  type: "Eltwise"
  bottom: "W_hc_h_11"
  bottom: "W_xc_x_12"
  top: "gate_input_12"
  eltwise_param {
    operation: SUM
  }
}
layer {
  name: "lstm3_unit_12"
  type: "LSTMUnit"
  bottom: "c_11"
  bottom: "gate_input_12"
  bottom: "cont_12"
  top: "c_12"
  top: "h_12"
}
layer {
  name: "lstm3_h_conted_12"
  type: "Scale"
  bottom: "h_12"
  bottom: "cont_13"
  top: "h_conted_12"
  scale_param {
    axis: 0
  }
}
layer {
  name: "lstm3_transform_13"
  type: "InnerProduct"
  bottom: "h_conted_12"
  top: "W_hc_h_12"
  param {
    name: "W_hc"
  }
  inner_product_param {
    num_output: 96
    bias_term: false
    weight_filler {
      type: "xavier"
    }
    axis: 2
  }
}
layer {
  name: "lstm3_gate_input_13"
  type: "Eltwise"
  bottom: "W_hc_h_12"
  bottom: "W_xc_x_13"
  top: "gate_input_13"
  eltwise_param {
    operation: SUM
  }
}
layer {
  name: "lstm3_unit_13"
  type: "LSTMUnit"
  bottom: "c_12"
  bottom: "gate_input_13"
  bottom: "cont_13"
  top: "c_13"
  top: "h_13"
}
layer {
  name: "lstm3_h_conted_13"
  type: "Scale"
  bottom: "h_13"
  bottom: "cont_14"
  top: "h_conted_13"
  scale_param {
    axis: 0
  }
}
layer {
  name: "lstm3_transform_14"
  type: "InnerProduct"
  bottom: "h_conted_13"
  top: "W_hc_h_13"
  param {
    name: "W_hc"
  }
  inner_product_param {
    num_output: 96
    bias_term: false
    weight_filler {
      type: "xavier"
    }
    axis: 2
  }
}
layer {
  name: "lstm3_gate_input_14"
  type: "Eltwise"
  bottom: "W_hc_h_13"
  bottom: "W_xc_x_14"
  top: "gate_input_14"
  eltwise_param {
    operation: SUM
  }
}
layer {
  name: "lstm3_unit_14"
  type: "LSTMUnit"
  bottom: "c_13"
  bottom: "gate_input_14"
  bottom: "cont_14"
  top: "c_14"
  top: "h_14"
}
layer {
  name: "lstm3_h_conted_14"
  type: "Scale"
  bottom: "h_14"
  bottom: "cont_15"
  top: "h_conted_14"
  scale_param {
    axis: 0
  }
}
layer {
  name: "lstm3_transform_15"
  type: "InnerProduct"
  bottom: "h_conted_14"
  top: "W_hc_h_14"
  param {
    name: "W_hc"
  }
  inner_product_param {
    num_output: 96
    bias_term: false
    weight_filler {
      type: "xavier"
    }
    axis: 2
  }
}
layer {
  name: "lstm3_gate_input_15"
  type: "Eltwise"
  bottom: "W_hc_h_14"
  bottom: "W_xc_x_15"
  top: "gate_input_15"
  eltwise_param {
    operation: SUM
  }
}
layer {
  name: "lstm3_unit_15"
  type: "LSTMUnit"
  bottom: "c_14"
  bottom: "gate_input_15"
  bottom: "cont_15"
  top: "c_15"
  top: "h_15"
}
layer {
  name: "lstm3_h_conted_15"
  type: "Scale"
  bottom: "h_15"
  bottom: "cont_16"
  top: "h_conted_15"
  scale_param {
    axis: 0
  }
}
layer {
  name: "lstm3_transform_16"
  type: "InnerProduct"
  bottom: "h_conted_15"
  top: "W_hc_h_15"
  param {
    name: "W_hc"
  }
  inner_product_param {
    num_output: 96
    bias_term: false
    weight_filler {
      type: "xavier"
    }
    axis: 2
  }
}
layer {
  name: "lstm3_gate_input_16"
  type: "Eltwise"
  bottom: "W_hc_h_15"
  bottom: "W_xc_x_16"
  top: "gate_input_16"
  eltwise_param {
    operation: SUM
  }
}
layer {
  name: "lstm3_unit_16"
  type: "LSTMUnit"
  bottom: "c_15"
  bottom: "gate_input_16"
  bottom: "cont_16"
  top: "c_16"
  top: "h_16"
}
layer {
  name: "lstm3_"
  type: "Split"
  bottom: "c_16"
  top: "c_T"
}
layer {
  name: "lstm3_h_concat"
  type: "Concat"
  bottom: "h_1"
  bottom: "h_2"
  bottom: "h_3"
  bottom: "h_4"
  bottom: "h_5"
  bottom: "h_6"
  bottom: "h_7"
  bottom: "h_8"
  bottom: "h_9"
  bottom: "h_10"
  bottom: "h_11"
  bottom: "h_12"
  bottom: "h_13"
  bottom: "h_14"
  bottom: "h_15"
  bottom: "h_16"
  top: "h"
  concat_param {
    axis: 0
  }
}
layer {
  name: "h_pseudoloss"
  type: "Reduction"
  bottom: "h"
  top: "h_pseudoloss"
  loss_weight: 1
}
I0222 18:19:37.790978 26387 layer_factory.hpp:77] Creating layer lstm3_
I0222 18:19:37.791005 26387 net.cpp:84] Creating Layer lstm3_
I0222 18:19:37.791010 26387 net.cpp:380] lstm3_ -> x
I0222 18:19:37.791018 26387 net.cpp:380] lstm3_ -> cont
I0222 18:19:37.791066 26387 net.cpp:122] Setting up lstm3_
I0222 18:19:37.791071 26387 net.cpp:129] Top shape: 16 26 24 (9984)
I0222 18:19:37.791090 26387 net.cpp:129] Top shape: 16 26 (416)
I0222 18:19:37.791095 26387 net.cpp:137] Memory required for data: 41600
I0222 18:19:37.791097 26387 layer_factory.hpp:77] Creating layer lstm3_
I0222 18:19:37.791102 26387 net.cpp:84] Creating Layer lstm3_
I0222 18:19:37.791105 26387 net.cpp:380] lstm3_ -> c_0
I0222 18:19:37.791111 26387 net.cpp:380] lstm3_ -> h_0
I0222 18:19:37.791133 26387 net.cpp:122] Setting up lstm3_
I0222 18:19:37.791138 26387 net.cpp:129] Top shape: 1 26 24 (624)
I0222 18:19:37.791142 26387 net.cpp:129] Top shape: 1 26 24 (624)
I0222 18:19:37.791146 26387 net.cpp:137] Memory required for data: 46592
I0222 18:19:37.791148 26387 layer_factory.hpp:77] Creating layer lstm3_cont_slice
I0222 18:19:37.791153 26387 net.cpp:84] Creating Layer lstm3_cont_slice
I0222 18:19:37.791157 26387 net.cpp:406] lstm3_cont_slice <- cont
I0222 18:19:37.791162 26387 net.cpp:380] lstm3_cont_slice -> cont_1
I0222 18:19:37.791177 26387 net.cpp:380] lstm3_cont_slice -> cont_2
…
I0222 18:19:38.698103 26387 net.cpp:200] lstm7_ does not need backward computation.
I0222 18:19:38.698107 26387 net.cpp:242] This network produces output c_T
I0222 18:19:38.698109 26387 net.cpp:242] This network produces output h_pseudoloss
I0222 18:19:38.698246 26387 net.cpp:255] Network initialization done.
I0222 18:19:38.698385 26387 recurrent_layer.cpp:150] Adding parameter 0: W_xc
I0222 18:19:38.698390 26387 recurrent_layer.cpp:150] Adding parameter 1: b_c
I0222 18:19:38.698395 26387 recurrent_layer.cpp:150] Adding parameter 2: W_hc
I0222 18:19:38.698524 26387 net.cpp:122] Setting up lstm7
I0222 18:19:38.698532 26387 net.cpp:129] Top shape: 16 26 24 (9984)
I0222 18:19:38.700718 26387 net.cpp:137] Memory required for data: 614144
I0222 18:19:38.700729 26387 layer_factory.hpp:77] Creating layer bn7
I0222 18:19:38.700748 26387 net.cpp:84] Creating Layer bn7
I0222 18:19:38.700752 26387 net.cpp:406] bn7 <- lstm7
I0222 18:19:38.700769 26387 net.cpp:380] bn7 -> bn7
I0222 18:19:38.700894 26387 net.cpp:122] Setting up bn7
I0222 18:19:38.700901 26387 net.cpp:129] Top shape: 16 26 24 (9984)
I0222 18:19:38.700904 26387 net.cpp:137] Memory required for data: 654080
I0222 18:19:38.700909 26387 layer_factory.hpp:77] Creating layer fc1
I0222 18:19:38.700915 26387 net.cpp:84] Creating Layer fc1
I0222 18:19:38.700918 26387 net.cpp:406] fc1 <- lstm1_lstm1_0_split_1
I0222 18:19:38.700923 26387 net.cpp:380] fc1 -> fc1
I0222 18:19:38.701274 26387 net.cpp:122] Setting up fc1
I0222 18:19:38.701280 26387 net.cpp:129] Top shape: 16 24 (384)
I0222 18:19:38.701283 26387 net.cpp:137] Memory required for data: 655616
I0222 18:19:38.701288 26387 layer_factory.hpp:77] Creating layer out
I0222 18:19:38.701293 26387 net.cpp:84] Creating Layer out
I0222 18:19:38.701297 26387 net.cpp:406] out <- fc1
I0222 18:19:38.701301 26387 net.cpp:380] out -> out
I0222 18:19:38.701371 26387 net.cpp:122] Setting up out
I0222 18:19:38.701377 26387 net.cpp:129] Top shape: 16 2 (32)
I0222 18:19:38.701380 26387 net.cpp:137] Memory required for data: 655744
I0222 18:19:38.701385 26387 layer_factory.hpp:77] Creating layer out-concat
I0222 18:19:38.701390 26387 net.cpp:84] Creating Layer out-concat
I0222 18:19:38.701393 26387 net.cpp:406] out-concat <- out
I0222 18:19:38.701405 26387 net.cpp:380] out-concat -> out-concat
I0222 18:19:38.701419 26387 net.cpp:122] Setting up out-concat
I0222 18:19:38.701424 26387 net.cpp:129] Top shape: 16 2 (32)
I0222 18:19:38.701427 26387 net.cpp:137] Memory required for data: 655872
I0222 18:19:38.701431 26387 layer_factory.hpp:77] Creating layer loss
I0222 18:19:38.701436 26387 net.cpp:84] Creating Layer loss
I0222 18:19:38.701438 26387 net.cpp:406] loss <- out-concat
I0222 18:19:38.701442 26387 net.cpp:406] loss <- labels
I0222 18:19:38.701447 26387 net.cpp:380] loss -> loss
I0222 18:19:38.701467 26387 net.cpp:122] Setting up loss
…
  name: "data"
  type: "Data"
  top: "data"
  data_param {
    source: "/home/leonida/ThesisCode/realenv-folder/NN-Roomba/RealEnv/NavDatabases/states_db-2-8-11-38_lmdb"
    batch_size: 16
    backend: LMDB
  }
}
layer {
  name: "data"
  type: "Data"
  top: "labels"
  data_param {
    source: "/home/leonida/ThesisCode/realenv-folder/NN-Roomba/RealEnv/NavDatabases/labels_db-2-8-11-38_twist-variant_lmdb"
    batch_size: 16
    backend: LMDB
  }
}
layer {
  name: "Input"
  type: "Input"
  top: "clip"
  input_param {
    shape {
      dim: 16
      dim: 26
    }
  }
}
layer {
  name: "lstm1"
  type: "LSTM"
  bottom: "data"
  bottom: "clip"
  top: "lstm1"
  recurrent_param {
    num_output: 24
    weight_filler {
      type: "xavier"
    }
    bias_filler {
      type: "constant"
    }
  }
}
layer {
  name: "bn1"
  type: "BatchNorm"
  bottom: "lstm1"
  top: "bn1"
  batch_norm_param {
    use_global_stats: false
  }
}
layer {
  name: "lstm2"
  type: "LSTM"
  bottom: "bn1"
  bottom: "clip"
  top: "lstm2"
  recurrent_param {
    num_output: 24
    weight_filler {
      type: "xavier"
    }
    bias_filler {
      type: "constant"
    }
  }
}
layer {
  name: "bn2"
  type: "BatchNorm"
  bottom: "lstm2"
  top: "bn2"
  batch_norm_param {
    use_global_stats: false
  }
}
layer {
  name: "lstm3"
  type: "LSTM"
  bottom: "bn2"
  bottom: "clip"
  top: "lstm3"
  recurrent_param {
    num_output: 24
    weight_filler {
      type: "xavier"
    }
    bias_filler {
      type: "constant"
    }
  }
}
layer {
  name: "bn3"
  type: "BatchNorm"
  bottom: "lstm3"
  top: "bn3"
  batch_norm_param {
    use_global_stats: false
  }
}
layer {
  name: "lstm4"
  type: "LSTM"
  bottom: "bn3"
  bottom: "clip"
  top: "lstm4"
  recurrent_param {
    num_output: 24
    weight_filler {
      type: "xavier"
    }
    bias_filler {
      type: "constant"
    }
  }
}
layer {
  name: "bn4"
  type: "BatchNorm"
  bottom: "lstm4"
  top: "bn4"
  batch_norm_param {
    use_global_stats: false
  }
}
layer {
  name: "lstm5"
  type: "LSTM"
  bottom: "bn4"
  bottom: "clip"
  top: "lstm5"
  recurrent_param {
    num_output: 24
    weight_filler {
      type: "xavier"
    }
    bias_filler {
      type: "constant"
    }
  }
}
layer {
  name: "bn5"
  type: "BatchNorm"
  bottom: "lstm5"
  top: "bn5"
  batch_norm_param {
    use_global_stats: false
  }
}
layer {
  name: "lstm6"
  type: "LSTM"
  bottom: "bn5"
  bottom: "clip"
  top: "lstm6"
  recurrent_param {
    num_output: 24
    weight_filler {
      type: "xavier"
    }
    bias_filler {
      type: "constant"
    }
  }
}
layer {
  name: "bn6"
  type: "BatchNorm"
  bottom: "lstm6"
  top: "bn6"
  batch_norm_param {
    use_global_stats: false
  }
}
layer {
  name: "lstm7"
  type: "LSTM"
  bottom: "bn6"
  bottom: "clip"
  top: "lstm7"
  recurrent_param {
    num_output: 24
    weight_filler {
      type: "xavier"
    }
    bias_filler {
      type: "constant"
    }
  }
}
layer {
  name: "bn7"
  type: "BatchNorm"
  bottom: "lstm7"
  top: "bn7"
  batch_norm_param {
    use_global_stats: false
  }
}
layer {
  name: "fc1"
  type: "InnerProduct"
  bottom: "lstm1"
  top: "fc1"
  inner_product_param {
    num_output: 24
    weight_filler {
      type: "gaussian"
      std: 0.1
    }
    bias_filler {
      type: "constant"
    }
  }
}
layer {
  name: "out"
  type: "InnerProduct"
  bottom: "fc1"
  top: "out"
  inner_product_param {
    num_output: 2
    weight_filler {
      type: "gaussian"
      std: 0.1
    }
    bias_filler {
      type: "constant"
    }
  }
}
layer {
  name: "out-concat"
  type: "Concat"
  bottom: "out"
  top: "out-concat"
  concat_param {
    axis: 1
  }
}
layer {
  name: "loss"
  type: "EuclideanLoss"
  bottom: "out-concat"
  bottom: "labels"
  top: "loss"
}
I0222 18:19:38.728062 26387 layer_factory.hpp:77] Creating layer data
I0222 18:19:38.728135 26387 db_lmdb.cpp:35] Opened lmdb /home/leonida/ThesisCode/LSTM_on_Create2/NavDatabases/LAB-21-2-new-step-condition/states_db-2-21-14-36_lmdb
I0222 18:19:38.728160 26387 net.cpp:84] Creating Layer data
I0222 18:19:38.728165 26387 net.cpp:380] data -> data
I0222 18:19:38.728241 26387 data_layer.cpp:45] output data size: 16,26,1,1
I0222 18:19:38.728435 26387 net.cpp:122] Setting up data
I0222 18:19:38.728457 26387 net.cpp:129] Top shape: 16 26 1 1 (416)
I0222 18:19:38.728466 26387 net.cpp:137] Memory required for data: 1664
I0222 18:19:38.728469 26387 layer_factory.hpp:77] Creating layer label
I0222 18:19:38.728509 26387 db_lmdb.cpp:35] Opened lmdb /home/leonida/ThesisCode/LSTM_on_Create2/NavDatabases/LAB-21-2-new-step-condition/labels_db-2-21-14-36_twist-variant_lmdb
I0222 18:19:38.728518 26387 net.cpp:84] Creating Layer label
I0222 18:19:38.728523 26387 net.cpp:380] label -> labels
I0222 18:19:38.728741 26387 data_layer.cpp:45] output data size: 16,2,1,1
I0222 18:19:38.728845 26387 net.cpp:122] Setting up label
I0222 18:19:38.728853 26387 net.cpp:129] Top shape: 16 2 1 1 (32)
I0222 18:19:38.728857 26387 net.cpp:137] Memory required for data: 1792
I0222 18:19:38.728859 26387 layer_factory.hpp:77] Creating layer clip
I0222 18:19:38.728865 26387 net.cpp:84] Creating Layer clip
I0222 18:19:38.728869 26387 net.cpp:380] clip -> clip
I0222 18:19:38.728910 26387 net.cpp:122] Setting up clip
I0222 18:19:38.728915 26387 net.cpp:129] Top shape: 16 26 (416)
I0222 18:19:38.728919 26387 net.cpp:137] Memory required for data: 3456
I0222 18:19:38.728921 26387 layer_factory.hpp:77] Creating layer data
F0222 18:19:38.728977 26387 db_lmdb.hpp:15] Check failed: mdb_status == 0 (2 vs. 0) No such file or directory
