…
iter_size: 1
I0228 21:31:38.228274 13785 solver.cpp:87] Creating training net from net file: /home/leonida/ThesisCode/LSTM_on_Create2/src/neural_network_planner/NetModels/LSTM/deep_stack-fc_net.prototxt
I0228 21:31:38.228523 13785 net.cpp:51] Initializing net from parameters: 
name: "LSTM_stack-3-16"
state {
  phase: TRAIN
}
layer {
  name: "Input"
  type: "Input"
  top: "data"
  top: "clip"
  top: "label"
  input_param {
    shape {
      dim: 16
      dim: 13
      dim: 1
    }
    shape {
      dim: 16
      dim: 13
    }
    shape {
      dim: 16
    }
  }
}
layer {
  name: "lstm1"
  type: "LSTM"
  bottom: "data"
  bottom: "clip"
  top: "lstm1"
  recurrent_param {
    num_output: 16
    weight_filler {
      type: "xavier"
    }
    bias_filler {
      type: "constant"
    }
  }
}
layer {
  name: "lstm2"
  type: "LSTM"
  bottom: "lstm1"
  bottom: "clip"
  top: "lstm2"
  recurrent_param {
    num_output: 16
    weight_filler {
      type: "xavier"
    }
    bias_filler {
      type: "constant"
    }
  }
}
layer {
  name: "lstm3"
  type: "LSTM"
  bottom: "lstm2"
  bottom: "clip"
  top: "lstm3"
  recurrent_param {
    num_output: 16
    weight_filler {
      type: "xavier"
    }
    bias_filler {
      type: "constant"
    }
  }
}
layer {
  name: "fc1"
  type: "InnerProduct"
  bottom: "lstm3"
  top: "fc1"
  param {
    lr_mult: 1
    decay_mult: 1
  }
  param {
    lr_mult: 2
    decay_mult: 0
  }
  inner_product_param {
    num_output: 16
    weight_filler {
      type: "gaussian"
      std: 0.01
    }
    bias_filler {
      type: "constant"
      value: 0
    }
  }
}
layer {
  name: "out"
  type: "InnerProduct"
  bottom: "fc1"
  top: "out"
  inner_product_param {
    num_output: 1
    weight_filler {
      type: "gaussian"
      std: 0.1
    }
    bias_filler {
      type: "constant"
    }
  }
}
layer {
  name: "euclideanLoss"
  type: "EuclideanLoss"
  bottom: "out"
  bottom: "label"
  top: "loss"
}
I0228 21:31:38.228670 13785 layer_factory.hpp:77] Creating layer Input
I0228 21:31:38.228693 13785 net.cpp:84] Creating Layer Input
I0228 21:31:38.228714 13785 net.cpp:380] Input -> data
I0228 21:31:38.228735 13785 net.cpp:380] Input -> clip
I0228 21:31:38.228745 13785 net.cpp:380] Input -> label
I0228 21:31:38.229467 13785 net.cpp:122] Setting up Input
I0228 21:31:38.229511 13785 net.cpp:129] Top shape: 16 13 1 (208)
I0228 21:31:38.229518 13785 net.cpp:129] Top shape: 16 13 (208)
I0228 21:31:38.229522 13785 net.cpp:129] Top shape: 16 (16)
I0228 21:31:38.229526 13785 net.cpp:137] Memory required for data: 1728
I0228 21:31:38.229532 13785 layer_factory.hpp:77] Creating layer clip_Input_1_split
I0228 21:31:38.229544 13785 net.cpp:84] Creating Layer clip_Input_1_split
I0228 21:31:38.229550 13785 net.cpp:406] clip_Input_1_split <- clip
I0228 21:31:38.229559 13785 net.cpp:380] clip_Input_1_split -> clip_Input_1_split_0
I0228 21:31:38.229565 13785 net.cpp:380] clip_Input_1_split -> clip_Input_1_split_1
I0228 21:31:38.229571 13785 net.cpp:380] clip_Input_1_split -> clip_Input_1_split_2
I0228 21:31:38.229602 13785 net.cpp:122] Setting up clip_Input_1_split
I0228 21:31:38.229611 13785 net.cpp:129] Top shape: 16 13 (208)
I0228 21:31:38.229616 13785 net.cpp:129] Top shape: 16 13 (208)
I0228 21:31:38.229631 13785 net.cpp:129] Top shape: 16 13 (208)
I0228 21:31:38.229635 13785 net.cpp:137] Memory required for data: 4224
I0228 21:31:38.229638 13785 layer_factory.hpp:77] Creating layer lstm1
I0228 21:31:38.229648 13785 net.cpp:84] Creating Layer lstm1
I0228 21:31:38.229651 13785 net.cpp:406] lstm1 <- data
I0228 21:31:38.229655 13785 net.cpp:406] lstm1 <- clip_Input_1_split_0
I0228 21:31:38.229660 13785 net.cpp:380] lstm1 -> lstm1
I0228 21:31:38.229672 13785 recurrent_layer.cpp:20] Initializing recurrent layer: assuming input batch contains 16 timesteps of 13 independent streams.
I0228 21:31:38.230046 13785 net.cpp:51] Initializing net from parameters: 
layer {
  name: "lstm1_"
  type: "Input"
  top: "x"
  top: "cont"
  input_param {
    shape {
      dim: 16
      dim: 13
      dim: 1
    }
    shape {
      dim: 16
      dim: 13
    }
  }
}
layer {
  name: "lstm1_"
  type: "Input"
  top: "c_0"
  top: "h_0"
  input_param {
    shape {
      dim: 1
      dim: 13
      dim: 16
    }
    shape {
      dim: 1
      dim: 13
      dim: 16
    }
  }
}
layer {
  name: "lstm1_cont_slice"
  type: "Slice"
  bottom: "cont"
  top: "cont_1"
  top: "cont_2"
  top: "cont_3"
  top: "cont_4"
  top: "cont_5"
  top: "cont_6"
  top: "cont_7"
  top: "cont_8"
  top: "cont_9"
  top: "cont_10"
  top: "cont_11"
  top: "cont_12"
  top: "cont_13"
  top: "cont_14"
  top: "cont_15"
  top: "cont_16"
  slice_param {
    axis: 0
  }
}
layer {
  name: "lstm1_x_transform"
  type: "InnerProduct"
  bottom: "x"
  top: "W_xc_x"
  param {
    name: "W_xc"
  }
  param {
    name: "b_c"
  }
  propagate_down: true
  inner_product_param {
    num_output: 64
    bias_term: true
    weight_filler {
      type: "xavier"
    }
    bias_filler {
      type: "constant"
    }
    axis: 2
  }
}
layer {
  name: "lstm1_W_xc_x_slice"
  type: "Slice"
  bottom: "W_xc_x"
  top: "W_xc_x_1"
  top: "W_xc_x_2"
  top: "W_xc_x_3"
  top: "W_xc_x_4"
  top: "W_xc_x_5"
  top: "W_xc_x_6"
  top: "W_xc_x_7"
  top: "W_xc_x_8"
  top: "W_xc_x_9"
  top: "W_xc_x_10"
  top: "W_xc_x_11"
  top: "W_xc_x_12"
  top: "W_xc_x_13"
  top: "W_xc_x_14"
  top: "W_xc_x_15"
  top: "W_xc_x_16"
  slice_param {
    axis: 0
  }
}
layer {
  name: "lstm1_h_conted_0"
  type: "Scale"
  bottom: "h_0"
  bottom: "cont_1"
  top: "h_conted_0"
  scale_param {
    axis: 0
  }
}
layer {
  name: "lstm1_transform_1"
  type: "InnerProduct"
  bottom: "h_conted_0"
  top: "W_hc_h_0"
  param {
    name: "W_hc"
  }
  inner_product_param {
    num_output: 64
    bias_term: false
    weight_filler {
      type: "xavier"
    }
    axis: 2
  }
}
layer {
  name: "lstm1_gate_input_1"
  type: "Eltwise"
  bottom: "W_hc_h_0"
  bottom: "W_xc_x_1"
  top: "gate_input_1"
  eltwise_param {
    operation: SUM
  }
}
layer {
  name: "lstm1_unit_1"
  type: "LSTMUnit"
  bottom: "c_0"
  bottom: "gate_input_1"
  bottom: "cont_1"
  top: "c_1"
  top: "h_1"
}
layer {
  name: "lstm1_h_conted_1"
  type: "Scale"
  bottom: "h_1"
  bottom: "cont_2"
  top: "h_conted_1"
  scale_param {
    axis: 0
  }
}
layer {
  name: "lstm1_transform_2"
  type: "InnerProduct"
  bottom: "h_conted_1"
  top: "W_hc_h_1"
  param {
    name: "W_hc"
  }
  inner_product_param {
    num_output: 64
    bias_term: false
    weight_filler {
      type: "xavier"
    }
    axis: 2
  }
}
layer {
  name: "lstm1_gate_input_2"
  type: "Eltwise"
  bottom: "W_hc_h_1"
  bottom: "W_xc_x_2"
  top: "gate_input_2"
  eltwise_param {
    operation: SUM
  }
}
layer {
  name: "lstm1_unit_2"
  type: "LSTMUnit"
  bottom: "c_1"
  bottom: "gate_input_2"
  bottom: "cont_2"
  top: "c_2"
  top: "h_2"
}
layer {
  name: "lstm1_h_conted_2"
  type: "Scale"
  bottom: "h_2"
  bottom: "cont_3"
  top: "h_conted_2"
  scale_param {
    axis: 0
  }
}
layer {
  name: "lstm1_transform_3"
  type: "InnerProduct"
  bottom: "h_conted_2"
  top: "W_hc_h_2"
  param {
    name: "W_hc"
  }
  inner_product_param {
    num_output: 64
    bias_term: false
    weight_filler {
      type: "xavier"
    }
    axis: 2
  }
}
layer {
  name: "lstm1_gate_input_3"
  type: "Eltwise"
  bottom: "W_hc_h_2"
  bottom: "W_xc_x_3"
  top: "gate_input_3"
  eltwise_param {
    operation: SUM
  }
}
layer {
  name: "lstm1_unit_3"
  type: "LSTMUnit"
  bottom: "c_2"
  bottom: "gate_input_3"
  bottom: "cont_3"
  top: "c_3"
  top: "h_3"
}
layer {
  name: "lstm1_h_conted_3"
  type: "Scale"
  bottom: "h_3"
  bottom: "cont_4"
  top: "h_conted_3"
  scale_param {
    axis: 0
  }
}
layer {
  name: "lstm1_transform_4"
  type: "InnerProduct"
  bottom: "h_conted_3"
  top: "W_hc_h_3"
  param {
    name: "W_hc"
  }
  inner_product_param {
    num_output: 64
    bias_term: false
    weight_filler {
      type: "xavier"
    }
    axis: 2
  }
}
layer {
  name: "lstm1_gate_input_4"
  type: "Eltwise"
  bottom: "W_hc_h_3"
  bottom: "W_xc_x_4"
  top: "gate_input_4"
  eltwise_param {
    operation: SUM
  }
}
layer {
  name: "lstm1_unit_4"
  type: "LSTMUnit"
  bottom: "c_3"
  bottom: "gate_input_4"
  bottom: "cont_4"
  top: "c_4"
  top: "h_4"
}
layer {
  name: "lstm1_h_conted_4"
  type: "Scale"
  bottom: "h_4"
  bottom: "cont_5"
  top: "h_conted_4"
  scale_param {
    axis: 0
  }
}
layer {
  name: "lstm1_transform_5"
  type: "InnerProduct"
  bottom: "h_conted_4"
  top: "W_hc_h_4"
  param {
    name: "W_hc"
  }
  inner_product_param {
    num_output: 64
    bias_term: false
    weight_filler {
      type: "xavier"
    }
    axis: 2
  }
}
layer {
  name: "lstm1_gate_input_5"
  type: "Eltwise"
  bottom: "W_hc_h_4"
  bottom: "W_xc_x_5"
  top: "gate_input_5"
  eltwise_param {
    operation: SUM
  }
}
layer {
  name: "lstm1_unit_5"
  type: "LSTMUnit"
  bottom: "c_4"
  bottom: "gate_input_5"
  bottom: "cont_5"
  top: "c_5"
  top: "h_5"
}
layer {
  name: "lstm1_h_conted_5"
  type: "Scale"
  bottom: "h_5"
  bottom: "cont_6"
  top: "h_conted_5"
  scale_param {
    axis: 0
  }
}
layer {
  name: "lstm1_transform_6"
  type: "InnerProduct"
  bottom: "h_conted_5"
  top: "W_hc_h_5"
  param {
    name: "W_hc"
  }
  inner_product_param {
    num_output: 64
    bias_term: false
    weight_filler {
      type: "xavier"
    }
    axis: 2
  }
}
layer {
  name: "lstm1_gate_input_6"
  type: "Eltwise"
  bottom: "W_hc_h_5"
  bottom: "W_xc_x_6"
  top: "gate_input_6"
  eltwise_param {
    operation: SUM
  }
}
layer {
  name: "lstm1_unit_6"
  type: "LSTMUnit"
  bottom: "c_5"
  bottom: "gate_input_6"
  bottom: "cont_6"
  top: "c_6"
  top: "h_6"
}
layer {
  name: "lstm1_h_conted_6"
  type: "Scale"
  bottom: "h_6"
  bottom: "cont_7"
  top: "h_conted_6"
  scale_param {
    axis: 0
  }
}
layer {
  name: "lstm1_transform_7"
  type: "InnerProduct"
  bottom: "h_conted_6"
  top: "W_hc_h_6"
  param {
    name: "W_hc"
  }
  inner_product_param {
    num_output: 64
    bias_term: false
    weight_filler {
      type: "xavier"
    }
    axis: 2
  }
}
layer {
  name: "lstm1_gate_input_7"
  type: "Eltwise"
  bottom: "W_hc_h_6"
  bottom: "W_xc_x_7"
  top: "gate_input_7"
  eltwise_param {
    operation: SUM
  }
}
layer {
  name: "lstm1_unit_7"
  type: "LSTMUnit"
  bottom: "c_6"
  bottom: "gate_input_7"
  bottom: "cont_7"
  top: "c_7"
  top: "h_7"
}
layer {
  name: "lstm1_h_conted_7"
  type: "Scale"
  bottom: "h_7"
  bottom: "cont_8"
  top: "h_conted_7"
  scale_param {
    axis: 0
  }
}
layer {
  name: "lstm1_transform_8"
  type: "InnerProduct"
  bottom: "h_conted_7"
  top: "W_hc_h_7"
  param {
    name: "W_hc"
  }
  inner_product_param {
    num_output: 64
    bias_term: false
    weight_filler {
      type: "xavier"
    }
    axis: 2
  }
}
layer {
  name: "lstm1_gate_input_8"
  type: "Eltwise"
  bottom: "W_hc_h_7"
  bottom: "W_xc_x_8"
  top: "gate_input_8"
  eltwise_param {
    operation: SUM
  }
}
layer {
  name: "lstm1_unit_8"
  type: "LSTMUnit"
  bottom: "c_7"
  bottom: "gate_input_8"
  bottom: "cont_8"
  top: "c_8"
  top: "h_8"
}
layer {
  name: "lstm1_h_conted_8"
  type: "Scale"
  bottom: "h_8"
  bottom: "cont_9"
  top: "h_conted_8"
  scale_param {
    axis: 0
  }
}
layer {
  name: "lstm1_transform_9"
  type: "InnerProduct"
  bottom: "h_conted_8"
  top: "W_hc_h_8"
  param {
    name: "W_hc"
  }
  inner_product_param {
    num_output: 64
    bias_term: false
    weight_filler {
      type: "xavier"
    }
    axis: 2
  }
}
layer {
  name: "lstm1_gate_input_9"
  type: "Eltwise"
  bottom: "W_hc_h_8"
  bottom: "W_xc_x_9"
  top: "gate_input_9"
  eltwise_param {
    operation: SUM
  }
}
layer {
  name: "lstm1_unit_9"
  type: "LSTMUnit"
  bottom: "c_8"
  bottom: "gate_input_9"
  bottom: "cont_9"
  top: "c_9"
  top: "h_9"
}
layer {
  name: "lstm1_h_conted_9"
  type: "Scale"
  bottom: "h_9"
  bottom: "cont_10"
  top: "h_conted_9"
  scale_param {
    axis: 0
  }
}
layer {
  name: "lstm1_transform_10"
  type: "InnerProduct"
  bottom: "h_conted_9"
  top: "W_hc_h_9"
  param {
    name: "W_hc"
  }
  inner_product_param {
    num_output: 64
    bias_term: false
    weight_filler {
      type: "xavier"
    }
    axis: 2
  }
}
layer {
  name: "lstm1_gate_input_10"
  type: "Eltwise"
  bottom: "W_hc_h_9"
  bottom: "W_xc_x_10"
  top: "gate_input_10"
  eltwise_param {
    operation: SUM
  }
}
layer {
  name: "lstm1_unit_10"
  type: "LSTMUnit"
  bottom: "c_9"
  bottom: "gate_input_10"
  bottom: "cont_10"
  top: "c_10"
  top: "h_10"
}
layer {
  name: "lstm1_h_conted_10"
  type: "Scale"
  bottom: "h_10"
  bottom: "cont_11"
  top: "h_conted_10"
  scale_param {
    axis: 0
  }
}
layer {
  name: "lstm1_transform_11"
  type: "InnerProduct"
  bottom: "h_conted_10"
  top: "W_hc_h_10"
  param {
    name: "W_hc"
  }
  inner_product_param {
    num_output: 64
    bias_term: false
    weight_filler {
      type: "xavier"
    }
    axis: 2
  }
}
layer {
  name: "lstm1_gate_input_11"
  type: "Eltwise"
  bottom: "W_hc_h_10"
  bottom: "W_xc_x_11"
  top: "gate_input_11"
  eltwise_param {
    operation: SUM
  }
}
layer {
  name: "lstm1_unit_11"
  type: "LSTMUnit"
  bottom: "c_10"
  bottom: "gate_input_11"
  bottom: "cont_11"
  top: "c_11"
  top: "h_11"
}
layer {
  name: "lstm1_h_conted_11"
  type: "Scale"
  bottom: "h_11"
  bottom: "cont_12"
  top: "h_conted_11"
  scale_param {
    axis: 0
  }
}
layer {
  name: "lstm1_transform_12"
  type: "InnerProduct"
  bottom: "h_conted_11"
  top: "W_hc_h_11"
  param {
    name: "W_hc"
  }
  inner_product_param {
    num_output: 64
    bias_term: false
    weight_filler {
      type: "xavier"
    }
    axis: 2
  }
}
layer {
  name: "lstm1_gate_input_12"
  type: "Eltwise"
  bottom: "W_hc_h_11"
  bottom: "W_xc_x_12"
  top: "gate_input_12"
  eltwise_param {
    operation: SUM
  }
}
layer {
  name: "lstm1_unit_12"
  type: "LSTMUnit"
  bottom: "c_11"
  bottom: "gate_input_12"
  bottom: "cont_12"
  top: "c_12"
  top: "h_12"
}
layer {
  name: "lstm1_h_conted_12"
  type: "Scale"
  bottom: "h_12"
  bottom: "cont_13"
  top: "h_conted_12"
  scale_param {
    axis: 0
  }
}
layer {
  name: "lstm1_transform_13"
  type: "InnerProduct"
  bottom: "h_conted_12"
  top: "W_hc_h_12"
  param {
    name: "W_hc"
  }
  inner_product_param {
    num_output: 64
    bias_term: false
    weight_filler {
      type: "xavier"
    }
    axis: 2
  }
}
layer {
  name: "lstm1_gate_input_13"
  type: "Eltwise"
  bottom: "W_hc_h_12"
  bottom: "W_xc_x_13"
  top: "gate_input_13"
  eltwise_param {
    operation: SUM
  }
}
layer {
  name: "lstm1_unit_13"
  type: "LSTMUnit"
  bottom: "c_12"
  bottom: "gate_input_13"
  bottom: "cont_13"
  top: "c_13"
  top: "h_13"
}
layer {
  name: "lstm1_h_conted_13"
  type: "Scale"
  bottom: "h_13"
  bottom: "cont_14"
  top: "h_conted_13"
  scale_param {
    axis: 0
  }
}
layer {
  name: "lstm1_transform_14"
  type: "InnerProduct"
  bottom: "h_conted_13"
  top: "W_hc_h_13"
  param {
    name: "W_hc"
  }
  inner_product_param {
    num_output: 64
    bias_term: false
    weight_filler {
      type: "xavier"
    }
    axis: 2
  }
}
layer {
  name: "lstm1_gate_input_14"
  type: "Eltwise"
  bottom: "W_hc_h_13"
  bottom: "W_xc_x_14"
  top: "gate_input_14"
  eltwise_param {
    operation: SUM
  }
}
layer {
  name: "lstm1_unit_14"
  type: "LSTMUnit"
  bottom: "c_13"
  bottom: "gate_input_14"
  bottom: "cont_14"
  top: "c_14"
  top: "h_14"
}
layer {
  name: "lstm1_h_conted_14"
  type: "Scale"
  bottom: "h_14"
  bottom: "cont_15"
  top: "h_conted_14"
  scale_param {
    axis: 0
  }
}
layer {
  name: "lstm1_transform_15"
  type: "InnerProduct"
  bottom: "h_conted_14"
  top: "W_hc_h_14"
  param {
    name: "W_hc"
  }
  inner_product_param {
    num_output: 64
    bias_term: false
    weight_filler {
      type: "xavier"
    }
    axis: 2
  }
}
layer {
  name: "lstm1_gate_input_15"
  type: "Eltwise"
  bottom: "W_hc_h_14"
  bottom: "W_xc_x_15"
  top: "gate_input_15"
  eltwise_param {
    operation: SUM
  }
}
layer {
  name: "lstm1_unit_15"
  type: "LSTMUnit"
  bottom: "c_14"
  bottom: "gate_input_15"
  bottom: "cont_15"
  top: "c_15"
  top: "h_15"
}
layer {
  name: "lstm1_h_conted_15"
  type: "Scale"
  bottom: "h_15"
  bottom: "cont_16"
  top: "h_conted_15"
  scale_param {
    axis: 0
  }
}
layer {
  name: "lstm1_transform_16"
  type: "InnerProduct"
  bottom: "h_conted_15"
  top: "W_hc_h_15"
  param {
    name: "W_hc"
  }
  inner_product_param {
    num_output: 64
    bias_term: false
    weight_filler {
      type: "xavier"
    }
    axis: 2
  }
}
layer {
  name: "lstm1_gate_input_16"
  type: "Eltwise"
  bottom: "W_hc_h_15"
  bottom: "W_xc_x_16"
  top: "gate_input_16"
  eltwise_param {
    operation: SUM
  }
}
layer {
  name: "lstm1_unit_16"
  type: "LSTMUnit"
  bottom: "c_15"
  bottom: "gate_input_16"
  bottom: "cont_16"
  top: "c_16"
  top: "h_16"
}
layer {
  name: "lstm1_"
  type: "Split"
  bottom: "c_16"
  top: "c_T"
}
layer {
  name: "lstm1_h_concat"
  type: "Concat"
  bottom: "h_1"
  bottom: "h_2"
  bottom: "h_3"
  bottom: "h_4"
  bottom: "h_5"
  bottom: "h_6"
  bottom: "h_7"
  bottom: "h_8"
  bottom: "h_9"
  bottom: "h_10"
  bottom: "h_11"
  bottom: "h_12"
  bottom: "h_13"
  bottom: "h_14"
  bottom: "h_15"
  bottom: "h_16"
  top: "h"
  concat_param {
    axis: 0
  }
}
layer {
  name: "h_pseudoloss"
  type: "Reduction"
  bottom: "h"
  top: "h_pseudoloss"
  loss_weight: 1
}
I0228 21:31:38.230691 13785 layer_factory.hpp:77] Creating layer lstm1_
I0228 21:31:38.230702 13785 net.cpp:84] Creating Layer lstm1_
I0228 21:31:38.230707 13785 net.cpp:380] lstm1_ -> x
I0228 21:31:38.230715 13785 net.cpp:380] lstm1_ -> cont
I0228 21:31:38.230742 13785 net.cpp:122] Setting up lstm1_
I0228 21:31:38.230751 13785 net.cpp:129] Top shape: 16 13 1 (208)
I0228 21:31:38.230754 13785 net.cpp:129] Top shape: 16 13 (208)
I0228 21:31:38.230758 13785 net.cpp:137] Memory required for data: 1664
I0228 21:31:38.230762 13785 layer_factory.hpp:77] Creating layer lstm1_
I0228 21:31:38.230767 13785 net.cpp:84] Creating Layer lstm1_
I0228 21:31:38.230770 13785 net.cpp:380] lstm1_ -> c_0
I0228 21:31:38.230777 13785 net.cpp:380] lstm1_ -> h_0
I0228 21:31:38.230794 13785 net.cpp:122] Setting up lstm1_
I0228 21:31:38.230800 13785 net.cpp:129] Top shape: 1 13 16 (208)
I0228 21:31:38.230804 13785 net.cpp:129] Top shape: 1 13 16 (208)
I0228 21:31:38.230808 13785 net.cpp:137] Memory required for data: 3328
I0228 21:31:38.230811 13785 layer_factory.hpp:77] Creating layer lstm1_cont_slice
I0228 21:31:38.230821 13785 net.cpp:84] Creating Layer lstm1_cont_slice
I0228 21:31:38.230824 13785 net.cpp:406] lstm1_cont_slice <- cont
I0228 21:31:38.230830 13785 net.cpp:380] lstm1_cont_slice -> cont_1
I0228 21:31:38.230837 13785 net.cpp:380] lstm1_cont_slice -> cont_2
…
I0228 21:31:38.230876 13785 net.cpp:380] lstm1_cont_slice -> cont_9
I0228 21:31:38.230881 13785 net.cpp:380] lstm1_cont_slice -> cont_10
I0228 21:31:38.230886 13785 net.cpp:380] lstm1_cont_slice -> cont_11
I0228 21:31:38.230891 13785 net.cpp:380] lstm1_cont_slice -> cont_12
I0228 21:31:38.230896 13785 net.cpp:380] lstm1_cont_slice -> cont_13
I0228 21:31:38.230902 13785 net.cpp:380] lstm1_cont_slice -> cont_14
I0228 21:31:38.230908 13785 net.cpp:380] lstm1_cont_slice -> cont_15
I0228 21:31:38.230913 13785 net.cpp:380] lstm1_cont_slice -> cont_16
I0228 21:31:38.231009 13785 net.cpp:122] Setting up lstm1_cont_slice
I0228 21:31:38.231022 13785 net.cpp:129] Top shape: 1 13 (13)
I0228 21:31:38.231026 13785 net.cpp:129] Top shape: 1 13 (13)
I0228 21:31:38.231030 13785 net.cpp:129] Top shape: 1 13 (13)
I0228 21:31:38.231034 13785 net.cpp:129] Top shape: 1 13 (13)
I0228 21:31:38.231039 13785 net.cpp:129] Top shape: 1 13 (13)
I0228 21:31:38.231042 13785 net.cpp:129] Top shape: 1 13 (13)
I0228 21:31:38.231045 13785 net.cpp:129] Top shape: 1 13 (13)
I0228 21:31:38.231050 13785 net.cpp:129] Top shape: 1 13 (13)
I0228 21:31:38.231052 13785 net.cpp:129] Top shape: 1 13 (13)
I0228 21:31:38.231056 13785 net.cpp:129] Top shape: 1 13 (13)
I0228 21:31:38.231060 13785 net.cpp:129] Top shape: 1 13 (13)
I0228 21:31:38.231065 13785 net.cpp:129] Top shape: 1 13 (13)
I0228 21:31:38.231068 13785 net.cpp:129] Top shape: 1 13 (13)
I0228 21:31:38.231072 13785 net.cpp:129] Top shape: 1 13 (13)
I0228 21:31:38.231076 13785 net.cpp:129] Top shape: 1 13 (13)
I0228 21:31:38.231079 13785 net.cpp:129] Top shape: 1 13 (13)
I0228 21:31:38.231082 13785 net.cpp:137] Memory required for data: 4160
I0228 21:31:38.231086 13785 layer_factory.hpp:77] Creating layer cont_1_lstm1_cont_slice_0_split
I0228 21:31:38.231092 13785 net.cpp:84] Creating Layer cont_1_lstm1_cont_slice_0_split
I0228 21:31:38.231098 13785 net.cpp:406] cont_1_lstm1_cont_slice_0_split <- cont_1
I0228 21:31:38.231104 13785 net.cpp:380] cont_1_lstm1_cont_slice_0_split -> cont_1_lstm1_cont_slice_0_split_0
I0228 21:31:38.231112 13785 net.cpp:380] cont_1_lstm1_cont_slice_0_split -> cont_1_lstm1_cont_slice_0_split_1
I0228 21:31:38.231139 13785 net.cpp:122] Setting up cont_1_lstm1_cont_slice_0_split
I0228 21:31:38.231149 13785 net.cpp:129] Top shape: 1 13 (13)
I0228 21:31:38.231156 13785 net.cpp:129] Top shape: 1 13 (13)
I0228 21:31:38.231161 13785 net.cpp:137] Memory required for data: 4264
I0228 21:31:38.231166 13785 layer_factory.hpp:77] Creating layer cont_2_lstm1_cont_slice_1_split
I0228 21:31:38.231174 13785 net.cpp:84] Creating Layer cont_2_lstm1_cont_slice_1_split
I0228 21:31:38.231180 13785 net.cpp:406] cont_2_lstm1_cont_slice_1_split <- cont_2
I0228 21:31:38.231187 13785 net.cpp:380] cont_2_lstm1_cont_slice_1_split -> cont_2_lstm1_cont_slice_1_split_0
I0228 21:31:38.231196 13785 net.cpp:380] cont_2_lstm1_cont_slice_1_split -> cont_2_lstm1_cont_slice_1_split_1
I0228 21:31:38.231223 13785 net.cpp:122] Setting up cont_2_lstm1_cont_slice_1_split
I0228 21:31:38.231230 13785 net.cpp:129] Top shape: 1 13 (13)
I0228 21:31:38.231235 13785 net.cpp:129] Top shape: 1 13 (13)
I0228 21:31:38.231237 13785 net.cpp:137] Memory required for data: 4368
I0228 21:31:38.231240 13785 layer_factory.hpp:77] Creating layer cont_3_lstm1_cont_slice_2_split
I0228 21:31:38.231245 13785 net.cpp:84] Creating Layer cont_3_lstm1_cont_slice_2_split
I0228 21:31:38.231248 13785 net.cpp:406] cont_3_lstm1_cont_slice_2_split <- cont_3
I0228 21:31:38.231253 13785 net.cpp:380] cont_3_lstm1_cont_slice_2_split -> cont_3_lstm1_cont_slice_2_split_0
I0228 21:31:38.231258 13785 net.cpp:380] cont_3_lstm1_cont_slice_2_split -> cont_3_lstm1_cont_slice_2_split_1
I0228 21:31:38.231276 13785 net.cpp:122] Setting up cont_3_lstm1_cont_slice_2_split
I0228 21:31:38.231281 13785 net.cpp:129] Top shape: 1 13 (13)
I0228 21:31:38.231286 13785 net.cpp:129] Top shape: 1 13 (13)
I0228 21:31:38.231288 13785 net.cpp:137] Memory required for data: 4472
I0228 21:31:38.231292 13785 layer_factory.hpp:77] Creating layer cont_4_lstm1_cont_slice_3_split
I0228 21:31:38.231295 13785 net.cpp:84] Creating Layer cont_4_lstm1_cont_slice_3_split
I0228 21:31:38.231298 13785 net.cpp:406] cont_4_lstm1_cont_slice_3_split <- cont_4
I0228 21:31:38.231303 13785 net.cpp:380] cont_4_lstm1_cont_slice_3_split -> cont_4_lstm1_cont_slice_3_split_0
I0228 21:31:38.231308 13785 net.cpp:380] cont_4_lstm1_cont_slice_3_split -> cont_4_lstm1_cont_slice_3_split_1
I0228 21:31:38.231325 13785 net.cpp:122] Setting up cont_4_lstm1_cont_slice_3_split
I0228 21:31:38.231330 13785 net.cpp:129] Top shape: 1 13 (13)
I0228 21:31:38.231334 13785 net.cpp:129] Top shape: 1 13 (13)
I0228 21:31:38.231343 13785 net.cpp:137] Memory required for data: 4576
I0228 21:31:38.231348 13785 layer_factory.hpp:77] Creating layer cont_5_lstm1_cont_slice_4_split
I0228 21:31:38.231350 13785 net.cpp:84] Creating Layer cont_5_lstm1_cont_slice_4_split
I0228 21:31:38.231353 13785 net.cpp:406] cont_5_lstm1_cont_slice_4_split <- cont_5
I0228 21:31:38.231357 13785 net.cpp:380] cont_5_lstm1_cont_slice_4_split -> cont_5_lstm1_cont_slice_4_split_0
I0228 21:31:38.231362 13785 net.cpp:380] cont_5_lstm1_cont_slice_4_split -> cont_5_lstm1_cont_slice_4_split_1
I0228 21:31:38.231381 13785 net.cpp:122] Setting up cont_5_lstm1_cont_slice_4_split
I0228 21:31:38.231386 13785 net.cpp:129] Top shape: 1 13 (13)
I0228 21:31:38.231390 13785 net.cpp:129] Top shape: 1 13 (13)
I0228 21:31:38.231393 13785 net.cpp:137] Memory required for data: 4680
I0228 21:31:38.231396 13785 layer_factory.hpp:77] Creating layer cont_6_lstm1_cont_slice_5_split
I0228 21:31:38.231402 13785 net.cpp:84] Creating Layer cont_6_lstm1_cont_slice_5_split
I0228 21:31:38.231406 13785 net.cpp:406] cont_6_lstm1_cont_slice_5_split <- cont_6
I0228 21:31:38.231410 13785 net.cpp:380] cont_6_lstm1_cont_slice_5_split -> cont_6_lstm1_cont_slice_5_split_0
I0228 21:31:38.231415 13785 net.cpp:380] cont_6_lstm1_cont_slice_5_split -> cont_6_lstm1_cont_slice_5_split_1
I0228 21:31:38.231431 13785 net.cpp:122] Setting up cont_6_lstm1_cont_slice_5_split
I0228 21:31:38.231482 13785 net.cpp:129] Top shape: 1 13 (13)
I0228 21:31:38.231487 13785 net.cpp:129] Top shape: 1 13 (13)
I0228 21:31:38.231489 13785 net.cpp:137] Memory required for data: 4784
I0228 21:31:38.231492 13785 layer_factory.hpp:77] Creating layer cont_7_lstm1_cont_slice_6_split
I0228 21:31:38.231497 13785 net.cpp:84] Creating Layer cont_7_lstm1_cont_slice_6_split
I0228 21:31:38.231500 13785 net.cpp:406] cont_7_lstm1_cont_slice_6_split <- cont_7
I0228 21:31:38.231504 13785 net.cpp:380] cont_7_lstm1_cont_slice_6_split -> cont_7_lstm1_cont_slice_6_split_0
I0228 21:31:38.231511 13785 net.cpp:380] cont_7_lstm1_cont_slice_6_split -> cont_7_lstm1_cont_slice_6_split_1
I0228 21:31:38.231530 13785 net.cpp:122] Setting up cont_7_lstm1_cont_slice_6_split
I0228 21:31:38.231536 13785 net.cpp:129] Top shape: 1 13 (13)
I0228 21:31:38.231540 13785 net.cpp:129] Top shape: 1 13 (13)
I0228 21:31:38.231544 13785 net.cpp:137] Memory required for data: 4888
I0228 21:31:38.231547 13785 layer_factory.hpp:77] Creating layer cont_8_lstm1_cont_slice_7_split
I0228 21:31:38.231550 13785 net.cpp:84] Creating Layer cont_8_lstm1_cont_slice_7_split
I0228 21:31:38.231554 13785 net.cpp:406] cont_8_lstm1_cont_slice_7_split <- cont_8
I0228 21:31:38.231559 13785 net.cpp:380] cont_8_lstm1_cont_slice_7_split -> cont_8_lstm1_cont_slice_7_split_0
I0228 21:31:38.231564 13785 net.cpp:380] cont_8_lstm1_cont_slice_7_split -> cont_8_lstm1_cont_slice_7_split_1
I0228 21:31:38.231580 13785 net.cpp:122] Setting up cont_8_lstm1_cont_slice_7_split
I0228 21:31:38.231585 13785 net.cpp:129] Top shape: 1 13 (13)
I0228 21:31:38.231588 13785 net.cpp:129] Top shape: 1 13 (13)
I0228 21:31:38.231591 13785 net.cpp:137] Memory required for data: 4992
I0228 21:31:38.231595 13785 layer_factory.hpp:77] Creating layer cont_9_lstm1_cont_slice_8_split
I0228 21:31:38.231600 13785 net.cpp:84] Creating Layer cont_9_lstm1_cont_slice_8_split
I0228 21:31:38.231602 13785 net.cpp:406] cont_9_lstm1_cont_slice_8_split <- cont_9
I0228 21:31:38.231606 13785 net.cpp:380] cont_9_lstm1_cont_slice_8_split -> cont_9_lstm1_cont_slice_8_split_0
I0228 21:31:38.231611 13785 net.cpp:380] cont_9_lstm1_cont_slice_8_split -> cont_9_lstm1_cont_slice_8_split_1
I0228 21:31:38.231627 13785 net.cpp:122] Setting up cont_9_lstm1_cont_slice_8_split
I0228 21:31:38.231632 13785 net.cpp:129] Top shape: 1 13 (13)
I0228 21:31:38.231637 13785 net.cpp:129] Top shape: 1 13 (13)
I0228 21:31:38.231639 13785 net.cpp:137] Memory required for data: 5096
I0228 21:31:38.231642 13785 layer_factory.hpp:77] Creating layer cont_10_lstm1_cont_slice_9_split
I0228 21:31:38.231647 13785 net.cpp:84] Creating Layer cont_10_lstm1_cont_slice_9_split
I0228 21:31:38.231654 13785 net.cpp:406] cont_10_lstm1_cont_slice_9_split <- cont_10
I0228 21:31:38.231659 13785 net.cpp:380] cont_10_lstm1_cont_slice_9_split -> cont_10_lstm1_cont_slice_9_split_0
I0228 21:31:38.231663 13785 net.cpp:380] cont_10_lstm1_cont_slice_9_split -> cont_10_lstm1_cont_slice_9_split_1
I0228 21:31:38.231680 13785 net.cpp:122] Setting up cont_10_lstm1_cont_slice_9_split
I0228 21:31:38.231685 13785 net.cpp:129] Top shape: 1 13 (13)
I0228 21:31:38.231689 13785 net.cpp:129] Top shape: 1 13 (13)
I0228 21:31:38.231693 13785 net.cpp:137] Memory required for data: 5200
I0228 21:31:38.231695 13785 layer_factory.hpp:77] Creating layer cont_11_lstm1_cont_slice_10_split
I0228 21:31:38.231699 13785 net.cpp:84] Creating Layer cont_11_lstm1_cont_slice_10_split
I0228 21:31:38.231703 13785 net.cpp:406] cont_11_lstm1_cont_slice_10_split <- cont_11
I0228 21:31:38.231706 13785 net.cpp:380] cont_11_lstm1_cont_slice_10_split -> cont_11_lstm1_cont_slice_10_split_0
I0228 21:31:38.231712 13785 net.cpp:380] cont_11_lstm1_cont_slice_10_split -> cont_11_lstm1_cont_slice_10_split_1
I0228 21:31:38.231729 13785 net.cpp:122] Setting up cont_11_lstm1_cont_slice_10_split
I0228 21:31:38.231734 13785 net.cpp:129] Top shape: 1 13 (13)
I0228 21:31:38.231737 13785 net.cpp:129] Top shape: 1 13 (13)
I0228 21:31:38.231740 13785 net.cpp:137] Memory required for data: 5304
I0228 21:31:38.231743 13785 layer_factory.hpp:77] Creating layer cont_12_lstm1_cont_slice_11_split
I0228 21:31:38.231750 13785 net.cpp:84] Creating Layer cont_12_lstm1_cont_slice_11_split
I0228 21:31:38.231753 13785 net.cpp:406] cont_12_lstm1_cont_slice_11_split <- cont_12
I0228 21:31:38.231757 13785 net.cpp:380] cont_12_lstm1_cont_slice_11_split -> cont_12_lstm1_cont_slice_11_split_0
I0228 21:31:38.231762 13785 net.cpp:380] cont_12_lstm1_cont_slice_11_split -> cont_12_lstm1_cont_slice_11_split_1
I0228 21:31:38.231779 13785 net.cpp:122] Setting up cont_12_lstm1_cont_slice_11_split
I0228 21:31:38.231786 13785 net.cpp:129] Top shape: 1 13 (13)
I0228 21:31:38.231792 13785 net.cpp:129] Top shape: 1 13 (13)
I0228 21:31:38.231797 13785 net.cpp:137] Memory required for data: 5408
I0228 21:31:38.231801 13785 layer_factory.hpp:77] Creating layer cont_13_lstm1_cont_slice_12_split
I0228 21:31:38.231807 13785 net.cpp:84] Creating Layer cont_13_lstm1_cont_slice_12_split
I0228 21:31:38.231827 13785 net.cpp:406] cont_13_lstm1_cont_slice_12_split <- cont_13
I0228 21:31:38.231832 13785 net.cpp:380] cont_13_lstm1_cont_slice_12_split -> cont_13_lstm1_cont_slice_12_split_0
I0228 21:31:38.231839 13785 net.cpp:380] cont_13_lstm1_cont_slice_12_split -> cont_13_lstm1_cont_slice_12_split_1
I0228 21:31:38.231861 13785 net.cpp:122] Setting up cont_13_lstm1_cont_slice_12_split
I0228 21:31:38.231868 13785 net.cpp:129] Top shape: 1 13 (13)
I0228 21:31:38.231873 13785 net.cpp:129] Top shape: 1 13 (13)
I0228 21:31:38.231875 13785 net.cpp:137] Memory required for data: 5512
I0228 21:31:38.231878 13785 layer_factory.hpp:77] Creating layer cont_14_lstm1_cont_slice_13_split
I0228 21:31:38.231884 13785 net.cpp:84] Creating Layer cont_14_lstm1_cont_slice_13_split
I0228 21:31:38.231887 13785 net.cpp:406] cont_14_lstm1_cont_slice_13_split <- cont_14
I0228 21:31:38.231891 13785 net.cpp:380] cont_14_lstm1_cont_slice_13_split -> cont_14_lstm1_cont_slice_13_split_0
I0228 21:31:38.231897 13785 net.cpp:380] cont_14_lstm1_cont_slice_13_split -> cont_14_lstm1_cont_slice_13_split_1
I0228 21:31:38.231912 13785 net.cpp:122] Setting up cont_14_lstm1_cont_slice_13_split
I0228 21:31:38.231919 13785 net.cpp:129] Top shape: 1 13 (13)
I0228 21:31:38.231921 13785 net.cpp:129] Top shape: 1 13 (13)
I0228 21:31:38.231925 13785 net.cpp:137] Memory required for data: 5616
I0228 21:31:38.231927 13785 layer_factory.hpp:77] Creating layer cont_15_lstm1_cont_slice_14_split
I0228 21:31:38.231932 13785 net.cpp:84] Creating Layer cont_15_lstm1_cont_slice_14_split
I0228 21:31:38.231935 13785 net.cpp:406] cont_15_lstm1_cont_slice_14_split <- cont_15
I0228 21:31:38.231940 13785 net.cpp:380] cont_15_lstm1_cont_slice_14_split -> cont_15_lstm1_cont_slice_14_split_0
I0228 21:31:38.231948 13785 net.cpp:380] cont_15_lstm1_cont_slice_14_split -> cont_15_lstm1_cont_slice_14_split_1
I0228 21:31:38.231966 13785 net.cpp:122] Setting up cont_15_lstm1_cont_slice_14_split
I0228 21:31:38.231971 13785 net.cpp:129] Top shape: 1 13 (13)
I0228 21:31:38.231976 13785 net.cpp:129] Top shape: 1 13 (13)
I0228 21:31:38.231978 13785 net.cpp:137] Memory required for data: 5720
I0228 21:31:38.231981 13785 layer_factory.hpp:77] Creating layer cont_16_lstm1_cont_slice_15_split
I0228 21:31:38.231986 13785 net.cpp:84] Creating Layer cont_16_lstm1_cont_slice_15_split
I0228 21:31:38.231988 13785 net.cpp:406] cont_16_lstm1_cont_slice_15_split <- cont_16
I0228 21:31:38.231992 13785 net.cpp:380] cont_16_lstm1_cont_slice_15_split -> cont_16_lstm1_cont_slice_15_split_0
I0228 21:31:38.231997 13785 net.cpp:380] cont_16_lstm1_cont_slice_15_split -> cont_16_lstm1_cont_slice_15_split_1
I0228 21:31:38.232013 13785 net.cpp:122] Setting up cont_16_lstm1_cont_slice_15_split
I0228 21:31:38.232017 13785 net.cpp:129] Top shape: 1 13 (13)
I0228 21:31:38.246296 13785 net.cpp:129] Top shape: 1 13 (13)
I0228 21:31:38.246310 13785 net.cpp:137] Memory required for data: 5824
I0228 21:31:38.246317 13785 layer_factory.hpp:77] Creating layer lstm1_x_transform
I0228 21:31:38.246330 13785 net.cpp:84] Creating Layer lstm1_x_transform
I0228 21:31:38.246336 13785 net.cpp:406] lstm1_x_transform <- x
I0228 21:31:38.246348 13785 net.cpp:380] lstm1_x_transform -> W_xc_x
I0228 21:31:38.246879 13785 net.cpp:122] Setting up lstm1_x_transform
I0228 21:31:38.246892 13785 net.cpp:129] Top shape: 16 13 64 (13312)
I0228 21:31:38.246897 13785 net.cpp:137] Memory required for data: 59072
I0228 21:31:38.246984 13785 layer_factory.hpp:77] Creating layer lstm1_W_xc_x_slice
I0228 21:31:38.247000 13785 net.cpp:84] Creating Layer lstm1_W_xc_x_slice
I0228 21:31:38.247007 13785 net.cpp:406] lstm1_W_xc_x_slice <- W_xc_x
I0228 21:31:38.247014 13785 net.cpp:380] lstm1_W_xc_x_slice -> W_xc_x_1
I0228 21:31:38.247023 13785 net.cpp:380] lstm1_W_xc_x_slice -> W_xc_x_2
…
I0228 21:31:38.247078 13785 net.cpp:380] lstm1_W_xc_x_slice -> W_xc_x_10
I0228 21:31:38.247086 13785 net.cpp:380] lstm1_W_xc_x_slice -> W_xc_x_11
I0228 21:31:38.247092 13785 net.cpp:380] lstm1_W_xc_x_slice -> W_xc_x_12
I0228 21:31:38.247105 13785 net.cpp:380] lstm1_W_xc_x_slice -> W_xc_x_13
I0228 21:31:38.247112 13785 net.cpp:380] lstm1_W_xc_x_slice -> W_xc_x_14
I0228 21:31:38.247119 13785 net.cpp:380] lstm1_W_xc_x_slice -> W_xc_x_15
I0228 21:31:38.247125 13785 net.cpp:380] lstm1_W_xc_x_slice -> W_xc_x_16
I0228 21:31:38.247252 13785 net.cpp:122] Setting up lstm1_W_xc_x_slice
I0228 21:31:38.247262 13785 net.cpp:129] Top shape: 1 13 64 (832)
I0228 21:31:38.247268 13785 net.cpp:129] Top shape: 1 13 64 (832)
I0228 21:31:38.247274 13785 net.cpp:129] Top shape: 1 13 64 (832)
I0228 21:31:38.247279 13785 net.cpp:129] Top shape: 1 13 64 (832)
I0228 21:31:38.247284 13785 net.cpp:129] Top shape: 1 13 64 (832)
I0228 21:31:38.247289 13785 net.cpp:129] Top shape: 1 13 64 (832)
I0228 21:31:38.247294 13785 net.cpp:129] Top shape: 1 13 64 (832)
I0228 21:31:38.247300 13785 net.cpp:129] Top shape: 1 13 64 (832)
I0228 21:31:38.247306 13785 net.cpp:129] Top shape: 1 13 64 (832)
I0228 21:31:38.247325 13785 net.cpp:129] Top shape: 1 13 64 (832)
I0228 21:31:38.247330 13785 net.cpp:129] Top shape: 1 13 64 (832)
I0228 21:31:38.247352 13785 net.cpp:129] Top shape: 1 13 64 (832)
I0228 21:31:38.247359 13785 net.cpp:129] Top shape: 1 13 64 (832)
I0228 21:31:38.247364 13785 net.cpp:129] Top shape: 1 13 64 (832)
I0228 21:31:38.247392 13785 net.cpp:129] Top shape: 1 13 64 (832)
I0228 21:31:38.247398 13785 net.cpp:129] Top shape: 1 13 64 (832)
I0228 21:31:38.247402 13785 net.cpp:137] Memory required for data: 112320
I0228 21:31:38.247407 13785 layer_factory.hpp:77] Creating layer lstm1_h_conted_0
I0228 21:31:38.247416 13785 net.cpp:84] Creating Layer lstm1_h_conted_0
I0228 21:31:38.247421 13785 net.cpp:406] lstm1_h_conted_0 <- h_0
I0228 21:31:38.247440 13785 net.cpp:406] lstm1_h_conted_0 <- cont_1_lstm1_cont_slice_0_split_0
I0228 21:31:38.247448 13785 net.cpp:380] lstm1_h_conted_0 -> h_conted_0
I0228 21:31:38.247499 13785 net.cpp:122] Setting up lstm1_h_conted_0
I0228 21:31:38.247509 13785 net.cpp:129] Top shape: 1 13 16 (208)
I0228 21:31:38.247514 13785 net.cpp:137] Memory required for data: 113152
I0228 21:31:38.247517 13785 layer_factory.hpp:77] Creating layer lstm1_transform_1
I0228 21:31:38.247525 13785 net.cpp:84] Creating Layer lstm1_transform_1
I0228 21:31:38.247530 13785 net.cpp:406] lstm1_transform_1 <- h_conted_0
I0228 21:31:38.247536 13785 net.cpp:380] lstm1_transform_1 -> W_hc_h_0
I0228 21:31:38.248245 13785 net.cpp:122] Setting up lstm1_transform_1
I0228 21:31:38.248257 13785 net.cpp:129] Top shape: 1 13 64 (832)
I0228 21:31:38.248261 13785 net.cpp:137] Memory required for data: 116480
I0228 21:31:38.248270 13785 layer_factory.hpp:77] Creating layer lstm1_gate_input_1
I0228 21:31:38.248281 13785 net.cpp:84] Creating Layer lstm1_gate_input_1
I0228 21:31:38.248286 13785 net.cpp:406] lstm1_gate_input_1 <- W_hc_h_0
I0228 21:31:38.248289 13785 net.cpp:406] lstm1_gate_input_1 <- W_xc_x_1
I0228 21:31:38.248296 13785 net.cpp:380] lstm1_gate_input_1 -> gate_input_1
I0228 21:31:38.248314 13785 net.cpp:122] Setting up lstm1_gate_input_1
I0228 21:31:38.248322 13785 net.cpp:129] Top shape: 1 13 64 (832)
I0228 21:31:38.248324 13785 net.cpp:137] Memory required for data: 119808
I0228 21:31:38.248327 13785 layer_factory.hpp:77] Creating layer lstm1_unit_1
I0228 21:31:38.248332 13785 net.cpp:84] Creating Layer lstm1_unit_1
I0228 21:31:38.248337 13785 net.cpp:406] lstm1_unit_1 <- c_0
I0228 21:31:38.248340 13785 net.cpp:406] lstm1_unit_1 <- gate_input_1
I0228 21:31:38.248344 13785 net.cpp:406] lstm1_unit_1 <- cont_1_lstm1_cont_slice_0_split_1
I0228 21:31:38.248349 13785 net.cpp:380] lstm1_unit_1 -> c_1
I0228 21:31:38.248354 13785 net.cpp:380] lstm1_unit_1 -> h_1
I0228 21:31:38.248379 13785 net.cpp:122] Setting up lstm1_unit_1
I0228 21:31:38.248385 13785 net.cpp:129] Top shape: 1 13 16 (208)
I0228 21:31:38.248389 13785 net.cpp:129] Top shape: 1 13 16 (208)
I0228 21:31:38.248394 13785 net.cpp:137] Memory required for data: 121472
I0228 21:31:38.248396 13785 layer_factory.hpp:77] Creating layer h_1_lstm1_unit_1_1_split
I0228 21:31:38.248400 13785 net.cpp:84] Creating Layer h_1_lstm1_unit_1_1_split
I0228 21:31:38.248404 13785 net.cpp:406] h_1_lstm1_unit_1_1_split <- h_1
I0228 21:31:38.248407 13785 net.cpp:380] h_1_lstm1_unit_1_1_split -> h_1_lstm1_unit_1_1_split_0
I0228 21:31:38.248412 13785 net.cpp:380] h_1_lstm1_unit_1_1_split -> h_1_lstm1_unit_1_1_split_1
I0228 21:31:38.248432 13785 net.cpp:122] Setting up h_1_lstm1_unit_1_1_split
I0228 21:31:38.248438 13785 net.cpp:129] Top shape: 1 13 16 (208)
I0228 21:31:38.248441 13785 net.cpp:129] Top shape: 1 13 16 (208)
I0228 21:31:38.248445 13785 net.cpp:137] Memory required for data: 123136
I0228 21:31:38.248448 13785 layer_factory.hpp:77] Creating layer lstm1_h_conted_1
I0228 21:31:38.248452 13785 net.cpp:84] Creating Layer lstm1_h_conted_1
I0228 21:31:38.248456 13785 net.cpp:406] lstm1_h_conted_1 <- h_1_lstm1_unit_1_1_split_0
I0228 21:31:38.248461 13785 net.cpp:406] lstm1_h_conted_1 <- cont_2_lstm1_cont_slice_1_split_0
I0228 21:31:38.248466 13785 net.cpp:380] lstm1_h_conted_1 -> h_conted_1
I0228 21:31:38.248499 13785 net.cpp:122] Setting up lstm1_h_conted_1
I0228 21:31:38.248505 13785 net.cpp:129] Top shape: 1 13 16 (208)
I0228 21:31:38.248508 13785 net.cpp:137] Memory required for data: 123968
I0228 21:31:38.248512 13785 layer_factory.hpp:77] Creating layer lstm1_transform_2
I0228 21:31:38.248517 13785 net.cpp:84] Creating Layer lstm1_transform_2
I0228 21:31:38.248528 13785 net.cpp:406] lstm1_transform_2 <- h_conted_1
I0228 21:31:38.248534 13785 net.cpp:380] lstm1_transform_2 -> W_hc_h_1
I0228 21:31:38.248569 13785 net.cpp:122] Setting up lstm1_transform_2
I0228 21:31:38.248574 13785 net.cpp:129] Top shape: 1 13 64 (832)
I0228 21:31:38.248577 13785 net.cpp:137] Memory required for data: 127296
I0228 21:31:38.248581 13785 net.cpp:465] Sharing parameters 'W_hc' owned by layer 'lstm1_transform_1', param index 0
I0228 21:31:38.248584 13785 layer_factory.hpp:77] Creating layer lstm1_gate_input_2
I0228 21:31:38.248589 13785 net.cpp:84] Creating Layer lstm1_gate_input_2
I0228 21:31:38.248592 13785 net.cpp:406] lstm1_gate_input_2 <- W_hc_h_1
I0228 21:31:38.248596 13785 net.cpp:406] lstm1_gate_input_2 <- W_xc_x_2
I0228 21:31:38.249336 13785 net.cpp:380] lstm1_gate_input_2 -> gate_input_2
I0228 21:31:38.249375 13785 net.cpp:122] Setting up lstm1_gate_input_2
I0228 21:31:38.249383 13785 net.cpp:129] Top shape: 1 13 64 (832)
I0228 21:31:38.249387 13785 net.cpp:137] Memory required for data: 130624
I0228 21:31:38.249390 13785 layer_factory.hpp:77] Creating layer lstm1_unit_2
I0228 21:31:38.249394 13785 net.cpp:84] Creating Layer lstm1_unit_2
I0228 21:31:38.249399 13785 net.cpp:406] lstm1_unit_2 <- c_1
I0228 21:31:38.249404 13785 net.cpp:406] lstm1_unit_2 <- gate_input_2
I0228 21:31:38.249408 13785 net.cpp:406] lstm1_unit_2 <- cont_2_lstm1_cont_slice_1_split_1
I0228 21:31:38.249413 13785 net.cpp:380] lstm1_unit_2 -> c_2
I0228 21:31:38.249418 13785 net.cpp:380] lstm1_unit_2 -> h_2
I0228 21:31:38.249444 13785 net.cpp:122] Setting up lstm1_unit_2
I0228 21:31:38.249449 13785 net.cpp:129] Top shape: 1 13 16 (208)
I0228 21:31:38.249452 13785 net.cpp:129] Top shape: 1 13 16 (208)
I0228 21:31:38.249456 13785 net.cpp:137] Memory required for data: 132288
I0228 21:31:38.249459 13785 layer_factory.hpp:77] Creating layer h_2_lstm1_unit_2_1_split
I0228 21:31:38.249464 13785 net.cpp:84] Creating Layer h_2_lstm1_unit_2_1_split
I0228 21:31:38.249467 13785 net.cpp:406] h_2_lstm1_unit_2_1_split <- h_2
I0228 21:31:38.249472 13785 net.cpp:380] h_2_lstm1_unit_2_1_split -> h_2_lstm1_unit_2_1_split_0
I0228 21:31:38.249476 13785 net.cpp:380] h_2_lstm1_unit_2_1_split -> h_2_lstm1_unit_2_1_split_1
I0228 21:31:38.249495 13785 net.cpp:122] Setting up h_2_lstm1_unit_2_1_split
I0228 21:31:38.249500 13785 net.cpp:129] Top shape: 1 13 16 (208)
I0228 21:31:38.249505 13785 net.cpp:129] Top shape: 1 13 16 (208)
I0228 21:31:38.249507 13785 net.cpp:137] Memory required for data: 133952
I0228 21:31:38.249511 13785 layer_factory.hpp:77] Creating layer lstm1_h_conted_2
I0228 21:31:38.249514 13785 net.cpp:84] Creating Layer lstm1_h_conted_2
I0228 21:31:38.249517 13785 net.cpp:406] lstm1_h_conted_2 <- h_2_lstm1_unit_2_1_split_0
I0228 21:31:38.249521 13785 net.cpp:406] lstm1_h_conted_2 <- cont_3_lstm1_cont_slice_2_split_0
I0228 21:31:38.249526 13785 net.cpp:380] lstm1_h_conted_2 -> h_conted_2
I0228 21:31:38.249557 13785 net.cpp:122] Setting up lstm1_h_conted_2
I0228 21:31:38.249562 13785 net.cpp:129] Top shape: 1 13 16 (208)
I0228 21:31:38.249565 13785 net.cpp:137] Memory required for data: 134784
I0228 21:31:38.249569 13785 layer_factory.hpp:77] Creating layer lstm1_transform_3
I0228 21:31:38.249577 13785 net.cpp:84] Creating Layer lstm1_transform_3
I0228 21:31:38.249581 13785 net.cpp:406] lstm1_transform_3 <- h_conted_2
I0228 21:31:38.249588 13785 net.cpp:380] lstm1_transform_3 -> W_hc_h_2
I0228 21:31:38.249620 13785 net.cpp:122] Setting up lstm1_transform_3
I0228 21:31:38.249626 13785 net.cpp:129] Top shape: 1 13 64 (832)
I0228 21:31:38.249629 13785 net.cpp:137] Memory required for data: 138112
I0228 21:31:38.249634 13785 net.cpp:465] Sharing parameters 'W_hc' owned by layer 'lstm1_transform_1', param index 0
I0228 21:31:38.249639 13785 layer_factory.hpp:77] Creating layer lstm1_gate_input_3
I0228 21:31:38.249644 13785 net.cpp:84] Creating Layer lstm1_gate_input_3
I0228 21:31:38.249646 13785 net.cpp:406] lstm1_gate_input_3 <- W_hc_h_2
I0228 21:31:38.249650 13785 net.cpp:406] lstm1_gate_input_3 <- W_xc_x_3
I0228 21:31:38.249661 13785 net.cpp:380] lstm1_gate_input_3 -> gate_input_3
I0228 21:31:38.249677 13785 net.cpp:122] Setting up lstm1_gate_input_3
I0228 21:31:38.249683 13785 net.cpp:129] Top shape: 1 13 64 (832)
I0228 21:31:38.249686 13785 net.cpp:137] Memory required for data: 141440
I0228 21:31:38.249689 13785 layer_factory.hpp:77] Creating layer lstm1_unit_3
I0228 21:31:38.249693 13785 net.cpp:84] Creating Layer lstm1_unit_3
I0228 21:31:38.249696 13785 net.cpp:406] lstm1_unit_3 <- c_2
I0228 21:31:38.249701 13785 net.cpp:406] lstm1_unit_3 <- gate_input_3
I0228 21:31:38.249704 13785 net.cpp:406] lstm1_unit_3 <- cont_3_lstm1_cont_slice_2_split_1
I0228 21:31:38.249708 13785 net.cpp:380] lstm1_unit_3 -> c_3
I0228 21:31:38.249713 13785 net.cpp:380] lstm1_unit_3 -> h_3
I0228 21:31:38.249737 13785 net.cpp:122] Setting up lstm1_unit_3
I0228 21:31:38.249742 13785 net.cpp:129] Top shape: 1 13 16 (208)
I0228 21:31:38.249747 13785 net.cpp:129] Top shape: 1 13 16 (208)
I0228 21:31:38.249749 13785 net.cpp:137] Memory required for data: 143104
I0228 21:31:38.249752 13785 layer_factory.hpp:77] Creating layer h_3_lstm1_unit_3_1_split
I0228 21:31:38.249759 13785 net.cpp:84] Creating Layer h_3_lstm1_unit_3_1_split
I0228 21:31:38.249763 13785 net.cpp:406] h_3_lstm1_unit_3_1_split <- h_3
I0228 21:31:38.249768 13785 net.cpp:380] h_3_lstm1_unit_3_1_split -> h_3_lstm1_unit_3_1_split_0
I0228 21:31:38.249773 13785 net.cpp:380] h_3_lstm1_unit_3_1_split -> h_3_lstm1_unit_3_1_split_1
I0228 21:31:38.249789 13785 net.cpp:122] Setting up h_3_lstm1_unit_3_1_split
I0228 21:31:38.249795 13785 net.cpp:129] Top shape: 1 13 16 (208)
I0228 21:31:38.249799 13785 net.cpp:129] Top shape: 1 13 16 (208)
I0228 21:31:38.249802 13785 net.cpp:137] Memory required for data: 144768
I0228 21:31:38.249805 13785 layer_factory.hpp:77] Creating layer lstm1_h_conted_3
I0228 21:31:38.249810 13785 net.cpp:84] Creating Layer lstm1_h_conted_3
I0228 21:31:38.249814 13785 net.cpp:406] lstm1_h_conted_3 <- h_3_lstm1_unit_3_1_split_0
I0228 21:31:38.249819 13785 net.cpp:406] lstm1_h_conted_3 <- cont_4_lstm1_cont_slice_3_split_0
I0228 21:31:38.249824 13785 net.cpp:380] lstm1_h_conted_3 -> h_conted_3
I0228 21:31:38.249892 13785 net.cpp:122] Setting up lstm1_h_conted_3
I0228 21:31:38.249902 13785 net.cpp:129] Top shape: 1 13 16 (208)
I0228 21:31:38.249904 13785 net.cpp:137] Memory required for data: 145600
I0228 21:31:38.249908 13785 layer_factory.hpp:77] Creating layer lstm1_transform_4
I0228 21:31:38.249913 13785 net.cpp:84] Creating Layer lstm1_transform_4
I0228 21:31:38.249917 13785 net.cpp:406] lstm1_transform_4 <- h_conted_3
I0228 21:31:38.249922 13785 net.cpp:380] lstm1_transform_4 -> W_hc_h_3
I0228 21:31:38.249955 13785 net.cpp:122] Setting up lstm1_transform_4
I0228 21:31:38.249961 13785 net.cpp:129] Top shape: 1 13 64 (832)
I0228 21:31:38.249964 13785 net.cpp:137] Memory required for data: 148928
I0228 21:31:38.249970 13785 net.cpp:465] Sharing parameters 'W_hc' owned by layer 'lstm1_transform_1', param index 0
I0228 21:31:38.249974 13785 layer_factory.hpp:77] Creating layer lstm1_gate_input_4
I0228 21:31:38.249979 13785 net.cpp:84] Creating Layer lstm1_gate_input_4
I0228 21:31:38.249982 13785 net.cpp:406] lstm1_gate_input_4 <- W_hc_h_3
I0228 21:31:38.249986 13785 net.cpp:406] lstm1_gate_input_4 <- W_xc_x_4
I0228 21:31:38.249991 13785 net.cpp:380] lstm1_gate_input_4 -> gate_input_4
I0228 21:31:38.250006 13785 net.cpp:122] Setting up lstm1_gate_input_4
I0228 21:31:38.250012 13785 net.cpp:129] Top shape: 1 13 64 (832)
I0228 21:31:38.250015 13785 net.cpp:137] Memory required for data: 152256
I0228 21:31:38.250018 13785 layer_factory.hpp:77] Creating layer lstm1_unit_4
I0228 21:31:38.250023 13785 net.cpp:84] Creating Layer lstm1_unit_4
I0228 21:31:38.250027 13785 net.cpp:406] lstm1_unit_4 <- c_3
I0228 21:31:38.250031 13785 net.cpp:406] lstm1_unit_4 <- gate_input_4
I0228 21:31:38.250036 13785 net.cpp:406] lstm1_unit_4 <- cont_4_lstm1_cont_slice_3_split_1
I0228 21:31:38.250039 13785 net.cpp:380] lstm1_unit_4 -> c_4
I0228 21:31:38.250044 13785 net.cpp:380] lstm1_unit_4 -> h_4
I0228 21:31:38.250079 13785 net.cpp:122] Setting up lstm1_unit_4
I0228 21:31:38.250087 13785 net.cpp:129] Top shape: 1 13 16 (208)
I0228 21:31:38.250092 13785 net.cpp:129] Top shape: 1 13 16 (208)
I0228 21:31:38.250097 13785 net.cpp:137] Memory required for data: 153920
I0228 21:31:38.250100 13785 layer_factory.hpp:77] Creating layer h_4_lstm1_unit_4_1_split
I0228 21:31:38.250105 13785 net.cpp:84] Creating Layer h_4_lstm1_unit_4_1_split
I0228 21:31:38.250110 13785 net.cpp:406] h_4_lstm1_unit_4_1_split <- h_4
I0228 21:31:38.250116 13785 net.cpp:380] h_4_lstm1_unit_4_1_split -> h_4_lstm1_unit_4_1_split_0
I0228 21:31:38.250123 13785 net.cpp:380] h_4_lstm1_unit_4_1_split -> h_4_lstm1_unit_4_1_split_1
I0228 21:31:38.279762 13785 net.cpp:122] Setting up h_4_lstm1_unit_4_1_split
I0228 21:31:38.279781 13785 net.cpp:129] Top shape: 1 13 16 (208)
I0228 21:31:38.279784 13785 net.cpp:129] Top shape: 1 13 16 (208)
I0228 21:31:38.279788 13785 net.cpp:137] Memory required for data: 155584
I0228 21:31:38.279791 13785 layer_factory.hpp:77] Creating layer lstm1_h_conted_4
I0228 21:31:38.279808 13785 net.cpp:84] Creating Layer lstm1_h_conted_4
I0228 21:31:38.279812 13785 net.cpp:406] lstm1_h_conted_4 <- h_4_lstm1_unit_4_1_split_0
I0228 21:31:38.279817 13785 net.cpp:406] lstm1_h_conted_4 <- cont_5_lstm1_cont_slice_4_split_0
I0228 21:31:38.279824 13785 net.cpp:380] lstm1_h_conted_4 -> h_conted_4
I0228 21:31:38.279861 13785 net.cpp:122] Setting up lstm1_h_conted_4
I0228 21:31:38.279867 13785 net.cpp:129] Top shape: 1 13 16 (208)
I0228 21:31:38.279870 13785 net.cpp:137] Memory required for data: 156416
I0228 21:31:38.279872 13785 layer_factory.hpp:77] Creating layer lstm1_transform_5
I0228 21:31:38.279877 13785 net.cpp:84] Creating Layer lstm1_transform_5
I0228 21:31:38.279881 13785 net.cpp:406] lstm1_transform_5 <- h_conted_4
I0228 21:31:38.279886 13785 net.cpp:380] lstm1_transform_5 -> W_hc_h_4
I0228 21:31:38.279923 13785 net.cpp:122] Setting up lstm1_transform_5
I0228 21:31:38.279929 13785 net.cpp:129] Top shape: 1 13 64 (832)
I0228 21:31:38.279932 13785 net.cpp:137] Memory required for data: 159744
I0228 21:31:38.279935 13785 net.cpp:465] Sharing parameters 'W_hc' owned by layer 'lstm1_transform_1', param index 0
I0228 21:31:38.279938 13785 layer_factory.hpp:77] Creating layer lstm1_gate_input_5
I0228 21:31:38.279943 13785 net.cpp:84] Creating Layer lstm1_gate_input_5
I0228 21:31:38.279947 13785 net.cpp:406] lstm1_gate_input_5 <- W_hc_h_4
I0228 21:31:38.279950 13785 net.cpp:406] lstm1_gate_input_5 <- W_xc_x_5
I0228 21:31:38.279954 13785 net.cpp:380] lstm1_gate_input_5 -> gate_input_5
I0228 21:31:38.279970 13785 net.cpp:122] Setting up lstm1_gate_input_5
I0228 21:31:38.279975 13785 net.cpp:129] Top shape: 1 13 64 (832)
I0228 21:31:38.279978 13785 net.cpp:137] Memory required for data: 163072
I0228 21:31:38.279980 13785 layer_factory.hpp:77] Creating layer lstm1_unit_5
I0228 21:31:38.279984 13785 net.cpp:84] Creating Layer lstm1_unit_5
I0228 21:31:38.279987 13785 net.cpp:406] lstm1_unit_5 <- c_4
I0228 21:31:38.279991 13785 net.cpp:406] lstm1_unit_5 <- gate_input_5
I0228 21:31:38.279994 13785 net.cpp:406] lstm1_unit_5 <- cont_5_lstm1_cont_slice_4_split_1
I0228 21:31:38.279999 13785 net.cpp:380] lstm1_unit_5 -> c_5
I0228 21:31:38.280022 13785 net.cpp:380] lstm1_unit_5 -> h_5
I0228 21:31:38.280059 13785 net.cpp:122] Setting up lstm1_unit_5
I0228 21:31:38.280066 13785 net.cpp:129] Top shape: 1 13 16 (208)
I0228 21:31:38.280069 13785 net.cpp:129] Top shape: 1 13 16 (208)
I0228 21:31:38.280072 13785 net.cpp:137] Memory required for data: 164736
I0228 21:31:38.280076 13785 layer_factory.hpp:77] Creating layer h_5_lstm1_unit_5_1_split
I0228 21:31:38.280079 13785 net.cpp:84] Creating Layer h_5_lstm1_unit_5_1_split
I0228 21:31:38.280083 13785 net.cpp:406] h_5_lstm1_unit_5_1_split <- h_5
I0228 21:31:38.280086 13785 net.cpp:380] h_5_lstm1_unit_5_1_split -> h_5_lstm1_unit_5_1_split_0
I0228 21:31:38.280105 13785 net.cpp:380] h_5_lstm1_unit_5_1_split -> h_5_lstm1_unit_5_1_split_1
I0228 21:31:38.280136 13785 net.cpp:122] Setting up h_5_lstm1_unit_5_1_split
I0228 21:31:38.280153 13785 net.cpp:129] Top shape: 1 13 16 (208)
I0228 21:31:38.280158 13785 net.cpp:129] Top shape: 1 13 16 (208)
I0228 21:31:38.280160 13785 net.cpp:137] Memory required for data: 166400
I0228 21:31:38.280164 13785 layer_factory.hpp:77] Creating layer lstm1_h_conted_5
I0228 21:31:38.280169 13785 net.cpp:84] Creating Layer lstm1_h_conted_5
I0228 21:31:38.280172 13785 net.cpp:406] lstm1_h_conted_5 <- h_5_lstm1_unit_5_1_split_0
I0228 21:31:38.280176 13785 net.cpp:406] lstm1_h_conted_5 <- cont_6_lstm1_cont_slice_5_split_0
I0228 21:31:38.280180 13785 net.cpp:380] lstm1_h_conted_5 -> h_conted_5
I0228 21:31:38.280211 13785 net.cpp:122] Setting up lstm1_h_conted_5
I0228 21:31:38.280217 13785 net.cpp:129] Top shape: 1 13 16 (208)
I0228 21:31:38.280220 13785 net.cpp:137] Memory required for data: 167232
I0228 21:31:38.280223 13785 layer_factory.hpp:77] Creating layer lstm1_transform_6
I0228 21:31:38.280228 13785 net.cpp:84] Creating Layer lstm1_transform_6
I0228 21:31:38.280232 13785 net.cpp:406] lstm1_transform_6 <- h_conted_5
I0228 21:31:38.280236 13785 net.cpp:380] lstm1_transform_6 -> W_hc_h_5
I0228 21:31:38.280266 13785 net.cpp:122] Setting up lstm1_transform_6
I0228 21:31:38.280272 13785 net.cpp:129] Top shape: 1 13 64 (832)
I0228 21:31:38.280274 13785 net.cpp:137] Memory required for data: 170560
I0228 21:31:38.280278 13785 net.cpp:465] Sharing parameters 'W_hc' owned by layer 'lstm1_transform_1', param index 0
I0228 21:31:38.280282 13785 layer_factory.hpp:77] Creating layer lstm1_gate_input_6
I0228 21:31:38.280285 13785 net.cpp:84] Creating Layer lstm1_gate_input_6
I0228 21:31:38.280289 13785 net.cpp:406] lstm1_gate_input_6 <- W_hc_h_5
I0228 21:31:38.280293 13785 net.cpp:406] lstm1_gate_input_6 <- W_xc_x_6
I0228 21:31:38.280298 13785 net.cpp:380] lstm1_gate_input_6 -> gate_input_6
I0228 21:31:38.280311 13785 net.cpp:122] Setting up lstm1_gate_input_6
I0228 21:31:38.280316 13785 net.cpp:129] Top shape: 1 13 64 (832)
I0228 21:31:38.280320 13785 net.cpp:137] Memory required for data: 173888
I0228 21:31:38.280323 13785 layer_factory.hpp:77] Creating layer lstm1_unit_6
I0228 21:31:38.280326 13785 net.cpp:84] Creating Layer lstm1_unit_6
I0228 21:31:38.280330 13785 net.cpp:406] lstm1_unit_6 <- c_5
I0228 21:31:38.280334 13785 net.cpp:406] lstm1_unit_6 <- gate_input_6
I0228 21:31:38.280338 13785 net.cpp:406] lstm1_unit_6 <- cont_6_lstm1_cont_slice_5_split_1
I0228 21:31:38.280341 13785 net.cpp:380] lstm1_unit_6 -> c_6
I0228 21:31:38.280346 13785 net.cpp:380] lstm1_unit_6 -> h_6
I0228 21:31:38.280369 13785 net.cpp:122] Setting up lstm1_unit_6
I0228 21:31:38.280375 13785 net.cpp:129] Top shape: 1 13 16 (208)
I0228 21:31:38.280377 13785 net.cpp:129] Top shape: 1 13 16 (208)
I0228 21:31:38.280380 13785 net.cpp:137] Memory required for data: 175552
I0228 21:31:38.280385 13785 layer_factory.hpp:77] Creating layer h_6_lstm1_unit_6_1_split
I0228 21:31:38.280387 13785 net.cpp:84] Creating Layer h_6_lstm1_unit_6_1_split
I0228 21:31:38.280390 13785 net.cpp:406] h_6_lstm1_unit_6_1_split <- h_6
I0228 21:31:38.280395 13785 net.cpp:380] h_6_lstm1_unit_6_1_split -> h_6_lstm1_unit_6_1_split_0
I0228 21:31:38.280400 13785 net.cpp:380] h_6_lstm1_unit_6_1_split -> h_6_lstm1_unit_6_1_split_1
I0228 21:31:38.280416 13785 net.cpp:122] Setting up h_6_lstm1_unit_6_1_split
I0228 21:31:38.280421 13785 net.cpp:129] Top shape: 1 13 16 (208)
I0228 21:31:38.280426 13785 net.cpp:129] Top shape: 1 13 16 (208)
I0228 21:31:38.280428 13785 net.cpp:137] Memory required for data: 177216
I0228 21:31:38.280431 13785 layer_factory.hpp:77] Creating layer lstm1_h_conted_6
I0228 21:31:38.280436 13785 net.cpp:84] Creating Layer lstm1_h_conted_6
I0228 21:31:38.280438 13785 net.cpp:406] lstm1_h_conted_6 <- h_6_lstm1_unit_6_1_split_0
I0228 21:31:38.280442 13785 net.cpp:406] lstm1_h_conted_6 <- cont_7_lstm1_cont_slice_6_split_0
I0228 21:31:38.280447 13785 net.cpp:380] lstm1_h_conted_6 -> h_conted_6
I0228 21:31:38.280477 13785 net.cpp:122] Setting up lstm1_h_conted_6
I0228 21:31:38.280498 13785 net.cpp:129] Top shape: 1 13 16 (208)
I0228 21:31:38.280509 13785 net.cpp:137] Memory required for data: 178048
I0228 21:31:38.280516 13785 layer_factory.hpp:77] Creating layer lstm1_transform_7
I0228 21:31:38.280570 13785 net.cpp:84] Creating Layer lstm1_transform_7
I0228 21:31:38.280580 13785 net.cpp:406] lstm1_transform_7 <- h_conted_6
I0228 21:31:38.280589 13785 net.cpp:380] lstm1_transform_7 -> W_hc_h_6
I0228 21:31:38.280634 13785 net.cpp:122] Setting up lstm1_transform_7
I0228 21:31:38.280642 13785 net.cpp:129] Top shape: 1 13 64 (832)
I0228 21:31:38.282819 13785 net.cpp:137] Memory required for data: 181376
I0228 21:31:38.282833 13785 net.cpp:465] Sharing parameters 'W_hc' owned by layer 'lstm1_transform_1', param index 0
I0228 21:31:38.282840 13785 layer_factory.hpp:77] Creating layer lstm1_gate_input_7
I0228 21:31:38.282845 13785 net.cpp:84] Creating Layer lstm1_gate_input_7
I0228 21:31:38.282848 13785 net.cpp:406] lstm1_gate_input_7 <- W_hc_h_6
I0228 21:31:38.282853 13785 net.cpp:406] lstm1_gate_input_7 <- W_xc_x_7
I0228 21:31:38.282858 13785 net.cpp:380] lstm1_gate_input_7 -> gate_input_7
I0228 21:31:38.282884 13785 net.cpp:122] Setting up lstm1_gate_input_7
I0228 21:31:38.282891 13785 net.cpp:129] Top shape: 1 13 64 (832)
I0228 21:31:38.282894 13785 net.cpp:137] Memory required for data: 184704
I0228 21:31:38.282897 13785 layer_factory.hpp:77] Creating layer lstm1_unit_7
I0228 21:31:38.282903 13785 net.cpp:84] Creating Layer lstm1_unit_7
I0228 21:31:38.282907 13785 net.cpp:406] lstm1_unit_7 <- c_6
I0228 21:31:38.282912 13785 net.cpp:406] lstm1_unit_7 <- gate_input_7
I0228 21:31:38.282915 13785 net.cpp:406] lstm1_unit_7 <- cont_7_lstm1_cont_slice_6_split_1
I0228 21:31:38.282920 13785 net.cpp:380] lstm1_unit_7 -> c_7
I0228 21:31:38.282925 13785 net.cpp:380] lstm1_unit_7 -> h_7
I0228 21:31:38.282953 13785 net.cpp:122] Setting up lstm1_unit_7
I0228 21:31:38.282958 13785 net.cpp:129] Top shape: 1 13 16 (208)
I0228 21:31:38.282963 13785 net.cpp:129] Top shape: 1 13 16 (208)
I0228 21:31:38.282965 13785 net.cpp:137] Memory required for data: 186368
I0228 21:31:38.282969 13785 layer_factory.hpp:77] Creating layer h_7_lstm1_unit_7_1_split
I0228 21:31:38.282974 13785 net.cpp:84] Creating Layer h_7_lstm1_unit_7_1_split
I0228 21:31:38.282976 13785 net.cpp:406] h_7_lstm1_unit_7_1_split <- h_7
I0228 21:31:38.282980 13785 net.cpp:380] h_7_lstm1_unit_7_1_split -> h_7_lstm1_unit_7_1_split_0
I0228 21:31:38.282985 13785 net.cpp:380] h_7_lstm1_unit_7_1_split -> h_7_lstm1_unit_7_1_split_1
I0228 21:31:38.283004 13785 net.cpp:122] Setting up h_7_lstm1_unit_7_1_split
I0228 21:31:38.283010 13785 net.cpp:129] Top shape: 1 13 16 (208)
I0228 21:31:38.283013 13785 net.cpp:129] Top shape: 1 13 16 (208)
I0228 21:31:38.283016 13785 net.cpp:137] Memory required for data: 188032
I0228 21:31:38.283020 13785 layer_factory.hpp:77] Creating layer lstm1_h_conted_7
I0228 21:31:38.283025 13785 net.cpp:84] Creating Layer lstm1_h_conted_7
I0228 21:31:38.283027 13785 net.cpp:406] lstm1_h_conted_7 <- h_7_lstm1_unit_7_1_split_0
I0228 21:31:38.283031 13785 net.cpp:406] lstm1_h_conted_7 <- cont_8_lstm1_cont_slice_7_split_0
I0228 21:31:38.283035 13785 net.cpp:380] lstm1_h_conted_7 -> h_conted_7
I0228 21:31:38.283069 13785 net.cpp:122] Setting up lstm1_h_conted_7
I0228 21:31:38.283076 13785 net.cpp:129] Top shape: 1 13 16 (208)
I0228 21:31:38.283078 13785 net.cpp:137] Memory required for data: 188864
I0228 21:31:38.283082 13785 layer_factory.hpp:77] Creating layer lstm1_transform_8
I0228 21:31:38.283087 13785 net.cpp:84] Creating Layer lstm1_transform_8
I0228 21:31:38.283089 13785 net.cpp:406] lstm1_transform_8 <- h_conted_7
I0228 21:31:38.283097 13785 net.cpp:380] lstm1_transform_8 -> W_hc_h_7
I0228 21:31:38.283130 13785 net.cpp:122] Setting up lstm1_transform_8
I0228 21:31:38.283136 13785 net.cpp:129] Top shape: 1 13 64 (832)
I0228 21:31:38.283139 13785 net.cpp:137] Memory required for data: 192192
I0228 21:31:38.283143 13785 net.cpp:465] Sharing parameters 'W_hc' owned by layer 'lstm1_transform_1', param index 0
I0228 21:31:38.283146 13785 layer_factory.hpp:77] Creating layer lstm1_gate_input_8
I0228 21:31:38.283159 13785 net.cpp:84] Creating Layer lstm1_gate_input_8
I0228 21:31:38.283162 13785 net.cpp:406] lstm1_gate_input_8 <- W_hc_h_7
I0228 21:31:38.283167 13785 net.cpp:406] lstm1_gate_input_8 <- W_xc_x_8
I0228 21:31:38.283171 13785 net.cpp:380] lstm1_gate_input_8 -> gate_input_8
I0228 21:31:38.283187 13785 net.cpp:122] Setting up lstm1_gate_input_8
I0228 21:31:38.283192 13785 net.cpp:129] Top shape: 1 13 64 (832)
I0228 21:31:38.283195 13785 net.cpp:137] Memory required for data: 195520
I0228 21:31:38.283198 13785 layer_factory.hpp:77] Creating layer lstm1_unit_8
I0228 21:31:38.283202 13785 net.cpp:84] Creating Layer lstm1_unit_8
I0228 21:31:38.283219 13785 net.cpp:406] lstm1_unit_8 <- c_7
I0228 21:31:38.283223 13785 net.cpp:406] lstm1_unit_8 <- gate_input_8
I0228 21:31:38.283227 13785 net.cpp:406] lstm1_unit_8 <- cont_8_lstm1_cont_slice_7_split_1
I0228 21:31:38.283231 13785 net.cpp:380] lstm1_unit_8 -> c_8
I0228 21:31:38.283236 13785 net.cpp:380] lstm1_unit_8 -> h_8
I0228 21:31:38.283263 13785 net.cpp:122] Setting up lstm1_unit_8
I0228 21:31:38.283269 13785 net.cpp:129] Top shape: 1 13 16 (208)
I0228 21:31:38.283273 13785 net.cpp:129] Top shape: 1 13 16 (208)
I0228 21:31:38.283277 13785 net.cpp:137] Memory required for data: 197184
I0228 21:31:38.283279 13785 layer_factory.hpp:77] Creating layer h_8_lstm1_unit_8_1_split
I0228 21:31:38.283284 13785 net.cpp:84] Creating Layer h_8_lstm1_unit_8_1_split
I0228 21:31:38.283288 13785 net.cpp:406] h_8_lstm1_unit_8_1_split <- h_8
I0228 21:31:38.283291 13785 net.cpp:380] h_8_lstm1_unit_8_1_split -> h_8_lstm1_unit_8_1_split_0
I0228 21:31:38.283296 13785 net.cpp:380] h_8_lstm1_unit_8_1_split -> h_8_lstm1_unit_8_1_split_1
I0228 21:31:38.283318 13785 net.cpp:122] Setting up h_8_lstm1_unit_8_1_split
I0228 21:31:38.283324 13785 net.cpp:129] Top shape: 1 13 16 (208)
I0228 21:31:38.283327 13785 net.cpp:129] Top shape: 1 13 16 (208)
I0228 21:31:38.283330 13785 net.cpp:137] Memory required for data: 198848
I0228 21:31:38.283334 13785 layer_factory.hpp:77] Creating layer lstm1_h_conted_8
I0228 21:31:38.283339 13785 net.cpp:84] Creating Layer lstm1_h_conted_8
I0228 21:31:38.283341 13785 net.cpp:406] lstm1_h_conted_8 <- h_8_lstm1_unit_8_1_split_0
I0228 21:31:38.283345 13785 net.cpp:406] lstm1_h_conted_8 <- cont_9_lstm1_cont_slice_8_split_0
I0228 21:31:38.283350 13785 net.cpp:380] lstm1_h_conted_8 -> h_conted_8
I0228 21:31:38.283385 13785 net.cpp:122] Setting up lstm1_h_conted_8
I0228 21:31:38.283390 13785 net.cpp:129] Top shape: 1 13 16 (208)
I0228 21:31:38.283393 13785 net.cpp:137] Memory required for data: 199680
I0228 21:31:38.283396 13785 layer_factory.hpp:77] Creating layer lstm1_transform_9
I0228 21:31:38.283401 13785 net.cpp:84] Creating Layer lstm1_transform_9
I0228 21:31:38.283403 13785 net.cpp:406] lstm1_transform_9 <- h_conted_8
I0228 21:31:38.283408 13785 net.cpp:380] lstm1_transform_9 -> W_hc_h_8
I0228 21:31:38.283439 13785 net.cpp:122] Setting up lstm1_transform_9
I0228 21:31:38.283460 13785 net.cpp:129] Top shape: 1 13 64 (832)
I0228 21:31:38.283463 13785 net.cpp:137] Memory required for data: 203008
I0228 21:31:38.283468 13785 net.cpp:465] Sharing parameters 'W_hc' owned by layer 'lstm1_transform_1', param index 0
I0228 21:31:38.283470 13785 layer_factory.hpp:77] Creating layer lstm1_gate_input_9
I0228 21:31:38.283475 13785 net.cpp:84] Creating Layer lstm1_gate_input_9
I0228 21:31:38.283479 13785 net.cpp:406] lstm1_gate_input_9 <- W_hc_h_8
I0228 21:31:38.283483 13785 net.cpp:406] lstm1_gate_input_9 <- W_xc_x_9
I0228 21:31:38.283488 13785 net.cpp:380] lstm1_gate_input_9 -> gate_input_9
I0228 21:31:38.283504 13785 net.cpp:122] Setting up lstm1_gate_input_9
I0228 21:31:38.283514 13785 net.cpp:129] Top shape: 1 13 64 (832)
I0228 21:31:38.283571 13785 net.cpp:137] Memory required for data: 206336
I0228 21:31:38.283576 13785 layer_factory.hpp:77] Creating layer lstm1_unit_9
I0228 21:31:38.283587 13785 net.cpp:84] Creating Layer lstm1_unit_9
I0228 21:31:38.283591 13785 net.cpp:406] lstm1_unit_9 <- c_8
I0228 21:31:38.283596 13785 net.cpp:406] lstm1_unit_9 <- gate_input_9
I0228 21:31:38.283607 13785 net.cpp:406] lstm1_unit_9 <- cont_9_lstm1_cont_slice_8_split_1
I0228 21:31:38.283612 13785 net.cpp:380] lstm1_unit_9 -> c_9
I0228 21:31:38.283638 13785 net.cpp:380] lstm1_unit_9 -> h_9
I0228 21:31:38.283666 13785 net.cpp:122] Setting up lstm1_unit_9
I0228 21:31:38.283691 13785 net.cpp:129] Top shape: 1 13 16 (208)
I0228 21:31:38.283710 13785 net.cpp:129] Top shape: 1 13 16 (208)
I0228 21:31:38.309936 13785 net.cpp:137] Memory required for data: 208000
I0228 21:31:38.309952 13785 layer_factory.hpp:77] Creating layer h_9_lstm1_unit_9_1_split
I0228 21:31:38.309967 13785 net.cpp:84] Creating Layer h_9_lstm1_unit_9_1_split
I0228 21:31:38.309973 13785 net.cpp:406] h_9_lstm1_unit_9_1_split <- h_9
I0228 21:31:38.309979 13785 net.cpp:380] h_9_lstm1_unit_9_1_split -> h_9_lstm1_unit_9_1_split_0
I0228 21:31:38.309988 13785 net.cpp:380] h_9_lstm1_unit_9_1_split -> h_9_lstm1_unit_9_1_split_1
I0228 21:31:38.310039 13785 net.cpp:122] Setting up h_9_lstm1_unit_9_1_split
I0228 21:31:38.310052 13785 net.cpp:129] Top shape: 1 13 16 (208)
I0228 21:31:38.310057 13785 net.cpp:129] Top shape: 1 13 16 (208)
I0228 21:31:38.310061 13785 net.cpp:137] Memory required for data: 209664
I0228 21:31:38.310065 13785 layer_factory.hpp:77] Creating layer lstm1_h_conted_9
I0228 21:31:38.310072 13785 net.cpp:84] Creating Layer lstm1_h_conted_9
I0228 21:31:38.310076 13785 net.cpp:406] lstm1_h_conted_9 <- h_9_lstm1_unit_9_1_split_0
I0228 21:31:38.310083 13785 net.cpp:406] lstm1_h_conted_9 <- cont_10_lstm1_cont_slice_9_split_0
I0228 21:31:38.310088 13785 net.cpp:380] lstm1_h_conted_9 -> h_conted_9
I0228 21:31:38.310133 13785 net.cpp:122] Setting up lstm1_h_conted_9
I0228 21:31:38.310139 13785 net.cpp:129] Top shape: 1 13 16 (208)
I0228 21:31:38.310143 13785 net.cpp:137] Memory required for data: 210496
I0228 21:31:38.310148 13785 layer_factory.hpp:77] Creating layer lstm1_transform_10
I0228 21:31:38.310154 13785 net.cpp:84] Creating Layer lstm1_transform_10
I0228 21:31:38.310158 13785 net.cpp:406] lstm1_transform_10 <- h_conted_9
I0228 21:31:38.310164 13785 net.cpp:380] lstm1_transform_10 -> W_hc_h_9
I0228 21:31:38.310209 13785 net.cpp:122] Setting up lstm1_transform_10
I0228 21:31:38.310217 13785 net.cpp:129] Top shape: 1 13 64 (832)
I0228 21:31:38.310220 13785 net.cpp:137] Memory required for data: 213824
I0228 21:31:38.310225 13785 net.cpp:465] Sharing parameters 'W_hc' owned by layer 'lstm1_transform_1', param index 0
I0228 21:31:38.310230 13785 layer_factory.hpp:77] Creating layer lstm1_gate_input_10
I0228 21:31:38.310236 13785 net.cpp:84] Creating Layer lstm1_gate_input_10
I0228 21:31:38.310240 13785 net.cpp:406] lstm1_gate_input_10 <- W_hc_h_9
I0228 21:31:38.310245 13785 net.cpp:406] lstm1_gate_input_10 <- W_xc_x_10
I0228 21:31:38.310251 13785 net.cpp:380] lstm1_gate_input_10 -> gate_input_10
I0228 21:31:38.310269 13785 net.cpp:122] Setting up lstm1_gate_input_10
I0228 21:31:38.310276 13785 net.cpp:129] Top shape: 1 13 64 (832)
I0228 21:31:38.310279 13785 net.cpp:137] Memory required for data: 217152
I0228 21:31:38.310283 13785 layer_factory.hpp:77] Creating layer lstm1_unit_10
I0228 21:31:38.310289 13785 net.cpp:84] Creating Layer lstm1_unit_10
I0228 21:31:38.310295 13785 net.cpp:406] lstm1_unit_10 <- c_9
I0228 21:31:38.310300 13785 net.cpp:406] lstm1_unit_10 <- gate_input_10
I0228 21:31:38.310304 13785 net.cpp:406] lstm1_unit_10 <- cont_10_lstm1_cont_slice_9_split_1
I0228 21:31:38.310310 13785 net.cpp:380] lstm1_unit_10 -> c_10
I0228 21:31:38.310315 13785 net.cpp:380] lstm1_unit_10 -> h_10
I0228 21:31:38.310341 13785 net.cpp:122] Setting up lstm1_unit_10
I0228 21:31:38.310348 13785 net.cpp:129] Top shape: 1 13 16 (208)
I0228 21:31:38.310353 13785 net.cpp:129] Top shape: 1 13 16 (208)
I0228 21:31:38.310356 13785 net.cpp:137] Memory required for data: 218816
I0228 21:31:38.310360 13785 layer_factory.hpp:77] Creating layer h_10_lstm1_unit_10_1_split
I0228 21:31:38.310365 13785 net.cpp:84] Creating Layer h_10_lstm1_unit_10_1_split
I0228 21:31:38.310371 13785 net.cpp:406] h_10_lstm1_unit_10_1_split <- h_10
I0228 21:31:38.310379 13785 net.cpp:380] h_10_lstm1_unit_10_1_split -> h_10_lstm1_unit_10_1_split_0
I0228 21:31:38.310401 13785 net.cpp:380] h_10_lstm1_unit_10_1_split -> h_10_lstm1_unit_10_1_split_1
I0228 21:31:38.310427 13785 net.cpp:122] Setting up h_10_lstm1_unit_10_1_split
I0228 21:31:38.310438 13785 net.cpp:129] Top shape: 1 13 16 (208)
I0228 21:31:38.310444 13785 net.cpp:129] Top shape: 1 13 16 (208)
I0228 21:31:38.310448 13785 net.cpp:137] Memory required for data: 220480
I0228 21:31:38.310452 13785 layer_factory.hpp:77] Creating layer lstm1_h_conted_10
I0228 21:31:38.310458 13785 net.cpp:84] Creating Layer lstm1_h_conted_10
I0228 21:31:38.310463 13785 net.cpp:406] lstm1_h_conted_10 <- h_10_lstm1_unit_10_1_split_0
I0228 21:31:38.310468 13785 net.cpp:406] lstm1_h_conted_10 <- cont_11_lstm1_cont_slice_10_split_0
I0228 21:31:38.310475 13785 net.cpp:380] lstm1_h_conted_10 -> h_conted_10
I0228 21:31:38.310518 13785 net.cpp:122] Setting up lstm1_h_conted_10
I0228 21:31:38.310528 13785 net.cpp:129] Top shape: 1 13 16 (208)
I0228 21:31:38.310533 13785 net.cpp:137] Memory required for data: 221312
I0228 21:31:38.310537 13785 layer_factory.hpp:77] Creating layer lstm1_transform_11
I0228 21:31:38.310545 13785 net.cpp:84] Creating Layer lstm1_transform_11
I0228 21:31:38.310550 13785 net.cpp:406] lstm1_transform_11 <- h_conted_10
I0228 21:31:38.310556 13785 net.cpp:380] lstm1_transform_11 -> W_hc_h_10
I0228 21:31:38.310595 13785 net.cpp:122] Setting up lstm1_transform_11
I0228 21:31:38.310603 13785 net.cpp:129] Top shape: 1 13 64 (832)
I0228 21:31:38.310606 13785 net.cpp:137] Memory required for data: 224640
I0228 21:31:38.310611 13785 net.cpp:465] Sharing parameters 'W_hc' owned by layer 'lstm1_transform_1', param index 0
I0228 21:31:38.310616 13785 layer_factory.hpp:77] Creating layer lstm1_gate_input_11
I0228 21:31:38.310621 13785 net.cpp:84] Creating Layer lstm1_gate_input_11
I0228 21:31:38.310626 13785 net.cpp:406] lstm1_gate_input_11 <- W_hc_h_10
I0228 21:31:38.310631 13785 net.cpp:406] lstm1_gate_input_11 <- W_xc_x_11
I0228 21:31:38.310636 13785 net.cpp:380] lstm1_gate_input_11 -> gate_input_11
I0228 21:31:38.310652 13785 net.cpp:122] Setting up lstm1_gate_input_11
I0228 21:31:38.310658 13785 net.cpp:129] Top shape: 1 13 64 (832)
I0228 21:31:38.310662 13785 net.cpp:137] Memory required for data: 227968
I0228 21:31:38.310667 13785 layer_factory.hpp:77] Creating layer lstm1_unit_11
I0228 21:31:38.310672 13785 net.cpp:84] Creating Layer lstm1_unit_11
I0228 21:31:38.310675 13785 net.cpp:406] lstm1_unit_11 <- c_10
I0228 21:31:38.310680 13785 net.cpp:406] lstm1_unit_11 <- gate_input_11
I0228 21:31:38.310685 13785 net.cpp:406] lstm1_unit_11 <- cont_11_lstm1_cont_slice_10_split_1
I0228 21:31:38.310691 13785 net.cpp:380] lstm1_unit_11 -> c_11
I0228 21:31:38.310698 13785 net.cpp:380] lstm1_unit_11 -> h_11
I0228 21:31:38.310722 13785 net.cpp:122] Setting up lstm1_unit_11
I0228 21:31:38.310729 13785 net.cpp:129] Top shape: 1 13 16 (208)
I0228 21:31:38.310734 13785 net.cpp:129] Top shape: 1 13 16 (208)
I0228 21:31:38.310737 13785 net.cpp:137] Memory required for data: 229632
I0228 21:31:38.310741 13785 layer_factory.hpp:77] Creating layer h_11_lstm1_unit_11_1_split
I0228 21:31:38.310760 13785 net.cpp:84] Creating Layer h_11_lstm1_unit_11_1_split
I0228 21:31:38.310763 13785 net.cpp:406] h_11_lstm1_unit_11_1_split <- h_11
I0228 21:31:38.310781 13785 net.cpp:380] h_11_lstm1_unit_11_1_split -> h_11_lstm1_unit_11_1_split_0
I0228 21:31:38.310787 13785 net.cpp:380] h_11_lstm1_unit_11_1_split -> h_11_lstm1_unit_11_1_split_1
I0228 21:31:38.310822 13785 net.cpp:122] Setting up h_11_lstm1_unit_11_1_split
I0228 21:31:38.310843 13785 net.cpp:129] Top shape: 1 13 16 (208)
I0228 21:31:38.310848 13785 net.cpp:129] Top shape: 1 13 16 (208)
I0228 21:31:38.310851 13785 net.cpp:137] Memory required for data: 231296
I0228 21:31:38.310855 13785 layer_factory.hpp:77] Creating layer lstm1_h_conted_11
I0228 21:31:38.310861 13785 net.cpp:84] Creating Layer lstm1_h_conted_11
I0228 21:31:38.310878 13785 net.cpp:406] lstm1_h_conted_11 <- h_11_lstm1_unit_11_1_split_0
I0228 21:31:38.310890 13785 net.cpp:406] lstm1_h_conted_11 <- cont_12_lstm1_cont_slice_11_split_0
I0228 21:31:38.310896 13785 net.cpp:380] lstm1_h_conted_11 -> h_conted_11
I0228 21:31:38.310945 13785 net.cpp:122] Setting up lstm1_h_conted_11
I0228 21:31:38.313067 13785 net.cpp:129] Top shape: 1 13 16 (208)
I0228 21:31:38.313107 13785 net.cpp:137] Memory required for data: 232128
I0228 21:31:38.313113 13785 layer_factory.hpp:77] Creating layer lstm1_transform_12
I0228 21:31:38.313123 13785 net.cpp:84] Creating Layer lstm1_transform_12
I0228 21:31:38.313128 13785 net.cpp:406] lstm1_transform_12 <- h_conted_11
I0228 21:31:38.313146 13785 net.cpp:380] lstm1_transform_12 -> W_hc_h_11
I0228 21:31:38.313228 13785 net.cpp:122] Setting up lstm1_transform_12
I0228 21:31:38.313235 13785 net.cpp:129] Top shape: 1 13 64 (832)
I0228 21:31:38.313237 13785 net.cpp:137] Memory required for data: 235456
I0228 21:31:38.313256 13785 net.cpp:465] Sharing parameters 'W_hc' owned by layer 'lstm1_transform_1', param index 0
I0228 21:31:38.313259 13785 layer_factory.hpp:77] Creating layer lstm1_gate_input_12
I0228 21:31:38.313264 13785 net.cpp:84] Creating Layer lstm1_gate_input_12
I0228 21:31:38.313267 13785 net.cpp:406] lstm1_gate_input_12 <- W_hc_h_11
I0228 21:31:38.313271 13785 net.cpp:406] lstm1_gate_input_12 <- W_xc_x_12
I0228 21:31:38.313275 13785 net.cpp:380] lstm1_gate_input_12 -> gate_input_12
I0228 21:31:38.313320 13785 net.cpp:122] Setting up lstm1_gate_input_12
I0228 21:31:38.313326 13785 net.cpp:129] Top shape: 1 13 64 (832)
I0228 21:31:38.313344 13785 net.cpp:137] Memory required for data: 238784
I0228 21:31:38.313346 13785 layer_factory.hpp:77] Creating layer lstm1_unit_12
I0228 21:31:38.313350 13785 net.cpp:84] Creating Layer lstm1_unit_12
I0228 21:31:38.313383 13785 net.cpp:406] lstm1_unit_12 <- c_11
I0228 21:31:38.313388 13785 net.cpp:406] lstm1_unit_12 <- gate_input_12
I0228 21:31:38.313392 13785 net.cpp:406] lstm1_unit_12 <- cont_12_lstm1_cont_slice_11_split_1
I0228 21:31:38.313397 13785 net.cpp:380] lstm1_unit_12 -> c_12
I0228 21:31:38.313402 13785 net.cpp:380] lstm1_unit_12 -> h_12
I0228 21:31:38.313429 13785 net.cpp:122] Setting up lstm1_unit_12
I0228 21:31:38.313436 13785 net.cpp:129] Top shape: 1 13 16 (208)
I0228 21:31:38.313438 13785 net.cpp:129] Top shape: 1 13 16 (208)
I0228 21:31:38.313441 13785 net.cpp:137] Memory required for data: 240448
I0228 21:31:38.313443 13785 layer_factory.hpp:77] Creating layer h_12_lstm1_unit_12_1_split
I0228 21:31:38.313448 13785 net.cpp:84] Creating Layer h_12_lstm1_unit_12_1_split
I0228 21:31:38.313453 13785 net.cpp:406] h_12_lstm1_unit_12_1_split <- h_12
I0228 21:31:38.313459 13785 net.cpp:380] h_12_lstm1_unit_12_1_split -> h_12_lstm1_unit_12_1_split_0
I0228 21:31:38.313465 13785 net.cpp:380] h_12_lstm1_unit_12_1_split -> h_12_lstm1_unit_12_1_split_1
I0228 21:31:38.313500 13785 net.cpp:122] Setting up h_12_lstm1_unit_12_1_split
I0228 21:31:38.313508 13785 net.cpp:129] Top shape: 1 13 16 (208)
I0228 21:31:38.313513 13785 net.cpp:129] Top shape: 1 13 16 (208)
I0228 21:31:38.313516 13785 net.cpp:137] Memory required for data: 242112
I0228 21:31:38.313519 13785 layer_factory.hpp:77] Creating layer lstm1_h_conted_12
I0228 21:31:38.313525 13785 net.cpp:84] Creating Layer lstm1_h_conted_12
I0228 21:31:38.313529 13785 net.cpp:406] lstm1_h_conted_12 <- h_12_lstm1_unit_12_1_split_0
I0228 21:31:38.313534 13785 net.cpp:406] lstm1_h_conted_12 <- cont_13_lstm1_cont_slice_12_split_0
I0228 21:31:38.313539 13785 net.cpp:380] lstm1_h_conted_12 -> h_conted_12
I0228 21:31:38.313575 13785 net.cpp:122] Setting up lstm1_h_conted_12
I0228 21:31:38.313581 13785 net.cpp:129] Top shape: 1 13 16 (208)
I0228 21:31:38.313585 13785 net.cpp:137] Memory required for data: 242944
I0228 21:31:38.313590 13785 layer_factory.hpp:77] Creating layer lstm1_transform_13
I0228 21:31:38.313594 13785 net.cpp:84] Creating Layer lstm1_transform_13
I0228 21:31:38.313598 13785 net.cpp:406] lstm1_transform_13 <- h_conted_12
I0228 21:31:38.313609 13785 net.cpp:380] lstm1_transform_13 -> W_hc_h_12
I0228 21:31:38.313643 13785 net.cpp:122] Setting up lstm1_transform_13
I0228 21:31:38.313657 13785 net.cpp:129] Top shape: 1 13 64 (832)
I0228 21:31:38.313663 13785 net.cpp:137] Memory required for data: 246272
I0228 21:31:38.313666 13785 net.cpp:465] Sharing parameters 'W_hc' owned by layer 'lstm1_transform_1', param index 0
I0228 21:31:38.313670 13785 layer_factory.hpp:77] Creating layer lstm1_gate_input_13
I0228 21:31:38.313675 13785 net.cpp:84] Creating Layer lstm1_gate_input_13
I0228 21:31:38.313679 13785 net.cpp:406] lstm1_gate_input_13 <- W_hc_h_12
I0228 21:31:38.313684 13785 net.cpp:406] lstm1_gate_input_13 <- W_xc_x_13
I0228 21:31:38.313689 13785 net.cpp:380] lstm1_gate_input_13 -> gate_input_13
I0228 21:31:38.313706 13785 net.cpp:122] Setting up lstm1_gate_input_13
I0228 21:31:38.313712 13785 net.cpp:129] Top shape: 1 13 64 (832)
I0228 21:31:38.313715 13785 net.cpp:137] Memory required for data: 249600
I0228 21:31:38.313719 13785 layer_factory.hpp:77] Creating layer lstm1_unit_13
I0228 21:31:38.313724 13785 net.cpp:84] Creating Layer lstm1_unit_13
I0228 21:31:38.313729 13785 net.cpp:406] lstm1_unit_13 <- c_12
I0228 21:31:38.313733 13785 net.cpp:406] lstm1_unit_13 <- gate_input_13
I0228 21:31:38.313738 13785 net.cpp:406] lstm1_unit_13 <- cont_13_lstm1_cont_slice_12_split_1
I0228 21:31:38.313745 13785 net.cpp:380] lstm1_unit_13 -> c_13
I0228 21:31:38.313750 13785 net.cpp:380] lstm1_unit_13 -> h_13
I0228 21:31:38.313776 13785 net.cpp:122] Setting up lstm1_unit_13
I0228 21:31:38.313781 13785 net.cpp:129] Top shape: 1 13 16 (208)
I0228 21:31:38.313786 13785 net.cpp:129] Top shape: 1 13 16 (208)
I0228 21:31:38.313789 13785 net.cpp:137] Memory required for data: 251264
I0228 21:31:38.313793 13785 layer_factory.hpp:77] Creating layer h_13_lstm1_unit_13_1_split
I0228 21:31:38.313799 13785 net.cpp:84] Creating Layer h_13_lstm1_unit_13_1_split
I0228 21:31:38.313803 13785 net.cpp:406] h_13_lstm1_unit_13_1_split <- h_13
I0228 21:31:38.313808 13785 net.cpp:380] h_13_lstm1_unit_13_1_split -> h_13_lstm1_unit_13_1_split_0
I0228 21:31:38.313813 13785 net.cpp:380] h_13_lstm1_unit_13_1_split -> h_13_lstm1_unit_13_1_split_1
I0228 21:31:38.313832 13785 net.cpp:122] Setting up h_13_lstm1_unit_13_1_split
I0228 21:31:38.313839 13785 net.cpp:129] Top shape: 1 13 16 (208)
I0228 21:31:38.313843 13785 net.cpp:129] Top shape: 1 13 16 (208)
I0228 21:31:38.313848 13785 net.cpp:137] Memory required for data: 252928
I0228 21:31:38.313850 13785 layer_factory.hpp:77] Creating layer lstm1_h_conted_13
I0228 21:31:38.313856 13785 net.cpp:84] Creating Layer lstm1_h_conted_13
I0228 21:31:38.313860 13785 net.cpp:406] lstm1_h_conted_13 <- h_13_lstm1_unit_13_1_split_0
I0228 21:31:38.313865 13785 net.cpp:406] lstm1_h_conted_13 <- cont_14_lstm1_cont_slice_13_split_0
I0228 21:31:38.313870 13785 net.cpp:380] lstm1_h_conted_13 -> h_conted_13
I0228 21:31:38.313902 13785 net.cpp:122] Setting up lstm1_h_conted_13
I0228 21:31:38.313908 13785 net.cpp:129] Top shape: 1 13 16 (208)
I0228 21:31:38.313912 13785 net.cpp:137] Memory required for data: 253760
I0228 21:31:38.313916 13785 layer_factory.hpp:77] Creating layer lstm1_transform_14
I0228 21:31:38.313921 13785 net.cpp:84] Creating Layer lstm1_transform_14
I0228 21:31:38.313925 13785 net.cpp:406] lstm1_transform_14 <- h_conted_13
I0228 21:31:38.313930 13785 net.cpp:380] lstm1_transform_14 -> W_hc_h_13
I0228 21:31:38.313963 13785 net.cpp:122] Setting up lstm1_transform_14
I0228 21:31:38.313971 13785 net.cpp:129] Top shape: 1 13 64 (832)
I0228 21:31:38.313974 13785 net.cpp:137] Memory required for data: 257088
I0228 21:31:38.313978 13785 net.cpp:465] Sharing parameters 'W_hc' owned by layer 'lstm1_transform_1', param index 0
I0228 21:31:38.313982 13785 layer_factory.hpp:77] Creating layer lstm1_gate_input_14
I0228 21:31:38.313987 13785 net.cpp:84] Creating Layer lstm1_gate_input_14
I0228 21:31:38.313992 13785 net.cpp:406] lstm1_gate_input_14 <- W_hc_h_13
I0228 21:31:38.313997 13785 net.cpp:406] lstm1_gate_input_14 <- W_xc_x_14
I0228 21:31:38.314002 13785 net.cpp:380] lstm1_gate_input_14 -> gate_input_14
I0228 21:31:38.340332 13785 net.cpp:122] Setting up lstm1_gate_input_14
I0228 21:31:38.340360 13785 net.cpp:129] Top shape: 1 13 64 (832)
I0228 21:31:38.340364 13785 net.cpp:137] Memory required for data: 260416
I0228 21:31:38.340369 13785 layer_factory.hpp:77] Creating layer lstm1_unit_14
I0228 21:31:38.340380 13785 net.cpp:84] Creating Layer lstm1_unit_14
I0228 21:31:38.340385 13785 net.cpp:406] lstm1_unit_14 <- c_13
I0228 21:31:38.340391 13785 net.cpp:406] lstm1_unit_14 <- gate_input_14
I0228 21:31:38.340395 13785 net.cpp:406] lstm1_unit_14 <- cont_14_lstm1_cont_slice_13_split_1
I0228 21:31:38.340402 13785 net.cpp:380] lstm1_unit_14 -> c_14
I0228 21:31:38.340411 13785 net.cpp:380] lstm1_unit_14 -> h_14
I0228 21:31:38.340456 13785 net.cpp:122] Setting up lstm1_unit_14
I0228 21:31:38.340462 13785 net.cpp:129] Top shape: 1 13 16 (208)
I0228 21:31:38.340466 13785 net.cpp:129] Top shape: 1 13 16 (208)
I0228 21:31:38.340471 13785 net.cpp:137] Memory required for data: 262080
I0228 21:31:38.340473 13785 layer_factory.hpp:77] Creating layer h_14_lstm1_unit_14_1_split
I0228 21:31:38.340477 13785 net.cpp:84] Creating Layer h_14_lstm1_unit_14_1_split
I0228 21:31:38.340481 13785 net.cpp:406] h_14_lstm1_unit_14_1_split <- h_14
I0228 21:31:38.340487 13785 net.cpp:380] h_14_lstm1_unit_14_1_split -> h_14_lstm1_unit_14_1_split_0
I0228 21:31:38.340492 13785 net.cpp:380] h_14_lstm1_unit_14_1_split -> h_14_lstm1_unit_14_1_split_1
I0228 21:31:38.340509 13785 net.cpp:122] Setting up h_14_lstm1_unit_14_1_split
I0228 21:31:38.340514 13785 net.cpp:129] Top shape: 1 13 16 (208)
I0228 21:31:38.340518 13785 net.cpp:129] Top shape: 1 13 16 (208)
I0228 21:31:38.340521 13785 net.cpp:137] Memory required for data: 263744
I0228 21:31:38.340524 13785 layer_factory.hpp:77] Creating layer lstm1_h_conted_14
I0228 21:31:38.340530 13785 net.cpp:84] Creating Layer lstm1_h_conted_14
I0228 21:31:38.340534 13785 net.cpp:406] lstm1_h_conted_14 <- h_14_lstm1_unit_14_1_split_0
I0228 21:31:38.340538 13785 net.cpp:406] lstm1_h_conted_14 <- cont_15_lstm1_cont_slice_14_split_0
I0228 21:31:38.340559 13785 net.cpp:380] lstm1_h_conted_14 -> h_conted_14
I0228 21:31:38.340597 13785 net.cpp:122] Setting up lstm1_h_conted_14
I0228 21:31:38.340602 13785 net.cpp:129] Top shape: 1 13 16 (208)
I0228 21:31:38.340605 13785 net.cpp:137] Memory required for data: 264576
I0228 21:31:38.340610 13785 layer_factory.hpp:77] Creating layer lstm1_transform_15
I0228 21:31:38.340615 13785 net.cpp:84] Creating Layer lstm1_transform_15
I0228 21:31:38.340617 13785 net.cpp:406] lstm1_transform_15 <- h_conted_14
I0228 21:31:38.340622 13785 net.cpp:380] lstm1_transform_15 -> W_hc_h_14
I0228 21:31:38.340667 13785 net.cpp:122] Setting up lstm1_transform_15
I0228 21:31:38.340674 13785 net.cpp:129] Top shape: 1 13 64 (832)
I0228 21:31:38.340677 13785 net.cpp:137] Memory required for data: 267904
I0228 21:31:38.340689 13785 net.cpp:465] Sharing parameters 'W_hc' owned by layer 'lstm1_transform_1', param index 0
I0228 21:31:38.340693 13785 layer_factory.hpp:77] Creating layer lstm1_gate_input_15
I0228 21:31:38.340699 13785 net.cpp:84] Creating Layer lstm1_gate_input_15
I0228 21:31:38.340703 13785 net.cpp:406] lstm1_gate_input_15 <- W_hc_h_14
I0228 21:31:38.340708 13785 net.cpp:406] lstm1_gate_input_15 <- W_xc_x_15
I0228 21:31:38.340711 13785 net.cpp:380] lstm1_gate_input_15 -> gate_input_15
I0228 21:31:38.340728 13785 net.cpp:122] Setting up lstm1_gate_input_15
I0228 21:31:38.340734 13785 net.cpp:129] Top shape: 1 13 64 (832)
I0228 21:31:38.340736 13785 net.cpp:137] Memory required for data: 271232
I0228 21:31:38.340739 13785 layer_factory.hpp:77] Creating layer lstm1_unit_15
I0228 21:31:38.340745 13785 net.cpp:84] Creating Layer lstm1_unit_15
I0228 21:31:38.340749 13785 net.cpp:406] lstm1_unit_15 <- c_14
I0228 21:31:38.340752 13785 net.cpp:406] lstm1_unit_15 <- gate_input_15
I0228 21:31:38.340756 13785 net.cpp:406] lstm1_unit_15 <- cont_15_lstm1_cont_slice_14_split_1
I0228 21:31:38.340760 13785 net.cpp:380] lstm1_unit_15 -> c_15
I0228 21:31:38.340765 13785 net.cpp:380] lstm1_unit_15 -> h_15
I0228 21:31:38.340804 13785 net.cpp:122] Setting up lstm1_unit_15
I0228 21:31:38.340814 13785 net.cpp:129] Top shape: 1 13 16 (208)
I0228 21:31:38.340818 13785 net.cpp:129] Top shape: 1 13 16 (208)
I0228 21:31:38.340821 13785 net.cpp:137] Memory required for data: 272896
I0228 21:31:38.340824 13785 layer_factory.hpp:77] Creating layer h_15_lstm1_unit_15_1_split
I0228 21:31:38.340828 13785 net.cpp:84] Creating Layer h_15_lstm1_unit_15_1_split
I0228 21:31:38.340832 13785 net.cpp:406] h_15_lstm1_unit_15_1_split <- h_15
I0228 21:31:38.340837 13785 net.cpp:380] h_15_lstm1_unit_15_1_split -> h_15_lstm1_unit_15_1_split_0
I0228 21:31:38.340842 13785 net.cpp:380] h_15_lstm1_unit_15_1_split -> h_15_lstm1_unit_15_1_split_1
I0228 21:31:38.340859 13785 net.cpp:122] Setting up h_15_lstm1_unit_15_1_split
I0228 21:31:38.340864 13785 net.cpp:129] Top shape: 1 13 16 (208)
I0228 21:31:38.340868 13785 net.cpp:129] Top shape: 1 13 16 (208)
I0228 21:31:38.340872 13785 net.cpp:137] Memory required for data: 274560
I0228 21:31:38.340874 13785 layer_factory.hpp:77] Creating layer lstm1_h_conted_15
I0228 21:31:38.340879 13785 net.cpp:84] Creating Layer lstm1_h_conted_15
I0228 21:31:38.340883 13785 net.cpp:406] lstm1_h_conted_15 <- h_15_lstm1_unit_15_1_split_0
I0228 21:31:38.340888 13785 net.cpp:406] lstm1_h_conted_15 <- cont_16_lstm1_cont_slice_15_split_0
I0228 21:31:38.340891 13785 net.cpp:380] lstm1_h_conted_15 -> h_conted_15
I0228 21:31:38.340924 13785 net.cpp:122] Setting up lstm1_h_conted_15
I0228 21:31:38.340929 13785 net.cpp:129] Top shape: 1 13 16 (208)
I0228 21:31:38.340932 13785 net.cpp:137] Memory required for data: 275392
I0228 21:31:38.340935 13785 layer_factory.hpp:77] Creating layer lstm1_transform_16
I0228 21:31:38.340940 13785 net.cpp:84] Creating Layer lstm1_transform_16
I0228 21:31:38.340943 13785 net.cpp:406] lstm1_transform_16 <- h_conted_15
I0228 21:31:38.340947 13785 net.cpp:380] lstm1_transform_16 -> W_hc_h_15
I0228 21:31:38.340981 13785 net.cpp:122] Setting up lstm1_transform_16
I0228 21:31:38.340987 13785 net.cpp:129] Top shape: 1 13 64 (832)
I0228 21:31:38.340991 13785 net.cpp:137] Memory required for data: 278720
I0228 21:31:38.340994 13785 net.cpp:465] Sharing parameters 'W_hc' owned by layer 'lstm1_transform_1', param index 0
I0228 21:31:38.340997 13785 layer_factory.hpp:77] Creating layer lstm1_gate_input_16
I0228 21:31:38.341002 13785 net.cpp:84] Creating Layer lstm1_gate_input_16
I0228 21:31:38.341006 13785 net.cpp:406] lstm1_gate_input_16 <- W_hc_h_15
I0228 21:31:38.341009 13785 net.cpp:406] lstm1_gate_input_16 <- W_xc_x_16
I0228 21:31:38.341014 13785 net.cpp:380] lstm1_gate_input_16 -> gate_input_16
I0228 21:31:38.341028 13785 net.cpp:122] Setting up lstm1_gate_input_16
I0228 21:31:38.341033 13785 net.cpp:129] Top shape: 1 13 64 (832)
I0228 21:31:38.341037 13785 net.cpp:137] Memory required for data: 282048
I0228 21:31:38.341039 13785 layer_factory.hpp:77] Creating layer lstm1_unit_16
I0228 21:31:38.341044 13785 net.cpp:84] Creating Layer lstm1_unit_16
I0228 21:31:38.341048 13785 net.cpp:406] lstm1_unit_16 <- c_15
I0228 21:31:38.341051 13785 net.cpp:406] lstm1_unit_16 <- gate_input_16
I0228 21:31:38.341055 13785 net.cpp:406] lstm1_unit_16 <- cont_16_lstm1_cont_slice_15_split_1
I0228 21:31:38.341060 13785 net.cpp:380] lstm1_unit_16 -> c_16
I0228 21:31:38.341065 13785 net.cpp:380] lstm1_unit_16 -> h_16
I0228 21:31:38.341104 13785 net.cpp:122] Setting up lstm1_unit_16
I0228 21:31:38.341109 13785 net.cpp:129] Top shape: 1 13 16 (208)
I0228 21:31:38.341114 13785 net.cpp:129] Top shape: 1 13 16 (208)
I0228 21:31:38.341116 13785 net.cpp:137] Memory required for data: 283712
I0228 21:31:38.341120 13785 layer_factory.hpp:77] Creating layer lstm1_
I0228 21:31:38.341123 13785 net.cpp:84] Creating Layer lstm1_
I0228 21:31:38.341127 13785 net.cpp:406] lstm1_ <- c_16
I0228 21:31:38.341131 13785 net.cpp:380] lstm1_ -> c_T
I0228 21:31:38.341145 13785 net.cpp:122] Setting up lstm1_
I0228 21:31:38.341150 13785 net.cpp:129] Top shape: 1 13 16 (208)
I0228 21:31:38.341152 13785 net.cpp:137] Memory required for data: 284544
I0228 21:31:38.341156 13785 layer_factory.hpp:77] Creating layer lstm1_h_concat
I0228 21:31:38.341171 13785 net.cpp:84] Creating Layer lstm1_h_concat
I0228 21:31:38.341174 13785 net.cpp:406] lstm1_h_concat <- h_1_lstm1_unit_1_1_split_1
I0228 21:31:38.341178 13785 net.cpp:406] lstm1_h_concat <- h_2_lstm1_unit_2_1_split_1
…
I0228 21:31:38.371034 13785 net.cpp:200] lstm1_ does not need backward computation.
I0228 21:31:38.371037 13785 net.cpp:242] This network produces output c_T
I0228 21:31:38.371044 13785 net.cpp:242] This network produces output h_pseudoloss
I0228 21:31:38.371215 13785 net.cpp:255] Network initialization done.
I0228 21:31:38.371352 13785 recurrent_layer.cpp:150] Adding parameter 0: W_xc
I0228 21:31:38.371358 13785 recurrent_layer.cpp:150] Adding parameter 1: b_c
I0228 21:31:38.371362 13785 recurrent_layer.cpp:150] Adding parameter 2: W_hc
I0228 21:31:38.371495 13785 net.cpp:122] Setting up lstm1
I0228 21:31:38.371510 13785 net.cpp:129] Top shape: 16 13 16 (3328)
I0228 21:31:38.371515 13785 net.cpp:137] Memory required for data: 17536
I0228 21:31:38.371537 13785 layer_factory.hpp:77] Creating layer lstm2
I0228 21:31:38.371546 13785 net.cpp:84] Creating Layer lstm2
I0228 21:31:38.371551 13785 net.cpp:406] lstm2 <- lstm1
I0228 21:31:38.371556 13785 net.cpp:406] lstm2 <- clip_Input_1_split_1
I0228 21:31:38.371559 13785 net.cpp:380] lstm2 -> lstm2
I0228 21:31:38.371567 13785 recurrent_layer.cpp:20] Initializing recurrent layer: assuming input batch contains 16 timesteps of 13 independent streams.
I0228 21:31:38.371870 13785 net.cpp:51] Initializing net from parameters: 
layer {
  name: "lstm2_"
  type: "Input"
  top: "x"
  top: "cont"
  input_param {
    shape {
      dim: 16
      dim: 13
      dim: 16
    }
    shape {
      dim: 16
      dim: 13
    }
  }
}
layer {
  name: "lstm2_"
  type: "Input"
  top: "c_0"
  top: "h_0"
  input_param {
    shape {
      dim: 1
      dim: 13
      dim: 16
    }
    shape {
      dim: 1
      dim: 13
      dim: 16
    }
  }
}
layer {
  name: "lstm2_cont_slice"
  type: "Slice"
  bottom: "cont"
  top: "cont_1"
  top: "cont_2"
  top: "cont_3"
  top: "cont_4"
  top: "cont_5"
  top: "cont_6"
  top: "cont_7"
  top: "cont_8"
  top: "cont_9"
  top: "cont_10"
  top: "cont_11"
  top: "cont_12"
  top: "cont_13"
  top: "cont_14"
  top: "cont_15"
  top: "cont_16"
  slice_param {
    axis: 0
  }
}
layer {
  name: "lstm2_x_transform"
  type: "InnerProduct"
  bottom: "x"
  top: "W_xc_x"
  param {
    name: "W_xc"
  }
  param {
    name: "b_c"
  }
  propagate_down: true
  inner_product_param {
    num_output: 64
    bias_term: true
    weight_filler {
      type: "xavier"
    }
    bias_filler {
      type: "constant"
    }
    axis: 2
  }
}
layer {
  name: "lstm2_W_xc_x_slice"
  type: "Slice"
  bottom: "W_xc_x"
  top: "W_xc_x_1"
  top: "W_xc_x_2"
  top: "W_xc_x_3"
  top: "W_xc_x_4"
  top: "W_xc_x_5"
  top: "W_xc_x_6"
  top: "W_xc_x_7"
  top: "W_xc_x_8"
  top: "W_xc_x_9"
  top: "W_xc_x_10"
  top: "W_xc_x_11"
  top: "W_xc_x_12"
  top: "W_xc_x_13"
  top: "W_xc_x_14"
  top: "W_xc_x_15"
  top: "W_xc_x_16"
  slice_param {
    axis: 0
  }
}
layer {
  name: "lstm2_h_conted_0"
  type: "Scale"
  bottom: "h_0"
  bottom: "cont_1"
  top: "h_conted_0"
  scale_param {
    axis: 0
  }
}
layer {
  name: "lstm2_transform_1"
  type: "InnerProduct"
  bottom: "h_conted_0"
  top: "W_hc_h_0"
  param {
    name: "W_hc"
  }
  inner_product_param {
    num_output: 64
    bias_term: false
    weight_filler {
      type: "xavier"
    }
    axis: 2
  }
}
layer {
  name: "lstm2_gate_input_1"
  type: "Eltwise"
  bottom: "W_hc_h_0"
  bottom: "W_xc_x_1"
  top: "gate_input_1"
  eltwise_param {
    operation: SUM
  }
}
layer {
  name: "lstm2_unit_1"
  type: "LSTMUnit"
  bottom: "c_0"
  bottom: "gate_input_1"
  bottom: "cont_1"
  top: "c_1"
  top: "h_1"
}
layer {
  name: "lstm2_h_conted_1"
  type: "Scale"
  bottom: "h_1"
  bottom: "cont_2"
  top: "h_conted_1"
  scale_param {
    axis: 0
  }
}
layer {
  name: "lstm2_transform_2"
  type: "InnerProduct"
  bottom: "h_conted_1"
  top: "W_hc_h_1"
  param {
    name: "W_hc"
  }
  inner_product_param {
    num_output: 64
    bias_term: false
    weight_filler {
      type: "xavier"
    }
    axis: 2
  }
}
layer {
  name: "lstm2_gate_input_2"
  type: "Eltwise"
  bottom: "W_hc_h_1"
  bottom: "W_xc_x_2"
  top: "gate_input_2"
  eltwise_param {
    operation: SUM
  }
}
layer {
  name: "lstm2_unit_2"
  type: "LSTMUnit"
  bottom: "c_1"
  bottom: "gate_input_2"
  bottom: "cont_2"
  top: "c_2"
  top: "h_2"
}
layer {
  name: "lstm2_h_conted_2"
  type: "Scale"
  bottom: "h_2"
  bottom: "cont_3"
  top: "h_conted_2"
  scale_param {
    axis: 0
  }
}
layer {
  name: "lstm2_transform_3"
  type: "InnerProduct"
  bottom: "h_conted_2"
  top: "W_hc_h_2"
  param {
    name: "W_hc"
  }
  inner_product_param {
    num_output: 64
    bias_term: false
    weight_filler {
      type: "xavier"
    }
    axis: 2
  }
}
layer {
  name: "lstm2_gate_input_3"
  type: "Eltwise"
  bottom: "W_hc_h_2"
  bottom: "W_xc_x_3"
  top: "gate_input_3"
  eltwise_param {
    operation: SUM
  }
}
layer {
  name: "lstm2_unit_3"
  type: "LSTMUnit"
  bottom: "c_2"
  bottom: "gate_input_3"
  bottom: "cont_3"
  top: "c_3"
  top: "h_3"
}
layer {
  name: "lstm2_h_conted_3"
  type: "Scale"
  bottom: "h_3"
  bottom: "cont_4"
  top: "h_conted_3"
  scale_param {
    axis: 0
  }
}
layer {
  name: "lstm2_transform_4"
  type: "InnerProduct"
  bottom: "h_conted_3"
  top: "W_hc_h_3"
  param {
    name: "W_hc"
  }
  inner_product_param {
    num_output: 64
    bias_term: false
    weight_filler {
      type: "xavier"
    }
    axis: 2
  }
}
layer {
  name: "lstm2_gate_input_4"
  type: "Eltwise"
  bottom: "W_hc_h_3"
  bottom: "W_xc_x_4"
  top: "gate_input_4"
  eltwise_param {
    operation: SUM
  }
}
layer {
  name: "lstm2_unit_4"
  type: "LSTMUnit"
  bottom: "c_3"
  bottom: "gate_input_4"
  bottom: "cont_4"
  top: "c_4"
  top: "h_4"
}
layer {
  name: "lstm2_h_conted_4"
  type: "Scale"
  bottom: "h_4"
  bottom: "cont_5"
  top: "h_conted_4"
  scale_param {
    axis: 0
  }
}
layer {
  name: "lstm2_transform_5"
  type: "InnerProduct"
  bottom: "h_conted_4"
  top: "W_hc_h_4"
  param {
    name: "W_hc"
  }
  inner_product_param {
    num_output: 64
    bias_term: false
    weight_filler {
      type: "xavier"
    }
    axis: 2
  }
}
layer {
  name: "lstm2_gate_input_5"
  type: "Eltwise"
  bottom: "W_hc_h_4"
  bottom: "W_xc_x_5"
  top: "gate_input_5"
  eltwise_param {
    operation: SUM
  }
}
layer {
  name: "lstm2_unit_5"
  type: "LSTMUnit"
  bottom: "c_4"
  bottom: "gate_input_5"
  bottom: "cont_5"
  top: "c_5"
  top: "h_5"
}
layer {
  name: "lstm2_h_conted_5"
  type: "Scale"
  bottom: "h_5"
  bottom: "cont_6"
  top: "h_conted_5"
  scale_param {
    axis: 0
  }
}
layer {
  name: "lstm2_transform_6"
  type: "InnerProduct"
  bottom: "h_conted_5"
  top: "W_hc_h_5"
  param {
    name: "W_hc"
  }
  inner_product_param {
    num_output: 64
    bias_term: false
    weight_filler {
      type: "xavier"
    }
    axis: 2
  }
}
layer {
  name: "lstm2_gate_input_6"
  type: "Eltwise"
  bottom: "W_hc_h_5"
  bottom: "W_xc_x_6"
  top: "gate_input_6"
  eltwise_param {
    operation: SUM
  }
}
layer {
  name: "lstm2_unit_6"
  type: "LSTMUnit"
  bottom: "c_5"
  bottom: "gate_input_6"
  bottom: "cont_6"
  top: "c_6"
  top: "h_6"
}
layer {
  name: "lstm2_h_conted_6"
  type: "Scale"
  bottom: "h_6"
  bottom: "cont_7"
  top: "h_conted_6"
  scale_param {
    axis: 0
  }
}
layer {
  name: "lstm2_transform_7"
  type: "InnerProduct"
  bottom: "h_conted_6"
  top: "W_hc_h_6"
  param {
    name: "W_hc"
  }
  inner_product_param {
    num_output: 64
    bias_term: false
    weight_filler {
      type: "xavier"
    }
    axis: 2
  }
}
layer {
  name: "lstm2_gate_input_7"
  type: "Eltwise"
  bottom: "W_hc_h_6"
  bottom: "W_xc_x_7"
  top: "gate_input_7"
  eltwise_param {
    operation: SUM
  }
}
layer {
  name: "lstm2_unit_7"
  type: "LSTMUnit"
  bottom: "c_6"
  bottom: "gate_input_7"
  bottom: "cont_7"
  top: "c_7"
  top: "h_7"
}
layer {
  name: "lstm2_h_conted_7"
  type: "Scale"
  bottom: "h_7"
  bottom: "cont_8"
  top: "h_conted_7"
  scale_param {
    axis: 0
  }
}
layer {
  name: "lstm2_transform_8"
  type: "InnerProduct"
  bottom: "h_conted_7"
  top: "W_hc_h_7"
  param {
    name: "W_hc"
  }
  inner_product_param {
    num_output: 64
    bias_term: false
    weight_filler {
      type: "xavier"
    }
    axis: 2
  }
}
layer {
  name: "lstm2_gate_input_8"
  type: "Eltwise"
  bottom: "W_hc_h_7"
  bottom: "W_xc_x_8"
  top: "gate_input_8"
  eltwise_param {
    operation: SUM
  }
}
layer {
  name: "lstm2_unit_8"
  type: "LSTMUnit"
  bottom: "c_7"
  bottom: "gate_input_8"
  bottom: "cont_8"
  top: "c_8"
  top: "h_8"
}
layer {
  name: "lstm2_h_conted_8"
  type: "Scale"
  bottom: "h_8"
  bottom: "cont_9"
  top: "h_conted_8"
  scale_param {
    axis: 0
  }
}
layer {
  name: "lstm2_transform_9"
  type: "InnerProduct"
  bottom: "h_conted_8"
  top: "W_hc_h_8"
  param {
    name: "W_hc"
  }
  inner_product_param {
    num_output: 64
    bias_term: false
    weight_filler {
      type: "xavier"
    }
    axis: 2
  }
}
layer {
  name: "lstm2_gate_input_9"
  type: "Eltwise"
  bottom: "W_hc_h_8"
  bottom: "W_xc_x_9"
  top: "gate_input_9"
  eltwise_param {
    operation: SUM
  }
}
layer {
  name: "lstm2_unit_9"
  type: "LSTMUnit"
  bottom: "c_8"
  bottom: "gate_input_9"
  bottom: "cont_9"
  top: "c_9"
  top: "h_9"
}
layer {
  name: "lstm2_h_conted_9"
  type: "Scale"
  bottom: "h_9"
  bottom: "cont_10"
  top: "h_conted_9"
  scale_param {
    axis: 0
  }
}
layer {
  name: "lstm2_transform_10"
  type: "InnerProduct"
  bottom: "h_conted_9"
  top: "W_hc_h_9"
  param {
    name: "W_hc"
  }
  inner_product_param {
    num_output: 64
    bias_term: false
    weight_filler {
      type: "xavier"
    }
    axis: 2
  }
}
layer {
  name: "lstm2_gate_input_10"
  type: "Eltwise"
  bottom: "W_hc_h_9"
  bottom: "W_xc_x_10"
  top: "gate_input_10"
  eltwise_param {
    operation: SUM
  }
}
layer {
  name: "lstm2_unit_10"
  type: "LSTMUnit"
  bottom: "c_9"
  bottom: "gate_input_10"
  bottom: "cont_10"
  top: "c_10"
  top: "h_10"
}
layer {
  name: "lstm2_h_conted_10"
  type: "Scale"
  bottom: "h_10"
  bottom: "cont_11"
  top: "h_conted_10"
  scale_param {
    axis: 0
  }
}
layer {
  name: "lstm2_transform_11"
  type: "InnerProduct"
  bottom: "h_conted_10"
  top: "W_hc_h_10"
  param {
    name: "W_hc"
  }
  inner_product_param {
    num_output: 64
    bias_term: false
    weight_filler {
      type: "xavier"
    }
    axis: 2
  }
}
layer {
  name: "lstm2_gate_input_11"
  type: "Eltwise"
  bottom: "W_hc_h_10"
  bottom: "W_xc_x_11"
  top: "gate_input_11"
  eltwise_param {
    operation: SUM
  }
}
layer {
  name: "lstm2_unit_11"
  type: "LSTMUnit"
  bottom: "c_10"
  bottom: "gate_input_11"
  bottom: "cont_11"
  top: "c_11"
  top: "h_11"
}
layer {
  name: "lstm2_h_conted_11"
  type: "Scale"
  bottom: "h_11"
  bottom: "cont_12"
  top: "h_conted_11"
  scale_param {
    axis: 0
  }
}
layer {
  name: "lstm2_transform_12"
  type: "InnerProduct"
  bottom: "h_conted_11"
  top: "W_hc_h_11"
  param {
    name: "W_hc"
  }
  inner_product_param {
    num_output: 64
    bias_term: false
    weight_filler {
      type: "xavier"
    }
    axis: 2
  }
}
layer {
  name: "lstm2_gate_input_12"
  type: "Eltwise"
  bottom: "W_hc_h_11"
  bottom: "W_xc_x_12"
  top: "gate_input_12"
  eltwise_param {
    operation: SUM
  }
}
layer {
  name: "lstm2_unit_12"
  type: "LSTMUnit"
  bottom: "c_11"
  bottom: "gate_input_12"
  bottom: "cont_12"
  top: "c_12"
  top: "h_12"
}
layer {
  name: "lstm2_h_conted_12"
  type: "Scale"
  bottom: "h_12"
  bottom: "cont_13"
  top: "h_conted_12"
  scale_param {
    axis: 0
  }
}
layer {
  name: "lstm2_transform_13"
  type: "InnerProduct"
  bottom: "h_conted_12"
  top: "W_hc_h_12"
  param {
    name: "W_hc"
  }
  inner_product_param {
    num_output: 64
    bias_term: false
    weight_filler {
      type: "xavier"
    }
    axis: 2
  }
}
layer {
  name: "lstm2_gate_input_13"
  type: "Eltwise"
  bottom: "W_hc_h_12"
  bottom: "W_xc_x_13"
  top: "gate_input_13"
  eltwise_param {
    operation: SUM
  }
}
layer {
  name: "lstm2_unit_13"
  type: "LSTMUnit"
  bottom: "c_12"
  bottom: "gate_input_13"
  bottom: "cont_13"
  top: "c_13"
  top: "h_13"
}
layer {
  name: "lstm2_h_conted_13"
  type: "Scale"
  bottom: "h_13"
  bottom: "cont_14"
  top: "h_conted_13"
  scale_param {
    axis: 0
  }
}
layer {
  name: "lstm2_transform_14"
  type: "InnerProduct"
  bottom: "h_conted_13"
  top: "W_hc_h_13"
  param {
    name: "W_hc"
  }
  inner_product_param {
    num_output: 64
    bias_term: false
    weight_filler {
      type: "xavier"
    }
    axis: 2
  }
}
layer {
  name: "lstm2_gate_input_14"
  type: "Eltwise"
  bottom: "W_hc_h_13"
  bottom: "W_xc_x_14"
  top: "gate_input_14"
  eltwise_param {
    operation: SUM
  }
}
layer {
  name: "lstm2_unit_14"
  type: "LSTMUnit"
  bottom: "c_13"
  bottom: "gate_input_14"
  bottom: "cont_14"
  top: "c_14"
  top: "h_14"
}
layer {
  name: "lstm2_h_conted_14"
  type: "Scale"
  bottom: "h_14"
  bottom: "cont_15"
  top: "h_conted_14"
  scale_param {
    axis: 0
  }
}
layer {
  name: "lstm2_transform_15"
  type: "InnerProduct"
  bottom: "h_conted_14"
  top: "W_hc_h_14"
  param {
    name: "W_hc"
  }
  inner_product_param {
    num_output: 64
    bias_term: false
    weight_filler {
      type: "xavier"
    }
    axis: 2
  }
}
layer {
  name: "lstm2_gate_input_15"
  type: "Eltwise"
  bottom: "W_hc_h_14"
  bottom: "W_xc_x_15"
  top: "gate_input_15"
  eltwise_param {
    operation: SUM
  }
}
layer {
  name: "lstm2_unit_15"
  type: "LSTMUnit"
  bottom: "c_14"
  bottom: "gate_input_15"
  bottom: "cont_15"
  top: "c_15"
  top: "h_15"
}
layer {
  name: "lstm2_h_conted_15"
  type: "Scale"
  bottom: "h_15"
  bottom: "cont_16"
  top: "h_conted_15"
  scale_param {
    axis: 0
  }
}
layer {
  name: "lstm2_transform_16"
  type: "InnerProduct"
  bottom: "h_conted_15"
  top: "W_hc_h_15"
  param {
    name: "W_hc"
  }
  inner_product_param {
    num_output: 64
    bias_term: false
    weight_filler {
      type: "xavier"
    }
    axis: 2
  }
}
layer {
  name: "lstm2_gate_input_16"
  type: "Eltwise"
  bottom: "W_hc_h_15"
  bottom: "W_xc_x_16"
  top: "gate_input_16"
  eltwise_param {
    operation: SUM
  }
}
layer {
  name: "lstm2_unit_16"
  type: "LSTMUnit"
  bottom: "c_15"
  bottom: "gate_input_16"
  bottom: "cont_16"
  top: "c_16"
  top: "h_16"
}
layer {
  name: "lstm2_"
  type: "Split"
  bottom: "c_16"
  top: "c_T"
}
layer {
  name: "lstm2_h_concat"
  type: "Concat"
  bottom: "h_1"
  bottom: "h_2"
  bottom: "h_3"
  bottom: "h_4"
  bottom: "h_5"
  bottom: "h_6"
  bottom: "h_7"
  bottom: "h_8"
  bottom: "h_9"
  bottom: "h_10"
  bottom: "h_11"
  bottom: "h_12"
  bottom: "h_13"
  bottom: "h_14"
  bottom: "h_15"
  bottom: "h_16"
  top: "h"
  concat_param {
    axis: 0
  }
}
layer {
  name: "h_pseudoloss"
  type: "Reduction"
  bottom: "h"
  top: "h_pseudoloss"
  loss_weight: 1
}
I0228 21:31:38.401438 13785 layer_factory.hpp:77] Creating layer lstm2_
I0228 21:31:38.401458 13785 net.cpp:84] Creating Layer lstm2_
I0228 21:31:38.401463 13785 net.cpp:380] lstm2_ -> x
I0228 21:31:38.401476 13785 net.cpp:380] lstm2_ -> cont
I0228 21:31:38.401535 13785 net.cpp:122] Setting up lstm2_
I0228 21:31:38.401548 13785 net.cpp:129] Top shape: 16 13 16 (3328)
I0228 21:31:38.401568 13785 net.cpp:129] Top shape: 16 13 (208)
I0228 21:31:38.401572 13785 net.cpp:137] Memory required for data: 14144
I0228 21:31:38.401576 13785 layer_factory.hpp:77] Creating layer lstm2_
I0228 21:31:38.401583 13785 net.cpp:84] Creating Layer lstm2_
I0228 21:31:38.401588 13785 net.cpp:380] lstm2_ -> c_0
I0228 21:31:38.401595 13785 net.cpp:380] lstm2_ -> h_0
I0228 21:31:38.401618 13785 net.cpp:122] Setting up lstm2_
I0228 21:31:38.401625 13785 net.cpp:129] Top shape: 1 13 16 (208)
I0228 21:31:38.401630 13785 net.cpp:129] Top shape: 1 13 16 (208)
I0228 21:31:38.401634 13785 net.cpp:137] Memory required for data: 15808
I0228 21:31:38.401638 13785 layer_factory.hpp:77] Creating layer lstm2_cont_slice
I0228 21:31:38.401644 13785 net.cpp:84] Creating Layer lstm2_cont_slice
I0228 21:31:38.401648 13785 net.cpp:406] lstm2_cont_slice <- cont
I0228 21:31:38.401656 13785 net.cpp:380] lstm2_cont_slice -> cont_1
I0228 21:31:38.401664 13785 net.cpp:380] lstm2_cont_slice -> cont_2
…
