…
  type: "Data"
  top: "data"
  data_param {
    source: "/home/leonida/ThesisCode/LSTM_on_Create2/NavDatabases/LAB-SIM-onlyang/states_meastail_db-2-24-23-40_lmdb"
    batch_size: 32
    backend: LMDB
  }
}
layer {
  name: "label"
  type: "Data"
  top: "labels"
  data_param {
    source: "/home/leonida/ThesisCode/LSTM_on_Create2/NavDatabases/LAB-SIM-onlyang/labels_meas_db-2-24-23-40_twist-variant_lmdb"
    batch_size: 32
    backend: LMDB
  }
}
layer {
  name: "clip"
  type: "Input"
  top: "clip"
  input_param {
    shape {
      dim: 32
      dim: 27
    }
  }
}
layer {
  name: "lstm1"
  type: "LSTM"
  bottom: "data"
  bottom: "clip"
  top: "lstm1"
  recurrent_param {
    num_output: 16
    weight_filler {
      type: "xavier"
    }
    bias_filler {
      type: "constant"
    }
  }
}
layer {
  name: "lstm2"
  type: "LSTM"
  bottom: "lstm1"
  bottom: "clip"
  top: "lstm2"
  recurrent_param {
    num_output: 16
    weight_filler {
      type: "xavier"
    }
    bias_filler {
      type: "constant"
    }
  }
}
layer {
  name: "out"
  type: "InnerProduct"
  bottom: "lstm2"
  top: "out"
  inner_product_param {
    num_output: 1
    weight_filler {
      type: "gaussian"
      std: 0.1
    }
    bias_filler {
      type: "constant"
    }
  }
}
layer {
  name: "euclideanLoss"
  type: "EuclideanLoss"
  bottom: "out"
  bottom: "labels"
  top: "loss"
}
I0225 04:17:12.137470 11620 layer_factory.hpp:77] Creating layer data
I0225 04:17:12.137603 11620 db_lmdb.cpp:35] Opened lmdb /home/leonida/ThesisCode/LSTM_on_Create2/NavDatabases/LAB-SIM-onlyang/states_meastail_db-2-24-23-40_lmdb
I0225 04:17:12.137629 11620 net.cpp:84] Creating Layer data
I0225 04:17:12.137637 11620 net.cpp:380] data -> data
I0225 04:17:12.138572 11620 data_layer.cpp:45] output data size: 32,27,1,1
I0225 04:17:12.139895 11620 net.cpp:122] Setting up data
I0225 04:17:12.139916 11620 net.cpp:129] Top shape: 32 27 1 1 (864)
I0225 04:17:12.139921 11620 net.cpp:137] Memory required for data: 3456
I0225 04:17:12.139928 11620 layer_factory.hpp:77] Creating layer label
I0225 04:17:12.139971 11620 db_lmdb.cpp:35] Opened lmdb /home/leonida/ThesisCode/LSTM_on_Create2/NavDatabases/LAB-SIM-onlyang/labels_meas_db-2-24-23-40_twist-variant_lmdb
I0225 04:17:12.139983 11620 net.cpp:84] Creating Layer label
I0225 04:17:12.139988 11620 net.cpp:380] label -> labels
I0225 04:17:12.140046 11620 data_layer.cpp:45] output data size: 32,1,1,1
I0225 04:17:12.140559 11620 net.cpp:122] Setting up label
I0225 04:17:12.140568 11620 net.cpp:129] Top shape: 32 1 1 1 (32)
I0225 04:17:12.140571 11620 net.cpp:137] Memory required for data: 3584
I0225 04:17:12.140574 11620 layer_factory.hpp:77] Creating layer clip
I0225 04:17:12.140586 11620 net.cpp:84] Creating Layer clip
I0225 04:17:12.140591 11620 net.cpp:380] clip -> clip
I0225 04:17:12.140621 11620 net.cpp:122] Setting up clip
I0225 04:17:12.140627 11620 net.cpp:129] Top shape: 32 27 (864)
I0225 04:17:12.140640 11620 net.cpp:137] Memory required for data: 7040
I0225 04:17:12.140643 11620 layer_factory.hpp:77] Creating layer clip_clip_0_split
I0225 04:17:12.140652 11620 net.cpp:84] Creating Layer clip_clip_0_split
I0225 04:17:12.140657 11620 net.cpp:406] clip_clip_0_split <- clip
I0225 04:17:12.140663 11620 net.cpp:380] clip_clip_0_split -> clip_clip_0_split_0
I0225 04:17:12.140669 11620 net.cpp:380] clip_clip_0_split -> clip_clip_0_split_1
I0225 04:17:12.140694 11620 net.cpp:122] Setting up clip_clip_0_split
I0225 04:17:12.140700 11620 net.cpp:129] Top shape: 32 27 (864)
I0225 04:17:12.140703 11620 net.cpp:129] Top shape: 32 27 (864)
I0225 04:17:12.140707 11620 net.cpp:137] Memory required for data: 13952
I0225 04:17:12.140710 11620 layer_factory.hpp:77] Creating layer lstm1
I0225 04:17:12.140720 11620 net.cpp:84] Creating Layer lstm1
I0225 04:17:12.140724 11620 net.cpp:406] lstm1 <- data
I0225 04:17:12.140728 11620 net.cpp:406] lstm1 <- clip_clip_0_split_0
I0225 04:17:12.140733 11620 net.cpp:380] lstm1 -> lstm1
I0225 04:17:12.140744 11620 recurrent_layer.cpp:20] Initializing recurrent layer: assuming input batch contains 32 timesteps of 27 independent streams.
I0225 04:17:12.141449 11620 net.cpp:51] Initializing net from parameters: 
layer {
  name: "lstm1_"
  type: "Input"
  top: "x"
  top: "cont"
  input_param {
    shape {
      dim: 32
      dim: 27
      dim: 1
      dim: 1
    }
    shape {
      dim: 32
      dim: 27
    }
  }
}
layer {
  name: "lstm1_"
  type: "Input"
  top: "c_0"
  top: "h_0"
  input_param {
    shape {
      dim: 1
      dim: 27
      dim: 16
    }
    shape {
      dim: 1
      dim: 27
      dim: 16
    }
  }
}
layer {
  name: "lstm1_cont_slice"
  type: "Slice"
  bottom: "cont"
  top: "cont_1"
  top: "cont_2"
  top: "cont_3"
  top: "cont_4"
  top: "cont_5"
  top: "cont_6"
  top: "cont_7"
  top: "cont_8"
  top: "cont_9"
  top: "cont_10"
  top: "cont_11"
  top: "cont_12"
  top: "cont_13"
  top: "cont_14"
  top: "cont_15"
  top: "cont_16"
  top: "cont_17"
  top: "cont_18"
  top: "cont_19"
  top: "cont_20"
  top: "cont_21"
  top: "cont_22"
  top: "cont_23"
  top: "cont_24"
  top: "cont_25"
  top: "cont_26"
  top: "cont_27"
  top: "cont_28"
  top: "cont_29"
  top: "cont_30"
  top: "cont_31"
  top: "cont_32"
  slice_param {
    axis: 0
  }
}
layer {
  name: "lstm1_x_transform"
  type: "InnerProduct"
  bottom: "x"
  top: "W_xc_x"
  param {
    name: "W_xc"
  }
  param {
    name: "b_c"
  }
  propagate_down: true
  inner_product_param {
    num_output: 64
    bias_term: true
    weight_filler {
      type: "xavier"
    }
    bias_filler {
      type: "constant"
    }
    axis: 2
  }
}
layer {
  name: "lstm1_W_xc_x_slice"
  type: "Slice"
  bottom: "W_xc_x"
  top: "W_xc_x_1"
  top: "W_xc_x_2"
  top: "W_xc_x_3"
  top: "W_xc_x_4"
  top: "W_xc_x_5"
  top: "W_xc_x_6"
  top: "W_xc_x_7"
  top: "W_xc_x_8"
  top: "W_xc_x_9"
  top: "W_xc_x_10"
  top: "W_xc_x_11"
  top: "W_xc_x_12"
  top: "W_xc_x_13"
  top: "W_xc_x_14"
  top: "W_xc_x_15"
  top: "W_xc_x_16"
  top: "W_xc_x_17"
  top: "W_xc_x_18"
  top: "W_xc_x_19"
  top: "W_xc_x_20"
  top: "W_xc_x_21"
  top: "W_xc_x_22"
  top: "W_xc_x_23"
  top: "W_xc_x_24"
  top: "W_xc_x_25"
  top: "W_xc_x_26"
  top: "W_xc_x_27"
  top: "W_xc_x_28"
  top: "W_xc_x_29"
  top: "W_xc_x_30"
  top: "W_xc_x_31"
  top: "W_xc_x_32"
  slice_param {
    axis: 0
  }
}
layer {
  name: "lstm1_h_conted_0"
  type: "Scale"
  bottom: "h_0"
  bottom: "cont_1"
  top: "h_conted_0"
  scale_param {
    axis: 0
  }
}
layer {
  name: "lstm1_transform_1"
  type: "InnerProduct"
  bottom: "h_conted_0"
  top: "W_hc_h_0"
  param {
    name: "W_hc"
  }
  inner_product_param {
    num_output: 64
    bias_term: false
    weight_filler {
      type: "xavier"
    }
    axis: 2
  }
}
layer {
  name: "lstm1_gate_input_1"
  type: "Eltwise"
  bottom: "W_hc_h_0"
  bottom: "W_xc_x_1"
  top: "gate_input_1"
  eltwise_param {
    operation: SUM
  }
}
layer {
  name: "lstm1_unit_1"
  type: "LSTMUnit"
  bottom: "c_0"
  bottom: "gate_input_1"
  bottom: "cont_1"
  top: "c_1"
  top: "h_1"
}
layer {
  name: "lstm1_h_conted_1"
  type: "Scale"
  bottom: "h_1"
  bottom: "cont_2"
  top: "h_conted_1"
  scale_param {
    axis: 0
  }
}
layer {
  name: "lstm1_transform_2"
  type: "InnerProduct"
  bottom: "h_conted_1"
  top: "W_hc_h_1"
  param {
    name: "W_hc"
  }
  inner_product_param {
    num_output: 64
    bias_term: false
    weight_filler {
      type: "xavier"
    }
    axis: 2
  }
}
layer {
  name: "lstm1_gate_input_2"
  type: "Eltwise"
  bottom: "W_hc_h_1"
  bottom: "W_xc_x_2"
  top: "gate_input_2"
  eltwise_param {
    operation: SUM
  }
}
layer {
  name: "lstm1_unit_2"
  type: "LSTMUnit"
  bottom: "c_1"
  bottom: "gate_input_2"
  bottom: "cont_2"
  top: "c_2"
  top: "h_2"
}
layer {
  name: "lstm1_h_conted_2"
  type: "Scale"
  bottom: "h_2"
  bottom: "cont_3"
  top: "h_conted_2"
  scale_param {
    axis: 0
  }
}
layer {
  name: "lstm1_transform_3"
  type: "InnerProduct"
  bottom: "h_conted_2"
  top: "W_hc_h_2"
  param {
    name: "W_hc"
  }
  inner_product_param {
    num_output: 64
    bias_term: false
    weight_filler {
      type: "xavier"
    }
    axis: 2
  }
}
layer {
  name: "lstm1_gate_input_3"
  type: "Eltwise"
  bottom: "W_hc_h_2"
  bottom: "W_xc_x_3"
  top: "gate_input_3"
  eltwise_param {
    operation: SUM
  }
}
layer {
  name: "lstm1_unit_3"
  type: "LSTMUnit"
  bottom: "c_2"
  bottom: "gate_input_3"
  bottom: "cont_3"
  top: "c_3"
  top: "h_3"
}
layer {
  name: "lstm1_h_conted_3"
  type: "Scale"
  bottom: "h_3"
  bottom: "cont_4"
  top: "h_conted_3"
  scale_param {
    axis: 0
  }
}
layer {
  name: "lstm1_transform_4"
  type: "InnerProduct"
  bottom: "h_conted_3"
  top: "W_hc_h_3"
  param {
    name: "W_hc"
  }
  inner_product_param {
    num_output: 64
    bias_term: false
    weight_filler {
      type: "xavier"
    }
    axis: 2
  }
}
layer {
  name: "lstm1_gate_input_4"
  type: "Eltwise"
  bottom: "W_hc_h_3"
  bottom: "W_xc_x_4"
  top: "gate_input_4"
  eltwise_param {
    operation: SUM
  }
}
layer {
  name: "lstm1_unit_4"
  type: "LSTMUnit"
  bottom: "c_3"
  bottom: "gate_input_4"
  bottom: "cont_4"
  top: "c_4"
  top: "h_4"
}
layer {
  name: "lstm1_h_conted_4"
  type: "Scale"
  bottom: "h_4"
  bottom: "cont_5"
  top: "h_conted_4"
  scale_param {
    axis: 0
  }
}
layer {
  name: "lstm1_transform_5"
  type: "InnerProduct"
  bottom: "h_conted_4"
  top: "W_hc_h_4"
  param {
    name: "W_hc"
  }
  inner_product_param {
    num_output: 64
    bias_term: false
    weight_filler {
      type: "xavier"
    }
    axis: 2
  }
}
layer {
  name: "lstm1_gate_input_5"
  type: "Eltwise"
  bottom: "W_hc_h_4"
  bottom: "W_xc_x_5"
  top: "gate_input_5"
  eltwise_param {
    operation: SUM
  }
}
layer {
  name: "lstm1_unit_5"
  type: "LSTMUnit"
  bottom: "c_4"
  bottom: "gate_input_5"
  bottom: "cont_5"
  top: "c_5"
  top: "h_5"
}
layer {
  name: "lstm1_h_conted_5"
  type: "Scale"
  bottom: "h_5"
  bottom: "cont_6"
  top: "h_conted_5"
  scale_param {
    axis: 0
  }
}
layer {
  name: "lstm1_transform_6"
  type: "InnerProduct"
  bottom: "h_conted_5"
  top: "W_hc_h_5"
  param {
    name: "W_hc"
  }
  inner_product_param {
    num_output: 64
    bias_term: false
    weight_filler {
      type: "xavier"
    }
    axis: 2
  }
}
layer {
  name: "lstm1_gate_input_6"
  type: "Eltwise"
  bottom: "W_hc_h_5"
  bottom: "W_xc_x_6"
  top: "gate_input_6"
  eltwise_param {
    operation: SUM
  }
}
layer {
  name: "lstm1_unit_6"
  type: "LSTMUnit"
  bottom: "c_5"
  bottom: "gate_input_6"
  bottom: "cont_6"
  top: "c_6"
  top: "h_6"
}
layer {
  name: "lstm1_h_conted_6"
  type: "Scale"
  bottom: "h_6"
  bottom: "cont_7"
  top: "h_conted_6"
  scale_param {
    axis: 0
  }
}
layer {
  name: "lstm1_transform_7"
  type: "InnerProduct"
  bottom: "h_conted_6"
  top: "W_hc_h_6"
  param {
    name: "W_hc"
  }
  inner_product_param {
    num_output: 64
    bias_term: false
    weight_filler {
      type: "xavier"
    }
    axis: 2
  }
}
layer {
  name: "lstm1_gate_input_7"
  type: "Eltwise"
  bottom: "W_hc_h_6"
  bottom: "W_xc_x_7"
  top: "gate_input_7"
  eltwise_param {
    operation: SUM
  }
}
layer {
  name: "lstm1_unit_7"
  type: "LSTMUnit"
  bottom: "c_6"
  bottom: "gate_input_7"
  bottom: "cont_7"
  top: "c_7"
  top: "h_7"
}
layer {
  name: "lstm1_h_conted_7"
  type: "Scale"
  bottom: "h_7"
  bottom: "cont_8"
  top: "h_conted_7"
  scale_param {
    axis: 0
  }
}
layer {
  name: "lstm1_transform_8"
  type: "InnerProduct"
  bottom: "h_conted_7"
  top: "W_hc_h_7"
  param {
    name: "W_hc"
  }
  inner_product_param {
    num_output: 64
    bias_term: false
    weight_filler {
      type: "xavier"
    }
    axis: 2
  }
}
layer {
  name: "lstm1_gate_input_8"
  type: "Eltwise"
  bottom: "W_hc_h_7"
  bottom: "W_xc_x_8"
  top: "gate_input_8"
  eltwise_param {
    operation: SUM
  }
}
layer {
  name: "lstm1_unit_8"
  type: "LSTMUnit"
  bottom: "c_7"
  bottom: "gate_input_8"
  bottom: "cont_8"
  top: "c_8"
  top: "h_8"
}
layer {
  name: "lstm1_h_conted_8"
  type: "Scale"
  bottom: "h_8"
  bottom: "cont_9"
  top: "h_conted_8"
  scale_param {
    axis: 0
  }
}
layer {
  name: "lstm1_transform_9"
  type: "InnerProduct"
  bottom: "h_conted_8"
  top: "W_hc_h_8"
  param {
    name: "W_hc"
  }
  inner_product_param {
    num_output: 64
    bias_term: false
    weight_filler {
      type: "xavier"
    }
    axis: 2
  }
}
layer {
  name: "lstm1_gate_input_9"
  type: "Eltwise"
  bottom: "W_hc_h_8"
  bottom: "W_xc_x_9"
  top: "gate_input_9"
  eltwise_param {
    operation: SUM
  }
}
layer {
  name: "lstm1_unit_9"
  type: "LSTMUnit"
  bottom: "c_8"
  bottom: "gate_input_9"
  bottom: "cont_9"
  top: "c_9"
  top: "h_9"
}
layer {
  name: "lstm1_h_conted_9"
  type: "Scale"
  bottom: "h_9"
  bottom: "cont_10"
  top: "h_conted_9"
  scale_param {
    axis: 0
  }
}
layer {
  name: "lstm1_transform_10"
  type: "InnerProduct"
  bottom: "h_conted_9"
  top: "W_hc_h_9"
  param {
    name: "W_hc"
  }
  inner_product_param {
    num_output: 64
    bias_term: false
    weight_filler {
      type: "xavier"
    }
    axis: 2
  }
}
layer {
  name: "lstm1_gate_input_10"
  type: "Eltwise"
  bottom: "W_hc_h_9"
  bottom: "W_xc_x_10"
  top: "gate_input_10"
  eltwise_param {
    operation: SUM
  }
}
layer {
  name: "lstm1_unit_10"
  type: "LSTMUnit"
  bottom: "c_9"
  bottom: "gate_input_10"
  bottom: "cont_10"
  top: "c_10"
  top: "h_10"
}
layer {
  name: "lstm1_h_conted_10"
  type: "Scale"
  bottom: "h_10"
  bottom: "cont_11"
  top: "h_conted_10"
  scale_param {
    axis: 0
  }
}
layer {
  name: "lstm1_transform_11"
  type: "InnerProduct"
  bottom: "h_conted_10"
  top: "W_hc_h_10"
  param {
    name: "W_hc"
  }
  inner_product_param {
    num_output: 64
    bias_term: false
    weight_filler {
      type: "xavier"
    }
    axis: 2
  }
}
layer {
  name: "lstm1_gate_input_11"
  type: "Eltwise"
  bottom: "W_hc_h_10"
  bottom: "W_xc_x_11"
  top: "gate_input_11"
  eltwise_param {
    operation: SUM
  }
}
layer {
  name: "lstm1_unit_11"
  type: "LSTMUnit"
  bottom: "c_10"
  bottom: "gate_input_11"
  bottom: "cont_11"
  top: "c_11"
  top: "h_11"
}
layer {
  name: "lstm1_h_conted_11"
  type: "Scale"
  bottom: "h_11"
  bottom: "cont_12"
  top: "h_conted_11"
  scale_param {
    axis: 0
  }
}
layer {
  name: "lstm1_transform_12"
  type: "InnerProduct"
  bottom: "h_conted_11"
  top: "W_hc_h_11"
  param {
    name: "W_hc"
  }
  inner_product_param {
    num_output: 64
    bias_term: false
    weight_filler {
      type: "xavier"
    }
    axis: 2
  }
}
layer {
  name: "lstm1_gate_input_12"
  type: "Eltwise"
  bottom: "W_hc_h_11"
  bottom: "W_xc_x_12"
  top: "gate_input_12"
  eltwise_param {
    operation: SUM
  }
}
layer {
  name: "lstm1_unit_12"
  type: "LSTMUnit"
  bottom: "c_11"
  bottom: "gate_input_12"
  bottom: "cont_12"
  top: "c_12"
  top: "h_12"
}
layer {
  name: "lstm1_h_conted_12"
  type: "Scale"
  bottom: "h_12"
  bottom: "cont_13"
  top: "h_conted_12"
  scale_param {
    axis: 0
  }
}
layer {
  name: "lstm1_transform_13"
  type: "InnerProduct"
  bottom: "h_conted_12"
  top: "W_hc_h_12"
  param {
    name: "W_hc"
  }
  inner_product_param {
    num_output: 64
    bias_term: false
    weight_filler {
      type: "xavier"
    }
    axis: 2
  }
}
layer {
  name: "lstm1_gate_input_13"
  type: "Eltwise"
  bottom: "W_hc_h_12"
  bottom: "W_xc_x_13"
  top: "gate_input_13"
  eltwise_param {
    operation: SUM
  }
}
layer {
  name: "lstm1_unit_13"
  type: "LSTMUnit"
  bottom: "c_12"
  bottom: "gate_input_13"
  bottom: "cont_13"
  top: "c_13"
  top: "h_13"
}
layer {
  name: "lstm1_h_conted_13"
  type: "Scale"
  bottom: "h_13"
  bottom: "cont_14"
  top: "h_conted_13"
  scale_param {
    axis: 0
  }
}
layer {
  name: "lstm1_transform_14"
  type: "InnerProduct"
  bottom: "h_conted_13"
  top: "W_hc_h_13"
  param {
    name: "W_hc"
  }
  inner_product_param {
    num_output: 64
    bias_term: false
    weight_filler {
      type: "xavier"
    }
    axis: 2
  }
}
layer {
  name: "lstm1_gate_input_14"
  type: "Eltwise"
  bottom: "W_hc_h_13"
  bottom: "W_xc_x_14"
  top: "gate_input_14"
  eltwise_param {
    operation: SUM
  }
}
layer {
  name: "lstm1_unit_14"
  type: "LSTMUnit"
  bottom: "c_13"
  bottom: "gate_input_14"
  bottom: "cont_14"
  top: "c_14"
  top: "h_14"
}
layer {
  name: "lstm1_h_conted_14"
  type: "Scale"
  bottom: "h_14"
  bottom: "cont_15"
  top: "h_conted_14"
  scale_param {
    axis: 0
  }
}
layer {
  name: "lstm1_transform_15"
  type: "InnerProduct"
  bottom: "h_conted_14"
  top: "W_hc_h_14"
  param {
    name: "W_hc"
  }
  inner_product_param {
    num_output: 64
    bias_term: false
    weight_filler {
      type: "xavier"
    }
    axis: 2
  }
}
layer {
  name: "lstm1_gate_input_15"
  type: "Eltwise"
  bottom: "W_hc_h_14"
  bottom: "W_xc_x_15"
  top: "gate_input_15"
  eltwise_param {
    operation: SUM
  }
}
layer {
  name: "lstm1_unit_15"
  type: "LSTMUnit"
  bottom: "c_14"
  bottom: "gate_input_15"
  bottom: "cont_15"
  top: "c_15"
  top: "h_15"
}
layer {
  name: "lstm1_h_conted_15"
  type: "Scale"
  bottom: "h_15"
  bottom: "cont_16"
  top: "h_conted_15"
  scale_param {
    axis: 0
  }
}
layer {
  name: "lstm1_transform_16"
  type: "InnerProduct"
  bottom: "h_conted_15"
  top: "W_hc_h_15"
  param {
    name: "W_hc"
  }
  inner_product_param {
    num_output: 64
    bias_term: false
    weight_filler {
      type: "xavier"
    }
    axis: 2
  }
}
layer {
  name: "lstm1_gate_input_16"
  type: "Eltwise"
  bottom: "W_hc_h_15"
  bottom: "W_xc_x_16"
  top: "gate_input_16"
  eltwise_param {
    operation: SUM
  }
}
layer {
  name: "lstm1_unit_16"
  type: "LSTMUnit"
  bottom: "c_15"
  bottom: "gate_input_16"
  bottom: "cont_16"
  top: "c_16"
  top: "h_16"
}
layer {
  name: "lstm1_h_conted_16"
  type: "Scale"
  bottom: "h_16"
  bottom: "cont_17"
  top: "h_conted_16"
  scale_param {
    axis: 0
  }
}
layer {
  name: "lstm1_transform_17"
  type: "InnerProduct"
  bottom: "h_conted_16"
  top: "W_hc_h_16"
  param {
    name: "W_hc"
  }
  inner_product_param {
    num_output: 64
    bias_term: false
    weight_filler {
      type: "xavier"
    }
    axis: 2
  }
}
layer {
  name: "lstm1_gate_input_17"
  type: "Eltwise"
  bottom: "W_hc_h_16"
  bottom: "W_xc_x_17"
  top: "gate_input_17"
  eltwise_param {
    operation: SUM
  }
}
layer {
  name: "lstm1_unit_17"
  type: "LSTMUnit"
  bottom: "c_16"
  bottom: "gate_input_17"
  bottom: "cont_17"
  top: "c_17"
  top: "h_17"
}
layer {
  name: "lstm1_h_conted_17"
  type: "Scale"
  bottom: "h_17"
  bottom: "cont_18"
  top: "h_conted_17"
  scale_param {
    axis: 0
  }
}
layer {
  name: "lstm1_transform_18"
  type: "InnerProduct"
  bottom: "h_conted_17"
  top: "W_hc_h_17"
  param {
    name: "W_hc"
  }
  inner_product_param {
    num_output: 64
    bias_term: false
    weight_filler {
      type: "xavier"
    }
    axis: 2
  }
}
layer {
  name: "lstm1_gate_input_18"
  type: "Eltwise"
  bottom: "W_hc_h_17"
  bottom: "W_xc_x_18"
  top: "gate_input_18"
  eltwise_param {
    operation: SUM
  }
}
layer {
  name: "lstm1_unit_18"
  type: "LSTMUnit"
  bottom: "c_17"
  bottom: "gate_input_18"
  bottom: "cont_18"
  top: "c_18"
  top: "h_18"
}
layer {
  name: "lstm1_h_conted_18"
  type: "Scale"
  bottom: "h_18"
  bottom: "cont_19"
  top: "h_conted_18"
  scale_param {
    axis: 0
  }
}
layer {
  name: "lstm1_transform_19"
  type: "InnerProduct"
  bottom: "h_conted_18"
  top: "W_hc_h_18"
  param {
    name: "W_hc"
  }
  inner_product_param {
    num_output: 64
    bias_term: false
    weight_filler {
      type: "xavier"
    }
    axis: 2
  }
}
layer {
  name: "lstm1_gate_input_19"
  type: "Eltwise"
  bottom: "W_hc_h_18"
  bottom: "W_xc_x_19"
  top: "gate_input_19"
  eltwise_param {
    operation: SUM
  }
}
layer {
  name: "lstm1_unit_19"
  type: "LSTMUnit"
  bottom: "c_18"
  bottom: "gate_input_19"
  bottom: "cont_19"
  top: "c_19"
  top: "h_19"
}
layer {
  name: "lstm1_h_conted_19"
  type: "Scale"
  bottom: "h_19"
  bottom: "cont_20"
  top: "h_conted_19"
  scale_param {
    axis: 0
  }
}
layer {
  name: "lstm1_transform_20"
  type: "InnerProduct"
  bottom: "h_conted_19"
  top: "W_hc_h_19"
  param {
    name: "W_hc"
  }
  inner_product_param {
    num_output: 64
    bias_term: false
    weight_filler {
      type: "xavier"
    }
    axis: 2
  }
}
layer {
  name: "lstm1_gate_input_20"
  type: "Eltwise"
  bottom: "W_hc_h_19"
  bottom: "W_xc_x_20"
  top: "gate_input_20"
  eltwise_param {
    operation: SUM
  }
}
layer {
  name: "lstm1_unit_20"
  type: "LSTMUnit"
  bottom: "c_19"
  bottom: "gate_input_20"
  bottom: "cont_20"
  top: "c_20"
  top: "h_20"
}
layer {
  name: "lstm1_h_conted_20"
  type: "Scale"
  bottom: "h_20"
  bottom: "cont_21"
  top: "h_conted_20"
  scale_param {
    axis: 0
  }
}
layer {
  name: "lstm1_transform_21"
  type: "InnerProduct"
  bottom: "h_conted_20"
  top: "W_hc_h_20"
  param {
    name: "W_hc"
  }
  inner_product_param {
    num_output: 64
    bias_term: false
    weight_filler {
      type: "xavier"
    }
    axis: 2
  }
}
layer {
  name: "lstm1_gate_input_21"
  type: "Eltwise"
  bottom: "W_hc_h_20"
  bottom: "W_xc_x_21"
  top: "gate_input_21"
  eltwise_param {
    operation: SUM
  }
}
layer {
  name: "lstm1_unit_21"
  type: "LSTMUnit"
  bottom: "c_20"
  bottom: "gate_input_21"
  bottom: "cont_21"
  top: "c_21"
  top: "h_21"
}
layer {
  name: "lstm1_h_conted_21"
  type: "Scale"
  bottom: "h_21"
  bottom: "cont_22"
  top: "h_conted_21"
  scale_param {
    axis: 0
  }
}
layer {
  name: "lstm1_transform_22"
  type: "InnerProduct"
  bottom: "h_conted_21"
  top: "W_hc_h_21"
  param {
    name: "W_hc"
  }
  inner_product_param {
    num_output: 64
    bias_term: false
    weight_filler {
      type: "xavier"
    }
    axis: 2
  }
}
layer {
  name: "lstm1_gate_input_22"
  type: "Eltwise"
  bottom: "W_hc_h_21"
  bottom: "W_xc_x_22"
  top: "gate_input_22"
  eltwise_param {
    operation: SUM
  }
}
layer {
  name: "lstm1_unit_22"
  type: "LSTMUnit"
  bottom: "c_21"
  bottom: "gate_input_22"
  bottom: "cont_22"
  top: "c_22"
  top: "h_22"
}
layer {
  name: "lstm1_h_conted_22"
  type: "Scale"
  bottom: "h_22"
  bottom: "cont_23"
  top: "h_conted_22"
  scale_param {
    axis: 0
  }
}
layer {
  name: "lstm1_transform_23"
  type: "InnerProduct"
  bottom: "h_conted_22"
  top: "W_hc_h_22"
  param {
    name: "W_hc"
  }
  inner_product_param {
    num_output: 64
    bias_term: false
    weight_filler {
      type: "xavier"
    }
    axis: 2
  }
}
layer {
  name: "lstm1_gate_input_23"
  type: "Eltwise"
  bottom: "W_hc_h_22"
  bottom: "W_xc_x_23"
  top: "gate_input_23"
  eltwise_param {
    operation: SUM
  }
}
layer {
  name: "lstm1_unit_23"
  type: "LSTMUnit"
  bottom: "c_22"
  bottom: "gate_input_23"
  bottom: "cont_23"
  top: "c_23"
  top: "h_23"
}
layer {
  name: "lstm1_h_conted_23"
  type: "Scale"
  bottom: "h_23"
  bottom: "cont_24"
  top: "h_conted_23"
  scale_param {
    axis: 0
  }
}
layer {
  name: "lstm1_transform_24"
  type: "InnerProduct"
  bottom: "h_conted_23"
  top: "W_hc_h_23"
  param {
    name: "W_hc"
  }
  inner_product_param {
    num_output: 64
    bias_term: false
    weight_filler {
      type: "xavier"
    }
    axis: 2
  }
}
layer {
  name: "lstm1_gate_input_24"
  type: "Eltwise"
  bottom: "W_hc_h_23"
  bottom: "W_xc_x_24"
  top: "gate_input_24"
  eltwise_param {
    operation: SUM
  }
}
layer {
  name: "lstm1_unit_24"
  type: "LSTMUnit"
  bottom: "c_23"
  bottom: "gate_input_24"
  bottom: "cont_24"
  top: "c_24"
  top: "h_24"
}
layer {
  name: "lstm1_h_conted_24"
  type: "Scale"
  bottom: "h_24"
  bottom: "cont_25"
  top: "h_conted_24"
  scale_param {
    axis: 0
  }
}
layer {
  name: "lstm1_transform_25"
  type: "InnerProduct"
  bottom: "h_conted_24"
  top: "W_hc_h_24"
  param {
    name: "W_hc"
  }
  inner_product_param {
    num_output: 64
    bias_term: false
    weight_filler {
      type: "xavier"
    }
    axis: 2
  }
}
layer {
  name: "lstm1_gate_input_25"
  type: "Eltwise"
  bottom: "W_hc_h_24"
  bottom: "W_xc_x_25"
  top: "gate_input_25"
  eltwise_param {
    operation: SUM
  }
}
layer {
  name: "lstm1_unit_25"
  type: "LSTMUnit"
  bottom: "c_24"
  bottom: "gate_input_25"
  bottom: "cont_25"
  top: "c_25"
  top: "h_25"
}
layer {
  name: "lstm1_h_conted_25"
  type: "Scale"
  bottom: "h_25"
  bottom: "cont_26"
  top: "h_conted_25"
  scale_param {
    axis: 0
  }
}
layer {
  name: "lstm1_transform_26"
  type: "InnerProduct"
  bottom: "h_conted_25"
  top: "W_hc_h_25"
  param {
    name: "W_hc"
  }
  inner_product_param {
    num_output: 64
    bias_term: false
    weight_filler {
      type: "xavier"
    }
    axis: 2
  }
}
layer {
  name: "lstm1_gate_input_26"
  type: "Eltwise"
  bottom: "W_hc_h_25"
  bottom: "W_xc_x_26"
  top: "gate_input_26"
  eltwise_param {
    operation: SUM
  }
}
layer {
  name: "lstm1_unit_26"
  type: "LSTMUnit"
  bottom: "c_25"
  bottom: "gate_input_26"
  bottom: "cont_26"
  top: "c_26"
  top: "h_26"
}
layer {
  name: "lstm1_h_conted_26"
  type: "Scale"
  bottom: "h_26"
  bottom: "cont_27"
  top: "h_conted_26"
  scale_param {
    axis: 0
  }
}
layer {
  name: "lstm1_transform_27"
  type: "InnerProduct"
  bottom: "h_conted_26"
  top: "W_hc_h_26"
  param {
    name: "W_hc"
  }
  inner_product_param {
    num_output: 64
    bias_term: false
    weight_filler {
      type: "xavier"
    }
    axis: 2
  }
}
layer {
  name: "lstm1_gate_input_27"
  type: "Eltwise"
  bottom: "W_hc_h_26"
  bottom: "W_xc_x_27"
  top: "gate_input_27"
  eltwise_param {
    operation: SUM
  }
}
layer {
  name: "lstm1_unit_27"
  type: "LSTMUnit"
  bottom: "c_26"
  bottom: "gate_input_27"
  bottom: "cont_27"
  top: "c_27"
  top: "h_27"
}
layer {
  name: "lstm1_h_conted_27"
  type: "Scale"
  bottom: "h_27"
  bottom: "cont_28"
  top: "h_conted_27"
  scale_param {
    axis: 0
  }
}
layer {
  name: "lstm1_transform_28"
  type: "InnerProduct"
  bottom: "h_conted_27"
  top: "W_hc_h_27"
  param {
    name: "W_hc"
  }
  inner_product_param {
    num_output: 64
    bias_term: false
    weight_filler {
      type: "xavier"
    }
    axis: 2
  }
}
layer {
  name: "lstm1_gate_input_28"
  type: "Eltwise"
  bottom: "W_hc_h_27"
  bottom: "W_xc_x_28"
  top: "gate_input_28"
  eltwise_param {
    operation: SUM
  }
}
layer {
  name: "lstm1_unit_28"
  type: "LSTMUnit"
  bottom: "c_27"
  bottom: "gate_input_28"
  bottom: "cont_28"
  top: "c_28"
  top: "h_28"
}
layer {
  name: "lstm1_h_conted_28"
  type: "Scale"
  bottom: "h_28"
  bottom: "cont_29"
  top: "h_conted_28"
  scale_param {
    axis: 0
  }
}
layer {
  name: "lstm1_transform_29"
  type: "InnerProduct"
  bottom: "h_conted_28"
  top: "W_hc_h_28"
  param {
    name: "W_hc"
  }
  inner_product_param {
    num_output: 64
    bias_term: false
    weight_filler {
      type: "xavier"
    }
    axis: 2
  }
}
layer {
  name: "lstm1_gate_input_29"
  type: "Eltwise"
  bottom: "W_hc_h_28"
  bottom: "W_xc_x_29"
  top: "gate_input_29"
  eltwise_param {
    operation: SUM
  }
}
layer {
  name: "lstm1_unit_29"
  type: "LSTMUnit"
  bottom: "c_28"
  bottom: "gate_input_29"
  bottom: "cont_29"
  top: "c_29"
  top: "h_29"
}
layer {
  name: "lstm1_h_conted_29"
  type: "Scale"
  bottom: "h_29"
  bottom: "cont_30"
  top: "h_conted_29"
  scale_param {
    axis: 0
  }
}
layer {
  name: "lstm1_transform_30"
  type: "InnerProduct"
  bottom: "h_conted_29"
  top: "W_hc_h_29"
  param {
    name: "W_hc"
  }
  inner_product_param {
    num_output: 64
    bias_term: false
    weight_filler {
      type: "xavier"
    }
    axis: 2
  }
}
layer {
  name: "lstm1_gate_input_30"
  type: "Eltwise"
  bottom: "W_hc_h_29"
  bottom: "W_xc_x_30"
  top: "gate_input_30"
  eltwise_param {
    operation: SUM
  }
}
layer {
  name: "lstm1_unit_30"
  type: "LSTMUnit"
  bottom: "c_29"
  bottom: "gate_input_30"
  bottom: "cont_30"
  top: "c_30"
  top: "h_30"
}
layer {
  name: "lstm1_h_conted_30"
  type: "Scale"
  bottom: "h_30"
  bottom: "cont_31"
  top: "h_conted_30"
  scale_param {
    axis: 0
  }
}
layer {
  name: "lstm1_transform_31"
  type: "InnerProduct"
  bottom: "h_conted_30"
  top: "W_hc_h_30"
  param {
    name: "W_hc"
  }
  inner_product_param {
    num_output: 64
    bias_term: false
    weight_filler {
      type: "xavier"
    }
    axis: 2
  }
}
layer {
  name: "lstm1_gate_input_31"
  type: "Eltwise"
  bottom: "W_hc_h_30"
  bottom: "W_xc_x_31"
  top: "gate_input_31"
  eltwise_param {
    operation: SUM
  }
}
layer {
  name: "lstm1_unit_31"
  type: "LSTMUnit"
  bottom: "c_30"
  bottom: "gate_input_31"
  bottom: "cont_31"
  top: "c_31"
  top: "h_31"
}
layer {
  name: "lstm1_h_conted_31"
  type: "Scale"
  bottom: "h_31"
  bottom: "cont_32"
  top: "h_conted_31"
  scale_param {
    axis: 0
  }
}
layer {
  name: "lstm1_transform_32"
  type: "InnerProduct"
  bottom: "h_conted_31"
  top: "W_hc_h_31"
  param {
    name: "W_hc"
  }
  inner_product_param {
    num_output: 64
    bias_term: false
    weight_filler {
      type: "xavier"
    }
    axis: 2
  }
}
layer {
  name: "lstm1_gate_input_32"
  type: "Eltwise"
  bottom: "W_hc_h_31"
  bottom: "W_xc_x_32"
  top: "gate_input_32"
  eltwise_param {
    operation: SUM
  }
}
layer {
  name: "lstm1_unit_32"
  type: "LSTMUnit"
  bottom: "c_31"
  bottom: "gate_input_32"
  bottom: "cont_32"
  top: "c_32"
  top: "h_32"
}
layer {
  name: "lstm1_"
  type: "Split"
  bottom: "c_32"
  top: "c_T"
}
layer {
  name: "lstm1_h_concat"
  type: "Concat"
  bottom: "h_1"
  bottom: "h_2"
  bottom: "h_3"
  bottom: "h_4"
  bottom: "h_5"
  bottom: "h_6"
  bottom: "h_7"
  bottom: "h_8"
  bottom: "h_9"
  bottom: "h_10"
  bottom: "h_11"
  bottom: "h_12"
  bottom: "h_13"
  bottom: "h_14"
  bottom: "h_15"
  bottom: "h_16"
  bottom: "h_17"
  bottom: "h_18"
  bottom: "h_19"
  bottom: "h_20"
  bottom: "h_21"
  bottom: "h_22"
  bottom: "h_23"
  bottom: "h_24"
  bottom: "h_25"
  bottom: "h_26"
  bottom: "h_27"
  bottom: "h_28"
  bottom: "h_29"
  bottom: "h_30"
  bottom: "h_31"
  bottom: "h_32"
  top: "h"
  concat_param {
    axis: 0
  }
}
layer {
  name: "h_pseudoloss"
  type: "Reduction"
  bottom: "h"
  top: "h_pseudoloss"
  loss_weight: 1
}
I0225 04:17:12.154757 11620 layer_factory.hpp:77] Creating layer lstm1_
I0225 04:17:12.154778 11620 net.cpp:84] Creating Layer lstm1_
I0225 04:17:12.154783 11620 net.cpp:380] lstm1_ -> x
I0225 04:17:12.154791 11620 net.cpp:380] lstm1_ -> cont
I0225 04:17:12.154836 11620 net.cpp:122] Setting up lstm1_
I0225 04:17:12.154842 11620 net.cpp:129] Top shape: 32 27 1 1 (864)
I0225 04:17:12.154845 11620 net.cpp:129] Top shape: 32 27 (864)
I0225 04:17:12.154847 11620 net.cpp:137] Memory required for data: 6912
I0225 04:17:12.154850 11620 layer_factory.hpp:77] Creating layer lstm1_
I0225 04:17:12.154855 11620 net.cpp:84] Creating Layer lstm1_
I0225 04:17:12.154857 11620 net.cpp:380] lstm1_ -> c_0
I0225 04:17:12.154862 11620 net.cpp:380] lstm1_ -> h_0
I0225 04:17:12.154880 11620 net.cpp:122] Setting up lstm1_
I0225 04:17:12.154883 11620 net.cpp:129] Top shape: 1 27 16 (432)
I0225 04:17:12.154886 11620 net.cpp:129] Top shape: 1 27 16 (432)
I0225 04:17:12.154889 11620 net.cpp:137] Memory required for data: 10368
I0225 04:17:12.154891 11620 layer_factory.hpp:77] Creating layer lstm1_cont_slice
I0225 04:17:12.154914 11620 net.cpp:84] Creating Layer lstm1_cont_slice
I0225 04:17:12.154918 11620 net.cpp:406] lstm1_cont_slice <- cont
I0225 04:17:12.154922 11620 net.cpp:380] lstm1_cont_slice -> cont_1
I0225 04:17:12.154929 11620 net.cpp:380] lstm1_cont_slice -> cont_2
…
I0225 04:17:12.157901 11620 net.cpp:380] lstm1_cont_slice -> cont_25
I0225 04:17:12.157907 11620 net.cpp:380] lstm1_cont_slice -> cont_26
I0225 04:17:12.157912 11620 net.cpp:380] lstm1_cont_slice -> cont_27
I0225 04:17:12.157917 11620 net.cpp:380] lstm1_cont_slice -> cont_28
I0225 04:17:12.157922 11620 net.cpp:380] lstm1_cont_slice -> cont_29
I0225 04:17:12.157930 11620 net.cpp:380] lstm1_cont_slice -> cont_30
I0225 04:17:12.157937 11620 net.cpp:380] lstm1_cont_slice -> cont_31
I0225 04:17:12.157943 11620 net.cpp:380] lstm1_cont_slice -> cont_32
I0225 04:17:12.158179 11620 net.cpp:122] Setting up lstm1_cont_slice
I0225 04:17:12.158186 11620 net.cpp:129] Top shape: 1 27 (27)
I0225 04:17:12.158190 11620 net.cpp:129] Top shape: 1 27 (27)
I0225 04:17:12.158193 11620 net.cpp:129] Top shape: 1 27 (27)
I0225 04:17:12.158196 11620 net.cpp:129] Top shape: 1 27 (27)
I0225 04:17:12.158200 11620 net.cpp:129] Top shape: 1 27 (27)
I0225 04:17:12.158203 11620 net.cpp:129] Top shape: 1 27 (27)
I0225 04:17:12.158207 11620 net.cpp:129] Top shape: 1 27 (27)
I0225 04:17:12.158210 11620 net.cpp:129] Top shape: 1 27 (27)
I0225 04:17:12.158213 11620 net.cpp:129] Top shape: 1 27 (27)
I0225 04:17:12.158216 11620 net.cpp:129] Top shape: 1 27 (27)
I0225 04:17:12.158221 11620 net.cpp:129] Top shape: 1 27 (27)
I0225 04:17:12.158223 11620 net.cpp:129] Top shape: 1 27 (27)
I0225 04:17:12.158226 11620 net.cpp:129] Top shape: 1 27 (27)
I0225 04:17:12.158229 11620 net.cpp:129] Top shape: 1 27 (27)
I0225 04:17:12.158233 11620 net.cpp:129] Top shape: 1 27 (27)
I0225 04:17:12.158236 11620 net.cpp:129] Top shape: 1 27 (27)
I0225 04:17:12.158239 11620 net.cpp:129] Top shape: 1 27 (27)
I0225 04:17:12.158242 11620 net.cpp:129] Top shape: 1 27 (27)
I0225 04:17:12.158246 11620 net.cpp:129] Top shape: 1 27 (27)
I0225 04:17:12.158249 11620 net.cpp:129] Top shape: 1 27 (27)
I0225 04:17:12.158252 11620 net.cpp:129] Top shape: 1 27 (27)
I0225 04:17:12.158255 11620 net.cpp:129] Top shape: 1 27 (27)
I0225 04:17:12.158259 11620 net.cpp:129] Top shape: 1 27 (27)
I0225 04:17:12.158262 11620 net.cpp:129] Top shape: 1 27 (27)
I0225 04:17:12.158265 11620 net.cpp:129] Top shape: 1 27 (27)
I0225 04:17:12.158269 11620 net.cpp:129] Top shape: 1 27 (27)
I0225 04:17:12.158272 11620 net.cpp:129] Top shape: 1 27 (27)
I0225 04:17:12.158275 11620 net.cpp:129] Top shape: 1 27 (27)
I0225 04:17:12.158278 11620 net.cpp:129] Top shape: 1 27 (27)
I0225 04:17:12.158282 11620 net.cpp:129] Top shape: 1 27 (27)
I0225 04:17:12.158285 11620 net.cpp:129] Top shape: 1 27 (27)
I0225 04:17:12.158288 11620 net.cpp:129] Top shape: 1 27 (27)
I0225 04:17:12.158290 11620 net.cpp:137] Memory required for data: 13824
I0225 04:17:12.158293 11620 layer_factory.hpp:77] Creating layer cont_1_lstm1_cont_slice_0_split
I0225 04:17:12.158298 11620 net.cpp:84] Creating Layer cont_1_lstm1_cont_slice_0_split
I0225 04:17:12.158300 11620 net.cpp:406] cont_1_lstm1_cont_slice_0_split <- cont_1
I0225 04:17:12.158315 11620 net.cpp:380] cont_1_lstm1_cont_slice_0_split -> cont_1_lstm1_cont_slice_0_split_0
I0225 04:17:12.158321 11620 net.cpp:380] cont_1_lstm1_cont_slice_0_split -> cont_1_lstm1_cont_slice_0_split_1
I0225 04:17:12.158340 11620 net.cpp:122] Setting up cont_1_lstm1_cont_slice_0_split
I0225 04:17:12.158344 11620 net.cpp:129] Top shape: 1 27 (27)
I0225 04:17:12.158349 11620 net.cpp:129] Top shape: 1 27 (27)
I0225 04:17:12.158351 11620 net.cpp:137] Memory required for data: 14040
I0225 04:17:12.158354 11620 layer_factory.hpp:77] Creating layer cont_2_lstm1_cont_slice_1_split
I0225 04:17:12.158360 11620 net.cpp:84] Creating Layer cont_2_lstm1_cont_slice_1_split
I0225 04:17:12.158362 11620 net.cpp:406] cont_2_lstm1_cont_slice_1_split <- cont_2
I0225 04:17:12.158367 11620 net.cpp:380] cont_2_lstm1_cont_slice_1_split -> cont_2_lstm1_cont_slice_1_split_0
I0225 04:17:12.158372 11620 net.cpp:380] cont_2_lstm1_cont_slice_1_split -> cont_2_lstm1_cont_slice_1_split_1
I0225 04:17:12.158388 11620 net.cpp:122] Setting up cont_2_lstm1_cont_slice_1_split
I0225 04:17:12.158393 11620 net.cpp:129] Top shape: 1 27 (27)
I0225 04:17:12.158399 11620 net.cpp:129] Top shape: 1 27 (27)
I0225 04:17:12.158403 11620 net.cpp:137] Memory required for data: 14256
I0225 04:17:12.158408 11620 layer_factory.hpp:77] Creating layer cont_3_lstm1_cont_slice_2_split
I0225 04:17:12.158432 11620 net.cpp:84] Creating Layer cont_3_lstm1_cont_slice_2_split
I0225 04:17:12.158437 11620 net.cpp:406] cont_3_lstm1_cont_slice_2_split <- cont_3
I0225 04:17:12.158443 11620 net.cpp:380] cont_3_lstm1_cont_slice_2_split -> cont_3_lstm1_cont_slice_2_split_0
I0225 04:17:12.158450 11620 net.cpp:380] cont_3_lstm1_cont_slice_2_split -> cont_3_lstm1_cont_slice_2_split_1
I0225 04:17:12.158542 11620 net.cpp:122] Setting up cont_3_lstm1_cont_slice_2_split
I0225 04:17:12.158551 11620 net.cpp:129] Top shape: 1 27 (27)
I0225 04:17:12.158555 11620 net.cpp:129] Top shape: 1 27 (27)
I0225 04:17:12.158558 11620 net.cpp:137] Memory required for data: 14472
I0225 04:17:12.158561 11620 layer_factory.hpp:77] Creating layer cont_4_lstm1_cont_slice_3_split
I0225 04:17:12.158565 11620 net.cpp:84] Creating Layer cont_4_lstm1_cont_slice_3_split
I0225 04:17:12.158569 11620 net.cpp:406] cont_4_lstm1_cont_slice_3_split <- cont_4
I0225 04:17:12.158574 11620 net.cpp:380] cont_4_lstm1_cont_slice_3_split -> cont_4_lstm1_cont_slice_3_split_0
I0225 04:17:12.158579 11620 net.cpp:380] cont_4_lstm1_cont_slice_3_split -> cont_4_lstm1_cont_slice_3_split_1
I0225 04:17:12.158598 11620 net.cpp:122] Setting up cont_4_lstm1_cont_slice_3_split
I0225 04:17:12.158604 11620 net.cpp:129] Top shape: 1 27 (27)
I0225 04:17:12.158607 11620 net.cpp:129] Top shape: 1 27 (27)
I0225 04:17:12.158610 11620 net.cpp:137] Memory required for data: 14688
I0225 04:17:12.158613 11620 layer_factory.hpp:77] Creating layer cont_5_lstm1_cont_slice_4_split
I0225 04:17:12.158617 11620 net.cpp:84] Creating Layer cont_5_lstm1_cont_slice_4_split
I0225 04:17:12.158620 11620 net.cpp:406] cont_5_lstm1_cont_slice_4_split <- cont_5
I0225 04:17:12.158624 11620 net.cpp:380] cont_5_lstm1_cont_slice_4_split -> cont_5_lstm1_cont_slice_4_split_0
I0225 04:17:12.158629 11620 net.cpp:380] cont_5_lstm1_cont_slice_4_split -> cont_5_lstm1_cont_slice_4_split_1
I0225 04:17:12.158646 11620 net.cpp:122] Setting up cont_5_lstm1_cont_slice_4_split
I0225 04:17:12.158651 11620 net.cpp:129] Top shape: 1 27 (27)
I0225 04:17:12.158654 11620 net.cpp:129] Top shape: 1 27 (27)
I0225 04:17:12.158658 11620 net.cpp:137] Memory required for data: 14904
I0225 04:17:12.158660 11620 layer_factory.hpp:77] Creating layer cont_6_lstm1_cont_slice_5_split
I0225 04:17:12.158666 11620 net.cpp:84] Creating Layer cont_6_lstm1_cont_slice_5_split
I0225 04:17:12.158669 11620 net.cpp:406] cont_6_lstm1_cont_slice_5_split <- cont_6
I0225 04:17:12.158674 11620 net.cpp:380] cont_6_lstm1_cont_slice_5_split -> cont_6_lstm1_cont_slice_5_split_0
I0225 04:17:12.158679 11620 net.cpp:380] cont_6_lstm1_cont_slice_5_split -> cont_6_lstm1_cont_slice_5_split_1
I0225 04:17:12.158704 11620 net.cpp:122] Setting up cont_6_lstm1_cont_slice_5_split
I0225 04:17:12.158709 11620 net.cpp:129] Top shape: 1 27 (27)
I0225 04:17:12.158712 11620 net.cpp:129] Top shape: 1 27 (27)
I0225 04:17:12.158715 11620 net.cpp:137] Memory required for data: 15120
I0225 04:17:12.158718 11620 layer_factory.hpp:77] Creating layer cont_7_lstm1_cont_slice_6_split
I0225 04:17:12.158721 11620 net.cpp:84] Creating Layer cont_7_lstm1_cont_slice_6_split
I0225 04:17:12.158725 11620 net.cpp:406] cont_7_lstm1_cont_slice_6_split <- cont_7
I0225 04:17:12.158728 11620 net.cpp:380] cont_7_lstm1_cont_slice_6_split -> cont_7_lstm1_cont_slice_6_split_0
I0225 04:17:12.158733 11620 net.cpp:380] cont_7_lstm1_cont_slice_6_split -> cont_7_lstm1_cont_slice_6_split_1
I0225 04:17:12.158751 11620 net.cpp:122] Setting up cont_7_lstm1_cont_slice_6_split
I0225 04:17:12.158757 11620 net.cpp:129] Top shape: 1 27 (27)
I0225 04:17:12.158762 11620 net.cpp:129] Top shape: 1 27 (27)
I0225 04:17:12.158766 11620 net.cpp:137] Memory required for data: 15336
I0225 04:17:12.158771 11620 layer_factory.hpp:77] Creating layer cont_8_lstm1_cont_slice_7_split
I0225 04:17:12.158776 11620 net.cpp:84] Creating Layer cont_8_lstm1_cont_slice_7_split
I0225 04:17:12.158780 11620 net.cpp:406] cont_8_lstm1_cont_slice_7_split <- cont_8
I0225 04:17:12.158787 11620 net.cpp:380] cont_8_lstm1_cont_slice_7_split -> cont_8_lstm1_cont_slice_7_split_0
I0225 04:17:12.158794 11620 net.cpp:380] cont_8_lstm1_cont_slice_7_split -> cont_8_lstm1_cont_slice_7_split_1
I0225 04:17:12.158818 11620 net.cpp:122] Setting up cont_8_lstm1_cont_slice_7_split
I0225 04:17:12.158823 11620 net.cpp:129] Top shape: 1 27 (27)
I0225 04:17:12.158829 11620 net.cpp:129] Top shape: 1 27 (27)
I0225 04:17:12.158833 11620 net.cpp:137] Memory required for data: 15552
I0225 04:17:12.158838 11620 layer_factory.hpp:77] Creating layer cont_9_lstm1_cont_slice_8_split
I0225 04:17:12.158843 11620 net.cpp:84] Creating Layer cont_9_lstm1_cont_slice_8_split
I0225 04:17:12.158849 11620 net.cpp:406] cont_9_lstm1_cont_slice_8_split <- cont_9
I0225 04:17:12.158855 11620 net.cpp:380] cont_9_lstm1_cont_slice_8_split -> cont_9_lstm1_cont_slice_8_split_0
I0225 04:17:12.158861 11620 net.cpp:380] cont_9_lstm1_cont_slice_8_split -> cont_9_lstm1_cont_slice_8_split_1
I0225 04:17:12.158879 11620 net.cpp:122] Setting up cont_9_lstm1_cont_slice_8_split
I0225 04:17:12.158884 11620 net.cpp:129] Top shape: 1 27 (27)
I0225 04:17:12.158887 11620 net.cpp:129] Top shape: 1 27 (27)
I0225 04:17:12.158890 11620 net.cpp:137] Memory required for data: 15768
I0225 04:17:12.158893 11620 layer_factory.hpp:77] Creating layer cont_10_lstm1_cont_slice_9_split
I0225 04:17:12.158897 11620 net.cpp:84] Creating Layer cont_10_lstm1_cont_slice_9_split
I0225 04:17:12.158901 11620 net.cpp:406] cont_10_lstm1_cont_slice_9_split <- cont_10
I0225 04:17:12.158905 11620 net.cpp:380] cont_10_lstm1_cont_slice_9_split -> cont_10_lstm1_cont_slice_9_split_0
I0225 04:17:12.158910 11620 net.cpp:380] cont_10_lstm1_cont_slice_9_split -> cont_10_lstm1_cont_slice_9_split_1
I0225 04:17:12.158926 11620 net.cpp:122] Setting up cont_10_lstm1_cont_slice_9_split
I0225 04:17:12.158931 11620 net.cpp:129] Top shape: 1 27 (27)
I0225 04:17:12.158934 11620 net.cpp:129] Top shape: 1 27 (27)
I0225 04:17:12.187973 11620 net.cpp:137] Memory required for data: 15984
I0225 04:17:12.188004 11620 layer_factory.hpp:77] Creating layer cont_11_lstm1_cont_slice_10_split
I0225 04:17:12.188030 11620 net.cpp:84] Creating Layer cont_11_lstm1_cont_slice_10_split
I0225 04:17:12.188040 11620 net.cpp:406] cont_11_lstm1_cont_slice_10_split <- cont_11
I0225 04:17:12.188050 11620 net.cpp:380] cont_11_lstm1_cont_slice_10_split -> cont_11_lstm1_cont_slice_10_split_0
I0225 04:17:12.188058 11620 net.cpp:380] cont_11_lstm1_cont_slice_10_split -> cont_11_lstm1_cont_slice_10_split_1
I0225 04:17:12.188122 11620 net.cpp:122] Setting up cont_11_lstm1_cont_slice_10_split
I0225 04:17:12.188129 11620 net.cpp:129] Top shape: 1 27 (27)
I0225 04:17:12.188133 11620 net.cpp:129] Top shape: 1 27 (27)
I0225 04:17:12.188135 11620 net.cpp:137] Memory required for data: 16200
I0225 04:17:12.188148 11620 layer_factory.hpp:77] Creating layer cont_12_lstm1_cont_slice_11_split
I0225 04:17:12.188153 11620 net.cpp:84] Creating Layer cont_12_lstm1_cont_slice_11_split
I0225 04:17:12.188156 11620 net.cpp:406] cont_12_lstm1_cont_slice_11_split <- cont_12
I0225 04:17:12.188161 11620 net.cpp:380] cont_12_lstm1_cont_slice_11_split -> cont_12_lstm1_cont_slice_11_split_0
I0225 04:17:12.188168 11620 net.cpp:380] cont_12_lstm1_cont_slice_11_split -> cont_12_lstm1_cont_slice_11_split_1
I0225 04:17:12.188185 11620 net.cpp:122] Setting up cont_12_lstm1_cont_slice_11_split
I0225 04:17:12.188190 11620 net.cpp:129] Top shape: 1 27 (27)
I0225 04:17:12.188194 11620 net.cpp:129] Top shape: 1 27 (27)
I0225 04:17:12.188196 11620 net.cpp:137] Memory required for data: 16416
I0225 04:17:12.188199 11620 layer_factory.hpp:77] Creating layer cont_13_lstm1_cont_slice_12_split
I0225 04:17:12.188204 11620 net.cpp:84] Creating Layer cont_13_lstm1_cont_slice_12_split
I0225 04:17:12.188207 11620 net.cpp:406] cont_13_lstm1_cont_slice_12_split <- cont_13
I0225 04:17:12.188211 11620 net.cpp:380] cont_13_lstm1_cont_slice_12_split -> cont_13_lstm1_cont_slice_12_split_0
I0225 04:17:12.188215 11620 net.cpp:380] cont_13_lstm1_cont_slice_12_split -> cont_13_lstm1_cont_slice_12_split_1
I0225 04:17:12.188232 11620 net.cpp:122] Setting up cont_13_lstm1_cont_slice_12_split
I0225 04:17:12.188237 11620 net.cpp:129] Top shape: 1 27 (27)
I0225 04:17:12.188241 11620 net.cpp:129] Top shape: 1 27 (27)
I0225 04:17:12.188243 11620 net.cpp:137] Memory required for data: 16632
I0225 04:17:12.188246 11620 layer_factory.hpp:77] Creating layer cont_14_lstm1_cont_slice_13_split
I0225 04:17:12.188256 11620 net.cpp:84] Creating Layer cont_14_lstm1_cont_slice_13_split
I0225 04:17:12.188261 11620 net.cpp:406] cont_14_lstm1_cont_slice_13_split <- cont_14
I0225 04:17:12.188264 11620 net.cpp:380] cont_14_lstm1_cont_slice_13_split -> cont_14_lstm1_cont_slice_13_split_0
I0225 04:17:12.188269 11620 net.cpp:380] cont_14_lstm1_cont_slice_13_split -> cont_14_lstm1_cont_slice_13_split_1
I0225 04:17:12.188287 11620 net.cpp:122] Setting up cont_14_lstm1_cont_slice_13_split
I0225 04:17:12.188292 11620 net.cpp:129] Top shape: 1 27 (27)
I0225 04:17:12.188295 11620 net.cpp:129] Top shape: 1 27 (27)
I0225 04:17:12.188298 11620 net.cpp:137] Memory required for data: 16848
I0225 04:17:12.188300 11620 layer_factory.hpp:77] Creating layer cont_15_lstm1_cont_slice_14_split
I0225 04:17:12.188304 11620 net.cpp:84] Creating Layer cont_15_lstm1_cont_slice_14_split
I0225 04:17:12.188308 11620 net.cpp:406] cont_15_lstm1_cont_slice_14_split <- cont_15
I0225 04:17:12.188313 11620 net.cpp:380] cont_15_lstm1_cont_slice_14_split -> cont_15_lstm1_cont_slice_14_split_0
I0225 04:17:12.188321 11620 net.cpp:380] cont_15_lstm1_cont_slice_14_split -> cont_15_lstm1_cont_slice_14_split_1
I0225 04:17:12.188339 11620 net.cpp:122] Setting up cont_15_lstm1_cont_slice_14_split
I0225 04:17:12.188346 11620 net.cpp:129] Top shape: 1 27 (27)
I0225 04:17:12.188350 11620 net.cpp:129] Top shape: 1 27 (27)
I0225 04:17:12.188354 11620 net.cpp:137] Memory required for data: 17064
I0225 04:17:12.188356 11620 layer_factory.hpp:77] Creating layer cont_16_lstm1_cont_slice_15_split
I0225 04:17:12.188360 11620 net.cpp:84] Creating Layer cont_16_lstm1_cont_slice_15_split
I0225 04:17:12.188364 11620 net.cpp:406] cont_16_lstm1_cont_slice_15_split <- cont_16
I0225 04:17:12.188367 11620 net.cpp:380] cont_16_lstm1_cont_slice_15_split -> cont_16_lstm1_cont_slice_15_split_0
I0225 04:17:12.188372 11620 net.cpp:380] cont_16_lstm1_cont_slice_15_split -> cont_16_lstm1_cont_slice_15_split_1
I0225 04:17:12.188390 11620 net.cpp:122] Setting up cont_16_lstm1_cont_slice_15_split
I0225 04:17:12.188393 11620 net.cpp:129] Top shape: 1 27 (27)
I0225 04:17:12.188397 11620 net.cpp:129] Top shape: 1 27 (27)
I0225 04:17:12.188400 11620 net.cpp:137] Memory required for data: 17280
I0225 04:17:12.188403 11620 layer_factory.hpp:77] Creating layer cont_17_lstm1_cont_slice_16_split
I0225 04:17:12.188406 11620 net.cpp:84] Creating Layer cont_17_lstm1_cont_slice_16_split
I0225 04:17:12.188414 11620 net.cpp:406] cont_17_lstm1_cont_slice_16_split <- cont_17
I0225 04:17:12.188421 11620 net.cpp:380] cont_17_lstm1_cont_slice_16_split -> cont_17_lstm1_cont_slice_16_split_0
I0225 04:17:12.188424 11620 net.cpp:380] cont_17_lstm1_cont_slice_16_split -> cont_17_lstm1_cont_slice_16_split_1
I0225 04:17:12.188441 11620 net.cpp:122] Setting up cont_17_lstm1_cont_slice_16_split
I0225 04:17:12.188446 11620 net.cpp:129] Top shape: 1 27 (27)
I0225 04:17:12.188449 11620 net.cpp:129] Top shape: 1 27 (27)
I0225 04:17:12.188452 11620 net.cpp:137] Memory required for data: 17496
I0225 04:17:12.188455 11620 layer_factory.hpp:77] Creating layer cont_18_lstm1_cont_slice_17_split
I0225 04:17:12.188459 11620 net.cpp:84] Creating Layer cont_18_lstm1_cont_slice_17_split
I0225 04:17:12.188463 11620 net.cpp:406] cont_18_lstm1_cont_slice_17_split <- cont_18
I0225 04:17:12.188467 11620 net.cpp:380] cont_18_lstm1_cont_slice_17_split -> cont_18_lstm1_cont_slice_17_split_0
I0225 04:17:12.188472 11620 net.cpp:380] cont_18_lstm1_cont_slice_17_split -> cont_18_lstm1_cont_slice_17_split_1
I0225 04:17:12.188488 11620 net.cpp:122] Setting up cont_18_lstm1_cont_slice_17_split
I0225 04:17:12.188491 11620 net.cpp:129] Top shape: 1 27 (27)
I0225 04:17:12.188495 11620 net.cpp:129] Top shape: 1 27 (27)
I0225 04:17:12.188498 11620 net.cpp:137] Memory required for data: 17712
I0225 04:17:12.188500 11620 layer_factory.hpp:77] Creating layer cont_19_lstm1_cont_slice_18_split
I0225 04:17:12.188504 11620 net.cpp:84] Creating Layer cont_19_lstm1_cont_slice_18_split
I0225 04:17:12.188508 11620 net.cpp:406] cont_19_lstm1_cont_slice_18_split <- cont_19
I0225 04:17:12.188511 11620 net.cpp:380] cont_19_lstm1_cont_slice_18_split -> cont_19_lstm1_cont_slice_18_split_0
I0225 04:17:12.188515 11620 net.cpp:380] cont_19_lstm1_cont_slice_18_split -> cont_19_lstm1_cont_slice_18_split_1
I0225 04:17:12.188532 11620 net.cpp:122] Setting up cont_19_lstm1_cont_slice_18_split
I0225 04:17:12.188536 11620 net.cpp:129] Top shape: 1 27 (27)
I0225 04:17:12.188539 11620 net.cpp:129] Top shape: 1 27 (27)
I0225 04:17:12.188542 11620 net.cpp:137] Memory required for data: 17928
I0225 04:17:12.188545 11620 layer_factory.hpp:77] Creating layer cont_20_lstm1_cont_slice_19_split
I0225 04:17:12.188549 11620 net.cpp:84] Creating Layer cont_20_lstm1_cont_slice_19_split
I0225 04:17:12.188552 11620 net.cpp:406] cont_20_lstm1_cont_slice_19_split <- cont_20
I0225 04:17:12.188556 11620 net.cpp:380] cont_20_lstm1_cont_slice_19_split -> cont_20_lstm1_cont_slice_19_split_0
I0225 04:17:12.188562 11620 net.cpp:380] cont_20_lstm1_cont_slice_19_split -> cont_20_lstm1_cont_slice_19_split_1
I0225 04:17:12.188577 11620 net.cpp:122] Setting up cont_20_lstm1_cont_slice_19_split
I0225 04:17:12.188581 11620 net.cpp:129] Top shape: 1 27 (27)
I0225 04:17:12.188585 11620 net.cpp:129] Top shape: 1 27 (27)
I0225 04:17:12.188588 11620 net.cpp:137] Memory required for data: 18144
I0225 04:17:12.192481 11620 layer_factory.hpp:77] Creating layer cont_21_lstm1_cont_slice_20_split
I0225 04:17:12.192499 11620 net.cpp:84] Creating Layer cont_21_lstm1_cont_slice_20_split
I0225 04:17:12.192517 11620 net.cpp:406] cont_21_lstm1_cont_slice_20_split <- cont_21
I0225 04:17:12.192523 11620 net.cpp:380] cont_21_lstm1_cont_slice_20_split -> cont_21_lstm1_cont_slice_20_split_0
I0225 04:17:12.192541 11620 net.cpp:380] cont_21_lstm1_cont_slice_20_split -> cont_21_lstm1_cont_slice_20_split_1
I0225 04:17:12.192579 11620 net.cpp:122] Setting up cont_21_lstm1_cont_slice_20_split
I0225 04:17:12.192585 11620 net.cpp:129] Top shape: 1 27 (27)
I0225 04:17:12.192589 11620 net.cpp:129] Top shape: 1 27 (27)
I0225 04:17:12.192591 11620 net.cpp:137] Memory required for data: 18360
I0225 04:17:12.192595 11620 layer_factory.hpp:77] Creating layer cont_22_lstm1_cont_slice_21_split
I0225 04:17:12.192598 11620 net.cpp:84] Creating Layer cont_22_lstm1_cont_slice_21_split
I0225 04:17:12.192602 11620 net.cpp:406] cont_22_lstm1_cont_slice_21_split <- cont_22
I0225 04:17:12.192616 11620 net.cpp:380] cont_22_lstm1_cont_slice_21_split -> cont_22_lstm1_cont_slice_21_split_0
I0225 04:17:12.192622 11620 net.cpp:380] cont_22_lstm1_cont_slice_21_split -> cont_22_lstm1_cont_slice_21_split_1
I0225 04:17:12.192641 11620 net.cpp:122] Setting up cont_22_lstm1_cont_slice_21_split
I0225 04:17:12.192646 11620 net.cpp:129] Top shape: 1 27 (27)
I0225 04:17:12.192651 11620 net.cpp:129] Top shape: 1 27 (27)
I0225 04:17:12.192653 11620 net.cpp:137] Memory required for data: 18576
I0225 04:17:12.192656 11620 layer_factory.hpp:77] Creating layer cont_23_lstm1_cont_slice_22_split
I0225 04:17:12.192661 11620 net.cpp:84] Creating Layer cont_23_lstm1_cont_slice_22_split
I0225 04:17:12.192663 11620 net.cpp:406] cont_23_lstm1_cont_slice_22_split <- cont_23
I0225 04:17:12.192667 11620 net.cpp:380] cont_23_lstm1_cont_slice_22_split -> cont_23_lstm1_cont_slice_22_split_0
I0225 04:17:12.192672 11620 net.cpp:380] cont_23_lstm1_cont_slice_22_split -> cont_23_lstm1_cont_slice_22_split_1
I0225 04:17:12.192689 11620 net.cpp:122] Setting up cont_23_lstm1_cont_slice_22_split
I0225 04:17:12.192694 11620 net.cpp:129] Top shape: 1 27 (27)
I0225 04:17:12.192698 11620 net.cpp:129] Top shape: 1 27 (27)
I0225 04:17:12.192700 11620 net.cpp:137] Memory required for data: 18792
I0225 04:17:12.192703 11620 layer_factory.hpp:77] Creating layer cont_24_lstm1_cont_slice_23_split
I0225 04:17:12.192708 11620 net.cpp:84] Creating Layer cont_24_lstm1_cont_slice_23_split
I0225 04:17:12.192710 11620 net.cpp:406] cont_24_lstm1_cont_slice_23_split <- cont_24
I0225 04:17:12.192715 11620 net.cpp:380] cont_24_lstm1_cont_slice_23_split -> cont_24_lstm1_cont_slice_23_split_0
I0225 04:17:12.192720 11620 net.cpp:380] cont_24_lstm1_cont_slice_23_split -> cont_24_lstm1_cont_slice_23_split_1
I0225 04:17:12.192737 11620 net.cpp:122] Setting up cont_24_lstm1_cont_slice_23_split
I0225 04:17:12.192741 11620 net.cpp:129] Top shape: 1 27 (27)
I0225 04:17:12.192745 11620 net.cpp:129] Top shape: 1 27 (27)
I0225 04:17:12.192749 11620 net.cpp:137] Memory required for data: 19008
I0225 04:17:12.192751 11620 layer_factory.hpp:77] Creating layer cont_25_lstm1_cont_slice_24_split
I0225 04:17:12.192754 11620 net.cpp:84] Creating Layer cont_25_lstm1_cont_slice_24_split
I0225 04:17:12.192759 11620 net.cpp:406] cont_25_lstm1_cont_slice_24_split <- cont_25
I0225 04:17:12.192761 11620 net.cpp:380] cont_25_lstm1_cont_slice_24_split -> cont_25_lstm1_cont_slice_24_split_0
I0225 04:17:12.192766 11620 net.cpp:380] cont_25_lstm1_cont_slice_24_split -> cont_25_lstm1_cont_slice_24_split_1
I0225 04:17:12.192783 11620 net.cpp:122] Setting up cont_25_lstm1_cont_slice_24_split
I0225 04:17:12.192787 11620 net.cpp:129] Top shape: 1 27 (27)
I0225 04:17:12.192791 11620 net.cpp:129] Top shape: 1 27 (27)
I0225 04:17:12.192795 11620 net.cpp:137] Memory required for data: 19224
I0225 04:17:12.192797 11620 layer_factory.hpp:77] Creating layer cont_26_lstm1_cont_slice_25_split
I0225 04:17:12.192801 11620 net.cpp:84] Creating Layer cont_26_lstm1_cont_slice_25_split
I0225 04:17:12.192804 11620 net.cpp:406] cont_26_lstm1_cont_slice_25_split <- cont_26
I0225 04:17:12.192808 11620 net.cpp:380] cont_26_lstm1_cont_slice_25_split -> cont_26_lstm1_cont_slice_25_split_0
I0225 04:17:12.192812 11620 net.cpp:380] cont_26_lstm1_cont_slice_25_split -> cont_26_lstm1_cont_slice_25_split_1
I0225 04:17:12.192829 11620 net.cpp:122] Setting up cont_26_lstm1_cont_slice_25_split
I0225 04:17:12.192834 11620 net.cpp:129] Top shape: 1 27 (27)
I0225 04:17:12.192837 11620 net.cpp:129] Top shape: 1 27 (27)
I0225 04:17:12.192842 11620 net.cpp:137] Memory required for data: 19440
I0225 04:17:12.192844 11620 layer_factory.hpp:77] Creating layer cont_27_lstm1_cont_slice_26_split
I0225 04:17:12.192847 11620 net.cpp:84] Creating Layer cont_27_lstm1_cont_slice_26_split
I0225 04:17:12.192852 11620 net.cpp:406] cont_27_lstm1_cont_slice_26_split <- cont_27
I0225 04:17:12.192855 11620 net.cpp:380] cont_27_lstm1_cont_slice_26_split -> cont_27_lstm1_cont_slice_26_split_0
I0225 04:17:12.192860 11620 net.cpp:380] cont_27_lstm1_cont_slice_26_split -> cont_27_lstm1_cont_slice_26_split_1
I0225 04:17:12.192883 11620 net.cpp:122] Setting up cont_27_lstm1_cont_slice_26_split
I0225 04:17:12.192890 11620 net.cpp:129] Top shape: 1 27 (27)
I0225 04:17:12.192896 11620 net.cpp:129] Top shape: 1 27 (27)
I0225 04:17:12.192901 11620 net.cpp:137] Memory required for data: 19656
I0225 04:17:12.192906 11620 layer_factory.hpp:77] Creating layer cont_28_lstm1_cont_slice_27_split
I0225 04:17:12.192914 11620 net.cpp:84] Creating Layer cont_28_lstm1_cont_slice_27_split
I0225 04:17:12.192919 11620 net.cpp:406] cont_28_lstm1_cont_slice_27_split <- cont_28
I0225 04:17:12.192925 11620 net.cpp:380] cont_28_lstm1_cont_slice_27_split -> cont_28_lstm1_cont_slice_27_split_0
I0225 04:17:12.192932 11620 net.cpp:380] cont_28_lstm1_cont_slice_27_split -> cont_28_lstm1_cont_slice_27_split_1
I0225 04:17:12.192961 11620 net.cpp:122] Setting up cont_28_lstm1_cont_slice_27_split
I0225 04:17:12.192967 11620 net.cpp:129] Top shape: 1 27 (27)
I0225 04:17:12.192970 11620 net.cpp:129] Top shape: 1 27 (27)
I0225 04:17:12.192973 11620 net.cpp:137] Memory required for data: 19872
I0225 04:17:12.192976 11620 layer_factory.hpp:77] Creating layer cont_29_lstm1_cont_slice_28_split
I0225 04:17:12.192981 11620 net.cpp:84] Creating Layer cont_29_lstm1_cont_slice_28_split
I0225 04:17:12.192984 11620 net.cpp:406] cont_29_lstm1_cont_slice_28_split <- cont_29
I0225 04:17:12.192988 11620 net.cpp:380] cont_29_lstm1_cont_slice_28_split -> cont_29_lstm1_cont_slice_28_split_0
I0225 04:17:12.192992 11620 net.cpp:380] cont_29_lstm1_cont_slice_28_split -> cont_29_lstm1_cont_slice_28_split_1
I0225 04:17:12.193011 11620 net.cpp:122] Setting up cont_29_lstm1_cont_slice_28_split
I0225 04:17:12.193017 11620 net.cpp:129] Top shape: 1 27 (27)
I0225 04:17:12.193019 11620 net.cpp:129] Top shape: 1 27 (27)
I0225 04:17:12.193022 11620 net.cpp:137] Memory required for data: 20088
I0225 04:17:12.193025 11620 layer_factory.hpp:77] Creating layer cont_30_lstm1_cont_slice_29_split
I0225 04:17:12.193034 11620 net.cpp:84] Creating Layer cont_30_lstm1_cont_slice_29_split
I0225 04:17:12.193038 11620 net.cpp:406] cont_30_lstm1_cont_slice_29_split <- cont_30
I0225 04:17:12.193042 11620 net.cpp:380] cont_30_lstm1_cont_slice_29_split -> cont_30_lstm1_cont_slice_29_split_0
I0225 04:17:12.193048 11620 net.cpp:380] cont_30_lstm1_cont_slice_29_split -> cont_30_lstm1_cont_slice_29_split_1
I0225 04:17:12.193079 11620 net.cpp:122] Setting up cont_30_lstm1_cont_slice_29_split
I0225 04:17:12.193084 11620 net.cpp:129] Top shape: 1 27 (27)
I0225 04:17:12.193086 11620 net.cpp:129] Top shape: 1 27 (27)
I0225 04:17:12.193089 11620 net.cpp:137] Memory required for data: 20304
I0225 04:17:12.193092 11620 layer_factory.hpp:77] Creating layer cont_31_lstm1_cont_slice_30_split
I0225 04:17:12.193096 11620 net.cpp:84] Creating Layer cont_31_lstm1_cont_slice_30_split
I0225 04:17:12.193099 11620 net.cpp:406] cont_31_lstm1_cont_slice_30_split <- cont_31
I0225 04:17:12.193104 11620 net.cpp:380] cont_31_lstm1_cont_slice_30_split -> cont_31_lstm1_cont_slice_30_split_0
I0225 04:17:12.193107 11620 net.cpp:380] cont_31_lstm1_cont_slice_30_split -> cont_31_lstm1_cont_slice_30_split_1
I0225 04:17:12.193125 11620 net.cpp:122] Setting up cont_31_lstm1_cont_slice_30_split
I0225 04:17:12.193128 11620 net.cpp:129] Top shape: 1 27 (27)
I0225 04:17:12.218716 11620 net.cpp:129] Top shape: 1 27 (27)
I0225 04:17:12.218741 11620 net.cpp:137] Memory required for data: 20520
I0225 04:17:12.218760 11620 layer_factory.hpp:77] Creating layer cont_32_lstm1_cont_slice_31_split
I0225 04:17:12.218767 11620 net.cpp:84] Creating Layer cont_32_lstm1_cont_slice_31_split
I0225 04:17:12.218772 11620 net.cpp:406] cont_32_lstm1_cont_slice_31_split <- cont_32
I0225 04:17:12.218792 11620 net.cpp:380] cont_32_lstm1_cont_slice_31_split -> cont_32_lstm1_cont_slice_31_split_0
I0225 04:17:12.218798 11620 net.cpp:380] cont_32_lstm1_cont_slice_31_split -> cont_32_lstm1_cont_slice_31_split_1
I0225 04:17:12.218876 11620 net.cpp:122] Setting up cont_32_lstm1_cont_slice_31_split
I0225 04:17:12.218881 11620 net.cpp:129] Top shape: 1 27 (27)
I0225 04:17:12.218909 11620 net.cpp:129] Top shape: 1 27 (27)
I0225 04:17:12.218914 11620 net.cpp:137] Memory required for data: 20736
I0225 04:17:12.218916 11620 layer_factory.hpp:77] Creating layer lstm1_x_transform
I0225 04:17:12.218927 11620 net.cpp:84] Creating Layer lstm1_x_transform
I0225 04:17:12.218933 11620 net.cpp:406] lstm1_x_transform <- x
I0225 04:17:12.218940 11620 net.cpp:380] lstm1_x_transform -> W_xc_x
I0225 04:17:12.219044 11620 net.cpp:122] Setting up lstm1_x_transform
I0225 04:17:12.219053 11620 net.cpp:129] Top shape: 32 27 64 (55296)
I0225 04:17:12.219059 11620 net.cpp:137] Memory required for data: 241920
I0225 04:17:12.219076 11620 layer_factory.hpp:77] Creating layer lstm1_W_xc_x_slice
I0225 04:17:12.219089 11620 net.cpp:84] Creating Layer lstm1_W_xc_x_slice
I0225 04:17:12.219094 11620 net.cpp:406] lstm1_W_xc_x_slice <- W_xc_x
I0225 04:17:12.219100 11620 net.cpp:380] lstm1_W_xc_x_slice -> W_xc_x_1
I0225 04:17:12.219108 11620 net.cpp:380] lstm1_W_xc_x_slice -> W_xc_x_2
…
I0225 04:17:12.219250 11620 net.cpp:380] lstm1_W_xc_x_slice -> W_xc_x_26
I0225 04:17:12.219256 11620 net.cpp:380] lstm1_W_xc_x_slice -> W_xc_x_27
I0225 04:17:12.219262 11620 net.cpp:380] lstm1_W_xc_x_slice -> W_xc_x_28
I0225 04:17:12.219276 11620 net.cpp:380] lstm1_W_xc_x_slice -> W_xc_x_29
I0225 04:17:12.219282 11620 net.cpp:380] lstm1_W_xc_x_slice -> W_xc_x_30
I0225 04:17:12.219290 11620 net.cpp:380] lstm1_W_xc_x_slice -> W_xc_x_31
I0225 04:17:12.219296 11620 net.cpp:380] lstm1_W_xc_x_slice -> W_xc_x_32
I0225 04:17:12.219489 11620 net.cpp:122] Setting up lstm1_W_xc_x_slice
I0225 04:17:12.219496 11620 net.cpp:129] Top shape: 1 27 64 (1728)
I0225 04:17:12.219501 11620 net.cpp:129] Top shape: 1 27 64 (1728)
I0225 04:17:12.219503 11620 net.cpp:129] Top shape: 1 27 64 (1728)
I0225 04:17:12.219507 11620 net.cpp:129] Top shape: 1 27 64 (1728)
I0225 04:17:12.219511 11620 net.cpp:129] Top shape: 1 27 64 (1728)
I0225 04:17:12.219514 11620 net.cpp:129] Top shape: 1 27 64 (1728)
I0225 04:17:12.219517 11620 net.cpp:129] Top shape: 1 27 64 (1728)
I0225 04:17:12.219521 11620 net.cpp:129] Top shape: 1 27 64 (1728)
I0225 04:17:12.219524 11620 net.cpp:129] Top shape: 1 27 64 (1728)
I0225 04:17:12.219528 11620 net.cpp:129] Top shape: 1 27 64 (1728)
I0225 04:17:12.219532 11620 net.cpp:129] Top shape: 1 27 64 (1728)
I0225 04:17:12.219534 11620 net.cpp:129] Top shape: 1 27 64 (1728)
I0225 04:17:12.219544 11620 net.cpp:129] Top shape: 1 27 64 (1728)
I0225 04:17:12.219549 11620 net.cpp:129] Top shape: 1 27 64 (1728)
I0225 04:17:12.219554 11620 net.cpp:129] Top shape: 1 27 64 (1728)
I0225 04:17:12.219558 11620 net.cpp:129] Top shape: 1 27 64 (1728)
I0225 04:17:12.219563 11620 net.cpp:129] Top shape: 1 27 64 (1728)
I0225 04:17:12.219565 11620 net.cpp:129] Top shape: 1 27 64 (1728)
I0225 04:17:12.219568 11620 net.cpp:129] Top shape: 1 27 64 (1728)
I0225 04:17:12.219573 11620 net.cpp:129] Top shape: 1 27 64 (1728)
I0225 04:17:12.219575 11620 net.cpp:129] Top shape: 1 27 64 (1728)
I0225 04:17:12.219579 11620 net.cpp:129] Top shape: 1 27 64 (1728)
I0225 04:17:12.219583 11620 net.cpp:129] Top shape: 1 27 64 (1728)
I0225 04:17:12.219586 11620 net.cpp:129] Top shape: 1 27 64 (1728)
I0225 04:17:12.219589 11620 net.cpp:129] Top shape: 1 27 64 (1728)
I0225 04:17:12.219593 11620 net.cpp:129] Top shape: 1 27 64 (1728)
I0225 04:17:12.219596 11620 net.cpp:129] Top shape: 1 27 64 (1728)
I0225 04:17:12.219600 11620 net.cpp:129] Top shape: 1 27 64 (1728)
I0225 04:17:12.219604 11620 net.cpp:129] Top shape: 1 27 64 (1728)
I0225 04:17:12.219607 11620 net.cpp:129] Top shape: 1 27 64 (1728)
I0225 04:17:12.219610 11620 net.cpp:129] Top shape: 1 27 64 (1728)
I0225 04:17:12.219614 11620 net.cpp:129] Top shape: 1 27 64 (1728)
I0225 04:17:12.219617 11620 net.cpp:137] Memory required for data: 463104
I0225 04:17:12.219622 11620 layer_factory.hpp:77] Creating layer lstm1_h_conted_0
I0225 04:17:12.219629 11620 net.cpp:84] Creating Layer lstm1_h_conted_0
I0225 04:17:12.219632 11620 net.cpp:406] lstm1_h_conted_0 <- h_0
I0225 04:17:12.219636 11620 net.cpp:406] lstm1_h_conted_0 <- cont_1_lstm1_cont_slice_0_split_0
I0225 04:17:12.219642 11620 net.cpp:380] lstm1_h_conted_0 -> h_conted_0
I0225 04:17:12.219684 11620 net.cpp:122] Setting up lstm1_h_conted_0
I0225 04:17:12.219689 11620 net.cpp:129] Top shape: 1 27 16 (432)
I0225 04:17:12.219692 11620 net.cpp:137] Memory required for data: 464832
I0225 04:17:12.219696 11620 layer_factory.hpp:77] Creating layer lstm1_transform_1
I0225 04:17:12.219702 11620 net.cpp:84] Creating Layer lstm1_transform_1
I0225 04:17:12.219705 11620 net.cpp:406] lstm1_transform_1 <- h_conted_0
I0225 04:17:12.219709 11620 net.cpp:380] lstm1_transform_1 -> W_hc_h_0
I0225 04:17:12.219746 11620 net.cpp:122] Setting up lstm1_transform_1
I0225 04:17:12.219751 11620 net.cpp:129] Top shape: 1 27 64 (1728)
I0225 04:17:12.219754 11620 net.cpp:137] Memory required for data: 471744
I0225 04:17:12.219760 11620 layer_factory.hpp:77] Creating layer lstm1_gate_input_1
I0225 04:17:12.219769 11620 net.cpp:84] Creating Layer lstm1_gate_input_1
I0225 04:17:12.219772 11620 net.cpp:406] lstm1_gate_input_1 <- W_hc_h_0
I0225 04:17:12.219775 11620 net.cpp:406] lstm1_gate_input_1 <- W_xc_x_1
I0225 04:17:12.219781 11620 net.cpp:380] lstm1_gate_input_1 -> gate_input_1
I0225 04:17:12.219799 11620 net.cpp:122] Setting up lstm1_gate_input_1
I0225 04:17:12.219805 11620 net.cpp:129] Top shape: 1 27 64 (1728)
I0225 04:17:12.223578 11620 net.cpp:137] Memory required for data: 478656
I0225 04:17:12.223588 11620 layer_factory.hpp:77] Creating layer lstm1_unit_1
I0225 04:17:12.223594 11620 net.cpp:84] Creating Layer lstm1_unit_1
I0225 04:17:12.223599 11620 net.cpp:406] lstm1_unit_1 <- c_0
I0225 04:17:12.223604 11620 net.cpp:406] lstm1_unit_1 <- gate_input_1
I0225 04:17:12.223608 11620 net.cpp:406] lstm1_unit_1 <- cont_1_lstm1_cont_slice_0_split_1
I0225 04:17:12.223613 11620 net.cpp:380] lstm1_unit_1 -> c_1
I0225 04:17:12.223619 11620 net.cpp:380] lstm1_unit_1 -> h_1
I0225 04:17:12.223667 11620 net.cpp:122] Setting up lstm1_unit_1
I0225 04:17:12.223675 11620 net.cpp:129] Top shape: 1 27 16 (432)
I0225 04:17:12.223678 11620 net.cpp:129] Top shape: 1 27 16 (432)
I0225 04:17:12.223681 11620 net.cpp:137] Memory required for data: 482112
I0225 04:17:12.223683 11620 layer_factory.hpp:77] Creating layer h_1_lstm1_unit_1_1_split
I0225 04:17:12.223688 11620 net.cpp:84] Creating Layer h_1_lstm1_unit_1_1_split
I0225 04:17:12.223691 11620 net.cpp:406] h_1_lstm1_unit_1_1_split <- h_1
I0225 04:17:12.223704 11620 net.cpp:380] h_1_lstm1_unit_1_1_split -> h_1_lstm1_unit_1_1_split_0
I0225 04:17:12.223711 11620 net.cpp:380] h_1_lstm1_unit_1_1_split -> h_1_lstm1_unit_1_1_split_1
I0225 04:17:12.223731 11620 net.cpp:122] Setting up h_1_lstm1_unit_1_1_split
I0225 04:17:12.223736 11620 net.cpp:129] Top shape: 1 27 16 (432)
I0225 04:17:12.223738 11620 net.cpp:129] Top shape: 1 27 16 (432)
I0225 04:17:12.223742 11620 net.cpp:137] Memory required for data: 485568
I0225 04:17:12.223744 11620 layer_factory.hpp:77] Creating layer lstm1_h_conted_1
I0225 04:17:12.223749 11620 net.cpp:84] Creating Layer lstm1_h_conted_1
I0225 04:17:12.223753 11620 net.cpp:406] lstm1_h_conted_1 <- h_1_lstm1_unit_1_1_split_0
I0225 04:17:12.223757 11620 net.cpp:406] lstm1_h_conted_1 <- cont_2_lstm1_cont_slice_1_split_0
I0225 04:17:12.223762 11620 net.cpp:380] lstm1_h_conted_1 -> h_conted_1
I0225 04:17:12.223799 11620 net.cpp:122] Setting up lstm1_h_conted_1
I0225 04:17:12.223805 11620 net.cpp:129] Top shape: 1 27 16 (432)
I0225 04:17:12.223809 11620 net.cpp:137] Memory required for data: 487296
I0225 04:17:12.223811 11620 layer_factory.hpp:77] Creating layer lstm1_transform_2
I0225 04:17:12.223817 11620 net.cpp:84] Creating Layer lstm1_transform_2
I0225 04:17:12.223820 11620 net.cpp:406] lstm1_transform_2 <- h_conted_1
I0225 04:17:12.223825 11620 net.cpp:380] lstm1_transform_2 -> W_hc_h_1
I0225 04:17:12.223862 11620 net.cpp:122] Setting up lstm1_transform_2
I0225 04:17:12.223884 11620 net.cpp:129] Top shape: 1 27 64 (1728)
I0225 04:17:12.223887 11620 net.cpp:137] Memory required for data: 494208
I0225 04:17:12.223891 11620 net.cpp:465] Sharing parameters 'W_hc' owned by layer 'lstm1_transform_1', param index 0
I0225 04:17:12.223894 11620 layer_factory.hpp:77] Creating layer lstm1_gate_input_2
I0225 04:17:12.223901 11620 net.cpp:84] Creating Layer lstm1_gate_input_2
I0225 04:17:12.223903 11620 net.cpp:406] lstm1_gate_input_2 <- W_hc_h_1
I0225 04:17:12.223922 11620 net.cpp:406] lstm1_gate_input_2 <- W_xc_x_2
I0225 04:17:12.223927 11620 net.cpp:380] lstm1_gate_input_2 -> gate_input_2
I0225 04:17:12.223963 11620 net.cpp:122] Setting up lstm1_gate_input_2
I0225 04:17:12.223973 11620 net.cpp:129] Top shape: 1 27 64 (1728)
I0225 04:17:12.223979 11620 net.cpp:137] Memory required for data: 501120
I0225 04:17:12.223984 11620 layer_factory.hpp:77] Creating layer lstm1_unit_2
I0225 04:17:12.223992 11620 net.cpp:84] Creating Layer lstm1_unit_2
I0225 04:17:12.223996 11620 net.cpp:406] lstm1_unit_2 <- c_1
I0225 04:17:12.224001 11620 net.cpp:406] lstm1_unit_2 <- gate_input_2
I0225 04:17:12.224005 11620 net.cpp:406] lstm1_unit_2 <- cont_2_lstm1_cont_slice_1_split_1
I0225 04:17:12.224010 11620 net.cpp:380] lstm1_unit_2 -> c_2
I0225 04:17:12.224017 11620 net.cpp:380] lstm1_unit_2 -> h_2
I0225 04:17:12.224057 11620 net.cpp:122] Setting up lstm1_unit_2
I0225 04:17:12.224063 11620 net.cpp:129] Top shape: 1 27 16 (432)
I0225 04:17:12.224066 11620 net.cpp:129] Top shape: 1 27 16 (432)
I0225 04:17:12.224069 11620 net.cpp:137] Memory required for data: 504576
I0225 04:17:12.224072 11620 layer_factory.hpp:77] Creating layer h_2_lstm1_unit_2_1_split
I0225 04:17:12.224077 11620 net.cpp:84] Creating Layer h_2_lstm1_unit_2_1_split
I0225 04:17:12.224081 11620 net.cpp:406] h_2_lstm1_unit_2_1_split <- h_2
I0225 04:17:12.224086 11620 net.cpp:380] h_2_lstm1_unit_2_1_split -> h_2_lstm1_unit_2_1_split_0
I0225 04:17:12.224089 11620 net.cpp:380] h_2_lstm1_unit_2_1_split -> h_2_lstm1_unit_2_1_split_1
I0225 04:17:12.224107 11620 net.cpp:122] Setting up h_2_lstm1_unit_2_1_split
I0225 04:17:12.224112 11620 net.cpp:129] Top shape: 1 27 16 (432)
I0225 04:17:12.224115 11620 net.cpp:129] Top shape: 1 27 16 (432)
I0225 04:17:12.224118 11620 net.cpp:137] Memory required for data: 508032
I0225 04:17:12.224122 11620 layer_factory.hpp:77] Creating layer lstm1_h_conted_2
I0225 04:17:12.224125 11620 net.cpp:84] Creating Layer lstm1_h_conted_2
I0225 04:17:12.224128 11620 net.cpp:406] lstm1_h_conted_2 <- h_2_lstm1_unit_2_1_split_0
I0225 04:17:12.224133 11620 net.cpp:406] lstm1_h_conted_2 <- cont_3_lstm1_cont_slice_2_split_0
I0225 04:17:12.224143 11620 net.cpp:380] lstm1_h_conted_2 -> h_conted_2
I0225 04:17:12.224174 11620 net.cpp:122] Setting up lstm1_h_conted_2
I0225 04:17:12.224179 11620 net.cpp:129] Top shape: 1 27 16 (432)
I0225 04:17:12.224182 11620 net.cpp:137] Memory required for data: 509760
I0225 04:17:12.224185 11620 layer_factory.hpp:77] Creating layer lstm1_transform_3
I0225 04:17:12.224189 11620 net.cpp:84] Creating Layer lstm1_transform_3
I0225 04:17:12.224192 11620 net.cpp:406] lstm1_transform_3 <- h_conted_2
I0225 04:17:12.224197 11620 net.cpp:380] lstm1_transform_3 -> W_hc_h_2
I0225 04:17:12.224229 11620 net.cpp:122] Setting up lstm1_transform_3
I0225 04:17:12.224234 11620 net.cpp:129] Top shape: 1 27 64 (1728)
I0225 04:17:12.224237 11620 net.cpp:137] Memory required for data: 516672
I0225 04:17:12.224243 11620 net.cpp:465] Sharing parameters 'W_hc' owned by layer 'lstm1_transform_1', param index 0
I0225 04:17:12.224247 11620 layer_factory.hpp:77] Creating layer lstm1_gate_input_3
I0225 04:17:12.224251 11620 net.cpp:84] Creating Layer lstm1_gate_input_3
I0225 04:17:12.224254 11620 net.cpp:406] lstm1_gate_input_3 <- W_hc_h_2
I0225 04:17:12.224259 11620 net.cpp:406] lstm1_gate_input_3 <- W_xc_x_3
I0225 04:17:12.224263 11620 net.cpp:380] lstm1_gate_input_3 -> gate_input_3
I0225 04:17:12.224275 11620 net.cpp:122] Setting up lstm1_gate_input_3
I0225 04:17:12.224280 11620 net.cpp:129] Top shape: 1 27 64 (1728)
I0225 04:17:12.224283 11620 net.cpp:137] Memory required for data: 523584
I0225 04:17:12.224287 11620 layer_factory.hpp:77] Creating layer lstm1_unit_3
I0225 04:17:12.224292 11620 net.cpp:84] Creating Layer lstm1_unit_3
I0225 04:17:12.224294 11620 net.cpp:406] lstm1_unit_3 <- c_2
I0225 04:17:12.224298 11620 net.cpp:406] lstm1_unit_3 <- gate_input_3
I0225 04:17:12.224315 11620 net.cpp:406] lstm1_unit_3 <- cont_3_lstm1_cont_slice_2_split_1
I0225 04:17:12.224320 11620 net.cpp:380] lstm1_unit_3 -> c_3
I0225 04:17:12.224325 11620 net.cpp:380] lstm1_unit_3 -> h_3
I0225 04:17:12.224349 11620 net.cpp:122] Setting up lstm1_unit_3
I0225 04:17:12.224352 11620 net.cpp:129] Top shape: 1 27 16 (432)
I0225 04:17:12.224356 11620 net.cpp:129] Top shape: 1 27 16 (432)
I0225 04:17:12.224359 11620 net.cpp:137] Memory required for data: 527040
I0225 04:17:12.224362 11620 layer_factory.hpp:77] Creating layer h_3_lstm1_unit_3_1_split
I0225 04:17:12.224366 11620 net.cpp:84] Creating Layer h_3_lstm1_unit_3_1_split
I0225 04:17:12.224370 11620 net.cpp:406] h_3_lstm1_unit_3_1_split <- h_3
I0225 04:17:12.224375 11620 net.cpp:380] h_3_lstm1_unit_3_1_split -> h_3_lstm1_unit_3_1_split_0
I0225 04:17:12.224378 11620 net.cpp:380] h_3_lstm1_unit_3_1_split -> h_3_lstm1_unit_3_1_split_1
I0225 04:17:12.249753 11620 net.cpp:122] Setting up h_3_lstm1_unit_3_1_split
I0225 04:17:12.249773 11620 net.cpp:129] Top shape: 1 27 16 (432)
I0225 04:17:12.249780 11620 net.cpp:129] Top shape: 1 27 16 (432)
I0225 04:17:12.249785 11620 net.cpp:137] Memory required for data: 530496
I0225 04:17:12.249791 11620 layer_factory.hpp:77] Creating layer lstm1_h_conted_3
I0225 04:17:12.249801 11620 net.cpp:84] Creating Layer lstm1_h_conted_3
I0225 04:17:12.249809 11620 net.cpp:406] lstm1_h_conted_3 <- h_3_lstm1_unit_3_1_split_0
I0225 04:17:12.249816 11620 net.cpp:406] lstm1_h_conted_3 <- cont_4_lstm1_cont_slice_3_split_0
I0225 04:17:12.249825 11620 net.cpp:380] lstm1_h_conted_3 -> h_conted_3
I0225 04:17:12.249881 11620 net.cpp:122] Setting up lstm1_h_conted_3
I0225 04:17:12.249891 11620 net.cpp:129] Top shape: 1 27 16 (432)
I0225 04:17:12.249897 11620 net.cpp:137] Memory required for data: 532224
I0225 04:17:12.249907 11620 layer_factory.hpp:77] Creating layer lstm1_transform_4
I0225 04:17:12.249917 11620 net.cpp:84] Creating Layer lstm1_transform_4
I0225 04:17:12.249923 11620 net.cpp:406] lstm1_transform_4 <- h_conted_3
I0225 04:17:12.249933 11620 net.cpp:380] lstm1_transform_4 -> W_hc_h_3
I0225 04:17:12.250059 11620 net.cpp:122] Setting up lstm1_transform_4
I0225 04:17:12.250072 11620 net.cpp:129] Top shape: 1 27 64 (1728)
I0225 04:17:12.250079 11620 net.cpp:137] Memory required for data: 539136
I0225 04:17:12.250104 11620 net.cpp:465] Sharing parameters 'W_hc' owned by layer 'lstm1_transform_1', param index 0
I0225 04:17:12.250113 11620 layer_factory.hpp:77] Creating layer lstm1_gate_input_4
I0225 04:17:12.250121 11620 net.cpp:84] Creating Layer lstm1_gate_input_4
I0225 04:17:12.250128 11620 net.cpp:406] lstm1_gate_input_4 <- W_hc_h_3
I0225 04:17:12.250134 11620 net.cpp:406] lstm1_gate_input_4 <- W_xc_x_4
I0225 04:17:12.250142 11620 net.cpp:380] lstm1_gate_input_4 -> gate_input_4
I0225 04:17:12.250164 11620 net.cpp:122] Setting up lstm1_gate_input_4
I0225 04:17:12.250185 11620 net.cpp:129] Top shape: 1 27 64 (1728)
I0225 04:17:12.250188 11620 net.cpp:137] Memory required for data: 546048
I0225 04:17:12.250195 11620 layer_factory.hpp:77] Creating layer lstm1_unit_4
I0225 04:17:12.250203 11620 net.cpp:84] Creating Layer lstm1_unit_4
I0225 04:17:12.250211 11620 net.cpp:406] lstm1_unit_4 <- c_3
I0225 04:17:12.250217 11620 net.cpp:406] lstm1_unit_4 <- gate_input_4
I0225 04:17:12.250224 11620 net.cpp:406] lstm1_unit_4 <- cont_4_lstm1_cont_slice_3_split_1
I0225 04:17:12.250232 11620 net.cpp:380] lstm1_unit_4 -> c_4
I0225 04:17:12.250242 11620 net.cpp:380] lstm1_unit_4 -> h_4
I0225 04:17:12.250283 11620 net.cpp:122] Setting up lstm1_unit_4
I0225 04:17:12.250289 11620 net.cpp:129] Top shape: 1 27 16 (432)
I0225 04:17:12.250293 11620 net.cpp:129] Top shape: 1 27 16 (432)
I0225 04:17:12.250296 11620 net.cpp:137] Memory required for data: 549504
I0225 04:17:12.250299 11620 layer_factory.hpp:77] Creating layer h_4_lstm1_unit_4_1_split
I0225 04:17:12.250303 11620 net.cpp:84] Creating Layer h_4_lstm1_unit_4_1_split
I0225 04:17:12.250308 11620 net.cpp:406] h_4_lstm1_unit_4_1_split <- h_4
I0225 04:17:12.250311 11620 net.cpp:380] h_4_lstm1_unit_4_1_split -> h_4_lstm1_unit_4_1_split_0
I0225 04:17:12.250318 11620 net.cpp:380] h_4_lstm1_unit_4_1_split -> h_4_lstm1_unit_4_1_split_1
I0225 04:17:12.250334 11620 net.cpp:122] Setting up h_4_lstm1_unit_4_1_split
I0225 04:17:12.250339 11620 net.cpp:129] Top shape: 1 27 16 (432)
I0225 04:17:12.250342 11620 net.cpp:129] Top shape: 1 27 16 (432)
I0225 04:17:12.250345 11620 net.cpp:137] Memory required for data: 552960
I0225 04:17:12.250349 11620 layer_factory.hpp:77] Creating layer lstm1_h_conted_4
I0225 04:17:12.250353 11620 net.cpp:84] Creating Layer lstm1_h_conted_4
I0225 04:17:12.250357 11620 net.cpp:406] lstm1_h_conted_4 <- h_4_lstm1_unit_4_1_split_0
I0225 04:17:12.250361 11620 net.cpp:406] lstm1_h_conted_4 <- cont_5_lstm1_cont_slice_4_split_0
I0225 04:17:12.250365 11620 net.cpp:380] lstm1_h_conted_4 -> h_conted_4
I0225 04:17:12.250399 11620 net.cpp:122] Setting up lstm1_h_conted_4
I0225 04:17:12.250406 11620 net.cpp:129] Top shape: 1 27 16 (432)
I0225 04:17:12.250411 11620 net.cpp:137] Memory required for data: 554688
I0225 04:17:12.250416 11620 layer_factory.hpp:77] Creating layer lstm1_transform_5
I0225 04:17:12.250422 11620 net.cpp:84] Creating Layer lstm1_transform_5
I0225 04:17:12.250427 11620 net.cpp:406] lstm1_transform_5 <- h_conted_4
I0225 04:17:12.250434 11620 net.cpp:380] lstm1_transform_5 -> W_hc_h_4
I0225 04:17:12.250479 11620 net.cpp:122] Setting up lstm1_transform_5
I0225 04:17:12.250485 11620 net.cpp:129] Top shape: 1 27 64 (1728)
I0225 04:17:12.250488 11620 net.cpp:137] Memory required for data: 561600
I0225 04:17:12.250491 11620 net.cpp:465] Sharing parameters 'W_hc' owned by layer 'lstm1_transform_1', param index 0
I0225 04:17:12.250495 11620 layer_factory.hpp:77] Creating layer lstm1_gate_input_5
I0225 04:17:12.250499 11620 net.cpp:84] Creating Layer lstm1_gate_input_5
I0225 04:17:12.250504 11620 net.cpp:406] lstm1_gate_input_5 <- W_hc_h_4
I0225 04:17:12.250507 11620 net.cpp:406] lstm1_gate_input_5 <- W_xc_x_5
I0225 04:17:12.250512 11620 net.cpp:380] lstm1_gate_input_5 -> gate_input_5
I0225 04:17:12.250525 11620 net.cpp:122] Setting up lstm1_gate_input_5
I0225 04:17:12.250530 11620 net.cpp:129] Top shape: 1 27 64 (1728)
I0225 04:17:12.250532 11620 net.cpp:137] Memory required for data: 568512
I0225 04:17:12.250535 11620 layer_factory.hpp:77] Creating layer lstm1_unit_5
I0225 04:17:12.250550 11620 net.cpp:84] Creating Layer lstm1_unit_5
I0225 04:17:12.250555 11620 net.cpp:406] lstm1_unit_5 <- c_4
I0225 04:17:12.250561 11620 net.cpp:406] lstm1_unit_5 <- gate_input_5
I0225 04:17:12.250567 11620 net.cpp:406] lstm1_unit_5 <- cont_5_lstm1_cont_slice_4_split_1
I0225 04:17:12.250574 11620 net.cpp:380] lstm1_unit_5 -> c_5
I0225 04:17:12.250586 11620 net.cpp:380] lstm1_unit_5 -> h_5
I0225 04:17:12.250614 11620 net.cpp:122] Setting up lstm1_unit_5
I0225 04:17:12.250619 11620 net.cpp:129] Top shape: 1 27 16 (432)
I0225 04:17:12.250622 11620 net.cpp:129] Top shape: 1 27 16 (432)
I0225 04:17:12.250625 11620 net.cpp:137] Memory required for data: 571968
I0225 04:17:12.250628 11620 layer_factory.hpp:77] Creating layer h_5_lstm1_unit_5_1_split
I0225 04:17:12.250633 11620 net.cpp:84] Creating Layer h_5_lstm1_unit_5_1_split
I0225 04:17:12.250638 11620 net.cpp:406] h_5_lstm1_unit_5_1_split <- h_5
I0225 04:17:12.250645 11620 net.cpp:380] h_5_lstm1_unit_5_1_split -> h_5_lstm1_unit_5_1_split_0
I0225 04:17:12.250653 11620 net.cpp:380] h_5_lstm1_unit_5_1_split -> h_5_lstm1_unit_5_1_split_1
I0225 04:17:12.250682 11620 net.cpp:122] Setting up h_5_lstm1_unit_5_1_split
I0225 04:17:12.250689 11620 net.cpp:129] Top shape: 1 27 16 (432)
I0225 04:17:12.250692 11620 net.cpp:129] Top shape: 1 27 16 (432)
I0225 04:17:12.250694 11620 net.cpp:137] Memory required for data: 575424
I0225 04:17:12.250699 11620 layer_factory.hpp:77] Creating layer lstm1_h_conted_5
I0225 04:17:12.250705 11620 net.cpp:84] Creating Layer lstm1_h_conted_5
I0225 04:17:12.250710 11620 net.cpp:406] lstm1_h_conted_5 <- h_5_lstm1_unit_5_1_split_0
I0225 04:17:12.250713 11620 net.cpp:406] lstm1_h_conted_5 <- cont_6_lstm1_cont_slice_5_split_0
I0225 04:17:12.250725 11620 net.cpp:380] lstm1_h_conted_5 -> h_conted_5
I0225 04:17:12.250772 11620 net.cpp:122] Setting up lstm1_h_conted_5
I0225 04:17:12.250780 11620 net.cpp:129] Top shape: 1 27 16 (432)
I0225 04:17:12.250783 11620 net.cpp:137] Memory required for data: 577152
I0225 04:17:12.250787 11620 layer_factory.hpp:77] Creating layer lstm1_transform_6
I0225 04:17:12.250792 11620 net.cpp:84] Creating Layer lstm1_transform_6
I0225 04:17:12.250797 11620 net.cpp:406] lstm1_transform_6 <- h_conted_5
I0225 04:17:12.250800 11620 net.cpp:380] lstm1_transform_6 -> W_hc_h_5
I0225 04:17:12.250838 11620 net.cpp:122] Setting up lstm1_transform_6
I0225 04:17:12.250845 11620 net.cpp:129] Top shape: 1 27 64 (1728)
I0225 04:17:12.250850 11620 net.cpp:137] Memory required for data: 584064
I0225 04:17:12.250856 11620 net.cpp:465] Sharing parameters 'W_hc' owned by layer 'lstm1_transform_1', param index 0
I0225 04:17:12.250864 11620 layer_factory.hpp:77] Creating layer lstm1_gate_input_6
I0225 04:17:12.250877 11620 net.cpp:84] Creating Layer lstm1_gate_input_6
I0225 04:17:12.250881 11620 net.cpp:406] lstm1_gate_input_6 <- W_hc_h_5
I0225 04:17:12.250886 11620 net.cpp:406] lstm1_gate_input_6 <- W_xc_x_6
I0225 04:17:12.254017 11620 net.cpp:380] lstm1_gate_input_6 -> gate_input_6
I0225 04:17:12.254060 11620 net.cpp:122] Setting up lstm1_gate_input_6
I0225 04:17:12.254112 11620 net.cpp:129] Top shape: 1 27 64 (1728)
I0225 04:17:12.254117 11620 net.cpp:137] Memory required for data: 590976
I0225 04:17:12.254120 11620 layer_factory.hpp:77] Creating layer lstm1_unit_6
I0225 04:17:12.254125 11620 net.cpp:84] Creating Layer lstm1_unit_6
I0225 04:17:12.254142 11620 net.cpp:406] lstm1_unit_6 <- c_5
I0225 04:17:12.254146 11620 net.cpp:406] lstm1_unit_6 <- gate_input_6
I0225 04:17:12.254164 11620 net.cpp:406] lstm1_unit_6 <- cont_6_lstm1_cont_slice_5_split_1
I0225 04:17:12.254171 11620 net.cpp:380] lstm1_unit_6 -> c_6
I0225 04:17:12.254178 11620 net.cpp:380] lstm1_unit_6 -> h_6
I0225 04:17:12.254236 11620 net.cpp:122] Setting up lstm1_unit_6
I0225 04:17:12.254241 11620 net.cpp:129] Top shape: 1 27 16 (432)
I0225 04:17:12.254257 11620 net.cpp:129] Top shape: 1 27 16 (432)
I0225 04:17:12.254261 11620 net.cpp:137] Memory required for data: 594432
I0225 04:17:12.254262 11620 layer_factory.hpp:77] Creating layer h_6_lstm1_unit_6_1_split
I0225 04:17:12.254276 11620 net.cpp:84] Creating Layer h_6_lstm1_unit_6_1_split
I0225 04:17:12.254281 11620 net.cpp:406] h_6_lstm1_unit_6_1_split <- h_6
I0225 04:17:12.254299 11620 net.cpp:380] h_6_lstm1_unit_6_1_split -> h_6_lstm1_unit_6_1_split_0
I0225 04:17:12.254307 11620 net.cpp:380] h_6_lstm1_unit_6_1_split -> h_6_lstm1_unit_6_1_split_1
I0225 04:17:12.254343 11620 net.cpp:122] Setting up h_6_lstm1_unit_6_1_split
I0225 04:17:12.254348 11620 net.cpp:129] Top shape: 1 27 16 (432)
I0225 04:17:12.254354 11620 net.cpp:129] Top shape: 1 27 16 (432)
I0225 04:17:12.254356 11620 net.cpp:137] Memory required for data: 597888
I0225 04:17:12.254359 11620 layer_factory.hpp:77] Creating layer lstm1_h_conted_6
I0225 04:17:12.254365 11620 net.cpp:84] Creating Layer lstm1_h_conted_6
I0225 04:17:12.254369 11620 net.cpp:406] lstm1_h_conted_6 <- h_6_lstm1_unit_6_1_split_0
I0225 04:17:12.254374 11620 net.cpp:406] lstm1_h_conted_6 <- cont_7_lstm1_cont_slice_6_split_0
I0225 04:17:12.254377 11620 net.cpp:380] lstm1_h_conted_6 -> h_conted_6
I0225 04:17:12.254411 11620 net.cpp:122] Setting up lstm1_h_conted_6
I0225 04:17:12.254416 11620 net.cpp:129] Top shape: 1 27 16 (432)
I0225 04:17:12.254420 11620 net.cpp:137] Memory required for data: 599616
I0225 04:17:12.254422 11620 layer_factory.hpp:77] Creating layer lstm1_transform_7
I0225 04:17:12.254428 11620 net.cpp:84] Creating Layer lstm1_transform_7
I0225 04:17:12.254431 11620 net.cpp:406] lstm1_transform_7 <- h_conted_6
I0225 04:17:12.254436 11620 net.cpp:380] lstm1_transform_7 -> W_hc_h_6
I0225 04:17:12.254472 11620 net.cpp:122] Setting up lstm1_transform_7
I0225 04:17:12.254477 11620 net.cpp:129] Top shape: 1 27 64 (1728)
I0225 04:17:12.254479 11620 net.cpp:137] Memory required for data: 606528
I0225 04:17:12.254487 11620 net.cpp:465] Sharing parameters 'W_hc' owned by layer 'lstm1_transform_1', param index 0
I0225 04:17:12.254490 11620 layer_factory.hpp:77] Creating layer lstm1_gate_input_7
I0225 04:17:12.254495 11620 net.cpp:84] Creating Layer lstm1_gate_input_7
I0225 04:17:12.254498 11620 net.cpp:406] lstm1_gate_input_7 <- W_hc_h_6
I0225 04:17:12.254503 11620 net.cpp:406] lstm1_gate_input_7 <- W_xc_x_7
I0225 04:17:12.254508 11620 net.cpp:380] lstm1_gate_input_7 -> gate_input_7
I0225 04:17:12.254520 11620 net.cpp:122] Setting up lstm1_gate_input_7
I0225 04:17:12.254525 11620 net.cpp:129] Top shape: 1 27 64 (1728)
I0225 04:17:12.254528 11620 net.cpp:137] Memory required for data: 613440
I0225 04:17:12.254531 11620 layer_factory.hpp:77] Creating layer lstm1_unit_7
I0225 04:17:12.254535 11620 net.cpp:84] Creating Layer lstm1_unit_7
I0225 04:17:12.254539 11620 net.cpp:406] lstm1_unit_7 <- c_6
I0225 04:17:12.254542 11620 net.cpp:406] lstm1_unit_7 <- gate_input_7
I0225 04:17:12.254546 11620 net.cpp:406] lstm1_unit_7 <- cont_7_lstm1_cont_slice_6_split_1
I0225 04:17:12.254550 11620 net.cpp:380] lstm1_unit_7 -> c_7
I0225 04:17:12.254556 11620 net.cpp:380] lstm1_unit_7 -> h_7
I0225 04:17:12.254578 11620 net.cpp:122] Setting up lstm1_unit_7
I0225 04:17:12.254583 11620 net.cpp:129] Top shape: 1 27 16 (432)
I0225 04:17:12.254586 11620 net.cpp:129] Top shape: 1 27 16 (432)
I0225 04:17:12.254590 11620 net.cpp:137] Memory required for data: 616896
I0225 04:17:12.254592 11620 layer_factory.hpp:77] Creating layer h_7_lstm1_unit_7_1_split
I0225 04:17:12.254596 11620 net.cpp:84] Creating Layer h_7_lstm1_unit_7_1_split
I0225 04:17:12.254601 11620 net.cpp:406] h_7_lstm1_unit_7_1_split <- h_7
I0225 04:17:12.254603 11620 net.cpp:380] h_7_lstm1_unit_7_1_split -> h_7_lstm1_unit_7_1_split_0
I0225 04:17:12.254622 11620 net.cpp:380] h_7_lstm1_unit_7_1_split -> h_7_lstm1_unit_7_1_split_1
I0225 04:17:12.254640 11620 net.cpp:122] Setting up h_7_lstm1_unit_7_1_split
I0225 04:17:12.254645 11620 net.cpp:129] Top shape: 1 27 16 (432)
I0225 04:17:12.254649 11620 net.cpp:129] Top shape: 1 27 16 (432)
I0225 04:17:12.254652 11620 net.cpp:137] Memory required for data: 620352
I0225 04:17:12.254655 11620 layer_factory.hpp:77] Creating layer lstm1_h_conted_7
I0225 04:17:12.254659 11620 net.cpp:84] Creating Layer lstm1_h_conted_7
I0225 04:17:12.254668 11620 net.cpp:406] lstm1_h_conted_7 <- h_7_lstm1_unit_7_1_split_0
I0225 04:17:12.254673 11620 net.cpp:406] lstm1_h_conted_7 <- cont_8_lstm1_cont_slice_7_split_0
I0225 04:17:12.254678 11620 net.cpp:380] lstm1_h_conted_7 -> h_conted_7
I0225 04:17:12.254709 11620 net.cpp:122] Setting up lstm1_h_conted_7
I0225 04:17:12.254714 11620 net.cpp:129] Top shape: 1 27 16 (432)
I0225 04:17:12.254717 11620 net.cpp:137] Memory required for data: 622080
I0225 04:17:12.254720 11620 layer_factory.hpp:77] Creating layer lstm1_transform_8
I0225 04:17:12.254725 11620 net.cpp:84] Creating Layer lstm1_transform_8
I0225 04:17:12.254729 11620 net.cpp:406] lstm1_transform_8 <- h_conted_7
I0225 04:17:12.254734 11620 net.cpp:380] lstm1_transform_8 -> W_hc_h_7
I0225 04:17:12.254765 11620 net.cpp:122] Setting up lstm1_transform_8
I0225 04:17:12.254770 11620 net.cpp:129] Top shape: 1 27 64 (1728)
I0225 04:17:12.254772 11620 net.cpp:137] Memory required for data: 628992
I0225 04:17:12.254776 11620 net.cpp:465] Sharing parameters 'W_hc' owned by layer 'lstm1_transform_1', param index 0
I0225 04:17:12.254779 11620 layer_factory.hpp:77] Creating layer lstm1_gate_input_8
I0225 04:17:12.254783 11620 net.cpp:84] Creating Layer lstm1_gate_input_8
I0225 04:17:12.254786 11620 net.cpp:406] lstm1_gate_input_8 <- W_hc_h_7
I0225 04:17:12.254791 11620 net.cpp:406] lstm1_gate_input_8 <- W_xc_x_8
I0225 04:17:12.254796 11620 net.cpp:380] lstm1_gate_input_8 -> gate_input_8
I0225 04:17:12.254808 11620 net.cpp:122] Setting up lstm1_gate_input_8
I0225 04:17:12.254813 11620 net.cpp:129] Top shape: 1 27 64 (1728)
I0225 04:17:12.254817 11620 net.cpp:137] Memory required for data: 635904
I0225 04:17:12.254819 11620 layer_factory.hpp:77] Creating layer lstm1_unit_8
I0225 04:17:12.254823 11620 net.cpp:84] Creating Layer lstm1_unit_8
I0225 04:17:12.254827 11620 net.cpp:406] lstm1_unit_8 <- c_7
I0225 04:17:12.254832 11620 net.cpp:406] lstm1_unit_8 <- gate_input_8
I0225 04:17:12.254835 11620 net.cpp:406] lstm1_unit_8 <- cont_8_lstm1_cont_slice_7_split_1
I0225 04:17:12.254839 11620 net.cpp:380] lstm1_unit_8 -> c_8
I0225 04:17:12.254843 11620 net.cpp:380] lstm1_unit_8 -> h_8
I0225 04:17:12.254868 11620 net.cpp:122] Setting up lstm1_unit_8
I0225 04:17:12.254873 11620 net.cpp:129] Top shape: 1 27 16 (432)
I0225 04:17:12.254876 11620 net.cpp:129] Top shape: 1 27 16 (432)
I0225 04:17:12.254879 11620 net.cpp:137] Memory required for data: 639360
I0225 04:17:12.254882 11620 layer_factory.hpp:77] Creating layer h_8_lstm1_unit_8_1_split
I0225 04:17:12.254886 11620 net.cpp:84] Creating Layer h_8_lstm1_unit_8_1_split
I0225 04:17:12.254889 11620 net.cpp:406] h_8_lstm1_unit_8_1_split <- h_8
I0225 04:17:12.254894 11620 net.cpp:380] h_8_lstm1_unit_8_1_split -> h_8_lstm1_unit_8_1_split_0
I0225 04:17:12.254899 11620 net.cpp:380] h_8_lstm1_unit_8_1_split -> h_8_lstm1_unit_8_1_split_1
I0225 04:17:12.280210 11620 net.cpp:122] Setting up h_8_lstm1_unit_8_1_split
I0225 04:17:12.280225 11620 net.cpp:129] Top shape: 1 27 16 (432)
I0225 04:17:12.280230 11620 net.cpp:129] Top shape: 1 27 16 (432)
I0225 04:17:12.280232 11620 net.cpp:137] Memory required for data: 642816
I0225 04:17:12.280236 11620 layer_factory.hpp:77] Creating layer lstm1_h_conted_8
I0225 04:17:12.280243 11620 net.cpp:84] Creating Layer lstm1_h_conted_8
I0225 04:17:12.280246 11620 net.cpp:406] lstm1_h_conted_8 <- h_8_lstm1_unit_8_1_split_0
I0225 04:17:12.280251 11620 net.cpp:406] lstm1_h_conted_8 <- cont_9_lstm1_cont_slice_8_split_0
I0225 04:17:12.280256 11620 net.cpp:380] lstm1_h_conted_8 -> h_conted_8
I0225 04:17:12.280297 11620 net.cpp:122] Setting up lstm1_h_conted_8
I0225 04:17:12.280303 11620 net.cpp:129] Top shape: 1 27 16 (432)
I0225 04:17:12.280304 11620 net.cpp:137] Memory required for data: 644544
I0225 04:17:12.280308 11620 layer_factory.hpp:77] Creating layer lstm1_transform_9
I0225 04:17:12.280313 11620 net.cpp:84] Creating Layer lstm1_transform_9
I0225 04:17:12.280315 11620 net.cpp:406] lstm1_transform_9 <- h_conted_8
I0225 04:17:12.280320 11620 net.cpp:380] lstm1_transform_9 -> W_hc_h_8
I0225 04:17:12.280411 11620 net.cpp:122] Setting up lstm1_transform_9
I0225 04:17:12.280416 11620 net.cpp:129] Top shape: 1 27 64 (1728)
I0225 04:17:12.280418 11620 net.cpp:137] Memory required for data: 651456
I0225 04:17:12.280422 11620 net.cpp:465] Sharing parameters 'W_hc' owned by layer 'lstm1_transform_1', param index 0
I0225 04:17:12.280426 11620 layer_factory.hpp:77] Creating layer lstm1_gate_input_9
I0225 04:17:12.280445 11620 net.cpp:84] Creating Layer lstm1_gate_input_9
I0225 04:17:12.280448 11620 net.cpp:406] lstm1_gate_input_9 <- W_hc_h_8
I0225 04:17:12.280452 11620 net.cpp:406] lstm1_gate_input_9 <- W_xc_x_9
I0225 04:17:12.280457 11620 net.cpp:380] lstm1_gate_input_9 -> gate_input_9
I0225 04:17:12.280470 11620 net.cpp:122] Setting up lstm1_gate_input_9
I0225 04:17:12.280474 11620 net.cpp:129] Top shape: 1 27 64 (1728)
I0225 04:17:12.280477 11620 net.cpp:137] Memory required for data: 658368
I0225 04:17:12.280479 11620 layer_factory.hpp:77] Creating layer lstm1_unit_9
I0225 04:17:12.280484 11620 net.cpp:84] Creating Layer lstm1_unit_9
I0225 04:17:12.280488 11620 net.cpp:406] lstm1_unit_9 <- c_8
I0225 04:17:12.280490 11620 net.cpp:406] lstm1_unit_9 <- gate_input_9
I0225 04:17:12.280493 11620 net.cpp:406] lstm1_unit_9 <- cont_9_lstm1_cont_slice_8_split_1
I0225 04:17:12.280498 11620 net.cpp:380] lstm1_unit_9 -> c_9
I0225 04:17:12.280501 11620 net.cpp:380] lstm1_unit_9 -> h_9
I0225 04:17:12.280524 11620 net.cpp:122] Setting up lstm1_unit_9
I0225 04:17:12.280529 11620 net.cpp:129] Top shape: 1 27 16 (432)
I0225 04:17:12.280531 11620 net.cpp:129] Top shape: 1 27 16 (432)
I0225 04:17:12.280534 11620 net.cpp:137] Memory required for data: 661824
I0225 04:17:12.280536 11620 layer_factory.hpp:77] Creating layer h_9_lstm1_unit_9_1_split
I0225 04:17:12.280540 11620 net.cpp:84] Creating Layer h_9_lstm1_unit_9_1_split
I0225 04:17:12.280544 11620 net.cpp:406] h_9_lstm1_unit_9_1_split <- h_9
I0225 04:17:12.280546 11620 net.cpp:380] h_9_lstm1_unit_9_1_split -> h_9_lstm1_unit_9_1_split_0
I0225 04:17:12.280550 11620 net.cpp:380] h_9_lstm1_unit_9_1_split -> h_9_lstm1_unit_9_1_split_1
I0225 04:17:12.280567 11620 net.cpp:122] Setting up h_9_lstm1_unit_9_1_split
I0225 04:17:12.280570 11620 net.cpp:129] Top shape: 1 27 16 (432)
I0225 04:17:12.280573 11620 net.cpp:129] Top shape: 1 27 16 (432)
I0225 04:17:12.280576 11620 net.cpp:137] Memory required for data: 665280
I0225 04:17:12.280578 11620 layer_factory.hpp:77] Creating layer lstm1_h_conted_9
I0225 04:17:12.280582 11620 net.cpp:84] Creating Layer lstm1_h_conted_9
I0225 04:17:12.283941 11620 net.cpp:406] lstm1_h_conted_9 <- h_9_lstm1_unit_9_1_split_0
I0225 04:17:12.283960 11620 net.cpp:406] lstm1_h_conted_9 <- cont_10_lstm1_cont_slice_9_split_0
I0225 04:17:12.283972 11620 net.cpp:380] lstm1_h_conted_9 -> h_conted_9
I0225 04:17:12.284059 11620 net.cpp:122] Setting up lstm1_h_conted_9
I0225 04:17:12.284067 11620 net.cpp:129] Top shape: 1 27 16 (432)
I0225 04:17:12.284070 11620 net.cpp:137] Memory required for data: 667008
I0225 04:17:12.284073 11620 layer_factory.hpp:77] Creating layer lstm1_transform_10
I0225 04:17:12.284080 11620 net.cpp:84] Creating Layer lstm1_transform_10
I0225 04:17:12.284083 11620 net.cpp:406] lstm1_transform_10 <- h_conted_9
I0225 04:17:12.284088 11620 net.cpp:380] lstm1_transform_10 -> W_hc_h_9
I0225 04:17:12.284137 11620 net.cpp:122] Setting up lstm1_transform_10
I0225 04:17:12.284142 11620 net.cpp:129] Top shape: 1 27 64 (1728)
I0225 04:17:12.284145 11620 net.cpp:137] Memory required for data: 673920
I0225 04:17:12.284149 11620 net.cpp:465] Sharing parameters 'W_hc' owned by layer 'lstm1_transform_1', param index 0
I0225 04:17:12.284153 11620 layer_factory.hpp:77] Creating layer lstm1_gate_input_10
I0225 04:17:12.284162 11620 net.cpp:84] Creating Layer lstm1_gate_input_10
I0225 04:17:12.284164 11620 net.cpp:406] lstm1_gate_input_10 <- W_hc_h_9
I0225 04:17:12.284168 11620 net.cpp:406] lstm1_gate_input_10 <- W_xc_x_10
I0225 04:17:12.284173 11620 net.cpp:380] lstm1_gate_input_10 -> gate_input_10
I0225 04:17:12.284191 11620 net.cpp:122] Setting up lstm1_gate_input_10
I0225 04:17:12.284211 11620 net.cpp:129] Top shape: 1 27 64 (1728)
I0225 04:17:12.284215 11620 net.cpp:137] Memory required for data: 680832
I0225 04:17:12.284219 11620 layer_factory.hpp:77] Creating layer lstm1_unit_10
I0225 04:17:12.284227 11620 net.cpp:84] Creating Layer lstm1_unit_10
I0225 04:17:12.284232 11620 net.cpp:406] lstm1_unit_10 <- c_9
I0225 04:17:12.284237 11620 net.cpp:406] lstm1_unit_10 <- gate_input_10
I0225 04:17:12.284242 11620 net.cpp:406] lstm1_unit_10 <- cont_10_lstm1_cont_slice_9_split_1
I0225 04:17:12.284247 11620 net.cpp:380] lstm1_unit_10 -> c_10
I0225 04:17:12.284255 11620 net.cpp:380] lstm1_unit_10 -> h_10
I0225 04:17:12.284286 11620 net.cpp:122] Setting up lstm1_unit_10
I0225 04:17:12.284291 11620 net.cpp:129] Top shape: 1 27 16 (432)
I0225 04:17:12.284296 11620 net.cpp:129] Top shape: 1 27 16 (432)
I0225 04:17:12.284301 11620 net.cpp:137] Memory required for data: 684288
I0225 04:17:12.284303 11620 layer_factory.hpp:77] Creating layer h_10_lstm1_unit_10_1_split
I0225 04:17:12.284309 11620 net.cpp:84] Creating Layer h_10_lstm1_unit_10_1_split
I0225 04:17:12.284314 11620 net.cpp:406] h_10_lstm1_unit_10_1_split <- h_10
I0225 04:17:12.284320 11620 net.cpp:380] h_10_lstm1_unit_10_1_split -> h_10_lstm1_unit_10_1_split_0
I0225 04:17:12.284327 11620 net.cpp:380] h_10_lstm1_unit_10_1_split -> h_10_lstm1_unit_10_1_split_1
I0225 04:17:12.284346 11620 net.cpp:122] Setting up h_10_lstm1_unit_10_1_split
I0225 04:17:12.284353 11620 net.cpp:129] Top shape: 1 27 16 (432)
I0225 04:17:12.284358 11620 net.cpp:129] Top shape: 1 27 16 (432)
I0225 04:17:12.284361 11620 net.cpp:137] Memory required for data: 687744
I0225 04:17:12.284364 11620 layer_factory.hpp:77] Creating layer lstm1_h_conted_10
I0225 04:17:12.284373 11620 net.cpp:84] Creating Layer lstm1_h_conted_10
I0225 04:17:12.284377 11620 net.cpp:406] lstm1_h_conted_10 <- h_10_lstm1_unit_10_1_split_0
I0225 04:17:12.284384 11620 net.cpp:406] lstm1_h_conted_10 <- cont_11_lstm1_cont_slice_10_split_0
I0225 04:17:12.284389 11620 net.cpp:380] lstm1_h_conted_10 -> h_conted_10
I0225 04:17:12.284426 11620 net.cpp:122] Setting up lstm1_h_conted_10
I0225 04:17:12.284432 11620 net.cpp:129] Top shape: 1 27 16 (432)
I0225 04:17:12.284436 11620 net.cpp:137] Memory required for data: 689472
I0225 04:17:12.284440 11620 layer_factory.hpp:77] Creating layer lstm1_transform_11
I0225 04:17:12.284446 11620 net.cpp:84] Creating Layer lstm1_transform_11
I0225 04:17:12.284451 11620 net.cpp:406] lstm1_transform_11 <- h_conted_10
I0225 04:17:12.284457 11620 net.cpp:380] lstm1_transform_11 -> W_hc_h_10
I0225 04:17:12.284497 11620 net.cpp:122] Setting up lstm1_transform_11
I0225 04:17:12.284503 11620 net.cpp:129] Top shape: 1 27 64 (1728)
I0225 04:17:12.284507 11620 net.cpp:137] Memory required for data: 696384
I0225 04:17:12.284512 11620 net.cpp:465] Sharing parameters 'W_hc' owned by layer 'lstm1_transform_1', param index 0
I0225 04:17:12.284517 11620 layer_factory.hpp:77] Creating layer lstm1_gate_input_11
I0225 04:17:12.284521 11620 net.cpp:84] Creating Layer lstm1_gate_input_11
I0225 04:17:12.284526 11620 net.cpp:406] lstm1_gate_input_11 <- W_hc_h_10
I0225 04:17:12.284531 11620 net.cpp:406] lstm1_gate_input_11 <- W_xc_x_11
I0225 04:17:12.284538 11620 net.cpp:380] lstm1_gate_input_11 -> gate_input_11
I0225 04:17:12.284554 11620 net.cpp:122] Setting up lstm1_gate_input_11
I0225 04:17:12.284560 11620 net.cpp:129] Top shape: 1 27 64 (1728)
I0225 04:17:12.284564 11620 net.cpp:137] Memory required for data: 703296
I0225 04:17:12.284569 11620 layer_factory.hpp:77] Creating layer lstm1_unit_11
I0225 04:17:12.284574 11620 net.cpp:84] Creating Layer lstm1_unit_11
I0225 04:17:12.284579 11620 net.cpp:406] lstm1_unit_11 <- c_10
I0225 04:17:12.284584 11620 net.cpp:406] lstm1_unit_11 <- gate_input_11
I0225 04:17:12.284590 11620 net.cpp:406] lstm1_unit_11 <- cont_11_lstm1_cont_slice_10_split_1
I0225 04:17:12.284596 11620 net.cpp:380] lstm1_unit_11 -> c_11
I0225 04:17:12.284602 11620 net.cpp:380] lstm1_unit_11 -> h_11
I0225 04:17:12.284627 11620 net.cpp:122] Setting up lstm1_unit_11
I0225 04:17:12.284638 11620 net.cpp:129] Top shape: 1 27 16 (432)
I0225 04:17:12.284643 11620 net.cpp:129] Top shape: 1 27 16 (432)
I0225 04:17:12.284646 11620 net.cpp:137] Memory required for data: 706752
I0225 04:17:12.284647 11620 layer_factory.hpp:77] Creating layer h_11_lstm1_unit_11_1_split
I0225 04:17:12.284651 11620 net.cpp:84] Creating Layer h_11_lstm1_unit_11_1_split
I0225 04:17:12.284653 11620 net.cpp:406] h_11_lstm1_unit_11_1_split <- h_11
I0225 04:17:12.284657 11620 net.cpp:380] h_11_lstm1_unit_11_1_split -> h_11_lstm1_unit_11_1_split_0
I0225 04:17:12.284662 11620 net.cpp:380] h_11_lstm1_unit_11_1_split -> h_11_lstm1_unit_11_1_split_1
I0225 04:17:12.284679 11620 net.cpp:122] Setting up h_11_lstm1_unit_11_1_split
I0225 04:17:12.284683 11620 net.cpp:129] Top shape: 1 27 16 (432)
I0225 04:17:12.284687 11620 net.cpp:129] Top shape: 1 27 16 (432)
I0225 04:17:12.284688 11620 net.cpp:137] Memory required for data: 710208
I0225 04:17:12.284692 11620 layer_factory.hpp:77] Creating layer lstm1_h_conted_11
I0225 04:17:12.284695 11620 net.cpp:84] Creating Layer lstm1_h_conted_11
I0225 04:17:12.284698 11620 net.cpp:406] lstm1_h_conted_11 <- h_11_lstm1_unit_11_1_split_0
I0225 04:17:12.284703 11620 net.cpp:406] lstm1_h_conted_11 <- cont_12_lstm1_cont_slice_11_split_0
I0225 04:17:12.284708 11620 net.cpp:380] lstm1_h_conted_11 -> h_conted_11
I0225 04:17:12.284739 11620 net.cpp:122] Setting up lstm1_h_conted_11
I0225 04:17:12.284744 11620 net.cpp:129] Top shape: 1 27 16 (432)
I0225 04:17:12.284747 11620 net.cpp:137] Memory required for data: 711936
I0225 04:17:12.284750 11620 layer_factory.hpp:77] Creating layer lstm1_transform_12
I0225 04:17:12.284755 11620 net.cpp:84] Creating Layer lstm1_transform_12
I0225 04:17:12.284759 11620 net.cpp:406] lstm1_transform_12 <- h_conted_11
I0225 04:17:12.284763 11620 net.cpp:380] lstm1_transform_12 -> W_hc_h_11
I0225 04:17:12.284795 11620 net.cpp:122] Setting up lstm1_transform_12
I0225 04:17:12.284799 11620 net.cpp:129] Top shape: 1 27 64 (1728)
I0225 04:17:12.284802 11620 net.cpp:137] Memory required for data: 718848
I0225 04:17:12.284806 11620 net.cpp:465] Sharing parameters 'W_hc' owned by layer 'lstm1_transform_1', param index 0
I0225 04:17:12.284809 11620 layer_factory.hpp:77] Creating layer lstm1_gate_input_12
I0225 04:17:12.284813 11620 net.cpp:84] Creating Layer lstm1_gate_input_12
I0225 04:17:12.284817 11620 net.cpp:406] lstm1_gate_input_12 <- W_hc_h_11
I0225 04:17:12.284821 11620 net.cpp:406] lstm1_gate_input_12 <- W_xc_x_12
I0225 04:17:12.284824 11620 net.cpp:380] lstm1_gate_input_12 -> gate_input_12
I0225 04:17:12.284838 11620 net.cpp:122] Setting up lstm1_gate_input_12
I0225 04:17:12.284843 11620 net.cpp:129] Top shape: 1 27 64 (1728)
I0225 04:17:12.284845 11620 net.cpp:137] Memory required for data: 725760
I0225 04:17:12.284849 11620 layer_factory.hpp:77] Creating layer lstm1_unit_12
I0225 04:17:12.284853 11620 net.cpp:84] Creating Layer lstm1_unit_12
I0225 04:17:12.284857 11620 net.cpp:406] lstm1_unit_12 <- c_11
I0225 04:17:12.284860 11620 net.cpp:406] lstm1_unit_12 <- gate_input_12
I0225 04:17:12.284864 11620 net.cpp:406] lstm1_unit_12 <- cont_12_lstm1_cont_slice_11_split_1
I0225 04:17:12.284868 11620 net.cpp:380] lstm1_unit_12 -> c_12
I0225 04:17:12.284873 11620 net.cpp:380] lstm1_unit_12 -> h_12
I0225 04:17:12.284898 11620 net.cpp:122] Setting up lstm1_unit_12
I0225 04:17:12.284904 11620 net.cpp:129] Top shape: 1 27 16 (432)
I0225 04:17:12.284907 11620 net.cpp:129] Top shape: 1 27 16 (432)
I0225 04:17:12.284910 11620 net.cpp:137] Memory required for data: 729216
I0225 04:17:12.284912 11620 layer_factory.hpp:77] Creating layer h_12_lstm1_unit_12_1_split
I0225 04:17:12.284916 11620 net.cpp:84] Creating Layer h_12_lstm1_unit_12_1_split
I0225 04:17:12.284920 11620 net.cpp:406] h_12_lstm1_unit_12_1_split <- h_12
I0225 04:17:12.284924 11620 net.cpp:380] h_12_lstm1_unit_12_1_split -> h_12_lstm1_unit_12_1_split_0
I0225 04:17:12.284929 11620 net.cpp:380] h_12_lstm1_unit_12_1_split -> h_12_lstm1_unit_12_1_split_1
I0225 04:17:12.284946 11620 net.cpp:122] Setting up h_12_lstm1_unit_12_1_split
I0225 04:17:12.284955 11620 net.cpp:129] Top shape: 1 27 16 (432)
I0225 04:17:12.284960 11620 net.cpp:129] Top shape: 1 27 16 (432)
I0225 04:17:12.284962 11620 net.cpp:137] Memory required for data: 732672
I0225 04:17:12.284965 11620 layer_factory.hpp:77] Creating layer lstm1_h_conted_12
I0225 04:17:12.284970 11620 net.cpp:84] Creating Layer lstm1_h_conted_12
I0225 04:17:12.284973 11620 net.cpp:406] lstm1_h_conted_12 <- h_12_lstm1_unit_12_1_split_0
I0225 04:17:12.284977 11620 net.cpp:406] lstm1_h_conted_12 <- cont_13_lstm1_cont_slice_12_split_0
I0225 04:17:12.284981 11620 net.cpp:380] lstm1_h_conted_12 -> h_conted_12
I0225 04:17:12.285012 11620 net.cpp:122] Setting up lstm1_h_conted_12
I0225 04:17:12.285020 11620 net.cpp:129] Top shape: 1 27 16 (432)
I0225 04:17:12.285023 11620 net.cpp:137] Memory required for data: 734400
I0225 04:17:12.285027 11620 layer_factory.hpp:77] Creating layer lstm1_transform_13
I0225 04:17:12.285030 11620 net.cpp:84] Creating Layer lstm1_transform_13
I0225 04:17:12.285033 11620 net.cpp:406] lstm1_transform_13 <- h_conted_12
I0225 04:17:12.285038 11620 net.cpp:380] lstm1_transform_13 -> W_hc_h_12
I0225 04:17:12.285070 11620 net.cpp:122] Setting up lstm1_transform_13
I0225 04:17:12.285075 11620 net.cpp:129] Top shape: 1 27 64 (1728)
I0225 04:17:12.285079 11620 net.cpp:137] Memory required for data: 741312
I0225 04:17:12.285081 11620 net.cpp:465] Sharing parameters 'W_hc' owned by layer 'lstm1_transform_1', param index 0
I0225 04:17:12.285085 11620 layer_factory.hpp:77] Creating layer lstm1_gate_input_13
I0225 04:17:12.285089 11620 net.cpp:84] Creating Layer lstm1_gate_input_13
I0225 04:17:12.285094 11620 net.cpp:406] lstm1_gate_input_13 <- W_hc_h_12
I0225 04:17:12.285096 11620 net.cpp:406] lstm1_gate_input_13 <- W_xc_x_13
I0225 04:17:12.285101 11620 net.cpp:380] lstm1_gate_input_13 -> gate_input_13
I0225 04:17:12.285115 11620 net.cpp:122] Setting up lstm1_gate_input_13
I0225 04:17:12.285118 11620 net.cpp:129] Top shape: 1 27 64 (1728)
I0225 04:17:12.285121 11620 net.cpp:137] Memory required for data: 748224
I0225 04:17:12.285125 11620 layer_factory.hpp:77] Creating layer lstm1_unit_13
I0225 04:17:12.285128 11620 net.cpp:84] Creating Layer lstm1_unit_13
I0225 04:17:12.285132 11620 net.cpp:406] lstm1_unit_13 <- c_12
I0225 04:17:12.285136 11620 net.cpp:406] lstm1_unit_13 <- gate_input_13
I0225 04:17:12.285140 11620 net.cpp:406] lstm1_unit_13 <- cont_13_lstm1_cont_slice_12_split_1
I0225 04:17:12.311111 11620 net.cpp:380] lstm1_unit_13 -> c_13
I0225 04:17:12.311138 11620 net.cpp:380] lstm1_unit_13 -> h_13
I0225 04:17:12.311216 11620 net.cpp:122] Setting up lstm1_unit_13
I0225 04:17:12.311228 11620 net.cpp:129] Top shape: 1 27 16 (432)
I0225 04:17:12.311235 11620 net.cpp:129] Top shape: 1 27 16 (432)
I0225 04:17:12.311240 11620 net.cpp:137] Memory required for data: 751680
I0225 04:17:12.311247 11620 layer_factory.hpp:77] Creating layer h_13_lstm1_unit_13_1_split
I0225 04:17:12.311256 11620 net.cpp:84] Creating Layer h_13_lstm1_unit_13_1_split
I0225 04:17:12.311262 11620 net.cpp:406] h_13_lstm1_unit_13_1_split <- h_13
I0225 04:17:12.311270 11620 net.cpp:380] h_13_lstm1_unit_13_1_split -> h_13_lstm1_unit_13_1_split_0
I0225 04:17:12.311278 11620 net.cpp:380] h_13_lstm1_unit_13_1_split -> h_13_lstm1_unit_13_1_split_1
I0225 04:17:12.311312 11620 net.cpp:122] Setting up h_13_lstm1_unit_13_1_split
I0225 04:17:12.311322 11620 net.cpp:129] Top shape: 1 27 16 (432)
I0225 04:17:12.311328 11620 net.cpp:129] Top shape: 1 27 16 (432)
I0225 04:17:12.311333 11620 net.cpp:137] Memory required for data: 755136
I0225 04:17:12.311339 11620 layer_factory.hpp:77] Creating layer lstm1_h_conted_13
I0225 04:17:12.311347 11620 net.cpp:84] Creating Layer lstm1_h_conted_13
I0225 04:17:12.311353 11620 net.cpp:406] lstm1_h_conted_13 <- h_13_lstm1_unit_13_1_split_0
I0225 04:17:12.311359 11620 net.cpp:406] lstm1_h_conted_13 <- cont_14_lstm1_cont_slice_13_split_0
I0225 04:17:12.311365 11620 net.cpp:380] lstm1_h_conted_13 -> h_conted_13
I0225 04:17:12.311450 11620 net.cpp:122] Setting up lstm1_h_conted_13
I0225 04:17:12.311483 11620 net.cpp:129] Top shape: 1 27 16 (432)
I0225 04:17:12.311487 11620 net.cpp:137] Memory required for data: 756864
I0225 04:17:12.311491 11620 layer_factory.hpp:77] Creating layer lstm1_transform_14
I0225 04:17:12.311498 11620 net.cpp:84] Creating Layer lstm1_transform_14
I0225 04:17:12.311503 11620 net.cpp:406] lstm1_transform_14 <- h_conted_13
I0225 04:17:12.311511 11620 net.cpp:380] lstm1_transform_14 -> W_hc_h_13
I0225 04:17:12.311573 11620 net.cpp:122] Setting up lstm1_transform_14
I0225 04:17:12.311581 11620 net.cpp:129] Top shape: 1 27 64 (1728)
I0225 04:17:12.311585 11620 net.cpp:137] Memory required for data: 763776
I0225 04:17:12.311590 11620 net.cpp:465] Sharing parameters 'W_hc' owned by layer 'lstm1_transform_1', param index 0
I0225 04:17:12.311595 11620 layer_factory.hpp:77] Creating layer lstm1_gate_input_14
I0225 04:17:12.311602 11620 net.cpp:84] Creating Layer lstm1_gate_input_14
I0225 04:17:12.311606 11620 net.cpp:406] lstm1_gate_input_14 <- W_hc_h_13
I0225 04:17:12.311612 11620 net.cpp:406] lstm1_gate_input_14 <- W_xc_x_14
I0225 04:17:12.311619 11620 net.cpp:380] lstm1_gate_input_14 -> gate_input_14
I0225 04:17:12.311638 11620 net.cpp:122] Setting up lstm1_gate_input_14
I0225 04:17:12.311646 11620 net.cpp:129] Top shape: 1 27 64 (1728)
I0225 04:17:12.311650 11620 net.cpp:137] Memory required for data: 770688
I0225 04:17:12.311655 11620 layer_factory.hpp:77] Creating layer lstm1_unit_14
I0225 04:17:12.311662 11620 net.cpp:84] Creating Layer lstm1_unit_14
I0225 04:17:12.311667 11620 net.cpp:406] lstm1_unit_14 <- c_13
I0225 04:17:12.311673 11620 net.cpp:406] lstm1_unit_14 <- gate_input_14
I0225 04:17:12.311678 11620 net.cpp:406] lstm1_unit_14 <- cont_14_lstm1_cont_slice_13_split_1
I0225 04:17:12.311698 11620 net.cpp:380] lstm1_unit_14 -> c_14
I0225 04:17:12.311705 11620 net.cpp:380] lstm1_unit_14 -> h_14
I0225 04:17:12.311743 11620 net.cpp:122] Setting up lstm1_unit_14
I0225 04:17:12.311749 11620 net.cpp:129] Top shape: 1 27 16 (432)
I0225 04:17:12.311754 11620 net.cpp:129] Top shape: 1 27 16 (432)
I0225 04:17:12.311758 11620 net.cpp:137] Memory required for data: 774144
I0225 04:17:12.311763 11620 layer_factory.hpp:77] Creating layer h_14_lstm1_unit_14_1_split
I0225 04:17:12.311769 11620 net.cpp:84] Creating Layer h_14_lstm1_unit_14_1_split
I0225 04:17:12.311772 11620 net.cpp:406] h_14_lstm1_unit_14_1_split <- h_14
I0225 04:17:12.311780 11620 net.cpp:380] h_14_lstm1_unit_14_1_split -> h_14_lstm1_unit_14_1_split_0
I0225 04:17:12.311789 11620 net.cpp:380] h_14_lstm1_unit_14_1_split -> h_14_lstm1_unit_14_1_split_1
I0225 04:17:12.311813 11620 net.cpp:122] Setting up h_14_lstm1_unit_14_1_split
I0225 04:17:12.311820 11620 net.cpp:129] Top shape: 1 27 16 (432)
I0225 04:17:12.311836 11620 net.cpp:129] Top shape: 1 27 16 (432)
I0225 04:17:12.311841 11620 net.cpp:137] Memory required for data: 777600
I0225 04:17:12.311856 11620 layer_factory.hpp:77] Creating layer lstm1_h_conted_14
I0225 04:17:12.311863 11620 net.cpp:84] Creating Layer lstm1_h_conted_14
I0225 04:17:12.311868 11620 net.cpp:406] lstm1_h_conted_14 <- h_14_lstm1_unit_14_1_split_0
I0225 04:17:12.311873 11620 net.cpp:406] lstm1_h_conted_14 <- cont_15_lstm1_cont_slice_14_split_0
I0225 04:17:12.311895 11620 net.cpp:380] lstm1_h_conted_14 -> h_conted_14
I0225 04:17:12.311940 11620 net.cpp:122] Setting up lstm1_h_conted_14
I0225 04:17:12.311949 11620 net.cpp:129] Top shape: 1 27 16 (432)
I0225 04:17:12.311969 11620 net.cpp:137] Memory required for data: 779328
I0225 04:17:12.311974 11620 layer_factory.hpp:77] Creating layer lstm1_transform_15
I0225 04:17:12.311980 11620 net.cpp:84] Creating Layer lstm1_transform_15
I0225 04:17:12.311985 11620 net.cpp:406] lstm1_transform_15 <- h_conted_14
I0225 04:17:12.311990 11620 net.cpp:380] lstm1_transform_15 -> W_hc_h_14
I0225 04:17:12.312081 11620 net.cpp:122] Setting up lstm1_transform_15
I0225 04:17:12.312088 11620 net.cpp:129] Top shape: 1 27 64 (1728)
I0225 04:17:12.312108 11620 net.cpp:137] Memory required for data: 786240
I0225 04:17:12.312119 11620 net.cpp:465] Sharing parameters 'W_hc' owned by layer 'lstm1_transform_1', param index 0
I0225 04:17:12.312160 11620 layer_factory.hpp:77] Creating layer lstm1_gate_input_15
I0225 04:17:12.312172 11620 net.cpp:84] Creating Layer lstm1_gate_input_15
I0225 04:17:12.312178 11620 net.cpp:406] lstm1_gate_input_15 <- W_hc_h_14
I0225 04:17:12.312183 11620 net.cpp:406] lstm1_gate_input_15 <- W_xc_x_15
I0225 04:17:12.312191 11620 net.cpp:380] lstm1_gate_input_15 -> gate_input_15
I0225 04:17:12.312211 11620 net.cpp:122] Setting up lstm1_gate_input_15
I0225 04:17:12.312221 11620 net.cpp:129] Top shape: 1 27 64 (1728)
I0225 04:17:12.312225 11620 net.cpp:137] Memory required for data: 793152
I0225 04:17:12.312230 11620 layer_factory.hpp:77] Creating layer lstm1_unit_15
I0225 04:17:12.312239 11620 net.cpp:84] Creating Layer lstm1_unit_15
I0225 04:17:12.312245 11620 net.cpp:406] lstm1_unit_15 <- c_14
I0225 04:17:12.312252 11620 net.cpp:406] lstm1_unit_15 <- gate_input_15
I0225 04:17:12.312259 11620 net.cpp:406] lstm1_unit_15 <- cont_15_lstm1_cont_slice_14_split_1
I0225 04:17:12.312266 11620 net.cpp:380] lstm1_unit_15 -> c_15
I0225 04:17:12.312275 11620 net.cpp:380] lstm1_unit_15 -> h_15
I0225 04:17:12.312314 11620 net.cpp:122] Setting up lstm1_unit_15
I0225 04:17:12.312324 11620 net.cpp:129] Top shape: 1 27 16 (432)
I0225 04:17:12.312330 11620 net.cpp:129] Top shape: 1 27 16 (432)
I0225 04:17:12.312335 11620 net.cpp:137] Memory required for data: 796608
I0225 04:17:12.312341 11620 layer_factory.hpp:77] Creating layer h_15_lstm1_unit_15_1_split
I0225 04:17:12.312348 11620 net.cpp:84] Creating Layer h_15_lstm1_unit_15_1_split
I0225 04:17:12.312355 11620 net.cpp:406] h_15_lstm1_unit_15_1_split <- h_15
I0225 04:17:12.312361 11620 net.cpp:380] h_15_lstm1_unit_15_1_split -> h_15_lstm1_unit_15_1_split_0
I0225 04:17:12.312372 11620 net.cpp:380] h_15_lstm1_unit_15_1_split -> h_15_lstm1_unit_15_1_split_1
I0225 04:17:12.312399 11620 net.cpp:122] Setting up h_15_lstm1_unit_15_1_split
I0225 04:17:12.312408 11620 net.cpp:129] Top shape: 1 27 16 (432)
I0225 04:17:12.312414 11620 net.cpp:129] Top shape: 1 27 16 (432)
I0225 04:17:12.312419 11620 net.cpp:137] Memory required for data: 800064
I0225 04:17:12.312424 11620 layer_factory.hpp:77] Creating layer lstm1_h_conted_15
I0225 04:17:12.315599 11620 net.cpp:84] Creating Layer lstm1_h_conted_15
I0225 04:17:12.315616 11620 net.cpp:406] lstm1_h_conted_15 <- h_15_lstm1_unit_15_1_split_0
I0225 04:17:12.315623 11620 net.cpp:406] lstm1_h_conted_15 <- cont_16_lstm1_cont_slice_15_split_0
I0225 04:17:12.315629 11620 net.cpp:380] lstm1_h_conted_15 -> h_conted_15
I0225 04:17:12.315735 11620 net.cpp:122] Setting up lstm1_h_conted_15
I0225 04:17:12.315747 11620 net.cpp:129] Top shape: 1 27 16 (432)
I0225 04:17:12.315752 11620 net.cpp:137] Memory required for data: 801792
I0225 04:17:12.315757 11620 layer_factory.hpp:77] Creating layer lstm1_transform_16
I0225 04:17:12.315768 11620 net.cpp:84] Creating Layer lstm1_transform_16
I0225 04:17:12.315774 11620 net.cpp:406] lstm1_transform_16 <- h_conted_15
I0225 04:17:12.315796 11620 net.cpp:380] lstm1_transform_16 -> W_hc_h_15
I0225 04:17:12.315882 11620 net.cpp:122] Setting up lstm1_transform_16
I0225 04:17:12.315889 11620 net.cpp:129] Top shape: 1 27 64 (1728)
I0225 04:17:12.315892 11620 net.cpp:137] Memory required for data: 808704
I0225 04:17:12.315896 11620 net.cpp:465] Sharing parameters 'W_hc' owned by layer 'lstm1_transform_1', param index 0
I0225 04:17:12.315901 11620 layer_factory.hpp:77] Creating layer lstm1_gate_input_16
I0225 04:17:12.315906 11620 net.cpp:84] Creating Layer lstm1_gate_input_16
I0225 04:17:12.315908 11620 net.cpp:406] lstm1_gate_input_16 <- W_hc_h_15
I0225 04:17:12.315912 11620 net.cpp:406] lstm1_gate_input_16 <- W_xc_x_16
I0225 04:17:12.315918 11620 net.cpp:380] lstm1_gate_input_16 -> gate_input_16
I0225 04:17:12.315949 11620 net.cpp:122] Setting up lstm1_gate_input_16
I0225 04:17:12.315968 11620 net.cpp:129] Top shape: 1 27 64 (1728)
I0225 04:17:12.315971 11620 net.cpp:137] Memory required for data: 815616
I0225 04:17:12.315974 11620 layer_factory.hpp:77] Creating layer lstm1_unit_16
I0225 04:17:12.315989 11620 net.cpp:84] Creating Layer lstm1_unit_16
I0225 04:17:12.315994 11620 net.cpp:406] lstm1_unit_16 <- c_15
I0225 04:17:12.315999 11620 net.cpp:406] lstm1_unit_16 <- gate_input_16
I0225 04:17:12.316002 11620 net.cpp:406] lstm1_unit_16 <- cont_16_lstm1_cont_slice_15_split_1
I0225 04:17:12.316006 11620 net.cpp:380] lstm1_unit_16 -> c_16
I0225 04:17:12.316012 11620 net.cpp:380] lstm1_unit_16 -> h_16
I0225 04:17:12.316038 11620 net.cpp:122] Setting up lstm1_unit_16
I0225 04:17:12.316045 11620 net.cpp:129] Top shape: 1 27 16 (432)
I0225 04:17:12.316062 11620 net.cpp:129] Top shape: 1 27 16 (432)
I0225 04:17:12.316066 11620 net.cpp:137] Memory required for data: 819072
I0225 04:17:12.316068 11620 layer_factory.hpp:77] Creating layer h_16_lstm1_unit_16_1_split
I0225 04:17:12.316074 11620 net.cpp:84] Creating Layer h_16_lstm1_unit_16_1_split
I0225 04:17:12.316077 11620 net.cpp:406] h_16_lstm1_unit_16_1_split <- h_16
I0225 04:17:12.316082 11620 net.cpp:380] h_16_lstm1_unit_16_1_split -> h_16_lstm1_unit_16_1_split_0
I0225 04:17:12.316085 11620 net.cpp:380] h_16_lstm1_unit_16_1_split -> h_16_lstm1_unit_16_1_split_1
I0225 04:17:12.316131 11620 net.cpp:122] Setting up h_16_lstm1_unit_16_1_split
I0225 04:17:12.316136 11620 net.cpp:129] Top shape: 1 27 16 (432)
I0225 04:17:12.316153 11620 net.cpp:129] Top shape: 1 27 16 (432)
I0225 04:17:12.316155 11620 net.cpp:137] Memory required for data: 822528
I0225 04:17:12.316159 11620 layer_factory.hpp:77] Creating layer lstm1_h_conted_16
I0225 04:17:12.316177 11620 net.cpp:84] Creating Layer lstm1_h_conted_16
I0225 04:17:12.316181 11620 net.cpp:406] lstm1_h_conted_16 <- h_16_lstm1_unit_16_1_split_0
I0225 04:17:12.316186 11620 net.cpp:406] lstm1_h_conted_16 <- cont_17_lstm1_cont_slice_16_split_0
I0225 04:17:12.316191 11620 net.cpp:380] lstm1_h_conted_16 -> h_conted_16
I0225 04:17:12.316237 11620 net.cpp:122] Setting up lstm1_h_conted_16
I0225 04:17:12.316242 11620 net.cpp:129] Top shape: 1 27 16 (432)
I0225 04:17:12.316246 11620 net.cpp:137] Memory required for data: 824256
I0225 04:17:12.316248 11620 layer_factory.hpp:77] Creating layer lstm1_transform_17
I0225 04:17:12.316253 11620 net.cpp:84] Creating Layer lstm1_transform_17
I0225 04:17:12.316256 11620 net.cpp:406] lstm1_transform_17 <- h_conted_16
I0225 04:17:12.316262 11620 net.cpp:380] lstm1_transform_17 -> W_hc_h_16
I0225 04:17:12.316296 11620 net.cpp:122] Setting up lstm1_transform_17
I0225 04:17:12.316301 11620 net.cpp:129] Top shape: 1 27 64 (1728)
I0225 04:17:12.316304 11620 net.cpp:137] Memory required for data: 831168
I0225 04:17:12.316308 11620 net.cpp:465] Sharing parameters 'W_hc' owned by layer 'lstm1_transform_1', param index 0
I0225 04:17:12.316313 11620 layer_factory.hpp:77] Creating layer lstm1_gate_input_17
I0225 04:17:12.316318 11620 net.cpp:84] Creating Layer lstm1_gate_input_17
I0225 04:17:12.316323 11620 net.cpp:406] lstm1_gate_input_17 <- W_hc_h_16
I0225 04:17:12.316329 11620 net.cpp:406] lstm1_gate_input_17 <- W_xc_x_17
I0225 04:17:12.316334 11620 net.cpp:380] lstm1_gate_input_17 -> gate_input_17
I0225 04:17:12.316354 11620 net.cpp:122] Setting up lstm1_gate_input_17
I0225 04:17:12.316360 11620 net.cpp:129] Top shape: 1 27 64 (1728)
I0225 04:17:12.316364 11620 net.cpp:137] Memory required for data: 838080
I0225 04:17:12.316366 11620 layer_factory.hpp:77] Creating layer lstm1_unit_17
I0225 04:17:12.316370 11620 net.cpp:84] Creating Layer lstm1_unit_17
I0225 04:17:12.316373 11620 net.cpp:406] lstm1_unit_17 <- c_16
I0225 04:17:12.316378 11620 net.cpp:406] lstm1_unit_17 <- gate_input_17
I0225 04:17:12.316381 11620 net.cpp:406] lstm1_unit_17 <- cont_17_lstm1_cont_slice_16_split_1
I0225 04:17:12.316386 11620 net.cpp:380] lstm1_unit_17 -> c_17
I0225 04:17:12.316391 11620 net.cpp:380] lstm1_unit_17 -> h_17
I0225 04:17:12.316418 11620 net.cpp:122] Setting up lstm1_unit_17
I0225 04:17:12.316423 11620 net.cpp:129] Top shape: 1 27 16 (432)
I0225 04:17:12.316427 11620 net.cpp:129] Top shape: 1 27 16 (432)
I0225 04:17:12.316431 11620 net.cpp:137] Memory required for data: 841536
I0225 04:17:12.316439 11620 layer_factory.hpp:77] Creating layer h_17_lstm1_unit_17_1_split
I0225 04:17:12.316443 11620 net.cpp:84] Creating Layer h_17_lstm1_unit_17_1_split
I0225 04:17:12.316447 11620 net.cpp:406] h_17_lstm1_unit_17_1_split <- h_17
I0225 04:17:12.316452 11620 net.cpp:380] h_17_lstm1_unit_17_1_split -> h_17_lstm1_unit_17_1_split_0
I0225 04:17:12.316457 11620 net.cpp:380] h_17_lstm1_unit_17_1_split -> h_17_lstm1_unit_17_1_split_1
I0225 04:17:12.316474 11620 net.cpp:122] Setting up h_17_lstm1_unit_17_1_split
I0225 04:17:12.316478 11620 net.cpp:129] Top shape: 1 27 16 (432)
I0225 04:17:12.316483 11620 net.cpp:129] Top shape: 1 27 16 (432)
I0225 04:17:12.316485 11620 net.cpp:137] Memory required for data: 844992
I0225 04:17:12.316488 11620 layer_factory.hpp:77] Creating layer lstm1_h_conted_17
I0225 04:17:12.316491 11620 net.cpp:84] Creating Layer lstm1_h_conted_17
I0225 04:17:12.316495 11620 net.cpp:406] lstm1_h_conted_17 <- h_17_lstm1_unit_17_1_split_0
I0225 04:17:12.316499 11620 net.cpp:406] lstm1_h_conted_17 <- cont_18_lstm1_cont_slice_17_split_0
I0225 04:17:12.316520 11620 net.cpp:380] lstm1_h_conted_17 -> h_conted_17
I0225 04:17:12.316550 11620 net.cpp:122] Setting up lstm1_h_conted_17
I0225 04:17:12.316555 11620 net.cpp:129] Top shape: 1 27 16 (432)
I0225 04:17:12.316558 11620 net.cpp:137] Memory required for data: 846720
I0225 04:17:12.316561 11620 layer_factory.hpp:77] Creating layer lstm1_transform_18
I0225 04:17:12.316565 11620 net.cpp:84] Creating Layer lstm1_transform_18
I0225 04:17:12.316570 11620 net.cpp:406] lstm1_transform_18 <- h_conted_17
I0225 04:17:12.316575 11620 net.cpp:380] lstm1_transform_18 -> W_hc_h_17
I0225 04:17:12.316604 11620 net.cpp:122] Setting up lstm1_transform_18
I0225 04:17:12.316610 11620 net.cpp:129] Top shape: 1 27 64 (1728)
I0225 04:17:12.316613 11620 net.cpp:137] Memory required for data: 853632
I0225 04:17:12.316617 11620 net.cpp:465] Sharing parameters 'W_hc' owned by layer 'lstm1_transform_1', param index 0
I0225 04:17:12.316620 11620 layer_factory.hpp:77] Creating layer lstm1_gate_input_18
I0225 04:17:12.341768 11620 net.cpp:84] Creating Layer lstm1_gate_input_18
I0225 04:17:12.341783 11620 net.cpp:406] lstm1_gate_input_18 <- W_hc_h_17
I0225 04:17:12.341789 11620 net.cpp:406] lstm1_gate_input_18 <- W_xc_x_18
I0225 04:17:12.341794 11620 net.cpp:380] lstm1_gate_input_18 -> gate_input_18
I0225 04:17:12.341840 11620 net.cpp:122] Setting up lstm1_gate_input_18
I0225 04:17:12.341848 11620 net.cpp:129] Top shape: 1 27 64 (1728)
I0225 04:17:12.341851 11620 net.cpp:137] Memory required for data: 860544
I0225 04:17:12.341856 11620 layer_factory.hpp:77] Creating layer lstm1_unit_18
I0225 04:17:12.341861 11620 net.cpp:84] Creating Layer lstm1_unit_18
I0225 04:17:12.341864 11620 net.cpp:406] lstm1_unit_18 <- c_17
I0225 04:17:12.341868 11620 net.cpp:406] lstm1_unit_18 <- gate_input_18
I0225 04:17:12.341873 11620 net.cpp:406] lstm1_unit_18 <- cont_18_lstm1_cont_slice_17_split_1
I0225 04:17:12.341878 11620 net.cpp:380] lstm1_unit_18 -> c_18
I0225 04:17:12.341883 11620 net.cpp:380] lstm1_unit_18 -> h_18
I0225 04:17:12.341953 11620 net.cpp:122] Setting up lstm1_unit_18
I0225 04:17:12.341958 11620 net.cpp:129] Top shape: 1 27 16 (432)
I0225 04:17:12.341964 11620 net.cpp:129] Top shape: 1 27 16 (432)
I0225 04:17:12.341967 11620 net.cpp:137] Memory required for data: 864000
I0225 04:17:12.341970 11620 layer_factory.hpp:77] Creating layer h_18_lstm1_unit_18_1_split
I0225 04:17:12.341975 11620 net.cpp:84] Creating Layer h_18_lstm1_unit_18_1_split
I0225 04:17:12.341979 11620 net.cpp:406] h_18_lstm1_unit_18_1_split <- h_18
I0225 04:17:12.341984 11620 net.cpp:380] h_18_lstm1_unit_18_1_split -> h_18_lstm1_unit_18_1_split_0
I0225 04:17:12.341989 11620 net.cpp:380] h_18_lstm1_unit_18_1_split -> h_18_lstm1_unit_18_1_split_1
I0225 04:17:12.342008 11620 net.cpp:122] Setting up h_18_lstm1_unit_18_1_split
I0225 04:17:12.342013 11620 net.cpp:129] Top shape: 1 27 16 (432)
I0225 04:17:12.342016 11620 net.cpp:129] Top shape: 1 27 16 (432)
I0225 04:17:12.342020 11620 net.cpp:137] Memory required for data: 867456
I0225 04:17:12.342031 11620 layer_factory.hpp:77] Creating layer lstm1_h_conted_18
I0225 04:17:12.342037 11620 net.cpp:84] Creating Layer lstm1_h_conted_18
I0225 04:17:12.342041 11620 net.cpp:406] lstm1_h_conted_18 <- h_18_lstm1_unit_18_1_split_0
I0225 04:17:12.342046 11620 net.cpp:406] lstm1_h_conted_18 <- cont_19_lstm1_cont_slice_18_split_0
I0225 04:17:12.342051 11620 net.cpp:380] lstm1_h_conted_18 -> h_conted_18
I0225 04:17:12.342092 11620 net.cpp:122] Setting up lstm1_h_conted_18
I0225 04:17:12.342097 11620 net.cpp:129] Top shape: 1 27 16 (432)
I0225 04:17:12.342105 11620 net.cpp:137] Memory required for data: 869184
I0225 04:17:12.342111 11620 layer_factory.hpp:77] Creating layer lstm1_transform_19
I0225 04:17:12.342133 11620 net.cpp:84] Creating Layer lstm1_transform_19
I0225 04:17:12.342139 11620 net.cpp:406] lstm1_transform_19 <- h_conted_18
I0225 04:17:12.342149 11620 net.cpp:380] lstm1_transform_19 -> W_hc_h_18
I0225 04:17:12.342279 11620 net.cpp:122] Setting up lstm1_transform_19
I0225 04:17:12.342290 11620 net.cpp:129] Top shape: 1 27 64 (1728)
I0225 04:17:12.342293 11620 net.cpp:137] Memory required for data: 876096
I0225 04:17:12.342298 11620 net.cpp:465] Sharing parameters 'W_hc' owned by layer 'lstm1_transform_1', param index 0
I0225 04:17:12.342300 11620 layer_factory.hpp:77] Creating layer lstm1_gate_input_19
I0225 04:17:12.342305 11620 net.cpp:84] Creating Layer lstm1_gate_input_19
I0225 04:17:12.342309 11620 net.cpp:406] lstm1_gate_input_19 <- W_hc_h_18
I0225 04:17:12.342329 11620 net.cpp:406] lstm1_gate_input_19 <- W_xc_x_19
I0225 04:17:12.342332 11620 net.cpp:380] lstm1_gate_input_19 -> gate_input_19
I0225 04:17:12.342362 11620 net.cpp:122] Setting up lstm1_gate_input_19
I0225 04:17:12.342370 11620 net.cpp:129] Top shape: 1 27 64 (1728)
I0225 04:17:12.342372 11620 net.cpp:137] Memory required for data: 883008
I0225 04:17:12.342375 11620 layer_factory.hpp:77] Creating layer lstm1_unit_19
I0225 04:17:12.342381 11620 net.cpp:84] Creating Layer lstm1_unit_19
I0225 04:17:12.342384 11620 net.cpp:406] lstm1_unit_19 <- c_18
I0225 04:17:12.342388 11620 net.cpp:406] lstm1_unit_19 <- gate_input_19
I0225 04:17:12.342392 11620 net.cpp:406] lstm1_unit_19 <- cont_19_lstm1_cont_slice_18_split_1
I0225 04:17:12.342397 11620 net.cpp:380] lstm1_unit_19 -> c_19
I0225 04:17:12.342402 11620 net.cpp:380] lstm1_unit_19 -> h_19
I0225 04:17:12.342430 11620 net.cpp:122] Setting up lstm1_unit_19
I0225 04:17:12.342435 11620 net.cpp:129] Top shape: 1 27 16 (432)
I0225 04:17:12.342439 11620 net.cpp:129] Top shape: 1 27 16 (432)
I0225 04:17:12.342442 11620 net.cpp:137] Memory required for data: 886464
I0225 04:17:12.342445 11620 layer_factory.hpp:77] Creating layer h_19_lstm1_unit_19_1_split
I0225 04:17:12.342450 11620 net.cpp:84] Creating Layer h_19_lstm1_unit_19_1_split
I0225 04:17:12.342454 11620 net.cpp:406] h_19_lstm1_unit_19_1_split <- h_19
I0225 04:17:12.342458 11620 net.cpp:380] h_19_lstm1_unit_19_1_split -> h_19_lstm1_unit_19_1_split_0
I0225 04:17:12.342463 11620 net.cpp:380] h_19_lstm1_unit_19_1_split -> h_19_lstm1_unit_19_1_split_1
I0225 04:17:12.342484 11620 net.cpp:122] Setting up h_19_lstm1_unit_19_1_split
I0225 04:17:12.342489 11620 net.cpp:129] Top shape: 1 27 16 (432)
I0225 04:17:12.342492 11620 net.cpp:129] Top shape: 1 27 16 (432)
I0225 04:17:12.342495 11620 net.cpp:137] Memory required for data: 889920
I0225 04:17:12.342499 11620 layer_factory.hpp:77] Creating layer lstm1_h_conted_19
I0225 04:17:12.342502 11620 net.cpp:84] Creating Layer lstm1_h_conted_19
I0225 04:17:12.342506 11620 net.cpp:406] lstm1_h_conted_19 <- h_19_lstm1_unit_19_1_split_0
I0225 04:17:12.342510 11620 net.cpp:406] lstm1_h_conted_19 <- cont_20_lstm1_cont_slice_19_split_0
I0225 04:17:12.342515 11620 net.cpp:380] lstm1_h_conted_19 -> h_conted_19
I0225 04:17:12.342550 11620 net.cpp:122] Setting up lstm1_h_conted_19
I0225 04:17:12.342556 11620 net.cpp:129] Top shape: 1 27 16 (432)
I0225 04:17:12.342561 11620 net.cpp:137] Memory required for data: 891648
I0225 04:17:12.342564 11620 layer_factory.hpp:77] Creating layer lstm1_transform_20
I0225 04:17:12.342576 11620 net.cpp:84] Creating Layer lstm1_transform_20
I0225 04:17:12.342582 11620 net.cpp:406] lstm1_transform_20 <- h_conted_19
I0225 04:17:12.342589 11620 net.cpp:380] lstm1_transform_20 -> W_hc_h_19
I0225 04:17:12.342628 11620 net.cpp:122] Setting up lstm1_transform_20
I0225 04:17:12.342634 11620 net.cpp:129] Top shape: 1 27 64 (1728)
I0225 04:17:12.342638 11620 net.cpp:137] Memory required for data: 898560
I0225 04:17:12.342643 11620 net.cpp:465] Sharing parameters 'W_hc' owned by layer 'lstm1_transform_1', param index 0
I0225 04:17:12.342648 11620 layer_factory.hpp:77] Creating layer lstm1_gate_input_20
I0225 04:17:12.342653 11620 net.cpp:84] Creating Layer lstm1_gate_input_20
I0225 04:17:12.342658 11620 net.cpp:406] lstm1_gate_input_20 <- W_hc_h_19
I0225 04:17:12.342664 11620 net.cpp:406] lstm1_gate_input_20 <- W_xc_x_20
I0225 04:17:12.342669 11620 net.cpp:380] lstm1_gate_input_20 -> gate_input_20
I0225 04:17:12.342684 11620 net.cpp:122] Setting up lstm1_gate_input_20
I0225 04:17:12.342691 11620 net.cpp:129] Top shape: 1 27 64 (1728)
I0225 04:17:12.342694 11620 net.cpp:137] Memory required for data: 905472
I0225 04:17:12.342700 11620 layer_factory.hpp:77] Creating layer lstm1_unit_20
I0225 04:17:12.342705 11620 net.cpp:84] Creating Layer lstm1_unit_20
I0225 04:17:12.342710 11620 net.cpp:406] lstm1_unit_20 <- c_19
I0225 04:17:12.342715 11620 net.cpp:406] lstm1_unit_20 <- gate_input_20
I0225 04:17:12.342720 11620 net.cpp:406] lstm1_unit_20 <- cont_20_lstm1_cont_slice_19_split_1
I0225 04:17:12.342725 11620 net.cpp:380] lstm1_unit_20 -> c_20
I0225 04:17:12.342731 11620 net.cpp:380] lstm1_unit_20 -> h_20
I0225 04:17:12.342761 11620 net.cpp:122] Setting up lstm1_unit_20
I0225 04:17:12.342767 11620 net.cpp:129] Top shape: 1 27 16 (432)
I0225 04:17:12.345680 11620 net.cpp:129] Top shape: 1 27 16 (432)
I0225 04:17:12.345691 11620 net.cpp:137] Memory required for data: 908928
I0225 04:17:12.345697 11620 layer_factory.hpp:77] Creating layer h_20_lstm1_unit_20_1_split
I0225 04:17:12.345737 11620 net.cpp:84] Creating Layer h_20_lstm1_unit_20_1_split
I0225 04:17:12.345743 11620 net.cpp:406] h_20_lstm1_unit_20_1_split <- h_20
I0225 04:17:12.345749 11620 net.cpp:380] h_20_lstm1_unit_20_1_split -> h_20_lstm1_unit_20_1_split_0
I0225 04:17:12.345757 11620 net.cpp:380] h_20_lstm1_unit_20_1_split -> h_20_lstm1_unit_20_1_split_1
I0225 04:17:12.345801 11620 net.cpp:122] Setting up h_20_lstm1_unit_20_1_split
I0225 04:17:12.345808 11620 net.cpp:129] Top shape: 1 27 16 (432)
I0225 04:17:12.345813 11620 net.cpp:129] Top shape: 1 27 16 (432)
I0225 04:17:12.345815 11620 net.cpp:137] Memory required for data: 912384
I0225 04:17:12.345819 11620 layer_factory.hpp:77] Creating layer lstm1_h_conted_20
I0225 04:17:12.345826 11620 net.cpp:84] Creating Layer lstm1_h_conted_20
I0225 04:17:12.345831 11620 net.cpp:406] lstm1_h_conted_20 <- h_20_lstm1_unit_20_1_split_0
I0225 04:17:12.345837 11620 net.cpp:406] lstm1_h_conted_20 <- cont_21_lstm1_cont_slice_20_split_0
I0225 04:17:12.345844 11620 net.cpp:380] lstm1_h_conted_20 -> h_conted_20
I0225 04:17:12.345880 11620 net.cpp:122] Setting up lstm1_h_conted_20
I0225 04:17:12.345886 11620 net.cpp:129] Top shape: 1 27 16 (432)
I0225 04:17:12.345890 11620 net.cpp:137] Memory required for data: 914112
I0225 04:17:12.345893 11620 layer_factory.hpp:77] Creating layer lstm1_transform_21
I0225 04:17:12.345901 11620 net.cpp:84] Creating Layer lstm1_transform_21
I0225 04:17:12.345904 11620 net.cpp:406] lstm1_transform_21 <- h_conted_20
I0225 04:17:12.345911 11620 net.cpp:380] lstm1_transform_21 -> W_hc_h_20
I0225 04:17:12.345953 11620 net.cpp:122] Setting up lstm1_transform_21
I0225 04:17:12.345959 11620 net.cpp:129] Top shape: 1 27 64 (1728)
I0225 04:17:12.345963 11620 net.cpp:137] Memory required for data: 921024
I0225 04:17:12.345968 11620 net.cpp:465] Sharing parameters 'W_hc' owned by layer 'lstm1_transform_1', param index 0
I0225 04:17:12.345973 11620 layer_factory.hpp:77] Creating layer lstm1_gate_input_21
I0225 04:17:12.345978 11620 net.cpp:84] Creating Layer lstm1_gate_input_21
I0225 04:17:12.345983 11620 net.cpp:406] lstm1_gate_input_21 <- W_hc_h_20
I0225 04:17:12.345995 11620 net.cpp:406] lstm1_gate_input_21 <- W_xc_x_21
I0225 04:17:12.346002 11620 net.cpp:380] lstm1_gate_input_21 -> gate_input_21
I0225 04:17:12.346017 11620 net.cpp:122] Setting up lstm1_gate_input_21
I0225 04:17:12.346022 11620 net.cpp:129] Top shape: 1 27 64 (1728)
I0225 04:17:12.346026 11620 net.cpp:137] Memory required for data: 927936
I0225 04:17:12.346029 11620 layer_factory.hpp:77] Creating layer lstm1_unit_21
I0225 04:17:12.346036 11620 net.cpp:84] Creating Layer lstm1_unit_21
I0225 04:17:12.346041 11620 net.cpp:406] lstm1_unit_21 <- c_20
I0225 04:17:12.346046 11620 net.cpp:406] lstm1_unit_21 <- gate_input_21
I0225 04:17:12.346050 11620 net.cpp:406] lstm1_unit_21 <- cont_21_lstm1_cont_slice_20_split_1
I0225 04:17:12.346055 11620 net.cpp:380] lstm1_unit_21 -> c_21
I0225 04:17:12.346061 11620 net.cpp:380] lstm1_unit_21 -> h_21
I0225 04:17:12.346115 11620 net.cpp:122] Setting up lstm1_unit_21
I0225 04:17:12.346127 11620 net.cpp:129] Top shape: 1 27 16 (432)
I0225 04:17:12.346134 11620 net.cpp:129] Top shape: 1 27 16 (432)
I0225 04:17:12.346138 11620 net.cpp:137] Memory required for data: 931392
I0225 04:17:12.346143 11620 layer_factory.hpp:77] Creating layer h_21_lstm1_unit_21_1_split
I0225 04:17:12.346149 11620 net.cpp:84] Creating Layer h_21_lstm1_unit_21_1_split
I0225 04:17:12.346154 11620 net.cpp:406] h_21_lstm1_unit_21_1_split <- h_21
I0225 04:17:12.346160 11620 net.cpp:380] h_21_lstm1_unit_21_1_split -> h_21_lstm1_unit_21_1_split_0
I0225 04:17:12.346166 11620 net.cpp:380] h_21_lstm1_unit_21_1_split -> h_21_lstm1_unit_21_1_split_1
I0225 04:17:12.346201 11620 net.cpp:122] Setting up h_21_lstm1_unit_21_1_split
I0225 04:17:12.346207 11620 net.cpp:129] Top shape: 1 27 16 (432)
I0225 04:17:12.346211 11620 net.cpp:129] Top shape: 1 27 16 (432)
I0225 04:17:12.346215 11620 net.cpp:137] Memory required for data: 934848
I0225 04:17:12.346218 11620 layer_factory.hpp:77] Creating layer lstm1_h_conted_21
I0225 04:17:12.346238 11620 net.cpp:84] Creating Layer lstm1_h_conted_21
I0225 04:17:12.346242 11620 net.cpp:406] lstm1_h_conted_21 <- h_21_lstm1_unit_21_1_split_0
I0225 04:17:12.346247 11620 net.cpp:406] lstm1_h_conted_21 <- cont_22_lstm1_cont_slice_21_split_0
I0225 04:17:12.346253 11620 net.cpp:380] lstm1_h_conted_21 -> h_conted_21
I0225 04:17:12.346285 11620 net.cpp:122] Setting up lstm1_h_conted_21
I0225 04:17:12.346292 11620 net.cpp:129] Top shape: 1 27 16 (432)
I0225 04:17:12.346294 11620 net.cpp:137] Memory required for data: 936576
I0225 04:17:12.346298 11620 layer_factory.hpp:77] Creating layer lstm1_transform_22
I0225 04:17:12.346304 11620 net.cpp:84] Creating Layer lstm1_transform_22
I0225 04:17:12.346308 11620 net.cpp:406] lstm1_transform_22 <- h_conted_21
I0225 04:17:12.346313 11620 net.cpp:380] lstm1_transform_22 -> W_hc_h_21
I0225 04:17:12.346348 11620 net.cpp:122] Setting up lstm1_transform_22
I0225 04:17:12.346354 11620 net.cpp:129] Top shape: 1 27 64 (1728)
I0225 04:17:12.346356 11620 net.cpp:137] Memory required for data: 943488
I0225 04:17:12.346361 11620 net.cpp:465] Sharing parameters 'W_hc' owned by layer 'lstm1_transform_1', param index 0
I0225 04:17:12.346364 11620 layer_factory.hpp:77] Creating layer lstm1_gate_input_22
I0225 04:17:12.346371 11620 net.cpp:84] Creating Layer lstm1_gate_input_22
I0225 04:17:12.346375 11620 net.cpp:406] lstm1_gate_input_22 <- W_hc_h_21
I0225 04:17:12.346379 11620 net.cpp:406] lstm1_gate_input_22 <- W_xc_x_22
I0225 04:17:12.346385 11620 net.cpp:380] lstm1_gate_input_22 -> gate_input_22
I0225 04:17:12.346398 11620 net.cpp:122] Setting up lstm1_gate_input_22
I0225 04:17:12.346403 11620 net.cpp:129] Top shape: 1 27 64 (1728)
I0225 04:17:12.346406 11620 net.cpp:137] Memory required for data: 950400
I0225 04:17:12.346410 11620 layer_factory.hpp:77] Creating layer lstm1_unit_22
I0225 04:17:12.346415 11620 net.cpp:84] Creating Layer lstm1_unit_22
I0225 04:17:12.346420 11620 net.cpp:406] lstm1_unit_22 <- c_21
I0225 04:17:12.346423 11620 net.cpp:406] lstm1_unit_22 <- gate_input_22
I0225 04:17:12.346428 11620 net.cpp:406] lstm1_unit_22 <- cont_22_lstm1_cont_slice_21_split_1
I0225 04:17:12.346442 11620 net.cpp:380] lstm1_unit_22 -> c_22
I0225 04:17:12.346448 11620 net.cpp:380] lstm1_unit_22 -> h_22
I0225 04:17:12.346473 11620 net.cpp:122] Setting up lstm1_unit_22
I0225 04:17:12.346479 11620 net.cpp:129] Top shape: 1 27 16 (432)
I0225 04:17:12.346483 11620 net.cpp:129] Top shape: 1 27 16 (432)
I0225 04:17:12.346487 11620 net.cpp:137] Memory required for data: 953856
I0225 04:17:12.346490 11620 layer_factory.hpp:77] Creating layer h_22_lstm1_unit_22_1_split
I0225 04:17:12.346495 11620 net.cpp:84] Creating Layer h_22_lstm1_unit_22_1_split
I0225 04:17:12.346499 11620 net.cpp:406] h_22_lstm1_unit_22_1_split <- h_22
I0225 04:17:12.346504 11620 net.cpp:380] h_22_lstm1_unit_22_1_split -> h_22_lstm1_unit_22_1_split_0
I0225 04:17:12.346509 11620 net.cpp:380] h_22_lstm1_unit_22_1_split -> h_22_lstm1_unit_22_1_split_1
I0225 04:17:12.346534 11620 net.cpp:122] Setting up h_22_lstm1_unit_22_1_split
I0225 04:17:12.346539 11620 net.cpp:129] Top shape: 1 27 16 (432)
I0225 04:17:12.346544 11620 net.cpp:129] Top shape: 1 27 16 (432)
I0225 04:17:12.346547 11620 net.cpp:137] Memory required for data: 957312
I0225 04:17:12.346550 11620 layer_factory.hpp:77] Creating layer lstm1_h_conted_22
I0225 04:17:12.346556 11620 net.cpp:84] Creating Layer lstm1_h_conted_22
I0225 04:17:12.346560 11620 net.cpp:406] lstm1_h_conted_22 <- h_22_lstm1_unit_22_1_split_0
I0225 04:17:12.346565 11620 net.cpp:406] lstm1_h_conted_22 <- cont_23_lstm1_cont_slice_22_split_0
I0225 04:17:12.346570 11620 net.cpp:380] lstm1_h_conted_22 -> h_conted_22
I0225 04:17:12.346604 11620 net.cpp:122] Setting up lstm1_h_conted_22
I0225 04:17:12.346611 11620 net.cpp:129] Top shape: 1 27 16 (432)
I0225 04:17:12.346613 11620 net.cpp:137] Memory required for data: 959040
I0225 04:17:12.346617 11620 layer_factory.hpp:77] Creating layer lstm1_transform_23
I0225 04:17:12.346624 11620 net.cpp:84] Creating Layer lstm1_transform_23
I0225 04:17:12.346628 11620 net.cpp:406] lstm1_transform_23 <- h_conted_22
I0225 04:17:12.372799 11620 net.cpp:380] lstm1_transform_23 -> W_hc_h_22
I0225 04:17:12.372907 11620 net.cpp:122] Setting up lstm1_transform_23
I0225 04:17:12.372916 11620 net.cpp:129] Top shape: 1 27 64 (1728)
I0225 04:17:12.372920 11620 net.cpp:137] Memory required for data: 965952
I0225 04:17:12.372925 11620 net.cpp:465] Sharing parameters 'W_hc' owned by layer 'lstm1_transform_1', param index 0
I0225 04:17:12.372928 11620 layer_factory.hpp:77] Creating layer lstm1_gate_input_23
I0225 04:17:12.372936 11620 net.cpp:84] Creating Layer lstm1_gate_input_23
I0225 04:17:12.372938 11620 net.cpp:406] lstm1_gate_input_23 <- W_hc_h_22
I0225 04:17:12.372944 11620 net.cpp:406] lstm1_gate_input_23 <- W_xc_x_23
I0225 04:17:12.372954 11620 net.cpp:380] lstm1_gate_input_23 -> gate_input_23
I0225 04:17:12.372997 11620 net.cpp:122] Setting up lstm1_gate_input_23
I0225 04:17:12.373003 11620 net.cpp:129] Top shape: 1 27 64 (1728)
I0225 04:17:12.373008 11620 net.cpp:137] Memory required for data: 972864
I0225 04:17:12.373023 11620 layer_factory.hpp:77] Creating layer lstm1_unit_23
I0225 04:17:12.373029 11620 net.cpp:84] Creating Layer lstm1_unit_23
I0225 04:17:12.373049 11620 net.cpp:406] lstm1_unit_23 <- c_22
I0225 04:17:12.373054 11620 net.cpp:406] lstm1_unit_23 <- gate_input_23
I0225 04:17:12.373057 11620 net.cpp:406] lstm1_unit_23 <- cont_23_lstm1_cont_slice_22_split_1
I0225 04:17:12.373062 11620 net.cpp:380] lstm1_unit_23 -> c_23
I0225 04:17:12.373069 11620 net.cpp:380] lstm1_unit_23 -> h_23
I0225 04:17:12.373109 11620 net.cpp:122] Setting up lstm1_unit_23
I0225 04:17:12.373113 11620 net.cpp:129] Top shape: 1 27 16 (432)
I0225 04:17:12.373117 11620 net.cpp:129] Top shape: 1 27 16 (432)
I0225 04:17:12.373121 11620 net.cpp:137] Memory required for data: 976320
I0225 04:17:12.373123 11620 layer_factory.hpp:77] Creating layer h_23_lstm1_unit_23_1_split
I0225 04:17:12.373128 11620 net.cpp:84] Creating Layer h_23_lstm1_unit_23_1_split
I0225 04:17:12.373131 11620 net.cpp:406] h_23_lstm1_unit_23_1_split <- h_23
I0225 04:17:12.373144 11620 net.cpp:380] h_23_lstm1_unit_23_1_split -> h_23_lstm1_unit_23_1_split_0
I0225 04:17:12.373149 11620 net.cpp:380] h_23_lstm1_unit_23_1_split -> h_23_lstm1_unit_23_1_split_1
I0225 04:17:12.373168 11620 net.cpp:122] Setting up h_23_lstm1_unit_23_1_split
I0225 04:17:12.373173 11620 net.cpp:129] Top shape: 1 27 16 (432)
I0225 04:17:12.373176 11620 net.cpp:129] Top shape: 1 27 16 (432)
I0225 04:17:12.373179 11620 net.cpp:137] Memory required for data: 979776
I0225 04:17:12.373183 11620 layer_factory.hpp:77] Creating layer lstm1_h_conted_23
I0225 04:17:12.373188 11620 net.cpp:84] Creating Layer lstm1_h_conted_23
I0225 04:17:12.373191 11620 net.cpp:406] lstm1_h_conted_23 <- h_23_lstm1_unit_23_1_split_0
I0225 04:17:12.373195 11620 net.cpp:406] lstm1_h_conted_23 <- cont_24_lstm1_cont_slice_23_split_0
I0225 04:17:12.373203 11620 net.cpp:380] lstm1_h_conted_23 -> h_conted_23
I0225 04:17:12.373237 11620 net.cpp:122] Setting up lstm1_h_conted_23
I0225 04:17:12.373241 11620 net.cpp:129] Top shape: 1 27 16 (432)
I0225 04:17:12.373245 11620 net.cpp:137] Memory required for data: 981504
I0225 04:17:12.373247 11620 layer_factory.hpp:77] Creating layer lstm1_transform_24
I0225 04:17:12.373252 11620 net.cpp:84] Creating Layer lstm1_transform_24
I0225 04:17:12.373256 11620 net.cpp:406] lstm1_transform_24 <- h_conted_23
I0225 04:17:12.373261 11620 net.cpp:380] lstm1_transform_24 -> W_hc_h_23
I0225 04:17:12.373296 11620 net.cpp:122] Setting up lstm1_transform_24
I0225 04:17:12.373314 11620 net.cpp:129] Top shape: 1 27 64 (1728)
I0225 04:17:12.373317 11620 net.cpp:137] Memory required for data: 988416
I0225 04:17:12.373320 11620 net.cpp:465] Sharing parameters 'W_hc' owned by layer 'lstm1_transform_1', param index 0
I0225 04:17:12.373324 11620 layer_factory.hpp:77] Creating layer lstm1_gate_input_24
I0225 04:17:12.373328 11620 net.cpp:84] Creating Layer lstm1_gate_input_24
I0225 04:17:12.373332 11620 net.cpp:406] lstm1_gate_input_24 <- W_hc_h_23
I0225 04:17:12.373337 11620 net.cpp:406] lstm1_gate_input_24 <- W_xc_x_24
I0225 04:17:12.373340 11620 net.cpp:380] lstm1_gate_input_24 -> gate_input_24
I0225 04:17:12.373384 11620 net.cpp:122] Setting up lstm1_gate_input_24
I0225 04:17:12.373389 11620 net.cpp:129] Top shape: 1 27 64 (1728)
I0225 04:17:12.373392 11620 net.cpp:137] Memory required for data: 995328
I0225 04:17:12.373395 11620 layer_factory.hpp:77] Creating layer lstm1_unit_24
I0225 04:17:12.373400 11620 net.cpp:84] Creating Layer lstm1_unit_24
I0225 04:17:12.373405 11620 net.cpp:406] lstm1_unit_24 <- c_23
I0225 04:17:12.373425 11620 net.cpp:406] lstm1_unit_24 <- gate_input_24
I0225 04:17:12.373432 11620 net.cpp:406] lstm1_unit_24 <- cont_24_lstm1_cont_slice_23_split_1
I0225 04:17:12.373440 11620 net.cpp:380] lstm1_unit_24 -> c_24
I0225 04:17:12.373448 11620 net.cpp:380] lstm1_unit_24 -> h_24
I0225 04:17:12.373507 11620 net.cpp:122] Setting up lstm1_unit_24
I0225 04:17:12.373513 11620 net.cpp:129] Top shape: 1 27 16 (432)
I0225 04:17:12.373517 11620 net.cpp:129] Top shape: 1 27 16 (432)
I0225 04:17:12.373520 11620 net.cpp:137] Memory required for data: 998784
I0225 04:17:12.373523 11620 layer_factory.hpp:77] Creating layer h_24_lstm1_unit_24_1_split
I0225 04:17:12.373528 11620 net.cpp:84] Creating Layer h_24_lstm1_unit_24_1_split
I0225 04:17:12.373533 11620 net.cpp:406] h_24_lstm1_unit_24_1_split <- h_24
I0225 04:17:12.373536 11620 net.cpp:380] h_24_lstm1_unit_24_1_split -> h_24_lstm1_unit_24_1_split_0
I0225 04:17:12.373541 11620 net.cpp:380] h_24_lstm1_unit_24_1_split -> h_24_lstm1_unit_24_1_split_1
I0225 04:17:12.373559 11620 net.cpp:122] Setting up h_24_lstm1_unit_24_1_split
I0225 04:17:12.373564 11620 net.cpp:129] Top shape: 1 27 16 (432)
I0225 04:17:12.373567 11620 net.cpp:129] Top shape: 1 27 16 (432)
I0225 04:17:12.373570 11620 net.cpp:137] Memory required for data: 1002240
I0225 04:17:12.373574 11620 layer_factory.hpp:77] Creating layer lstm1_h_conted_24
I0225 04:17:12.373579 11620 net.cpp:84] Creating Layer lstm1_h_conted_24
I0225 04:17:12.373581 11620 net.cpp:406] lstm1_h_conted_24 <- h_24_lstm1_unit_24_1_split_0
I0225 04:17:12.373592 11620 net.cpp:406] lstm1_h_conted_24 <- cont_25_lstm1_cont_slice_24_split_0
I0225 04:17:12.373597 11620 net.cpp:380] lstm1_h_conted_24 -> h_conted_24
I0225 04:17:12.373630 11620 net.cpp:122] Setting up lstm1_h_conted_24
I0225 04:17:12.373634 11620 net.cpp:129] Top shape: 1 27 16 (432)
I0225 04:17:12.373637 11620 net.cpp:137] Memory required for data: 1003968
I0225 04:17:12.373641 11620 layer_factory.hpp:77] Creating layer lstm1_transform_25
I0225 04:17:12.373644 11620 net.cpp:84] Creating Layer lstm1_transform_25
I0225 04:17:12.373648 11620 net.cpp:406] lstm1_transform_25 <- h_conted_24
I0225 04:17:12.373653 11620 net.cpp:380] lstm1_transform_25 -> W_hc_h_24
I0225 04:17:12.373685 11620 net.cpp:122] Setting up lstm1_transform_25
I0225 04:17:12.373690 11620 net.cpp:129] Top shape: 1 27 64 (1728)
I0225 04:17:12.373693 11620 net.cpp:137] Memory required for data: 1010880
I0225 04:17:12.373697 11620 net.cpp:465] Sharing parameters 'W_hc' owned by layer 'lstm1_transform_1', param index 0
I0225 04:17:12.373700 11620 layer_factory.hpp:77] Creating layer lstm1_gate_input_25
I0225 04:17:12.373705 11620 net.cpp:84] Creating Layer lstm1_gate_input_25
I0225 04:17:12.373708 11620 net.cpp:406] lstm1_gate_input_25 <- W_hc_h_24
I0225 04:17:12.373713 11620 net.cpp:406] lstm1_gate_input_25 <- W_xc_x_25
I0225 04:17:12.373716 11620 net.cpp:380] lstm1_gate_input_25 -> gate_input_25
I0225 04:17:12.373729 11620 net.cpp:122] Setting up lstm1_gate_input_25
I0225 04:17:12.373733 11620 net.cpp:129] Top shape: 1 27 64 (1728)
I0225 04:17:12.373736 11620 net.cpp:137] Memory required for data: 1017792
I0225 04:17:12.373739 11620 layer_factory.hpp:77] Creating layer lstm1_unit_25
I0225 04:17:12.373744 11620 net.cpp:84] Creating Layer lstm1_unit_25
I0225 04:17:12.376742 11620 net.cpp:406] lstm1_unit_25 <- c_24
I0225 04:17:12.376756 11620 net.cpp:406] lstm1_unit_25 <- gate_input_25
I0225 04:17:12.376761 11620 net.cpp:406] lstm1_unit_25 <- cont_25_lstm1_cont_slice_24_split_1
I0225 04:17:12.376770 11620 net.cpp:380] lstm1_unit_25 -> c_25
I0225 04:17:12.376778 11620 net.cpp:380] lstm1_unit_25 -> h_25
I0225 04:17:12.376828 11620 net.cpp:122] Setting up lstm1_unit_25
I0225 04:17:12.376835 11620 net.cpp:129] Top shape: 1 27 16 (432)
I0225 04:17:12.376839 11620 net.cpp:129] Top shape: 1 27 16 (432)
I0225 04:17:12.376842 11620 net.cpp:137] Memory required for data: 1021248
I0225 04:17:12.376847 11620 layer_factory.hpp:77] Creating layer h_25_lstm1_unit_25_1_split
I0225 04:17:12.376852 11620 net.cpp:84] Creating Layer h_25_lstm1_unit_25_1_split
I0225 04:17:12.376855 11620 net.cpp:406] h_25_lstm1_unit_25_1_split <- h_25
I0225 04:17:12.376863 11620 net.cpp:380] h_25_lstm1_unit_25_1_split -> h_25_lstm1_unit_25_1_split_0
I0225 04:17:12.376871 11620 net.cpp:380] h_25_lstm1_unit_25_1_split -> h_25_lstm1_unit_25_1_split_1
I0225 04:17:12.376901 11620 net.cpp:122] Setting up h_25_lstm1_unit_25_1_split
I0225 04:17:12.376909 11620 net.cpp:129] Top shape: 1 27 16 (432)
I0225 04:17:12.376916 11620 net.cpp:129] Top shape: 1 27 16 (432)
I0225 04:17:12.376963 11620 net.cpp:137] Memory required for data: 1024704
I0225 04:17:12.376972 11620 layer_factory.hpp:77] Creating layer lstm1_h_conted_25
I0225 04:17:12.376981 11620 net.cpp:84] Creating Layer lstm1_h_conted_25
I0225 04:17:12.376986 11620 net.cpp:406] lstm1_h_conted_25 <- h_25_lstm1_unit_25_1_split_0
I0225 04:17:12.376991 11620 net.cpp:406] lstm1_h_conted_25 <- cont_26_lstm1_cont_slice_25_split_0
I0225 04:17:12.376996 11620 net.cpp:380] lstm1_h_conted_25 -> h_conted_25
I0225 04:17:12.377039 11620 net.cpp:122] Setting up lstm1_h_conted_25
I0225 04:17:12.377044 11620 net.cpp:129] Top shape: 1 27 16 (432)
I0225 04:17:12.377048 11620 net.cpp:137] Memory required for data: 1026432
I0225 04:17:12.377051 11620 layer_factory.hpp:77] Creating layer lstm1_transform_26
I0225 04:17:12.377058 11620 net.cpp:84] Creating Layer lstm1_transform_26
I0225 04:17:12.377060 11620 net.cpp:406] lstm1_transform_26 <- h_conted_25
I0225 04:17:12.377065 11620 net.cpp:380] lstm1_transform_26 -> W_hc_h_25
I0225 04:17:12.377106 11620 net.cpp:122] Setting up lstm1_transform_26
I0225 04:17:12.377121 11620 net.cpp:129] Top shape: 1 27 64 (1728)
I0225 04:17:12.377125 11620 net.cpp:137] Memory required for data: 1033344
I0225 04:17:12.377128 11620 net.cpp:465] Sharing parameters 'W_hc' owned by layer 'lstm1_transform_1', param index 0
I0225 04:17:12.377132 11620 layer_factory.hpp:77] Creating layer lstm1_gate_input_26
I0225 04:17:12.377138 11620 net.cpp:84] Creating Layer lstm1_gate_input_26
I0225 04:17:12.377142 11620 net.cpp:406] lstm1_gate_input_26 <- W_hc_h_25
I0225 04:17:12.377147 11620 net.cpp:406] lstm1_gate_input_26 <- W_xc_x_26
I0225 04:17:12.377151 11620 net.cpp:380] lstm1_gate_input_26 -> gate_input_26
I0225 04:17:12.377166 11620 net.cpp:122] Setting up lstm1_gate_input_26
I0225 04:17:12.377171 11620 net.cpp:129] Top shape: 1 27 64 (1728)
I0225 04:17:12.377173 11620 net.cpp:137] Memory required for data: 1040256
I0225 04:17:12.377177 11620 layer_factory.hpp:77] Creating layer lstm1_unit_26
I0225 04:17:12.377182 11620 net.cpp:84] Creating Layer lstm1_unit_26
I0225 04:17:12.377184 11620 net.cpp:406] lstm1_unit_26 <- c_25
I0225 04:17:12.377188 11620 net.cpp:406] lstm1_unit_26 <- gate_input_26
I0225 04:17:12.377192 11620 net.cpp:406] lstm1_unit_26 <- cont_26_lstm1_cont_slice_25_split_1
I0225 04:17:12.377198 11620 net.cpp:380] lstm1_unit_26 -> c_26
I0225 04:17:12.377203 11620 net.cpp:380] lstm1_unit_26 -> h_26
I0225 04:17:12.377228 11620 net.cpp:122] Setting up lstm1_unit_26
I0225 04:17:12.377231 11620 net.cpp:129] Top shape: 1 27 16 (432)
I0225 04:17:12.377235 11620 net.cpp:129] Top shape: 1 27 16 (432)
I0225 04:17:12.377238 11620 net.cpp:137] Memory required for data: 1043712
I0225 04:17:12.377241 11620 layer_factory.hpp:77] Creating layer h_26_lstm1_unit_26_1_split
I0225 04:17:12.377245 11620 net.cpp:84] Creating Layer h_26_lstm1_unit_26_1_split
I0225 04:17:12.377249 11620 net.cpp:406] h_26_lstm1_unit_26_1_split <- h_26
I0225 04:17:12.377254 11620 net.cpp:380] h_26_lstm1_unit_26_1_split -> h_26_lstm1_unit_26_1_split_0
I0225 04:17:12.377259 11620 net.cpp:380] h_26_lstm1_unit_26_1_split -> h_26_lstm1_unit_26_1_split_1
I0225 04:17:12.377276 11620 net.cpp:122] Setting up h_26_lstm1_unit_26_1_split
I0225 04:17:12.377281 11620 net.cpp:129] Top shape: 1 27 16 (432)
I0225 04:17:12.377285 11620 net.cpp:129] Top shape: 1 27 16 (432)
I0225 04:17:12.377287 11620 net.cpp:137] Memory required for data: 1047168
I0225 04:17:12.377291 11620 layer_factory.hpp:77] Creating layer lstm1_h_conted_26
I0225 04:17:12.377295 11620 net.cpp:84] Creating Layer lstm1_h_conted_26
I0225 04:17:12.377300 11620 net.cpp:406] lstm1_h_conted_26 <- h_26_lstm1_unit_26_1_split_0
I0225 04:17:12.377303 11620 net.cpp:406] lstm1_h_conted_26 <- cont_27_lstm1_cont_slice_26_split_0
…
I0225 04:17:12.377383 11620 net.cpp:406] lstm1_transform_27 <- h_conted_26
I0225 04:17:12.377388 11620 net.cpp:380] lstm1_transform_27 -> W_hc_h_26
I0225 04:17:12.377424 11620 net.cpp:122] Setting up lstm1_transform_27
I0225 04:17:12.377429 11620 net.cpp:129] Top shape: 1 27 64 (1728)
I0225 04:17:12.377432 11620 net.cpp:137] Memory required for data: 1055808
I0225 04:17:12.377435 11620 net.cpp:465] Sharing parameters 'W_hc' owned by layer 'lstm1_transform_1', param index 0
I0225 04:17:12.377439 11620 layer_factory.hpp:77] Creating layer lstm1_gate_input_27
I0225 04:17:12.377444 11620 net.cpp:84] Creating Layer lstm1_gate_input_27
I0225 04:17:12.377447 11620 net.cpp:406] lstm1_gate_input_27 <- W_hc_h_26
I0225 04:17:12.377451 11620 net.cpp:406] lstm1_gate_input_27 <- W_xc_x_27
I0225 04:17:12.377456 11620 net.cpp:380] lstm1_gate_input_27 -> gate_input_27
I0225 04:17:12.377470 11620 net.cpp:122] Setting up lstm1_gate_input_27
I0225 04:17:12.377480 11620 net.cpp:129] Top shape: 1 27 64 (1728)
I0225 04:17:12.377482 11620 net.cpp:137] Memory required for data: 1062720
I0225 04:17:12.377485 11620 layer_factory.hpp:77] Creating layer lstm1_unit_27
I0225 04:17:12.377490 11620 net.cpp:84] Creating Layer lstm1_unit_27
I0225 04:17:12.377493 11620 net.cpp:406] lstm1_unit_27 <- c_26
I0225 04:17:12.377497 11620 net.cpp:406] lstm1_unit_27 <- gate_input_27
I0225 04:17:12.377501 11620 net.cpp:406] lstm1_unit_27 <- cont_27_lstm1_cont_slice_26_split_1
I0225 04:17:12.377506 11620 net.cpp:380] lstm1_unit_27 -> c_27
I0225 04:17:12.377511 11620 net.cpp:380] lstm1_unit_27 -> h_27
I0225 04:17:12.377534 11620 net.cpp:122] Setting up lstm1_unit_27
I0225 04:17:12.377539 11620 net.cpp:129] Top shape: 1 27 16 (432)
I0225 04:17:12.377542 11620 net.cpp:129] Top shape: 1 27 16 (432)
I0225 04:17:12.377545 11620 net.cpp:137] Memory required for data: 1066176
I0225 04:17:12.377548 11620 layer_factory.hpp:77] Creating layer h_27_lstm1_unit_27_1_split
I0225 04:17:12.377552 11620 net.cpp:84] Creating Layer h_27_lstm1_unit_27_1_split
I0225 04:17:12.377555 11620 net.cpp:406] h_27_lstm1_unit_27_1_split <- h_27
I0225 04:17:12.377559 11620 net.cpp:380] h_27_lstm1_unit_27_1_split -> h_27_lstm1_unit_27_1_split_0
I0225 04:17:12.377564 11620 net.cpp:380] h_27_lstm1_unit_27_1_split -> h_27_lstm1_unit_27_1_split_1
I0225 04:17:12.377583 11620 net.cpp:122] Setting up h_27_lstm1_unit_27_1_split
I0225 04:17:12.377586 11620 net.cpp:129] Top shape: 1 27 16 (432)
I0225 04:17:12.377590 11620 net.cpp:129] Top shape: 1 27 16 (432)
I0225 04:17:12.403972 11620 net.cpp:137] Memory required for data: 1069632
I0225 04:17:12.404000 11620 layer_factory.hpp:77] Creating layer lstm1_h_conted_27
I0225 04:17:12.404008 11620 net.cpp:84] Creating Layer lstm1_h_conted_27
I0225 04:17:12.404014 11620 net.cpp:406] lstm1_h_conted_27 <- h_27_lstm1_unit_27_1_split_0
I0225 04:17:12.404021 11620 net.cpp:406] lstm1_h_conted_27 <- cont_28_lstm1_cont_slice_27_split_0
I0225 04:17:12.404029 11620 net.cpp:380] lstm1_h_conted_27 -> h_conted_27
I0225 04:17:12.404103 11620 net.cpp:122] Setting up lstm1_h_conted_27
I0225 04:17:12.404109 11620 net.cpp:129] Top shape: 1 27 16 (432)
I0225 04:17:12.404114 11620 net.cpp:137] Memory required for data: 1071360
I0225 04:17:12.404119 11620 layer_factory.hpp:77] Creating layer lstm1_transform_28
I0225 04:17:12.404129 11620 net.cpp:84] Creating Layer lstm1_transform_28
I0225 04:17:12.404134 11620 net.cpp:406] lstm1_transform_28 <- h_conted_27
I0225 04:17:12.404144 11620 net.cpp:380] lstm1_transform_28 -> W_hc_h_27
I0225 04:17:12.404412 11620 net.cpp:122] Setting up lstm1_transform_28
I0225 04:17:12.404425 11620 net.cpp:129] Top shape: 1 27 64 (1728)
I0225 04:17:12.404430 11620 net.cpp:137] Memory required for data: 1078272
I0225 04:17:12.404436 11620 net.cpp:465] Sharing parameters 'W_hc' owned by layer 'lstm1_transform_1', param index 0
I0225 04:17:12.404443 11620 layer_factory.hpp:77] Creating layer lstm1_gate_input_28
I0225 04:17:12.404451 11620 net.cpp:84] Creating Layer lstm1_gate_input_28
I0225 04:17:12.404456 11620 net.cpp:406] lstm1_gate_input_28 <- W_hc_h_27
I0225 04:17:12.404464 11620 net.cpp:406] lstm1_gate_input_28 <- W_xc_x_28
I0225 04:17:12.404472 11620 net.cpp:380] lstm1_gate_input_28 -> gate_input_28
I0225 04:17:12.404497 11620 net.cpp:122] Setting up lstm1_gate_input_28
I0225 04:17:12.404505 11620 net.cpp:129] Top shape: 1 27 64 (1728)
I0225 04:17:12.404510 11620 net.cpp:137] Memory required for data: 1085184
I0225 04:17:12.404515 11620 layer_factory.hpp:77] Creating layer lstm1_unit_28
I0225 04:17:12.404522 11620 net.cpp:84] Creating Layer lstm1_unit_28
I0225 04:17:12.404528 11620 net.cpp:406] lstm1_unit_28 <- c_27
I0225 04:17:12.404536 11620 net.cpp:406] lstm1_unit_28 <- gate_input_28
I0225 04:17:12.404541 11620 net.cpp:406] lstm1_unit_28 <- cont_28_lstm1_cont_slice_27_split_1
I0225 04:17:12.404548 11620 net.cpp:380] lstm1_unit_28 -> c_28
I0225 04:17:12.404556 11620 net.cpp:380] lstm1_unit_28 -> h_28
I0225 04:17:12.404595 11620 net.cpp:122] Setting up lstm1_unit_28
I0225 04:17:12.404613 11620 net.cpp:129] Top shape: 1 27 16 (432)
I0225 04:17:12.404619 11620 net.cpp:129] Top shape: 1 27 16 (432)
I0225 04:17:12.404624 11620 net.cpp:137] Memory required for data: 1088640
I0225 04:17:12.404629 11620 layer_factory.hpp:77] Creating layer h_28_lstm1_unit_28_1_split
I0225 04:17:12.404636 11620 net.cpp:84] Creating Layer h_28_lstm1_unit_28_1_split
I0225 04:17:12.404642 11620 net.cpp:406] h_28_lstm1_unit_28_1_split <- h_28
I0225 04:17:12.404649 11620 net.cpp:380] h_28_lstm1_unit_28_1_split -> h_28_lstm1_unit_28_1_split_0
I0225 04:17:12.404656 11620 net.cpp:380] h_28_lstm1_unit_28_1_split -> h_28_lstm1_unit_28_1_split_1
I0225 04:17:12.404685 11620 net.cpp:122] Setting up h_28_lstm1_unit_28_1_split
I0225 04:17:12.404692 11620 net.cpp:129] Top shape: 1 27 16 (432)
I0225 04:17:12.404698 11620 net.cpp:129] Top shape: 1 27 16 (432)
I0225 04:17:12.404703 11620 net.cpp:137] Memory required for data: 1092096
I0225 04:17:12.404707 11620 layer_factory.hpp:77] Creating layer lstm1_h_conted_28
I0225 04:17:12.404714 11620 net.cpp:84] Creating Layer lstm1_h_conted_28
I0225 04:17:12.404719 11620 net.cpp:406] lstm1_h_conted_28 <- h_28_lstm1_unit_28_1_split_0
I0225 04:17:12.404727 11620 net.cpp:406] lstm1_h_conted_28 <- cont_29_lstm1_cont_slice_28_split_0
I0225 04:17:12.404734 11620 net.cpp:380] lstm1_h_conted_28 -> h_conted_28
I0225 04:17:12.404785 11620 net.cpp:122] Setting up lstm1_h_conted_28
I0225 04:17:12.404793 11620 net.cpp:129] Top shape: 1 27 16 (432)
I0225 04:17:12.404798 11620 net.cpp:137] Memory required for data: 1093824
I0225 04:17:12.404803 11620 layer_factory.hpp:77] Creating layer lstm1_transform_29
I0225 04:17:12.404810 11620 net.cpp:84] Creating Layer lstm1_transform_29
I0225 04:17:12.404815 11620 net.cpp:406] lstm1_transform_29 <- h_conted_28
I0225 04:17:12.404824 11620 net.cpp:380] lstm1_transform_29 -> W_hc_h_28
I0225 04:17:12.404911 11620 net.cpp:122] Setting up lstm1_transform_29
I0225 04:17:12.404923 11620 net.cpp:129] Top shape: 1 27 64 (1728)
I0225 04:17:12.404930 11620 net.cpp:137] Memory required for data: 1100736
I0225 04:17:12.404937 11620 net.cpp:465] Sharing parameters 'W_hc' owned by layer 'lstm1_transform_1', param index 0
I0225 04:17:12.404945 11620 layer_factory.hpp:77] Creating layer lstm1_gate_input_29
I0225 04:17:12.404953 11620 net.cpp:84] Creating Layer lstm1_gate_input_29
I0225 04:17:12.404961 11620 net.cpp:406] lstm1_gate_input_29 <- W_hc_h_28
I0225 04:17:12.404969 11620 net.cpp:406] lstm1_gate_input_29 <- W_xc_x_29
I0225 04:17:12.404978 11620 net.cpp:380] lstm1_gate_input_29 -> gate_input_29
I0225 04:17:12.405000 11620 net.cpp:122] Setting up lstm1_gate_input_29
I0225 04:17:12.405007 11620 net.cpp:129] Top shape: 1 27 64 (1728)
I0225 04:17:12.405012 11620 net.cpp:137] Memory required for data: 1107648
I0225 04:17:12.405016 11620 layer_factory.hpp:77] Creating layer lstm1_unit_29
I0225 04:17:12.405025 11620 net.cpp:84] Creating Layer lstm1_unit_29
I0225 04:17:12.405030 11620 net.cpp:406] lstm1_unit_29 <- c_28
I0225 04:17:12.405036 11620 net.cpp:406] lstm1_unit_29 <- gate_input_29
I0225 04:17:12.405042 11620 net.cpp:406] lstm1_unit_29 <- cont_29_lstm1_cont_slice_28_split_1
I0225 04:17:12.405050 11620 net.cpp:380] lstm1_unit_29 -> c_29
I0225 04:17:12.405057 11620 net.cpp:380] lstm1_unit_29 -> h_29
I0225 04:17:12.405094 11620 net.cpp:122] Setting up lstm1_unit_29
I0225 04:17:12.405102 11620 net.cpp:129] Top shape: 1 27 16 (432)
I0225 04:17:12.405108 11620 net.cpp:129] Top shape: 1 27 16 (432)
I0225 04:17:12.405113 11620 net.cpp:137] Memory required for data: 1111104
I0225 04:17:12.405118 11620 layer_factory.hpp:77] Creating layer h_29_lstm1_unit_29_1_split
I0225 04:17:12.405125 11620 net.cpp:84] Creating Layer h_29_lstm1_unit_29_1_split
I0225 04:17:12.405130 11620 net.cpp:406] h_29_lstm1_unit_29_1_split <- h_29
I0225 04:17:12.405139 11620 net.cpp:380] h_29_lstm1_unit_29_1_split -> h_29_lstm1_unit_29_1_split_0
I0225 04:17:12.405148 11620 net.cpp:380] h_29_lstm1_unit_29_1_split -> h_29_lstm1_unit_29_1_split_1
I0225 04:17:12.405174 11620 net.cpp:122] Setting up h_29_lstm1_unit_29_1_split
I0225 04:17:12.405190 11620 net.cpp:129] Top shape: 1 27 16 (432)
I0225 04:17:12.405196 11620 net.cpp:129] Top shape: 1 27 16 (432)
I0225 04:17:12.405201 11620 net.cpp:137] Memory required for data: 1114560
I0225 04:17:12.405206 11620 layer_factory.hpp:77] Creating layer lstm1_h_conted_29
I0225 04:17:12.405212 11620 net.cpp:84] Creating Layer lstm1_h_conted_29
I0225 04:17:12.405218 11620 net.cpp:406] lstm1_h_conted_29 <- h_29_lstm1_unit_29_1_split_0
I0225 04:17:12.405225 11620 net.cpp:406] lstm1_h_conted_29 <- cont_30_lstm1_cont_slice_29_split_0
I0225 04:17:12.405232 11620 net.cpp:380] lstm1_h_conted_29 -> h_conted_29
I0225 04:17:12.405278 11620 net.cpp:122] Setting up lstm1_h_conted_29
I0225 04:17:12.405285 11620 net.cpp:129] Top shape: 1 27 16 (432)
I0225 04:17:12.405290 11620 net.cpp:137] Memory required for data: 1116288
I0225 04:17:12.405295 11620 layer_factory.hpp:77] Creating layer lstm1_transform_30
I0225 04:17:12.405303 11620 net.cpp:84] Creating Layer lstm1_transform_30
I0225 04:17:12.405309 11620 net.cpp:406] lstm1_transform_30 <- h_conted_29
I0225 04:17:12.405316 11620 net.cpp:380] lstm1_transform_30 -> W_hc_h_29
I0225 04:17:12.405381 11620 net.cpp:122] Setting up lstm1_transform_30
I0225 04:17:12.405388 11620 net.cpp:129] Top shape: 1 27 64 (1728)
I0225 04:17:12.407413 11620 net.cpp:137] Memory required for data: 1123200
I0225 04:17:12.407423 11620 net.cpp:465] Sharing parameters 'W_hc' owned by layer 'lstm1_transform_1', param index 0
I0225 04:17:12.407428 11620 layer_factory.hpp:77] Creating layer lstm1_gate_input_30
I0225 04:17:12.407436 11620 net.cpp:84] Creating Layer lstm1_gate_input_30
I0225 04:17:12.407440 11620 net.cpp:406] lstm1_gate_input_30 <- W_hc_h_29
I0225 04:17:12.407445 11620 net.cpp:406] lstm1_gate_input_30 <- W_xc_x_30
I0225 04:17:12.407450 11620 net.cpp:380] lstm1_gate_input_30 -> gate_input_30
I0225 04:17:12.407476 11620 net.cpp:122] Setting up lstm1_gate_input_30
I0225 04:17:12.407482 11620 net.cpp:129] Top shape: 1 27 64 (1728)
I0225 04:17:12.407485 11620 net.cpp:137] Memory required for data: 1130112
I0225 04:17:12.407488 11620 layer_factory.hpp:77] Creating layer lstm1_unit_30
I0225 04:17:12.407493 11620 net.cpp:84] Creating Layer lstm1_unit_30
I0225 04:17:12.407497 11620 net.cpp:406] lstm1_unit_30 <- c_29
I0225 04:17:12.407501 11620 net.cpp:406] lstm1_unit_30 <- gate_input_30
I0225 04:17:12.407506 11620 net.cpp:406] lstm1_unit_30 <- cont_30_lstm1_cont_slice_29_split_1
I0225 04:17:12.407511 11620 net.cpp:380] lstm1_unit_30 -> c_30
I0225 04:17:12.407516 11620 net.cpp:380] lstm1_unit_30 -> h_30
I0225 04:17:12.407546 11620 net.cpp:122] Setting up lstm1_unit_30
I0225 04:17:12.407551 11620 net.cpp:129] Top shape: 1 27 16 (432)
I0225 04:17:12.407554 11620 net.cpp:129] Top shape: 1 27 16 (432)
I0225 04:17:12.407557 11620 net.cpp:137] Memory required for data: 1133568
I0225 04:17:12.407560 11620 layer_factory.hpp:77] Creating layer h_30_lstm1_unit_30_1_split
I0225 04:17:12.407564 11620 net.cpp:84] Creating Layer h_30_lstm1_unit_30_1_split
I0225 04:17:12.407568 11620 net.cpp:406] h_30_lstm1_unit_30_1_split <- h_30
I0225 04:17:12.407572 11620 net.cpp:380] h_30_lstm1_unit_30_1_split -> h_30_lstm1_unit_30_1_split_0
I0225 04:17:12.407577 11620 net.cpp:380] h_30_lstm1_unit_30_1_split -> h_30_lstm1_unit_30_1_split_1
I0225 04:17:12.407596 11620 net.cpp:122] Setting up h_30_lstm1_unit_30_1_split
I0225 04:17:12.407600 11620 net.cpp:129] Top shape: 1 27 16 (432)
I0225 04:17:12.407604 11620 net.cpp:129] Top shape: 1 27 16 (432)
I0225 04:17:12.407608 11620 net.cpp:137] Memory required for data: 1137024
I0225 04:17:12.407610 11620 layer_factory.hpp:77] Creating layer lstm1_h_conted_30
I0225 04:17:12.407616 11620 net.cpp:84] Creating Layer lstm1_h_conted_30
I0225 04:17:12.407620 11620 net.cpp:406] lstm1_h_conted_30 <- h_30_lstm1_unit_30_1_split_0
I0225 04:17:12.407627 11620 net.cpp:406] lstm1_h_conted_30 <- cont_31_lstm1_cont_slice_30_split_0
I0225 04:17:12.407632 11620 net.cpp:380] lstm1_h_conted_30 -> h_conted_30
I0225 04:17:12.407667 11620 net.cpp:122] Setting up lstm1_h_conted_30
I0225 04:17:12.407680 11620 net.cpp:129] Top shape: 1 27 16 (432)
I0225 04:17:12.407685 11620 net.cpp:137] Memory required for data: 1138752
I0225 04:17:12.407687 11620 layer_factory.hpp:77] Creating layer lstm1_transform_31
I0225 04:17:12.407693 11620 net.cpp:84] Creating Layer lstm1_transform_31
I0225 04:17:12.407697 11620 net.cpp:406] lstm1_transform_31 <- h_conted_30
I0225 04:17:12.407702 11620 net.cpp:380] lstm1_transform_31 -> W_hc_h_30
I0225 04:17:12.407745 11620 net.cpp:122] Setting up lstm1_transform_31
I0225 04:17:12.407752 11620 net.cpp:129] Top shape: 1 27 64 (1728)
I0225 04:17:12.407754 11620 net.cpp:137] Memory required for data: 1145664
I0225 04:17:12.407763 11620 net.cpp:465] Sharing parameters 'W_hc' owned by layer 'lstm1_transform_1', param index 0
I0225 04:17:12.407768 11620 layer_factory.hpp:77] Creating layer lstm1_gate_input_31
I0225 04:17:12.407773 11620 net.cpp:84] Creating Layer lstm1_gate_input_31
I0225 04:17:12.407778 11620 net.cpp:406] lstm1_gate_input_31 <- W_hc_h_30
I0225 04:17:12.407784 11620 net.cpp:406] lstm1_gate_input_31 <- W_xc_x_31
I0225 04:17:12.407789 11620 net.cpp:380] lstm1_gate_input_31 -> gate_input_31
I0225 04:17:12.407804 11620 net.cpp:122] Setting up lstm1_gate_input_31
I0225 04:17:12.407807 11620 net.cpp:129] Top shape: 1 27 64 (1728)
I0225 04:17:12.407810 11620 net.cpp:137] Memory required for data: 1152576
I0225 04:17:12.407814 11620 layer_factory.hpp:77] Creating layer lstm1_unit_31
I0225 04:17:12.407819 11620 net.cpp:84] Creating Layer lstm1_unit_31
I0225 04:17:12.407822 11620 net.cpp:406] lstm1_unit_31 <- c_30
I0225 04:17:12.407827 11620 net.cpp:406] lstm1_unit_31 <- gate_input_31
I0225 04:17:12.407830 11620 net.cpp:406] lstm1_unit_31 <- cont_31_lstm1_cont_slice_30_split_1
I0225 04:17:12.407835 11620 net.cpp:380] lstm1_unit_31 -> c_31
I0225 04:17:12.407840 11620 net.cpp:380] lstm1_unit_31 -> h_31
I0225 04:17:12.407865 11620 net.cpp:122] Setting up lstm1_unit_31
I0225 04:17:12.407869 11620 net.cpp:129] Top shape: 1 27 16 (432)
I0225 04:17:12.407872 11620 net.cpp:129] Top shape: 1 27 16 (432)
I0225 04:17:12.407876 11620 net.cpp:137] Memory required for data: 1156032
I0225 04:17:12.407878 11620 layer_factory.hpp:77] Creating layer h_31_lstm1_unit_31_1_split
I0225 04:17:12.407882 11620 net.cpp:84] Creating Layer h_31_lstm1_unit_31_1_split
I0225 04:17:12.407886 11620 net.cpp:406] h_31_lstm1_unit_31_1_split <- h_31
I0225 04:17:12.407891 11620 net.cpp:380] h_31_lstm1_unit_31_1_split -> h_31_lstm1_unit_31_1_split_0
I0225 04:17:12.407896 11620 net.cpp:380] h_31_lstm1_unit_31_1_split -> h_31_lstm1_unit_31_1_split_1
I0225 04:17:12.407913 11620 net.cpp:122] Setting up h_31_lstm1_unit_31_1_split
I0225 04:17:12.407917 11620 net.cpp:129] Top shape: 1 27 16 (432)
I0225 04:17:12.407922 11620 net.cpp:129] Top shape: 1 27 16 (432)
I0225 04:17:12.407924 11620 net.cpp:137] Memory required for data: 1159488
I0225 04:17:12.407927 11620 layer_factory.hpp:77] Creating layer lstm1_h_conted_31
I0225 04:17:12.407932 11620 net.cpp:84] Creating Layer lstm1_h_conted_31
I0225 04:17:12.407935 11620 net.cpp:406] lstm1_h_conted_31 <- h_31_lstm1_unit_31_1_split_0
I0225 04:17:12.407940 11620 net.cpp:406] lstm1_h_conted_31 <- cont_32_lstm1_cont_slice_31_split_0
I0225 04:17:12.407944 11620 net.cpp:380] lstm1_h_conted_31 -> h_conted_31
I0225 04:17:12.407976 11620 net.cpp:122] Setting up lstm1_h_conted_31
I0225 04:17:12.407981 11620 net.cpp:129] Top shape: 1 27 16 (432)
I0225 04:17:12.407984 11620 net.cpp:137] Memory required for data: 1161216
I0225 04:17:12.407987 11620 layer_factory.hpp:77] Creating layer lstm1_transform_32
I0225 04:17:12.407992 11620 net.cpp:84] Creating Layer lstm1_transform_32
I0225 04:17:12.407995 11620 net.cpp:406] lstm1_transform_32 <- h_conted_31
I0225 04:17:12.407999 11620 net.cpp:380] lstm1_transform_32 -> W_hc_h_31
I0225 04:17:12.408031 11620 net.cpp:122] Setting up lstm1_transform_32
I0225 04:17:12.408036 11620 net.cpp:129] Top shape: 1 27 64 (1728)
I0225 04:17:12.408040 11620 net.cpp:137] Memory required for data: 1168128
I0225 04:17:12.408043 11620 net.cpp:465] Sharing parameters 'W_hc' owned by layer 'lstm1_transform_1', param index 0
I0225 04:17:12.408051 11620 layer_factory.hpp:77] Creating layer lstm1_gate_input_32
I0225 04:17:12.408056 11620 net.cpp:84] Creating Layer lstm1_gate_input_32
I0225 04:17:12.408061 11620 net.cpp:406] lstm1_gate_input_32 <- W_hc_h_31
I0225 04:17:12.408064 11620 net.cpp:406] lstm1_gate_input_32 <- W_xc_x_32
I0225 04:17:12.408069 11620 net.cpp:380] lstm1_gate_input_32 -> gate_input_32
I0225 04:17:12.408082 11620 net.cpp:122] Setting up lstm1_gate_input_32
I0225 04:17:12.408087 11620 net.cpp:129] Top shape: 1 27 64 (1728)
I0225 04:17:12.408090 11620 net.cpp:137] Memory required for data: 1175040
I0225 04:17:12.408093 11620 layer_factory.hpp:77] Creating layer lstm1_unit_32
I0225 04:17:12.408097 11620 net.cpp:84] Creating Layer lstm1_unit_32
I0225 04:17:12.408100 11620 net.cpp:406] lstm1_unit_32 <- c_31
I0225 04:17:12.408104 11620 net.cpp:406] lstm1_unit_32 <- gate_input_32
I0225 04:17:12.408108 11620 net.cpp:406] lstm1_unit_32 <- cont_32_lstm1_cont_slice_31_split_1
I0225 04:17:12.408116 11620 net.cpp:380] lstm1_unit_32 -> c_32
I0225 04:17:12.434592 11620 net.cpp:380] lstm1_unit_32 -> h_32
I0225 04:17:12.434660 11620 net.cpp:122] Setting up lstm1_unit_32
I0225 04:17:12.434670 11620 net.cpp:129] Top shape: 1 27 16 (432)
I0225 04:17:12.434674 11620 net.cpp:129] Top shape: 1 27 16 (432)
I0225 04:17:12.434679 11620 net.cpp:137] Memory required for data: 1178496
I0225 04:17:12.434682 11620 layer_factory.hpp:77] Creating layer lstm1_
I0225 04:17:12.434689 11620 net.cpp:84] Creating Layer lstm1_
I0225 04:17:12.434693 11620 net.cpp:406] lstm1_ <- c_32
I0225 04:17:12.434700 11620 net.cpp:380] lstm1_ -> c_T
I0225 04:17:12.434716 11620 net.cpp:122] Setting up lstm1_
I0225 04:17:12.434721 11620 net.cpp:129] Top shape: 1 27 16 (432)
I0225 04:17:12.434725 11620 net.cpp:137] Memory required for data: 1180224
I0225 04:17:12.434728 11620 layer_factory.hpp:77] Creating layer lstm1_h_concat
I0225 04:17:12.434736 11620 net.cpp:84] Creating Layer lstm1_h_concat
I0225 04:17:12.434741 11620 net.cpp:406] lstm1_h_concat <- h_1_lstm1_unit_1_1_split_1
I0225 04:17:12.434746 11620 net.cpp:406] lstm1_h_concat <- h_2_lstm1_unit_2_1_split_1
…
I0225 04:17:12.465951 11620 net.cpp:200] lstm1_ does not need backward computation.
I0225 04:17:12.465955 11620 net.cpp:242] This network produces output c_T
I0225 04:17:12.465965 11620 net.cpp:242] This network produces output h_pseudoloss
I0225 04:17:12.466290 11620 net.cpp:255] Network initialization done.
I0225 04:17:12.466545 11620 recurrent_layer.cpp:150] Adding parameter 0: W_xc
I0225 04:17:12.466552 11620 recurrent_layer.cpp:150] Adding parameter 1: b_c
I0225 04:17:12.466555 11620 recurrent_layer.cpp:150] Adding parameter 2: W_hc
I0225 04:17:12.466862 11620 net.cpp:122] Setting up lstm1
I0225 04:17:12.466872 11620 net.cpp:129] Top shape: 32 27 16 (13824)
I0225 04:17:12.466876 11620 net.cpp:137] Memory required for data: 69248
I0225 04:17:12.466894 11620 layer_factory.hpp:77] Creating layer lstm2
I0225 04:17:12.466917 11620 net.cpp:84] Creating Layer lstm2
I0225 04:17:12.466920 11620 net.cpp:406] lstm2 <- lstm1
I0225 04:17:12.466924 11620 net.cpp:406] lstm2 <- clip_clip_0_split_1
I0225 04:17:12.469254 11620 net.cpp:380] lstm2 -> lstm2
I0225 04:17:12.469271 11620 recurrent_layer.cpp:20] Initializing recurrent layer: assuming input batch contains 32 timesteps of 27 independent streams.
I0225 04:17:12.469967 11620 net.cpp:51] Initializing net from parameters: 
layer {
  name: "lstm2_"
  type: "Input"
  top: "x"
  top: "cont"
  input_param {
    shape {
      dim: 32
      dim: 27
      dim: 16
    }
    shape {
      dim: 32
      dim: 27
    }
  }
}
layer {
  name: "lstm2_"
  type: "Input"
  top: "c_0"
  top: "h_0"
  input_param {
    shape {
      dim: 1
      dim: 27
      dim: 16
    }
    shape {
      dim: 1
      dim: 27
      dim: 16
    }
  }
}
layer {
  name: "lstm2_cont_slice"
  type: "Slice"
  bottom: "cont"
  top: "cont_1"
  top: "cont_2"
  top: "cont_3"
  top: "cont_4"
  top: "cont_5"
  top: "cont_6"
  top: "cont_7"
  top: "cont_8"
  top: "cont_9"
  top: "cont_10"
  top: "cont_11"
  top: "cont_12"
  top: "cont_13"
  top: "cont_14"
  top: "cont_15"
  top: "cont_16"
  top: "cont_17"
  top: "cont_18"
  top: "cont_19"
  top: "cont_20"
  top: "cont_21"
  top: "cont_22"
  top: "cont_23"
  top: "cont_24"
  top: "cont_25"
  top: "cont_26"
  top: "cont_27"
  top: "cont_28"
  top: "cont_29"
  top: "cont_30"
  top: "cont_31"
  top: "cont_32"
  slice_param {
    axis: 0
  }
}
layer {
  name: "lstm2_x_transform"
  type: "InnerProduct"
  bottom: "x"
  top: "W_xc_x"
  param {
    name: "W_xc"
  }
  param {
    name: "b_c"
  }
  propagate_down: true
  inner_product_param {
    num_output: 64
    bias_term: true
    weight_filler {
      type: "xavier"
    }
    bias_filler {
      type: "constant"
    }
    axis: 2
  }
}
layer {
  name: "lstm2_W_xc_x_slice"
  type: "Slice"
  bottom: "W_xc_x"
  top: "W_xc_x_1"
  top: "W_xc_x_2"
  top: "W_xc_x_3"
  top: "W_xc_x_4"
  top: "W_xc_x_5"
  top: "W_xc_x_6"
  top: "W_xc_x_7"
  top: "W_xc_x_8"
  top: "W_xc_x_9"
  top: "W_xc_x_10"
  top: "W_xc_x_11"
  top: "W_xc_x_12"
  top: "W_xc_x_13"
  top: "W_xc_x_14"
  top: "W_xc_x_15"
  top: "W_xc_x_16"
  top: "W_xc_x_17"
  top: "W_xc_x_18"
  top: "W_xc_x_19"
  top: "W_xc_x_20"
  top: "W_xc_x_21"
  top: "W_xc_x_22"
  top: "W_xc_x_23"
  top: "W_xc_x_24"
  top: "W_xc_x_25"
  top: "W_xc_x_26"
  top: "W_xc_x_27"
  top: "W_xc_x_28"
  top: "W_xc_x_29"
  top: "W_xc_x_30"
  top: "W_xc_x_31"
  top: "W_xc_x_32"
  slice_param {
    axis: 0
  }
}
layer {
  name: "lstm2_h_conted_0"
  type: "Scale"
  bottom: "h_0"
  bottom: "cont_1"
  top: "h_conted_0"
  scale_param {
    axis: 0
  }
}
layer {
  name: "lstm2_transform_1"
  type: "InnerProduct"
  bottom: "h_conted_0"
  top: "W_hc_h_0"
  param {
    name: "W_hc"
  }
  inner_product_param {
    num_output: 64
    bias_term: false
    weight_filler {
      type: "xavier"
    }
    axis: 2
  }
}
layer {
  name: "lstm2_gate_input_1"
  type: "Eltwise"
  bottom: "W_hc_h_0"
  bottom: "W_xc_x_1"
  top: "gate_input_1"
  eltwise_param {
    operation: SUM
  }
}
layer {
  name: "lstm2_unit_1"
  type: "LSTMUnit"
  bottom: "c_0"
  bottom: "gate_input_1"
  bottom: "cont_1"
  top: "c_1"
  top: "h_1"
}
layer {
  name: "lstm2_h_conted_1"
  type: "Scale"
  bottom: "h_1"
  bottom: "cont_2"
  top: "h_conted_1"
  scale_param {
    axis: 0
  }
}
layer {
  name: "lstm2_transform_2"
  type: "InnerProduct"
  bottom: "h_conted_1"
  top: "W_hc_h_1"
  param {
    name: "W_hc"
  }
  inner_product_param {
    num_output: 64
    bias_term: false
    weight_filler {
      type: "xavier"
    }
    axis: 2
  }
}
layer {
  name: "lstm2_gate_input_2"
  type: "Eltwise"
  bottom: "W_hc_h_1"
  bottom: "W_xc_x_2"
  top: "gate_input_2"
  eltwise_param {
    operation: SUM
  }
}
layer {
  name: "lstm2_unit_2"
  type: "LSTMUnit"
  bottom: "c_1"
  bottom: "gate_input_2"
  bottom: "cont_2"
  top: "c_2"
  top: "h_2"
}
layer {
  name: "lstm2_h_conted_2"
  type: "Scale"
  bottom: "h_2"
  bottom: "cont_3"
  top: "h_conted_2"
  scale_param {
    axis: 0
  }
}
layer {
  name: "lstm2_transform_3"
  type: "InnerProduct"
  bottom: "h_conted_2"
  top: "W_hc_h_2"
  param {
    name: "W_hc"
  }
  inner_product_param {
    num_output: 64
    bias_term: false
    weight_filler {
      type: "xavier"
    }
    axis: 2
  }
}
layer {
  name: "lstm2_gate_input_3"
  type: "Eltwise"
  bottom: "W_hc_h_2"
  bottom: "W_xc_x_3"
  top: "gate_input_3"
  eltwise_param {
    operation: SUM
  }
}
layer {
  name: "lstm2_unit_3"
  type: "LSTMUnit"
  bottom: "c_2"
  bottom: "gate_input_3"
  bottom: "cont_3"
  top: "c_3"
  top: "h_3"
}
layer {
  name: "lstm2_h_conted_3"
  type: "Scale"
  bottom: "h_3"
  bottom: "cont_4"
  top: "h_conted_3"
  scale_param {
    axis: 0
  }
}
layer {
  name: "lstm2_transform_4"
  type: "InnerProduct"
  bottom: "h_conted_3"
  top: "W_hc_h_3"
  param {
    name: "W_hc"
  }
  inner_product_param {
    num_output: 64
    bias_term: false
    weight_filler {
      type: "xavier"
    }
    axis: 2
  }
}
layer {
  name: "lstm2_gate_input_4"
  type: "Eltwise"
  bottom: "W_hc_h_3"
  bottom: "W_xc_x_4"
  top: "gate_input_4"
  eltwise_param {
    operation: SUM
  }
}
layer {
  name: "lstm2_unit_4"
  type: "LSTMUnit"
  bottom: "c_3"
  bottom: "gate_input_4"
  bottom: "cont_4"
  top: "c_4"
  top: "h_4"
}
layer {
  name: "lstm2_h_conted_4"
  type: "Scale"
  bottom: "h_4"
  bottom: "cont_5"
  top: "h_conted_4"
  scale_param {
    axis: 0
  }
}
layer {
  name: "lstm2_transform_5"
  type: "InnerProduct"
  bottom: "h_conted_4"
  top: "W_hc_h_4"
  param {
    name: "W_hc"
  }
  inner_product_param {
    num_output: 64
    bias_term: false
    weight_filler {
      type: "xavier"
    }
    axis: 2
  }
}
layer {
  name: "lstm2_gate_input_5"
  type: "Eltwise"
  bottom: "W_hc_h_4"
  bottom: "W_xc_x_5"
  top: "gate_input_5"
  eltwise_param {
    operation: SUM
  }
}
layer {
  name: "lstm2_unit_5"
  type: "LSTMUnit"
  bottom: "c_4"
  bottom: "gate_input_5"
  bottom: "cont_5"
  top: "c_5"
  top: "h_5"
}
layer {
  name: "lstm2_h_conted_5"
  type: "Scale"
  bottom: "h_5"
  bottom: "cont_6"
  top: "h_conted_5"
  scale_param {
    axis: 0
  }
}
layer {
  name: "lstm2_transform_6"
  type: "InnerProduct"
  bottom: "h_conted_5"
  top: "W_hc_h_5"
  param {
    name: "W_hc"
  }
  inner_product_param {
    num_output: 64
    bias_term: false
    weight_filler {
      type: "xavier"
    }
    axis: 2
  }
}
layer {
  name: "lstm2_gate_input_6"
  type: "Eltwise"
  bottom: "W_hc_h_5"
  bottom: "W_xc_x_6"
  top: "gate_input_6"
  eltwise_param {
    operation: SUM
  }
}
layer {
  name: "lstm2_unit_6"
  type: "LSTMUnit"
  bottom: "c_5"
  bottom: "gate_input_6"
  bottom: "cont_6"
  top: "c_6"
  top: "h_6"
}
layer {
  name: "lstm2_h_conted_6"
  type: "Scale"
  bottom: "h_6"
  bottom: "cont_7"
  top: "h_conted_6"
  scale_param {
    axis: 0
  }
}
layer {
  name: "lstm2_transform_7"
  type: "InnerProduct"
  bottom: "h_conted_6"
  top: "W_hc_h_6"
  param {
    name: "W_hc"
  }
  inner_product_param {
    num_output: 64
    bias_term: false
    weight_filler {
      type: "xavier"
    }
    axis: 2
  }
}
layer {
  name: "lstm2_gate_input_7"
  type: "Eltwise"
  bottom: "W_hc_h_6"
  bottom: "W_xc_x_7"
  top: "gate_input_7"
  eltwise_param {
    operation: SUM
  }
}
layer {
  name: "lstm2_unit_7"
  type: "LSTMUnit"
  bottom: "c_6"
  bottom: "gate_input_7"
  bottom: "cont_7"
  top: "c_7"
  top: "h_7"
}
layer {
  name: "lstm2_h_conted_7"
  type: "Scale"
  bottom: "h_7"
  bottom: "cont_8"
  top: "h_conted_7"
  scale_param {
    axis: 0
  }
}
layer {
  name: "lstm2_transform_8"
  type: "InnerProduct"
  bottom: "h_conted_7"
  top: "W_hc_h_7"
  param {
    name: "W_hc"
  }
  inner_product_param {
    num_output: 64
    bias_term: false
    weight_filler {
      type: "xavier"
    }
    axis: 2
  }
}
layer {
  name: "lstm2_gate_input_8"
  type: "Eltwise"
  bottom: "W_hc_h_7"
  bottom: "W_xc_x_8"
  top: "gate_input_8"
  eltwise_param {
    operation: SUM
  }
}
layer {
  name: "lstm2_unit_8"
  type: "LSTMUnit"
  bottom: "c_7"
  bottom: "gate_input_8"
  bottom: "cont_8"
  top: "c_8"
  top: "h_8"
}
layer {
  name: "lstm2_h_conted_8"
  type: "Scale"
  bottom: "h_8"
  bottom: "cont_9"
  top: "h_conted_8"
  scale_param {
    axis: 0
  }
}
layer {
  name: "lstm2_transform_9"
  type: "InnerProduct"
  bottom: "h_conted_8"
  top: "W_hc_h_8"
  param {
    name: "W_hc"
  }
  inner_product_param {
    num_output: 64
    bias_term: false
    weight_filler {
      type: "xavier"
    }
    axis: 2
  }
}
layer {
  name: "lstm2_gate_input_9"
  type: "Eltwise"
  bottom: "W_hc_h_8"
  bottom: "W_xc_x_9"
  top: "gate_input_9"
  eltwise_param {
    operation: SUM
  }
}
layer {
  name: "lstm2_unit_9"
  type: "LSTMUnit"
  bottom: "c_8"
  bottom: "gate_input_9"
  bottom: "cont_9"
  top: "c_9"
  top: "h_9"
}
layer {
  name: "lstm2_h_conted_9"
  type: "Scale"
  bottom: "h_9"
  bottom: "cont_10"
  top: "h_conted_9"
  scale_param {
    axis: 0
  }
}
layer {
  name: "lstm2_transform_10"
  type: "InnerProduct"
  bottom: "h_conted_9"
  top: "W_hc_h_9"
  param {
    name: "W_hc"
  }
  inner_product_param {
    num_output: 64
    bias_term: false
    weight_filler {
      type: "xavier"
    }
    axis: 2
  }
}
layer {
  name: "lstm2_gate_input_10"
  type: "Eltwise"
  bottom: "W_hc_h_9"
  bottom: "W_xc_x_10"
  top: "gate_input_10"
  eltwise_param {
    operation: SUM
  }
}
layer {
  name: "lstm2_unit_10"
  type: "LSTMUnit"
  bottom: "c_9"
  bottom: "gate_input_10"
  bottom: "cont_10"
  top: "c_10"
  top: "h_10"
}
layer {
  name: "lstm2_h_conted_10"
  type: "Scale"
  bottom: "h_10"
  bottom: "cont_11"
  top: "h_conted_10"
  scale_param {
    axis: 0
  }
}
layer {
  name: "lstm2_transform_11"
  type: "InnerProduct"
  bottom: "h_conted_10"
  top: "W_hc_h_10"
  param {
    name: "W_hc"
  }
  inner_product_param {
    num_output: 64
    bias_term: false
    weight_filler {
      type: "xavier"
    }
    axis: 2
  }
}
layer {
  name: "lstm2_gate_input_11"
  type: "Eltwise"
  bottom: "W_hc_h_10"
  bottom: "W_xc_x_11"
  top: "gate_input_11"
  eltwise_param {
    operation: SUM
  }
}
layer {
  name: "lstm2_unit_11"
  type: "LSTMUnit"
  bottom: "c_10"
  bottom: "gate_input_11"
  bottom: "cont_11"
  top: "c_11"
  top: "h_11"
}
layer {
  name: "lstm2_h_conted_11"
  type: "Scale"
  bottom: "h_11"
  bottom: "cont_12"
  top: "h_conted_11"
  scale_param {
    axis: 0
  }
}
layer {
  name: "lstm2_transform_12"
  type: "InnerProduct"
  bottom: "h_conted_11"
  top: "W_hc_h_11"
  param {
    name: "W_hc"
  }
  inner_product_param {
    num_output: 64
    bias_term: false
    weight_filler {
      type: "xavier"
    }
    axis: 2
  }
}
layer {
  name: "lstm2_gate_input_12"
  type: "Eltwise"
  bottom: "W_hc_h_11"
  bottom: "W_xc_x_12"
  top: "gate_input_12"
  eltwise_param {
    operation: SUM
  }
}
layer {
  name: "lstm2_unit_12"
  type: "LSTMUnit"
  bottom: "c_11"
  bottom: "gate_input_12"
  bottom: "cont_12"
  top: "c_12"
  top: "h_12"
}
layer {
  name: "lstm2_h_conted_12"
  type: "Scale"
  bottom: "h_12"
  bottom: "cont_13"
  top: "h_conted_12"
  scale_param {
    axis: 0
  }
}
layer {
  name: "lstm2_transform_13"
  type: "InnerProduct"
  bottom: "h_conted_12"
  top: "W_hc_h_12"
  param {
    name: "W_hc"
  }
  inner_product_param {
    num_output: 64
    bias_term: false
    weight_filler {
      type: "xavier"
    }
    axis: 2
  }
}
layer {
  name: "lstm2_gate_input_13"
  type: "Eltwise"
  bottom: "W_hc_h_12"
  bottom: "W_xc_x_13"
  top: "gate_input_13"
  eltwise_param {
    operation: SUM
  }
}
layer {
  name: "lstm2_unit_13"
  type: "LSTMUnit"
  bottom: "c_12"
  bottom: "gate_input_13"
  bottom: "cont_13"
  top: "c_13"
  top: "h_13"
}
layer {
  name: "lstm2_h_conted_13"
  type: "Scale"
  bottom: "h_13"
  bottom: "cont_14"
  top: "h_conted_13"
  scale_param {
    axis: 0
  }
}
layer {
  name: "lstm2_transform_14"
  type: "InnerProduct"
  bottom: "h_conted_13"
  top: "W_hc_h_13"
  param {
    name: "W_hc"
  }
  inner_product_param {
    num_output: 64
    bias_term: false
    weight_filler {
      type: "xavier"
    }
    axis: 2
  }
}
layer {
  name: "lstm2_gate_input_14"
  type: "Eltwise"
  bottom: "W_hc_h_13"
  bottom: "W_xc_x_14"
  top: "gate_input_14"
  eltwise_param {
    operation: SUM
  }
}
layer {
  name: "lstm2_unit_14"
  type: "LSTMUnit"
  bottom: "c_13"
  bottom: "gate_input_14"
  bottom: "cont_14"
  top: "c_14"
  top: "h_14"
}
layer {
  name: "lstm2_h_conted_14"
  type: "Scale"
  bottom: "h_14"
  bottom: "cont_15"
  top: "h_conted_14"
  scale_param {
    axis: 0
  }
}
layer {
  name: "lstm2_transform_15"
  type: "InnerProduct"
  bottom: "h_conted_14"
  top: "W_hc_h_14"
  param {
    name: "W_hc"
  }
  inner_product_param {
    num_output: 64
    bias_term: false
    weight_filler {
      type: "xavier"
    }
    axis: 2
  }
}
layer {
  name: "lstm2_gate_input_15"
  type: "Eltwise"
  bottom: "W_hc_h_14"
  bottom: "W_xc_x_15"
  top: "gate_input_15"
  eltwise_param {
    operation: SUM
  }
}
layer {
  name: "lstm2_unit_15"
  type: "LSTMUnit"
  bottom: "c_14"
  bottom: "gate_input_15"
  bottom: "cont_15"
  top: "c_15"
  top: "h_15"
}
layer {
  name: "lstm2_h_conted_15"
  type: "Scale"
  bottom: "h_15"
  bottom: "cont_16"
  top: "h_conted_15"
  scale_param {
    axis: 0
  }
}
layer {
  name: "lstm2_transform_16"
  type: "InnerProduct"
  bottom: "h_conted_15"
  top: "W_hc_h_15"
  param {
    name: "W_hc"
  }
  inner_product_param {
    num_output: 64
    bias_term: false
    weight_filler {
      type: "xavier"
    }
    axis: 2
  }
}
layer {
  name: "lstm2_gate_input_16"
  type: "Eltwise"
  bottom: "W_hc_h_15"
  bottom: "W_xc_x_16"
  top: "gate_input_16"
  eltwise_param {
    operation: SUM
  }
}
layer {
  name: "lstm2_unit_16"
  type: "LSTMUnit"
  bottom: "c_15"
  bottom: "gate_input_16"
  bottom: "cont_16"
  top: "c_16"
  top: "h_16"
}
layer {
  name: "lstm2_h_conted_16"
  type: "Scale"
  bottom: "h_16"
  bottom: "cont_17"
  top: "h_conted_16"
  scale_param {
    axis: 0
  }
}
layer {
  name: "lstm2_transform_17"
  type: "InnerProduct"
  bottom: "h_conted_16"
  top: "W_hc_h_16"
  param {
    name: "W_hc"
  }
  inner_product_param {
    num_output: 64
    bias_term: false
    weight_filler {
      type: "xavier"
    }
    axis: 2
  }
}
layer {
  name: "lstm2_gate_input_17"
  type: "Eltwise"
  bottom: "W_hc_h_16"
  bottom: "W_xc_x_17"
  top: "gate_input_17"
  eltwise_param {
    operation: SUM
  }
}
layer {
  name: "lstm2_unit_17"
  type: "LSTMUnit"
  bottom: "c_16"
  bottom: "gate_input_17"
  bottom: "cont_17"
  top: "c_17"
  top: "h_17"
}
layer {
  name: "lstm2_h_conted_17"
  type: "Scale"
  bottom: "h_17"
  bottom: "cont_18"
  top: "h_conted_17"
  scale_param {
    axis: 0
  }
}
layer {
  name: "lstm2_transform_18"
  type: "InnerProduct"
  bottom: "h_conted_17"
  top: "W_hc_h_17"
  param {
    name: "W_hc"
  }
  inner_product_param {
    num_output: 64
    bias_term: false
    weight_filler {
      type: "xavier"
    }
    axis: 2
  }
}
layer {
  name: "lstm2_gate_input_18"
  type: "Eltwise"
  bottom: "W_hc_h_17"
  bottom: "W_xc_x_18"
  top: "gate_input_18"
  eltwise_param {
    operation: SUM
  }
}
layer {
  name: "lstm2_unit_18"
  type: "LSTMUnit"
  bottom: "c_17"
  bottom: "gate_input_18"
  bottom: "cont_18"
  top: "c_18"
  top: "h_18"
}
layer {
  name: "lstm2_h_conted_18"
  type: "Scale"
  bottom: "h_18"
  bottom: "cont_19"
  top: "h_conted_18"
  scale_param {
    axis: 0
  }
}
layer {
  name: "lstm2_transform_19"
  type: "InnerProduct"
  bottom: "h_conted_18"
  top: "W_hc_h_18"
  param {
    name: "W_hc"
  }
  inner_product_param {
    num_output: 64
    bias_term: false
    weight_filler {
      type: "xavier"
    }
    axis: 2
  }
}
layer {
  name: "lstm2_gate_input_19"
  type: "Eltwise"
  bottom: "W_hc_h_18"
  bottom: "W_xc_x_19"
  top: "gate_input_19"
  eltwise_param {
    operation: SUM
  }
}
layer {
  name: "lstm2_unit_19"
  type: "LSTMUnit"
  bottom: "c_18"
  bottom: "gate_input_19"
  bottom: "cont_19"
  top: "c_19"
  top: "h_19"
}
layer {
  name: "lstm2_h_conted_19"
  type: "Scale"
  bottom: "h_19"
  bottom: "cont_20"
  top: "h_conted_19"
  scale_param {
    axis: 0
  }
}
layer {
  name: "lstm2_transform_20"
  type: "InnerProduct"
  bottom: "h_conted_19"
  top: "W_hc_h_19"
  param {
    name: "W_hc"
  }
  inner_product_param {
    num_output: 64
    bias_term: false
    weight_filler {
      type: "xavier"
    }
    axis: 2
  }
}
layer {
  name: "lstm2_gate_input_20"
  type: "Eltwise"
  bottom: "W_hc_h_19"
  bottom: "W_xc_x_20"
  top: "gate_input_20"
  eltwise_param {
    operation: SUM
  }
}
layer {
  name: "lstm2_unit_20"
  type: "LSTMUnit"
  bottom: "c_19"
  bottom: "gate_input_20"
  bottom: "cont_20"
  top: "c_20"
  top: "h_20"
}
layer {
  name: "lstm2_h_conted_20"
  type: "Scale"
  bottom: "h_20"
  bottom: "cont_21"
  top: "h_conted_20"
  scale_param {
    axis: 0
  }
}
layer {
  name: "lstm2_transform_21"
  type: "InnerProduct"
  bottom: "h_conted_20"
  top: "W_hc_h_20"
  param {
    name: "W_hc"
  }
  inner_product_param {
    num_output: 64
    bias_term: false
    weight_filler {
      type: "xavier"
    }
    axis: 2
  }
}
layer {
  name: "lstm2_gate_input_21"
  type: "Eltwise"
  bottom: "W_hc_h_20"
  bottom: "W_xc_x_21"
  top: "gate_input_21"
  eltwise_param {
    operation: SUM
  }
}
layer {
  name: "lstm2_unit_21"
  type: "LSTMUnit"
  bottom: "c_20"
  bottom: "gate_input_21"
  bottom: "cont_21"
  top: "c_21"
  top: "h_21"
}
layer {
  name: "lstm2_h_conted_21"
  type: "Scale"
  bottom: "h_21"
  bottom: "cont_22"
  top: "h_conted_21"
  scale_param {
    axis: 0
  }
}
layer {
  name: "lstm2_transform_22"
  type: "InnerProduct"
  bottom: "h_conted_21"
  top: "W_hc_h_21"
  param {
    name: "W_hc"
  }
  inner_product_param {
    num_output: 64
    bias_term: false
    weight_filler {
      type: "xavier"
    }
    axis: 2
  }
}
layer {
  name: "lstm2_gate_input_22"
  type: "Eltwise"
  bottom: "W_hc_h_21"
  bottom: "W_xc_x_22"
  top: "gate_input_22"
  eltwise_param {
    operation: SUM
  }
}
layer {
  name: "lstm2_unit_22"
  type: "LSTMUnit"
  bottom: "c_21"
  bottom: "gate_input_22"
  bottom: "cont_22"
  top: "c_22"
  top: "h_22"
}
layer {
  name: "lstm2_h_conted_22"
  type: "Scale"
  bottom: "h_22"
  bottom: "cont_23"
  top: "h_conted_22"
  scale_param {
    axis: 0
  }
}
layer {
  name: "lstm2_transform_23"
  type: "InnerProduct"
  bottom: "h_conted_22"
  top: "W_hc_h_22"
  param {
    name: "W_hc"
  }
  inner_product_param {
    num_output: 64
    bias_term: false
    weight_filler {
      type: "xavier"
    }
    axis: 2
  }
}
layer {
  name: "lstm2_gate_input_23"
  type: "Eltwise"
  bottom: "W_hc_h_22"
  bottom: "W_xc_x_23"
  top: "gate_input_23"
  eltwise_param {
    operation: SUM
  }
}
layer {
  name: "lstm2_unit_23"
  type: "LSTMUnit"
  bottom: "c_22"
  bottom: "gate_input_23"
  bottom: "cont_23"
  top: "c_23"
  top: "h_23"
}
layer {
  name: "lstm2_h_conted_23"
  type: "Scale"
  bottom: "h_23"
  bottom: "cont_24"
  top: "h_conted_23"
  scale_param {
    axis: 0
  }
}
layer {
  name: "lstm2_transform_24"
  type: "InnerProduct"
  bottom: "h_conted_23"
  top: "W_hc_h_23"
  param {
    name: "W_hc"
  }
  inner_product_param {
    num_output: 64
    bias_term: false
    weight_filler {
      type: "xavier"
    }
    axis: 2
  }
}
layer {
  name: "lstm2_gate_input_24"
  type: "Eltwise"
  bottom: "W_hc_h_23"
  bottom: "W_xc_x_24"
  top: "gate_input_24"
  eltwise_param {
    operation: SUM
  }
}
layer {
  name: "lstm2_unit_24"
  type: "LSTMUnit"
  bottom: "c_23"
  bottom: "gate_input_24"
  bottom: "cont_24"
  top: "c_24"
  top: "h_24"
}
layer {
  name: "lstm2_h_conted_24"
  type: "Scale"
  bottom: "h_24"
  bottom: "cont_25"
  top: "h_conted_24"
  scale_param {
    axis: 0
  }
}
layer {
  name: "lstm2_transform_25"
  type: "InnerProduct"
  bottom: "h_conted_24"
  top: "W_hc_h_24"
  param {
    name: "W_hc"
  }
  inner_product_param {
    num_output: 64
    bias_term: false
    weight_filler {
      type: "xavier"
    }
    axis: 2
  }
}
layer {
  name: "lstm2_gate_input_25"
  type: "Eltwise"
  bottom: "W_hc_h_24"
  bottom: "W_xc_x_25"
  top: "gate_input_25"
  eltwise_param {
    operation: SUM
  }
}
layer {
  name: "lstm2_unit_25"
  type: "LSTMUnit"
  bottom: "c_24"
  bottom: "gate_input_25"
  bottom: "cont_25"
  top: "c_25"
  top: "h_25"
}
layer {
  name: "lstm2_h_conted_25"
  type: "Scale"
  bottom: "h_25"
  bottom: "cont_26"
  top: "h_conted_25"
  scale_param {
    axis: 0
  }
}
layer {
  name: "lstm2_transform_26"
  type: "InnerProduct"
  bottom: "h_conted_25"
  top: "W_hc_h_25"
  param {
    name: "W_hc"
  }
  inner_product_param {
    num_output: 64
    bias_term: false
    weight_filler {
      type: "xavier"
    }
    axis: 2
  }
}
layer {
  name: "lstm2_gate_input_26"
  type: "Eltwise"
  bottom: "W_hc_h_25"
  bottom: "W_xc_x_26"
  top: "gate_input_26"
  eltwise_param {
    operation: SUM
  }
}
layer {
  name: "lstm2_unit_26"
  type: "LSTMUnit"
  bottom: "c_25"
  bottom: "gate_input_26"
  bottom: "cont_26"
  top: "c_26"
  top: "h_26"
}
layer {
  name: "lstm2_h_conted_26"
  type: "Scale"
  bottom: "h_26"
  bottom: "cont_27"
  top: "h_conted_26"
  scale_param {
    axis: 0
  }
}
layer {
  name: "lstm2_transform_27"
  type: "InnerProduct"
  bottom: "h_conted_26"
  top: "W_hc_h_26"
  param {
    name: "W_hc"
  }
  inner_product_param {
    num_output: 64
    bias_term: false
    weight_filler {
      type: "xavier"
    }
    axis: 2
  }
}
layer {
  name: "lstm2_gate_input_27"
  type: "Eltwise"
  bottom: "W_hc_h_26"
  bottom: "W_xc_x_27"
  top: "gate_input_27"
  eltwise_param {
    operation: SUM
  }
}
layer {
  name: "lstm2_unit_27"
  type: "LSTMUnit"
  bottom: "c_26"
  bottom: "gate_input_27"
  bottom: "cont_27"
  top: "c_27"
  top: "h_27"
}
layer {
  name: "lstm2_h_conted_27"
  type: "Scale"
  bottom: "h_27"
  bottom: "cont_28"
  top: "h_conted_27"
  scale_param {
    axis: 0
  }
}
layer {
  name: "lstm2_transform_28"
  type: "InnerProduct"
  bottom: "h_conted_27"
  top: "W_hc_h_27"
  param {
    name: "W_hc"
  }
  inner_product_param {
    num_output: 64
    bias_term: false
    weight_filler {
      type: "xavier"
    }
    axis: 2
  }
}
layer {
  name: "lstm2_gate_input_28"
  type: "Eltwise"
  bottom: "W_hc_h_27"
  bottom: "W_xc_x_28"
  top: "gate_input_28"
  eltwise_param {
    operation: SUM
  }
}
layer {
  name: "lstm2_unit_28"
  type: "LSTMUnit"
  bottom: "c_27"
  bottom: "gate_input_28"
  bottom: "cont_28"
  top: "c_28"
  top: "h_28"
}
layer {
  name: "lstm2_h_conted_28"
  type: "Scale"
  bottom: "h_28"
  bottom: "cont_29"
  top: "h_conted_28"
  scale_param {
    axis: 0
  }
}
layer {
  name: "lstm2_transform_29"
  type: "InnerProduct"
  bottom: "h_conted_28"
  top: "W_hc_h_28"
  param {
    name: "W_hc"
  }
  inner_product_param {
    num_output: 64
    bias_term: false
    weight_filler {
      type: "xavier"
    }
    axis: 2
  }
}
layer {
  name: "lstm2_gate_input_29"
  type: "Eltwise"
  bottom: "W_hc_h_28"
  bottom: "W_xc_x_29"
  top: "gate_input_29"
  eltwise_param {
    operation: SUM
  }
}
layer {
  name: "lstm2_unit_29"
  type: "LSTMUnit"
  bottom: "c_28"
  bottom: "gate_input_29"
  bottom: "cont_29"
  top: "c_29"
  top: "h_29"
}
layer {
  name: "lstm2_h_conted_29"
  type: "Scale"
  bottom: "h_29"
  bottom: "cont_30"
  top: "h_conted_29"
  scale_param {
    axis: 0
  }
}
layer {
  name: "lstm2_transform_30"
  type: "InnerProduct"
  bottom: "h_conted_29"
  top: "W_hc_h_29"
  param {
    name: "W_hc"
  }
  inner_product_param {
    num_output: 64
    bias_term: false
    weight_filler {
      type: "xavier"
    }
    axis: 2
  }
}
layer {
  name: "lstm2_gate_input_30"
  type: "Eltwise"
  bottom: "W_hc_h_29"
  bottom: "W_xc_x_30"
  top: "gate_input_30"
  eltwise_param {
    operation: SUM
  }
}
layer {
  name: "lstm2_unit_30"
  type: "LSTMUnit"
  bottom: "c_29"
  bottom: "gate_input_30"
  bottom: "cont_30"
  top: "c_30"
  top: "h_30"
}
layer {
  name: "lstm2_h_conted_30"
  type: "Scale"
  bottom: "h_30"
  bottom: "cont_31"
  top: "h_conted_30"
  scale_param {
    axis: 0
  }
}
layer {
  name: "lstm2_transform_31"
  type: "InnerProduct"
  bottom: "h_conted_30"
  top: "W_hc_h_30"
  param {
    name: "W_hc"
  }
  inner_product_param {
    num_output: 64
    bias_term: false
    weight_filler {
      type: "xavier"
    }
    axis: 2
  }
}
layer {
  name: "lstm2_gate_input_31"
  type: "Eltwise"
  bottom: "W_hc_h_30"
  bottom: "W_xc_x_31"
  top: "gate_input_31"
  eltwise_param {
    operation: SUM
  }
}
layer {
  name: "lstm2_unit_31"
  type: "LSTMUnit"
  bottom: "c_30"
  bottom: "gate_input_31"
  bottom: "cont_31"
  top: "c_31"
  top: "h_31"
}
layer {
  name: "lstm2_h_conted_31"
  type: "Scale"
  bottom: "h_31"
  bottom: "cont_32"
  top: "h_conted_31"
  scale_param {
    axis: 0
  }
}
layer {
  name: "lstm2_transform_32"
  type: "InnerProduct"
  bottom: "h_conted_31"
  top: "W_hc_h_31"
  param {
    name: "W_hc"
  }
  inner_product_param {
    num_output: 64
    bias_term: false
    weight_filler {
      type: "xavier"
    }
    axis: 2
  }
}
layer {
  name: "lstm2_gate_input_32"
  type: "Eltwise"
  bottom: "W_hc_h_31"
  bottom: "W_xc_x_32"
  top: "gate_input_32"
  eltwise_param {
    operation: SUM
  }
}
layer {
  name: "lstm2_unit_32"
  type: "LSTMUnit"
  bottom: "c_31"
  bottom: "gate_input_32"
  bottom: "cont_32"
  top: "c_32"
  top: "h_32"
}
layer {
  name: "lstm2_"
  type: "Split"
  bottom: "c_32"
  top: "c_T"
}
layer {
  name: "lstm2_h_concat"
  type: "Concat"
  bottom: "h_1"
  bottom: "h_2"
  bottom: "h_3"
  bottom: "h_4"
  bottom: "h_5"
  bottom: "h_6"
  bottom: "h_7"
  bottom: "h_8"
  bottom: "h_9"
  bottom: "h_10"
  bottom: "h_11"
  bottom: "h_12"
  bottom: "h_13"
  bottom: "h_14"
  bottom: "h_15"
  bottom: "h_16"
  bottom: "h_17"
  bottom: "h_18"
  bottom: "h_19"
  bottom: "h_20"
  bottom: "h_21"
  bottom: "h_22"
  bottom: "h_23"
  bottom: "h_24"
  bottom: "h_25"
  bottom: "h_26"
  bottom: "h_27"
  bottom: "h_28"
  bottom: "h_29"
  bottom: "h_30"
  bottom: "h_31"
  bottom: "h_32"
  top: "h"
  concat_param {
    axis: 0
  }
}
layer {
  name: "h_pseudoloss"
  type: "Reduction"
  bottom: "h"
  top: "h_pseudoloss"
  loss_weight: 1
}
I0225 04:17:12.528112 11620 layer_factory.hpp:77] Creating layer lstm2_
I0225 04:17:12.528131 11620 net.cpp:84] Creating Layer lstm2_
I0225 04:17:12.528136 11620 net.cpp:380] lstm2_ -> x
I0225 04:17:12.528144 11620 net.cpp:380] lstm2_ -> cont
I0225 04:17:12.528192 11620 net.cpp:122] Setting up lstm2_
I0225 04:17:12.528199 11620 net.cpp:129] Top shape: 32 27 16 (13824)
I0225 04:17:12.528203 11620 net.cpp:129] Top shape: 32 27 (864)
I0225 04:17:12.528206 11620 net.cpp:137] Memory required for data: 58752
I0225 04:17:12.528209 11620 layer_factory.hpp:77] Creating layer lstm2_
I0225 04:17:12.528214 11620 net.cpp:84] Creating Layer lstm2_
I0225 04:17:12.528218 11620 net.cpp:380] lstm2_ -> c_0
I0225 04:17:12.528224 11620 net.cpp:380] lstm2_ -> h_0
I0225 04:17:12.528247 11620 net.cpp:122] Setting up lstm2_
I0225 04:17:12.528251 11620 net.cpp:129] Top shape: 1 27 16 (432)
I0225 04:17:12.528255 11620 net.cpp:129] Top shape: 1 27 16 (432)
I0225 04:17:12.528259 11620 net.cpp:137] Memory required for data: 62208
I0225 04:17:12.528261 11620 layer_factory.hpp:77] Creating layer lstm2_cont_slice
I0225 04:17:12.528268 11620 net.cpp:84] Creating Layer lstm2_cont_slice
I0225 04:17:12.528271 11620 net.cpp:406] lstm2_cont_slice <- cont
I0225 04:17:12.528276 11620 net.cpp:380] lstm2_cont_slice -> cont_1
I0225 04:17:12.528285 11620 net.cpp:380] lstm2_cont_slice -> cont_2
…
  type: "Data"
  top: "data"
  data_param {
    source: "/home/leonida/ThesisCode/LSTM_on_Create2/NavDatabases/LAB-SIM-onlyang/states_meastail_db-2-24-23-9_lmdb"
    batch_size: 32
    backend: LMDB
  }
}
layer {
  name: "label"
  type: "Data"
  top: "labels"
  data_param {
    source: "/home/leonida/ThesisCode/LSTM_on_Create2/NavDatabases/LAB-SIM-onlyang/slabels_meas_db-2-24-23-9_twist-variant_lmdb"
    batch_size: 32
    backend: LMDB
  }
}
layer {
  name: "clip"
  type: "Input"
  top: "clip"
  input_param {
    shape {
      dim: 32
      dim: 27
    }
  }
}
layer {
  name: "lstm1"
  type: "LSTM"
  bottom: "data"
  bottom: "clip"
  top: "lstm1"
  recurrent_param {
    num_output: 16
    weight_filler {
      type: "xavier"
    }
    bias_filler {
      type: "constant"
    }
  }
}
layer {
  name: "lstm2"
  type: "LSTM"
  bottom: "lstm1"
  bottom: "clip"
  top: "lstm2"
  recurrent_param {
    num_output: 16
    weight_filler {
      type: "xavier"
    }
    bias_filler {
      type: "constant"
    }
  }
}
layer {
  name: "out"
  type: "InnerProduct"
  bottom: "lstm2"
  top: "out"
  inner_product_param {
    num_output: 1
    weight_filler {
      type: "gaussian"
      std: 0.1
    }
    bias_filler {
      type: "constant"
    }
  }
}
layer {
  name: "euclideanLoss"
  type: "EuclideanLoss"
  bottom: "out"
  bottom: "labels"
  top: "loss"
}
I0225 04:17:12.633743 11620 layer_factory.hpp:77] Creating layer data
I0225 04:17:12.633786 11620 db_lmdb.cpp:35] Opened lmdb /home/leonida/ThesisCode/LSTM_on_Create2/NavDatabases/LAB-SIM-onlyang/states_meastail_db-2-24-23-9_lmdb
I0225 04:17:12.633796 11620 net.cpp:84] Creating Layer data
I0225 04:17:12.633800 11620 net.cpp:380] data -> data
I0225 04:17:12.633872 11620 data_layer.cpp:45] output data size: 32,27,1,1
I0225 04:17:12.634053 11620 net.cpp:122] Setting up data
I0225 04:17:12.634063 11620 net.cpp:129] Top shape: 32 27 1 1 (864)
I0225 04:17:12.634066 11620 net.cpp:137] Memory required for data: 3456
I0225 04:17:12.634070 11620 layer_factory.hpp:77] Creating layer label
F0225 04:17:12.634095 11620 db_lmdb.hpp:15] Check failed: mdb_status == 0 (2 vs. 0) No such file or directory
