…
  top: "data"
  data_param {
    source: "/home/leonida/ThesisCode/LSTM_on_Create2/NavDatabases/LAB-21-2-new-step-condition/states_db-2-21-15-4_lmdb"
    batch_size: 24
    backend: LMDB
  }
}
layer {
  name: "label"
  type: "Data"
  top: "labels"
  data_param {
    source: "/home/leonida/ThesisCode/LSTM_on_Create2/NavDatabases/LAB-21-2-new-step-condition/labels_db-2-21-15-4_twist-variant_lmdb"
    batch_size: 24
    backend: LMDB
  }
}
layer {
  name: "clip"
  type: "Input"
  top: "clip"
  input_param {
    shape {
      dim: 24
      dim: 26
    }
  }
}
layer {
  name: "lstm1"
  type: "LSTM"
  bottom: "data"
  bottom: "clip"
  top: "lstm1"
  recurrent_param {
    num_output: 16
    weight_filler {
      type: "xavier"
    }
    bias_filler {
      type: "constant"
    }
  }
}
layer {
  name: "out"
  type: "InnerProduct"
  bottom: "lstm1"
  top: "out"
  inner_product_param {
    num_output: 2
    weight_filler {
      type: "gaussian"
      std: 0.1
    }
    bias_filler {
      type: "constant"
    }
  }
}
layer {
  name: "euclideanLoss"
  type: "EuclideanLoss"
  bottom: "out"
  bottom: "labels"
  top: "loss"
}
I0222 17:37:17.910748 24666 layer_factory.hpp:77] Creating layer data
I0222 17:37:17.910827 24666 db_lmdb.cpp:35] Opened lmdb /home/leonida/ThesisCode/LSTM_on_Create2/NavDatabases/LAB-21-2-new-step-condition/states_db-2-21-15-4_lmdb
I0222 17:37:17.910845 24666 net.cpp:84] Creating Layer data
I0222 17:37:17.910851 24666 net.cpp:380] data -> data
I0222 17:37:17.911522 24666 data_layer.cpp:45] output data size: 24,26,1,1
I0222 17:37:17.913197 24666 net.cpp:122] Setting up data
I0222 17:37:17.913210 24666 net.cpp:129] Top shape: 24 26 1 1 (624)
I0222 17:37:17.913213 24666 net.cpp:137] Memory required for data: 2496
I0222 17:37:17.913241 24666 layer_factory.hpp:77] Creating layer label
I0222 17:37:17.913280 24666 db_lmdb.cpp:35] Opened lmdb /home/leonida/ThesisCode/LSTM_on_Create2/NavDatabases/LAB-21-2-new-step-condition/labels_db-2-21-15-4_twist-variant_lmdb
I0222 17:37:17.913293 24666 net.cpp:84] Creating Layer label
I0222 17:37:17.913298 24666 net.cpp:380] label -> labels
I0222 17:37:17.913432 24666 data_layer.cpp:45] output data size: 24,2,1,1
I0222 17:37:17.914085 24666 net.cpp:122] Setting up label
I0222 17:37:17.914093 24666 net.cpp:129] Top shape: 24 2 1 1 (48)
I0222 17:37:17.914098 24666 net.cpp:137] Memory required for data: 2688
I0222 17:37:17.914100 24666 layer_factory.hpp:77] Creating layer clip
I0222 17:37:17.914110 24666 net.cpp:84] Creating Layer clip
I0222 17:37:17.914114 24666 net.cpp:380] clip -> clip
I0222 17:37:17.914137 24666 net.cpp:122] Setting up clip
I0222 17:37:17.914142 24666 net.cpp:129] Top shape: 24 26 (624)
I0222 17:37:17.914146 24666 net.cpp:137] Memory required for data: 5184
I0222 17:37:17.914149 24666 layer_factory.hpp:77] Creating layer lstm1
I0222 17:37:17.914156 24666 net.cpp:84] Creating Layer lstm1
I0222 17:37:17.914170 24666 net.cpp:406] lstm1 <- data
I0222 17:37:17.914177 24666 net.cpp:406] lstm1 <- clip
I0222 17:37:17.914181 24666 net.cpp:380] lstm1 -> lstm1
I0222 17:37:17.914191 24666 recurrent_layer.cpp:20] Initializing recurrent layer: assuming input batch contains 24 timesteps of 26 independent streams.
I0222 17:37:17.914692 24666 net.cpp:51] Initializing net from parameters: 
layer {
  name: "lstm1_"
  type: "Input"
  top: "x"
  top: "cont"
  input_param {
    shape {
      dim: 24
      dim: 26
      dim: 1
      dim: 1
    }
    shape {
      dim: 24
      dim: 26
    }
  }
}
layer {
  name: "lstm1_"
  type: "Input"
  top: "c_0"
  top: "h_0"
  input_param {
    shape {
      dim: 1
      dim: 26
      dim: 16
    }
    shape {
      dim: 1
      dim: 26
      dim: 16
    }
  }
}
layer {
  name: "lstm1_cont_slice"
  type: "Slice"
  bottom: "cont"
  top: "cont_1"
  top: "cont_2"
  top: "cont_3"
  top: "cont_4"
  top: "cont_5"
  top: "cont_6"
  top: "cont_7"
  top: "cont_8"
  top: "cont_9"
  top: "cont_10"
  top: "cont_11"
  top: "cont_12"
  top: "cont_13"
  top: "cont_14"
  top: "cont_15"
  top: "cont_16"
  top: "cont_17"
  top: "cont_18"
  top: "cont_19"
  top: "cont_20"
  top: "cont_21"
  top: "cont_22"
  top: "cont_23"
  top: "cont_24"
  slice_param {
    axis: 0
  }
}
layer {
  name: "lstm1_x_transform"
  type: "InnerProduct"
  bottom: "x"
  top: "W_xc_x"
  param {
    name: "W_xc"
  }
  param {
    name: "b_c"
  }
  propagate_down: true
  inner_product_param {
    num_output: 64
    bias_term: true
    weight_filler {
      type: "xavier"
    }
    bias_filler {
      type: "constant"
    }
    axis: 2
  }
}
layer {
  name: "lstm1_W_xc_x_slice"
  type: "Slice"
  bottom: "W_xc_x"
  top: "W_xc_x_1"
  top: "W_xc_x_2"
  top: "W_xc_x_3"
  top: "W_xc_x_4"
  top: "W_xc_x_5"
  top: "W_xc_x_6"
  top: "W_xc_x_7"
  top: "W_xc_x_8"
  top: "W_xc_x_9"
  top: "W_xc_x_10"
  top: "W_xc_x_11"
  top: "W_xc_x_12"
  top: "W_xc_x_13"
  top: "W_xc_x_14"
  top: "W_xc_x_15"
  top: "W_xc_x_16"
  top: "W_xc_x_17"
  top: "W_xc_x_18"
  top: "W_xc_x_19"
  top: "W_xc_x_20"
  top: "W_xc_x_21"
  top: "W_xc_x_22"
  top: "W_xc_x_23"
  top: "W_xc_x_24"
  slice_param {
    axis: 0
  }
}
layer {
  name: "lstm1_h_conted_0"
  type: "Scale"
  bottom: "h_0"
  bottom: "cont_1"
  top: "h_conted_0"
  scale_param {
    axis: 0
  }
}
layer {
  name: "lstm1_transform_1"
  type: "InnerProduct"
  bottom: "h_conted_0"
  top: "W_hc_h_0"
  param {
    name: "W_hc"
  }
  inner_product_param {
    num_output: 64
    bias_term: false
    weight_filler {
      type: "xavier"
    }
    axis: 2
  }
}
layer {
  name: "lstm1_gate_input_1"
  type: "Eltwise"
  bottom: "W_hc_h_0"
  bottom: "W_xc_x_1"
  top: "gate_input_1"
  eltwise_param {
    operation: SUM
  }
}
layer {
  name: "lstm1_unit_1"
  type: "LSTMUnit"
  bottom: "c_0"
  bottom: "gate_input_1"
  bottom: "cont_1"
  top: "c_1"
  top: "h_1"
}
layer {
  name: "lstm1_h_conted_1"
  type: "Scale"
  bottom: "h_1"
  bottom: "cont_2"
  top: "h_conted_1"
  scale_param {
    axis: 0
  }
}
layer {
  name: "lstm1_transform_2"
  type: "InnerProduct"
  bottom: "h_conted_1"
  top: "W_hc_h_1"
  param {
    name: "W_hc"
  }
  inner_product_param {
    num_output: 64
    bias_term: false
    weight_filler {
      type: "xavier"
    }
    axis: 2
  }
}
layer {
  name: "lstm1_gate_input_2"
  type: "Eltwise"
  bottom: "W_hc_h_1"
  bottom: "W_xc_x_2"
  top: "gate_input_2"
  eltwise_param {
    operation: SUM
  }
}
layer {
  name: "lstm1_unit_2"
  type: "LSTMUnit"
  bottom: "c_1"
  bottom: "gate_input_2"
  bottom: "cont_2"
  top: "c_2"
  top: "h_2"
}
layer {
  name: "lstm1_h_conted_2"
  type: "Scale"
  bottom: "h_2"
  bottom: "cont_3"
  top: "h_conted_2"
  scale_param {
    axis: 0
  }
}
layer {
  name: "lstm1_transform_3"
  type: "InnerProduct"
  bottom: "h_conted_2"
  top: "W_hc_h_2"
  param {
    name: "W_hc"
  }
  inner_product_param {
    num_output: 64
    bias_term: false
    weight_filler {
      type: "xavier"
    }
    axis: 2
  }
}
layer {
  name: "lstm1_gate_input_3"
  type: "Eltwise"
  bottom: "W_hc_h_2"
  bottom: "W_xc_x_3"
  top: "gate_input_3"
  eltwise_param {
    operation: SUM
  }
}
layer {
  name: "lstm1_unit_3"
  type: "LSTMUnit"
  bottom: "c_2"
  bottom: "gate_input_3"
  bottom: "cont_3"
  top: "c_3"
  top: "h_3"
}
layer {
  name: "lstm1_h_conted_3"
  type: "Scale"
  bottom: "h_3"
  bottom: "cont_4"
  top: "h_conted_3"
  scale_param {
    axis: 0
  }
}
layer {
  name: "lstm1_transform_4"
  type: "InnerProduct"
  bottom: "h_conted_3"
  top: "W_hc_h_3"
  param {
    name: "W_hc"
  }
  inner_product_param {
    num_output: 64
    bias_term: false
    weight_filler {
      type: "xavier"
    }
    axis: 2
  }
}
layer {
  name: "lstm1_gate_input_4"
  type: "Eltwise"
  bottom: "W_hc_h_3"
  bottom: "W_xc_x_4"
  top: "gate_input_4"
  eltwise_param {
    operation: SUM
  }
}
layer {
  name: "lstm1_unit_4"
  type: "LSTMUnit"
  bottom: "c_3"
  bottom: "gate_input_4"
  bottom: "cont_4"
  top: "c_4"
  top: "h_4"
}
layer {
  name: "lstm1_h_conted_4"
  type: "Scale"
  bottom: "h_4"
  bottom: "cont_5"
  top: "h_conted_4"
  scale_param {
    axis: 0
  }
}
layer {
  name: "lstm1_transform_5"
  type: "InnerProduct"
  bottom: "h_conted_4"
  top: "W_hc_h_4"
  param {
    name: "W_hc"
  }
  inner_product_param {
    num_output: 64
    bias_term: false
    weight_filler {
      type: "xavier"
    }
    axis: 2
  }
}
layer {
  name: "lstm1_gate_input_5"
  type: "Eltwise"
  bottom: "W_hc_h_4"
  bottom: "W_xc_x_5"
  top: "gate_input_5"
  eltwise_param {
    operation: SUM
  }
}
layer {
  name: "lstm1_unit_5"
  type: "LSTMUnit"
  bottom: "c_4"
  bottom: "gate_input_5"
  bottom: "cont_5"
  top: "c_5"
  top: "h_5"
}
layer {
  name: "lstm1_h_conted_5"
  type: "Scale"
  bottom: "h_5"
  bottom: "cont_6"
  top: "h_conted_5"
  scale_param {
    axis: 0
  }
}
layer {
  name: "lstm1_transform_6"
  type: "InnerProduct"
  bottom: "h_conted_5"
  top: "W_hc_h_5"
  param {
    name: "W_hc"
  }
  inner_product_param {
    num_output: 64
    bias_term: false
    weight_filler {
      type: "xavier"
    }
    axis: 2
  }
}
layer {
  name: "lstm1_gate_input_6"
  type: "Eltwise"
  bottom: "W_hc_h_5"
  bottom: "W_xc_x_6"
  top: "gate_input_6"
  eltwise_param {
    operation: SUM
  }
}
layer {
  name: "lstm1_unit_6"
  type: "LSTMUnit"
  bottom: "c_5"
  bottom: "gate_input_6"
  bottom: "cont_6"
  top: "c_6"
  top: "h_6"
}
layer {
  name: "lstm1_h_conted_6"
  type: "Scale"
  bottom: "h_6"
  bottom: "cont_7"
  top: "h_conted_6"
  scale_param {
    axis: 0
  }
}
layer {
  name: "lstm1_transform_7"
  type: "InnerProduct"
  bottom: "h_conted_6"
  top: "W_hc_h_6"
  param {
    name: "W_hc"
  }
  inner_product_param {
    num_output: 64
    bias_term: false
    weight_filler {
      type: "xavier"
    }
    axis: 2
  }
}
layer {
  name: "lstm1_gate_input_7"
  type: "Eltwise"
  bottom: "W_hc_h_6"
  bottom: "W_xc_x_7"
  top: "gate_input_7"
  eltwise_param {
    operation: SUM
  }
}
layer {
  name: "lstm1_unit_7"
  type: "LSTMUnit"
  bottom: "c_6"
  bottom: "gate_input_7"
  bottom: "cont_7"
  top: "c_7"
  top: "h_7"
}
layer {
  name: "lstm1_h_conted_7"
  type: "Scale"
  bottom: "h_7"
  bottom: "cont_8"
  top: "h_conted_7"
  scale_param {
    axis: 0
  }
}
layer {
  name: "lstm1_transform_8"
  type: "InnerProduct"
  bottom: "h_conted_7"
  top: "W_hc_h_7"
  param {
    name: "W_hc"
  }
  inner_product_param {
    num_output: 64
    bias_term: false
    weight_filler {
      type: "xavier"
    }
    axis: 2
  }
}
layer {
  name: "lstm1_gate_input_8"
  type: "Eltwise"
  bottom: "W_hc_h_7"
  bottom: "W_xc_x_8"
  top: "gate_input_8"
  eltwise_param {
    operation: SUM
  }
}
layer {
  name: "lstm1_unit_8"
  type: "LSTMUnit"
  bottom: "c_7"
  bottom: "gate_input_8"
  bottom: "cont_8"
  top: "c_8"
  top: "h_8"
}
layer {
  name: "lstm1_h_conted_8"
  type: "Scale"
  bottom: "h_8"
  bottom: "cont_9"
  top: "h_conted_8"
  scale_param {
    axis: 0
  }
}
layer {
  name: "lstm1_transform_9"
  type: "InnerProduct"
  bottom: "h_conted_8"
  top: "W_hc_h_8"
  param {
    name: "W_hc"
  }
  inner_product_param {
    num_output: 64
    bias_term: false
    weight_filler {
      type: "xavier"
    }
    axis: 2
  }
}
layer {
  name: "lstm1_gate_input_9"
  type: "Eltwise"
  bottom: "W_hc_h_8"
  bottom: "W_xc_x_9"
  top: "gate_input_9"
  eltwise_param {
    operation: SUM
  }
}
layer {
  name: "lstm1_unit_9"
  type: "LSTMUnit"
  bottom: "c_8"
  bottom: "gate_input_9"
  bottom: "cont_9"
  top: "c_9"
  top: "h_9"
}
layer {
  name: "lstm1_h_conted_9"
  type: "Scale"
  bottom: "h_9"
  bottom: "cont_10"
  top: "h_conted_9"
  scale_param {
    axis: 0
  }
}
layer {
  name: "lstm1_transform_10"
  type: "InnerProduct"
  bottom: "h_conted_9"
  top: "W_hc_h_9"
  param {
    name: "W_hc"
  }
  inner_product_param {
    num_output: 64
    bias_term: false
    weight_filler {
      type: "xavier"
    }
    axis: 2
  }
}
layer {
  name: "lstm1_gate_input_10"
  type: "Eltwise"
  bottom: "W_hc_h_9"
  bottom: "W_xc_x_10"
  top: "gate_input_10"
  eltwise_param {
    operation: SUM
  }
}
layer {
  name: "lstm1_unit_10"
  type: "LSTMUnit"
  bottom: "c_9"
  bottom: "gate_input_10"
  bottom: "cont_10"
  top: "c_10"
  top: "h_10"
}
layer {
  name: "lstm1_h_conted_10"
  type: "Scale"
  bottom: "h_10"
  bottom: "cont_11"
  top: "h_conted_10"
  scale_param {
    axis: 0
  }
}
layer {
  name: "lstm1_transform_11"
  type: "InnerProduct"
  bottom: "h_conted_10"
  top: "W_hc_h_10"
  param {
    name: "W_hc"
  }
  inner_product_param {
    num_output: 64
    bias_term: false
    weight_filler {
      type: "xavier"
    }
    axis: 2
  }
}
layer {
  name: "lstm1_gate_input_11"
  type: "Eltwise"
  bottom: "W_hc_h_10"
  bottom: "W_xc_x_11"
  top: "gate_input_11"
  eltwise_param {
    operation: SUM
  }
}
layer {
  name: "lstm1_unit_11"
  type: "LSTMUnit"
  bottom: "c_10"
  bottom: "gate_input_11"
  bottom: "cont_11"
  top: "c_11"
  top: "h_11"
}
layer {
  name: "lstm1_h_conted_11"
  type: "Scale"
  bottom: "h_11"
  bottom: "cont_12"
  top: "h_conted_11"
  scale_param {
    axis: 0
  }
}
layer {
  name: "lstm1_transform_12"
  type: "InnerProduct"
  bottom: "h_conted_11"
  top: "W_hc_h_11"
  param {
    name: "W_hc"
  }
  inner_product_param {
    num_output: 64
    bias_term: false
    weight_filler {
      type: "xavier"
    }
    axis: 2
  }
}
layer {
  name: "lstm1_gate_input_12"
  type: "Eltwise"
  bottom: "W_hc_h_11"
  bottom: "W_xc_x_12"
  top: "gate_input_12"
  eltwise_param {
    operation: SUM
  }
}
layer {
  name: "lstm1_unit_12"
  type: "LSTMUnit"
  bottom: "c_11"
  bottom: "gate_input_12"
  bottom: "cont_12"
  top: "c_12"
  top: "h_12"
}
layer {
  name: "lstm1_h_conted_12"
  type: "Scale"
  bottom: "h_12"
  bottom: "cont_13"
  top: "h_conted_12"
  scale_param {
    axis: 0
  }
}
layer {
  name: "lstm1_transform_13"
  type: "InnerProduct"
  bottom: "h_conted_12"
  top: "W_hc_h_12"
  param {
    name: "W_hc"
  }
  inner_product_param {
    num_output: 64
    bias_term: false
    weight_filler {
      type: "xavier"
    }
    axis: 2
  }
}
layer {
  name: "lstm1_gate_input_13"
  type: "Eltwise"
  bottom: "W_hc_h_12"
  bottom: "W_xc_x_13"
  top: "gate_input_13"
  eltwise_param {
    operation: SUM
  }
}
layer {
  name: "lstm1_unit_13"
  type: "LSTMUnit"
  bottom: "c_12"
  bottom: "gate_input_13"
  bottom: "cont_13"
  top: "c_13"
  top: "h_13"
}
layer {
  name: "lstm1_h_conted_13"
  type: "Scale"
  bottom: "h_13"
  bottom: "cont_14"
  top: "h_conted_13"
  scale_param {
    axis: 0
  }
}
layer {
  name: "lstm1_transform_14"
  type: "InnerProduct"
  bottom: "h_conted_13"
  top: "W_hc_h_13"
  param {
    name: "W_hc"
  }
  inner_product_param {
    num_output: 64
    bias_term: false
    weight_filler {
      type: "xavier"
    }
    axis: 2
  }
}
layer {
  name: "lstm1_gate_input_14"
  type: "Eltwise"
  bottom: "W_hc_h_13"
  bottom: "W_xc_x_14"
  top: "gate_input_14"
  eltwise_param {
    operation: SUM
  }
}
layer {
  name: "lstm1_unit_14"
  type: "LSTMUnit"
  bottom: "c_13"
  bottom: "gate_input_14"
  bottom: "cont_14"
  top: "c_14"
  top: "h_14"
}
layer {
  name: "lstm1_h_conted_14"
  type: "Scale"
  bottom: "h_14"
  bottom: "cont_15"
  top: "h_conted_14"
  scale_param {
    axis: 0
  }
}
layer {
  name: "lstm1_transform_15"
  type: "InnerProduct"
  bottom: "h_conted_14"
  top: "W_hc_h_14"
  param {
    name: "W_hc"
  }
  inner_product_param {
    num_output: 64
    bias_term: false
    weight_filler {
      type: "xavier"
    }
    axis: 2
  }
}
layer {
  name: "lstm1_gate_input_15"
  type: "Eltwise"
  bottom: "W_hc_h_14"
  bottom: "W_xc_x_15"
  top: "gate_input_15"
  eltwise_param {
    operation: SUM
  }
}
layer {
  name: "lstm1_unit_15"
  type: "LSTMUnit"
  bottom: "c_14"
  bottom: "gate_input_15"
  bottom: "cont_15"
  top: "c_15"
  top: "h_15"
}
layer {
  name: "lstm1_h_conted_15"
  type: "Scale"
  bottom: "h_15"
  bottom: "cont_16"
  top: "h_conted_15"
  scale_param {
    axis: 0
  }
}
layer {
  name: "lstm1_transform_16"
  type: "InnerProduct"
  bottom: "h_conted_15"
  top: "W_hc_h_15"
  param {
    name: "W_hc"
  }
  inner_product_param {
    num_output: 64
    bias_term: false
    weight_filler {
      type: "xavier"
    }
    axis: 2
  }
}
layer {
  name: "lstm1_gate_input_16"
  type: "Eltwise"
  bottom: "W_hc_h_15"
  bottom: "W_xc_x_16"
  top: "gate_input_16"
  eltwise_param {
    operation: SUM
  }
}
layer {
  name: "lstm1_unit_16"
  type: "LSTMUnit"
  bottom: "c_15"
  bottom: "gate_input_16"
  bottom: "cont_16"
  top: "c_16"
  top: "h_16"
}
layer {
  name: "lstm1_h_conted_16"
  type: "Scale"
  bottom: "h_16"
  bottom: "cont_17"
  top: "h_conted_16"
  scale_param {
    axis: 0
  }
}
layer {
  name: "lstm1_transform_17"
  type: "InnerProduct"
  bottom: "h_conted_16"
  top: "W_hc_h_16"
  param {
    name: "W_hc"
  }
  inner_product_param {
    num_output: 64
    bias_term: false
    weight_filler {
      type: "xavier"
    }
    axis: 2
  }
}
layer {
  name: "lstm1_gate_input_17"
  type: "Eltwise"
  bottom: "W_hc_h_16"
  bottom: "W_xc_x_17"
  top: "gate_input_17"
  eltwise_param {
    operation: SUM
  }
}
layer {
  name: "lstm1_unit_17"
  type: "LSTMUnit"
  bottom: "c_16"
  bottom: "gate_input_17"
  bottom: "cont_17"
  top: "c_17"
  top: "h_17"
}
layer {
  name: "lstm1_h_conted_17"
  type: "Scale"
  bottom: "h_17"
  bottom: "cont_18"
  top: "h_conted_17"
  scale_param {
    axis: 0
  }
}
layer {
  name: "lstm1_transform_18"
  type: "InnerProduct"
  bottom: "h_conted_17"
  top: "W_hc_h_17"
  param {
    name: "W_hc"
  }
  inner_product_param {
    num_output: 64
    bias_term: false
    weight_filler {
      type: "xavier"
    }
    axis: 2
  }
}
layer {
  name: "lstm1_gate_input_18"
  type: "Eltwise"
  bottom: "W_hc_h_17"
  bottom: "W_xc_x_18"
  top: "gate_input_18"
  eltwise_param {
    operation: SUM
  }
}
layer {
  name: "lstm1_unit_18"
  type: "LSTMUnit"
  bottom: "c_17"
  bottom: "gate_input_18"
  bottom: "cont_18"
  top: "c_18"
  top: "h_18"
}
layer {
  name: "lstm1_h_conted_18"
  type: "Scale"
  bottom: "h_18"
  bottom: "cont_19"
  top: "h_conted_18"
  scale_param {
    axis: 0
  }
}
layer {
  name: "lstm1_transform_19"
  type: "InnerProduct"
  bottom: "h_conted_18"
  top: "W_hc_h_18"
  param {
    name: "W_hc"
  }
  inner_product_param {
    num_output: 64
    bias_term: false
    weight_filler {
      type: "xavier"
    }
    axis: 2
  }
}
layer {
  name: "lstm1_gate_input_19"
  type: "Eltwise"
  bottom: "W_hc_h_18"
  bottom: "W_xc_x_19"
  top: "gate_input_19"
  eltwise_param {
    operation: SUM
  }
}
layer {
  name: "lstm1_unit_19"
  type: "LSTMUnit"
  bottom: "c_18"
  bottom: "gate_input_19"
  bottom: "cont_19"
  top: "c_19"
  top: "h_19"
}
layer {
  name: "lstm1_h_conted_19"
  type: "Scale"
  bottom: "h_19"
  bottom: "cont_20"
  top: "h_conted_19"
  scale_param {
    axis: 0
  }
}
layer {
  name: "lstm1_transform_20"
  type: "InnerProduct"
  bottom: "h_conted_19"
  top: "W_hc_h_19"
  param {
    name: "W_hc"
  }
  inner_product_param {
    num_output: 64
    bias_term: false
    weight_filler {
      type: "xavier"
    }
    axis: 2
  }
}
layer {
  name: "lstm1_gate_input_20"
  type: "Eltwise"
  bottom: "W_hc_h_19"
  bottom: "W_xc_x_20"
  top: "gate_input_20"
  eltwise_param {
    operation: SUM
  }
}
layer {
  name: "lstm1_unit_20"
  type: "LSTMUnit"
  bottom: "c_19"
  bottom: "gate_input_20"
  bottom: "cont_20"
  top: "c_20"
  top: "h_20"
}
layer {
  name: "lstm1_h_conted_20"
  type: "Scale"
  bottom: "h_20"
  bottom: "cont_21"
  top: "h_conted_20"
  scale_param {
    axis: 0
  }
}
layer {
  name: "lstm1_transform_21"
  type: "InnerProduct"
  bottom: "h_conted_20"
  top: "W_hc_h_20"
  param {
    name: "W_hc"
  }
  inner_product_param {
    num_output: 64
    bias_term: false
    weight_filler {
      type: "xavier"
    }
    axis: 2
  }
}
layer {
  name: "lstm1_gate_input_21"
  type: "Eltwise"
  bottom: "W_hc_h_20"
  bottom: "W_xc_x_21"
  top: "gate_input_21"
  eltwise_param {
    operation: SUM
  }
}
layer {
  name: "lstm1_unit_21"
  type: "LSTMUnit"
  bottom: "c_20"
  bottom: "gate_input_21"
  bottom: "cont_21"
  top: "c_21"
  top: "h_21"
}
layer {
  name: "lstm1_h_conted_21"
  type: "Scale"
  bottom: "h_21"
  bottom: "cont_22"
  top: "h_conted_21"
  scale_param {
    axis: 0
  }
}
layer {
  name: "lstm1_transform_22"
  type: "InnerProduct"
  bottom: "h_conted_21"
  top: "W_hc_h_21"
  param {
    name: "W_hc"
  }
  inner_product_param {
    num_output: 64
    bias_term: false
    weight_filler {
      type: "xavier"
    }
    axis: 2
  }
}
layer {
  name: "lstm1_gate_input_22"
  type: "Eltwise"
  bottom: "W_hc_h_21"
  bottom: "W_xc_x_22"
  top: "gate_input_22"
  eltwise_param {
    operation: SUM
  }
}
layer {
  name: "lstm1_unit_22"
  type: "LSTMUnit"
  bottom: "c_21"
  bottom: "gate_input_22"
  bottom: "cont_22"
  top: "c_22"
  top: "h_22"
}
layer {
  name: "lstm1_h_conted_22"
  type: "Scale"
  bottom: "h_22"
  bottom: "cont_23"
  top: "h_conted_22"
  scale_param {
    axis: 0
  }
}
layer {
  name: "lstm1_transform_23"
  type: "InnerProduct"
  bottom: "h_conted_22"
  top: "W_hc_h_22"
  param {
    name: "W_hc"
  }
  inner_product_param {
    num_output: 64
    bias_term: false
    weight_filler {
      type: "xavier"
    }
    axis: 2
  }
}
layer {
  name: "lstm1_gate_input_23"
  type: "Eltwise"
  bottom: "W_hc_h_22"
  bottom: "W_xc_x_23"
  top: "gate_input_23"
  eltwise_param {
    operation: SUM
  }
}
layer {
  name: "lstm1_unit_23"
  type: "LSTMUnit"
  bottom: "c_22"
  bottom: "gate_input_23"
  bottom: "cont_23"
  top: "c_23"
  top: "h_23"
}
layer {
  name: "lstm1_h_conted_23"
  type: "Scale"
  bottom: "h_23"
  bottom: "cont_24"
  top: "h_conted_23"
  scale_param {
    axis: 0
  }
}
layer {
  name: "lstm1_transform_24"
  type: "InnerProduct"
  bottom: "h_conted_23"
  top: "W_hc_h_23"
  param {
    name: "W_hc"
  }
  inner_product_param {
    num_output: 64
    bias_term: false
    weight_filler {
      type: "xavier"
    }
    axis: 2
  }
}
layer {
  name: "lstm1_gate_input_24"
  type: "Eltwise"
  bottom: "W_hc_h_23"
  bottom: "W_xc_x_24"
  top: "gate_input_24"
  eltwise_param {
    operation: SUM
  }
}
layer {
  name: "lstm1_unit_24"
  type: "LSTMUnit"
  bottom: "c_23"
  bottom: "gate_input_24"
  bottom: "cont_24"
  top: "c_24"
  top: "h_24"
}
layer {
  name: "lstm1_"
  type: "Split"
  bottom: "c_24"
  top: "c_T"
}
layer {
  name: "lstm1_h_concat"
  type: "Concat"
  bottom: "h_1"
  bottom: "h_2"
  bottom: "h_3"
  bottom: "h_4"
  bottom: "h_5"
  bottom: "h_6"
  bottom: "h_7"
  bottom: "h_8"
  bottom: "h_9"
  bottom: "h_10"
  bottom: "h_11"
  bottom: "h_12"
  bottom: "h_13"
  bottom: "h_14"
  bottom: "h_15"
  bottom: "h_16"
  bottom: "h_17"
  bottom: "h_18"
  bottom: "h_19"
  bottom: "h_20"
  bottom: "h_21"
  bottom: "h_22"
  bottom: "h_23"
  bottom: "h_24"
  top: "h"
  concat_param {
    axis: 0
  }
}
layer {
  name: "h_pseudoloss"
  type: "Reduction"
  bottom: "h"
  top: "h_pseudoloss"
  loss_weight: 1
}
I0222 17:37:17.925745 24666 layer_factory.hpp:77] Creating layer lstm1_
I0222 17:37:17.925755 24666 net.cpp:84] Creating Layer lstm1_
I0222 17:37:17.925760 24666 net.cpp:380] lstm1_ -> x
I0222 17:37:17.925766 24666 net.cpp:380] lstm1_ -> cont
I0222 17:37:17.925819 24666 net.cpp:122] Setting up lstm1_
I0222 17:37:17.925825 24666 net.cpp:129] Top shape: 24 26 1 1 (624)
I0222 17:37:17.925829 24666 net.cpp:129] Top shape: 24 26 (624)
I0222 17:37:17.925832 24666 net.cpp:137] Memory required for data: 4992
I0222 17:37:17.925835 24666 layer_factory.hpp:77] Creating layer lstm1_
I0222 17:37:17.925846 24666 net.cpp:84] Creating Layer lstm1_
I0222 17:37:17.925850 24666 net.cpp:380] lstm1_ -> c_0
I0222 17:37:17.925856 24666 net.cpp:380] lstm1_ -> h_0
I0222 17:37:17.925875 24666 net.cpp:122] Setting up lstm1_
I0222 17:37:17.925880 24666 net.cpp:129] Top shape: 1 26 16 (416)
I0222 17:37:17.925884 24666 net.cpp:129] Top shape: 1 26 16 (416)
I0222 17:37:17.925887 24666 net.cpp:137] Memory required for data: 8320
I0222 17:37:17.925890 24666 layer_factory.hpp:77] Creating layer lstm1_cont_slice
I0222 17:37:17.925899 24666 net.cpp:84] Creating Layer lstm1_cont_slice
I0222 17:37:17.925904 24666 net.cpp:406] lstm1_cont_slice <- cont
I0222 17:37:17.925909 24666 net.cpp:380] lstm1_cont_slice -> cont_1
I0222 17:37:17.925915 24666 net.cpp:380] lstm1_cont_slice -> cont_2
…
I0222 17:37:17.925997 24666 net.cpp:380] lstm1_cont_slice -> cont_17
I0222 17:37:17.926002 24666 net.cpp:380] lstm1_cont_slice -> cont_18
I0222 17:37:17.927086 24666 net.cpp:380] lstm1_cont_slice -> cont_19
I0222 17:37:17.927114 24666 net.cpp:380] lstm1_cont_slice -> cont_20
I0222 17:37:17.927121 24666 net.cpp:380] lstm1_cont_slice -> cont_21
I0222 17:37:17.927125 24666 net.cpp:380] lstm1_cont_slice -> cont_22
I0222 17:37:17.927132 24666 net.cpp:380] lstm1_cont_slice -> cont_23
I0222 17:37:17.927150 24666 net.cpp:380] lstm1_cont_slice -> cont_24
I0222 17:37:17.927291 24666 net.cpp:122] Setting up lstm1_cont_slice
I0222 17:37:17.927297 24666 net.cpp:129] Top shape: 1 26 (26)
I0222 17:37:17.927300 24666 net.cpp:129] Top shape: 1 26 (26)
I0222 17:37:17.927304 24666 net.cpp:129] Top shape: 1 26 (26)
I0222 17:37:17.927306 24666 net.cpp:129] Top shape: 1 26 (26)
I0222 17:37:17.927309 24666 net.cpp:129] Top shape: 1 26 (26)
I0222 17:37:17.927311 24666 net.cpp:129] Top shape: 1 26 (26)
I0222 17:37:17.927314 24666 net.cpp:129] Top shape: 1 26 (26)
I0222 17:37:17.927317 24666 net.cpp:129] Top shape: 1 26 (26)
I0222 17:37:17.927320 24666 net.cpp:129] Top shape: 1 26 (26)
I0222 17:37:17.927322 24666 net.cpp:129] Top shape: 1 26 (26)
I0222 17:37:17.927325 24666 net.cpp:129] Top shape: 1 26 (26)
I0222 17:37:17.927328 24666 net.cpp:129] Top shape: 1 26 (26)
I0222 17:37:17.927332 24666 net.cpp:129] Top shape: 1 26 (26)
I0222 17:37:17.927335 24666 net.cpp:129] Top shape: 1 26 (26)
I0222 17:37:17.927338 24666 net.cpp:129] Top shape: 1 26 (26)
I0222 17:37:17.927341 24666 net.cpp:129] Top shape: 1 26 (26)
I0222 17:37:17.927345 24666 net.cpp:129] Top shape: 1 26 (26)
I0222 17:37:17.927348 24666 net.cpp:129] Top shape: 1 26 (26)
I0222 17:37:17.927351 24666 net.cpp:129] Top shape: 1 26 (26)
I0222 17:37:17.927354 24666 net.cpp:129] Top shape: 1 26 (26)
I0222 17:37:17.927357 24666 net.cpp:129] Top shape: 1 26 (26)
I0222 17:37:17.927361 24666 net.cpp:129] Top shape: 1 26 (26)
I0222 17:37:17.927363 24666 net.cpp:129] Top shape: 1 26 (26)
I0222 17:37:17.927367 24666 net.cpp:129] Top shape: 1 26 (26)
I0222 17:37:17.927371 24666 net.cpp:137] Memory required for data: 10816
I0222 17:37:17.927373 24666 layer_factory.hpp:77] Creating layer cont_1_lstm1_cont_slice_0_split
I0222 17:37:17.927381 24666 net.cpp:84] Creating Layer cont_1_lstm1_cont_slice_0_split
I0222 17:37:17.927392 24666 net.cpp:406] cont_1_lstm1_cont_slice_0_split <- cont_1
I0222 17:37:17.927397 24666 net.cpp:380] cont_1_lstm1_cont_slice_0_split -> cont_1_lstm1_cont_slice_0_split_0
I0222 17:37:17.927402 24666 net.cpp:380] cont_1_lstm1_cont_slice_0_split -> cont_1_lstm1_cont_slice_0_split_1
I0222 17:37:17.927423 24666 net.cpp:122] Setting up cont_1_lstm1_cont_slice_0_split
I0222 17:37:17.927426 24666 net.cpp:129] Top shape: 1 26 (26)
I0222 17:37:17.927430 24666 net.cpp:129] Top shape: 1 26 (26)
I0222 17:37:17.927433 24666 net.cpp:137] Memory required for data: 11024
I0222 17:37:17.927436 24666 layer_factory.hpp:77] Creating layer cont_2_lstm1_cont_slice_1_split
I0222 17:37:17.927441 24666 net.cpp:84] Creating Layer cont_2_lstm1_cont_slice_1_split
I0222 17:37:17.927444 24666 net.cpp:406] cont_2_lstm1_cont_slice_1_split <- cont_2
I0222 17:37:17.927449 24666 net.cpp:380] cont_2_lstm1_cont_slice_1_split -> cont_2_lstm1_cont_slice_1_split_0
I0222 17:37:17.927453 24666 net.cpp:380] cont_2_lstm1_cont_slice_1_split -> cont_2_lstm1_cont_slice_1_split_1
I0222 17:37:17.927472 24666 net.cpp:122] Setting up cont_2_lstm1_cont_slice_1_split
I0222 17:37:17.927476 24666 net.cpp:129] Top shape: 1 26 (26)
I0222 17:37:17.927479 24666 net.cpp:129] Top shape: 1 26 (26)
I0222 17:37:17.927482 24666 net.cpp:137] Memory required for data: 11232
I0222 17:37:17.927485 24666 layer_factory.hpp:77] Creating layer cont_3_lstm1_cont_slice_2_split
I0222 17:37:17.927489 24666 net.cpp:84] Creating Layer cont_3_lstm1_cont_slice_2_split
I0222 17:37:17.927492 24666 net.cpp:406] cont_3_lstm1_cont_slice_2_split <- cont_3
I0222 17:37:17.927495 24666 net.cpp:380] cont_3_lstm1_cont_slice_2_split -> cont_3_lstm1_cont_slice_2_split_0
I0222 17:37:17.927503 24666 net.cpp:380] cont_3_lstm1_cont_slice_2_split -> cont_3_lstm1_cont_slice_2_split_1
I0222 17:37:17.927520 24666 net.cpp:122] Setting up cont_3_lstm1_cont_slice_2_split
I0222 17:37:17.927527 24666 net.cpp:129] Top shape: 1 26 (26)
I0222 17:37:17.927531 24666 net.cpp:129] Top shape: 1 26 (26)
I0222 17:37:17.927534 24666 net.cpp:137] Memory required for data: 11440
I0222 17:37:17.927537 24666 layer_factory.hpp:77] Creating layer cont_4_lstm1_cont_slice_3_split
I0222 17:37:17.927541 24666 net.cpp:84] Creating Layer cont_4_lstm1_cont_slice_3_split
I0222 17:37:17.927544 24666 net.cpp:406] cont_4_lstm1_cont_slice_3_split <- cont_4
I0222 17:37:17.927549 24666 net.cpp:380] cont_4_lstm1_cont_slice_3_split -> cont_4_lstm1_cont_slice_3_split_0
I0222 17:37:17.927554 24666 net.cpp:380] cont_4_lstm1_cont_slice_3_split -> cont_4_lstm1_cont_slice_3_split_1
I0222 17:37:17.927570 24666 net.cpp:122] Setting up cont_4_lstm1_cont_slice_3_split
I0222 17:37:17.927575 24666 net.cpp:129] Top shape: 1 26 (26)
I0222 17:37:17.927578 24666 net.cpp:129] Top shape: 1 26 (26)
I0222 17:37:17.927582 24666 net.cpp:137] Memory required for data: 11648
I0222 17:37:17.927584 24666 layer_factory.hpp:77] Creating layer cont_5_lstm1_cont_slice_4_split
I0222 17:37:17.927588 24666 net.cpp:84] Creating Layer cont_5_lstm1_cont_slice_4_split
I0222 17:37:17.927592 24666 net.cpp:406] cont_5_lstm1_cont_slice_4_split <- cont_5
I0222 17:37:17.927595 24666 net.cpp:380] cont_5_lstm1_cont_slice_4_split -> cont_5_lstm1_cont_slice_4_split_0
I0222 17:37:17.927599 24666 net.cpp:380] cont_5_lstm1_cont_slice_4_split -> cont_5_lstm1_cont_slice_4_split_1
I0222 17:37:17.927615 24666 net.cpp:122] Setting up cont_5_lstm1_cont_slice_4_split
I0222 17:37:17.927620 24666 net.cpp:129] Top shape: 1 26 (26)
I0222 17:37:17.927623 24666 net.cpp:129] Top shape: 1 26 (26)
I0222 17:37:17.927626 24666 net.cpp:137] Memory required for data: 11856
I0222 17:37:17.927629 24666 layer_factory.hpp:77] Creating layer cont_6_lstm1_cont_slice_5_split
I0222 17:37:17.927634 24666 net.cpp:84] Creating Layer cont_6_lstm1_cont_slice_5_split
I0222 17:37:17.927636 24666 net.cpp:406] cont_6_lstm1_cont_slice_5_split <- cont_6
I0222 17:37:17.927641 24666 net.cpp:380] cont_6_lstm1_cont_slice_5_split -> cont_6_lstm1_cont_slice_5_split_0
I0222 17:37:17.927646 24666 net.cpp:380] cont_6_lstm1_cont_slice_5_split -> cont_6_lstm1_cont_slice_5_split_1
I0222 17:37:17.927666 24666 net.cpp:122] Setting up cont_6_lstm1_cont_slice_5_split
I0222 17:37:17.927671 24666 net.cpp:129] Top shape: 1 26 (26)
I0222 17:37:17.927675 24666 net.cpp:129] Top shape: 1 26 (26)
I0222 17:37:17.927677 24666 net.cpp:137] Memory required for data: 12064
I0222 17:37:17.927680 24666 layer_factory.hpp:77] Creating layer cont_7_lstm1_cont_slice_6_split
I0222 17:37:17.927685 24666 net.cpp:84] Creating Layer cont_7_lstm1_cont_slice_6_split
I0222 17:37:17.927688 24666 net.cpp:406] cont_7_lstm1_cont_slice_6_split <- cont_7
I0222 17:37:17.927692 24666 net.cpp:380] cont_7_lstm1_cont_slice_6_split -> cont_7_lstm1_cont_slice_6_split_0
I0222 17:37:17.927696 24666 net.cpp:380] cont_7_lstm1_cont_slice_6_split -> cont_7_lstm1_cont_slice_6_split_1
I0222 17:37:17.927712 24666 net.cpp:122] Setting up cont_7_lstm1_cont_slice_6_split
I0222 17:37:17.927716 24666 net.cpp:129] Top shape: 1 26 (26)
I0222 17:37:17.927719 24666 net.cpp:129] Top shape: 1 26 (26)
I0222 17:37:17.927722 24666 net.cpp:137] Memory required for data: 12272
I0222 17:37:17.927726 24666 layer_factory.hpp:77] Creating layer cont_8_lstm1_cont_slice_7_split
I0222 17:37:17.957281 24666 net.cpp:84] Creating Layer cont_8_lstm1_cont_slice_7_split
I0222 17:37:17.957293 24666 net.cpp:406] cont_8_lstm1_cont_slice_7_split <- cont_8
I0222 17:37:17.957299 24666 net.cpp:380] cont_8_lstm1_cont_slice_7_split -> cont_8_lstm1_cont_slice_7_split_0
I0222 17:37:17.957307 24666 net.cpp:380] cont_8_lstm1_cont_slice_7_split -> cont_8_lstm1_cont_slice_7_split_1
I0222 17:37:17.957386 24666 net.cpp:122] Setting up cont_8_lstm1_cont_slice_7_split
I0222 17:37:17.957408 24666 net.cpp:129] Top shape: 1 26 (26)
I0222 17:37:17.957412 24666 net.cpp:129] Top shape: 1 26 (26)
I0222 17:37:17.957414 24666 net.cpp:137] Memory required for data: 12480
I0222 17:37:17.957418 24666 layer_factory.hpp:77] Creating layer cont_9_lstm1_cont_slice_8_split
I0222 17:37:17.957422 24666 net.cpp:84] Creating Layer cont_9_lstm1_cont_slice_8_split
I0222 17:37:17.957427 24666 net.cpp:406] cont_9_lstm1_cont_slice_8_split <- cont_9
I0222 17:37:17.957432 24666 net.cpp:380] cont_9_lstm1_cont_slice_8_split -> cont_9_lstm1_cont_slice_8_split_0
I0222 17:37:17.957437 24666 net.cpp:380] cont_9_lstm1_cont_slice_8_split -> cont_9_lstm1_cont_slice_8_split_1
I0222 17:37:17.957453 24666 net.cpp:122] Setting up cont_9_lstm1_cont_slice_8_split
I0222 17:37:17.957458 24666 net.cpp:129] Top shape: 1 26 (26)
I0222 17:37:17.957461 24666 net.cpp:129] Top shape: 1 26 (26)
I0222 17:37:17.957464 24666 net.cpp:137] Memory required for data: 12688
I0222 17:37:17.957468 24666 layer_factory.hpp:77] Creating layer cont_10_lstm1_cont_slice_9_split
I0222 17:37:17.957473 24666 net.cpp:84] Creating Layer cont_10_lstm1_cont_slice_9_split
I0222 17:37:17.957476 24666 net.cpp:406] cont_10_lstm1_cont_slice_9_split <- cont_10
I0222 17:37:17.957479 24666 net.cpp:380] cont_10_lstm1_cont_slice_9_split -> cont_10_lstm1_cont_slice_9_split_0
I0222 17:37:17.957484 24666 net.cpp:380] cont_10_lstm1_cont_slice_9_split -> cont_10_lstm1_cont_slice_9_split_1
I0222 17:37:17.957504 24666 net.cpp:122] Setting up cont_10_lstm1_cont_slice_9_split
I0222 17:37:17.957509 24666 net.cpp:129] Top shape: 1 26 (26)
I0222 17:37:17.957512 24666 net.cpp:129] Top shape: 1 26 (26)
I0222 17:37:17.957515 24666 net.cpp:137] Memory required for data: 12896
I0222 17:37:17.957517 24666 layer_factory.hpp:77] Creating layer cont_11_lstm1_cont_slice_10_split
I0222 17:37:17.957521 24666 net.cpp:84] Creating Layer cont_11_lstm1_cont_slice_10_split
I0222 17:37:17.957525 24666 net.cpp:406] cont_11_lstm1_cont_slice_10_split <- cont_11
I0222 17:37:17.957528 24666 net.cpp:380] cont_11_lstm1_cont_slice_10_split -> cont_11_lstm1_cont_slice_10_split_0
I0222 17:37:17.957533 24666 net.cpp:380] cont_11_lstm1_cont_slice_10_split -> cont_11_lstm1_cont_slice_10_split_1
I0222 17:37:17.957551 24666 net.cpp:122] Setting up cont_11_lstm1_cont_slice_10_split
I0222 17:37:17.957556 24666 net.cpp:129] Top shape: 1 26 (26)
I0222 17:37:17.957571 24666 net.cpp:129] Top shape: 1 26 (26)
I0222 17:37:17.957574 24666 net.cpp:137] Memory required for data: 13104
I0222 17:37:17.957578 24666 layer_factory.hpp:77] Creating layer cont_12_lstm1_cont_slice_11_split
I0222 17:37:17.957581 24666 net.cpp:84] Creating Layer cont_12_lstm1_cont_slice_11_split
I0222 17:37:17.957586 24666 net.cpp:406] cont_12_lstm1_cont_slice_11_split <- cont_12
I0222 17:37:17.957588 24666 net.cpp:380] cont_12_lstm1_cont_slice_11_split -> cont_12_lstm1_cont_slice_11_split_0
I0222 17:37:17.957593 24666 net.cpp:380] cont_12_lstm1_cont_slice_11_split -> cont_12_lstm1_cont_slice_11_split_1
I0222 17:37:17.957612 24666 net.cpp:122] Setting up cont_12_lstm1_cont_slice_11_split
I0222 17:37:17.957617 24666 net.cpp:129] Top shape: 1 26 (26)
I0222 17:37:17.957620 24666 net.cpp:129] Top shape: 1 26 (26)
I0222 17:37:17.957623 24666 net.cpp:137] Memory required for data: 13312
I0222 17:37:17.957626 24666 layer_factory.hpp:77] Creating layer cont_13_lstm1_cont_slice_12_split
I0222 17:37:17.957630 24666 net.cpp:84] Creating Layer cont_13_lstm1_cont_slice_12_split
I0222 17:37:17.957634 24666 net.cpp:406] cont_13_lstm1_cont_slice_12_split <- cont_13
I0222 17:37:17.957638 24666 net.cpp:380] cont_13_lstm1_cont_slice_12_split -> cont_13_lstm1_cont_slice_12_split_0
I0222 17:37:17.957643 24666 net.cpp:380] cont_13_lstm1_cont_slice_12_split -> cont_13_lstm1_cont_slice_12_split_1
I0222 17:37:17.957659 24666 net.cpp:122] Setting up cont_13_lstm1_cont_slice_12_split
I0222 17:37:17.957664 24666 net.cpp:129] Top shape: 1 26 (26)
I0222 17:37:17.957667 24666 net.cpp:129] Top shape: 1 26 (26)
I0222 17:37:17.957670 24666 net.cpp:137] Memory required for data: 13520
I0222 17:37:17.957674 24666 layer_factory.hpp:77] Creating layer cont_14_lstm1_cont_slice_13_split
I0222 17:37:17.957680 24666 net.cpp:84] Creating Layer cont_14_lstm1_cont_slice_13_split
I0222 17:37:17.957684 24666 net.cpp:406] cont_14_lstm1_cont_slice_13_split <- cont_14
I0222 17:37:17.957687 24666 net.cpp:380] cont_14_lstm1_cont_slice_13_split -> cont_14_lstm1_cont_slice_13_split_0
I0222 17:37:17.957692 24666 net.cpp:380] cont_14_lstm1_cont_slice_13_split -> cont_14_lstm1_cont_slice_13_split_1
I0222 17:37:17.957710 24666 net.cpp:122] Setting up cont_14_lstm1_cont_slice_13_split
I0222 17:37:17.957715 24666 net.cpp:129] Top shape: 1 26 (26)
I0222 17:37:17.957717 24666 net.cpp:129] Top shape: 1 26 (26)
I0222 17:37:17.957720 24666 net.cpp:137] Memory required for data: 13728
I0222 17:37:17.957723 24666 layer_factory.hpp:77] Creating layer cont_15_lstm1_cont_slice_14_split
I0222 17:37:17.957727 24666 net.cpp:84] Creating Layer cont_15_lstm1_cont_slice_14_split
I0222 17:37:17.957731 24666 net.cpp:406] cont_15_lstm1_cont_slice_14_split <- cont_15
I0222 17:37:17.957733 24666 net.cpp:380] cont_15_lstm1_cont_slice_14_split -> cont_15_lstm1_cont_slice_14_split_0
I0222 17:37:17.957739 24666 net.cpp:380] cont_15_lstm1_cont_slice_14_split -> cont_15_lstm1_cont_slice_14_split_1
I0222 17:37:17.957756 24666 net.cpp:122] Setting up cont_15_lstm1_cont_slice_14_split
I0222 17:37:17.957759 24666 net.cpp:129] Top shape: 1 26 (26)
I0222 17:37:17.957762 24666 net.cpp:129] Top shape: 1 26 (26)
I0222 17:37:17.957765 24666 net.cpp:137] Memory required for data: 13936
I0222 17:37:17.957768 24666 layer_factory.hpp:77] Creating layer cont_16_lstm1_cont_slice_15_split
I0222 17:37:17.957773 24666 net.cpp:84] Creating Layer cont_16_lstm1_cont_slice_15_split
I0222 17:37:17.957777 24666 net.cpp:406] cont_16_lstm1_cont_slice_15_split <- cont_16
I0222 17:37:17.957780 24666 net.cpp:380] cont_16_lstm1_cont_slice_15_split -> cont_16_lstm1_cont_slice_15_split_0
I0222 17:37:17.957784 24666 net.cpp:380] cont_16_lstm1_cont_slice_15_split -> cont_16_lstm1_cont_slice_15_split_1
I0222 17:37:17.957801 24666 net.cpp:122] Setting up cont_16_lstm1_cont_slice_15_split
I0222 17:37:17.957805 24666 net.cpp:129] Top shape: 1 26 (26)
I0222 17:37:17.957809 24666 net.cpp:129] Top shape: 1 26 (26)
I0222 17:37:17.957813 24666 net.cpp:137] Memory required for data: 14144
I0222 17:37:17.957815 24666 layer_factory.hpp:77] Creating layer cont_17_lstm1_cont_slice_16_split
I0222 17:37:17.957823 24666 net.cpp:84] Creating Layer cont_17_lstm1_cont_slice_16_split
I0222 17:37:17.957828 24666 net.cpp:406] cont_17_lstm1_cont_slice_16_split <- cont_17
I0222 17:37:17.957831 24666 net.cpp:380] cont_17_lstm1_cont_slice_16_split -> cont_17_lstm1_cont_slice_16_split_0
I0222 17:37:17.957835 24666 net.cpp:380] cont_17_lstm1_cont_slice_16_split -> cont_17_lstm1_cont_slice_16_split_1
I0222 17:37:17.959537 24666 net.cpp:122] Setting up cont_17_lstm1_cont_slice_16_split
I0222 17:37:17.959561 24666 net.cpp:129] Top shape: 1 26 (26)
I0222 17:37:17.959578 24666 net.cpp:129] Top shape: 1 26 (26)
I0222 17:37:17.959583 24666 net.cpp:137] Memory required for data: 14352
I0222 17:37:17.959585 24666 layer_factory.hpp:77] Creating layer cont_18_lstm1_cont_slice_17_split
I0222 17:37:17.959589 24666 net.cpp:84] Creating Layer cont_18_lstm1_cont_slice_17_split
I0222 17:37:17.959594 24666 net.cpp:406] cont_18_lstm1_cont_slice_17_split <- cont_18
I0222 17:37:17.959599 24666 net.cpp:380] cont_18_lstm1_cont_slice_17_split -> cont_18_lstm1_cont_slice_17_split_0
I0222 17:37:17.959604 24666 net.cpp:380] cont_18_lstm1_cont_slice_17_split -> cont_18_lstm1_cont_slice_17_split_1
I0222 17:37:17.959622 24666 net.cpp:122] Setting up cont_18_lstm1_cont_slice_17_split
I0222 17:37:17.959627 24666 net.cpp:129] Top shape: 1 26 (26)
I0222 17:37:17.959630 24666 net.cpp:129] Top shape: 1 26 (26)
I0222 17:37:17.959633 24666 net.cpp:137] Memory required for data: 14560
I0222 17:37:17.959636 24666 layer_factory.hpp:77] Creating layer cont_19_lstm1_cont_slice_18_split
I0222 17:37:17.959640 24666 net.cpp:84] Creating Layer cont_19_lstm1_cont_slice_18_split
I0222 17:37:17.959643 24666 net.cpp:406] cont_19_lstm1_cont_slice_18_split <- cont_19
I0222 17:37:17.959648 24666 net.cpp:380] cont_19_lstm1_cont_slice_18_split -> cont_19_lstm1_cont_slice_18_split_0
I0222 17:37:17.959658 24666 net.cpp:380] cont_19_lstm1_cont_slice_18_split -> cont_19_lstm1_cont_slice_18_split_1
I0222 17:37:17.959677 24666 net.cpp:122] Setting up cont_19_lstm1_cont_slice_18_split
I0222 17:37:17.959682 24666 net.cpp:129] Top shape: 1 26 (26)
I0222 17:37:17.959686 24666 net.cpp:129] Top shape: 1 26 (26)
I0222 17:37:17.959688 24666 net.cpp:137] Memory required for data: 14768
I0222 17:37:17.959692 24666 layer_factory.hpp:77] Creating layer cont_20_lstm1_cont_slice_19_split
I0222 17:37:17.959695 24666 net.cpp:84] Creating Layer cont_20_lstm1_cont_slice_19_split
I0222 17:37:17.959699 24666 net.cpp:406] cont_20_lstm1_cont_slice_19_split <- cont_20
I0222 17:37:17.959703 24666 net.cpp:380] cont_20_lstm1_cont_slice_19_split -> cont_20_lstm1_cont_slice_19_split_0
I0222 17:37:17.959707 24666 net.cpp:380] cont_20_lstm1_cont_slice_19_split -> cont_20_lstm1_cont_slice_19_split_1
I0222 17:37:17.959725 24666 net.cpp:122] Setting up cont_20_lstm1_cont_slice_19_split
I0222 17:37:17.959729 24666 net.cpp:129] Top shape: 1 26 (26)
I0222 17:37:17.959733 24666 net.cpp:129] Top shape: 1 26 (26)
I0222 17:37:17.959736 24666 net.cpp:137] Memory required for data: 14976
I0222 17:37:17.959738 24666 layer_factory.hpp:77] Creating layer cont_21_lstm1_cont_slice_20_split
I0222 17:37:17.959743 24666 net.cpp:84] Creating Layer cont_21_lstm1_cont_slice_20_split
I0222 17:37:17.959745 24666 net.cpp:406] cont_21_lstm1_cont_slice_20_split <- cont_21
I0222 17:37:17.959753 24666 net.cpp:380] cont_21_lstm1_cont_slice_20_split -> cont_21_lstm1_cont_slice_20_split_0
I0222 17:37:17.959758 24666 net.cpp:380] cont_21_lstm1_cont_slice_20_split -> cont_21_lstm1_cont_slice_20_split_1
I0222 17:37:17.959774 24666 net.cpp:122] Setting up cont_21_lstm1_cont_slice_20_split
I0222 17:37:17.959779 24666 net.cpp:129] Top shape: 1 26 (26)
I0222 17:37:17.959782 24666 net.cpp:129] Top shape: 1 26 (26)
I0222 17:37:17.959785 24666 net.cpp:137] Memory required for data: 15184
I0222 17:37:17.959789 24666 layer_factory.hpp:77] Creating layer cont_22_lstm1_cont_slice_21_split
I0222 17:37:17.959791 24666 net.cpp:84] Creating Layer cont_22_lstm1_cont_slice_21_split
I0222 17:37:17.959801 24666 net.cpp:406] cont_22_lstm1_cont_slice_21_split <- cont_22
I0222 17:37:17.959805 24666 net.cpp:380] cont_22_lstm1_cont_slice_21_split -> cont_22_lstm1_cont_slice_21_split_0
I0222 17:37:17.959810 24666 net.cpp:380] cont_22_lstm1_cont_slice_21_split -> cont_22_lstm1_cont_slice_21_split_1
I0222 17:37:17.959828 24666 net.cpp:122] Setting up cont_22_lstm1_cont_slice_21_split
I0222 17:37:17.959833 24666 net.cpp:129] Top shape: 1 26 (26)
I0222 17:37:17.959836 24666 net.cpp:129] Top shape: 1 26 (26)
I0222 17:37:17.959839 24666 net.cpp:137] Memory required for data: 15392
I0222 17:37:17.959842 24666 layer_factory.hpp:77] Creating layer cont_23_lstm1_cont_slice_22_split
I0222 17:37:17.959846 24666 net.cpp:84] Creating Layer cont_23_lstm1_cont_slice_22_split
I0222 17:37:17.959849 24666 net.cpp:406] cont_23_lstm1_cont_slice_22_split <- cont_23
I0222 17:37:17.959853 24666 net.cpp:380] cont_23_lstm1_cont_slice_22_split -> cont_23_lstm1_cont_slice_22_split_0
I0222 17:37:17.959857 24666 net.cpp:380] cont_23_lstm1_cont_slice_22_split -> cont_23_lstm1_cont_slice_22_split_1
I0222 17:37:17.959874 24666 net.cpp:122] Setting up cont_23_lstm1_cont_slice_22_split
I0222 17:37:17.959878 24666 net.cpp:129] Top shape: 1 26 (26)
I0222 17:37:17.959882 24666 net.cpp:129] Top shape: 1 26 (26)
I0222 17:37:17.959885 24666 net.cpp:137] Memory required for data: 15600
I0222 17:37:17.959887 24666 layer_factory.hpp:77] Creating layer cont_24_lstm1_cont_slice_23_split
I0222 17:37:17.959892 24666 net.cpp:84] Creating Layer cont_24_lstm1_cont_slice_23_split
I0222 17:37:17.959894 24666 net.cpp:406] cont_24_lstm1_cont_slice_23_split <- cont_24
I0222 17:37:17.959899 24666 net.cpp:380] cont_24_lstm1_cont_slice_23_split -> cont_24_lstm1_cont_slice_23_split_0
I0222 17:37:17.959903 24666 net.cpp:380] cont_24_lstm1_cont_slice_23_split -> cont_24_lstm1_cont_slice_23_split_1
I0222 17:37:17.959919 24666 net.cpp:122] Setting up cont_24_lstm1_cont_slice_23_split
I0222 17:37:17.959923 24666 net.cpp:129] Top shape: 1 26 (26)
I0222 17:37:17.959928 24666 net.cpp:129] Top shape: 1 26 (26)
I0222 17:37:17.959930 24666 net.cpp:137] Memory required for data: 15808
I0222 17:37:17.959933 24666 layer_factory.hpp:77] Creating layer lstm1_x_transform
I0222 17:37:17.959940 24666 net.cpp:84] Creating Layer lstm1_x_transform
I0222 17:37:17.959944 24666 net.cpp:406] lstm1_x_transform <- x
I0222 17:37:17.959949 24666 net.cpp:380] lstm1_x_transform -> W_xc_x
I0222 17:37:17.960026 24666 net.cpp:122] Setting up lstm1_x_transform
I0222 17:37:17.960032 24666 net.cpp:129] Top shape: 24 26 64 (39936)
I0222 17:37:17.960036 24666 net.cpp:137] Memory required for data: 175552
I0222 17:37:17.960044 24666 layer_factory.hpp:77] Creating layer lstm1_W_xc_x_slice
I0222 17:37:17.960053 24666 net.cpp:84] Creating Layer lstm1_W_xc_x_slice
I0222 17:37:17.960057 24666 net.cpp:406] lstm1_W_xc_x_slice <- W_xc_x
I0222 17:37:17.960062 24666 net.cpp:380] lstm1_W_xc_x_slice -> W_xc_x_1
I0222 17:37:17.960068 24666 net.cpp:380] lstm1_W_xc_x_slice -> W_xc_x_2
…
I0222 17:37:17.960165 24666 net.cpp:380] lstm1_W_xc_x_slice -> W_xc_x_18
I0222 17:37:17.960171 24666 net.cpp:380] lstm1_W_xc_x_slice -> W_xc_x_19
I0222 17:37:17.960176 24666 net.cpp:380] lstm1_W_xc_x_slice -> W_xc_x_20
I0222 17:37:17.960182 24666 net.cpp:380] lstm1_W_xc_x_slice -> W_xc_x_21
I0222 17:37:17.960187 24666 net.cpp:380] lstm1_W_xc_x_slice -> W_xc_x_22
I0222 17:37:17.960192 24666 net.cpp:380] lstm1_W_xc_x_slice -> W_xc_x_23
I0222 17:37:17.960199 24666 net.cpp:380] lstm1_W_xc_x_slice -> W_xc_x_24
I0222 17:37:17.960338 24666 net.cpp:122] Setting up lstm1_W_xc_x_slice
I0222 17:37:17.960343 24666 net.cpp:129] Top shape: 1 26 64 (1664)
I0222 17:37:17.960347 24666 net.cpp:129] Top shape: 1 26 64 (1664)
I0222 17:37:17.987746 24666 net.cpp:129] Top shape: 1 26 64 (1664)
I0222 17:37:17.987753 24666 net.cpp:129] Top shape: 1 26 64 (1664)
I0222 17:37:17.987756 24666 net.cpp:129] Top shape: 1 26 64 (1664)
I0222 17:37:17.987759 24666 net.cpp:129] Top shape: 1 26 64 (1664)
I0222 17:37:17.987764 24666 net.cpp:129] Top shape: 1 26 64 (1664)
I0222 17:37:17.987785 24666 net.cpp:129] Top shape: 1 26 64 (1664)
I0222 17:37:17.987788 24666 net.cpp:129] Top shape: 1 26 64 (1664)
I0222 17:37:17.987792 24666 net.cpp:129] Top shape: 1 26 64 (1664)
I0222 17:37:17.987809 24666 net.cpp:129] Top shape: 1 26 64 (1664)
I0222 17:37:17.987812 24666 net.cpp:129] Top shape: 1 26 64 (1664)
I0222 17:37:17.987815 24666 net.cpp:129] Top shape: 1 26 64 (1664)
I0222 17:37:17.987834 24666 net.cpp:129] Top shape: 1 26 64 (1664)
I0222 17:37:17.987838 24666 net.cpp:129] Top shape: 1 26 64 (1664)
I0222 17:37:17.987841 24666 net.cpp:129] Top shape: 1 26 64 (1664)
I0222 17:37:17.987844 24666 net.cpp:129] Top shape: 1 26 64 (1664)
I0222 17:37:17.987848 24666 net.cpp:129] Top shape: 1 26 64 (1664)
I0222 17:37:17.987851 24666 net.cpp:129] Top shape: 1 26 64 (1664)
I0222 17:37:17.987854 24666 net.cpp:129] Top shape: 1 26 64 (1664)
I0222 17:37:17.987857 24666 net.cpp:129] Top shape: 1 26 64 (1664)
I0222 17:37:17.987860 24666 net.cpp:129] Top shape: 1 26 64 (1664)
I0222 17:37:17.987879 24666 net.cpp:129] Top shape: 1 26 64 (1664)
I0222 17:37:17.987881 24666 net.cpp:129] Top shape: 1 26 64 (1664)
I0222 17:37:17.987884 24666 net.cpp:137] Memory required for data: 335296
I0222 17:37:17.987888 24666 layer_factory.hpp:77] Creating layer lstm1_h_conted_0
I0222 17:37:17.987898 24666 net.cpp:84] Creating Layer lstm1_h_conted_0
I0222 17:37:17.987903 24666 net.cpp:406] lstm1_h_conted_0 <- h_0
I0222 17:37:17.987908 24666 net.cpp:406] lstm1_h_conted_0 <- cont_1_lstm1_cont_slice_0_split_0
I0222 17:37:17.987913 24666 net.cpp:380] lstm1_h_conted_0 -> h_conted_0
I0222 17:37:17.987972 24666 net.cpp:122] Setting up lstm1_h_conted_0
I0222 17:37:17.987978 24666 net.cpp:129] Top shape: 1 26 16 (416)
I0222 17:37:17.987982 24666 net.cpp:137] Memory required for data: 336960
I0222 17:37:17.987984 24666 layer_factory.hpp:77] Creating layer lstm1_transform_1
I0222 17:37:17.987990 24666 net.cpp:84] Creating Layer lstm1_transform_1
I0222 17:37:17.987993 24666 net.cpp:406] lstm1_transform_1 <- h_conted_0
I0222 17:37:17.987998 24666 net.cpp:380] lstm1_transform_1 -> W_hc_h_0
I0222 17:37:17.988041 24666 net.cpp:122] Setting up lstm1_transform_1
I0222 17:37:17.988046 24666 net.cpp:129] Top shape: 1 26 64 (1664)
I0222 17:37:17.988049 24666 net.cpp:137] Memory required for data: 343616
I0222 17:37:17.988056 24666 layer_factory.hpp:77] Creating layer lstm1_gate_input_1
I0222 17:37:17.988067 24666 net.cpp:84] Creating Layer lstm1_gate_input_1
I0222 17:37:17.988071 24666 net.cpp:406] lstm1_gate_input_1 <- W_hc_h_0
I0222 17:37:17.988075 24666 net.cpp:406] lstm1_gate_input_1 <- W_xc_x_1
I0222 17:37:17.988080 24666 net.cpp:380] lstm1_gate_input_1 -> gate_input_1
I0222 17:37:17.988097 24666 net.cpp:122] Setting up lstm1_gate_input_1
I0222 17:37:17.988102 24666 net.cpp:129] Top shape: 1 26 64 (1664)
I0222 17:37:17.988106 24666 net.cpp:137] Memory required for data: 350272
I0222 17:37:17.988108 24666 layer_factory.hpp:77] Creating layer lstm1_unit_1
I0222 17:37:17.988119 24666 net.cpp:84] Creating Layer lstm1_unit_1
I0222 17:37:17.988131 24666 net.cpp:406] lstm1_unit_1 <- c_0
I0222 17:37:17.988135 24666 net.cpp:406] lstm1_unit_1 <- gate_input_1
I0222 17:37:17.988139 24666 net.cpp:406] lstm1_unit_1 <- cont_1_lstm1_cont_slice_0_split_1
I0222 17:37:17.988143 24666 net.cpp:380] lstm1_unit_1 -> c_1
I0222 17:37:17.988148 24666 net.cpp:380] lstm1_unit_1 -> h_1
I0222 17:37:17.988178 24666 net.cpp:122] Setting up lstm1_unit_1
I0222 17:37:17.988181 24666 net.cpp:129] Top shape: 1 26 16 (416)
I0222 17:37:17.988185 24666 net.cpp:129] Top shape: 1 26 16 (416)
I0222 17:37:17.988188 24666 net.cpp:137] Memory required for data: 353600
I0222 17:37:17.988190 24666 layer_factory.hpp:77] Creating layer h_1_lstm1_unit_1_1_split
I0222 17:37:17.988195 24666 net.cpp:84] Creating Layer h_1_lstm1_unit_1_1_split
I0222 17:37:17.988198 24666 net.cpp:406] h_1_lstm1_unit_1_1_split <- h_1
I0222 17:37:17.988204 24666 net.cpp:380] h_1_lstm1_unit_1_1_split -> h_1_lstm1_unit_1_1_split_0
I0222 17:37:17.988207 24666 net.cpp:380] h_1_lstm1_unit_1_1_split -> h_1_lstm1_unit_1_1_split_1
I0222 17:37:17.988225 24666 net.cpp:122] Setting up h_1_lstm1_unit_1_1_split
I0222 17:37:17.988229 24666 net.cpp:129] Top shape: 1 26 16 (416)
I0222 17:37:17.988232 24666 net.cpp:129] Top shape: 1 26 16 (416)
I0222 17:37:17.988235 24666 net.cpp:137] Memory required for data: 356928
I0222 17:37:17.988239 24666 layer_factory.hpp:77] Creating layer lstm1_h_conted_1
I0222 17:37:17.988243 24666 net.cpp:84] Creating Layer lstm1_h_conted_1
I0222 17:37:17.988247 24666 net.cpp:406] lstm1_h_conted_1 <- h_1_lstm1_unit_1_1_split_0
I0222 17:37:17.988251 24666 net.cpp:406] lstm1_h_conted_1 <- cont_2_lstm1_cont_slice_1_split_0
I0222 17:37:17.988255 24666 net.cpp:380] lstm1_h_conted_1 -> h_conted_1
I0222 17:37:17.988286 24666 net.cpp:122] Setting up lstm1_h_conted_1
I0222 17:37:17.988291 24666 net.cpp:129] Top shape: 1 26 16 (416)
I0222 17:37:17.988294 24666 net.cpp:137] Memory required for data: 358592
I0222 17:37:17.988296 24666 layer_factory.hpp:77] Creating layer lstm1_transform_2
I0222 17:37:17.988301 24666 net.cpp:84] Creating Layer lstm1_transform_2
I0222 17:37:17.988304 24666 net.cpp:406] lstm1_transform_2 <- h_conted_1
I0222 17:37:17.988308 24666 net.cpp:380] lstm1_transform_2 -> W_hc_h_1
I0222 17:37:17.988339 24666 net.cpp:122] Setting up lstm1_transform_2
I0222 17:37:17.988344 24666 net.cpp:129] Top shape: 1 26 64 (1664)
I0222 17:37:17.988348 24666 net.cpp:137] Memory required for data: 365248
I0222 17:37:17.988350 24666 net.cpp:465] Sharing parameters 'W_hc' owned by layer 'lstm1_transform_1', param index 0
I0222 17:37:17.988353 24666 layer_factory.hpp:77] Creating layer lstm1_gate_input_2
I0222 17:37:17.988358 24666 net.cpp:84] Creating Layer lstm1_gate_input_2
I0222 17:37:17.988361 24666 net.cpp:406] lstm1_gate_input_2 <- W_hc_h_1
I0222 17:37:17.988366 24666 net.cpp:406] lstm1_gate_input_2 <- W_xc_x_2
I0222 17:37:17.988370 24666 net.cpp:380] lstm1_gate_input_2 -> gate_input_2
I0222 17:37:17.988382 24666 net.cpp:122] Setting up lstm1_gate_input_2
I0222 17:37:17.988387 24666 net.cpp:129] Top shape: 1 26 64 (1664)
I0222 17:37:17.988390 24666 net.cpp:137] Memory required for data: 371904
I0222 17:37:17.988394 24666 layer_factory.hpp:77] Creating layer lstm1_unit_2
I0222 17:37:17.988397 24666 net.cpp:84] Creating Layer lstm1_unit_2
I0222 17:37:17.988400 24666 net.cpp:406] lstm1_unit_2 <- c_1
I0222 17:37:17.988404 24666 net.cpp:406] lstm1_unit_2 <- gate_input_2
I0222 17:37:17.988407 24666 net.cpp:406] lstm1_unit_2 <- cont_2_lstm1_cont_slice_1_split_1
I0222 17:37:17.988412 24666 net.cpp:380] lstm1_unit_2 -> c_2
I0222 17:37:17.988417 24666 net.cpp:380] lstm1_unit_2 -> h_2
I0222 17:37:17.988440 24666 net.cpp:122] Setting up lstm1_unit_2
I0222 17:37:17.988445 24666 net.cpp:129] Top shape: 1 26 16 (416)
I0222 17:37:17.988448 24666 net.cpp:129] Top shape: 1 26 16 (416)
I0222 17:37:17.988451 24666 net.cpp:137] Memory required for data: 375232
I0222 17:37:17.988453 24666 layer_factory.hpp:77] Creating layer h_2_lstm1_unit_2_1_split
I0222 17:37:17.988457 24666 net.cpp:84] Creating Layer h_2_lstm1_unit_2_1_split
I0222 17:37:17.988466 24666 net.cpp:406] h_2_lstm1_unit_2_1_split <- h_2
I0222 17:37:17.988471 24666 net.cpp:380] h_2_lstm1_unit_2_1_split -> h_2_lstm1_unit_2_1_split_0
I0222 17:37:17.988474 24666 net.cpp:380] h_2_lstm1_unit_2_1_split -> h_2_lstm1_unit_2_1_split_1
I0222 17:37:17.990742 24666 net.cpp:122] Setting up h_2_lstm1_unit_2_1_split
I0222 17:37:17.990766 24666 net.cpp:129] Top shape: 1 26 16 (416)
I0222 17:37:17.990783 24666 net.cpp:129] Top shape: 1 26 16 (416)
I0222 17:37:17.990787 24666 net.cpp:137] Memory required for data: 378560
I0222 17:37:17.990789 24666 layer_factory.hpp:77] Creating layer lstm1_h_conted_2
I0222 17:37:17.990794 24666 net.cpp:84] Creating Layer lstm1_h_conted_2
I0222 17:37:17.990798 24666 net.cpp:406] lstm1_h_conted_2 <- h_2_lstm1_unit_2_1_split_0
I0222 17:37:17.990803 24666 net.cpp:406] lstm1_h_conted_2 <- cont_3_lstm1_cont_slice_2_split_0
I0222 17:37:17.990808 24666 net.cpp:380] lstm1_h_conted_2 -> h_conted_2
I0222 17:37:17.990840 24666 net.cpp:122] Setting up lstm1_h_conted_2
I0222 17:37:17.990845 24666 net.cpp:129] Top shape: 1 26 16 (416)
I0222 17:37:17.990847 24666 net.cpp:137] Memory required for data: 380224
I0222 17:37:17.990850 24666 layer_factory.hpp:77] Creating layer lstm1_transform_3
I0222 17:37:17.990856 24666 net.cpp:84] Creating Layer lstm1_transform_3
I0222 17:37:17.990859 24666 net.cpp:406] lstm1_transform_3 <- h_conted_2
I0222 17:37:17.990864 24666 net.cpp:380] lstm1_transform_3 -> W_hc_h_2
I0222 17:37:17.990895 24666 net.cpp:122] Setting up lstm1_transform_3
I0222 17:37:17.990900 24666 net.cpp:129] Top shape: 1 26 64 (1664)
I0222 17:37:17.990902 24666 net.cpp:137] Memory required for data: 386880
I0222 17:37:17.990907 24666 net.cpp:465] Sharing parameters 'W_hc' owned by layer 'lstm1_transform_1', param index 0
I0222 17:37:17.990911 24666 layer_factory.hpp:77] Creating layer lstm1_gate_input_3
I0222 17:37:17.990926 24666 net.cpp:84] Creating Layer lstm1_gate_input_3
I0222 17:37:17.990929 24666 net.cpp:406] lstm1_gate_input_3 <- W_hc_h_2
I0222 17:37:17.990932 24666 net.cpp:406] lstm1_gate_input_3 <- W_xc_x_3
I0222 17:37:17.990952 24666 net.cpp:380] lstm1_gate_input_3 -> gate_input_3
I0222 17:37:17.990965 24666 net.cpp:122] Setting up lstm1_gate_input_3
I0222 17:37:17.990970 24666 net.cpp:129] Top shape: 1 26 64 (1664)
I0222 17:37:17.990972 24666 net.cpp:137] Memory required for data: 393536
I0222 17:37:17.990974 24666 layer_factory.hpp:77] Creating layer lstm1_unit_3
I0222 17:37:17.990991 24666 net.cpp:84] Creating Layer lstm1_unit_3
I0222 17:37:17.990994 24666 net.cpp:406] lstm1_unit_3 <- c_2
I0222 17:37:17.990998 24666 net.cpp:406] lstm1_unit_3 <- gate_input_3
I0222 17:37:17.991015 24666 net.cpp:406] lstm1_unit_3 <- cont_3_lstm1_cont_slice_2_split_1
I0222 17:37:17.991019 24666 net.cpp:380] lstm1_unit_3 -> c_3
I0222 17:37:17.991024 24666 net.cpp:380] lstm1_unit_3 -> h_3
I0222 17:37:17.991050 24666 net.cpp:122] Setting up lstm1_unit_3
I0222 17:37:17.991055 24666 net.cpp:129] Top shape: 1 26 16 (416)
I0222 17:37:17.991058 24666 net.cpp:129] Top shape: 1 26 16 (416)
I0222 17:37:17.991060 24666 net.cpp:137] Memory required for data: 396864
I0222 17:37:17.991063 24666 layer_factory.hpp:77] Creating layer h_3_lstm1_unit_3_1_split
I0222 17:37:17.991066 24666 net.cpp:84] Creating Layer h_3_lstm1_unit_3_1_split
I0222 17:37:17.991082 24666 net.cpp:406] h_3_lstm1_unit_3_1_split <- h_3
I0222 17:37:17.991086 24666 net.cpp:380] h_3_lstm1_unit_3_1_split -> h_3_lstm1_unit_3_1_split_0
I0222 17:37:17.991089 24666 net.cpp:380] h_3_lstm1_unit_3_1_split -> h_3_lstm1_unit_3_1_split_1
I0222 17:37:17.991120 24666 net.cpp:122] Setting up h_3_lstm1_unit_3_1_split
I0222 17:37:17.991125 24666 net.cpp:129] Top shape: 1 26 16 (416)
I0222 17:37:17.991127 24666 net.cpp:129] Top shape: 1 26 16 (416)
I0222 17:37:17.991143 24666 net.cpp:137] Memory required for data: 400192
I0222 17:37:17.991145 24666 layer_factory.hpp:77] Creating layer lstm1_h_conted_3
I0222 17:37:17.991148 24666 net.cpp:84] Creating Layer lstm1_h_conted_3
I0222 17:37:17.991164 24666 net.cpp:406] lstm1_h_conted_3 <- h_3_lstm1_unit_3_1_split_0
I0222 17:37:17.991175 24666 net.cpp:406] lstm1_h_conted_3 <- cont_4_lstm1_cont_slice_3_split_0
I0222 17:37:17.991179 24666 net.cpp:380] lstm1_h_conted_3 -> h_conted_3
I0222 17:37:17.991235 24666 net.cpp:122] Setting up lstm1_h_conted_3
I0222 17:37:17.991253 24666 net.cpp:129] Top shape: 1 26 16 (416)
I0222 17:37:17.991255 24666 net.cpp:137] Memory required for data: 401856
I0222 17:37:17.991258 24666 layer_factory.hpp:77] Creating layer lstm1_transform_4
I0222 17:37:17.991276 24666 net.cpp:84] Creating Layer lstm1_transform_4
I0222 17:37:17.991278 24666 net.cpp:406] lstm1_transform_4 <- h_conted_3
I0222 17:37:17.991283 24666 net.cpp:380] lstm1_transform_4 -> W_hc_h_3
I0222 17:37:17.991327 24666 net.cpp:122] Setting up lstm1_transform_4
I0222 17:37:17.991330 24666 net.cpp:129] Top shape: 1 26 64 (1664)
I0222 17:37:17.991346 24666 net.cpp:137] Memory required for data: 408512
I0222 17:37:17.991349 24666 net.cpp:465] Sharing parameters 'W_hc' owned by layer 'lstm1_transform_1', param index 0
I0222 17:37:17.991353 24666 layer_factory.hpp:77] Creating layer lstm1_gate_input_4
I0222 17:37:17.991356 24666 net.cpp:84] Creating Layer lstm1_gate_input_4
I0222 17:37:17.991360 24666 net.cpp:406] lstm1_gate_input_4 <- W_hc_h_3
I0222 17:37:17.991364 24666 net.cpp:406] lstm1_gate_input_4 <- W_xc_x_4
I0222 17:37:17.991369 24666 net.cpp:380] lstm1_gate_input_4 -> gate_input_4
I0222 17:37:17.991381 24666 net.cpp:122] Setting up lstm1_gate_input_4
I0222 17:37:17.991385 24666 net.cpp:129] Top shape: 1 26 64 (1664)
I0222 17:37:17.991389 24666 net.cpp:137] Memory required for data: 415168
I0222 17:37:17.991391 24666 layer_factory.hpp:77] Creating layer lstm1_unit_4
I0222 17:37:17.991395 24666 net.cpp:84] Creating Layer lstm1_unit_4
I0222 17:37:17.991399 24666 net.cpp:406] lstm1_unit_4 <- c_3
I0222 17:37:17.991402 24666 net.cpp:406] lstm1_unit_4 <- gate_input_4
I0222 17:37:17.991405 24666 net.cpp:406] lstm1_unit_4 <- cont_4_lstm1_cont_slice_3_split_1
I0222 17:37:17.991411 24666 net.cpp:380] lstm1_unit_4 -> c_4
I0222 17:37:17.991415 24666 net.cpp:380] lstm1_unit_4 -> h_4
I0222 17:37:17.991439 24666 net.cpp:122] Setting up lstm1_unit_4
I0222 17:37:17.991443 24666 net.cpp:129] Top shape: 1 26 16 (416)
I0222 17:37:17.991447 24666 net.cpp:129] Top shape: 1 26 16 (416)
I0222 17:37:17.991449 24666 net.cpp:137] Memory required for data: 418496
I0222 17:37:17.991452 24666 layer_factory.hpp:77] Creating layer h_4_lstm1_unit_4_1_split
I0222 17:37:17.991457 24666 net.cpp:84] Creating Layer h_4_lstm1_unit_4_1_split
I0222 17:37:17.991461 24666 net.cpp:406] h_4_lstm1_unit_4_1_split <- h_4
I0222 17:37:17.991464 24666 net.cpp:380] h_4_lstm1_unit_4_1_split -> h_4_lstm1_unit_4_1_split_0
I0222 17:37:17.991468 24666 net.cpp:380] h_4_lstm1_unit_4_1_split -> h_4_lstm1_unit_4_1_split_1
I0222 17:37:17.991494 24666 net.cpp:122] Setting up h_4_lstm1_unit_4_1_split
I0222 17:37:17.991498 24666 net.cpp:129] Top shape: 1 26 16 (416)
I0222 17:37:17.991503 24666 net.cpp:129] Top shape: 1 26 16 (416)
I0222 17:37:17.991506 24666 net.cpp:137] Memory required for data: 421824
I0222 17:37:17.991509 24666 layer_factory.hpp:77] Creating layer lstm1_h_conted_4
I0222 17:37:17.991514 24666 net.cpp:84] Creating Layer lstm1_h_conted_4
I0222 17:37:17.991518 24666 net.cpp:406] lstm1_h_conted_4 <- h_4_lstm1_unit_4_1_split_0
I0222 17:37:17.991521 24666 net.cpp:406] lstm1_h_conted_4 <- cont_5_lstm1_cont_slice_4_split_0
I0222 17:37:17.991525 24666 net.cpp:380] lstm1_h_conted_4 -> h_conted_4
I0222 17:37:17.991554 24666 net.cpp:122] Setting up lstm1_h_conted_4
I0222 17:37:17.991559 24666 net.cpp:129] Top shape: 1 26 16 (416)
I0222 17:37:17.991561 24666 net.cpp:137] Memory required for data: 423488
I0222 17:37:17.991564 24666 layer_factory.hpp:77] Creating layer lstm1_transform_5
I0222 17:37:17.991569 24666 net.cpp:84] Creating Layer lstm1_transform_5
I0222 17:37:17.991571 24666 net.cpp:406] lstm1_transform_5 <- h_conted_4
I0222 17:37:17.991575 24666 net.cpp:380] lstm1_transform_5 -> W_hc_h_4
I0222 17:37:17.991605 24666 net.cpp:122] Setting up lstm1_transform_5
I0222 17:37:17.991617 24666 net.cpp:129] Top shape: 1 26 64 (1664)
I0222 17:37:18.018380 24666 net.cpp:137] Memory required for data: 430144
I0222 17:37:18.018391 24666 net.cpp:465] Sharing parameters 'W_hc' owned by layer 'lstm1_transform_1', param index 0
I0222 17:37:18.018396 24666 layer_factory.hpp:77] Creating layer lstm1_gate_input_5
I0222 17:37:18.018420 24666 net.cpp:84] Creating Layer lstm1_gate_input_5
I0222 17:37:18.018440 24666 net.cpp:406] lstm1_gate_input_5 <- W_hc_h_4
I0222 17:37:18.018446 24666 net.cpp:406] lstm1_gate_input_5 <- W_xc_x_5
I0222 17:37:18.018451 24666 net.cpp:380] lstm1_gate_input_5 -> gate_input_5
I0222 17:37:18.018512 24666 net.cpp:122] Setting up lstm1_gate_input_5
I0222 17:37:18.018532 24666 net.cpp:129] Top shape: 1 26 64 (1664)
I0222 17:37:18.018535 24666 net.cpp:137] Memory required for data: 436800
I0222 17:37:18.018537 24666 layer_factory.hpp:77] Creating layer lstm1_unit_5
I0222 17:37:18.018559 24666 net.cpp:84] Creating Layer lstm1_unit_5
I0222 17:37:18.018564 24666 net.cpp:406] lstm1_unit_5 <- c_4
I0222 17:37:18.018568 24666 net.cpp:406] lstm1_unit_5 <- gate_input_5
I0222 17:37:18.018573 24666 net.cpp:406] lstm1_unit_5 <- cont_5_lstm1_cont_slice_4_split_1
I0222 17:37:18.018576 24666 net.cpp:380] lstm1_unit_5 -> c_5
I0222 17:37:18.018581 24666 net.cpp:380] lstm1_unit_5 -> h_5
I0222 17:37:18.018607 24666 net.cpp:122] Setting up lstm1_unit_5
I0222 17:37:18.018612 24666 net.cpp:129] Top shape: 1 26 16 (416)
I0222 17:37:18.018615 24666 net.cpp:129] Top shape: 1 26 16 (416)
I0222 17:37:18.018618 24666 net.cpp:137] Memory required for data: 440128
I0222 17:37:18.018621 24666 layer_factory.hpp:77] Creating layer h_5_lstm1_unit_5_1_split
I0222 17:37:18.018626 24666 net.cpp:84] Creating Layer h_5_lstm1_unit_5_1_split
I0222 17:37:18.018630 24666 net.cpp:406] h_5_lstm1_unit_5_1_split <- h_5
I0222 17:37:18.018633 24666 net.cpp:380] h_5_lstm1_unit_5_1_split -> h_5_lstm1_unit_5_1_split_0
I0222 17:37:18.018640 24666 net.cpp:380] h_5_lstm1_unit_5_1_split -> h_5_lstm1_unit_5_1_split_1
I0222 17:37:18.018657 24666 net.cpp:122] Setting up h_5_lstm1_unit_5_1_split
I0222 17:37:18.018661 24666 net.cpp:129] Top shape: 1 26 16 (416)
I0222 17:37:18.018666 24666 net.cpp:129] Top shape: 1 26 16 (416)
I0222 17:37:18.018667 24666 net.cpp:137] Memory required for data: 443456
I0222 17:37:18.018671 24666 layer_factory.hpp:77] Creating layer lstm1_h_conted_5
I0222 17:37:18.018677 24666 net.cpp:84] Creating Layer lstm1_h_conted_5
I0222 17:37:18.018681 24666 net.cpp:406] lstm1_h_conted_5 <- h_5_lstm1_unit_5_1_split_0
I0222 17:37:18.018684 24666 net.cpp:406] lstm1_h_conted_5 <- cont_6_lstm1_cont_slice_5_split_0
I0222 17:37:18.018688 24666 net.cpp:380] lstm1_h_conted_5 -> h_conted_5
I0222 17:37:18.018725 24666 net.cpp:122] Setting up lstm1_h_conted_5
I0222 17:37:18.018730 24666 net.cpp:129] Top shape: 1 26 16 (416)
I0222 17:37:18.018733 24666 net.cpp:137] Memory required for data: 445120
I0222 17:37:18.018736 24666 layer_factory.hpp:77] Creating layer lstm1_transform_6
I0222 17:37:18.018741 24666 net.cpp:84] Creating Layer lstm1_transform_6
I0222 17:37:18.018745 24666 net.cpp:406] lstm1_transform_6 <- h_conted_5
I0222 17:37:18.018749 24666 net.cpp:380] lstm1_transform_6 -> W_hc_h_5
I0222 17:37:18.018787 24666 net.cpp:122] Setting up lstm1_transform_6
I0222 17:37:18.018792 24666 net.cpp:129] Top shape: 1 26 64 (1664)
I0222 17:37:18.018795 24666 net.cpp:137] Memory required for data: 451776
I0222 17:37:18.018798 24666 net.cpp:465] Sharing parameters 'W_hc' owned by layer 'lstm1_transform_1', param index 0
I0222 17:37:18.018802 24666 layer_factory.hpp:77] Creating layer lstm1_gate_input_6
I0222 17:37:18.018806 24666 net.cpp:84] Creating Layer lstm1_gate_input_6
I0222 17:37:18.018810 24666 net.cpp:406] lstm1_gate_input_6 <- W_hc_h_5
I0222 17:37:18.018813 24666 net.cpp:406] lstm1_gate_input_6 <- W_xc_x_6
I0222 17:37:18.018820 24666 net.cpp:380] lstm1_gate_input_6 -> gate_input_6
I0222 17:37:18.018832 24666 net.cpp:122] Setting up lstm1_gate_input_6
I0222 17:37:18.018837 24666 net.cpp:129] Top shape: 1 26 64 (1664)
I0222 17:37:18.018848 24666 net.cpp:137] Memory required for data: 458432
I0222 17:37:18.018852 24666 layer_factory.hpp:77] Creating layer lstm1_unit_6
I0222 17:37:18.018857 24666 net.cpp:84] Creating Layer lstm1_unit_6
I0222 17:37:18.018859 24666 net.cpp:406] lstm1_unit_6 <- c_5
I0222 17:37:18.018863 24666 net.cpp:406] lstm1_unit_6 <- gate_input_6
I0222 17:37:18.018867 24666 net.cpp:406] lstm1_unit_6 <- cont_6_lstm1_cont_slice_5_split_1
I0222 17:37:18.018872 24666 net.cpp:380] lstm1_unit_6 -> c_6
I0222 17:37:18.018877 24666 net.cpp:380] lstm1_unit_6 -> h_6
I0222 17:37:18.018903 24666 net.cpp:122] Setting up lstm1_unit_6
I0222 17:37:18.018908 24666 net.cpp:129] Top shape: 1 26 16 (416)
I0222 17:37:18.018910 24666 net.cpp:129] Top shape: 1 26 16 (416)
I0222 17:37:18.018913 24666 net.cpp:137] Memory required for data: 461760
I0222 17:37:18.018916 24666 layer_factory.hpp:77] Creating layer h_6_lstm1_unit_6_1_split
I0222 17:37:18.018920 24666 net.cpp:84] Creating Layer h_6_lstm1_unit_6_1_split
I0222 17:37:18.018923 24666 net.cpp:406] h_6_lstm1_unit_6_1_split <- h_6
I0222 17:37:18.018927 24666 net.cpp:380] h_6_lstm1_unit_6_1_split -> h_6_lstm1_unit_6_1_split_0
I0222 17:37:18.018932 24666 net.cpp:380] h_6_lstm1_unit_6_1_split -> h_6_lstm1_unit_6_1_split_1
I0222 17:37:18.018950 24666 net.cpp:122] Setting up h_6_lstm1_unit_6_1_split
I0222 17:37:18.018954 24666 net.cpp:129] Top shape: 1 26 16 (416)
I0222 17:37:18.018959 24666 net.cpp:129] Top shape: 1 26 16 (416)
I0222 17:37:18.018961 24666 net.cpp:137] Memory required for data: 465088
I0222 17:37:18.018965 24666 layer_factory.hpp:77] Creating layer lstm1_h_conted_6
I0222 17:37:18.018968 24666 net.cpp:84] Creating Layer lstm1_h_conted_6
I0222 17:37:18.018971 24666 net.cpp:406] lstm1_h_conted_6 <- h_6_lstm1_unit_6_1_split_0
I0222 17:37:18.018975 24666 net.cpp:406] lstm1_h_conted_6 <- cont_7_lstm1_cont_slice_6_split_0
I0222 17:37:18.018981 24666 net.cpp:380] lstm1_h_conted_6 -> h_conted_6
I0222 17:37:18.019012 24666 net.cpp:122] Setting up lstm1_h_conted_6
I0222 17:37:18.019032 24666 net.cpp:129] Top shape: 1 26 16 (416)
I0222 17:37:18.019034 24666 net.cpp:137] Memory required for data: 466752
I0222 17:37:18.019037 24666 layer_factory.hpp:77] Creating layer lstm1_transform_7
I0222 17:37:18.019042 24666 net.cpp:84] Creating Layer lstm1_transform_7
I0222 17:37:18.019045 24666 net.cpp:406] lstm1_transform_7 <- h_conted_6
I0222 17:37:18.019050 24666 net.cpp:380] lstm1_transform_7 -> W_hc_h_6
I0222 17:37:18.019080 24666 net.cpp:122] Setting up lstm1_transform_7
I0222 17:37:18.019085 24666 net.cpp:129] Top shape: 1 26 64 (1664)
I0222 17:37:18.019088 24666 net.cpp:137] Memory required for data: 473408
I0222 17:37:18.019094 24666 net.cpp:465] Sharing parameters 'W_hc' owned by layer 'lstm1_transform_1', param index 0
I0222 17:37:18.019098 24666 layer_factory.hpp:77] Creating layer lstm1_gate_input_7
I0222 17:37:18.019103 24666 net.cpp:84] Creating Layer lstm1_gate_input_7
I0222 17:37:18.019105 24666 net.cpp:406] lstm1_gate_input_7 <- W_hc_h_6
I0222 17:37:18.019109 24666 net.cpp:406] lstm1_gate_input_7 <- W_xc_x_7
I0222 17:37:18.019114 24666 net.cpp:380] lstm1_gate_input_7 -> gate_input_7
I0222 17:37:18.019127 24666 net.cpp:122] Setting up lstm1_gate_input_7
I0222 17:37:18.019131 24666 net.cpp:129] Top shape: 1 26 64 (1664)
I0222 17:37:18.019134 24666 net.cpp:137] Memory required for data: 480064
I0222 17:37:18.019137 24666 layer_factory.hpp:77] Creating layer lstm1_unit_7
I0222 17:37:18.019141 24666 net.cpp:84] Creating Layer lstm1_unit_7
I0222 17:37:18.019145 24666 net.cpp:406] lstm1_unit_7 <- c_6
I0222 17:37:18.019148 24666 net.cpp:406] lstm1_unit_7 <- gate_input_7
I0222 17:37:18.019152 24666 net.cpp:406] lstm1_unit_7 <- cont_7_lstm1_cont_slice_6_split_1
I0222 17:37:18.019156 24666 net.cpp:380] lstm1_unit_7 -> c_7
I0222 17:37:18.019160 24666 net.cpp:380] lstm1_unit_7 -> h_7
I0222 17:37:18.019183 24666 net.cpp:122] Setting up lstm1_unit_7
I0222 17:37:18.019188 24666 net.cpp:129] Top shape: 1 26 16 (416)
I0222 17:37:18.019191 24666 net.cpp:129] Top shape: 1 26 16 (416)
I0222 17:37:18.019194 24666 net.cpp:137] Memory required for data: 483392
I0222 17:37:18.019202 24666 layer_factory.hpp:77] Creating layer h_7_lstm1_unit_7_1_split
I0222 17:37:18.019207 24666 net.cpp:84] Creating Layer h_7_lstm1_unit_7_1_split
I0222 17:37:18.019209 24666 net.cpp:406] h_7_lstm1_unit_7_1_split <- h_7
I0222 17:37:18.019213 24666 net.cpp:380] h_7_lstm1_unit_7_1_split -> h_7_lstm1_unit_7_1_split_0
I0222 17:37:18.019218 24666 net.cpp:380] h_7_lstm1_unit_7_1_split -> h_7_lstm1_unit_7_1_split_1
I0222 17:37:18.024227 24666 net.cpp:122] Setting up h_7_lstm1_unit_7_1_split
I0222 17:37:18.024236 24666 net.cpp:129] Top shape: 1 26 16 (416)
I0222 17:37:18.024240 24666 net.cpp:129] Top shape: 1 26 16 (416)
I0222 17:37:18.024242 24666 net.cpp:137] Memory required for data: 486720
I0222 17:37:18.024245 24666 layer_factory.hpp:77] Creating layer lstm1_h_conted_7
I0222 17:37:18.024255 24666 net.cpp:84] Creating Layer lstm1_h_conted_7
I0222 17:37:18.024260 24666 net.cpp:406] lstm1_h_conted_7 <- h_7_lstm1_unit_7_1_split_0
I0222 17:37:18.024263 24666 net.cpp:406] lstm1_h_conted_7 <- cont_8_lstm1_cont_slice_7_split_0
I0222 17:37:18.024267 24666 net.cpp:380] lstm1_h_conted_7 -> h_conted_7
I0222 17:37:18.024313 24666 net.cpp:122] Setting up lstm1_h_conted_7
I0222 17:37:18.024318 24666 net.cpp:129] Top shape: 1 26 16 (416)
I0222 17:37:18.024335 24666 net.cpp:137] Memory required for data: 488384
I0222 17:37:18.024338 24666 layer_factory.hpp:77] Creating layer lstm1_transform_8
I0222 17:37:18.024344 24666 net.cpp:84] Creating Layer lstm1_transform_8
I0222 17:37:18.024348 24666 net.cpp:406] lstm1_transform_8 <- h_conted_7
I0222 17:37:18.024351 24666 net.cpp:380] lstm1_transform_8 -> W_hc_h_7
I0222 17:37:18.024413 24666 net.cpp:122] Setting up lstm1_transform_8
I0222 17:37:18.024431 24666 net.cpp:129] Top shape: 1 26 64 (1664)
I0222 17:37:18.024435 24666 net.cpp:137] Memory required for data: 495040
I0222 17:37:18.024436 24666 net.cpp:465] Sharing parameters 'W_hc' owned by layer 'lstm1_transform_1', param index 0
I0222 17:37:18.024454 24666 layer_factory.hpp:77] Creating layer lstm1_gate_input_8
I0222 17:37:18.024459 24666 net.cpp:84] Creating Layer lstm1_gate_input_8
I0222 17:37:18.024463 24666 net.cpp:406] lstm1_gate_input_8 <- W_hc_h_7
I0222 17:37:18.024467 24666 net.cpp:406] lstm1_gate_input_8 <- W_xc_x_8
I0222 17:37:18.024471 24666 net.cpp:380] lstm1_gate_input_8 -> gate_input_8
I0222 17:37:18.024487 24666 net.cpp:122] Setting up lstm1_gate_input_8
I0222 17:37:18.024490 24666 net.cpp:129] Top shape: 1 26 64 (1664)
I0222 17:37:18.024492 24666 net.cpp:137] Memory required for data: 501696
I0222 17:37:18.024495 24666 layer_factory.hpp:77] Creating layer lstm1_unit_8
I0222 17:37:18.024500 24666 net.cpp:84] Creating Layer lstm1_unit_8
I0222 17:37:18.024502 24666 net.cpp:406] lstm1_unit_8 <- c_7
I0222 17:37:18.024507 24666 net.cpp:406] lstm1_unit_8 <- gate_input_8
I0222 17:37:18.024510 24666 net.cpp:406] lstm1_unit_8 <- cont_8_lstm1_cont_slice_7_split_1
I0222 17:37:18.024513 24666 net.cpp:380] lstm1_unit_8 -> c_8
I0222 17:37:18.024519 24666 net.cpp:380] lstm1_unit_8 -> h_8
I0222 17:37:18.024544 24666 net.cpp:122] Setting up lstm1_unit_8
I0222 17:37:18.024549 24666 net.cpp:129] Top shape: 1 26 16 (416)
I0222 17:37:18.024552 24666 net.cpp:129] Top shape: 1 26 16 (416)
I0222 17:37:18.024555 24666 net.cpp:137] Memory required for data: 505024
I0222 17:37:18.024559 24666 layer_factory.hpp:77] Creating layer h_8_lstm1_unit_8_1_split
I0222 17:37:18.024562 24666 net.cpp:84] Creating Layer h_8_lstm1_unit_8_1_split
I0222 17:37:18.024565 24666 net.cpp:406] h_8_lstm1_unit_8_1_split <- h_8
I0222 17:37:18.024569 24666 net.cpp:380] h_8_lstm1_unit_8_1_split -> h_8_lstm1_unit_8_1_split_0
I0222 17:37:18.024574 24666 net.cpp:380] h_8_lstm1_unit_8_1_split -> h_8_lstm1_unit_8_1_split_1
I0222 17:37:18.024593 24666 net.cpp:122] Setting up h_8_lstm1_unit_8_1_split
I0222 17:37:18.024598 24666 net.cpp:129] Top shape: 1 26 16 (416)
I0222 17:37:18.024601 24666 net.cpp:129] Top shape: 1 26 16 (416)
I0222 17:37:18.024605 24666 net.cpp:137] Memory required for data: 508352
I0222 17:37:18.024615 24666 layer_factory.hpp:77] Creating layer lstm1_h_conted_8
I0222 17:37:18.024618 24666 net.cpp:84] Creating Layer lstm1_h_conted_8
I0222 17:37:18.024622 24666 net.cpp:406] lstm1_h_conted_8 <- h_8_lstm1_unit_8_1_split_0
I0222 17:37:18.024626 24666 net.cpp:406] lstm1_h_conted_8 <- cont_9_lstm1_cont_slice_8_split_0
I0222 17:37:18.024631 24666 net.cpp:380] lstm1_h_conted_8 -> h_conted_8
I0222 17:37:18.024662 24666 net.cpp:122] Setting up lstm1_h_conted_8
I0222 17:37:18.024667 24666 net.cpp:129] Top shape: 1 26 16 (416)
I0222 17:37:18.024669 24666 net.cpp:137] Memory required for data: 510016
I0222 17:37:18.024672 24666 layer_factory.hpp:77] Creating layer lstm1_transform_9
I0222 17:37:18.024678 24666 net.cpp:84] Creating Layer lstm1_transform_9
I0222 17:37:18.024682 24666 net.cpp:406] lstm1_transform_9 <- h_conted_8
I0222 17:37:18.024685 24666 net.cpp:380] lstm1_transform_9 -> W_hc_h_8
I0222 17:37:18.024715 24666 net.cpp:122] Setting up lstm1_transform_9
I0222 17:37:18.024720 24666 net.cpp:129] Top shape: 1 26 64 (1664)
I0222 17:37:18.024724 24666 net.cpp:137] Memory required for data: 516672
I0222 17:37:18.024726 24666 net.cpp:465] Sharing parameters 'W_hc' owned by layer 'lstm1_transform_1', param index 0
I0222 17:37:18.024729 24666 layer_factory.hpp:77] Creating layer lstm1_gate_input_9
I0222 17:37:18.024734 24666 net.cpp:84] Creating Layer lstm1_gate_input_9
I0222 17:37:18.024736 24666 net.cpp:406] lstm1_gate_input_9 <- W_hc_h_8
I0222 17:37:18.024740 24666 net.cpp:406] lstm1_gate_input_9 <- W_xc_x_9
I0222 17:37:18.024744 24666 net.cpp:380] lstm1_gate_input_9 -> gate_input_9
I0222 17:37:18.024757 24666 net.cpp:122] Setting up lstm1_gate_input_9
I0222 17:37:18.024761 24666 net.cpp:129] Top shape: 1 26 64 (1664)
I0222 17:37:18.024765 24666 net.cpp:137] Memory required for data: 523328
I0222 17:37:18.024767 24666 layer_factory.hpp:77] Creating layer lstm1_unit_9
I0222 17:37:18.024771 24666 net.cpp:84] Creating Layer lstm1_unit_9
I0222 17:37:18.024775 24666 net.cpp:406] lstm1_unit_9 <- c_8
I0222 17:37:18.024778 24666 net.cpp:406] lstm1_unit_9 <- gate_input_9
I0222 17:37:18.024782 24666 net.cpp:406] lstm1_unit_9 <- cont_9_lstm1_cont_slice_8_split_1
I0222 17:37:18.024785 24666 net.cpp:380] lstm1_unit_9 -> c_9
I0222 17:37:18.024791 24666 net.cpp:380] lstm1_unit_9 -> h_9
I0222 17:37:18.024813 24666 net.cpp:122] Setting up lstm1_unit_9
I0222 17:37:18.024818 24666 net.cpp:129] Top shape: 1 26 16 (416)
I0222 17:37:18.024821 24666 net.cpp:129] Top shape: 1 26 16 (416)
I0222 17:37:18.024824 24666 net.cpp:137] Memory required for data: 526656
I0222 17:37:18.024827 24666 layer_factory.hpp:77] Creating layer h_9_lstm1_unit_9_1_split
I0222 17:37:18.024832 24666 net.cpp:84] Creating Layer h_9_lstm1_unit_9_1_split
I0222 17:37:18.024834 24666 net.cpp:406] h_9_lstm1_unit_9_1_split <- h_9
I0222 17:37:18.024838 24666 net.cpp:380] h_9_lstm1_unit_9_1_split -> h_9_lstm1_unit_9_1_split_0
I0222 17:37:18.024842 24666 net.cpp:380] h_9_lstm1_unit_9_1_split -> h_9_lstm1_unit_9_1_split_1
I0222 17:37:18.024859 24666 net.cpp:122] Setting up h_9_lstm1_unit_9_1_split
I0222 17:37:18.024864 24666 net.cpp:129] Top shape: 1 26 16 (416)
I0222 17:37:18.024868 24666 net.cpp:129] Top shape: 1 26 16 (416)
I0222 17:37:18.024870 24666 net.cpp:137] Memory required for data: 529984
I0222 17:37:18.024873 24666 layer_factory.hpp:77] Creating layer lstm1_h_conted_9
I0222 17:37:18.024878 24666 net.cpp:84] Creating Layer lstm1_h_conted_9
I0222 17:37:18.024880 24666 net.cpp:406] lstm1_h_conted_9 <- h_9_lstm1_unit_9_1_split_0
I0222 17:37:18.024884 24666 net.cpp:406] lstm1_h_conted_9 <- cont_10_lstm1_cont_slice_9_split_0
I0222 17:37:18.024888 24666 net.cpp:380] lstm1_h_conted_9 -> h_conted_9
I0222 17:37:18.024919 24666 net.cpp:122] Setting up lstm1_h_conted_9
I0222 17:37:18.024924 24666 net.cpp:129] Top shape: 1 26 16 (416)
I0222 17:37:18.024926 24666 net.cpp:137] Memory required for data: 531648
I0222 17:37:18.024930 24666 layer_factory.hpp:77] Creating layer lstm1_transform_10
I0222 17:37:18.024933 24666 net.cpp:84] Creating Layer lstm1_transform_10
I0222 17:37:18.024941 24666 net.cpp:406] lstm1_transform_10 <- h_conted_9
I0222 17:37:18.024947 24666 net.cpp:380] lstm1_transform_10 -> W_hc_h_9
I0222 17:37:18.024978 24666 net.cpp:122] Setting up lstm1_transform_10
I0222 17:37:18.024983 24666 net.cpp:129] Top shape: 1 26 64 (1664)
I0222 17:37:18.049327 24666 net.cpp:137] Memory required for data: 538304
I0222 17:37:18.049353 24666 net.cpp:465] Sharing parameters 'W_hc' owned by layer 'lstm1_transform_1', param index 0
I0222 17:37:18.049368 24666 layer_factory.hpp:77] Creating layer lstm1_gate_input_10
I0222 17:37:18.049374 24666 net.cpp:84] Creating Layer lstm1_gate_input_10
I0222 17:37:18.049378 24666 net.cpp:406] lstm1_gate_input_10 <- W_hc_h_9
I0222 17:37:18.049383 24666 net.cpp:406] lstm1_gate_input_10 <- W_xc_x_10
I0222 17:37:18.049388 24666 net.cpp:380] lstm1_gate_input_10 -> gate_input_10
I0222 17:37:18.049415 24666 net.cpp:122] Setting up lstm1_gate_input_10
I0222 17:37:18.049422 24666 net.cpp:129] Top shape: 1 26 64 (1664)
I0222 17:37:18.049424 24666 net.cpp:137] Memory required for data: 544960
I0222 17:37:18.049427 24666 layer_factory.hpp:77] Creating layer lstm1_unit_10
I0222 17:37:18.049433 24666 net.cpp:84] Creating Layer lstm1_unit_10
I0222 17:37:18.049437 24666 net.cpp:406] lstm1_unit_10 <- c_9
I0222 17:37:18.049441 24666 net.cpp:406] lstm1_unit_10 <- gate_input_10
I0222 17:37:18.049445 24666 net.cpp:406] lstm1_unit_10 <- cont_10_lstm1_cont_slice_9_split_1
I0222 17:37:18.049450 24666 net.cpp:380] lstm1_unit_10 -> c_10
I0222 17:37:18.049455 24666 net.cpp:380] lstm1_unit_10 -> h_10
I0222 17:37:18.049481 24666 net.cpp:122] Setting up lstm1_unit_10
I0222 17:37:18.049486 24666 net.cpp:129] Top shape: 1 26 16 (416)
I0222 17:37:18.049490 24666 net.cpp:129] Top shape: 1 26 16 (416)
I0222 17:37:18.049494 24666 net.cpp:137] Memory required for data: 548288
I0222 17:37:18.049496 24666 layer_factory.hpp:77] Creating layer h_10_lstm1_unit_10_1_split
I0222 17:37:18.049501 24666 net.cpp:84] Creating Layer h_10_lstm1_unit_10_1_split
I0222 17:37:18.049505 24666 net.cpp:406] h_10_lstm1_unit_10_1_split <- h_10
I0222 17:37:18.049510 24666 net.cpp:380] h_10_lstm1_unit_10_1_split -> h_10_lstm1_unit_10_1_split_0
I0222 17:37:18.049515 24666 net.cpp:380] h_10_lstm1_unit_10_1_split -> h_10_lstm1_unit_10_1_split_1
I0222 17:37:18.049533 24666 net.cpp:122] Setting up h_10_lstm1_unit_10_1_split
I0222 17:37:18.049538 24666 net.cpp:129] Top shape: 1 26 16 (416)
I0222 17:37:18.049541 24666 net.cpp:129] Top shape: 1 26 16 (416)
I0222 17:37:18.049545 24666 net.cpp:137] Memory required for data: 551616
I0222 17:37:18.049547 24666 layer_factory.hpp:77] Creating layer lstm1_h_conted_10
I0222 17:37:18.049551 24666 net.cpp:84] Creating Layer lstm1_h_conted_10
I0222 17:37:18.049556 24666 net.cpp:406] lstm1_h_conted_10 <- h_10_lstm1_unit_10_1_split_0
I0222 17:37:18.049561 24666 net.cpp:406] lstm1_h_conted_10 <- cont_11_lstm1_cont_slice_10_split_0
I0222 17:37:18.049566 24666 net.cpp:380] lstm1_h_conted_10 -> h_conted_10
I0222 17:37:18.049599 24666 net.cpp:122] Setting up lstm1_h_conted_10
I0222 17:37:18.049604 24666 net.cpp:129] Top shape: 1 26 16 (416)
I0222 17:37:18.049607 24666 net.cpp:137] Memory required for data: 553280
I0222 17:37:18.049610 24666 layer_factory.hpp:77] Creating layer lstm1_transform_11
I0222 17:37:18.049615 24666 net.cpp:84] Creating Layer lstm1_transform_11
I0222 17:37:18.049619 24666 net.cpp:406] lstm1_transform_11 <- h_conted_10
I0222 17:37:18.049623 24666 net.cpp:380] lstm1_transform_11 -> W_hc_h_10
I0222 17:37:18.049659 24666 net.cpp:122] Setting up lstm1_transform_11
I0222 17:37:18.049665 24666 net.cpp:129] Top shape: 1 26 64 (1664)
I0222 17:37:18.049669 24666 net.cpp:137] Memory required for data: 559936
I0222 17:37:18.049671 24666 net.cpp:465] Sharing parameters 'W_hc' owned by layer 'lstm1_transform_1', param index 0
I0222 17:37:18.049674 24666 layer_factory.hpp:77] Creating layer lstm1_gate_input_11
I0222 17:37:18.049680 24666 net.cpp:84] Creating Layer lstm1_gate_input_11
I0222 17:37:18.049684 24666 net.cpp:406] lstm1_gate_input_11 <- W_hc_h_10
I0222 17:37:18.049687 24666 net.cpp:406] lstm1_gate_input_11 <- W_xc_x_11
I0222 17:37:18.049700 24666 net.cpp:380] lstm1_gate_input_11 -> gate_input_11
I0222 17:37:18.049715 24666 net.cpp:122] Setting up lstm1_gate_input_11
I0222 17:37:18.049718 24666 net.cpp:129] Top shape: 1 26 64 (1664)
I0222 17:37:18.049721 24666 net.cpp:137] Memory required for data: 566592
I0222 17:37:18.049724 24666 layer_factory.hpp:77] Creating layer lstm1_unit_11
I0222 17:37:18.049729 24666 net.cpp:84] Creating Layer lstm1_unit_11
I0222 17:37:18.049733 24666 net.cpp:406] lstm1_unit_11 <- c_10
I0222 17:37:18.049737 24666 net.cpp:406] lstm1_unit_11 <- gate_input_11
I0222 17:37:18.049741 24666 net.cpp:406] lstm1_unit_11 <- cont_11_lstm1_cont_slice_10_split_1
I0222 17:37:18.049746 24666 net.cpp:380] lstm1_unit_11 -> c_11
I0222 17:37:18.049751 24666 net.cpp:380] lstm1_unit_11 -> h_11
I0222 17:37:18.049774 24666 net.cpp:122] Setting up lstm1_unit_11
I0222 17:37:18.049778 24666 net.cpp:129] Top shape: 1 26 16 (416)
I0222 17:37:18.049782 24666 net.cpp:129] Top shape: 1 26 16 (416)
I0222 17:37:18.049785 24666 net.cpp:137] Memory required for data: 569920
I0222 17:37:18.049788 24666 layer_factory.hpp:77] Creating layer h_11_lstm1_unit_11_1_split
I0222 17:37:18.049793 24666 net.cpp:84] Creating Layer h_11_lstm1_unit_11_1_split
I0222 17:37:18.049795 24666 net.cpp:406] h_11_lstm1_unit_11_1_split <- h_11
I0222 17:37:18.049799 24666 net.cpp:380] h_11_lstm1_unit_11_1_split -> h_11_lstm1_unit_11_1_split_0
I0222 17:37:18.049805 24666 net.cpp:380] h_11_lstm1_unit_11_1_split -> h_11_lstm1_unit_11_1_split_1
I0222 17:37:18.049821 24666 net.cpp:122] Setting up h_11_lstm1_unit_11_1_split
I0222 17:37:18.049826 24666 net.cpp:129] Top shape: 1 26 16 (416)
I0222 17:37:18.049829 24666 net.cpp:129] Top shape: 1 26 16 (416)
I0222 17:37:18.049832 24666 net.cpp:137] Memory required for data: 573248
I0222 17:37:18.049835 24666 layer_factory.hpp:77] Creating layer lstm1_h_conted_11
I0222 17:37:18.049841 24666 net.cpp:84] Creating Layer lstm1_h_conted_11
I0222 17:37:18.049844 24666 net.cpp:406] lstm1_h_conted_11 <- h_11_lstm1_unit_11_1_split_0
I0222 17:37:18.049849 24666 net.cpp:406] lstm1_h_conted_11 <- cont_12_lstm1_cont_slice_11_split_0
I0222 17:37:18.049854 24666 net.cpp:380] lstm1_h_conted_11 -> h_conted_11
I0222 17:37:18.049890 24666 net.cpp:122] Setting up lstm1_h_conted_11
I0222 17:37:18.049896 24666 net.cpp:129] Top shape: 1 26 16 (416)
I0222 17:37:18.049898 24666 net.cpp:137] Memory required for data: 574912
I0222 17:37:18.049901 24666 layer_factory.hpp:77] Creating layer lstm1_transform_12
I0222 17:37:18.049906 24666 net.cpp:84] Creating Layer lstm1_transform_12
I0222 17:37:18.049909 24666 net.cpp:406] lstm1_transform_12 <- h_conted_11
I0222 17:37:18.049913 24666 net.cpp:380] lstm1_transform_12 -> W_hc_h_11
I0222 17:37:18.049945 24666 net.cpp:122] Setting up lstm1_transform_12
I0222 17:37:18.049950 24666 net.cpp:129] Top shape: 1 26 64 (1664)
I0222 17:37:18.049953 24666 net.cpp:137] Memory required for data: 581568
I0222 17:37:18.049957 24666 net.cpp:465] Sharing parameters 'W_hc' owned by layer 'lstm1_transform_1', param index 0
I0222 17:37:18.049959 24666 layer_factory.hpp:77] Creating layer lstm1_gate_input_12
I0222 17:37:18.049964 24666 net.cpp:84] Creating Layer lstm1_gate_input_12
I0222 17:37:18.049968 24666 net.cpp:406] lstm1_gate_input_12 <- W_hc_h_11
I0222 17:37:18.049971 24666 net.cpp:406] lstm1_gate_input_12 <- W_xc_x_12
I0222 17:37:18.049979 24666 net.cpp:380] lstm1_gate_input_12 -> gate_input_12
I0222 17:37:18.049993 24666 net.cpp:122] Setting up lstm1_gate_input_12
I0222 17:37:18.049996 24666 net.cpp:129] Top shape: 1 26 64 (1664)
I0222 17:37:18.049999 24666 net.cpp:137] Memory required for data: 588224
I0222 17:37:18.050002 24666 layer_factory.hpp:77] Creating layer lstm1_unit_12
I0222 17:37:18.050006 24666 net.cpp:84] Creating Layer lstm1_unit_12
I0222 17:37:18.050009 24666 net.cpp:406] lstm1_unit_12 <- c_11
I0222 17:37:18.050014 24666 net.cpp:406] lstm1_unit_12 <- gate_input_12
I0222 17:37:18.050017 24666 net.cpp:406] lstm1_unit_12 <- cont_12_lstm1_cont_slice_11_split_1
I0222 17:37:18.050027 24666 net.cpp:380] lstm1_unit_12 -> c_12
I0222 17:37:18.053181 24666 net.cpp:380] lstm1_unit_12 -> h_12
I0222 17:37:18.053234 24666 net.cpp:122] Setting up lstm1_unit_12
I0222 17:37:18.053241 24666 net.cpp:129] Top shape: 1 26 16 (416)
I0222 17:37:18.053243 24666 net.cpp:129] Top shape: 1 26 16 (416)
I0222 17:37:18.053246 24666 net.cpp:137] Memory required for data: 591552
I0222 17:37:18.053248 24666 layer_factory.hpp:77] Creating layer h_12_lstm1_unit_12_1_split
I0222 17:37:18.053251 24666 net.cpp:84] Creating Layer h_12_lstm1_unit_12_1_split
I0222 17:37:18.053254 24666 net.cpp:406] h_12_lstm1_unit_12_1_split <- h_12
I0222 17:37:18.053258 24666 net.cpp:380] h_12_lstm1_unit_12_1_split -> h_12_lstm1_unit_12_1_split_0
I0222 17:37:18.053263 24666 net.cpp:380] h_12_lstm1_unit_12_1_split -> h_12_lstm1_unit_12_1_split_1
I0222 17:37:18.053280 24666 net.cpp:122] Setting up h_12_lstm1_unit_12_1_split
I0222 17:37:18.053284 24666 net.cpp:129] Top shape: 1 26 16 (416)
I0222 17:37:18.053287 24666 net.cpp:129] Top shape: 1 26 16 (416)
I0222 17:37:18.053290 24666 net.cpp:137] Memory required for data: 594880
I0222 17:37:18.053292 24666 layer_factory.hpp:77] Creating layer lstm1_h_conted_12
I0222 17:37:18.053297 24666 net.cpp:84] Creating Layer lstm1_h_conted_12
I0222 17:37:18.053299 24666 net.cpp:406] lstm1_h_conted_12 <- h_12_lstm1_unit_12_1_split_0
I0222 17:37:18.053303 24666 net.cpp:406] lstm1_h_conted_12 <- cont_13_lstm1_cont_slice_12_split_0
I0222 17:37:18.053308 24666 net.cpp:380] lstm1_h_conted_12 -> h_conted_12
I0222 17:37:18.053339 24666 net.cpp:122] Setting up lstm1_h_conted_12
I0222 17:37:18.053344 24666 net.cpp:129] Top shape: 1 26 16 (416)
I0222 17:37:18.053346 24666 net.cpp:137] Memory required for data: 596544
I0222 17:37:18.053349 24666 layer_factory.hpp:77] Creating layer lstm1_transform_13
I0222 17:37:18.053354 24666 net.cpp:84] Creating Layer lstm1_transform_13
I0222 17:37:18.053365 24666 net.cpp:406] lstm1_transform_13 <- h_conted_12
I0222 17:37:18.053369 24666 net.cpp:380] lstm1_transform_13 -> W_hc_h_12
I0222 17:37:18.053402 24666 net.cpp:122] Setting up lstm1_transform_13
I0222 17:37:18.053407 24666 net.cpp:129] Top shape: 1 26 64 (1664)
I0222 17:37:18.053411 24666 net.cpp:137] Memory required for data: 603200
I0222 17:37:18.053413 24666 net.cpp:465] Sharing parameters 'W_hc' owned by layer 'lstm1_transform_1', param index 0
I0222 17:37:18.053417 24666 layer_factory.hpp:77] Creating layer lstm1_gate_input_13
I0222 17:37:18.053421 24666 net.cpp:84] Creating Layer lstm1_gate_input_13
I0222 17:37:18.053426 24666 net.cpp:406] lstm1_gate_input_13 <- W_hc_h_12
I0222 17:37:18.053428 24666 net.cpp:406] lstm1_gate_input_13 <- W_xc_x_13
I0222 17:37:18.053432 24666 net.cpp:380] lstm1_gate_input_13 -> gate_input_13
I0222 17:37:18.053447 24666 net.cpp:122] Setting up lstm1_gate_input_13
I0222 17:37:18.053452 24666 net.cpp:129] Top shape: 1 26 64 (1664)
I0222 17:37:18.053454 24666 net.cpp:137] Memory required for data: 609856
I0222 17:37:18.053457 24666 layer_factory.hpp:77] Creating layer lstm1_unit_13
I0222 17:37:18.053462 24666 net.cpp:84] Creating Layer lstm1_unit_13
I0222 17:37:18.053465 24666 net.cpp:406] lstm1_unit_13 <- c_12
I0222 17:37:18.053469 24666 net.cpp:406] lstm1_unit_13 <- gate_input_13
I0222 17:37:18.053472 24666 net.cpp:406] lstm1_unit_13 <- cont_13_lstm1_cont_slice_12_split_1
I0222 17:37:18.053478 24666 net.cpp:380] lstm1_unit_13 -> c_13
I0222 17:37:18.053481 24666 net.cpp:380] lstm1_unit_13 -> h_13
I0222 17:37:18.053506 24666 net.cpp:122] Setting up lstm1_unit_13
I0222 17:37:18.053510 24666 net.cpp:129] Top shape: 1 26 16 (416)
I0222 17:37:18.053514 24666 net.cpp:129] Top shape: 1 26 16 (416)
I0222 17:37:18.053516 24666 net.cpp:137] Memory required for data: 613184
I0222 17:37:18.053519 24666 layer_factory.hpp:77] Creating layer h_13_lstm1_unit_13_1_split
I0222 17:37:18.053524 24666 net.cpp:84] Creating Layer h_13_lstm1_unit_13_1_split
I0222 17:37:18.053527 24666 net.cpp:406] h_13_lstm1_unit_13_1_split <- h_13
I0222 17:37:18.053531 24666 net.cpp:380] h_13_lstm1_unit_13_1_split -> h_13_lstm1_unit_13_1_split_0
I0222 17:37:18.053542 24666 net.cpp:380] h_13_lstm1_unit_13_1_split -> h_13_lstm1_unit_13_1_split_1
I0222 17:37:18.053562 24666 net.cpp:122] Setting up h_13_lstm1_unit_13_1_split
I0222 17:37:18.053567 24666 net.cpp:129] Top shape: 1 26 16 (416)
I0222 17:37:18.053570 24666 net.cpp:129] Top shape: 1 26 16 (416)
I0222 17:37:18.053573 24666 net.cpp:137] Memory required for data: 616512
I0222 17:37:18.053576 24666 layer_factory.hpp:77] Creating layer lstm1_h_conted_13
I0222 17:37:18.053580 24666 net.cpp:84] Creating Layer lstm1_h_conted_13
I0222 17:37:18.053584 24666 net.cpp:406] lstm1_h_conted_13 <- h_13_lstm1_unit_13_1_split_0
I0222 17:37:18.053588 24666 net.cpp:406] lstm1_h_conted_13 <- cont_14_lstm1_cont_slice_13_split_0
I0222 17:37:18.053592 24666 net.cpp:380] lstm1_h_conted_13 -> h_conted_13
I0222 17:37:18.053623 24666 net.cpp:122] Setting up lstm1_h_conted_13
I0222 17:37:18.053628 24666 net.cpp:129] Top shape: 1 26 16 (416)
I0222 17:37:18.053632 24666 net.cpp:137] Memory required for data: 618176
I0222 17:37:18.053634 24666 layer_factory.hpp:77] Creating layer lstm1_transform_14
I0222 17:37:18.053638 24666 net.cpp:84] Creating Layer lstm1_transform_14
I0222 17:37:18.053642 24666 net.cpp:406] lstm1_transform_14 <- h_conted_13
I0222 17:37:18.053647 24666 net.cpp:380] lstm1_transform_14 -> W_hc_h_13
I0222 17:37:18.053678 24666 net.cpp:122] Setting up lstm1_transform_14
I0222 17:37:18.053683 24666 net.cpp:129] Top shape: 1 26 64 (1664)
I0222 17:37:18.053685 24666 net.cpp:137] Memory required for data: 624832
I0222 17:37:18.053689 24666 net.cpp:465] Sharing parameters 'W_hc' owned by layer 'lstm1_transform_1', param index 0
I0222 17:37:18.053692 24666 layer_factory.hpp:77] Creating layer lstm1_gate_input_14
I0222 17:37:18.053696 24666 net.cpp:84] Creating Layer lstm1_gate_input_14
I0222 17:37:18.053699 24666 net.cpp:406] lstm1_gate_input_14 <- W_hc_h_13
I0222 17:37:18.053704 24666 net.cpp:406] lstm1_gate_input_14 <- W_xc_x_14
I0222 17:37:18.053707 24666 net.cpp:380] lstm1_gate_input_14 -> gate_input_14
I0222 17:37:18.053720 24666 net.cpp:122] Setting up lstm1_gate_input_14
I0222 17:37:18.053725 24666 net.cpp:129] Top shape: 1 26 64 (1664)
I0222 17:37:18.053727 24666 net.cpp:137] Memory required for data: 631488
I0222 17:37:18.053730 24666 layer_factory.hpp:77] Creating layer lstm1_unit_14
I0222 17:37:18.053735 24666 net.cpp:84] Creating Layer lstm1_unit_14
I0222 17:37:18.053737 24666 net.cpp:406] lstm1_unit_14 <- c_13
I0222 17:37:18.053741 24666 net.cpp:406] lstm1_unit_14 <- gate_input_14
I0222 17:37:18.053745 24666 net.cpp:406] lstm1_unit_14 <- cont_14_lstm1_cont_slice_13_split_1
I0222 17:37:18.053750 24666 net.cpp:380] lstm1_unit_14 -> c_14
I0222 17:37:18.053753 24666 net.cpp:380] lstm1_unit_14 -> h_14
I0222 17:37:18.053777 24666 net.cpp:122] Setting up lstm1_unit_14
I0222 17:37:18.053781 24666 net.cpp:129] Top shape: 1 26 16 (416)
I0222 17:37:18.053786 24666 net.cpp:129] Top shape: 1 26 16 (416)
I0222 17:37:18.053788 24666 net.cpp:137] Memory required for data: 634816
I0222 17:37:18.053791 24666 layer_factory.hpp:77] Creating layer h_14_lstm1_unit_14_1_split
I0222 17:37:18.053795 24666 net.cpp:84] Creating Layer h_14_lstm1_unit_14_1_split
I0222 17:37:18.053799 24666 net.cpp:406] h_14_lstm1_unit_14_1_split <- h_14
I0222 17:37:18.053803 24666 net.cpp:380] h_14_lstm1_unit_14_1_split -> h_14_lstm1_unit_14_1_split_0
I0222 17:37:18.053807 24666 net.cpp:380] h_14_lstm1_unit_14_1_split -> h_14_lstm1_unit_14_1_split_1
I0222 17:37:18.053824 24666 net.cpp:122] Setting up h_14_lstm1_unit_14_1_split
I0222 17:37:18.053829 24666 net.cpp:129] Top shape: 1 26 16 (416)
I0222 17:37:18.053833 24666 net.cpp:129] Top shape: 1 26 16 (416)
I0222 17:37:18.053835 24666 net.cpp:137] Memory required for data: 638144
I0222 17:37:18.053838 24666 layer_factory.hpp:77] Creating layer lstm1_h_conted_14
I0222 17:37:18.053843 24666 net.cpp:84] Creating Layer lstm1_h_conted_14
I0222 17:37:18.080322 24666 net.cpp:406] lstm1_h_conted_14 <- h_14_lstm1_unit_14_1_split_0
I0222 17:37:18.080356 24666 net.cpp:406] lstm1_h_conted_14 <- cont_15_lstm1_cont_slice_14_split_0
I0222 17:37:18.080374 24666 net.cpp:380] lstm1_h_conted_14 -> h_conted_14
I0222 17:37:18.080466 24666 net.cpp:122] Setting up lstm1_h_conted_14
I0222 17:37:18.080472 24666 net.cpp:129] Top shape: 1 26 16 (416)
I0222 17:37:18.080476 24666 net.cpp:137] Memory required for data: 639808
I0222 17:37:18.080477 24666 layer_factory.hpp:77] Creating layer lstm1_transform_15
I0222 17:37:18.080482 24666 net.cpp:84] Creating Layer lstm1_transform_15
I0222 17:37:18.080485 24666 net.cpp:406] lstm1_transform_15 <- h_conted_14
I0222 17:37:18.080489 24666 net.cpp:380] lstm1_transform_15 -> W_hc_h_14
I0222 17:37:18.080526 24666 net.cpp:122] Setting up lstm1_transform_15
I0222 17:37:18.080531 24666 net.cpp:129] Top shape: 1 26 64 (1664)
I0222 17:37:18.080533 24666 net.cpp:137] Memory required for data: 646464
I0222 17:37:18.080540 24666 net.cpp:465] Sharing parameters 'W_hc' owned by layer 'lstm1_transform_1', param index 0
I0222 17:37:18.080543 24666 layer_factory.hpp:77] Creating layer lstm1_gate_input_15
I0222 17:37:18.080548 24666 net.cpp:84] Creating Layer lstm1_gate_input_15
I0222 17:37:18.080550 24666 net.cpp:406] lstm1_gate_input_15 <- W_hc_h_14
I0222 17:37:18.080554 24666 net.cpp:406] lstm1_gate_input_15 <- W_xc_x_15
I0222 17:37:18.080559 24666 net.cpp:380] lstm1_gate_input_15 -> gate_input_15
I0222 17:37:18.080572 24666 net.cpp:122] Setting up lstm1_gate_input_15
I0222 17:37:18.080576 24666 net.cpp:129] Top shape: 1 26 64 (1664)
I0222 17:37:18.080579 24666 net.cpp:137] Memory required for data: 653120
I0222 17:37:18.080581 24666 layer_factory.hpp:77] Creating layer lstm1_unit_15
I0222 17:37:18.080586 24666 net.cpp:84] Creating Layer lstm1_unit_15
I0222 17:37:18.080590 24666 net.cpp:406] lstm1_unit_15 <- c_14
I0222 17:37:18.080592 24666 net.cpp:406] lstm1_unit_15 <- gate_input_15
I0222 17:37:18.080595 24666 net.cpp:406] lstm1_unit_15 <- cont_15_lstm1_cont_slice_14_split_1
I0222 17:37:18.080600 24666 net.cpp:380] lstm1_unit_15 -> c_15
I0222 17:37:18.080603 24666 net.cpp:380] lstm1_unit_15 -> h_15
I0222 17:37:18.080657 24666 net.cpp:122] Setting up lstm1_unit_15
I0222 17:37:18.080662 24666 net.cpp:129] Top shape: 1 26 16 (416)
I0222 17:37:18.080665 24666 net.cpp:129] Top shape: 1 26 16 (416)
I0222 17:37:18.080667 24666 net.cpp:137] Memory required for data: 656448
I0222 17:37:18.080669 24666 layer_factory.hpp:77] Creating layer h_15_lstm1_unit_15_1_split
I0222 17:37:18.080672 24666 net.cpp:84] Creating Layer h_15_lstm1_unit_15_1_split
I0222 17:37:18.080675 24666 net.cpp:406] h_15_lstm1_unit_15_1_split <- h_15
I0222 17:37:18.080679 24666 net.cpp:380] h_15_lstm1_unit_15_1_split -> h_15_lstm1_unit_15_1_split_0
I0222 17:37:18.080684 24666 net.cpp:380] h_15_lstm1_unit_15_1_split -> h_15_lstm1_unit_15_1_split_1
I0222 17:37:18.080701 24666 net.cpp:122] Setting up h_15_lstm1_unit_15_1_split
I0222 17:37:18.080705 24666 net.cpp:129] Top shape: 1 26 16 (416)
I0222 17:37:18.080708 24666 net.cpp:129] Top shape: 1 26 16 (416)
I0222 17:37:18.080710 24666 net.cpp:137] Memory required for data: 659776
I0222 17:37:18.080713 24666 layer_factory.hpp:77] Creating layer lstm1_h_conted_15
I0222 17:37:18.080718 24666 net.cpp:84] Creating Layer lstm1_h_conted_15
I0222 17:37:18.080720 24666 net.cpp:406] lstm1_h_conted_15 <- h_15_lstm1_unit_15_1_split_0
I0222 17:37:18.080724 24666 net.cpp:406] lstm1_h_conted_15 <- cont_16_lstm1_cont_slice_15_split_0
I0222 17:37:18.080729 24666 net.cpp:380] lstm1_h_conted_15 -> h_conted_15
I0222 17:37:18.080761 24666 net.cpp:122] Setting up lstm1_h_conted_15
I0222 17:37:18.080765 24666 net.cpp:129] Top shape: 1 26 16 (416)
I0222 17:37:18.080768 24666 net.cpp:137] Memory required for data: 661440
I0222 17:37:18.080770 24666 layer_factory.hpp:77] Creating layer lstm1_transform_16
I0222 17:37:18.080775 24666 net.cpp:84] Creating Layer lstm1_transform_16
I0222 17:37:18.080777 24666 net.cpp:406] lstm1_transform_16 <- h_conted_15
I0222 17:37:18.080780 24666 net.cpp:380] lstm1_transform_16 -> W_hc_h_15
I0222 17:37:18.080816 24666 net.cpp:122] Setting up lstm1_transform_16
I0222 17:37:18.080821 24666 net.cpp:129] Top shape: 1 26 64 (1664)
I0222 17:37:18.080827 24666 net.cpp:137] Memory required for data: 668096
I0222 17:37:18.080830 24666 net.cpp:465] Sharing parameters 'W_hc' owned by layer 'lstm1_transform_1', param index 0
I0222 17:37:18.080833 24666 layer_factory.hpp:77] Creating layer lstm1_gate_input_16
I0222 17:37:18.080838 24666 net.cpp:84] Creating Layer lstm1_gate_input_16
I0222 17:37:18.080840 24666 net.cpp:406] lstm1_gate_input_16 <- W_hc_h_15
I0222 17:37:18.080844 24666 net.cpp:406] lstm1_gate_input_16 <- W_xc_x_16
I0222 17:37:18.080847 24666 net.cpp:380] lstm1_gate_input_16 -> gate_input_16
I0222 17:37:18.080862 24666 net.cpp:122] Setting up lstm1_gate_input_16
I0222 17:37:18.080865 24666 net.cpp:129] Top shape: 1 26 64 (1664)
I0222 17:37:18.080868 24666 net.cpp:137] Memory required for data: 674752
I0222 17:37:18.080870 24666 layer_factory.hpp:77] Creating layer lstm1_unit_16
I0222 17:37:18.080875 24666 net.cpp:84] Creating Layer lstm1_unit_16
I0222 17:37:18.080878 24666 net.cpp:406] lstm1_unit_16 <- c_15
I0222 17:37:18.080883 24666 net.cpp:406] lstm1_unit_16 <- gate_input_16
I0222 17:37:18.080888 24666 net.cpp:406] lstm1_unit_16 <- cont_16_lstm1_cont_slice_15_split_1
I0222 17:37:18.080890 24666 net.cpp:380] lstm1_unit_16 -> c_16
I0222 17:37:18.080895 24666 net.cpp:380] lstm1_unit_16 -> h_16
I0222 17:37:18.080919 24666 net.cpp:122] Setting up lstm1_unit_16
I0222 17:37:18.080924 24666 net.cpp:129] Top shape: 1 26 16 (416)
I0222 17:37:18.080927 24666 net.cpp:129] Top shape: 1 26 16 (416)
I0222 17:37:18.080930 24666 net.cpp:137] Memory required for data: 678080
I0222 17:37:18.080934 24666 layer_factory.hpp:77] Creating layer h_16_lstm1_unit_16_1_split
I0222 17:37:18.080937 24666 net.cpp:84] Creating Layer h_16_lstm1_unit_16_1_split
I0222 17:37:18.080940 24666 net.cpp:406] h_16_lstm1_unit_16_1_split <- h_16
I0222 17:37:18.080945 24666 net.cpp:380] h_16_lstm1_unit_16_1_split -> h_16_lstm1_unit_16_1_split_0
I0222 17:37:18.080950 24666 net.cpp:380] h_16_lstm1_unit_16_1_split -> h_16_lstm1_unit_16_1_split_1
I0222 17:37:18.080967 24666 net.cpp:122] Setting up h_16_lstm1_unit_16_1_split
I0222 17:37:18.080971 24666 net.cpp:129] Top shape: 1 26 16 (416)
I0222 17:37:18.080974 24666 net.cpp:129] Top shape: 1 26 16 (416)
I0222 17:37:18.080977 24666 net.cpp:137] Memory required for data: 681408
I0222 17:37:18.080981 24666 layer_factory.hpp:77] Creating layer lstm1_h_conted_16
I0222 17:37:18.080986 24666 net.cpp:84] Creating Layer lstm1_h_conted_16
I0222 17:37:18.080988 24666 net.cpp:406] lstm1_h_conted_16 <- h_16_lstm1_unit_16_1_split_0
I0222 17:37:18.080992 24666 net.cpp:406] lstm1_h_conted_16 <- cont_17_lstm1_cont_slice_16_split_0
I0222 17:37:18.080996 24666 net.cpp:380] lstm1_h_conted_16 -> h_conted_16
I0222 17:37:18.081028 24666 net.cpp:122] Setting up lstm1_h_conted_16
I0222 17:37:18.081033 24666 net.cpp:129] Top shape: 1 26 16 (416)
I0222 17:37:18.081035 24666 net.cpp:137] Memory required for data: 683072
I0222 17:37:18.081038 24666 layer_factory.hpp:77] Creating layer lstm1_transform_17
I0222 17:37:18.081043 24666 net.cpp:84] Creating Layer lstm1_transform_17
I0222 17:37:18.081046 24666 net.cpp:406] lstm1_transform_17 <- h_conted_16
I0222 17:37:18.081050 24666 net.cpp:380] lstm1_transform_17 -> W_hc_h_16
I0222 17:37:18.081080 24666 net.cpp:122] Setting up lstm1_transform_17
I0222 17:37:18.081085 24666 net.cpp:129] Top shape: 1 26 64 (1664)
I0222 17:37:18.081087 24666 net.cpp:137] Memory required for data: 689728
I0222 17:37:18.081091 24666 net.cpp:465] Sharing parameters 'W_hc' owned by layer 'lstm1_transform_1', param index 0
I0222 17:37:18.081094 24666 layer_factory.hpp:77] Creating layer lstm1_gate_input_17
I0222 17:37:18.081099 24666 net.cpp:84] Creating Layer lstm1_gate_input_17
I0222 17:37:18.084321 24666 net.cpp:406] lstm1_gate_input_17 <- W_hc_h_16
I0222 17:37:18.084329 24666 net.cpp:406] lstm1_gate_input_17 <- W_xc_x_17
I0222 17:37:18.084337 24666 net.cpp:380] lstm1_gate_input_17 -> gate_input_17
I0222 17:37:18.084372 24666 net.cpp:122] Setting up lstm1_gate_input_17
I0222 17:37:18.084378 24666 net.cpp:129] Top shape: 1 26 64 (1664)
I0222 17:37:18.084388 24666 net.cpp:137] Memory required for data: 696384
I0222 17:37:18.084390 24666 layer_factory.hpp:77] Creating layer lstm1_unit_17
I0222 17:37:18.084394 24666 net.cpp:84] Creating Layer lstm1_unit_17
I0222 17:37:18.084398 24666 net.cpp:406] lstm1_unit_17 <- c_16
I0222 17:37:18.084401 24666 net.cpp:406] lstm1_unit_17 <- gate_input_17
I0222 17:37:18.084404 24666 net.cpp:406] lstm1_unit_17 <- cont_17_lstm1_cont_slice_16_split_1
I0222 17:37:18.084408 24666 net.cpp:380] lstm1_unit_17 -> c_17
I0222 17:37:18.084414 24666 net.cpp:380] lstm1_unit_17 -> h_17
I0222 17:37:18.084440 24666 net.cpp:122] Setting up lstm1_unit_17
I0222 17:37:18.084445 24666 net.cpp:129] Top shape: 1 26 16 (416)
I0222 17:37:18.084448 24666 net.cpp:129] Top shape: 1 26 16 (416)
I0222 17:37:18.084450 24666 net.cpp:137] Memory required for data: 699712
I0222 17:37:18.084455 24666 layer_factory.hpp:77] Creating layer h_17_lstm1_unit_17_1_split
I0222 17:37:18.084458 24666 net.cpp:84] Creating Layer h_17_lstm1_unit_17_1_split
I0222 17:37:18.084461 24666 net.cpp:406] h_17_lstm1_unit_17_1_split <- h_17
I0222 17:37:18.084465 24666 net.cpp:380] h_17_lstm1_unit_17_1_split -> h_17_lstm1_unit_17_1_split_0
I0222 17:37:18.084470 24666 net.cpp:380] h_17_lstm1_unit_17_1_split -> h_17_lstm1_unit_17_1_split_1
I0222 17:37:18.084488 24666 net.cpp:122] Setting up h_17_lstm1_unit_17_1_split
I0222 17:37:18.084492 24666 net.cpp:129] Top shape: 1 26 16 (416)
I0222 17:37:18.084496 24666 net.cpp:129] Top shape: 1 26 16 (416)
I0222 17:37:18.084499 24666 net.cpp:137] Memory required for data: 703040
I0222 17:37:18.084502 24666 layer_factory.hpp:77] Creating layer lstm1_h_conted_17
I0222 17:37:18.084506 24666 net.cpp:84] Creating Layer lstm1_h_conted_17
I0222 17:37:18.084509 24666 net.cpp:406] lstm1_h_conted_17 <- h_17_lstm1_unit_17_1_split_0
I0222 17:37:18.084513 24666 net.cpp:406] lstm1_h_conted_17 <- cont_18_lstm1_cont_slice_17_split_0
I0222 17:37:18.084519 24666 net.cpp:380] lstm1_h_conted_17 -> h_conted_17
I0222 17:37:18.084552 24666 net.cpp:122] Setting up lstm1_h_conted_17
I0222 17:37:18.084556 24666 net.cpp:129] Top shape: 1 26 16 (416)
I0222 17:37:18.084559 24666 net.cpp:137] Memory required for data: 704704
I0222 17:37:18.084563 24666 layer_factory.hpp:77] Creating layer lstm1_transform_18
I0222 17:37:18.084568 24666 net.cpp:84] Creating Layer lstm1_transform_18
I0222 17:37:18.084571 24666 net.cpp:406] lstm1_transform_18 <- h_conted_17
I0222 17:37:18.084575 24666 net.cpp:380] lstm1_transform_18 -> W_hc_h_17
I0222 17:37:18.084609 24666 net.cpp:122] Setting up lstm1_transform_18
I0222 17:37:18.084614 24666 net.cpp:129] Top shape: 1 26 64 (1664)
I0222 17:37:18.084617 24666 net.cpp:137] Memory required for data: 711360
I0222 17:37:18.084620 24666 net.cpp:465] Sharing parameters 'W_hc' owned by layer 'lstm1_transform_1', param index 0
I0222 17:37:18.084625 24666 layer_factory.hpp:77] Creating layer lstm1_gate_input_18
I0222 17:37:18.084628 24666 net.cpp:84] Creating Layer lstm1_gate_input_18
I0222 17:37:18.084631 24666 net.cpp:406] lstm1_gate_input_18 <- W_hc_h_17
I0222 17:37:18.084635 24666 net.cpp:406] lstm1_gate_input_18 <- W_xc_x_18
I0222 17:37:18.084640 24666 net.cpp:380] lstm1_gate_input_18 -> gate_input_18
I0222 17:37:18.084653 24666 net.cpp:122] Setting up lstm1_gate_input_18
I0222 17:37:18.084658 24666 net.cpp:129] Top shape: 1 26 64 (1664)
I0222 17:37:18.084661 24666 net.cpp:137] Memory required for data: 718016
I0222 17:37:18.084663 24666 layer_factory.hpp:77] Creating layer lstm1_unit_18
I0222 17:37:18.084667 24666 net.cpp:84] Creating Layer lstm1_unit_18
I0222 17:37:18.084671 24666 net.cpp:406] lstm1_unit_18 <- c_17
I0222 17:37:18.084674 24666 net.cpp:406] lstm1_unit_18 <- gate_input_18
I0222 17:37:18.084678 24666 net.cpp:406] lstm1_unit_18 <- cont_18_lstm1_cont_slice_17_split_1
I0222 17:37:18.084682 24666 net.cpp:380] lstm1_unit_18 -> c_18
I0222 17:37:18.084687 24666 net.cpp:380] lstm1_unit_18 -> h_18
I0222 17:37:18.084712 24666 net.cpp:122] Setting up lstm1_unit_18
I0222 17:37:18.084717 24666 net.cpp:129] Top shape: 1 26 16 (416)
I0222 17:37:18.084724 24666 net.cpp:129] Top shape: 1 26 16 (416)
I0222 17:37:18.084728 24666 net.cpp:137] Memory required for data: 721344
I0222 17:37:18.084730 24666 layer_factory.hpp:77] Creating layer h_18_lstm1_unit_18_1_split
I0222 17:37:18.084735 24666 net.cpp:84] Creating Layer h_18_lstm1_unit_18_1_split
I0222 17:37:18.084738 24666 net.cpp:406] h_18_lstm1_unit_18_1_split <- h_18
I0222 17:37:18.084743 24666 net.cpp:380] h_18_lstm1_unit_18_1_split -> h_18_lstm1_unit_18_1_split_0
I0222 17:37:18.084748 24666 net.cpp:380] h_18_lstm1_unit_18_1_split -> h_18_lstm1_unit_18_1_split_1
I0222 17:37:18.084765 24666 net.cpp:122] Setting up h_18_lstm1_unit_18_1_split
I0222 17:37:18.084769 24666 net.cpp:129] Top shape: 1 26 16 (416)
I0222 17:37:18.084774 24666 net.cpp:129] Top shape: 1 26 16 (416)
I0222 17:37:18.084776 24666 net.cpp:137] Memory required for data: 724672
I0222 17:37:18.084779 24666 layer_factory.hpp:77] Creating layer lstm1_h_conted_18
I0222 17:37:18.084782 24666 net.cpp:84] Creating Layer lstm1_h_conted_18
I0222 17:37:18.084786 24666 net.cpp:406] lstm1_h_conted_18 <- h_18_lstm1_unit_18_1_split_0
I0222 17:37:18.084790 24666 net.cpp:406] lstm1_h_conted_18 <- cont_19_lstm1_cont_slice_18_split_0
I0222 17:37:18.084794 24666 net.cpp:380] lstm1_h_conted_18 -> h_conted_18
I0222 17:37:18.084825 24666 net.cpp:122] Setting up lstm1_h_conted_18
I0222 17:37:18.084828 24666 net.cpp:129] Top shape: 1 26 16 (416)
I0222 17:37:18.084831 24666 net.cpp:137] Memory required for data: 726336
I0222 17:37:18.084834 24666 layer_factory.hpp:77] Creating layer lstm1_transform_19
I0222 17:37:18.084839 24666 net.cpp:84] Creating Layer lstm1_transform_19
I0222 17:37:18.084842 24666 net.cpp:406] lstm1_transform_19 <- h_conted_18
I0222 17:37:18.084847 24666 net.cpp:380] lstm1_transform_19 -> W_hc_h_18
I0222 17:37:18.084878 24666 net.cpp:122] Setting up lstm1_transform_19
I0222 17:37:18.084883 24666 net.cpp:129] Top shape: 1 26 64 (1664)
I0222 17:37:18.084885 24666 net.cpp:137] Memory required for data: 732992
I0222 17:37:18.084889 24666 net.cpp:465] Sharing parameters 'W_hc' owned by layer 'lstm1_transform_1', param index 0
I0222 17:37:18.084892 24666 layer_factory.hpp:77] Creating layer lstm1_gate_input_19
I0222 17:37:18.084897 24666 net.cpp:84] Creating Layer lstm1_gate_input_19
I0222 17:37:18.084899 24666 net.cpp:406] lstm1_gate_input_19 <- W_hc_h_18
I0222 17:37:18.084903 24666 net.cpp:406] lstm1_gate_input_19 <- W_xc_x_19
I0222 17:37:18.084908 24666 net.cpp:380] lstm1_gate_input_19 -> gate_input_19
I0222 17:37:18.084920 24666 net.cpp:122] Setting up lstm1_gate_input_19
I0222 17:37:18.084925 24666 net.cpp:129] Top shape: 1 26 64 (1664)
I0222 17:37:18.084928 24666 net.cpp:137] Memory required for data: 739648
I0222 17:37:18.084930 24666 layer_factory.hpp:77] Creating layer lstm1_unit_19
I0222 17:37:18.084934 24666 net.cpp:84] Creating Layer lstm1_unit_19
I0222 17:37:18.084939 24666 net.cpp:406] lstm1_unit_19 <- c_18
I0222 17:37:18.084941 24666 net.cpp:406] lstm1_unit_19 <- gate_input_19
I0222 17:37:18.084945 24666 net.cpp:406] lstm1_unit_19 <- cont_19_lstm1_cont_slice_18_split_1
I0222 17:37:18.084949 24666 net.cpp:380] lstm1_unit_19 -> c_19
I0222 17:37:18.084954 24666 net.cpp:380] lstm1_unit_19 -> h_19
I0222 17:37:18.084977 24666 net.cpp:122] Setting up lstm1_unit_19
I0222 17:37:18.084982 24666 net.cpp:129] Top shape: 1 26 16 (416)
I0222 17:37:18.084985 24666 net.cpp:129] Top shape: 1 26 16 (416)
I0222 17:37:18.084988 24666 net.cpp:137] Memory required for data: 742976
I0222 17:37:18.084991 24666 layer_factory.hpp:77] Creating layer h_19_lstm1_unit_19_1_split
I0222 17:37:18.084998 24666 net.cpp:84] Creating Layer h_19_lstm1_unit_19_1_split
I0222 17:37:18.085001 24666 net.cpp:406] h_19_lstm1_unit_19_1_split <- h_19
I0222 17:37:18.085005 24666 net.cpp:380] h_19_lstm1_unit_19_1_split -> h_19_lstm1_unit_19_1_split_0
I0222 17:37:18.085011 24666 net.cpp:380] h_19_lstm1_unit_19_1_split -> h_19_lstm1_unit_19_1_split_1
I0222 17:37:18.110498 24666 net.cpp:122] Setting up h_19_lstm1_unit_19_1_split
I0222 17:37:18.110508 24666 net.cpp:129] Top shape: 1 26 16 (416)
I0222 17:37:18.110522 24666 net.cpp:129] Top shape: 1 26 16 (416)
I0222 17:37:18.110525 24666 net.cpp:137] Memory required for data: 746304
I0222 17:37:18.110529 24666 layer_factory.hpp:77] Creating layer lstm1_h_conted_19
I0222 17:37:18.110536 24666 net.cpp:84] Creating Layer lstm1_h_conted_19
I0222 17:37:18.110541 24666 net.cpp:406] lstm1_h_conted_19 <- h_19_lstm1_unit_19_1_split_0
I0222 17:37:18.110546 24666 net.cpp:406] lstm1_h_conted_19 <- cont_20_lstm1_cont_slice_19_split_0
I0222 17:37:18.110551 24666 net.cpp:380] lstm1_h_conted_19 -> h_conted_19
I0222 17:37:18.110589 24666 net.cpp:122] Setting up lstm1_h_conted_19
I0222 17:37:18.110594 24666 net.cpp:129] Top shape: 1 26 16 (416)
I0222 17:37:18.110596 24666 net.cpp:137] Memory required for data: 747968
I0222 17:37:18.110599 24666 layer_factory.hpp:77] Creating layer lstm1_transform_20
I0222 17:37:18.110605 24666 net.cpp:84] Creating Layer lstm1_transform_20
I0222 17:37:18.110607 24666 net.cpp:406] lstm1_transform_20 <- h_conted_19
I0222 17:37:18.110612 24666 net.cpp:380] lstm1_transform_20 -> W_hc_h_19
I0222 17:37:18.110651 24666 net.cpp:122] Setting up lstm1_transform_20
I0222 17:37:18.110656 24666 net.cpp:129] Top shape: 1 26 64 (1664)
I0222 17:37:18.110658 24666 net.cpp:137] Memory required for data: 754624
I0222 17:37:18.110661 24666 net.cpp:465] Sharing parameters 'W_hc' owned by layer 'lstm1_transform_1', param index 0
I0222 17:37:18.110666 24666 layer_factory.hpp:77] Creating layer lstm1_gate_input_20
I0222 17:37:18.110671 24666 net.cpp:84] Creating Layer lstm1_gate_input_20
I0222 17:37:18.110674 24666 net.cpp:406] lstm1_gate_input_20 <- W_hc_h_19
I0222 17:37:18.110678 24666 net.cpp:406] lstm1_gate_input_20 <- W_xc_x_20
I0222 17:37:18.110683 24666 net.cpp:380] lstm1_gate_input_20 -> gate_input_20
I0222 17:37:18.110697 24666 net.cpp:122] Setting up lstm1_gate_input_20
I0222 17:37:18.110700 24666 net.cpp:129] Top shape: 1 26 64 (1664)
I0222 17:37:18.110703 24666 net.cpp:137] Memory required for data: 761280
I0222 17:37:18.110707 24666 layer_factory.hpp:77] Creating layer lstm1_unit_20
I0222 17:37:18.110716 24666 net.cpp:84] Creating Layer lstm1_unit_20
I0222 17:37:18.110720 24666 net.cpp:406] lstm1_unit_20 <- c_19
I0222 17:37:18.110724 24666 net.cpp:406] lstm1_unit_20 <- gate_input_20
I0222 17:37:18.110728 24666 net.cpp:406] lstm1_unit_20 <- cont_20_lstm1_cont_slice_19_split_1
I0222 17:37:18.110731 24666 net.cpp:380] lstm1_unit_20 -> c_20
I0222 17:37:18.110736 24666 net.cpp:380] lstm1_unit_20 -> h_20
I0222 17:37:18.110761 24666 net.cpp:122] Setting up lstm1_unit_20
I0222 17:37:18.110766 24666 net.cpp:129] Top shape: 1 26 16 (416)
I0222 17:37:18.110769 24666 net.cpp:129] Top shape: 1 26 16 (416)
I0222 17:37:18.110772 24666 net.cpp:137] Memory required for data: 764608
I0222 17:37:18.110775 24666 layer_factory.hpp:77] Creating layer h_20_lstm1_unit_20_1_split
I0222 17:37:18.110790 24666 net.cpp:84] Creating Layer h_20_lstm1_unit_20_1_split
I0222 17:37:18.110793 24666 net.cpp:406] h_20_lstm1_unit_20_1_split <- h_20
I0222 17:37:18.110798 24666 net.cpp:380] h_20_lstm1_unit_20_1_split -> h_20_lstm1_unit_20_1_split_0
I0222 17:37:18.110803 24666 net.cpp:380] h_20_lstm1_unit_20_1_split -> h_20_lstm1_unit_20_1_split_1
I0222 17:37:18.110822 24666 net.cpp:122] Setting up h_20_lstm1_unit_20_1_split
I0222 17:37:18.110826 24666 net.cpp:129] Top shape: 1 26 16 (416)
I0222 17:37:18.110829 24666 net.cpp:129] Top shape: 1 26 16 (416)
I0222 17:37:18.110832 24666 net.cpp:137] Memory required for data: 767936
I0222 17:37:18.110836 24666 layer_factory.hpp:77] Creating layer lstm1_h_conted_20
I0222 17:37:18.110841 24666 net.cpp:84] Creating Layer lstm1_h_conted_20
I0222 17:37:18.110843 24666 net.cpp:406] lstm1_h_conted_20 <- h_20_lstm1_unit_20_1_split_0
I0222 17:37:18.110847 24666 net.cpp:406] lstm1_h_conted_20 <- cont_21_lstm1_cont_slice_20_split_0
I0222 17:37:18.110852 24666 net.cpp:380] lstm1_h_conted_20 -> h_conted_20
I0222 17:37:18.110882 24666 net.cpp:122] Setting up lstm1_h_conted_20
I0222 17:37:18.110888 24666 net.cpp:129] Top shape: 1 26 16 (416)
I0222 17:37:18.110895 24666 net.cpp:137] Memory required for data: 769600
I0222 17:37:18.110898 24666 layer_factory.hpp:77] Creating layer lstm1_transform_21
I0222 17:37:18.110904 24666 net.cpp:84] Creating Layer lstm1_transform_21
I0222 17:37:18.110908 24666 net.cpp:406] lstm1_transform_21 <- h_conted_20
I0222 17:37:18.110913 24666 net.cpp:380] lstm1_transform_21 -> W_hc_h_20
I0222 17:37:18.110944 24666 net.cpp:122] Setting up lstm1_transform_21
I0222 17:37:18.110949 24666 net.cpp:129] Top shape: 1 26 64 (1664)
I0222 17:37:18.110952 24666 net.cpp:137] Memory required for data: 776256
I0222 17:37:18.110955 24666 net.cpp:465] Sharing parameters 'W_hc' owned by layer 'lstm1_transform_1', param index 0
I0222 17:37:18.110960 24666 layer_factory.hpp:77] Creating layer lstm1_gate_input_21
I0222 17:37:18.110963 24666 net.cpp:84] Creating Layer lstm1_gate_input_21
I0222 17:37:18.110966 24666 net.cpp:406] lstm1_gate_input_21 <- W_hc_h_20
I0222 17:37:18.110970 24666 net.cpp:406] lstm1_gate_input_21 <- W_xc_x_21
I0222 17:37:18.110975 24666 net.cpp:380] lstm1_gate_input_21 -> gate_input_21
I0222 17:37:18.110988 24666 net.cpp:122] Setting up lstm1_gate_input_21
I0222 17:37:18.110993 24666 net.cpp:129] Top shape: 1 26 64 (1664)
I0222 17:37:18.110996 24666 net.cpp:137] Memory required for data: 782912
I0222 17:37:18.110998 24666 layer_factory.hpp:77] Creating layer lstm1_unit_21
I0222 17:37:18.111002 24666 net.cpp:84] Creating Layer lstm1_unit_21
I0222 17:37:18.111006 24666 net.cpp:406] lstm1_unit_21 <- c_20
I0222 17:37:18.111011 24666 net.cpp:406] lstm1_unit_21 <- gate_input_21
I0222 17:37:18.111013 24666 net.cpp:406] lstm1_unit_21 <- cont_21_lstm1_cont_slice_20_split_1
I0222 17:37:18.111017 24666 net.cpp:380] lstm1_unit_21 -> c_21
I0222 17:37:18.111022 24666 net.cpp:380] lstm1_unit_21 -> h_21
I0222 17:37:18.111047 24666 net.cpp:122] Setting up lstm1_unit_21
I0222 17:37:18.111052 24666 net.cpp:129] Top shape: 1 26 16 (416)
I0222 17:37:18.111054 24666 net.cpp:129] Top shape: 1 26 16 (416)
I0222 17:37:18.111057 24666 net.cpp:137] Memory required for data: 786240
I0222 17:37:18.111060 24666 layer_factory.hpp:77] Creating layer h_21_lstm1_unit_21_1_split
I0222 17:37:18.111064 24666 net.cpp:84] Creating Layer h_21_lstm1_unit_21_1_split
I0222 17:37:18.111068 24666 net.cpp:406] h_21_lstm1_unit_21_1_split <- h_21
I0222 17:37:18.111071 24666 net.cpp:380] h_21_lstm1_unit_21_1_split -> h_21_lstm1_unit_21_1_split_0
I0222 17:37:18.111076 24666 net.cpp:380] h_21_lstm1_unit_21_1_split -> h_21_lstm1_unit_21_1_split_1
I0222 17:37:18.111093 24666 net.cpp:122] Setting up h_21_lstm1_unit_21_1_split
I0222 17:37:18.111097 24666 net.cpp:129] Top shape: 1 26 16 (416)
I0222 17:37:18.111100 24666 net.cpp:129] Top shape: 1 26 16 (416)
I0222 17:37:18.111104 24666 net.cpp:137] Memory required for data: 789568
I0222 17:37:18.111106 24666 layer_factory.hpp:77] Creating layer lstm1_h_conted_21
I0222 17:37:18.111110 24666 net.cpp:84] Creating Layer lstm1_h_conted_21
I0222 17:37:18.111114 24666 net.cpp:406] lstm1_h_conted_21 <- h_21_lstm1_unit_21_1_split_0
I0222 17:37:18.111119 24666 net.cpp:406] lstm1_h_conted_21 <- cont_22_lstm1_cont_slice_21_split_0
I0222 17:37:18.111122 24666 net.cpp:380] lstm1_h_conted_21 -> h_conted_21
I0222 17:37:18.111152 24666 net.cpp:122] Setting up lstm1_h_conted_21
I0222 17:37:18.111157 24666 net.cpp:129] Top shape: 1 26 16 (416)
I0222 17:37:18.111160 24666 net.cpp:137] Memory required for data: 791232
I0222 17:37:18.111163 24666 layer_factory.hpp:77] Creating layer lstm1_transform_22
I0222 17:37:18.111167 24666 net.cpp:84] Creating Layer lstm1_transform_22
I0222 17:37:18.111171 24666 net.cpp:406] lstm1_transform_22 <- h_conted_21
I0222 17:37:18.111176 24666 net.cpp:380] lstm1_transform_22 -> W_hc_h_21
I0222 17:37:18.114426 24666 net.cpp:122] Setting up lstm1_transform_22
I0222 17:37:18.114436 24666 net.cpp:129] Top shape: 1 26 64 (1664)
I0222 17:37:18.114439 24666 net.cpp:137] Memory required for data: 797888
I0222 17:37:18.114442 24666 net.cpp:465] Sharing parameters 'W_hc' owned by layer 'lstm1_transform_1', param index 0
I0222 17:37:18.114444 24666 layer_factory.hpp:77] Creating layer lstm1_gate_input_22
I0222 17:37:18.114456 24666 net.cpp:84] Creating Layer lstm1_gate_input_22
I0222 17:37:18.114460 24666 net.cpp:406] lstm1_gate_input_22 <- W_hc_h_21
I0222 17:37:18.114464 24666 net.cpp:406] lstm1_gate_input_22 <- W_xc_x_22
I0222 17:37:18.114468 24666 net.cpp:380] lstm1_gate_input_22 -> gate_input_22
I0222 17:37:18.114485 24666 net.cpp:122] Setting up lstm1_gate_input_22
I0222 17:37:18.114488 24666 net.cpp:129] Top shape: 1 26 64 (1664)
I0222 17:37:18.114490 24666 net.cpp:137] Memory required for data: 804544
I0222 17:37:18.114493 24666 layer_factory.hpp:77] Creating layer lstm1_unit_22
I0222 17:37:18.114496 24666 net.cpp:84] Creating Layer lstm1_unit_22
I0222 17:37:18.114500 24666 net.cpp:406] lstm1_unit_22 <- c_21
I0222 17:37:18.114503 24666 net.cpp:406] lstm1_unit_22 <- gate_input_22
I0222 17:37:18.114507 24666 net.cpp:406] lstm1_unit_22 <- cont_22_lstm1_cont_slice_21_split_1
I0222 17:37:18.114511 24666 net.cpp:380] lstm1_unit_22 -> c_22
I0222 17:37:18.114516 24666 net.cpp:380] lstm1_unit_22 -> h_22
I0222 17:37:18.114542 24666 net.cpp:122] Setting up lstm1_unit_22
I0222 17:37:18.114545 24666 net.cpp:129] Top shape: 1 26 16 (416)
I0222 17:37:18.114549 24666 net.cpp:129] Top shape: 1 26 16 (416)
I0222 17:37:18.114552 24666 net.cpp:137] Memory required for data: 807872
I0222 17:37:18.114554 24666 layer_factory.hpp:77] Creating layer h_22_lstm1_unit_22_1_split
I0222 17:37:18.114559 24666 net.cpp:84] Creating Layer h_22_lstm1_unit_22_1_split
I0222 17:37:18.114563 24666 net.cpp:406] h_22_lstm1_unit_22_1_split <- h_22
I0222 17:37:18.114567 24666 net.cpp:380] h_22_lstm1_unit_22_1_split -> h_22_lstm1_unit_22_1_split_0
I0222 17:37:18.114573 24666 net.cpp:380] h_22_lstm1_unit_22_1_split -> h_22_lstm1_unit_22_1_split_1
I0222 17:37:18.114590 24666 net.cpp:122] Setting up h_22_lstm1_unit_22_1_split
I0222 17:37:18.114594 24666 net.cpp:129] Top shape: 1 26 16 (416)
I0222 17:37:18.114598 24666 net.cpp:129] Top shape: 1 26 16 (416)
I0222 17:37:18.114600 24666 net.cpp:137] Memory required for data: 811200
I0222 17:37:18.114603 24666 layer_factory.hpp:77] Creating layer lstm1_h_conted_22
I0222 17:37:18.114609 24666 net.cpp:84] Creating Layer lstm1_h_conted_22
I0222 17:37:18.114612 24666 net.cpp:406] lstm1_h_conted_22 <- h_22_lstm1_unit_22_1_split_0
I0222 17:37:18.114616 24666 net.cpp:406] lstm1_h_conted_22 <- cont_23_lstm1_cont_slice_22_split_0
I0222 17:37:18.114620 24666 net.cpp:380] lstm1_h_conted_22 -> h_conted_22
I0222 17:37:18.114652 24666 net.cpp:122] Setting up lstm1_h_conted_22
I0222 17:37:18.114656 24666 net.cpp:129] Top shape: 1 26 16 (416)
I0222 17:37:18.114660 24666 net.cpp:137] Memory required for data: 812864
I0222 17:37:18.114662 24666 layer_factory.hpp:77] Creating layer lstm1_transform_23
I0222 17:37:18.114666 24666 net.cpp:84] Creating Layer lstm1_transform_23
I0222 17:37:18.114670 24666 net.cpp:406] lstm1_transform_23 <- h_conted_22
I0222 17:37:18.114675 24666 net.cpp:380] lstm1_transform_23 -> W_hc_h_22
I0222 17:37:18.114725 24666 net.cpp:122] Setting up lstm1_transform_23
I0222 17:37:18.114732 24666 net.cpp:129] Top shape: 1 26 64 (1664)
I0222 17:37:18.114734 24666 net.cpp:137] Memory required for data: 819520
I0222 17:37:18.114737 24666 net.cpp:465] Sharing parameters 'W_hc' owned by layer 'lstm1_transform_1', param index 0
I0222 17:37:18.114742 24666 layer_factory.hpp:77] Creating layer lstm1_gate_input_23
I0222 17:37:18.114747 24666 net.cpp:84] Creating Layer lstm1_gate_input_23
I0222 17:37:18.114749 24666 net.cpp:406] lstm1_gate_input_23 <- W_hc_h_22
I0222 17:37:18.114753 24666 net.cpp:406] lstm1_gate_input_23 <- W_xc_x_23
I0222 17:37:18.114758 24666 net.cpp:380] lstm1_gate_input_23 -> gate_input_23
I0222 17:37:18.114770 24666 net.cpp:122] Setting up lstm1_gate_input_23
I0222 17:37:18.114774 24666 net.cpp:129] Top shape: 1 26 64 (1664)
I0222 17:37:18.114778 24666 net.cpp:137] Memory required for data: 826176
I0222 17:37:18.114780 24666 layer_factory.hpp:77] Creating layer lstm1_unit_23
I0222 17:37:18.114784 24666 net.cpp:84] Creating Layer lstm1_unit_23
I0222 17:37:18.114792 24666 net.cpp:406] lstm1_unit_23 <- c_22
I0222 17:37:18.114796 24666 net.cpp:406] lstm1_unit_23 <- gate_input_23
I0222 17:37:18.114800 24666 net.cpp:406] lstm1_unit_23 <- cont_23_lstm1_cont_slice_22_split_1
I0222 17:37:18.114805 24666 net.cpp:380] lstm1_unit_23 -> c_23
I0222 17:37:18.114810 24666 net.cpp:380] lstm1_unit_23 -> h_23
I0222 17:37:18.114835 24666 net.cpp:122] Setting up lstm1_unit_23
I0222 17:37:18.114840 24666 net.cpp:129] Top shape: 1 26 16 (416)
I0222 17:37:18.114843 24666 net.cpp:129] Top shape: 1 26 16 (416)
I0222 17:37:18.114846 24666 net.cpp:137] Memory required for data: 829504
I0222 17:37:18.114850 24666 layer_factory.hpp:77] Creating layer h_23_lstm1_unit_23_1_split
I0222 17:37:18.114852 24666 net.cpp:84] Creating Layer h_23_lstm1_unit_23_1_split
I0222 17:37:18.114856 24666 net.cpp:406] h_23_lstm1_unit_23_1_split <- h_23
I0222 17:37:18.114859 24666 net.cpp:380] h_23_lstm1_unit_23_1_split -> h_23_lstm1_unit_23_1_split_0
I0222 17:37:18.114864 24666 net.cpp:380] h_23_lstm1_unit_23_1_split -> h_23_lstm1_unit_23_1_split_1
I0222 17:37:18.114882 24666 net.cpp:122] Setting up h_23_lstm1_unit_23_1_split
I0222 17:37:18.114886 24666 net.cpp:129] Top shape: 1 26 16 (416)
I0222 17:37:18.114889 24666 net.cpp:129] Top shape: 1 26 16 (416)
I0222 17:37:18.114892 24666 net.cpp:137] Memory required for data: 832832
I0222 17:37:18.114895 24666 layer_factory.hpp:77] Creating layer lstm1_h_conted_23
I0222 17:37:18.114899 24666 net.cpp:84] Creating Layer lstm1_h_conted_23
I0222 17:37:18.114902 24666 net.cpp:406] lstm1_h_conted_23 <- h_23_lstm1_unit_23_1_split_0
I0222 17:37:18.114907 24666 net.cpp:406] lstm1_h_conted_23 <- cont_24_lstm1_cont_slice_23_split_0
I0222 17:37:18.114912 24666 net.cpp:380] lstm1_h_conted_23 -> h_conted_23
I0222 17:37:18.114944 24666 net.cpp:122] Setting up lstm1_h_conted_23
I0222 17:37:18.114948 24666 net.cpp:129] Top shape: 1 26 16 (416)
I0222 17:37:18.114951 24666 net.cpp:137] Memory required for data: 834496
I0222 17:37:18.114954 24666 layer_factory.hpp:77] Creating layer lstm1_transform_24
I0222 17:37:18.114959 24666 net.cpp:84] Creating Layer lstm1_transform_24
I0222 17:37:18.114962 24666 net.cpp:406] lstm1_transform_24 <- h_conted_23
I0222 17:37:18.114967 24666 net.cpp:380] lstm1_transform_24 -> W_hc_h_23
I0222 17:37:18.114998 24666 net.cpp:122] Setting up lstm1_transform_24
I0222 17:37:18.115002 24666 net.cpp:129] Top shape: 1 26 64 (1664)
I0222 17:37:18.115005 24666 net.cpp:137] Memory required for data: 841152
I0222 17:37:18.115010 24666 net.cpp:465] Sharing parameters 'W_hc' owned by layer 'lstm1_transform_1', param index 0
I0222 17:37:18.115012 24666 layer_factory.hpp:77] Creating layer lstm1_gate_input_24
I0222 17:37:18.115016 24666 net.cpp:84] Creating Layer lstm1_gate_input_24
I0222 17:37:18.115020 24666 net.cpp:406] lstm1_gate_input_24 <- W_hc_h_23
I0222 17:37:18.115023 24666 net.cpp:406] lstm1_gate_input_24 <- W_xc_x_24
I0222 17:37:18.115031 24666 net.cpp:380] lstm1_gate_input_24 -> gate_input_24
I0222 17:37:18.115043 24666 net.cpp:122] Setting up lstm1_gate_input_24
I0222 17:37:18.115048 24666 net.cpp:129] Top shape: 1 26 64 (1664)
I0222 17:37:18.115051 24666 net.cpp:137] Memory required for data: 847808
I0222 17:37:18.115053 24666 layer_factory.hpp:77] Creating layer lstm1_unit_24
I0222 17:37:18.115057 24666 net.cpp:84] Creating Layer lstm1_unit_24
I0222 17:37:18.115061 24666 net.cpp:406] lstm1_unit_24 <- c_23
I0222 17:37:18.115064 24666 net.cpp:406] lstm1_unit_24 <- gate_input_24
I0222 17:37:18.141878 24666 net.cpp:406] lstm1_unit_24 <- cont_24_lstm1_cont_slice_23_split_1
I0222 17:37:18.141892 24666 net.cpp:380] lstm1_unit_24 -> c_24
I0222 17:37:18.141901 24666 net.cpp:380] lstm1_unit_24 -> h_24
I0222 17:37:18.141952 24666 net.cpp:122] Setting up lstm1_unit_24
I0222 17:37:18.141959 24666 net.cpp:129] Top shape: 1 26 16 (416)
I0222 17:37:18.141963 24666 net.cpp:129] Top shape: 1 26 16 (416)
I0222 17:37:18.141965 24666 net.cpp:137] Memory required for data: 851136
I0222 17:37:18.141968 24666 layer_factory.hpp:77] Creating layer lstm1_
I0222 17:37:18.141973 24666 net.cpp:84] Creating Layer lstm1_
I0222 17:37:18.141988 24666 net.cpp:406] lstm1_ <- c_24
I0222 17:37:18.141994 24666 net.cpp:380] lstm1_ -> c_T
I0222 17:37:18.142024 24666 net.cpp:122] Setting up lstm1_
I0222 17:37:18.142030 24666 net.cpp:129] Top shape: 1 26 16 (416)
I0222 17:37:18.142032 24666 net.cpp:137] Memory required for data: 852800
I0222 17:37:18.142047 24666 layer_factory.hpp:77] Creating layer lstm1_h_concat
I0222 17:37:18.142071 24666 net.cpp:84] Creating Layer lstm1_h_concat
I0222 17:37:18.142076 24666 net.cpp:406] lstm1_h_concat <- h_1_lstm1_unit_1_1_split_1
I0222 17:37:18.142079 24666 net.cpp:406] lstm1_h_concat <- h_2_lstm1_unit_2_1_split_1
…
