…
  top: "data"
  data_param {
    source: "/home/leonida/ThesisCode/LSTM_on_Create2/NavDatabases/LAB-21-2-new-step-condition/states_db-2-21-15-4_lmdb"
    batch_size: 24
    backend: LMDB
  }
}
layer {
  name: "label"
  type: "Data"
  top: "labels"
  data_param {
    source: "/home/leonida/ThesisCode/LSTM_on_Create2/NavDatabases/LAB-21-2-new-step-condition/labels_db-2-21-15-4_twist-variant_lmdb"
    batch_size: 24
    backend: LMDB
  }
}
layer {
  name: "clip"
  type: "Input"
  top: "clip"
  input_param {
    shape {
      dim: 24
      dim: 26
    }
  }
}
layer {
  name: "lstm1"
  type: "LSTM"
  bottom: "data"
  bottom: "clip"
  top: "lstm1"
  recurrent_param {
    num_output: 64
    weight_filler {
      type: "xavier"
    }
    bias_filler {
      type: "constant"
    }
  }
}
layer {
  name: "out"
  type: "InnerProduct"
  bottom: "lstm1"
  top: "out"
  inner_product_param {
    num_output: 2
    weight_filler {
      type: "gaussian"
      std: 0.1
    }
    bias_filler {
      type: "constant"
    }
  }
}
layer {
  name: "euclideanLoss"
  type: "EuclideanLoss"
  bottom: "out"
  bottom: "labels"
  top: "loss"
}
I0222 17:41:27.129082 25144 layer_factory.hpp:77] Creating layer data
I0222 17:41:27.129197 25144 db_lmdb.cpp:35] Opened lmdb /home/leonida/ThesisCode/LSTM_on_Create2/NavDatabases/LAB-21-2-new-step-condition/states_db-2-21-15-4_lmdb
I0222 17:41:27.129230 25144 net.cpp:84] Creating Layer data
I0222 17:41:27.129237 25144 net.cpp:380] data -> data
I0222 17:41:27.129914 25144 data_layer.cpp:45] output data size: 24,26,1,1
I0222 17:41:27.133824 25144 net.cpp:122] Setting up data
I0222 17:41:27.133854 25144 net.cpp:129] Top shape: 24 26 1 1 (624)
I0222 17:41:27.133858 25144 net.cpp:137] Memory required for data: 2496
I0222 17:41:27.133864 25144 layer_factory.hpp:77] Creating layer label
I0222 17:41:27.133898 25144 db_lmdb.cpp:35] Opened lmdb /home/leonida/ThesisCode/LSTM_on_Create2/NavDatabases/LAB-21-2-new-step-condition/labels_db-2-21-15-4_twist-variant_lmdb
I0222 17:41:27.133911 25144 net.cpp:84] Creating Layer label
I0222 17:41:27.133916 25144 net.cpp:380] label -> labels
I0222 17:41:27.133971 25144 data_layer.cpp:45] output data size: 24,2,1,1
I0222 17:41:27.139608 25144 net.cpp:122] Setting up label
I0222 17:41:27.139618 25144 net.cpp:129] Top shape: 24 2 1 1 (48)
I0222 17:41:27.139622 25144 net.cpp:137] Memory required for data: 2688
I0222 17:41:27.139626 25144 layer_factory.hpp:77] Creating layer clip
I0222 17:41:27.139665 25144 net.cpp:84] Creating Layer clip
I0222 17:41:27.139670 25144 net.cpp:380] clip -> clip
I0222 17:41:27.139696 25144 net.cpp:122] Setting up clip
I0222 17:41:27.139703 25144 net.cpp:129] Top shape: 24 26 (624)
I0222 17:41:27.139704 25144 net.cpp:137] Memory required for data: 5184
I0222 17:41:27.139708 25144 layer_factory.hpp:77] Creating layer lstm1
I0222 17:41:27.139727 25144 net.cpp:84] Creating Layer lstm1
I0222 17:41:27.139744 25144 net.cpp:406] lstm1 <- data
I0222 17:41:27.139773 25144 net.cpp:406] lstm1 <- clip
I0222 17:41:27.139778 25144 net.cpp:380] lstm1 -> lstm1
I0222 17:41:27.139806 25144 recurrent_layer.cpp:20] Initializing recurrent layer: assuming input batch contains 24 timesteps of 26 independent streams.
I0222 17:41:27.140327 25144 net.cpp:51] Initializing net from parameters: 
layer {
  name: "lstm1_"
  type: "Input"
  top: "x"
  top: "cont"
  input_param {
    shape {
      dim: 24
      dim: 26
      dim: 1
      dim: 1
    }
    shape {
      dim: 24
      dim: 26
    }
  }
}
layer {
  name: "lstm1_"
  type: "Input"
  top: "c_0"
  top: "h_0"
  input_param {
    shape {
      dim: 1
      dim: 26
      dim: 64
    }
    shape {
      dim: 1
      dim: 26
      dim: 64
    }
  }
}
layer {
  name: "lstm1_cont_slice"
  type: "Slice"
  bottom: "cont"
  top: "cont_1"
  top: "cont_2"
  top: "cont_3"
  top: "cont_4"
  top: "cont_5"
  top: "cont_6"
  top: "cont_7"
  top: "cont_8"
  top: "cont_9"
  top: "cont_10"
  top: "cont_11"
  top: "cont_12"
  top: "cont_13"
  top: "cont_14"
  top: "cont_15"
  top: "cont_16"
  top: "cont_17"
  top: "cont_18"
  top: "cont_19"
  top: "cont_20"
  top: "cont_21"
  top: "cont_22"
  top: "cont_23"
  top: "cont_24"
  slice_param {
    axis: 0
  }
}
layer {
  name: "lstm1_x_transform"
  type: "InnerProduct"
  bottom: "x"
  top: "W_xc_x"
  param {
    name: "W_xc"
  }
  param {
    name: "b_c"
  }
  propagate_down: true
  inner_product_param {
    num_output: 256
    bias_term: true
    weight_filler {
      type: "xavier"
    }
    bias_filler {
      type: "constant"
    }
    axis: 2
  }
}
layer {
  name: "lstm1_W_xc_x_slice"
  type: "Slice"
  bottom: "W_xc_x"
  top: "W_xc_x_1"
  top: "W_xc_x_2"
  top: "W_xc_x_3"
  top: "W_xc_x_4"
  top: "W_xc_x_5"
  top: "W_xc_x_6"
  top: "W_xc_x_7"
  top: "W_xc_x_8"
  top: "W_xc_x_9"
  top: "W_xc_x_10"
  top: "W_xc_x_11"
  top: "W_xc_x_12"
  top: "W_xc_x_13"
  top: "W_xc_x_14"
  top: "W_xc_x_15"
  top: "W_xc_x_16"
  top: "W_xc_x_17"
  top: "W_xc_x_18"
  top: "W_xc_x_19"
  top: "W_xc_x_20"
  top: "W_xc_x_21"
  top: "W_xc_x_22"
  top: "W_xc_x_23"
  top: "W_xc_x_24"
  slice_param {
    axis: 0
  }
}
layer {
  name: "lstm1_h_conted_0"
  type: "Scale"
  bottom: "h_0"
  bottom: "cont_1"
  top: "h_conted_0"
  scale_param {
    axis: 0
  }
}
layer {
  name: "lstm1_transform_1"
  type: "InnerProduct"
  bottom: "h_conted_0"
  top: "W_hc_h_0"
  param {
    name: "W_hc"
  }
  inner_product_param {
    num_output: 256
    bias_term: false
    weight_filler {
      type: "xavier"
    }
    axis: 2
  }
}
layer {
  name: "lstm1_gate_input_1"
  type: "Eltwise"
  bottom: "W_hc_h_0"
  bottom: "W_xc_x_1"
  top: "gate_input_1"
  eltwise_param {
    operation: SUM
  }
}
layer {
  name: "lstm1_unit_1"
  type: "LSTMUnit"
  bottom: "c_0"
  bottom: "gate_input_1"
  bottom: "cont_1"
  top: "c_1"
  top: "h_1"
}
layer {
  name: "lstm1_h_conted_1"
  type: "Scale"
  bottom: "h_1"
  bottom: "cont_2"
  top: "h_conted_1"
  scale_param {
    axis: 0
  }
}
layer {
  name: "lstm1_transform_2"
  type: "InnerProduct"
  bottom: "h_conted_1"
  top: "W_hc_h_1"
  param {
    name: "W_hc"
  }
  inner_product_param {
    num_output: 256
    bias_term: false
    weight_filler {
      type: "xavier"
    }
    axis: 2
  }
}
layer {
  name: "lstm1_gate_input_2"
  type: "Eltwise"
  bottom: "W_hc_h_1"
  bottom: "W_xc_x_2"
  top: "gate_input_2"
  eltwise_param {
    operation: SUM
  }
}
layer {
  name: "lstm1_unit_2"
  type: "LSTMUnit"
  bottom: "c_1"
  bottom: "gate_input_2"
  bottom: "cont_2"
  top: "c_2"
  top: "h_2"
}
layer {
  name: "lstm1_h_conted_2"
  type: "Scale"
  bottom: "h_2"
  bottom: "cont_3"
  top: "h_conted_2"
  scale_param {
    axis: 0
  }
}
layer {
  name: "lstm1_transform_3"
  type: "InnerProduct"
  bottom: "h_conted_2"
  top: "W_hc_h_2"
  param {
    name: "W_hc"
  }
  inner_product_param {
    num_output: 256
    bias_term: false
    weight_filler {
      type: "xavier"
    }
    axis: 2
  }
}
layer {
  name: "lstm1_gate_input_3"
  type: "Eltwise"
  bottom: "W_hc_h_2"
  bottom: "W_xc_x_3"
  top: "gate_input_3"
  eltwise_param {
    operation: SUM
  }
}
layer {
  name: "lstm1_unit_3"
  type: "LSTMUnit"
  bottom: "c_2"
  bottom: "gate_input_3"
  bottom: "cont_3"
  top: "c_3"
  top: "h_3"
}
layer {
  name: "lstm1_h_conted_3"
  type: "Scale"
  bottom: "h_3"
  bottom: "cont_4"
  top: "h_conted_3"
  scale_param {
    axis: 0
  }
}
layer {
  name: "lstm1_transform_4"
  type: "InnerProduct"
  bottom: "h_conted_3"
  top: "W_hc_h_3"
  param {
    name: "W_hc"
  }
  inner_product_param {
    num_output: 256
    bias_term: false
    weight_filler {
      type: "xavier"
    }
    axis: 2
  }
}
layer {
  name: "lstm1_gate_input_4"
  type: "Eltwise"
  bottom: "W_hc_h_3"
  bottom: "W_xc_x_4"
  top: "gate_input_4"
  eltwise_param {
    operation: SUM
  }
}
layer {
  name: "lstm1_unit_4"
  type: "LSTMUnit"
  bottom: "c_3"
  bottom: "gate_input_4"
  bottom: "cont_4"
  top: "c_4"
  top: "h_4"
}
layer {
  name: "lstm1_h_conted_4"
  type: "Scale"
  bottom: "h_4"
  bottom: "cont_5"
  top: "h_conted_4"
  scale_param {
    axis: 0
  }
}
layer {
  name: "lstm1_transform_5"
  type: "InnerProduct"
  bottom: "h_conted_4"
  top: "W_hc_h_4"
  param {
    name: "W_hc"
  }
  inner_product_param {
    num_output: 256
    bias_term: false
    weight_filler {
      type: "xavier"
    }
    axis: 2
  }
}
layer {
  name: "lstm1_gate_input_5"
  type: "Eltwise"
  bottom: "W_hc_h_4"
  bottom: "W_xc_x_5"
  top: "gate_input_5"
  eltwise_param {
    operation: SUM
  }
}
layer {
  name: "lstm1_unit_5"
  type: "LSTMUnit"
  bottom: "c_4"
  bottom: "gate_input_5"
  bottom: "cont_5"
  top: "c_5"
  top: "h_5"
}
layer {
  name: "lstm1_h_conted_5"
  type: "Scale"
  bottom: "h_5"
  bottom: "cont_6"
  top: "h_conted_5"
  scale_param {
    axis: 0
  }
}
layer {
  name: "lstm1_transform_6"
  type: "InnerProduct"
  bottom: "h_conted_5"
  top: "W_hc_h_5"
  param {
    name: "W_hc"
  }
  inner_product_param {
    num_output: 256
    bias_term: false
    weight_filler {
      type: "xavier"
    }
    axis: 2
  }
}
layer {
  name: "lstm1_gate_input_6"
  type: "Eltwise"
  bottom: "W_hc_h_5"
  bottom: "W_xc_x_6"
  top: "gate_input_6"
  eltwise_param {
    operation: SUM
  }
}
layer {
  name: "lstm1_unit_6"
  type: "LSTMUnit"
  bottom: "c_5"
  bottom: "gate_input_6"
  bottom: "cont_6"
  top: "c_6"
  top: "h_6"
}
layer {
  name: "lstm1_h_conted_6"
  type: "Scale"
  bottom: "h_6"
  bottom: "cont_7"
  top: "h_conted_6"
  scale_param {
    axis: 0
  }
}
layer {
  name: "lstm1_transform_7"
  type: "InnerProduct"
  bottom: "h_conted_6"
  top: "W_hc_h_6"
  param {
    name: "W_hc"
  }
  inner_product_param {
    num_output: 256
    bias_term: false
    weight_filler {
      type: "xavier"
    }
    axis: 2
  }
}
layer {
  name: "lstm1_gate_input_7"
  type: "Eltwise"
  bottom: "W_hc_h_6"
  bottom: "W_xc_x_7"
  top: "gate_input_7"
  eltwise_param {
    operation: SUM
  }
}
layer {
  name: "lstm1_unit_7"
  type: "LSTMUnit"
  bottom: "c_6"
  bottom: "gate_input_7"
  bottom: "cont_7"
  top: "c_7"
  top: "h_7"
}
layer {
  name: "lstm1_h_conted_7"
  type: "Scale"
  bottom: "h_7"
  bottom: "cont_8"
  top: "h_conted_7"
  scale_param {
    axis: 0
  }
}
layer {
  name: "lstm1_transform_8"
  type: "InnerProduct"
  bottom: "h_conted_7"
  top: "W_hc_h_7"
  param {
    name: "W_hc"
  }
  inner_product_param {
    num_output: 256
    bias_term: false
    weight_filler {
      type: "xavier"
    }
    axis: 2
  }
}
layer {
  name: "lstm1_gate_input_8"
  type: "Eltwise"
  bottom: "W_hc_h_7"
  bottom: "W_xc_x_8"
  top: "gate_input_8"
  eltwise_param {
    operation: SUM
  }
}
layer {
  name: "lstm1_unit_8"
  type: "LSTMUnit"
  bottom: "c_7"
  bottom: "gate_input_8"
  bottom: "cont_8"
  top: "c_8"
  top: "h_8"
}
layer {
  name: "lstm1_h_conted_8"
  type: "Scale"
  bottom: "h_8"
  bottom: "cont_9"
  top: "h_conted_8"
  scale_param {
    axis: 0
  }
}
layer {
  name: "lstm1_transform_9"
  type: "InnerProduct"
  bottom: "h_conted_8"
  top: "W_hc_h_8"
  param {
    name: "W_hc"
  }
  inner_product_param {
    num_output: 256
    bias_term: false
    weight_filler {
      type: "xavier"
    }
    axis: 2
  }
}
layer {
  name: "lstm1_gate_input_9"
  type: "Eltwise"
  bottom: "W_hc_h_8"
  bottom: "W_xc_x_9"
  top: "gate_input_9"
  eltwise_param {
    operation: SUM
  }
}
layer {
  name: "lstm1_unit_9"
  type: "LSTMUnit"
  bottom: "c_8"
  bottom: "gate_input_9"
  bottom: "cont_9"
  top: "c_9"
  top: "h_9"
}
layer {
  name: "lstm1_h_conted_9"
  type: "Scale"
  bottom: "h_9"
  bottom: "cont_10"
  top: "h_conted_9"
  scale_param {
    axis: 0
  }
}
layer {
  name: "lstm1_transform_10"
  type: "InnerProduct"
  bottom: "h_conted_9"
  top: "W_hc_h_9"
  param {
    name: "W_hc"
  }
  inner_product_param {
    num_output: 256
    bias_term: false
    weight_filler {
      type: "xavier"
    }
    axis: 2
  }
}
layer {
  name: "lstm1_gate_input_10"
  type: "Eltwise"
  bottom: "W_hc_h_9"
  bottom: "W_xc_x_10"
  top: "gate_input_10"
  eltwise_param {
    operation: SUM
  }
}
layer {
  name: "lstm1_unit_10"
  type: "LSTMUnit"
  bottom: "c_9"
  bottom: "gate_input_10"
  bottom: "cont_10"
  top: "c_10"
  top: "h_10"
}
layer {
  name: "lstm1_h_conted_10"
  type: "Scale"
  bottom: "h_10"
  bottom: "cont_11"
  top: "h_conted_10"
  scale_param {
    axis: 0
  }
}
layer {
  name: "lstm1_transform_11"
  type: "InnerProduct"
  bottom: "h_conted_10"
  top: "W_hc_h_10"
  param {
    name: "W_hc"
  }
  inner_product_param {
    num_output: 256
    bias_term: false
    weight_filler {
      type: "xavier"
    }
    axis: 2
  }
}
layer {
  name: "lstm1_gate_input_11"
  type: "Eltwise"
  bottom: "W_hc_h_10"
  bottom: "W_xc_x_11"
  top: "gate_input_11"
  eltwise_param {
    operation: SUM
  }
}
layer {
  name: "lstm1_unit_11"
  type: "LSTMUnit"
  bottom: "c_10"
  bottom: "gate_input_11"
  bottom: "cont_11"
  top: "c_11"
  top: "h_11"
}
layer {
  name: "lstm1_h_conted_11"
  type: "Scale"
  bottom: "h_11"
  bottom: "cont_12"
  top: "h_conted_11"
  scale_param {
    axis: 0
  }
}
layer {
  name: "lstm1_transform_12"
  type: "InnerProduct"
  bottom: "h_conted_11"
  top: "W_hc_h_11"
  param {
    name: "W_hc"
  }
  inner_product_param {
    num_output: 256
    bias_term: false
    weight_filler {
      type: "xavier"
    }
    axis: 2
  }
}
layer {
  name: "lstm1_gate_input_12"
  type: "Eltwise"
  bottom: "W_hc_h_11"
  bottom: "W_xc_x_12"
  top: "gate_input_12"
  eltwise_param {
    operation: SUM
  }
}
layer {
  name: "lstm1_unit_12"
  type: "LSTMUnit"
  bottom: "c_11"
  bottom: "gate_input_12"
  bottom: "cont_12"
  top: "c_12"
  top: "h_12"
}
layer {
  name: "lstm1_h_conted_12"
  type: "Scale"
  bottom: "h_12"
  bottom: "cont_13"
  top: "h_conted_12"
  scale_param {
    axis: 0
  }
}
layer {
  name: "lstm1_transform_13"
  type: "InnerProduct"
  bottom: "h_conted_12"
  top: "W_hc_h_12"
  param {
    name: "W_hc"
  }
  inner_product_param {
    num_output: 256
    bias_term: false
    weight_filler {
      type: "xavier"
    }
    axis: 2
  }
}
layer {
  name: "lstm1_gate_input_13"
  type: "Eltwise"
  bottom: "W_hc_h_12"
  bottom: "W_xc_x_13"
  top: "gate_input_13"
  eltwise_param {
    operation: SUM
  }
}
layer {
  name: "lstm1_unit_13"
  type: "LSTMUnit"
  bottom: "c_12"
  bottom: "gate_input_13"
  bottom: "cont_13"
  top: "c_13"
  top: "h_13"
}
layer {
  name: "lstm1_h_conted_13"
  type: "Scale"
  bottom: "h_13"
  bottom: "cont_14"
  top: "h_conted_13"
  scale_param {
    axis: 0
  }
}
layer {
  name: "lstm1_transform_14"
  type: "InnerProduct"
  bottom: "h_conted_13"
  top: "W_hc_h_13"
  param {
    name: "W_hc"
  }
  inner_product_param {
    num_output: 256
    bias_term: false
    weight_filler {
      type: "xavier"
    }
    axis: 2
  }
}
layer {
  name: "lstm1_gate_input_14"
  type: "Eltwise"
  bottom: "W_hc_h_13"
  bottom: "W_xc_x_14"
  top: "gate_input_14"
  eltwise_param {
    operation: SUM
  }
}
layer {
  name: "lstm1_unit_14"
  type: "LSTMUnit"
  bottom: "c_13"
  bottom: "gate_input_14"
  bottom: "cont_14"
  top: "c_14"
  top: "h_14"
}
layer {
  name: "lstm1_h_conted_14"
  type: "Scale"
  bottom: "h_14"
  bottom: "cont_15"
  top: "h_conted_14"
  scale_param {
    axis: 0
  }
}
layer {
  name: "lstm1_transform_15"
  type: "InnerProduct"
  bottom: "h_conted_14"
  top: "W_hc_h_14"
  param {
    name: "W_hc"
  }
  inner_product_param {
    num_output: 256
    bias_term: false
    weight_filler {
      type: "xavier"
    }
    axis: 2
  }
}
layer {
  name: "lstm1_gate_input_15"
  type: "Eltwise"
  bottom: "W_hc_h_14"
  bottom: "W_xc_x_15"
  top: "gate_input_15"
  eltwise_param {
    operation: SUM
  }
}
layer {
  name: "lstm1_unit_15"
  type: "LSTMUnit"
  bottom: "c_14"
  bottom: "gate_input_15"
  bottom: "cont_15"
  top: "c_15"
  top: "h_15"
}
layer {
  name: "lstm1_h_conted_15"
  type: "Scale"
  bottom: "h_15"
  bottom: "cont_16"
  top: "h_conted_15"
  scale_param {
    axis: 0
  }
}
layer {
  name: "lstm1_transform_16"
  type: "InnerProduct"
  bottom: "h_conted_15"
  top: "W_hc_h_15"
  param {
    name: "W_hc"
  }
  inner_product_param {
    num_output: 256
    bias_term: false
    weight_filler {
      type: "xavier"
    }
    axis: 2
  }
}
layer {
  name: "lstm1_gate_input_16"
  type: "Eltwise"
  bottom: "W_hc_h_15"
  bottom: "W_xc_x_16"
  top: "gate_input_16"
  eltwise_param {
    operation: SUM
  }
}
layer {
  name: "lstm1_unit_16"
  type: "LSTMUnit"
  bottom: "c_15"
  bottom: "gate_input_16"
  bottom: "cont_16"
  top: "c_16"
  top: "h_16"
}
layer {
  name: "lstm1_h_conted_16"
  type: "Scale"
  bottom: "h_16"
  bottom: "cont_17"
  top: "h_conted_16"
  scale_param {
    axis: 0
  }
}
layer {
  name: "lstm1_transform_17"
  type: "InnerProduct"
  bottom: "h_conted_16"
  top: "W_hc_h_16"
  param {
    name: "W_hc"
  }
  inner_product_param {
    num_output: 256
    bias_term: false
    weight_filler {
      type: "xavier"
    }
    axis: 2
  }
}
layer {
  name: "lstm1_gate_input_17"
  type: "Eltwise"
  bottom: "W_hc_h_16"
  bottom: "W_xc_x_17"
  top: "gate_input_17"
  eltwise_param {
    operation: SUM
  }
}
layer {
  name: "lstm1_unit_17"
  type: "LSTMUnit"
  bottom: "c_16"
  bottom: "gate_input_17"
  bottom: "cont_17"
  top: "c_17"
  top: "h_17"
}
layer {
  name: "lstm1_h_conted_17"
  type: "Scale"
  bottom: "h_17"
  bottom: "cont_18"
  top: "h_conted_17"
  scale_param {
    axis: 0
  }
}
layer {
  name: "lstm1_transform_18"
  type: "InnerProduct"
  bottom: "h_conted_17"
  top: "W_hc_h_17"
  param {
    name: "W_hc"
  }
  inner_product_param {
    num_output: 256
    bias_term: false
    weight_filler {
      type: "xavier"
    }
    axis: 2
  }
}
layer {
  name: "lstm1_gate_input_18"
  type: "Eltwise"
  bottom: "W_hc_h_17"
  bottom: "W_xc_x_18"
  top: "gate_input_18"
  eltwise_param {
    operation: SUM
  }
}
layer {
  name: "lstm1_unit_18"
  type: "LSTMUnit"
  bottom: "c_17"
  bottom: "gate_input_18"
  bottom: "cont_18"
  top: "c_18"
  top: "h_18"
}
layer {
  name: "lstm1_h_conted_18"
  type: "Scale"
  bottom: "h_18"
  bottom: "cont_19"
  top: "h_conted_18"
  scale_param {
    axis: 0
  }
}
layer {
  name: "lstm1_transform_19"
  type: "InnerProduct"
  bottom: "h_conted_18"
  top: "W_hc_h_18"
  param {
    name: "W_hc"
  }
  inner_product_param {
    num_output: 256
    bias_term: false
    weight_filler {
      type: "xavier"
    }
    axis: 2
  }
}
layer {
  name: "lstm1_gate_input_19"
  type: "Eltwise"
  bottom: "W_hc_h_18"
  bottom: "W_xc_x_19"
  top: "gate_input_19"
  eltwise_param {
    operation: SUM
  }
}
layer {
  name: "lstm1_unit_19"
  type: "LSTMUnit"
  bottom: "c_18"
  bottom: "gate_input_19"
  bottom: "cont_19"
  top: "c_19"
  top: "h_19"
}
layer {
  name: "lstm1_h_conted_19"
  type: "Scale"
  bottom: "h_19"
  bottom: "cont_20"
  top: "h_conted_19"
  scale_param {
    axis: 0
  }
}
layer {
  name: "lstm1_transform_20"
  type: "InnerProduct"
  bottom: "h_conted_19"
  top: "W_hc_h_19"
  param {
    name: "W_hc"
  }
  inner_product_param {
    num_output: 256
    bias_term: false
    weight_filler {
      type: "xavier"
    }
    axis: 2
  }
}
layer {
  name: "lstm1_gate_input_20"
  type: "Eltwise"
  bottom: "W_hc_h_19"
  bottom: "W_xc_x_20"
  top: "gate_input_20"
  eltwise_param {
    operation: SUM
  }
}
layer {
  name: "lstm1_unit_20"
  type: "LSTMUnit"
  bottom: "c_19"
  bottom: "gate_input_20"
  bottom: "cont_20"
  top: "c_20"
  top: "h_20"
}
layer {
  name: "lstm1_h_conted_20"
  type: "Scale"
  bottom: "h_20"
  bottom: "cont_21"
  top: "h_conted_20"
  scale_param {
    axis: 0
  }
}
layer {
  name: "lstm1_transform_21"
  type: "InnerProduct"
  bottom: "h_conted_20"
  top: "W_hc_h_20"
  param {
    name: "W_hc"
  }
  inner_product_param {
    num_output: 256
    bias_term: false
    weight_filler {
      type: "xavier"
    }
    axis: 2
  }
}
layer {
  name: "lstm1_gate_input_21"
  type: "Eltwise"
  bottom: "W_hc_h_20"
  bottom: "W_xc_x_21"
  top: "gate_input_21"
  eltwise_param {
    operation: SUM
  }
}
layer {
  name: "lstm1_unit_21"
  type: "LSTMUnit"
  bottom: "c_20"
  bottom: "gate_input_21"
  bottom: "cont_21"
  top: "c_21"
  top: "h_21"
}
layer {
  name: "lstm1_h_conted_21"
  type: "Scale"
  bottom: "h_21"
  bottom: "cont_22"
  top: "h_conted_21"
  scale_param {
    axis: 0
  }
}
layer {
  name: "lstm1_transform_22"
  type: "InnerProduct"
  bottom: "h_conted_21"
  top: "W_hc_h_21"
  param {
    name: "W_hc"
  }
  inner_product_param {
    num_output: 256
    bias_term: false
    weight_filler {
      type: "xavier"
    }
    axis: 2
  }
}
layer {
  name: "lstm1_gate_input_22"
  type: "Eltwise"
  bottom: "W_hc_h_21"
  bottom: "W_xc_x_22"
  top: "gate_input_22"
  eltwise_param {
    operation: SUM
  }
}
layer {
  name: "lstm1_unit_22"
  type: "LSTMUnit"
  bottom: "c_21"
  bottom: "gate_input_22"
  bottom: "cont_22"
  top: "c_22"
  top: "h_22"
}
layer {
  name: "lstm1_h_conted_22"
  type: "Scale"
  bottom: "h_22"
  bottom: "cont_23"
  top: "h_conted_22"
  scale_param {
    axis: 0
  }
}
layer {
  name: "lstm1_transform_23"
  type: "InnerProduct"
  bottom: "h_conted_22"
  top: "W_hc_h_22"
  param {
    name: "W_hc"
  }
  inner_product_param {
    num_output: 256
    bias_term: false
    weight_filler {
      type: "xavier"
    }
    axis: 2
  }
}
layer {
  name: "lstm1_gate_input_23"
  type: "Eltwise"
  bottom: "W_hc_h_22"
  bottom: "W_xc_x_23"
  top: "gate_input_23"
  eltwise_param {
    operation: SUM
  }
}
layer {
  name: "lstm1_unit_23"
  type: "LSTMUnit"
  bottom: "c_22"
  bottom: "gate_input_23"
  bottom: "cont_23"
  top: "c_23"
  top: "h_23"
}
layer {
  name: "lstm1_h_conted_23"
  type: "Scale"
  bottom: "h_23"
  bottom: "cont_24"
  top: "h_conted_23"
  scale_param {
    axis: 0
  }
}
layer {
  name: "lstm1_transform_24"
  type: "InnerProduct"
  bottom: "h_conted_23"
  top: "W_hc_h_23"
  param {
    name: "W_hc"
  }
  inner_product_param {
    num_output: 256
    bias_term: false
    weight_filler {
      type: "xavier"
    }
    axis: 2
  }
}
layer {
  name: "lstm1_gate_input_24"
  type: "Eltwise"
  bottom: "W_hc_h_23"
  bottom: "W_xc_x_24"
  top: "gate_input_24"
  eltwise_param {
    operation: SUM
  }
}
layer {
  name: "lstm1_unit_24"
  type: "LSTMUnit"
  bottom: "c_23"
  bottom: "gate_input_24"
  bottom: "cont_24"
  top: "c_24"
  top: "h_24"
}
layer {
  name: "lstm1_"
  type: "Split"
  bottom: "c_24"
  top: "c_T"
}
layer {
  name: "lstm1_h_concat"
  type: "Concat"
  bottom: "h_1"
  bottom: "h_2"
  bottom: "h_3"
  bottom: "h_4"
  bottom: "h_5"
  bottom: "h_6"
  bottom: "h_7"
  bottom: "h_8"
  bottom: "h_9"
  bottom: "h_10"
  bottom: "h_11"
  bottom: "h_12"
  bottom: "h_13"
  bottom: "h_14"
  bottom: "h_15"
  bottom: "h_16"
  bottom: "h_17"
  bottom: "h_18"
  bottom: "h_19"
  bottom: "h_20"
  bottom: "h_21"
  bottom: "h_22"
  bottom: "h_23"
  bottom: "h_24"
  top: "h"
  concat_param {
    axis: 0
  }
}
layer {
  name: "h_pseudoloss"
  type: "Reduction"
  bottom: "h"
  top: "h_pseudoloss"
  loss_weight: 1
}
I0222 17:41:27.141311 25144 layer_factory.hpp:77] Creating layer lstm1_
I0222 17:41:27.141322 25144 net.cpp:84] Creating Layer lstm1_
I0222 17:41:27.141330 25144 net.cpp:380] lstm1_ -> x
I0222 17:41:27.141338 25144 net.cpp:380] lstm1_ -> cont
I0222 17:41:27.141386 25144 net.cpp:122] Setting up lstm1_
I0222 17:41:27.141393 25144 net.cpp:129] Top shape: 24 26 1 1 (624)
I0222 17:41:27.141398 25144 net.cpp:129] Top shape: 24 26 (624)
I0222 17:41:27.141402 25144 net.cpp:137] Memory required for data: 4992
I0222 17:41:27.141407 25144 layer_factory.hpp:77] Creating layer lstm1_
I0222 17:41:27.141419 25144 net.cpp:84] Creating Layer lstm1_
I0222 17:41:27.141424 25144 net.cpp:380] lstm1_ -> c_0
I0222 17:41:27.141432 25144 net.cpp:380] lstm1_ -> h_0
I0222 17:41:27.141453 25144 net.cpp:122] Setting up lstm1_
I0222 17:41:27.141458 25144 net.cpp:129] Top shape: 1 26 64 (1664)
I0222 17:41:27.141463 25144 net.cpp:129] Top shape: 1 26 64 (1664)
I0222 17:41:27.141466 25144 net.cpp:137] Memory required for data: 18304
I0222 17:41:27.141470 25144 layer_factory.hpp:77] Creating layer lstm1_cont_slice
I0222 17:41:27.141480 25144 net.cpp:84] Creating Layer lstm1_cont_slice
I0222 17:41:27.141484 25144 net.cpp:406] lstm1_cont_slice <- cont
I0222 17:41:27.141490 25144 net.cpp:380] lstm1_cont_slice -> cont_1
I0222 17:41:27.141499 25144 net.cpp:380] lstm1_cont_slice -> cont_2
…
I0222 17:41:27.141593 25144 net.cpp:380] lstm1_cont_slice -> cont_17
I0222 17:41:27.141599 25144 net.cpp:380] lstm1_cont_slice -> cont_18
I0222 17:41:27.141605 25144 net.cpp:380] lstm1_cont_slice -> cont_19
I0222 17:41:27.141613 25144 net.cpp:380] lstm1_cont_slice -> cont_20
I0222 17:41:27.141618 25144 net.cpp:380] lstm1_cont_slice -> cont_21
I0222 17:41:27.141624 25144 net.cpp:380] lstm1_cont_slice -> cont_22
I0222 17:41:27.141630 25144 net.cpp:380] lstm1_cont_slice -> cont_23
I0222 17:41:27.141638 25144 net.cpp:380] lstm1_cont_slice -> cont_24
I0222 17:41:27.141794 25144 net.cpp:122] Setting up lstm1_cont_slice
I0222 17:41:27.141803 25144 net.cpp:129] Top shape: 1 26 (26)
I0222 17:41:27.141806 25144 net.cpp:129] Top shape: 1 26 (26)
I0222 17:41:27.141811 25144 net.cpp:129] Top shape: 1 26 (26)
I0222 17:41:27.141816 25144 net.cpp:129] Top shape: 1 26 (26)
I0222 17:41:27.141822 25144 net.cpp:129] Top shape: 1 26 (26)
I0222 17:41:27.141827 25144 net.cpp:129] Top shape: 1 26 (26)
I0222 17:41:27.141834 25144 net.cpp:129] Top shape: 1 26 (26)
I0222 17:41:27.141839 25144 net.cpp:129] Top shape: 1 26 (26)
I0222 17:41:27.141846 25144 net.cpp:129] Top shape: 1 26 (26)
I0222 17:41:27.141851 25144 net.cpp:129] Top shape: 1 26 (26)
I0222 17:41:27.141856 25144 net.cpp:129] Top shape: 1 26 (26)
I0222 17:41:27.141862 25144 net.cpp:129] Top shape: 1 26 (26)
I0222 17:41:27.141867 25144 net.cpp:129] Top shape: 1 26 (26)
I0222 17:41:27.141872 25144 net.cpp:129] Top shape: 1 26 (26)
I0222 17:41:27.141877 25144 net.cpp:129] Top shape: 1 26 (26)
I0222 17:41:27.141882 25144 net.cpp:129] Top shape: 1 26 (26)
I0222 17:41:27.141887 25144 net.cpp:129] Top shape: 1 26 (26)
I0222 17:41:27.141891 25144 net.cpp:129] Top shape: 1 26 (26)
I0222 17:41:27.141896 25144 net.cpp:129] Top shape: 1 26 (26)
I0222 17:41:27.141899 25144 net.cpp:129] Top shape: 1 26 (26)
I0222 17:41:27.141903 25144 net.cpp:129] Top shape: 1 26 (26)
I0222 17:41:27.141907 25144 net.cpp:129] Top shape: 1 26 (26)
I0222 17:41:27.141911 25144 net.cpp:129] Top shape: 1 26 (26)
I0222 17:41:27.141916 25144 net.cpp:129] Top shape: 1 26 (26)
I0222 17:41:27.141919 25144 net.cpp:137] Memory required for data: 20800
I0222 17:41:27.141923 25144 layer_factory.hpp:77] Creating layer cont_1_lstm1_cont_slice_0_split
I0222 17:41:27.141938 25144 net.cpp:84] Creating Layer cont_1_lstm1_cont_slice_0_split
I0222 17:41:27.141943 25144 net.cpp:406] cont_1_lstm1_cont_slice_0_split <- cont_1
I0222 17:41:27.141949 25144 net.cpp:380] cont_1_lstm1_cont_slice_0_split -> cont_1_lstm1_cont_slice_0_split_0
I0222 17:41:27.141955 25144 net.cpp:380] cont_1_lstm1_cont_slice_0_split -> cont_1_lstm1_cont_slice_0_split_1
I0222 17:41:27.141978 25144 net.cpp:122] Setting up cont_1_lstm1_cont_slice_0_split
I0222 17:41:27.141984 25144 net.cpp:129] Top shape: 1 26 (26)
I0222 17:41:27.163691 25144 net.cpp:129] Top shape: 1 26 (26)
I0222 17:41:27.163697 25144 net.cpp:137] Memory required for data: 21008
I0222 17:41:27.163702 25144 layer_factory.hpp:77] Creating layer cont_2_lstm1_cont_slice_1_split
I0222 17:41:27.163710 25144 net.cpp:84] Creating Layer cont_2_lstm1_cont_slice_1_split
I0222 17:41:27.163714 25144 net.cpp:406] cont_2_lstm1_cont_slice_1_split <- cont_2
I0222 17:41:27.163738 25144 net.cpp:380] cont_2_lstm1_cont_slice_1_split -> cont_2_lstm1_cont_slice_1_split_0
I0222 17:41:27.163744 25144 net.cpp:380] cont_2_lstm1_cont_slice_1_split -> cont_2_lstm1_cont_slice_1_split_1
I0222 17:41:27.163770 25144 net.cpp:122] Setting up cont_2_lstm1_cont_slice_1_split
I0222 17:41:27.163790 25144 net.cpp:129] Top shape: 1 26 (26)
I0222 17:41:27.163794 25144 net.cpp:129] Top shape: 1 26 (26)
I0222 17:41:27.163796 25144 net.cpp:137] Memory required for data: 21216
I0222 17:41:27.163800 25144 layer_factory.hpp:77] Creating layer cont_3_lstm1_cont_slice_2_split
I0222 17:41:27.163803 25144 net.cpp:84] Creating Layer cont_3_lstm1_cont_slice_2_split
I0222 17:41:27.163806 25144 net.cpp:406] cont_3_lstm1_cont_slice_2_split <- cont_3
I0222 17:41:27.163810 25144 net.cpp:380] cont_3_lstm1_cont_slice_2_split -> cont_3_lstm1_cont_slice_2_split_0
I0222 17:41:27.163818 25144 net.cpp:380] cont_3_lstm1_cont_slice_2_split -> cont_3_lstm1_cont_slice_2_split_1
I0222 17:41:27.163837 25144 net.cpp:122] Setting up cont_3_lstm1_cont_slice_2_split
I0222 17:41:27.163842 25144 net.cpp:129] Top shape: 1 26 (26)
I0222 17:41:27.163846 25144 net.cpp:129] Top shape: 1 26 (26)
I0222 17:41:27.163848 25144 net.cpp:137] Memory required for data: 21424
I0222 17:41:27.163851 25144 layer_factory.hpp:77] Creating layer cont_4_lstm1_cont_slice_3_split
I0222 17:41:27.163858 25144 net.cpp:84] Creating Layer cont_4_lstm1_cont_slice_3_split
I0222 17:41:27.163862 25144 net.cpp:406] cont_4_lstm1_cont_slice_3_split <- cont_4
I0222 17:41:27.163866 25144 net.cpp:380] cont_4_lstm1_cont_slice_3_split -> cont_4_lstm1_cont_slice_3_split_0
I0222 17:41:27.163872 25144 net.cpp:380] cont_4_lstm1_cont_slice_3_split -> cont_4_lstm1_cont_slice_3_split_1
I0222 17:41:27.163889 25144 net.cpp:122] Setting up cont_4_lstm1_cont_slice_3_split
I0222 17:41:27.163893 25144 net.cpp:129] Top shape: 1 26 (26)
I0222 17:41:27.163897 25144 net.cpp:129] Top shape: 1 26 (26)
I0222 17:41:27.163899 25144 net.cpp:137] Memory required for data: 21632
I0222 17:41:27.163902 25144 layer_factory.hpp:77] Creating layer cont_5_lstm1_cont_slice_4_split
I0222 17:41:27.163908 25144 net.cpp:84] Creating Layer cont_5_lstm1_cont_slice_4_split
I0222 17:41:27.163910 25144 net.cpp:406] cont_5_lstm1_cont_slice_4_split <- cont_5
I0222 17:41:27.163914 25144 net.cpp:380] cont_5_lstm1_cont_slice_4_split -> cont_5_lstm1_cont_slice_4_split_0
I0222 17:41:27.163918 25144 net.cpp:380] cont_5_lstm1_cont_slice_4_split -> cont_5_lstm1_cont_slice_4_split_1
I0222 17:41:27.163935 25144 net.cpp:122] Setting up cont_5_lstm1_cont_slice_4_split
I0222 17:41:27.163939 25144 net.cpp:129] Top shape: 1 26 (26)
I0222 17:41:27.163944 25144 net.cpp:129] Top shape: 1 26 (26)
I0222 17:41:27.163945 25144 net.cpp:137] Memory required for data: 21840
I0222 17:41:27.163949 25144 layer_factory.hpp:77] Creating layer cont_6_lstm1_cont_slice_5_split
I0222 17:41:27.163954 25144 net.cpp:84] Creating Layer cont_6_lstm1_cont_slice_5_split
I0222 17:41:27.163956 25144 net.cpp:406] cont_6_lstm1_cont_slice_5_split <- cont_6
I0222 17:41:27.163961 25144 net.cpp:380] cont_6_lstm1_cont_slice_5_split -> cont_6_lstm1_cont_slice_5_split_0
I0222 17:41:27.163974 25144 net.cpp:380] cont_6_lstm1_cont_slice_5_split -> cont_6_lstm1_cont_slice_5_split_1
I0222 17:41:27.163990 25144 net.cpp:122] Setting up cont_6_lstm1_cont_slice_5_split
I0222 17:41:27.163995 25144 net.cpp:129] Top shape: 1 26 (26)
I0222 17:41:27.163998 25144 net.cpp:129] Top shape: 1 26 (26)
I0222 17:41:27.164001 25144 net.cpp:137] Memory required for data: 22048
I0222 17:41:27.164003 25144 layer_factory.hpp:77] Creating layer cont_7_lstm1_cont_slice_6_split
I0222 17:41:27.164008 25144 net.cpp:84] Creating Layer cont_7_lstm1_cont_slice_6_split
I0222 17:41:27.164012 25144 net.cpp:406] cont_7_lstm1_cont_slice_6_split <- cont_7
I0222 17:41:27.164016 25144 net.cpp:380] cont_7_lstm1_cont_slice_6_split -> cont_7_lstm1_cont_slice_6_split_0
I0222 17:41:27.164021 25144 net.cpp:380] cont_7_lstm1_cont_slice_6_split -> cont_7_lstm1_cont_slice_6_split_1
I0222 17:41:27.164036 25144 net.cpp:122] Setting up cont_7_lstm1_cont_slice_6_split
I0222 17:41:27.164041 25144 net.cpp:129] Top shape: 1 26 (26)
I0222 17:41:27.164043 25144 net.cpp:129] Top shape: 1 26 (26)
I0222 17:41:27.164047 25144 net.cpp:137] Memory required for data: 22256
I0222 17:41:27.164049 25144 layer_factory.hpp:77] Creating layer cont_8_lstm1_cont_slice_7_split
I0222 17:41:27.164053 25144 net.cpp:84] Creating Layer cont_8_lstm1_cont_slice_7_split
I0222 17:41:27.164057 25144 net.cpp:406] cont_8_lstm1_cont_slice_7_split <- cont_8
I0222 17:41:27.164059 25144 net.cpp:380] cont_8_lstm1_cont_slice_7_split -> cont_8_lstm1_cont_slice_7_split_0
I0222 17:41:27.164064 25144 net.cpp:380] cont_8_lstm1_cont_slice_7_split -> cont_8_lstm1_cont_slice_7_split_1
I0222 17:41:27.164080 25144 net.cpp:122] Setting up cont_8_lstm1_cont_slice_7_split
I0222 17:41:27.164084 25144 net.cpp:129] Top shape: 1 26 (26)
I0222 17:41:27.164088 25144 net.cpp:129] Top shape: 1 26 (26)
I0222 17:41:27.164090 25144 net.cpp:137] Memory required for data: 22464
I0222 17:41:27.164093 25144 layer_factory.hpp:77] Creating layer cont_9_lstm1_cont_slice_8_split
I0222 17:41:27.164096 25144 net.cpp:84] Creating Layer cont_9_lstm1_cont_slice_8_split
I0222 17:41:27.164100 25144 net.cpp:406] cont_9_lstm1_cont_slice_8_split <- cont_9
I0222 17:41:27.164103 25144 net.cpp:380] cont_9_lstm1_cont_slice_8_split -> cont_9_lstm1_cont_slice_8_split_0
I0222 17:41:27.164108 25144 net.cpp:380] cont_9_lstm1_cont_slice_8_split -> cont_9_lstm1_cont_slice_8_split_1
I0222 17:41:27.164124 25144 net.cpp:122] Setting up cont_9_lstm1_cont_slice_8_split
I0222 17:41:27.164129 25144 net.cpp:129] Top shape: 1 26 (26)
I0222 17:41:27.164131 25144 net.cpp:129] Top shape: 1 26 (26)
I0222 17:41:27.164134 25144 net.cpp:137] Memory required for data: 22672
I0222 17:41:27.164137 25144 layer_factory.hpp:77] Creating layer cont_10_lstm1_cont_slice_9_split
I0222 17:41:27.164141 25144 net.cpp:84] Creating Layer cont_10_lstm1_cont_slice_9_split
I0222 17:41:27.164145 25144 net.cpp:406] cont_10_lstm1_cont_slice_9_split <- cont_10
I0222 17:41:27.164149 25144 net.cpp:380] cont_10_lstm1_cont_slice_9_split -> cont_10_lstm1_cont_slice_9_split_0
I0222 17:41:27.164153 25144 net.cpp:380] cont_10_lstm1_cont_slice_9_split -> cont_10_lstm1_cont_slice_9_split_1
I0222 17:41:27.164171 25144 net.cpp:122] Setting up cont_10_lstm1_cont_slice_9_split
I0222 17:41:27.164175 25144 net.cpp:129] Top shape: 1 26 (26)
I0222 17:41:27.164178 25144 net.cpp:129] Top shape: 1 26 (26)
I0222 17:41:27.164181 25144 net.cpp:137] Memory required for data: 22880
I0222 17:41:27.164185 25144 layer_factory.hpp:77] Creating layer cont_11_lstm1_cont_slice_10_split
I0222 17:41:27.164188 25144 net.cpp:84] Creating Layer cont_11_lstm1_cont_slice_10_split
I0222 17:41:27.164191 25144 net.cpp:406] cont_11_lstm1_cont_slice_10_split <- cont_11
I0222 17:41:27.164196 25144 net.cpp:380] cont_11_lstm1_cont_slice_10_split -> cont_11_lstm1_cont_slice_10_split_0
I0222 17:41:27.167531 25144 net.cpp:380] cont_11_lstm1_cont_slice_10_split -> cont_11_lstm1_cont_slice_10_split_1
I0222 17:41:27.167562 25144 net.cpp:122] Setting up cont_11_lstm1_cont_slice_10_split
I0222 17:41:27.167582 25144 net.cpp:129] Top shape: 1 26 (26)
I0222 17:41:27.167608 25144 net.cpp:129] Top shape: 1 26 (26)
I0222 17:41:27.167610 25144 net.cpp:137] Memory required for data: 23088
I0222 17:41:27.167613 25144 layer_factory.hpp:77] Creating layer cont_12_lstm1_cont_slice_11_split
I0222 17:41:27.167618 25144 net.cpp:84] Creating Layer cont_12_lstm1_cont_slice_11_split
I0222 17:41:27.167620 25144 net.cpp:406] cont_12_lstm1_cont_slice_11_split <- cont_12
I0222 17:41:27.167625 25144 net.cpp:380] cont_12_lstm1_cont_slice_11_split -> cont_12_lstm1_cont_slice_11_split_0
I0222 17:41:27.167629 25144 net.cpp:380] cont_12_lstm1_cont_slice_11_split -> cont_12_lstm1_cont_slice_11_split_1
I0222 17:41:27.167649 25144 net.cpp:122] Setting up cont_12_lstm1_cont_slice_11_split
I0222 17:41:27.167654 25144 net.cpp:129] Top shape: 1 26 (26)
I0222 17:41:27.167657 25144 net.cpp:129] Top shape: 1 26 (26)
I0222 17:41:27.167660 25144 net.cpp:137] Memory required for data: 23296
I0222 17:41:27.167663 25144 layer_factory.hpp:77] Creating layer cont_13_lstm1_cont_slice_12_split
I0222 17:41:27.167666 25144 net.cpp:84] Creating Layer cont_13_lstm1_cont_slice_12_split
I0222 17:41:27.167670 25144 net.cpp:406] cont_13_lstm1_cont_slice_12_split <- cont_13
I0222 17:41:27.167675 25144 net.cpp:380] cont_13_lstm1_cont_slice_12_split -> cont_13_lstm1_cont_slice_12_split_0
I0222 17:41:27.167680 25144 net.cpp:380] cont_13_lstm1_cont_slice_12_split -> cont_13_lstm1_cont_slice_12_split_1
I0222 17:41:27.167695 25144 net.cpp:122] Setting up cont_13_lstm1_cont_slice_12_split
I0222 17:41:27.167699 25144 net.cpp:129] Top shape: 1 26 (26)
I0222 17:41:27.167703 25144 net.cpp:129] Top shape: 1 26 (26)
I0222 17:41:27.167706 25144 net.cpp:137] Memory required for data: 23504
I0222 17:41:27.167708 25144 layer_factory.hpp:77] Creating layer cont_14_lstm1_cont_slice_13_split
I0222 17:41:27.167716 25144 net.cpp:84] Creating Layer cont_14_lstm1_cont_slice_13_split
I0222 17:41:27.167718 25144 net.cpp:406] cont_14_lstm1_cont_slice_13_split <- cont_14
I0222 17:41:27.167722 25144 net.cpp:380] cont_14_lstm1_cont_slice_13_split -> cont_14_lstm1_cont_slice_13_split_0
I0222 17:41:27.167726 25144 net.cpp:380] cont_14_lstm1_cont_slice_13_split -> cont_14_lstm1_cont_slice_13_split_1
I0222 17:41:27.167743 25144 net.cpp:122] Setting up cont_14_lstm1_cont_slice_13_split
I0222 17:41:27.167749 25144 net.cpp:129] Top shape: 1 26 (26)
I0222 17:41:27.167754 25144 net.cpp:129] Top shape: 1 26 (26)
I0222 17:41:27.167759 25144 net.cpp:137] Memory required for data: 23712
I0222 17:41:27.167764 25144 layer_factory.hpp:77] Creating layer cont_15_lstm1_cont_slice_14_split
I0222 17:41:27.167768 25144 net.cpp:84] Creating Layer cont_15_lstm1_cont_slice_14_split
I0222 17:41:27.167773 25144 net.cpp:406] cont_15_lstm1_cont_slice_14_split <- cont_15
I0222 17:41:27.167776 25144 net.cpp:380] cont_15_lstm1_cont_slice_14_split -> cont_15_lstm1_cont_slice_14_split_0
I0222 17:41:27.167780 25144 net.cpp:380] cont_15_lstm1_cont_slice_14_split -> cont_15_lstm1_cont_slice_14_split_1
I0222 17:41:27.167798 25144 net.cpp:122] Setting up cont_15_lstm1_cont_slice_14_split
I0222 17:41:27.167804 25144 net.cpp:129] Top shape: 1 26 (26)
I0222 17:41:27.167806 25144 net.cpp:129] Top shape: 1 26 (26)
I0222 17:41:27.167809 25144 net.cpp:137] Memory required for data: 23920
I0222 17:41:27.167812 25144 layer_factory.hpp:77] Creating layer cont_16_lstm1_cont_slice_15_split
I0222 17:41:27.167816 25144 net.cpp:84] Creating Layer cont_16_lstm1_cont_slice_15_split
I0222 17:41:27.167820 25144 net.cpp:406] cont_16_lstm1_cont_slice_15_split <- cont_16
I0222 17:41:27.167826 25144 net.cpp:380] cont_16_lstm1_cont_slice_15_split -> cont_16_lstm1_cont_slice_15_split_0
I0222 17:41:27.167831 25144 net.cpp:380] cont_16_lstm1_cont_slice_15_split -> cont_16_lstm1_cont_slice_15_split_1
I0222 17:41:27.167847 25144 net.cpp:122] Setting up cont_16_lstm1_cont_slice_15_split
I0222 17:41:27.167853 25144 net.cpp:129] Top shape: 1 26 (26)
I0222 17:41:27.167856 25144 net.cpp:129] Top shape: 1 26 (26)
I0222 17:41:27.167860 25144 net.cpp:137] Memory required for data: 24128
I0222 17:41:27.167870 25144 layer_factory.hpp:77] Creating layer cont_17_lstm1_cont_slice_16_split
I0222 17:41:27.167873 25144 net.cpp:84] Creating Layer cont_17_lstm1_cont_slice_16_split
I0222 17:41:27.167876 25144 net.cpp:406] cont_17_lstm1_cont_slice_16_split <- cont_17
I0222 17:41:27.167881 25144 net.cpp:380] cont_17_lstm1_cont_slice_16_split -> cont_17_lstm1_cont_slice_16_split_0
I0222 17:41:27.167886 25144 net.cpp:380] cont_17_lstm1_cont_slice_16_split -> cont_17_lstm1_cont_slice_16_split_1
I0222 17:41:27.167902 25144 net.cpp:122] Setting up cont_17_lstm1_cont_slice_16_split
I0222 17:41:27.167906 25144 net.cpp:129] Top shape: 1 26 (26)
I0222 17:41:27.167909 25144 net.cpp:129] Top shape: 1 26 (26)
I0222 17:41:27.167912 25144 net.cpp:137] Memory required for data: 24336
I0222 17:41:27.167915 25144 layer_factory.hpp:77] Creating layer cont_18_lstm1_cont_slice_17_split
I0222 17:41:27.167919 25144 net.cpp:84] Creating Layer cont_18_lstm1_cont_slice_17_split
I0222 17:41:27.167922 25144 net.cpp:406] cont_18_lstm1_cont_slice_17_split <- cont_18
I0222 17:41:27.167927 25144 net.cpp:380] cont_18_lstm1_cont_slice_17_split -> cont_18_lstm1_cont_slice_17_split_0
I0222 17:41:27.167930 25144 net.cpp:380] cont_18_lstm1_cont_slice_17_split -> cont_18_lstm1_cont_slice_17_split_1
I0222 17:41:27.167946 25144 net.cpp:122] Setting up cont_18_lstm1_cont_slice_17_split
I0222 17:41:27.167950 25144 net.cpp:129] Top shape: 1 26 (26)
I0222 17:41:27.167954 25144 net.cpp:129] Top shape: 1 26 (26)
I0222 17:41:27.167956 25144 net.cpp:137] Memory required for data: 24544
I0222 17:41:27.167959 25144 layer_factory.hpp:77] Creating layer cont_19_lstm1_cont_slice_18_split
I0222 17:41:27.167963 25144 net.cpp:84] Creating Layer cont_19_lstm1_cont_slice_18_split
I0222 17:41:27.167966 25144 net.cpp:406] cont_19_lstm1_cont_slice_18_split <- cont_19
I0222 17:41:27.167971 25144 net.cpp:380] cont_19_lstm1_cont_slice_18_split -> cont_19_lstm1_cont_slice_18_split_0
I0222 17:41:27.167979 25144 net.cpp:380] cont_19_lstm1_cont_slice_18_split -> cont_19_lstm1_cont_slice_18_split_1
I0222 17:41:27.167996 25144 net.cpp:122] Setting up cont_19_lstm1_cont_slice_18_split
I0222 17:41:27.168000 25144 net.cpp:129] Top shape: 1 26 (26)
I0222 17:41:27.168004 25144 net.cpp:129] Top shape: 1 26 (26)
I0222 17:41:27.168007 25144 net.cpp:137] Memory required for data: 24752
I0222 17:41:27.168010 25144 layer_factory.hpp:77] Creating layer cont_20_lstm1_cont_slice_19_split
I0222 17:41:27.168015 25144 net.cpp:84] Creating Layer cont_20_lstm1_cont_slice_19_split
I0222 17:41:27.168017 25144 net.cpp:406] cont_20_lstm1_cont_slice_19_split <- cont_20
I0222 17:41:27.168021 25144 net.cpp:380] cont_20_lstm1_cont_slice_19_split -> cont_20_lstm1_cont_slice_19_split_0
I0222 17:41:27.168025 25144 net.cpp:380] cont_20_lstm1_cont_slice_19_split -> cont_20_lstm1_cont_slice_19_split_1
I0222 17:41:27.168041 25144 net.cpp:122] Setting up cont_20_lstm1_cont_slice_19_split
I0222 17:41:27.168045 25144 net.cpp:129] Top shape: 1 26 (26)
I0222 17:41:27.168049 25144 net.cpp:129] Top shape: 1 26 (26)
I0222 17:41:27.168052 25144 net.cpp:137] Memory required for data: 24960
I0222 17:41:27.194669 25144 layer_factory.hpp:77] Creating layer cont_21_lstm1_cont_slice_20_split
I0222 17:41:27.194681 25144 net.cpp:84] Creating Layer cont_21_lstm1_cont_slice_20_split
I0222 17:41:27.194686 25144 net.cpp:406] cont_21_lstm1_cont_slice_20_split <- cont_21
I0222 17:41:27.194695 25144 net.cpp:380] cont_21_lstm1_cont_slice_20_split -> cont_21_lstm1_cont_slice_20_split_0
I0222 17:41:27.194703 25144 net.cpp:380] cont_21_lstm1_cont_slice_20_split -> cont_21_lstm1_cont_slice_20_split_1
I0222 17:41:27.194736 25144 net.cpp:122] Setting up cont_21_lstm1_cont_slice_20_split
I0222 17:41:27.194742 25144 net.cpp:129] Top shape: 1 26 (26)
I0222 17:41:27.194746 25144 net.cpp:129] Top shape: 1 26 (26)
I0222 17:41:27.194751 25144 net.cpp:137] Memory required for data: 25168
I0222 17:41:27.194754 25144 layer_factory.hpp:77] Creating layer cont_22_lstm1_cont_slice_21_split
I0222 17:41:27.194761 25144 net.cpp:84] Creating Layer cont_22_lstm1_cont_slice_21_split
I0222 17:41:27.194773 25144 net.cpp:406] cont_22_lstm1_cont_slice_21_split <- cont_22
I0222 17:41:27.194778 25144 net.cpp:380] cont_22_lstm1_cont_slice_21_split -> cont_22_lstm1_cont_slice_21_split_0
I0222 17:41:27.194784 25144 net.cpp:380] cont_22_lstm1_cont_slice_21_split -> cont_22_lstm1_cont_slice_21_split_1
I0222 17:41:27.194804 25144 net.cpp:122] Setting up cont_22_lstm1_cont_slice_21_split
I0222 17:41:27.194810 25144 net.cpp:129] Top shape: 1 26 (26)
I0222 17:41:27.194814 25144 net.cpp:129] Top shape: 1 26 (26)
I0222 17:41:27.194818 25144 net.cpp:137] Memory required for data: 25376
I0222 17:41:27.194821 25144 layer_factory.hpp:77] Creating layer cont_23_lstm1_cont_slice_22_split
I0222 17:41:27.194826 25144 net.cpp:84] Creating Layer cont_23_lstm1_cont_slice_22_split
I0222 17:41:27.194830 25144 net.cpp:406] cont_23_lstm1_cont_slice_22_split <- cont_23
I0222 17:41:27.194834 25144 net.cpp:380] cont_23_lstm1_cont_slice_22_split -> cont_23_lstm1_cont_slice_22_split_0
I0222 17:41:27.194840 25144 net.cpp:380] cont_23_lstm1_cont_slice_22_split -> cont_23_lstm1_cont_slice_22_split_1
I0222 17:41:27.194859 25144 net.cpp:122] Setting up cont_23_lstm1_cont_slice_22_split
I0222 17:41:27.194864 25144 net.cpp:129] Top shape: 1 26 (26)
I0222 17:41:27.194869 25144 net.cpp:129] Top shape: 1 26 (26)
I0222 17:41:27.194871 25144 net.cpp:137] Memory required for data: 25584
I0222 17:41:27.194875 25144 layer_factory.hpp:77] Creating layer cont_24_lstm1_cont_slice_23_split
I0222 17:41:27.194880 25144 net.cpp:84] Creating Layer cont_24_lstm1_cont_slice_23_split
I0222 17:41:27.194883 25144 net.cpp:406] cont_24_lstm1_cont_slice_23_split <- cont_24
I0222 17:41:27.194888 25144 net.cpp:380] cont_24_lstm1_cont_slice_23_split -> cont_24_lstm1_cont_slice_23_split_0
I0222 17:41:27.194895 25144 net.cpp:380] cont_24_lstm1_cont_slice_23_split -> cont_24_lstm1_cont_slice_23_split_1
I0222 17:41:27.194911 25144 net.cpp:122] Setting up cont_24_lstm1_cont_slice_23_split
I0222 17:41:27.194917 25144 net.cpp:129] Top shape: 1 26 (26)
I0222 17:41:27.194921 25144 net.cpp:129] Top shape: 1 26 (26)
I0222 17:41:27.194924 25144 net.cpp:137] Memory required for data: 25792
I0222 17:41:27.194928 25144 layer_factory.hpp:77] Creating layer lstm1_x_transform
I0222 17:41:27.194936 25144 net.cpp:84] Creating Layer lstm1_x_transform
I0222 17:41:27.194941 25144 net.cpp:406] lstm1_x_transform <- x
I0222 17:41:27.194945 25144 net.cpp:380] lstm1_x_transform -> W_xc_x
I0222 17:41:27.195019 25144 net.cpp:122] Setting up lstm1_x_transform
I0222 17:41:27.195025 25144 net.cpp:129] Top shape: 24 26 256 (159744)
I0222 17:41:27.195029 25144 net.cpp:137] Memory required for data: 664768
I0222 17:41:27.195039 25144 layer_factory.hpp:77] Creating layer lstm1_W_xc_x_slice
I0222 17:41:27.195047 25144 net.cpp:84] Creating Layer lstm1_W_xc_x_slice
I0222 17:41:27.195051 25144 net.cpp:406] lstm1_W_xc_x_slice <- W_xc_x
I0222 17:41:27.195057 25144 net.cpp:380] lstm1_W_xc_x_slice -> W_xc_x_1
I0222 17:41:27.195065 25144 net.cpp:380] lstm1_W_xc_x_slice -> W_xc_x_2
…
I0222 17:41:27.195173 25144 net.cpp:380] lstm1_W_xc_x_slice -> W_xc_x_18
I0222 17:41:27.195180 25144 net.cpp:380] lstm1_W_xc_x_slice -> W_xc_x_19
I0222 17:41:27.195186 25144 net.cpp:380] lstm1_W_xc_x_slice -> W_xc_x_20
I0222 17:41:27.195192 25144 net.cpp:380] lstm1_W_xc_x_slice -> W_xc_x_21
I0222 17:41:27.195199 25144 net.cpp:380] lstm1_W_xc_x_slice -> W_xc_x_22
I0222 17:41:27.195204 25144 net.cpp:380] lstm1_W_xc_x_slice -> W_xc_x_23
I0222 17:41:27.195210 25144 net.cpp:380] lstm1_W_xc_x_slice -> W_xc_x_24
I0222 17:41:27.195348 25144 net.cpp:122] Setting up lstm1_W_xc_x_slice
I0222 17:41:27.195354 25144 net.cpp:129] Top shape: 1 26 256 (6656)
I0222 17:41:27.195358 25144 net.cpp:129] Top shape: 1 26 256 (6656)
I0222 17:41:27.195363 25144 net.cpp:129] Top shape: 1 26 256 (6656)
I0222 17:41:27.195367 25144 net.cpp:129] Top shape: 1 26 256 (6656)
I0222 17:41:27.195371 25144 net.cpp:129] Top shape: 1 26 256 (6656)
I0222 17:41:27.195375 25144 net.cpp:129] Top shape: 1 26 256 (6656)
I0222 17:41:27.195379 25144 net.cpp:129] Top shape: 1 26 256 (6656)
I0222 17:41:27.195384 25144 net.cpp:129] Top shape: 1 26 256 (6656)
I0222 17:41:27.195389 25144 net.cpp:129] Top shape: 1 26 256 (6656)
I0222 17:41:27.195392 25144 net.cpp:129] Top shape: 1 26 256 (6656)
I0222 17:41:27.195396 25144 net.cpp:129] Top shape: 1 26 256 (6656)
I0222 17:41:27.195400 25144 net.cpp:129] Top shape: 1 26 256 (6656)
I0222 17:41:27.195405 25144 net.cpp:129] Top shape: 1 26 256 (6656)
I0222 17:41:27.195408 25144 net.cpp:129] Top shape: 1 26 256 (6656)
I0222 17:41:27.195412 25144 net.cpp:129] Top shape: 1 26 256 (6656)
I0222 17:41:27.195417 25144 net.cpp:129] Top shape: 1 26 256 (6656)
I0222 17:41:27.195421 25144 net.cpp:129] Top shape: 1 26 256 (6656)
I0222 17:41:27.195425 25144 net.cpp:129] Top shape: 1 26 256 (6656)
I0222 17:41:27.195430 25144 net.cpp:129] Top shape: 1 26 256 (6656)
I0222 17:41:27.195433 25144 net.cpp:129] Top shape: 1 26 256 (6656)
I0222 17:41:27.195437 25144 net.cpp:129] Top shape: 1 26 256 (6656)
I0222 17:41:27.195441 25144 net.cpp:129] Top shape: 1 26 256 (6656)
I0222 17:41:27.195446 25144 net.cpp:129] Top shape: 1 26 256 (6656)
I0222 17:41:27.195449 25144 net.cpp:129] Top shape: 1 26 256 (6656)
I0222 17:41:27.195453 25144 net.cpp:137] Memory required for data: 1303744
I0222 17:41:27.195456 25144 layer_factory.hpp:77] Creating layer lstm1_h_conted_0
I0222 17:41:27.195462 25144 net.cpp:84] Creating Layer lstm1_h_conted_0
I0222 17:41:27.195466 25144 net.cpp:406] lstm1_h_conted_0 <- h_0
I0222 17:41:27.195471 25144 net.cpp:406] lstm1_h_conted_0 <- cont_1_lstm1_cont_slice_0_split_0
I0222 17:41:27.195475 25144 net.cpp:380] lstm1_h_conted_0 -> h_conted_0
I0222 17:41:27.195516 25144 net.cpp:122] Setting up lstm1_h_conted_0
I0222 17:41:27.195523 25144 net.cpp:129] Top shape: 1 26 64 (1664)
I0222 17:41:27.195525 25144 net.cpp:137] Memory required for data: 1310400
I0222 17:41:27.195529 25144 layer_factory.hpp:77] Creating layer lstm1_transform_1
I0222 17:41:27.195534 25144 net.cpp:84] Creating Layer lstm1_transform_1
I0222 17:41:27.195538 25144 net.cpp:406] lstm1_transform_1 <- h_conted_0
I0222 17:41:27.195544 25144 net.cpp:380] lstm1_transform_1 -> W_hc_h_0
I0222 17:41:27.196326 25144 net.cpp:122] Setting up lstm1_transform_1
I0222 17:41:27.196337 25144 net.cpp:129] Top shape: 1 26 256 (6656)
I0222 17:41:27.196341 25144 net.cpp:137] Memory required for data: 1337024
I0222 17:41:27.198668 25144 layer_factory.hpp:77] Creating layer lstm1_gate_input_1
I0222 17:41:27.198683 25144 net.cpp:84] Creating Layer lstm1_gate_input_1
I0222 17:41:27.198688 25144 net.cpp:406] lstm1_gate_input_1 <- W_hc_h_0
I0222 17:41:27.198693 25144 net.cpp:406] lstm1_gate_input_1 <- W_xc_x_1
I0222 17:41:27.198696 25144 net.cpp:380] lstm1_gate_input_1 -> gate_input_1
I0222 17:41:27.198720 25144 net.cpp:122] Setting up lstm1_gate_input_1
I0222 17:41:27.198738 25144 net.cpp:129] Top shape: 1 26 256 (6656)
I0222 17:41:27.198740 25144 net.cpp:137] Memory required for data: 1363648
I0222 17:41:27.198743 25144 layer_factory.hpp:77] Creating layer lstm1_unit_1
I0222 17:41:27.198774 25144 net.cpp:84] Creating Layer lstm1_unit_1
I0222 17:41:27.198777 25144 net.cpp:406] lstm1_unit_1 <- c_0
I0222 17:41:27.198794 25144 net.cpp:406] lstm1_unit_1 <- gate_input_1
I0222 17:41:27.198797 25144 net.cpp:406] lstm1_unit_1 <- cont_1_lstm1_cont_slice_0_split_1
I0222 17:41:27.198815 25144 net.cpp:380] lstm1_unit_1 -> c_1
I0222 17:41:27.198823 25144 net.cpp:380] lstm1_unit_1 -> h_1
I0222 17:41:27.198863 25144 net.cpp:122] Setting up lstm1_unit_1
I0222 17:41:27.198869 25144 net.cpp:129] Top shape: 1 26 64 (1664)
I0222 17:41:27.198873 25144 net.cpp:129] Top shape: 1 26 64 (1664)
I0222 17:41:27.198878 25144 net.cpp:137] Memory required for data: 1376960
I0222 17:41:27.198880 25144 layer_factory.hpp:77] Creating layer h_1_lstm1_unit_1_1_split
I0222 17:41:27.198885 25144 net.cpp:84] Creating Layer h_1_lstm1_unit_1_1_split
I0222 17:41:27.198889 25144 net.cpp:406] h_1_lstm1_unit_1_1_split <- h_1
I0222 17:41:27.198895 25144 net.cpp:380] h_1_lstm1_unit_1_1_split -> h_1_lstm1_unit_1_1_split_0
I0222 17:41:27.198900 25144 net.cpp:380] h_1_lstm1_unit_1_1_split -> h_1_lstm1_unit_1_1_split_1
I0222 17:41:27.198920 25144 net.cpp:122] Setting up h_1_lstm1_unit_1_1_split
I0222 17:41:27.198925 25144 net.cpp:129] Top shape: 1 26 64 (1664)
I0222 17:41:27.198928 25144 net.cpp:129] Top shape: 1 26 64 (1664)
I0222 17:41:27.198932 25144 net.cpp:137] Memory required for data: 1390272
I0222 17:41:27.198935 25144 layer_factory.hpp:77] Creating layer lstm1_h_conted_1
I0222 17:41:27.198941 25144 net.cpp:84] Creating Layer lstm1_h_conted_1
I0222 17:41:27.198945 25144 net.cpp:406] lstm1_h_conted_1 <- h_1_lstm1_unit_1_1_split_0
I0222 17:41:27.198951 25144 net.cpp:406] lstm1_h_conted_1 <- cont_2_lstm1_cont_slice_1_split_0
I0222 17:41:27.198956 25144 net.cpp:380] lstm1_h_conted_1 -> h_conted_1
I0222 17:41:27.198989 25144 net.cpp:122] Setting up lstm1_h_conted_1
I0222 17:41:27.198995 25144 net.cpp:129] Top shape: 1 26 64 (1664)
I0222 17:41:27.198998 25144 net.cpp:137] Memory required for data: 1396928
I0222 17:41:27.199002 25144 layer_factory.hpp:77] Creating layer lstm1_transform_2
I0222 17:41:27.199007 25144 net.cpp:84] Creating Layer lstm1_transform_2
I0222 17:41:27.199012 25144 net.cpp:406] lstm1_transform_2 <- h_conted_1
I0222 17:41:27.199017 25144 net.cpp:380] lstm1_transform_2 -> W_hc_h_1
I0222 17:41:27.199108 25144 net.cpp:122] Setting up lstm1_transform_2
I0222 17:41:27.199115 25144 net.cpp:129] Top shape: 1 26 256 (6656)
I0222 17:41:27.199117 25144 net.cpp:137] Memory required for data: 1423552
I0222 17:41:27.199121 25144 net.cpp:465] Sharing parameters 'W_hc' owned by layer 'lstm1_transform_1', param index 0
I0222 17:41:27.199126 25144 layer_factory.hpp:77] Creating layer lstm1_gate_input_2
I0222 17:41:27.199131 25144 net.cpp:84] Creating Layer lstm1_gate_input_2
I0222 17:41:27.199136 25144 net.cpp:406] lstm1_gate_input_2 <- W_hc_h_1
I0222 17:41:27.199141 25144 net.cpp:406] lstm1_gate_input_2 <- W_xc_x_2
I0222 17:41:27.199144 25144 net.cpp:380] lstm1_gate_input_2 -> gate_input_2
I0222 17:41:27.199158 25144 net.cpp:122] Setting up lstm1_gate_input_2
I0222 17:41:27.199163 25144 net.cpp:129] Top shape: 1 26 256 (6656)
I0222 17:41:27.199167 25144 net.cpp:137] Memory required for data: 1450176
I0222 17:41:27.199170 25144 layer_factory.hpp:77] Creating layer lstm1_unit_2
I0222 17:41:27.199175 25144 net.cpp:84] Creating Layer lstm1_unit_2
I0222 17:41:27.199178 25144 net.cpp:406] lstm1_unit_2 <- c_1
I0222 17:41:27.199183 25144 net.cpp:406] lstm1_unit_2 <- gate_input_2
I0222 17:41:27.199187 25144 net.cpp:406] lstm1_unit_2 <- cont_2_lstm1_cont_slice_1_split_1
I0222 17:41:27.199193 25144 net.cpp:380] lstm1_unit_2 -> c_2
I0222 17:41:27.199199 25144 net.cpp:380] lstm1_unit_2 -> h_2
I0222 17:41:27.199223 25144 net.cpp:122] Setting up lstm1_unit_2
I0222 17:41:27.199229 25144 net.cpp:129] Top shape: 1 26 64 (1664)
I0222 17:41:27.199232 25144 net.cpp:129] Top shape: 1 26 64 (1664)
I0222 17:41:27.199235 25144 net.cpp:137] Memory required for data: 1463488
I0222 17:41:27.199239 25144 layer_factory.hpp:77] Creating layer h_2_lstm1_unit_2_1_split
I0222 17:41:27.199249 25144 net.cpp:84] Creating Layer h_2_lstm1_unit_2_1_split
I0222 17:41:27.199252 25144 net.cpp:406] h_2_lstm1_unit_2_1_split <- h_2
I0222 17:41:27.199257 25144 net.cpp:380] h_2_lstm1_unit_2_1_split -> h_2_lstm1_unit_2_1_split_0
I0222 17:41:27.199262 25144 net.cpp:380] h_2_lstm1_unit_2_1_split -> h_2_lstm1_unit_2_1_split_1
I0222 17:41:27.199281 25144 net.cpp:122] Setting up h_2_lstm1_unit_2_1_split
I0222 17:41:27.199287 25144 net.cpp:129] Top shape: 1 26 64 (1664)
I0222 17:41:27.199291 25144 net.cpp:129] Top shape: 1 26 64 (1664)
I0222 17:41:27.199295 25144 net.cpp:137] Memory required for data: 1476800
I0222 17:41:27.199298 25144 layer_factory.hpp:77] Creating layer lstm1_h_conted_2
I0222 17:41:27.199303 25144 net.cpp:84] Creating Layer lstm1_h_conted_2
I0222 17:41:27.199307 25144 net.cpp:406] lstm1_h_conted_2 <- h_2_lstm1_unit_2_1_split_0
I0222 17:41:27.199312 25144 net.cpp:406] lstm1_h_conted_2 <- cont_3_lstm1_cont_slice_2_split_0
I0222 17:41:27.199316 25144 net.cpp:380] lstm1_h_conted_2 -> h_conted_2
I0222 17:41:27.199349 25144 net.cpp:122] Setting up lstm1_h_conted_2
I0222 17:41:27.199354 25144 net.cpp:129] Top shape: 1 26 64 (1664)
I0222 17:41:27.199358 25144 net.cpp:137] Memory required for data: 1483456
I0222 17:41:27.199362 25144 layer_factory.hpp:77] Creating layer lstm1_transform_3
I0222 17:41:27.199368 25144 net.cpp:84] Creating Layer lstm1_transform_3
I0222 17:41:27.199371 25144 net.cpp:406] lstm1_transform_3 <- h_conted_2
I0222 17:41:27.199376 25144 net.cpp:380] lstm1_transform_3 -> W_hc_h_2
I0222 17:41:27.199466 25144 net.cpp:122] Setting up lstm1_transform_3
I0222 17:41:27.199472 25144 net.cpp:129] Top shape: 1 26 256 (6656)
I0222 17:41:27.199476 25144 net.cpp:137] Memory required for data: 1510080
I0222 17:41:27.199481 25144 net.cpp:465] Sharing parameters 'W_hc' owned by layer 'lstm1_transform_1', param index 0
I0222 17:41:27.199486 25144 layer_factory.hpp:77] Creating layer lstm1_gate_input_3
I0222 17:41:27.199491 25144 net.cpp:84] Creating Layer lstm1_gate_input_3
I0222 17:41:27.199493 25144 net.cpp:406] lstm1_gate_input_3 <- W_hc_h_2
I0222 17:41:27.199498 25144 net.cpp:406] lstm1_gate_input_3 <- W_xc_x_3
I0222 17:41:27.199504 25144 net.cpp:380] lstm1_gate_input_3 -> gate_input_3
I0222 17:41:27.199517 25144 net.cpp:122] Setting up lstm1_gate_input_3
I0222 17:41:27.199522 25144 net.cpp:129] Top shape: 1 26 256 (6656)
I0222 17:41:27.199527 25144 net.cpp:137] Memory required for data: 1536704
I0222 17:41:27.199529 25144 layer_factory.hpp:77] Creating layer lstm1_unit_3
I0222 17:41:27.199534 25144 net.cpp:84] Creating Layer lstm1_unit_3
I0222 17:41:27.199537 25144 net.cpp:406] lstm1_unit_3 <- c_2
I0222 17:41:27.199542 25144 net.cpp:406] lstm1_unit_3 <- gate_input_3
I0222 17:41:27.199546 25144 net.cpp:406] lstm1_unit_3 <- cont_3_lstm1_cont_slice_2_split_1
I0222 17:41:27.199551 25144 net.cpp:380] lstm1_unit_3 -> c_3
I0222 17:41:27.199559 25144 net.cpp:380] lstm1_unit_3 -> h_3
I0222 17:41:27.199584 25144 net.cpp:122] Setting up lstm1_unit_3
I0222 17:41:27.199589 25144 net.cpp:129] Top shape: 1 26 64 (1664)
I0222 17:41:27.225589 25144 net.cpp:129] Top shape: 1 26 64 (1664)
I0222 17:41:27.225597 25144 net.cpp:137] Memory required for data: 1550016
I0222 17:41:27.225605 25144 layer_factory.hpp:77] Creating layer h_3_lstm1_unit_3_1_split
I0222 17:41:27.225613 25144 net.cpp:84] Creating Layer h_3_lstm1_unit_3_1_split
I0222 17:41:27.225618 25144 net.cpp:406] h_3_lstm1_unit_3_1_split <- h_3
I0222 17:41:27.225625 25144 net.cpp:380] h_3_lstm1_unit_3_1_split -> h_3_lstm1_unit_3_1_split_0
I0222 17:41:27.225633 25144 net.cpp:380] h_3_lstm1_unit_3_1_split -> h_3_lstm1_unit_3_1_split_1
I0222 17:41:27.225679 25144 net.cpp:122] Setting up h_3_lstm1_unit_3_1_split
I0222 17:41:27.225685 25144 net.cpp:129] Top shape: 1 26 64 (1664)
I0222 17:41:27.225690 25144 net.cpp:129] Top shape: 1 26 64 (1664)
I0222 17:41:27.225693 25144 net.cpp:137] Memory required for data: 1563328
I0222 17:41:27.225697 25144 layer_factory.hpp:77] Creating layer lstm1_h_conted_3
I0222 17:41:27.225703 25144 net.cpp:84] Creating Layer lstm1_h_conted_3
I0222 17:41:27.225720 25144 net.cpp:406] lstm1_h_conted_3 <- h_3_lstm1_unit_3_1_split_0
I0222 17:41:27.225726 25144 net.cpp:406] lstm1_h_conted_3 <- cont_4_lstm1_cont_slice_3_split_0
I0222 17:41:27.225733 25144 net.cpp:380] lstm1_h_conted_3 -> h_conted_3
I0222 17:41:27.225772 25144 net.cpp:122] Setting up lstm1_h_conted_3
I0222 17:41:27.225778 25144 net.cpp:129] Top shape: 1 26 64 (1664)
I0222 17:41:27.225781 25144 net.cpp:137] Memory required for data: 1569984
I0222 17:41:27.225785 25144 layer_factory.hpp:77] Creating layer lstm1_transform_4
I0222 17:41:27.225793 25144 net.cpp:84] Creating Layer lstm1_transform_4
I0222 17:41:27.225797 25144 net.cpp:406] lstm1_transform_4 <- h_conted_3
I0222 17:41:27.225803 25144 net.cpp:380] lstm1_transform_4 -> W_hc_h_3
I0222 17:41:27.225905 25144 net.cpp:122] Setting up lstm1_transform_4
I0222 17:41:27.225911 25144 net.cpp:129] Top shape: 1 26 256 (6656)
I0222 17:41:27.225915 25144 net.cpp:137] Memory required for data: 1596608
I0222 17:41:27.225920 25144 net.cpp:465] Sharing parameters 'W_hc' owned by layer 'lstm1_transform_1', param index 0
I0222 17:41:27.225924 25144 layer_factory.hpp:77] Creating layer lstm1_gate_input_4
I0222 17:41:27.225930 25144 net.cpp:84] Creating Layer lstm1_gate_input_4
I0222 17:41:27.225934 25144 net.cpp:406] lstm1_gate_input_4 <- W_hc_h_3
I0222 17:41:27.225939 25144 net.cpp:406] lstm1_gate_input_4 <- W_xc_x_4
I0222 17:41:27.225945 25144 net.cpp:380] lstm1_gate_input_4 -> gate_input_4
I0222 17:41:27.225961 25144 net.cpp:122] Setting up lstm1_gate_input_4
I0222 17:41:27.225966 25144 net.cpp:129] Top shape: 1 26 256 (6656)
I0222 17:41:27.225970 25144 net.cpp:137] Memory required for data: 1623232
I0222 17:41:27.225975 25144 layer_factory.hpp:77] Creating layer lstm1_unit_4
I0222 17:41:27.225980 25144 net.cpp:84] Creating Layer lstm1_unit_4
I0222 17:41:27.225983 25144 net.cpp:406] lstm1_unit_4 <- c_3
I0222 17:41:27.225988 25144 net.cpp:406] lstm1_unit_4 <- gate_input_4
I0222 17:41:27.225992 25144 net.cpp:406] lstm1_unit_4 <- cont_4_lstm1_cont_slice_3_split_1
I0222 17:41:27.225998 25144 net.cpp:380] lstm1_unit_4 -> c_4
I0222 17:41:27.226003 25144 net.cpp:380] lstm1_unit_4 -> h_4
I0222 17:41:27.226028 25144 net.cpp:122] Setting up lstm1_unit_4
I0222 17:41:27.226035 25144 net.cpp:129] Top shape: 1 26 64 (1664)
I0222 17:41:27.226040 25144 net.cpp:129] Top shape: 1 26 64 (1664)
I0222 17:41:27.226043 25144 net.cpp:137] Memory required for data: 1636544
I0222 17:41:27.226047 25144 layer_factory.hpp:77] Creating layer h_4_lstm1_unit_4_1_split
I0222 17:41:27.226052 25144 net.cpp:84] Creating Layer h_4_lstm1_unit_4_1_split
I0222 17:41:27.226055 25144 net.cpp:406] h_4_lstm1_unit_4_1_split <- h_4
I0222 17:41:27.226060 25144 net.cpp:380] h_4_lstm1_unit_4_1_split -> h_4_lstm1_unit_4_1_split_0
I0222 17:41:27.226066 25144 net.cpp:380] h_4_lstm1_unit_4_1_split -> h_4_lstm1_unit_4_1_split_1
I0222 17:41:27.226095 25144 net.cpp:122] Setting up h_4_lstm1_unit_4_1_split
I0222 17:41:27.226101 25144 net.cpp:129] Top shape: 1 26 64 (1664)
I0222 17:41:27.226106 25144 net.cpp:129] Top shape: 1 26 64 (1664)
I0222 17:41:27.226109 25144 net.cpp:137] Memory required for data: 1649856
I0222 17:41:27.226114 25144 layer_factory.hpp:77] Creating layer lstm1_h_conted_4
I0222 17:41:27.226119 25144 net.cpp:84] Creating Layer lstm1_h_conted_4
I0222 17:41:27.226122 25144 net.cpp:406] lstm1_h_conted_4 <- h_4_lstm1_unit_4_1_split_0
I0222 17:41:27.226127 25144 net.cpp:406] lstm1_h_conted_4 <- cont_5_lstm1_cont_slice_4_split_0
I0222 17:41:27.226131 25144 net.cpp:380] lstm1_h_conted_4 -> h_conted_4
I0222 17:41:27.226163 25144 net.cpp:122] Setting up lstm1_h_conted_4
I0222 17:41:27.226169 25144 net.cpp:129] Top shape: 1 26 64 (1664)
I0222 17:41:27.226173 25144 net.cpp:137] Memory required for data: 1656512
I0222 17:41:27.226176 25144 layer_factory.hpp:77] Creating layer lstm1_transform_5
I0222 17:41:27.226182 25144 net.cpp:84] Creating Layer lstm1_transform_5
I0222 17:41:27.226186 25144 net.cpp:406] lstm1_transform_5 <- h_conted_4
I0222 17:41:27.226191 25144 net.cpp:380] lstm1_transform_5 -> W_hc_h_4
I0222 17:41:27.226291 25144 net.cpp:122] Setting up lstm1_transform_5
I0222 17:41:27.226297 25144 net.cpp:129] Top shape: 1 26 256 (6656)
I0222 17:41:27.226301 25144 net.cpp:137] Memory required for data: 1683136
I0222 17:41:27.226305 25144 net.cpp:465] Sharing parameters 'W_hc' owned by layer 'lstm1_transform_1', param index 0
I0222 17:41:27.226310 25144 layer_factory.hpp:77] Creating layer lstm1_gate_input_5
I0222 17:41:27.226315 25144 net.cpp:84] Creating Layer lstm1_gate_input_5
I0222 17:41:27.226318 25144 net.cpp:406] lstm1_gate_input_5 <- W_hc_h_4
I0222 17:41:27.226323 25144 net.cpp:406] lstm1_gate_input_5 <- W_xc_x_5
I0222 17:41:27.226328 25144 net.cpp:380] lstm1_gate_input_5 -> gate_input_5
I0222 17:41:27.226341 25144 net.cpp:122] Setting up lstm1_gate_input_5
I0222 17:41:27.226347 25144 net.cpp:129] Top shape: 1 26 256 (6656)
I0222 17:41:27.226351 25144 net.cpp:137] Memory required for data: 1709760
I0222 17:41:27.226354 25144 layer_factory.hpp:77] Creating layer lstm1_unit_5
I0222 17:41:27.226361 25144 net.cpp:84] Creating Layer lstm1_unit_5
I0222 17:41:27.226364 25144 net.cpp:406] lstm1_unit_5 <- c_4
I0222 17:41:27.226368 25144 net.cpp:406] lstm1_unit_5 <- gate_input_5
I0222 17:41:27.226373 25144 net.cpp:406] lstm1_unit_5 <- cont_5_lstm1_cont_slice_4_split_1
I0222 17:41:27.226378 25144 net.cpp:380] lstm1_unit_5 -> c_5
I0222 17:41:27.226383 25144 net.cpp:380] lstm1_unit_5 -> h_5
I0222 17:41:27.226410 25144 net.cpp:122] Setting up lstm1_unit_5
I0222 17:41:27.226416 25144 net.cpp:129] Top shape: 1 26 64 (1664)
I0222 17:41:27.226420 25144 net.cpp:129] Top shape: 1 26 64 (1664)
I0222 17:41:27.226424 25144 net.cpp:137] Memory required for data: 1723072
I0222 17:41:27.226428 25144 layer_factory.hpp:77] Creating layer h_5_lstm1_unit_5_1_split
I0222 17:41:27.226433 25144 net.cpp:84] Creating Layer h_5_lstm1_unit_5_1_split
I0222 17:41:27.226436 25144 net.cpp:406] h_5_lstm1_unit_5_1_split <- h_5
I0222 17:41:27.226442 25144 net.cpp:380] h_5_lstm1_unit_5_1_split -> h_5_lstm1_unit_5_1_split_0
I0222 17:41:27.226447 25144 net.cpp:380] h_5_lstm1_unit_5_1_split -> h_5_lstm1_unit_5_1_split_1
I0222 17:41:27.226464 25144 net.cpp:122] Setting up h_5_lstm1_unit_5_1_split
I0222 17:41:27.226470 25144 net.cpp:129] Top shape: 1 26 64 (1664)
I0222 17:41:27.226475 25144 net.cpp:129] Top shape: 1 26 64 (1664)
I0222 17:41:27.226478 25144 net.cpp:137] Memory required for data: 1736384
I0222 17:41:27.226481 25144 layer_factory.hpp:77] Creating layer lstm1_h_conted_5
I0222 17:41:27.226487 25144 net.cpp:84] Creating Layer lstm1_h_conted_5
I0222 17:41:27.226491 25144 net.cpp:406] lstm1_h_conted_5 <- h_5_lstm1_unit_5_1_split_0
I0222 17:41:27.226496 25144 net.cpp:406] lstm1_h_conted_5 <- cont_6_lstm1_cont_slice_5_split_0
I0222 17:41:27.226502 25144 net.cpp:380] lstm1_h_conted_5 -> h_conted_5
I0222 17:41:27.226533 25144 net.cpp:122] Setting up lstm1_h_conted_5
I0222 17:41:27.228435 25144 net.cpp:129] Top shape: 1 26 64 (1664)
I0222 17:41:27.228442 25144 net.cpp:137] Memory required for data: 1743040
I0222 17:41:27.228446 25144 layer_factory.hpp:77] Creating layer lstm1_transform_6
I0222 17:41:27.228453 25144 net.cpp:84] Creating Layer lstm1_transform_6
I0222 17:41:27.228457 25144 net.cpp:406] lstm1_transform_6 <- h_conted_5
I0222 17:41:27.228461 25144 net.cpp:380] lstm1_transform_6 -> W_hc_h_5
I0222 17:41:27.228572 25144 net.cpp:122] Setting up lstm1_transform_6
I0222 17:41:27.228579 25144 net.cpp:129] Top shape: 1 26 256 (6656)
I0222 17:41:27.228595 25144 net.cpp:137] Memory required for data: 1769664
I0222 17:41:27.228598 25144 net.cpp:465] Sharing parameters 'W_hc' owned by layer 'lstm1_transform_1', param index 0
I0222 17:41:27.228601 25144 layer_factory.hpp:77] Creating layer lstm1_gate_input_6
I0222 17:41:27.228607 25144 net.cpp:84] Creating Layer lstm1_gate_input_6
I0222 17:41:27.228610 25144 net.cpp:406] lstm1_gate_input_6 <- W_hc_h_5
I0222 17:41:27.228615 25144 net.cpp:406] lstm1_gate_input_6 <- W_xc_x_6
I0222 17:41:27.228618 25144 net.cpp:380] lstm1_gate_input_6 -> gate_input_6
I0222 17:41:27.228637 25144 net.cpp:122] Setting up lstm1_gate_input_6
I0222 17:41:27.228642 25144 net.cpp:129] Top shape: 1 26 256 (6656)
I0222 17:41:27.228646 25144 net.cpp:137] Memory required for data: 1796288
I0222 17:41:27.228648 25144 layer_factory.hpp:77] Creating layer lstm1_unit_6
I0222 17:41:27.228652 25144 net.cpp:84] Creating Layer lstm1_unit_6
I0222 17:41:27.228657 25144 net.cpp:406] lstm1_unit_6 <- c_5
I0222 17:41:27.228660 25144 net.cpp:406] lstm1_unit_6 <- gate_input_6
I0222 17:41:27.228663 25144 net.cpp:406] lstm1_unit_6 <- cont_6_lstm1_cont_slice_5_split_1
I0222 17:41:27.228669 25144 net.cpp:380] lstm1_unit_6 -> c_6
I0222 17:41:27.228673 25144 net.cpp:380] lstm1_unit_6 -> h_6
I0222 17:41:27.228698 25144 net.cpp:122] Setting up lstm1_unit_6
I0222 17:41:27.228703 25144 net.cpp:129] Top shape: 1 26 64 (1664)
I0222 17:41:27.228706 25144 net.cpp:129] Top shape: 1 26 64 (1664)
I0222 17:41:27.228709 25144 net.cpp:137] Memory required for data: 1809600
I0222 17:41:27.228713 25144 layer_factory.hpp:77] Creating layer h_6_lstm1_unit_6_1_split
I0222 17:41:27.228716 25144 net.cpp:84] Creating Layer h_6_lstm1_unit_6_1_split
I0222 17:41:27.228719 25144 net.cpp:406] h_6_lstm1_unit_6_1_split <- h_6
I0222 17:41:27.228724 25144 net.cpp:380] h_6_lstm1_unit_6_1_split -> h_6_lstm1_unit_6_1_split_0
I0222 17:41:27.228727 25144 net.cpp:380] h_6_lstm1_unit_6_1_split -> h_6_lstm1_unit_6_1_split_1
I0222 17:41:27.228745 25144 net.cpp:122] Setting up h_6_lstm1_unit_6_1_split
I0222 17:41:27.228750 25144 net.cpp:129] Top shape: 1 26 64 (1664)
I0222 17:41:27.228754 25144 net.cpp:129] Top shape: 1 26 64 (1664)
I0222 17:41:27.228756 25144 net.cpp:137] Memory required for data: 1822912
I0222 17:41:27.228760 25144 layer_factory.hpp:77] Creating layer lstm1_h_conted_6
I0222 17:41:27.228765 25144 net.cpp:84] Creating Layer lstm1_h_conted_6
I0222 17:41:27.228767 25144 net.cpp:406] lstm1_h_conted_6 <- h_6_lstm1_unit_6_1_split_0
I0222 17:41:27.228771 25144 net.cpp:406] lstm1_h_conted_6 <- cont_7_lstm1_cont_slice_6_split_0
I0222 17:41:27.228775 25144 net.cpp:380] lstm1_h_conted_6 -> h_conted_6
I0222 17:41:27.228807 25144 net.cpp:122] Setting up lstm1_h_conted_6
I0222 17:41:27.228812 25144 net.cpp:129] Top shape: 1 26 64 (1664)
I0222 17:41:27.228816 25144 net.cpp:137] Memory required for data: 1829568
I0222 17:41:27.228818 25144 layer_factory.hpp:77] Creating layer lstm1_transform_7
I0222 17:41:27.228824 25144 net.cpp:84] Creating Layer lstm1_transform_7
I0222 17:41:27.228827 25144 net.cpp:406] lstm1_transform_7 <- h_conted_6
I0222 17:41:27.228832 25144 net.cpp:380] lstm1_transform_7 -> W_hc_h_6
I0222 17:41:27.228924 25144 net.cpp:122] Setting up lstm1_transform_7
I0222 17:41:27.228929 25144 net.cpp:129] Top shape: 1 26 256 (6656)
I0222 17:41:27.228932 25144 net.cpp:137] Memory required for data: 1856192
I0222 17:41:27.228938 25144 net.cpp:465] Sharing parameters 'W_hc' owned by layer 'lstm1_transform_1', param index 0
I0222 17:41:27.228942 25144 layer_factory.hpp:77] Creating layer lstm1_gate_input_7
I0222 17:41:27.228946 25144 net.cpp:84] Creating Layer lstm1_gate_input_7
I0222 17:41:27.228950 25144 net.cpp:406] lstm1_gate_input_7 <- W_hc_h_6
I0222 17:41:27.228953 25144 net.cpp:406] lstm1_gate_input_7 <- W_xc_x_7
I0222 17:41:27.228958 25144 net.cpp:380] lstm1_gate_input_7 -> gate_input_7
I0222 17:41:27.228971 25144 net.cpp:122] Setting up lstm1_gate_input_7
I0222 17:41:27.228976 25144 net.cpp:129] Top shape: 1 26 256 (6656)
I0222 17:41:27.228978 25144 net.cpp:137] Memory required for data: 1882816
I0222 17:41:27.228981 25144 layer_factory.hpp:77] Creating layer lstm1_unit_7
I0222 17:41:27.228986 25144 net.cpp:84] Creating Layer lstm1_unit_7
I0222 17:41:27.228989 25144 net.cpp:406] lstm1_unit_7 <- c_6
I0222 17:41:27.228993 25144 net.cpp:406] lstm1_unit_7 <- gate_input_7
I0222 17:41:27.228996 25144 net.cpp:406] lstm1_unit_7 <- cont_7_lstm1_cont_slice_6_split_1
I0222 17:41:27.229001 25144 net.cpp:380] lstm1_unit_7 -> c_7
I0222 17:41:27.229007 25144 net.cpp:380] lstm1_unit_7 -> h_7
I0222 17:41:27.229034 25144 net.cpp:122] Setting up lstm1_unit_7
I0222 17:41:27.229044 25144 net.cpp:129] Top shape: 1 26 64 (1664)
I0222 17:41:27.229048 25144 net.cpp:129] Top shape: 1 26 64 (1664)
I0222 17:41:27.229050 25144 net.cpp:137] Memory required for data: 1896128
I0222 17:41:27.229053 25144 layer_factory.hpp:77] Creating layer h_7_lstm1_unit_7_1_split
I0222 17:41:27.229058 25144 net.cpp:84] Creating Layer h_7_lstm1_unit_7_1_split
I0222 17:41:27.229061 25144 net.cpp:406] h_7_lstm1_unit_7_1_split <- h_7
I0222 17:41:27.229065 25144 net.cpp:380] h_7_lstm1_unit_7_1_split -> h_7_lstm1_unit_7_1_split_0
I0222 17:41:27.229069 25144 net.cpp:380] h_7_lstm1_unit_7_1_split -> h_7_lstm1_unit_7_1_split_1
I0222 17:41:27.229087 25144 net.cpp:122] Setting up h_7_lstm1_unit_7_1_split
I0222 17:41:27.229092 25144 net.cpp:129] Top shape: 1 26 64 (1664)
I0222 17:41:27.229095 25144 net.cpp:129] Top shape: 1 26 64 (1664)
I0222 17:41:27.229099 25144 net.cpp:137] Memory required for data: 1909440
I0222 17:41:27.229101 25144 layer_factory.hpp:77] Creating layer lstm1_h_conted_7
I0222 17:41:27.229110 25144 net.cpp:84] Creating Layer lstm1_h_conted_7
I0222 17:41:27.229115 25144 net.cpp:406] lstm1_h_conted_7 <- h_7_lstm1_unit_7_1_split_0
I0222 17:41:27.229118 25144 net.cpp:406] lstm1_h_conted_7 <- cont_8_lstm1_cont_slice_7_split_0
I0222 17:41:27.229122 25144 net.cpp:380] lstm1_h_conted_7 -> h_conted_7
I0222 17:41:27.229153 25144 net.cpp:122] Setting up lstm1_h_conted_7
I0222 17:41:27.229157 25144 net.cpp:129] Top shape: 1 26 64 (1664)
I0222 17:41:27.229161 25144 net.cpp:137] Memory required for data: 1916096
I0222 17:41:27.229163 25144 layer_factory.hpp:77] Creating layer lstm1_transform_8
I0222 17:41:27.229168 25144 net.cpp:84] Creating Layer lstm1_transform_8
I0222 17:41:27.229171 25144 net.cpp:406] lstm1_transform_8 <- h_conted_7
I0222 17:41:27.229176 25144 net.cpp:380] lstm1_transform_8 -> W_hc_h_7
I0222 17:41:27.229269 25144 net.cpp:122] Setting up lstm1_transform_8
I0222 17:41:27.229274 25144 net.cpp:129] Top shape: 1 26 256 (6656)
I0222 17:41:27.229276 25144 net.cpp:137] Memory required for data: 1942720
I0222 17:41:27.229279 25144 net.cpp:465] Sharing parameters 'W_hc' owned by layer 'lstm1_transform_1', param index 0
I0222 17:41:27.229284 25144 layer_factory.hpp:77] Creating layer lstm1_gate_input_8
I0222 17:41:27.229288 25144 net.cpp:84] Creating Layer lstm1_gate_input_8
I0222 17:41:27.229291 25144 net.cpp:406] lstm1_gate_input_8 <- W_hc_h_7
I0222 17:41:27.229295 25144 net.cpp:406] lstm1_gate_input_8 <- W_xc_x_8
I0222 17:41:27.229300 25144 net.cpp:380] lstm1_gate_input_8 -> gate_input_8
I0222 17:41:27.229311 25144 net.cpp:122] Setting up lstm1_gate_input_8
I0222 17:41:27.229316 25144 net.cpp:129] Top shape: 1 26 256 (6656)
I0222 17:41:27.229318 25144 net.cpp:137] Memory required for data: 1969344
I0222 17:41:27.229321 25144 layer_factory.hpp:77] Creating layer lstm1_unit_8
I0222 17:41:27.229326 25144 net.cpp:84] Creating Layer lstm1_unit_8
I0222 17:41:27.229328 25144 net.cpp:406] lstm1_unit_8 <- c_7
I0222 17:41:27.229332 25144 net.cpp:406] lstm1_unit_8 <- gate_input_8
I0222 17:41:27.229336 25144 net.cpp:406] lstm1_unit_8 <- cont_8_lstm1_cont_slice_7_split_1
I0222 17:41:27.229341 25144 net.cpp:380] lstm1_unit_8 -> c_8
I0222 17:41:27.229346 25144 net.cpp:380] lstm1_unit_8 -> h_8
I0222 17:41:27.256654 25144 net.cpp:122] Setting up lstm1_unit_8
I0222 17:41:27.256666 25144 net.cpp:129] Top shape: 1 26 64 (1664)
I0222 17:41:27.256671 25144 net.cpp:129] Top shape: 1 26 64 (1664)
I0222 17:41:27.256675 25144 net.cpp:137] Memory required for data: 1982656
I0222 17:41:27.256680 25144 layer_factory.hpp:77] Creating layer h_8_lstm1_unit_8_1_split
I0222 17:41:27.256686 25144 net.cpp:84] Creating Layer h_8_lstm1_unit_8_1_split
I0222 17:41:27.256690 25144 net.cpp:406] h_8_lstm1_unit_8_1_split <- h_8
I0222 17:41:27.256696 25144 net.cpp:380] h_8_lstm1_unit_8_1_split -> h_8_lstm1_unit_8_1_split_0
I0222 17:41:27.256702 25144 net.cpp:380] h_8_lstm1_unit_8_1_split -> h_8_lstm1_unit_8_1_split_1
I0222 17:41:27.256722 25144 net.cpp:122] Setting up h_8_lstm1_unit_8_1_split
I0222 17:41:27.256728 25144 net.cpp:129] Top shape: 1 26 64 (1664)
I0222 17:41:27.256742 25144 net.cpp:129] Top shape: 1 26 64 (1664)
I0222 17:41:27.256747 25144 net.cpp:137] Memory required for data: 1995968
I0222 17:41:27.256750 25144 layer_factory.hpp:77] Creating layer lstm1_h_conted_8
I0222 17:41:27.256757 25144 net.cpp:84] Creating Layer lstm1_h_conted_8
I0222 17:41:27.256760 25144 net.cpp:406] lstm1_h_conted_8 <- h_8_lstm1_unit_8_1_split_0
I0222 17:41:27.256765 25144 net.cpp:406] lstm1_h_conted_8 <- cont_9_lstm1_cont_slice_8_split_0
I0222 17:41:27.256772 25144 net.cpp:380] lstm1_h_conted_8 -> h_conted_8
I0222 17:41:27.256810 25144 net.cpp:122] Setting up lstm1_h_conted_8
I0222 17:41:27.256816 25144 net.cpp:129] Top shape: 1 26 64 (1664)
I0222 17:41:27.256819 25144 net.cpp:137] Memory required for data: 2002624
I0222 17:41:27.256824 25144 layer_factory.hpp:77] Creating layer lstm1_transform_9
I0222 17:41:27.256830 25144 net.cpp:84] Creating Layer lstm1_transform_9
I0222 17:41:27.256834 25144 net.cpp:406] lstm1_transform_9 <- h_conted_8
I0222 17:41:27.256840 25144 net.cpp:380] lstm1_transform_9 -> W_hc_h_8
I0222 17:41:27.256939 25144 net.cpp:122] Setting up lstm1_transform_9
I0222 17:41:27.256945 25144 net.cpp:129] Top shape: 1 26 256 (6656)
I0222 17:41:27.256949 25144 net.cpp:137] Memory required for data: 2029248
I0222 17:41:27.256954 25144 net.cpp:465] Sharing parameters 'W_hc' owned by layer 'lstm1_transform_1', param index 0
I0222 17:41:27.256958 25144 layer_factory.hpp:77] Creating layer lstm1_gate_input_9
I0222 17:41:27.256963 25144 net.cpp:84] Creating Layer lstm1_gate_input_9
I0222 17:41:27.256968 25144 net.cpp:406] lstm1_gate_input_9 <- W_hc_h_8
I0222 17:41:27.256973 25144 net.cpp:406] lstm1_gate_input_9 <- W_xc_x_9
I0222 17:41:27.256980 25144 net.cpp:380] lstm1_gate_input_9 -> gate_input_9
I0222 17:41:27.256994 25144 net.cpp:122] Setting up lstm1_gate_input_9
I0222 17:41:27.256999 25144 net.cpp:129] Top shape: 1 26 256 (6656)
I0222 17:41:27.257004 25144 net.cpp:137] Memory required for data: 2055872
I0222 17:41:27.257007 25144 layer_factory.hpp:77] Creating layer lstm1_unit_9
I0222 17:41:27.257012 25144 net.cpp:84] Creating Layer lstm1_unit_9
I0222 17:41:27.257016 25144 net.cpp:406] lstm1_unit_9 <- c_8
I0222 17:41:27.257021 25144 net.cpp:406] lstm1_unit_9 <- gate_input_9
I0222 17:41:27.257025 25144 net.cpp:406] lstm1_unit_9 <- cont_9_lstm1_cont_slice_8_split_1
I0222 17:41:27.257030 25144 net.cpp:380] lstm1_unit_9 -> c_9
I0222 17:41:27.257036 25144 net.cpp:380] lstm1_unit_9 -> h_9
I0222 17:41:27.257061 25144 net.cpp:122] Setting up lstm1_unit_9
I0222 17:41:27.257066 25144 net.cpp:129] Top shape: 1 26 64 (1664)
I0222 17:41:27.257071 25144 net.cpp:129] Top shape: 1 26 64 (1664)
I0222 17:41:27.257073 25144 net.cpp:137] Memory required for data: 2069184
I0222 17:41:27.257077 25144 layer_factory.hpp:77] Creating layer h_9_lstm1_unit_9_1_split
I0222 17:41:27.257081 25144 net.cpp:84] Creating Layer h_9_lstm1_unit_9_1_split
I0222 17:41:27.257086 25144 net.cpp:406] h_9_lstm1_unit_9_1_split <- h_9
I0222 17:41:27.257091 25144 net.cpp:380] h_9_lstm1_unit_9_1_split -> h_9_lstm1_unit_9_1_split_0
I0222 17:41:27.257095 25144 net.cpp:380] h_9_lstm1_unit_9_1_split -> h_9_lstm1_unit_9_1_split_1
I0222 17:41:27.257113 25144 net.cpp:122] Setting up h_9_lstm1_unit_9_1_split
I0222 17:41:27.257119 25144 net.cpp:129] Top shape: 1 26 64 (1664)
I0222 17:41:27.257123 25144 net.cpp:129] Top shape: 1 26 64 (1664)
I0222 17:41:27.257127 25144 net.cpp:137] Memory required for data: 2082496
I0222 17:41:27.257130 25144 layer_factory.hpp:77] Creating layer lstm1_h_conted_9
I0222 17:41:27.257135 25144 net.cpp:84] Creating Layer lstm1_h_conted_9
I0222 17:41:27.257139 25144 net.cpp:406] lstm1_h_conted_9 <- h_9_lstm1_unit_9_1_split_0
I0222 17:41:27.257144 25144 net.cpp:406] lstm1_h_conted_9 <- cont_10_lstm1_cont_slice_9_split_0
I0222 17:41:27.257150 25144 net.cpp:380] lstm1_h_conted_9 -> h_conted_9
I0222 17:41:27.257181 25144 net.cpp:122] Setting up lstm1_h_conted_9
I0222 17:41:27.257186 25144 net.cpp:129] Top shape: 1 26 64 (1664)
I0222 17:41:27.257190 25144 net.cpp:137] Memory required for data: 2089152
I0222 17:41:27.257200 25144 layer_factory.hpp:77] Creating layer lstm1_transform_10
I0222 17:41:27.257205 25144 net.cpp:84] Creating Layer lstm1_transform_10
I0222 17:41:27.257208 25144 net.cpp:406] lstm1_transform_10 <- h_conted_9
I0222 17:41:27.257215 25144 net.cpp:380] lstm1_transform_10 -> W_hc_h_9
I0222 17:41:27.257308 25144 net.cpp:122] Setting up lstm1_transform_10
I0222 17:41:27.257314 25144 net.cpp:129] Top shape: 1 26 256 (6656)
I0222 17:41:27.257318 25144 net.cpp:137] Memory required for data: 2115776
I0222 17:41:27.257323 25144 net.cpp:465] Sharing parameters 'W_hc' owned by layer 'lstm1_transform_1', param index 0
I0222 17:41:27.257326 25144 layer_factory.hpp:77] Creating layer lstm1_gate_input_10
I0222 17:41:27.257331 25144 net.cpp:84] Creating Layer lstm1_gate_input_10
I0222 17:41:27.257335 25144 net.cpp:406] lstm1_gate_input_10 <- W_hc_h_9
I0222 17:41:27.257340 25144 net.cpp:406] lstm1_gate_input_10 <- W_xc_x_10
I0222 17:41:27.257345 25144 net.cpp:380] lstm1_gate_input_10 -> gate_input_10
I0222 17:41:27.257375 25144 net.cpp:122] Setting up lstm1_gate_input_10
I0222 17:41:27.257380 25144 net.cpp:129] Top shape: 1 26 256 (6656)
I0222 17:41:27.257385 25144 net.cpp:137] Memory required for data: 2142400
I0222 17:41:27.257388 25144 layer_factory.hpp:77] Creating layer lstm1_unit_10
I0222 17:41:27.257393 25144 net.cpp:84] Creating Layer lstm1_unit_10
I0222 17:41:27.257397 25144 net.cpp:406] lstm1_unit_10 <- c_9
I0222 17:41:27.257401 25144 net.cpp:406] lstm1_unit_10 <- gate_input_10
I0222 17:41:27.257407 25144 net.cpp:406] lstm1_unit_10 <- cont_10_lstm1_cont_slice_9_split_1
I0222 17:41:27.257412 25144 net.cpp:380] lstm1_unit_10 -> c_10
I0222 17:41:27.257418 25144 net.cpp:380] lstm1_unit_10 -> h_10
I0222 17:41:27.257443 25144 net.cpp:122] Setting up lstm1_unit_10
I0222 17:41:27.257448 25144 net.cpp:129] Top shape: 1 26 64 (1664)
I0222 17:41:27.257453 25144 net.cpp:129] Top shape: 1 26 64 (1664)
I0222 17:41:27.257457 25144 net.cpp:137] Memory required for data: 2155712
I0222 17:41:27.257460 25144 layer_factory.hpp:77] Creating layer h_10_lstm1_unit_10_1_split
I0222 17:41:27.257467 25144 net.cpp:84] Creating Layer h_10_lstm1_unit_10_1_split
I0222 17:41:27.257470 25144 net.cpp:406] h_10_lstm1_unit_10_1_split <- h_10
I0222 17:41:27.257475 25144 net.cpp:380] h_10_lstm1_unit_10_1_split -> h_10_lstm1_unit_10_1_split_0
I0222 17:41:27.257481 25144 net.cpp:380] h_10_lstm1_unit_10_1_split -> h_10_lstm1_unit_10_1_split_1
I0222 17:41:27.257499 25144 net.cpp:122] Setting up h_10_lstm1_unit_10_1_split
I0222 17:41:27.257505 25144 net.cpp:129] Top shape: 1 26 64 (1664)
I0222 17:41:27.257509 25144 net.cpp:129] Top shape: 1 26 64 (1664)
I0222 17:41:27.257513 25144 net.cpp:137] Memory required for data: 2169024
I0222 17:41:27.257516 25144 layer_factory.hpp:77] Creating layer lstm1_h_conted_10
I0222 17:41:27.257521 25144 net.cpp:84] Creating Layer lstm1_h_conted_10
I0222 17:41:27.257525 25144 net.cpp:406] lstm1_h_conted_10 <- h_10_lstm1_unit_10_1_split_0
I0222 17:41:27.257530 25144 net.cpp:406] lstm1_h_conted_10 <- cont_11_lstm1_cont_slice_10_split_0
I0222 17:41:27.257535 25144 net.cpp:380] lstm1_h_conted_10 -> h_conted_10
I0222 17:41:27.260350 25144 net.cpp:122] Setting up lstm1_h_conted_10
I0222 17:41:27.260359 25144 net.cpp:129] Top shape: 1 26 64 (1664)
I0222 17:41:27.260361 25144 net.cpp:137] Memory required for data: 2175680
I0222 17:41:27.260363 25144 layer_factory.hpp:77] Creating layer lstm1_transform_11
I0222 17:41:27.260381 25144 net.cpp:84] Creating Layer lstm1_transform_11
I0222 17:41:27.260385 25144 net.cpp:406] lstm1_transform_11 <- h_conted_10
I0222 17:41:27.260404 25144 net.cpp:380] lstm1_transform_11 -> W_hc_h_10
I0222 17:41:27.260512 25144 net.cpp:122] Setting up lstm1_transform_11
I0222 17:41:27.260517 25144 net.cpp:129] Top shape: 1 26 256 (6656)
I0222 17:41:27.260520 25144 net.cpp:137] Memory required for data: 2202304
I0222 17:41:27.260524 25144 net.cpp:465] Sharing parameters 'W_hc' owned by layer 'lstm1_transform_1', param index 0
I0222 17:41:27.260541 25144 layer_factory.hpp:77] Creating layer lstm1_gate_input_11
I0222 17:41:27.260551 25144 net.cpp:84] Creating Layer lstm1_gate_input_11
I0222 17:41:27.260555 25144 net.cpp:406] lstm1_gate_input_11 <- W_hc_h_10
I0222 17:41:27.260557 25144 net.cpp:406] lstm1_gate_input_11 <- W_xc_x_11
I0222 17:41:27.260561 25144 net.cpp:380] lstm1_gate_input_11 -> gate_input_11
I0222 17:41:27.260587 25144 net.cpp:122] Setting up lstm1_gate_input_11
I0222 17:41:27.260607 25144 net.cpp:129] Top shape: 1 26 256 (6656)
I0222 17:41:27.260608 25144 net.cpp:137] Memory required for data: 2228928
I0222 17:41:27.260612 25144 layer_factory.hpp:77] Creating layer lstm1_unit_11
I0222 17:41:27.260617 25144 net.cpp:84] Creating Layer lstm1_unit_11
I0222 17:41:27.260620 25144 net.cpp:406] lstm1_unit_11 <- c_10
I0222 17:41:27.260624 25144 net.cpp:406] lstm1_unit_11 <- gate_input_11
I0222 17:41:27.260627 25144 net.cpp:406] lstm1_unit_11 <- cont_11_lstm1_cont_slice_10_split_1
I0222 17:41:27.260632 25144 net.cpp:380] lstm1_unit_11 -> c_11
I0222 17:41:27.260637 25144 net.cpp:380] lstm1_unit_11 -> h_11
I0222 17:41:27.260660 25144 net.cpp:122] Setting up lstm1_unit_11
I0222 17:41:27.260665 25144 net.cpp:129] Top shape: 1 26 64 (1664)
I0222 17:41:27.260669 25144 net.cpp:129] Top shape: 1 26 64 (1664)
I0222 17:41:27.260673 25144 net.cpp:137] Memory required for data: 2242240
I0222 17:41:27.260675 25144 layer_factory.hpp:77] Creating layer h_11_lstm1_unit_11_1_split
I0222 17:41:27.260679 25144 net.cpp:84] Creating Layer h_11_lstm1_unit_11_1_split
I0222 17:41:27.260682 25144 net.cpp:406] h_11_lstm1_unit_11_1_split <- h_11
I0222 17:41:27.260687 25144 net.cpp:380] h_11_lstm1_unit_11_1_split -> h_11_lstm1_unit_11_1_split_0
I0222 17:41:27.260692 25144 net.cpp:380] h_11_lstm1_unit_11_1_split -> h_11_lstm1_unit_11_1_split_1
I0222 17:41:27.260710 25144 net.cpp:122] Setting up h_11_lstm1_unit_11_1_split
I0222 17:41:27.260715 25144 net.cpp:129] Top shape: 1 26 64 (1664)
I0222 17:41:27.260717 25144 net.cpp:129] Top shape: 1 26 64 (1664)
I0222 17:41:27.260720 25144 net.cpp:137] Memory required for data: 2255552
I0222 17:41:27.260723 25144 layer_factory.hpp:77] Creating layer lstm1_h_conted_11
I0222 17:41:27.260732 25144 net.cpp:84] Creating Layer lstm1_h_conted_11
I0222 17:41:27.260736 25144 net.cpp:406] lstm1_h_conted_11 <- h_11_lstm1_unit_11_1_split_0
I0222 17:41:27.260740 25144 net.cpp:406] lstm1_h_conted_11 <- cont_12_lstm1_cont_slice_11_split_0
I0222 17:41:27.260746 25144 net.cpp:380] lstm1_h_conted_11 -> h_conted_11
I0222 17:41:27.260777 25144 net.cpp:122] Setting up lstm1_h_conted_11
I0222 17:41:27.260782 25144 net.cpp:129] Top shape: 1 26 64 (1664)
I0222 17:41:27.260785 25144 net.cpp:137] Memory required for data: 2262208
I0222 17:41:27.260788 25144 layer_factory.hpp:77] Creating layer lstm1_transform_12
I0222 17:41:27.260793 25144 net.cpp:84] Creating Layer lstm1_transform_12
I0222 17:41:27.260797 25144 net.cpp:406] lstm1_transform_12 <- h_conted_11
I0222 17:41:27.260800 25144 net.cpp:380] lstm1_transform_12 -> W_hc_h_11
I0222 17:41:27.260892 25144 net.cpp:122] Setting up lstm1_transform_12
I0222 17:41:27.260897 25144 net.cpp:129] Top shape: 1 26 256 (6656)
I0222 17:41:27.260900 25144 net.cpp:137] Memory required for data: 2288832
I0222 17:41:27.260905 25144 net.cpp:465] Sharing parameters 'W_hc' owned by layer 'lstm1_transform_1', param index 0
I0222 17:41:27.260907 25144 layer_factory.hpp:77] Creating layer lstm1_gate_input_12
I0222 17:41:27.260912 25144 net.cpp:84] Creating Layer lstm1_gate_input_12
I0222 17:41:27.260915 25144 net.cpp:406] lstm1_gate_input_12 <- W_hc_h_11
I0222 17:41:27.260920 25144 net.cpp:406] lstm1_gate_input_12 <- W_xc_x_12
I0222 17:41:27.260923 25144 net.cpp:380] lstm1_gate_input_12 -> gate_input_12
I0222 17:41:27.260936 25144 net.cpp:122] Setting up lstm1_gate_input_12
I0222 17:41:27.260941 25144 net.cpp:129] Top shape: 1 26 256 (6656)
I0222 17:41:27.260943 25144 net.cpp:137] Memory required for data: 2315456
I0222 17:41:27.260946 25144 layer_factory.hpp:77] Creating layer lstm1_unit_12
I0222 17:41:27.260951 25144 net.cpp:84] Creating Layer lstm1_unit_12
I0222 17:41:27.260953 25144 net.cpp:406] lstm1_unit_12 <- c_11
I0222 17:41:27.260962 25144 net.cpp:406] lstm1_unit_12 <- gate_input_12
I0222 17:41:27.260967 25144 net.cpp:406] lstm1_unit_12 <- cont_12_lstm1_cont_slice_11_split_1
I0222 17:41:27.260972 25144 net.cpp:380] lstm1_unit_12 -> c_12
I0222 17:41:27.260977 25144 net.cpp:380] lstm1_unit_12 -> h_12
I0222 17:41:27.261000 25144 net.cpp:122] Setting up lstm1_unit_12
I0222 17:41:27.261005 25144 net.cpp:129] Top shape: 1 26 64 (1664)
I0222 17:41:27.261008 25144 net.cpp:129] Top shape: 1 26 64 (1664)
I0222 17:41:27.261011 25144 net.cpp:137] Memory required for data: 2328768
I0222 17:41:27.261014 25144 layer_factory.hpp:77] Creating layer h_12_lstm1_unit_12_1_split
I0222 17:41:27.261018 25144 net.cpp:84] Creating Layer h_12_lstm1_unit_12_1_split
I0222 17:41:27.261023 25144 net.cpp:406] h_12_lstm1_unit_12_1_split <- h_12
I0222 17:41:27.261025 25144 net.cpp:380] h_12_lstm1_unit_12_1_split -> h_12_lstm1_unit_12_1_split_0
I0222 17:41:27.261030 25144 net.cpp:380] h_12_lstm1_unit_12_1_split -> h_12_lstm1_unit_12_1_split_1
I0222 17:41:27.261050 25144 net.cpp:122] Setting up h_12_lstm1_unit_12_1_split
I0222 17:41:27.261055 25144 net.cpp:129] Top shape: 1 26 64 (1664)
I0222 17:41:27.261059 25144 net.cpp:129] Top shape: 1 26 64 (1664)
I0222 17:41:27.261061 25144 net.cpp:137] Memory required for data: 2342080
I0222 17:41:27.261065 25144 layer_factory.hpp:77] Creating layer lstm1_h_conted_12
I0222 17:41:27.261070 25144 net.cpp:84] Creating Layer lstm1_h_conted_12
I0222 17:41:27.261072 25144 net.cpp:406] lstm1_h_conted_12 <- h_12_lstm1_unit_12_1_split_0
I0222 17:41:27.261076 25144 net.cpp:406] lstm1_h_conted_12 <- cont_13_lstm1_cont_slice_12_split_0
I0222 17:41:27.261081 25144 net.cpp:380] lstm1_h_conted_12 -> h_conted_12
I0222 17:41:27.261112 25144 net.cpp:122] Setting up lstm1_h_conted_12
I0222 17:41:27.261117 25144 net.cpp:129] Top shape: 1 26 64 (1664)
I0222 17:41:27.261121 25144 net.cpp:137] Memory required for data: 2348736
I0222 17:41:27.261123 25144 layer_factory.hpp:77] Creating layer lstm1_transform_13
I0222 17:41:27.261128 25144 net.cpp:84] Creating Layer lstm1_transform_13
I0222 17:41:27.261132 25144 net.cpp:406] lstm1_transform_13 <- h_conted_12
I0222 17:41:27.261135 25144 net.cpp:380] lstm1_transform_13 -> W_hc_h_12
I0222 17:41:27.261226 25144 net.cpp:122] Setting up lstm1_transform_13
I0222 17:41:27.261231 25144 net.cpp:129] Top shape: 1 26 256 (6656)
I0222 17:41:27.261234 25144 net.cpp:137] Memory required for data: 2375360
I0222 17:41:27.261238 25144 net.cpp:465] Sharing parameters 'W_hc' owned by layer 'lstm1_transform_1', param index 0
I0222 17:41:27.261241 25144 layer_factory.hpp:77] Creating layer lstm1_gate_input_13
I0222 17:41:27.261245 25144 net.cpp:84] Creating Layer lstm1_gate_input_13
I0222 17:41:27.261248 25144 net.cpp:406] lstm1_gate_input_13 <- W_hc_h_12
I0222 17:41:27.261252 25144 net.cpp:406] lstm1_gate_input_13 <- W_xc_x_13
I0222 17:41:27.287506 25144 net.cpp:380] lstm1_gate_input_13 -> gate_input_13
I0222 17:41:27.287551 25144 net.cpp:122] Setting up lstm1_gate_input_13
I0222 17:41:27.287559 25144 net.cpp:129] Top shape: 1 26 256 (6656)
I0222 17:41:27.287561 25144 net.cpp:137] Memory required for data: 2401984
I0222 17:41:27.287564 25144 layer_factory.hpp:77] Creating layer lstm1_unit_13
I0222 17:41:27.287569 25144 net.cpp:84] Creating Layer lstm1_unit_13
I0222 17:41:27.287573 25144 net.cpp:406] lstm1_unit_13 <- c_12
I0222 17:41:27.287577 25144 net.cpp:406] lstm1_unit_13 <- gate_input_13
I0222 17:41:27.287580 25144 net.cpp:406] lstm1_unit_13 <- cont_13_lstm1_cont_slice_12_split_1
I0222 17:41:27.287585 25144 net.cpp:380] lstm1_unit_13 -> c_13
I0222 17:41:27.287590 25144 net.cpp:380] lstm1_unit_13 -> h_13
I0222 17:41:27.287616 25144 net.cpp:122] Setting up lstm1_unit_13
I0222 17:41:27.287621 25144 net.cpp:129] Top shape: 1 26 64 (1664)
I0222 17:41:27.287623 25144 net.cpp:129] Top shape: 1 26 64 (1664)
I0222 17:41:27.287626 25144 net.cpp:137] Memory required for data: 2415296
I0222 17:41:27.287628 25144 layer_factory.hpp:77] Creating layer h_13_lstm1_unit_13_1_split
I0222 17:41:27.287632 25144 net.cpp:84] Creating Layer h_13_lstm1_unit_13_1_split
I0222 17:41:27.287648 25144 net.cpp:406] h_13_lstm1_unit_13_1_split <- h_13
I0222 17:41:27.287652 25144 net.cpp:380] h_13_lstm1_unit_13_1_split -> h_13_lstm1_unit_13_1_split_0
I0222 17:41:27.287657 25144 net.cpp:380] h_13_lstm1_unit_13_1_split -> h_13_lstm1_unit_13_1_split_1
I0222 17:41:27.287675 25144 net.cpp:122] Setting up h_13_lstm1_unit_13_1_split
I0222 17:41:27.287680 25144 net.cpp:129] Top shape: 1 26 64 (1664)
I0222 17:41:27.287684 25144 net.cpp:129] Top shape: 1 26 64 (1664)
I0222 17:41:27.287686 25144 net.cpp:137] Memory required for data: 2428608
I0222 17:41:27.287689 25144 layer_factory.hpp:77] Creating layer lstm1_h_conted_13
I0222 17:41:27.287694 25144 net.cpp:84] Creating Layer lstm1_h_conted_13
I0222 17:41:27.287698 25144 net.cpp:406] lstm1_h_conted_13 <- h_13_lstm1_unit_13_1_split_0
I0222 17:41:27.287701 25144 net.cpp:406] lstm1_h_conted_13 <- cont_14_lstm1_cont_slice_13_split_0
I0222 17:41:27.287706 25144 net.cpp:380] lstm1_h_conted_13 -> h_conted_13
I0222 17:41:27.287744 25144 net.cpp:122] Setting up lstm1_h_conted_13
I0222 17:41:27.287748 25144 net.cpp:129] Top shape: 1 26 64 (1664)
I0222 17:41:27.287751 25144 net.cpp:137] Memory required for data: 2435264
I0222 17:41:27.287755 25144 layer_factory.hpp:77] Creating layer lstm1_transform_14
I0222 17:41:27.287761 25144 net.cpp:84] Creating Layer lstm1_transform_14
I0222 17:41:27.287765 25144 net.cpp:406] lstm1_transform_14 <- h_conted_13
I0222 17:41:27.287770 25144 net.cpp:380] lstm1_transform_14 -> W_hc_h_13
I0222 17:41:27.287869 25144 net.cpp:122] Setting up lstm1_transform_14
I0222 17:41:27.287875 25144 net.cpp:129] Top shape: 1 26 256 (6656)
I0222 17:41:27.287878 25144 net.cpp:137] Memory required for data: 2461888
I0222 17:41:27.287881 25144 net.cpp:465] Sharing parameters 'W_hc' owned by layer 'lstm1_transform_1', param index 0
I0222 17:41:27.287885 25144 layer_factory.hpp:77] Creating layer lstm1_gate_input_14
I0222 17:41:27.287890 25144 net.cpp:84] Creating Layer lstm1_gate_input_14
I0222 17:41:27.287894 25144 net.cpp:406] lstm1_gate_input_14 <- W_hc_h_13
I0222 17:41:27.287897 25144 net.cpp:406] lstm1_gate_input_14 <- W_xc_x_14
I0222 17:41:27.287901 25144 net.cpp:380] lstm1_gate_input_14 -> gate_input_14
I0222 17:41:27.287916 25144 net.cpp:122] Setting up lstm1_gate_input_14
I0222 17:41:27.287920 25144 net.cpp:129] Top shape: 1 26 256 (6656)
I0222 17:41:27.287923 25144 net.cpp:137] Memory required for data: 2488512
I0222 17:41:27.287926 25144 layer_factory.hpp:77] Creating layer lstm1_unit_14
I0222 17:41:27.287931 25144 net.cpp:84] Creating Layer lstm1_unit_14
I0222 17:41:27.287935 25144 net.cpp:406] lstm1_unit_14 <- c_13
I0222 17:41:27.287938 25144 net.cpp:406] lstm1_unit_14 <- gate_input_14
I0222 17:41:27.287942 25144 net.cpp:406] lstm1_unit_14 <- cont_14_lstm1_cont_slice_13_split_1
I0222 17:41:27.287946 25144 net.cpp:380] lstm1_unit_14 -> c_14
I0222 17:41:27.287950 25144 net.cpp:380] lstm1_unit_14 -> h_14
I0222 17:41:27.287973 25144 net.cpp:122] Setting up lstm1_unit_14
I0222 17:41:27.287978 25144 net.cpp:129] Top shape: 1 26 64 (1664)
I0222 17:41:27.287981 25144 net.cpp:129] Top shape: 1 26 64 (1664)
I0222 17:41:27.287984 25144 net.cpp:137] Memory required for data: 2501824
I0222 17:41:27.287987 25144 layer_factory.hpp:77] Creating layer h_14_lstm1_unit_14_1_split
I0222 17:41:27.287992 25144 net.cpp:84] Creating Layer h_14_lstm1_unit_14_1_split
I0222 17:41:27.287995 25144 net.cpp:406] h_14_lstm1_unit_14_1_split <- h_14
I0222 17:41:27.287999 25144 net.cpp:380] h_14_lstm1_unit_14_1_split -> h_14_lstm1_unit_14_1_split_0
I0222 17:41:27.288004 25144 net.cpp:380] h_14_lstm1_unit_14_1_split -> h_14_lstm1_unit_14_1_split_1
I0222 17:41:27.288020 25144 net.cpp:122] Setting up h_14_lstm1_unit_14_1_split
I0222 17:41:27.288025 25144 net.cpp:129] Top shape: 1 26 64 (1664)
I0222 17:41:27.288028 25144 net.cpp:129] Top shape: 1 26 64 (1664)
I0222 17:41:27.288031 25144 net.cpp:137] Memory required for data: 2515136
I0222 17:41:27.288034 25144 layer_factory.hpp:77] Creating layer lstm1_h_conted_14
I0222 17:41:27.288043 25144 net.cpp:84] Creating Layer lstm1_h_conted_14
I0222 17:41:27.288046 25144 net.cpp:406] lstm1_h_conted_14 <- h_14_lstm1_unit_14_1_split_0
I0222 17:41:27.288050 25144 net.cpp:406] lstm1_h_conted_14 <- cont_15_lstm1_cont_slice_14_split_0
I0222 17:41:27.288055 25144 net.cpp:380] lstm1_h_conted_14 -> h_conted_14
I0222 17:41:27.288086 25144 net.cpp:122] Setting up lstm1_h_conted_14
I0222 17:41:27.288091 25144 net.cpp:129] Top shape: 1 26 64 (1664)
I0222 17:41:27.288094 25144 net.cpp:137] Memory required for data: 2521792
I0222 17:41:27.288097 25144 layer_factory.hpp:77] Creating layer lstm1_transform_15
I0222 17:41:27.288101 25144 net.cpp:84] Creating Layer lstm1_transform_15
I0222 17:41:27.288105 25144 net.cpp:406] lstm1_transform_15 <- h_conted_14
I0222 17:41:27.288110 25144 net.cpp:380] lstm1_transform_15 -> W_hc_h_14
I0222 17:41:27.288203 25144 net.cpp:122] Setting up lstm1_transform_15
I0222 17:41:27.288208 25144 net.cpp:129] Top shape: 1 26 256 (6656)
I0222 17:41:27.288211 25144 net.cpp:137] Memory required for data: 2548416
I0222 17:41:27.288218 25144 net.cpp:465] Sharing parameters 'W_hc' owned by layer 'lstm1_transform_1', param index 0
I0222 17:41:27.288223 25144 layer_factory.hpp:77] Creating layer lstm1_gate_input_15
I0222 17:41:27.288226 25144 net.cpp:84] Creating Layer lstm1_gate_input_15
I0222 17:41:27.288230 25144 net.cpp:406] lstm1_gate_input_15 <- W_hc_h_14
I0222 17:41:27.288233 25144 net.cpp:406] lstm1_gate_input_15 <- W_xc_x_15
I0222 17:41:27.288238 25144 net.cpp:380] lstm1_gate_input_15 -> gate_input_15
I0222 17:41:27.288252 25144 net.cpp:122] Setting up lstm1_gate_input_15
I0222 17:41:27.288256 25144 net.cpp:129] Top shape: 1 26 256 (6656)
I0222 17:41:27.288259 25144 net.cpp:137] Memory required for data: 2575040
I0222 17:41:27.288262 25144 layer_factory.hpp:77] Creating layer lstm1_unit_15
I0222 17:41:27.288266 25144 net.cpp:84] Creating Layer lstm1_unit_15
I0222 17:41:27.288269 25144 net.cpp:406] lstm1_unit_15 <- c_14
I0222 17:41:27.288274 25144 net.cpp:406] lstm1_unit_15 <- gate_input_15
I0222 17:41:27.288277 25144 net.cpp:406] lstm1_unit_15 <- cont_15_lstm1_cont_slice_14_split_1
I0222 17:41:27.288281 25144 net.cpp:380] lstm1_unit_15 -> c_15
I0222 17:41:27.288285 25144 net.cpp:380] lstm1_unit_15 -> h_15
I0222 17:41:27.288311 25144 net.cpp:122] Setting up lstm1_unit_15
I0222 17:41:27.288314 25144 net.cpp:129] Top shape: 1 26 64 (1664)
I0222 17:41:27.288317 25144 net.cpp:129] Top shape: 1 26 64 (1664)
I0222 17:41:27.288321 25144 net.cpp:137] Memory required for data: 2588352
I0222 17:41:27.288323 25144 layer_factory.hpp:77] Creating layer h_15_lstm1_unit_15_1_split
I0222 17:41:27.288328 25144 net.cpp:84] Creating Layer h_15_lstm1_unit_15_1_split
I0222 17:41:27.290407 25144 net.cpp:406] h_15_lstm1_unit_15_1_split <- h_15
I0222 17:41:27.290418 25144 net.cpp:380] h_15_lstm1_unit_15_1_split -> h_15_lstm1_unit_15_1_split_0
I0222 17:41:27.290426 25144 net.cpp:380] h_15_lstm1_unit_15_1_split -> h_15_lstm1_unit_15_1_split_1
I0222 17:41:27.290455 25144 net.cpp:122] Setting up h_15_lstm1_unit_15_1_split
I0222 17:41:27.290462 25144 net.cpp:129] Top shape: 1 26 64 (1664)
I0222 17:41:27.290465 25144 net.cpp:129] Top shape: 1 26 64 (1664)
I0222 17:41:27.290468 25144 net.cpp:137] Memory required for data: 2601664
I0222 17:41:27.290472 25144 layer_factory.hpp:77] Creating layer lstm1_h_conted_15
I0222 17:41:27.290477 25144 net.cpp:84] Creating Layer lstm1_h_conted_15
I0222 17:41:27.290480 25144 net.cpp:406] lstm1_h_conted_15 <- h_15_lstm1_unit_15_1_split_0
I0222 17:41:27.290485 25144 net.cpp:406] lstm1_h_conted_15 <- cont_16_lstm1_cont_slice_15_split_0
I0222 17:41:27.290489 25144 net.cpp:380] lstm1_h_conted_15 -> h_conted_15
I0222 17:41:27.290529 25144 net.cpp:122] Setting up lstm1_h_conted_15
I0222 17:41:27.290534 25144 net.cpp:129] Top shape: 1 26 64 (1664)
I0222 17:41:27.290537 25144 net.cpp:137] Memory required for data: 2608320
I0222 17:41:27.290540 25144 layer_factory.hpp:77] Creating layer lstm1_transform_16
I0222 17:41:27.290545 25144 net.cpp:84] Creating Layer lstm1_transform_16
I0222 17:41:27.290549 25144 net.cpp:406] lstm1_transform_16 <- h_conted_15
I0222 17:41:27.290560 25144 net.cpp:380] lstm1_transform_16 -> W_hc_h_15
I0222 17:41:27.290660 25144 net.cpp:122] Setting up lstm1_transform_16
I0222 17:41:27.290665 25144 net.cpp:129] Top shape: 1 26 256 (6656)
I0222 17:41:27.290668 25144 net.cpp:137] Memory required for data: 2634944
I0222 17:41:27.290673 25144 net.cpp:465] Sharing parameters 'W_hc' owned by layer 'lstm1_transform_1', param index 0
I0222 17:41:27.290675 25144 layer_factory.hpp:77] Creating layer lstm1_gate_input_16
I0222 17:41:27.290680 25144 net.cpp:84] Creating Layer lstm1_gate_input_16
I0222 17:41:27.290683 25144 net.cpp:406] lstm1_gate_input_16 <- W_hc_h_15
I0222 17:41:27.290688 25144 net.cpp:406] lstm1_gate_input_16 <- W_xc_x_16
I0222 17:41:27.290693 25144 net.cpp:380] lstm1_gate_input_16 -> gate_input_16
I0222 17:41:27.290704 25144 net.cpp:122] Setting up lstm1_gate_input_16
I0222 17:41:27.290709 25144 net.cpp:129] Top shape: 1 26 256 (6656)
I0222 17:41:27.290712 25144 net.cpp:137] Memory required for data: 2661568
I0222 17:41:27.290714 25144 layer_factory.hpp:77] Creating layer lstm1_unit_16
I0222 17:41:27.290720 25144 net.cpp:84] Creating Layer lstm1_unit_16
I0222 17:41:27.290724 25144 net.cpp:406] lstm1_unit_16 <- c_15
I0222 17:41:27.290729 25144 net.cpp:406] lstm1_unit_16 <- gate_input_16
I0222 17:41:27.290731 25144 net.cpp:406] lstm1_unit_16 <- cont_16_lstm1_cont_slice_15_split_1
I0222 17:41:27.290735 25144 net.cpp:380] lstm1_unit_16 -> c_16
I0222 17:41:27.290740 25144 net.cpp:380] lstm1_unit_16 -> h_16
I0222 17:41:27.290765 25144 net.cpp:122] Setting up lstm1_unit_16
I0222 17:41:27.290768 25144 net.cpp:129] Top shape: 1 26 64 (1664)
I0222 17:41:27.290772 25144 net.cpp:129] Top shape: 1 26 64 (1664)
I0222 17:41:27.290776 25144 net.cpp:137] Memory required for data: 2674880
I0222 17:41:27.290778 25144 layer_factory.hpp:77] Creating layer h_16_lstm1_unit_16_1_split
I0222 17:41:27.290782 25144 net.cpp:84] Creating Layer h_16_lstm1_unit_16_1_split
I0222 17:41:27.290786 25144 net.cpp:406] h_16_lstm1_unit_16_1_split <- h_16
I0222 17:41:27.290791 25144 net.cpp:380] h_16_lstm1_unit_16_1_split -> h_16_lstm1_unit_16_1_split_0
I0222 17:41:27.290796 25144 net.cpp:380] h_16_lstm1_unit_16_1_split -> h_16_lstm1_unit_16_1_split_1
I0222 17:41:27.290812 25144 net.cpp:122] Setting up h_16_lstm1_unit_16_1_split
I0222 17:41:27.290817 25144 net.cpp:129] Top shape: 1 26 64 (1664)
I0222 17:41:27.290820 25144 net.cpp:129] Top shape: 1 26 64 (1664)
I0222 17:41:27.290822 25144 net.cpp:137] Memory required for data: 2688192
I0222 17:41:27.290825 25144 layer_factory.hpp:77] Creating layer lstm1_h_conted_16
I0222 17:41:27.290830 25144 net.cpp:84] Creating Layer lstm1_h_conted_16
I0222 17:41:27.290834 25144 net.cpp:406] lstm1_h_conted_16 <- h_16_lstm1_unit_16_1_split_0
I0222 17:41:27.290838 25144 net.cpp:406] lstm1_h_conted_16 <- cont_17_lstm1_cont_slice_16_split_0
I0222 17:41:27.290843 25144 net.cpp:380] lstm1_h_conted_16 -> h_conted_16
I0222 17:41:27.290874 25144 net.cpp:122] Setting up lstm1_h_conted_16
I0222 17:41:27.290879 25144 net.cpp:129] Top shape: 1 26 64 (1664)
I0222 17:41:27.290881 25144 net.cpp:137] Memory required for data: 2694848
I0222 17:41:27.290884 25144 layer_factory.hpp:77] Creating layer lstm1_transform_17
I0222 17:41:27.290889 25144 net.cpp:84] Creating Layer lstm1_transform_17
I0222 17:41:27.290892 25144 net.cpp:406] lstm1_transform_17 <- h_conted_16
I0222 17:41:27.290896 25144 net.cpp:380] lstm1_transform_17 -> W_hc_h_16
I0222 17:41:27.290988 25144 net.cpp:122] Setting up lstm1_transform_17
I0222 17:41:27.290993 25144 net.cpp:129] Top shape: 1 26 256 (6656)
I0222 17:41:27.290997 25144 net.cpp:137] Memory required for data: 2721472
I0222 17:41:27.290999 25144 net.cpp:465] Sharing parameters 'W_hc' owned by layer 'lstm1_transform_1', param index 0
I0222 17:41:27.291003 25144 layer_factory.hpp:77] Creating layer lstm1_gate_input_17
I0222 17:41:27.291008 25144 net.cpp:84] Creating Layer lstm1_gate_input_17
I0222 17:41:27.291012 25144 net.cpp:406] lstm1_gate_input_17 <- W_hc_h_16
I0222 17:41:27.291015 25144 net.cpp:406] lstm1_gate_input_17 <- W_xc_x_17
I0222 17:41:27.291024 25144 net.cpp:380] lstm1_gate_input_17 -> gate_input_17
I0222 17:41:27.291038 25144 net.cpp:122] Setting up lstm1_gate_input_17
I0222 17:41:27.291043 25144 net.cpp:129] Top shape: 1 26 256 (6656)
I0222 17:41:27.291044 25144 net.cpp:137] Memory required for data: 2748096
I0222 17:41:27.291048 25144 layer_factory.hpp:77] Creating layer lstm1_unit_17
I0222 17:41:27.291052 25144 net.cpp:84] Creating Layer lstm1_unit_17
I0222 17:41:27.291055 25144 net.cpp:406] lstm1_unit_17 <- c_16
I0222 17:41:27.291059 25144 net.cpp:406] lstm1_unit_17 <- gate_input_17
I0222 17:41:27.291064 25144 net.cpp:406] lstm1_unit_17 <- cont_17_lstm1_cont_slice_16_split_1
I0222 17:41:27.291069 25144 net.cpp:380] lstm1_unit_17 -> c_17
I0222 17:41:27.291074 25144 net.cpp:380] lstm1_unit_17 -> h_17
I0222 17:41:27.291096 25144 net.cpp:122] Setting up lstm1_unit_17
I0222 17:41:27.291101 25144 net.cpp:129] Top shape: 1 26 64 (1664)
I0222 17:41:27.291105 25144 net.cpp:129] Top shape: 1 26 64 (1664)
I0222 17:41:27.291107 25144 net.cpp:137] Memory required for data: 2761408
I0222 17:41:27.291110 25144 layer_factory.hpp:77] Creating layer h_17_lstm1_unit_17_1_split
I0222 17:41:27.291115 25144 net.cpp:84] Creating Layer h_17_lstm1_unit_17_1_split
I0222 17:41:27.291117 25144 net.cpp:406] h_17_lstm1_unit_17_1_split <- h_17
I0222 17:41:27.291121 25144 net.cpp:380] h_17_lstm1_unit_17_1_split -> h_17_lstm1_unit_17_1_split_0
I0222 17:41:27.291126 25144 net.cpp:380] h_17_lstm1_unit_17_1_split -> h_17_lstm1_unit_17_1_split_1
I0222 17:41:27.291143 25144 net.cpp:122] Setting up h_17_lstm1_unit_17_1_split
I0222 17:41:27.291147 25144 net.cpp:129] Top shape: 1 26 64 (1664)
I0222 17:41:27.291152 25144 net.cpp:129] Top shape: 1 26 64 (1664)
I0222 17:41:27.291154 25144 net.cpp:137] Memory required for data: 2774720
I0222 17:41:27.291157 25144 layer_factory.hpp:77] Creating layer lstm1_h_conted_17
I0222 17:41:27.291162 25144 net.cpp:84] Creating Layer lstm1_h_conted_17
I0222 17:41:27.291165 25144 net.cpp:406] lstm1_h_conted_17 <- h_17_lstm1_unit_17_1_split_0
I0222 17:41:27.291169 25144 net.cpp:406] lstm1_h_conted_17 <- cont_18_lstm1_cont_slice_17_split_0
I0222 17:41:27.291173 25144 net.cpp:380] lstm1_h_conted_17 -> h_conted_17
I0222 17:41:27.291204 25144 net.cpp:122] Setting up lstm1_h_conted_17
I0222 17:41:27.291209 25144 net.cpp:129] Top shape: 1 26 64 (1664)
I0222 17:41:27.291213 25144 net.cpp:137] Memory required for data: 2781376
I0222 17:41:27.318558 25144 layer_factory.hpp:77] Creating layer lstm1_transform_18
I0222 17:41:27.318574 25144 net.cpp:84] Creating Layer lstm1_transform_18
I0222 17:41:27.318581 25144 net.cpp:406] lstm1_transform_18 <- h_conted_17
I0222 17:41:27.318588 25144 net.cpp:380] lstm1_transform_18 -> W_hc_h_17
I0222 17:41:27.318707 25144 net.cpp:122] Setting up lstm1_transform_18
I0222 17:41:27.318716 25144 net.cpp:129] Top shape: 1 26 256 (6656)
I0222 17:41:27.318719 25144 net.cpp:137] Memory required for data: 2808000
I0222 17:41:27.318724 25144 net.cpp:465] Sharing parameters 'W_hc' owned by layer 'lstm1_transform_1', param index 0
I0222 17:41:27.318729 25144 layer_factory.hpp:77] Creating layer lstm1_gate_input_18
I0222 17:41:27.318734 25144 net.cpp:84] Creating Layer lstm1_gate_input_18
I0222 17:41:27.318738 25144 net.cpp:406] lstm1_gate_input_18 <- W_hc_h_17
I0222 17:41:27.318743 25144 net.cpp:406] lstm1_gate_input_18 <- W_xc_x_18
I0222 17:41:27.318750 25144 net.cpp:380] lstm1_gate_input_18 -> gate_input_18
I0222 17:41:27.318768 25144 net.cpp:122] Setting up lstm1_gate_input_18
I0222 17:41:27.318773 25144 net.cpp:129] Top shape: 1 26 256 (6656)
I0222 17:41:27.318776 25144 net.cpp:137] Memory required for data: 2834624
I0222 17:41:27.318779 25144 layer_factory.hpp:77] Creating layer lstm1_unit_18
I0222 17:41:27.318785 25144 net.cpp:84] Creating Layer lstm1_unit_18
I0222 17:41:27.318789 25144 net.cpp:406] lstm1_unit_18 <- c_17
I0222 17:41:27.318794 25144 net.cpp:406] lstm1_unit_18 <- gate_input_18
I0222 17:41:27.318799 25144 net.cpp:406] lstm1_unit_18 <- cont_18_lstm1_cont_slice_17_split_1
I0222 17:41:27.318812 25144 net.cpp:380] lstm1_unit_18 -> c_18
I0222 17:41:27.318819 25144 net.cpp:380] lstm1_unit_18 -> h_18
I0222 17:41:27.318845 25144 net.cpp:122] Setting up lstm1_unit_18
I0222 17:41:27.318851 25144 net.cpp:129] Top shape: 1 26 64 (1664)
I0222 17:41:27.318856 25144 net.cpp:129] Top shape: 1 26 64 (1664)
I0222 17:41:27.318859 25144 net.cpp:137] Memory required for data: 2847936
I0222 17:41:27.318862 25144 layer_factory.hpp:77] Creating layer h_18_lstm1_unit_18_1_split
I0222 17:41:27.318867 25144 net.cpp:84] Creating Layer h_18_lstm1_unit_18_1_split
I0222 17:41:27.318871 25144 net.cpp:406] h_18_lstm1_unit_18_1_split <- h_18
I0222 17:41:27.318876 25144 net.cpp:380] h_18_lstm1_unit_18_1_split -> h_18_lstm1_unit_18_1_split_0
I0222 17:41:27.318882 25144 net.cpp:380] h_18_lstm1_unit_18_1_split -> h_18_lstm1_unit_18_1_split_1
I0222 17:41:27.318902 25144 net.cpp:122] Setting up h_18_lstm1_unit_18_1_split
I0222 17:41:27.318907 25144 net.cpp:129] Top shape: 1 26 64 (1664)
I0222 17:41:27.318912 25144 net.cpp:129] Top shape: 1 26 64 (1664)
I0222 17:41:27.318915 25144 net.cpp:137] Memory required for data: 2861248
I0222 17:41:27.318918 25144 layer_factory.hpp:77] Creating layer lstm1_h_conted_18
I0222 17:41:27.318923 25144 net.cpp:84] Creating Layer lstm1_h_conted_18
I0222 17:41:27.318928 25144 net.cpp:406] lstm1_h_conted_18 <- h_18_lstm1_unit_18_1_split_0
I0222 17:41:27.318933 25144 net.cpp:406] lstm1_h_conted_18 <- cont_19_lstm1_cont_slice_18_split_0
I0222 17:41:27.318938 25144 net.cpp:380] lstm1_h_conted_18 -> h_conted_18
I0222 17:41:27.318971 25144 net.cpp:122] Setting up lstm1_h_conted_18
I0222 17:41:27.318977 25144 net.cpp:129] Top shape: 1 26 64 (1664)
I0222 17:41:27.318980 25144 net.cpp:137] Memory required for data: 2867904
I0222 17:41:27.318984 25144 layer_factory.hpp:77] Creating layer lstm1_transform_19
I0222 17:41:27.318989 25144 net.cpp:84] Creating Layer lstm1_transform_19
I0222 17:41:27.318994 25144 net.cpp:406] lstm1_transform_19 <- h_conted_18
I0222 17:41:27.319000 25144 net.cpp:380] lstm1_transform_19 -> W_hc_h_18
I0222 17:41:27.319094 25144 net.cpp:122] Setting up lstm1_transform_19
I0222 17:41:27.319100 25144 net.cpp:129] Top shape: 1 26 256 (6656)
I0222 17:41:27.319104 25144 net.cpp:137] Memory required for data: 2894528
I0222 17:41:27.319108 25144 net.cpp:465] Sharing parameters 'W_hc' owned by layer 'lstm1_transform_1', param index 0
I0222 17:41:27.319113 25144 layer_factory.hpp:77] Creating layer lstm1_gate_input_19
I0222 17:41:27.319118 25144 net.cpp:84] Creating Layer lstm1_gate_input_19
I0222 17:41:27.319121 25144 net.cpp:406] lstm1_gate_input_19 <- W_hc_h_18
I0222 17:41:27.319125 25144 net.cpp:406] lstm1_gate_input_19 <- W_xc_x_19
I0222 17:41:27.319130 25144 net.cpp:380] lstm1_gate_input_19 -> gate_input_19
I0222 17:41:27.319146 25144 net.cpp:122] Setting up lstm1_gate_input_19
I0222 17:41:27.319151 25144 net.cpp:129] Top shape: 1 26 256 (6656)
I0222 17:41:27.319154 25144 net.cpp:137] Memory required for data: 2921152
I0222 17:41:27.319159 25144 layer_factory.hpp:77] Creating layer lstm1_unit_19
I0222 17:41:27.319164 25144 net.cpp:84] Creating Layer lstm1_unit_19
I0222 17:41:27.319169 25144 net.cpp:406] lstm1_unit_19 <- c_18
I0222 17:41:27.319173 25144 net.cpp:406] lstm1_unit_19 <- gate_input_19
I0222 17:41:27.319177 25144 net.cpp:406] lstm1_unit_19 <- cont_19_lstm1_cont_slice_18_split_1
I0222 17:41:27.319182 25144 net.cpp:380] lstm1_unit_19 -> c_19
I0222 17:41:27.319187 25144 net.cpp:380] lstm1_unit_19 -> h_19
I0222 17:41:27.319214 25144 net.cpp:122] Setting up lstm1_unit_19
I0222 17:41:27.319219 25144 net.cpp:129] Top shape: 1 26 64 (1664)
I0222 17:41:27.319224 25144 net.cpp:129] Top shape: 1 26 64 (1664)
I0222 17:41:27.319227 25144 net.cpp:137] Memory required for data: 2934464
I0222 17:41:27.319231 25144 layer_factory.hpp:77] Creating layer h_19_lstm1_unit_19_1_split
I0222 17:41:27.319236 25144 net.cpp:84] Creating Layer h_19_lstm1_unit_19_1_split
I0222 17:41:27.319241 25144 net.cpp:406] h_19_lstm1_unit_19_1_split <- h_19
I0222 17:41:27.319245 25144 net.cpp:380] h_19_lstm1_unit_19_1_split -> h_19_lstm1_unit_19_1_split_0
I0222 17:41:27.319257 25144 net.cpp:380] h_19_lstm1_unit_19_1_split -> h_19_lstm1_unit_19_1_split_1
I0222 17:41:27.319279 25144 net.cpp:122] Setting up h_19_lstm1_unit_19_1_split
I0222 17:41:27.319285 25144 net.cpp:129] Top shape: 1 26 64 (1664)
I0222 17:41:27.319289 25144 net.cpp:129] Top shape: 1 26 64 (1664)
I0222 17:41:27.319293 25144 net.cpp:137] Memory required for data: 2947776
I0222 17:41:27.319296 25144 layer_factory.hpp:77] Creating layer lstm1_h_conted_19
I0222 17:41:27.319301 25144 net.cpp:84] Creating Layer lstm1_h_conted_19
I0222 17:41:27.319305 25144 net.cpp:406] lstm1_h_conted_19 <- h_19_lstm1_unit_19_1_split_0
I0222 17:41:27.319310 25144 net.cpp:406] lstm1_h_conted_19 <- cont_20_lstm1_cont_slice_19_split_0
I0222 17:41:27.319315 25144 net.cpp:380] lstm1_h_conted_19 -> h_conted_19
I0222 17:41:27.319347 25144 net.cpp:122] Setting up lstm1_h_conted_19
I0222 17:41:27.319353 25144 net.cpp:129] Top shape: 1 26 64 (1664)
I0222 17:41:27.319356 25144 net.cpp:137] Memory required for data: 2954432
I0222 17:41:27.319360 25144 layer_factory.hpp:77] Creating layer lstm1_transform_20
I0222 17:41:27.319365 25144 net.cpp:84] Creating Layer lstm1_transform_20
I0222 17:41:27.319370 25144 net.cpp:406] lstm1_transform_20 <- h_conted_19
I0222 17:41:27.319375 25144 net.cpp:380] lstm1_transform_20 -> W_hc_h_19
I0222 17:41:27.319474 25144 net.cpp:122] Setting up lstm1_transform_20
I0222 17:41:27.319481 25144 net.cpp:129] Top shape: 1 26 256 (6656)
I0222 17:41:27.319484 25144 net.cpp:137] Memory required for data: 2981056
I0222 17:41:27.319489 25144 net.cpp:465] Sharing parameters 'W_hc' owned by layer 'lstm1_transform_1', param index 0
I0222 17:41:27.319492 25144 layer_factory.hpp:77] Creating layer lstm1_gate_input_20
I0222 17:41:27.319497 25144 net.cpp:84] Creating Layer lstm1_gate_input_20
I0222 17:41:27.319501 25144 net.cpp:406] lstm1_gate_input_20 <- W_hc_h_19
I0222 17:41:27.319506 25144 net.cpp:406] lstm1_gate_input_20 <- W_xc_x_20
I0222 17:41:27.319511 25144 net.cpp:380] lstm1_gate_input_20 -> gate_input_20
I0222 17:41:27.319525 25144 net.cpp:122] Setting up lstm1_gate_input_20
I0222 17:41:27.319530 25144 net.cpp:129] Top shape: 1 26 256 (6656)
I0222 17:41:27.319535 25144 net.cpp:137] Memory required for data: 3007680
I0222 17:41:27.322337 25144 layer_factory.hpp:77] Creating layer lstm1_unit_20
I0222 17:41:27.322365 25144 net.cpp:84] Creating Layer lstm1_unit_20
I0222 17:41:27.322371 25144 net.cpp:406] lstm1_unit_20 <- c_19
I0222 17:41:27.322376 25144 net.cpp:406] lstm1_unit_20 <- gate_input_20
I0222 17:41:27.322381 25144 net.cpp:406] lstm1_unit_20 <- cont_20_lstm1_cont_slice_19_split_1
I0222 17:41:27.322387 25144 net.cpp:380] lstm1_unit_20 -> c_20
I0222 17:41:27.322394 25144 net.cpp:380] lstm1_unit_20 -> h_20
I0222 17:41:27.322441 25144 net.cpp:122] Setting up lstm1_unit_20
I0222 17:41:27.322448 25144 net.cpp:129] Top shape: 1 26 64 (1664)
I0222 17:41:27.322453 25144 net.cpp:129] Top shape: 1 26 64 (1664)
I0222 17:41:27.322456 25144 net.cpp:137] Memory required for data: 3020992
I0222 17:41:27.322460 25144 layer_factory.hpp:77] Creating layer h_20_lstm1_unit_20_1_split
I0222 17:41:27.322476 25144 net.cpp:84] Creating Layer h_20_lstm1_unit_20_1_split
I0222 17:41:27.322480 25144 net.cpp:406] h_20_lstm1_unit_20_1_split <- h_20
I0222 17:41:27.322486 25144 net.cpp:380] h_20_lstm1_unit_20_1_split -> h_20_lstm1_unit_20_1_split_0
I0222 17:41:27.322491 25144 net.cpp:380] h_20_lstm1_unit_20_1_split -> h_20_lstm1_unit_20_1_split_1
I0222 17:41:27.322512 25144 net.cpp:122] Setting up h_20_lstm1_unit_20_1_split
I0222 17:41:27.322518 25144 net.cpp:129] Top shape: 1 26 64 (1664)
I0222 17:41:27.322523 25144 net.cpp:129] Top shape: 1 26 64 (1664)
I0222 17:41:27.322526 25144 net.cpp:137] Memory required for data: 3034304
I0222 17:41:27.322530 25144 layer_factory.hpp:77] Creating layer lstm1_h_conted_20
I0222 17:41:27.322536 25144 net.cpp:84] Creating Layer lstm1_h_conted_20
I0222 17:41:27.322540 25144 net.cpp:406] lstm1_h_conted_20 <- h_20_lstm1_unit_20_1_split_0
I0222 17:41:27.322546 25144 net.cpp:406] lstm1_h_conted_20 <- cont_21_lstm1_cont_slice_20_split_0
I0222 17:41:27.322559 25144 net.cpp:380] lstm1_h_conted_20 -> h_conted_20
I0222 17:41:27.322593 25144 net.cpp:122] Setting up lstm1_h_conted_20
I0222 17:41:27.322599 25144 net.cpp:129] Top shape: 1 26 64 (1664)
I0222 17:41:27.322602 25144 net.cpp:137] Memory required for data: 3040960
I0222 17:41:27.322607 25144 layer_factory.hpp:77] Creating layer lstm1_transform_21
I0222 17:41:27.322615 25144 net.cpp:84] Creating Layer lstm1_transform_21
I0222 17:41:27.322619 25144 net.cpp:406] lstm1_transform_21 <- h_conted_20
I0222 17:41:27.322624 25144 net.cpp:380] lstm1_transform_21 -> W_hc_h_20
I0222 17:41:27.322718 25144 net.cpp:122] Setting up lstm1_transform_21
I0222 17:41:27.322724 25144 net.cpp:129] Top shape: 1 26 256 (6656)
I0222 17:41:27.322728 25144 net.cpp:137] Memory required for data: 3067584
I0222 17:41:27.322732 25144 net.cpp:465] Sharing parameters 'W_hc' owned by layer 'lstm1_transform_1', param index 0
I0222 17:41:27.322736 25144 layer_factory.hpp:77] Creating layer lstm1_gate_input_21
I0222 17:41:27.322741 25144 net.cpp:84] Creating Layer lstm1_gate_input_21
I0222 17:41:27.322746 25144 net.cpp:406] lstm1_gate_input_21 <- W_hc_h_20
I0222 17:41:27.322749 25144 net.cpp:406] lstm1_gate_input_21 <- W_xc_x_21
I0222 17:41:27.322755 25144 net.cpp:380] lstm1_gate_input_21 -> gate_input_21
I0222 17:41:27.322769 25144 net.cpp:122] Setting up lstm1_gate_input_21
I0222 17:41:27.322774 25144 net.cpp:129] Top shape: 1 26 256 (6656)
I0222 17:41:27.322778 25144 net.cpp:137] Memory required for data: 3094208
I0222 17:41:27.322782 25144 layer_factory.hpp:77] Creating layer lstm1_unit_21
I0222 17:41:27.322787 25144 net.cpp:84] Creating Layer lstm1_unit_21
I0222 17:41:27.322790 25144 net.cpp:406] lstm1_unit_21 <- c_20
I0222 17:41:27.322795 25144 net.cpp:406] lstm1_unit_21 <- gate_input_21
I0222 17:41:27.322799 25144 net.cpp:406] lstm1_unit_21 <- cont_21_lstm1_cont_slice_20_split_1
I0222 17:41:27.322804 25144 net.cpp:380] lstm1_unit_21 -> c_21
I0222 17:41:27.322810 25144 net.cpp:380] lstm1_unit_21 -> h_21
I0222 17:41:27.322834 25144 net.cpp:122] Setting up lstm1_unit_21
I0222 17:41:27.322839 25144 net.cpp:129] Top shape: 1 26 64 (1664)
I0222 17:41:27.322844 25144 net.cpp:129] Top shape: 1 26 64 (1664)
I0222 17:41:27.322847 25144 net.cpp:137] Memory required for data: 3107520
I0222 17:41:27.322851 25144 layer_factory.hpp:77] Creating layer h_21_lstm1_unit_21_1_split
I0222 17:41:27.322855 25144 net.cpp:84] Creating Layer h_21_lstm1_unit_21_1_split
I0222 17:41:27.322860 25144 net.cpp:406] h_21_lstm1_unit_21_1_split <- h_21
I0222 17:41:27.322865 25144 net.cpp:380] h_21_lstm1_unit_21_1_split -> h_21_lstm1_unit_21_1_split_0
I0222 17:41:27.322870 25144 net.cpp:380] h_21_lstm1_unit_21_1_split -> h_21_lstm1_unit_21_1_split_1
I0222 17:41:27.322888 25144 net.cpp:122] Setting up h_21_lstm1_unit_21_1_split
I0222 17:41:27.322893 25144 net.cpp:129] Top shape: 1 26 64 (1664)
I0222 17:41:27.322898 25144 net.cpp:129] Top shape: 1 26 64 (1664)
I0222 17:41:27.322901 25144 net.cpp:137] Memory required for data: 3120832
I0222 17:41:27.322904 25144 layer_factory.hpp:77] Creating layer lstm1_h_conted_21
I0222 17:41:27.322909 25144 net.cpp:84] Creating Layer lstm1_h_conted_21
I0222 17:41:27.322913 25144 net.cpp:406] lstm1_h_conted_21 <- h_21_lstm1_unit_21_1_split_0
I0222 17:41:27.322918 25144 net.cpp:406] lstm1_h_conted_21 <- cont_22_lstm1_cont_slice_21_split_0
I0222 17:41:27.322924 25144 net.cpp:380] lstm1_h_conted_21 -> h_conted_21
I0222 17:41:27.322957 25144 net.cpp:122] Setting up lstm1_h_conted_21
I0222 17:41:27.322962 25144 net.cpp:129] Top shape: 1 26 64 (1664)
I0222 17:41:27.322966 25144 net.cpp:137] Memory required for data: 3127488
I0222 17:41:27.322969 25144 layer_factory.hpp:77] Creating layer lstm1_transform_22
I0222 17:41:27.322975 25144 net.cpp:84] Creating Layer lstm1_transform_22
I0222 17:41:27.322979 25144 net.cpp:406] lstm1_transform_22 <- h_conted_21
I0222 17:41:27.322984 25144 net.cpp:380] lstm1_transform_22 -> W_hc_h_21
I0222 17:41:27.323077 25144 net.cpp:122] Setting up lstm1_transform_22
I0222 17:41:27.323088 25144 net.cpp:129] Top shape: 1 26 256 (6656)
I0222 17:41:27.323091 25144 net.cpp:137] Memory required for data: 3154112
I0222 17:41:27.323096 25144 net.cpp:465] Sharing parameters 'W_hc' owned by layer 'lstm1_transform_1', param index 0
I0222 17:41:27.323101 25144 layer_factory.hpp:77] Creating layer lstm1_gate_input_22
I0222 17:41:27.323105 25144 net.cpp:84] Creating Layer lstm1_gate_input_22
I0222 17:41:27.323108 25144 net.cpp:406] lstm1_gate_input_22 <- W_hc_h_21
I0222 17:41:27.323113 25144 net.cpp:406] lstm1_gate_input_22 <- W_xc_x_22
I0222 17:41:27.323118 25144 net.cpp:380] lstm1_gate_input_22 -> gate_input_22
I0222 17:41:27.323133 25144 net.cpp:122] Setting up lstm1_gate_input_22
I0222 17:41:27.323138 25144 net.cpp:129] Top shape: 1 26 256 (6656)
I0222 17:41:27.323141 25144 net.cpp:137] Memory required for data: 3180736
I0222 17:41:27.323145 25144 layer_factory.hpp:77] Creating layer lstm1_unit_22
I0222 17:41:27.323151 25144 net.cpp:84] Creating Layer lstm1_unit_22
I0222 17:41:27.323154 25144 net.cpp:406] lstm1_unit_22 <- c_21
I0222 17:41:27.323159 25144 net.cpp:406] lstm1_unit_22 <- gate_input_22
I0222 17:41:27.323164 25144 net.cpp:406] lstm1_unit_22 <- cont_22_lstm1_cont_slice_21_split_1
I0222 17:41:27.323168 25144 net.cpp:380] lstm1_unit_22 -> c_22
I0222 17:41:27.323174 25144 net.cpp:380] lstm1_unit_22 -> h_22
I0222 17:41:27.323199 25144 net.cpp:122] Setting up lstm1_unit_22
I0222 17:41:27.323204 25144 net.cpp:129] Top shape: 1 26 64 (1664)
I0222 17:41:27.323209 25144 net.cpp:129] Top shape: 1 26 64 (1664)
I0222 17:41:27.323211 25144 net.cpp:137] Memory required for data: 3194048
I0222 17:41:27.323215 25144 layer_factory.hpp:77] Creating layer h_22_lstm1_unit_22_1_split
I0222 17:41:27.323220 25144 net.cpp:84] Creating Layer h_22_lstm1_unit_22_1_split
I0222 17:41:27.323225 25144 net.cpp:406] h_22_lstm1_unit_22_1_split <- h_22
I0222 17:41:27.323230 25144 net.cpp:380] h_22_lstm1_unit_22_1_split -> h_22_lstm1_unit_22_1_split_0
I0222 17:41:27.323235 25144 net.cpp:380] h_22_lstm1_unit_22_1_split -> h_22_lstm1_unit_22_1_split_1
I0222 17:41:27.349444 25144 net.cpp:122] Setting up h_22_lstm1_unit_22_1_split
I0222 17:41:27.349453 25144 net.cpp:129] Top shape: 1 26 64 (1664)
I0222 17:41:27.349458 25144 net.cpp:129] Top shape: 1 26 64 (1664)
I0222 17:41:27.349462 25144 net.cpp:137] Memory required for data: 3207360
I0222 17:41:27.349467 25144 layer_factory.hpp:77] Creating layer lstm1_h_conted_22
I0222 17:41:27.349472 25144 net.cpp:84] Creating Layer lstm1_h_conted_22
I0222 17:41:27.349476 25144 net.cpp:406] lstm1_h_conted_22 <- h_22_lstm1_unit_22_1_split_0
I0222 17:41:27.349483 25144 net.cpp:406] lstm1_h_conted_22 <- cont_23_lstm1_cont_slice_22_split_0
I0222 17:41:27.349488 25144 net.cpp:380] lstm1_h_conted_22 -> h_conted_22
I0222 17:41:27.349524 25144 net.cpp:122] Setting up lstm1_h_conted_22
I0222 17:41:27.349529 25144 net.cpp:129] Top shape: 1 26 64 (1664)
I0222 17:41:27.349534 25144 net.cpp:137] Memory required for data: 3214016
I0222 17:41:27.349536 25144 layer_factory.hpp:77] Creating layer lstm1_transform_23
I0222 17:41:27.349542 25144 net.cpp:84] Creating Layer lstm1_transform_23
I0222 17:41:27.349546 25144 net.cpp:406] lstm1_transform_23 <- h_conted_22
I0222 17:41:27.349553 25144 net.cpp:380] lstm1_transform_23 -> W_hc_h_22
I0222 17:41:27.349668 25144 net.cpp:122] Setting up lstm1_transform_23
I0222 17:41:27.349676 25144 net.cpp:129] Top shape: 1 26 256 (6656)
I0222 17:41:27.349680 25144 net.cpp:137] Memory required for data: 3240640
I0222 17:41:27.349684 25144 net.cpp:465] Sharing parameters 'W_hc' owned by layer 'lstm1_transform_1', param index 0
I0222 17:41:27.349689 25144 layer_factory.hpp:77] Creating layer lstm1_gate_input_23
I0222 17:41:27.349695 25144 net.cpp:84] Creating Layer lstm1_gate_input_23
I0222 17:41:27.349699 25144 net.cpp:406] lstm1_gate_input_23 <- W_hc_h_22
I0222 17:41:27.349704 25144 net.cpp:406] lstm1_gate_input_23 <- W_xc_x_23
I0222 17:41:27.349709 25144 net.cpp:380] lstm1_gate_input_23 -> gate_input_23
I0222 17:41:27.349723 25144 net.cpp:122] Setting up lstm1_gate_input_23
I0222 17:41:27.349736 25144 net.cpp:129] Top shape: 1 26 256 (6656)
I0222 17:41:27.349740 25144 net.cpp:137] Memory required for data: 3267264
I0222 17:41:27.349743 25144 layer_factory.hpp:77] Creating layer lstm1_unit_23
I0222 17:41:27.349748 25144 net.cpp:84] Creating Layer lstm1_unit_23
I0222 17:41:27.349752 25144 net.cpp:406] lstm1_unit_23 <- c_22
I0222 17:41:27.349757 25144 net.cpp:406] lstm1_unit_23 <- gate_input_23
I0222 17:41:27.349761 25144 net.cpp:406] lstm1_unit_23 <- cont_23_lstm1_cont_slice_22_split_1
I0222 17:41:27.349768 25144 net.cpp:380] lstm1_unit_23 -> c_23
I0222 17:41:27.349774 25144 net.cpp:380] lstm1_unit_23 -> h_23
I0222 17:41:27.349802 25144 net.cpp:122] Setting up lstm1_unit_23
I0222 17:41:27.349807 25144 net.cpp:129] Top shape: 1 26 64 (1664)
I0222 17:41:27.349812 25144 net.cpp:129] Top shape: 1 26 64 (1664)
I0222 17:41:27.349815 25144 net.cpp:137] Memory required for data: 3280576
I0222 17:41:27.349819 25144 layer_factory.hpp:77] Creating layer h_23_lstm1_unit_23_1_split
I0222 17:41:27.349824 25144 net.cpp:84] Creating Layer h_23_lstm1_unit_23_1_split
I0222 17:41:27.349828 25144 net.cpp:406] h_23_lstm1_unit_23_1_split <- h_23
I0222 17:41:27.349833 25144 net.cpp:380] h_23_lstm1_unit_23_1_split -> h_23_lstm1_unit_23_1_split_0
I0222 17:41:27.349839 25144 net.cpp:380] h_23_lstm1_unit_23_1_split -> h_23_lstm1_unit_23_1_split_1
I0222 17:41:27.349858 25144 net.cpp:122] Setting up h_23_lstm1_unit_23_1_split
I0222 17:41:27.349862 25144 net.cpp:129] Top shape: 1 26 64 (1664)
I0222 17:41:27.349867 25144 net.cpp:129] Top shape: 1 26 64 (1664)
I0222 17:41:27.349870 25144 net.cpp:137] Memory required for data: 3293888
I0222 17:41:27.349874 25144 layer_factory.hpp:77] Creating layer lstm1_h_conted_23
I0222 17:41:27.349880 25144 net.cpp:84] Creating Layer lstm1_h_conted_23
I0222 17:41:27.349884 25144 net.cpp:406] lstm1_h_conted_23 <- h_23_lstm1_unit_23_1_split_0
I0222 17:41:27.349889 25144 net.cpp:406] lstm1_h_conted_23 <- cont_24_lstm1_cont_slice_23_split_0
I0222 17:41:27.349895 25144 net.cpp:380] lstm1_h_conted_23 -> h_conted_23
I0222 17:41:27.349927 25144 net.cpp:122] Setting up lstm1_h_conted_23
I0222 17:41:27.349933 25144 net.cpp:129] Top shape: 1 26 64 (1664)
I0222 17:41:27.349937 25144 net.cpp:137] Memory required for data: 3300544
I0222 17:41:27.349941 25144 layer_factory.hpp:77] Creating layer lstm1_transform_24
I0222 17:41:27.349946 25144 net.cpp:84] Creating Layer lstm1_transform_24
I0222 17:41:27.349951 25144 net.cpp:406] lstm1_transform_24 <- h_conted_23
I0222 17:41:27.349956 25144 net.cpp:380] lstm1_transform_24 -> W_hc_h_23
I0222 17:41:27.350054 25144 net.cpp:122] Setting up lstm1_transform_24
I0222 17:41:27.350061 25144 net.cpp:129] Top shape: 1 26 256 (6656)
I0222 17:41:27.350064 25144 net.cpp:137] Memory required for data: 3327168
I0222 17:41:27.350069 25144 net.cpp:465] Sharing parameters 'W_hc' owned by layer 'lstm1_transform_1', param index 0
I0222 17:41:27.350072 25144 layer_factory.hpp:77] Creating layer lstm1_gate_input_24
I0222 17:41:27.350078 25144 net.cpp:84] Creating Layer lstm1_gate_input_24
I0222 17:41:27.350081 25144 net.cpp:406] lstm1_gate_input_24 <- W_hc_h_23
I0222 17:41:27.350086 25144 net.cpp:406] lstm1_gate_input_24 <- W_xc_x_24
I0222 17:41:27.350092 25144 net.cpp:380] lstm1_gate_input_24 -> gate_input_24
I0222 17:41:27.350106 25144 net.cpp:122] Setting up lstm1_gate_input_24
I0222 17:41:27.350112 25144 net.cpp:129] Top shape: 1 26 256 (6656)
I0222 17:41:27.350116 25144 net.cpp:137] Memory required for data: 3353792
I0222 17:41:27.350119 25144 layer_factory.hpp:77] Creating layer lstm1_unit_24
I0222 17:41:27.350124 25144 net.cpp:84] Creating Layer lstm1_unit_24
I0222 17:41:27.350127 25144 net.cpp:406] lstm1_unit_24 <- c_23
I0222 17:41:27.350132 25144 net.cpp:406] lstm1_unit_24 <- gate_input_24
I0222 17:41:27.350136 25144 net.cpp:406] lstm1_unit_24 <- cont_24_lstm1_cont_slice_23_split_1
I0222 17:41:27.350142 25144 net.cpp:380] lstm1_unit_24 -> c_24
I0222 17:41:27.350148 25144 net.cpp:380] lstm1_unit_24 -> h_24
I0222 17:41:27.350177 25144 net.cpp:122] Setting up lstm1_unit_24
I0222 17:41:27.350186 25144 net.cpp:129] Top shape: 1 26 64 (1664)
I0222 17:41:27.350191 25144 net.cpp:129] Top shape: 1 26 64 (1664)
I0222 17:41:27.350195 25144 net.cpp:137] Memory required for data: 3367104
I0222 17:41:27.350198 25144 layer_factory.hpp:77] Creating layer lstm1_
I0222 17:41:27.350203 25144 net.cpp:84] Creating Layer lstm1_
I0222 17:41:27.350208 25144 net.cpp:406] lstm1_ <- c_24
I0222 17:41:27.350212 25144 net.cpp:380] lstm1_ -> c_T
I0222 17:41:27.350226 25144 net.cpp:122] Setting up lstm1_
I0222 17:41:27.350232 25144 net.cpp:129] Top shape: 1 26 64 (1664)
I0222 17:41:27.350235 25144 net.cpp:137] Memory required for data: 3373760
I0222 17:41:27.350239 25144 layer_factory.hpp:77] Creating layer lstm1_h_concat
I0222 17:41:27.350245 25144 net.cpp:84] Creating Layer lstm1_h_concat
I0222 17:41:27.350250 25144 net.cpp:406] lstm1_h_concat <- h_1_lstm1_unit_1_1_split_1
I0222 17:41:27.350255 25144 net.cpp:406] lstm1_h_concat <- h_2_lstm1_unit_2_1_split_1
…
