…
iter_size: 1
I0228 21:20:45.189699 11999 solver.cpp:87] Creating training net from net file: /home/leonida/ThesisCode/LSTM_on_Create2/src/neural_network_planner/NetModels/LSTM/deep_stack-fc_net.prototxt
I0228 21:20:45.189904 11999 net.cpp:51] Initializing net from parameters: 
name: "LSTM_stack-3-16"
state {
  phase: TRAIN
}
layer {
  name: "Input"
  type: "Input"
  top: "data"
  top: "clip"
  top: "label"
  input_param {
    shape {
      dim: 16
      dim: 13
      dim: 1
    }
    shape {
      dim: 16
      dim: 13
    }
    shape {
      dim: 16
    }
  }
}
layer {
  name: "lstm1"
  type: "LSTM"
  bottom: "data"
  bottom: "clip"
  top: "lstm1"
  recurrent_param {
    num_output: 16
    weight_filler {
      type: "xavier"
    }
    bias_filler {
      type: "constant"
    }
  }
}
layer {
  name: "lstm2"
  type: "LSTM"
  bottom: "lstm1"
  bottom: "clip"
  top: "lstm2"
  recurrent_param {
    num_output: 16
    weight_filler {
      type: "xavier"
    }
    bias_filler {
      type: "constant"
    }
  }
}
layer {
  name: "lstm3"
  type: "LSTM"
  bottom: "lstm2"
  bottom: "clip"
  top: "lstm3"
  recurrent_param {
    num_output: 16
    weight_filler {
      type: "xavier"
    }
    bias_filler {
      type: "constant"
    }
  }
}
layer {
  name: "fc1"
  type: "InnerProduct"
  bottom: "lstm3"
  top: "fc1"
  param {
    lr_mult: 1
    decay_mult: 1
  }
  param {
    lr_mult: 2
    decay_mult: 0
  }
  inner_product_param {
    num_output: 16
    weight_filler {
      type: "gaussian"
      std: 0.01
    }
    bias_filler {
      type: "constant"
      value: 0
    }
  }
}
layer {
  name: "out"
  type: "InnerProduct"
  bottom: "fc1"
  top: "out"
  inner_product_param {
    num_output: 1
    weight_filler {
      type: "gaussian"
      std: 0.1
    }
    bias_filler {
      type: "constant"
    }
  }
}
layer {
  name: "euclideanLoss"
  type: "EuclideanLoss"
  bottom: "out"
  bottom: "label"
  top: "loss"
}
I0228 21:20:45.190001 11999 layer_factory.hpp:77] Creating layer Input
I0228 21:20:45.190021 11999 net.cpp:84] Creating Layer Input
I0228 21:20:45.190028 11999 net.cpp:380] Input -> data
I0228 21:20:45.190052 11999 net.cpp:380] Input -> clip
I0228 21:20:45.190060 11999 net.cpp:380] Input -> label
I0228 21:20:45.190745 11999 net.cpp:122] Setting up Input
I0228 21:20:45.190778 11999 net.cpp:129] Top shape: 16 13 1 (208)
I0228 21:20:45.190784 11999 net.cpp:129] Top shape: 16 13 (208)
I0228 21:20:45.190789 11999 net.cpp:129] Top shape: 16 (16)
I0228 21:20:45.190793 11999 net.cpp:137] Memory required for data: 1728
I0228 21:20:45.190798 11999 layer_factory.hpp:77] Creating layer clip_Input_1_split
I0228 21:20:45.190809 11999 net.cpp:84] Creating Layer clip_Input_1_split
I0228 21:20:45.190816 11999 net.cpp:406] clip_Input_1_split <- clip
I0228 21:20:45.190837 11999 net.cpp:380] clip_Input_1_split -> clip_Input_1_split_0
I0228 21:20:45.190843 11999 net.cpp:380] clip_Input_1_split -> clip_Input_1_split_1
I0228 21:20:45.190848 11999 net.cpp:380] clip_Input_1_split -> clip_Input_1_split_2
I0228 21:20:45.190881 11999 net.cpp:122] Setting up clip_Input_1_split
I0228 21:20:45.190888 11999 net.cpp:129] Top shape: 16 13 (208)
I0228 21:20:45.190893 11999 net.cpp:129] Top shape: 16 13 (208)
I0228 21:20:45.190907 11999 net.cpp:129] Top shape: 16 13 (208)
I0228 21:20:45.190909 11999 net.cpp:137] Memory required for data: 4224
I0228 21:20:45.190912 11999 layer_factory.hpp:77] Creating layer lstm1
I0228 21:20:45.190922 11999 net.cpp:84] Creating Layer lstm1
I0228 21:20:45.190925 11999 net.cpp:406] lstm1 <- data
I0228 21:20:45.190929 11999 net.cpp:406] lstm1 <- clip_Input_1_split_0
I0228 21:20:45.190934 11999 net.cpp:380] lstm1 -> lstm1
I0228 21:20:45.190946 11999 recurrent_layer.cpp:20] Initializing recurrent layer: assuming input batch contains 16 timesteps of 13 independent streams.
I0228 21:20:45.191370 11999 net.cpp:51] Initializing net from parameters: 
layer {
  name: "lstm1_"
  type: "Input"
  top: "x"
  top: "cont"
  input_param {
    shape {
      dim: 16
      dim: 13
      dim: 1
    }
    shape {
      dim: 16
      dim: 13
    }
  }
}
layer {
  name: "lstm1_"
  type: "Input"
  top: "c_0"
  top: "h_0"
  input_param {
    shape {
      dim: 1
      dim: 13
      dim: 16
    }
    shape {
      dim: 1
      dim: 13
      dim: 16
    }
  }
}
layer {
  name: "lstm1_cont_slice"
  type: "Slice"
  bottom: "cont"
  top: "cont_1"
  top: "cont_2"
  top: "cont_3"
  top: "cont_4"
  top: "cont_5"
  top: "cont_6"
  top: "cont_7"
  top: "cont_8"
  top: "cont_9"
  top: "cont_10"
  top: "cont_11"
  top: "cont_12"
  top: "cont_13"
  top: "cont_14"
  top: "cont_15"
  top: "cont_16"
  slice_param {
    axis: 0
  }
}
layer {
  name: "lstm1_x_transform"
  type: "InnerProduct"
  bottom: "x"
  top: "W_xc_x"
  param {
    name: "W_xc"
  }
  param {
    name: "b_c"
  }
  propagate_down: true
  inner_product_param {
    num_output: 64
    bias_term: true
    weight_filler {
      type: "xavier"
    }
    bias_filler {
      type: "constant"
    }
    axis: 2
  }
}
layer {
  name: "lstm1_W_xc_x_slice"
  type: "Slice"
  bottom: "W_xc_x"
  top: "W_xc_x_1"
  top: "W_xc_x_2"
  top: "W_xc_x_3"
  top: "W_xc_x_4"
  top: "W_xc_x_5"
  top: "W_xc_x_6"
  top: "W_xc_x_7"
  top: "W_xc_x_8"
  top: "W_xc_x_9"
  top: "W_xc_x_10"
  top: "W_xc_x_11"
  top: "W_xc_x_12"
  top: "W_xc_x_13"
  top: "W_xc_x_14"
  top: "W_xc_x_15"
  top: "W_xc_x_16"
  slice_param {
    axis: 0
  }
}
layer {
  name: "lstm1_h_conted_0"
  type: "Scale"
  bottom: "h_0"
  bottom: "cont_1"
  top: "h_conted_0"
  scale_param {
    axis: 0
  }
}
layer {
  name: "lstm1_transform_1"
  type: "InnerProduct"
  bottom: "h_conted_0"
  top: "W_hc_h_0"
  param {
    name: "W_hc"
  }
  inner_product_param {
    num_output: 64
    bias_term: false
    weight_filler {
      type: "xavier"
    }
    axis: 2
  }
}
layer {
  name: "lstm1_gate_input_1"
  type: "Eltwise"
  bottom: "W_hc_h_0"
  bottom: "W_xc_x_1"
  top: "gate_input_1"
  eltwise_param {
    operation: SUM
  }
}
layer {
  name: "lstm1_unit_1"
  type: "LSTMUnit"
  bottom: "c_0"
  bottom: "gate_input_1"
  bottom: "cont_1"
  top: "c_1"
  top: "h_1"
}
layer {
  name: "lstm1_h_conted_1"
  type: "Scale"
  bottom: "h_1"
  bottom: "cont_2"
  top: "h_conted_1"
  scale_param {
    axis: 0
  }
}
layer {
  name: "lstm1_transform_2"
  type: "InnerProduct"
  bottom: "h_conted_1"
  top: "W_hc_h_1"
  param {
    name: "W_hc"
  }
  inner_product_param {
    num_output: 64
    bias_term: false
    weight_filler {
      type: "xavier"
    }
    axis: 2
  }
}
layer {
  name: "lstm1_gate_input_2"
  type: "Eltwise"
  bottom: "W_hc_h_1"
  bottom: "W_xc_x_2"
  top: "gate_input_2"
  eltwise_param {
    operation: SUM
  }
}
layer {
  name: "lstm1_unit_2"
  type: "LSTMUnit"
  bottom: "c_1"
  bottom: "gate_input_2"
  bottom: "cont_2"
  top: "c_2"
  top: "h_2"
}
layer {
  name: "lstm1_h_conted_2"
  type: "Scale"
  bottom: "h_2"
  bottom: "cont_3"
  top: "h_conted_2"
  scale_param {
    axis: 0
  }
}
layer {
  name: "lstm1_transform_3"
  type: "InnerProduct"
  bottom: "h_conted_2"
  top: "W_hc_h_2"
  param {
    name: "W_hc"
  }
  inner_product_param {
    num_output: 64
    bias_term: false
    weight_filler {
      type: "xavier"
    }
    axis: 2
  }
}
layer {
  name: "lstm1_gate_input_3"
  type: "Eltwise"
  bottom: "W_hc_h_2"
  bottom: "W_xc_x_3"
  top: "gate_input_3"
  eltwise_param {
    operation: SUM
  }
}
layer {
  name: "lstm1_unit_3"
  type: "LSTMUnit"
  bottom: "c_2"
  bottom: "gate_input_3"
  bottom: "cont_3"
  top: "c_3"
  top: "h_3"
}
layer {
  name: "lstm1_h_conted_3"
  type: "Scale"
  bottom: "h_3"
  bottom: "cont_4"
  top: "h_conted_3"
  scale_param {
    axis: 0
  }
}
layer {
  name: "lstm1_transform_4"
  type: "InnerProduct"
  bottom: "h_conted_3"
  top: "W_hc_h_3"
  param {
    name: "W_hc"
  }
  inner_product_param {
    num_output: 64
    bias_term: false
    weight_filler {
      type: "xavier"
    }
    axis: 2
  }
}
layer {
  name: "lstm1_gate_input_4"
  type: "Eltwise"
  bottom: "W_hc_h_3"
  bottom: "W_xc_x_4"
  top: "gate_input_4"
  eltwise_param {
    operation: SUM
  }
}
layer {
  name: "lstm1_unit_4"
  type: "LSTMUnit"
  bottom: "c_3"
  bottom: "gate_input_4"
  bottom: "cont_4"
  top: "c_4"
  top: "h_4"
}
layer {
  name: "lstm1_h_conted_4"
  type: "Scale"
  bottom: "h_4"
  bottom: "cont_5"
  top: "h_conted_4"
  scale_param {
    axis: 0
  }
}
layer {
  name: "lstm1_transform_5"
  type: "InnerProduct"
  bottom: "h_conted_4"
  top: "W_hc_h_4"
  param {
    name: "W_hc"
  }
  inner_product_param {
    num_output: 64
    bias_term: false
    weight_filler {
      type: "xavier"
    }
    axis: 2
  }
}
layer {
  name: "lstm1_gate_input_5"
  type: "Eltwise"
  bottom: "W_hc_h_4"
  bottom: "W_xc_x_5"
  top: "gate_input_5"
  eltwise_param {
    operation: SUM
  }
}
layer {
  name: "lstm1_unit_5"
  type: "LSTMUnit"
  bottom: "c_4"
  bottom: "gate_input_5"
  bottom: "cont_5"
  top: "c_5"
  top: "h_5"
}
layer {
  name: "lstm1_h_conted_5"
  type: "Scale"
  bottom: "h_5"
  bottom: "cont_6"
  top: "h_conted_5"
  scale_param {
    axis: 0
  }
}
layer {
  name: "lstm1_transform_6"
  type: "InnerProduct"
  bottom: "h_conted_5"
  top: "W_hc_h_5"
  param {
    name: "W_hc"
  }
  inner_product_param {
    num_output: 64
    bias_term: false
    weight_filler {
      type: "xavier"
    }
    axis: 2
  }
}
layer {
  name: "lstm1_gate_input_6"
  type: "Eltwise"
  bottom: "W_hc_h_5"
  bottom: "W_xc_x_6"
  top: "gate_input_6"
  eltwise_param {
    operation: SUM
  }
}
layer {
  name: "lstm1_unit_6"
  type: "LSTMUnit"
  bottom: "c_5"
  bottom: "gate_input_6"
  bottom: "cont_6"
  top: "c_6"
  top: "h_6"
}
layer {
  name: "lstm1_h_conted_6"
  type: "Scale"
  bottom: "h_6"
  bottom: "cont_7"
  top: "h_conted_6"
  scale_param {
    axis: 0
  }
}
layer {
  name: "lstm1_transform_7"
  type: "InnerProduct"
  bottom: "h_conted_6"
  top: "W_hc_h_6"
  param {
    name: "W_hc"
  }
  inner_product_param {
    num_output: 64
    bias_term: false
    weight_filler {
      type: "xavier"
    }
    axis: 2
  }
}
layer {
  name: "lstm1_gate_input_7"
  type: "Eltwise"
  bottom: "W_hc_h_6"
  bottom: "W_xc_x_7"
  top: "gate_input_7"
  eltwise_param {
    operation: SUM
  }
}
layer {
  name: "lstm1_unit_7"
  type: "LSTMUnit"
  bottom: "c_6"
  bottom: "gate_input_7"
  bottom: "cont_7"
  top: "c_7"
  top: "h_7"
}
layer {
  name: "lstm1_h_conted_7"
  type: "Scale"
  bottom: "h_7"
  bottom: "cont_8"
  top: "h_conted_7"
  scale_param {
    axis: 0
  }
}
layer {
  name: "lstm1_transform_8"
  type: "InnerProduct"
  bottom: "h_conted_7"
  top: "W_hc_h_7"
  param {
    name: "W_hc"
  }
  inner_product_param {
    num_output: 64
    bias_term: false
    weight_filler {
      type: "xavier"
    }
    axis: 2
  }
}
layer {
  name: "lstm1_gate_input_8"
  type: "Eltwise"
  bottom: "W_hc_h_7"
  bottom: "W_xc_x_8"
  top: "gate_input_8"
  eltwise_param {
    operation: SUM
  }
}
layer {
  name: "lstm1_unit_8"
  type: "LSTMUnit"
  bottom: "c_7"
  bottom: "gate_input_8"
  bottom: "cont_8"
  top: "c_8"
  top: "h_8"
}
layer {
  name: "lstm1_h_conted_8"
  type: "Scale"
  bottom: "h_8"
  bottom: "cont_9"
  top: "h_conted_8"
  scale_param {
    axis: 0
  }
}
layer {
  name: "lstm1_transform_9"
  type: "InnerProduct"
  bottom: "h_conted_8"
  top: "W_hc_h_8"
  param {
    name: "W_hc"
  }
  inner_product_param {
    num_output: 64
    bias_term: false
    weight_filler {
      type: "xavier"
    }
    axis: 2
  }
}
layer {
  name: "lstm1_gate_input_9"
  type: "Eltwise"
  bottom: "W_hc_h_8"
  bottom: "W_xc_x_9"
  top: "gate_input_9"
  eltwise_param {
    operation: SUM
  }
}
layer {
  name: "lstm1_unit_9"
  type: "LSTMUnit"
  bottom: "c_8"
  bottom: "gate_input_9"
  bottom: "cont_9"
  top: "c_9"
  top: "h_9"
}
layer {
  name: "lstm1_h_conted_9"
  type: "Scale"
  bottom: "h_9"
  bottom: "cont_10"
  top: "h_conted_9"
  scale_param {
    axis: 0
  }
}
layer {
  name: "lstm1_transform_10"
  type: "InnerProduct"
  bottom: "h_conted_9"
  top: "W_hc_h_9"
  param {
    name: "W_hc"
  }
  inner_product_param {
    num_output: 64
    bias_term: false
    weight_filler {
      type: "xavier"
    }
    axis: 2
  }
}
layer {
  name: "lstm1_gate_input_10"
  type: "Eltwise"
  bottom: "W_hc_h_9"
  bottom: "W_xc_x_10"
  top: "gate_input_10"
  eltwise_param {
    operation: SUM
  }
}
layer {
  name: "lstm1_unit_10"
  type: "LSTMUnit"
  bottom: "c_9"
  bottom: "gate_input_10"
  bottom: "cont_10"
  top: "c_10"
  top: "h_10"
}
layer {
  name: "lstm1_h_conted_10"
  type: "Scale"
  bottom: "h_10"
  bottom: "cont_11"
  top: "h_conted_10"
  scale_param {
    axis: 0
  }
}
layer {
  name: "lstm1_transform_11"
  type: "InnerProduct"
  bottom: "h_conted_10"
  top: "W_hc_h_10"
  param {
    name: "W_hc"
  }
  inner_product_param {
    num_output: 64
    bias_term: false
    weight_filler {
      type: "xavier"
    }
    axis: 2
  }
}
layer {
  name: "lstm1_gate_input_11"
  type: "Eltwise"
  bottom: "W_hc_h_10"
  bottom: "W_xc_x_11"
  top: "gate_input_11"
  eltwise_param {
    operation: SUM
  }
}
layer {
  name: "lstm1_unit_11"
  type: "LSTMUnit"
  bottom: "c_10"
  bottom: "gate_input_11"
  bottom: "cont_11"
  top: "c_11"
  top: "h_11"
}
layer {
  name: "lstm1_h_conted_11"
  type: "Scale"
  bottom: "h_11"
  bottom: "cont_12"
  top: "h_conted_11"
  scale_param {
    axis: 0
  }
}
layer {
  name: "lstm1_transform_12"
  type: "InnerProduct"
  bottom: "h_conted_11"
  top: "W_hc_h_11"
  param {
    name: "W_hc"
  }
  inner_product_param {
    num_output: 64
    bias_term: false
    weight_filler {
      type: "xavier"
    }
    axis: 2
  }
}
layer {
  name: "lstm1_gate_input_12"
  type: "Eltwise"
  bottom: "W_hc_h_11"
  bottom: "W_xc_x_12"
  top: "gate_input_12"
  eltwise_param {
    operation: SUM
  }
}
layer {
  name: "lstm1_unit_12"
  type: "LSTMUnit"
  bottom: "c_11"
  bottom: "gate_input_12"
  bottom: "cont_12"
  top: "c_12"
  top: "h_12"
}
layer {
  name: "lstm1_h_conted_12"
  type: "Scale"
  bottom: "h_12"
  bottom: "cont_13"
  top: "h_conted_12"
  scale_param {
    axis: 0
  }
}
layer {
  name: "lstm1_transform_13"
  type: "InnerProduct"
  bottom: "h_conted_12"
  top: "W_hc_h_12"
  param {
    name: "W_hc"
  }
  inner_product_param {
    num_output: 64
    bias_term: false
    weight_filler {
      type: "xavier"
    }
    axis: 2
  }
}
layer {
  name: "lstm1_gate_input_13"
  type: "Eltwise"
  bottom: "W_hc_h_12"
  bottom: "W_xc_x_13"
  top: "gate_input_13"
  eltwise_param {
    operation: SUM
  }
}
layer {
  name: "lstm1_unit_13"
  type: "LSTMUnit"
  bottom: "c_12"
  bottom: "gate_input_13"
  bottom: "cont_13"
  top: "c_13"
  top: "h_13"
}
layer {
  name: "lstm1_h_conted_13"
  type: "Scale"
  bottom: "h_13"
  bottom: "cont_14"
  top: "h_conted_13"
  scale_param {
    axis: 0
  }
}
layer {
  name: "lstm1_transform_14"
  type: "InnerProduct"
  bottom: "h_conted_13"
  top: "W_hc_h_13"
  param {
    name: "W_hc"
  }
  inner_product_param {
    num_output: 64
    bias_term: false
    weight_filler {
      type: "xavier"
    }
    axis: 2
  }
}
layer {
  name: "lstm1_gate_input_14"
  type: "Eltwise"
  bottom: "W_hc_h_13"
  bottom: "W_xc_x_14"
  top: "gate_input_14"
  eltwise_param {
    operation: SUM
  }
}
layer {
  name: "lstm1_unit_14"
  type: "LSTMUnit"
  bottom: "c_13"
  bottom: "gate_input_14"
  bottom: "cont_14"
  top: "c_14"
  top: "h_14"
}
layer {
  name: "lstm1_h_conted_14"
  type: "Scale"
  bottom: "h_14"
  bottom: "cont_15"
  top: "h_conted_14"
  scale_param {
    axis: 0
  }
}
layer {
  name: "lstm1_transform_15"
  type: "InnerProduct"
  bottom: "h_conted_14"
  top: "W_hc_h_14"
  param {
    name: "W_hc"
  }
  inner_product_param {
    num_output: 64
    bias_term: false
    weight_filler {
      type: "xavier"
    }
    axis: 2
  }
}
layer {
  name: "lstm1_gate_input_15"
  type: "Eltwise"
  bottom: "W_hc_h_14"
  bottom: "W_xc_x_15"
  top: "gate_input_15"
  eltwise_param {
    operation: SUM
  }
}
layer {
  name: "lstm1_unit_15"
  type: "LSTMUnit"
  bottom: "c_14"
  bottom: "gate_input_15"
  bottom: "cont_15"
  top: "c_15"
  top: "h_15"
}
layer {
  name: "lstm1_h_conted_15"
  type: "Scale"
  bottom: "h_15"
  bottom: "cont_16"
  top: "h_conted_15"
  scale_param {
    axis: 0
  }
}
layer {
  name: "lstm1_transform_16"
  type: "InnerProduct"
  bottom: "h_conted_15"
  top: "W_hc_h_15"
  param {
    name: "W_hc"
  }
  inner_product_param {
    num_output: 64
    bias_term: false
    weight_filler {
      type: "xavier"
    }
    axis: 2
  }
}
layer {
  name: "lstm1_gate_input_16"
  type: "Eltwise"
  bottom: "W_hc_h_15"
  bottom: "W_xc_x_16"
  top: "gate_input_16"
  eltwise_param {
    operation: SUM
  }
}
layer {
  name: "lstm1_unit_16"
  type: "LSTMUnit"
  bottom: "c_15"
  bottom: "gate_input_16"
  bottom: "cont_16"
  top: "c_16"
  top: "h_16"
}
layer {
  name: "lstm1_"
  type: "Split"
  bottom: "c_16"
  top: "c_T"
}
layer {
  name: "lstm1_h_concat"
  type: "Concat"
  bottom: "h_1"
  bottom: "h_2"
  bottom: "h_3"
  bottom: "h_4"
  bottom: "h_5"
  bottom: "h_6"
  bottom: "h_7"
  bottom: "h_8"
  bottom: "h_9"
  bottom: "h_10"
  bottom: "h_11"
  bottom: "h_12"
  bottom: "h_13"
  bottom: "h_14"
  bottom: "h_15"
  bottom: "h_16"
  top: "h"
  concat_param {
    axis: 0
  }
}
layer {
  name: "h_pseudoloss"
  type: "Reduction"
  bottom: "h"
  top: "h_pseudoloss"
  loss_weight: 1
}
I0228 21:20:45.192142 11999 layer_factory.hpp:77] Creating layer lstm1_
I0228 21:20:45.192153 11999 net.cpp:84] Creating Layer lstm1_
I0228 21:20:45.192162 11999 net.cpp:380] lstm1_ -> x
I0228 21:20:45.192171 11999 net.cpp:380] lstm1_ -> cont
I0228 21:20:45.192229 11999 net.cpp:122] Setting up lstm1_
I0228 21:20:45.192237 11999 net.cpp:129] Top shape: 16 13 1 (208)
I0228 21:20:45.192242 11999 net.cpp:129] Top shape: 16 13 (208)
I0228 21:20:45.192245 11999 net.cpp:137] Memory required for data: 1664
I0228 21:20:45.192248 11999 layer_factory.hpp:77] Creating layer lstm1_
I0228 21:20:45.192255 11999 net.cpp:84] Creating Layer lstm1_
I0228 21:20:45.192260 11999 net.cpp:380] lstm1_ -> c_0
I0228 21:20:45.192267 11999 net.cpp:380] lstm1_ -> h_0
I0228 21:20:45.192286 11999 net.cpp:122] Setting up lstm1_
I0228 21:20:45.192291 11999 net.cpp:129] Top shape: 1 13 16 (208)
I0228 21:20:45.192296 11999 net.cpp:129] Top shape: 1 13 16 (208)
I0228 21:20:45.192298 11999 net.cpp:137] Memory required for data: 3328
I0228 21:20:45.192302 11999 layer_factory.hpp:77] Creating layer lstm1_cont_slice
I0228 21:20:45.192312 11999 net.cpp:84] Creating Layer lstm1_cont_slice
I0228 21:20:45.192315 11999 net.cpp:406] lstm1_cont_slice <- cont
I0228 21:20:45.192322 11999 net.cpp:380] lstm1_cont_slice -> cont_1
I0228 21:20:45.192328 11999 net.cpp:380] lstm1_cont_slice -> cont_2
…
I0228 21:20:45.192365 11999 net.cpp:380] lstm1_cont_slice -> cont_9
I0228 21:20:45.192370 11999 net.cpp:380] lstm1_cont_slice -> cont_10
I0228 21:20:45.192374 11999 net.cpp:380] lstm1_cont_slice -> cont_11
I0228 21:20:45.192379 11999 net.cpp:380] lstm1_cont_slice -> cont_12
I0228 21:20:45.192384 11999 net.cpp:380] lstm1_cont_slice -> cont_13
I0228 21:20:45.192390 11999 net.cpp:380] lstm1_cont_slice -> cont_14
I0228 21:20:45.192395 11999 net.cpp:380] lstm1_cont_slice -> cont_15
I0228 21:20:45.192400 11999 net.cpp:380] lstm1_cont_slice -> cont_16
I0228 21:20:45.192514 11999 net.cpp:122] Setting up lstm1_cont_slice
I0228 21:20:45.192528 11999 net.cpp:129] Top shape: 1 13 (13)
I0228 21:20:45.192533 11999 net.cpp:129] Top shape: 1 13 (13)
I0228 21:20:45.192536 11999 net.cpp:129] Top shape: 1 13 (13)
I0228 21:20:45.192539 11999 net.cpp:129] Top shape: 1 13 (13)
I0228 21:20:45.192558 11999 net.cpp:129] Top shape: 1 13 (13)
I0228 21:20:45.192561 11999 net.cpp:129] Top shape: 1 13 (13)
I0228 21:20:45.192564 11999 net.cpp:129] Top shape: 1 13 (13)
I0228 21:20:45.192569 11999 net.cpp:129] Top shape: 1 13 (13)
I0228 21:20:45.192571 11999 net.cpp:129] Top shape: 1 13 (13)
I0228 21:20:45.192575 11999 net.cpp:129] Top shape: 1 13 (13)
I0228 21:20:45.192579 11999 net.cpp:129] Top shape: 1 13 (13)
I0228 21:20:45.192582 11999 net.cpp:129] Top shape: 1 13 (13)
I0228 21:20:45.192585 11999 net.cpp:129] Top shape: 1 13 (13)
I0228 21:20:45.192589 11999 net.cpp:129] Top shape: 1 13 (13)
I0228 21:20:45.192593 11999 net.cpp:129] Top shape: 1 13 (13)
I0228 21:20:45.192596 11999 net.cpp:129] Top shape: 1 13 (13)
I0228 21:20:45.192600 11999 net.cpp:137] Memory required for data: 4160
I0228 21:20:45.192602 11999 layer_factory.hpp:77] Creating layer cont_1_lstm1_cont_slice_0_split
I0228 21:20:45.192607 11999 net.cpp:84] Creating Layer cont_1_lstm1_cont_slice_0_split
I0228 21:20:45.192610 11999 net.cpp:406] cont_1_lstm1_cont_slice_0_split <- cont_1
I0228 21:20:45.192616 11999 net.cpp:380] cont_1_lstm1_cont_slice_0_split -> cont_1_lstm1_cont_slice_0_split_0
I0228 21:20:45.192621 11999 net.cpp:380] cont_1_lstm1_cont_slice_0_split -> cont_1_lstm1_cont_slice_0_split_1
I0228 21:20:45.192641 11999 net.cpp:122] Setting up cont_1_lstm1_cont_slice_0_split
I0228 21:20:45.192646 11999 net.cpp:129] Top shape: 1 13 (13)
I0228 21:20:45.192649 11999 net.cpp:129] Top shape: 1 13 (13)
I0228 21:20:45.192652 11999 net.cpp:137] Memory required for data: 4264
I0228 21:20:45.192656 11999 layer_factory.hpp:77] Creating layer cont_2_lstm1_cont_slice_1_split
I0228 21:20:45.192661 11999 net.cpp:84] Creating Layer cont_2_lstm1_cont_slice_1_split
I0228 21:20:45.202491 11999 net.cpp:406] cont_2_lstm1_cont_slice_1_split <- cont_2
I0228 21:20:45.202533 11999 net.cpp:380] cont_2_lstm1_cont_slice_1_split -> cont_2_lstm1_cont_slice_1_split_0
I0228 21:20:45.202543 11999 net.cpp:380] cont_2_lstm1_cont_slice_1_split -> cont_2_lstm1_cont_slice_1_split_1
I0228 21:20:45.202596 11999 net.cpp:122] Setting up cont_2_lstm1_cont_slice_1_split
I0228 21:20:45.202612 11999 net.cpp:129] Top shape: 1 13 (13)
I0228 21:20:45.202618 11999 net.cpp:129] Top shape: 1 13 (13)
I0228 21:20:45.202623 11999 net.cpp:137] Memory required for data: 4368
I0228 21:20:45.202641 11999 layer_factory.hpp:77] Creating layer cont_3_lstm1_cont_slice_2_split
I0228 21:20:45.202649 11999 net.cpp:84] Creating Layer cont_3_lstm1_cont_slice_2_split
I0228 21:20:45.202654 11999 net.cpp:406] cont_3_lstm1_cont_slice_2_split <- cont_3
I0228 21:20:45.202673 11999 net.cpp:380] cont_3_lstm1_cont_slice_2_split -> cont_3_lstm1_cont_slice_2_split_0
I0228 21:20:45.202680 11999 net.cpp:380] cont_3_lstm1_cont_slice_2_split -> cont_3_lstm1_cont_slice_2_split_1
I0228 21:20:45.202708 11999 net.cpp:122] Setting up cont_3_lstm1_cont_slice_2_split
I0228 21:20:45.202715 11999 net.cpp:129] Top shape: 1 13 (13)
I0228 21:20:45.202720 11999 net.cpp:129] Top shape: 1 13 (13)
I0228 21:20:45.202724 11999 net.cpp:137] Memory required for data: 4472
I0228 21:20:45.202728 11999 layer_factory.hpp:77] Creating layer cont_4_lstm1_cont_slice_3_split
I0228 21:20:45.202734 11999 net.cpp:84] Creating Layer cont_4_lstm1_cont_slice_3_split
I0228 21:20:45.202739 11999 net.cpp:406] cont_4_lstm1_cont_slice_3_split <- cont_4
I0228 21:20:45.202746 11999 net.cpp:380] cont_4_lstm1_cont_slice_3_split -> cont_4_lstm1_cont_slice_3_split_0
I0228 21:20:45.202752 11999 net.cpp:380] cont_4_lstm1_cont_slice_3_split -> cont_4_lstm1_cont_slice_3_split_1
I0228 21:20:45.202776 11999 net.cpp:122] Setting up cont_4_lstm1_cont_slice_3_split
I0228 21:20:45.202786 11999 net.cpp:129] Top shape: 1 13 (13)
I0228 21:20:45.202792 11999 net.cpp:129] Top shape: 1 13 (13)
I0228 21:20:45.202811 11999 net.cpp:137] Memory required for data: 4576
I0228 21:20:45.202817 11999 layer_factory.hpp:77] Creating layer cont_5_lstm1_cont_slice_4_split
I0228 21:20:45.202824 11999 net.cpp:84] Creating Layer cont_5_lstm1_cont_slice_4_split
I0228 21:20:45.202831 11999 net.cpp:406] cont_5_lstm1_cont_slice_4_split <- cont_5
I0228 21:20:45.202838 11999 net.cpp:380] cont_5_lstm1_cont_slice_4_split -> cont_5_lstm1_cont_slice_4_split_0
I0228 21:20:45.202846 11999 net.cpp:380] cont_5_lstm1_cont_slice_4_split -> cont_5_lstm1_cont_slice_4_split_1
I0228 21:20:45.202872 11999 net.cpp:122] Setting up cont_5_lstm1_cont_slice_4_split
I0228 21:20:45.202881 11999 net.cpp:129] Top shape: 1 13 (13)
I0228 21:20:45.202888 11999 net.cpp:129] Top shape: 1 13 (13)
I0228 21:20:45.202893 11999 net.cpp:137] Memory required for data: 4680
I0228 21:20:45.202898 11999 layer_factory.hpp:77] Creating layer cont_6_lstm1_cont_slice_5_split
I0228 21:20:45.202910 11999 net.cpp:84] Creating Layer cont_6_lstm1_cont_slice_5_split
I0228 21:20:45.202916 11999 net.cpp:406] cont_6_lstm1_cont_slice_5_split <- cont_6
I0228 21:20:45.202922 11999 net.cpp:380] cont_6_lstm1_cont_slice_5_split -> cont_6_lstm1_cont_slice_5_split_0
I0228 21:20:45.202930 11999 net.cpp:380] cont_6_lstm1_cont_slice_5_split -> cont_6_lstm1_cont_slice_5_split_1
I0228 21:20:45.202973 11999 net.cpp:122] Setting up cont_6_lstm1_cont_slice_5_split
I0228 21:20:45.202982 11999 net.cpp:129] Top shape: 1 13 (13)
I0228 21:20:45.202989 11999 net.cpp:129] Top shape: 1 13 (13)
I0228 21:20:45.202994 11999 net.cpp:137] Memory required for data: 4784
I0228 21:20:45.202998 11999 layer_factory.hpp:77] Creating layer cont_7_lstm1_cont_slice_6_split
I0228 21:20:45.203004 11999 net.cpp:84] Creating Layer cont_7_lstm1_cont_slice_6_split
I0228 21:20:45.203009 11999 net.cpp:406] cont_7_lstm1_cont_slice_6_split <- cont_7
I0228 21:20:45.203019 11999 net.cpp:380] cont_7_lstm1_cont_slice_6_split -> cont_7_lstm1_cont_slice_6_split_0
I0228 21:20:45.203032 11999 net.cpp:380] cont_7_lstm1_cont_slice_6_split -> cont_7_lstm1_cont_slice_6_split_1
I0228 21:20:45.203075 11999 net.cpp:122] Setting up cont_7_lstm1_cont_slice_6_split
I0228 21:20:45.203086 11999 net.cpp:129] Top shape: 1 13 (13)
I0228 21:20:45.203091 11999 net.cpp:129] Top shape: 1 13 (13)
I0228 21:20:45.203095 11999 net.cpp:137] Memory required for data: 4888
I0228 21:20:45.203100 11999 layer_factory.hpp:77] Creating layer cont_8_lstm1_cont_slice_7_split
I0228 21:20:45.203105 11999 net.cpp:84] Creating Layer cont_8_lstm1_cont_slice_7_split
I0228 21:20:45.203110 11999 net.cpp:406] cont_8_lstm1_cont_slice_7_split <- cont_8
I0228 21:20:45.203116 11999 net.cpp:380] cont_8_lstm1_cont_slice_7_split -> cont_8_lstm1_cont_slice_7_split_0
I0228 21:20:45.203124 11999 net.cpp:380] cont_8_lstm1_cont_slice_7_split -> cont_8_lstm1_cont_slice_7_split_1
I0228 21:20:45.203162 11999 net.cpp:122] Setting up cont_8_lstm1_cont_slice_7_split
I0228 21:20:45.203171 11999 net.cpp:129] Top shape: 1 13 (13)
I0228 21:20:45.203176 11999 net.cpp:129] Top shape: 1 13 (13)
I0228 21:20:45.203181 11999 net.cpp:137] Memory required for data: 4992
I0228 21:20:45.203186 11999 layer_factory.hpp:77] Creating layer cont_9_lstm1_cont_slice_8_split
I0228 21:20:45.203191 11999 net.cpp:84] Creating Layer cont_9_lstm1_cont_slice_8_split
I0228 21:20:45.203197 11999 net.cpp:406] cont_9_lstm1_cont_slice_8_split <- cont_9
I0228 21:20:45.203202 11999 net.cpp:380] cont_9_lstm1_cont_slice_8_split -> cont_9_lstm1_cont_slice_8_split_0
I0228 21:20:45.203212 11999 net.cpp:380] cont_9_lstm1_cont_slice_8_split -> cont_9_lstm1_cont_slice_8_split_1
I0228 21:20:45.203248 11999 net.cpp:122] Setting up cont_9_lstm1_cont_slice_8_split
I0228 21:20:45.203256 11999 net.cpp:129] Top shape: 1 13 (13)
I0228 21:20:45.203260 11999 net.cpp:129] Top shape: 1 13 (13)
I0228 21:20:45.203263 11999 net.cpp:137] Memory required for data: 5096
I0228 21:20:45.203266 11999 layer_factory.hpp:77] Creating layer cont_10_lstm1_cont_slice_9_split
I0228 21:20:45.203272 11999 net.cpp:84] Creating Layer cont_10_lstm1_cont_slice_9_split
I0228 21:20:45.203282 11999 net.cpp:406] cont_10_lstm1_cont_slice_9_split <- cont_10
I0228 21:20:45.203300 11999 net.cpp:380] cont_10_lstm1_cont_slice_9_split -> cont_10_lstm1_cont_slice_9_split_0
I0228 21:20:45.203305 11999 net.cpp:380] cont_10_lstm1_cont_slice_9_split -> cont_10_lstm1_cont_slice_9_split_1
I0228 21:20:45.203393 11999 net.cpp:122] Setting up cont_10_lstm1_cont_slice_9_split
I0228 21:20:45.203402 11999 net.cpp:129] Top shape: 1 13 (13)
I0228 21:20:45.203405 11999 net.cpp:129] Top shape: 1 13 (13)
I0228 21:20:45.203408 11999 net.cpp:137] Memory required for data: 5200
I0228 21:20:45.203411 11999 layer_factory.hpp:77] Creating layer cont_11_lstm1_cont_slice_10_split
I0228 21:20:45.203416 11999 net.cpp:84] Creating Layer cont_11_lstm1_cont_slice_10_split
I0228 21:20:45.203419 11999 net.cpp:406] cont_11_lstm1_cont_slice_10_split <- cont_11
I0228 21:20:45.203424 11999 net.cpp:380] cont_11_lstm1_cont_slice_10_split -> cont_11_lstm1_cont_slice_10_split_0
I0228 21:20:45.203429 11999 net.cpp:380] cont_11_lstm1_cont_slice_10_split -> cont_11_lstm1_cont_slice_10_split_1
I0228 21:20:45.203447 11999 net.cpp:122] Setting up cont_11_lstm1_cont_slice_10_split
I0228 21:20:45.203452 11999 net.cpp:129] Top shape: 1 13 (13)
I0228 21:20:45.203456 11999 net.cpp:129] Top shape: 1 13 (13)
I0228 21:20:45.203459 11999 net.cpp:137] Memory required for data: 5304
I0228 21:20:45.203462 11999 layer_factory.hpp:77] Creating layer cont_12_lstm1_cont_slice_11_split
I0228 21:20:45.203466 11999 net.cpp:84] Creating Layer cont_12_lstm1_cont_slice_11_split
I0228 21:20:45.203469 11999 net.cpp:406] cont_12_lstm1_cont_slice_11_split <- cont_12
I0228 21:20:45.203474 11999 net.cpp:380] cont_12_lstm1_cont_slice_11_split -> cont_12_lstm1_cont_slice_11_split_0
I0228 21:20:45.203478 11999 net.cpp:380] cont_12_lstm1_cont_slice_11_split -> cont_12_lstm1_cont_slice_11_split_1
I0228 21:20:45.203495 11999 net.cpp:122] Setting up cont_12_lstm1_cont_slice_11_split
I0228 21:20:45.203500 11999 net.cpp:129] Top shape: 1 13 (13)
I0228 21:20:45.203503 11999 net.cpp:129] Top shape: 1 13 (13)
I0228 21:20:45.203506 11999 net.cpp:137] Memory required for data: 5408
I0228 21:20:45.203510 11999 layer_factory.hpp:77] Creating layer cont_13_lstm1_cont_slice_12_split
I0228 21:20:45.203513 11999 net.cpp:84] Creating Layer cont_13_lstm1_cont_slice_12_split
I0228 21:20:45.203516 11999 net.cpp:406] cont_13_lstm1_cont_slice_12_split <- cont_13
I0228 21:20:45.203521 11999 net.cpp:380] cont_13_lstm1_cont_slice_12_split -> cont_13_lstm1_cont_slice_12_split_0
I0228 21:20:45.203526 11999 net.cpp:380] cont_13_lstm1_cont_slice_12_split -> cont_13_lstm1_cont_slice_12_split_1
I0228 21:20:45.203542 11999 net.cpp:122] Setting up cont_13_lstm1_cont_slice_12_split
I0228 21:20:45.203547 11999 net.cpp:129] Top shape: 1 13 (13)
I0228 21:20:45.203550 11999 net.cpp:129] Top shape: 1 13 (13)
I0228 21:20:45.203553 11999 net.cpp:137] Memory required for data: 5512
I0228 21:20:45.203557 11999 layer_factory.hpp:77] Creating layer cont_14_lstm1_cont_slice_13_split
I0228 21:20:45.203562 11999 net.cpp:84] Creating Layer cont_14_lstm1_cont_slice_13_split
I0228 21:20:45.203567 11999 net.cpp:406] cont_14_lstm1_cont_slice_13_split <- cont_14
I0228 21:20:45.203570 11999 net.cpp:380] cont_14_lstm1_cont_slice_13_split -> cont_14_lstm1_cont_slice_13_split_0
I0228 21:20:45.203574 11999 net.cpp:380] cont_14_lstm1_cont_slice_13_split -> cont_14_lstm1_cont_slice_13_split_1
I0228 21:20:45.203591 11999 net.cpp:122] Setting up cont_14_lstm1_cont_slice_13_split
I0228 21:20:45.203596 11999 net.cpp:129] Top shape: 1 13 (13)
I0228 21:20:45.203600 11999 net.cpp:129] Top shape: 1 13 (13)
I0228 21:20:45.203603 11999 net.cpp:137] Memory required for data: 5616
I0228 21:20:45.203606 11999 layer_factory.hpp:77] Creating layer cont_15_lstm1_cont_slice_14_split
I0228 21:20:45.203609 11999 net.cpp:84] Creating Layer cont_15_lstm1_cont_slice_14_split
I0228 21:20:45.203613 11999 net.cpp:406] cont_15_lstm1_cont_slice_14_split <- cont_15
I0228 21:20:45.203616 11999 net.cpp:380] cont_15_lstm1_cont_slice_14_split -> cont_15_lstm1_cont_slice_14_split_0
I0228 21:20:45.203626 11999 net.cpp:380] cont_15_lstm1_cont_slice_14_split -> cont_15_lstm1_cont_slice_14_split_1
I0228 21:20:45.203645 11999 net.cpp:122] Setting up cont_15_lstm1_cont_slice_14_split
I0228 21:20:45.203650 11999 net.cpp:129] Top shape: 1 13 (13)
I0228 21:20:45.203655 11999 net.cpp:129] Top shape: 1 13 (13)
I0228 21:20:45.203657 11999 net.cpp:137] Memory required for data: 5720
I0228 21:20:45.203660 11999 layer_factory.hpp:77] Creating layer cont_16_lstm1_cont_slice_15_split
I0228 21:20:45.203663 11999 net.cpp:84] Creating Layer cont_16_lstm1_cont_slice_15_split
I0228 21:20:45.203667 11999 net.cpp:406] cont_16_lstm1_cont_slice_15_split <- cont_16
I0228 21:20:45.203671 11999 net.cpp:380] cont_16_lstm1_cont_slice_15_split -> cont_16_lstm1_cont_slice_15_split_0
I0228 21:20:45.203676 11999 net.cpp:380] cont_16_lstm1_cont_slice_15_split -> cont_16_lstm1_cont_slice_15_split_1
I0228 21:20:45.203693 11999 net.cpp:122] Setting up cont_16_lstm1_cont_slice_15_split
I0228 21:20:45.203697 11999 net.cpp:129] Top shape: 1 13 (13)
I0228 21:20:45.203701 11999 net.cpp:129] Top shape: 1 13 (13)
I0228 21:20:45.203704 11999 net.cpp:137] Memory required for data: 5824
I0228 21:20:45.203707 11999 layer_factory.hpp:77] Creating layer lstm1_x_transform
I0228 21:20:45.203718 11999 net.cpp:84] Creating Layer lstm1_x_transform
I0228 21:20:45.203722 11999 net.cpp:406] lstm1_x_transform <- x
I0228 21:20:45.203727 11999 net.cpp:380] lstm1_x_transform -> W_xc_x
I0228 21:20:45.204087 11999 net.cpp:122] Setting up lstm1_x_transform
I0228 21:20:45.204095 11999 net.cpp:129] Top shape: 16 13 64 (13312)
I0228 21:20:45.204098 11999 net.cpp:137] Memory required for data: 59072
I0228 21:20:45.204113 11999 layer_factory.hpp:77] Creating layer lstm1_W_xc_x_slice
I0228 21:20:45.204119 11999 net.cpp:84] Creating Layer lstm1_W_xc_x_slice
I0228 21:20:45.204123 11999 net.cpp:406] lstm1_W_xc_x_slice <- W_xc_x
I0228 21:20:45.204128 11999 net.cpp:380] lstm1_W_xc_x_slice -> W_xc_x_1
I0228 21:20:45.204134 11999 net.cpp:380] lstm1_W_xc_x_slice -> W_xc_x_2
…
I0228 21:20:45.204174 11999 net.cpp:380] lstm1_W_xc_x_slice -> W_xc_x_10
I0228 21:20:45.204180 11999 net.cpp:380] lstm1_W_xc_x_slice -> W_xc_x_11
I0228 21:20:45.204185 11999 net.cpp:380] lstm1_W_xc_x_slice -> W_xc_x_12
I0228 21:20:45.204196 11999 net.cpp:380] lstm1_W_xc_x_slice -> W_xc_x_13
I0228 21:20:45.204205 11999 net.cpp:380] lstm1_W_xc_x_slice -> W_xc_x_14
I0228 21:20:45.204210 11999 net.cpp:380] lstm1_W_xc_x_slice -> W_xc_x_15
I0228 21:20:45.204216 11999 net.cpp:380] lstm1_W_xc_x_slice -> W_xc_x_16
I0228 21:20:45.204350 11999 net.cpp:122] Setting up lstm1_W_xc_x_slice
I0228 21:20:45.204371 11999 net.cpp:129] Top shape: 1 13 64 (832)
I0228 21:20:45.204375 11999 net.cpp:129] Top shape: 1 13 64 (832)
I0228 21:20:45.204380 11999 net.cpp:129] Top shape: 1 13 64 (832)
I0228 21:20:45.204383 11999 net.cpp:129] Top shape: 1 13 64 (832)
I0228 21:20:45.204386 11999 net.cpp:129] Top shape: 1 13 64 (832)
I0228 21:20:45.204391 11999 net.cpp:129] Top shape: 1 13 64 (832)
I0228 21:20:45.204393 11999 net.cpp:129] Top shape: 1 13 64 (832)
I0228 21:20:45.204397 11999 net.cpp:129] Top shape: 1 13 64 (832)
I0228 21:20:45.204401 11999 net.cpp:129] Top shape: 1 13 64 (832)
I0228 21:20:45.204404 11999 net.cpp:129] Top shape: 1 13 64 (832)
I0228 21:20:45.204408 11999 net.cpp:129] Top shape: 1 13 64 (832)
I0228 21:20:45.204416 11999 net.cpp:129] Top shape: 1 13 64 (832)
I0228 21:20:45.204437 11999 net.cpp:129] Top shape: 1 13 64 (832)
I0228 21:20:45.204443 11999 net.cpp:129] Top shape: 1 13 64 (832)
I0228 21:20:45.204470 11999 net.cpp:129] Top shape: 1 13 64 (832)
I0228 21:20:45.204474 11999 net.cpp:129] Top shape: 1 13 64 (832)
I0228 21:20:45.204478 11999 net.cpp:137] Memory required for data: 112320
I0228 21:20:45.204481 11999 layer_factory.hpp:77] Creating layer lstm1_h_conted_0
I0228 21:20:45.204486 11999 net.cpp:84] Creating Layer lstm1_h_conted_0
I0228 21:20:45.204490 11999 net.cpp:406] lstm1_h_conted_0 <- h_0
I0228 21:20:45.204494 11999 net.cpp:406] lstm1_h_conted_0 <- cont_1_lstm1_cont_slice_0_split_0
I0228 21:20:45.204500 11999 net.cpp:380] lstm1_h_conted_0 -> h_conted_0
I0228 21:20:45.204555 11999 net.cpp:122] Setting up lstm1_h_conted_0
I0228 21:20:45.204560 11999 net.cpp:129] Top shape: 1 13 16 (208)
I0228 21:20:45.204563 11999 net.cpp:137] Memory required for data: 113152
I0228 21:20:45.204566 11999 layer_factory.hpp:77] Creating layer lstm1_transform_1
I0228 21:20:45.204572 11999 net.cpp:84] Creating Layer lstm1_transform_1
I0228 21:20:45.204576 11999 net.cpp:406] lstm1_transform_1 <- h_conted_0
I0228 21:20:45.204581 11999 net.cpp:380] lstm1_transform_1 -> W_hc_h_0
I0228 21:20:45.205238 11999 net.cpp:122] Setting up lstm1_transform_1
I0228 21:20:45.205251 11999 net.cpp:129] Top shape: 1 13 64 (832)
I0228 21:20:45.205256 11999 net.cpp:137] Memory required for data: 116480
I0228 21:20:45.205267 11999 layer_factory.hpp:77] Creating layer lstm1_gate_input_1
I0228 21:20:45.205281 11999 net.cpp:84] Creating Layer lstm1_gate_input_1
I0228 21:20:45.205288 11999 net.cpp:406] lstm1_gate_input_1 <- W_hc_h_0
I0228 21:20:45.205294 11999 net.cpp:406] lstm1_gate_input_1 <- W_xc_x_1
I0228 21:20:45.205302 11999 net.cpp:380] lstm1_gate_input_1 -> gate_input_1
I0228 21:20:45.205327 11999 net.cpp:122] Setting up lstm1_gate_input_1
I0228 21:20:45.205335 11999 net.cpp:129] Top shape: 1 13 64 (832)
I0228 21:20:45.205339 11999 net.cpp:137] Memory required for data: 119808
I0228 21:20:45.205344 11999 layer_factory.hpp:77] Creating layer lstm1_unit_1
I0228 21:20:45.205353 11999 net.cpp:84] Creating Layer lstm1_unit_1
I0228 21:20:45.205377 11999 net.cpp:406] lstm1_unit_1 <- c_0
I0228 21:20:45.205384 11999 net.cpp:406] lstm1_unit_1 <- gate_input_1
I0228 21:20:45.205390 11999 net.cpp:406] lstm1_unit_1 <- cont_1_lstm1_cont_slice_0_split_1
I0228 21:20:45.205399 11999 net.cpp:380] lstm1_unit_1 -> c_1
I0228 21:20:45.205406 11999 net.cpp:380] lstm1_unit_1 -> h_1
I0228 21:20:45.205442 11999 net.cpp:122] Setting up lstm1_unit_1
I0228 21:20:45.205451 11999 net.cpp:129] Top shape: 1 13 16 (208)
I0228 21:20:45.205456 11999 net.cpp:129] Top shape: 1 13 16 (208)
I0228 21:20:45.205461 11999 net.cpp:137] Memory required for data: 121472
I0228 21:20:45.205466 11999 layer_factory.hpp:77] Creating layer h_1_lstm1_unit_1_1_split
I0228 21:20:45.205472 11999 net.cpp:84] Creating Layer h_1_lstm1_unit_1_1_split
I0228 21:20:45.205477 11999 net.cpp:406] h_1_lstm1_unit_1_1_split <- h_1
I0228 21:20:45.205487 11999 net.cpp:380] h_1_lstm1_unit_1_1_split -> h_1_lstm1_unit_1_1_split_0
I0228 21:20:45.205493 11999 net.cpp:380] h_1_lstm1_unit_1_1_split -> h_1_lstm1_unit_1_1_split_1
I0228 21:20:45.205520 11999 net.cpp:122] Setting up h_1_lstm1_unit_1_1_split
I0228 21:20:45.205528 11999 net.cpp:129] Top shape: 1 13 16 (208)
I0228 21:20:45.205533 11999 net.cpp:129] Top shape: 1 13 16 (208)
I0228 21:20:45.205538 11999 net.cpp:137] Memory required for data: 123136
I0228 21:20:45.205543 11999 layer_factory.hpp:77] Creating layer lstm1_h_conted_1
I0228 21:20:45.205549 11999 net.cpp:84] Creating Layer lstm1_h_conted_1
I0228 21:20:45.205555 11999 net.cpp:406] lstm1_h_conted_1 <- h_1_lstm1_unit_1_1_split_0
I0228 21:20:45.205561 11999 net.cpp:406] lstm1_h_conted_1 <- cont_2_lstm1_cont_slice_1_split_0
I0228 21:20:45.205569 11999 net.cpp:380] lstm1_h_conted_1 -> h_conted_1
I0228 21:20:45.205615 11999 net.cpp:122] Setting up lstm1_h_conted_1
I0228 21:20:45.205966 11999 net.cpp:129] Top shape: 1 13 16 (208)
I0228 21:20:45.205976 11999 net.cpp:137] Memory required for data: 123968
I0228 21:20:45.205978 11999 layer_factory.hpp:77] Creating layer lstm1_transform_2
I0228 21:20:45.206025 11999 net.cpp:84] Creating Layer lstm1_transform_2
I0228 21:20:45.206040 11999 net.cpp:406] lstm1_transform_2 <- h_conted_1
I0228 21:20:45.206046 11999 net.cpp:380] lstm1_transform_2 -> W_hc_h_1
I0228 21:20:45.206092 11999 net.cpp:122] Setting up lstm1_transform_2
I0228 21:20:45.206100 11999 net.cpp:129] Top shape: 1 13 64 (832)
I0228 21:20:45.206104 11999 net.cpp:137] Memory required for data: 127296
I0228 21:20:45.206107 11999 net.cpp:465] Sharing parameters 'W_hc' owned by layer 'lstm1_transform_1', param index 0
I0228 21:20:45.206110 11999 layer_factory.hpp:77] Creating layer lstm1_gate_input_2
I0228 21:20:45.206115 11999 net.cpp:84] Creating Layer lstm1_gate_input_2
I0228 21:20:45.206120 11999 net.cpp:406] lstm1_gate_input_2 <- W_hc_h_1
I0228 21:20:45.206125 11999 net.cpp:406] lstm1_gate_input_2 <- W_xc_x_2
I0228 21:20:45.206128 11999 net.cpp:380] lstm1_gate_input_2 -> gate_input_2
I0228 21:20:45.206143 11999 net.cpp:122] Setting up lstm1_gate_input_2
I0228 21:20:45.206148 11999 net.cpp:129] Top shape: 1 13 64 (832)
I0228 21:20:45.206151 11999 net.cpp:137] Memory required for data: 130624
I0228 21:20:45.206153 11999 layer_factory.hpp:77] Creating layer lstm1_unit_2
I0228 21:20:45.206157 11999 net.cpp:84] Creating Layer lstm1_unit_2
I0228 21:20:45.206161 11999 net.cpp:406] lstm1_unit_2 <- c_1
I0228 21:20:45.206166 11999 net.cpp:406] lstm1_unit_2 <- gate_input_2
I0228 21:20:45.206169 11999 net.cpp:406] lstm1_unit_2 <- cont_2_lstm1_cont_slice_1_split_1
I0228 21:20:45.206172 11999 net.cpp:380] lstm1_unit_2 -> c_2
I0228 21:20:45.206177 11999 net.cpp:380] lstm1_unit_2 -> h_2
I0228 21:20:45.206202 11999 net.cpp:122] Setting up lstm1_unit_2
I0228 21:20:45.206208 11999 net.cpp:129] Top shape: 1 13 16 (208)
I0228 21:20:45.206212 11999 net.cpp:129] Top shape: 1 13 16 (208)
I0228 21:20:45.206214 11999 net.cpp:137] Memory required for data: 132288
I0228 21:20:45.206218 11999 layer_factory.hpp:77] Creating layer h_2_lstm1_unit_2_1_split
I0228 21:20:45.206220 11999 net.cpp:84] Creating Layer h_2_lstm1_unit_2_1_split
I0228 21:20:45.206223 11999 net.cpp:406] h_2_lstm1_unit_2_1_split <- h_2
I0228 21:20:45.206226 11999 net.cpp:380] h_2_lstm1_unit_2_1_split -> h_2_lstm1_unit_2_1_split_0
I0228 21:20:45.206233 11999 net.cpp:380] h_2_lstm1_unit_2_1_split -> h_2_lstm1_unit_2_1_split_1
I0228 21:20:45.206248 11999 net.cpp:122] Setting up h_2_lstm1_unit_2_1_split
I0228 21:20:45.206254 11999 net.cpp:129] Top shape: 1 13 16 (208)
I0228 21:20:45.206259 11999 net.cpp:129] Top shape: 1 13 16 (208)
I0228 21:20:45.206261 11999 net.cpp:137] Memory required for data: 133952
I0228 21:20:45.206264 11999 layer_factory.hpp:77] Creating layer lstm1_h_conted_2
I0228 21:20:45.206272 11999 net.cpp:84] Creating Layer lstm1_h_conted_2
I0228 21:20:45.206276 11999 net.cpp:406] lstm1_h_conted_2 <- h_2_lstm1_unit_2_1_split_0
I0228 21:20:45.206280 11999 net.cpp:406] lstm1_h_conted_2 <- cont_3_lstm1_cont_slice_2_split_0
I0228 21:20:45.206284 11999 net.cpp:380] lstm1_h_conted_2 -> h_conted_2
I0228 21:20:45.206317 11999 net.cpp:122] Setting up lstm1_h_conted_2
I0228 21:20:45.206323 11999 net.cpp:129] Top shape: 1 13 16 (208)
I0228 21:20:45.206326 11999 net.cpp:137] Memory required for data: 134784
I0228 21:20:45.206329 11999 layer_factory.hpp:77] Creating layer lstm1_transform_3
I0228 21:20:45.206339 11999 net.cpp:84] Creating Layer lstm1_transform_3
I0228 21:20:45.206343 11999 net.cpp:406] lstm1_transform_3 <- h_conted_2
I0228 21:20:45.206348 11999 net.cpp:380] lstm1_transform_3 -> W_hc_h_2
I0228 21:20:45.206382 11999 net.cpp:122] Setting up lstm1_transform_3
I0228 21:20:45.206387 11999 net.cpp:129] Top shape: 1 13 64 (832)
I0228 21:20:45.206390 11999 net.cpp:137] Memory required for data: 138112
I0228 21:20:45.206395 11999 net.cpp:465] Sharing parameters 'W_hc' owned by layer 'lstm1_transform_1', param index 0
I0228 21:20:45.206399 11999 layer_factory.hpp:77] Creating layer lstm1_gate_input_3
I0228 21:20:45.206404 11999 net.cpp:84] Creating Layer lstm1_gate_input_3
I0228 21:20:45.206408 11999 net.cpp:406] lstm1_gate_input_3 <- W_hc_h_2
I0228 21:20:45.206413 11999 net.cpp:406] lstm1_gate_input_3 <- W_xc_x_3
I0228 21:20:45.206423 11999 net.cpp:380] lstm1_gate_input_3 -> gate_input_3
I0228 21:20:45.206436 11999 net.cpp:122] Setting up lstm1_gate_input_3
I0228 21:20:45.206441 11999 net.cpp:129] Top shape: 1 13 64 (832)
I0228 21:20:45.206444 11999 net.cpp:137] Memory required for data: 141440
I0228 21:20:45.206449 11999 layer_factory.hpp:77] Creating layer lstm1_unit_3
I0228 21:20:45.206452 11999 net.cpp:84] Creating Layer lstm1_unit_3
I0228 21:20:45.206455 11999 net.cpp:406] lstm1_unit_3 <- c_2
I0228 21:20:45.206461 11999 net.cpp:406] lstm1_unit_3 <- gate_input_3
I0228 21:20:45.206465 11999 net.cpp:406] lstm1_unit_3 <- cont_3_lstm1_cont_slice_2_split_1
I0228 21:20:45.206468 11999 net.cpp:380] lstm1_unit_3 -> c_3
I0228 21:20:45.206473 11999 net.cpp:380] lstm1_unit_3 -> h_3
I0228 21:20:45.206496 11999 net.cpp:122] Setting up lstm1_unit_3
I0228 21:20:45.206502 11999 net.cpp:129] Top shape: 1 13 16 (208)
I0228 21:20:45.206506 11999 net.cpp:129] Top shape: 1 13 16 (208)
I0228 21:20:45.206508 11999 net.cpp:137] Memory required for data: 143104
I0228 21:20:45.206511 11999 layer_factory.hpp:77] Creating layer h_3_lstm1_unit_3_1_split
I0228 21:20:45.206516 11999 net.cpp:84] Creating Layer h_3_lstm1_unit_3_1_split
I0228 21:20:45.206519 11999 net.cpp:406] h_3_lstm1_unit_3_1_split <- h_3
I0228 21:20:45.206523 11999 net.cpp:380] h_3_lstm1_unit_3_1_split -> h_3_lstm1_unit_3_1_split_0
I0228 21:20:45.206529 11999 net.cpp:380] h_3_lstm1_unit_3_1_split -> h_3_lstm1_unit_3_1_split_1
I0228 21:20:45.206545 11999 net.cpp:122] Setting up h_3_lstm1_unit_3_1_split
I0228 21:20:45.206550 11999 net.cpp:129] Top shape: 1 13 16 (208)
I0228 21:20:45.206554 11999 net.cpp:129] Top shape: 1 13 16 (208)
I0228 21:20:45.206557 11999 net.cpp:137] Memory required for data: 144768
I0228 21:20:45.206560 11999 layer_factory.hpp:77] Creating layer lstm1_h_conted_3
I0228 21:20:45.206564 11999 net.cpp:84] Creating Layer lstm1_h_conted_3
I0228 21:20:45.206568 11999 net.cpp:406] lstm1_h_conted_3 <- h_3_lstm1_unit_3_1_split_0
I0228 21:20:45.206573 11999 net.cpp:406] lstm1_h_conted_3 <- cont_4_lstm1_cont_slice_3_split_0
I0228 21:20:45.206576 11999 net.cpp:380] lstm1_h_conted_3 -> h_conted_3
I0228 21:20:45.206606 11999 net.cpp:122] Setting up lstm1_h_conted_3
I0228 21:20:45.206612 11999 net.cpp:129] Top shape: 1 13 16 (208)
I0228 21:20:45.206615 11999 net.cpp:137] Memory required for data: 145600
I0228 21:20:45.206619 11999 layer_factory.hpp:77] Creating layer lstm1_transform_4
I0228 21:20:45.206624 11999 net.cpp:84] Creating Layer lstm1_transform_4
I0228 21:20:45.206627 11999 net.cpp:406] lstm1_transform_4 <- h_conted_3
I0228 21:20:45.206631 11999 net.cpp:380] lstm1_transform_4 -> W_hc_h_3
I0228 21:20:45.206662 11999 net.cpp:122] Setting up lstm1_transform_4
I0228 21:20:45.206667 11999 net.cpp:129] Top shape: 1 13 64 (832)
I0228 21:20:45.206670 11999 net.cpp:137] Memory required for data: 148928
I0228 21:20:45.206674 11999 net.cpp:465] Sharing parameters 'W_hc' owned by layer 'lstm1_transform_1', param index 0
I0228 21:20:45.206677 11999 layer_factory.hpp:77] Creating layer lstm1_gate_input_4
I0228 21:20:45.206682 11999 net.cpp:84] Creating Layer lstm1_gate_input_4
I0228 21:20:45.206686 11999 net.cpp:406] lstm1_gate_input_4 <- W_hc_h_3
I0228 21:20:45.206689 11999 net.cpp:406] lstm1_gate_input_4 <- W_xc_x_4
I0228 21:20:45.206694 11999 net.cpp:380] lstm1_gate_input_4 -> gate_input_4
I0228 21:20:45.206708 11999 net.cpp:122] Setting up lstm1_gate_input_4
I0228 21:20:45.206713 11999 net.cpp:129] Top shape: 1 13 64 (832)
I0228 21:20:45.206717 11999 net.cpp:137] Memory required for data: 152256
I0228 21:20:45.206719 11999 layer_factory.hpp:77] Creating layer lstm1_unit_4
I0228 21:20:45.206723 11999 net.cpp:84] Creating Layer lstm1_unit_4
I0228 21:20:45.206727 11999 net.cpp:406] lstm1_unit_4 <- c_3
I0228 21:20:45.206732 11999 net.cpp:406] lstm1_unit_4 <- gate_input_4
I0228 21:20:45.206734 11999 net.cpp:406] lstm1_unit_4 <- cont_4_lstm1_cont_slice_3_split_1
I0228 21:20:45.206738 11999 net.cpp:380] lstm1_unit_4 -> c_4
I0228 21:20:45.206744 11999 net.cpp:380] lstm1_unit_4 -> h_4
I0228 21:20:45.206773 11999 net.cpp:122] Setting up lstm1_unit_4
I0228 21:20:45.206779 11999 net.cpp:129] Top shape: 1 13 16 (208)
I0228 21:20:45.206782 11999 net.cpp:129] Top shape: 1 13 16 (208)
I0228 21:20:45.206785 11999 net.cpp:137] Memory required for data: 153920
I0228 21:20:45.206789 11999 layer_factory.hpp:77] Creating layer h_4_lstm1_unit_4_1_split
I0228 21:20:45.206794 11999 net.cpp:84] Creating Layer h_4_lstm1_unit_4_1_split
I0228 21:20:45.206796 11999 net.cpp:406] h_4_lstm1_unit_4_1_split <- h_4
I0228 21:20:45.206800 11999 net.cpp:380] h_4_lstm1_unit_4_1_split -> h_4_lstm1_unit_4_1_split_0
I0228 21:20:45.206805 11999 net.cpp:380] h_4_lstm1_unit_4_1_split -> h_4_lstm1_unit_4_1_split_1
I0228 21:20:45.206825 11999 net.cpp:122] Setting up h_4_lstm1_unit_4_1_split
I0228 21:20:45.206830 11999 net.cpp:129] Top shape: 1 13 16 (208)
I0228 21:20:45.206835 11999 net.cpp:129] Top shape: 1 13 16 (208)
I0228 21:20:45.206837 11999 net.cpp:137] Memory required for data: 155584
I0228 21:20:45.206840 11999 layer_factory.hpp:77] Creating layer lstm1_h_conted_4
I0228 21:20:45.206845 11999 net.cpp:84] Creating Layer lstm1_h_conted_4
I0228 21:20:45.206847 11999 net.cpp:406] lstm1_h_conted_4 <- h_4_lstm1_unit_4_1_split_0
I0228 21:20:45.206851 11999 net.cpp:406] lstm1_h_conted_4 <- cont_5_lstm1_cont_slice_4_split_0
I0228 21:20:45.206861 11999 net.cpp:380] lstm1_h_conted_4 -> h_conted_4
I0228 21:20:45.206892 11999 net.cpp:122] Setting up lstm1_h_conted_4
I0228 21:20:45.206898 11999 net.cpp:129] Top shape: 1 13 16 (208)
I0228 21:20:45.206902 11999 net.cpp:137] Memory required for data: 156416
I0228 21:20:45.206904 11999 layer_factory.hpp:77] Creating layer lstm1_transform_5
I0228 21:20:45.206909 11999 net.cpp:84] Creating Layer lstm1_transform_5
I0228 21:20:45.206912 11999 net.cpp:406] lstm1_transform_5 <- h_conted_4
I0228 21:20:45.206918 11999 net.cpp:380] lstm1_transform_5 -> W_hc_h_4
I0228 21:20:45.206948 11999 net.cpp:122] Setting up lstm1_transform_5
I0228 21:20:45.206954 11999 net.cpp:129] Top shape: 1 13 64 (832)
I0228 21:20:45.206956 11999 net.cpp:137] Memory required for data: 159744
I0228 21:20:45.206959 11999 net.cpp:465] Sharing parameters 'W_hc' owned by layer 'lstm1_transform_1', param index 0
I0228 21:20:45.206964 11999 layer_factory.hpp:77] Creating layer lstm1_gate_input_5
I0228 21:20:45.206967 11999 net.cpp:84] Creating Layer lstm1_gate_input_5
I0228 21:20:45.206970 11999 net.cpp:406] lstm1_gate_input_5 <- W_hc_h_4
I0228 21:20:45.206974 11999 net.cpp:406] lstm1_gate_input_5 <- W_xc_x_5
I0228 21:20:45.206979 11999 net.cpp:380] lstm1_gate_input_5 -> gate_input_5
I0228 21:20:45.206993 11999 net.cpp:122] Setting up lstm1_gate_input_5
I0228 21:20:45.206998 11999 net.cpp:129] Top shape: 1 13 64 (832)
I0228 21:20:45.207001 11999 net.cpp:137] Memory required for data: 163072
I0228 21:20:45.207005 11999 layer_factory.hpp:77] Creating layer lstm1_unit_5
I0228 21:20:45.207010 11999 net.cpp:84] Creating Layer lstm1_unit_5
I0228 21:20:45.207012 11999 net.cpp:406] lstm1_unit_5 <- c_4
I0228 21:20:45.207016 11999 net.cpp:406] lstm1_unit_5 <- gate_input_5
I0228 21:20:45.207020 11999 net.cpp:406] lstm1_unit_5 <- cont_5_lstm1_cont_slice_4_split_1
I0228 21:20:45.207024 11999 net.cpp:380] lstm1_unit_5 -> c_5
I0228 21:20:45.207029 11999 net.cpp:380] lstm1_unit_5 -> h_5
I0228 21:20:45.207053 11999 net.cpp:122] Setting up lstm1_unit_5
I0228 21:20:45.207058 11999 net.cpp:129] Top shape: 1 13 16 (208)
I0228 21:20:45.207062 11999 net.cpp:129] Top shape: 1 13 16 (208)
I0228 21:20:45.207065 11999 net.cpp:137] Memory required for data: 164736
I0228 21:20:45.207068 11999 layer_factory.hpp:77] Creating layer h_5_lstm1_unit_5_1_split
I0228 21:20:45.207072 11999 net.cpp:84] Creating Layer h_5_lstm1_unit_5_1_split
I0228 21:20:45.207075 11999 net.cpp:406] h_5_lstm1_unit_5_1_split <- h_5
I0228 21:20:45.207078 11999 net.cpp:380] h_5_lstm1_unit_5_1_split -> h_5_lstm1_unit_5_1_split_0
I0228 21:20:45.207083 11999 net.cpp:380] h_5_lstm1_unit_5_1_split -> h_5_lstm1_unit_5_1_split_1
I0228 21:20:45.207101 11999 net.cpp:122] Setting up h_5_lstm1_unit_5_1_split
I0228 21:20:45.207111 11999 net.cpp:129] Top shape: 1 13 16 (208)
I0228 21:20:45.207115 11999 net.cpp:129] Top shape: 1 13 16 (208)
I0228 21:20:45.207118 11999 net.cpp:137] Memory required for data: 166400
I0228 21:20:45.207121 11999 layer_factory.hpp:77] Creating layer lstm1_h_conted_5
I0228 21:20:45.207125 11999 net.cpp:84] Creating Layer lstm1_h_conted_5
I0228 21:20:45.207129 11999 net.cpp:406] lstm1_h_conted_5 <- h_5_lstm1_unit_5_1_split_0
I0228 21:20:45.207132 11999 net.cpp:406] lstm1_h_conted_5 <- cont_6_lstm1_cont_slice_5_split_0
I0228 21:20:45.207136 11999 net.cpp:380] lstm1_h_conted_5 -> h_conted_5
I0228 21:20:45.207166 11999 net.cpp:122] Setting up lstm1_h_conted_5
I0228 21:20:45.207172 11999 net.cpp:129] Top shape: 1 13 16 (208)
I0228 21:20:45.207175 11999 net.cpp:137] Memory required for data: 167232
I0228 21:20:45.207178 11999 layer_factory.hpp:77] Creating layer lstm1_transform_6
I0228 21:20:45.207182 11999 net.cpp:84] Creating Layer lstm1_transform_6
I0228 21:20:45.207186 11999 net.cpp:406] lstm1_transform_6 <- h_conted_5
I0228 21:20:45.207191 11999 net.cpp:380] lstm1_transform_6 -> W_hc_h_5
I0228 21:20:45.207221 11999 net.cpp:122] Setting up lstm1_transform_6
I0228 21:20:45.207227 11999 net.cpp:129] Top shape: 1 13 64 (832)
I0228 21:20:45.207231 11999 net.cpp:137] Memory required for data: 170560
I0228 21:20:45.207233 11999 net.cpp:465] Sharing parameters 'W_hc' owned by layer 'lstm1_transform_1', param index 0
I0228 21:20:45.207237 11999 layer_factory.hpp:77] Creating layer lstm1_gate_input_6
I0228 21:20:45.207242 11999 net.cpp:84] Creating Layer lstm1_gate_input_6
I0228 21:20:45.207245 11999 net.cpp:406] lstm1_gate_input_6 <- W_hc_h_5
I0228 21:20:45.207249 11999 net.cpp:406] lstm1_gate_input_6 <- W_xc_x_6
I0228 21:20:45.207253 11999 net.cpp:380] lstm1_gate_input_6 -> gate_input_6
I0228 21:20:45.207267 11999 net.cpp:122] Setting up lstm1_gate_input_6
I0228 21:20:45.207271 11999 net.cpp:129] Top shape: 1 13 64 (832)
I0228 21:20:45.207274 11999 net.cpp:137] Memory required for data: 173888
I0228 21:20:45.207278 11999 layer_factory.hpp:77] Creating layer lstm1_unit_6
I0228 21:20:45.207284 11999 net.cpp:84] Creating Layer lstm1_unit_6
I0228 21:20:45.207288 11999 net.cpp:406] lstm1_unit_6 <- c_5
I0228 21:20:45.207291 11999 net.cpp:406] lstm1_unit_6 <- gate_input_6
I0228 21:20:45.207295 11999 net.cpp:406] lstm1_unit_6 <- cont_6_lstm1_cont_slice_5_split_1
I0228 21:20:45.207299 11999 net.cpp:380] lstm1_unit_6 -> c_6
I0228 21:20:45.207304 11999 net.cpp:380] lstm1_unit_6 -> h_6
I0228 21:20:45.207327 11999 net.cpp:122] Setting up lstm1_unit_6
I0228 21:20:45.207332 11999 net.cpp:129] Top shape: 1 13 16 (208)
I0228 21:20:45.207336 11999 net.cpp:129] Top shape: 1 13 16 (208)
I0228 21:20:45.207340 11999 net.cpp:137] Memory required for data: 175552
I0228 21:20:45.207342 11999 layer_factory.hpp:77] Creating layer h_6_lstm1_unit_6_1_split
I0228 21:20:45.207347 11999 net.cpp:84] Creating Layer h_6_lstm1_unit_6_1_split
I0228 21:20:45.207351 11999 net.cpp:406] h_6_lstm1_unit_6_1_split <- h_6
I0228 21:20:45.207355 11999 net.cpp:380] h_6_lstm1_unit_6_1_split -> h_6_lstm1_unit_6_1_split_0
I0228 21:20:45.207360 11999 net.cpp:380] h_6_lstm1_unit_6_1_split -> h_6_lstm1_unit_6_1_split_1
I0228 21:20:45.207377 11999 net.cpp:122] Setting up h_6_lstm1_unit_6_1_split
I0228 21:20:45.207382 11999 net.cpp:129] Top shape: 1 13 16 (208)
I0228 21:20:45.207386 11999 net.cpp:129] Top shape: 1 13 16 (208)
I0228 21:20:45.207389 11999 net.cpp:137] Memory required for data: 177216
I0228 21:20:45.207392 11999 layer_factory.hpp:77] Creating layer lstm1_h_conted_6
I0228 21:20:45.207396 11999 net.cpp:84] Creating Layer lstm1_h_conted_6
I0228 21:20:45.207401 11999 net.cpp:406] lstm1_h_conted_6 <- h_6_lstm1_unit_6_1_split_0
I0228 21:20:45.207404 11999 net.cpp:406] lstm1_h_conted_6 <- cont_7_lstm1_cont_slice_6_split_0
I0228 21:20:45.207408 11999 net.cpp:380] lstm1_h_conted_6 -> h_conted_6
I0228 21:20:45.207437 11999 net.cpp:122] Setting up lstm1_h_conted_6
I0228 21:20:45.207442 11999 net.cpp:129] Top shape: 1 13 16 (208)
I0228 21:20:45.207450 11999 net.cpp:137] Memory required for data: 178048
I0228 21:20:45.207453 11999 layer_factory.hpp:77] Creating layer lstm1_transform_7
I0228 21:20:45.207458 11999 net.cpp:84] Creating Layer lstm1_transform_7
I0228 21:20:45.207461 11999 net.cpp:406] lstm1_transform_7 <- h_conted_6
I0228 21:20:45.207465 11999 net.cpp:380] lstm1_transform_7 -> W_hc_h_6
I0228 21:20:45.207496 11999 net.cpp:122] Setting up lstm1_transform_7
I0228 21:20:45.207502 11999 net.cpp:129] Top shape: 1 13 64 (832)
I0228 21:20:45.207505 11999 net.cpp:137] Memory required for data: 181376
I0228 21:20:45.207511 11999 net.cpp:465] Sharing parameters 'W_hc' owned by layer 'lstm1_transform_1', param index 0
I0228 21:20:45.207515 11999 layer_factory.hpp:77] Creating layer lstm1_gate_input_7
I0228 21:20:45.207520 11999 net.cpp:84] Creating Layer lstm1_gate_input_7
I0228 21:20:45.207523 11999 net.cpp:406] lstm1_gate_input_7 <- W_hc_h_6
I0228 21:20:45.207527 11999 net.cpp:406] lstm1_gate_input_7 <- W_xc_x_7
I0228 21:20:45.207532 11999 net.cpp:380] lstm1_gate_input_7 -> gate_input_7
I0228 21:20:45.207545 11999 net.cpp:122] Setting up lstm1_gate_input_7
I0228 21:20:45.207551 11999 net.cpp:129] Top shape: 1 13 64 (832)
I0228 21:20:45.207553 11999 net.cpp:137] Memory required for data: 184704
I0228 21:20:45.207556 11999 layer_factory.hpp:77] Creating layer lstm1_unit_7
I0228 21:20:45.207562 11999 net.cpp:84] Creating Layer lstm1_unit_7
I0228 21:20:45.207566 11999 net.cpp:406] lstm1_unit_7 <- c_6
I0228 21:20:45.207569 11999 net.cpp:406] lstm1_unit_7 <- gate_input_7
I0228 21:20:45.207573 11999 net.cpp:406] lstm1_unit_7 <- cont_7_lstm1_cont_slice_6_split_1
I0228 21:20:45.207577 11999 net.cpp:380] lstm1_unit_7 -> c_7
I0228 21:20:45.207582 11999 net.cpp:380] lstm1_unit_7 -> h_7
I0228 21:20:45.207605 11999 net.cpp:122] Setting up lstm1_unit_7
I0228 21:20:45.207610 11999 net.cpp:129] Top shape: 1 13 16 (208)
I0228 21:20:45.207614 11999 net.cpp:129] Top shape: 1 13 16 (208)
I0228 21:20:45.207617 11999 net.cpp:137] Memory required for data: 186368
I0228 21:20:45.207620 11999 layer_factory.hpp:77] Creating layer h_7_lstm1_unit_7_1_split
I0228 21:20:45.207625 11999 net.cpp:84] Creating Layer h_7_lstm1_unit_7_1_split
I0228 21:20:45.207628 11999 net.cpp:406] h_7_lstm1_unit_7_1_split <- h_7
I0228 21:20:45.207633 11999 net.cpp:380] h_7_lstm1_unit_7_1_split -> h_7_lstm1_unit_7_1_split_0
I0228 21:20:45.207636 11999 net.cpp:380] h_7_lstm1_unit_7_1_split -> h_7_lstm1_unit_7_1_split_1
I0228 21:20:45.207653 11999 net.cpp:122] Setting up h_7_lstm1_unit_7_1_split
I0228 21:20:45.207657 11999 net.cpp:129] Top shape: 1 13 16 (208)
I0228 21:20:45.207661 11999 net.cpp:129] Top shape: 1 13 16 (208)
I0228 21:20:45.207664 11999 net.cpp:137] Memory required for data: 188032
I0228 21:20:45.207667 11999 layer_factory.hpp:77] Creating layer lstm1_h_conted_7
I0228 21:20:45.207672 11999 net.cpp:84] Creating Layer lstm1_h_conted_7
I0228 21:20:45.207675 11999 net.cpp:406] lstm1_h_conted_7 <- h_7_lstm1_unit_7_1_split_0
I0228 21:20:45.207679 11999 net.cpp:406] lstm1_h_conted_7 <- cont_8_lstm1_cont_slice_7_split_0
I0228 21:20:45.207684 11999 net.cpp:380] lstm1_h_conted_7 -> h_conted_7
I0228 21:20:45.207715 11999 net.cpp:122] Setting up lstm1_h_conted_7
I0228 21:20:45.207720 11999 net.cpp:129] Top shape: 1 13 16 (208)
I0228 21:20:45.207722 11999 net.cpp:137] Memory required for data: 188864
I0228 21:20:45.207726 11999 layer_factory.hpp:77] Creating layer lstm1_transform_8
I0228 21:20:45.207731 11999 net.cpp:84] Creating Layer lstm1_transform_8
I0228 21:20:45.207733 11999 net.cpp:406] lstm1_transform_8 <- h_conted_7
I0228 21:20:45.207737 11999 net.cpp:380] lstm1_transform_8 -> W_hc_h_7
I0228 21:20:45.207768 11999 net.cpp:122] Setting up lstm1_transform_8
I0228 21:20:45.207773 11999 net.cpp:129] Top shape: 1 13 64 (832)
I0228 21:20:45.207777 11999 net.cpp:137] Memory required for data: 192192
I0228 21:20:45.207779 11999 net.cpp:465] Sharing parameters 'W_hc' owned by layer 'lstm1_transform_1', param index 0
I0228 21:20:45.207783 11999 layer_factory.hpp:77] Creating layer lstm1_gate_input_8
I0228 21:20:45.207793 11999 net.cpp:84] Creating Layer lstm1_gate_input_8
I0228 21:20:45.207798 11999 net.cpp:406] lstm1_gate_input_8 <- W_hc_h_7
I0228 21:20:45.207801 11999 net.cpp:406] lstm1_gate_input_8 <- W_xc_x_8
I0228 21:20:45.207805 11999 net.cpp:380] lstm1_gate_input_8 -> gate_input_8
I0228 21:20:45.207819 11999 net.cpp:122] Setting up lstm1_gate_input_8
I0228 21:20:45.207824 11999 net.cpp:129] Top shape: 1 13 64 (832)
I0228 21:20:45.207828 11999 net.cpp:137] Memory required for data: 195520
I0228 21:20:45.207830 11999 layer_factory.hpp:77] Creating layer lstm1_unit_8
I0228 21:20:45.207835 11999 net.cpp:84] Creating Layer lstm1_unit_8
I0228 21:20:45.207839 11999 net.cpp:406] lstm1_unit_8 <- c_7
I0228 21:20:45.207844 11999 net.cpp:406] lstm1_unit_8 <- gate_input_8
I0228 21:20:45.207846 11999 net.cpp:406] lstm1_unit_8 <- cont_8_lstm1_cont_slice_7_split_1
I0228 21:20:45.207851 11999 net.cpp:380] lstm1_unit_8 -> c_8
I0228 21:20:45.207856 11999 net.cpp:380] lstm1_unit_8 -> h_8
I0228 21:20:45.207880 11999 net.cpp:122] Setting up lstm1_unit_8
I0228 21:20:45.207885 11999 net.cpp:129] Top shape: 1 13 16 (208)
I0228 21:20:45.207890 11999 net.cpp:129] Top shape: 1 13 16 (208)
I0228 21:20:45.207892 11999 net.cpp:137] Memory required for data: 197184
I0228 21:20:45.207895 11999 layer_factory.hpp:77] Creating layer h_8_lstm1_unit_8_1_split
I0228 21:20:45.207900 11999 net.cpp:84] Creating Layer h_8_lstm1_unit_8_1_split
I0228 21:20:45.207902 11999 net.cpp:406] h_8_lstm1_unit_8_1_split <- h_8
I0228 21:20:45.207907 11999 net.cpp:380] h_8_lstm1_unit_8_1_split -> h_8_lstm1_unit_8_1_split_0
I0228 21:20:45.207911 11999 net.cpp:380] h_8_lstm1_unit_8_1_split -> h_8_lstm1_unit_8_1_split_1
I0228 21:20:45.207929 11999 net.cpp:122] Setting up h_8_lstm1_unit_8_1_split
I0228 21:20:45.207934 11999 net.cpp:129] Top shape: 1 13 16 (208)
I0228 21:20:45.207938 11999 net.cpp:129] Top shape: 1 13 16 (208)
I0228 21:20:45.207942 11999 net.cpp:137] Memory required for data: 198848
I0228 21:20:45.207944 11999 layer_factory.hpp:77] Creating layer lstm1_h_conted_8
I0228 21:20:45.207949 11999 net.cpp:84] Creating Layer lstm1_h_conted_8
I0228 21:20:45.207952 11999 net.cpp:406] lstm1_h_conted_8 <- h_8_lstm1_unit_8_1_split_0
I0228 21:20:45.207957 11999 net.cpp:406] lstm1_h_conted_8 <- cont_9_lstm1_cont_slice_8_split_0
I0228 21:20:45.207960 11999 net.cpp:380] lstm1_h_conted_8 -> h_conted_8
I0228 21:20:45.207991 11999 net.cpp:122] Setting up lstm1_h_conted_8
I0228 21:20:45.207996 11999 net.cpp:129] Top shape: 1 13 16 (208)
I0228 21:20:45.207999 11999 net.cpp:137] Memory required for data: 199680
I0228 21:20:45.208003 11999 layer_factory.hpp:77] Creating layer lstm1_transform_9
I0228 21:20:45.208010 11999 net.cpp:84] Creating Layer lstm1_transform_9
I0228 21:20:45.208014 11999 net.cpp:406] lstm1_transform_9 <- h_conted_8
I0228 21:20:45.208019 11999 net.cpp:380] lstm1_transform_9 -> W_hc_h_8
I0228 21:20:45.208048 11999 net.cpp:122] Setting up lstm1_transform_9
I0228 21:20:45.208053 11999 net.cpp:129] Top shape: 1 13 64 (832)
I0228 21:20:45.208056 11999 net.cpp:137] Memory required for data: 203008
I0228 21:20:45.208060 11999 net.cpp:465] Sharing parameters 'W_hc' owned by layer 'lstm1_transform_1', param index 0
I0228 21:20:45.208063 11999 layer_factory.hpp:77] Creating layer lstm1_gate_input_9
I0228 21:20:45.208067 11999 net.cpp:84] Creating Layer lstm1_gate_input_9
I0228 21:20:45.208071 11999 net.cpp:406] lstm1_gate_input_9 <- W_hc_h_8
I0228 21:20:45.208076 11999 net.cpp:406] lstm1_gate_input_9 <- W_xc_x_9
I0228 21:20:45.208081 11999 net.cpp:380] lstm1_gate_input_9 -> gate_input_9
I0228 21:20:45.208093 11999 net.cpp:122] Setting up lstm1_gate_input_9
I0228 21:20:45.208098 11999 net.cpp:129] Top shape: 1 13 64 (832)
I0228 21:20:45.208101 11999 net.cpp:137] Memory required for data: 206336
I0228 21:20:45.208104 11999 layer_factory.hpp:77] Creating layer lstm1_unit_9
I0228 21:20:45.208114 11999 net.cpp:84] Creating Layer lstm1_unit_9
I0228 21:20:45.208118 11999 net.cpp:406] lstm1_unit_9 <- c_8
I0228 21:20:45.208122 11999 net.cpp:406] lstm1_unit_9 <- gate_input_9
I0228 21:20:45.208130 11999 net.cpp:406] lstm1_unit_9 <- cont_9_lstm1_cont_slice_8_split_1
I0228 21:20:45.208135 11999 net.cpp:380] lstm1_unit_9 -> c_9
I0228 21:20:45.208148 11999 net.cpp:380] lstm1_unit_9 -> h_9
I0228 21:20:45.208173 11999 net.cpp:122] Setting up lstm1_unit_9
I0228 21:20:45.208180 11999 net.cpp:129] Top shape: 1 13 16 (208)
I0228 21:20:45.208184 11999 net.cpp:129] Top shape: 1 13 16 (208)
I0228 21:20:45.208187 11999 net.cpp:137] Memory required for data: 208000
I0228 21:20:45.208190 11999 layer_factory.hpp:77] Creating layer h_9_lstm1_unit_9_1_split
I0228 21:20:45.208194 11999 net.cpp:84] Creating Layer h_9_lstm1_unit_9_1_split
I0228 21:20:45.208199 11999 net.cpp:406] h_9_lstm1_unit_9_1_split <- h_9
I0228 21:20:45.208202 11999 net.cpp:380] h_9_lstm1_unit_9_1_split -> h_9_lstm1_unit_9_1_split_0
I0228 21:20:45.208207 11999 net.cpp:380] h_9_lstm1_unit_9_1_split -> h_9_lstm1_unit_9_1_split_1
I0228 21:20:45.208226 11999 net.cpp:122] Setting up h_9_lstm1_unit_9_1_split
I0228 21:20:45.208231 11999 net.cpp:129] Top shape: 1 13 16 (208)
I0228 21:20:45.208235 11999 net.cpp:129] Top shape: 1 13 16 (208)
I0228 21:20:45.208238 11999 net.cpp:137] Memory required for data: 209664
I0228 21:20:45.208242 11999 layer_factory.hpp:77] Creating layer lstm1_h_conted_9
I0228 21:20:45.208247 11999 net.cpp:84] Creating Layer lstm1_h_conted_9
I0228 21:20:45.208251 11999 net.cpp:406] lstm1_h_conted_9 <- h_9_lstm1_unit_9_1_split_0
I0228 21:20:45.208256 11999 net.cpp:406] lstm1_h_conted_9 <- cont_10_lstm1_cont_slice_9_split_0
I0228 21:20:45.208261 11999 net.cpp:380] lstm1_h_conted_9 -> h_conted_9
I0228 21:20:45.208290 11999 net.cpp:122] Setting up lstm1_h_conted_9
I0228 21:20:45.208297 11999 net.cpp:129] Top shape: 1 13 16 (208)
I0228 21:20:45.208299 11999 net.cpp:137] Memory required for data: 210496
I0228 21:20:45.208302 11999 layer_factory.hpp:77] Creating layer lstm1_transform_10
I0228 21:20:45.208308 11999 net.cpp:84] Creating Layer lstm1_transform_10
I0228 21:20:45.208312 11999 net.cpp:406] lstm1_transform_10 <- h_conted_9
I0228 21:20:45.208317 11999 net.cpp:380] lstm1_transform_10 -> W_hc_h_9
I0228 21:20:45.208348 11999 net.cpp:122] Setting up lstm1_transform_10
I0228 21:20:45.208353 11999 net.cpp:129] Top shape: 1 13 64 (832)
I0228 21:20:45.208355 11999 net.cpp:137] Memory required for data: 213824
I0228 21:20:45.208359 11999 net.cpp:465] Sharing parameters 'W_hc' owned by layer 'lstm1_transform_1', param index 0
I0228 21:20:45.208360 11999 layer_factory.hpp:77] Creating layer lstm1_gate_input_10
I0228 21:20:45.208364 11999 net.cpp:84] Creating Layer lstm1_gate_input_10
I0228 21:20:45.208367 11999 net.cpp:406] lstm1_gate_input_10 <- W_hc_h_9
I0228 21:20:45.208370 11999 net.cpp:406] lstm1_gate_input_10 <- W_xc_x_10
I0228 21:20:45.208376 11999 net.cpp:380] lstm1_gate_input_10 -> gate_input_10
I0228 21:20:45.208390 11999 net.cpp:122] Setting up lstm1_gate_input_10
I0228 21:20:45.208395 11999 net.cpp:129] Top shape: 1 13 64 (832)
I0228 21:20:45.208398 11999 net.cpp:137] Memory required for data: 217152
I0228 21:20:45.208402 11999 layer_factory.hpp:77] Creating layer lstm1_unit_10
I0228 21:20:45.208406 11999 net.cpp:84] Creating Layer lstm1_unit_10
I0228 21:20:45.208410 11999 net.cpp:406] lstm1_unit_10 <- c_9
I0228 21:20:45.208415 11999 net.cpp:406] lstm1_unit_10 <- gate_input_10
I0228 21:20:45.208418 11999 net.cpp:406] lstm1_unit_10 <- cont_10_lstm1_cont_slice_9_split_1
I0228 21:20:45.208422 11999 net.cpp:380] lstm1_unit_10 -> c_10
I0228 21:20:45.208427 11999 net.cpp:380] lstm1_unit_10 -> h_10
I0228 21:20:45.208451 11999 net.cpp:122] Setting up lstm1_unit_10
I0228 21:20:45.208456 11999 net.cpp:129] Top shape: 1 13 16 (208)
I0228 21:20:45.208459 11999 net.cpp:129] Top shape: 1 13 16 (208)
I0228 21:20:45.208462 11999 net.cpp:137] Memory required for data: 218816
I0228 21:20:45.208465 11999 layer_factory.hpp:77] Creating layer h_10_lstm1_unit_10_1_split
I0228 21:20:45.208469 11999 net.cpp:84] Creating Layer h_10_lstm1_unit_10_1_split
I0228 21:20:45.208472 11999 net.cpp:406] h_10_lstm1_unit_10_1_split <- h_10
I0228 21:20:45.208477 11999 net.cpp:380] h_10_lstm1_unit_10_1_split -> h_10_lstm1_unit_10_1_split_0
I0228 21:20:45.208485 11999 net.cpp:380] h_10_lstm1_unit_10_1_split -> h_10_lstm1_unit_10_1_split_1
I0228 21:20:45.208505 11999 net.cpp:122] Setting up h_10_lstm1_unit_10_1_split
I0228 21:20:45.208510 11999 net.cpp:129] Top shape: 1 13 16 (208)
I0228 21:20:45.208513 11999 net.cpp:129] Top shape: 1 13 16 (208)
I0228 21:20:45.208518 11999 net.cpp:137] Memory required for data: 220480
I0228 21:20:45.208520 11999 layer_factory.hpp:77] Creating layer lstm1_h_conted_10
I0228 21:20:45.208523 11999 net.cpp:84] Creating Layer lstm1_h_conted_10
I0228 21:20:45.208528 11999 net.cpp:406] lstm1_h_conted_10 <- h_10_lstm1_unit_10_1_split_0
I0228 21:20:45.208531 11999 net.cpp:406] lstm1_h_conted_10 <- cont_11_lstm1_cont_slice_10_split_0
I0228 21:20:45.208536 11999 net.cpp:380] lstm1_h_conted_10 -> h_conted_10
I0228 21:20:45.208569 11999 net.cpp:122] Setting up lstm1_h_conted_10
I0228 21:20:45.208573 11999 net.cpp:129] Top shape: 1 13 16 (208)
I0228 21:20:45.208576 11999 net.cpp:137] Memory required for data: 221312
I0228 21:20:45.208580 11999 layer_factory.hpp:77] Creating layer lstm1_transform_11
I0228 21:20:45.208585 11999 net.cpp:84] Creating Layer lstm1_transform_11
I0228 21:20:45.208587 11999 net.cpp:406] lstm1_transform_11 <- h_conted_10
I0228 21:20:45.208593 11999 net.cpp:380] lstm1_transform_11 -> W_hc_h_10
I0228 21:20:45.208623 11999 net.cpp:122] Setting up lstm1_transform_11
I0228 21:20:45.208629 11999 net.cpp:129] Top shape: 1 13 64 (832)
I0228 21:20:45.208632 11999 net.cpp:137] Memory required for data: 224640
I0228 21:20:45.208636 11999 net.cpp:465] Sharing parameters 'W_hc' owned by layer 'lstm1_transform_1', param index 0
I0228 21:20:45.208639 11999 layer_factory.hpp:77] Creating layer lstm1_gate_input_11
I0228 21:20:45.208644 11999 net.cpp:84] Creating Layer lstm1_gate_input_11
I0228 21:20:45.208647 11999 net.cpp:406] lstm1_gate_input_11 <- W_hc_h_10
I0228 21:20:45.208652 11999 net.cpp:406] lstm1_gate_input_11 <- W_xc_x_11
I0228 21:20:45.208657 11999 net.cpp:380] lstm1_gate_input_11 -> gate_input_11
I0228 21:20:45.208670 11999 net.cpp:122] Setting up lstm1_gate_input_11
I0228 21:20:45.208675 11999 net.cpp:129] Top shape: 1 13 64 (832)
I0228 21:20:45.208678 11999 net.cpp:137] Memory required for data: 227968
I0228 21:20:45.208683 11999 layer_factory.hpp:77] Creating layer lstm1_unit_11
I0228 21:20:45.208686 11999 net.cpp:84] Creating Layer lstm1_unit_11
I0228 21:20:45.208690 11999 net.cpp:406] lstm1_unit_11 <- c_10
I0228 21:20:45.208694 11999 net.cpp:406] lstm1_unit_11 <- gate_input_11
I0228 21:20:45.208698 11999 net.cpp:406] lstm1_unit_11 <- cont_11_lstm1_cont_slice_10_split_1
I0228 21:20:45.208703 11999 net.cpp:380] lstm1_unit_11 -> c_11
I0228 21:20:45.208708 11999 net.cpp:380] lstm1_unit_11 -> h_11
I0228 21:20:45.208731 11999 net.cpp:122] Setting up lstm1_unit_11
I0228 21:20:45.208736 11999 net.cpp:129] Top shape: 1 13 16 (208)
I0228 21:20:45.208740 11999 net.cpp:129] Top shape: 1 13 16 (208)
I0228 21:20:45.208744 11999 net.cpp:137] Memory required for data: 229632
I0228 21:20:45.208746 11999 layer_factory.hpp:77] Creating layer h_11_lstm1_unit_11_1_split
I0228 21:20:45.208751 11999 net.cpp:84] Creating Layer h_11_lstm1_unit_11_1_split
I0228 21:20:45.208755 11999 net.cpp:406] h_11_lstm1_unit_11_1_split <- h_11
I0228 21:20:45.208758 11999 net.cpp:380] h_11_lstm1_unit_11_1_split -> h_11_lstm1_unit_11_1_split_0
I0228 21:20:45.208763 11999 net.cpp:380] h_11_lstm1_unit_11_1_split -> h_11_lstm1_unit_11_1_split_1
I0228 21:20:45.208782 11999 net.cpp:122] Setting up h_11_lstm1_unit_11_1_split
I0228 21:20:45.208787 11999 net.cpp:129] Top shape: 1 13 16 (208)
I0228 21:20:45.208791 11999 net.cpp:129] Top shape: 1 13 16 (208)
I0228 21:20:45.208794 11999 net.cpp:137] Memory required for data: 231296
I0228 21:20:45.208797 11999 layer_factory.hpp:77] Creating layer lstm1_h_conted_11
I0228 21:20:45.208802 11999 net.cpp:84] Creating Layer lstm1_h_conted_11
I0228 21:20:45.208806 11999 net.cpp:406] lstm1_h_conted_11 <- h_11_lstm1_unit_11_1_split_0
I0228 21:20:45.208814 11999 net.cpp:406] lstm1_h_conted_11 <- cont_12_lstm1_cont_slice_11_split_0
I0228 21:20:45.208818 11999 net.cpp:380] lstm1_h_conted_11 -> h_conted_11
I0228 21:20:45.208894 11999 net.cpp:122] Setting up lstm1_h_conted_11
I0228 21:20:45.208904 11999 net.cpp:129] Top shape: 1 13 16 (208)
I0228 21:20:45.208909 11999 net.cpp:137] Memory required for data: 232128
I0228 21:20:45.208914 11999 layer_factory.hpp:77] Creating layer lstm1_transform_12
I0228 21:20:45.208920 11999 net.cpp:84] Creating Layer lstm1_transform_12
I0228 21:20:45.208926 11999 net.cpp:406] lstm1_transform_12 <- h_conted_11
I0228 21:20:45.208935 11999 net.cpp:380] lstm1_transform_12 -> W_hc_h_11
I0228 21:20:45.208977 11999 net.cpp:122] Setting up lstm1_transform_12
I0228 21:20:45.208986 11999 net.cpp:129] Top shape: 1 13 64 (832)
I0228 21:20:45.208990 11999 net.cpp:137] Memory required for data: 235456
I0228 21:20:45.208997 11999 net.cpp:465] Sharing parameters 'W_hc' owned by layer 'lstm1_transform_1', param index 0
I0228 21:20:45.209002 11999 layer_factory.hpp:77] Creating layer lstm1_gate_input_12
I0228 21:20:45.209007 11999 net.cpp:84] Creating Layer lstm1_gate_input_12
I0228 21:20:45.209013 11999 net.cpp:406] lstm1_gate_input_12 <- W_hc_h_11
I0228 21:20:45.209018 11999 net.cpp:406] lstm1_gate_input_12 <- W_xc_x_12
I0228 21:20:45.209025 11999 net.cpp:380] lstm1_gate_input_12 -> gate_input_12
I0228 21:20:45.209044 11999 net.cpp:122] Setting up lstm1_gate_input_12
I0228 21:20:45.209051 11999 net.cpp:129] Top shape: 1 13 64 (832)
I0228 21:20:45.209055 11999 net.cpp:137] Memory required for data: 238784
I0228 21:20:45.209060 11999 layer_factory.hpp:77] Creating layer lstm1_unit_12
I0228 21:20:45.209069 11999 net.cpp:84] Creating Layer lstm1_unit_12
I0228 21:20:45.209074 11999 net.cpp:406] lstm1_unit_12 <- c_11
I0228 21:20:45.209080 11999 net.cpp:406] lstm1_unit_12 <- gate_input_12
I0228 21:20:45.209085 11999 net.cpp:406] lstm1_unit_12 <- cont_12_lstm1_cont_slice_11_split_1
I0228 21:20:45.209092 11999 net.cpp:380] lstm1_unit_12 -> c_12
I0228 21:20:45.209100 11999 net.cpp:380] lstm1_unit_12 -> h_12
I0228 21:20:45.209133 11999 net.cpp:122] Setting up lstm1_unit_12
I0228 21:20:45.209141 11999 net.cpp:129] Top shape: 1 13 16 (208)
I0228 21:20:45.209146 11999 net.cpp:129] Top shape: 1 13 16 (208)
I0228 21:20:45.209151 11999 net.cpp:137] Memory required for data: 240448
I0228 21:20:45.209156 11999 layer_factory.hpp:77] Creating layer h_12_lstm1_unit_12_1_split
I0228 21:20:45.209162 11999 net.cpp:84] Creating Layer h_12_lstm1_unit_12_1_split
I0228 21:20:45.209167 11999 net.cpp:406] h_12_lstm1_unit_12_1_split <- h_12
I0228 21:20:45.209174 11999 net.cpp:380] h_12_lstm1_unit_12_1_split -> h_12_lstm1_unit_12_1_split_0
I0228 21:20:45.209182 11999 net.cpp:380] h_12_lstm1_unit_12_1_split -> h_12_lstm1_unit_12_1_split_1
I0228 21:20:45.209206 11999 net.cpp:122] Setting up h_12_lstm1_unit_12_1_split
I0228 21:20:45.209214 11999 net.cpp:129] Top shape: 1 13 16 (208)
I0228 21:20:45.209220 11999 net.cpp:129] Top shape: 1 13 16 (208)
I0228 21:20:45.209224 11999 net.cpp:137] Memory required for data: 242112
I0228 21:20:45.209228 11999 layer_factory.hpp:77] Creating layer lstm1_h_conted_12
I0228 21:20:45.209235 11999 net.cpp:84] Creating Layer lstm1_h_conted_12
I0228 21:20:45.209241 11999 net.cpp:406] lstm1_h_conted_12 <- h_12_lstm1_unit_12_1_split_0
I0228 21:20:45.209247 11999 net.cpp:406] lstm1_h_conted_12 <- cont_13_lstm1_cont_slice_12_split_0
I0228 21:20:45.209256 11999 net.cpp:380] lstm1_h_conted_12 -> h_conted_12
I0228 21:20:45.209300 11999 net.cpp:122] Setting up lstm1_h_conted_12
I0228 21:20:45.209307 11999 net.cpp:129] Top shape: 1 13 16 (208)
I0228 21:20:45.209312 11999 net.cpp:137] Memory required for data: 242944
I0228 21:20:45.209317 11999 layer_factory.hpp:77] Creating layer lstm1_transform_13
I0228 21:20:45.209324 11999 net.cpp:84] Creating Layer lstm1_transform_13
I0228 21:20:45.209329 11999 net.cpp:406] lstm1_transform_13 <- h_conted_12
I0228 21:20:45.209336 11999 net.cpp:380] lstm1_transform_13 -> W_hc_h_12
I0228 21:20:45.209403 11999 net.cpp:122] Setting up lstm1_transform_13
I0228 21:20:45.209419 11999 net.cpp:129] Top shape: 1 13 64 (832)
I0228 21:20:45.209424 11999 net.cpp:137] Memory required for data: 246272
I0228 21:20:45.209429 11999 net.cpp:465] Sharing parameters 'W_hc' owned by layer 'lstm1_transform_1', param index 0
I0228 21:20:45.209434 11999 layer_factory.hpp:77] Creating layer lstm1_gate_input_13
I0228 21:20:45.209442 11999 net.cpp:84] Creating Layer lstm1_gate_input_13
I0228 21:20:45.209448 11999 net.cpp:406] lstm1_gate_input_13 <- W_hc_h_12
I0228 21:20:45.209455 11999 net.cpp:406] lstm1_gate_input_13 <- W_xc_x_13
I0228 21:20:45.209460 11999 net.cpp:380] lstm1_gate_input_13 -> gate_input_13
I0228 21:20:45.209481 11999 net.cpp:122] Setting up lstm1_gate_input_13
I0228 21:20:45.209487 11999 net.cpp:129] Top shape: 1 13 64 (832)
I0228 21:20:45.209491 11999 net.cpp:137] Memory required for data: 249600
I0228 21:20:45.209496 11999 layer_factory.hpp:77] Creating layer lstm1_unit_13
I0228 21:20:45.209502 11999 net.cpp:84] Creating Layer lstm1_unit_13
I0228 21:20:45.209507 11999 net.cpp:406] lstm1_unit_13 <- c_12
I0228 21:20:45.209513 11999 net.cpp:406] lstm1_unit_13 <- gate_input_13
I0228 21:20:45.209519 11999 net.cpp:406] lstm1_unit_13 <- cont_13_lstm1_cont_slice_12_split_1
I0228 21:20:45.209528 11999 net.cpp:380] lstm1_unit_13 -> c_13
I0228 21:20:45.209537 11999 net.cpp:380] lstm1_unit_13 -> h_13
I0228 21:20:45.209569 11999 net.cpp:122] Setting up lstm1_unit_13
I0228 21:20:45.209578 11999 net.cpp:129] Top shape: 1 13 16 (208)
I0228 21:20:45.209583 11999 net.cpp:129] Top shape: 1 13 16 (208)
I0228 21:20:45.209587 11999 net.cpp:137] Memory required for data: 251264
I0228 21:20:45.209592 11999 layer_factory.hpp:77] Creating layer h_13_lstm1_unit_13_1_split
I0228 21:20:45.209599 11999 net.cpp:84] Creating Layer h_13_lstm1_unit_13_1_split
I0228 21:20:45.209604 11999 net.cpp:406] h_13_lstm1_unit_13_1_split <- h_13
I0228 21:20:45.209609 11999 net.cpp:380] h_13_lstm1_unit_13_1_split -> h_13_lstm1_unit_13_1_split_0
I0228 21:20:45.209617 11999 net.cpp:380] h_13_lstm1_unit_13_1_split -> h_13_lstm1_unit_13_1_split_1
I0228 21:20:45.209642 11999 net.cpp:122] Setting up h_13_lstm1_unit_13_1_split
I0228 21:20:45.209650 11999 net.cpp:129] Top shape: 1 13 16 (208)
I0228 21:20:45.209656 11999 net.cpp:129] Top shape: 1 13 16 (208)
I0228 21:20:45.209661 11999 net.cpp:137] Memory required for data: 252928
I0228 21:20:45.209666 11999 layer_factory.hpp:77] Creating layer lstm1_h_conted_13
I0228 21:20:45.209673 11999 net.cpp:84] Creating Layer lstm1_h_conted_13
I0228 21:20:45.209678 11999 net.cpp:406] lstm1_h_conted_13 <- h_13_lstm1_unit_13_1_split_0
I0228 21:20:45.209684 11999 net.cpp:406] lstm1_h_conted_13 <- cont_14_lstm1_cont_slice_13_split_0
I0228 21:20:45.209692 11999 net.cpp:380] lstm1_h_conted_13 -> h_conted_13
I0228 21:20:45.209735 11999 net.cpp:122] Setting up lstm1_h_conted_13
I0228 21:20:45.209743 11999 net.cpp:129] Top shape: 1 13 16 (208)
I0228 21:20:45.209748 11999 net.cpp:137] Memory required for data: 253760
I0228 21:20:45.209753 11999 layer_factory.hpp:77] Creating layer lstm1_transform_14
I0228 21:20:45.209760 11999 net.cpp:84] Creating Layer lstm1_transform_14
I0228 21:20:45.209765 11999 net.cpp:406] lstm1_transform_14 <- h_conted_13
I0228 21:20:45.209772 11999 net.cpp:380] lstm1_transform_14 -> W_hc_h_13
I0228 21:20:45.209815 11999 net.cpp:122] Setting up lstm1_transform_14
I0228 21:20:45.209822 11999 net.cpp:129] Top shape: 1 13 64 (832)
I0228 21:20:45.209827 11999 net.cpp:137] Memory required for data: 257088
I0228 21:20:45.209832 11999 net.cpp:465] Sharing parameters 'W_hc' owned by layer 'lstm1_transform_1', param index 0
I0228 21:20:45.209837 11999 layer_factory.hpp:77] Creating layer lstm1_gate_input_14
I0228 21:20:45.209844 11999 net.cpp:84] Creating Layer lstm1_gate_input_14
I0228 21:20:45.209849 11999 net.cpp:406] lstm1_gate_input_14 <- W_hc_h_13
I0228 21:20:45.209856 11999 net.cpp:406] lstm1_gate_input_14 <- W_xc_x_14
I0228 21:20:45.209862 11999 net.cpp:380] lstm1_gate_input_14 -> gate_input_14
I0228 21:20:45.209880 11999 net.cpp:122] Setting up lstm1_gate_input_14
I0228 21:20:45.209895 11999 net.cpp:129] Top shape: 1 13 64 (832)
I0228 21:20:45.209900 11999 net.cpp:137] Memory required for data: 260416
I0228 21:20:45.209905 11999 layer_factory.hpp:77] Creating layer lstm1_unit_14
I0228 21:20:45.209911 11999 net.cpp:84] Creating Layer lstm1_unit_14
I0228 21:20:45.209916 11999 net.cpp:406] lstm1_unit_14 <- c_13
I0228 21:20:45.209923 11999 net.cpp:406] lstm1_unit_14 <- gate_input_14
I0228 21:20:45.209928 11999 net.cpp:406] lstm1_unit_14 <- cont_14_lstm1_cont_slice_13_split_1
I0228 21:20:45.209935 11999 net.cpp:380] lstm1_unit_14 -> c_14
I0228 21:20:45.209942 11999 net.cpp:380] lstm1_unit_14 -> h_14
I0228 21:20:45.209976 11999 net.cpp:122] Setting up lstm1_unit_14
I0228 21:20:45.209983 11999 net.cpp:129] Top shape: 1 13 16 (208)
I0228 21:20:45.209990 11999 net.cpp:129] Top shape: 1 13 16 (208)
I0228 21:20:45.209995 11999 net.cpp:137] Memory required for data: 262080
I0228 21:20:45.209998 11999 layer_factory.hpp:77] Creating layer h_14_lstm1_unit_14_1_split
I0228 21:20:45.210005 11999 net.cpp:84] Creating Layer h_14_lstm1_unit_14_1_split
I0228 21:20:45.210009 11999 net.cpp:406] h_14_lstm1_unit_14_1_split <- h_14
I0228 21:20:45.210016 11999 net.cpp:380] h_14_lstm1_unit_14_1_split -> h_14_lstm1_unit_14_1_split_0
I0228 21:20:45.210023 11999 net.cpp:380] h_14_lstm1_unit_14_1_split -> h_14_lstm1_unit_14_1_split_1
I0228 21:20:45.210048 11999 net.cpp:122] Setting up h_14_lstm1_unit_14_1_split
I0228 21:20:45.210055 11999 net.cpp:129] Top shape: 1 13 16 (208)
I0228 21:20:45.210062 11999 net.cpp:129] Top shape: 1 13 16 (208)
I0228 21:20:45.210067 11999 net.cpp:137] Memory required for data: 263744
I0228 21:20:45.210072 11999 layer_factory.hpp:77] Creating layer lstm1_h_conted_14
I0228 21:20:45.210078 11999 net.cpp:84] Creating Layer lstm1_h_conted_14
I0228 21:20:45.210083 11999 net.cpp:406] lstm1_h_conted_14 <- h_14_lstm1_unit_14_1_split_0
I0228 21:20:45.210088 11999 net.cpp:406] lstm1_h_conted_14 <- cont_15_lstm1_cont_slice_14_split_0
I0228 21:20:45.210096 11999 net.cpp:380] lstm1_h_conted_14 -> h_conted_14
I0228 21:20:45.210139 11999 net.cpp:122] Setting up lstm1_h_conted_14
I0228 21:20:45.210146 11999 net.cpp:129] Top shape: 1 13 16 (208)
I0228 21:20:45.210150 11999 net.cpp:137] Memory required for data: 264576
I0228 21:20:45.210155 11999 layer_factory.hpp:77] Creating layer lstm1_transform_15
I0228 21:20:45.210163 11999 net.cpp:84] Creating Layer lstm1_transform_15
I0228 21:20:45.210168 11999 net.cpp:406] lstm1_transform_15 <- h_conted_14
I0228 21:20:45.210175 11999 net.cpp:380] lstm1_transform_15 -> W_hc_h_14
I0228 21:20:45.210216 11999 net.cpp:122] Setting up lstm1_transform_15
I0228 21:20:45.210224 11999 net.cpp:129] Top shape: 1 13 64 (832)
I0228 21:20:45.210229 11999 net.cpp:137] Memory required for data: 267904
I0228 21:20:45.210239 11999 net.cpp:465] Sharing parameters 'W_hc' owned by layer 'lstm1_transform_1', param index 0
I0228 21:20:45.210245 11999 layer_factory.hpp:77] Creating layer lstm1_gate_input_15
I0228 21:20:45.210253 11999 net.cpp:84] Creating Layer lstm1_gate_input_15
I0228 21:20:45.210258 11999 net.cpp:406] lstm1_gate_input_15 <- W_hc_h_14
I0228 21:20:45.210263 11999 net.cpp:406] lstm1_gate_input_15 <- W_xc_x_15
I0228 21:20:45.210270 11999 net.cpp:380] lstm1_gate_input_15 -> gate_input_15
I0228 21:20:45.210290 11999 net.cpp:122] Setting up lstm1_gate_input_15
I0228 21:20:45.210299 11999 net.cpp:129] Top shape: 1 13 64 (832)
I0228 21:20:45.210304 11999 net.cpp:137] Memory required for data: 271232
I0228 21:20:45.210309 11999 layer_factory.hpp:77] Creating layer lstm1_unit_15
I0228 21:20:45.210314 11999 net.cpp:84] Creating Layer lstm1_unit_15
I0228 21:20:45.210319 11999 net.cpp:406] lstm1_unit_15 <- c_14
I0228 21:20:45.210325 11999 net.cpp:406] lstm1_unit_15 <- gate_input_15
I0228 21:20:45.210331 11999 net.cpp:406] lstm1_unit_15 <- cont_15_lstm1_cont_slice_14_split_1
I0228 21:20:45.210337 11999 net.cpp:380] lstm1_unit_15 -> c_15
I0228 21:20:45.210345 11999 net.cpp:380] lstm1_unit_15 -> h_15
I0228 21:20:45.210378 11999 net.cpp:122] Setting up lstm1_unit_15
I0228 21:20:45.210391 11999 net.cpp:129] Top shape: 1 13 16 (208)
I0228 21:20:45.210398 11999 net.cpp:129] Top shape: 1 13 16 (208)
I0228 21:20:45.210403 11999 net.cpp:137] Memory required for data: 272896
I0228 21:20:45.210407 11999 layer_factory.hpp:77] Creating layer h_15_lstm1_unit_15_1_split
I0228 21:20:45.210413 11999 net.cpp:84] Creating Layer h_15_lstm1_unit_15_1_split
I0228 21:20:45.210419 11999 net.cpp:406] h_15_lstm1_unit_15_1_split <- h_15
I0228 21:20:45.210425 11999 net.cpp:380] h_15_lstm1_unit_15_1_split -> h_15_lstm1_unit_15_1_split_0
I0228 21:20:45.210433 11999 net.cpp:380] h_15_lstm1_unit_15_1_split -> h_15_lstm1_unit_15_1_split_1
I0228 21:20:45.210459 11999 net.cpp:122] Setting up h_15_lstm1_unit_15_1_split
I0228 21:20:45.210466 11999 net.cpp:129] Top shape: 1 13 16 (208)
I0228 21:20:45.210472 11999 net.cpp:129] Top shape: 1 13 16 (208)
I0228 21:20:45.210477 11999 net.cpp:137] Memory required for data: 274560
I0228 21:20:45.210482 11999 layer_factory.hpp:77] Creating layer lstm1_h_conted_15
I0228 21:20:45.210489 11999 net.cpp:84] Creating Layer lstm1_h_conted_15
I0228 21:20:45.210494 11999 net.cpp:406] lstm1_h_conted_15 <- h_15_lstm1_unit_15_1_split_0
I0228 21:20:45.210500 11999 net.cpp:406] lstm1_h_conted_15 <- cont_16_lstm1_cont_slice_15_split_0
I0228 21:20:45.210506 11999 net.cpp:380] lstm1_h_conted_15 -> h_conted_15
I0228 21:20:45.210548 11999 net.cpp:122] Setting up lstm1_h_conted_15
I0228 21:20:45.210556 11999 net.cpp:129] Top shape: 1 13 16 (208)
I0228 21:20:45.210561 11999 net.cpp:137] Memory required for data: 275392
I0228 21:20:45.210566 11999 layer_factory.hpp:77] Creating layer lstm1_transform_16
I0228 21:20:45.210572 11999 net.cpp:84] Creating Layer lstm1_transform_16
I0228 21:20:45.210575 11999 net.cpp:406] lstm1_transform_16 <- h_conted_15
I0228 21:20:45.210582 11999 net.cpp:380] lstm1_transform_16 -> W_hc_h_15
I0228 21:20:45.210615 11999 net.cpp:122] Setting up lstm1_transform_16
I0228 21:20:45.210621 11999 net.cpp:129] Top shape: 1 13 64 (832)
I0228 21:20:45.210624 11999 net.cpp:137] Memory required for data: 278720
I0228 21:20:45.210628 11999 net.cpp:465] Sharing parameters 'W_hc' owned by layer 'lstm1_transform_1', param index 0
I0228 21:20:45.210631 11999 layer_factory.hpp:77] Creating layer lstm1_gate_input_16
I0228 21:20:45.210636 11999 net.cpp:84] Creating Layer lstm1_gate_input_16
I0228 21:20:45.210639 11999 net.cpp:406] lstm1_gate_input_16 <- W_hc_h_15
I0228 21:20:45.210644 11999 net.cpp:406] lstm1_gate_input_16 <- W_xc_x_16
I0228 21:20:45.210647 11999 net.cpp:380] lstm1_gate_input_16 -> gate_input_16
I0228 21:20:45.210662 11999 net.cpp:122] Setting up lstm1_gate_input_16
I0228 21:20:45.210667 11999 net.cpp:129] Top shape: 1 13 64 (832)
I0228 21:20:45.210670 11999 net.cpp:137] Memory required for data: 282048
I0228 21:20:45.210674 11999 layer_factory.hpp:77] Creating layer lstm1_unit_16
I0228 21:20:45.210678 11999 net.cpp:84] Creating Layer lstm1_unit_16
I0228 21:20:45.210681 11999 net.cpp:406] lstm1_unit_16 <- c_15
I0228 21:20:45.210685 11999 net.cpp:406] lstm1_unit_16 <- gate_input_16
I0228 21:20:45.210690 11999 net.cpp:406] lstm1_unit_16 <- cont_16_lstm1_cont_slice_15_split_1
I0228 21:20:45.210695 11999 net.cpp:380] lstm1_unit_16 -> c_16
I0228 21:20:45.210700 11999 net.cpp:380] lstm1_unit_16 -> h_16
I0228 21:20:45.210723 11999 net.cpp:122] Setting up lstm1_unit_16
I0228 21:20:45.210728 11999 net.cpp:129] Top shape: 1 13 16 (208)
I0228 21:20:45.210732 11999 net.cpp:129] Top shape: 1 13 16 (208)
I0228 21:20:45.210736 11999 net.cpp:137] Memory required for data: 283712
I0228 21:20:45.210738 11999 layer_factory.hpp:77] Creating layer lstm1_
I0228 21:20:45.210743 11999 net.cpp:84] Creating Layer lstm1_
I0228 21:20:45.210747 11999 net.cpp:406] lstm1_ <- c_16
I0228 21:20:45.210752 11999 net.cpp:380] lstm1_ -> c_T
I0228 21:20:45.210762 11999 net.cpp:122] Setting up lstm1_
I0228 21:20:45.210767 11999 net.cpp:129] Top shape: 1 13 16 (208)
I0228 21:20:45.210770 11999 net.cpp:137] Memory required for data: 284544
I0228 21:20:45.210773 11999 layer_factory.hpp:77] Creating layer lstm1_h_concat
I0228 21:20:45.210791 11999 net.cpp:84] Creating Layer lstm1_h_concat
I0228 21:20:45.210795 11999 net.cpp:406] lstm1_h_concat <- h_1_lstm1_unit_1_1_split_1
I0228 21:20:45.210799 11999 net.cpp:406] lstm1_h_concat <- h_2_lstm1_unit_2_1_split_1
…
I0228 21:20:45.211951 11999 net.cpp:200] lstm1_ does not need backward computation.
I0228 21:20:45.211953 11999 net.cpp:242] This network produces output c_T
I0228 21:20:45.211958 11999 net.cpp:242] This network produces output h_pseudoloss
I0228 21:20:45.212113 11999 net.cpp:255] Network initialization done.
I0228 21:20:45.212237 11999 recurrent_layer.cpp:150] Adding parameter 0: W_xc
I0228 21:20:45.212242 11999 recurrent_layer.cpp:150] Adding parameter 1: b_c
I0228 21:20:45.212246 11999 recurrent_layer.cpp:150] Adding parameter 2: W_hc
I0228 21:20:45.212347 11999 net.cpp:122] Setting up lstm1
I0228 21:20:45.212353 11999 net.cpp:129] Top shape: 16 13 16 (3328)
I0228 21:20:45.212357 11999 net.cpp:137] Memory required for data: 17536
I0228 21:20:45.212375 11999 layer_factory.hpp:77] Creating layer lstm2
I0228 21:20:45.212383 11999 net.cpp:84] Creating Layer lstm2
I0228 21:20:45.212386 11999 net.cpp:406] lstm2 <- lstm1
I0228 21:20:45.212390 11999 net.cpp:406] lstm2 <- clip_Input_1_split_1
I0228 21:20:45.212394 11999 net.cpp:380] lstm2 -> lstm2
I0228 21:20:45.212400 11999 recurrent_layer.cpp:20] Initializing recurrent layer: assuming input batch contains 16 timesteps of 13 independent streams.
I0228 21:20:45.212728 11999 net.cpp:51] Initializing net from parameters: 
layer {
  name: "lstm2_"
  type: "Input"
  top: "x"
  top: "cont"
  input_param {
    shape {
      dim: 16
      dim: 13
      dim: 16
    }
    shape {
      dim: 16
      dim: 13
    }
  }
}
layer {
  name: "lstm2_"
  type: "Input"
  top: "c_0"
  top: "h_0"
  input_param {
    shape {
      dim: 1
      dim: 13
      dim: 16
    }
    shape {
      dim: 1
      dim: 13
      dim: 16
    }
  }
}
layer {
  name: "lstm2_cont_slice"
  type: "Slice"
  bottom: "cont"
  top: "cont_1"
  top: "cont_2"
  top: "cont_3"
  top: "cont_4"
  top: "cont_5"
  top: "cont_6"
  top: "cont_7"
  top: "cont_8"
  top: "cont_9"
  top: "cont_10"
  top: "cont_11"
  top: "cont_12"
  top: "cont_13"
  top: "cont_14"
  top: "cont_15"
  top: "cont_16"
  slice_param {
    axis: 0
  }
}
layer {
  name: "lstm2_x_transform"
  type: "InnerProduct"
  bottom: "x"
  top: "W_xc_x"
  param {
    name: "W_xc"
  }
  param {
    name: "b_c"
  }
  propagate_down: true
  inner_product_param {
    num_output: 64
    bias_term: true
    weight_filler {
      type: "xavier"
    }
    bias_filler {
      type: "constant"
    }
    axis: 2
  }
}
layer {
  name: "lstm2_W_xc_x_slice"
  type: "Slice"
  bottom: "W_xc_x"
  top: "W_xc_x_1"
  top: "W_xc_x_2"
  top: "W_xc_x_3"
  top: "W_xc_x_4"
  top: "W_xc_x_5"
  top: "W_xc_x_6"
  top: "W_xc_x_7"
  top: "W_xc_x_8"
  top: "W_xc_x_9"
  top: "W_xc_x_10"
  top: "W_xc_x_11"
  top: "W_xc_x_12"
  top: "W_xc_x_13"
  top: "W_xc_x_14"
  top: "W_xc_x_15"
  top: "W_xc_x_16"
  slice_param {
    axis: 0
  }
}
layer {
  name: "lstm2_h_conted_0"
  type: "Scale"
  bottom: "h_0"
  bottom: "cont_1"
  top: "h_conted_0"
  scale_param {
    axis: 0
  }
}
layer {
  name: "lstm2_transform_1"
  type: "InnerProduct"
  bottom: "h_conted_0"
  top: "W_hc_h_0"
  param {
    name: "W_hc"
  }
  inner_product_param {
    num_output: 64
    bias_term: false
    weight_filler {
      type: "xavier"
    }
    axis: 2
  }
}
layer {
  name: "lstm2_gate_input_1"
  type: "Eltwise"
  bottom: "W_hc_h_0"
  bottom: "W_xc_x_1"
  top: "gate_input_1"
  eltwise_param {
    operation: SUM
  }
}
layer {
  name: "lstm2_unit_1"
  type: "LSTMUnit"
  bottom: "c_0"
  bottom: "gate_input_1"
  bottom: "cont_1"
  top: "c_1"
  top: "h_1"
}
layer {
  name: "lstm2_h_conted_1"
  type: "Scale"
  bottom: "h_1"
  bottom: "cont_2"
  top: "h_conted_1"
  scale_param {
    axis: 0
  }
}
layer {
  name: "lstm2_transform_2"
  type: "InnerProduct"
  bottom: "h_conted_1"
  top: "W_hc_h_1"
  param {
    name: "W_hc"
  }
  inner_product_param {
    num_output: 64
    bias_term: false
    weight_filler {
      type: "xavier"
    }
    axis: 2
  }
}
layer {
  name: "lstm2_gate_input_2"
  type: "Eltwise"
  bottom: "W_hc_h_1"
  bottom: "W_xc_x_2"
  top: "gate_input_2"
  eltwise_param {
    operation: SUM
  }
}
layer {
  name: "lstm2_unit_2"
  type: "LSTMUnit"
  bottom: "c_1"
  bottom: "gate_input_2"
  bottom: "cont_2"
  top: "c_2"
  top: "h_2"
}
layer {
  name: "lstm2_h_conted_2"
  type: "Scale"
  bottom: "h_2"
  bottom: "cont_3"
  top: "h_conted_2"
  scale_param {
    axis: 0
  }
}
layer {
  name: "lstm2_transform_3"
  type: "InnerProduct"
  bottom: "h_conted_2"
  top: "W_hc_h_2"
  param {
    name: "W_hc"
  }
  inner_product_param {
    num_output: 64
    bias_term: false
    weight_filler {
      type: "xavier"
    }
    axis: 2
  }
}
layer {
  name: "lstm2_gate_input_3"
  type: "Eltwise"
  bottom: "W_hc_h_2"
  bottom: "W_xc_x_3"
  top: "gate_input_3"
  eltwise_param {
    operation: SUM
  }
}
layer {
  name: "lstm2_unit_3"
  type: "LSTMUnit"
  bottom: "c_2"
  bottom: "gate_input_3"
  bottom: "cont_3"
  top: "c_3"
  top: "h_3"
}
layer {
  name: "lstm2_h_conted_3"
  type: "Scale"
  bottom: "h_3"
  bottom: "cont_4"
  top: "h_conted_3"
  scale_param {
    axis: 0
  }
}
layer {
  name: "lstm2_transform_4"
  type: "InnerProduct"
  bottom: "h_conted_3"
  top: "W_hc_h_3"
  param {
    name: "W_hc"
  }
  inner_product_param {
    num_output: 64
    bias_term: false
    weight_filler {
      type: "xavier"
    }
    axis: 2
  }
}
layer {
  name: "lstm2_gate_input_4"
  type: "Eltwise"
  bottom: "W_hc_h_3"
  bottom: "W_xc_x_4"
  top: "gate_input_4"
  eltwise_param {
    operation: SUM
  }
}
layer {
  name: "lstm2_unit_4"
  type: "LSTMUnit"
  bottom: "c_3"
  bottom: "gate_input_4"
  bottom: "cont_4"
  top: "c_4"
  top: "h_4"
}
layer {
  name: "lstm2_h_conted_4"
  type: "Scale"
  bottom: "h_4"
  bottom: "cont_5"
  top: "h_conted_4"
  scale_param {
    axis: 0
  }
}
layer {
  name: "lstm2_transform_5"
  type: "InnerProduct"
  bottom: "h_conted_4"
  top: "W_hc_h_4"
  param {
    name: "W_hc"
  }
  inner_product_param {
    num_output: 64
    bias_term: false
    weight_filler {
      type: "xavier"
    }
    axis: 2
  }
}
layer {
  name: "lstm2_gate_input_5"
  type: "Eltwise"
  bottom: "W_hc_h_4"
  bottom: "W_xc_x_5"
  top: "gate_input_5"
  eltwise_param {
    operation: SUM
  }
}
layer {
  name: "lstm2_unit_5"
  type: "LSTMUnit"
  bottom: "c_4"
  bottom: "gate_input_5"
  bottom: "cont_5"
  top: "c_5"
  top: "h_5"
}
layer {
  name: "lstm2_h_conted_5"
  type: "Scale"
  bottom: "h_5"
  bottom: "cont_6"
  top: "h_conted_5"
  scale_param {
    axis: 0
  }
}
layer {
  name: "lstm2_transform_6"
  type: "InnerProduct"
  bottom: "h_conted_5"
  top: "W_hc_h_5"
  param {
    name: "W_hc"
  }
  inner_product_param {
    num_output: 64
    bias_term: false
    weight_filler {
      type: "xavier"
    }
    axis: 2
  }
}
layer {
  name: "lstm2_gate_input_6"
  type: "Eltwise"
  bottom: "W_hc_h_5"
  bottom: "W_xc_x_6"
  top: "gate_input_6"
  eltwise_param {
    operation: SUM
  }
}
layer {
  name: "lstm2_unit_6"
  type: "LSTMUnit"
  bottom: "c_5"
  bottom: "gate_input_6"
  bottom: "cont_6"
  top: "c_6"
  top: "h_6"
}
layer {
  name: "lstm2_h_conted_6"
  type: "Scale"
  bottom: "h_6"
  bottom: "cont_7"
  top: "h_conted_6"
  scale_param {
    axis: 0
  }
}
layer {
  name: "lstm2_transform_7"
  type: "InnerProduct"
  bottom: "h_conted_6"
  top: "W_hc_h_6"
  param {
    name: "W_hc"
  }
  inner_product_param {
    num_output: 64
    bias_term: false
    weight_filler {
      type: "xavier"
    }
    axis: 2
  }
}
layer {
  name: "lstm2_gate_input_7"
  type: "Eltwise"
  bottom: "W_hc_h_6"
  bottom: "W_xc_x_7"
  top: "gate_input_7"
  eltwise_param {
    operation: SUM
  }
}
layer {
  name: "lstm2_unit_7"
  type: "LSTMUnit"
  bottom: "c_6"
  bottom: "gate_input_7"
  bottom: "cont_7"
  top: "c_7"
  top: "h_7"
}
layer {
  name: "lstm2_h_conted_7"
  type: "Scale"
  bottom: "h_7"
  bottom: "cont_8"
  top: "h_conted_7"
  scale_param {
    axis: 0
  }
}
layer {
  name: "lstm2_transform_8"
  type: "InnerProduct"
  bottom: "h_conted_7"
  top: "W_hc_h_7"
  param {
    name: "W_hc"
  }
  inner_product_param {
    num_output: 64
    bias_term: false
    weight_filler {
      type: "xavier"
    }
    axis: 2
  }
}
layer {
  name: "lstm2_gate_input_8"
  type: "Eltwise"
  bottom: "W_hc_h_7"
  bottom: "W_xc_x_8"
  top: "gate_input_8"
  eltwise_param {
    operation: SUM
  }
}
layer {
  name: "lstm2_unit_8"
  type: "LSTMUnit"
  bottom: "c_7"
  bottom: "gate_input_8"
  bottom: "cont_8"
  top: "c_8"
  top: "h_8"
}
layer {
  name: "lstm2_h_conted_8"
  type: "Scale"
  bottom: "h_8"
  bottom: "cont_9"
  top: "h_conted_8"
  scale_param {
    axis: 0
  }
}
layer {
  name: "lstm2_transform_9"
  type: "InnerProduct"
  bottom: "h_conted_8"
  top: "W_hc_h_8"
  param {
    name: "W_hc"
  }
  inner_product_param {
    num_output: 64
    bias_term: false
    weight_filler {
      type: "xavier"
    }
    axis: 2
  }
}
layer {
  name: "lstm2_gate_input_9"
  type: "Eltwise"
  bottom: "W_hc_h_8"
  bottom: "W_xc_x_9"
  top: "gate_input_9"
  eltwise_param {
    operation: SUM
  }
}
layer {
  name: "lstm2_unit_9"
  type: "LSTMUnit"
  bottom: "c_8"
  bottom: "gate_input_9"
  bottom: "cont_9"
  top: "c_9"
  top: "h_9"
}
layer {
  name: "lstm2_h_conted_9"
  type: "Scale"
  bottom: "h_9"
  bottom: "cont_10"
  top: "h_conted_9"
  scale_param {
    axis: 0
  }
}
layer {
  name: "lstm2_transform_10"
  type: "InnerProduct"
  bottom: "h_conted_9"
  top: "W_hc_h_9"
  param {
    name: "W_hc"
  }
  inner_product_param {
    num_output: 64
    bias_term: false
    weight_filler {
      type: "xavier"
    }
    axis: 2
  }
}
layer {
  name: "lstm2_gate_input_10"
  type: "Eltwise"
  bottom: "W_hc_h_9"
  bottom: "W_xc_x_10"
  top: "gate_input_10"
  eltwise_param {
    operation: SUM
  }
}
layer {
  name: "lstm2_unit_10"
  type: "LSTMUnit"
  bottom: "c_9"
  bottom: "gate_input_10"
  bottom: "cont_10"
  top: "c_10"
  top: "h_10"
}
layer {
  name: "lstm2_h_conted_10"
  type: "Scale"
  bottom: "h_10"
  bottom: "cont_11"
  top: "h_conted_10"
  scale_param {
    axis: 0
  }
}
layer {
  name: "lstm2_transform_11"
  type: "InnerProduct"
  bottom: "h_conted_10"
  top: "W_hc_h_10"
  param {
    name: "W_hc"
  }
  inner_product_param {
    num_output: 64
    bias_term: false
    weight_filler {
      type: "xavier"
    }
    axis: 2
  }
}
layer {
  name: "lstm2_gate_input_11"
  type: "Eltwise"
  bottom: "W_hc_h_10"
  bottom: "W_xc_x_11"
  top: "gate_input_11"
  eltwise_param {
    operation: SUM
  }
}
layer {
  name: "lstm2_unit_11"
  type: "LSTMUnit"
  bottom: "c_10"
  bottom: "gate_input_11"
  bottom: "cont_11"
  top: "c_11"
  top: "h_11"
}
layer {
  name: "lstm2_h_conted_11"
  type: "Scale"
  bottom: "h_11"
  bottom: "cont_12"
  top: "h_conted_11"
  scale_param {
    axis: 0
  }
}
layer {
  name: "lstm2_transform_12"
  type: "InnerProduct"
  bottom: "h_conted_11"
  top: "W_hc_h_11"
  param {
    name: "W_hc"
  }
  inner_product_param {
    num_output: 64
    bias_term: false
    weight_filler {
      type: "xavier"
    }
    axis: 2
  }
}
layer {
  name: "lstm2_gate_input_12"
  type: "Eltwise"
  bottom: "W_hc_h_11"
  bottom: "W_xc_x_12"
  top: "gate_input_12"
  eltwise_param {
    operation: SUM
  }
}
layer {
  name: "lstm2_unit_12"
  type: "LSTMUnit"
  bottom: "c_11"
  bottom: "gate_input_12"
  bottom: "cont_12"
  top: "c_12"
  top: "h_12"
}
layer {
  name: "lstm2_h_conted_12"
  type: "Scale"
  bottom: "h_12"
  bottom: "cont_13"
  top: "h_conted_12"
  scale_param {
    axis: 0
  }
}
layer {
  name: "lstm2_transform_13"
  type: "InnerProduct"
  bottom: "h_conted_12"
  top: "W_hc_h_12"
  param {
    name: "W_hc"
  }
  inner_product_param {
    num_output: 64
    bias_term: false
    weight_filler {
      type: "xavier"
    }
    axis: 2
  }
}
layer {
  name: "lstm2_gate_input_13"
  type: "Eltwise"
  bottom: "W_hc_h_12"
  bottom: "W_xc_x_13"
  top: "gate_input_13"
  eltwise_param {
    operation: SUM
  }
}
layer {
  name: "lstm2_unit_13"
  type: "LSTMUnit"
  bottom: "c_12"
  bottom: "gate_input_13"
  bottom: "cont_13"
  top: "c_13"
  top: "h_13"
}
layer {
  name: "lstm2_h_conted_13"
  type: "Scale"
  bottom: "h_13"
  bottom: "cont_14"
  top: "h_conted_13"
  scale_param {
    axis: 0
  }
}
layer {
  name: "lstm2_transform_14"
  type: "InnerProduct"
  bottom: "h_conted_13"
  top: "W_hc_h_13"
  param {
    name: "W_hc"
  }
  inner_product_param {
    num_output: 64
    bias_term: false
    weight_filler {
      type: "xavier"
    }
    axis: 2
  }
}
layer {
  name: "lstm2_gate_input_14"
  type: "Eltwise"
  bottom: "W_hc_h_13"
  bottom: "W_xc_x_14"
  top: "gate_input_14"
  eltwise_param {
    operation: SUM
  }
}
layer {
  name: "lstm2_unit_14"
  type: "LSTMUnit"
  bottom: "c_13"
  bottom: "gate_input_14"
  bottom: "cont_14"
  top: "c_14"
  top: "h_14"
}
layer {
  name: "lstm2_h_conted_14"
  type: "Scale"
  bottom: "h_14"
  bottom: "cont_15"
  top: "h_conted_14"
  scale_param {
    axis: 0
  }
}
layer {
  name: "lstm2_transform_15"
  type: "InnerProduct"
  bottom: "h_conted_14"
  top: "W_hc_h_14"
  param {
    name: "W_hc"
  }
  inner_product_param {
    num_output: 64
    bias_term: false
    weight_filler {
      type: "xavier"
    }
    axis: 2
  }
}
layer {
  name: "lstm2_gate_input_15"
  type: "Eltwise"
  bottom: "W_hc_h_14"
  bottom: "W_xc_x_15"
  top: "gate_input_15"
  eltwise_param {
    operation: SUM
  }
}
layer {
  name: "lstm2_unit_15"
  type: "LSTMUnit"
  bottom: "c_14"
  bottom: "gate_input_15"
  bottom: "cont_15"
  top: "c_15"
  top: "h_15"
}
layer {
  name: "lstm2_h_conted_15"
  type: "Scale"
  bottom: "h_15"
  bottom: "cont_16"
  top: "h_conted_15"
  scale_param {
    axis: 0
  }
}
layer {
  name: "lstm2_transform_16"
  type: "InnerProduct"
  bottom: "h_conted_15"
  top: "W_hc_h_15"
  param {
    name: "W_hc"
  }
  inner_product_param {
    num_output: 64
    bias_term: false
    weight_filler {
      type: "xavier"
    }
    axis: 2
  }
}
layer {
  name: "lstm2_gate_input_16"
  type: "Eltwise"
  bottom: "W_hc_h_15"
  bottom: "W_xc_x_16"
  top: "gate_input_16"
  eltwise_param {
    operation: SUM
  }
}
layer {
  name: "lstm2_unit_16"
  type: "LSTMUnit"
  bottom: "c_15"
  bottom: "gate_input_16"
  bottom: "cont_16"
  top: "c_16"
  top: "h_16"
}
layer {
  name: "lstm2_"
  type: "Split"
  bottom: "c_16"
  top: "c_T"
}
layer {
  name: "lstm2_h_concat"
  type: "Concat"
  bottom: "h_1"
  bottom: "h_2"
  bottom: "h_3"
  bottom: "h_4"
  bottom: "h_5"
  bottom: "h_6"
  bottom: "h_7"
  bottom: "h_8"
  bottom: "h_9"
  bottom: "h_10"
  bottom: "h_11"
  bottom: "h_12"
  bottom: "h_13"
  bottom: "h_14"
  bottom: "h_15"
  bottom: "h_16"
  top: "h"
  concat_param {
    axis: 0
  }
}
layer {
  name: "h_pseudoloss"
  type: "Reduction"
  bottom: "h"
  top: "h_pseudoloss"
  loss_weight: 1
}
I0228 21:20:45.213186 11999 layer_factory.hpp:77] Creating layer lstm2_
I0228 21:20:45.213196 11999 net.cpp:84] Creating Layer lstm2_
I0228 21:20:45.213201 11999 net.cpp:380] lstm2_ -> x
I0228 21:20:45.213207 11999 net.cpp:380] lstm2_ -> cont
I0228 21:20:45.213233 11999 net.cpp:122] Setting up lstm2_
I0228 21:20:45.213240 11999 net.cpp:129] Top shape: 16 13 16 (3328)
I0228 21:20:45.213245 11999 net.cpp:129] Top shape: 16 13 (208)
I0228 21:20:45.213248 11999 net.cpp:137] Memory required for data: 14144
I0228 21:20:45.213251 11999 layer_factory.hpp:77] Creating layer lstm2_
I0228 21:20:45.213256 11999 net.cpp:84] Creating Layer lstm2_
I0228 21:20:45.213260 11999 net.cpp:380] lstm2_ -> c_0
I0228 21:20:45.213266 11999 net.cpp:380] lstm2_ -> h_0
I0228 21:20:45.213287 11999 net.cpp:122] Setting up lstm2_
I0228 21:20:45.213292 11999 net.cpp:129] Top shape: 1 13 16 (208)
I0228 21:20:45.213296 11999 net.cpp:129] Top shape: 1 13 16 (208)
I0228 21:20:45.213299 11999 net.cpp:137] Memory required for data: 15808
I0228 21:20:45.213304 11999 layer_factory.hpp:77] Creating layer lstm2_cont_slice
I0228 21:20:45.213309 11999 net.cpp:84] Creating Layer lstm2_cont_slice
I0228 21:20:45.213312 11999 net.cpp:406] lstm2_cont_slice <- cont
I0228 21:20:45.213317 11999 net.cpp:380] lstm2_cont_slice -> cont_1
I0228 21:20:45.213325 11999 net.cpp:380] lstm2_cont_slice -> cont_2
…
