…
iter_size: 1
I0228 21:17:51.393685 11660 solver.cpp:87] Creating training net from net file: /home/leonida/ThesisCode/LSTM_on_Create2/src/neural_network_planner/NetModels/LSTM/deep_stack-fc_net.prototxt
I0228 21:17:51.393887 11660 net.cpp:51] Initializing net from parameters: 
name: "LSTM_stack-3-16"
state {
  phase: TRAIN
}
layer {
  name: "Input"
  type: "Input"
  top: "data"
  top: "clip"
  top: "label"
  input_param {
    shape {
      dim: 16
      dim: 13
      dim: 1
    }
    shape {
      dim: 16
      dim: 13
    }
    shape {
      dim: 16
    }
  }
}
layer {
  name: "lstm1"
  type: "LSTM"
  bottom: "data"
  bottom: "clip"
  top: "lstm1"
  recurrent_param {
    num_output: 16
    weight_filler {
      type: "xavier"
    }
    bias_filler {
      type: "constant"
    }
  }
}
layer {
  name: "lstm2"
  type: "LSTM"
  bottom: "lstm1"
  bottom: "clip"
  top: "lstm2"
  recurrent_param {
    num_output: 16
    weight_filler {
      type: "xavier"
    }
    bias_filler {
      type: "constant"
    }
  }
}
layer {
  name: "lstm3"
  type: "LSTM"
  bottom: "lstm2"
  bottom: "clip"
  top: "lstm3"
  recurrent_param {
    num_output: 16
    weight_filler {
      type: "xavier"
    }
    bias_filler {
      type: "constant"
    }
  }
}
layer {
  name: "fc1"
  type: "InnerProduct"
  bottom: "lstm3"
  top: "fc1"
  param {
    lr_mult: 1
    decay_mult: 1
  }
  param {
    lr_mult: 2
    decay_mult: 0
  }
  inner_product_param {
    num_output: 16
    weight_filler {
      type: "gaussian"
      std: 0.01
    }
    bias_filler {
      type: "constant"
      value: 0
    }
  }
}
layer {
  name: "out"
  type: "InnerProduct"
  bottom: "fc1"
  top: "out"
  inner_product_param {
    num_output: 1
    weight_filler {
      type: "gaussian"
      std: 0.1
    }
    bias_filler {
      type: "constant"
    }
  }
}
layer {
  name: "euclideanLoss"
  type: "EuclideanLoss"
  bottom: "out"
  bottom: "label"
  top: "loss"
}
I0228 21:17:51.393981 11660 layer_factory.hpp:77] Creating layer Input
I0228 21:17:51.394004 11660 net.cpp:84] Creating Layer Input
I0228 21:17:51.394012 11660 net.cpp:380] Input -> data
I0228 21:17:51.394065 11660 net.cpp:380] Input -> clip
I0228 21:17:51.394078 11660 net.cpp:380] Input -> label
I0228 21:17:51.394870 11660 net.cpp:122] Setting up Input
I0228 21:17:51.394901 11660 net.cpp:129] Top shape: 16 13 1 (208)
I0228 21:17:51.394906 11660 net.cpp:129] Top shape: 16 13 (208)
I0228 21:17:51.394910 11660 net.cpp:129] Top shape: 16 (16)
I0228 21:17:51.394913 11660 net.cpp:137] Memory required for data: 1728
I0228 21:17:51.394920 11660 layer_factory.hpp:77] Creating layer clip_Input_1_split
I0228 21:17:51.394932 11660 net.cpp:84] Creating Layer clip_Input_1_split
I0228 21:17:51.394937 11660 net.cpp:406] clip_Input_1_split <- clip
I0228 21:17:51.394945 11660 net.cpp:380] clip_Input_1_split -> clip_Input_1_split_0
I0228 21:17:51.394950 11660 net.cpp:380] clip_Input_1_split -> clip_Input_1_split_1
I0228 21:17:51.394958 11660 net.cpp:380] clip_Input_1_split -> clip_Input_1_split_2
I0228 21:17:51.394986 11660 net.cpp:122] Setting up clip_Input_1_split
I0228 21:17:51.394994 11660 net.cpp:129] Top shape: 16 13 (208)
I0228 21:17:51.395000 11660 net.cpp:129] Top shape: 16 13 (208)
I0228 21:17:51.395015 11660 net.cpp:129] Top shape: 16 13 (208)
I0228 21:17:51.395017 11660 net.cpp:137] Memory required for data: 4224
I0228 21:17:51.395021 11660 layer_factory.hpp:77] Creating layer lstm1
I0228 21:17:51.395030 11660 net.cpp:84] Creating Layer lstm1
I0228 21:17:51.395033 11660 net.cpp:406] lstm1 <- data
I0228 21:17:51.395037 11660 net.cpp:406] lstm1 <- clip_Input_1_split_0
I0228 21:17:51.395042 11660 net.cpp:380] lstm1 -> lstm1
I0228 21:17:51.395056 11660 recurrent_layer.cpp:20] Initializing recurrent layer: assuming input batch contains 16 timesteps of 13 independent streams.
I0228 21:17:51.395433 11660 net.cpp:51] Initializing net from parameters: 
layer {
  name: "lstm1_"
  type: "Input"
  top: "x"
  top: "cont"
  input_param {
    shape {
      dim: 16
      dim: 13
      dim: 1
    }
    shape {
      dim: 16
      dim: 13
    }
  }
}
layer {
  name: "lstm1_"
  type: "Input"
  top: "c_0"
  top: "h_0"
  input_param {
    shape {
      dim: 1
      dim: 13
      dim: 16
    }
    shape {
      dim: 1
      dim: 13
      dim: 16
    }
  }
}
layer {
  name: "lstm1_cont_slice"
  type: "Slice"
  bottom: "cont"
  top: "cont_1"
  top: "cont_2"
  top: "cont_3"
  top: "cont_4"
  top: "cont_5"
  top: "cont_6"
  top: "cont_7"
  top: "cont_8"
  top: "cont_9"
  top: "cont_10"
  top: "cont_11"
  top: "cont_12"
  top: "cont_13"
  top: "cont_14"
  top: "cont_15"
  top: "cont_16"
  slice_param {
    axis: 0
  }
}
layer {
  name: "lstm1_x_transform"
  type: "InnerProduct"
  bottom: "x"
  top: "W_xc_x"
  param {
    name: "W_xc"
  }
  param {
    name: "b_c"
  }
  propagate_down: true
  inner_product_param {
    num_output: 64
    bias_term: true
    weight_filler {
      type: "xavier"
    }
    bias_filler {
      type: "constant"
    }
    axis: 2
  }
}
layer {
  name: "lstm1_W_xc_x_slice"
  type: "Slice"
  bottom: "W_xc_x"
  top: "W_xc_x_1"
  top: "W_xc_x_2"
  top: "W_xc_x_3"
  top: "W_xc_x_4"
  top: "W_xc_x_5"
  top: "W_xc_x_6"
  top: "W_xc_x_7"
  top: "W_xc_x_8"
  top: "W_xc_x_9"
  top: "W_xc_x_10"
  top: "W_xc_x_11"
  top: "W_xc_x_12"
  top: "W_xc_x_13"
  top: "W_xc_x_14"
  top: "W_xc_x_15"
  top: "W_xc_x_16"
  slice_param {
    axis: 0
  }
}
layer {
  name: "lstm1_h_conted_0"
  type: "Scale"
  bottom: "h_0"
  bottom: "cont_1"
  top: "h_conted_0"
  scale_param {
    axis: 0
  }
}
layer {
  name: "lstm1_transform_1"
  type: "InnerProduct"
  bottom: "h_conted_0"
  top: "W_hc_h_0"
  param {
    name: "W_hc"
  }
  inner_product_param {
    num_output: 64
    bias_term: false
    weight_filler {
      type: "xavier"
    }
    axis: 2
  }
}
layer {
  name: "lstm1_gate_input_1"
  type: "Eltwise"
  bottom: "W_hc_h_0"
  bottom: "W_xc_x_1"
  top: "gate_input_1"
  eltwise_param {
    operation: SUM
  }
}
layer {
  name: "lstm1_unit_1"
  type: "LSTMUnit"
  bottom: "c_0"
  bottom: "gate_input_1"
  bottom: "cont_1"
  top: "c_1"
  top: "h_1"
}
layer {
  name: "lstm1_h_conted_1"
  type: "Scale"
  bottom: "h_1"
  bottom: "cont_2"
  top: "h_conted_1"
  scale_param {
    axis: 0
  }
}
layer {
  name: "lstm1_transform_2"
  type: "InnerProduct"
  bottom: "h_conted_1"
  top: "W_hc_h_1"
  param {
    name: "W_hc"
  }
  inner_product_param {
    num_output: 64
    bias_term: false
    weight_filler {
      type: "xavier"
    }
    axis: 2
  }
}
layer {
  name: "lstm1_gate_input_2"
  type: "Eltwise"
  bottom: "W_hc_h_1"
  bottom: "W_xc_x_2"
  top: "gate_input_2"
  eltwise_param {
    operation: SUM
  }
}
layer {
  name: "lstm1_unit_2"
  type: "LSTMUnit"
  bottom: "c_1"
  bottom: "gate_input_2"
  bottom: "cont_2"
  top: "c_2"
  top: "h_2"
}
layer {
  name: "lstm1_h_conted_2"
  type: "Scale"
  bottom: "h_2"
  bottom: "cont_3"
  top: "h_conted_2"
  scale_param {
    axis: 0
  }
}
layer {
  name: "lstm1_transform_3"
  type: "InnerProduct"
  bottom: "h_conted_2"
  top: "W_hc_h_2"
  param {
    name: "W_hc"
  }
  inner_product_param {
    num_output: 64
    bias_term: false
    weight_filler {
      type: "xavier"
    }
    axis: 2
  }
}
layer {
  name: "lstm1_gate_input_3"
  type: "Eltwise"
  bottom: "W_hc_h_2"
  bottom: "W_xc_x_3"
  top: "gate_input_3"
  eltwise_param {
    operation: SUM
  }
}
layer {
  name: "lstm1_unit_3"
  type: "LSTMUnit"
  bottom: "c_2"
  bottom: "gate_input_3"
  bottom: "cont_3"
  top: "c_3"
  top: "h_3"
}
layer {
  name: "lstm1_h_conted_3"
  type: "Scale"
  bottom: "h_3"
  bottom: "cont_4"
  top: "h_conted_3"
  scale_param {
    axis: 0
  }
}
layer {
  name: "lstm1_transform_4"
  type: "InnerProduct"
  bottom: "h_conted_3"
  top: "W_hc_h_3"
  param {
    name: "W_hc"
  }
  inner_product_param {
    num_output: 64
    bias_term: false
    weight_filler {
      type: "xavier"
    }
    axis: 2
  }
}
layer {
  name: "lstm1_gate_input_4"
  type: "Eltwise"
  bottom: "W_hc_h_3"
  bottom: "W_xc_x_4"
  top: "gate_input_4"
  eltwise_param {
    operation: SUM
  }
}
layer {
  name: "lstm1_unit_4"
  type: "LSTMUnit"
  bottom: "c_3"
  bottom: "gate_input_4"
  bottom: "cont_4"
  top: "c_4"
  top: "h_4"
}
layer {
  name: "lstm1_h_conted_4"
  type: "Scale"
  bottom: "h_4"
  bottom: "cont_5"
  top: "h_conted_4"
  scale_param {
    axis: 0
  }
}
layer {
  name: "lstm1_transform_5"
  type: "InnerProduct"
  bottom: "h_conted_4"
  top: "W_hc_h_4"
  param {
    name: "W_hc"
  }
  inner_product_param {
    num_output: 64
    bias_term: false
    weight_filler {
      type: "xavier"
    }
    axis: 2
  }
}
layer {
  name: "lstm1_gate_input_5"
  type: "Eltwise"
  bottom: "W_hc_h_4"
  bottom: "W_xc_x_5"
  top: "gate_input_5"
  eltwise_param {
    operation: SUM
  }
}
layer {
  name: "lstm1_unit_5"
  type: "LSTMUnit"
  bottom: "c_4"
  bottom: "gate_input_5"
  bottom: "cont_5"
  top: "c_5"
  top: "h_5"
}
layer {
  name: "lstm1_h_conted_5"
  type: "Scale"
  bottom: "h_5"
  bottom: "cont_6"
  top: "h_conted_5"
  scale_param {
    axis: 0
  }
}
layer {
  name: "lstm1_transform_6"
  type: "InnerProduct"
  bottom: "h_conted_5"
  top: "W_hc_h_5"
  param {
    name: "W_hc"
  }
  inner_product_param {
    num_output: 64
    bias_term: false
    weight_filler {
      type: "xavier"
    }
    axis: 2
  }
}
layer {
  name: "lstm1_gate_input_6"
  type: "Eltwise"
  bottom: "W_hc_h_5"
  bottom: "W_xc_x_6"
  top: "gate_input_6"
  eltwise_param {
    operation: SUM
  }
}
layer {
  name: "lstm1_unit_6"
  type: "LSTMUnit"
  bottom: "c_5"
  bottom: "gate_input_6"
  bottom: "cont_6"
  top: "c_6"
  top: "h_6"
}
layer {
  name: "lstm1_h_conted_6"
  type: "Scale"
  bottom: "h_6"
  bottom: "cont_7"
  top: "h_conted_6"
  scale_param {
    axis: 0
  }
}
layer {
  name: "lstm1_transform_7"
  type: "InnerProduct"
  bottom: "h_conted_6"
  top: "W_hc_h_6"
  param {
    name: "W_hc"
  }
  inner_product_param {
    num_output: 64
    bias_term: false
    weight_filler {
      type: "xavier"
    }
    axis: 2
  }
}
layer {
  name: "lstm1_gate_input_7"
  type: "Eltwise"
  bottom: "W_hc_h_6"
  bottom: "W_xc_x_7"
  top: "gate_input_7"
  eltwise_param {
    operation: SUM
  }
}
layer {
  name: "lstm1_unit_7"
  type: "LSTMUnit"
  bottom: "c_6"
  bottom: "gate_input_7"
  bottom: "cont_7"
  top: "c_7"
  top: "h_7"
}
layer {
  name: "lstm1_h_conted_7"
  type: "Scale"
  bottom: "h_7"
  bottom: "cont_8"
  top: "h_conted_7"
  scale_param {
    axis: 0
  }
}
layer {
  name: "lstm1_transform_8"
  type: "InnerProduct"
  bottom: "h_conted_7"
  top: "W_hc_h_7"
  param {
    name: "W_hc"
  }
  inner_product_param {
    num_output: 64
    bias_term: false
    weight_filler {
      type: "xavier"
    }
    axis: 2
  }
}
layer {
  name: "lstm1_gate_input_8"
  type: "Eltwise"
  bottom: "W_hc_h_7"
  bottom: "W_xc_x_8"
  top: "gate_input_8"
  eltwise_param {
    operation: SUM
  }
}
layer {
  name: "lstm1_unit_8"
  type: "LSTMUnit"
  bottom: "c_7"
  bottom: "gate_input_8"
  bottom: "cont_8"
  top: "c_8"
  top: "h_8"
}
layer {
  name: "lstm1_h_conted_8"
  type: "Scale"
  bottom: "h_8"
  bottom: "cont_9"
  top: "h_conted_8"
  scale_param {
    axis: 0
  }
}
layer {
  name: "lstm1_transform_9"
  type: "InnerProduct"
  bottom: "h_conted_8"
  top: "W_hc_h_8"
  param {
    name: "W_hc"
  }
  inner_product_param {
    num_output: 64
    bias_term: false
    weight_filler {
      type: "xavier"
    }
    axis: 2
  }
}
layer {
  name: "lstm1_gate_input_9"
  type: "Eltwise"
  bottom: "W_hc_h_8"
  bottom: "W_xc_x_9"
  top: "gate_input_9"
  eltwise_param {
    operation: SUM
  }
}
layer {
  name: "lstm1_unit_9"
  type: "LSTMUnit"
  bottom: "c_8"
  bottom: "gate_input_9"
  bottom: "cont_9"
  top: "c_9"
  top: "h_9"
}
layer {
  name: "lstm1_h_conted_9"
  type: "Scale"
  bottom: "h_9"
  bottom: "cont_10"
  top: "h_conted_9"
  scale_param {
    axis: 0
  }
}
layer {
  name: "lstm1_transform_10"
  type: "InnerProduct"
  bottom: "h_conted_9"
  top: "W_hc_h_9"
  param {
    name: "W_hc"
  }
  inner_product_param {
    num_output: 64
    bias_term: false
    weight_filler {
      type: "xavier"
    }
    axis: 2
  }
}
layer {
  name: "lstm1_gate_input_10"
  type: "Eltwise"
  bottom: "W_hc_h_9"
  bottom: "W_xc_x_10"
  top: "gate_input_10"
  eltwise_param {
    operation: SUM
  }
}
layer {
  name: "lstm1_unit_10"
  type: "LSTMUnit"
  bottom: "c_9"
  bottom: "gate_input_10"
  bottom: "cont_10"
  top: "c_10"
  top: "h_10"
}
layer {
  name: "lstm1_h_conted_10"
  type: "Scale"
  bottom: "h_10"
  bottom: "cont_11"
  top: "h_conted_10"
  scale_param {
    axis: 0
  }
}
layer {
  name: "lstm1_transform_11"
  type: "InnerProduct"
  bottom: "h_conted_10"
  top: "W_hc_h_10"
  param {
    name: "W_hc"
  }
  inner_product_param {
    num_output: 64
    bias_term: false
    weight_filler {
      type: "xavier"
    }
    axis: 2
  }
}
layer {
  name: "lstm1_gate_input_11"
  type: "Eltwise"
  bottom: "W_hc_h_10"
  bottom: "W_xc_x_11"
  top: "gate_input_11"
  eltwise_param {
    operation: SUM
  }
}
layer {
  name: "lstm1_unit_11"
  type: "LSTMUnit"
  bottom: "c_10"
  bottom: "gate_input_11"
  bottom: "cont_11"
  top: "c_11"
  top: "h_11"
}
layer {
  name: "lstm1_h_conted_11"
  type: "Scale"
  bottom: "h_11"
  bottom: "cont_12"
  top: "h_conted_11"
  scale_param {
    axis: 0
  }
}
layer {
  name: "lstm1_transform_12"
  type: "InnerProduct"
  bottom: "h_conted_11"
  top: "W_hc_h_11"
  param {
    name: "W_hc"
  }
  inner_product_param {
    num_output: 64
    bias_term: false
    weight_filler {
      type: "xavier"
    }
    axis: 2
  }
}
layer {
  name: "lstm1_gate_input_12"
  type: "Eltwise"
  bottom: "W_hc_h_11"
  bottom: "W_xc_x_12"
  top: "gate_input_12"
  eltwise_param {
    operation: SUM
  }
}
layer {
  name: "lstm1_unit_12"
  type: "LSTMUnit"
  bottom: "c_11"
  bottom: "gate_input_12"
  bottom: "cont_12"
  top: "c_12"
  top: "h_12"
}
layer {
  name: "lstm1_h_conted_12"
  type: "Scale"
  bottom: "h_12"
  bottom: "cont_13"
  top: "h_conted_12"
  scale_param {
    axis: 0
  }
}
layer {
  name: "lstm1_transform_13"
  type: "InnerProduct"
  bottom: "h_conted_12"
  top: "W_hc_h_12"
  param {
    name: "W_hc"
  }
  inner_product_param {
    num_output: 64
    bias_term: false
    weight_filler {
      type: "xavier"
    }
    axis: 2
  }
}
layer {
  name: "lstm1_gate_input_13"
  type: "Eltwise"
  bottom: "W_hc_h_12"
  bottom: "W_xc_x_13"
  top: "gate_input_13"
  eltwise_param {
    operation: SUM
  }
}
layer {
  name: "lstm1_unit_13"
  type: "LSTMUnit"
  bottom: "c_12"
  bottom: "gate_input_13"
  bottom: "cont_13"
  top: "c_13"
  top: "h_13"
}
layer {
  name: "lstm1_h_conted_13"
  type: "Scale"
  bottom: "h_13"
  bottom: "cont_14"
  top: "h_conted_13"
  scale_param {
    axis: 0
  }
}
layer {
  name: "lstm1_transform_14"
  type: "InnerProduct"
  bottom: "h_conted_13"
  top: "W_hc_h_13"
  param {
    name: "W_hc"
  }
  inner_product_param {
    num_output: 64
    bias_term: false
    weight_filler {
      type: "xavier"
    }
    axis: 2
  }
}
layer {
  name: "lstm1_gate_input_14"
  type: "Eltwise"
  bottom: "W_hc_h_13"
  bottom: "W_xc_x_14"
  top: "gate_input_14"
  eltwise_param {
    operation: SUM
  }
}
layer {
  name: "lstm1_unit_14"
  type: "LSTMUnit"
  bottom: "c_13"
  bottom: "gate_input_14"
  bottom: "cont_14"
  top: "c_14"
  top: "h_14"
}
layer {
  name: "lstm1_h_conted_14"
  type: "Scale"
  bottom: "h_14"
  bottom: "cont_15"
  top: "h_conted_14"
  scale_param {
    axis: 0
  }
}
layer {
  name: "lstm1_transform_15"
  type: "InnerProduct"
  bottom: "h_conted_14"
  top: "W_hc_h_14"
  param {
    name: "W_hc"
  }
  inner_product_param {
    num_output: 64
    bias_term: false
    weight_filler {
      type: "xavier"
    }
    axis: 2
  }
}
layer {
  name: "lstm1_gate_input_15"
  type: "Eltwise"
  bottom: "W_hc_h_14"
  bottom: "W_xc_x_15"
  top: "gate_input_15"
  eltwise_param {
    operation: SUM
  }
}
layer {
  name: "lstm1_unit_15"
  type: "LSTMUnit"
  bottom: "c_14"
  bottom: "gate_input_15"
  bottom: "cont_15"
  top: "c_15"
  top: "h_15"
}
layer {
  name: "lstm1_h_conted_15"
  type: "Scale"
  bottom: "h_15"
  bottom: "cont_16"
  top: "h_conted_15"
  scale_param {
    axis: 0
  }
}
layer {
  name: "lstm1_transform_16"
  type: "InnerProduct"
  bottom: "h_conted_15"
  top: "W_hc_h_15"
  param {
    name: "W_hc"
  }
  inner_product_param {
    num_output: 64
    bias_term: false
    weight_filler {
      type: "xavier"
    }
    axis: 2
  }
}
layer {
  name: "lstm1_gate_input_16"
  type: "Eltwise"
  bottom: "W_hc_h_15"
  bottom: "W_xc_x_16"
  top: "gate_input_16"
  eltwise_param {
    operation: SUM
  }
}
layer {
  name: "lstm1_unit_16"
  type: "LSTMUnit"
  bottom: "c_15"
  bottom: "gate_input_16"
  bottom: "cont_16"
  top: "c_16"
  top: "h_16"
}
layer {
  name: "lstm1_"
  type: "Split"
  bottom: "c_16"
  top: "c_T"
}
layer {
  name: "lstm1_h_concat"
  type: "Concat"
  bottom: "h_1"
  bottom: "h_2"
  bottom: "h_3"
  bottom: "h_4"
  bottom: "h_5"
  bottom: "h_6"
  bottom: "h_7"
  bottom: "h_8"
  bottom: "h_9"
  bottom: "h_10"
  bottom: "h_11"
  bottom: "h_12"
  bottom: "h_13"
  bottom: "h_14"
  bottom: "h_15"
  bottom: "h_16"
  top: "h"
  concat_param {
    axis: 0
  }
}
layer {
  name: "h_pseudoloss"
  type: "Reduction"
  bottom: "h"
  top: "h_pseudoloss"
  loss_weight: 1
}
I0228 21:17:51.396018 11660 layer_factory.hpp:77] Creating layer lstm1_
I0228 21:17:51.396030 11660 net.cpp:84] Creating Layer lstm1_
I0228 21:17:51.396035 11660 net.cpp:380] lstm1_ -> x
I0228 21:17:51.396044 11660 net.cpp:380] lstm1_ -> cont
I0228 21:17:51.396075 11660 net.cpp:122] Setting up lstm1_
I0228 21:17:51.396083 11660 net.cpp:129] Top shape: 16 13 1 (208)
I0228 21:17:51.396090 11660 net.cpp:129] Top shape: 16 13 (208)
I0228 21:17:51.396093 11660 net.cpp:137] Memory required for data: 1664
I0228 21:17:51.396097 11660 layer_factory.hpp:77] Creating layer lstm1_
I0228 21:17:51.396103 11660 net.cpp:84] Creating Layer lstm1_
I0228 21:17:51.396108 11660 net.cpp:380] lstm1_ -> c_0
I0228 21:17:51.396116 11660 net.cpp:380] lstm1_ -> h_0
I0228 21:17:51.396138 11660 net.cpp:122] Setting up lstm1_
I0228 21:17:51.396145 11660 net.cpp:129] Top shape: 1 13 16 (208)
I0228 21:17:51.396152 11660 net.cpp:129] Top shape: 1 13 16 (208)
I0228 21:17:51.396157 11660 net.cpp:137] Memory required for data: 3328
I0228 21:17:51.396160 11660 layer_factory.hpp:77] Creating layer lstm1_cont_slice
I0228 21:17:51.396172 11660 net.cpp:84] Creating Layer lstm1_cont_slice
I0228 21:17:51.396176 11660 net.cpp:406] lstm1_cont_slice <- cont
I0228 21:17:51.396199 11660 net.cpp:380] lstm1_cont_slice -> cont_1
I0228 21:17:51.396208 11660 net.cpp:380] lstm1_cont_slice -> cont_2
…
I0228 21:17:51.396255 11660 net.cpp:380] lstm1_cont_slice -> cont_9
I0228 21:17:51.396261 11660 net.cpp:380] lstm1_cont_slice -> cont_10
I0228 21:17:51.396270 11660 net.cpp:380] lstm1_cont_slice -> cont_11
I0228 21:17:51.396276 11660 net.cpp:380] lstm1_cont_slice -> cont_12
I0228 21:17:51.396283 11660 net.cpp:380] lstm1_cont_slice -> cont_13
I0228 21:17:51.396291 11660 net.cpp:380] lstm1_cont_slice -> cont_14
I0228 21:17:51.396297 11660 net.cpp:380] lstm1_cont_slice -> cont_15
I0228 21:17:51.396303 11660 net.cpp:380] lstm1_cont_slice -> cont_16
I0228 21:17:51.396419 11660 net.cpp:122] Setting up lstm1_cont_slice
I0228 21:17:51.396435 11660 net.cpp:129] Top shape: 1 13 (13)
I0228 21:17:51.396441 11660 net.cpp:129] Top shape: 1 13 (13)
I0228 21:17:51.396446 11660 net.cpp:129] Top shape: 1 13 (13)
I0228 21:17:51.396451 11660 net.cpp:129] Top shape: 1 13 (13)
I0228 21:17:51.396457 11660 net.cpp:129] Top shape: 1 13 (13)
I0228 21:17:51.396462 11660 net.cpp:129] Top shape: 1 13 (13)
I0228 21:17:51.396467 11660 net.cpp:129] Top shape: 1 13 (13)
I0228 21:17:51.396472 11660 net.cpp:129] Top shape: 1 13 (13)
I0228 21:17:51.396477 11660 net.cpp:129] Top shape: 1 13 (13)
I0228 21:17:51.396482 11660 net.cpp:129] Top shape: 1 13 (13)
I0228 21:17:51.396487 11660 net.cpp:129] Top shape: 1 13 (13)
I0228 21:17:51.396492 11660 net.cpp:129] Top shape: 1 13 (13)
I0228 21:17:51.396497 11660 net.cpp:129] Top shape: 1 13 (13)
I0228 21:17:51.396502 11660 net.cpp:129] Top shape: 1 13 (13)
I0228 21:17:51.396507 11660 net.cpp:129] Top shape: 1 13 (13)
I0228 21:17:51.396512 11660 net.cpp:129] Top shape: 1 13 (13)
I0228 21:17:51.396517 11660 net.cpp:137] Memory required for data: 4160
I0228 21:17:51.396522 11660 layer_factory.hpp:77] Creating layer cont_1_lstm1_cont_slice_0_split
I0228 21:17:51.396526 11660 net.cpp:84] Creating Layer cont_1_lstm1_cont_slice_0_split
I0228 21:17:51.396531 11660 net.cpp:406] cont_1_lstm1_cont_slice_0_split <- cont_1
I0228 21:17:51.396538 11660 net.cpp:380] cont_1_lstm1_cont_slice_0_split -> cont_1_lstm1_cont_slice_0_split_0
I0228 21:17:51.396546 11660 net.cpp:380] cont_1_lstm1_cont_slice_0_split -> cont_1_lstm1_cont_slice_0_split_1
I0228 21:17:51.396569 11660 net.cpp:122] Setting up cont_1_lstm1_cont_slice_0_split
I0228 21:17:51.396576 11660 net.cpp:129] Top shape: 1 13 (13)
I0228 21:17:51.396581 11660 net.cpp:129] Top shape: 1 13 (13)
I0228 21:17:51.396586 11660 net.cpp:137] Memory required for data: 4264
I0228 21:17:51.396589 11660 layer_factory.hpp:77] Creating layer cont_2_lstm1_cont_slice_1_split
I0228 21:17:51.396598 11660 net.cpp:84] Creating Layer cont_2_lstm1_cont_slice_1_split
I0228 21:17:51.397052 11660 net.cpp:406] cont_2_lstm1_cont_slice_1_split <- cont_2
I0228 21:17:51.397060 11660 net.cpp:380] cont_2_lstm1_cont_slice_1_split -> cont_2_lstm1_cont_slice_1_split_0
I0228 21:17:51.397068 11660 net.cpp:380] cont_2_lstm1_cont_slice_1_split -> cont_2_lstm1_cont_slice_1_split_1
I0228 21:17:51.397100 11660 net.cpp:122] Setting up cont_2_lstm1_cont_slice_1_split
I0228 21:17:51.397109 11660 net.cpp:129] Top shape: 1 13 (13)
I0228 21:17:51.397115 11660 net.cpp:129] Top shape: 1 13 (13)
I0228 21:17:51.397119 11660 net.cpp:137] Memory required for data: 4368
I0228 21:17:51.397125 11660 layer_factory.hpp:77] Creating layer cont_3_lstm1_cont_slice_2_split
I0228 21:17:51.397130 11660 net.cpp:84] Creating Layer cont_3_lstm1_cont_slice_2_split
I0228 21:17:51.397135 11660 net.cpp:406] cont_3_lstm1_cont_slice_2_split <- cont_3
I0228 21:17:51.397141 11660 net.cpp:380] cont_3_lstm1_cont_slice_2_split -> cont_3_lstm1_cont_slice_2_split_0
I0228 21:17:51.397148 11660 net.cpp:380] cont_3_lstm1_cont_slice_2_split -> cont_3_lstm1_cont_slice_2_split_1
I0228 21:17:51.397176 11660 net.cpp:122] Setting up cont_3_lstm1_cont_slice_2_split
I0228 21:17:51.397183 11660 net.cpp:129] Top shape: 1 13 (13)
I0228 21:17:51.397189 11660 net.cpp:129] Top shape: 1 13 (13)
I0228 21:17:51.397207 11660 net.cpp:137] Memory required for data: 4472
I0228 21:17:51.397212 11660 layer_factory.hpp:77] Creating layer cont_4_lstm1_cont_slice_3_split
I0228 21:17:51.397217 11660 net.cpp:84] Creating Layer cont_4_lstm1_cont_slice_3_split
I0228 21:17:51.397222 11660 net.cpp:406] cont_4_lstm1_cont_slice_3_split <- cont_4
I0228 21:17:51.397228 11660 net.cpp:380] cont_4_lstm1_cont_slice_3_split -> cont_4_lstm1_cont_slice_3_split_0
I0228 21:17:51.397234 11660 net.cpp:380] cont_4_lstm1_cont_slice_3_split -> cont_4_lstm1_cont_slice_3_split_1
I0228 21:17:51.397259 11660 net.cpp:122] Setting up cont_4_lstm1_cont_slice_3_split
I0228 21:17:51.397267 11660 net.cpp:129] Top shape: 1 13 (13)
I0228 21:17:51.397272 11660 net.cpp:129] Top shape: 1 13 (13)
I0228 21:17:51.397284 11660 net.cpp:137] Memory required for data: 4576
I0228 21:17:51.397289 11660 layer_factory.hpp:77] Creating layer cont_5_lstm1_cont_slice_4_split
I0228 21:17:51.397294 11660 net.cpp:84] Creating Layer cont_5_lstm1_cont_slice_4_split
I0228 21:17:51.397298 11660 net.cpp:406] cont_5_lstm1_cont_slice_4_split <- cont_5
I0228 21:17:51.397306 11660 net.cpp:380] cont_5_lstm1_cont_slice_4_split -> cont_5_lstm1_cont_slice_4_split_0
I0228 21:17:51.397312 11660 net.cpp:380] cont_5_lstm1_cont_slice_4_split -> cont_5_lstm1_cont_slice_4_split_1
I0228 21:17:51.397338 11660 net.cpp:122] Setting up cont_5_lstm1_cont_slice_4_split
I0228 21:17:51.397347 11660 net.cpp:129] Top shape: 1 13 (13)
I0228 21:17:51.397352 11660 net.cpp:129] Top shape: 1 13 (13)
I0228 21:17:51.397373 11660 net.cpp:137] Memory required for data: 4680
I0228 21:17:51.397377 11660 layer_factory.hpp:77] Creating layer cont_6_lstm1_cont_slice_5_split
I0228 21:17:51.397382 11660 net.cpp:84] Creating Layer cont_6_lstm1_cont_slice_5_split
I0228 21:17:51.397387 11660 net.cpp:406] cont_6_lstm1_cont_slice_5_split <- cont_6
I0228 21:17:51.397392 11660 net.cpp:380] cont_6_lstm1_cont_slice_5_split -> cont_6_lstm1_cont_slice_5_split_0
I0228 21:17:51.397397 11660 net.cpp:380] cont_6_lstm1_cont_slice_5_split -> cont_6_lstm1_cont_slice_5_split_1
I0228 21:17:51.397415 11660 net.cpp:122] Setting up cont_6_lstm1_cont_slice_5_split
I0228 21:17:51.397421 11660 net.cpp:129] Top shape: 1 13 (13)
I0228 21:17:51.397424 11660 net.cpp:129] Top shape: 1 13 (13)
I0228 21:17:51.397428 11660 net.cpp:137] Memory required for data: 4784
I0228 21:17:51.397430 11660 layer_factory.hpp:77] Creating layer cont_7_lstm1_cont_slice_6_split
I0228 21:17:51.398336 11660 net.cpp:84] Creating Layer cont_7_lstm1_cont_slice_6_split
I0228 21:17:51.398344 11660 net.cpp:406] cont_7_lstm1_cont_slice_6_split <- cont_7
I0228 21:17:51.398347 11660 net.cpp:380] cont_7_lstm1_cont_slice_6_split -> cont_7_lstm1_cont_slice_6_split_0
I0228 21:17:51.398370 11660 net.cpp:380] cont_7_lstm1_cont_slice_6_split -> cont_7_lstm1_cont_slice_6_split_1
I0228 21:17:51.398422 11660 net.cpp:122] Setting up cont_7_lstm1_cont_slice_6_split
I0228 21:17:51.398442 11660 net.cpp:129] Top shape: 1 13 (13)
I0228 21:17:51.398447 11660 net.cpp:129] Top shape: 1 13 (13)
I0228 21:17:51.398450 11660 net.cpp:137] Memory required for data: 4888
I0228 21:17:51.398453 11660 layer_factory.hpp:77] Creating layer cont_8_lstm1_cont_slice_7_split
I0228 21:17:51.398458 11660 net.cpp:84] Creating Layer cont_8_lstm1_cont_slice_7_split
I0228 21:17:51.398460 11660 net.cpp:406] cont_8_lstm1_cont_slice_7_split <- cont_8
I0228 21:17:51.398465 11660 net.cpp:380] cont_8_lstm1_cont_slice_7_split -> cont_8_lstm1_cont_slice_7_split_0
I0228 21:17:51.398469 11660 net.cpp:380] cont_8_lstm1_cont_slice_7_split -> cont_8_lstm1_cont_slice_7_split_1
I0228 21:17:51.398485 11660 net.cpp:122] Setting up cont_8_lstm1_cont_slice_7_split
I0228 21:17:51.398490 11660 net.cpp:129] Top shape: 1 13 (13)
I0228 21:17:51.398509 11660 net.cpp:129] Top shape: 1 13 (13)
I0228 21:17:51.398515 11660 net.cpp:137] Memory required for data: 4992
I0228 21:17:51.398520 11660 layer_factory.hpp:77] Creating layer cont_9_lstm1_cont_slice_8_split
I0228 21:17:51.398530 11660 net.cpp:84] Creating Layer cont_9_lstm1_cont_slice_8_split
I0228 21:17:51.398535 11660 net.cpp:406] cont_9_lstm1_cont_slice_8_split <- cont_9
I0228 21:17:51.398538 11660 net.cpp:380] cont_9_lstm1_cont_slice_8_split -> cont_9_lstm1_cont_slice_8_split_0
I0228 21:17:51.398545 11660 net.cpp:380] cont_9_lstm1_cont_slice_8_split -> cont_9_lstm1_cont_slice_8_split_1
I0228 21:17:51.398566 11660 net.cpp:122] Setting up cont_9_lstm1_cont_slice_8_split
I0228 21:17:51.398571 11660 net.cpp:129] Top shape: 1 13 (13)
I0228 21:17:51.398576 11660 net.cpp:129] Top shape: 1 13 (13)
I0228 21:17:51.398578 11660 net.cpp:137] Memory required for data: 5096
I0228 21:17:51.398581 11660 layer_factory.hpp:77] Creating layer cont_10_lstm1_cont_slice_9_split
I0228 21:17:51.398584 11660 net.cpp:84] Creating Layer cont_10_lstm1_cont_slice_9_split
I0228 21:17:51.398597 11660 net.cpp:406] cont_10_lstm1_cont_slice_9_split <- cont_10
I0228 21:17:51.398603 11660 net.cpp:380] cont_10_lstm1_cont_slice_9_split -> cont_10_lstm1_cont_slice_9_split_0
I0228 21:17:51.398610 11660 net.cpp:380] cont_10_lstm1_cont_slice_9_split -> cont_10_lstm1_cont_slice_9_split_1
I0228 21:17:51.398634 11660 net.cpp:122] Setting up cont_10_lstm1_cont_slice_9_split
I0228 21:17:51.398643 11660 net.cpp:129] Top shape: 1 13 (13)
I0228 21:17:51.398648 11660 net.cpp:129] Top shape: 1 13 (13)
I0228 21:17:51.398651 11660 net.cpp:137] Memory required for data: 5200
I0228 21:17:51.398654 11660 layer_factory.hpp:77] Creating layer cont_11_lstm1_cont_slice_10_split
I0228 21:17:51.398658 11660 net.cpp:84] Creating Layer cont_11_lstm1_cont_slice_10_split
I0228 21:17:51.398663 11660 net.cpp:406] cont_11_lstm1_cont_slice_10_split <- cont_11
I0228 21:17:51.398667 11660 net.cpp:380] cont_11_lstm1_cont_slice_10_split -> cont_11_lstm1_cont_slice_10_split_0
I0228 21:17:51.398672 11660 net.cpp:380] cont_11_lstm1_cont_slice_10_split -> cont_11_lstm1_cont_slice_10_split_1
I0228 21:17:51.398689 11660 net.cpp:122] Setting up cont_11_lstm1_cont_slice_10_split
I0228 21:17:51.398694 11660 net.cpp:129] Top shape: 1 13 (13)
I0228 21:17:51.398699 11660 net.cpp:129] Top shape: 1 13 (13)
I0228 21:17:51.398701 11660 net.cpp:137] Memory required for data: 5304
I0228 21:17:51.398705 11660 layer_factory.hpp:77] Creating layer cont_12_lstm1_cont_slice_11_split
I0228 21:17:51.398710 11660 net.cpp:84] Creating Layer cont_12_lstm1_cont_slice_11_split
I0228 21:17:51.398712 11660 net.cpp:406] cont_12_lstm1_cont_slice_11_split <- cont_12
I0228 21:17:51.398716 11660 net.cpp:380] cont_12_lstm1_cont_slice_11_split -> cont_12_lstm1_cont_slice_11_split_0
I0228 21:17:51.398721 11660 net.cpp:380] cont_12_lstm1_cont_slice_11_split -> cont_12_lstm1_cont_slice_11_split_1
I0228 21:17:51.398738 11660 net.cpp:122] Setting up cont_12_lstm1_cont_slice_11_split
I0228 21:17:51.398742 11660 net.cpp:129] Top shape: 1 13 (13)
I0228 21:17:51.398746 11660 net.cpp:129] Top shape: 1 13 (13)
I0228 21:17:51.398749 11660 net.cpp:137] Memory required for data: 5408
I0228 21:17:51.398752 11660 layer_factory.hpp:77] Creating layer cont_13_lstm1_cont_slice_12_split
I0228 21:17:51.398756 11660 net.cpp:84] Creating Layer cont_13_lstm1_cont_slice_12_split
I0228 21:17:51.398759 11660 net.cpp:406] cont_13_lstm1_cont_slice_12_split <- cont_13
I0228 21:17:51.398777 11660 net.cpp:380] cont_13_lstm1_cont_slice_12_split -> cont_13_lstm1_cont_slice_12_split_0
I0228 21:17:51.398782 11660 net.cpp:380] cont_13_lstm1_cont_slice_12_split -> cont_13_lstm1_cont_slice_12_split_1
I0228 21:17:51.398798 11660 net.cpp:122] Setting up cont_13_lstm1_cont_slice_12_split
I0228 21:17:51.398803 11660 net.cpp:129] Top shape: 1 13 (13)
I0228 21:17:51.398808 11660 net.cpp:129] Top shape: 1 13 (13)
I0228 21:17:51.398809 11660 net.cpp:137] Memory required for data: 5512
I0228 21:17:51.398813 11660 layer_factory.hpp:77] Creating layer cont_14_lstm1_cont_slice_13_split
I0228 21:17:51.398818 11660 net.cpp:84] Creating Layer cont_14_lstm1_cont_slice_13_split
I0228 21:17:51.398821 11660 net.cpp:406] cont_14_lstm1_cont_slice_13_split <- cont_14
I0228 21:17:51.398826 11660 net.cpp:380] cont_14_lstm1_cont_slice_13_split -> cont_14_lstm1_cont_slice_13_split_0
I0228 21:17:51.398831 11660 net.cpp:380] cont_14_lstm1_cont_slice_13_split -> cont_14_lstm1_cont_slice_13_split_1
I0228 21:17:51.398846 11660 net.cpp:122] Setting up cont_14_lstm1_cont_slice_13_split
I0228 21:17:51.398851 11660 net.cpp:129] Top shape: 1 13 (13)
I0228 21:17:51.398855 11660 net.cpp:129] Top shape: 1 13 (13)
I0228 21:17:51.398859 11660 net.cpp:137] Memory required for data: 5616
I0228 21:17:51.398861 11660 layer_factory.hpp:77] Creating layer cont_15_lstm1_cont_slice_14_split
I0228 21:17:51.398865 11660 net.cpp:84] Creating Layer cont_15_lstm1_cont_slice_14_split
I0228 21:17:51.398869 11660 net.cpp:406] cont_15_lstm1_cont_slice_14_split <- cont_15
I0228 21:17:51.398872 11660 net.cpp:380] cont_15_lstm1_cont_slice_14_split -> cont_15_lstm1_cont_slice_14_split_0
I0228 21:17:51.398882 11660 net.cpp:380] cont_15_lstm1_cont_slice_14_split -> cont_15_lstm1_cont_slice_14_split_1
I0228 21:17:51.398900 11660 net.cpp:122] Setting up cont_15_lstm1_cont_slice_14_split
I0228 21:17:51.398905 11660 net.cpp:129] Top shape: 1 13 (13)
I0228 21:17:51.398910 11660 net.cpp:129] Top shape: 1 13 (13)
I0228 21:17:51.398911 11660 net.cpp:137] Memory required for data: 5720
I0228 21:17:51.398914 11660 layer_factory.hpp:77] Creating layer cont_16_lstm1_cont_slice_15_split
I0228 21:17:51.398918 11660 net.cpp:84] Creating Layer cont_16_lstm1_cont_slice_15_split
I0228 21:17:51.398921 11660 net.cpp:406] cont_16_lstm1_cont_slice_15_split <- cont_16
I0228 21:17:51.398926 11660 net.cpp:380] cont_16_lstm1_cont_slice_15_split -> cont_16_lstm1_cont_slice_15_split_0
I0228 21:17:51.398929 11660 net.cpp:380] cont_16_lstm1_cont_slice_15_split -> cont_16_lstm1_cont_slice_15_split_1
I0228 21:17:51.412978 11660 net.cpp:122] Setting up cont_16_lstm1_cont_slice_15_split
I0228 21:17:51.413002 11660 net.cpp:129] Top shape: 1 13 (13)
I0228 21:17:51.413012 11660 net.cpp:129] Top shape: 1 13 (13)
I0228 21:17:51.413017 11660 net.cpp:137] Memory required for data: 5824
I0228 21:17:51.413022 11660 layer_factory.hpp:77] Creating layer lstm1_x_transform
I0228 21:17:51.413033 11660 net.cpp:84] Creating Layer lstm1_x_transform
I0228 21:17:51.413040 11660 net.cpp:406] lstm1_x_transform <- x
I0228 21:17:51.413056 11660 net.cpp:380] lstm1_x_transform -> W_xc_x
I0228 21:17:51.413594 11660 net.cpp:122] Setting up lstm1_x_transform
I0228 21:17:51.413606 11660 net.cpp:129] Top shape: 16 13 64 (13312)
I0228 21:17:51.413611 11660 net.cpp:137] Memory required for data: 59072
I0228 21:17:51.413633 11660 layer_factory.hpp:77] Creating layer lstm1_W_xc_x_slice
I0228 21:17:51.413645 11660 net.cpp:84] Creating Layer lstm1_W_xc_x_slice
I0228 21:17:51.413662 11660 net.cpp:406] lstm1_W_xc_x_slice <- W_xc_x
I0228 21:17:51.413671 11660 net.cpp:380] lstm1_W_xc_x_slice -> W_xc_x_1
I0228 21:17:51.413681 11660 net.cpp:380] lstm1_W_xc_x_slice -> W_xc_x_2
…
I0228 21:17:51.413738 11660 net.cpp:380] lstm1_W_xc_x_slice -> W_xc_x_10
I0228 21:17:51.413745 11660 net.cpp:380] lstm1_W_xc_x_slice -> W_xc_x_11
I0228 21:17:51.413753 11660 net.cpp:380] lstm1_W_xc_x_slice -> W_xc_x_12
I0228 21:17:51.413765 11660 net.cpp:380] lstm1_W_xc_x_slice -> W_xc_x_13
I0228 21:17:51.413774 11660 net.cpp:380] lstm1_W_xc_x_slice -> W_xc_x_14
I0228 21:17:51.413781 11660 net.cpp:380] lstm1_W_xc_x_slice -> W_xc_x_15
I0228 21:17:51.413801 11660 net.cpp:380] lstm1_W_xc_x_slice -> W_xc_x_16
I0228 21:17:51.413938 11660 net.cpp:122] Setting up lstm1_W_xc_x_slice
I0228 21:17:51.413947 11660 net.cpp:129] Top shape: 1 13 64 (832)
I0228 21:17:51.413954 11660 net.cpp:129] Top shape: 1 13 64 (832)
I0228 21:17:51.413960 11660 net.cpp:129] Top shape: 1 13 64 (832)
I0228 21:17:51.413966 11660 net.cpp:129] Top shape: 1 13 64 (832)
I0228 21:17:51.413970 11660 net.cpp:129] Top shape: 1 13 64 (832)
I0228 21:17:51.413975 11660 net.cpp:129] Top shape: 1 13 64 (832)
I0228 21:17:51.413977 11660 net.cpp:129] Top shape: 1 13 64 (832)
I0228 21:17:51.413981 11660 net.cpp:129] Top shape: 1 13 64 (832)
I0228 21:17:51.413985 11660 net.cpp:129] Top shape: 1 13 64 (832)
I0228 21:17:51.413988 11660 net.cpp:129] Top shape: 1 13 64 (832)
I0228 21:17:51.413992 11660 net.cpp:129] Top shape: 1 13 64 (832)
I0228 21:17:51.413998 11660 net.cpp:129] Top shape: 1 13 64 (832)
I0228 21:17:51.414002 11660 net.cpp:129] Top shape: 1 13 64 (832)
I0228 21:17:51.414006 11660 net.cpp:129] Top shape: 1 13 64 (832)
I0228 21:17:51.414018 11660 net.cpp:129] Top shape: 1 13 64 (832)
I0228 21:17:51.414023 11660 net.cpp:129] Top shape: 1 13 64 (832)
I0228 21:17:51.414026 11660 net.cpp:137] Memory required for data: 112320
I0228 21:17:51.414029 11660 layer_factory.hpp:77] Creating layer lstm1_h_conted_0
I0228 21:17:51.414036 11660 net.cpp:84] Creating Layer lstm1_h_conted_0
I0228 21:17:51.414039 11660 net.cpp:406] lstm1_h_conted_0 <- h_0
I0228 21:17:51.414044 11660 net.cpp:406] lstm1_h_conted_0 <- cont_1_lstm1_cont_slice_0_split_0
I0228 21:17:51.414050 11660 net.cpp:380] lstm1_h_conted_0 -> h_conted_0
I0228 21:17:51.414089 11660 net.cpp:122] Setting up lstm1_h_conted_0
I0228 21:17:51.414095 11660 net.cpp:129] Top shape: 1 13 16 (208)
I0228 21:17:51.414098 11660 net.cpp:137] Memory required for data: 113152
I0228 21:17:51.414101 11660 layer_factory.hpp:77] Creating layer lstm1_transform_1
I0228 21:17:51.414108 11660 net.cpp:84] Creating Layer lstm1_transform_1
I0228 21:17:51.414111 11660 net.cpp:406] lstm1_transform_1 <- h_conted_0
I0228 21:17:51.414115 11660 net.cpp:380] lstm1_transform_1 -> W_hc_h_0
I0228 21:17:51.414855 11660 net.cpp:122] Setting up lstm1_transform_1
I0228 21:17:51.414868 11660 net.cpp:129] Top shape: 1 13 64 (832)
I0228 21:17:51.414871 11660 net.cpp:137] Memory required for data: 116480
I0228 21:17:51.414882 11660 layer_factory.hpp:77] Creating layer lstm1_gate_input_1
I0228 21:17:51.414892 11660 net.cpp:84] Creating Layer lstm1_gate_input_1
I0228 21:17:51.414896 11660 net.cpp:406] lstm1_gate_input_1 <- W_hc_h_0
I0228 21:17:51.414901 11660 net.cpp:406] lstm1_gate_input_1 <- W_xc_x_1
I0228 21:17:51.414906 11660 net.cpp:380] lstm1_gate_input_1 -> gate_input_1
I0228 21:17:51.414927 11660 net.cpp:122] Setting up lstm1_gate_input_1
I0228 21:17:51.414933 11660 net.cpp:129] Top shape: 1 13 64 (832)
I0228 21:17:51.414937 11660 net.cpp:137] Memory required for data: 119808
I0228 21:17:51.414939 11660 layer_factory.hpp:77] Creating layer lstm1_unit_1
I0228 21:17:51.414947 11660 net.cpp:84] Creating Layer lstm1_unit_1
I0228 21:17:51.414952 11660 net.cpp:406] lstm1_unit_1 <- c_0
I0228 21:17:51.414958 11660 net.cpp:406] lstm1_unit_1 <- gate_input_1
I0228 21:17:51.414964 11660 net.cpp:406] lstm1_unit_1 <- cont_1_lstm1_cont_slice_0_split_1
I0228 21:17:51.414969 11660 net.cpp:380] lstm1_unit_1 -> c_1
I0228 21:17:51.414974 11660 net.cpp:380] lstm1_unit_1 -> h_1
I0228 21:17:51.415001 11660 net.cpp:122] Setting up lstm1_unit_1
I0228 21:17:51.415007 11660 net.cpp:129] Top shape: 1 13 16 (208)
I0228 21:17:51.415011 11660 net.cpp:129] Top shape: 1 13 16 (208)
I0228 21:17:51.415014 11660 net.cpp:137] Memory required for data: 121472
I0228 21:17:51.415017 11660 layer_factory.hpp:77] Creating layer h_1_lstm1_unit_1_1_split
I0228 21:17:51.415021 11660 net.cpp:84] Creating Layer h_1_lstm1_unit_1_1_split
I0228 21:17:51.415025 11660 net.cpp:406] h_1_lstm1_unit_1_1_split <- h_1
I0228 21:17:51.415030 11660 net.cpp:380] h_1_lstm1_unit_1_1_split -> h_1_lstm1_unit_1_1_split_0
I0228 21:17:51.415035 11660 net.cpp:380] h_1_lstm1_unit_1_1_split -> h_1_lstm1_unit_1_1_split_1
I0228 21:17:51.415055 11660 net.cpp:122] Setting up h_1_lstm1_unit_1_1_split
I0228 21:17:51.415060 11660 net.cpp:129] Top shape: 1 13 16 (208)
I0228 21:17:51.415065 11660 net.cpp:129] Top shape: 1 13 16 (208)
I0228 21:17:51.415067 11660 net.cpp:137] Memory required for data: 123136
I0228 21:17:51.415071 11660 layer_factory.hpp:77] Creating layer lstm1_h_conted_1
I0228 21:17:51.415076 11660 net.cpp:84] Creating Layer lstm1_h_conted_1
I0228 21:17:51.415079 11660 net.cpp:406] lstm1_h_conted_1 <- h_1_lstm1_unit_1_1_split_0
I0228 21:17:51.415083 11660 net.cpp:406] lstm1_h_conted_1 <- cont_2_lstm1_cont_slice_1_split_0
I0228 21:17:51.415087 11660 net.cpp:380] lstm1_h_conted_1 -> h_conted_1
I0228 21:17:51.415122 11660 net.cpp:122] Setting up lstm1_h_conted_1
I0228 21:17:51.415128 11660 net.cpp:129] Top shape: 1 13 16 (208)
I0228 21:17:51.415132 11660 net.cpp:137] Memory required for data: 123968
I0228 21:17:51.415134 11660 layer_factory.hpp:77] Creating layer lstm1_transform_2
I0228 21:17:51.415139 11660 net.cpp:84] Creating Layer lstm1_transform_2
I0228 21:17:51.415150 11660 net.cpp:406] lstm1_transform_2 <- h_conted_1
I0228 21:17:51.415156 11660 net.cpp:380] lstm1_transform_2 -> W_hc_h_1
I0228 21:17:51.415192 11660 net.cpp:122] Setting up lstm1_transform_2
I0228 21:17:51.415199 11660 net.cpp:129] Top shape: 1 13 64 (832)
I0228 21:17:51.415201 11660 net.cpp:137] Memory required for data: 127296
I0228 21:17:51.415205 11660 net.cpp:465] Sharing parameters 'W_hc' owned by layer 'lstm1_transform_1', param index 0
I0228 21:17:51.415208 11660 layer_factory.hpp:77] Creating layer lstm1_gate_input_2
I0228 21:17:51.415212 11660 net.cpp:84] Creating Layer lstm1_gate_input_2
I0228 21:17:51.416723 11660 net.cpp:406] lstm1_gate_input_2 <- W_hc_h_1
I0228 21:17:51.416735 11660 net.cpp:406] lstm1_gate_input_2 <- W_xc_x_2
I0228 21:17:51.416743 11660 net.cpp:380] lstm1_gate_input_2 -> gate_input_2
I0228 21:17:51.416772 11660 net.cpp:122] Setting up lstm1_gate_input_2
I0228 21:17:51.416780 11660 net.cpp:129] Top shape: 1 13 64 (832)
I0228 21:17:51.416785 11660 net.cpp:137] Memory required for data: 130624
I0228 21:17:51.416788 11660 layer_factory.hpp:77] Creating layer lstm1_unit_2
I0228 21:17:51.416795 11660 net.cpp:84] Creating Layer lstm1_unit_2
I0228 21:17:51.416800 11660 net.cpp:406] lstm1_unit_2 <- c_1
I0228 21:17:51.416805 11660 net.cpp:406] lstm1_unit_2 <- gate_input_2
I0228 21:17:51.416810 11660 net.cpp:406] lstm1_unit_2 <- cont_2_lstm1_cont_slice_1_split_1
I0228 21:17:51.416816 11660 net.cpp:380] lstm1_unit_2 -> c_2
I0228 21:17:51.416823 11660 net.cpp:380] lstm1_unit_2 -> h_2
I0228 21:17:51.416855 11660 net.cpp:122] Setting up lstm1_unit_2
I0228 21:17:51.416862 11660 net.cpp:129] Top shape: 1 13 16 (208)
I0228 21:17:51.416868 11660 net.cpp:129] Top shape: 1 13 16 (208)
I0228 21:17:51.416872 11660 net.cpp:137] Memory required for data: 132288
I0228 21:17:51.416875 11660 layer_factory.hpp:77] Creating layer h_2_lstm1_unit_2_1_split
I0228 21:17:51.416882 11660 net.cpp:84] Creating Layer h_2_lstm1_unit_2_1_split
I0228 21:17:51.416885 11660 net.cpp:406] h_2_lstm1_unit_2_1_split <- h_2
I0228 21:17:51.416889 11660 net.cpp:380] h_2_lstm1_unit_2_1_split -> h_2_lstm1_unit_2_1_split_0
I0228 21:17:51.416895 11660 net.cpp:380] h_2_lstm1_unit_2_1_split -> h_2_lstm1_unit_2_1_split_1
I0228 21:17:51.416916 11660 net.cpp:122] Setting up h_2_lstm1_unit_2_1_split
I0228 21:17:51.416923 11660 net.cpp:129] Top shape: 1 13 16 (208)
I0228 21:17:51.416926 11660 net.cpp:129] Top shape: 1 13 16 (208)
I0228 21:17:51.416929 11660 net.cpp:137] Memory required for data: 133952
I0228 21:17:51.416932 11660 layer_factory.hpp:77] Creating layer lstm1_h_conted_2
I0228 21:17:51.416939 11660 net.cpp:84] Creating Layer lstm1_h_conted_2
I0228 21:17:51.416942 11660 net.cpp:406] lstm1_h_conted_2 <- h_2_lstm1_unit_2_1_split_0
I0228 21:17:51.416946 11660 net.cpp:406] lstm1_h_conted_2 <- cont_3_lstm1_cont_slice_2_split_0
I0228 21:17:51.416951 11660 net.cpp:380] lstm1_h_conted_2 -> h_conted_2
I0228 21:17:51.416988 11660 net.cpp:122] Setting up lstm1_h_conted_2
I0228 21:17:51.416995 11660 net.cpp:129] Top shape: 1 13 16 (208)
I0228 21:17:51.416997 11660 net.cpp:137] Memory required for data: 134784
I0228 21:17:51.417001 11660 layer_factory.hpp:77] Creating layer lstm1_transform_3
I0228 21:17:51.417011 11660 net.cpp:84] Creating Layer lstm1_transform_3
I0228 21:17:51.417016 11660 net.cpp:406] lstm1_transform_3 <- h_conted_2
I0228 21:17:51.417021 11660 net.cpp:380] lstm1_transform_3 -> W_hc_h_2
I0228 21:17:51.417058 11660 net.cpp:122] Setting up lstm1_transform_3
I0228 21:17:51.417064 11660 net.cpp:129] Top shape: 1 13 64 (832)
I0228 21:17:51.417068 11660 net.cpp:137] Memory required for data: 138112
I0228 21:17:51.417074 11660 net.cpp:465] Sharing parameters 'W_hc' owned by layer 'lstm1_transform_1', param index 0
I0228 21:17:51.417078 11660 layer_factory.hpp:77] Creating layer lstm1_gate_input_3
I0228 21:17:51.417083 11660 net.cpp:84] Creating Layer lstm1_gate_input_3
I0228 21:17:51.417090 11660 net.cpp:406] lstm1_gate_input_3 <- W_hc_h_2
I0228 21:17:51.417094 11660 net.cpp:406] lstm1_gate_input_3 <- W_xc_x_3
I0228 21:17:51.417109 11660 net.cpp:380] lstm1_gate_input_3 -> gate_input_3
I0228 21:17:51.417129 11660 net.cpp:122] Setting up lstm1_gate_input_3
I0228 21:17:51.417135 11660 net.cpp:129] Top shape: 1 13 64 (832)
I0228 21:17:51.417137 11660 net.cpp:137] Memory required for data: 141440
I0228 21:17:51.417140 11660 layer_factory.hpp:77] Creating layer lstm1_unit_3
I0228 21:17:51.417145 11660 net.cpp:84] Creating Layer lstm1_unit_3
I0228 21:17:51.417150 11660 net.cpp:406] lstm1_unit_3 <- c_2
I0228 21:17:51.417153 11660 net.cpp:406] lstm1_unit_3 <- gate_input_3
I0228 21:17:51.417157 11660 net.cpp:406] lstm1_unit_3 <- cont_3_lstm1_cont_slice_2_split_1
I0228 21:17:51.417161 11660 net.cpp:380] lstm1_unit_3 -> c_3
I0228 21:17:51.417166 11660 net.cpp:380] lstm1_unit_3 -> h_3
I0228 21:17:51.417192 11660 net.cpp:122] Setting up lstm1_unit_3
I0228 21:17:51.417197 11660 net.cpp:129] Top shape: 1 13 16 (208)
I0228 21:17:51.417201 11660 net.cpp:129] Top shape: 1 13 16 (208)
I0228 21:17:51.417204 11660 net.cpp:137] Memory required for data: 143104
I0228 21:17:51.417207 11660 layer_factory.hpp:77] Creating layer h_3_lstm1_unit_3_1_split
I0228 21:17:51.417212 11660 net.cpp:84] Creating Layer h_3_lstm1_unit_3_1_split
I0228 21:17:51.417217 11660 net.cpp:406] h_3_lstm1_unit_3_1_split <- h_3
I0228 21:17:51.417220 11660 net.cpp:380] h_3_lstm1_unit_3_1_split -> h_3_lstm1_unit_3_1_split_0
I0228 21:17:51.417225 11660 net.cpp:380] h_3_lstm1_unit_3_1_split -> h_3_lstm1_unit_3_1_split_1
I0228 21:17:51.417243 11660 net.cpp:122] Setting up h_3_lstm1_unit_3_1_split
I0228 21:17:51.417248 11660 net.cpp:129] Top shape: 1 13 16 (208)
I0228 21:17:51.417253 11660 net.cpp:129] Top shape: 1 13 16 (208)
I0228 21:17:51.417255 11660 net.cpp:137] Memory required for data: 144768
I0228 21:17:51.417258 11660 layer_factory.hpp:77] Creating layer lstm1_h_conted_3
I0228 21:17:51.417263 11660 net.cpp:84] Creating Layer lstm1_h_conted_3
I0228 21:17:51.417268 11660 net.cpp:406] lstm1_h_conted_3 <- h_3_lstm1_unit_3_1_split_0
I0228 21:17:51.417271 11660 net.cpp:406] lstm1_h_conted_3 <- cont_4_lstm1_cont_slice_3_split_0
I0228 21:17:51.417275 11660 net.cpp:380] lstm1_h_conted_3 -> h_conted_3
I0228 21:17:51.417305 11660 net.cpp:122] Setting up lstm1_h_conted_3
I0228 21:17:51.417311 11660 net.cpp:129] Top shape: 1 13 16 (208)
I0228 21:17:51.417315 11660 net.cpp:137] Memory required for data: 145600
I0228 21:17:51.417317 11660 layer_factory.hpp:77] Creating layer lstm1_transform_4
I0228 21:17:51.417321 11660 net.cpp:84] Creating Layer lstm1_transform_4
I0228 21:17:51.417325 11660 net.cpp:406] lstm1_transform_4 <- h_conted_3
I0228 21:17:51.417330 11660 net.cpp:380] lstm1_transform_4 -> W_hc_h_3
I0228 21:17:51.417376 11660 net.cpp:122] Setting up lstm1_transform_4
I0228 21:17:51.417382 11660 net.cpp:129] Top shape: 1 13 64 (832)
I0228 21:17:51.417385 11660 net.cpp:137] Memory required for data: 148928
I0228 21:17:51.417389 11660 net.cpp:465] Sharing parameters 'W_hc' owned by layer 'lstm1_transform_1', param index 0
I0228 21:17:51.417392 11660 layer_factory.hpp:77] Creating layer lstm1_gate_input_4
I0228 21:17:51.417397 11660 net.cpp:84] Creating Layer lstm1_gate_input_4
I0228 21:17:51.417400 11660 net.cpp:406] lstm1_gate_input_4 <- W_hc_h_3
I0228 21:17:51.417404 11660 net.cpp:406] lstm1_gate_input_4 <- W_xc_x_4
I0228 21:17:51.417409 11660 net.cpp:380] lstm1_gate_input_4 -> gate_input_4
I0228 21:17:51.417423 11660 net.cpp:122] Setting up lstm1_gate_input_4
I0228 21:17:51.417428 11660 net.cpp:129] Top shape: 1 13 64 (832)
I0228 21:17:51.417431 11660 net.cpp:137] Memory required for data: 152256
I0228 21:17:51.417434 11660 layer_factory.hpp:77] Creating layer lstm1_unit_4
I0228 21:17:51.417439 11660 net.cpp:84] Creating Layer lstm1_unit_4
I0228 21:17:51.417443 11660 net.cpp:406] lstm1_unit_4 <- c_3
I0228 21:17:51.417448 11660 net.cpp:406] lstm1_unit_4 <- gate_input_4
I0228 21:17:51.417450 11660 net.cpp:406] lstm1_unit_4 <- cont_4_lstm1_cont_slice_3_split_1
I0228 21:17:51.417454 11660 net.cpp:380] lstm1_unit_4 -> c_4
I0228 21:17:51.417459 11660 net.cpp:380] lstm1_unit_4 -> h_4
I0228 21:17:51.417500 11660 net.cpp:122] Setting up lstm1_unit_4
I0228 21:17:51.417508 11660 net.cpp:129] Top shape: 1 13 16 (208)
I0228 21:17:51.417515 11660 net.cpp:129] Top shape: 1 13 16 (208)
I0228 21:17:51.417521 11660 net.cpp:137] Memory required for data: 153920
I0228 21:17:51.417526 11660 layer_factory.hpp:77] Creating layer h_4_lstm1_unit_4_1_split
I0228 21:17:51.417531 11660 net.cpp:84] Creating Layer h_4_lstm1_unit_4_1_split
I0228 21:17:51.417536 11660 net.cpp:406] h_4_lstm1_unit_4_1_split <- h_4
I0228 21:17:51.446884 11660 net.cpp:380] h_4_lstm1_unit_4_1_split -> h_4_lstm1_unit_4_1_split_0
I0228 21:17:51.446928 11660 net.cpp:380] h_4_lstm1_unit_4_1_split -> h_4_lstm1_unit_4_1_split_1
I0228 21:17:51.446987 11660 net.cpp:122] Setting up h_4_lstm1_unit_4_1_split
I0228 21:17:51.446998 11660 net.cpp:129] Top shape: 1 13 16 (208)
I0228 21:17:51.447003 11660 net.cpp:129] Top shape: 1 13 16 (208)
I0228 21:17:51.447006 11660 net.cpp:137] Memory required for data: 155584
I0228 21:17:51.447010 11660 layer_factory.hpp:77] Creating layer lstm1_h_conted_4
I0228 21:17:51.447021 11660 net.cpp:84] Creating Layer lstm1_h_conted_4
I0228 21:17:51.447026 11660 net.cpp:406] lstm1_h_conted_4 <- h_4_lstm1_unit_4_1_split_0
I0228 21:17:51.447031 11660 net.cpp:406] lstm1_h_conted_4 <- cont_5_lstm1_cont_slice_4_split_0
I0228 21:17:51.447036 11660 net.cpp:380] lstm1_h_conted_4 -> h_conted_4
I0228 21:17:51.447074 11660 net.cpp:122] Setting up lstm1_h_conted_4
I0228 21:17:51.447080 11660 net.cpp:129] Top shape: 1 13 16 (208)
I0228 21:17:51.447083 11660 net.cpp:137] Memory required for data: 156416
I0228 21:17:51.447087 11660 layer_factory.hpp:77] Creating layer lstm1_transform_5
I0228 21:17:51.447093 11660 net.cpp:84] Creating Layer lstm1_transform_5
I0228 21:17:51.447095 11660 net.cpp:406] lstm1_transform_5 <- h_conted_4
I0228 21:17:51.447100 11660 net.cpp:380] lstm1_transform_5 -> W_hc_h_4
I0228 21:17:51.447139 11660 net.cpp:122] Setting up lstm1_transform_5
I0228 21:17:51.447144 11660 net.cpp:129] Top shape: 1 13 64 (832)
I0228 21:17:51.447146 11660 net.cpp:137] Memory required for data: 159744
I0228 21:17:51.447150 11660 net.cpp:465] Sharing parameters 'W_hc' owned by layer 'lstm1_transform_1', param index 0
I0228 21:17:51.447154 11660 layer_factory.hpp:77] Creating layer lstm1_gate_input_5
I0228 21:17:51.447160 11660 net.cpp:84] Creating Layer lstm1_gate_input_5
I0228 21:17:51.447163 11660 net.cpp:406] lstm1_gate_input_5 <- W_hc_h_4
I0228 21:17:51.447168 11660 net.cpp:406] lstm1_gate_input_5 <- W_xc_x_5
I0228 21:17:51.447172 11660 net.cpp:380] lstm1_gate_input_5 -> gate_input_5
I0228 21:17:51.447188 11660 net.cpp:122] Setting up lstm1_gate_input_5
I0228 21:17:51.447193 11660 net.cpp:129] Top shape: 1 13 64 (832)
I0228 21:17:51.447196 11660 net.cpp:137] Memory required for data: 163072
I0228 21:17:51.447199 11660 layer_factory.hpp:77] Creating layer lstm1_unit_5
I0228 21:17:51.447204 11660 net.cpp:84] Creating Layer lstm1_unit_5
I0228 21:17:51.447208 11660 net.cpp:406] lstm1_unit_5 <- c_4
I0228 21:17:51.447212 11660 net.cpp:406] lstm1_unit_5 <- gate_input_5
I0228 21:17:51.447216 11660 net.cpp:406] lstm1_unit_5 <- cont_5_lstm1_cont_slice_4_split_1
I0228 21:17:51.447221 11660 net.cpp:380] lstm1_unit_5 -> c_5
I0228 21:17:51.447227 11660 net.cpp:380] lstm1_unit_5 -> h_5
I0228 21:17:51.447250 11660 net.cpp:122] Setting up lstm1_unit_5
I0228 21:17:51.447255 11660 net.cpp:129] Top shape: 1 13 16 (208)
I0228 21:17:51.447259 11660 net.cpp:129] Top shape: 1 13 16 (208)
I0228 21:17:51.447263 11660 net.cpp:137] Memory required for data: 164736
I0228 21:17:51.447265 11660 layer_factory.hpp:77] Creating layer h_5_lstm1_unit_5_1_split
I0228 21:17:51.447269 11660 net.cpp:84] Creating Layer h_5_lstm1_unit_5_1_split
I0228 21:17:51.447273 11660 net.cpp:406] h_5_lstm1_unit_5_1_split <- h_5
I0228 21:17:51.447276 11660 net.cpp:380] h_5_lstm1_unit_5_1_split -> h_5_lstm1_unit_5_1_split_0
I0228 21:17:51.447281 11660 net.cpp:380] h_5_lstm1_unit_5_1_split -> h_5_lstm1_unit_5_1_split_1
I0228 21:17:51.447299 11660 net.cpp:122] Setting up h_5_lstm1_unit_5_1_split
I0228 21:17:51.447314 11660 net.cpp:129] Top shape: 1 13 16 (208)
I0228 21:17:51.447319 11660 net.cpp:129] Top shape: 1 13 16 (208)
I0228 21:17:51.447321 11660 net.cpp:137] Memory required for data: 166400
I0228 21:17:51.447324 11660 layer_factory.hpp:77] Creating layer lstm1_h_conted_5
I0228 21:17:51.447330 11660 net.cpp:84] Creating Layer lstm1_h_conted_5
I0228 21:17:51.447335 11660 net.cpp:406] lstm1_h_conted_5 <- h_5_lstm1_unit_5_1_split_0
I0228 21:17:51.447338 11660 net.cpp:406] lstm1_h_conted_5 <- cont_6_lstm1_cont_slice_5_split_0
I0228 21:17:51.447342 11660 net.cpp:380] lstm1_h_conted_5 -> h_conted_5
I0228 21:17:51.447389 11660 net.cpp:122] Setting up lstm1_h_conted_5
I0228 21:17:51.447396 11660 net.cpp:129] Top shape: 1 13 16 (208)
I0228 21:17:51.447398 11660 net.cpp:137] Memory required for data: 167232
I0228 21:17:51.447402 11660 layer_factory.hpp:77] Creating layer lstm1_transform_6
I0228 21:17:51.447407 11660 net.cpp:84] Creating Layer lstm1_transform_6
I0228 21:17:51.447410 11660 net.cpp:406] lstm1_transform_6 <- h_conted_5
I0228 21:17:51.447417 11660 net.cpp:380] lstm1_transform_6 -> W_hc_h_5
I0228 21:17:51.447463 11660 net.cpp:122] Setting up lstm1_transform_6
I0228 21:17:51.447474 11660 net.cpp:129] Top shape: 1 13 64 (832)
I0228 21:17:51.447479 11660 net.cpp:137] Memory required for data: 170560
I0228 21:17:51.447481 11660 net.cpp:465] Sharing parameters 'W_hc' owned by layer 'lstm1_transform_1', param index 0
I0228 21:17:51.447485 11660 layer_factory.hpp:77] Creating layer lstm1_gate_input_6
I0228 21:17:51.447504 11660 net.cpp:84] Creating Layer lstm1_gate_input_6
I0228 21:17:51.447507 11660 net.cpp:406] lstm1_gate_input_6 <- W_hc_h_5
I0228 21:17:51.447527 11660 net.cpp:406] lstm1_gate_input_6 <- W_xc_x_6
I0228 21:17:51.447532 11660 net.cpp:380] lstm1_gate_input_6 -> gate_input_6
I0228 21:17:51.447547 11660 net.cpp:122] Setting up lstm1_gate_input_6
I0228 21:17:51.447552 11660 net.cpp:129] Top shape: 1 13 64 (832)
I0228 21:17:51.447556 11660 net.cpp:137] Memory required for data: 173888
I0228 21:17:51.447558 11660 layer_factory.hpp:77] Creating layer lstm1_unit_6
I0228 21:17:51.447563 11660 net.cpp:84] Creating Layer lstm1_unit_6
I0228 21:17:51.447566 11660 net.cpp:406] lstm1_unit_6 <- c_5
I0228 21:17:51.447571 11660 net.cpp:406] lstm1_unit_6 <- gate_input_6
I0228 21:17:51.447574 11660 net.cpp:406] lstm1_unit_6 <- cont_6_lstm1_cont_slice_5_split_1
I0228 21:17:51.447592 11660 net.cpp:380] lstm1_unit_6 -> c_6
I0228 21:17:51.447597 11660 net.cpp:380] lstm1_unit_6 -> h_6
I0228 21:17:51.447639 11660 net.cpp:122] Setting up lstm1_unit_6
I0228 21:17:51.447646 11660 net.cpp:129] Top shape: 1 13 16 (208)
I0228 21:17:51.447650 11660 net.cpp:129] Top shape: 1 13 16 (208)
I0228 21:17:51.447654 11660 net.cpp:137] Memory required for data: 175552
I0228 21:17:51.447656 11660 layer_factory.hpp:77] Creating layer h_6_lstm1_unit_6_1_split
I0228 21:17:51.447674 11660 net.cpp:84] Creating Layer h_6_lstm1_unit_6_1_split
I0228 21:17:51.447677 11660 net.cpp:406] h_6_lstm1_unit_6_1_split <- h_6
I0228 21:17:51.447681 11660 net.cpp:380] h_6_lstm1_unit_6_1_split -> h_6_lstm1_unit_6_1_split_0
I0228 21:17:51.447686 11660 net.cpp:380] h_6_lstm1_unit_6_1_split -> h_6_lstm1_unit_6_1_split_1
I0228 21:17:51.447703 11660 net.cpp:122] Setting up h_6_lstm1_unit_6_1_split
I0228 21:17:51.447708 11660 net.cpp:129] Top shape: 1 13 16 (208)
I0228 21:17:51.447712 11660 net.cpp:129] Top shape: 1 13 16 (208)
I0228 21:17:51.447715 11660 net.cpp:137] Memory required for data: 177216
I0228 21:17:51.447718 11660 layer_factory.hpp:77] Creating layer lstm1_h_conted_6
I0228 21:17:51.447722 11660 net.cpp:84] Creating Layer lstm1_h_conted_6
I0228 21:17:51.447726 11660 net.cpp:406] lstm1_h_conted_6 <- h_6_lstm1_unit_6_1_split_0
I0228 21:17:51.447729 11660 net.cpp:406] lstm1_h_conted_6 <- cont_7_lstm1_cont_slice_6_split_0
I0228 21:17:51.447734 11660 net.cpp:380] lstm1_h_conted_6 -> h_conted_6
I0228 21:17:51.447763 11660 net.cpp:122] Setting up lstm1_h_conted_6
I0228 21:17:51.447769 11660 net.cpp:129] Top shape: 1 13 16 (208)
I0228 21:17:51.447777 11660 net.cpp:137] Memory required for data: 178048
I0228 21:17:51.447780 11660 layer_factory.hpp:77] Creating layer lstm1_transform_7
I0228 21:17:51.447785 11660 net.cpp:84] Creating Layer lstm1_transform_7
I0228 21:17:51.447788 11660 net.cpp:406] lstm1_transform_7 <- h_conted_6
I0228 21:17:51.447793 11660 net.cpp:380] lstm1_transform_7 -> W_hc_h_6
I0228 21:17:51.447827 11660 net.cpp:122] Setting up lstm1_transform_7
I0228 21:17:51.447847 11660 net.cpp:129] Top shape: 1 13 64 (832)
I0228 21:17:51.447850 11660 net.cpp:137] Memory required for data: 181376
I0228 21:17:51.447859 11660 net.cpp:465] Sharing parameters 'W_hc' owned by layer 'lstm1_transform_1', param index 0
I0228 21:17:51.447862 11660 layer_factory.hpp:77] Creating layer lstm1_gate_input_7
I0228 21:17:51.447867 11660 net.cpp:84] Creating Layer lstm1_gate_input_7
I0228 21:17:51.450028 11660 net.cpp:406] lstm1_gate_input_7 <- W_hc_h_6
I0228 21:17:51.450052 11660 net.cpp:406] lstm1_gate_input_7 <- W_xc_x_7
I0228 21:17:51.450058 11660 net.cpp:380] lstm1_gate_input_7 -> gate_input_7
I0228 21:17:51.450117 11660 net.cpp:122] Setting up lstm1_gate_input_7
I0228 21:17:51.450125 11660 net.cpp:129] Top shape: 1 13 64 (832)
I0228 21:17:51.450129 11660 net.cpp:137] Memory required for data: 184704
I0228 21:17:51.450132 11660 layer_factory.hpp:77] Creating layer lstm1_unit_7
I0228 21:17:51.450139 11660 net.cpp:84] Creating Layer lstm1_unit_7
I0228 21:17:51.450143 11660 net.cpp:406] lstm1_unit_7 <- c_6
I0228 21:17:51.450147 11660 net.cpp:406] lstm1_unit_7 <- gate_input_7
I0228 21:17:51.450151 11660 net.cpp:406] lstm1_unit_7 <- cont_7_lstm1_cont_slice_6_split_1
I0228 21:17:51.450156 11660 net.cpp:380] lstm1_unit_7 -> c_7
I0228 21:17:51.450162 11660 net.cpp:380] lstm1_unit_7 -> h_7
I0228 21:17:51.450189 11660 net.cpp:122] Setting up lstm1_unit_7
I0228 21:17:51.450196 11660 net.cpp:129] Top shape: 1 13 16 (208)
I0228 21:17:51.450199 11660 net.cpp:129] Top shape: 1 13 16 (208)
I0228 21:17:51.450202 11660 net.cpp:137] Memory required for data: 186368
I0228 21:17:51.450206 11660 layer_factory.hpp:77] Creating layer h_7_lstm1_unit_7_1_split
I0228 21:17:51.450211 11660 net.cpp:84] Creating Layer h_7_lstm1_unit_7_1_split
I0228 21:17:51.450214 11660 net.cpp:406] h_7_lstm1_unit_7_1_split <- h_7
I0228 21:17:51.450218 11660 net.cpp:380] h_7_lstm1_unit_7_1_split -> h_7_lstm1_unit_7_1_split_0
I0228 21:17:51.450223 11660 net.cpp:380] h_7_lstm1_unit_7_1_split -> h_7_lstm1_unit_7_1_split_1
I0228 21:17:51.450242 11660 net.cpp:122] Setting up h_7_lstm1_unit_7_1_split
I0228 21:17:51.450248 11660 net.cpp:129] Top shape: 1 13 16 (208)
I0228 21:17:51.450251 11660 net.cpp:129] Top shape: 1 13 16 (208)
I0228 21:17:51.450254 11660 net.cpp:137] Memory required for data: 188032
I0228 21:17:51.450258 11660 layer_factory.hpp:77] Creating layer lstm1_h_conted_7
I0228 21:17:51.450261 11660 net.cpp:84] Creating Layer lstm1_h_conted_7
I0228 21:17:51.450265 11660 net.cpp:406] lstm1_h_conted_7 <- h_7_lstm1_unit_7_1_split_0
I0228 21:17:51.450269 11660 net.cpp:406] lstm1_h_conted_7 <- cont_8_lstm1_cont_slice_7_split_0
I0228 21:17:51.450273 11660 net.cpp:380] lstm1_h_conted_7 -> h_conted_7
I0228 21:17:51.450320 11660 net.cpp:122] Setting up lstm1_h_conted_7
I0228 21:17:51.450325 11660 net.cpp:129] Top shape: 1 13 16 (208)
I0228 21:17:51.450328 11660 net.cpp:137] Memory required for data: 188864
I0228 21:17:51.450330 11660 layer_factory.hpp:77] Creating layer lstm1_transform_8
I0228 21:17:51.450335 11660 net.cpp:84] Creating Layer lstm1_transform_8
I0228 21:17:51.450337 11660 net.cpp:406] lstm1_transform_8 <- h_conted_7
I0228 21:17:51.450342 11660 net.cpp:380] lstm1_transform_8 -> W_hc_h_7
I0228 21:17:51.450397 11660 net.cpp:122] Setting up lstm1_transform_8
I0228 21:17:51.450403 11660 net.cpp:129] Top shape: 1 13 64 (832)
I0228 21:17:51.450407 11660 net.cpp:137] Memory required for data: 192192
I0228 21:17:51.450410 11660 net.cpp:465] Sharing parameters 'W_hc' owned by layer 'lstm1_transform_1', param index 0
I0228 21:17:51.450415 11660 layer_factory.hpp:77] Creating layer lstm1_gate_input_8
I0228 21:17:51.450433 11660 net.cpp:84] Creating Layer lstm1_gate_input_8
I0228 21:17:51.450440 11660 net.cpp:406] lstm1_gate_input_8 <- W_hc_h_7
I0228 21:17:51.450446 11660 net.cpp:406] lstm1_gate_input_8 <- W_xc_x_8
I0228 21:17:51.450453 11660 net.cpp:380] lstm1_gate_input_8 -> gate_input_8
I0228 21:17:51.450470 11660 net.cpp:122] Setting up lstm1_gate_input_8
I0228 21:17:51.450489 11660 net.cpp:129] Top shape: 1 13 64 (832)
I0228 21:17:51.450492 11660 net.cpp:137] Memory required for data: 195520
I0228 21:17:51.450495 11660 layer_factory.hpp:77] Creating layer lstm1_unit_8
I0228 21:17:51.450515 11660 net.cpp:84] Creating Layer lstm1_unit_8
I0228 21:17:51.450520 11660 net.cpp:406] lstm1_unit_8 <- c_7
I0228 21:17:51.450523 11660 net.cpp:406] lstm1_unit_8 <- gate_input_8
I0228 21:17:51.450527 11660 net.cpp:406] lstm1_unit_8 <- cont_8_lstm1_cont_slice_7_split_1
I0228 21:17:51.450531 11660 net.cpp:380] lstm1_unit_8 -> c_8
I0228 21:17:51.450537 11660 net.cpp:380] lstm1_unit_8 -> h_8
I0228 21:17:51.450574 11660 net.cpp:122] Setting up lstm1_unit_8
I0228 21:17:51.450580 11660 net.cpp:129] Top shape: 1 13 16 (208)
I0228 21:17:51.450583 11660 net.cpp:129] Top shape: 1 13 16 (208)
I0228 21:17:51.450587 11660 net.cpp:137] Memory required for data: 197184
I0228 21:17:51.450589 11660 layer_factory.hpp:77] Creating layer h_8_lstm1_unit_8_1_split
I0228 21:17:51.450593 11660 net.cpp:84] Creating Layer h_8_lstm1_unit_8_1_split
I0228 21:17:51.450597 11660 net.cpp:406] h_8_lstm1_unit_8_1_split <- h_8
I0228 21:17:51.450601 11660 net.cpp:380] h_8_lstm1_unit_8_1_split -> h_8_lstm1_unit_8_1_split_0
I0228 21:17:51.450606 11660 net.cpp:380] h_8_lstm1_unit_8_1_split -> h_8_lstm1_unit_8_1_split_1
I0228 21:17:51.450624 11660 net.cpp:122] Setting up h_8_lstm1_unit_8_1_split
I0228 21:17:51.450629 11660 net.cpp:129] Top shape: 1 13 16 (208)
I0228 21:17:51.450633 11660 net.cpp:129] Top shape: 1 13 16 (208)
I0228 21:17:51.450635 11660 net.cpp:137] Memory required for data: 198848
I0228 21:17:51.450639 11660 layer_factory.hpp:77] Creating layer lstm1_h_conted_8
I0228 21:17:51.450642 11660 net.cpp:84] Creating Layer lstm1_h_conted_8
I0228 21:17:51.450646 11660 net.cpp:406] lstm1_h_conted_8 <- h_8_lstm1_unit_8_1_split_0
I0228 21:17:51.450649 11660 net.cpp:406] lstm1_h_conted_8 <- cont_9_lstm1_cont_slice_8_split_0
I0228 21:17:51.450654 11660 net.cpp:380] lstm1_h_conted_8 -> h_conted_8
I0228 21:17:51.450688 11660 net.cpp:122] Setting up lstm1_h_conted_8
I0228 21:17:51.450695 11660 net.cpp:129] Top shape: 1 13 16 (208)
I0228 21:17:51.450697 11660 net.cpp:137] Memory required for data: 199680
I0228 21:17:51.450700 11660 layer_factory.hpp:77] Creating layer lstm1_transform_9
I0228 21:17:51.450704 11660 net.cpp:84] Creating Layer lstm1_transform_9
I0228 21:17:51.450708 11660 net.cpp:406] lstm1_transform_9 <- h_conted_8
I0228 21:17:51.450712 11660 net.cpp:380] lstm1_transform_9 -> W_hc_h_8
I0228 21:17:51.450757 11660 net.cpp:122] Setting up lstm1_transform_9
I0228 21:17:51.450763 11660 net.cpp:129] Top shape: 1 13 64 (832)
I0228 21:17:51.450779 11660 net.cpp:137] Memory required for data: 203008
I0228 21:17:51.450783 11660 net.cpp:465] Sharing parameters 'W_hc' owned by layer 'lstm1_transform_1', param index 0
I0228 21:17:51.450788 11660 layer_factory.hpp:77] Creating layer lstm1_gate_input_9
I0228 21:17:51.450794 11660 net.cpp:84] Creating Layer lstm1_gate_input_9
I0228 21:17:51.450799 11660 net.cpp:406] lstm1_gate_input_9 <- W_hc_h_8
I0228 21:17:51.450803 11660 net.cpp:406] lstm1_gate_input_9 <- W_xc_x_9
I0228 21:17:51.450808 11660 net.cpp:380] lstm1_gate_input_9 -> gate_input_9
I0228 21:17:51.450821 11660 net.cpp:122] Setting up lstm1_gate_input_9
I0228 21:17:51.450826 11660 net.cpp:129] Top shape: 1 13 64 (832)
I0228 21:17:51.450829 11660 net.cpp:137] Memory required for data: 206336
I0228 21:17:51.450832 11660 layer_factory.hpp:77] Creating layer lstm1_unit_9
I0228 21:17:51.450845 11660 net.cpp:84] Creating Layer lstm1_unit_9
I0228 21:17:51.450850 11660 net.cpp:406] lstm1_unit_9 <- c_8
I0228 21:17:51.450853 11660 net.cpp:406] lstm1_unit_9 <- gate_input_9
I0228 21:17:51.450862 11660 net.cpp:406] lstm1_unit_9 <- cont_9_lstm1_cont_slice_8_split_1
I0228 21:17:51.450867 11660 net.cpp:380] lstm1_unit_9 -> c_9
I0228 21:17:51.450879 11660 net.cpp:380] lstm1_unit_9 -> h_9
I0228 21:17:51.450904 11660 net.cpp:122] Setting up lstm1_unit_9
I0228 21:17:51.450911 11660 net.cpp:129] Top shape: 1 13 16 (208)
I0228 21:17:51.450914 11660 net.cpp:129] Top shape: 1 13 16 (208)
I0228 21:17:51.450917 11660 net.cpp:137] Memory required for data: 208000
I0228 21:17:51.450922 11660 layer_factory.hpp:77] Creating layer h_9_lstm1_unit_9_1_split
I0228 21:17:51.450927 11660 net.cpp:84] Creating Layer h_9_lstm1_unit_9_1_split
I0228 21:17:51.450929 11660 net.cpp:406] h_9_lstm1_unit_9_1_split <- h_9
I0228 21:17:51.477214 11660 net.cpp:380] h_9_lstm1_unit_9_1_split -> h_9_lstm1_unit_9_1_split_0
I0228 21:17:51.477232 11660 net.cpp:380] h_9_lstm1_unit_9_1_split -> h_9_lstm1_unit_9_1_split_1
I0228 21:17:51.477324 11660 net.cpp:122] Setting up h_9_lstm1_unit_9_1_split
I0228 21:17:51.477341 11660 net.cpp:129] Top shape: 1 13 16 (208)
I0228 21:17:51.477349 11660 net.cpp:129] Top shape: 1 13 16 (208)
I0228 21:17:51.477367 11660 net.cpp:137] Memory required for data: 209664
I0228 21:17:51.477373 11660 layer_factory.hpp:77] Creating layer lstm1_h_conted_9
I0228 21:17:51.477383 11660 net.cpp:84] Creating Layer lstm1_h_conted_9
I0228 21:17:51.477391 11660 net.cpp:406] lstm1_h_conted_9 <- h_9_lstm1_unit_9_1_split_0
I0228 21:17:51.477399 11660 net.cpp:406] lstm1_h_conted_9 <- cont_10_lstm1_cont_slice_9_split_0
I0228 21:17:51.477407 11660 net.cpp:380] lstm1_h_conted_9 -> h_conted_9
I0228 21:17:51.477452 11660 net.cpp:122] Setting up lstm1_h_conted_9
I0228 21:17:51.477459 11660 net.cpp:129] Top shape: 1 13 16 (208)
I0228 21:17:51.477463 11660 net.cpp:137] Memory required for data: 210496
I0228 21:17:51.477465 11660 layer_factory.hpp:77] Creating layer lstm1_transform_10
I0228 21:17:51.477473 11660 net.cpp:84] Creating Layer lstm1_transform_10
I0228 21:17:51.477475 11660 net.cpp:406] lstm1_transform_10 <- h_conted_9
I0228 21:17:51.477481 11660 net.cpp:380] lstm1_transform_10 -> W_hc_h_9
I0228 21:17:51.477524 11660 net.cpp:122] Setting up lstm1_transform_10
I0228 21:17:51.477529 11660 net.cpp:129] Top shape: 1 13 64 (832)
I0228 21:17:51.477532 11660 net.cpp:137] Memory required for data: 213824
I0228 21:17:51.477536 11660 net.cpp:465] Sharing parameters 'W_hc' owned by layer 'lstm1_transform_1', param index 0
I0228 21:17:51.477540 11660 layer_factory.hpp:77] Creating layer lstm1_gate_input_10
I0228 21:17:51.477547 11660 net.cpp:84] Creating Layer lstm1_gate_input_10
I0228 21:17:51.477551 11660 net.cpp:406] lstm1_gate_input_10 <- W_hc_h_9
I0228 21:17:51.477555 11660 net.cpp:406] lstm1_gate_input_10 <- W_xc_x_10
I0228 21:17:51.477560 11660 net.cpp:380] lstm1_gate_input_10 -> gate_input_10
I0228 21:17:51.477577 11660 net.cpp:122] Setting up lstm1_gate_input_10
I0228 21:17:51.477583 11660 net.cpp:129] Top shape: 1 13 64 (832)
I0228 21:17:51.477586 11660 net.cpp:137] Memory required for data: 217152
I0228 21:17:51.477589 11660 layer_factory.hpp:77] Creating layer lstm1_unit_10
I0228 21:17:51.477594 11660 net.cpp:84] Creating Layer lstm1_unit_10
I0228 21:17:51.477599 11660 net.cpp:406] lstm1_unit_10 <- c_9
I0228 21:17:51.477603 11660 net.cpp:406] lstm1_unit_10 <- gate_input_10
I0228 21:17:51.477607 11660 net.cpp:406] lstm1_unit_10 <- cont_10_lstm1_cont_slice_9_split_1
I0228 21:17:51.477612 11660 net.cpp:380] lstm1_unit_10 -> c_10
I0228 21:17:51.477617 11660 net.cpp:380] lstm1_unit_10 -> h_10
I0228 21:17:51.477641 11660 net.cpp:122] Setting up lstm1_unit_10
I0228 21:17:51.477646 11660 net.cpp:129] Top shape: 1 13 16 (208)
I0228 21:17:51.477650 11660 net.cpp:129] Top shape: 1 13 16 (208)
I0228 21:17:51.477653 11660 net.cpp:137] Memory required for data: 218816
I0228 21:17:51.477656 11660 layer_factory.hpp:77] Creating layer h_10_lstm1_unit_10_1_split
I0228 21:17:51.477660 11660 net.cpp:84] Creating Layer h_10_lstm1_unit_10_1_split
I0228 21:17:51.477664 11660 net.cpp:406] h_10_lstm1_unit_10_1_split <- h_10
I0228 21:17:51.477669 11660 net.cpp:380] h_10_lstm1_unit_10_1_split -> h_10_lstm1_unit_10_1_split_0
I0228 21:17:51.477684 11660 net.cpp:380] h_10_lstm1_unit_10_1_split -> h_10_lstm1_unit_10_1_split_1
I0228 21:17:51.477704 11660 net.cpp:122] Setting up h_10_lstm1_unit_10_1_split
I0228 21:17:51.477708 11660 net.cpp:129] Top shape: 1 13 16 (208)
I0228 21:17:51.477712 11660 net.cpp:129] Top shape: 1 13 16 (208)
I0228 21:17:51.477715 11660 net.cpp:137] Memory required for data: 220480
I0228 21:17:51.477718 11660 layer_factory.hpp:77] Creating layer lstm1_h_conted_10
I0228 21:17:51.477723 11660 net.cpp:84] Creating Layer lstm1_h_conted_10
I0228 21:17:51.477727 11660 net.cpp:406] lstm1_h_conted_10 <- h_10_lstm1_unit_10_1_split_0
I0228 21:17:51.477731 11660 net.cpp:406] lstm1_h_conted_10 <- cont_11_lstm1_cont_slice_10_split_0
I0228 21:17:51.477735 11660 net.cpp:380] lstm1_h_conted_10 -> h_conted_10
I0228 21:17:51.477768 11660 net.cpp:122] Setting up lstm1_h_conted_10
I0228 21:17:51.477773 11660 net.cpp:129] Top shape: 1 13 16 (208)
I0228 21:17:51.477777 11660 net.cpp:137] Memory required for data: 221312
I0228 21:17:51.477779 11660 layer_factory.hpp:77] Creating layer lstm1_transform_11
I0228 21:17:51.477784 11660 net.cpp:84] Creating Layer lstm1_transform_11
I0228 21:17:51.477787 11660 net.cpp:406] lstm1_transform_11 <- h_conted_10
I0228 21:17:51.477792 11660 net.cpp:380] lstm1_transform_11 -> W_hc_h_10
I0228 21:17:51.477824 11660 net.cpp:122] Setting up lstm1_transform_11
I0228 21:17:51.477830 11660 net.cpp:129] Top shape: 1 13 64 (832)
I0228 21:17:51.477833 11660 net.cpp:137] Memory required for data: 224640
I0228 21:17:51.477836 11660 net.cpp:465] Sharing parameters 'W_hc' owned by layer 'lstm1_transform_1', param index 0
I0228 21:17:51.477840 11660 layer_factory.hpp:77] Creating layer lstm1_gate_input_11
I0228 21:17:51.477844 11660 net.cpp:84] Creating Layer lstm1_gate_input_11
I0228 21:17:51.477849 11660 net.cpp:406] lstm1_gate_input_11 <- W_hc_h_10
I0228 21:17:51.477852 11660 net.cpp:406] lstm1_gate_input_11 <- W_xc_x_11
I0228 21:17:51.477857 11660 net.cpp:380] lstm1_gate_input_11 -> gate_input_11
I0228 21:17:51.477871 11660 net.cpp:122] Setting up lstm1_gate_input_11
I0228 21:17:51.477876 11660 net.cpp:129] Top shape: 1 13 64 (832)
I0228 21:17:51.477880 11660 net.cpp:137] Memory required for data: 227968
I0228 21:17:51.477882 11660 layer_factory.hpp:77] Creating layer lstm1_unit_11
I0228 21:17:51.477886 11660 net.cpp:84] Creating Layer lstm1_unit_11
I0228 21:17:51.477890 11660 net.cpp:406] lstm1_unit_11 <- c_10
I0228 21:17:51.477893 11660 net.cpp:406] lstm1_unit_11 <- gate_input_11
I0228 21:17:51.477897 11660 net.cpp:406] lstm1_unit_11 <- cont_11_lstm1_cont_slice_10_split_1
I0228 21:17:51.477901 11660 net.cpp:380] lstm1_unit_11 -> c_11
I0228 21:17:51.477907 11660 net.cpp:380] lstm1_unit_11 -> h_11
I0228 21:17:51.477931 11660 net.cpp:122] Setting up lstm1_unit_11
I0228 21:17:51.477937 11660 net.cpp:129] Top shape: 1 13 16 (208)
I0228 21:17:51.477941 11660 net.cpp:129] Top shape: 1 13 16 (208)
I0228 21:17:51.477943 11660 net.cpp:137] Memory required for data: 229632
I0228 21:17:51.477946 11660 layer_factory.hpp:77] Creating layer h_11_lstm1_unit_11_1_split
I0228 21:17:51.477951 11660 net.cpp:84] Creating Layer h_11_lstm1_unit_11_1_split
I0228 21:17:51.477954 11660 net.cpp:406] h_11_lstm1_unit_11_1_split <- h_11
I0228 21:17:51.477958 11660 net.cpp:380] h_11_lstm1_unit_11_1_split -> h_11_lstm1_unit_11_1_split_0
I0228 21:17:51.477962 11660 net.cpp:380] h_11_lstm1_unit_11_1_split -> h_11_lstm1_unit_11_1_split_1
I0228 21:17:51.477982 11660 net.cpp:122] Setting up h_11_lstm1_unit_11_1_split
I0228 21:17:51.477986 11660 net.cpp:129] Top shape: 1 13 16 (208)
I0228 21:17:51.477990 11660 net.cpp:129] Top shape: 1 13 16 (208)
I0228 21:17:51.477993 11660 net.cpp:137] Memory required for data: 231296
I0228 21:17:51.477996 11660 layer_factory.hpp:77] Creating layer lstm1_h_conted_11
I0228 21:17:51.478000 11660 net.cpp:84] Creating Layer lstm1_h_conted_11
I0228 21:17:51.478003 11660 net.cpp:406] lstm1_h_conted_11 <- h_11_lstm1_unit_11_1_split_0
I0228 21:17:51.478013 11660 net.cpp:406] lstm1_h_conted_11 <- cont_12_lstm1_cont_slice_11_split_0
I0228 21:17:51.478019 11660 net.cpp:380] lstm1_h_conted_11 -> h_conted_11
I0228 21:17:51.478051 11660 net.cpp:122] Setting up lstm1_h_conted_11
I0228 21:17:51.478056 11660 net.cpp:129] Top shape: 1 13 16 (208)
I0228 21:17:51.478060 11660 net.cpp:137] Memory required for data: 232128
I0228 21:17:51.478062 11660 layer_factory.hpp:77] Creating layer lstm1_transform_12
I0228 21:17:51.480175 11660 net.cpp:84] Creating Layer lstm1_transform_12
I0228 21:17:51.480185 11660 net.cpp:406] lstm1_transform_12 <- h_conted_11
I0228 21:17:51.480191 11660 net.cpp:380] lstm1_transform_12 -> W_hc_h_11
I0228 21:17:51.480254 11660 net.cpp:122] Setting up lstm1_transform_12
I0228 21:17:51.480267 11660 net.cpp:129] Top shape: 1 13 64 (832)
I0228 21:17:51.480271 11660 net.cpp:137] Memory required for data: 235456
I0228 21:17:51.480276 11660 net.cpp:465] Sharing parameters 'W_hc' owned by layer 'lstm1_transform_1', param index 0
I0228 21:17:51.480283 11660 layer_factory.hpp:77] Creating layer lstm1_gate_input_12
I0228 21:17:51.480288 11660 net.cpp:84] Creating Layer lstm1_gate_input_12
I0228 21:17:51.480293 11660 net.cpp:406] lstm1_gate_input_12 <- W_hc_h_11
I0228 21:17:51.480298 11660 net.cpp:406] lstm1_gate_input_12 <- W_xc_x_12
I0228 21:17:51.480305 11660 net.cpp:380] lstm1_gate_input_12 -> gate_input_12
I0228 21:17:51.480339 11660 net.cpp:122] Setting up lstm1_gate_input_12
I0228 21:17:51.480345 11660 net.cpp:129] Top shape: 1 13 64 (832)
I0228 21:17:51.480347 11660 net.cpp:137] Memory required for data: 238784
I0228 21:17:51.480350 11660 layer_factory.hpp:77] Creating layer lstm1_unit_12
I0228 21:17:51.480355 11660 net.cpp:84] Creating Layer lstm1_unit_12
I0228 21:17:51.480358 11660 net.cpp:406] lstm1_unit_12 <- c_11
I0228 21:17:51.480362 11660 net.cpp:406] lstm1_unit_12 <- gate_input_12
I0228 21:17:51.480366 11660 net.cpp:406] lstm1_unit_12 <- cont_12_lstm1_cont_slice_11_split_1
I0228 21:17:51.480370 11660 net.cpp:380] lstm1_unit_12 -> c_12
I0228 21:17:51.480376 11660 net.cpp:380] lstm1_unit_12 -> h_12
I0228 21:17:51.480401 11660 net.cpp:122] Setting up lstm1_unit_12
I0228 21:17:51.480406 11660 net.cpp:129] Top shape: 1 13 16 (208)
I0228 21:17:51.480410 11660 net.cpp:129] Top shape: 1 13 16 (208)
I0228 21:17:51.480413 11660 net.cpp:137] Memory required for data: 240448
I0228 21:17:51.480417 11660 layer_factory.hpp:77] Creating layer h_12_lstm1_unit_12_1_split
I0228 21:17:51.480420 11660 net.cpp:84] Creating Layer h_12_lstm1_unit_12_1_split
I0228 21:17:51.480423 11660 net.cpp:406] h_12_lstm1_unit_12_1_split <- h_12
I0228 21:17:51.480427 11660 net.cpp:380] h_12_lstm1_unit_12_1_split -> h_12_lstm1_unit_12_1_split_0
I0228 21:17:51.480432 11660 net.cpp:380] h_12_lstm1_unit_12_1_split -> h_12_lstm1_unit_12_1_split_1
I0228 21:17:51.480451 11660 net.cpp:122] Setting up h_12_lstm1_unit_12_1_split
I0228 21:17:51.480456 11660 net.cpp:129] Top shape: 1 13 16 (208)
I0228 21:17:51.480460 11660 net.cpp:129] Top shape: 1 13 16 (208)
I0228 21:17:51.480463 11660 net.cpp:137] Memory required for data: 242112
I0228 21:17:51.480466 11660 layer_factory.hpp:77] Creating layer lstm1_h_conted_12
I0228 21:17:51.480470 11660 net.cpp:84] Creating Layer lstm1_h_conted_12
I0228 21:17:51.480474 11660 net.cpp:406] lstm1_h_conted_12 <- h_12_lstm1_unit_12_1_split_0
I0228 21:17:51.480479 11660 net.cpp:406] lstm1_h_conted_12 <- cont_13_lstm1_cont_slice_12_split_0
I0228 21:17:51.480482 11660 net.cpp:380] lstm1_h_conted_12 -> h_conted_12
I0228 21:17:51.480515 11660 net.cpp:122] Setting up lstm1_h_conted_12
I0228 21:17:51.480520 11660 net.cpp:129] Top shape: 1 13 16 (208)
I0228 21:17:51.480522 11660 net.cpp:137] Memory required for data: 242944
I0228 21:17:51.480525 11660 layer_factory.hpp:77] Creating layer lstm1_transform_13
I0228 21:17:51.480530 11660 net.cpp:84] Creating Layer lstm1_transform_13
I0228 21:17:51.480533 11660 net.cpp:406] lstm1_transform_13 <- h_conted_12
I0228 21:17:51.480543 11660 net.cpp:380] lstm1_transform_13 -> W_hc_h_12
I0228 21:17:51.480576 11660 net.cpp:122] Setting up lstm1_transform_13
I0228 21:17:51.480588 11660 net.cpp:129] Top shape: 1 13 64 (832)
I0228 21:17:51.480592 11660 net.cpp:137] Memory required for data: 246272
I0228 21:17:51.480595 11660 net.cpp:465] Sharing parameters 'W_hc' owned by layer 'lstm1_transform_1', param index 0
I0228 21:17:51.480598 11660 layer_factory.hpp:77] Creating layer lstm1_gate_input_13
I0228 21:17:51.480603 11660 net.cpp:84] Creating Layer lstm1_gate_input_13
I0228 21:17:51.480607 11660 net.cpp:406] lstm1_gate_input_13 <- W_hc_h_12
I0228 21:17:51.480610 11660 net.cpp:406] lstm1_gate_input_13 <- W_xc_x_13
I0228 21:17:51.480614 11660 net.cpp:380] lstm1_gate_input_13 -> gate_input_13
I0228 21:17:51.480629 11660 net.cpp:122] Setting up lstm1_gate_input_13
I0228 21:17:51.480634 11660 net.cpp:129] Top shape: 1 13 64 (832)
I0228 21:17:51.480638 11660 net.cpp:137] Memory required for data: 249600
I0228 21:17:51.480640 11660 layer_factory.hpp:77] Creating layer lstm1_unit_13
I0228 21:17:51.480644 11660 net.cpp:84] Creating Layer lstm1_unit_13
I0228 21:17:51.480648 11660 net.cpp:406] lstm1_unit_13 <- c_12
I0228 21:17:51.480651 11660 net.cpp:406] lstm1_unit_13 <- gate_input_13
I0228 21:17:51.480655 11660 net.cpp:406] lstm1_unit_13 <- cont_13_lstm1_cont_slice_12_split_1
I0228 21:17:51.480674 11660 net.cpp:380] lstm1_unit_13 -> c_13
I0228 21:17:51.480679 11660 net.cpp:380] lstm1_unit_13 -> h_13
I0228 21:17:51.480703 11660 net.cpp:122] Setting up lstm1_unit_13
I0228 21:17:51.480708 11660 net.cpp:129] Top shape: 1 13 16 (208)
I0228 21:17:51.480712 11660 net.cpp:129] Top shape: 1 13 16 (208)
I0228 21:17:51.480715 11660 net.cpp:137] Memory required for data: 251264
I0228 21:17:51.480718 11660 layer_factory.hpp:77] Creating layer h_13_lstm1_unit_13_1_split
I0228 21:17:51.480723 11660 net.cpp:84] Creating Layer h_13_lstm1_unit_13_1_split
I0228 21:17:51.480726 11660 net.cpp:406] h_13_lstm1_unit_13_1_split <- h_13
I0228 21:17:51.480731 11660 net.cpp:380] h_13_lstm1_unit_13_1_split -> h_13_lstm1_unit_13_1_split_0
I0228 21:17:51.480736 11660 net.cpp:380] h_13_lstm1_unit_13_1_split -> h_13_lstm1_unit_13_1_split_1
I0228 21:17:51.480754 11660 net.cpp:122] Setting up h_13_lstm1_unit_13_1_split
I0228 21:17:51.480759 11660 net.cpp:129] Top shape: 1 13 16 (208)
I0228 21:17:51.480762 11660 net.cpp:129] Top shape: 1 13 16 (208)
I0228 21:17:51.480765 11660 net.cpp:137] Memory required for data: 252928
I0228 21:17:51.480768 11660 layer_factory.hpp:77] Creating layer lstm1_h_conted_13
I0228 21:17:51.480773 11660 net.cpp:84] Creating Layer lstm1_h_conted_13
I0228 21:17:51.480777 11660 net.cpp:406] lstm1_h_conted_13 <- h_13_lstm1_unit_13_1_split_0
I0228 21:17:51.480782 11660 net.cpp:406] lstm1_h_conted_13 <- cont_14_lstm1_cont_slice_13_split_0
I0228 21:17:51.480785 11660 net.cpp:380] lstm1_h_conted_13 -> h_conted_13
I0228 21:17:51.480816 11660 net.cpp:122] Setting up lstm1_h_conted_13
I0228 21:17:51.480823 11660 net.cpp:129] Top shape: 1 13 16 (208)
I0228 21:17:51.480825 11660 net.cpp:137] Memory required for data: 253760
I0228 21:17:51.480829 11660 layer_factory.hpp:77] Creating layer lstm1_transform_14
I0228 21:17:51.480832 11660 net.cpp:84] Creating Layer lstm1_transform_14
I0228 21:17:51.480836 11660 net.cpp:406] lstm1_transform_14 <- h_conted_13
I0228 21:17:51.480840 11660 net.cpp:380] lstm1_transform_14 -> W_hc_h_13
I0228 21:17:51.480886 11660 net.cpp:122] Setting up lstm1_transform_14
I0228 21:17:51.480891 11660 net.cpp:129] Top shape: 1 13 64 (832)
I0228 21:17:51.480895 11660 net.cpp:137] Memory required for data: 257088
I0228 21:17:51.480897 11660 net.cpp:465] Sharing parameters 'W_hc' owned by layer 'lstm1_transform_1', param index 0
I0228 21:17:51.480901 11660 layer_factory.hpp:77] Creating layer lstm1_gate_input_14
I0228 21:17:51.480906 11660 net.cpp:84] Creating Layer lstm1_gate_input_14
I0228 21:17:51.480909 11660 net.cpp:406] lstm1_gate_input_14 <- W_hc_h_13
I0228 21:17:51.480912 11660 net.cpp:406] lstm1_gate_input_14 <- W_xc_x_14
I0228 21:17:51.480916 11660 net.cpp:380] lstm1_gate_input_14 -> gate_input_14
I0228 21:17:51.480929 11660 net.cpp:122] Setting up lstm1_gate_input_14
I0228 21:17:51.480939 11660 net.cpp:129] Top shape: 1 13 64 (832)
I0228 21:17:51.480942 11660 net.cpp:137] Memory required for data: 260416
I0228 21:17:51.480945 11660 layer_factory.hpp:77] Creating layer lstm1_unit_14
I0228 21:17:51.507403 11660 net.cpp:84] Creating Layer lstm1_unit_14
I0228 21:17:51.507452 11660 net.cpp:406] lstm1_unit_14 <- c_13
I0228 21:17:51.507463 11660 net.cpp:406] lstm1_unit_14 <- gate_input_14
I0228 21:17:51.507472 11660 net.cpp:406] lstm1_unit_14 <- cont_14_lstm1_cont_slice_13_split_1
I0228 21:17:51.507479 11660 net.cpp:380] lstm1_unit_14 -> c_14
I0228 21:17:51.507491 11660 net.cpp:380] lstm1_unit_14 -> h_14
I0228 21:17:51.507580 11660 net.cpp:122] Setting up lstm1_unit_14
I0228 21:17:51.507591 11660 net.cpp:129] Top shape: 1 13 16 (208)
I0228 21:17:51.507608 11660 net.cpp:129] Top shape: 1 13 16 (208)
I0228 21:17:51.507611 11660 net.cpp:137] Memory required for data: 262080
I0228 21:17:51.507613 11660 layer_factory.hpp:77] Creating layer h_14_lstm1_unit_14_1_split
I0228 21:17:51.507618 11660 net.cpp:84] Creating Layer h_14_lstm1_unit_14_1_split
I0228 21:17:51.507622 11660 net.cpp:406] h_14_lstm1_unit_14_1_split <- h_14
I0228 21:17:51.507627 11660 net.cpp:380] h_14_lstm1_unit_14_1_split -> h_14_lstm1_unit_14_1_split_0
I0228 21:17:51.507632 11660 net.cpp:380] h_14_lstm1_unit_14_1_split -> h_14_lstm1_unit_14_1_split_1
I0228 21:17:51.507652 11660 net.cpp:122] Setting up h_14_lstm1_unit_14_1_split
I0228 21:17:51.507656 11660 net.cpp:129] Top shape: 1 13 16 (208)
I0228 21:17:51.507660 11660 net.cpp:129] Top shape: 1 13 16 (208)
I0228 21:17:51.507663 11660 net.cpp:137] Memory required for data: 263744
I0228 21:17:51.507666 11660 layer_factory.hpp:77] Creating layer lstm1_h_conted_14
I0228 21:17:51.507673 11660 net.cpp:84] Creating Layer lstm1_h_conted_14
I0228 21:17:51.507676 11660 net.cpp:406] lstm1_h_conted_14 <- h_14_lstm1_unit_14_1_split_0
I0228 21:17:51.507680 11660 net.cpp:406] lstm1_h_conted_14 <- cont_15_lstm1_cont_slice_14_split_0
I0228 21:17:51.507686 11660 net.cpp:380] lstm1_h_conted_14 -> h_conted_14
I0228 21:17:51.507726 11660 net.cpp:122] Setting up lstm1_h_conted_14
I0228 21:17:51.507731 11660 net.cpp:129] Top shape: 1 13 16 (208)
I0228 21:17:51.507735 11660 net.cpp:137] Memory required for data: 264576
I0228 21:17:51.507737 11660 layer_factory.hpp:77] Creating layer lstm1_transform_15
I0228 21:17:51.507743 11660 net.cpp:84] Creating Layer lstm1_transform_15
I0228 21:17:51.507746 11660 net.cpp:406] lstm1_transform_15 <- h_conted_14
I0228 21:17:51.507751 11660 net.cpp:380] lstm1_transform_15 -> W_hc_h_14
I0228 21:17:51.507792 11660 net.cpp:122] Setting up lstm1_transform_15
I0228 21:17:51.507797 11660 net.cpp:129] Top shape: 1 13 64 (832)
I0228 21:17:51.507800 11660 net.cpp:137] Memory required for data: 267904
I0228 21:17:51.507810 11660 net.cpp:465] Sharing parameters 'W_hc' owned by layer 'lstm1_transform_1', param index 0
I0228 21:17:51.507814 11660 layer_factory.hpp:77] Creating layer lstm1_gate_input_15
I0228 21:17:51.507822 11660 net.cpp:84] Creating Layer lstm1_gate_input_15
I0228 21:17:51.507825 11660 net.cpp:406] lstm1_gate_input_15 <- W_hc_h_14
I0228 21:17:51.507829 11660 net.cpp:406] lstm1_gate_input_15 <- W_xc_x_15
I0228 21:17:51.507833 11660 net.cpp:380] lstm1_gate_input_15 -> gate_input_15
I0228 21:17:51.507849 11660 net.cpp:122] Setting up lstm1_gate_input_15
I0228 21:17:51.507854 11660 net.cpp:129] Top shape: 1 13 64 (832)
I0228 21:17:51.507858 11660 net.cpp:137] Memory required for data: 271232
I0228 21:17:51.507860 11660 layer_factory.hpp:77] Creating layer lstm1_unit_15
I0228 21:17:51.507864 11660 net.cpp:84] Creating Layer lstm1_unit_15
I0228 21:17:51.507867 11660 net.cpp:406] lstm1_unit_15 <- c_14
I0228 21:17:51.507872 11660 net.cpp:406] lstm1_unit_15 <- gate_input_15
I0228 21:17:51.507876 11660 net.cpp:406] lstm1_unit_15 <- cont_15_lstm1_cont_slice_14_split_1
I0228 21:17:51.507880 11660 net.cpp:380] lstm1_unit_15 -> c_15
I0228 21:17:51.507885 11660 net.cpp:380] lstm1_unit_15 -> h_15
I0228 21:17:51.507910 11660 net.cpp:122] Setting up lstm1_unit_15
I0228 21:17:51.507923 11660 net.cpp:129] Top shape: 1 13 16 (208)
I0228 21:17:51.507927 11660 net.cpp:129] Top shape: 1 13 16 (208)
I0228 21:17:51.507930 11660 net.cpp:137] Memory required for data: 272896
I0228 21:17:51.507933 11660 layer_factory.hpp:77] Creating layer h_15_lstm1_unit_15_1_split
I0228 21:17:51.507937 11660 net.cpp:84] Creating Layer h_15_lstm1_unit_15_1_split
I0228 21:17:51.507941 11660 net.cpp:406] h_15_lstm1_unit_15_1_split <- h_15
I0228 21:17:51.507944 11660 net.cpp:380] h_15_lstm1_unit_15_1_split -> h_15_lstm1_unit_15_1_split_0
I0228 21:17:51.507951 11660 net.cpp:380] h_15_lstm1_unit_15_1_split -> h_15_lstm1_unit_15_1_split_1
I0228 21:17:51.507968 11660 net.cpp:122] Setting up h_15_lstm1_unit_15_1_split
I0228 21:17:51.507973 11660 net.cpp:129] Top shape: 1 13 16 (208)
I0228 21:17:51.507977 11660 net.cpp:129] Top shape: 1 13 16 (208)
I0228 21:17:51.507980 11660 net.cpp:137] Memory required for data: 274560
I0228 21:17:51.507983 11660 layer_factory.hpp:77] Creating layer lstm1_h_conted_15
I0228 21:17:51.507988 11660 net.cpp:84] Creating Layer lstm1_h_conted_15
I0228 21:17:51.507992 11660 net.cpp:406] lstm1_h_conted_15 <- h_15_lstm1_unit_15_1_split_0
I0228 21:17:51.507995 11660 net.cpp:406] lstm1_h_conted_15 <- cont_16_lstm1_cont_slice_15_split_0
I0228 21:17:51.507999 11660 net.cpp:380] lstm1_h_conted_15 -> h_conted_15
I0228 21:17:51.508030 11660 net.cpp:122] Setting up lstm1_h_conted_15
I0228 21:17:51.508035 11660 net.cpp:129] Top shape: 1 13 16 (208)
I0228 21:17:51.508038 11660 net.cpp:137] Memory required for data: 275392
I0228 21:17:51.508041 11660 layer_factory.hpp:77] Creating layer lstm1_transform_16
I0228 21:17:51.508046 11660 net.cpp:84] Creating Layer lstm1_transform_16
I0228 21:17:51.508049 11660 net.cpp:406] lstm1_transform_16 <- h_conted_15
I0228 21:17:51.508054 11660 net.cpp:380] lstm1_transform_16 -> W_hc_h_15
I0228 21:17:51.508086 11660 net.cpp:122] Setting up lstm1_transform_16
I0228 21:17:51.508091 11660 net.cpp:129] Top shape: 1 13 64 (832)
I0228 21:17:51.508111 11660 net.cpp:137] Memory required for data: 278720
I0228 21:17:51.508116 11660 net.cpp:465] Sharing parameters 'W_hc' owned by layer 'lstm1_transform_1', param index 0
I0228 21:17:51.508121 11660 layer_factory.hpp:77] Creating layer lstm1_gate_input_16
I0228 21:17:51.508126 11660 net.cpp:84] Creating Layer lstm1_gate_input_16
I0228 21:17:51.508144 11660 net.cpp:406] lstm1_gate_input_16 <- W_hc_h_15
I0228 21:17:51.508149 11660 net.cpp:406] lstm1_gate_input_16 <- W_xc_x_16
I0228 21:17:51.508155 11660 net.cpp:380] lstm1_gate_input_16 -> gate_input_16
I0228 21:17:51.508170 11660 net.cpp:122] Setting up lstm1_gate_input_16
I0228 21:17:51.508177 11660 net.cpp:129] Top shape: 1 13 64 (832)
I0228 21:17:51.508180 11660 net.cpp:137] Memory required for data: 282048
I0228 21:17:51.508184 11660 layer_factory.hpp:77] Creating layer lstm1_unit_16
I0228 21:17:51.508188 11660 net.cpp:84] Creating Layer lstm1_unit_16
I0228 21:17:51.508193 11660 net.cpp:406] lstm1_unit_16 <- c_15
I0228 21:17:51.508198 11660 net.cpp:406] lstm1_unit_16 <- gate_input_16
I0228 21:17:51.508203 11660 net.cpp:406] lstm1_unit_16 <- cont_16_lstm1_cont_slice_15_split_1
I0228 21:17:51.508208 11660 net.cpp:380] lstm1_unit_16 -> c_16
I0228 21:17:51.508213 11660 net.cpp:380] lstm1_unit_16 -> h_16
I0228 21:17:51.508239 11660 net.cpp:122] Setting up lstm1_unit_16
I0228 21:17:51.508245 11660 net.cpp:129] Top shape: 1 13 16 (208)
I0228 21:17:51.508250 11660 net.cpp:129] Top shape: 1 13 16 (208)
I0228 21:17:51.508253 11660 net.cpp:137] Memory required for data: 283712
I0228 21:17:51.508257 11660 layer_factory.hpp:77] Creating layer lstm1_
I0228 21:17:51.508262 11660 net.cpp:84] Creating Layer lstm1_
I0228 21:17:51.508265 11660 net.cpp:406] lstm1_ <- c_16
I0228 21:17:51.508271 11660 net.cpp:380] lstm1_ -> c_T
I0228 21:17:51.508301 11660 net.cpp:122] Setting up lstm1_
I0228 21:17:51.508307 11660 net.cpp:129] Top shape: 1 13 16 (208)
I0228 21:17:51.508311 11660 net.cpp:137] Memory required for data: 284544
I0228 21:17:51.508314 11660 layer_factory.hpp:77] Creating layer lstm1_h_concat
I0228 21:17:51.510413 11660 net.cpp:84] Creating Layer lstm1_h_concat
I0228 21:17:51.510424 11660 net.cpp:406] lstm1_h_concat <- h_1_lstm1_unit_1_1_split_1
I0228 21:17:51.510432 11660 net.cpp:406] lstm1_h_concat <- h_2_lstm1_unit_2_1_split_1
…
I0228 21:17:51.537792 11660 net.cpp:200] lstm1_ does not need backward computation.
I0228 21:17:51.537796 11660 net.cpp:242] This network produces output c_T
I0228 21:17:51.537804 11660 net.cpp:242] This network produces output h_pseudoloss
I0228 21:17:51.538019 11660 net.cpp:255] Network initialization done.
I0228 21:17:51.538147 11660 recurrent_layer.cpp:150] Adding parameter 0: W_xc
I0228 21:17:51.538153 11660 recurrent_layer.cpp:150] Adding parameter 1: b_c
I0228 21:17:51.538158 11660 recurrent_layer.cpp:150] Adding parameter 2: W_hc
I0228 21:17:51.538276 11660 net.cpp:122] Setting up lstm1
I0228 21:17:51.538288 11660 net.cpp:129] Top shape: 16 13 16 (3328)
I0228 21:17:51.538292 11660 net.cpp:137] Memory required for data: 17536
I0228 21:17:51.538316 11660 layer_factory.hpp:77] Creating layer lstm2
I0228 21:17:51.538326 11660 net.cpp:84] Creating Layer lstm2
I0228 21:17:51.538331 11660 net.cpp:406] lstm2 <- lstm1
I0228 21:17:51.538336 11660 net.cpp:406] lstm2 <- clip_Input_1_split_1
I0228 21:17:51.538341 11660 net.cpp:380] lstm2 -> lstm2
I0228 21:17:51.538348 11660 recurrent_layer.cpp:20] Initializing recurrent layer: assuming input batch contains 16 timesteps of 13 independent streams.
I0228 21:17:51.538714 11660 net.cpp:51] Initializing net from parameters: 
layer {
  name: "lstm2_"
  type: "Input"
  top: "x"
  top: "cont"
  input_param {
    shape {
      dim: 16
      dim: 13
      dim: 16
    }
    shape {
      dim: 16
      dim: 13
    }
  }
}
layer {
  name: "lstm2_"
  type: "Input"
  top: "c_0"
  top: "h_0"
  input_param {
    shape {
      dim: 1
      dim: 13
      dim: 16
    }
    shape {
      dim: 1
      dim: 13
      dim: 16
    }
  }
}
layer {
  name: "lstm2_cont_slice"
  type: "Slice"
  bottom: "cont"
  top: "cont_1"
  top: "cont_2"
  top: "cont_3"
  top: "cont_4"
  top: "cont_5"
  top: "cont_6"
  top: "cont_7"
  top: "cont_8"
  top: "cont_9"
  top: "cont_10"
  top: "cont_11"
  top: "cont_12"
  top: "cont_13"
  top: "cont_14"
  top: "cont_15"
  top: "cont_16"
  slice_param {
    axis: 0
  }
}
layer {
  name: "lstm2_x_transform"
  type: "InnerProduct"
  bottom: "x"
  top: "W_xc_x"
  param {
    name: "W_xc"
  }
  param {
    name: "b_c"
  }
  propagate_down: true
  inner_product_param {
    num_output: 64
    bias_term: true
    weight_filler {
      type: "xavier"
    }
    bias_filler {
      type: "constant"
    }
    axis: 2
  }
}
layer {
  name: "lstm2_W_xc_x_slice"
  type: "Slice"
  bottom: "W_xc_x"
  top: "W_xc_x_1"
  top: "W_xc_x_2"
  top: "W_xc_x_3"
  top: "W_xc_x_4"
  top: "W_xc_x_5"
  top: "W_xc_x_6"
  top: "W_xc_x_7"
  top: "W_xc_x_8"
  top: "W_xc_x_9"
  top: "W_xc_x_10"
  top: "W_xc_x_11"
  top: "W_xc_x_12"
  top: "W_xc_x_13"
  top: "W_xc_x_14"
  top: "W_xc_x_15"
  top: "W_xc_x_16"
  slice_param {
    axis: 0
  }
}
layer {
  name: "lstm2_h_conted_0"
  type: "Scale"
  bottom: "h_0"
  bottom: "cont_1"
  top: "h_conted_0"
  scale_param {
    axis: 0
  }
}
layer {
  name: "lstm2_transform_1"
  type: "InnerProduct"
  bottom: "h_conted_0"
  top: "W_hc_h_0"
  param {
    name: "W_hc"
  }
  inner_product_param {
    num_output: 64
    bias_term: false
    weight_filler {
      type: "xavier"
    }
    axis: 2
  }
}
layer {
  name: "lstm2_gate_input_1"
  type: "Eltwise"
  bottom: "W_hc_h_0"
  bottom: "W_xc_x_1"
  top: "gate_input_1"
  eltwise_param {
    operation: SUM
  }
}
layer {
  name: "lstm2_unit_1"
  type: "LSTMUnit"
  bottom: "c_0"
  bottom: "gate_input_1"
  bottom: "cont_1"
  top: "c_1"
  top: "h_1"
}
layer {
  name: "lstm2_h_conted_1"
  type: "Scale"
  bottom: "h_1"
  bottom: "cont_2"
  top: "h_conted_1"
  scale_param {
    axis: 0
  }
}
layer {
  name: "lstm2_transform_2"
  type: "InnerProduct"
  bottom: "h_conted_1"
  top: "W_hc_h_1"
  param {
    name: "W_hc"
  }
  inner_product_param {
    num_output: 64
    bias_term: false
    weight_filler {
      type: "xavier"
    }
    axis: 2
  }
}
layer {
  name: "lstm2_gate_input_2"
  type: "Eltwise"
  bottom: "W_hc_h_1"
  bottom: "W_xc_x_2"
  top: "gate_input_2"
  eltwise_param {
    operation: SUM
  }
}
layer {
  name: "lstm2_unit_2"
  type: "LSTMUnit"
  bottom: "c_1"
  bottom: "gate_input_2"
  bottom: "cont_2"
  top: "c_2"
  top: "h_2"
}
layer {
  name: "lstm2_h_conted_2"
  type: "Scale"
  bottom: "h_2"
  bottom: "cont_3"
  top: "h_conted_2"
  scale_param {
    axis: 0
  }
}
layer {
  name: "lstm2_transform_3"
  type: "InnerProduct"
  bottom: "h_conted_2"
  top: "W_hc_h_2"
  param {
    name: "W_hc"
  }
  inner_product_param {
    num_output: 64
    bias_term: false
    weight_filler {
      type: "xavier"
    }
    axis: 2
  }
}
layer {
  name: "lstm2_gate_input_3"
  type: "Eltwise"
  bottom: "W_hc_h_2"
  bottom: "W_xc_x_3"
  top: "gate_input_3"
  eltwise_param {
    operation: SUM
  }
}
layer {
  name: "lstm2_unit_3"
  type: "LSTMUnit"
  bottom: "c_2"
  bottom: "gate_input_3"
  bottom: "cont_3"
  top: "c_3"
  top: "h_3"
}
layer {
  name: "lstm2_h_conted_3"
  type: "Scale"
  bottom: "h_3"
  bottom: "cont_4"
  top: "h_conted_3"
  scale_param {
    axis: 0
  }
}
layer {
  name: "lstm2_transform_4"
  type: "InnerProduct"
  bottom: "h_conted_3"
  top: "W_hc_h_3"
  param {
    name: "W_hc"
  }
  inner_product_param {
    num_output: 64
    bias_term: false
    weight_filler {
      type: "xavier"
    }
    axis: 2
  }
}
layer {
  name: "lstm2_gate_input_4"
  type: "Eltwise"
  bottom: "W_hc_h_3"
  bottom: "W_xc_x_4"
  top: "gate_input_4"
  eltwise_param {
    operation: SUM
  }
}
layer {
  name: "lstm2_unit_4"
  type: "LSTMUnit"
  bottom: "c_3"
  bottom: "gate_input_4"
  bottom: "cont_4"
  top: "c_4"
  top: "h_4"
}
layer {
  name: "lstm2_h_conted_4"
  type: "Scale"
  bottom: "h_4"
  bottom: "cont_5"
  top: "h_conted_4"
  scale_param {
    axis: 0
  }
}
layer {
  name: "lstm2_transform_5"
  type: "InnerProduct"
  bottom: "h_conted_4"
  top: "W_hc_h_4"
  param {
    name: "W_hc"
  }
  inner_product_param {
    num_output: 64
    bias_term: false
    weight_filler {
      type: "xavier"
    }
    axis: 2
  }
}
layer {
  name: "lstm2_gate_input_5"
  type: "Eltwise"
  bottom: "W_hc_h_4"
  bottom: "W_xc_x_5"
  top: "gate_input_5"
  eltwise_param {
    operation: SUM
  }
}
layer {
  name: "lstm2_unit_5"
  type: "LSTMUnit"
  bottom: "c_4"
  bottom: "gate_input_5"
  bottom: "cont_5"
  top: "c_5"
  top: "h_5"
}
layer {
  name: "lstm2_h_conted_5"
  type: "Scale"
  bottom: "h_5"
  bottom: "cont_6"
  top: "h_conted_5"
  scale_param {
    axis: 0
  }
}
layer {
  name: "lstm2_transform_6"
  type: "InnerProduct"
  bottom: "h_conted_5"
  top: "W_hc_h_5"
  param {
    name: "W_hc"
  }
  inner_product_param {
    num_output: 64
    bias_term: false
    weight_filler {
      type: "xavier"
    }
    axis: 2
  }
}
layer {
  name: "lstm2_gate_input_6"
  type: "Eltwise"
  bottom: "W_hc_h_5"
  bottom: "W_xc_x_6"
  top: "gate_input_6"
  eltwise_param {
    operation: SUM
  }
}
layer {
  name: "lstm2_unit_6"
  type: "LSTMUnit"
  bottom: "c_5"
  bottom: "gate_input_6"
  bottom: "cont_6"
  top: "c_6"
  top: "h_6"
}
layer {
  name: "lstm2_h_conted_6"
  type: "Scale"
  bottom: "h_6"
  bottom: "cont_7"
  top: "h_conted_6"
  scale_param {
    axis: 0
  }
}
layer {
  name: "lstm2_transform_7"
  type: "InnerProduct"
  bottom: "h_conted_6"
  top: "W_hc_h_6"
  param {
    name: "W_hc"
  }
  inner_product_param {
    num_output: 64
    bias_term: false
    weight_filler {
      type: "xavier"
    }
    axis: 2
  }
}
layer {
  name: "lstm2_gate_input_7"
  type: "Eltwise"
  bottom: "W_hc_h_6"
  bottom: "W_xc_x_7"
  top: "gate_input_7"
  eltwise_param {
    operation: SUM
  }
}
layer {
  name: "lstm2_unit_7"
  type: "LSTMUnit"
  bottom: "c_6"
  bottom: "gate_input_7"
  bottom: "cont_7"
  top: "c_7"
  top: "h_7"
}
layer {
  name: "lstm2_h_conted_7"
  type: "Scale"
  bottom: "h_7"
  bottom: "cont_8"
  top: "h_conted_7"
  scale_param {
    axis: 0
  }
}
layer {
  name: "lstm2_transform_8"
  type: "InnerProduct"
  bottom: "h_conted_7"
  top: "W_hc_h_7"
  param {
    name: "W_hc"
  }
  inner_product_param {
    num_output: 64
    bias_term: false
    weight_filler {
      type: "xavier"
    }
    axis: 2
  }
}
layer {
  name: "lstm2_gate_input_8"
  type: "Eltwise"
  bottom: "W_hc_h_7"
  bottom: "W_xc_x_8"
  top: "gate_input_8"
  eltwise_param {
    operation: SUM
  }
}
layer {
  name: "lstm2_unit_8"
  type: "LSTMUnit"
  bottom: "c_7"
  bottom: "gate_input_8"
  bottom: "cont_8"
  top: "c_8"
  top: "h_8"
}
layer {
  name: "lstm2_h_conted_8"
  type: "Scale"
  bottom: "h_8"
  bottom: "cont_9"
  top: "h_conted_8"
  scale_param {
    axis: 0
  }
}
layer {
  name: "lstm2_transform_9"
  type: "InnerProduct"
  bottom: "h_conted_8"
  top: "W_hc_h_8"
  param {
    name: "W_hc"
  }
  inner_product_param {
    num_output: 64
    bias_term: false
    weight_filler {
      type: "xavier"
    }
    axis: 2
  }
}
layer {
  name: "lstm2_gate_input_9"
  type: "Eltwise"
  bottom: "W_hc_h_8"
  bottom: "W_xc_x_9"
  top: "gate_input_9"
  eltwise_param {
    operation: SUM
  }
}
layer {
  name: "lstm2_unit_9"
  type: "LSTMUnit"
  bottom: "c_8"
  bottom: "gate_input_9"
  bottom: "cont_9"
  top: "c_9"
  top: "h_9"
}
layer {
  name: "lstm2_h_conted_9"
  type: "Scale"
  bottom: "h_9"
  bottom: "cont_10"
  top: "h_conted_9"
  scale_param {
    axis: 0
  }
}
layer {
  name: "lstm2_transform_10"
  type: "InnerProduct"
  bottom: "h_conted_9"
  top: "W_hc_h_9"
  param {
    name: "W_hc"
  }
  inner_product_param {
    num_output: 64
    bias_term: false
    weight_filler {
      type: "xavier"
    }
    axis: 2
  }
}
layer {
  name: "lstm2_gate_input_10"
  type: "Eltwise"
  bottom: "W_hc_h_9"
  bottom: "W_xc_x_10"
  top: "gate_input_10"
  eltwise_param {
    operation: SUM
  }
}
layer {
  name: "lstm2_unit_10"
  type: "LSTMUnit"
  bottom: "c_9"
  bottom: "gate_input_10"
  bottom: "cont_10"
  top: "c_10"
  top: "h_10"
}
layer {
  name: "lstm2_h_conted_10"
  type: "Scale"
  bottom: "h_10"
  bottom: "cont_11"
  top: "h_conted_10"
  scale_param {
    axis: 0
  }
}
layer {
  name: "lstm2_transform_11"
  type: "InnerProduct"
  bottom: "h_conted_10"
  top: "W_hc_h_10"
  param {
    name: "W_hc"
  }
  inner_product_param {
    num_output: 64
    bias_term: false
    weight_filler {
      type: "xavier"
    }
    axis: 2
  }
}
layer {
  name: "lstm2_gate_input_11"
  type: "Eltwise"
  bottom: "W_hc_h_10"
  bottom: "W_xc_x_11"
  top: "gate_input_11"
  eltwise_param {
    operation: SUM
  }
}
layer {
  name: "lstm2_unit_11"
  type: "LSTMUnit"
  bottom: "c_10"
  bottom: "gate_input_11"
  bottom: "cont_11"
  top: "c_11"
  top: "h_11"
}
layer {
  name: "lstm2_h_conted_11"
  type: "Scale"
  bottom: "h_11"
  bottom: "cont_12"
  top: "h_conted_11"
  scale_param {
    axis: 0
  }
}
layer {
  name: "lstm2_transform_12"
  type: "InnerProduct"
  bottom: "h_conted_11"
  top: "W_hc_h_11"
  param {
    name: "W_hc"
  }
  inner_product_param {
    num_output: 64
    bias_term: false
    weight_filler {
      type: "xavier"
    }
    axis: 2
  }
}
layer {
  name: "lstm2_gate_input_12"
  type: "Eltwise"
  bottom: "W_hc_h_11"
  bottom: "W_xc_x_12"
  top: "gate_input_12"
  eltwise_param {
    operation: SUM
  }
}
layer {
  name: "lstm2_unit_12"
  type: "LSTMUnit"
  bottom: "c_11"
  bottom: "gate_input_12"
  bottom: "cont_12"
  top: "c_12"
  top: "h_12"
}
layer {
  name: "lstm2_h_conted_12"
  type: "Scale"
  bottom: "h_12"
  bottom: "cont_13"
  top: "h_conted_12"
  scale_param {
    axis: 0
  }
}
layer {
  name: "lstm2_transform_13"
  type: "InnerProduct"
  bottom: "h_conted_12"
  top: "W_hc_h_12"
  param {
    name: "W_hc"
  }
  inner_product_param {
    num_output: 64
    bias_term: false
    weight_filler {
      type: "xavier"
    }
    axis: 2
  }
}
layer {
  name: "lstm2_gate_input_13"
  type: "Eltwise"
  bottom: "W_hc_h_12"
  bottom: "W_xc_x_13"
  top: "gate_input_13"
  eltwise_param {
    operation: SUM
  }
}
layer {
  name: "lstm2_unit_13"
  type: "LSTMUnit"
  bottom: "c_12"
  bottom: "gate_input_13"
  bottom: "cont_13"
  top: "c_13"
  top: "h_13"
}
layer {
  name: "lstm2_h_conted_13"
  type: "Scale"
  bottom: "h_13"
  bottom: "cont_14"
  top: "h_conted_13"
  scale_param {
    axis: 0
  }
}
layer {
  name: "lstm2_transform_14"
  type: "InnerProduct"
  bottom: "h_conted_13"
  top: "W_hc_h_13"
  param {
    name: "W_hc"
  }
  inner_product_param {
    num_output: 64
    bias_term: false
    weight_filler {
      type: "xavier"
    }
    axis: 2
  }
}
layer {
  name: "lstm2_gate_input_14"
  type: "Eltwise"
  bottom: "W_hc_h_13"
  bottom: "W_xc_x_14"
  top: "gate_input_14"
  eltwise_param {
    operation: SUM
  }
}
layer {
  name: "lstm2_unit_14"
  type: "LSTMUnit"
  bottom: "c_13"
  bottom: "gate_input_14"
  bottom: "cont_14"
  top: "c_14"
  top: "h_14"
}
layer {
  name: "lstm2_h_conted_14"
  type: "Scale"
  bottom: "h_14"
  bottom: "cont_15"
  top: "h_conted_14"
  scale_param {
    axis: 0
  }
}
layer {
  name: "lstm2_transform_15"
  type: "InnerProduct"
  bottom: "h_conted_14"
  top: "W_hc_h_14"
  param {
    name: "W_hc"
  }
  inner_product_param {
    num_output: 64
    bias_term: false
    weight_filler {
      type: "xavier"
    }
    axis: 2
  }
}
layer {
  name: "lstm2_gate_input_15"
  type: "Eltwise"
  bottom: "W_hc_h_14"
  bottom: "W_xc_x_15"
  top: "gate_input_15"
  eltwise_param {
    operation: SUM
  }
}
layer {
  name: "lstm2_unit_15"
  type: "LSTMUnit"
  bottom: "c_14"
  bottom: "gate_input_15"
  bottom: "cont_15"
  top: "c_15"
  top: "h_15"
}
layer {
  name: "lstm2_h_conted_15"
  type: "Scale"
  bottom: "h_15"
  bottom: "cont_16"
  top: "h_conted_15"
  scale_param {
    axis: 0
  }
}
layer {
  name: "lstm2_transform_16"
  type: "InnerProduct"
  bottom: "h_conted_15"
  top: "W_hc_h_15"
  param {
    name: "W_hc"
  }
  inner_product_param {
    num_output: 64
    bias_term: false
    weight_filler {
      type: "xavier"
    }
    axis: 2
  }
}
layer {
  name: "lstm2_gate_input_16"
  type: "Eltwise"
  bottom: "W_hc_h_15"
  bottom: "W_xc_x_16"
  top: "gate_input_16"
  eltwise_param {
    operation: SUM
  }
}
layer {
  name: "lstm2_unit_16"
  type: "LSTMUnit"
  bottom: "c_15"
  bottom: "gate_input_16"
  bottom: "cont_16"
  top: "c_16"
  top: "h_16"
}
layer {
  name: "lstm2_"
  type: "Split"
  bottom: "c_16"
  top: "c_T"
}
layer {
  name: "lstm2_h_concat"
  type: "Concat"
  bottom: "h_1"
  bottom: "h_2"
  bottom: "h_3"
  bottom: "h_4"
  bottom: "h_5"
  bottom: "h_6"
  bottom: "h_7"
  bottom: "h_8"
  bottom: "h_9"
  bottom: "h_10"
  bottom: "h_11"
  bottom: "h_12"
  bottom: "h_13"
  bottom: "h_14"
  bottom: "h_15"
  bottom: "h_16"
  top: "h"
  concat_param {
    axis: 0
  }
}
layer {
  name: "h_pseudoloss"
  type: "Reduction"
  bottom: "h"
  top: "h_pseudoloss"
  loss_weight: 1
}
I0228 21:17:51.568321 11660 layer_factory.hpp:77] Creating layer lstm2_
I0228 21:17:51.568344 11660 net.cpp:84] Creating Layer lstm2_
I0228 21:17:51.568351 11660 net.cpp:380] lstm2_ -> x
I0228 21:17:51.568361 11660 net.cpp:380] lstm2_ -> cont
I0228 21:17:51.568410 11660 net.cpp:122] Setting up lstm2_
I0228 21:17:51.568423 11660 net.cpp:129] Top shape: 16 13 16 (3328)
I0228 21:17:51.568428 11660 net.cpp:129] Top shape: 16 13 (208)
I0228 21:17:51.568433 11660 net.cpp:137] Memory required for data: 14144
I0228 21:17:51.568436 11660 layer_factory.hpp:77] Creating layer lstm2_
I0228 21:17:51.568442 11660 net.cpp:84] Creating Layer lstm2_
I0228 21:17:51.568447 11660 net.cpp:380] lstm2_ -> c_0
I0228 21:17:51.568454 11660 net.cpp:380] lstm2_ -> h_0
I0228 21:17:51.568478 11660 net.cpp:122] Setting up lstm2_
I0228 21:17:51.568485 11660 net.cpp:129] Top shape: 1 13 16 (208)
I0228 21:17:51.568490 11660 net.cpp:129] Top shape: 1 13 16 (208)
I0228 21:17:51.568493 11660 net.cpp:137] Memory required for data: 15808
I0228 21:17:51.568514 11660 layer_factory.hpp:77] Creating layer lstm2_cont_slice
I0228 21:17:51.568521 11660 net.cpp:84] Creating Layer lstm2_cont_slice
I0228 21:17:51.568526 11660 net.cpp:406] lstm2_cont_slice <- cont
I0228 21:17:51.568531 11660 net.cpp:380] lstm2_cont_slice -> cont_1
I0228 21:17:51.568541 11660 net.cpp:380] lstm2_cont_slice -> cont_2
…
