…
I0228 21:29:45.929283 13656 solver.cpp:87] Creating training net from net file: /home/leonida/ThesisCode/LSTM_on_Create2/src/neural_network_planner/NetModels/LSTM/deep_stack-fc_classnet.prototxt
I0228 21:29:45.929463 13656 net.cpp:51] Initializing net from parameters: 
name: "LSTM_stack-fc-3-64"
state {
  phase: TRAIN
}
layer {
  name: "Input"
  type: "Input"
  top: "data"
  top: "clip"
  top: "label"
  input_param {
    shape {
      dim: 16
      dim: 13
      dim: 1
    }
    shape {
      dim: 16
      dim: 13
    }
    shape {
      dim: 16
    }
  }
}
layer {
  name: "lstm1"
  type: "LSTM"
  bottom: "data"
  bottom: "clip"
  top: "lstm1"
  recurrent_param {
    num_output: 8
    weight_filler {
      type: "xavier"
    }
    bias_filler {
      type: "constant"
    }
  }
}
layer {
  name: "out"
  type: "InnerProduct"
  bottom: "lstm1"
  top: "out"
  inner_product_param {
    num_output: 5
    weight_filler {
      type: "gaussian"
      std: 0.1
    }
    bias_filler {
      type: "constant"
    }
  }
}
layer {
  name: "softmax"
  type: "Softmax"
  bottom: "out"
  top: "softmax"
}
layer {
  name: "argmax"
  type: "ArgMax"
  bottom: "softmax"
  top: "argmax"
}
layer {
  name: "accuracy"
  type: "Accuracy"
  bottom: "softmax"
  bottom: "label"
  top: "accuracy"
}
layer {
  name: "softmaxloss"
  type: "SoftmaxWithLoss"
  bottom: "out"
  bottom: "label"
  top: "loss"
}
I0228 21:29:45.929561 13656 layer_factory.hpp:77] Creating layer Input
I0228 21:29:45.929589 13656 net.cpp:84] Creating Layer Input
I0228 21:29:45.929600 13656 net.cpp:380] Input -> data
I0228 21:29:45.929630 13656 net.cpp:380] Input -> clip
I0228 21:29:45.929646 13656 net.cpp:380] Input -> label
I0228 21:29:45.930315 13656 net.cpp:122] Setting up Input
I0228 21:29:45.930342 13656 net.cpp:129] Top shape: 16 13 1 (208)
I0228 21:29:45.930348 13656 net.cpp:129] Top shape: 16 13 (208)
I0228 21:29:45.930352 13656 net.cpp:129] Top shape: 16 (16)
I0228 21:29:45.930356 13656 net.cpp:137] Memory required for data: 1728
I0228 21:29:45.930362 13656 layer_factory.hpp:77] Creating layer label_Input_2_split
I0228 21:29:45.930372 13656 net.cpp:84] Creating Layer label_Input_2_split
I0228 21:29:45.930378 13656 net.cpp:406] label_Input_2_split <- label
I0228 21:29:45.930387 13656 net.cpp:380] label_Input_2_split -> label_Input_2_split_0
I0228 21:29:45.930392 13656 net.cpp:380] label_Input_2_split -> label_Input_2_split_1
I0228 21:29:45.930416 13656 net.cpp:122] Setting up label_Input_2_split
I0228 21:29:45.930424 13656 net.cpp:129] Top shape: 16 (16)
I0228 21:29:45.930428 13656 net.cpp:129] Top shape: 16 (16)
I0228 21:29:45.930431 13656 net.cpp:137] Memory required for data: 1856
I0228 21:29:45.930435 13656 layer_factory.hpp:77] Creating layer lstm1
I0228 21:29:45.930444 13656 net.cpp:84] Creating Layer lstm1
I0228 21:29:45.930447 13656 net.cpp:406] lstm1 <- data
I0228 21:29:45.930451 13656 net.cpp:406] lstm1 <- clip
I0228 21:29:45.930457 13656 net.cpp:380] lstm1 -> lstm1
I0228 21:29:45.930472 13656 recurrent_layer.cpp:20] Initializing recurrent layer: assuming input batch contains 16 timesteps of 13 independent streams.
I0228 21:29:45.930872 13656 net.cpp:51] Initializing net from parameters: 
layer {
  name: "lstm1_"
  type: "Input"
  top: "x"
  top: "cont"
  input_param {
    shape {
      dim: 16
      dim: 13
      dim: 1
    }
    shape {
      dim: 16
      dim: 13
    }
  }
}
layer {
  name: "lstm1_"
  type: "Input"
  top: "c_0"
  top: "h_0"
  input_param {
    shape {
      dim: 1
      dim: 13
      dim: 8
    }
    shape {
      dim: 1
      dim: 13
      dim: 8
    }
  }
}
layer {
  name: "lstm1_cont_slice"
  type: "Slice"
  bottom: "cont"
  top: "cont_1"
  top: "cont_2"
  top: "cont_3"
  top: "cont_4"
  top: "cont_5"
  top: "cont_6"
  top: "cont_7"
  top: "cont_8"
  top: "cont_9"
  top: "cont_10"
  top: "cont_11"
  top: "cont_12"
  top: "cont_13"
  top: "cont_14"
  top: "cont_15"
  top: "cont_16"
  slice_param {
    axis: 0
  }
}
layer {
  name: "lstm1_x_transform"
  type: "InnerProduct"
  bottom: "x"
  top: "W_xc_x"
  param {
    name: "W_xc"
  }
  param {
    name: "b_c"
  }
  propagate_down: true
  inner_product_param {
    num_output: 32
    bias_term: true
    weight_filler {
      type: "xavier"
    }
    bias_filler {
      type: "constant"
    }
    axis: 2
  }
}
layer {
  name: "lstm1_W_xc_x_slice"
  type: "Slice"
  bottom: "W_xc_x"
  top: "W_xc_x_1"
  top: "W_xc_x_2"
  top: "W_xc_x_3"
  top: "W_xc_x_4"
  top: "W_xc_x_5"
  top: "W_xc_x_6"
  top: "W_xc_x_7"
  top: "W_xc_x_8"
  top: "W_xc_x_9"
  top: "W_xc_x_10"
  top: "W_xc_x_11"
  top: "W_xc_x_12"
  top: "W_xc_x_13"
  top: "W_xc_x_14"
  top: "W_xc_x_15"
  top: "W_xc_x_16"
  slice_param {
    axis: 0
  }
}
layer {
  name: "lstm1_h_conted_0"
  type: "Scale"
  bottom: "h_0"
  bottom: "cont_1"
  top: "h_conted_0"
  scale_param {
    axis: 0
  }
}
layer {
  name: "lstm1_transform_1"
  type: "InnerProduct"
  bottom: "h_conted_0"
  top: "W_hc_h_0"
  param {
    name: "W_hc"
  }
  inner_product_param {
    num_output: 32
    bias_term: false
    weight_filler {
      type: "xavier"
    }
    axis: 2
  }
}
layer {
  name: "lstm1_gate_input_1"
  type: "Eltwise"
  bottom: "W_hc_h_0"
  bottom: "W_xc_x_1"
  top: "gate_input_1"
  eltwise_param {
    operation: SUM
  }
}
layer {
  name: "lstm1_unit_1"
  type: "LSTMUnit"
  bottom: "c_0"
  bottom: "gate_input_1"
  bottom: "cont_1"
  top: "c_1"
  top: "h_1"
}
layer {
  name: "lstm1_h_conted_1"
  type: "Scale"
  bottom: "h_1"
  bottom: "cont_2"
  top: "h_conted_1"
  scale_param {
    axis: 0
  }
}
layer {
  name: "lstm1_transform_2"
  type: "InnerProduct"
  bottom: "h_conted_1"
  top: "W_hc_h_1"
  param {
    name: "W_hc"
  }
  inner_product_param {
    num_output: 32
    bias_term: false
    weight_filler {
      type: "xavier"
    }
    axis: 2
  }
}
layer {
  name: "lstm1_gate_input_2"
  type: "Eltwise"
  bottom: "W_hc_h_1"
  bottom: "W_xc_x_2"
  top: "gate_input_2"
  eltwise_param {
    operation: SUM
  }
}
layer {
  name: "lstm1_unit_2"
  type: "LSTMUnit"
  bottom: "c_1"
  bottom: "gate_input_2"
  bottom: "cont_2"
  top: "c_2"
  top: "h_2"
}
layer {
  name: "lstm1_h_conted_2"
  type: "Scale"
  bottom: "h_2"
  bottom: "cont_3"
  top: "h_conted_2"
  scale_param {
    axis: 0
  }
}
layer {
  name: "lstm1_transform_3"
  type: "InnerProduct"
  bottom: "h_conted_2"
  top: "W_hc_h_2"
  param {
    name: "W_hc"
  }
  inner_product_param {
    num_output: 32
    bias_term: false
    weight_filler {
      type: "xavier"
    }
    axis: 2
  }
}
layer {
  name: "lstm1_gate_input_3"
  type: "Eltwise"
  bottom: "W_hc_h_2"
  bottom: "W_xc_x_3"
  top: "gate_input_3"
  eltwise_param {
    operation: SUM
  }
}
layer {
  name: "lstm1_unit_3"
  type: "LSTMUnit"
  bottom: "c_2"
  bottom: "gate_input_3"
  bottom: "cont_3"
  top: "c_3"
  top: "h_3"
}
layer {
  name: "lstm1_h_conted_3"
  type: "Scale"
  bottom: "h_3"
  bottom: "cont_4"
  top: "h_conted_3"
  scale_param {
    axis: 0
  }
}
layer {
  name: "lstm1_transform_4"
  type: "InnerProduct"
  bottom: "h_conted_3"
  top: "W_hc_h_3"
  param {
    name: "W_hc"
  }
  inner_product_param {
    num_output: 32
    bias_term: false
    weight_filler {
      type: "xavier"
    }
    axis: 2
  }
}
layer {
  name: "lstm1_gate_input_4"
  type: "Eltwise"
  bottom: "W_hc_h_3"
  bottom: "W_xc_x_4"
  top: "gate_input_4"
  eltwise_param {
    operation: SUM
  }
}
layer {
  name: "lstm1_unit_4"
  type: "LSTMUnit"
  bottom: "c_3"
  bottom: "gate_input_4"
  bottom: "cont_4"
  top: "c_4"
  top: "h_4"
}
layer {
  name: "lstm1_h_conted_4"
  type: "Scale"
  bottom: "h_4"
  bottom: "cont_5"
  top: "h_conted_4"
  scale_param {
    axis: 0
  }
}
layer {
  name: "lstm1_transform_5"
  type: "InnerProduct"
  bottom: "h_conted_4"
  top: "W_hc_h_4"
  param {
    name: "W_hc"
  }
  inner_product_param {
    num_output: 32
    bias_term: false
    weight_filler {
      type: "xavier"
    }
    axis: 2
  }
}
layer {
  name: "lstm1_gate_input_5"
  type: "Eltwise"
  bottom: "W_hc_h_4"
  bottom: "W_xc_x_5"
  top: "gate_input_5"
  eltwise_param {
    operation: SUM
  }
}
layer {
  name: "lstm1_unit_5"
  type: "LSTMUnit"
  bottom: "c_4"
  bottom: "gate_input_5"
  bottom: "cont_5"
  top: "c_5"
  top: "h_5"
}
layer {
  name: "lstm1_h_conted_5"
  type: "Scale"
  bottom: "h_5"
  bottom: "cont_6"
  top: "h_conted_5"
  scale_param {
    axis: 0
  }
}
layer {
  name: "lstm1_transform_6"
  type: "InnerProduct"
  bottom: "h_conted_5"
  top: "W_hc_h_5"
  param {
    name: "W_hc"
  }
  inner_product_param {
    num_output: 32
    bias_term: false
    weight_filler {
      type: "xavier"
    }
    axis: 2
  }
}
layer {
  name: "lstm1_gate_input_6"
  type: "Eltwise"
  bottom: "W_hc_h_5"
  bottom: "W_xc_x_6"
  top: "gate_input_6"
  eltwise_param {
    operation: SUM
  }
}
layer {
  name: "lstm1_unit_6"
  type: "LSTMUnit"
  bottom: "c_5"
  bottom: "gate_input_6"
  bottom: "cont_6"
  top: "c_6"
  top: "h_6"
}
layer {
  name: "lstm1_h_conted_6"
  type: "Scale"
  bottom: "h_6"
  bottom: "cont_7"
  top: "h_conted_6"
  scale_param {
    axis: 0
  }
}
layer {
  name: "lstm1_transform_7"
  type: "InnerProduct"
  bottom: "h_conted_6"
  top: "W_hc_h_6"
  param {
    name: "W_hc"
  }
  inner_product_param {
    num_output: 32
    bias_term: false
    weight_filler {
      type: "xavier"
    }
    axis: 2
  }
}
layer {
  name: "lstm1_gate_input_7"
  type: "Eltwise"
  bottom: "W_hc_h_6"
  bottom: "W_xc_x_7"
  top: "gate_input_7"
  eltwise_param {
    operation: SUM
  }
}
layer {
  name: "lstm1_unit_7"
  type: "LSTMUnit"
  bottom: "c_6"
  bottom: "gate_input_7"
  bottom: "cont_7"
  top: "c_7"
  top: "h_7"
}
layer {
  name: "lstm1_h_conted_7"
  type: "Scale"
  bottom: "h_7"
  bottom: "cont_8"
  top: "h_conted_7"
  scale_param {
    axis: 0
  }
}
layer {
  name: "lstm1_transform_8"
  type: "InnerProduct"
  bottom: "h_conted_7"
  top: "W_hc_h_7"
  param {
    name: "W_hc"
  }
  inner_product_param {
    num_output: 32
    bias_term: false
    weight_filler {
      type: "xavier"
    }
    axis: 2
  }
}
layer {
  name: "lstm1_gate_input_8"
  type: "Eltwise"
  bottom: "W_hc_h_7"
  bottom: "W_xc_x_8"
  top: "gate_input_8"
  eltwise_param {
    operation: SUM
  }
}
layer {
  name: "lstm1_unit_8"
  type: "LSTMUnit"
  bottom: "c_7"
  bottom: "gate_input_8"
  bottom: "cont_8"
  top: "c_8"
  top: "h_8"
}
layer {
  name: "lstm1_h_conted_8"
  type: "Scale"
  bottom: "h_8"
  bottom: "cont_9"
  top: "h_conted_8"
  scale_param {
    axis: 0
  }
}
layer {
  name: "lstm1_transform_9"
  type: "InnerProduct"
  bottom: "h_conted_8"
  top: "W_hc_h_8"
  param {
    name: "W_hc"
  }
  inner_product_param {
    num_output: 32
    bias_term: false
    weight_filler {
      type: "xavier"
    }
    axis: 2
  }
}
layer {
  name: "lstm1_gate_input_9"
  type: "Eltwise"
  bottom: "W_hc_h_8"
  bottom: "W_xc_x_9"
  top: "gate_input_9"
  eltwise_param {
    operation: SUM
  }
}
layer {
  name: "lstm1_unit_9"
  type: "LSTMUnit"
  bottom: "c_8"
  bottom: "gate_input_9"
  bottom: "cont_9"
  top: "c_9"
  top: "h_9"
}
layer {
  name: "lstm1_h_conted_9"
  type: "Scale"
  bottom: "h_9"
  bottom: "cont_10"
  top: "h_conted_9"
  scale_param {
    axis: 0
  }
}
layer {
  name: "lstm1_transform_10"
  type: "InnerProduct"
  bottom: "h_conted_9"
  top: "W_hc_h_9"
  param {
    name: "W_hc"
  }
  inner_product_param {
    num_output: 32
    bias_term: false
    weight_filler {
      type: "xavier"
    }
    axis: 2
  }
}
layer {
  name: "lstm1_gate_input_10"
  type: "Eltwise"
  bottom: "W_hc_h_9"
  bottom: "W_xc_x_10"
  top: "gate_input_10"
  eltwise_param {
    operation: SUM
  }
}
layer {
  name: "lstm1_unit_10"
  type: "LSTMUnit"
  bottom: "c_9"
  bottom: "gate_input_10"
  bottom: "cont_10"
  top: "c_10"
  top: "h_10"
}
layer {
  name: "lstm1_h_conted_10"
  type: "Scale"
  bottom: "h_10"
  bottom: "cont_11"
  top: "h_conted_10"
  scale_param {
    axis: 0
  }
}
layer {
  name: "lstm1_transform_11"
  type: "InnerProduct"
  bottom: "h_conted_10"
  top: "W_hc_h_10"
  param {
    name: "W_hc"
  }
  inner_product_param {
    num_output: 32
    bias_term: false
    weight_filler {
      type: "xavier"
    }
    axis: 2
  }
}
layer {
  name: "lstm1_gate_input_11"
  type: "Eltwise"
  bottom: "W_hc_h_10"
  bottom: "W_xc_x_11"
  top: "gate_input_11"
  eltwise_param {
    operation: SUM
  }
}
layer {
  name: "lstm1_unit_11"
  type: "LSTMUnit"
  bottom: "c_10"
  bottom: "gate_input_11"
  bottom: "cont_11"
  top: "c_11"
  top: "h_11"
}
layer {
  name: "lstm1_h_conted_11"
  type: "Scale"
  bottom: "h_11"
  bottom: "cont_12"
  top: "h_conted_11"
  scale_param {
    axis: 0
  }
}
layer {
  name: "lstm1_transform_12"
  type: "InnerProduct"
  bottom: "h_conted_11"
  top: "W_hc_h_11"
  param {
    name: "W_hc"
  }
  inner_product_param {
    num_output: 32
    bias_term: false
    weight_filler {
      type: "xavier"
    }
    axis: 2
  }
}
layer {
  name: "lstm1_gate_input_12"
  type: "Eltwise"
  bottom: "W_hc_h_11"
  bottom: "W_xc_x_12"
  top: "gate_input_12"
  eltwise_param {
    operation: SUM
  }
}
layer {
  name: "lstm1_unit_12"
  type: "LSTMUnit"
  bottom: "c_11"
  bottom: "gate_input_12"
  bottom: "cont_12"
  top: "c_12"
  top: "h_12"
}
layer {
  name: "lstm1_h_conted_12"
  type: "Scale"
  bottom: "h_12"
  bottom: "cont_13"
  top: "h_conted_12"
  scale_param {
    axis: 0
  }
}
layer {
  name: "lstm1_transform_13"
  type: "InnerProduct"
  bottom: "h_conted_12"
  top: "W_hc_h_12"
  param {
    name: "W_hc"
  }
  inner_product_param {
    num_output: 32
    bias_term: false
    weight_filler {
      type: "xavier"
    }
    axis: 2
  }
}
layer {
  name: "lstm1_gate_input_13"
  type: "Eltwise"
  bottom: "W_hc_h_12"
  bottom: "W_xc_x_13"
  top: "gate_input_13"
  eltwise_param {
    operation: SUM
  }
}
layer {
  name: "lstm1_unit_13"
  type: "LSTMUnit"
  bottom: "c_12"
  bottom: "gate_input_13"
  bottom: "cont_13"
  top: "c_13"
  top: "h_13"
}
layer {
  name: "lstm1_h_conted_13"
  type: "Scale"
  bottom: "h_13"
  bottom: "cont_14"
  top: "h_conted_13"
  scale_param {
    axis: 0
  }
}
layer {
  name: "lstm1_transform_14"
  type: "InnerProduct"
  bottom: "h_conted_13"
  top: "W_hc_h_13"
  param {
    name: "W_hc"
  }
  inner_product_param {
    num_output: 32
    bias_term: false
    weight_filler {
      type: "xavier"
    }
    axis: 2
  }
}
layer {
  name: "lstm1_gate_input_14"
  type: "Eltwise"
  bottom: "W_hc_h_13"
  bottom: "W_xc_x_14"
  top: "gate_input_14"
  eltwise_param {
    operation: SUM
  }
}
layer {
  name: "lstm1_unit_14"
  type: "LSTMUnit"
  bottom: "c_13"
  bottom: "gate_input_14"
  bottom: "cont_14"
  top: "c_14"
  top: "h_14"
}
layer {
  name: "lstm1_h_conted_14"
  type: "Scale"
  bottom: "h_14"
  bottom: "cont_15"
  top: "h_conted_14"
  scale_param {
    axis: 0
  }
}
layer {
  name: "lstm1_transform_15"
  type: "InnerProduct"
  bottom: "h_conted_14"
  top: "W_hc_h_14"
  param {
    name: "W_hc"
  }
  inner_product_param {
    num_output: 32
    bias_term: false
    weight_filler {
      type: "xavier"
    }
    axis: 2
  }
}
layer {
  name: "lstm1_gate_input_15"
  type: "Eltwise"
  bottom: "W_hc_h_14"
  bottom: "W_xc_x_15"
  top: "gate_input_15"
  eltwise_param {
    operation: SUM
  }
}
layer {
  name: "lstm1_unit_15"
  type: "LSTMUnit"
  bottom: "c_14"
  bottom: "gate_input_15"
  bottom: "cont_15"
  top: "c_15"
  top: "h_15"
}
layer {
  name: "lstm1_h_conted_15"
  type: "Scale"
  bottom: "h_15"
  bottom: "cont_16"
  top: "h_conted_15"
  scale_param {
    axis: 0
  }
}
layer {
  name: "lstm1_transform_16"
  type: "InnerProduct"
  bottom: "h_conted_15"
  top: "W_hc_h_15"
  param {
    name: "W_hc"
  }
  inner_product_param {
    num_output: 32
    bias_term: false
    weight_filler {
      type: "xavier"
    }
    axis: 2
  }
}
layer {
  name: "lstm1_gate_input_16"
  type: "Eltwise"
  bottom: "W_hc_h_15"
  bottom: "W_xc_x_16"
  top: "gate_input_16"
  eltwise_param {
    operation: SUM
  }
}
layer {
  name: "lstm1_unit_16"
  type: "LSTMUnit"
  bottom: "c_15"
  bottom: "gate_input_16"
  bottom: "cont_16"
  top: "c_16"
  top: "h_16"
}
layer {
  name: "lstm1_"
  type: "Split"
  bottom: "c_16"
  top: "c_T"
}
layer {
  name: "lstm1_h_concat"
  type: "Concat"
  bottom: "h_1"
  bottom: "h_2"
  bottom: "h_3"
  bottom: "h_4"
  bottom: "h_5"
  bottom: "h_6"
  bottom: "h_7"
  bottom: "h_8"
  bottom: "h_9"
  bottom: "h_10"
  bottom: "h_11"
  bottom: "h_12"
  bottom: "h_13"
  bottom: "h_14"
  bottom: "h_15"
  bottom: "h_16"
  top: "h"
  concat_param {
    axis: 0
  }
}
layer {
  name: "h_pseudoloss"
  type: "Reduction"
  bottom: "h"
  top: "h_pseudoloss"
  loss_weight: 1
}
I0228 21:29:45.931602 13656 layer_factory.hpp:77] Creating layer lstm1_
I0228 21:29:45.931613 13656 net.cpp:84] Creating Layer lstm1_
I0228 21:29:45.931617 13656 net.cpp:380] lstm1_ -> x
I0228 21:29:45.931624 13656 net.cpp:380] lstm1_ -> cont
I0228 21:29:45.931649 13656 net.cpp:122] Setting up lstm1_
I0228 21:29:45.931656 13656 net.cpp:129] Top shape: 16 13 1 (208)
I0228 21:29:45.931661 13656 net.cpp:129] Top shape: 16 13 (208)
I0228 21:29:45.931664 13656 net.cpp:137] Memory required for data: 1664
I0228 21:29:45.931668 13656 layer_factory.hpp:77] Creating layer lstm1_
I0228 21:29:45.931686 13656 net.cpp:84] Creating Layer lstm1_
I0228 21:29:45.931690 13656 net.cpp:380] lstm1_ -> c_0
I0228 21:29:45.931695 13656 net.cpp:380] lstm1_ -> h_0
I0228 21:29:45.931713 13656 net.cpp:122] Setting up lstm1_
I0228 21:29:45.931718 13656 net.cpp:129] Top shape: 1 13 8 (104)
I0228 21:29:45.931723 13656 net.cpp:129] Top shape: 1 13 8 (104)
I0228 21:29:45.931726 13656 net.cpp:137] Memory required for data: 2496
I0228 21:29:45.931730 13656 layer_factory.hpp:77] Creating layer lstm1_cont_slice
I0228 21:29:45.931737 13656 net.cpp:84] Creating Layer lstm1_cont_slice
I0228 21:29:45.931741 13656 net.cpp:406] lstm1_cont_slice <- cont
I0228 21:29:45.931746 13656 net.cpp:380] lstm1_cont_slice -> cont_1
I0228 21:29:45.931753 13656 net.cpp:380] lstm1_cont_slice -> cont_2
…
I0228 21:29:45.931789 13656 net.cpp:380] lstm1_cont_slice -> cont_9
I0228 21:29:45.931794 13656 net.cpp:380] lstm1_cont_slice -> cont_10
I0228 21:29:45.931799 13656 net.cpp:380] lstm1_cont_slice -> cont_11
I0228 21:29:45.931803 13656 net.cpp:380] lstm1_cont_slice -> cont_12
I0228 21:29:45.931808 13656 net.cpp:380] lstm1_cont_slice -> cont_13
I0228 21:29:45.931814 13656 net.cpp:380] lstm1_cont_slice -> cont_14
I0228 21:29:45.931819 13656 net.cpp:380] lstm1_cont_slice -> cont_15
I0228 21:29:45.931824 13656 net.cpp:380] lstm1_cont_slice -> cont_16
I0228 21:29:45.931915 13656 net.cpp:122] Setting up lstm1_cont_slice
I0228 21:29:45.931921 13656 net.cpp:129] Top shape: 1 13 (13)
I0228 21:29:45.931926 13656 net.cpp:129] Top shape: 1 13 (13)
I0228 21:29:45.931929 13656 net.cpp:129] Top shape: 1 13 (13)
I0228 21:29:45.931932 13656 net.cpp:129] Top shape: 1 13 (13)
I0228 21:29:45.931936 13656 net.cpp:129] Top shape: 1 13 (13)
I0228 21:29:45.931941 13656 net.cpp:129] Top shape: 1 13 (13)
I0228 21:29:45.931943 13656 net.cpp:129] Top shape: 1 13 (13)
I0228 21:29:45.931947 13656 net.cpp:129] Top shape: 1 13 (13)
I0228 21:29:45.931951 13656 net.cpp:129] Top shape: 1 13 (13)
I0228 21:29:45.931954 13656 net.cpp:129] Top shape: 1 13 (13)
I0228 21:29:45.931957 13656 net.cpp:129] Top shape: 1 13 (13)
I0228 21:29:45.931967 13656 net.cpp:129] Top shape: 1 13 (13)
I0228 21:29:45.931972 13656 net.cpp:129] Top shape: 1 13 (13)
I0228 21:29:45.931975 13656 net.cpp:129] Top shape: 1 13 (13)
I0228 21:29:45.931979 13656 net.cpp:129] Top shape: 1 13 (13)
I0228 21:29:45.931982 13656 net.cpp:129] Top shape: 1 13 (13)
I0228 21:29:45.931985 13656 net.cpp:137] Memory required for data: 3328
I0228 21:29:45.931988 13656 layer_factory.hpp:77] Creating layer cont_1_lstm1_cont_slice_0_split
I0228 21:29:45.931993 13656 net.cpp:84] Creating Layer cont_1_lstm1_cont_slice_0_split
I0228 21:29:45.931996 13656 net.cpp:406] cont_1_lstm1_cont_slice_0_split <- cont_1
I0228 21:29:45.932000 13656 net.cpp:380] cont_1_lstm1_cont_slice_0_split -> cont_1_lstm1_cont_slice_0_split_0
I0228 21:29:45.932005 13656 net.cpp:380] cont_1_lstm1_cont_slice_0_split -> cont_1_lstm1_cont_slice_0_split_1
I0228 21:29:45.932024 13656 net.cpp:122] Setting up cont_1_lstm1_cont_slice_0_split
I0228 21:29:45.932029 13656 net.cpp:129] Top shape: 1 13 (13)
I0228 21:29:45.932032 13656 net.cpp:129] Top shape: 1 13 (13)
I0228 21:29:45.932035 13656 net.cpp:137] Memory required for data: 3432
I0228 21:29:45.932039 13656 layer_factory.hpp:77] Creating layer cont_2_lstm1_cont_slice_1_split
I0228 21:29:45.932044 13656 net.cpp:84] Creating Layer cont_2_lstm1_cont_slice_1_split
I0228 21:29:45.932046 13656 net.cpp:406] cont_2_lstm1_cont_slice_1_split <- cont_2
I0228 21:29:45.932050 13656 net.cpp:380] cont_2_lstm1_cont_slice_1_split -> cont_2_lstm1_cont_slice_1_split_0
I0228 21:29:45.932056 13656 net.cpp:380] cont_2_lstm1_cont_slice_1_split -> cont_2_lstm1_cont_slice_1_split_1
I0228 21:29:45.932072 13656 net.cpp:122] Setting up cont_2_lstm1_cont_slice_1_split
I0228 21:29:45.932077 13656 net.cpp:129] Top shape: 1 13 (13)
I0228 21:29:45.934110 13656 net.cpp:129] Top shape: 1 13 (13)
I0228 21:29:45.934120 13656 net.cpp:137] Memory required for data: 3536
I0228 21:29:45.934126 13656 layer_factory.hpp:77] Creating layer cont_3_lstm1_cont_slice_2_split
I0228 21:29:45.934137 13656 net.cpp:84] Creating Layer cont_3_lstm1_cont_slice_2_split
I0228 21:29:45.934144 13656 net.cpp:406] cont_3_lstm1_cont_slice_2_split <- cont_3
I0228 21:29:45.934165 13656 net.cpp:380] cont_3_lstm1_cont_slice_2_split -> cont_3_lstm1_cont_slice_2_split_0
I0228 21:29:45.934172 13656 net.cpp:380] cont_3_lstm1_cont_slice_2_split -> cont_3_lstm1_cont_slice_2_split_1
I0228 21:29:45.934216 13656 net.cpp:122] Setting up cont_3_lstm1_cont_slice_2_split
I0228 21:29:45.934223 13656 net.cpp:129] Top shape: 1 13 (13)
I0228 21:29:45.934229 13656 net.cpp:129] Top shape: 1 13 (13)
I0228 21:29:45.934233 13656 net.cpp:137] Memory required for data: 3640
I0228 21:29:45.934238 13656 layer_factory.hpp:77] Creating layer cont_4_lstm1_cont_slice_3_split
I0228 21:29:45.934244 13656 net.cpp:84] Creating Layer cont_4_lstm1_cont_slice_3_split
I0228 21:29:45.934248 13656 net.cpp:406] cont_4_lstm1_cont_slice_3_split <- cont_4
I0228 21:29:45.934255 13656 net.cpp:380] cont_4_lstm1_cont_slice_3_split -> cont_4_lstm1_cont_slice_3_split_0
I0228 21:29:45.934263 13656 net.cpp:380] cont_4_lstm1_cont_slice_3_split -> cont_4_lstm1_cont_slice_3_split_1
I0228 21:29:45.934290 13656 net.cpp:122] Setting up cont_4_lstm1_cont_slice_3_split
I0228 21:29:45.934299 13656 net.cpp:129] Top shape: 1 13 (13)
I0228 21:29:45.934306 13656 net.cpp:129] Top shape: 1 13 (13)
I0228 21:29:45.934311 13656 net.cpp:137] Memory required for data: 3744
I0228 21:29:45.934316 13656 layer_factory.hpp:77] Creating layer cont_5_lstm1_cont_slice_4_split
I0228 21:29:45.934322 13656 net.cpp:84] Creating Layer cont_5_lstm1_cont_slice_4_split
I0228 21:29:45.934327 13656 net.cpp:406] cont_5_lstm1_cont_slice_4_split <- cont_5
I0228 21:29:45.934334 13656 net.cpp:380] cont_5_lstm1_cont_slice_4_split -> cont_5_lstm1_cont_slice_4_split_0
I0228 21:29:45.934341 13656 net.cpp:380] cont_5_lstm1_cont_slice_4_split -> cont_5_lstm1_cont_slice_4_split_1
I0228 21:29:45.934370 13656 net.cpp:122] Setting up cont_5_lstm1_cont_slice_4_split
I0228 21:29:45.934377 13656 net.cpp:129] Top shape: 1 13 (13)
I0228 21:29:45.934396 13656 net.cpp:129] Top shape: 1 13 (13)
I0228 21:29:45.934402 13656 net.cpp:137] Memory required for data: 3848
I0228 21:29:45.934407 13656 layer_factory.hpp:77] Creating layer cont_6_lstm1_cont_slice_5_split
I0228 21:29:45.934418 13656 net.cpp:84] Creating Layer cont_6_lstm1_cont_slice_5_split
I0228 21:29:45.934424 13656 net.cpp:406] cont_6_lstm1_cont_slice_5_split <- cont_6
I0228 21:29:45.934484 13656 net.cpp:380] cont_6_lstm1_cont_slice_5_split -> cont_6_lstm1_cont_slice_5_split_0
I0228 21:29:45.934492 13656 net.cpp:380] cont_6_lstm1_cont_slice_5_split -> cont_6_lstm1_cont_slice_5_split_1
I0228 21:29:45.934521 13656 net.cpp:122] Setting up cont_6_lstm1_cont_slice_5_split
I0228 21:29:45.934530 13656 net.cpp:129] Top shape: 1 13 (13)
I0228 21:29:45.934537 13656 net.cpp:129] Top shape: 1 13 (13)
I0228 21:29:45.934541 13656 net.cpp:137] Memory required for data: 3952
I0228 21:29:45.934545 13656 layer_factory.hpp:77] Creating layer cont_7_lstm1_cont_slice_6_split
I0228 21:29:45.934551 13656 net.cpp:84] Creating Layer cont_7_lstm1_cont_slice_6_split
I0228 21:29:45.934556 13656 net.cpp:406] cont_7_lstm1_cont_slice_6_split <- cont_7
I0228 21:29:45.934561 13656 net.cpp:380] cont_7_lstm1_cont_slice_6_split -> cont_7_lstm1_cont_slice_6_split_0
I0228 21:29:45.934569 13656 net.cpp:380] cont_7_lstm1_cont_slice_6_split -> cont_7_lstm1_cont_slice_6_split_1
I0228 21:29:45.934607 13656 net.cpp:122] Setting up cont_7_lstm1_cont_slice_6_split
I0228 21:29:45.934617 13656 net.cpp:129] Top shape: 1 13 (13)
I0228 21:29:45.934623 13656 net.cpp:129] Top shape: 1 13 (13)
I0228 21:29:45.934628 13656 net.cpp:137] Memory required for data: 4056
I0228 21:29:45.934631 13656 layer_factory.hpp:77] Creating layer cont_8_lstm1_cont_slice_7_split
I0228 21:29:45.934636 13656 net.cpp:84] Creating Layer cont_8_lstm1_cont_slice_7_split
I0228 21:29:45.934640 13656 net.cpp:406] cont_8_lstm1_cont_slice_7_split <- cont_8
I0228 21:29:45.934646 13656 net.cpp:380] cont_8_lstm1_cont_slice_7_split -> cont_8_lstm1_cont_slice_7_split_0
I0228 21:29:45.934653 13656 net.cpp:380] cont_8_lstm1_cont_slice_7_split -> cont_8_lstm1_cont_slice_7_split_1
I0228 21:29:45.934672 13656 net.cpp:122] Setting up cont_8_lstm1_cont_slice_7_split
I0228 21:29:45.934679 13656 net.cpp:129] Top shape: 1 13 (13)
I0228 21:29:45.934684 13656 net.cpp:129] Top shape: 1 13 (13)
I0228 21:29:45.934687 13656 net.cpp:137] Memory required for data: 4160
I0228 21:29:45.934690 13656 layer_factory.hpp:77] Creating layer cont_9_lstm1_cont_slice_8_split
I0228 21:29:45.934696 13656 net.cpp:84] Creating Layer cont_9_lstm1_cont_slice_8_split
I0228 21:29:45.934700 13656 net.cpp:406] cont_9_lstm1_cont_slice_8_split <- cont_9
I0228 21:29:45.934705 13656 net.cpp:380] cont_9_lstm1_cont_slice_8_split -> cont_9_lstm1_cont_slice_8_split_0
I0228 21:29:45.934711 13656 net.cpp:380] cont_9_lstm1_cont_slice_8_split -> cont_9_lstm1_cont_slice_8_split_1
I0228 21:29:45.934732 13656 net.cpp:122] Setting up cont_9_lstm1_cont_slice_8_split
I0228 21:29:45.934738 13656 net.cpp:129] Top shape: 1 13 (13)
I0228 21:29:45.934743 13656 net.cpp:129] Top shape: 1 13 (13)
I0228 21:29:45.934747 13656 net.cpp:137] Memory required for data: 4264
I0228 21:29:45.934751 13656 layer_factory.hpp:77] Creating layer cont_10_lstm1_cont_slice_9_split
I0228 21:29:45.934756 13656 net.cpp:84] Creating Layer cont_10_lstm1_cont_slice_9_split
I0228 21:29:45.934761 13656 net.cpp:406] cont_10_lstm1_cont_slice_9_split <- cont_10
I0228 21:29:45.934765 13656 net.cpp:380] cont_10_lstm1_cont_slice_9_split -> cont_10_lstm1_cont_slice_9_split_0
I0228 21:29:45.934770 13656 net.cpp:380] cont_10_lstm1_cont_slice_9_split -> cont_10_lstm1_cont_slice_9_split_1
I0228 21:29:45.934792 13656 net.cpp:122] Setting up cont_10_lstm1_cont_slice_9_split
I0228 21:29:45.934798 13656 net.cpp:129] Top shape: 1 13 (13)
I0228 21:29:45.934803 13656 net.cpp:129] Top shape: 1 13 (13)
I0228 21:29:45.934806 13656 net.cpp:137] Memory required for data: 4368
I0228 21:29:45.934810 13656 layer_factory.hpp:77] Creating layer cont_11_lstm1_cont_slice_10_split
I0228 21:29:45.934821 13656 net.cpp:84] Creating Layer cont_11_lstm1_cont_slice_10_split
I0228 21:29:45.934840 13656 net.cpp:406] cont_11_lstm1_cont_slice_10_split <- cont_11
I0228 21:29:45.934845 13656 net.cpp:380] cont_11_lstm1_cont_slice_10_split -> cont_11_lstm1_cont_slice_10_split_0
I0228 21:29:45.934852 13656 net.cpp:380] cont_11_lstm1_cont_slice_10_split -> cont_11_lstm1_cont_slice_10_split_1
I0228 21:29:45.934872 13656 net.cpp:122] Setting up cont_11_lstm1_cont_slice_10_split
I0228 21:29:45.934880 13656 net.cpp:129] Top shape: 1 13 (13)
I0228 21:29:45.934885 13656 net.cpp:129] Top shape: 1 13 (13)
I0228 21:29:45.934888 13656 net.cpp:137] Memory required for data: 4472
I0228 21:29:45.934892 13656 layer_factory.hpp:77] Creating layer cont_12_lstm1_cont_slice_11_split
I0228 21:29:45.934900 13656 net.cpp:84] Creating Layer cont_12_lstm1_cont_slice_11_split
I0228 21:29:45.934904 13656 net.cpp:406] cont_12_lstm1_cont_slice_11_split <- cont_12
I0228 21:29:45.934909 13656 net.cpp:380] cont_12_lstm1_cont_slice_11_split -> cont_12_lstm1_cont_slice_11_split_0
I0228 21:29:45.934916 13656 net.cpp:380] cont_12_lstm1_cont_slice_11_split -> cont_12_lstm1_cont_slice_11_split_1
I0228 21:29:45.934937 13656 net.cpp:122] Setting up cont_12_lstm1_cont_slice_11_split
I0228 21:29:45.934942 13656 net.cpp:129] Top shape: 1 13 (13)
I0228 21:29:45.934947 13656 net.cpp:129] Top shape: 1 13 (13)
I0228 21:29:45.934952 13656 net.cpp:137] Memory required for data: 4576
I0228 21:29:45.934955 13656 layer_factory.hpp:77] Creating layer cont_13_lstm1_cont_slice_12_split
I0228 21:29:45.934959 13656 net.cpp:84] Creating Layer cont_13_lstm1_cont_slice_12_split
I0228 21:29:45.934963 13656 net.cpp:406] cont_13_lstm1_cont_slice_12_split <- cont_13
I0228 21:29:45.934968 13656 net.cpp:380] cont_13_lstm1_cont_slice_12_split -> cont_13_lstm1_cont_slice_12_split_0
I0228 21:29:45.934973 13656 net.cpp:380] cont_13_lstm1_cont_slice_12_split -> cont_13_lstm1_cont_slice_12_split_1
I0228 21:29:45.934994 13656 net.cpp:122] Setting up cont_13_lstm1_cont_slice_12_split
I0228 21:29:45.935000 13656 net.cpp:129] Top shape: 1 13 (13)
I0228 21:29:45.935005 13656 net.cpp:129] Top shape: 1 13 (13)
I0228 21:29:45.935009 13656 net.cpp:137] Memory required for data: 4680
I0228 21:29:45.935014 13656 layer_factory.hpp:77] Creating layer cont_14_lstm1_cont_slice_13_split
I0228 21:29:45.935020 13656 net.cpp:84] Creating Layer cont_14_lstm1_cont_slice_13_split
I0228 21:29:45.935024 13656 net.cpp:406] cont_14_lstm1_cont_slice_13_split <- cont_14
I0228 21:29:45.935031 13656 net.cpp:380] cont_14_lstm1_cont_slice_13_split -> cont_14_lstm1_cont_slice_13_split_0
I0228 21:29:45.935037 13656 net.cpp:380] cont_14_lstm1_cont_slice_13_split -> cont_14_lstm1_cont_slice_13_split_1
I0228 21:29:45.935056 13656 net.cpp:122] Setting up cont_14_lstm1_cont_slice_13_split
I0228 21:29:45.935062 13656 net.cpp:129] Top shape: 1 13 (13)
I0228 21:29:45.935067 13656 net.cpp:129] Top shape: 1 13 (13)
I0228 21:29:45.935071 13656 net.cpp:137] Memory required for data: 4784
I0228 21:29:45.935075 13656 layer_factory.hpp:77] Creating layer cont_15_lstm1_cont_slice_14_split
I0228 21:29:45.935081 13656 net.cpp:84] Creating Layer cont_15_lstm1_cont_slice_14_split
I0228 21:29:45.935086 13656 net.cpp:406] cont_15_lstm1_cont_slice_14_split <- cont_15
I0228 21:29:45.935089 13656 net.cpp:380] cont_15_lstm1_cont_slice_14_split -> cont_15_lstm1_cont_slice_14_split_0
I0228 21:29:45.935096 13656 net.cpp:380] cont_15_lstm1_cont_slice_14_split -> cont_15_lstm1_cont_slice_14_split_1
I0228 21:29:45.935117 13656 net.cpp:122] Setting up cont_15_lstm1_cont_slice_14_split
I0228 21:29:45.935122 13656 net.cpp:129] Top shape: 1 13 (13)
I0228 21:29:45.935127 13656 net.cpp:129] Top shape: 1 13 (13)
I0228 21:29:45.935132 13656 net.cpp:137] Memory required for data: 4888
I0228 21:29:45.935135 13656 layer_factory.hpp:77] Creating layer cont_16_lstm1_cont_slice_15_split
I0228 21:29:45.935140 13656 net.cpp:84] Creating Layer cont_16_lstm1_cont_slice_15_split
I0228 21:29:45.935144 13656 net.cpp:406] cont_16_lstm1_cont_slice_15_split <- cont_16
I0228 21:29:45.935153 13656 net.cpp:380] cont_16_lstm1_cont_slice_15_split -> cont_16_lstm1_cont_slice_15_split_0
I0228 21:29:45.935159 13656 net.cpp:380] cont_16_lstm1_cont_slice_15_split -> cont_16_lstm1_cont_slice_15_split_1
I0228 21:29:45.935181 13656 net.cpp:122] Setting up cont_16_lstm1_cont_slice_15_split
I0228 21:29:45.935187 13656 net.cpp:129] Top shape: 1 13 (13)
I0228 21:29:45.935192 13656 net.cpp:129] Top shape: 1 13 (13)
I0228 21:29:45.935196 13656 net.cpp:137] Memory required for data: 4992
I0228 21:29:45.935200 13656 layer_factory.hpp:77] Creating layer lstm1_x_transform
I0228 21:29:45.935212 13656 net.cpp:84] Creating Layer lstm1_x_transform
I0228 21:29:45.948560 13656 net.cpp:406] lstm1_x_transform <- x
I0228 21:29:45.948591 13656 net.cpp:380] lstm1_x_transform -> W_xc_x
I0228 21:29:45.948971 13656 net.cpp:122] Setting up lstm1_x_transform
I0228 21:29:45.948982 13656 net.cpp:129] Top shape: 16 13 32 (6656)
I0228 21:29:45.948984 13656 net.cpp:137] Memory required for data: 31616
I0228 21:29:45.948998 13656 layer_factory.hpp:77] Creating layer lstm1_W_xc_x_slice
I0228 21:29:45.949007 13656 net.cpp:84] Creating Layer lstm1_W_xc_x_slice
I0228 21:29:45.949009 13656 net.cpp:406] lstm1_W_xc_x_slice <- W_xc_x
I0228 21:29:45.949015 13656 net.cpp:380] lstm1_W_xc_x_slice -> W_xc_x_1
I0228 21:29:45.949021 13656 net.cpp:380] lstm1_W_xc_x_slice -> W_xc_x_2
…
I0228 21:29:45.949060 13656 net.cpp:380] lstm1_W_xc_x_slice -> W_xc_x_10
I0228 21:29:45.949065 13656 net.cpp:380] lstm1_W_xc_x_slice -> W_xc_x_11
I0228 21:29:45.949071 13656 net.cpp:380] lstm1_W_xc_x_slice -> W_xc_x_12
I0228 21:29:45.949080 13656 net.cpp:380] lstm1_W_xc_x_slice -> W_xc_x_13
I0228 21:29:45.949085 13656 net.cpp:380] lstm1_W_xc_x_slice -> W_xc_x_14
I0228 21:29:45.949090 13656 net.cpp:380] lstm1_W_xc_x_slice -> W_xc_x_15
I0228 21:29:45.949095 13656 net.cpp:380] lstm1_W_xc_x_slice -> W_xc_x_16
I0228 21:29:45.949188 13656 net.cpp:122] Setting up lstm1_W_xc_x_slice
I0228 21:29:45.949194 13656 net.cpp:129] Top shape: 1 13 32 (416)
I0228 21:29:45.949198 13656 net.cpp:129] Top shape: 1 13 32 (416)
I0228 21:29:45.949201 13656 net.cpp:129] Top shape: 1 13 32 (416)
I0228 21:29:45.949205 13656 net.cpp:129] Top shape: 1 13 32 (416)
I0228 21:29:45.949208 13656 net.cpp:129] Top shape: 1 13 32 (416)
I0228 21:29:45.949213 13656 net.cpp:129] Top shape: 1 13 32 (416)
I0228 21:29:45.949215 13656 net.cpp:129] Top shape: 1 13 32 (416)
I0228 21:29:45.949219 13656 net.cpp:129] Top shape: 1 13 32 (416)
I0228 21:29:45.949223 13656 net.cpp:129] Top shape: 1 13 32 (416)
I0228 21:29:45.949226 13656 net.cpp:129] Top shape: 1 13 32 (416)
I0228 21:29:45.949229 13656 net.cpp:129] Top shape: 1 13 32 (416)
I0228 21:29:45.949234 13656 net.cpp:129] Top shape: 1 13 32 (416)
I0228 21:29:45.949237 13656 net.cpp:129] Top shape: 1 13 32 (416)
I0228 21:29:45.949241 13656 net.cpp:129] Top shape: 1 13 32 (416)
I0228 21:29:45.949244 13656 net.cpp:129] Top shape: 1 13 32 (416)
I0228 21:29:45.949249 13656 net.cpp:129] Top shape: 1 13 32 (416)
I0228 21:29:45.949251 13656 net.cpp:137] Memory required for data: 58240
I0228 21:29:45.949254 13656 layer_factory.hpp:77] Creating layer lstm1_h_conted_0
I0228 21:29:45.949259 13656 net.cpp:84] Creating Layer lstm1_h_conted_0
I0228 21:29:45.949264 13656 net.cpp:406] lstm1_h_conted_0 <- h_0
I0228 21:29:45.949267 13656 net.cpp:406] lstm1_h_conted_0 <- cont_1_lstm1_cont_slice_0_split_0
I0228 21:29:45.949271 13656 net.cpp:380] lstm1_h_conted_0 -> h_conted_0
I0228 21:29:45.949327 13656 net.cpp:122] Setting up lstm1_h_conted_0
I0228 21:29:45.949333 13656 net.cpp:129] Top shape: 1 13 8 (104)
I0228 21:29:45.949345 13656 net.cpp:137] Memory required for data: 58656
I0228 21:29:45.949349 13656 layer_factory.hpp:77] Creating layer lstm1_transform_1
I0228 21:29:45.949373 13656 net.cpp:84] Creating Layer lstm1_transform_1
I0228 21:29:45.949378 13656 net.cpp:406] lstm1_transform_1 <- h_conted_0
I0228 21:29:45.949388 13656 net.cpp:380] lstm1_transform_1 -> W_hc_h_0
I0228 21:29:45.949431 13656 net.cpp:122] Setting up lstm1_transform_1
I0228 21:29:45.949440 13656 net.cpp:129] Top shape: 1 13 32 (416)
I0228 21:29:45.949446 13656 net.cpp:137] Memory required for data: 60320
I0228 21:29:45.949455 13656 layer_factory.hpp:77] Creating layer lstm1_gate_input_1
I0228 21:29:45.949465 13656 net.cpp:84] Creating Layer lstm1_gate_input_1
I0228 21:29:45.949483 13656 net.cpp:406] lstm1_gate_input_1 <- W_hc_h_0
I0228 21:29:45.949487 13656 net.cpp:406] lstm1_gate_input_1 <- W_xc_x_1
I0228 21:29:45.949508 13656 net.cpp:380] lstm1_gate_input_1 -> gate_input_1
I0228 21:29:45.949530 13656 net.cpp:122] Setting up lstm1_gate_input_1
I0228 21:29:45.949537 13656 net.cpp:129] Top shape: 1 13 32 (416)
I0228 21:29:45.949540 13656 net.cpp:137] Memory required for data: 61984
I0228 21:29:45.949544 13656 layer_factory.hpp:77] Creating layer lstm1_unit_1
I0228 21:29:45.949551 13656 net.cpp:84] Creating Layer lstm1_unit_1
I0228 21:29:45.949556 13656 net.cpp:406] lstm1_unit_1 <- c_0
I0228 21:29:45.949561 13656 net.cpp:406] lstm1_unit_1 <- gate_input_1
I0228 21:29:45.949565 13656 net.cpp:406] lstm1_unit_1 <- cont_1_lstm1_cont_slice_0_split_1
I0228 21:29:45.949571 13656 net.cpp:380] lstm1_unit_1 -> c_1
I0228 21:29:45.949576 13656 net.cpp:380] lstm1_unit_1 -> h_1
I0228 21:29:45.949604 13656 net.cpp:122] Setting up lstm1_unit_1
I0228 21:29:45.949610 13656 net.cpp:129] Top shape: 1 13 8 (104)
I0228 21:29:45.949615 13656 net.cpp:129] Top shape: 1 13 8 (104)
I0228 21:29:45.949617 13656 net.cpp:137] Memory required for data: 62816
I0228 21:29:45.949620 13656 layer_factory.hpp:77] Creating layer h_1_lstm1_unit_1_1_split
I0228 21:29:45.949625 13656 net.cpp:84] Creating Layer h_1_lstm1_unit_1_1_split
I0228 21:29:45.949628 13656 net.cpp:406] h_1_lstm1_unit_1_1_split <- h_1
I0228 21:29:45.949633 13656 net.cpp:380] h_1_lstm1_unit_1_1_split -> h_1_lstm1_unit_1_1_split_0
I0228 21:29:45.949640 13656 net.cpp:380] h_1_lstm1_unit_1_1_split -> h_1_lstm1_unit_1_1_split_1
I0228 21:29:45.949661 13656 net.cpp:122] Setting up h_1_lstm1_unit_1_1_split
I0228 21:29:45.949666 13656 net.cpp:129] Top shape: 1 13 8 (104)
I0228 21:29:45.949669 13656 net.cpp:129] Top shape: 1 13 8 (104)
I0228 21:29:45.949672 13656 net.cpp:137] Memory required for data: 63648
I0228 21:29:45.949676 13656 layer_factory.hpp:77] Creating layer lstm1_h_conted_1
I0228 21:29:45.949679 13656 net.cpp:84] Creating Layer lstm1_h_conted_1
I0228 21:29:45.949682 13656 net.cpp:406] lstm1_h_conted_1 <- h_1_lstm1_unit_1_1_split_0
I0228 21:29:45.949687 13656 net.cpp:406] lstm1_h_conted_1 <- cont_2_lstm1_cont_slice_1_split_0
I0228 21:29:45.949692 13656 net.cpp:380] lstm1_h_conted_1 -> h_conted_1
I0228 21:29:45.949728 13656 net.cpp:122] Setting up lstm1_h_conted_1
I0228 21:29:45.949734 13656 net.cpp:129] Top shape: 1 13 8 (104)
I0228 21:29:45.949738 13656 net.cpp:137] Memory required for data: 64064
I0228 21:29:45.949743 13656 layer_factory.hpp:77] Creating layer lstm1_transform_2
I0228 21:29:45.949749 13656 net.cpp:84] Creating Layer lstm1_transform_2
I0228 21:29:45.949754 13656 net.cpp:406] lstm1_transform_2 <- h_conted_1
I0228 21:29:45.949760 13656 net.cpp:380] lstm1_transform_2 -> W_hc_h_1
I0228 21:29:45.949792 13656 net.cpp:122] Setting up lstm1_transform_2
I0228 21:29:45.949800 13656 net.cpp:129] Top shape: 1 13 32 (416)
I0228 21:29:45.949803 13656 net.cpp:137] Memory required for data: 65728
I0228 21:29:45.949807 13656 net.cpp:465] Sharing parameters 'W_hc' owned by layer 'lstm1_transform_1', param index 0
I0228 21:29:45.949812 13656 layer_factory.hpp:77] Creating layer lstm1_gate_input_2
I0228 21:29:45.949818 13656 net.cpp:84] Creating Layer lstm1_gate_input_2
I0228 21:29:45.949822 13656 net.cpp:406] lstm1_gate_input_2 <- W_hc_h_1
I0228 21:29:45.949836 13656 net.cpp:406] lstm1_gate_input_2 <- W_xc_x_2
I0228 21:29:45.949842 13656 net.cpp:380] lstm1_gate_input_2 -> gate_input_2
I0228 21:29:45.949861 13656 net.cpp:122] Setting up lstm1_gate_input_2
I0228 21:29:45.949867 13656 net.cpp:129] Top shape: 1 13 32 (416)
I0228 21:29:45.949872 13656 net.cpp:137] Memory required for data: 67392
I0228 21:29:45.949875 13656 layer_factory.hpp:77] Creating layer lstm1_unit_2
I0228 21:29:45.949880 13656 net.cpp:84] Creating Layer lstm1_unit_2
I0228 21:29:45.949884 13656 net.cpp:406] lstm1_unit_2 <- c_1
I0228 21:29:45.949889 13656 net.cpp:406] lstm1_unit_2 <- gate_input_2
I0228 21:29:45.949894 13656 net.cpp:406] lstm1_unit_2 <- cont_2_lstm1_cont_slice_1_split_1
I0228 21:29:45.949900 13656 net.cpp:380] lstm1_unit_2 -> c_2
I0228 21:29:45.949906 13656 net.cpp:380] lstm1_unit_2 -> h_2
I0228 21:29:45.949935 13656 net.cpp:122] Setting up lstm1_unit_2
I0228 21:29:45.949942 13656 net.cpp:129] Top shape: 1 13 8 (104)
I0228 21:29:45.949949 13656 net.cpp:129] Top shape: 1 13 8 (104)
I0228 21:29:45.951412 13656 net.cpp:137] Memory required for data: 68224
I0228 21:29:45.951438 13656 layer_factory.hpp:77] Creating layer h_2_lstm1_unit_2_1_split
I0228 21:29:45.951443 13656 net.cpp:84] Creating Layer h_2_lstm1_unit_2_1_split
I0228 21:29:45.951447 13656 net.cpp:406] h_2_lstm1_unit_2_1_split <- h_2
I0228 21:29:45.951452 13656 net.cpp:380] h_2_lstm1_unit_2_1_split -> h_2_lstm1_unit_2_1_split_0
I0228 21:29:45.951457 13656 net.cpp:380] h_2_lstm1_unit_2_1_split -> h_2_lstm1_unit_2_1_split_1
I0228 21:29:45.951483 13656 net.cpp:122] Setting up h_2_lstm1_unit_2_1_split
I0228 21:29:45.951490 13656 net.cpp:129] Top shape: 1 13 8 (104)
I0228 21:29:45.951494 13656 net.cpp:129] Top shape: 1 13 8 (104)
I0228 21:29:45.951498 13656 net.cpp:137] Memory required for data: 69056
I0228 21:29:45.951500 13656 layer_factory.hpp:77] Creating layer lstm1_h_conted_2
I0228 21:29:45.951505 13656 net.cpp:84] Creating Layer lstm1_h_conted_2
I0228 21:29:45.951510 13656 net.cpp:406] lstm1_h_conted_2 <- h_2_lstm1_unit_2_1_split_0
I0228 21:29:45.951515 13656 net.cpp:406] lstm1_h_conted_2 <- cont_3_lstm1_cont_slice_2_split_0
I0228 21:29:45.951519 13656 net.cpp:380] lstm1_h_conted_2 -> h_conted_2
I0228 21:29:45.951553 13656 net.cpp:122] Setting up lstm1_h_conted_2
I0228 21:29:45.951558 13656 net.cpp:129] Top shape: 1 13 8 (104)
I0228 21:29:45.951561 13656 net.cpp:137] Memory required for data: 69472
I0228 21:29:45.951565 13656 layer_factory.hpp:77] Creating layer lstm1_transform_3
I0228 21:29:45.951575 13656 net.cpp:84] Creating Layer lstm1_transform_3
I0228 21:29:45.951578 13656 net.cpp:406] lstm1_transform_3 <- h_conted_2
I0228 21:29:45.951583 13656 net.cpp:380] lstm1_transform_3 -> W_hc_h_2
I0228 21:29:45.951613 13656 net.cpp:122] Setting up lstm1_transform_3
I0228 21:29:45.951618 13656 net.cpp:129] Top shape: 1 13 32 (416)
I0228 21:29:45.951622 13656 net.cpp:137] Memory required for data: 71136
I0228 21:29:45.951627 13656 net.cpp:465] Sharing parameters 'W_hc' owned by layer 'lstm1_transform_1', param index 0
I0228 21:29:45.951630 13656 layer_factory.hpp:77] Creating layer lstm1_gate_input_3
I0228 21:29:45.951635 13656 net.cpp:84] Creating Layer lstm1_gate_input_3
I0228 21:29:45.951638 13656 net.cpp:406] lstm1_gate_input_3 <- W_hc_h_2
I0228 21:29:45.951642 13656 net.cpp:406] lstm1_gate_input_3 <- W_xc_x_3
I0228 21:29:45.951647 13656 net.cpp:380] lstm1_gate_input_3 -> gate_input_3
I0228 21:29:45.951661 13656 net.cpp:122] Setting up lstm1_gate_input_3
I0228 21:29:45.951668 13656 net.cpp:129] Top shape: 1 13 32 (416)
I0228 21:29:45.951670 13656 net.cpp:137] Memory required for data: 72800
I0228 21:29:45.951673 13656 layer_factory.hpp:77] Creating layer lstm1_unit_3
I0228 21:29:45.951678 13656 net.cpp:84] Creating Layer lstm1_unit_3
I0228 21:29:45.951681 13656 net.cpp:406] lstm1_unit_3 <- c_2
I0228 21:29:45.951685 13656 net.cpp:406] lstm1_unit_3 <- gate_input_3
I0228 21:29:45.951689 13656 net.cpp:406] lstm1_unit_3 <- cont_3_lstm1_cont_slice_2_split_1
I0228 21:29:45.951694 13656 net.cpp:380] lstm1_unit_3 -> c_3
I0228 21:29:45.951704 13656 net.cpp:380] lstm1_unit_3 -> h_3
I0228 21:29:45.951730 13656 net.cpp:122] Setting up lstm1_unit_3
I0228 21:29:45.951735 13656 net.cpp:129] Top shape: 1 13 8 (104)
I0228 21:29:45.951740 13656 net.cpp:129] Top shape: 1 13 8 (104)
I0228 21:29:45.951742 13656 net.cpp:137] Memory required for data: 73632
I0228 21:29:45.951745 13656 layer_factory.hpp:77] Creating layer h_3_lstm1_unit_3_1_split
I0228 21:29:45.951750 13656 net.cpp:84] Creating Layer h_3_lstm1_unit_3_1_split
I0228 21:29:45.951753 13656 net.cpp:406] h_3_lstm1_unit_3_1_split <- h_3
I0228 21:29:45.951756 13656 net.cpp:380] h_3_lstm1_unit_3_1_split -> h_3_lstm1_unit_3_1_split_0
I0228 21:29:45.951761 13656 net.cpp:380] h_3_lstm1_unit_3_1_split -> h_3_lstm1_unit_3_1_split_1
I0228 21:29:45.951779 13656 net.cpp:122] Setting up h_3_lstm1_unit_3_1_split
I0228 21:29:45.951784 13656 net.cpp:129] Top shape: 1 13 8 (104)
I0228 21:29:45.951788 13656 net.cpp:129] Top shape: 1 13 8 (104)
I0228 21:29:45.951792 13656 net.cpp:137] Memory required for data: 74464
I0228 21:29:45.951794 13656 layer_factory.hpp:77] Creating layer lstm1_h_conted_3
I0228 21:29:45.951798 13656 net.cpp:84] Creating Layer lstm1_h_conted_3
I0228 21:29:45.951802 13656 net.cpp:406] lstm1_h_conted_3 <- h_3_lstm1_unit_3_1_split_0
I0228 21:29:45.951807 13656 net.cpp:406] lstm1_h_conted_3 <- cont_4_lstm1_cont_slice_3_split_0
I0228 21:29:45.951810 13656 net.cpp:380] lstm1_h_conted_3 -> h_conted_3
I0228 21:29:45.951840 13656 net.cpp:122] Setting up lstm1_h_conted_3
I0228 21:29:45.951845 13656 net.cpp:129] Top shape: 1 13 8 (104)
I0228 21:29:45.951848 13656 net.cpp:137] Memory required for data: 74880
I0228 21:29:45.951851 13656 layer_factory.hpp:77] Creating layer lstm1_transform_4
I0228 21:29:45.951855 13656 net.cpp:84] Creating Layer lstm1_transform_4
I0228 21:29:45.951859 13656 net.cpp:406] lstm1_transform_4 <- h_conted_3
I0228 21:29:45.951864 13656 net.cpp:380] lstm1_transform_4 -> W_hc_h_3
I0228 21:29:45.951891 13656 net.cpp:122] Setting up lstm1_transform_4
I0228 21:29:45.951897 13656 net.cpp:129] Top shape: 1 13 32 (416)
I0228 21:29:45.951900 13656 net.cpp:137] Memory required for data: 76544
I0228 21:29:45.951905 13656 net.cpp:465] Sharing parameters 'W_hc' owned by layer 'lstm1_transform_1', param index 0
I0228 21:29:45.951907 13656 layer_factory.hpp:77] Creating layer lstm1_gate_input_4
I0228 21:29:45.951911 13656 net.cpp:84] Creating Layer lstm1_gate_input_4
I0228 21:29:45.951915 13656 net.cpp:406] lstm1_gate_input_4 <- W_hc_h_3
I0228 21:29:45.951920 13656 net.cpp:406] lstm1_gate_input_4 <- W_xc_x_4
I0228 21:29:45.951923 13656 net.cpp:380] lstm1_gate_input_4 -> gate_input_4
I0228 21:29:45.951937 13656 net.cpp:122] Setting up lstm1_gate_input_4
I0228 21:29:45.951942 13656 net.cpp:129] Top shape: 1 13 32 (416)
I0228 21:29:45.951946 13656 net.cpp:137] Memory required for data: 78208
I0228 21:29:45.951948 13656 layer_factory.hpp:77] Creating layer lstm1_unit_4
I0228 21:29:45.951952 13656 net.cpp:84] Creating Layer lstm1_unit_4
I0228 21:29:45.951956 13656 net.cpp:406] lstm1_unit_4 <- c_3
I0228 21:29:45.951959 13656 net.cpp:406] lstm1_unit_4 <- gate_input_4
I0228 21:29:45.951963 13656 net.cpp:406] lstm1_unit_4 <- cont_4_lstm1_cont_slice_3_split_1
I0228 21:29:45.951967 13656 net.cpp:380] lstm1_unit_4 -> c_4
I0228 21:29:45.951972 13656 net.cpp:380] lstm1_unit_4 -> h_4
I0228 21:29:45.951995 13656 net.cpp:122] Setting up lstm1_unit_4
I0228 21:29:45.952000 13656 net.cpp:129] Top shape: 1 13 8 (104)
I0228 21:29:45.952004 13656 net.cpp:129] Top shape: 1 13 8 (104)
I0228 21:29:45.952008 13656 net.cpp:137] Memory required for data: 79040
I0228 21:29:45.952010 13656 layer_factory.hpp:77] Creating layer h_4_lstm1_unit_4_1_split
I0228 21:29:45.952015 13656 net.cpp:84] Creating Layer h_4_lstm1_unit_4_1_split
I0228 21:29:45.952018 13656 net.cpp:406] h_4_lstm1_unit_4_1_split <- h_4
I0228 21:29:45.952023 13656 net.cpp:380] h_4_lstm1_unit_4_1_split -> h_4_lstm1_unit_4_1_split_0
I0228 21:29:45.952028 13656 net.cpp:380] h_4_lstm1_unit_4_1_split -> h_4_lstm1_unit_4_1_split_1
I0228 21:29:45.952050 13656 net.cpp:122] Setting up h_4_lstm1_unit_4_1_split
I0228 21:29:45.952055 13656 net.cpp:129] Top shape: 1 13 8 (104)
I0228 21:29:45.952059 13656 net.cpp:129] Top shape: 1 13 8 (104)
I0228 21:29:45.952065 13656 net.cpp:137] Memory required for data: 79872
I0228 21:29:45.952069 13656 layer_factory.hpp:77] Creating layer lstm1_h_conted_4
I0228 21:29:45.952075 13656 net.cpp:84] Creating Layer lstm1_h_conted_4
I0228 21:29:45.952077 13656 net.cpp:406] lstm1_h_conted_4 <- h_4_lstm1_unit_4_1_split_0
I0228 21:29:45.952081 13656 net.cpp:406] lstm1_h_conted_4 <- cont_5_lstm1_cont_slice_4_split_0
I0228 21:29:45.952085 13656 net.cpp:380] lstm1_h_conted_4 -> h_conted_4
I0228 21:29:45.952116 13656 net.cpp:122] Setting up lstm1_h_conted_4
I0228 21:29:45.952121 13656 net.cpp:129] Top shape: 1 13 8 (104)
I0228 21:29:45.952124 13656 net.cpp:137] Memory required for data: 80288
I0228 21:29:45.981766 13656 layer_factory.hpp:77] Creating layer lstm1_transform_5
I0228 21:29:45.981798 13656 net.cpp:84] Creating Layer lstm1_transform_5
I0228 21:29:45.981803 13656 net.cpp:406] lstm1_transform_5 <- h_conted_4
I0228 21:29:45.981811 13656 net.cpp:380] lstm1_transform_5 -> W_hc_h_4
I0228 21:29:45.981879 13656 net.cpp:122] Setting up lstm1_transform_5
I0228 21:29:45.981889 13656 net.cpp:129] Top shape: 1 13 32 (416)
I0228 21:29:45.981892 13656 net.cpp:137] Memory required for data: 81952
I0228 21:29:45.981896 13656 net.cpp:465] Sharing parameters 'W_hc' owned by layer 'lstm1_transform_1', param index 0
I0228 21:29:45.981916 13656 layer_factory.hpp:77] Creating layer lstm1_gate_input_5
I0228 21:29:45.981927 13656 net.cpp:84] Creating Layer lstm1_gate_input_5
I0228 21:29:45.981931 13656 net.cpp:406] lstm1_gate_input_5 <- W_hc_h_4
I0228 21:29:45.981948 13656 net.cpp:406] lstm1_gate_input_5 <- W_xc_x_5
I0228 21:29:45.981953 13656 net.cpp:380] lstm1_gate_input_5 -> gate_input_5
I0228 21:29:45.981971 13656 net.cpp:122] Setting up lstm1_gate_input_5
I0228 21:29:45.981976 13656 net.cpp:129] Top shape: 1 13 32 (416)
I0228 21:29:45.981978 13656 net.cpp:137] Memory required for data: 83616
I0228 21:29:45.981981 13656 layer_factory.hpp:77] Creating layer lstm1_unit_5
I0228 21:29:45.981986 13656 net.cpp:84] Creating Layer lstm1_unit_5
I0228 21:29:45.981990 13656 net.cpp:406] lstm1_unit_5 <- c_4
I0228 21:29:45.981994 13656 net.cpp:406] lstm1_unit_5 <- gate_input_5
I0228 21:29:45.981999 13656 net.cpp:406] lstm1_unit_5 <- cont_5_lstm1_cont_slice_4_split_1
I0228 21:29:45.982004 13656 net.cpp:380] lstm1_unit_5 -> c_5
I0228 21:29:45.982009 13656 net.cpp:380] lstm1_unit_5 -> h_5
I0228 21:29:45.982034 13656 net.cpp:122] Setting up lstm1_unit_5
I0228 21:29:45.982039 13656 net.cpp:129] Top shape: 1 13 8 (104)
I0228 21:29:45.982043 13656 net.cpp:129] Top shape: 1 13 8 (104)
I0228 21:29:45.982046 13656 net.cpp:137] Memory required for data: 84448
I0228 21:29:45.982049 13656 layer_factory.hpp:77] Creating layer h_5_lstm1_unit_5_1_split
I0228 21:29:45.982053 13656 net.cpp:84] Creating Layer h_5_lstm1_unit_5_1_split
I0228 21:29:45.982056 13656 net.cpp:406] h_5_lstm1_unit_5_1_split <- h_5
I0228 21:29:45.982060 13656 net.cpp:380] h_5_lstm1_unit_5_1_split -> h_5_lstm1_unit_5_1_split_0
I0228 21:29:45.982064 13656 net.cpp:380] h_5_lstm1_unit_5_1_split -> h_5_lstm1_unit_5_1_split_1
I0228 21:29:45.982084 13656 net.cpp:122] Setting up h_5_lstm1_unit_5_1_split
I0228 21:29:45.982089 13656 net.cpp:129] Top shape: 1 13 8 (104)
I0228 21:29:45.982091 13656 net.cpp:129] Top shape: 1 13 8 (104)
I0228 21:29:45.982095 13656 net.cpp:137] Memory required for data: 85280
I0228 21:29:45.982097 13656 layer_factory.hpp:77] Creating layer lstm1_h_conted_5
I0228 21:29:45.982103 13656 net.cpp:84] Creating Layer lstm1_h_conted_5
I0228 21:29:45.982106 13656 net.cpp:406] lstm1_h_conted_5 <- h_5_lstm1_unit_5_1_split_0
I0228 21:29:45.982110 13656 net.cpp:406] lstm1_h_conted_5 <- cont_6_lstm1_cont_slice_5_split_0
I0228 21:29:45.982115 13656 net.cpp:380] lstm1_h_conted_5 -> h_conted_5
I0228 21:29:45.982151 13656 net.cpp:122] Setting up lstm1_h_conted_5
I0228 21:29:45.982156 13656 net.cpp:129] Top shape: 1 13 8 (104)
I0228 21:29:45.982170 13656 net.cpp:137] Memory required for data: 85696
I0228 21:29:45.982173 13656 layer_factory.hpp:77] Creating layer lstm1_transform_6
I0228 21:29:45.982179 13656 net.cpp:84] Creating Layer lstm1_transform_6
I0228 21:29:45.982182 13656 net.cpp:406] lstm1_transform_6 <- h_conted_5
I0228 21:29:45.982187 13656 net.cpp:380] lstm1_transform_6 -> W_hc_h_5
I0228 21:29:45.982214 13656 net.cpp:122] Setting up lstm1_transform_6
I0228 21:29:45.982219 13656 net.cpp:129] Top shape: 1 13 32 (416)
I0228 21:29:45.982223 13656 net.cpp:137] Memory required for data: 87360
I0228 21:29:45.982226 13656 net.cpp:465] Sharing parameters 'W_hc' owned by layer 'lstm1_transform_1', param index 0
I0228 21:29:45.982229 13656 layer_factory.hpp:77] Creating layer lstm1_gate_input_6
I0228 21:29:45.982234 13656 net.cpp:84] Creating Layer lstm1_gate_input_6
I0228 21:29:45.982237 13656 net.cpp:406] lstm1_gate_input_6 <- W_hc_h_5
I0228 21:29:45.982240 13656 net.cpp:406] lstm1_gate_input_6 <- W_xc_x_6
I0228 21:29:45.982246 13656 net.cpp:380] lstm1_gate_input_6 -> gate_input_6
I0228 21:29:45.982277 13656 net.cpp:122] Setting up lstm1_gate_input_6
I0228 21:29:45.982282 13656 net.cpp:129] Top shape: 1 13 32 (416)
I0228 21:29:45.982286 13656 net.cpp:137] Memory required for data: 89024
I0228 21:29:45.982290 13656 layer_factory.hpp:77] Creating layer lstm1_unit_6
I0228 21:29:45.982296 13656 net.cpp:84] Creating Layer lstm1_unit_6
I0228 21:29:45.982300 13656 net.cpp:406] lstm1_unit_6 <- c_5
I0228 21:29:45.982306 13656 net.cpp:406] lstm1_unit_6 <- gate_input_6
I0228 21:29:45.982309 13656 net.cpp:406] lstm1_unit_6 <- cont_6_lstm1_cont_slice_5_split_1
I0228 21:29:45.982316 13656 net.cpp:380] lstm1_unit_6 -> c_6
I0228 21:29:45.982326 13656 net.cpp:380] lstm1_unit_6 -> h_6
I0228 21:29:45.982363 13656 net.cpp:122] Setting up lstm1_unit_6
I0228 21:29:45.982372 13656 net.cpp:129] Top shape: 1 13 8 (104)
I0228 21:29:45.982378 13656 net.cpp:129] Top shape: 1 13 8 (104)
I0228 21:29:45.982381 13656 net.cpp:137] Memory required for data: 89856
I0228 21:29:45.982385 13656 layer_factory.hpp:77] Creating layer h_6_lstm1_unit_6_1_split
I0228 21:29:45.982390 13656 net.cpp:84] Creating Layer h_6_lstm1_unit_6_1_split
I0228 21:29:45.982394 13656 net.cpp:406] h_6_lstm1_unit_6_1_split <- h_6
I0228 21:29:45.982399 13656 net.cpp:380] h_6_lstm1_unit_6_1_split -> h_6_lstm1_unit_6_1_split_0
I0228 21:29:45.982405 13656 net.cpp:380] h_6_lstm1_unit_6_1_split -> h_6_lstm1_unit_6_1_split_1
I0228 21:29:45.982425 13656 net.cpp:122] Setting up h_6_lstm1_unit_6_1_split
I0228 21:29:45.982431 13656 net.cpp:129] Top shape: 1 13 8 (104)
I0228 21:29:45.982450 13656 net.cpp:129] Top shape: 1 13 8 (104)
I0228 21:29:45.982452 13656 net.cpp:137] Memory required for data: 90688
I0228 21:29:45.982456 13656 layer_factory.hpp:77] Creating layer lstm1_h_conted_6
I0228 21:29:45.982461 13656 net.cpp:84] Creating Layer lstm1_h_conted_6
I0228 21:29:45.982465 13656 net.cpp:406] lstm1_h_conted_6 <- h_6_lstm1_unit_6_1_split_0
I0228 21:29:45.982470 13656 net.cpp:406] lstm1_h_conted_6 <- cont_7_lstm1_cont_slice_6_split_0
I0228 21:29:45.982491 13656 net.cpp:380] lstm1_h_conted_6 -> h_conted_6
I0228 21:29:45.982524 13656 net.cpp:122] Setting up lstm1_h_conted_6
I0228 21:29:45.982532 13656 net.cpp:129] Top shape: 1 13 8 (104)
I0228 21:29:45.982534 13656 net.cpp:137] Memory required for data: 91104
I0228 21:29:45.982538 13656 layer_factory.hpp:77] Creating layer lstm1_transform_7
I0228 21:29:45.982545 13656 net.cpp:84] Creating Layer lstm1_transform_7
I0228 21:29:45.982549 13656 net.cpp:406] lstm1_transform_7 <- h_conted_6
I0228 21:29:45.982554 13656 net.cpp:380] lstm1_transform_7 -> W_hc_h_6
I0228 21:29:45.982583 13656 net.cpp:122] Setting up lstm1_transform_7
I0228 21:29:45.982589 13656 net.cpp:129] Top shape: 1 13 32 (416)
I0228 21:29:45.982594 13656 net.cpp:137] Memory required for data: 92768
I0228 21:29:45.982602 13656 net.cpp:465] Sharing parameters 'W_hc' owned by layer 'lstm1_transform_1', param index 0
I0228 21:29:45.982607 13656 layer_factory.hpp:77] Creating layer lstm1_gate_input_7
I0228 21:29:45.982617 13656 net.cpp:84] Creating Layer lstm1_gate_input_7
I0228 21:29:45.982622 13656 net.cpp:406] lstm1_gate_input_7 <- W_hc_h_6
I0228 21:29:45.982627 13656 net.cpp:406] lstm1_gate_input_7 <- W_xc_x_7
I0228 21:29:45.982632 13656 net.cpp:380] lstm1_gate_input_7 -> gate_input_7
I0228 21:29:45.982650 13656 net.cpp:122] Setting up lstm1_gate_input_7
I0228 21:29:45.982656 13656 net.cpp:129] Top shape: 1 13 32 (416)
I0228 21:29:45.982659 13656 net.cpp:137] Memory required for data: 94432
I0228 21:29:45.982663 13656 layer_factory.hpp:77] Creating layer lstm1_unit_7
I0228 21:29:45.982668 13656 net.cpp:84] Creating Layer lstm1_unit_7
I0228 21:29:45.982672 13656 net.cpp:406] lstm1_unit_7 <- c_6
I0228 21:29:45.985003 13656 net.cpp:406] lstm1_unit_7 <- gate_input_7
I0228 21:29:45.985028 13656 net.cpp:406] lstm1_unit_7 <- cont_7_lstm1_cont_slice_6_split_1
I0228 21:29:45.985034 13656 net.cpp:380] lstm1_unit_7 -> c_7
I0228 21:29:45.985041 13656 net.cpp:380] lstm1_unit_7 -> h_7
I0228 21:29:45.985082 13656 net.cpp:122] Setting up lstm1_unit_7
I0228 21:29:45.985090 13656 net.cpp:129] Top shape: 1 13 8 (104)
I0228 21:29:45.985095 13656 net.cpp:129] Top shape: 1 13 8 (104)
I0228 21:29:45.985098 13656 net.cpp:137] Memory required for data: 95264
I0228 21:29:45.985101 13656 layer_factory.hpp:77] Creating layer h_7_lstm1_unit_7_1_split
I0228 21:29:45.985105 13656 net.cpp:84] Creating Layer h_7_lstm1_unit_7_1_split
I0228 21:29:45.985110 13656 net.cpp:406] h_7_lstm1_unit_7_1_split <- h_7
I0228 21:29:45.985113 13656 net.cpp:380] h_7_lstm1_unit_7_1_split -> h_7_lstm1_unit_7_1_split_0
I0228 21:29:45.985118 13656 net.cpp:380] h_7_lstm1_unit_7_1_split -> h_7_lstm1_unit_7_1_split_1
I0228 21:29:45.985137 13656 net.cpp:122] Setting up h_7_lstm1_unit_7_1_split
I0228 21:29:45.985142 13656 net.cpp:129] Top shape: 1 13 8 (104)
I0228 21:29:45.985146 13656 net.cpp:129] Top shape: 1 13 8 (104)
I0228 21:29:45.985148 13656 net.cpp:137] Memory required for data: 96096
I0228 21:29:45.985152 13656 layer_factory.hpp:77] Creating layer lstm1_h_conted_7
I0228 21:29:45.985157 13656 net.cpp:84] Creating Layer lstm1_h_conted_7
I0228 21:29:45.985159 13656 net.cpp:406] lstm1_h_conted_7 <- h_7_lstm1_unit_7_1_split_0
I0228 21:29:45.985163 13656 net.cpp:406] lstm1_h_conted_7 <- cont_8_lstm1_cont_slice_7_split_0
I0228 21:29:45.985168 13656 net.cpp:380] lstm1_h_conted_7 -> h_conted_7
I0228 21:29:45.985203 13656 net.cpp:122] Setting up lstm1_h_conted_7
I0228 21:29:45.985208 13656 net.cpp:129] Top shape: 1 13 8 (104)
I0228 21:29:45.985211 13656 net.cpp:137] Memory required for data: 96512
I0228 21:29:45.985214 13656 layer_factory.hpp:77] Creating layer lstm1_transform_8
I0228 21:29:45.985219 13656 net.cpp:84] Creating Layer lstm1_transform_8
I0228 21:29:45.985224 13656 net.cpp:406] lstm1_transform_8 <- h_conted_7
I0228 21:29:45.985229 13656 net.cpp:380] lstm1_transform_8 -> W_hc_h_7
I0228 21:29:45.985260 13656 net.cpp:122] Setting up lstm1_transform_8
I0228 21:29:45.985266 13656 net.cpp:129] Top shape: 1 13 32 (416)
I0228 21:29:45.985271 13656 net.cpp:137] Memory required for data: 98176
I0228 21:29:45.985275 13656 net.cpp:465] Sharing parameters 'W_hc' owned by layer 'lstm1_transform_1', param index 0
I0228 21:29:45.985280 13656 layer_factory.hpp:77] Creating layer lstm1_gate_input_8
I0228 21:29:45.985285 13656 net.cpp:84] Creating Layer lstm1_gate_input_8
I0228 21:29:45.985289 13656 net.cpp:406] lstm1_gate_input_8 <- W_hc_h_7
I0228 21:29:45.985294 13656 net.cpp:406] lstm1_gate_input_8 <- W_xc_x_8
I0228 21:29:45.985301 13656 net.cpp:380] lstm1_gate_input_8 -> gate_input_8
I0228 21:29:45.985324 13656 net.cpp:122] Setting up lstm1_gate_input_8
I0228 21:29:45.985332 13656 net.cpp:129] Top shape: 1 13 32 (416)
I0228 21:29:45.985337 13656 net.cpp:137] Memory required for data: 99840
I0228 21:29:45.985342 13656 layer_factory.hpp:77] Creating layer lstm1_unit_8
I0228 21:29:45.985348 13656 net.cpp:84] Creating Layer lstm1_unit_8
I0228 21:29:45.985368 13656 net.cpp:406] lstm1_unit_8 <- c_7
I0228 21:29:45.985375 13656 net.cpp:406] lstm1_unit_8 <- gate_input_8
I0228 21:29:45.985388 13656 net.cpp:406] lstm1_unit_8 <- cont_8_lstm1_cont_slice_7_split_1
I0228 21:29:45.985394 13656 net.cpp:380] lstm1_unit_8 -> c_8
I0228 21:29:45.985400 13656 net.cpp:380] lstm1_unit_8 -> h_8
I0228 21:29:45.985427 13656 net.cpp:122] Setting up lstm1_unit_8
I0228 21:29:45.985435 13656 net.cpp:129] Top shape: 1 13 8 (104)
I0228 21:29:45.985440 13656 net.cpp:129] Top shape: 1 13 8 (104)
I0228 21:29:45.985442 13656 net.cpp:137] Memory required for data: 100672
I0228 21:29:45.985446 13656 layer_factory.hpp:77] Creating layer h_8_lstm1_unit_8_1_split
I0228 21:29:45.985452 13656 net.cpp:84] Creating Layer h_8_lstm1_unit_8_1_split
I0228 21:29:45.985456 13656 net.cpp:406] h_8_lstm1_unit_8_1_split <- h_8
I0228 21:29:45.985461 13656 net.cpp:380] h_8_lstm1_unit_8_1_split -> h_8_lstm1_unit_8_1_split_0
I0228 21:29:45.985466 13656 net.cpp:380] h_8_lstm1_unit_8_1_split -> h_8_lstm1_unit_8_1_split_1
I0228 21:29:45.985486 13656 net.cpp:122] Setting up h_8_lstm1_unit_8_1_split
I0228 21:29:45.985491 13656 net.cpp:129] Top shape: 1 13 8 (104)
I0228 21:29:45.985496 13656 net.cpp:129] Top shape: 1 13 8 (104)
I0228 21:29:45.985500 13656 net.cpp:137] Memory required for data: 101504
I0228 21:29:45.985504 13656 layer_factory.hpp:77] Creating layer lstm1_h_conted_8
I0228 21:29:45.985510 13656 net.cpp:84] Creating Layer lstm1_h_conted_8
I0228 21:29:45.985514 13656 net.cpp:406] lstm1_h_conted_8 <- h_8_lstm1_unit_8_1_split_0
I0228 21:29:45.985519 13656 net.cpp:406] lstm1_h_conted_8 <- cont_9_lstm1_cont_slice_8_split_0
I0228 21:29:45.985524 13656 net.cpp:380] lstm1_h_conted_8 -> h_conted_8
I0228 21:29:45.985558 13656 net.cpp:122] Setting up lstm1_h_conted_8
I0228 21:29:45.985564 13656 net.cpp:129] Top shape: 1 13 8 (104)
I0228 21:29:45.985568 13656 net.cpp:137] Memory required for data: 101920
I0228 21:29:45.985571 13656 layer_factory.hpp:77] Creating layer lstm1_transform_9
I0228 21:29:45.985576 13656 net.cpp:84] Creating Layer lstm1_transform_9
I0228 21:29:45.985580 13656 net.cpp:406] lstm1_transform_9 <- h_conted_8
I0228 21:29:45.985585 13656 net.cpp:380] lstm1_transform_9 -> W_hc_h_8
I0228 21:29:45.985617 13656 net.cpp:122] Setting up lstm1_transform_9
I0228 21:29:45.985623 13656 net.cpp:129] Top shape: 1 13 32 (416)
I0228 21:29:45.985627 13656 net.cpp:137] Memory required for data: 103584
I0228 21:29:45.985631 13656 net.cpp:465] Sharing parameters 'W_hc' owned by layer 'lstm1_transform_1', param index 0
I0228 21:29:45.985635 13656 layer_factory.hpp:77] Creating layer lstm1_gate_input_9
I0228 21:29:45.985641 13656 net.cpp:84] Creating Layer lstm1_gate_input_9
I0228 21:29:45.985644 13656 net.cpp:406] lstm1_gate_input_9 <- W_hc_h_8
I0228 21:29:45.985649 13656 net.cpp:406] lstm1_gate_input_9 <- W_xc_x_9
I0228 21:29:45.985654 13656 net.cpp:380] lstm1_gate_input_9 -> gate_input_9
I0228 21:29:45.985669 13656 net.cpp:122] Setting up lstm1_gate_input_9
I0228 21:29:45.985676 13656 net.cpp:129] Top shape: 1 13 32 (416)
I0228 21:29:45.985678 13656 net.cpp:137] Memory required for data: 105248
I0228 21:29:45.985682 13656 layer_factory.hpp:77] Creating layer lstm1_unit_9
I0228 21:29:45.985695 13656 net.cpp:84] Creating Layer lstm1_unit_9
I0228 21:29:45.985702 13656 net.cpp:406] lstm1_unit_9 <- c_8
I0228 21:29:45.985705 13656 net.cpp:406] lstm1_unit_9 <- gate_input_9
I0228 21:29:45.985709 13656 net.cpp:406] lstm1_unit_9 <- cont_9_lstm1_cont_slice_8_split_1
I0228 21:29:45.985714 13656 net.cpp:380] lstm1_unit_9 -> c_9
I0228 21:29:45.985730 13656 net.cpp:380] lstm1_unit_9 -> h_9
I0228 21:29:45.985757 13656 net.cpp:122] Setting up lstm1_unit_9
I0228 21:29:45.985764 13656 net.cpp:129] Top shape: 1 13 8 (104)
I0228 21:29:45.985769 13656 net.cpp:129] Top shape: 1 13 8 (104)
I0228 21:29:45.985771 13656 net.cpp:137] Memory required for data: 106080
I0228 21:29:45.985774 13656 layer_factory.hpp:77] Creating layer h_9_lstm1_unit_9_1_split
I0228 21:29:45.985782 13656 net.cpp:84] Creating Layer h_9_lstm1_unit_9_1_split
I0228 21:29:45.985785 13656 net.cpp:406] h_9_lstm1_unit_9_1_split <- h_9
I0228 21:29:45.985790 13656 net.cpp:380] h_9_lstm1_unit_9_1_split -> h_9_lstm1_unit_9_1_split_0
I0228 21:29:45.985800 13656 net.cpp:380] h_9_lstm1_unit_9_1_split -> h_9_lstm1_unit_9_1_split_1
I0228 21:29:45.985819 13656 net.cpp:122] Setting up h_9_lstm1_unit_9_1_split
I0228 21:29:45.985826 13656 net.cpp:129] Top shape: 1 13 8 (104)
I0228 21:29:45.985829 13656 net.cpp:129] Top shape: 1 13 8 (104)
I0228 21:29:45.985832 13656 net.cpp:137] Memory required for data: 106912
I0228 21:29:45.985836 13656 layer_factory.hpp:77] Creating layer lstm1_h_conted_9
I0228 21:29:45.985839 13656 net.cpp:84] Creating Layer lstm1_h_conted_9
I0228 21:29:46.012182 13656 net.cpp:406] lstm1_h_conted_9 <- h_9_lstm1_unit_9_1_split_0
I0228 21:29:46.012212 13656 net.cpp:406] lstm1_h_conted_9 <- cont_10_lstm1_cont_slice_9_split_0
I0228 21:29:46.012236 13656 net.cpp:380] lstm1_h_conted_9 -> h_conted_9
I0228 21:29:46.012322 13656 net.cpp:122] Setting up lstm1_h_conted_9
I0228 21:29:46.012354 13656 net.cpp:129] Top shape: 1 13 8 (104)
I0228 21:29:46.012358 13656 net.cpp:137] Memory required for data: 107328
I0228 21:29:46.012362 13656 layer_factory.hpp:77] Creating layer lstm1_transform_10
I0228 21:29:46.012368 13656 net.cpp:84] Creating Layer lstm1_transform_10
I0228 21:29:46.012372 13656 net.cpp:406] lstm1_transform_10 <- h_conted_9
I0228 21:29:46.012377 13656 net.cpp:380] lstm1_transform_10 -> W_hc_h_9
I0228 21:29:46.012459 13656 net.cpp:122] Setting up lstm1_transform_10
I0228 21:29:46.012470 13656 net.cpp:129] Top shape: 1 13 32 (416)
I0228 21:29:46.012475 13656 net.cpp:137] Memory required for data: 108992
I0228 21:29:46.012480 13656 net.cpp:465] Sharing parameters 'W_hc' owned by layer 'lstm1_transform_1', param index 0
I0228 21:29:46.012482 13656 layer_factory.hpp:77] Creating layer lstm1_gate_input_10
I0228 21:29:46.012490 13656 net.cpp:84] Creating Layer lstm1_gate_input_10
I0228 21:29:46.012492 13656 net.cpp:406] lstm1_gate_input_10 <- W_hc_h_9
I0228 21:29:46.012496 13656 net.cpp:406] lstm1_gate_input_10 <- W_xc_x_10
I0228 21:29:46.012501 13656 net.cpp:380] lstm1_gate_input_10 -> gate_input_10
I0228 21:29:46.012522 13656 net.cpp:122] Setting up lstm1_gate_input_10
I0228 21:29:46.012528 13656 net.cpp:129] Top shape: 1 13 32 (416)
I0228 21:29:46.012531 13656 net.cpp:137] Memory required for data: 110656
I0228 21:29:46.012534 13656 layer_factory.hpp:77] Creating layer lstm1_unit_10
I0228 21:29:46.012540 13656 net.cpp:84] Creating Layer lstm1_unit_10
I0228 21:29:46.012544 13656 net.cpp:406] lstm1_unit_10 <- c_9
I0228 21:29:46.012548 13656 net.cpp:406] lstm1_unit_10 <- gate_input_10
I0228 21:29:46.012552 13656 net.cpp:406] lstm1_unit_10 <- cont_10_lstm1_cont_slice_9_split_1
I0228 21:29:46.012557 13656 net.cpp:380] lstm1_unit_10 -> c_10
I0228 21:29:46.012562 13656 net.cpp:380] lstm1_unit_10 -> h_10
I0228 21:29:46.012588 13656 net.cpp:122] Setting up lstm1_unit_10
I0228 21:29:46.012593 13656 net.cpp:129] Top shape: 1 13 8 (104)
I0228 21:29:46.012596 13656 net.cpp:129] Top shape: 1 13 8 (104)
I0228 21:29:46.012599 13656 net.cpp:137] Memory required for data: 111488
I0228 21:29:46.012603 13656 layer_factory.hpp:77] Creating layer h_10_lstm1_unit_10_1_split
I0228 21:29:46.012607 13656 net.cpp:84] Creating Layer h_10_lstm1_unit_10_1_split
I0228 21:29:46.012611 13656 net.cpp:406] h_10_lstm1_unit_10_1_split <- h_10
I0228 21:29:46.012616 13656 net.cpp:380] h_10_lstm1_unit_10_1_split -> h_10_lstm1_unit_10_1_split_0
I0228 21:29:46.012621 13656 net.cpp:380] h_10_lstm1_unit_10_1_split -> h_10_lstm1_unit_10_1_split_1
I0228 21:29:46.012639 13656 net.cpp:122] Setting up h_10_lstm1_unit_10_1_split
I0228 21:29:46.012645 13656 net.cpp:129] Top shape: 1 13 8 (104)
I0228 21:29:46.012647 13656 net.cpp:129] Top shape: 1 13 8 (104)
I0228 21:29:46.012650 13656 net.cpp:137] Memory required for data: 112320
I0228 21:29:46.012653 13656 layer_factory.hpp:77] Creating layer lstm1_h_conted_10
I0228 21:29:46.012660 13656 net.cpp:84] Creating Layer lstm1_h_conted_10
I0228 21:29:46.012663 13656 net.cpp:406] lstm1_h_conted_10 <- h_10_lstm1_unit_10_1_split_0
I0228 21:29:46.012667 13656 net.cpp:406] lstm1_h_conted_10 <- cont_11_lstm1_cont_slice_10_split_0
I0228 21:29:46.012683 13656 net.cpp:380] lstm1_h_conted_10 -> h_conted_10
I0228 21:29:46.012717 13656 net.cpp:122] Setting up lstm1_h_conted_10
I0228 21:29:46.012722 13656 net.cpp:129] Top shape: 1 13 8 (104)
I0228 21:29:46.012725 13656 net.cpp:137] Memory required for data: 112736
I0228 21:29:46.012728 13656 layer_factory.hpp:77] Creating layer lstm1_transform_11
I0228 21:29:46.012733 13656 net.cpp:84] Creating Layer lstm1_transform_11
I0228 21:29:46.012737 13656 net.cpp:406] lstm1_transform_11 <- h_conted_10
I0228 21:29:46.012742 13656 net.cpp:380] lstm1_transform_11 -> W_hc_h_10
I0228 21:29:46.012768 13656 net.cpp:122] Setting up lstm1_transform_11
I0228 21:29:46.012774 13656 net.cpp:129] Top shape: 1 13 32 (416)
I0228 21:29:46.012778 13656 net.cpp:137] Memory required for data: 114400
I0228 21:29:46.012781 13656 net.cpp:465] Sharing parameters 'W_hc' owned by layer 'lstm1_transform_1', param index 0
I0228 21:29:46.012787 13656 layer_factory.hpp:77] Creating layer lstm1_gate_input_11
I0228 21:29:46.012792 13656 net.cpp:84] Creating Layer lstm1_gate_input_11
I0228 21:29:46.012796 13656 net.cpp:406] lstm1_gate_input_11 <- W_hc_h_10
I0228 21:29:46.012800 13656 net.cpp:406] lstm1_gate_input_11 <- W_xc_x_11
I0228 21:29:46.012804 13656 net.cpp:380] lstm1_gate_input_11 -> gate_input_11
I0228 21:29:46.012818 13656 net.cpp:122] Setting up lstm1_gate_input_11
I0228 21:29:46.012823 13656 net.cpp:129] Top shape: 1 13 32 (416)
I0228 21:29:46.012826 13656 net.cpp:137] Memory required for data: 116064
I0228 21:29:46.012830 13656 layer_factory.hpp:77] Creating layer lstm1_unit_11
I0228 21:29:46.012833 13656 net.cpp:84] Creating Layer lstm1_unit_11
I0228 21:29:46.012837 13656 net.cpp:406] lstm1_unit_11 <- c_10
I0228 21:29:46.012841 13656 net.cpp:406] lstm1_unit_11 <- gate_input_11
I0228 21:29:46.012845 13656 net.cpp:406] lstm1_unit_11 <- cont_11_lstm1_cont_slice_10_split_1
I0228 21:29:46.012850 13656 net.cpp:380] lstm1_unit_11 -> c_11
I0228 21:29:46.012854 13656 net.cpp:380] lstm1_unit_11 -> h_11
I0228 21:29:46.012881 13656 net.cpp:122] Setting up lstm1_unit_11
I0228 21:29:46.012887 13656 net.cpp:129] Top shape: 1 13 8 (104)
I0228 21:29:46.012892 13656 net.cpp:129] Top shape: 1 13 8 (104)
I0228 21:29:46.012894 13656 net.cpp:137] Memory required for data: 116896
I0228 21:29:46.012897 13656 layer_factory.hpp:77] Creating layer h_11_lstm1_unit_11_1_split
I0228 21:29:46.012902 13656 net.cpp:84] Creating Layer h_11_lstm1_unit_11_1_split
I0228 21:29:46.012904 13656 net.cpp:406] h_11_lstm1_unit_11_1_split <- h_11
I0228 21:29:46.012908 13656 net.cpp:380] h_11_lstm1_unit_11_1_split -> h_11_lstm1_unit_11_1_split_0
I0228 21:29:46.012913 13656 net.cpp:380] h_11_lstm1_unit_11_1_split -> h_11_lstm1_unit_11_1_split_1
I0228 21:29:46.012931 13656 net.cpp:122] Setting up h_11_lstm1_unit_11_1_split
I0228 21:29:46.012936 13656 net.cpp:129] Top shape: 1 13 8 (104)
I0228 21:29:46.012940 13656 net.cpp:129] Top shape: 1 13 8 (104)
I0228 21:29:46.012943 13656 net.cpp:137] Memory required for data: 117728
I0228 21:29:46.012946 13656 layer_factory.hpp:77] Creating layer lstm1_h_conted_11
I0228 21:29:46.012950 13656 net.cpp:84] Creating Layer lstm1_h_conted_11
I0228 21:29:46.012958 13656 net.cpp:406] lstm1_h_conted_11 <- h_11_lstm1_unit_11_1_split_0
I0228 21:29:46.012964 13656 net.cpp:406] lstm1_h_conted_11 <- cont_12_lstm1_cont_slice_11_split_0
I0228 21:29:46.012971 13656 net.cpp:380] lstm1_h_conted_11 -> h_conted_11
I0228 21:29:46.013010 13656 net.cpp:122] Setting up lstm1_h_conted_11
I0228 21:29:46.013017 13656 net.cpp:129] Top shape: 1 13 8 (104)
I0228 21:29:46.013020 13656 net.cpp:137] Memory required for data: 118144
I0228 21:29:46.013023 13656 layer_factory.hpp:77] Creating layer lstm1_transform_12
I0228 21:29:46.013029 13656 net.cpp:84] Creating Layer lstm1_transform_12
I0228 21:29:46.013033 13656 net.cpp:406] lstm1_transform_12 <- h_conted_11
I0228 21:29:46.013037 13656 net.cpp:380] lstm1_transform_12 -> W_hc_h_11
I0228 21:29:46.013065 13656 net.cpp:122] Setting up lstm1_transform_12
I0228 21:29:46.013072 13656 net.cpp:129] Top shape: 1 13 32 (416)
I0228 21:29:46.013079 13656 net.cpp:137] Memory required for data: 119808
I0228 21:29:46.013083 13656 net.cpp:465] Sharing parameters 'W_hc' owned by layer 'lstm1_transform_1', param index 0
I0228 21:29:46.013087 13656 layer_factory.hpp:77] Creating layer lstm1_gate_input_12
I0228 21:29:46.013092 13656 net.cpp:84] Creating Layer lstm1_gate_input_12
I0228 21:29:46.015496 13656 net.cpp:406] lstm1_gate_input_12 <- W_hc_h_11
I0228 21:29:46.015507 13656 net.cpp:406] lstm1_gate_input_12 <- W_xc_x_12
I0228 21:29:46.015516 13656 net.cpp:380] lstm1_gate_input_12 -> gate_input_12
I0228 21:29:46.015542 13656 net.cpp:122] Setting up lstm1_gate_input_12
I0228 21:29:46.015550 13656 net.cpp:129] Top shape: 1 13 32 (416)
I0228 21:29:46.015553 13656 net.cpp:137] Memory required for data: 121472
I0228 21:29:46.015556 13656 layer_factory.hpp:77] Creating layer lstm1_unit_12
I0228 21:29:46.015561 13656 net.cpp:84] Creating Layer lstm1_unit_12
I0228 21:29:46.015564 13656 net.cpp:406] lstm1_unit_12 <- c_11
I0228 21:29:46.015568 13656 net.cpp:406] lstm1_unit_12 <- gate_input_12
I0228 21:29:46.015573 13656 net.cpp:406] lstm1_unit_12 <- cont_12_lstm1_cont_slice_11_split_1
I0228 21:29:46.015576 13656 net.cpp:380] lstm1_unit_12 -> c_12
I0228 21:29:46.015583 13656 net.cpp:380] lstm1_unit_12 -> h_12
I0228 21:29:46.015609 13656 net.cpp:122] Setting up lstm1_unit_12
I0228 21:29:46.015614 13656 net.cpp:129] Top shape: 1 13 8 (104)
I0228 21:29:46.015617 13656 net.cpp:129] Top shape: 1 13 8 (104)
I0228 21:29:46.015620 13656 net.cpp:137] Memory required for data: 122304
I0228 21:29:46.015624 13656 layer_factory.hpp:77] Creating layer h_12_lstm1_unit_12_1_split
I0228 21:29:46.015627 13656 net.cpp:84] Creating Layer h_12_lstm1_unit_12_1_split
I0228 21:29:46.015630 13656 net.cpp:406] h_12_lstm1_unit_12_1_split <- h_12
I0228 21:29:46.015635 13656 net.cpp:380] h_12_lstm1_unit_12_1_split -> h_12_lstm1_unit_12_1_split_0
I0228 21:29:46.015640 13656 net.cpp:380] h_12_lstm1_unit_12_1_split -> h_12_lstm1_unit_12_1_split_1
I0228 21:29:46.015658 13656 net.cpp:122] Setting up h_12_lstm1_unit_12_1_split
I0228 21:29:46.015663 13656 net.cpp:129] Top shape: 1 13 8 (104)
I0228 21:29:46.015667 13656 net.cpp:129] Top shape: 1 13 8 (104)
I0228 21:29:46.015671 13656 net.cpp:137] Memory required for data: 123136
I0228 21:29:46.015673 13656 layer_factory.hpp:77] Creating layer lstm1_h_conted_12
I0228 21:29:46.015677 13656 net.cpp:84] Creating Layer lstm1_h_conted_12
I0228 21:29:46.015681 13656 net.cpp:406] lstm1_h_conted_12 <- h_12_lstm1_unit_12_1_split_0
I0228 21:29:46.015684 13656 net.cpp:406] lstm1_h_conted_12 <- cont_13_lstm1_cont_slice_12_split_0
I0228 21:29:46.015689 13656 net.cpp:380] lstm1_h_conted_12 -> h_conted_12
I0228 21:29:46.015723 13656 net.cpp:122] Setting up lstm1_h_conted_12
I0228 21:29:46.015729 13656 net.cpp:129] Top shape: 1 13 8 (104)
I0228 21:29:46.015733 13656 net.cpp:137] Memory required for data: 123552
I0228 21:29:46.015735 13656 layer_factory.hpp:77] Creating layer lstm1_transform_13
I0228 21:29:46.015740 13656 net.cpp:84] Creating Layer lstm1_transform_13
I0228 21:29:46.015743 13656 net.cpp:406] lstm1_transform_13 <- h_conted_12
I0228 21:29:46.015748 13656 net.cpp:380] lstm1_transform_13 -> W_hc_h_12
I0228 21:29:46.015781 13656 net.cpp:122] Setting up lstm1_transform_13
I0228 21:29:46.015786 13656 net.cpp:129] Top shape: 1 13 32 (416)
I0228 21:29:46.015789 13656 net.cpp:137] Memory required for data: 125216
I0228 21:29:46.015794 13656 net.cpp:465] Sharing parameters 'W_hc' owned by layer 'lstm1_transform_1', param index 0
I0228 21:29:46.015796 13656 layer_factory.hpp:77] Creating layer lstm1_gate_input_13
I0228 21:29:46.015801 13656 net.cpp:84] Creating Layer lstm1_gate_input_13
I0228 21:29:46.015805 13656 net.cpp:406] lstm1_gate_input_13 <- W_hc_h_12
I0228 21:29:46.015808 13656 net.cpp:406] lstm1_gate_input_13 <- W_xc_x_13
I0228 21:29:46.015812 13656 net.cpp:380] lstm1_gate_input_13 -> gate_input_13
I0228 21:29:46.015828 13656 net.cpp:122] Setting up lstm1_gate_input_13
I0228 21:29:46.015833 13656 net.cpp:129] Top shape: 1 13 32 (416)
I0228 21:29:46.015843 13656 net.cpp:137] Memory required for data: 126880
I0228 21:29:46.015847 13656 layer_factory.hpp:77] Creating layer lstm1_unit_13
I0228 21:29:46.015851 13656 net.cpp:84] Creating Layer lstm1_unit_13
I0228 21:29:46.015854 13656 net.cpp:406] lstm1_unit_13 <- c_12
I0228 21:29:46.015858 13656 net.cpp:406] lstm1_unit_13 <- gate_input_13
I0228 21:29:46.015862 13656 net.cpp:406] lstm1_unit_13 <- cont_13_lstm1_cont_slice_12_split_1
I0228 21:29:46.015867 13656 net.cpp:380] lstm1_unit_13 -> c_13
I0228 21:29:46.015872 13656 net.cpp:380] lstm1_unit_13 -> h_13
I0228 21:29:46.015897 13656 net.cpp:122] Setting up lstm1_unit_13
I0228 21:29:46.015902 13656 net.cpp:129] Top shape: 1 13 8 (104)
I0228 21:29:46.015907 13656 net.cpp:129] Top shape: 1 13 8 (104)
I0228 21:29:46.015909 13656 net.cpp:137] Memory required for data: 127712
I0228 21:29:46.015913 13656 layer_factory.hpp:77] Creating layer h_13_lstm1_unit_13_1_split
I0228 21:29:46.015921 13656 net.cpp:84] Creating Layer h_13_lstm1_unit_13_1_split
I0228 21:29:46.015925 13656 net.cpp:406] h_13_lstm1_unit_13_1_split <- h_13
I0228 21:29:46.015929 13656 net.cpp:380] h_13_lstm1_unit_13_1_split -> h_13_lstm1_unit_13_1_split_0
I0228 21:29:46.015934 13656 net.cpp:380] h_13_lstm1_unit_13_1_split -> h_13_lstm1_unit_13_1_split_1
I0228 21:29:46.015952 13656 net.cpp:122] Setting up h_13_lstm1_unit_13_1_split
I0228 21:29:46.015957 13656 net.cpp:129] Top shape: 1 13 8 (104)
I0228 21:29:46.015961 13656 net.cpp:129] Top shape: 1 13 8 (104)
I0228 21:29:46.015964 13656 net.cpp:137] Memory required for data: 128544
I0228 21:29:46.015967 13656 layer_factory.hpp:77] Creating layer lstm1_h_conted_13
I0228 21:29:46.015972 13656 net.cpp:84] Creating Layer lstm1_h_conted_13
I0228 21:29:46.015976 13656 net.cpp:406] lstm1_h_conted_13 <- h_13_lstm1_unit_13_1_split_0
I0228 21:29:46.015980 13656 net.cpp:406] lstm1_h_conted_13 <- cont_14_lstm1_cont_slice_13_split_0
I0228 21:29:46.015985 13656 net.cpp:380] lstm1_h_conted_13 -> h_conted_13
I0228 21:29:46.016016 13656 net.cpp:122] Setting up lstm1_h_conted_13
I0228 21:29:46.016021 13656 net.cpp:129] Top shape: 1 13 8 (104)
I0228 21:29:46.016023 13656 net.cpp:137] Memory required for data: 128960
I0228 21:29:46.016026 13656 layer_factory.hpp:77] Creating layer lstm1_transform_14
I0228 21:29:46.016031 13656 net.cpp:84] Creating Layer lstm1_transform_14
I0228 21:29:46.016034 13656 net.cpp:406] lstm1_transform_14 <- h_conted_13
I0228 21:29:46.016038 13656 net.cpp:380] lstm1_transform_14 -> W_hc_h_13
I0228 21:29:46.016068 13656 net.cpp:122] Setting up lstm1_transform_14
I0228 21:29:46.016074 13656 net.cpp:129] Top shape: 1 13 32 (416)
I0228 21:29:46.016077 13656 net.cpp:137] Memory required for data: 130624
I0228 21:29:46.016080 13656 net.cpp:465] Sharing parameters 'W_hc' owned by layer 'lstm1_transform_1', param index 0
I0228 21:29:46.016084 13656 layer_factory.hpp:77] Creating layer lstm1_gate_input_14
I0228 21:29:46.016088 13656 net.cpp:84] Creating Layer lstm1_gate_input_14
I0228 21:29:46.016091 13656 net.cpp:406] lstm1_gate_input_14 <- W_hc_h_13
I0228 21:29:46.016095 13656 net.cpp:406] lstm1_gate_input_14 <- W_xc_x_14
I0228 21:29:46.016099 13656 net.cpp:380] lstm1_gate_input_14 -> gate_input_14
I0228 21:29:46.016113 13656 net.cpp:122] Setting up lstm1_gate_input_14
I0228 21:29:46.016119 13656 net.cpp:129] Top shape: 1 13 32 (416)
I0228 21:29:46.016121 13656 net.cpp:137] Memory required for data: 132288
I0228 21:29:46.016124 13656 layer_factory.hpp:77] Creating layer lstm1_unit_14
I0228 21:29:46.016129 13656 net.cpp:84] Creating Layer lstm1_unit_14
I0228 21:29:46.016132 13656 net.cpp:406] lstm1_unit_14 <- c_13
I0228 21:29:46.016136 13656 net.cpp:406] lstm1_unit_14 <- gate_input_14
I0228 21:29:46.016156 13656 net.cpp:406] lstm1_unit_14 <- cont_14_lstm1_cont_slice_13_split_1
I0228 21:29:46.016161 13656 net.cpp:380] lstm1_unit_14 -> c_14
I0228 21:29:46.016166 13656 net.cpp:380] lstm1_unit_14 -> h_14
I0228 21:29:46.016206 13656 net.cpp:122] Setting up lstm1_unit_14
I0228 21:29:46.016227 13656 net.cpp:129] Top shape: 1 13 8 (104)
I0228 21:29:46.016237 13656 net.cpp:129] Top shape: 1 13 8 (104)
I0228 21:29:46.016242 13656 net.cpp:137] Memory required for data: 133120
I0228 21:29:46.042644 13656 layer_factory.hpp:77] Creating layer h_14_lstm1_unit_14_1_split
I0228 21:29:46.042659 13656 net.cpp:84] Creating Layer h_14_lstm1_unit_14_1_split
I0228 21:29:46.042665 13656 net.cpp:406] h_14_lstm1_unit_14_1_split <- h_14
I0228 21:29:46.042675 13656 net.cpp:380] h_14_lstm1_unit_14_1_split -> h_14_lstm1_unit_14_1_split_0
I0228 21:29:46.042681 13656 net.cpp:380] h_14_lstm1_unit_14_1_split -> h_14_lstm1_unit_14_1_split_1
I0228 21:29:46.042729 13656 net.cpp:122] Setting up h_14_lstm1_unit_14_1_split
I0228 21:29:46.042740 13656 net.cpp:129] Top shape: 1 13 8 (104)
I0228 21:29:46.042744 13656 net.cpp:129] Top shape: 1 13 8 (104)
I0228 21:29:46.042747 13656 net.cpp:137] Memory required for data: 133952
I0228 21:29:46.042749 13656 layer_factory.hpp:77] Creating layer lstm1_h_conted_14
I0228 21:29:46.042757 13656 net.cpp:84] Creating Layer lstm1_h_conted_14
I0228 21:29:46.042760 13656 net.cpp:406] lstm1_h_conted_14 <- h_14_lstm1_unit_14_1_split_0
I0228 21:29:46.042765 13656 net.cpp:406] lstm1_h_conted_14 <- cont_15_lstm1_cont_slice_14_split_0
I0228 21:29:46.042771 13656 net.cpp:380] lstm1_h_conted_14 -> h_conted_14
I0228 21:29:46.042811 13656 net.cpp:122] Setting up lstm1_h_conted_14
I0228 21:29:46.042816 13656 net.cpp:129] Top shape: 1 13 8 (104)
I0228 21:29:46.042819 13656 net.cpp:137] Memory required for data: 134368
I0228 21:29:46.042822 13656 layer_factory.hpp:77] Creating layer lstm1_transform_15
I0228 21:29:46.042829 13656 net.cpp:84] Creating Layer lstm1_transform_15
I0228 21:29:46.042831 13656 net.cpp:406] lstm1_transform_15 <- h_conted_14
I0228 21:29:46.042836 13656 net.cpp:380] lstm1_transform_15 -> W_hc_h_14
I0228 21:29:46.042876 13656 net.cpp:122] Setting up lstm1_transform_15
I0228 21:29:46.042882 13656 net.cpp:129] Top shape: 1 13 32 (416)
I0228 21:29:46.042886 13656 net.cpp:137] Memory required for data: 136032
I0228 21:29:46.042896 13656 net.cpp:465] Sharing parameters 'W_hc' owned by layer 'lstm1_transform_1', param index 0
I0228 21:29:46.042901 13656 layer_factory.hpp:77] Creating layer lstm1_gate_input_15
I0228 21:29:46.042906 13656 net.cpp:84] Creating Layer lstm1_gate_input_15
I0228 21:29:46.042909 13656 net.cpp:406] lstm1_gate_input_15 <- W_hc_h_14
I0228 21:29:46.042913 13656 net.cpp:406] lstm1_gate_input_15 <- W_xc_x_15
I0228 21:29:46.042918 13656 net.cpp:380] lstm1_gate_input_15 -> gate_input_15
I0228 21:29:46.042933 13656 net.cpp:122] Setting up lstm1_gate_input_15
I0228 21:29:46.042939 13656 net.cpp:129] Top shape: 1 13 32 (416)
I0228 21:29:46.042943 13656 net.cpp:137] Memory required for data: 137696
I0228 21:29:46.042944 13656 layer_factory.hpp:77] Creating layer lstm1_unit_15
I0228 21:29:46.042950 13656 net.cpp:84] Creating Layer lstm1_unit_15
I0228 21:29:46.042954 13656 net.cpp:406] lstm1_unit_15 <- c_14
I0228 21:29:46.042958 13656 net.cpp:406] lstm1_unit_15 <- gate_input_15
I0228 21:29:46.042963 13656 net.cpp:406] lstm1_unit_15 <- cont_15_lstm1_cont_slice_14_split_1
I0228 21:29:46.042966 13656 net.cpp:380] lstm1_unit_15 -> c_15
I0228 21:29:46.042971 13656 net.cpp:380] lstm1_unit_15 -> h_15
I0228 21:29:46.042995 13656 net.cpp:122] Setting up lstm1_unit_15
I0228 21:29:46.043000 13656 net.cpp:129] Top shape: 1 13 8 (104)
I0228 21:29:46.043020 13656 net.cpp:129] Top shape: 1 13 8 (104)
I0228 21:29:46.043023 13656 net.cpp:137] Memory required for data: 138528
I0228 21:29:46.043026 13656 layer_factory.hpp:77] Creating layer h_15_lstm1_unit_15_1_split
I0228 21:29:46.043030 13656 net.cpp:84] Creating Layer h_15_lstm1_unit_15_1_split
I0228 21:29:46.043033 13656 net.cpp:406] h_15_lstm1_unit_15_1_split <- h_15
I0228 21:29:46.043053 13656 net.cpp:380] h_15_lstm1_unit_15_1_split -> h_15_lstm1_unit_15_1_split_0
I0228 21:29:46.043057 13656 net.cpp:380] h_15_lstm1_unit_15_1_split -> h_15_lstm1_unit_15_1_split_1
I0228 21:29:46.043074 13656 net.cpp:122] Setting up h_15_lstm1_unit_15_1_split
I0228 21:29:46.043079 13656 net.cpp:129] Top shape: 1 13 8 (104)
I0228 21:29:46.043092 13656 net.cpp:129] Top shape: 1 13 8 (104)
I0228 21:29:46.043112 13656 net.cpp:137] Memory required for data: 139360
I0228 21:29:46.043114 13656 layer_factory.hpp:77] Creating layer lstm1_h_conted_15
I0228 21:29:46.043119 13656 net.cpp:84] Creating Layer lstm1_h_conted_15
I0228 21:29:46.043123 13656 net.cpp:406] lstm1_h_conted_15 <- h_15_lstm1_unit_15_1_split_0
I0228 21:29:46.043128 13656 net.cpp:406] lstm1_h_conted_15 <- cont_16_lstm1_cont_slice_15_split_0
I0228 21:29:46.043131 13656 net.cpp:380] lstm1_h_conted_15 -> h_conted_15
I0228 21:29:46.043193 13656 net.cpp:122] Setting up lstm1_h_conted_15
I0228 21:29:46.043198 13656 net.cpp:129] Top shape: 1 13 8 (104)
I0228 21:29:46.043201 13656 net.cpp:137] Memory required for data: 139776
I0228 21:29:46.043205 13656 layer_factory.hpp:77] Creating layer lstm1_transform_16
I0228 21:29:46.043210 13656 net.cpp:84] Creating Layer lstm1_transform_16
I0228 21:29:46.043213 13656 net.cpp:406] lstm1_transform_16 <- h_conted_15
I0228 21:29:46.043217 13656 net.cpp:380] lstm1_transform_16 -> W_hc_h_15
I0228 21:29:46.043246 13656 net.cpp:122] Setting up lstm1_transform_16
I0228 21:29:46.043252 13656 net.cpp:129] Top shape: 1 13 32 (416)
I0228 21:29:46.043256 13656 net.cpp:137] Memory required for data: 141440
I0228 21:29:46.043258 13656 net.cpp:465] Sharing parameters 'W_hc' owned by layer 'lstm1_transform_1', param index 0
I0228 21:29:46.043262 13656 layer_factory.hpp:77] Creating layer lstm1_gate_input_16
I0228 21:29:46.043267 13656 net.cpp:84] Creating Layer lstm1_gate_input_16
I0228 21:29:46.043270 13656 net.cpp:406] lstm1_gate_input_16 <- W_hc_h_15
I0228 21:29:46.043275 13656 net.cpp:406] lstm1_gate_input_16 <- W_xc_x_16
I0228 21:29:46.043279 13656 net.cpp:380] lstm1_gate_input_16 -> gate_input_16
I0228 21:29:46.043296 13656 net.cpp:122] Setting up lstm1_gate_input_16
I0228 21:29:46.043301 13656 net.cpp:129] Top shape: 1 13 32 (416)
I0228 21:29:46.043305 13656 net.cpp:137] Memory required for data: 143104
I0228 21:29:46.043308 13656 layer_factory.hpp:77] Creating layer lstm1_unit_16
I0228 21:29:46.043313 13656 net.cpp:84] Creating Layer lstm1_unit_16
I0228 21:29:46.043316 13656 net.cpp:406] lstm1_unit_16 <- c_15
I0228 21:29:46.043320 13656 net.cpp:406] lstm1_unit_16 <- gate_input_16
I0228 21:29:46.043324 13656 net.cpp:406] lstm1_unit_16 <- cont_16_lstm1_cont_slice_15_split_1
I0228 21:29:46.043332 13656 net.cpp:380] lstm1_unit_16 -> c_16
I0228 21:29:46.043339 13656 net.cpp:380] lstm1_unit_16 -> h_16
I0228 21:29:46.043371 13656 net.cpp:122] Setting up lstm1_unit_16
I0228 21:29:46.043382 13656 net.cpp:129] Top shape: 1 13 8 (104)
I0228 21:29:46.043390 13656 net.cpp:129] Top shape: 1 13 8 (104)
I0228 21:29:46.043395 13656 net.cpp:137] Memory required for data: 143936
I0228 21:29:46.043400 13656 layer_factory.hpp:77] Creating layer lstm1_
I0228 21:29:46.043407 13656 net.cpp:84] Creating Layer lstm1_
I0228 21:29:46.043412 13656 net.cpp:406] lstm1_ <- c_16
I0228 21:29:46.043419 13656 net.cpp:380] lstm1_ -> c_T
I0228 21:29:46.043440 13656 net.cpp:122] Setting up lstm1_
I0228 21:29:46.043447 13656 net.cpp:129] Top shape: 1 13 8 (104)
I0228 21:29:46.043449 13656 net.cpp:137] Memory required for data: 144352
I0228 21:29:46.043452 13656 layer_factory.hpp:77] Creating layer lstm1_h_concat
I0228 21:29:46.043458 13656 net.cpp:84] Creating Layer lstm1_h_concat
I0228 21:29:46.043462 13656 net.cpp:406] lstm1_h_concat <- h_1_lstm1_unit_1_1_split_1
I0228 21:29:46.043467 13656 net.cpp:406] lstm1_h_concat <- h_2_lstm1_unit_2_1_split_1
…
I0228 21:29:46.073171 13656 net.cpp:200] lstm1_ does not need backward computation.
I0228 21:29:46.073175 13656 net.cpp:242] This network produces output c_T
I0228 21:29:46.073184 13656 net.cpp:242] This network produces output h_pseudoloss
I0228 21:29:46.073483 13656 net.cpp:255] Network initialization done.
I0228 21:29:46.073633 13656 recurrent_layer.cpp:150] Adding parameter 0: W_xc
I0228 21:29:46.073640 13656 recurrent_layer.cpp:150] Adding parameter 1: b_c
I0228 21:29:46.073643 13656 recurrent_layer.cpp:150] Adding parameter 2: W_hc
I0228 21:29:46.073760 13656 net.cpp:122] Setting up lstm1
I0228 21:29:46.073771 13656 net.cpp:129] Top shape: 16 13 8 (1664)
I0228 21:29:46.073774 13656 net.cpp:137] Memory required for data: 8512
I0228 21:29:46.073791 13656 layer_factory.hpp:77] Creating layer out
I0228 21:29:46.073799 13656 net.cpp:84] Creating Layer out
I0228 21:29:46.073803 13656 net.cpp:406] out <- lstm1
I0228 21:29:46.073807 13656 net.cpp:380] out -> out
I0228 21:29:46.074661 13656 net.cpp:122] Setting up out
I0228 21:29:46.074689 13656 net.cpp:129] Top shape: 16 5 (80)
I0228 21:29:46.074693 13656 net.cpp:137] Memory required for data: 8832
I0228 21:29:46.074703 13656 layer_factory.hpp:77] Creating layer out_out_0_split
I0228 21:29:46.074710 13656 net.cpp:84] Creating Layer out_out_0_split
I0228 21:29:46.074714 13656 net.cpp:406] out_out_0_split <- out
I0228 21:29:46.074718 13656 net.cpp:380] out_out_0_split -> out_out_0_split_0
I0228 21:29:46.074723 13656 net.cpp:380] out_out_0_split -> out_out_0_split_1
I0228 21:29:46.074757 13656 net.cpp:122] Setting up out_out_0_split
I0228 21:29:46.074764 13656 net.cpp:129] Top shape: 16 5 (80)
I0228 21:29:46.074769 13656 net.cpp:129] Top shape: 16 5 (80)
I0228 21:29:46.074771 13656 net.cpp:137] Memory required for data: 9472
I0228 21:29:46.074774 13656 layer_factory.hpp:77] Creating layer softmax
I0228 21:29:46.074784 13656 net.cpp:84] Creating Layer softmax
I0228 21:29:46.074787 13656 net.cpp:406] softmax <- out_out_0_split_0
I0228 21:29:46.074791 13656 net.cpp:380] softmax -> softmax
I0228 21:29:46.526147 13656 net.cpp:122] Setting up softmax
I0228 21:29:46.526172 13656 net.cpp:129] Top shape: 16 5 (80)
I0228 21:29:46.526177 13656 net.cpp:137] Memory required for data: 9792
I0228 21:29:46.526182 13656 layer_factory.hpp:77] Creating layer softmax_softmax_0_split
I0228 21:29:46.526190 13656 net.cpp:84] Creating Layer softmax_softmax_0_split
I0228 21:29:46.526195 13656 net.cpp:406] softmax_softmax_0_split <- softmax
I0228 21:29:46.526199 13656 net.cpp:380] softmax_softmax_0_split -> softmax_softmax_0_split_0
I0228 21:29:46.526207 13656 net.cpp:380] softmax_softmax_0_split -> softmax_softmax_0_split_1
I0228 21:29:46.526234 13656 net.cpp:122] Setting up softmax_softmax_0_split
I0228 21:29:46.526239 13656 net.cpp:129] Top shape: 16 5 (80)
I0228 21:29:46.526243 13656 net.cpp:129] Top shape: 16 5 (80)
I0228 21:29:46.526247 13656 net.cpp:137] Memory required for data: 10432
I0228 21:29:46.526249 13656 layer_factory.hpp:77] Creating layer argmax
I0228 21:29:46.526254 13656 net.cpp:84] Creating Layer argmax
I0228 21:29:46.526257 13656 net.cpp:406] argmax <- softmax_softmax_0_split_0
I0228 21:29:46.526262 13656 net.cpp:380] argmax -> argmax
I0228 21:29:46.526279 13656 net.cpp:122] Setting up argmax
I0228 21:29:46.526284 13656 net.cpp:129] Top shape: 16 1 1 (16)
I0228 21:29:46.526288 13656 net.cpp:137] Memory required for data: 10496
I0228 21:29:46.526290 13656 layer_factory.hpp:77] Creating layer accuracy
I0228 21:29:46.526301 13656 net.cpp:84] Creating Layer accuracy
I0228 21:29:46.526304 13656 net.cpp:406] accuracy <- softmax_softmax_0_split_1
I0228 21:29:46.526309 13656 net.cpp:406] accuracy <- label_Input_2_split_0
I0228 21:29:46.526336 13656 net.cpp:380] accuracy -> accuracy
…
