…
  top: "data"
  data_param {
    source: "/home/leonida/ThesisCode/LSTM_on_Create2/NavDatabases/LAB-21-2-new-step-condition/states_db-2-21-15-4_lmdb"
    batch_size: 24
    backend: LMDB
  }
}
layer {
  name: "label"
  type: "Data"
  top: "labels"
  data_param {
    source: "/home/leonida/ThesisCode/LSTM_on_Create2/NavDatabases/LAB-21-2-new-step-condition/labels_db-2-21-15-4_twist-variant_lmdb"
    batch_size: 24
    backend: LMDB
  }
}
layer {
  name: "clip"
  type: "Input"
  top: "clip"
  input_param {
    shape {
      dim: 24
      dim: 26
    }
  }
}
layer {
  name: "lstm1"
  type: "LSTM"
  bottom: "data"
  bottom: "clip"
  top: "lstm1"
  recurrent_param {
    num_output: 128
    weight_filler {
      type: "xavier"
    }
    bias_filler {
      type: "constant"
    }
  }
}
layer {
  name: "bn1"
  type: "BatchNorm"
  bottom: "lstm1"
  top: "bn1"
  batch_norm_param {
    use_global_stats: false
  }
}
layer {
  name: "lstm2"
  type: "LSTM"
  bottom: "bn1"
  bottom: "clip"
  top: "lstm2"
  recurrent_param {
    num_output: 128
    weight_filler {
      type: "xavier"
    }
    bias_filler {
      type: "constant"
    }
  }
}
layer {
  name: "bn2"
  type: "BatchNorm"
  bottom: "lstm2"
  top: "bn2"
  batch_norm_param {
    use_global_stats: false
  }
}
layer {
  name: "lstm3"
  type: "LSTM"
  bottom: "bn2"
  bottom: "clip"
  top: "lstm3"
  recurrent_param {
    num_output: 128
    weight_filler {
      type: "xavier"
    }
    bias_filler {
      type: "constant"
    }
  }
}
layer {
  name: "bn3"
  type: "BatchNorm"
  bottom: "lstm3"
  top: "bn3"
  batch_norm_param {
    use_global_stats: false
  }
}
layer {
  name: "lstm4"
  type: "LSTM"
  bottom: "bn3"
  bottom: "clip"
  top: "lstm4"
  recurrent_param {
    num_output: 128
    weight_filler {
      type: "xavier"
    }
    bias_filler {
      type: "constant"
    }
  }
}
layer {
  name: "out"
  type: "InnerProduct"
  bottom: "lstm4"
  top: "out"
  inner_product_param {
    num_output: 2
    weight_filler {
      type: "gaussian"
      std: 0.1
    }
    bias_filler {
      type: "constant"
    }
  }
}
layer {
  name: "euclideanLoss"
  type: "EuclideanLoss"
  bottom: "out"
  bottom: "labels"
  top: "loss"
}
I0222 17:59:16.474333 25894 layer_factory.hpp:77] Creating layer data
I0222 17:59:16.474396 25894 db_lmdb.cpp:35] Opened lmdb /home/leonida/ThesisCode/LSTM_on_Create2/NavDatabases/LAB-21-2-new-step-condition/states_db-2-21-15-4_lmdb
I0222 17:59:16.474411 25894 net.cpp:84] Creating Layer data
I0222 17:59:16.474418 25894 net.cpp:380] data -> data
I0222 17:59:16.475069 25894 data_layer.cpp:45] output data size: 24,26,1,1
I0222 17:59:16.476409 25894 net.cpp:122] Setting up data
I0222 17:59:16.476423 25894 net.cpp:129] Top shape: 24 26 1 1 (624)
I0222 17:59:16.476426 25894 net.cpp:137] Memory required for data: 2496
I0222 17:59:16.476431 25894 layer_factory.hpp:77] Creating layer label
I0222 17:59:16.476469 25894 db_lmdb.cpp:35] Opened lmdb /home/leonida/ThesisCode/LSTM_on_Create2/NavDatabases/LAB-21-2-new-step-condition/labels_db-2-21-15-4_twist-variant_lmdb
I0222 17:59:16.476477 25894 net.cpp:84] Creating Layer label
I0222 17:59:16.476482 25894 net.cpp:380] label -> labels
I0222 17:59:16.476541 25894 data_layer.cpp:45] output data size: 24,2,1,1
I0222 17:59:16.476904 25894 net.cpp:122] Setting up label
I0222 17:59:16.476912 25894 net.cpp:129] Top shape: 24 2 1 1 (48)
I0222 17:59:16.476914 25894 net.cpp:137] Memory required for data: 2688
I0222 17:59:16.476917 25894 layer_factory.hpp:77] Creating layer clip
I0222 17:59:16.476949 25894 net.cpp:84] Creating Layer clip
I0222 17:59:16.476958 25894 net.cpp:380] clip -> clip
I0222 17:59:16.476994 25894 net.cpp:122] Setting up clip
I0222 17:59:16.476999 25894 net.cpp:129] Top shape: 24 26 (624)
I0222 17:59:16.477001 25894 net.cpp:137] Memory required for data: 5184
I0222 17:59:16.477005 25894 layer_factory.hpp:77] Creating layer clip_clip_0_split
I0222 17:59:16.477012 25894 net.cpp:84] Creating Layer clip_clip_0_split
I0222 17:59:16.477016 25894 net.cpp:406] clip_clip_0_split <- clip
I0222 17:59:16.477025 25894 net.cpp:380] clip_clip_0_split -> clip_clip_0_split_0
I0222 17:59:16.477030 25894 net.cpp:380] clip_clip_0_split -> clip_clip_0_split_1
I0222 17:59:16.477035 25894 net.cpp:380] clip_clip_0_split -> clip_clip_0_split_2
I0222 17:59:16.477041 25894 net.cpp:380] clip_clip_0_split -> clip_clip_0_split_3
I0222 17:59:16.477077 25894 net.cpp:122] Setting up clip_clip_0_split
I0222 17:59:16.477082 25894 net.cpp:129] Top shape: 24 26 (624)
I0222 17:59:16.477087 25894 net.cpp:129] Top shape: 24 26 (624)
I0222 17:59:16.477090 25894 net.cpp:129] Top shape: 24 26 (624)
I0222 17:59:16.477093 25894 net.cpp:129] Top shape: 24 26 (624)
I0222 17:59:16.477097 25894 net.cpp:137] Memory required for data: 15168
I0222 17:59:16.477099 25894 layer_factory.hpp:77] Creating layer lstm1
I0222 17:59:16.477107 25894 net.cpp:84] Creating Layer lstm1
I0222 17:59:16.477109 25894 net.cpp:406] lstm1 <- data
I0222 17:59:16.477113 25894 net.cpp:406] lstm1 <- clip_clip_0_split_0
I0222 17:59:16.477118 25894 net.cpp:380] lstm1 -> lstm1
I0222 17:59:16.477140 25894 recurrent_layer.cpp:20] Initializing recurrent layer: assuming input batch contains 24 timesteps of 26 independent streams.
I0222 17:59:16.477782 25894 net.cpp:51] Initializing net from parameters: 
layer {
  name: "lstm1_"
  type: "Input"
  top: "x"
  top: "cont"
  input_param {
    shape {
      dim: 24
      dim: 26
      dim: 1
      dim: 1
    }
    shape {
      dim: 24
      dim: 26
    }
  }
}
layer {
  name: "lstm1_"
  type: "Input"
  top: "c_0"
  top: "h_0"
  input_param {
    shape {
      dim: 1
      dim: 26
      dim: 128
    }
    shape {
      dim: 1
      dim: 26
      dim: 128
    }
  }
}
layer {
  name: "lstm1_cont_slice"
  type: "Slice"
  bottom: "cont"
  top: "cont_1"
  top: "cont_2"
  top: "cont_3"
  top: "cont_4"
  top: "cont_5"
  top: "cont_6"
  top: "cont_7"
  top: "cont_8"
  top: "cont_9"
  top: "cont_10"
  top: "cont_11"
  top: "cont_12"
  top: "cont_13"
  top: "cont_14"
  top: "cont_15"
  top: "cont_16"
  top: "cont_17"
  top: "cont_18"
  top: "cont_19"
  top: "cont_20"
  top: "cont_21"
  top: "cont_22"
  top: "cont_23"
  top: "cont_24"
  slice_param {
    axis: 0
  }
}
layer {
  name: "lstm1_x_transform"
  type: "InnerProduct"
  bottom: "x"
  top: "W_xc_x"
  param {
    name: "W_xc"
  }
  param {
    name: "b_c"
  }
  propagate_down: true
  inner_product_param {
    num_output: 512
    bias_term: true
    weight_filler {
      type: "xavier"
    }
    bias_filler {
      type: "constant"
    }
    axis: 2
  }
}
layer {
  name: "lstm1_W_xc_x_slice"
  type: "Slice"
  bottom: "W_xc_x"
  top: "W_xc_x_1"
  top: "W_xc_x_2"
  top: "W_xc_x_3"
  top: "W_xc_x_4"
  top: "W_xc_x_5"
  top: "W_xc_x_6"
  top: "W_xc_x_7"
  top: "W_xc_x_8"
  top: "W_xc_x_9"
  top: "W_xc_x_10"
  top: "W_xc_x_11"
  top: "W_xc_x_12"
  top: "W_xc_x_13"
  top: "W_xc_x_14"
  top: "W_xc_x_15"
  top: "W_xc_x_16"
  top: "W_xc_x_17"
  top: "W_xc_x_18"
  top: "W_xc_x_19"
  top: "W_xc_x_20"
  top: "W_xc_x_21"
  top: "W_xc_x_22"
  top: "W_xc_x_23"
  top: "W_xc_x_24"
  slice_param {
    axis: 0
  }
}
layer {
  name: "lstm1_h_conted_0"
  type: "Scale"
  bottom: "h_0"
  bottom: "cont_1"
  top: "h_conted_0"
  scale_param {
    axis: 0
  }
}
layer {
  name: "lstm1_transform_1"
  type: "InnerProduct"
  bottom: "h_conted_0"
  top: "W_hc_h_0"
  param {
    name: "W_hc"
  }
  inner_product_param {
    num_output: 512
    bias_term: false
    weight_filler {
      type: "xavier"
    }
    axis: 2
  }
}
layer {
  name: "lstm1_gate_input_1"
  type: "Eltwise"
  bottom: "W_hc_h_0"
  bottom: "W_xc_x_1"
  top: "gate_input_1"
  eltwise_param {
    operation: SUM
  }
}
layer {
  name: "lstm1_unit_1"
  type: "LSTMUnit"
  bottom: "c_0"
  bottom: "gate_input_1"
  bottom: "cont_1"
  top: "c_1"
  top: "h_1"
}
layer {
  name: "lstm1_h_conted_1"
  type: "Scale"
  bottom: "h_1"
  bottom: "cont_2"
  top: "h_conted_1"
  scale_param {
    axis: 0
  }
}
layer {
  name: "lstm1_transform_2"
  type: "InnerProduct"
  bottom: "h_conted_1"
  top: "W_hc_h_1"
  param {
    name: "W_hc"
  }
  inner_product_param {
    num_output: 512
    bias_term: false
    weight_filler {
      type: "xavier"
    }
    axis: 2
  }
}
layer {
  name: "lstm1_gate_input_2"
  type: "Eltwise"
  bottom: "W_hc_h_1"
  bottom: "W_xc_x_2"
  top: "gate_input_2"
  eltwise_param {
    operation: SUM
  }
}
layer {
  name: "lstm1_unit_2"
  type: "LSTMUnit"
  bottom: "c_1"
  bottom: "gate_input_2"
  bottom: "cont_2"
  top: "c_2"
  top: "h_2"
}
layer {
  name: "lstm1_h_conted_2"
  type: "Scale"
  bottom: "h_2"
  bottom: "cont_3"
  top: "h_conted_2"
  scale_param {
    axis: 0
  }
}
layer {
  name: "lstm1_transform_3"
  type: "InnerProduct"
  bottom: "h_conted_2"
  top: "W_hc_h_2"
  param {
    name: "W_hc"
  }
  inner_product_param {
    num_output: 512
    bias_term: false
    weight_filler {
      type: "xavier"
    }
    axis: 2
  }
}
layer {
  name: "lstm1_gate_input_3"
  type: "Eltwise"
  bottom: "W_hc_h_2"
  bottom: "W_xc_x_3"
  top: "gate_input_3"
  eltwise_param {
    operation: SUM
  }
}
layer {
  name: "lstm1_unit_3"
  type: "LSTMUnit"
  bottom: "c_2"
  bottom: "gate_input_3"
  bottom: "cont_3"
  top: "c_3"
  top: "h_3"
}
layer {
  name: "lstm1_h_conted_3"
  type: "Scale"
  bottom: "h_3"
  bottom: "cont_4"
  top: "h_conted_3"
  scale_param {
    axis: 0
  }
}
layer {
  name: "lstm1_transform_4"
  type: "InnerProduct"
  bottom: "h_conted_3"
  top: "W_hc_h_3"
  param {
    name: "W_hc"
  }
  inner_product_param {
    num_output: 512
    bias_term: false
    weight_filler {
      type: "xavier"
    }
    axis: 2
  }
}
layer {
  name: "lstm1_gate_input_4"
  type: "Eltwise"
  bottom: "W_hc_h_3"
  bottom: "W_xc_x_4"
  top: "gate_input_4"
  eltwise_param {
    operation: SUM
  }
}
layer {
  name: "lstm1_unit_4"
  type: "LSTMUnit"
  bottom: "c_3"
  bottom: "gate_input_4"
  bottom: "cont_4"
  top: "c_4"
  top: "h_4"
}
layer {
  name: "lstm1_h_conted_4"
  type: "Scale"
  bottom: "h_4"
  bottom: "cont_5"
  top: "h_conted_4"
  scale_param {
    axis: 0
  }
}
layer {
  name: "lstm1_transform_5"
  type: "InnerProduct"
  bottom: "h_conted_4"
  top: "W_hc_h_4"
  param {
    name: "W_hc"
  }
  inner_product_param {
    num_output: 512
    bias_term: false
    weight_filler {
      type: "xavier"
    }
    axis: 2
  }
}
layer {
  name: "lstm1_gate_input_5"
  type: "Eltwise"
  bottom: "W_hc_h_4"
  bottom: "W_xc_x_5"
  top: "gate_input_5"
  eltwise_param {
    operation: SUM
  }
}
layer {
  name: "lstm1_unit_5"
  type: "LSTMUnit"
  bottom: "c_4"
  bottom: "gate_input_5"
  bottom: "cont_5"
  top: "c_5"
  top: "h_5"
}
layer {
  name: "lstm1_h_conted_5"
  type: "Scale"
  bottom: "h_5"
  bottom: "cont_6"
  top: "h_conted_5"
  scale_param {
    axis: 0
  }
}
layer {
  name: "lstm1_transform_6"
  type: "InnerProduct"
  bottom: "h_conted_5"
  top: "W_hc_h_5"
  param {
    name: "W_hc"
  }
  inner_product_param {
    num_output: 512
    bias_term: false
    weight_filler {
      type: "xavier"
    }
    axis: 2
  }
}
layer {
  name: "lstm1_gate_input_6"
  type: "Eltwise"
  bottom: "W_hc_h_5"
  bottom: "W_xc_x_6"
  top: "gate_input_6"
  eltwise_param {
    operation: SUM
  }
}
layer {
  name: "lstm1_unit_6"
  type: "LSTMUnit"
  bottom: "c_5"
  bottom: "gate_input_6"
  bottom: "cont_6"
  top: "c_6"
  top: "h_6"
}
layer {
  name: "lstm1_h_conted_6"
  type: "Scale"
  bottom: "h_6"
  bottom: "cont_7"
  top: "h_conted_6"
  scale_param {
    axis: 0
  }
}
layer {
  name: "lstm1_transform_7"
  type: "InnerProduct"
  bottom: "h_conted_6"
  top: "W_hc_h_6"
  param {
    name: "W_hc"
  }
  inner_product_param {
    num_output: 512
    bias_term: false
    weight_filler {
      type: "xavier"
    }
    axis: 2
  }
}
layer {
  name: "lstm1_gate_input_7"
  type: "Eltwise"
  bottom: "W_hc_h_6"
  bottom: "W_xc_x_7"
  top: "gate_input_7"
  eltwise_param {
    operation: SUM
  }
}
layer {
  name: "lstm1_unit_7"
  type: "LSTMUnit"
  bottom: "c_6"
  bottom: "gate_input_7"
  bottom: "cont_7"
  top: "c_7"
  top: "h_7"
}
layer {
  name: "lstm1_h_conted_7"
  type: "Scale"
  bottom: "h_7"
  bottom: "cont_8"
  top: "h_conted_7"
  scale_param {
    axis: 0
  }
}
layer {
  name: "lstm1_transform_8"
  type: "InnerProduct"
  bottom: "h_conted_7"
  top: "W_hc_h_7"
  param {
    name: "W_hc"
  }
  inner_product_param {
    num_output: 512
    bias_term: false
    weight_filler {
      type: "xavier"
    }
    axis: 2
  }
}
layer {
  name: "lstm1_gate_input_8"
  type: "Eltwise"
  bottom: "W_hc_h_7"
  bottom: "W_xc_x_8"
  top: "gate_input_8"
  eltwise_param {
    operation: SUM
  }
}
layer {
  name: "lstm1_unit_8"
  type: "LSTMUnit"
  bottom: "c_7"
  bottom: "gate_input_8"
  bottom: "cont_8"
  top: "c_8"
  top: "h_8"
}
layer {
  name: "lstm1_h_conted_8"
  type: "Scale"
  bottom: "h_8"
  bottom: "cont_9"
  top: "h_conted_8"
  scale_param {
    axis: 0
  }
}
layer {
  name: "lstm1_transform_9"
  type: "InnerProduct"
  bottom: "h_conted_8"
  top: "W_hc_h_8"
  param {
    name: "W_hc"
  }
  inner_product_param {
    num_output: 512
    bias_term: false
    weight_filler {
      type: "xavier"
    }
    axis: 2
  }
}
layer {
  name: "lstm1_gate_input_9"
  type: "Eltwise"
  bottom: "W_hc_h_8"
  bottom: "W_xc_x_9"
  top: "gate_input_9"
  eltwise_param {
    operation: SUM
  }
}
layer {
  name: "lstm1_unit_9"
  type: "LSTMUnit"
  bottom: "c_8"
  bottom: "gate_input_9"
  bottom: "cont_9"
  top: "c_9"
  top: "h_9"
}
layer {
  name: "lstm1_h_conted_9"
  type: "Scale"
  bottom: "h_9"
  bottom: "cont_10"
  top: "h_conted_9"
  scale_param {
    axis: 0
  }
}
layer {
  name: "lstm1_transform_10"
  type: "InnerProduct"
  bottom: "h_conted_9"
  top: "W_hc_h_9"
  param {
    name: "W_hc"
  }
  inner_product_param {
    num_output: 512
    bias_term: false
    weight_filler {
      type: "xavier"
    }
    axis: 2
  }
}
layer {
  name: "lstm1_gate_input_10"
  type: "Eltwise"
  bottom: "W_hc_h_9"
  bottom: "W_xc_x_10"
  top: "gate_input_10"
  eltwise_param {
    operation: SUM
  }
}
layer {
  name: "lstm1_unit_10"
  type: "LSTMUnit"
  bottom: "c_9"
  bottom: "gate_input_10"
  bottom: "cont_10"
  top: "c_10"
  top: "h_10"
}
layer {
  name: "lstm1_h_conted_10"
  type: "Scale"
  bottom: "h_10"
  bottom: "cont_11"
  top: "h_conted_10"
  scale_param {
    axis: 0
  }
}
layer {
  name: "lstm1_transform_11"
  type: "InnerProduct"
  bottom: "h_conted_10"
  top: "W_hc_h_10"
  param {
    name: "W_hc"
  }
  inner_product_param {
    num_output: 512
    bias_term: false
    weight_filler {
      type: "xavier"
    }
    axis: 2
  }
}
layer {
  name: "lstm1_gate_input_11"
  type: "Eltwise"
  bottom: "W_hc_h_10"
  bottom: "W_xc_x_11"
  top: "gate_input_11"
  eltwise_param {
    operation: SUM
  }
}
layer {
  name: "lstm1_unit_11"
  type: "LSTMUnit"
  bottom: "c_10"
  bottom: "gate_input_11"
  bottom: "cont_11"
  top: "c_11"
  top: "h_11"
}
layer {
  name: "lstm1_h_conted_11"
  type: "Scale"
  bottom: "h_11"
  bottom: "cont_12"
  top: "h_conted_11"
  scale_param {
    axis: 0
  }
}
layer {
  name: "lstm1_transform_12"
  type: "InnerProduct"
  bottom: "h_conted_11"
  top: "W_hc_h_11"
  param {
    name: "W_hc"
  }
  inner_product_param {
    num_output: 512
    bias_term: false
    weight_filler {
      type: "xavier"
    }
    axis: 2
  }
}
layer {
  name: "lstm1_gate_input_12"
  type: "Eltwise"
  bottom: "W_hc_h_11"
  bottom: "W_xc_x_12"
  top: "gate_input_12"
  eltwise_param {
    operation: SUM
  }
}
layer {
  name: "lstm1_unit_12"
  type: "LSTMUnit"
  bottom: "c_11"
  bottom: "gate_input_12"
  bottom: "cont_12"
  top: "c_12"
  top: "h_12"
}
layer {
  name: "lstm1_h_conted_12"
  type: "Scale"
  bottom: "h_12"
  bottom: "cont_13"
  top: "h_conted_12"
  scale_param {
    axis: 0
  }
}
layer {
  name: "lstm1_transform_13"
  type: "InnerProduct"
  bottom: "h_conted_12"
  top: "W_hc_h_12"
  param {
    name: "W_hc"
  }
  inner_product_param {
    num_output: 512
    bias_term: false
    weight_filler {
      type: "xavier"
    }
    axis: 2
  }
}
layer {
  name: "lstm1_gate_input_13"
  type: "Eltwise"
  bottom: "W_hc_h_12"
  bottom: "W_xc_x_13"
  top: "gate_input_13"
  eltwise_param {
    operation: SUM
  }
}
layer {
  name: "lstm1_unit_13"
  type: "LSTMUnit"
  bottom: "c_12"
  bottom: "gate_input_13"
  bottom: "cont_13"
  top: "c_13"
  top: "h_13"
}
layer {
  name: "lstm1_h_conted_13"
  type: "Scale"
  bottom: "h_13"
  bottom: "cont_14"
  top: "h_conted_13"
  scale_param {
    axis: 0
  }
}
layer {
  name: "lstm1_transform_14"
  type: "InnerProduct"
  bottom: "h_conted_13"
  top: "W_hc_h_13"
  param {
    name: "W_hc"
  }
  inner_product_param {
    num_output: 512
    bias_term: false
    weight_filler {
      type: "xavier"
    }
    axis: 2
  }
}
layer {
  name: "lstm1_gate_input_14"
  type: "Eltwise"
  bottom: "W_hc_h_13"
  bottom: "W_xc_x_14"
  top: "gate_input_14"
  eltwise_param {
    operation: SUM
  }
}
layer {
  name: "lstm1_unit_14"
  type: "LSTMUnit"
  bottom: "c_13"
  bottom: "gate_input_14"
  bottom: "cont_14"
  top: "c_14"
  top: "h_14"
}
layer {
  name: "lstm1_h_conted_14"
  type: "Scale"
  bottom: "h_14"
  bottom: "cont_15"
  top: "h_conted_14"
  scale_param {
    axis: 0
  }
}
layer {
  name: "lstm1_transform_15"
  type: "InnerProduct"
  bottom: "h_conted_14"
  top: "W_hc_h_14"
  param {
    name: "W_hc"
  }
  inner_product_param {
    num_output: 512
    bias_term: false
    weight_filler {
      type: "xavier"
    }
    axis: 2
  }
}
layer {
  name: "lstm1_gate_input_15"
  type: "Eltwise"
  bottom: "W_hc_h_14"
  bottom: "W_xc_x_15"
  top: "gate_input_15"
  eltwise_param {
    operation: SUM
  }
}
layer {
  name: "lstm1_unit_15"
  type: "LSTMUnit"
  bottom: "c_14"
  bottom: "gate_input_15"
  bottom: "cont_15"
  top: "c_15"
  top: "h_15"
}
layer {
  name: "lstm1_h_conted_15"
  type: "Scale"
  bottom: "h_15"
  bottom: "cont_16"
  top: "h_conted_15"
  scale_param {
    axis: 0
  }
}
layer {
  name: "lstm1_transform_16"
  type: "InnerProduct"
  bottom: "h_conted_15"
  top: "W_hc_h_15"
  param {
    name: "W_hc"
  }
  inner_product_param {
    num_output: 512
    bias_term: false
    weight_filler {
      type: "xavier"
    }
    axis: 2
  }
}
layer {
  name: "lstm1_gate_input_16"
  type: "Eltwise"
  bottom: "W_hc_h_15"
  bottom: "W_xc_x_16"
  top: "gate_input_16"
  eltwise_param {
    operation: SUM
  }
}
layer {
  name: "lstm1_unit_16"
  type: "LSTMUnit"
  bottom: "c_15"
  bottom: "gate_input_16"
  bottom: "cont_16"
  top: "c_16"
  top: "h_16"
}
layer {
  name: "lstm1_h_conted_16"
  type: "Scale"
  bottom: "h_16"
  bottom: "cont_17"
  top: "h_conted_16"
  scale_param {
    axis: 0
  }
}
layer {
  name: "lstm1_transform_17"
  type: "InnerProduct"
  bottom: "h_conted_16"
  top: "W_hc_h_16"
  param {
    name: "W_hc"
  }
  inner_product_param {
    num_output: 512
    bias_term: false
    weight_filler {
      type: "xavier"
    }
    axis: 2
  }
}
layer {
  name: "lstm1_gate_input_17"
  type: "Eltwise"
  bottom: "W_hc_h_16"
  bottom: "W_xc_x_17"
  top: "gate_input_17"
  eltwise_param {
    operation: SUM
  }
}
layer {
  name: "lstm1_unit_17"
  type: "LSTMUnit"
  bottom: "c_16"
  bottom: "gate_input_17"
  bottom: "cont_17"
  top: "c_17"
  top: "h_17"
}
layer {
  name: "lstm1_h_conted_17"
  type: "Scale"
  bottom: "h_17"
  bottom: "cont_18"
  top: "h_conted_17"
  scale_param {
    axis: 0
  }
}
layer {
  name: "lstm1_transform_18"
  type: "InnerProduct"
  bottom: "h_conted_17"
  top: "W_hc_h_17"
  param {
    name: "W_hc"
  }
  inner_product_param {
    num_output: 512
    bias_term: false
    weight_filler {
      type: "xavier"
    }
    axis: 2
  }
}
layer {
  name: "lstm1_gate_input_18"
  type: "Eltwise"
  bottom: "W_hc_h_17"
  bottom: "W_xc_x_18"
  top: "gate_input_18"
  eltwise_param {
    operation: SUM
  }
}
layer {
  name: "lstm1_unit_18"
  type: "LSTMUnit"
  bottom: "c_17"
  bottom: "gate_input_18"
  bottom: "cont_18"
  top: "c_18"
  top: "h_18"
}
layer {
  name: "lstm1_h_conted_18"
  type: "Scale"
  bottom: "h_18"
  bottom: "cont_19"
  top: "h_conted_18"
  scale_param {
    axis: 0
  }
}
layer {
  name: "lstm1_transform_19"
  type: "InnerProduct"
  bottom: "h_conted_18"
  top: "W_hc_h_18"
  param {
    name: "W_hc"
  }
  inner_product_param {
    num_output: 512
    bias_term: false
    weight_filler {
      type: "xavier"
    }
    axis: 2
  }
}
layer {
  name: "lstm1_gate_input_19"
  type: "Eltwise"
  bottom: "W_hc_h_18"
  bottom: "W_xc_x_19"
  top: "gate_input_19"
  eltwise_param {
    operation: SUM
  }
}
layer {
  name: "lstm1_unit_19"
  type: "LSTMUnit"
  bottom: "c_18"
  bottom: "gate_input_19"
  bottom: "cont_19"
  top: "c_19"
  top: "h_19"
}
layer {
  name: "lstm1_h_conted_19"
  type: "Scale"
  bottom: "h_19"
  bottom: "cont_20"
  top: "h_conted_19"
  scale_param {
    axis: 0
  }
}
layer {
  name: "lstm1_transform_20"
  type: "InnerProduct"
  bottom: "h_conted_19"
  top: "W_hc_h_19"
  param {
    name: "W_hc"
  }
  inner_product_param {
    num_output: 512
    bias_term: false
    weight_filler {
      type: "xavier"
    }
    axis: 2
  }
}
layer {
  name: "lstm1_gate_input_20"
  type: "Eltwise"
  bottom: "W_hc_h_19"
  bottom: "W_xc_x_20"
  top: "gate_input_20"
  eltwise_param {
    operation: SUM
  }
}
layer {
  name: "lstm1_unit_20"
  type: "LSTMUnit"
  bottom: "c_19"
  bottom: "gate_input_20"
  bottom: "cont_20"
  top: "c_20"
  top: "h_20"
}
layer {
  name: "lstm1_h_conted_20"
  type: "Scale"
  bottom: "h_20"
  bottom: "cont_21"
  top: "h_conted_20"
  scale_param {
    axis: 0
  }
}
layer {
  name: "lstm1_transform_21"
  type: "InnerProduct"
  bottom: "h_conted_20"
  top: "W_hc_h_20"
  param {
    name: "W_hc"
  }
  inner_product_param {
    num_output: 512
    bias_term: false
    weight_filler {
      type: "xavier"
    }
    axis: 2
  }
}
layer {
  name: "lstm1_gate_input_21"
  type: "Eltwise"
  bottom: "W_hc_h_20"
  bottom: "W_xc_x_21"
  top: "gate_input_21"
  eltwise_param {
    operation: SUM
  }
}
layer {
  name: "lstm1_unit_21"
  type: "LSTMUnit"
  bottom: "c_20"
  bottom: "gate_input_21"
  bottom: "cont_21"
  top: "c_21"
  top: "h_21"
}
layer {
  name: "lstm1_h_conted_21"
  type: "Scale"
  bottom: "h_21"
  bottom: "cont_22"
  top: "h_conted_21"
  scale_param {
    axis: 0
  }
}
layer {
  name: "lstm1_transform_22"
  type: "InnerProduct"
  bottom: "h_conted_21"
  top: "W_hc_h_21"
  param {
    name: "W_hc"
  }
  inner_product_param {
    num_output: 512
    bias_term: false
    weight_filler {
      type: "xavier"
    }
    axis: 2
  }
}
layer {
  name: "lstm1_gate_input_22"
  type: "Eltwise"
  bottom: "W_hc_h_21"
  bottom: "W_xc_x_22"
  top: "gate_input_22"
  eltwise_param {
    operation: SUM
  }
}
layer {
  name: "lstm1_unit_22"
  type: "LSTMUnit"
  bottom: "c_21"
  bottom: "gate_input_22"
  bottom: "cont_22"
  top: "c_22"
  top: "h_22"
}
layer {
  name: "lstm1_h_conted_22"
  type: "Scale"
  bottom: "h_22"
  bottom: "cont_23"
  top: "h_conted_22"
  scale_param {
    axis: 0
  }
}
layer {
  name: "lstm1_transform_23"
  type: "InnerProduct"
  bottom: "h_conted_22"
  top: "W_hc_h_22"
  param {
    name: "W_hc"
  }
  inner_product_param {
    num_output: 512
    bias_term: false
    weight_filler {
      type: "xavier"
    }
    axis: 2
  }
}
layer {
  name: "lstm1_gate_input_23"
  type: "Eltwise"
  bottom: "W_hc_h_22"
  bottom: "W_xc_x_23"
  top: "gate_input_23"
  eltwise_param {
    operation: SUM
  }
}
layer {
  name: "lstm1_unit_23"
  type: "LSTMUnit"
  bottom: "c_22"
  bottom: "gate_input_23"
  bottom: "cont_23"
  top: "c_23"
  top: "h_23"
}
layer {
  name: "lstm1_h_conted_23"
  type: "Scale"
  bottom: "h_23"
  bottom: "cont_24"
  top: "h_conted_23"
  scale_param {
    axis: 0
  }
}
layer {
  name: "lstm1_transform_24"
  type: "InnerProduct"
  bottom: "h_conted_23"
  top: "W_hc_h_23"
  param {
    name: "W_hc"
  }
  inner_product_param {
    num_output: 512
    bias_term: false
    weight_filler {
      type: "xavier"
    }
    axis: 2
  }
}
layer {
  name: "lstm1_gate_input_24"
  type: "Eltwise"
  bottom: "W_hc_h_23"
  bottom: "W_xc_x_24"
  top: "gate_input_24"
  eltwise_param {
    operation: SUM
  }
}
layer {
  name: "lstm1_unit_24"
  type: "LSTMUnit"
  bottom: "c_23"
  bottom: "gate_input_24"
  bottom: "cont_24"
  top: "c_24"
  top: "h_24"
}
layer {
  name: "lstm1_"
  type: "Split"
  bottom: "c_24"
  top: "c_T"
}
layer {
  name: "lstm1_h_concat"
  type: "Concat"
  bottom: "h_1"
  bottom: "h_2"
  bottom: "h_3"
  bottom: "h_4"
  bottom: "h_5"
  bottom: "h_6"
  bottom: "h_7"
  bottom: "h_8"
  bottom: "h_9"
  bottom: "h_10"
  bottom: "h_11"
  bottom: "h_12"
  bottom: "h_13"
  bottom: "h_14"
  bottom: "h_15"
  bottom: "h_16"
  bottom: "h_17"
  bottom: "h_18"
  bottom: "h_19"
  bottom: "h_20"
  bottom: "h_21"
  bottom: "h_22"
  bottom: "h_23"
  bottom: "h_24"
  top: "h"
  concat_param {
    axis: 0
  }
}
layer {
  name: "h_pseudoloss"
  type: "Reduction"
  bottom: "h"
  top: "h_pseudoloss"
  loss_weight: 1
}
I0222 17:59:16.478706 25894 layer_factory.hpp:77] Creating layer lstm1_
I0222 17:59:16.478715 25894 net.cpp:84] Creating Layer lstm1_
I0222 17:59:16.478719 25894 net.cpp:380] lstm1_ -> x
I0222 17:59:16.478726 25894 net.cpp:380] lstm1_ -> cont
I0222 17:59:16.478751 25894 net.cpp:122] Setting up lstm1_
I0222 17:59:16.478756 25894 net.cpp:129] Top shape: 24 26 1 1 (624)
I0222 17:59:16.478760 25894 net.cpp:129] Top shape: 24 26 (624)
I0222 17:59:16.478763 25894 net.cpp:137] Memory required for data: 4992
I0222 17:59:16.478766 25894 layer_factory.hpp:77] Creating layer lstm1_
I0222 17:59:16.478771 25894 net.cpp:84] Creating Layer lstm1_
I0222 17:59:16.478775 25894 net.cpp:380] lstm1_ -> c_0
I0222 17:59:16.478780 25894 net.cpp:380] lstm1_ -> h_0
I0222 17:59:16.478799 25894 net.cpp:122] Setting up lstm1_
I0222 17:59:16.478804 25894 net.cpp:129] Top shape: 1 26 128 (3328)
I0222 17:59:16.478807 25894 net.cpp:129] Top shape: 1 26 128 (3328)
I0222 17:59:16.478811 25894 net.cpp:137] Memory required for data: 31616
I0222 17:59:16.478813 25894 layer_factory.hpp:77] Creating layer lstm1_cont_slice
I0222 17:59:16.478821 25894 net.cpp:84] Creating Layer lstm1_cont_slice
I0222 17:59:16.478826 25894 net.cpp:406] lstm1_cont_slice <- cont
I0222 17:59:16.478847 25894 net.cpp:380] lstm1_cont_slice -> cont_1
I0222 17:59:16.478853 25894 net.cpp:380] lstm1_cont_slice -> cont_2
…
I0222 17:59:16.478966 25894 net.cpp:380] lstm1_cont_slice -> cont_17
I0222 17:59:16.478976 25894 net.cpp:380] lstm1_cont_slice -> cont_18
I0222 17:59:16.478996 25894 net.cpp:380] lstm1_cont_slice -> cont_19
I0222 17:59:16.479001 25894 net.cpp:380] lstm1_cont_slice -> cont_20
I0222 17:59:16.479012 25894 net.cpp:380] lstm1_cont_slice -> cont_21
I0222 17:59:16.479018 25894 net.cpp:380] lstm1_cont_slice -> cont_22
I0222 17:59:16.479023 25894 net.cpp:380] lstm1_cont_slice -> cont_23
I0222 17:59:16.479028 25894 net.cpp:380] lstm1_cont_slice -> cont_24
I0222 17:59:16.479167 25894 net.cpp:122] Setting up lstm1_cont_slice
I0222 17:59:16.479172 25894 net.cpp:129] Top shape: 1 26 (26)
I0222 17:59:16.479176 25894 net.cpp:129] Top shape: 1 26 (26)
I0222 17:59:16.479179 25894 net.cpp:129] Top shape: 1 26 (26)
I0222 17:59:16.479182 25894 net.cpp:129] Top shape: 1 26 (26)
I0222 17:59:16.479187 25894 net.cpp:129] Top shape: 1 26 (26)
I0222 17:59:16.479189 25894 net.cpp:129] Top shape: 1 26 (26)
I0222 17:59:16.479192 25894 net.cpp:129] Top shape: 1 26 (26)
I0222 17:59:16.479195 25894 net.cpp:129] Top shape: 1 26 (26)
I0222 17:59:16.479199 25894 net.cpp:129] Top shape: 1 26 (26)
I0222 17:59:16.479202 25894 net.cpp:129] Top shape: 1 26 (26)
I0222 17:59:16.479205 25894 net.cpp:129] Top shape: 1 26 (26)
I0222 17:59:16.479208 25894 net.cpp:129] Top shape: 1 26 (26)
I0222 17:59:16.479212 25894 net.cpp:129] Top shape: 1 26 (26)
I0222 17:59:16.479215 25894 net.cpp:129] Top shape: 1 26 (26)
I0222 17:59:16.479218 25894 net.cpp:129] Top shape: 1 26 (26)
I0222 17:59:16.479223 25894 net.cpp:129] Top shape: 1 26 (26)
I0222 17:59:16.479225 25894 net.cpp:129] Top shape: 1 26 (26)
I0222 17:59:16.479228 25894 net.cpp:129] Top shape: 1 26 (26)
I0222 17:59:16.479231 25894 net.cpp:129] Top shape: 1 26 (26)
I0222 17:59:16.479234 25894 net.cpp:129] Top shape: 1 26 (26)
I0222 17:59:16.492076 25894 net.cpp:129] Top shape: 1 26 (26)
I0222 17:59:16.492084 25894 net.cpp:129] Top shape: 1 26 (26)
I0222 17:59:16.492087 25894 net.cpp:129] Top shape: 1 26 (26)
I0222 17:59:16.492105 25894 net.cpp:129] Top shape: 1 26 (26)
I0222 17:59:16.492106 25894 net.cpp:137] Memory required for data: 34112
I0222 17:59:16.492110 25894 layer_factory.hpp:77] Creating layer cont_1_lstm1_cont_slice_0_split
I0222 17:59:16.492130 25894 net.cpp:84] Creating Layer cont_1_lstm1_cont_slice_0_split
I0222 17:59:16.492133 25894 net.cpp:406] cont_1_lstm1_cont_slice_0_split <- cont_1
I0222 17:59:16.492138 25894 net.cpp:380] cont_1_lstm1_cont_slice_0_split -> cont_1_lstm1_cont_slice_0_split_0
I0222 17:59:16.492147 25894 net.cpp:380] cont_1_lstm1_cont_slice_0_split -> cont_1_lstm1_cont_slice_0_split_1
I0222 17:59:16.492192 25894 net.cpp:122] Setting up cont_1_lstm1_cont_slice_0_split
I0222 17:59:16.492197 25894 net.cpp:129] Top shape: 1 26 (26)
I0222 17:59:16.492200 25894 net.cpp:129] Top shape: 1 26 (26)
I0222 17:59:16.492202 25894 net.cpp:137] Memory required for data: 34320
I0222 17:59:16.492205 25894 layer_factory.hpp:77] Creating layer cont_2_lstm1_cont_slice_1_split
I0222 17:59:16.492213 25894 net.cpp:84] Creating Layer cont_2_lstm1_cont_slice_1_split
I0222 17:59:16.492215 25894 net.cpp:406] cont_2_lstm1_cont_slice_1_split <- cont_2
I0222 17:59:16.492219 25894 net.cpp:380] cont_2_lstm1_cont_slice_1_split -> cont_2_lstm1_cont_slice_1_split_0
I0222 17:59:16.492224 25894 net.cpp:380] cont_2_lstm1_cont_slice_1_split -> cont_2_lstm1_cont_slice_1_split_1
I0222 17:59:16.492244 25894 net.cpp:122] Setting up cont_2_lstm1_cont_slice_1_split
I0222 17:59:16.492249 25894 net.cpp:129] Top shape: 1 26 (26)
I0222 17:59:16.492252 25894 net.cpp:129] Top shape: 1 26 (26)
I0222 17:59:16.492255 25894 net.cpp:137] Memory required for data: 34528
I0222 17:59:16.492259 25894 layer_factory.hpp:77] Creating layer cont_3_lstm1_cont_slice_2_split
I0222 17:59:16.492261 25894 net.cpp:84] Creating Layer cont_3_lstm1_cont_slice_2_split
I0222 17:59:16.492264 25894 net.cpp:406] cont_3_lstm1_cont_slice_2_split <- cont_3
I0222 17:59:16.492269 25894 net.cpp:380] cont_3_lstm1_cont_slice_2_split -> cont_3_lstm1_cont_slice_2_split_0
I0222 17:59:16.492275 25894 net.cpp:380] cont_3_lstm1_cont_slice_2_split -> cont_3_lstm1_cont_slice_2_split_1
I0222 17:59:16.492295 25894 net.cpp:122] Setting up cont_3_lstm1_cont_slice_2_split
I0222 17:59:16.492298 25894 net.cpp:129] Top shape: 1 26 (26)
I0222 17:59:16.492311 25894 net.cpp:129] Top shape: 1 26 (26)
I0222 17:59:16.492313 25894 net.cpp:137] Memory required for data: 34736
I0222 17:59:16.492316 25894 layer_factory.hpp:77] Creating layer cont_4_lstm1_cont_slice_3_split
I0222 17:59:16.492321 25894 net.cpp:84] Creating Layer cont_4_lstm1_cont_slice_3_split
I0222 17:59:16.492323 25894 net.cpp:406] cont_4_lstm1_cont_slice_3_split <- cont_4
I0222 17:59:16.492328 25894 net.cpp:380] cont_4_lstm1_cont_slice_3_split -> cont_4_lstm1_cont_slice_3_split_0
I0222 17:59:16.492333 25894 net.cpp:380] cont_4_lstm1_cont_slice_3_split -> cont_4_lstm1_cont_slice_3_split_1
I0222 17:59:16.492350 25894 net.cpp:122] Setting up cont_4_lstm1_cont_slice_3_split
I0222 17:59:16.492354 25894 net.cpp:129] Top shape: 1 26 (26)
I0222 17:59:16.492358 25894 net.cpp:129] Top shape: 1 26 (26)
I0222 17:59:16.492362 25894 net.cpp:137] Memory required for data: 34944
I0222 17:59:16.492363 25894 layer_factory.hpp:77] Creating layer cont_5_lstm1_cont_slice_4_split
I0222 17:59:16.492368 25894 net.cpp:84] Creating Layer cont_5_lstm1_cont_slice_4_split
I0222 17:59:16.492372 25894 net.cpp:406] cont_5_lstm1_cont_slice_4_split <- cont_5
I0222 17:59:16.492375 25894 net.cpp:380] cont_5_lstm1_cont_slice_4_split -> cont_5_lstm1_cont_slice_4_split_0
I0222 17:59:16.492380 25894 net.cpp:380] cont_5_lstm1_cont_slice_4_split -> cont_5_lstm1_cont_slice_4_split_1
I0222 17:59:16.492396 25894 net.cpp:122] Setting up cont_5_lstm1_cont_slice_4_split
I0222 17:59:16.492400 25894 net.cpp:129] Top shape: 1 26 (26)
I0222 17:59:16.492404 25894 net.cpp:129] Top shape: 1 26 (26)
I0222 17:59:16.492406 25894 net.cpp:137] Memory required for data: 35152
I0222 17:59:16.492409 25894 layer_factory.hpp:77] Creating layer cont_6_lstm1_cont_slice_5_split
I0222 17:59:16.492414 25894 net.cpp:84] Creating Layer cont_6_lstm1_cont_slice_5_split
I0222 17:59:16.492417 25894 net.cpp:406] cont_6_lstm1_cont_slice_5_split <- cont_6
I0222 17:59:16.492421 25894 net.cpp:380] cont_6_lstm1_cont_slice_5_split -> cont_6_lstm1_cont_slice_5_split_0
I0222 17:59:16.492425 25894 net.cpp:380] cont_6_lstm1_cont_slice_5_split -> cont_6_lstm1_cont_slice_5_split_1
I0222 17:59:16.492441 25894 net.cpp:122] Setting up cont_6_lstm1_cont_slice_5_split
I0222 17:59:16.492446 25894 net.cpp:129] Top shape: 1 26 (26)
I0222 17:59:16.492449 25894 net.cpp:129] Top shape: 1 26 (26)
I0222 17:59:16.492452 25894 net.cpp:137] Memory required for data: 35360
I0222 17:59:16.492455 25894 layer_factory.hpp:77] Creating layer cont_7_lstm1_cont_slice_6_split
I0222 17:59:16.492458 25894 net.cpp:84] Creating Layer cont_7_lstm1_cont_slice_6_split
I0222 17:59:16.492461 25894 net.cpp:406] cont_7_lstm1_cont_slice_6_split <- cont_7
I0222 17:59:16.492465 25894 net.cpp:380] cont_7_lstm1_cont_slice_6_split -> cont_7_lstm1_cont_slice_6_split_0
I0222 17:59:16.492470 25894 net.cpp:380] cont_7_lstm1_cont_slice_6_split -> cont_7_lstm1_cont_slice_6_split_1
I0222 17:59:16.492485 25894 net.cpp:122] Setting up cont_7_lstm1_cont_slice_6_split
I0222 17:59:16.492489 25894 net.cpp:129] Top shape: 1 26 (26)
I0222 17:59:16.492492 25894 net.cpp:129] Top shape: 1 26 (26)
I0222 17:59:16.492496 25894 net.cpp:137] Memory required for data: 35568
I0222 17:59:16.492498 25894 layer_factory.hpp:77] Creating layer cont_8_lstm1_cont_slice_7_split
I0222 17:59:16.492502 25894 net.cpp:84] Creating Layer cont_8_lstm1_cont_slice_7_split
I0222 17:59:16.492506 25894 net.cpp:406] cont_8_lstm1_cont_slice_7_split <- cont_8
I0222 17:59:16.492509 25894 net.cpp:380] cont_8_lstm1_cont_slice_7_split -> cont_8_lstm1_cont_slice_7_split_0
I0222 17:59:16.492513 25894 net.cpp:380] cont_8_lstm1_cont_slice_7_split -> cont_8_lstm1_cont_slice_7_split_1
I0222 17:59:16.492530 25894 net.cpp:122] Setting up cont_8_lstm1_cont_slice_7_split
I0222 17:59:16.492535 25894 net.cpp:129] Top shape: 1 26 (26)
I0222 17:59:16.492538 25894 net.cpp:129] Top shape: 1 26 (26)
I0222 17:59:16.492542 25894 net.cpp:137] Memory required for data: 35776
I0222 17:59:16.492543 25894 layer_factory.hpp:77] Creating layer cont_9_lstm1_cont_slice_8_split
I0222 17:59:16.492547 25894 net.cpp:84] Creating Layer cont_9_lstm1_cont_slice_8_split
I0222 17:59:16.492554 25894 net.cpp:406] cont_9_lstm1_cont_slice_8_split <- cont_9
I0222 17:59:16.492558 25894 net.cpp:380] cont_9_lstm1_cont_slice_8_split -> cont_9_lstm1_cont_slice_8_split_0
I0222 17:59:16.492563 25894 net.cpp:380] cont_9_lstm1_cont_slice_8_split -> cont_9_lstm1_cont_slice_8_split_1
I0222 17:59:16.492580 25894 net.cpp:122] Setting up cont_9_lstm1_cont_slice_8_split
I0222 17:59:16.492584 25894 net.cpp:129] Top shape: 1 26 (26)
I0222 17:59:16.492588 25894 net.cpp:129] Top shape: 1 26 (26)
I0222 17:59:16.492590 25894 net.cpp:137] Memory required for data: 35984
I0222 17:59:16.492594 25894 layer_factory.hpp:77] Creating layer cont_10_lstm1_cont_slice_9_split
I0222 17:59:16.492597 25894 net.cpp:84] Creating Layer cont_10_lstm1_cont_slice_9_split
I0222 17:59:16.492600 25894 net.cpp:406] cont_10_lstm1_cont_slice_9_split <- cont_10
I0222 17:59:16.494338 25894 net.cpp:380] cont_10_lstm1_cont_slice_9_split -> cont_10_lstm1_cont_slice_9_split_0
I0222 17:59:16.494349 25894 net.cpp:380] cont_10_lstm1_cont_slice_9_split -> cont_10_lstm1_cont_slice_9_split_1
I0222 17:59:16.494374 25894 net.cpp:122] Setting up cont_10_lstm1_cont_slice_9_split
I0222 17:59:16.494380 25894 net.cpp:129] Top shape: 1 26 (26)
I0222 17:59:16.494384 25894 net.cpp:129] Top shape: 1 26 (26)
I0222 17:59:16.494386 25894 net.cpp:137] Memory required for data: 36192
I0222 17:59:16.494390 25894 layer_factory.hpp:77] Creating layer cont_11_lstm1_cont_slice_10_split
I0222 17:59:16.494395 25894 net.cpp:84] Creating Layer cont_11_lstm1_cont_slice_10_split
I0222 17:59:16.494398 25894 net.cpp:406] cont_11_lstm1_cont_slice_10_split <- cont_11
I0222 17:59:16.494402 25894 net.cpp:380] cont_11_lstm1_cont_slice_10_split -> cont_11_lstm1_cont_slice_10_split_0
I0222 17:59:16.494406 25894 net.cpp:380] cont_11_lstm1_cont_slice_10_split -> cont_11_lstm1_cont_slice_10_split_1
I0222 17:59:16.494426 25894 net.cpp:122] Setting up cont_11_lstm1_cont_slice_10_split
I0222 17:59:16.494431 25894 net.cpp:129] Top shape: 1 26 (26)
I0222 17:59:16.494434 25894 net.cpp:129] Top shape: 1 26 (26)
I0222 17:59:16.494437 25894 net.cpp:137] Memory required for data: 36400
I0222 17:59:16.494441 25894 layer_factory.hpp:77] Creating layer cont_12_lstm1_cont_slice_11_split
I0222 17:59:16.494443 25894 net.cpp:84] Creating Layer cont_12_lstm1_cont_slice_11_split
I0222 17:59:16.494447 25894 net.cpp:406] cont_12_lstm1_cont_slice_11_split <- cont_12
I0222 17:59:16.494451 25894 net.cpp:380] cont_12_lstm1_cont_slice_11_split -> cont_12_lstm1_cont_slice_11_split_0
I0222 17:59:16.494455 25894 net.cpp:380] cont_12_lstm1_cont_slice_11_split -> cont_12_lstm1_cont_slice_11_split_1
I0222 17:59:16.494472 25894 net.cpp:122] Setting up cont_12_lstm1_cont_slice_11_split
I0222 17:59:16.494477 25894 net.cpp:129] Top shape: 1 26 (26)
I0222 17:59:16.494480 25894 net.cpp:129] Top shape: 1 26 (26)
I0222 17:59:16.494483 25894 net.cpp:137] Memory required for data: 36608
I0222 17:59:16.494487 25894 layer_factory.hpp:77] Creating layer cont_13_lstm1_cont_slice_12_split
I0222 17:59:16.494489 25894 net.cpp:84] Creating Layer cont_13_lstm1_cont_slice_12_split
I0222 17:59:16.494493 25894 net.cpp:406] cont_13_lstm1_cont_slice_12_split <- cont_13
I0222 17:59:16.494496 25894 net.cpp:380] cont_13_lstm1_cont_slice_12_split -> cont_13_lstm1_cont_slice_12_split_0
I0222 17:59:16.494500 25894 net.cpp:380] cont_13_lstm1_cont_slice_12_split -> cont_13_lstm1_cont_slice_12_split_1
I0222 17:59:16.494518 25894 net.cpp:122] Setting up cont_13_lstm1_cont_slice_12_split
I0222 17:59:16.494521 25894 net.cpp:129] Top shape: 1 26 (26)
I0222 17:59:16.494525 25894 net.cpp:129] Top shape: 1 26 (26)
I0222 17:59:16.494529 25894 net.cpp:137] Memory required for data: 36816
I0222 17:59:16.494530 25894 layer_factory.hpp:77] Creating layer cont_14_lstm1_cont_slice_13_split
I0222 17:59:16.494536 25894 net.cpp:84] Creating Layer cont_14_lstm1_cont_slice_13_split
I0222 17:59:16.494540 25894 net.cpp:406] cont_14_lstm1_cont_slice_13_split <- cont_14
I0222 17:59:16.494544 25894 net.cpp:380] cont_14_lstm1_cont_slice_13_split -> cont_14_lstm1_cont_slice_13_split_0
I0222 17:59:16.494555 25894 net.cpp:380] cont_14_lstm1_cont_slice_13_split -> cont_14_lstm1_cont_slice_13_split_1
I0222 17:59:16.494572 25894 net.cpp:122] Setting up cont_14_lstm1_cont_slice_13_split
I0222 17:59:16.494577 25894 net.cpp:129] Top shape: 1 26 (26)
I0222 17:59:16.494580 25894 net.cpp:129] Top shape: 1 26 (26)
I0222 17:59:16.494583 25894 net.cpp:137] Memory required for data: 37024
I0222 17:59:16.494586 25894 layer_factory.hpp:77] Creating layer cont_15_lstm1_cont_slice_14_split
I0222 17:59:16.494590 25894 net.cpp:84] Creating Layer cont_15_lstm1_cont_slice_14_split
I0222 17:59:16.494593 25894 net.cpp:406] cont_15_lstm1_cont_slice_14_split <- cont_15
I0222 17:59:16.494597 25894 net.cpp:380] cont_15_lstm1_cont_slice_14_split -> cont_15_lstm1_cont_slice_14_split_0
I0222 17:59:16.494601 25894 net.cpp:380] cont_15_lstm1_cont_slice_14_split -> cont_15_lstm1_cont_slice_14_split_1
I0222 17:59:16.494617 25894 net.cpp:122] Setting up cont_15_lstm1_cont_slice_14_split
I0222 17:59:16.494621 25894 net.cpp:129] Top shape: 1 26 (26)
I0222 17:59:16.494626 25894 net.cpp:129] Top shape: 1 26 (26)
I0222 17:59:16.494627 25894 net.cpp:137] Memory required for data: 37232
I0222 17:59:16.494630 25894 layer_factory.hpp:77] Creating layer cont_16_lstm1_cont_slice_15_split
I0222 17:59:16.494634 25894 net.cpp:84] Creating Layer cont_16_lstm1_cont_slice_15_split
I0222 17:59:16.494637 25894 net.cpp:406] cont_16_lstm1_cont_slice_15_split <- cont_16
I0222 17:59:16.494640 25894 net.cpp:380] cont_16_lstm1_cont_slice_15_split -> cont_16_lstm1_cont_slice_15_split_0
I0222 17:59:16.494645 25894 net.cpp:380] cont_16_lstm1_cont_slice_15_split -> cont_16_lstm1_cont_slice_15_split_1
I0222 17:59:16.494662 25894 net.cpp:122] Setting up cont_16_lstm1_cont_slice_15_split
I0222 17:59:16.494665 25894 net.cpp:129] Top shape: 1 26 (26)
I0222 17:59:16.494669 25894 net.cpp:129] Top shape: 1 26 (26)
I0222 17:59:16.494671 25894 net.cpp:137] Memory required for data: 37440
I0222 17:59:16.494674 25894 layer_factory.hpp:77] Creating layer cont_17_lstm1_cont_slice_16_split
I0222 17:59:16.494678 25894 net.cpp:84] Creating Layer cont_17_lstm1_cont_slice_16_split
I0222 17:59:16.494681 25894 net.cpp:406] cont_17_lstm1_cont_slice_16_split <- cont_17
I0222 17:59:16.494689 25894 net.cpp:380] cont_17_lstm1_cont_slice_16_split -> cont_17_lstm1_cont_slice_16_split_0
I0222 17:59:16.494694 25894 net.cpp:380] cont_17_lstm1_cont_slice_16_split -> cont_17_lstm1_cont_slice_16_split_1
I0222 17:59:16.494711 25894 net.cpp:122] Setting up cont_17_lstm1_cont_slice_16_split
I0222 17:59:16.494715 25894 net.cpp:129] Top shape: 1 26 (26)
I0222 17:59:16.494719 25894 net.cpp:129] Top shape: 1 26 (26)
I0222 17:59:16.494721 25894 net.cpp:137] Memory required for data: 37648
I0222 17:59:16.494724 25894 layer_factory.hpp:77] Creating layer cont_18_lstm1_cont_slice_17_split
I0222 17:59:16.494729 25894 net.cpp:84] Creating Layer cont_18_lstm1_cont_slice_17_split
I0222 17:59:16.494731 25894 net.cpp:406] cont_18_lstm1_cont_slice_17_split <- cont_18
I0222 17:59:16.494735 25894 net.cpp:380] cont_18_lstm1_cont_slice_17_split -> cont_18_lstm1_cont_slice_17_split_0
I0222 17:59:16.494740 25894 net.cpp:380] cont_18_lstm1_cont_slice_17_split -> cont_18_lstm1_cont_slice_17_split_1
I0222 17:59:16.494755 25894 net.cpp:122] Setting up cont_18_lstm1_cont_slice_17_split
I0222 17:59:16.494760 25894 net.cpp:129] Top shape: 1 26 (26)
I0222 17:59:16.494762 25894 net.cpp:129] Top shape: 1 26 (26)
I0222 17:59:16.494765 25894 net.cpp:137] Memory required for data: 37856
I0222 17:59:16.494768 25894 layer_factory.hpp:77] Creating layer cont_19_lstm1_cont_slice_18_split
I0222 17:59:16.494771 25894 net.cpp:84] Creating Layer cont_19_lstm1_cont_slice_18_split
I0222 17:59:16.494774 25894 net.cpp:406] cont_19_lstm1_cont_slice_18_split <- cont_19
I0222 17:59:16.494778 25894 net.cpp:380] cont_19_lstm1_cont_slice_18_split -> cont_19_lstm1_cont_slice_18_split_0
I0222 17:59:16.494787 25894 net.cpp:380] cont_19_lstm1_cont_slice_18_split -> cont_19_lstm1_cont_slice_18_split_1
I0222 17:59:16.494809 25894 net.cpp:122] Setting up cont_19_lstm1_cont_slice_18_split
I0222 17:59:16.494814 25894 net.cpp:129] Top shape: 1 26 (26)
I0222 17:59:16.524485 25894 net.cpp:129] Top shape: 1 26 (26)
I0222 17:59:16.524493 25894 net.cpp:137] Memory required for data: 38064
I0222 17:59:16.524497 25894 layer_factory.hpp:77] Creating layer cont_20_lstm1_cont_slice_19_split
I0222 17:59:16.524504 25894 net.cpp:84] Creating Layer cont_20_lstm1_cont_slice_19_split
I0222 17:59:16.524508 25894 net.cpp:406] cont_20_lstm1_cont_slice_19_split <- cont_20
I0222 17:59:16.524531 25894 net.cpp:380] cont_20_lstm1_cont_slice_19_split -> cont_20_lstm1_cont_slice_19_split_0
I0222 17:59:16.524538 25894 net.cpp:380] cont_20_lstm1_cont_slice_19_split -> cont_20_lstm1_cont_slice_19_split_1
I0222 17:59:16.524633 25894 net.cpp:122] Setting up cont_20_lstm1_cont_slice_19_split
I0222 17:59:16.524638 25894 net.cpp:129] Top shape: 1 26 (26)
I0222 17:59:16.524641 25894 net.cpp:129] Top shape: 1 26 (26)
I0222 17:59:16.524643 25894 net.cpp:137] Memory required for data: 38272
I0222 17:59:16.524646 25894 layer_factory.hpp:77] Creating layer cont_21_lstm1_cont_slice_20_split
I0222 17:59:16.524649 25894 net.cpp:84] Creating Layer cont_21_lstm1_cont_slice_20_split
I0222 17:59:16.524652 25894 net.cpp:406] cont_21_lstm1_cont_slice_20_split <- cont_21
I0222 17:59:16.524657 25894 net.cpp:380] cont_21_lstm1_cont_slice_20_split -> cont_21_lstm1_cont_slice_20_split_0
I0222 17:59:16.524660 25894 net.cpp:380] cont_21_lstm1_cont_slice_20_split -> cont_21_lstm1_cont_slice_20_split_1
I0222 17:59:16.524677 25894 net.cpp:122] Setting up cont_21_lstm1_cont_slice_20_split
I0222 17:59:16.524682 25894 net.cpp:129] Top shape: 1 26 (26)
I0222 17:59:16.524684 25894 net.cpp:129] Top shape: 1 26 (26)
I0222 17:59:16.524688 25894 net.cpp:137] Memory required for data: 38480
I0222 17:59:16.524689 25894 layer_factory.hpp:77] Creating layer cont_22_lstm1_cont_slice_21_split
I0222 17:59:16.524693 25894 net.cpp:84] Creating Layer cont_22_lstm1_cont_slice_21_split
I0222 17:59:16.524694 25894 net.cpp:406] cont_22_lstm1_cont_slice_21_split <- cont_22
I0222 17:59:16.524699 25894 net.cpp:380] cont_22_lstm1_cont_slice_21_split -> cont_22_lstm1_cont_slice_21_split_0
I0222 17:59:16.524703 25894 net.cpp:380] cont_22_lstm1_cont_slice_21_split -> cont_22_lstm1_cont_slice_21_split_1
I0222 17:59:16.524718 25894 net.cpp:122] Setting up cont_22_lstm1_cont_slice_21_split
I0222 17:59:16.524724 25894 net.cpp:129] Top shape: 1 26 (26)
I0222 17:59:16.524727 25894 net.cpp:129] Top shape: 1 26 (26)
I0222 17:59:16.524729 25894 net.cpp:137] Memory required for data: 38688
I0222 17:59:16.524731 25894 layer_factory.hpp:77] Creating layer cont_23_lstm1_cont_slice_22_split
I0222 17:59:16.524734 25894 net.cpp:84] Creating Layer cont_23_lstm1_cont_slice_22_split
I0222 17:59:16.524737 25894 net.cpp:406] cont_23_lstm1_cont_slice_22_split <- cont_23
I0222 17:59:16.524740 25894 net.cpp:380] cont_23_lstm1_cont_slice_22_split -> cont_23_lstm1_cont_slice_22_split_0
I0222 17:59:16.524744 25894 net.cpp:380] cont_23_lstm1_cont_slice_22_split -> cont_23_lstm1_cont_slice_22_split_1
I0222 17:59:16.524760 25894 net.cpp:122] Setting up cont_23_lstm1_cont_slice_22_split
I0222 17:59:16.524763 25894 net.cpp:129] Top shape: 1 26 (26)
I0222 17:59:16.524766 25894 net.cpp:129] Top shape: 1 26 (26)
I0222 17:59:16.524768 25894 net.cpp:137] Memory required for data: 38896
I0222 17:59:16.524771 25894 layer_factory.hpp:77] Creating layer cont_24_lstm1_cont_slice_23_split
I0222 17:59:16.524775 25894 net.cpp:84] Creating Layer cont_24_lstm1_cont_slice_23_split
I0222 17:59:16.524777 25894 net.cpp:406] cont_24_lstm1_cont_slice_23_split <- cont_24
I0222 17:59:16.524780 25894 net.cpp:380] cont_24_lstm1_cont_slice_23_split -> cont_24_lstm1_cont_slice_23_split_0
I0222 17:59:16.524785 25894 net.cpp:380] cont_24_lstm1_cont_slice_23_split -> cont_24_lstm1_cont_slice_23_split_1
I0222 17:59:16.524801 25894 net.cpp:122] Setting up cont_24_lstm1_cont_slice_23_split
I0222 17:59:16.524806 25894 net.cpp:129] Top shape: 1 26 (26)
I0222 17:59:16.524816 25894 net.cpp:129] Top shape: 1 26 (26)
I0222 17:59:16.524818 25894 net.cpp:137] Memory required for data: 39104
I0222 17:59:16.524821 25894 layer_factory.hpp:77] Creating layer lstm1_x_transform
I0222 17:59:16.524832 25894 net.cpp:84] Creating Layer lstm1_x_transform
I0222 17:59:16.524835 25894 net.cpp:406] lstm1_x_transform <- x
I0222 17:59:16.524839 25894 net.cpp:380] lstm1_x_transform -> W_xc_x
I0222 17:59:16.524919 25894 net.cpp:122] Setting up lstm1_x_transform
I0222 17:59:16.524924 25894 net.cpp:129] Top shape: 24 26 512 (319488)
I0222 17:59:16.524927 25894 net.cpp:137] Memory required for data: 1317056
I0222 17:59:16.524940 25894 layer_factory.hpp:77] Creating layer lstm1_W_xc_x_slice
I0222 17:59:16.524946 25894 net.cpp:84] Creating Layer lstm1_W_xc_x_slice
I0222 17:59:16.524950 25894 net.cpp:406] lstm1_W_xc_x_slice <- W_xc_x
I0222 17:59:16.524955 25894 net.cpp:380] lstm1_W_xc_x_slice -> W_xc_x_1
I0222 17:59:16.524962 25894 net.cpp:380] lstm1_W_xc_x_slice -> W_xc_x_2
…
I0222 17:59:16.525046 25894 net.cpp:380] lstm1_W_xc_x_slice -> W_xc_x_18
I0222 17:59:16.525053 25894 net.cpp:380] lstm1_W_xc_x_slice -> W_xc_x_19
I0222 17:59:16.525058 25894 net.cpp:380] lstm1_W_xc_x_slice -> W_xc_x_20
I0222 17:59:16.525063 25894 net.cpp:380] lstm1_W_xc_x_slice -> W_xc_x_21
I0222 17:59:16.525068 25894 net.cpp:380] lstm1_W_xc_x_slice -> W_xc_x_22
I0222 17:59:16.525072 25894 net.cpp:380] lstm1_W_xc_x_slice -> W_xc_x_23
I0222 17:59:16.525077 25894 net.cpp:380] lstm1_W_xc_x_slice -> W_xc_x_24
I0222 17:59:16.525212 25894 net.cpp:122] Setting up lstm1_W_xc_x_slice
I0222 17:59:16.525216 25894 net.cpp:129] Top shape: 1 26 512 (13312)
I0222 17:59:16.525220 25894 net.cpp:129] Top shape: 1 26 512 (13312)
I0222 17:59:16.525223 25894 net.cpp:129] Top shape: 1 26 512 (13312)
I0222 17:59:16.525226 25894 net.cpp:129] Top shape: 1 26 512 (13312)
I0222 17:59:16.525230 25894 net.cpp:129] Top shape: 1 26 512 (13312)
I0222 17:59:16.525233 25894 net.cpp:129] Top shape: 1 26 512 (13312)
I0222 17:59:16.525236 25894 net.cpp:129] Top shape: 1 26 512 (13312)
I0222 17:59:16.525239 25894 net.cpp:129] Top shape: 1 26 512 (13312)
I0222 17:59:16.525243 25894 net.cpp:129] Top shape: 1 26 512 (13312)
I0222 17:59:16.525246 25894 net.cpp:129] Top shape: 1 26 512 (13312)
I0222 17:59:16.525249 25894 net.cpp:129] Top shape: 1 26 512 (13312)
I0222 17:59:16.525252 25894 net.cpp:129] Top shape: 1 26 512 (13312)
I0222 17:59:16.525256 25894 net.cpp:129] Top shape: 1 26 512 (13312)
I0222 17:59:16.525259 25894 net.cpp:129] Top shape: 1 26 512 (13312)
I0222 17:59:16.525262 25894 net.cpp:129] Top shape: 1 26 512 (13312)
I0222 17:59:16.525265 25894 net.cpp:129] Top shape: 1 26 512 (13312)
I0222 17:59:16.525269 25894 net.cpp:129] Top shape: 1 26 512 (13312)
I0222 17:59:16.525272 25894 net.cpp:129] Top shape: 1 26 512 (13312)
I0222 17:59:16.525275 25894 net.cpp:129] Top shape: 1 26 512 (13312)
I0222 17:59:16.525279 25894 net.cpp:129] Top shape: 1 26 512 (13312)
I0222 17:59:16.525281 25894 net.cpp:129] Top shape: 1 26 512 (13312)
I0222 17:59:16.525292 25894 net.cpp:129] Top shape: 1 26 512 (13312)
I0222 17:59:16.525296 25894 net.cpp:129] Top shape: 1 26 512 (13312)
I0222 17:59:16.525300 25894 net.cpp:129] Top shape: 1 26 512 (13312)
I0222 17:59:16.525302 25894 net.cpp:137] Memory required for data: 2595008
I0222 17:59:16.525305 25894 layer_factory.hpp:77] Creating layer lstm1_h_conted_0
I0222 17:59:16.525310 25894 net.cpp:84] Creating Layer lstm1_h_conted_0
I0222 17:59:16.527456 25894 net.cpp:406] lstm1_h_conted_0 <- h_0
I0222 17:59:16.527490 25894 net.cpp:406] lstm1_h_conted_0 <- cont_1_lstm1_cont_slice_0_split_0
I0222 17:59:16.527498 25894 net.cpp:380] lstm1_h_conted_0 -> h_conted_0
I0222 17:59:16.527559 25894 net.cpp:122] Setting up lstm1_h_conted_0
I0222 17:59:16.527564 25894 net.cpp:129] Top shape: 1 26 128 (3328)
I0222 17:59:16.527566 25894 net.cpp:137] Memory required for data: 2608320
I0222 17:59:16.527570 25894 layer_factory.hpp:77] Creating layer lstm1_transform_1
I0222 17:59:16.527576 25894 net.cpp:84] Creating Layer lstm1_transform_1
I0222 17:59:16.527580 25894 net.cpp:406] lstm1_transform_1 <- h_conted_0
I0222 17:59:16.527583 25894 net.cpp:380] lstm1_transform_1 -> W_hc_h_0
I0222 17:59:16.528481 25894 net.cpp:122] Setting up lstm1_transform_1
I0222 17:59:16.528491 25894 net.cpp:129] Top shape: 1 26 512 (13312)
I0222 17:59:16.528493 25894 net.cpp:137] Memory required for data: 2661568
I0222 17:59:16.528501 25894 layer_factory.hpp:77] Creating layer lstm1_gate_input_1
I0222 17:59:16.528511 25894 net.cpp:84] Creating Layer lstm1_gate_input_1
I0222 17:59:16.528514 25894 net.cpp:406] lstm1_gate_input_1 <- W_hc_h_0
I0222 17:59:16.528518 25894 net.cpp:406] lstm1_gate_input_1 <- W_xc_x_1
I0222 17:59:16.528522 25894 net.cpp:380] lstm1_gate_input_1 -> gate_input_1
I0222 17:59:16.528542 25894 net.cpp:122] Setting up lstm1_gate_input_1
I0222 17:59:16.528548 25894 net.cpp:129] Top shape: 1 26 512 (13312)
I0222 17:59:16.528550 25894 net.cpp:137] Memory required for data: 2714816
I0222 17:59:16.528553 25894 layer_factory.hpp:77] Creating layer lstm1_unit_1
I0222 17:59:16.528561 25894 net.cpp:84] Creating Layer lstm1_unit_1
I0222 17:59:16.528565 25894 net.cpp:406] lstm1_unit_1 <- c_0
I0222 17:59:16.528569 25894 net.cpp:406] lstm1_unit_1 <- gate_input_1
I0222 17:59:16.528573 25894 net.cpp:406] lstm1_unit_1 <- cont_1_lstm1_cont_slice_0_split_1
I0222 17:59:16.528578 25894 net.cpp:380] lstm1_unit_1 -> c_1
I0222 17:59:16.528584 25894 net.cpp:380] lstm1_unit_1 -> h_1
I0222 17:59:16.528611 25894 net.cpp:122] Setting up lstm1_unit_1
I0222 17:59:16.528616 25894 net.cpp:129] Top shape: 1 26 128 (3328)
I0222 17:59:16.528620 25894 net.cpp:129] Top shape: 1 26 128 (3328)
I0222 17:59:16.528622 25894 net.cpp:137] Memory required for data: 2741440
I0222 17:59:16.528625 25894 layer_factory.hpp:77] Creating layer h_1_lstm1_unit_1_1_split
I0222 17:59:16.528630 25894 net.cpp:84] Creating Layer h_1_lstm1_unit_1_1_split
I0222 17:59:16.528633 25894 net.cpp:406] h_1_lstm1_unit_1_1_split <- h_1
I0222 17:59:16.528636 25894 net.cpp:380] h_1_lstm1_unit_1_1_split -> h_1_lstm1_unit_1_1_split_0
I0222 17:59:16.528641 25894 net.cpp:380] h_1_lstm1_unit_1_1_split -> h_1_lstm1_unit_1_1_split_1
I0222 17:59:16.528661 25894 net.cpp:122] Setting up h_1_lstm1_unit_1_1_split
I0222 17:59:16.528666 25894 net.cpp:129] Top shape: 1 26 128 (3328)
I0222 17:59:16.528668 25894 net.cpp:129] Top shape: 1 26 128 (3328)
I0222 17:59:16.528671 25894 net.cpp:137] Memory required for data: 2768064
I0222 17:59:16.528674 25894 layer_factory.hpp:77] Creating layer lstm1_h_conted_1
I0222 17:59:16.528678 25894 net.cpp:84] Creating Layer lstm1_h_conted_1
I0222 17:59:16.528682 25894 net.cpp:406] lstm1_h_conted_1 <- h_1_lstm1_unit_1_1_split_0
I0222 17:59:16.528687 25894 net.cpp:406] lstm1_h_conted_1 <- cont_2_lstm1_cont_slice_1_split_0
I0222 17:59:16.528693 25894 net.cpp:380] lstm1_h_conted_1 -> h_conted_1
I0222 17:59:16.528725 25894 net.cpp:122] Setting up lstm1_h_conted_1
I0222 17:59:16.528729 25894 net.cpp:129] Top shape: 1 26 128 (3328)
I0222 17:59:16.528733 25894 net.cpp:137] Memory required for data: 2781376
I0222 17:59:16.528743 25894 layer_factory.hpp:77] Creating layer lstm1_transform_2
I0222 17:59:16.528750 25894 net.cpp:84] Creating Layer lstm1_transform_2
I0222 17:59:16.528753 25894 net.cpp:406] lstm1_transform_2 <- h_conted_1
I0222 17:59:16.528758 25894 net.cpp:380] lstm1_transform_2 -> W_hc_h_1
I0222 17:59:16.529042 25894 net.cpp:122] Setting up lstm1_transform_2
I0222 17:59:16.529047 25894 net.cpp:129] Top shape: 1 26 512 (13312)
I0222 17:59:16.529050 25894 net.cpp:137] Memory required for data: 2834624
I0222 17:59:16.529054 25894 net.cpp:465] Sharing parameters 'W_hc' owned by layer 'lstm1_transform_1', param index 0
I0222 17:59:16.529057 25894 layer_factory.hpp:77] Creating layer lstm1_gate_input_2
I0222 17:59:16.529062 25894 net.cpp:84] Creating Layer lstm1_gate_input_2
I0222 17:59:16.529065 25894 net.cpp:406] lstm1_gate_input_2 <- W_hc_h_1
I0222 17:59:16.529070 25894 net.cpp:406] lstm1_gate_input_2 <- W_xc_x_2
I0222 17:59:16.529074 25894 net.cpp:380] lstm1_gate_input_2 -> gate_input_2
I0222 17:59:16.529088 25894 net.cpp:122] Setting up lstm1_gate_input_2
I0222 17:59:16.529093 25894 net.cpp:129] Top shape: 1 26 512 (13312)
I0222 17:59:16.529095 25894 net.cpp:137] Memory required for data: 2887872
I0222 17:59:16.529098 25894 layer_factory.hpp:77] Creating layer lstm1_unit_2
I0222 17:59:16.529101 25894 net.cpp:84] Creating Layer lstm1_unit_2
I0222 17:59:16.529105 25894 net.cpp:406] lstm1_unit_2 <- c_1
I0222 17:59:16.529109 25894 net.cpp:406] lstm1_unit_2 <- gate_input_2
I0222 17:59:16.529114 25894 net.cpp:406] lstm1_unit_2 <- cont_2_lstm1_cont_slice_1_split_1
I0222 17:59:16.529120 25894 net.cpp:380] lstm1_unit_2 -> c_2
I0222 17:59:16.529126 25894 net.cpp:380] lstm1_unit_2 -> h_2
I0222 17:59:16.529155 25894 net.cpp:122] Setting up lstm1_unit_2
I0222 17:59:16.529161 25894 net.cpp:129] Top shape: 1 26 128 (3328)
I0222 17:59:16.529165 25894 net.cpp:129] Top shape: 1 26 128 (3328)
I0222 17:59:16.529168 25894 net.cpp:137] Memory required for data: 2914496
I0222 17:59:16.529170 25894 layer_factory.hpp:77] Creating layer h_2_lstm1_unit_2_1_split
I0222 17:59:16.529175 25894 net.cpp:84] Creating Layer h_2_lstm1_unit_2_1_split
I0222 17:59:16.529180 25894 net.cpp:406] h_2_lstm1_unit_2_1_split <- h_2
I0222 17:59:16.529183 25894 net.cpp:380] h_2_lstm1_unit_2_1_split -> h_2_lstm1_unit_2_1_split_0
I0222 17:59:16.529187 25894 net.cpp:380] h_2_lstm1_unit_2_1_split -> h_2_lstm1_unit_2_1_split_1
I0222 17:59:16.529206 25894 net.cpp:122] Setting up h_2_lstm1_unit_2_1_split
I0222 17:59:16.529211 25894 net.cpp:129] Top shape: 1 26 128 (3328)
I0222 17:59:16.529214 25894 net.cpp:129] Top shape: 1 26 128 (3328)
I0222 17:59:16.529217 25894 net.cpp:137] Memory required for data: 2941120
I0222 17:59:16.529219 25894 layer_factory.hpp:77] Creating layer lstm1_h_conted_2
I0222 17:59:16.529223 25894 net.cpp:84] Creating Layer lstm1_h_conted_2
I0222 17:59:16.529227 25894 net.cpp:406] lstm1_h_conted_2 <- h_2_lstm1_unit_2_1_split_0
I0222 17:59:16.529232 25894 net.cpp:406] lstm1_h_conted_2 <- cont_3_lstm1_cont_slice_2_split_0
I0222 17:59:16.529235 25894 net.cpp:380] lstm1_h_conted_2 -> h_conted_2
I0222 17:59:16.529265 25894 net.cpp:122] Setting up lstm1_h_conted_2
I0222 17:59:16.529270 25894 net.cpp:129] Top shape: 1 26 128 (3328)
I0222 17:59:16.529273 25894 net.cpp:137] Memory required for data: 2954432
I0222 17:59:16.529276 25894 layer_factory.hpp:77] Creating layer lstm1_transform_3
I0222 17:59:16.529280 25894 net.cpp:84] Creating Layer lstm1_transform_3
I0222 17:59:16.529284 25894 net.cpp:406] lstm1_transform_3 <- h_conted_2
I0222 17:59:16.529289 25894 net.cpp:380] lstm1_transform_3 -> W_hc_h_2
I0222 17:59:16.529618 25894 net.cpp:122] Setting up lstm1_transform_3
I0222 17:59:16.529623 25894 net.cpp:129] Top shape: 1 26 512 (13312)
I0222 17:59:16.529625 25894 net.cpp:137] Memory required for data: 3007680
I0222 17:59:16.529630 25894 net.cpp:465] Sharing parameters 'W_hc' owned by layer 'lstm1_transform_1', param index 0
I0222 17:59:16.529633 25894 layer_factory.hpp:77] Creating layer lstm1_gate_input_3
I0222 17:59:16.529639 25894 net.cpp:84] Creating Layer lstm1_gate_input_3
I0222 17:59:16.529647 25894 net.cpp:406] lstm1_gate_input_3 <- W_hc_h_2
I0222 17:59:16.554702 25894 net.cpp:406] lstm1_gate_input_3 <- W_xc_x_3
I0222 17:59:16.554713 25894 net.cpp:380] lstm1_gate_input_3 -> gate_input_3
I0222 17:59:16.554769 25894 net.cpp:122] Setting up lstm1_gate_input_3
I0222 17:59:16.554774 25894 net.cpp:129] Top shape: 1 26 512 (13312)
I0222 17:59:16.554776 25894 net.cpp:137] Memory required for data: 3060928
I0222 17:59:16.554780 25894 layer_factory.hpp:77] Creating layer lstm1_unit_3
I0222 17:59:16.554800 25894 net.cpp:84] Creating Layer lstm1_unit_3
I0222 17:59:16.554802 25894 net.cpp:406] lstm1_unit_3 <- c_2
I0222 17:59:16.554805 25894 net.cpp:406] lstm1_unit_3 <- gate_input_3
I0222 17:59:16.554826 25894 net.cpp:406] lstm1_unit_3 <- cont_3_lstm1_cont_slice_2_split_1
I0222 17:59:16.554831 25894 net.cpp:380] lstm1_unit_3 -> c_3
I0222 17:59:16.554836 25894 net.cpp:380] lstm1_unit_3 -> h_3
I0222 17:59:16.554874 25894 net.cpp:122] Setting up lstm1_unit_3
I0222 17:59:16.554879 25894 net.cpp:129] Top shape: 1 26 128 (3328)
I0222 17:59:16.554898 25894 net.cpp:129] Top shape: 1 26 128 (3328)
I0222 17:59:16.554903 25894 net.cpp:137] Memory required for data: 3087552
I0222 17:59:16.554905 25894 layer_factory.hpp:77] Creating layer h_3_lstm1_unit_3_1_split
I0222 17:59:16.554909 25894 net.cpp:84] Creating Layer h_3_lstm1_unit_3_1_split
I0222 17:59:16.554913 25894 net.cpp:406] h_3_lstm1_unit_3_1_split <- h_3
I0222 17:59:16.554917 25894 net.cpp:380] h_3_lstm1_unit_3_1_split -> h_3_lstm1_unit_3_1_split_0
I0222 17:59:16.554922 25894 net.cpp:380] h_3_lstm1_unit_3_1_split -> h_3_lstm1_unit_3_1_split_1
I0222 17:59:16.554939 25894 net.cpp:122] Setting up h_3_lstm1_unit_3_1_split
I0222 17:59:16.554944 25894 net.cpp:129] Top shape: 1 26 128 (3328)
I0222 17:59:16.554947 25894 net.cpp:129] Top shape: 1 26 128 (3328)
I0222 17:59:16.554950 25894 net.cpp:137] Memory required for data: 3114176
I0222 17:59:16.554953 25894 layer_factory.hpp:77] Creating layer lstm1_h_conted_3
I0222 17:59:16.554958 25894 net.cpp:84] Creating Layer lstm1_h_conted_3
I0222 17:59:16.554962 25894 net.cpp:406] lstm1_h_conted_3 <- h_3_lstm1_unit_3_1_split_0
I0222 17:59:16.554966 25894 net.cpp:406] lstm1_h_conted_3 <- cont_4_lstm1_cont_slice_3_split_0
I0222 17:59:16.554971 25894 net.cpp:380] lstm1_h_conted_3 -> h_conted_3
I0222 17:59:16.555006 25894 net.cpp:122] Setting up lstm1_h_conted_3
I0222 17:59:16.555011 25894 net.cpp:129] Top shape: 1 26 128 (3328)
I0222 17:59:16.555013 25894 net.cpp:137] Memory required for data: 3127488
I0222 17:59:16.555016 25894 layer_factory.hpp:77] Creating layer lstm1_transform_4
I0222 17:59:16.555022 25894 net.cpp:84] Creating Layer lstm1_transform_4
I0222 17:59:16.555024 25894 net.cpp:406] lstm1_transform_4 <- h_conted_3
I0222 17:59:16.555029 25894 net.cpp:380] lstm1_transform_4 -> W_hc_h_3
I0222 17:59:16.555328 25894 net.cpp:122] Setting up lstm1_transform_4
I0222 17:59:16.555333 25894 net.cpp:129] Top shape: 1 26 512 (13312)
I0222 17:59:16.555337 25894 net.cpp:137] Memory required for data: 3180736
I0222 17:59:16.555341 25894 net.cpp:465] Sharing parameters 'W_hc' owned by layer 'lstm1_transform_1', param index 0
I0222 17:59:16.555344 25894 layer_factory.hpp:77] Creating layer lstm1_gate_input_4
I0222 17:59:16.555348 25894 net.cpp:84] Creating Layer lstm1_gate_input_4
I0222 17:59:16.555352 25894 net.cpp:406] lstm1_gate_input_4 <- W_hc_h_3
I0222 17:59:16.555356 25894 net.cpp:406] lstm1_gate_input_4 <- W_xc_x_4
I0222 17:59:16.555361 25894 net.cpp:380] lstm1_gate_input_4 -> gate_input_4
I0222 17:59:16.555374 25894 net.cpp:122] Setting up lstm1_gate_input_4
I0222 17:59:16.555379 25894 net.cpp:129] Top shape: 1 26 512 (13312)
I0222 17:59:16.555382 25894 net.cpp:137] Memory required for data: 3233984
I0222 17:59:16.555385 25894 layer_factory.hpp:77] Creating layer lstm1_unit_4
I0222 17:59:16.555389 25894 net.cpp:84] Creating Layer lstm1_unit_4
I0222 17:59:16.555392 25894 net.cpp:406] lstm1_unit_4 <- c_3
I0222 17:59:16.555397 25894 net.cpp:406] lstm1_unit_4 <- gate_input_4
I0222 17:59:16.555408 25894 net.cpp:406] lstm1_unit_4 <- cont_4_lstm1_cont_slice_3_split_1
I0222 17:59:16.555413 25894 net.cpp:380] lstm1_unit_4 -> c_4
I0222 17:59:16.555418 25894 net.cpp:380] lstm1_unit_4 -> h_4
I0222 17:59:16.555444 25894 net.cpp:122] Setting up lstm1_unit_4
I0222 17:59:16.555449 25894 net.cpp:129] Top shape: 1 26 128 (3328)
I0222 17:59:16.555451 25894 net.cpp:129] Top shape: 1 26 128 (3328)
I0222 17:59:16.555454 25894 net.cpp:137] Memory required for data: 3260608
I0222 17:59:16.555457 25894 layer_factory.hpp:77] Creating layer h_4_lstm1_unit_4_1_split
I0222 17:59:16.555461 25894 net.cpp:84] Creating Layer h_4_lstm1_unit_4_1_split
I0222 17:59:16.555464 25894 net.cpp:406] h_4_lstm1_unit_4_1_split <- h_4
I0222 17:59:16.555469 25894 net.cpp:380] h_4_lstm1_unit_4_1_split -> h_4_lstm1_unit_4_1_split_0
I0222 17:59:16.555474 25894 net.cpp:380] h_4_lstm1_unit_4_1_split -> h_4_lstm1_unit_4_1_split_1
I0222 17:59:16.555500 25894 net.cpp:122] Setting up h_4_lstm1_unit_4_1_split
I0222 17:59:16.555505 25894 net.cpp:129] Top shape: 1 26 128 (3328)
I0222 17:59:16.555508 25894 net.cpp:129] Top shape: 1 26 128 (3328)
I0222 17:59:16.555511 25894 net.cpp:137] Memory required for data: 3287232
I0222 17:59:16.555514 25894 layer_factory.hpp:77] Creating layer lstm1_h_conted_4
I0222 17:59:16.555518 25894 net.cpp:84] Creating Layer lstm1_h_conted_4
I0222 17:59:16.555522 25894 net.cpp:406] lstm1_h_conted_4 <- h_4_lstm1_unit_4_1_split_0
I0222 17:59:16.555526 25894 net.cpp:406] lstm1_h_conted_4 <- cont_5_lstm1_cont_slice_4_split_0
I0222 17:59:16.555531 25894 net.cpp:380] lstm1_h_conted_4 -> h_conted_4
I0222 17:59:16.555560 25894 net.cpp:122] Setting up lstm1_h_conted_4
I0222 17:59:16.555565 25894 net.cpp:129] Top shape: 1 26 128 (3328)
I0222 17:59:16.555568 25894 net.cpp:137] Memory required for data: 3300544
I0222 17:59:16.555572 25894 layer_factory.hpp:77] Creating layer lstm1_transform_5
I0222 17:59:16.555577 25894 net.cpp:84] Creating Layer lstm1_transform_5
I0222 17:59:16.555579 25894 net.cpp:406] lstm1_transform_5 <- h_conted_4
I0222 17:59:16.555584 25894 net.cpp:380] lstm1_transform_5 -> W_hc_h_4
I0222 17:59:16.555881 25894 net.cpp:122] Setting up lstm1_transform_5
I0222 17:59:16.555886 25894 net.cpp:129] Top shape: 1 26 512 (13312)
I0222 17:59:16.555889 25894 net.cpp:137] Memory required for data: 3353792
I0222 17:59:16.555892 25894 net.cpp:465] Sharing parameters 'W_hc' owned by layer 'lstm1_transform_1', param index 0
I0222 17:59:16.555896 25894 layer_factory.hpp:77] Creating layer lstm1_gate_input_5
I0222 17:59:16.555900 25894 net.cpp:84] Creating Layer lstm1_gate_input_5
I0222 17:59:16.555903 25894 net.cpp:406] lstm1_gate_input_5 <- W_hc_h_4
I0222 17:59:16.555907 25894 net.cpp:406] lstm1_gate_input_5 <- W_xc_x_5
I0222 17:59:16.555912 25894 net.cpp:380] lstm1_gate_input_5 -> gate_input_5
I0222 17:59:16.555925 25894 net.cpp:122] Setting up lstm1_gate_input_5
I0222 17:59:16.555929 25894 net.cpp:129] Top shape: 1 26 512 (13312)
I0222 17:59:16.555932 25894 net.cpp:137] Memory required for data: 3407040
I0222 17:59:16.555935 25894 layer_factory.hpp:77] Creating layer lstm1_unit_5
I0222 17:59:16.555940 25894 net.cpp:84] Creating Layer lstm1_unit_5
I0222 17:59:16.555944 25894 net.cpp:406] lstm1_unit_5 <- c_4
I0222 17:59:16.555948 25894 net.cpp:406] lstm1_unit_5 <- gate_input_5
I0222 17:59:16.555951 25894 net.cpp:406] lstm1_unit_5 <- cont_5_lstm1_cont_slice_4_split_1
I0222 17:59:16.555955 25894 net.cpp:380] lstm1_unit_5 -> c_5
I0222 17:59:16.555960 25894 net.cpp:380] lstm1_unit_5 -> h_5
I0222 17:59:16.555994 25894 net.cpp:122] Setting up lstm1_unit_5
I0222 17:59:16.556000 25894 net.cpp:129] Top shape: 1 26 128 (3328)
I0222 17:59:16.556006 25894 net.cpp:129] Top shape: 1 26 128 (3328)
I0222 17:59:16.556010 25894 net.cpp:137] Memory required for data: 3433664
I0222 17:59:16.556015 25894 layer_factory.hpp:77] Creating layer h_5_lstm1_unit_5_1_split
I0222 17:59:16.556020 25894 net.cpp:84] Creating Layer h_5_lstm1_unit_5_1_split
I0222 17:59:16.556025 25894 net.cpp:406] h_5_lstm1_unit_5_1_split <- h_5
I0222 17:59:16.557575 25894 net.cpp:380] h_5_lstm1_unit_5_1_split -> h_5_lstm1_unit_5_1_split_0
I0222 17:59:16.557606 25894 net.cpp:380] h_5_lstm1_unit_5_1_split -> h_5_lstm1_unit_5_1_split_1
I0222 17:59:16.557633 25894 net.cpp:122] Setting up h_5_lstm1_unit_5_1_split
I0222 17:59:16.557638 25894 net.cpp:129] Top shape: 1 26 128 (3328)
I0222 17:59:16.557642 25894 net.cpp:129] Top shape: 1 26 128 (3328)
I0222 17:59:16.557646 25894 net.cpp:137] Memory required for data: 3460288
I0222 17:59:16.557648 25894 layer_factory.hpp:77] Creating layer lstm1_h_conted_5
I0222 17:59:16.557654 25894 net.cpp:84] Creating Layer lstm1_h_conted_5
I0222 17:59:16.557657 25894 net.cpp:406] lstm1_h_conted_5 <- h_5_lstm1_unit_5_1_split_0
I0222 17:59:16.557662 25894 net.cpp:406] lstm1_h_conted_5 <- cont_6_lstm1_cont_slice_5_split_0
I0222 17:59:16.557667 25894 net.cpp:380] lstm1_h_conted_5 -> h_conted_5
I0222 17:59:16.557700 25894 net.cpp:122] Setting up lstm1_h_conted_5
I0222 17:59:16.557705 25894 net.cpp:129] Top shape: 1 26 128 (3328)
I0222 17:59:16.557708 25894 net.cpp:137] Memory required for data: 3473600
I0222 17:59:16.557710 25894 layer_factory.hpp:77] Creating layer lstm1_transform_6
I0222 17:59:16.557715 25894 net.cpp:84] Creating Layer lstm1_transform_6
I0222 17:59:16.557718 25894 net.cpp:406] lstm1_transform_6 <- h_conted_5
I0222 17:59:16.557723 25894 net.cpp:380] lstm1_transform_6 -> W_hc_h_5
I0222 17:59:16.558015 25894 net.cpp:122] Setting up lstm1_transform_6
I0222 17:59:16.558020 25894 net.cpp:129] Top shape: 1 26 512 (13312)
I0222 17:59:16.558023 25894 net.cpp:137] Memory required for data: 3526848
I0222 17:59:16.558027 25894 net.cpp:465] Sharing parameters 'W_hc' owned by layer 'lstm1_transform_1', param index 0
I0222 17:59:16.558030 25894 layer_factory.hpp:77] Creating layer lstm1_gate_input_6
I0222 17:59:16.558034 25894 net.cpp:84] Creating Layer lstm1_gate_input_6
I0222 17:59:16.558038 25894 net.cpp:406] lstm1_gate_input_6 <- W_hc_h_5
I0222 17:59:16.558043 25894 net.cpp:406] lstm1_gate_input_6 <- W_xc_x_6
I0222 17:59:16.558048 25894 net.cpp:380] lstm1_gate_input_6 -> gate_input_6
I0222 17:59:16.558060 25894 net.cpp:122] Setting up lstm1_gate_input_6
I0222 17:59:16.558064 25894 net.cpp:129] Top shape: 1 26 512 (13312)
I0222 17:59:16.558068 25894 net.cpp:137] Memory required for data: 3580096
I0222 17:59:16.558070 25894 layer_factory.hpp:77] Creating layer lstm1_unit_6
I0222 17:59:16.558074 25894 net.cpp:84] Creating Layer lstm1_unit_6
I0222 17:59:16.558077 25894 net.cpp:406] lstm1_unit_6 <- c_5
I0222 17:59:16.558081 25894 net.cpp:406] lstm1_unit_6 <- gate_input_6
I0222 17:59:16.558085 25894 net.cpp:406] lstm1_unit_6 <- cont_6_lstm1_cont_slice_5_split_1
I0222 17:59:16.558090 25894 net.cpp:380] lstm1_unit_6 -> c_6
I0222 17:59:16.558095 25894 net.cpp:380] lstm1_unit_6 -> h_6
I0222 17:59:16.558120 25894 net.cpp:122] Setting up lstm1_unit_6
I0222 17:59:16.558125 25894 net.cpp:129] Top shape: 1 26 128 (3328)
I0222 17:59:16.558127 25894 net.cpp:129] Top shape: 1 26 128 (3328)
I0222 17:59:16.558130 25894 net.cpp:137] Memory required for data: 3606720
I0222 17:59:16.558133 25894 layer_factory.hpp:77] Creating layer h_6_lstm1_unit_6_1_split
I0222 17:59:16.558137 25894 net.cpp:84] Creating Layer h_6_lstm1_unit_6_1_split
I0222 17:59:16.558140 25894 net.cpp:406] h_6_lstm1_unit_6_1_split <- h_6
I0222 17:59:16.558145 25894 net.cpp:380] h_6_lstm1_unit_6_1_split -> h_6_lstm1_unit_6_1_split_0
I0222 17:59:16.558148 25894 net.cpp:380] h_6_lstm1_unit_6_1_split -> h_6_lstm1_unit_6_1_split_1
I0222 17:59:16.558166 25894 net.cpp:122] Setting up h_6_lstm1_unit_6_1_split
I0222 17:59:16.558171 25894 net.cpp:129] Top shape: 1 26 128 (3328)
I0222 17:59:16.558174 25894 net.cpp:129] Top shape: 1 26 128 (3328)
I0222 17:59:16.558177 25894 net.cpp:137] Memory required for data: 3633344
I0222 17:59:16.558181 25894 layer_factory.hpp:77] Creating layer lstm1_h_conted_6
I0222 17:59:16.558184 25894 net.cpp:84] Creating Layer lstm1_h_conted_6
I0222 17:59:16.558187 25894 net.cpp:406] lstm1_h_conted_6 <- h_6_lstm1_unit_6_1_split_0
I0222 17:59:16.558192 25894 net.cpp:406] lstm1_h_conted_6 <- cont_7_lstm1_cont_slice_6_split_0
I0222 17:59:16.558200 25894 net.cpp:380] lstm1_h_conted_6 -> h_conted_6
I0222 17:59:16.558233 25894 net.cpp:122] Setting up lstm1_h_conted_6
I0222 17:59:16.558238 25894 net.cpp:129] Top shape: 1 26 128 (3328)
I0222 17:59:16.558241 25894 net.cpp:137] Memory required for data: 3646656
I0222 17:59:16.558244 25894 layer_factory.hpp:77] Creating layer lstm1_transform_7
I0222 17:59:16.558249 25894 net.cpp:84] Creating Layer lstm1_transform_7
I0222 17:59:16.558253 25894 net.cpp:406] lstm1_transform_7 <- h_conted_6
I0222 17:59:16.558257 25894 net.cpp:380] lstm1_transform_7 -> W_hc_h_6
I0222 17:59:16.558562 25894 net.cpp:122] Setting up lstm1_transform_7
I0222 17:59:16.558567 25894 net.cpp:129] Top shape: 1 26 512 (13312)
I0222 17:59:16.558569 25894 net.cpp:137] Memory required for data: 3699904
I0222 17:59:16.558575 25894 net.cpp:465] Sharing parameters 'W_hc' owned by layer 'lstm1_transform_1', param index 0
I0222 17:59:16.558579 25894 layer_factory.hpp:77] Creating layer lstm1_gate_input_7
I0222 17:59:16.558583 25894 net.cpp:84] Creating Layer lstm1_gate_input_7
I0222 17:59:16.558588 25894 net.cpp:406] lstm1_gate_input_7 <- W_hc_h_6
I0222 17:59:16.558590 25894 net.cpp:406] lstm1_gate_input_7 <- W_xc_x_7
I0222 17:59:16.558595 25894 net.cpp:380] lstm1_gate_input_7 -> gate_input_7
I0222 17:59:16.558609 25894 net.cpp:122] Setting up lstm1_gate_input_7
I0222 17:59:16.558614 25894 net.cpp:129] Top shape: 1 26 512 (13312)
I0222 17:59:16.558616 25894 net.cpp:137] Memory required for data: 3753152
I0222 17:59:16.558619 25894 layer_factory.hpp:77] Creating layer lstm1_unit_7
I0222 17:59:16.558624 25894 net.cpp:84] Creating Layer lstm1_unit_7
I0222 17:59:16.558627 25894 net.cpp:406] lstm1_unit_7 <- c_6
I0222 17:59:16.558631 25894 net.cpp:406] lstm1_unit_7 <- gate_input_7
I0222 17:59:16.558634 25894 net.cpp:406] lstm1_unit_7 <- cont_7_lstm1_cont_slice_6_split_1
I0222 17:59:16.558639 25894 net.cpp:380] lstm1_unit_7 -> c_7
I0222 17:59:16.558643 25894 net.cpp:380] lstm1_unit_7 -> h_7
I0222 17:59:16.558667 25894 net.cpp:122] Setting up lstm1_unit_7
I0222 17:59:16.558672 25894 net.cpp:129] Top shape: 1 26 128 (3328)
I0222 17:59:16.558676 25894 net.cpp:129] Top shape: 1 26 128 (3328)
I0222 17:59:16.558691 25894 net.cpp:137] Memory required for data: 3779776
I0222 17:59:16.558694 25894 layer_factory.hpp:77] Creating layer h_7_lstm1_unit_7_1_split
I0222 17:59:16.558717 25894 net.cpp:84] Creating Layer h_7_lstm1_unit_7_1_split
I0222 17:59:16.558720 25894 net.cpp:406] h_7_lstm1_unit_7_1_split <- h_7
I0222 17:59:16.558724 25894 net.cpp:380] h_7_lstm1_unit_7_1_split -> h_7_lstm1_unit_7_1_split_0
I0222 17:59:16.558728 25894 net.cpp:380] h_7_lstm1_unit_7_1_split -> h_7_lstm1_unit_7_1_split_1
I0222 17:59:16.558746 25894 net.cpp:122] Setting up h_7_lstm1_unit_7_1_split
I0222 17:59:16.558751 25894 net.cpp:129] Top shape: 1 26 128 (3328)
I0222 17:59:16.558754 25894 net.cpp:129] Top shape: 1 26 128 (3328)
I0222 17:59:16.558758 25894 net.cpp:137] Memory required for data: 3806400
I0222 17:59:16.558760 25894 layer_factory.hpp:77] Creating layer lstm1_h_conted_7
I0222 17:59:16.558769 25894 net.cpp:84] Creating Layer lstm1_h_conted_7
I0222 17:59:16.558773 25894 net.cpp:406] lstm1_h_conted_7 <- h_7_lstm1_unit_7_1_split_0
I0222 17:59:16.558778 25894 net.cpp:406] lstm1_h_conted_7 <- cont_8_lstm1_cont_slice_7_split_0
I0222 17:59:16.558781 25894 net.cpp:380] lstm1_h_conted_7 -> h_conted_7
I0222 17:59:16.558812 25894 net.cpp:122] Setting up lstm1_h_conted_7
I0222 17:59:16.558817 25894 net.cpp:129] Top shape: 1 26 128 (3328)
I0222 17:59:16.558820 25894 net.cpp:137] Memory required for data: 3819712
I0222 17:59:16.558823 25894 layer_factory.hpp:77] Creating layer lstm1_transform_8
I0222 17:59:16.558830 25894 net.cpp:84] Creating Layer lstm1_transform_8
I0222 17:59:16.558832 25894 net.cpp:406] lstm1_transform_8 <- h_conted_7
I0222 17:59:16.558836 25894 net.cpp:380] lstm1_transform_8 -> W_hc_h_7
I0222 17:59:16.559135 25894 net.cpp:122] Setting up lstm1_transform_8
I0222 17:59:16.559140 25894 net.cpp:129] Top shape: 1 26 512 (13312)
I0222 17:59:16.559149 25894 net.cpp:137] Memory required for data: 3872960
I0222 17:59:16.559151 25894 net.cpp:465] Sharing parameters 'W_hc' owned by layer 'lstm1_transform_1', param index 0
I0222 17:59:16.559155 25894 layer_factory.hpp:77] Creating layer lstm1_gate_input_8
I0222 17:59:16.559159 25894 net.cpp:84] Creating Layer lstm1_gate_input_8
I0222 17:59:16.585791 25894 net.cpp:406] lstm1_gate_input_8 <- W_hc_h_7
I0222 17:59:16.585804 25894 net.cpp:406] lstm1_gate_input_8 <- W_xc_x_8
I0222 17:59:16.585813 25894 net.cpp:380] lstm1_gate_input_8 -> gate_input_8
I0222 17:59:16.585857 25894 net.cpp:122] Setting up lstm1_gate_input_8
I0222 17:59:16.585865 25894 net.cpp:129] Top shape: 1 26 512 (13312)
I0222 17:59:16.585867 25894 net.cpp:137] Memory required for data: 3926208
I0222 17:59:16.585870 25894 layer_factory.hpp:77] Creating layer lstm1_unit_8
I0222 17:59:16.585875 25894 net.cpp:84] Creating Layer lstm1_unit_8
I0222 17:59:16.585877 25894 net.cpp:406] lstm1_unit_8 <- c_7
I0222 17:59:16.585880 25894 net.cpp:406] lstm1_unit_8 <- gate_input_8
I0222 17:59:16.585885 25894 net.cpp:406] lstm1_unit_8 <- cont_8_lstm1_cont_slice_7_split_1
I0222 17:59:16.585887 25894 net.cpp:380] lstm1_unit_8 -> c_8
I0222 17:59:16.585892 25894 net.cpp:380] lstm1_unit_8 -> h_8
I0222 17:59:16.585918 25894 net.cpp:122] Setting up lstm1_unit_8
I0222 17:59:16.585923 25894 net.cpp:129] Top shape: 1 26 128 (3328)
I0222 17:59:16.585927 25894 net.cpp:129] Top shape: 1 26 128 (3328)
I0222 17:59:16.585928 25894 net.cpp:137] Memory required for data: 3952832
I0222 17:59:16.585932 25894 layer_factory.hpp:77] Creating layer h_8_lstm1_unit_8_1_split
I0222 17:59:16.585935 25894 net.cpp:84] Creating Layer h_8_lstm1_unit_8_1_split
I0222 17:59:16.585938 25894 net.cpp:406] h_8_lstm1_unit_8_1_split <- h_8
I0222 17:59:16.585942 25894 net.cpp:380] h_8_lstm1_unit_8_1_split -> h_8_lstm1_unit_8_1_split_0
I0222 17:59:16.585945 25894 net.cpp:380] h_8_lstm1_unit_8_1_split -> h_8_lstm1_unit_8_1_split_1
I0222 17:59:16.585963 25894 net.cpp:122] Setting up h_8_lstm1_unit_8_1_split
I0222 17:59:16.585968 25894 net.cpp:129] Top shape: 1 26 128 (3328)
I0222 17:59:16.585970 25894 net.cpp:129] Top shape: 1 26 128 (3328)
I0222 17:59:16.585973 25894 net.cpp:137] Memory required for data: 3979456
I0222 17:59:16.585975 25894 layer_factory.hpp:77] Creating layer lstm1_h_conted_8
I0222 17:59:16.585978 25894 net.cpp:84] Creating Layer lstm1_h_conted_8
I0222 17:59:16.585981 25894 net.cpp:406] lstm1_h_conted_8 <- h_8_lstm1_unit_8_1_split_0
I0222 17:59:16.585984 25894 net.cpp:406] lstm1_h_conted_8 <- cont_9_lstm1_cont_slice_8_split_0
I0222 17:59:16.585988 25894 net.cpp:380] lstm1_h_conted_8 -> h_conted_8
I0222 17:59:16.586022 25894 net.cpp:122] Setting up lstm1_h_conted_8
I0222 17:59:16.586027 25894 net.cpp:129] Top shape: 1 26 128 (3328)
I0222 17:59:16.586030 25894 net.cpp:137] Memory required for data: 3992768
I0222 17:59:16.586033 25894 layer_factory.hpp:77] Creating layer lstm1_transform_9
I0222 17:59:16.586038 25894 net.cpp:84] Creating Layer lstm1_transform_9
I0222 17:59:16.586041 25894 net.cpp:406] lstm1_transform_9 <- h_conted_8
I0222 17:59:16.586047 25894 net.cpp:380] lstm1_transform_9 -> W_hc_h_8
I0222 17:59:16.586956 25894 net.cpp:122] Setting up lstm1_transform_9
I0222 17:59:16.586964 25894 net.cpp:129] Top shape: 1 26 512 (13312)
I0222 17:59:16.586967 25894 net.cpp:137] Memory required for data: 4046016
I0222 17:59:16.586971 25894 net.cpp:465] Sharing parameters 'W_hc' owned by layer 'lstm1_transform_1', param index 0
I0222 17:59:16.586977 25894 layer_factory.hpp:77] Creating layer lstm1_gate_input_9
I0222 17:59:16.586983 25894 net.cpp:84] Creating Layer lstm1_gate_input_9
I0222 17:59:16.586988 25894 net.cpp:406] lstm1_gate_input_9 <- W_hc_h_8
I0222 17:59:16.586994 25894 net.cpp:406] lstm1_gate_input_9 <- W_xc_x_9
I0222 17:59:16.587002 25894 net.cpp:380] lstm1_gate_input_9 -> gate_input_9
I0222 17:59:16.587036 25894 net.cpp:122] Setting up lstm1_gate_input_9
I0222 17:59:16.587044 25894 net.cpp:129] Top shape: 1 26 512 (13312)
I0222 17:59:16.587049 25894 net.cpp:137] Memory required for data: 4099264
I0222 17:59:16.587062 25894 layer_factory.hpp:77] Creating layer lstm1_unit_9
I0222 17:59:16.587069 25894 net.cpp:84] Creating Layer lstm1_unit_9
I0222 17:59:16.587074 25894 net.cpp:406] lstm1_unit_9 <- c_8
I0222 17:59:16.587080 25894 net.cpp:406] lstm1_unit_9 <- gate_input_9
I0222 17:59:16.587085 25894 net.cpp:406] lstm1_unit_9 <- cont_9_lstm1_cont_slice_8_split_1
I0222 17:59:16.587091 25894 net.cpp:380] lstm1_unit_9 -> c_9
I0222 17:59:16.587100 25894 net.cpp:380] lstm1_unit_9 -> h_9
I0222 17:59:16.587131 25894 net.cpp:122] Setting up lstm1_unit_9
I0222 17:59:16.587136 25894 net.cpp:129] Top shape: 1 26 128 (3328)
I0222 17:59:16.587139 25894 net.cpp:129] Top shape: 1 26 128 (3328)
I0222 17:59:16.587142 25894 net.cpp:137] Memory required for data: 4125888
I0222 17:59:16.587146 25894 layer_factory.hpp:77] Creating layer h_9_lstm1_unit_9_1_split
I0222 17:59:16.587149 25894 net.cpp:84] Creating Layer h_9_lstm1_unit_9_1_split
I0222 17:59:16.587153 25894 net.cpp:406] h_9_lstm1_unit_9_1_split <- h_9
I0222 17:59:16.587157 25894 net.cpp:380] h_9_lstm1_unit_9_1_split -> h_9_lstm1_unit_9_1_split_0
I0222 17:59:16.587162 25894 net.cpp:380] h_9_lstm1_unit_9_1_split -> h_9_lstm1_unit_9_1_split_1
I0222 17:59:16.587180 25894 net.cpp:122] Setting up h_9_lstm1_unit_9_1_split
I0222 17:59:16.587186 25894 net.cpp:129] Top shape: 1 26 128 (3328)
I0222 17:59:16.587189 25894 net.cpp:129] Top shape: 1 26 128 (3328)
I0222 17:59:16.587193 25894 net.cpp:137] Memory required for data: 4152512
I0222 17:59:16.587195 25894 layer_factory.hpp:77] Creating layer lstm1_h_conted_9
I0222 17:59:16.587199 25894 net.cpp:84] Creating Layer lstm1_h_conted_9
I0222 17:59:16.587203 25894 net.cpp:406] lstm1_h_conted_9 <- h_9_lstm1_unit_9_1_split_0
I0222 17:59:16.587208 25894 net.cpp:406] lstm1_h_conted_9 <- cont_10_lstm1_cont_slice_9_split_0
I0222 17:59:16.587211 25894 net.cpp:380] lstm1_h_conted_9 -> h_conted_9
I0222 17:59:16.587245 25894 net.cpp:122] Setting up lstm1_h_conted_9
I0222 17:59:16.587252 25894 net.cpp:129] Top shape: 1 26 128 (3328)
I0222 17:59:16.587256 25894 net.cpp:137] Memory required for data: 4165824
I0222 17:59:16.587261 25894 layer_factory.hpp:77] Creating layer lstm1_transform_10
I0222 17:59:16.587268 25894 net.cpp:84] Creating Layer lstm1_transform_10
I0222 17:59:16.587272 25894 net.cpp:406] lstm1_transform_10 <- h_conted_9
I0222 17:59:16.587280 25894 net.cpp:380] lstm1_transform_10 -> W_hc_h_9
I0222 17:59:16.587751 25894 net.cpp:122] Setting up lstm1_transform_10
I0222 17:59:16.587761 25894 net.cpp:129] Top shape: 1 26 512 (13312)
I0222 17:59:16.587764 25894 net.cpp:137] Memory required for data: 4219072
I0222 17:59:16.587769 25894 net.cpp:465] Sharing parameters 'W_hc' owned by layer 'lstm1_transform_1', param index 0
I0222 17:59:16.587772 25894 layer_factory.hpp:77] Creating layer lstm1_gate_input_10
I0222 17:59:16.587776 25894 net.cpp:84] Creating Layer lstm1_gate_input_10
I0222 17:59:16.587780 25894 net.cpp:406] lstm1_gate_input_10 <- W_hc_h_9
I0222 17:59:16.587785 25894 net.cpp:406] lstm1_gate_input_10 <- W_xc_x_10
I0222 17:59:16.587790 25894 net.cpp:380] lstm1_gate_input_10 -> gate_input_10
I0222 17:59:16.587803 25894 net.cpp:122] Setting up lstm1_gate_input_10
I0222 17:59:16.587807 25894 net.cpp:129] Top shape: 1 26 512 (13312)
I0222 17:59:16.587810 25894 net.cpp:137] Memory required for data: 4272320
I0222 17:59:16.587813 25894 layer_factory.hpp:77] Creating layer lstm1_unit_10
I0222 17:59:16.587818 25894 net.cpp:84] Creating Layer lstm1_unit_10
I0222 17:59:16.587822 25894 net.cpp:406] lstm1_unit_10 <- c_9
I0222 17:59:16.587826 25894 net.cpp:406] lstm1_unit_10 <- gate_input_10
I0222 17:59:16.587831 25894 net.cpp:406] lstm1_unit_10 <- cont_10_lstm1_cont_slice_9_split_1
I0222 17:59:16.587834 25894 net.cpp:380] lstm1_unit_10 -> c_10
I0222 17:59:16.587839 25894 net.cpp:380] lstm1_unit_10 -> h_10
I0222 17:59:16.587863 25894 net.cpp:122] Setting up lstm1_unit_10
I0222 17:59:16.587867 25894 net.cpp:129] Top shape: 1 26 128 (3328)
I0222 17:59:16.587872 25894 net.cpp:129] Top shape: 1 26 128 (3328)
I0222 17:59:16.587874 25894 net.cpp:137] Memory required for data: 4298944
I0222 17:59:16.587883 25894 layer_factory.hpp:77] Creating layer h_10_lstm1_unit_10_1_split
I0222 17:59:16.587888 25894 net.cpp:84] Creating Layer h_10_lstm1_unit_10_1_split
I0222 17:59:16.589772 25894 net.cpp:406] h_10_lstm1_unit_10_1_split <- h_10
I0222 17:59:16.589803 25894 net.cpp:380] h_10_lstm1_unit_10_1_split -> h_10_lstm1_unit_10_1_split_0
I0222 17:59:16.589812 25894 net.cpp:380] h_10_lstm1_unit_10_1_split -> h_10_lstm1_unit_10_1_split_1
I0222 17:59:16.589839 25894 net.cpp:122] Setting up h_10_lstm1_unit_10_1_split
I0222 17:59:16.589846 25894 net.cpp:129] Top shape: 1 26 128 (3328)
I0222 17:59:16.589851 25894 net.cpp:129] Top shape: 1 26 128 (3328)
I0222 17:59:16.589869 25894 net.cpp:137] Memory required for data: 4325568
I0222 17:59:16.589872 25894 layer_factory.hpp:77] Creating layer lstm1_h_conted_10
I0222 17:59:16.589879 25894 net.cpp:84] Creating Layer lstm1_h_conted_10
I0222 17:59:16.589882 25894 net.cpp:406] lstm1_h_conted_10 <- h_10_lstm1_unit_10_1_split_0
I0222 17:59:16.589889 25894 net.cpp:406] lstm1_h_conted_10 <- cont_11_lstm1_cont_slice_10_split_0
I0222 17:59:16.589895 25894 net.cpp:380] lstm1_h_conted_10 -> h_conted_10
I0222 17:59:16.589928 25894 net.cpp:122] Setting up lstm1_h_conted_10
I0222 17:59:16.589934 25894 net.cpp:129] Top shape: 1 26 128 (3328)
I0222 17:59:16.589937 25894 net.cpp:137] Memory required for data: 4338880
I0222 17:59:16.589941 25894 layer_factory.hpp:77] Creating layer lstm1_transform_11
I0222 17:59:16.589946 25894 net.cpp:84] Creating Layer lstm1_transform_11
I0222 17:59:16.589951 25894 net.cpp:406] lstm1_transform_11 <- h_conted_10
I0222 17:59:16.589956 25894 net.cpp:380] lstm1_transform_11 -> W_hc_h_10
I0222 17:59:16.590245 25894 net.cpp:122] Setting up lstm1_transform_11
I0222 17:59:16.590252 25894 net.cpp:129] Top shape: 1 26 512 (13312)
I0222 17:59:16.590255 25894 net.cpp:137] Memory required for data: 4392128
I0222 17:59:16.590260 25894 net.cpp:465] Sharing parameters 'W_hc' owned by layer 'lstm1_transform_1', param index 0
I0222 17:59:16.590265 25894 layer_factory.hpp:77] Creating layer lstm1_gate_input_11
I0222 17:59:16.590270 25894 net.cpp:84] Creating Layer lstm1_gate_input_11
I0222 17:59:16.590273 25894 net.cpp:406] lstm1_gate_input_11 <- W_hc_h_10
I0222 17:59:16.590278 25894 net.cpp:406] lstm1_gate_input_11 <- W_xc_x_11
I0222 17:59:16.590284 25894 net.cpp:380] lstm1_gate_input_11 -> gate_input_11
I0222 17:59:16.590298 25894 net.cpp:122] Setting up lstm1_gate_input_11
I0222 17:59:16.590304 25894 net.cpp:129] Top shape: 1 26 512 (13312)
I0222 17:59:16.590307 25894 net.cpp:137] Memory required for data: 4445376
I0222 17:59:16.590312 25894 layer_factory.hpp:77] Creating layer lstm1_unit_11
I0222 17:59:16.590317 25894 net.cpp:84] Creating Layer lstm1_unit_11
I0222 17:59:16.590320 25894 net.cpp:406] lstm1_unit_11 <- c_10
I0222 17:59:16.590324 25894 net.cpp:406] lstm1_unit_11 <- gate_input_11
I0222 17:59:16.590329 25894 net.cpp:406] lstm1_unit_11 <- cont_11_lstm1_cont_slice_10_split_1
I0222 17:59:16.590335 25894 net.cpp:380] lstm1_unit_11 -> c_11
I0222 17:59:16.590342 25894 net.cpp:380] lstm1_unit_11 -> h_11
I0222 17:59:16.590368 25894 net.cpp:122] Setting up lstm1_unit_11
I0222 17:59:16.590373 25894 net.cpp:129] Top shape: 1 26 128 (3328)
I0222 17:59:16.590378 25894 net.cpp:129] Top shape: 1 26 128 (3328)
I0222 17:59:16.590381 25894 net.cpp:137] Memory required for data: 4472000
I0222 17:59:16.590384 25894 layer_factory.hpp:77] Creating layer h_11_lstm1_unit_11_1_split
I0222 17:59:16.590389 25894 net.cpp:84] Creating Layer h_11_lstm1_unit_11_1_split
I0222 17:59:16.590394 25894 net.cpp:406] h_11_lstm1_unit_11_1_split <- h_11
I0222 17:59:16.590399 25894 net.cpp:380] h_11_lstm1_unit_11_1_split -> h_11_lstm1_unit_11_1_split_0
I0222 17:59:16.590404 25894 net.cpp:380] h_11_lstm1_unit_11_1_split -> h_11_lstm1_unit_11_1_split_1
I0222 17:59:16.590425 25894 net.cpp:122] Setting up h_11_lstm1_unit_11_1_split
I0222 17:59:16.590430 25894 net.cpp:129] Top shape: 1 26 128 (3328)
I0222 17:59:16.590435 25894 net.cpp:129] Top shape: 1 26 128 (3328)
I0222 17:59:16.590445 25894 net.cpp:137] Memory required for data: 4498624
I0222 17:59:16.590448 25894 layer_factory.hpp:77] Creating layer lstm1_h_conted_11
I0222 17:59:16.590453 25894 net.cpp:84] Creating Layer lstm1_h_conted_11
I0222 17:59:16.590457 25894 net.cpp:406] lstm1_h_conted_11 <- h_11_lstm1_unit_11_1_split_0
I0222 17:59:16.590462 25894 net.cpp:406] lstm1_h_conted_11 <- cont_12_lstm1_cont_slice_11_split_0
I0222 17:59:16.590469 25894 net.cpp:380] lstm1_h_conted_11 -> h_conted_11
I0222 17:59:16.590503 25894 net.cpp:122] Setting up lstm1_h_conted_11
I0222 17:59:16.590509 25894 net.cpp:129] Top shape: 1 26 128 (3328)
I0222 17:59:16.590512 25894 net.cpp:137] Memory required for data: 4511936
I0222 17:59:16.590517 25894 layer_factory.hpp:77] Creating layer lstm1_transform_12
I0222 17:59:16.590523 25894 net.cpp:84] Creating Layer lstm1_transform_12
I0222 17:59:16.590526 25894 net.cpp:406] lstm1_transform_12 <- h_conted_11
I0222 17:59:16.590531 25894 net.cpp:380] lstm1_transform_12 -> W_hc_h_11
I0222 17:59:16.590819 25894 net.cpp:122] Setting up lstm1_transform_12
I0222 17:59:16.590826 25894 net.cpp:129] Top shape: 1 26 512 (13312)
I0222 17:59:16.590828 25894 net.cpp:137] Memory required for data: 4565184
I0222 17:59:16.590832 25894 net.cpp:465] Sharing parameters 'W_hc' owned by layer 'lstm1_transform_1', param index 0
I0222 17:59:16.590837 25894 layer_factory.hpp:77] Creating layer lstm1_gate_input_12
I0222 17:59:16.590842 25894 net.cpp:84] Creating Layer lstm1_gate_input_12
I0222 17:59:16.590845 25894 net.cpp:406] lstm1_gate_input_12 <- W_hc_h_11
I0222 17:59:16.590850 25894 net.cpp:406] lstm1_gate_input_12 <- W_xc_x_12
I0222 17:59:16.590855 25894 net.cpp:380] lstm1_gate_input_12 -> gate_input_12
I0222 17:59:16.590870 25894 net.cpp:122] Setting up lstm1_gate_input_12
I0222 17:59:16.590875 25894 net.cpp:129] Top shape: 1 26 512 (13312)
I0222 17:59:16.590879 25894 net.cpp:137] Memory required for data: 4618432
I0222 17:59:16.590883 25894 layer_factory.hpp:77] Creating layer lstm1_unit_12
I0222 17:59:16.590888 25894 net.cpp:84] Creating Layer lstm1_unit_12
I0222 17:59:16.590891 25894 net.cpp:406] lstm1_unit_12 <- c_11
I0222 17:59:16.590896 25894 net.cpp:406] lstm1_unit_12 <- gate_input_12
I0222 17:59:16.590900 25894 net.cpp:406] lstm1_unit_12 <- cont_12_lstm1_cont_slice_11_split_1
I0222 17:59:16.590905 25894 net.cpp:380] lstm1_unit_12 -> c_12
I0222 17:59:16.590911 25894 net.cpp:380] lstm1_unit_12 -> h_12
I0222 17:59:16.590936 25894 net.cpp:122] Setting up lstm1_unit_12
I0222 17:59:16.590941 25894 net.cpp:129] Top shape: 1 26 128 (3328)
I0222 17:59:16.590946 25894 net.cpp:129] Top shape: 1 26 128 (3328)
I0222 17:59:16.590950 25894 net.cpp:137] Memory required for data: 4645056
I0222 17:59:16.590953 25894 layer_factory.hpp:77] Creating layer h_12_lstm1_unit_12_1_split
I0222 17:59:16.590958 25894 net.cpp:84] Creating Layer h_12_lstm1_unit_12_1_split
I0222 17:59:16.590962 25894 net.cpp:406] h_12_lstm1_unit_12_1_split <- h_12
I0222 17:59:16.590967 25894 net.cpp:380] h_12_lstm1_unit_12_1_split -> h_12_lstm1_unit_12_1_split_0
I0222 17:59:16.590973 25894 net.cpp:380] h_12_lstm1_unit_12_1_split -> h_12_lstm1_unit_12_1_split_1
I0222 17:59:16.590992 25894 net.cpp:122] Setting up h_12_lstm1_unit_12_1_split
I0222 17:59:16.590997 25894 net.cpp:129] Top shape: 1 26 128 (3328)
I0222 17:59:16.591002 25894 net.cpp:129] Top shape: 1 26 128 (3328)
I0222 17:59:16.591006 25894 net.cpp:137] Memory required for data: 4671680
I0222 17:59:16.591008 25894 layer_factory.hpp:77] Creating layer lstm1_h_conted_12
I0222 17:59:16.591013 25894 net.cpp:84] Creating Layer lstm1_h_conted_12
I0222 17:59:16.615941 25894 net.cpp:406] lstm1_h_conted_12 <- h_12_lstm1_unit_12_1_split_0
I0222 17:59:16.615947 25894 net.cpp:406] lstm1_h_conted_12 <- cont_13_lstm1_cont_slice_12_split_0
I0222 17:59:16.615952 25894 net.cpp:380] lstm1_h_conted_12 -> h_conted_12
I0222 17:59:16.615994 25894 net.cpp:122] Setting up lstm1_h_conted_12
I0222 17:59:16.615999 25894 net.cpp:129] Top shape: 1 26 128 (3328)
I0222 17:59:16.616001 25894 net.cpp:137] Memory required for data: 4684992
I0222 17:59:16.616011 25894 layer_factory.hpp:77] Creating layer lstm1_transform_13
I0222 17:59:16.616016 25894 net.cpp:84] Creating Layer lstm1_transform_13
I0222 17:59:16.616019 25894 net.cpp:406] lstm1_transform_13 <- h_conted_12
I0222 17:59:16.616024 25894 net.cpp:380] lstm1_transform_13 -> W_hc_h_12
I0222 17:59:16.616317 25894 net.cpp:122] Setting up lstm1_transform_13
I0222 17:59:16.616322 25894 net.cpp:129] Top shape: 1 26 512 (13312)
I0222 17:59:16.616324 25894 net.cpp:137] Memory required for data: 4738240
I0222 17:59:16.616327 25894 net.cpp:465] Sharing parameters 'W_hc' owned by layer 'lstm1_transform_1', param index 0
I0222 17:59:16.616329 25894 layer_factory.hpp:77] Creating layer lstm1_gate_input_13
I0222 17:59:16.616334 25894 net.cpp:84] Creating Layer lstm1_gate_input_13
I0222 17:59:16.616338 25894 net.cpp:406] lstm1_gate_input_13 <- W_hc_h_12
I0222 17:59:16.616340 25894 net.cpp:406] lstm1_gate_input_13 <- W_xc_x_13
I0222 17:59:16.616344 25894 net.cpp:380] lstm1_gate_input_13 -> gate_input_13
I0222 17:59:16.616356 25894 net.cpp:122] Setting up lstm1_gate_input_13
I0222 17:59:16.616361 25894 net.cpp:129] Top shape: 1 26 512 (13312)
I0222 17:59:16.616364 25894 net.cpp:137] Memory required for data: 4791488
I0222 17:59:16.616365 25894 layer_factory.hpp:77] Creating layer lstm1_unit_13
I0222 17:59:16.616370 25894 net.cpp:84] Creating Layer lstm1_unit_13
I0222 17:59:16.616374 25894 net.cpp:406] lstm1_unit_13 <- c_12
I0222 17:59:16.616376 25894 net.cpp:406] lstm1_unit_13 <- gate_input_13
I0222 17:59:16.616379 25894 net.cpp:406] lstm1_unit_13 <- cont_13_lstm1_cont_slice_12_split_1
I0222 17:59:16.616384 25894 net.cpp:380] lstm1_unit_13 -> c_13
I0222 17:59:16.616387 25894 net.cpp:380] lstm1_unit_13 -> h_13
I0222 17:59:16.616410 25894 net.cpp:122] Setting up lstm1_unit_13
I0222 17:59:16.616415 25894 net.cpp:129] Top shape: 1 26 128 (3328)
I0222 17:59:16.616417 25894 net.cpp:129] Top shape: 1 26 128 (3328)
I0222 17:59:16.616420 25894 net.cpp:137] Memory required for data: 4818112
I0222 17:59:16.616422 25894 layer_factory.hpp:77] Creating layer h_13_lstm1_unit_13_1_split
I0222 17:59:16.616426 25894 net.cpp:84] Creating Layer h_13_lstm1_unit_13_1_split
I0222 17:59:16.616428 25894 net.cpp:406] h_13_lstm1_unit_13_1_split <- h_13
I0222 17:59:16.616433 25894 net.cpp:380] h_13_lstm1_unit_13_1_split -> h_13_lstm1_unit_13_1_split_0
I0222 17:59:16.616437 25894 net.cpp:380] h_13_lstm1_unit_13_1_split -> h_13_lstm1_unit_13_1_split_1
I0222 17:59:16.616453 25894 net.cpp:122] Setting up h_13_lstm1_unit_13_1_split
I0222 17:59:16.616457 25894 net.cpp:129] Top shape: 1 26 128 (3328)
I0222 17:59:16.616461 25894 net.cpp:129] Top shape: 1 26 128 (3328)
I0222 17:59:16.616462 25894 net.cpp:137] Memory required for data: 4844736
I0222 17:59:16.616466 25894 layer_factory.hpp:77] Creating layer lstm1_h_conted_13
I0222 17:59:16.616469 25894 net.cpp:84] Creating Layer lstm1_h_conted_13
I0222 17:59:16.616472 25894 net.cpp:406] lstm1_h_conted_13 <- h_13_lstm1_unit_13_1_split_0
I0222 17:59:16.616477 25894 net.cpp:406] lstm1_h_conted_13 <- cont_14_lstm1_cont_slice_13_split_0
I0222 17:59:16.616479 25894 net.cpp:380] lstm1_h_conted_13 -> h_conted_13
I0222 17:59:16.616510 25894 net.cpp:122] Setting up lstm1_h_conted_13
I0222 17:59:16.616515 25894 net.cpp:129] Top shape: 1 26 128 (3328)
I0222 17:59:16.616518 25894 net.cpp:137] Memory required for data: 4858048
I0222 17:59:16.616521 25894 layer_factory.hpp:77] Creating layer lstm1_transform_14
I0222 17:59:16.616525 25894 net.cpp:84] Creating Layer lstm1_transform_14
I0222 17:59:16.616529 25894 net.cpp:406] lstm1_transform_14 <- h_conted_13
I0222 17:59:16.616533 25894 net.cpp:380] lstm1_transform_14 -> W_hc_h_13
I0222 17:59:16.616822 25894 net.cpp:122] Setting up lstm1_transform_14
I0222 17:59:16.616827 25894 net.cpp:129] Top shape: 1 26 512 (13312)
I0222 17:59:16.616829 25894 net.cpp:137] Memory required for data: 4911296
I0222 17:59:16.616832 25894 net.cpp:465] Sharing parameters 'W_hc' owned by layer 'lstm1_transform_1', param index 0
I0222 17:59:16.616835 25894 layer_factory.hpp:77] Creating layer lstm1_gate_input_14
I0222 17:59:16.616847 25894 net.cpp:84] Creating Layer lstm1_gate_input_14
I0222 17:59:16.616849 25894 net.cpp:406] lstm1_gate_input_14 <- W_hc_h_13
I0222 17:59:16.616853 25894 net.cpp:406] lstm1_gate_input_14 <- W_xc_x_14
I0222 17:59:16.616878 25894 net.cpp:380] lstm1_gate_input_14 -> gate_input_14
I0222 17:59:16.616894 25894 net.cpp:122] Setting up lstm1_gate_input_14
I0222 17:59:16.616899 25894 net.cpp:129] Top shape: 1 26 512 (13312)
I0222 17:59:16.616901 25894 net.cpp:137] Memory required for data: 4964544
I0222 17:59:16.616904 25894 layer_factory.hpp:77] Creating layer lstm1_unit_14
I0222 17:59:16.616909 25894 net.cpp:84] Creating Layer lstm1_unit_14
I0222 17:59:16.616911 25894 net.cpp:406] lstm1_unit_14 <- c_13
I0222 17:59:16.616915 25894 net.cpp:406] lstm1_unit_14 <- gate_input_14
I0222 17:59:16.616919 25894 net.cpp:406] lstm1_unit_14 <- cont_14_lstm1_cont_slice_13_split_1
I0222 17:59:16.616936 25894 net.cpp:380] lstm1_unit_14 -> c_14
I0222 17:59:16.616941 25894 net.cpp:380] lstm1_unit_14 -> h_14
I0222 17:59:16.616966 25894 net.cpp:122] Setting up lstm1_unit_14
I0222 17:59:16.616971 25894 net.cpp:129] Top shape: 1 26 128 (3328)
I0222 17:59:16.616973 25894 net.cpp:129] Top shape: 1 26 128 (3328)
I0222 17:59:16.616976 25894 net.cpp:137] Memory required for data: 4991168
I0222 17:59:16.616979 25894 layer_factory.hpp:77] Creating layer h_14_lstm1_unit_14_1_split
I0222 17:59:16.616983 25894 net.cpp:84] Creating Layer h_14_lstm1_unit_14_1_split
I0222 17:59:16.616986 25894 net.cpp:406] h_14_lstm1_unit_14_1_split <- h_14
I0222 17:59:16.616991 25894 net.cpp:380] h_14_lstm1_unit_14_1_split -> h_14_lstm1_unit_14_1_split_0
I0222 17:59:16.616994 25894 net.cpp:380] h_14_lstm1_unit_14_1_split -> h_14_lstm1_unit_14_1_split_1
I0222 17:59:16.617029 25894 net.cpp:122] Setting up h_14_lstm1_unit_14_1_split
I0222 17:59:16.617033 25894 net.cpp:129] Top shape: 1 26 128 (3328)
I0222 17:59:16.617038 25894 net.cpp:129] Top shape: 1 26 128 (3328)
I0222 17:59:16.617040 25894 net.cpp:137] Memory required for data: 5017792
I0222 17:59:16.617043 25894 layer_factory.hpp:77] Creating layer lstm1_h_conted_14
I0222 17:59:16.617048 25894 net.cpp:84] Creating Layer lstm1_h_conted_14
I0222 17:59:16.617050 25894 net.cpp:406] lstm1_h_conted_14 <- h_14_lstm1_unit_14_1_split_0
I0222 17:59:16.617054 25894 net.cpp:406] lstm1_h_conted_14 <- cont_15_lstm1_cont_slice_14_split_0
I0222 17:59:16.617060 25894 net.cpp:380] lstm1_h_conted_14 -> h_conted_14
I0222 17:59:16.617105 25894 net.cpp:122] Setting up lstm1_h_conted_14
I0222 17:59:16.617110 25894 net.cpp:129] Top shape: 1 26 128 (3328)
I0222 17:59:16.617112 25894 net.cpp:137] Memory required for data: 5031104
I0222 17:59:16.617115 25894 layer_factory.hpp:77] Creating layer lstm1_transform_15
I0222 17:59:16.617120 25894 net.cpp:84] Creating Layer lstm1_transform_15
I0222 17:59:16.617123 25894 net.cpp:406] lstm1_transform_15 <- h_conted_14
I0222 17:59:16.617128 25894 net.cpp:380] lstm1_transform_15 -> W_hc_h_14
I0222 17:59:16.617535 25894 net.cpp:122] Setting up lstm1_transform_15
I0222 17:59:16.617547 25894 net.cpp:129] Top shape: 1 26 512 (13312)
I0222 17:59:16.617550 25894 net.cpp:137] Memory required for data: 5084352
I0222 17:59:16.617563 25894 net.cpp:465] Sharing parameters 'W_hc' owned by layer 'lstm1_transform_1', param index 0
I0222 17:59:16.617568 25894 layer_factory.hpp:77] Creating layer lstm1_gate_input_15
I0222 17:59:16.617575 25894 net.cpp:84] Creating Layer lstm1_gate_input_15
I0222 17:59:16.619408 25894 net.cpp:406] lstm1_gate_input_15 <- W_hc_h_14
I0222 17:59:16.619419 25894 net.cpp:406] lstm1_gate_input_15 <- W_xc_x_15
I0222 17:59:16.619428 25894 net.cpp:380] lstm1_gate_input_15 -> gate_input_15
I0222 17:59:16.619451 25894 net.cpp:122] Setting up lstm1_gate_input_15
I0222 17:59:16.619457 25894 net.cpp:129] Top shape: 1 26 512 (13312)
I0222 17:59:16.619460 25894 net.cpp:137] Memory required for data: 5137600
I0222 17:59:16.619463 25894 layer_factory.hpp:77] Creating layer lstm1_unit_15
I0222 17:59:16.619468 25894 net.cpp:84] Creating Layer lstm1_unit_15
I0222 17:59:16.619479 25894 net.cpp:406] lstm1_unit_15 <- c_14
I0222 17:59:16.619484 25894 net.cpp:406] lstm1_unit_15 <- gate_input_15
I0222 17:59:16.619488 25894 net.cpp:406] lstm1_unit_15 <- cont_15_lstm1_cont_slice_14_split_1
I0222 17:59:16.619493 25894 net.cpp:380] lstm1_unit_15 -> c_15
I0222 17:59:16.619498 25894 net.cpp:380] lstm1_unit_15 -> h_15
I0222 17:59:16.619524 25894 net.cpp:122] Setting up lstm1_unit_15
I0222 17:59:16.619529 25894 net.cpp:129] Top shape: 1 26 128 (3328)
I0222 17:59:16.619532 25894 net.cpp:129] Top shape: 1 26 128 (3328)
I0222 17:59:16.619535 25894 net.cpp:137] Memory required for data: 5164224
I0222 17:59:16.619539 25894 layer_factory.hpp:77] Creating layer h_15_lstm1_unit_15_1_split
I0222 17:59:16.619544 25894 net.cpp:84] Creating Layer h_15_lstm1_unit_15_1_split
I0222 17:59:16.619547 25894 net.cpp:406] h_15_lstm1_unit_15_1_split <- h_15
I0222 17:59:16.619550 25894 net.cpp:380] h_15_lstm1_unit_15_1_split -> h_15_lstm1_unit_15_1_split_0
I0222 17:59:16.619555 25894 net.cpp:380] h_15_lstm1_unit_15_1_split -> h_15_lstm1_unit_15_1_split_1
I0222 17:59:16.619575 25894 net.cpp:122] Setting up h_15_lstm1_unit_15_1_split
I0222 17:59:16.619580 25894 net.cpp:129] Top shape: 1 26 128 (3328)
I0222 17:59:16.619582 25894 net.cpp:129] Top shape: 1 26 128 (3328)
I0222 17:59:16.619585 25894 net.cpp:137] Memory required for data: 5190848
I0222 17:59:16.619588 25894 layer_factory.hpp:77] Creating layer lstm1_h_conted_15
I0222 17:59:16.619592 25894 net.cpp:84] Creating Layer lstm1_h_conted_15
I0222 17:59:16.619596 25894 net.cpp:406] lstm1_h_conted_15 <- h_15_lstm1_unit_15_1_split_0
I0222 17:59:16.619601 25894 net.cpp:406] lstm1_h_conted_15 <- cont_16_lstm1_cont_slice_15_split_0
I0222 17:59:16.619604 25894 net.cpp:380] lstm1_h_conted_15 -> h_conted_15
I0222 17:59:16.619637 25894 net.cpp:122] Setting up lstm1_h_conted_15
I0222 17:59:16.619642 25894 net.cpp:129] Top shape: 1 26 128 (3328)
I0222 17:59:16.619645 25894 net.cpp:137] Memory required for data: 5204160
I0222 17:59:16.619648 25894 layer_factory.hpp:77] Creating layer lstm1_transform_16
I0222 17:59:16.619652 25894 net.cpp:84] Creating Layer lstm1_transform_16
I0222 17:59:16.619655 25894 net.cpp:406] lstm1_transform_16 <- h_conted_15
I0222 17:59:16.619662 25894 net.cpp:380] lstm1_transform_16 -> W_hc_h_15
I0222 17:59:16.619951 25894 net.cpp:122] Setting up lstm1_transform_16
I0222 17:59:16.619956 25894 net.cpp:129] Top shape: 1 26 512 (13312)
I0222 17:59:16.619959 25894 net.cpp:137] Memory required for data: 5257408
I0222 17:59:16.619962 25894 net.cpp:465] Sharing parameters 'W_hc' owned by layer 'lstm1_transform_1', param index 0
I0222 17:59:16.619966 25894 layer_factory.hpp:77] Creating layer lstm1_gate_input_16
I0222 17:59:16.619971 25894 net.cpp:84] Creating Layer lstm1_gate_input_16
I0222 17:59:16.619974 25894 net.cpp:406] lstm1_gate_input_16 <- W_hc_h_15
I0222 17:59:16.619978 25894 net.cpp:406] lstm1_gate_input_16 <- W_xc_x_16
I0222 17:59:16.619982 25894 net.cpp:380] lstm1_gate_input_16 -> gate_input_16
I0222 17:59:16.619995 25894 net.cpp:122] Setting up lstm1_gate_input_16
I0222 17:59:16.620000 25894 net.cpp:129] Top shape: 1 26 512 (13312)
I0222 17:59:16.620003 25894 net.cpp:137] Memory required for data: 5310656
I0222 17:59:16.620007 25894 layer_factory.hpp:77] Creating layer lstm1_unit_16
I0222 17:59:16.620012 25894 net.cpp:84] Creating Layer lstm1_unit_16
I0222 17:59:16.620014 25894 net.cpp:406] lstm1_unit_16 <- c_15
I0222 17:59:16.620018 25894 net.cpp:406] lstm1_unit_16 <- gate_input_16
I0222 17:59:16.620021 25894 net.cpp:406] lstm1_unit_16 <- cont_16_lstm1_cont_slice_15_split_1
I0222 17:59:16.620025 25894 net.cpp:380] lstm1_unit_16 -> c_16
I0222 17:59:16.620030 25894 net.cpp:380] lstm1_unit_16 -> h_16
I0222 17:59:16.620055 25894 net.cpp:122] Setting up lstm1_unit_16
I0222 17:59:16.620059 25894 net.cpp:129] Top shape: 1 26 128 (3328)
I0222 17:59:16.620064 25894 net.cpp:129] Top shape: 1 26 128 (3328)
I0222 17:59:16.620066 25894 net.cpp:137] Memory required for data: 5337280
I0222 17:59:16.620069 25894 layer_factory.hpp:77] Creating layer h_16_lstm1_unit_16_1_split
I0222 17:59:16.620077 25894 net.cpp:84] Creating Layer h_16_lstm1_unit_16_1_split
I0222 17:59:16.620080 25894 net.cpp:406] h_16_lstm1_unit_16_1_split <- h_16
I0222 17:59:16.620085 25894 net.cpp:380] h_16_lstm1_unit_16_1_split -> h_16_lstm1_unit_16_1_split_0
I0222 17:59:16.620090 25894 net.cpp:380] h_16_lstm1_unit_16_1_split -> h_16_lstm1_unit_16_1_split_1
I0222 17:59:16.620107 25894 net.cpp:122] Setting up h_16_lstm1_unit_16_1_split
I0222 17:59:16.620112 25894 net.cpp:129] Top shape: 1 26 128 (3328)
I0222 17:59:16.620115 25894 net.cpp:129] Top shape: 1 26 128 (3328)
I0222 17:59:16.620118 25894 net.cpp:137] Memory required for data: 5363904
I0222 17:59:16.620121 25894 layer_factory.hpp:77] Creating layer lstm1_h_conted_16
I0222 17:59:16.620126 25894 net.cpp:84] Creating Layer lstm1_h_conted_16
I0222 17:59:16.620129 25894 net.cpp:406] lstm1_h_conted_16 <- h_16_lstm1_unit_16_1_split_0
I0222 17:59:16.620133 25894 net.cpp:406] lstm1_h_conted_16 <- cont_17_lstm1_cont_slice_16_split_0
I0222 17:59:16.620137 25894 net.cpp:380] lstm1_h_conted_16 -> h_conted_16
I0222 17:59:16.620169 25894 net.cpp:122] Setting up lstm1_h_conted_16
I0222 17:59:16.620174 25894 net.cpp:129] Top shape: 1 26 128 (3328)
I0222 17:59:16.620177 25894 net.cpp:137] Memory required for data: 5377216
I0222 17:59:16.620180 25894 layer_factory.hpp:77] Creating layer lstm1_transform_17
I0222 17:59:16.620184 25894 net.cpp:84] Creating Layer lstm1_transform_17
I0222 17:59:16.620188 25894 net.cpp:406] lstm1_transform_17 <- h_conted_16
I0222 17:59:16.620193 25894 net.cpp:380] lstm1_transform_17 -> W_hc_h_16
I0222 17:59:16.621101 25894 net.cpp:122] Setting up lstm1_transform_17
I0222 17:59:16.621110 25894 net.cpp:129] Top shape: 1 26 512 (13312)
I0222 17:59:16.621114 25894 net.cpp:137] Memory required for data: 5430464
I0222 17:59:16.621117 25894 net.cpp:465] Sharing parameters 'W_hc' owned by layer 'lstm1_transform_1', param index 0
I0222 17:59:16.621120 25894 layer_factory.hpp:77] Creating layer lstm1_gate_input_17
I0222 17:59:16.621124 25894 net.cpp:84] Creating Layer lstm1_gate_input_17
I0222 17:59:16.621127 25894 net.cpp:406] lstm1_gate_input_17 <- W_hc_h_16
I0222 17:59:16.621130 25894 net.cpp:406] lstm1_gate_input_17 <- W_xc_x_17
I0222 17:59:16.621134 25894 net.cpp:380] lstm1_gate_input_17 -> gate_input_17
I0222 17:59:16.621150 25894 net.cpp:122] Setting up lstm1_gate_input_17
I0222 17:59:16.621155 25894 net.cpp:129] Top shape: 1 26 512 (13312)
I0222 17:59:16.621158 25894 net.cpp:137] Memory required for data: 5483712
I0222 17:59:16.621160 25894 layer_factory.hpp:77] Creating layer lstm1_unit_17
I0222 17:59:16.621165 25894 net.cpp:84] Creating Layer lstm1_unit_17
I0222 17:59:16.621170 25894 net.cpp:406] lstm1_unit_17 <- c_16
I0222 17:59:16.621173 25894 net.cpp:406] lstm1_unit_17 <- gate_input_17
I0222 17:59:16.621177 25894 net.cpp:406] lstm1_unit_17 <- cont_17_lstm1_cont_slice_16_split_1
I0222 17:59:16.621181 25894 net.cpp:380] lstm1_unit_17 -> c_17
I0222 17:59:16.621186 25894 net.cpp:380] lstm1_unit_17 -> h_17
I0222 17:59:16.621212 25894 net.cpp:122] Setting up lstm1_unit_17
I0222 17:59:16.621217 25894 net.cpp:129] Top shape: 1 26 128 (3328)
I0222 17:59:16.621220 25894 net.cpp:129] Top shape: 1 26 128 (3328)
I0222 17:59:16.621222 25894 net.cpp:137] Memory required for data: 5510336
I0222 17:59:16.621225 25894 layer_factory.hpp:77] Creating layer h_17_lstm1_unit_17_1_split
I0222 17:59:16.621230 25894 net.cpp:84] Creating Layer h_17_lstm1_unit_17_1_split
I0222 17:59:16.621233 25894 net.cpp:406] h_17_lstm1_unit_17_1_split <- h_17
I0222 17:59:16.621238 25894 net.cpp:380] h_17_lstm1_unit_17_1_split -> h_17_lstm1_unit_17_1_split_0
I0222 17:59:16.621243 25894 net.cpp:380] h_17_lstm1_unit_17_1_split -> h_17_lstm1_unit_17_1_split_1
I0222 17:59:16.646577 25894 net.cpp:122] Setting up h_17_lstm1_unit_17_1_split
I0222 17:59:16.646587 25894 net.cpp:129] Top shape: 1 26 128 (3328)
I0222 17:59:16.646591 25894 net.cpp:129] Top shape: 1 26 128 (3328)
I0222 17:59:16.646594 25894 net.cpp:137] Memory required for data: 5536960
I0222 17:59:16.646596 25894 layer_factory.hpp:77] Creating layer lstm1_h_conted_17
I0222 17:59:16.646615 25894 net.cpp:84] Creating Layer lstm1_h_conted_17
I0222 17:59:16.646618 25894 net.cpp:406] lstm1_h_conted_17 <- h_17_lstm1_unit_17_1_split_0
I0222 17:59:16.646623 25894 net.cpp:406] lstm1_h_conted_17 <- cont_18_lstm1_cont_slice_17_split_0
I0222 17:59:16.646628 25894 net.cpp:380] lstm1_h_conted_17 -> h_conted_17
I0222 17:59:16.646664 25894 net.cpp:122] Setting up lstm1_h_conted_17
I0222 17:59:16.646669 25894 net.cpp:129] Top shape: 1 26 128 (3328)
I0222 17:59:16.646672 25894 net.cpp:137] Memory required for data: 5550272
I0222 17:59:16.646675 25894 layer_factory.hpp:77] Creating layer lstm1_transform_18
I0222 17:59:16.646680 25894 net.cpp:84] Creating Layer lstm1_transform_18
I0222 17:59:16.646683 25894 net.cpp:406] lstm1_transform_18 <- h_conted_17
I0222 17:59:16.646688 25894 net.cpp:380] lstm1_transform_18 -> W_hc_h_17
I0222 17:59:16.646981 25894 net.cpp:122] Setting up lstm1_transform_18
I0222 17:59:16.646986 25894 net.cpp:129] Top shape: 1 26 512 (13312)
I0222 17:59:16.646989 25894 net.cpp:137] Memory required for data: 5603520
I0222 17:59:16.646992 25894 net.cpp:465] Sharing parameters 'W_hc' owned by layer 'lstm1_transform_1', param index 0
I0222 17:59:16.646996 25894 layer_factory.hpp:77] Creating layer lstm1_gate_input_18
I0222 17:59:16.647001 25894 net.cpp:84] Creating Layer lstm1_gate_input_18
I0222 17:59:16.647004 25894 net.cpp:406] lstm1_gate_input_18 <- W_hc_h_17
I0222 17:59:16.647008 25894 net.cpp:406] lstm1_gate_input_18 <- W_xc_x_18
I0222 17:59:16.647013 25894 net.cpp:380] lstm1_gate_input_18 -> gate_input_18
I0222 17:59:16.647028 25894 net.cpp:122] Setting up lstm1_gate_input_18
I0222 17:59:16.647032 25894 net.cpp:129] Top shape: 1 26 512 (13312)
I0222 17:59:16.647035 25894 net.cpp:137] Memory required for data: 5656768
I0222 17:59:16.647038 25894 layer_factory.hpp:77] Creating layer lstm1_unit_18
I0222 17:59:16.647042 25894 net.cpp:84] Creating Layer lstm1_unit_18
I0222 17:59:16.647047 25894 net.cpp:406] lstm1_unit_18 <- c_17
I0222 17:59:16.647050 25894 net.cpp:406] lstm1_unit_18 <- gate_input_18
I0222 17:59:16.647053 25894 net.cpp:406] lstm1_unit_18 <- cont_18_lstm1_cont_slice_17_split_1
I0222 17:59:16.647058 25894 net.cpp:380] lstm1_unit_18 -> c_18
I0222 17:59:16.647063 25894 net.cpp:380] lstm1_unit_18 -> h_18
I0222 17:59:16.647092 25894 net.cpp:122] Setting up lstm1_unit_18
I0222 17:59:16.647097 25894 net.cpp:129] Top shape: 1 26 128 (3328)
I0222 17:59:16.647101 25894 net.cpp:129] Top shape: 1 26 128 (3328)
I0222 17:59:16.647104 25894 net.cpp:137] Memory required for data: 5683392
I0222 17:59:16.647106 25894 layer_factory.hpp:77] Creating layer h_18_lstm1_unit_18_1_split
I0222 17:59:16.647110 25894 net.cpp:84] Creating Layer h_18_lstm1_unit_18_1_split
I0222 17:59:16.647114 25894 net.cpp:406] h_18_lstm1_unit_18_1_split <- h_18
I0222 17:59:16.647117 25894 net.cpp:380] h_18_lstm1_unit_18_1_split -> h_18_lstm1_unit_18_1_split_0
I0222 17:59:16.647122 25894 net.cpp:380] h_18_lstm1_unit_18_1_split -> h_18_lstm1_unit_18_1_split_1
I0222 17:59:16.647141 25894 net.cpp:122] Setting up h_18_lstm1_unit_18_1_split
I0222 17:59:16.647145 25894 net.cpp:129] Top shape: 1 26 128 (3328)
I0222 17:59:16.647150 25894 net.cpp:129] Top shape: 1 26 128 (3328)
I0222 17:59:16.647152 25894 net.cpp:137] Memory required for data: 5710016
I0222 17:59:16.647156 25894 layer_factory.hpp:77] Creating layer lstm1_h_conted_18
I0222 17:59:16.647159 25894 net.cpp:84] Creating Layer lstm1_h_conted_18
I0222 17:59:16.647162 25894 net.cpp:406] lstm1_h_conted_18 <- h_18_lstm1_unit_18_1_split_0
I0222 17:59:16.647166 25894 net.cpp:406] lstm1_h_conted_18 <- cont_19_lstm1_cont_slice_18_split_0
I0222 17:59:16.647171 25894 net.cpp:380] lstm1_h_conted_18 -> h_conted_18
I0222 17:59:16.647203 25894 net.cpp:122] Setting up lstm1_h_conted_18
I0222 17:59:16.647207 25894 net.cpp:129] Top shape: 1 26 128 (3328)
I0222 17:59:16.647212 25894 net.cpp:137] Memory required for data: 5723328
I0222 17:59:16.647214 25894 layer_factory.hpp:77] Creating layer lstm1_transform_19
I0222 17:59:16.647219 25894 net.cpp:84] Creating Layer lstm1_transform_19
I0222 17:59:16.647228 25894 net.cpp:406] lstm1_transform_19 <- h_conted_18
I0222 17:59:16.647233 25894 net.cpp:380] lstm1_transform_19 -> W_hc_h_18
I0222 17:59:16.647552 25894 net.cpp:122] Setting up lstm1_transform_19
I0222 17:59:16.647557 25894 net.cpp:129] Top shape: 1 26 512 (13312)
I0222 17:59:16.647560 25894 net.cpp:137] Memory required for data: 5776576
I0222 17:59:16.647563 25894 net.cpp:465] Sharing parameters 'W_hc' owned by layer 'lstm1_transform_1', param index 0
I0222 17:59:16.647567 25894 layer_factory.hpp:77] Creating layer lstm1_gate_input_19
I0222 17:59:16.647570 25894 net.cpp:84] Creating Layer lstm1_gate_input_19
I0222 17:59:16.647574 25894 net.cpp:406] lstm1_gate_input_19 <- W_hc_h_18
I0222 17:59:16.647578 25894 net.cpp:406] lstm1_gate_input_19 <- W_xc_x_19
I0222 17:59:16.647583 25894 net.cpp:380] lstm1_gate_input_19 -> gate_input_19
I0222 17:59:16.647596 25894 net.cpp:122] Setting up lstm1_gate_input_19
I0222 17:59:16.647600 25894 net.cpp:129] Top shape: 1 26 512 (13312)
I0222 17:59:16.647603 25894 net.cpp:137] Memory required for data: 5829824
I0222 17:59:16.647606 25894 layer_factory.hpp:77] Creating layer lstm1_unit_19
I0222 17:59:16.647610 25894 net.cpp:84] Creating Layer lstm1_unit_19
I0222 17:59:16.647614 25894 net.cpp:406] lstm1_unit_19 <- c_18
I0222 17:59:16.647617 25894 net.cpp:406] lstm1_unit_19 <- gate_input_19
I0222 17:59:16.647621 25894 net.cpp:406] lstm1_unit_19 <- cont_19_lstm1_cont_slice_18_split_1
I0222 17:59:16.647625 25894 net.cpp:380] lstm1_unit_19 -> c_19
I0222 17:59:16.647630 25894 net.cpp:380] lstm1_unit_19 -> h_19
I0222 17:59:16.647655 25894 net.cpp:122] Setting up lstm1_unit_19
I0222 17:59:16.647660 25894 net.cpp:129] Top shape: 1 26 128 (3328)
I0222 17:59:16.647663 25894 net.cpp:129] Top shape: 1 26 128 (3328)
I0222 17:59:16.647665 25894 net.cpp:137] Memory required for data: 5856448
I0222 17:59:16.647668 25894 layer_factory.hpp:77] Creating layer h_19_lstm1_unit_19_1_split
I0222 17:59:16.647676 25894 net.cpp:84] Creating Layer h_19_lstm1_unit_19_1_split
I0222 17:59:16.647680 25894 net.cpp:406] h_19_lstm1_unit_19_1_split <- h_19
I0222 17:59:16.647683 25894 net.cpp:380] h_19_lstm1_unit_19_1_split -> h_19_lstm1_unit_19_1_split_0
I0222 17:59:16.647687 25894 net.cpp:380] h_19_lstm1_unit_19_1_split -> h_19_lstm1_unit_19_1_split_1
I0222 17:59:16.647706 25894 net.cpp:122] Setting up h_19_lstm1_unit_19_1_split
I0222 17:59:16.647709 25894 net.cpp:129] Top shape: 1 26 128 (3328)
I0222 17:59:16.647713 25894 net.cpp:129] Top shape: 1 26 128 (3328)
I0222 17:59:16.647716 25894 net.cpp:137] Memory required for data: 5883072
I0222 17:59:16.647735 25894 layer_factory.hpp:77] Creating layer lstm1_h_conted_19
I0222 17:59:16.647739 25894 net.cpp:84] Creating Layer lstm1_h_conted_19
I0222 17:59:16.647743 25894 net.cpp:406] lstm1_h_conted_19 <- h_19_lstm1_unit_19_1_split_0
I0222 17:59:16.647747 25894 net.cpp:406] lstm1_h_conted_19 <- cont_20_lstm1_cont_slice_19_split_0
I0222 17:59:16.647752 25894 net.cpp:380] lstm1_h_conted_19 -> h_conted_19
I0222 17:59:16.647807 25894 net.cpp:122] Setting up lstm1_h_conted_19
I0222 17:59:16.647815 25894 net.cpp:129] Top shape: 1 26 128 (3328)
I0222 17:59:16.647820 25894 net.cpp:137] Memory required for data: 5896384
I0222 17:59:16.647825 25894 layer_factory.hpp:77] Creating layer lstm1_transform_20
I0222 17:59:16.647831 25894 net.cpp:84] Creating Layer lstm1_transform_20
I0222 17:59:16.647836 25894 net.cpp:406] lstm1_transform_20 <- h_conted_19
I0222 17:59:16.647843 25894 net.cpp:380] lstm1_transform_20 -> W_hc_h_19
I0222 17:59:16.650853 25894 net.cpp:122] Setting up lstm1_transform_20
I0222 17:59:16.650862 25894 net.cpp:129] Top shape: 1 26 512 (13312)
I0222 17:59:16.650880 25894 net.cpp:137] Memory required for data: 5949632
I0222 17:59:16.650884 25894 net.cpp:465] Sharing parameters 'W_hc' owned by layer 'lstm1_transform_1', param index 0
I0222 17:59:16.650887 25894 layer_factory.hpp:77] Creating layer lstm1_gate_input_20
I0222 17:59:16.650894 25894 net.cpp:84] Creating Layer lstm1_gate_input_20
I0222 17:59:16.650897 25894 net.cpp:406] lstm1_gate_input_20 <- W_hc_h_19
I0222 17:59:16.650921 25894 net.cpp:406] lstm1_gate_input_20 <- W_xc_x_20
I0222 17:59:16.650925 25894 net.cpp:380] lstm1_gate_input_20 -> gate_input_20
I0222 17:59:16.650955 25894 net.cpp:122] Setting up lstm1_gate_input_20
I0222 17:59:16.650960 25894 net.cpp:129] Top shape: 1 26 512 (13312)
I0222 17:59:16.650962 25894 net.cpp:137] Memory required for data: 6002880
I0222 17:59:16.650964 25894 layer_factory.hpp:77] Creating layer lstm1_unit_20
I0222 17:59:16.650969 25894 net.cpp:84] Creating Layer lstm1_unit_20
I0222 17:59:16.650985 25894 net.cpp:406] lstm1_unit_20 <- c_19
I0222 17:59:16.650988 25894 net.cpp:406] lstm1_unit_20 <- gate_input_20
I0222 17:59:16.651007 25894 net.cpp:406] lstm1_unit_20 <- cont_20_lstm1_cont_slice_19_split_1
I0222 17:59:16.651011 25894 net.cpp:380] lstm1_unit_20 -> c_20
I0222 17:59:16.651016 25894 net.cpp:380] lstm1_unit_20 -> h_20
I0222 17:59:16.651041 25894 net.cpp:122] Setting up lstm1_unit_20
I0222 17:59:16.651046 25894 net.cpp:129] Top shape: 1 26 128 (3328)
I0222 17:59:16.651049 25894 net.cpp:129] Top shape: 1 26 128 (3328)
I0222 17:59:16.651051 25894 net.cpp:137] Memory required for data: 6029504
I0222 17:59:16.651053 25894 layer_factory.hpp:77] Creating layer h_20_lstm1_unit_20_1_split
I0222 17:59:16.651082 25894 net.cpp:84] Creating Layer h_20_lstm1_unit_20_1_split
I0222 17:59:16.651099 25894 net.cpp:406] h_20_lstm1_unit_20_1_split <- h_20
I0222 17:59:16.651103 25894 net.cpp:380] h_20_lstm1_unit_20_1_split -> h_20_lstm1_unit_20_1_split_0
I0222 17:59:16.651108 25894 net.cpp:380] h_20_lstm1_unit_20_1_split -> h_20_lstm1_unit_20_1_split_1
I0222 17:59:16.651127 25894 net.cpp:122] Setting up h_20_lstm1_unit_20_1_split
I0222 17:59:16.651132 25894 net.cpp:129] Top shape: 1 26 128 (3328)
I0222 17:59:16.651135 25894 net.cpp:129] Top shape: 1 26 128 (3328)
I0222 17:59:16.651139 25894 net.cpp:137] Memory required for data: 6056128
I0222 17:59:16.651141 25894 layer_factory.hpp:77] Creating layer lstm1_h_conted_20
I0222 17:59:16.651145 25894 net.cpp:84] Creating Layer lstm1_h_conted_20
I0222 17:59:16.651149 25894 net.cpp:406] lstm1_h_conted_20 <- h_20_lstm1_unit_20_1_split_0
I0222 17:59:16.651152 25894 net.cpp:406] lstm1_h_conted_20 <- cont_21_lstm1_cont_slice_20_split_0
I0222 17:59:16.651157 25894 net.cpp:380] lstm1_h_conted_20 -> h_conted_20
I0222 17:59:16.651188 25894 net.cpp:122] Setting up lstm1_h_conted_20
I0222 17:59:16.651193 25894 net.cpp:129] Top shape: 1 26 128 (3328)
I0222 17:59:16.651196 25894 net.cpp:137] Memory required for data: 6069440
I0222 17:59:16.651199 25894 layer_factory.hpp:77] Creating layer lstm1_transform_21
I0222 17:59:16.651206 25894 net.cpp:84] Creating Layer lstm1_transform_21
I0222 17:59:16.651208 25894 net.cpp:406] lstm1_transform_21 <- h_conted_20
I0222 17:59:16.651213 25894 net.cpp:380] lstm1_transform_21 -> W_hc_h_20
I0222 17:59:16.651501 25894 net.cpp:122] Setting up lstm1_transform_21
I0222 17:59:16.651506 25894 net.cpp:129] Top shape: 1 26 512 (13312)
I0222 17:59:16.651510 25894 net.cpp:137] Memory required for data: 6122688
I0222 17:59:16.651513 25894 net.cpp:465] Sharing parameters 'W_hc' owned by layer 'lstm1_transform_1', param index 0
I0222 17:59:16.651531 25894 layer_factory.hpp:77] Creating layer lstm1_gate_input_21
I0222 17:59:16.651536 25894 net.cpp:84] Creating Layer lstm1_gate_input_21
I0222 17:59:16.651540 25894 net.cpp:406] lstm1_gate_input_21 <- W_hc_h_20
I0222 17:59:16.651543 25894 net.cpp:406] lstm1_gate_input_21 <- W_xc_x_21
I0222 17:59:16.651547 25894 net.cpp:380] lstm1_gate_input_21 -> gate_input_21
I0222 17:59:16.651562 25894 net.cpp:122] Setting up lstm1_gate_input_21
I0222 17:59:16.651566 25894 net.cpp:129] Top shape: 1 26 512 (13312)
I0222 17:59:16.651569 25894 net.cpp:137] Memory required for data: 6175936
I0222 17:59:16.651572 25894 layer_factory.hpp:77] Creating layer lstm1_unit_21
I0222 17:59:16.651576 25894 net.cpp:84] Creating Layer lstm1_unit_21
I0222 17:59:16.651579 25894 net.cpp:406] lstm1_unit_21 <- c_20
I0222 17:59:16.651597 25894 net.cpp:406] lstm1_unit_21 <- gate_input_21
I0222 17:59:16.651605 25894 net.cpp:406] lstm1_unit_21 <- cont_21_lstm1_cont_slice_20_split_1
I0222 17:59:16.651610 25894 net.cpp:380] lstm1_unit_21 -> c_21
I0222 17:59:16.651614 25894 net.cpp:380] lstm1_unit_21 -> h_21
I0222 17:59:16.651639 25894 net.cpp:122] Setting up lstm1_unit_21
I0222 17:59:16.651643 25894 net.cpp:129] Top shape: 1 26 128 (3328)
I0222 17:59:16.651648 25894 net.cpp:129] Top shape: 1 26 128 (3328)
I0222 17:59:16.651650 25894 net.cpp:137] Memory required for data: 6202560
I0222 17:59:16.651669 25894 layer_factory.hpp:77] Creating layer h_21_lstm1_unit_21_1_split
I0222 17:59:16.651674 25894 net.cpp:84] Creating Layer h_21_lstm1_unit_21_1_split
I0222 17:59:16.651676 25894 net.cpp:406] h_21_lstm1_unit_21_1_split <- h_21
I0222 17:59:16.651680 25894 net.cpp:380] h_21_lstm1_unit_21_1_split -> h_21_lstm1_unit_21_1_split_0
I0222 17:59:16.651685 25894 net.cpp:380] h_21_lstm1_unit_21_1_split -> h_21_lstm1_unit_21_1_split_1
I0222 17:59:16.651732 25894 net.cpp:122] Setting up h_21_lstm1_unit_21_1_split
I0222 17:59:16.651737 25894 net.cpp:129] Top shape: 1 26 128 (3328)
I0222 17:59:16.651741 25894 net.cpp:129] Top shape: 1 26 128 (3328)
I0222 17:59:16.651743 25894 net.cpp:137] Memory required for data: 6229184
I0222 17:59:16.651746 25894 layer_factory.hpp:77] Creating layer lstm1_h_conted_21
I0222 17:59:16.651763 25894 net.cpp:84] Creating Layer lstm1_h_conted_21
I0222 17:59:16.651767 25894 net.cpp:406] lstm1_h_conted_21 <- h_21_lstm1_unit_21_1_split_0
I0222 17:59:16.651772 25894 net.cpp:406] lstm1_h_conted_21 <- cont_22_lstm1_cont_slice_21_split_0
I0222 17:59:16.651775 25894 net.cpp:380] lstm1_h_conted_21 -> h_conted_21
I0222 17:59:16.651805 25894 net.cpp:122] Setting up lstm1_h_conted_21
I0222 17:59:16.651810 25894 net.cpp:129] Top shape: 1 26 128 (3328)
I0222 17:59:16.651813 25894 net.cpp:137] Memory required for data: 6242496
I0222 17:59:16.651816 25894 layer_factory.hpp:77] Creating layer lstm1_transform_22
I0222 17:59:16.651820 25894 net.cpp:84] Creating Layer lstm1_transform_22
I0222 17:59:16.651824 25894 net.cpp:406] lstm1_transform_22 <- h_conted_21
I0222 17:59:16.651829 25894 net.cpp:380] lstm1_transform_22 -> W_hc_h_21
I0222 17:59:16.652119 25894 net.cpp:122] Setting up lstm1_transform_22
I0222 17:59:16.652124 25894 net.cpp:129] Top shape: 1 26 512 (13312)
I0222 17:59:16.652127 25894 net.cpp:137] Memory required for data: 6295744
I0222 17:59:16.652130 25894 net.cpp:465] Sharing parameters 'W_hc' owned by layer 'lstm1_transform_1', param index 0
I0222 17:59:16.652134 25894 layer_factory.hpp:77] Creating layer lstm1_gate_input_22
I0222 17:59:16.652139 25894 net.cpp:84] Creating Layer lstm1_gate_input_22
I0222 17:59:16.652143 25894 net.cpp:406] lstm1_gate_input_22 <- W_hc_h_21
I0222 17:59:16.652146 25894 net.cpp:406] lstm1_gate_input_22 <- W_xc_x_22
I0222 17:59:16.652150 25894 net.cpp:380] lstm1_gate_input_22 -> gate_input_22
I0222 17:59:16.652163 25894 net.cpp:122] Setting up lstm1_gate_input_22
I0222 17:59:16.652168 25894 net.cpp:129] Top shape: 1 26 512 (13312)
I0222 17:59:16.652170 25894 net.cpp:137] Memory required for data: 6348992
I0222 17:59:16.652173 25894 layer_factory.hpp:77] Creating layer lstm1_unit_22
I0222 17:59:16.652178 25894 net.cpp:84] Creating Layer lstm1_unit_22
I0222 17:59:16.652180 25894 net.cpp:406] lstm1_unit_22 <- c_21
I0222 17:59:16.652185 25894 net.cpp:406] lstm1_unit_22 <- gate_input_22
I0222 17:59:16.676703 25894 net.cpp:406] lstm1_unit_22 <- cont_22_lstm1_cont_slice_21_split_1
I0222 17:59:16.676719 25894 net.cpp:380] lstm1_unit_22 -> c_22
I0222 17:59:16.676731 25894 net.cpp:380] lstm1_unit_22 -> h_22
I0222 17:59:16.676793 25894 net.cpp:122] Setting up lstm1_unit_22
I0222 17:59:16.676803 25894 net.cpp:129] Top shape: 1 26 128 (3328)
I0222 17:59:16.676808 25894 net.cpp:129] Top shape: 1 26 128 (3328)
I0222 17:59:16.676811 25894 net.cpp:137] Memory required for data: 6375616
I0222 17:59:16.676816 25894 layer_factory.hpp:77] Creating layer h_22_lstm1_unit_22_1_split
I0222 17:59:16.676822 25894 net.cpp:84] Creating Layer h_22_lstm1_unit_22_1_split
I0222 17:59:16.676827 25894 net.cpp:406] h_22_lstm1_unit_22_1_split <- h_22
I0222 17:59:16.676849 25894 net.cpp:380] h_22_lstm1_unit_22_1_split -> h_22_lstm1_unit_22_1_split_0
I0222 17:59:16.676858 25894 net.cpp:380] h_22_lstm1_unit_22_1_split -> h_22_lstm1_unit_22_1_split_1
I0222 17:59:16.676884 25894 net.cpp:122] Setting up h_22_lstm1_unit_22_1_split
I0222 17:59:16.676892 25894 net.cpp:129] Top shape: 1 26 128 (3328)
I0222 17:59:16.676897 25894 net.cpp:129] Top shape: 1 26 128 (3328)
I0222 17:59:16.676899 25894 net.cpp:137] Memory required for data: 6402240
I0222 17:59:16.676903 25894 layer_factory.hpp:77] Creating layer lstm1_h_conted_22
I0222 17:59:16.676918 25894 net.cpp:84] Creating Layer lstm1_h_conted_22
I0222 17:59:16.676923 25894 net.cpp:406] lstm1_h_conted_22 <- h_22_lstm1_unit_22_1_split_0
I0222 17:59:16.676929 25894 net.cpp:406] lstm1_h_conted_22 <- cont_23_lstm1_cont_slice_22_split_0
I0222 17:59:16.676936 25894 net.cpp:380] lstm1_h_conted_22 -> h_conted_22
I0222 17:59:16.676987 25894 net.cpp:122] Setting up lstm1_h_conted_22
I0222 17:59:16.676995 25894 net.cpp:129] Top shape: 1 26 128 (3328)
I0222 17:59:16.677000 25894 net.cpp:137] Memory required for data: 6415552
I0222 17:59:16.677003 25894 layer_factory.hpp:77] Creating layer lstm1_transform_23
I0222 17:59:16.677011 25894 net.cpp:84] Creating Layer lstm1_transform_23
I0222 17:59:16.677016 25894 net.cpp:406] lstm1_transform_23 <- h_conted_22
I0222 17:59:16.677023 25894 net.cpp:380] lstm1_transform_23 -> W_hc_h_22
I0222 17:59:16.677460 25894 net.cpp:122] Setting up lstm1_transform_23
I0222 17:59:16.677469 25894 net.cpp:129] Top shape: 1 26 512 (13312)
I0222 17:59:16.677474 25894 net.cpp:137] Memory required for data: 6468800
I0222 17:59:16.677480 25894 net.cpp:465] Sharing parameters 'W_hc' owned by layer 'lstm1_transform_1', param index 0
I0222 17:59:16.677485 25894 layer_factory.hpp:77] Creating layer lstm1_gate_input_23
I0222 17:59:16.677494 25894 net.cpp:84] Creating Layer lstm1_gate_input_23
I0222 17:59:16.677500 25894 net.cpp:406] lstm1_gate_input_23 <- W_hc_h_22
I0222 17:59:16.677505 25894 net.cpp:406] lstm1_gate_input_23 <- W_xc_x_23
I0222 17:59:16.677511 25894 net.cpp:380] lstm1_gate_input_23 -> gate_input_23
I0222 17:59:16.677532 25894 net.cpp:122] Setting up lstm1_gate_input_23
I0222 17:59:16.677539 25894 net.cpp:129] Top shape: 1 26 512 (13312)
I0222 17:59:16.677543 25894 net.cpp:137] Memory required for data: 6522048
I0222 17:59:16.677547 25894 layer_factory.hpp:77] Creating layer lstm1_unit_23
I0222 17:59:16.677554 25894 net.cpp:84] Creating Layer lstm1_unit_23
I0222 17:59:16.677559 25894 net.cpp:406] lstm1_unit_23 <- c_22
I0222 17:59:16.677565 25894 net.cpp:406] lstm1_unit_23 <- gate_input_23
I0222 17:59:16.677572 25894 net.cpp:406] lstm1_unit_23 <- cont_23_lstm1_cont_slice_22_split_1
I0222 17:59:16.677577 25894 net.cpp:380] lstm1_unit_23 -> c_23
I0222 17:59:16.677584 25894 net.cpp:380] lstm1_unit_23 -> h_23
I0222 17:59:16.677618 25894 net.cpp:122] Setting up lstm1_unit_23
I0222 17:59:16.677625 25894 net.cpp:129] Top shape: 1 26 128 (3328)
I0222 17:59:16.677630 25894 net.cpp:129] Top shape: 1 26 128 (3328)
I0222 17:59:16.677635 25894 net.cpp:137] Memory required for data: 6548672
I0222 17:59:16.677639 25894 layer_factory.hpp:77] Creating layer h_23_lstm1_unit_23_1_split
I0222 17:59:16.677646 25894 net.cpp:84] Creating Layer h_23_lstm1_unit_23_1_split
I0222 17:59:16.677651 25894 net.cpp:406] h_23_lstm1_unit_23_1_split <- h_23
I0222 17:59:16.677657 25894 net.cpp:380] h_23_lstm1_unit_23_1_split -> h_23_lstm1_unit_23_1_split_0
I0222 17:59:16.677664 25894 net.cpp:380] h_23_lstm1_unit_23_1_split -> h_23_lstm1_unit_23_1_split_1
I0222 17:59:16.677690 25894 net.cpp:122] Setting up h_23_lstm1_unit_23_1_split
I0222 17:59:16.677695 25894 net.cpp:129] Top shape: 1 26 128 (3328)
I0222 17:59:16.677701 25894 net.cpp:129] Top shape: 1 26 128 (3328)
I0222 17:59:16.677706 25894 net.cpp:137] Memory required for data: 6575296
I0222 17:59:16.677709 25894 layer_factory.hpp:77] Creating layer lstm1_h_conted_23
I0222 17:59:16.677716 25894 net.cpp:84] Creating Layer lstm1_h_conted_23
I0222 17:59:16.677721 25894 net.cpp:406] lstm1_h_conted_23 <- h_23_lstm1_unit_23_1_split_0
I0222 17:59:16.677734 25894 net.cpp:406] lstm1_h_conted_23 <- cont_24_lstm1_cont_slice_23_split_0
I0222 17:59:16.677742 25894 net.cpp:380] lstm1_h_conted_23 -> h_conted_23
I0222 17:59:16.677786 25894 net.cpp:122] Setting up lstm1_h_conted_23
I0222 17:59:16.677793 25894 net.cpp:129] Top shape: 1 26 128 (3328)
I0222 17:59:16.677798 25894 net.cpp:137] Memory required for data: 6588608
I0222 17:59:16.677803 25894 layer_factory.hpp:77] Creating layer lstm1_transform_24
I0222 17:59:16.677809 25894 net.cpp:84] Creating Layer lstm1_transform_24
I0222 17:59:16.677814 25894 net.cpp:406] lstm1_transform_24 <- h_conted_23
I0222 17:59:16.677821 25894 net.cpp:380] lstm1_transform_24 -> W_hc_h_23
I0222 17:59:16.678256 25894 net.cpp:122] Setting up lstm1_transform_24
I0222 17:59:16.678264 25894 net.cpp:129] Top shape: 1 26 512 (13312)
I0222 17:59:16.678268 25894 net.cpp:137] Memory required for data: 6641856
I0222 17:59:16.678274 25894 net.cpp:465] Sharing parameters 'W_hc' owned by layer 'lstm1_transform_1', param index 0
I0222 17:59:16.678279 25894 layer_factory.hpp:77] Creating layer lstm1_gate_input_24
I0222 17:59:16.678288 25894 net.cpp:84] Creating Layer lstm1_gate_input_24
I0222 17:59:16.678293 25894 net.cpp:406] lstm1_gate_input_24 <- W_hc_h_23
I0222 17:59:16.678299 25894 net.cpp:406] lstm1_gate_input_24 <- W_xc_x_24
I0222 17:59:16.678488 25894 net.cpp:380] lstm1_gate_input_24 -> gate_input_24
I0222 17:59:16.678519 25894 net.cpp:122] Setting up lstm1_gate_input_24
I0222 17:59:16.678526 25894 net.cpp:129] Top shape: 1 26 512 (13312)
I0222 17:59:16.678530 25894 net.cpp:137] Memory required for data: 6695104
I0222 17:59:16.678535 25894 layer_factory.hpp:77] Creating layer lstm1_unit_24
I0222 17:59:16.678542 25894 net.cpp:84] Creating Layer lstm1_unit_24
I0222 17:59:16.678547 25894 net.cpp:406] lstm1_unit_24 <- c_23
I0222 17:59:16.678553 25894 net.cpp:406] lstm1_unit_24 <- gate_input_24
I0222 17:59:16.678558 25894 net.cpp:406] lstm1_unit_24 <- cont_24_lstm1_cont_slice_23_split_1
I0222 17:59:16.678566 25894 net.cpp:380] lstm1_unit_24 -> c_24
I0222 17:59:16.678575 25894 net.cpp:380] lstm1_unit_24 -> h_24
I0222 17:59:16.678624 25894 net.cpp:122] Setting up lstm1_unit_24
I0222 17:59:16.678632 25894 net.cpp:129] Top shape: 1 26 128 (3328)
I0222 17:59:16.678637 25894 net.cpp:129] Top shape: 1 26 128 (3328)
I0222 17:59:16.678642 25894 net.cpp:137] Memory required for data: 6721728
I0222 17:59:16.678645 25894 layer_factory.hpp:77] Creating layer lstm1_
I0222 17:59:16.678652 25894 net.cpp:84] Creating Layer lstm1_
I0222 17:59:16.678656 25894 net.cpp:406] lstm1_ <- c_24
I0222 17:59:16.678663 25894 net.cpp:380] lstm1_ -> c_T
I0222 17:59:16.678679 25894 net.cpp:122] Setting up lstm1_
I0222 17:59:16.678686 25894 net.cpp:129] Top shape: 1 26 128 (3328)
I0222 17:59:16.678690 25894 net.cpp:137] Memory required for data: 6735040
I0222 17:59:16.678694 25894 layer_factory.hpp:77] Creating layer lstm1_h_concat
I0222 17:59:16.678702 25894 net.cpp:84] Creating Layer lstm1_h_concat
I0222 17:59:16.678709 25894 net.cpp:406] lstm1_h_concat <- h_1_lstm1_unit_1_1_split_1
I0222 17:59:16.678714 25894 net.cpp:406] lstm1_h_concat <- h_2_lstm1_unit_2_1_split_1
…
I0222 17:59:16.710686 25894 net.cpp:200] lstm1_ does not need backward computation.
I0222 17:59:16.710688 25894 net.cpp:242] This network produces output c_T
I0222 17:59:16.710707 25894 net.cpp:242] This network produces output h_pseudoloss
I0222 17:59:16.711519 25894 net.cpp:255] Network initialization done.
I0222 17:59:16.711721 25894 recurrent_layer.cpp:150] Adding parameter 0: W_xc
I0222 17:59:16.711727 25894 recurrent_layer.cpp:150] Adding parameter 1: b_c
I0222 17:59:16.711730 25894 recurrent_layer.cpp:150] Adding parameter 2: W_hc
I0222 17:59:16.712465 25894 net.cpp:122] Setting up lstm1
I0222 17:59:16.712476 25894 net.cpp:129] Top shape: 24 26 128 (79872)
I0222 17:59:16.712479 25894 net.cpp:137] Memory required for data: 334656
I0222 17:59:16.712491 25894 layer_factory.hpp:77] Creating layer bn1
I0222 17:59:16.712514 25894 net.cpp:84] Creating Layer bn1
I0222 17:59:16.712518 25894 net.cpp:406] bn1 <- lstm1
I0222 17:59:16.712523 25894 net.cpp:380] bn1 -> bn1
I0222 17:59:16.712640 25894 net.cpp:122] Setting up bn1
I0222 17:59:16.712646 25894 net.cpp:129] Top shape: 24 26 128 (79872)
I0222 17:59:16.712648 25894 net.cpp:137] Memory required for data: 654144
I0222 17:59:16.712656 25894 layer_factory.hpp:77] Creating layer lstm2
I0222 17:59:16.712661 25894 net.cpp:84] Creating Layer lstm2
I0222 17:59:16.712666 25894 net.cpp:406] lstm2 <- bn1
I0222 17:59:16.712669 25894 net.cpp:406] lstm2 <- clip_clip_0_split_1
I0222 17:59:16.712673 25894 net.cpp:380] lstm2 -> lstm2
I0222 17:59:16.712679 25894 recurrent_layer.cpp:20] Initializing recurrent layer: assuming input batch contains 24 timesteps of 26 independent streams.
I0222 17:59:16.713104 25894 net.cpp:51] Initializing net from parameters: 
layer {
  name: "lstm2_"
  type: "Input"
  top: "x"
  top: "cont"
  input_param {
    shape {
      dim: 24
      dim: 26
      dim: 128
    }
    shape {
      dim: 24
      dim: 26
    }
  }
}
layer {
  name: "lstm2_"
  type: "Input"
  top: "c_0"
  top: "h_0"
  input_param {
    shape {
      dim: 1
      dim: 26
      dim: 128
    }
    shape {
      dim: 1
      dim: 26
      dim: 128
    }
  }
}
layer {
  name: "lstm2_cont_slice"
  type: "Slice"
  bottom: "cont"
  top: "cont_1"
  top: "cont_2"
  top: "cont_3"
  top: "cont_4"
  top: "cont_5"
  top: "cont_6"
  top: "cont_7"
  top: "cont_8"
  top: "cont_9"
  top: "cont_10"
  top: "cont_11"
  top: "cont_12"
  top: "cont_13"
  top: "cont_14"
  top: "cont_15"
  top: "cont_16"
  top: "cont_17"
  top: "cont_18"
  top: "cont_19"
  top: "cont_20"
  top: "cont_21"
  top: "cont_22"
  top: "cont_23"
  top: "cont_24"
  slice_param {
    axis: 0
  }
}
layer {
  name: "lstm2_x_transform"
  type: "InnerProduct"
  bottom: "x"
  top: "W_xc_x"
  param {
    name: "W_xc"
  }
  param {
    name: "b_c"
  }
  propagate_down: true
  inner_product_param {
    num_output: 512
    bias_term: true
    weight_filler {
      type: "xavier"
    }
    bias_filler {
      type: "constant"
    }
    axis: 2
  }
}
layer {
  name: "lstm2_W_xc_x_slice"
  type: "Slice"
  bottom: "W_xc_x"
  top: "W_xc_x_1"
  top: "W_xc_x_2"
  top: "W_xc_x_3"
  top: "W_xc_x_4"
  top: "W_xc_x_5"
  top: "W_xc_x_6"
  top: "W_xc_x_7"
  top: "W_xc_x_8"
  top: "W_xc_x_9"
  top: "W_xc_x_10"
  top: "W_xc_x_11"
  top: "W_xc_x_12"
  top: "W_xc_x_13"
  top: "W_xc_x_14"
  top: "W_xc_x_15"
  top: "W_xc_x_16"
  top: "W_xc_x_17"
  top: "W_xc_x_18"
  top: "W_xc_x_19"
  top: "W_xc_x_20"
  top: "W_xc_x_21"
  top: "W_xc_x_22"
  top: "W_xc_x_23"
  top: "W_xc_x_24"
  slice_param {
    axis: 0
  }
}
layer {
  name: "lstm2_h_conted_0"
  type: "Scale"
  bottom: "h_0"
  bottom: "cont_1"
  top: "h_conted_0"
  scale_param {
    axis: 0
  }
}
layer {
  name: "lstm2_transform_1"
  type: "InnerProduct"
  bottom: "h_conted_0"
  top: "W_hc_h_0"
  param {
    name: "W_hc"
  }
  inner_product_param {
    num_output: 512
    bias_term: false
    weight_filler {
      type: "xavier"
    }
    axis: 2
  }
}
layer {
  name: "lstm2_gate_input_1"
  type: "Eltwise"
  bottom: "W_hc_h_0"
  bottom: "W_xc_x_1"
  top: "gate_input_1"
  eltwise_param {
    operation: SUM
  }
}
layer {
  name: "lstm2_unit_1"
  type: "LSTMUnit"
  bottom: "c_0"
  bottom: "gate_input_1"
  bottom: "cont_1"
  top: "c_1"
  top: "h_1"
}
layer {
  name: "lstm2_h_conted_1"
  type: "Scale"
  bottom: "h_1"
  bottom: "cont_2"
  top: "h_conted_1"
  scale_param {
    axis: 0
  }
}
layer {
  name: "lstm2_transform_2"
  type: "InnerProduct"
  bottom: "h_conted_1"
  top: "W_hc_h_1"
  param {
    name: "W_hc"
  }
  inner_product_param {
    num_output: 512
    bias_term: false
    weight_filler {
      type: "xavier"
    }
    axis: 2
  }
}
layer {
  name: "lstm2_gate_input_2"
  type: "Eltwise"
  bottom: "W_hc_h_1"
  bottom: "W_xc_x_2"
  top: "gate_input_2"
  eltwise_param {
    operation: SUM
  }
}
layer {
  name: "lstm2_unit_2"
  type: "LSTMUnit"
  bottom: "c_1"
  bottom: "gate_input_2"
  bottom: "cont_2"
  top: "c_2"
  top: "h_2"
}
layer {
  name: "lstm2_h_conted_2"
  type: "Scale"
  bottom: "h_2"
  bottom: "cont_3"
  top: "h_conted_2"
  scale_param {
    axis: 0
  }
}
layer {
  name: "lstm2_transform_3"
  type: "InnerProduct"
  bottom: "h_conted_2"
  top: "W_hc_h_2"
  param {
    name: "W_hc"
  }
  inner_product_param {
    num_output: 512
    bias_term: false
    weight_filler {
      type: "xavier"
    }
    axis: 2
  }
}
layer {
  name: "lstm2_gate_input_3"
  type: "Eltwise"
  bottom: "W_hc_h_2"
  bottom: "W_xc_x_3"
  top: "gate_input_3"
  eltwise_param {
    operation: SUM
  }
}
layer {
  name: "lstm2_unit_3"
  type: "LSTMUnit"
  bottom: "c_2"
  bottom: "gate_input_3"
  bottom: "cont_3"
  top: "c_3"
  top: "h_3"
}
layer {
  name: "lstm2_h_conted_3"
  type: "Scale"
  bottom: "h_3"
  bottom: "cont_4"
  top: "h_conted_3"
  scale_param {
    axis: 0
  }
}
layer {
  name: "lstm2_transform_4"
  type: "InnerProduct"
  bottom: "h_conted_3"
  top: "W_hc_h_3"
  param {
    name: "W_hc"
  }
  inner_product_param {
    num_output: 512
    bias_term: false
    weight_filler {
      type: "xavier"
    }
    axis: 2
  }
}
layer {
  name: "lstm2_gate_input_4"
  type: "Eltwise"
  bottom: "W_hc_h_3"
  bottom: "W_xc_x_4"
  top: "gate_input_4"
  eltwise_param {
    operation: SUM
  }
}
layer {
  name: "lstm2_unit_4"
  type: "LSTMUnit"
  bottom: "c_3"
  bottom: "gate_input_4"
  bottom: "cont_4"
  top: "c_4"
  top: "h_4"
}
layer {
  name: "lstm2_h_conted_4"
  type: "Scale"
  bottom: "h_4"
  bottom: "cont_5"
  top: "h_conted_4"
  scale_param {
    axis: 0
  }
}
layer {
  name: "lstm2_transform_5"
  type: "InnerProduct"
  bottom: "h_conted_4"
  top: "W_hc_h_4"
  param {
    name: "W_hc"
  }
  inner_product_param {
    num_output: 512
    bias_term: false
    weight_filler {
      type: "xavier"
    }
    axis: 2
  }
}
layer {
  name: "lstm2_gate_input_5"
  type: "Eltwise"
  bottom: "W_hc_h_4"
  bottom: "W_xc_x_5"
  top: "gate_input_5"
  eltwise_param {
    operation: SUM
  }
}
layer {
  name: "lstm2_unit_5"
  type: "LSTMUnit"
  bottom: "c_4"
  bottom: "gate_input_5"
  bottom: "cont_5"
  top: "c_5"
  top: "h_5"
}
layer {
  name: "lstm2_h_conted_5"
  type: "Scale"
  bottom: "h_5"
  bottom: "cont_6"
  top: "h_conted_5"
  scale_param {
    axis: 0
  }
}
layer {
  name: "lstm2_transform_6"
  type: "InnerProduct"
  bottom: "h_conted_5"
  top: "W_hc_h_5"
  param {
    name: "W_hc"
  }
  inner_product_param {
    num_output: 512
    bias_term: false
    weight_filler {
      type: "xavier"
    }
    axis: 2
  }
}
layer {
  name: "lstm2_gate_input_6"
  type: "Eltwise"
  bottom: "W_hc_h_5"
  bottom: "W_xc_x_6"
  top: "gate_input_6"
  eltwise_param {
    operation: SUM
  }
}
layer {
  name: "lstm2_unit_6"
  type: "LSTMUnit"
  bottom: "c_5"
  bottom: "gate_input_6"
  bottom: "cont_6"
  top: "c_6"
  top: "h_6"
}
layer {
  name: "lstm2_h_conted_6"
  type: "Scale"
  bottom: "h_6"
  bottom: "cont_7"
  top: "h_conted_6"
  scale_param {
    axis: 0
  }
}
layer {
  name: "lstm2_transform_7"
  type: "InnerProduct"
  bottom: "h_conted_6"
  top: "W_hc_h_6"
  param {
    name: "W_hc"
  }
  inner_product_param {
    num_output: 512
    bias_term: false
    weight_filler {
      type: "xavier"
    }
    axis: 2
  }
}
layer {
  name: "lstm2_gate_input_7"
  type: "Eltwise"
  bottom: "W_hc_h_6"
  bottom: "W_xc_x_7"
  top: "gate_input_7"
  eltwise_param {
    operation: SUM
  }
}
layer {
  name: "lstm2_unit_7"
  type: "LSTMUnit"
  bottom: "c_6"
  bottom: "gate_input_7"
  bottom: "cont_7"
  top: "c_7"
  top: "h_7"
}
layer {
  name: "lstm2_h_conted_7"
  type: "Scale"
  bottom: "h_7"
  bottom: "cont_8"
  top: "h_conted_7"
  scale_param {
    axis: 0
  }
}
layer {
  name: "lstm2_transform_8"
  type: "InnerProduct"
  bottom: "h_conted_7"
  top: "W_hc_h_7"
  param {
    name: "W_hc"
  }
  inner_product_param {
    num_output: 512
    bias_term: false
    weight_filler {
      type: "xavier"
    }
    axis: 2
  }
}
layer {
  name: "lstm2_gate_input_8"
  type: "Eltwise"
  bottom: "W_hc_h_7"
  bottom: "W_xc_x_8"
  top: "gate_input_8"
  eltwise_param {
    operation: SUM
  }
}
layer {
  name: "lstm2_unit_8"
  type: "LSTMUnit"
  bottom: "c_7"
  bottom: "gate_input_8"
  bottom: "cont_8"
  top: "c_8"
  top: "h_8"
}
layer {
  name: "lstm2_h_conted_8"
  type: "Scale"
  bottom: "h_8"
  bottom: "cont_9"
  top: "h_conted_8"
  scale_param {
    axis: 0
  }
}
layer {
  name: "lstm2_transform_9"
  type: "InnerProduct"
  bottom: "h_conted_8"
  top: "W_hc_h_8"
  param {
    name: "W_hc"
  }
  inner_product_param {
    num_output: 512
    bias_term: false
    weight_filler {
      type: "xavier"
    }
    axis: 2
  }
}
layer {
  name: "lstm2_gate_input_9"
  type: "Eltwise"
  bottom: "W_hc_h_8"
  bottom: "W_xc_x_9"
  top: "gate_input_9"
  eltwise_param {
    operation: SUM
  }
}
layer {
  name: "lstm2_unit_9"
  type: "LSTMUnit"
  bottom: "c_8"
  bottom: "gate_input_9"
  bottom: "cont_9"
  top: "c_9"
  top: "h_9"
}
layer {
  name: "lstm2_h_conted_9"
  type: "Scale"
  bottom: "h_9"
  bottom: "cont_10"
  top: "h_conted_9"
  scale_param {
    axis: 0
  }
}
layer {
  name: "lstm2_transform_10"
  type: "InnerProduct"
  bottom: "h_conted_9"
  top: "W_hc_h_9"
  param {
    name: "W_hc"
  }
  inner_product_param {
    num_output: 512
    bias_term: false
    weight_filler {
      type: "xavier"
    }
    axis: 2
  }
}
layer {
  name: "lstm2_gate_input_10"
  type: "Eltwise"
  bottom: "W_hc_h_9"
  bottom: "W_xc_x_10"
  top: "gate_input_10"
  eltwise_param {
    operation: SUM
  }
}
layer {
  name: "lstm2_unit_10"
  type: "LSTMUnit"
  bottom: "c_9"
  bottom: "gate_input_10"
  bottom: "cont_10"
  top: "c_10"
  top: "h_10"
}
layer {
  name: "lstm2_h_conted_10"
  type: "Scale"
  bottom: "h_10"
  bottom: "cont_11"
  top: "h_conted_10"
  scale_param {
    axis: 0
  }
}
layer {
  name: "lstm2_transform_11"
  type: "InnerProduct"
  bottom: "h_conted_10"
  top: "W_hc_h_10"
  param {
    name: "W_hc"
  }
  inner_product_param {
    num_output: 512
    bias_term: false
    weight_filler {
      type: "xavier"
    }
    axis: 2
  }
}
layer {
  name: "lstm2_gate_input_11"
  type: "Eltwise"
  bottom: "W_hc_h_10"
  bottom: "W_xc_x_11"
  top: "gate_input_11"
  eltwise_param {
    operation: SUM
  }
}
layer {
  name: "lstm2_unit_11"
  type: "LSTMUnit"
  bottom: "c_10"
  bottom: "gate_input_11"
  bottom: "cont_11"
  top: "c_11"
  top: "h_11"
}
layer {
  name: "lstm2_h_conted_11"
  type: "Scale"
  bottom: "h_11"
  bottom: "cont_12"
  top: "h_conted_11"
  scale_param {
    axis: 0
  }
}
layer {
  name: "lstm2_transform_12"
  type: "InnerProduct"
  bottom: "h_conted_11"
  top: "W_hc_h_11"
  param {
    name: "W_hc"
  }
  inner_product_param {
    num_output: 512
    bias_term: false
    weight_filler {
      type: "xavier"
    }
    axis: 2
  }
}
layer {
  name: "lstm2_gate_input_12"
  type: "Eltwise"
  bottom: "W_hc_h_11"
  bottom: "W_xc_x_12"
  top: "gate_input_12"
  eltwise_param {
    operation: SUM
  }
}
layer {
  name: "lstm2_unit_12"
  type: "LSTMUnit"
  bottom: "c_11"
  bottom: "gate_input_12"
  bottom: "cont_12"
  top: "c_12"
  top: "h_12"
}
layer {
  name: "lstm2_h_conted_12"
  type: "Scale"
  bottom: "h_12"
  bottom: "cont_13"
  top: "h_conted_12"
  scale_param {
    axis: 0
  }
}
layer {
  name: "lstm2_transform_13"
  type: "InnerProduct"
  bottom: "h_conted_12"
  top: "W_hc_h_12"
  param {
    name: "W_hc"
  }
  inner_product_param {
    num_output: 512
    bias_term: false
    weight_filler {
      type: "xavier"
    }
    axis: 2
  }
}
layer {
  name: "lstm2_gate_input_13"
  type: "Eltwise"
  bottom: "W_hc_h_12"
  bottom: "W_xc_x_13"
  top: "gate_input_13"
  eltwise_param {
    operation: SUM
  }
}
layer {
  name: "lstm2_unit_13"
  type: "LSTMUnit"
  bottom: "c_12"
  bottom: "gate_input_13"
  bottom: "cont_13"
  top: "c_13"
  top: "h_13"
}
layer {
  name: "lstm2_h_conted_13"
  type: "Scale"
  bottom: "h_13"
  bottom: "cont_14"
  top: "h_conted_13"
  scale_param {
    axis: 0
  }
}
layer {
  name: "lstm2_transform_14"
  type: "InnerProduct"
  bottom: "h_conted_13"
  top: "W_hc_h_13"
  param {
    name: "W_hc"
  }
  inner_product_param {
    num_output: 512
    bias_term: false
    weight_filler {
      type: "xavier"
    }
    axis: 2
  }
}
layer {
  name: "lstm2_gate_input_14"
  type: "Eltwise"
  bottom: "W_hc_h_13"
  bottom: "W_xc_x_14"
  top: "gate_input_14"
  eltwise_param {
    operation: SUM
  }
}
layer {
  name: "lstm2_unit_14"
  type: "LSTMUnit"
  bottom: "c_13"
  bottom: "gate_input_14"
  bottom: "cont_14"
  top: "c_14"
  top: "h_14"
}
layer {
  name: "lstm2_h_conted_14"
  type: "Scale"
  bottom: "h_14"
  bottom: "cont_15"
  top: "h_conted_14"
  scale_param {
    axis: 0
  }
}
layer {
  name: "lstm2_transform_15"
  type: "InnerProduct"
  bottom: "h_conted_14"
  top: "W_hc_h_14"
  param {
    name: "W_hc"
  }
  inner_product_param {
    num_output: 512
    bias_term: false
    weight_filler {
      type: "xavier"
    }
    axis: 2
  }
}
layer {
  name: "lstm2_gate_input_15"
  type: "Eltwise"
  bottom: "W_hc_h_14"
  bottom: "W_xc_x_15"
  top: "gate_input_15"
  eltwise_param {
    operation: SUM
  }
}
layer {
  name: "lstm2_unit_15"
  type: "LSTMUnit"
  bottom: "c_14"
  bottom: "gate_input_15"
  bottom: "cont_15"
  top: "c_15"
  top: "h_15"
}
layer {
  name: "lstm2_h_conted_15"
  type: "Scale"
  bottom: "h_15"
  bottom: "cont_16"
  top: "h_conted_15"
  scale_param {
    axis: 0
  }
}
layer {
  name: "lstm2_transform_16"
  type: "InnerProduct"
  bottom: "h_conted_15"
  top: "W_hc_h_15"
  param {
    name: "W_hc"
  }
  inner_product_param {
    num_output: 512
    bias_term: false
    weight_filler {
      type: "xavier"
    }
    axis: 2
  }
}
layer {
  name: "lstm2_gate_input_16"
  type: "Eltwise"
  bottom: "W_hc_h_15"
  bottom: "W_xc_x_16"
  top: "gate_input_16"
  eltwise_param {
    operation: SUM
  }
}
layer {
  name: "lstm2_unit_16"
  type: "LSTMUnit"
  bottom: "c_15"
  bottom: "gate_input_16"
  bottom: "cont_16"
  top: "c_16"
  top: "h_16"
}
layer {
  name: "lstm2_h_conted_16"
  type: "Scale"
  bottom: "h_16"
  bottom: "cont_17"
  top: "h_conted_16"
  scale_param {
    axis: 0
  }
}
layer {
  name: "lstm2_transform_17"
  type: "InnerProduct"
  bottom: "h_conted_16"
  top: "W_hc_h_16"
  param {
    name: "W_hc"
  }
  inner_product_param {
    num_output: 512
    bias_term: false
    weight_filler {
      type: "xavier"
    }
    axis: 2
  }
}
layer {
  name: "lstm2_gate_input_17"
  type: "Eltwise"
  bottom: "W_hc_h_16"
  bottom: "W_xc_x_17"
  top: "gate_input_17"
  eltwise_param {
    operation: SUM
  }
}
layer {
  name: "lstm2_unit_17"
  type: "LSTMUnit"
  bottom: "c_16"
  bottom: "gate_input_17"
  bottom: "cont_17"
  top: "c_17"
  top: "h_17"
}
layer {
  name: "lstm2_h_conted_17"
  type: "Scale"
  bottom: "h_17"
  bottom: "cont_18"
  top: "h_conted_17"
  scale_param {
    axis: 0
  }
}
layer {
  name: "lstm2_transform_18"
  type: "InnerProduct"
  bottom: "h_conted_17"
  top: "W_hc_h_17"
  param {
    name: "W_hc"
  }
  inner_product_param {
    num_output: 512
    bias_term: false
    weight_filler {
      type: "xavier"
    }
    axis: 2
  }
}
layer {
  name: "lstm2_gate_input_18"
  type: "Eltwise"
  bottom: "W_hc_h_17"
  bottom: "W_xc_x_18"
  top: "gate_input_18"
  eltwise_param {
    operation: SUM
  }
}
layer {
  name: "lstm2_unit_18"
  type: "LSTMUnit"
  bottom: "c_17"
  bottom: "gate_input_18"
  bottom: "cont_18"
  top: "c_18"
  top: "h_18"
}
layer {
  name: "lstm2_h_conted_18"
  type: "Scale"
  bottom: "h_18"
  bottom: "cont_19"
  top: "h_conted_18"
  scale_param {
    axis: 0
  }
}
layer {
  name: "lstm2_transform_19"
  type: "InnerProduct"
  bottom: "h_conted_18"
  top: "W_hc_h_18"
  param {
    name: "W_hc"
  }
  inner_product_param {
    num_output: 512
    bias_term: false
    weight_filler {
      type: "xavier"
    }
    axis: 2
  }
}
layer {
  name: "lstm2_gate_input_19"
  type: "Eltwise"
  bottom: "W_hc_h_18"
  bottom: "W_xc_x_19"
  top: "gate_input_19"
  eltwise_param {
    operation: SUM
  }
}
layer {
  name: "lstm2_unit_19"
  type: "LSTMUnit"
  bottom: "c_18"
  bottom: "gate_input_19"
  bottom: "cont_19"
  top: "c_19"
  top: "h_19"
}
layer {
  name: "lstm2_h_conted_19"
  type: "Scale"
  bottom: "h_19"
  bottom: "cont_20"
  top: "h_conted_19"
  scale_param {
    axis: 0
  }
}
layer {
  name: "lstm2_transform_20"
  type: "InnerProduct"
  bottom: "h_conted_19"
  top: "W_hc_h_19"
  param {
    name: "W_hc"
  }
  inner_product_param {
    num_output: 512
    bias_term: false
    weight_filler {
      type: "xavier"
    }
    axis: 2
  }
}
layer {
  name: "lstm2_gate_input_20"
  type: "Eltwise"
  bottom: "W_hc_h_19"
  bottom: "W_xc_x_20"
  top: "gate_input_20"
  eltwise_param {
    operation: SUM
  }
}
layer {
  name: "lstm2_unit_20"
  type: "LSTMUnit"
  bottom: "c_19"
  bottom: "gate_input_20"
  bottom: "cont_20"
  top: "c_20"
  top: "h_20"
}
layer {
  name: "lstm2_h_conted_20"
  type: "Scale"
  bottom: "h_20"
  bottom: "cont_21"
  top: "h_conted_20"
  scale_param {
    axis: 0
  }
}
layer {
  name: "lstm2_transform_21"
  type: "InnerProduct"
  bottom: "h_conted_20"
  top: "W_hc_h_20"
  param {
    name: "W_hc"
  }
  inner_product_param {
    num_output: 512
    bias_term: false
    weight_filler {
      type: "xavier"
    }
    axis: 2
  }
}
layer {
  name: "lstm2_gate_input_21"
  type: "Eltwise"
  bottom: "W_hc_h_20"
  bottom: "W_xc_x_21"
  top: "gate_input_21"
  eltwise_param {
    operation: SUM
  }
}
layer {
  name: "lstm2_unit_21"
  type: "LSTMUnit"
  bottom: "c_20"
  bottom: "gate_input_21"
  bottom: "cont_21"
  top: "c_21"
  top: "h_21"
}
layer {
  name: "lstm2_h_conted_21"
  type: "Scale"
  bottom: "h_21"
  bottom: "cont_22"
  top: "h_conted_21"
  scale_param {
    axis: 0
  }
}
layer {
  name: "lstm2_transform_22"
  type: "InnerProduct"
  bottom: "h_conted_21"
  top: "W_hc_h_21"
  param {
    name: "W_hc"
  }
  inner_product_param {
    num_output: 512
    bias_term: false
    weight_filler {
      type: "xavier"
    }
    axis: 2
  }
}
layer {
  name: "lstm2_gate_input_22"
  type: "Eltwise"
  bottom: "W_hc_h_21"
  bottom: "W_xc_x_22"
  top: "gate_input_22"
  eltwise_param {
    operation: SUM
  }
}
layer {
  name: "lstm2_unit_22"
  type: "LSTMUnit"
  bottom: "c_21"
  bottom: "gate_input_22"
  bottom: "cont_22"
  top: "c_22"
  top: "h_22"
}
layer {
  name: "lstm2_h_conted_22"
  type: "Scale"
  bottom: "h_22"
  bottom: "cont_23"
  top: "h_conted_22"
  scale_param {
    axis: 0
  }
}
layer {
  name: "lstm2_transform_23"
  type: "InnerProduct"
  bottom: "h_conted_22"
  top: "W_hc_h_22"
  param {
    name: "W_hc"
  }
  inner_product_param {
    num_output: 512
    bias_term: false
    weight_filler {
      type: "xavier"
    }
    axis: 2
  }
}
layer {
  name: "lstm2_gate_input_23"
  type: "Eltwise"
  bottom: "W_hc_h_22"
  bottom: "W_xc_x_23"
  top: "gate_input_23"
  eltwise_param {
    operation: SUM
  }
}
layer {
  name: "lstm2_unit_23"
  type: "LSTMUnit"
  bottom: "c_22"
  bottom: "gate_input_23"
  bottom: "cont_23"
  top: "c_23"
  top: "h_23"
}
layer {
  name: "lstm2_h_conted_23"
  type: "Scale"
  bottom: "h_23"
  bottom: "cont_24"
  top: "h_conted_23"
  scale_param {
    axis: 0
  }
}
layer {
  name: "lstm2_transform_24"
  type: "InnerProduct"
  bottom: "h_conted_23"
  top: "W_hc_h_23"
  param {
    name: "W_hc"
  }
  inner_product_param {
    num_output: 512
    bias_term: false
    weight_filler {
      type: "xavier"
    }
    axis: 2
  }
}
layer {
  name: "lstm2_gate_input_24"
  type: "Eltwise"
  bottom: "W_hc_h_23"
  bottom: "W_xc_x_24"
  top: "gate_input_24"
  eltwise_param {
    operation: SUM
  }
}
layer {
  name: "lstm2_unit_24"
  type: "LSTMUnit"
  bottom: "c_23"
  bottom: "gate_input_24"
  bottom: "cont_24"
  top: "c_24"
  top: "h_24"
}
layer {
  name: "lstm2_"
  type: "Split"
  bottom: "c_24"
  top: "c_T"
}
layer {
  name: "lstm2_h_concat"
  type: "Concat"
  bottom: "h_1"
  bottom: "h_2"
  bottom: "h_3"
  bottom: "h_4"
  bottom: "h_5"
  bottom: "h_6"
  bottom: "h_7"
  bottom: "h_8"
  bottom: "h_9"
  bottom: "h_10"
  bottom: "h_11"
  bottom: "h_12"
  bottom: "h_13"
  bottom: "h_14"
  bottom: "h_15"
  bottom: "h_16"
  bottom: "h_17"
  bottom: "h_18"
  bottom: "h_19"
  bottom: "h_20"
  bottom: "h_21"
  bottom: "h_22"
  bottom: "h_23"
  bottom: "h_24"
  top: "h"
  concat_param {
    axis: 0
  }
}
layer {
  name: "h_pseudoloss"
  type: "Reduction"
  bottom: "h"
  top: "h_pseudoloss"
  loss_weight: 1
}
I0222 17:59:16.741956 25894 layer_factory.hpp:77] Creating layer lstm2_
I0222 17:59:16.741986 25894 net.cpp:84] Creating Layer lstm2_
I0222 17:59:16.741991 25894 net.cpp:380] lstm2_ -> x
I0222 17:59:16.741998 25894 net.cpp:380] lstm2_ -> cont
I0222 17:59:16.742075 25894 net.cpp:122] Setting up lstm2_
I0222 17:59:16.742094 25894 net.cpp:129] Top shape: 24 26 128 (79872)
I0222 17:59:16.742097 25894 net.cpp:129] Top shape: 24 26 (624)
I0222 17:59:16.742115 25894 net.cpp:137] Memory required for data: 321984
I0222 17:59:16.742117 25894 layer_factory.hpp:77] Creating layer lstm2_
I0222 17:59:16.742121 25894 net.cpp:84] Creating Layer lstm2_
I0222 17:59:16.742125 25894 net.cpp:380] lstm2_ -> c_0
I0222 17:59:16.742130 25894 net.cpp:380] lstm2_ -> h_0
I0222 17:59:16.742164 25894 net.cpp:122] Setting up lstm2_
I0222 17:59:16.742184 25894 net.cpp:129] Top shape: 1 26 128 (3328)
I0222 17:59:16.742187 25894 net.cpp:129] Top shape: 1 26 128 (3328)
I0222 17:59:16.742190 25894 net.cpp:137] Memory required for data: 348608
I0222 17:59:16.742193 25894 layer_factory.hpp:77] Creating layer lstm2_cont_slice
I0222 17:59:16.742199 25894 net.cpp:84] Creating Layer lstm2_cont_slice
I0222 17:59:16.742202 25894 net.cpp:406] lstm2_cont_slice <- cont
I0222 17:59:16.742208 25894 net.cpp:380] lstm2_cont_slice -> cont_1
I0222 17:59:16.742214 25894 net.cpp:380] lstm2_cont_slice -> cont_2
…
