Log file created at: 2018/02/22 17:35:08
Running on machine: LEONIDA
Log line format: [IWEF]mmdd hh:mm:ss.uuuuuu threadid file:line] msg
I0222 17:35:08.759636 24386 train_validate.cpp:51] GPU mode
I0222 17:35:08.759757 24386 train_validate.cpp:59] Parsing solver config /home/leonida/ThesisCode/LSTM_on_Create2/src/neural_network_planner/NetModels/LSTM/deep_lstm_solver.prototxt
I0222 17:35:08.771286 24386 solver.cpp:44] Initializing solver from parameters: 
test_net: "/home/leonida/ThesisCode/LSTM_on_Create2/src/neural_network_planner/NetModels/LSTM/deep_stack_testnet.prototxt"
test_iter: 0
test_interval: 100000000
base_lr: 0.01
display: 25
max_iter: 100000
lr_policy: "fixed"
momentum: 0.95
weight_decay: 1e-05
snapshot: 300
snapshot_prefix: "/home/leonida/ThesisCode/LSTM_on_Create2/src/neural_network_planner/NetModels/LSTM/Snapshots/LSTM_deep-stack-realworld"
solver_mode: GPU
net: "/home/leonida/ThesisCode/LSTM_on_Create2/src/neural_network_planner/NetModels/LSTM/deep_stack_net.prototxt"
regularization_type: "L1"
solver_type: ADADELTA
iter_size: 1
I0222 17:35:08.771415 24386 solver.cpp:87] Creating training net from net file: /home/leonida/ThesisCode/LSTM_on_Create2/src/neural_network_planner/NetModels/LSTM/deep_stack_net.prototxt
I0222 17:35:08.771600 24386 net.cpp:51] Initializing net from parameters: 
name: "LSTM_stack-1-16"
state {
  phase: TRAIN
}
layer {
  name: "data"
  type: "Data"
  top: "data"
  data_param {
    source: "/home/leonida/ThesisCode/LSTM_on_Create2/NavDatabases/LAB-21-2-new-step-condition/states_db-2-21-15-4_lmdb"
    batch_size: 24
    backend: LMDB
  }
}
layer {
  name: "label"
  type: "Data"
  top: "labels"
  data_param {
    source: "/home/leonida/ThesisCode/LSTM_on_Create2/NavDatabases/LAB-21-2-new-step-condition/labels_db-2-21-15-4_twist-variant_lmdb"
    batch_size: 24
    backend: LMDB
  }
}
layer {
  name: "clip"
  type: "Input"
  top: "clip"
  input_param {
    shape {
      dim: 24
      dim: 26
    }
  }
}
layer {
  name: "lstm1"
  type: "LSTM"
  bottom: "data"
  bottom: "clip"
  top: "lstm1"
  recurrent_param {
    num_output: 16
    weight_filler {
      type: "xavier"
    }
    bias_filler {
      type: "constant"
    }
  }
}
layer {
  name: "out"
  type: "InnerProduct"
  bottom: "lstm1"
  top: "out"
  inner_product_param {
    num_output: 2
    weight_filler {
      type: "gaussian"
      std: 0.1
    }
    bias_filler {
      type: "constant"
    }
  }
}
layer {
  name: "euclideanLoss"
  type: "EuclideanLoss"
  bottom: "out"
  bottom: "label"
  top: "loss"
}
F0222 17:35:08.771647 24386 insert_splits.cpp:29] Unknown bottom blob 'label' (layer 'euclideanLoss', bottom index 1)
