…
I0228 21:33:08.610873 13998 solver.cpp:87] Creating training net from net file: /home/leonida/ThesisCode/LSTM_on_Create2/src/neural_network_planner/NetModels/LSTM/deep_stack-fc_net.prototxt
I0228 21:33:08.611116 13998 net.cpp:51] Initializing net from parameters: 
name: "LSTM_stack-3-16"
state {
  phase: TRAIN
}
layer {
  name: "Input"
  type: "Input"
  top: "data"
  top: "clip"
  top: "label"
  input_param {
    shape {
      dim: 16
      dim: 13
      dim: 1
    }
    shape {
      dim: 16
      dim: 13
    }
    shape {
      dim: 16
      dim: 1
    }
  }
}
layer {
  name: "lstm1"
  type: "LSTM"
  bottom: "data"
  bottom: "clip"
  top: "lstm1"
  recurrent_param {
    num_output: 16
    weight_filler {
      type: "xavier"
    }
    bias_filler {
      type: "constant"
    }
  }
}
layer {
  name: "lstm2"
  type: "LSTM"
  bottom: "lstm1"
  bottom: "clip"
  top: "lstm2"
  recurrent_param {
    num_output: 16
    weight_filler {
      type: "xavier"
    }
    bias_filler {
      type: "constant"
    }
  }
}
layer {
  name: "lstm3"
  type: "LSTM"
  bottom: "lstm2"
  bottom: "clip"
  top: "lstm3"
  recurrent_param {
    num_output: 16
    weight_filler {
      type: "xavier"
    }
    bias_filler {
      type: "constant"
    }
  }
}
layer {
  name: "fc1"
  type: "InnerProduct"
  bottom: "lstm3"
  top: "fc1"
  param {
    lr_mult: 1
    decay_mult: 1
  }
  param {
    lr_mult: 2
    decay_mult: 0
  }
  inner_product_param {
    num_output: 16
    weight_filler {
      type: "gaussian"
      std: 0.01
    }
    bias_filler {
      type: "constant"
      value: 0
    }
  }
}
layer {
  name: "out"
  type: "InnerProduct"
  bottom: "fc1"
  top: "out"
  inner_product_param {
    num_output: 1
    weight_filler {
      type: "gaussian"
      std: 0.1
    }
    bias_filler {
      type: "constant"
    }
  }
}
layer {
  name: "euclideanLoss"
  type: "EuclideanLoss"
  bottom: "out"
  bottom: "label"
  top: "loss"
}
I0228 21:33:08.611225 13998 layer_factory.hpp:77] Creating layer Input
I0228 21:33:08.611251 13998 net.cpp:84] Creating Layer Input
I0228 21:33:08.611260 13998 net.cpp:380] Input -> data
I0228 21:33:08.611281 13998 net.cpp:380] Input -> clip
I0228 21:33:08.611290 13998 net.cpp:380] Input -> label
I0228 21:33:08.611946 13998 net.cpp:122] Setting up Input
I0228 21:33:08.611971 13998 net.cpp:129] Top shape: 16 13 1 (208)
I0228 21:33:08.611977 13998 net.cpp:129] Top shape: 16 13 (208)
I0228 21:33:08.611981 13998 net.cpp:129] Top shape: 16 1 (16)
I0228 21:33:08.611984 13998 net.cpp:137] Memory required for data: 1728
I0228 21:33:08.611990 13998 layer_factory.hpp:77] Creating layer clip_Input_1_split
I0228 21:33:08.612023 13998 net.cpp:84] Creating Layer clip_Input_1_split
I0228 21:33:08.612028 13998 net.cpp:406] clip_Input_1_split <- clip
I0228 21:33:08.612035 13998 net.cpp:380] clip_Input_1_split -> clip_Input_1_split_0
I0228 21:33:08.612041 13998 net.cpp:380] clip_Input_1_split -> clip_Input_1_split_1
I0228 21:33:08.612048 13998 net.cpp:380] clip_Input_1_split -> clip_Input_1_split_2
I0228 21:33:08.612079 13998 net.cpp:122] Setting up clip_Input_1_split
I0228 21:33:08.612087 13998 net.cpp:129] Top shape: 16 13 (208)
I0228 21:33:08.612092 13998 net.cpp:129] Top shape: 16 13 (208)
I0228 21:33:08.612103 13998 net.cpp:129] Top shape: 16 13 (208)
I0228 21:33:08.612107 13998 net.cpp:137] Memory required for data: 4224
I0228 21:33:08.612110 13998 layer_factory.hpp:77] Creating layer lstm1
I0228 21:33:08.612120 13998 net.cpp:84] Creating Layer lstm1
I0228 21:33:08.612124 13998 net.cpp:406] lstm1 <- data
I0228 21:33:08.612128 13998 net.cpp:406] lstm1 <- clip_Input_1_split_0
I0228 21:33:08.612133 13998 net.cpp:380] lstm1 -> lstm1
I0228 21:33:08.612145 13998 recurrent_layer.cpp:20] Initializing recurrent layer: assuming input batch contains 16 timesteps of 13 independent streams.
I0228 21:33:08.612532 13998 net.cpp:51] Initializing net from parameters: 
layer {
  name: "lstm1_"
  type: "Input"
  top: "x"
  top: "cont"
  input_param {
    shape {
      dim: 16
      dim: 13
      dim: 1
    }
    shape {
      dim: 16
      dim: 13
    }
  }
}
layer {
  name: "lstm1_"
  type: "Input"
  top: "c_0"
  top: "h_0"
  input_param {
    shape {
      dim: 1
      dim: 13
      dim: 16
    }
    shape {
      dim: 1
      dim: 13
      dim: 16
    }
  }
}
layer {
  name: "lstm1_cont_slice"
  type: "Slice"
  bottom: "cont"
  top: "cont_1"
  top: "cont_2"
  top: "cont_3"
  top: "cont_4"
  top: "cont_5"
  top: "cont_6"
  top: "cont_7"
  top: "cont_8"
  top: "cont_9"
  top: "cont_10"
  top: "cont_11"
  top: "cont_12"
  top: "cont_13"
  top: "cont_14"
  top: "cont_15"
  top: "cont_16"
  slice_param {
    axis: 0
  }
}
layer {
  name: "lstm1_x_transform"
  type: "InnerProduct"
  bottom: "x"
  top: "W_xc_x"
  param {
    name: "W_xc"
  }
  param {
    name: "b_c"
  }
  propagate_down: true
  inner_product_param {
    num_output: 64
    bias_term: true
    weight_filler {
      type: "xavier"
    }
    bias_filler {
      type: "constant"
    }
    axis: 2
  }
}
layer {
  name: "lstm1_W_xc_x_slice"
  type: "Slice"
  bottom: "W_xc_x"
  top: "W_xc_x_1"
  top: "W_xc_x_2"
  top: "W_xc_x_3"
  top: "W_xc_x_4"
  top: "W_xc_x_5"
  top: "W_xc_x_6"
  top: "W_xc_x_7"
  top: "W_xc_x_8"
  top: "W_xc_x_9"
  top: "W_xc_x_10"
  top: "W_xc_x_11"
  top: "W_xc_x_12"
  top: "W_xc_x_13"
  top: "W_xc_x_14"
  top: "W_xc_x_15"
  top: "W_xc_x_16"
  slice_param {
    axis: 0
  }
}
layer {
  name: "lstm1_h_conted_0"
  type: "Scale"
  bottom: "h_0"
  bottom: "cont_1"
  top: "h_conted_0"
  scale_param {
    axis: 0
  }
}
layer {
  name: "lstm1_transform_1"
  type: "InnerProduct"
  bottom: "h_conted_0"
  top: "W_hc_h_0"
  param {
    name: "W_hc"
  }
  inner_product_param {
    num_output: 64
    bias_term: false
    weight_filler {
      type: "xavier"
    }
    axis: 2
  }
}
layer {
  name: "lstm1_gate_input_1"
  type: "Eltwise"
  bottom: "W_hc_h_0"
  bottom: "W_xc_x_1"
  top: "gate_input_1"
  eltwise_param {
    operation: SUM
  }
}
layer {
  name: "lstm1_unit_1"
  type: "LSTMUnit"
  bottom: "c_0"
  bottom: "gate_input_1"
  bottom: "cont_1"
  top: "c_1"
  top: "h_1"
}
layer {
  name: "lstm1_h_conted_1"
  type: "Scale"
  bottom: "h_1"
  bottom: "cont_2"
  top: "h_conted_1"
  scale_param {
    axis: 0
  }
}
layer {
  name: "lstm1_transform_2"
  type: "InnerProduct"
  bottom: "h_conted_1"
  top: "W_hc_h_1"
  param {
    name: "W_hc"
  }
  inner_product_param {
    num_output: 64
    bias_term: false
    weight_filler {
      type: "xavier"
    }
    axis: 2
  }
}
layer {
  name: "lstm1_gate_input_2"
  type: "Eltwise"
  bottom: "W_hc_h_1"
  bottom: "W_xc_x_2"
  top: "gate_input_2"
  eltwise_param {
    operation: SUM
  }
}
layer {
  name: "lstm1_unit_2"
  type: "LSTMUnit"
  bottom: "c_1"
  bottom: "gate_input_2"
  bottom: "cont_2"
  top: "c_2"
  top: "h_2"
}
layer {
  name: "lstm1_h_conted_2"
  type: "Scale"
  bottom: "h_2"
  bottom: "cont_3"
  top: "h_conted_2"
  scale_param {
    axis: 0
  }
}
layer {
  name: "lstm1_transform_3"
  type: "InnerProduct"
  bottom: "h_conted_2"
  top: "W_hc_h_2"
  param {
    name: "W_hc"
  }
  inner_product_param {
    num_output: 64
    bias_term: false
    weight_filler {
      type: "xavier"
    }
    axis: 2
  }
}
layer {
  name: "lstm1_gate_input_3"
  type: "Eltwise"
  bottom: "W_hc_h_2"
  bottom: "W_xc_x_3"
  top: "gate_input_3"
  eltwise_param {
    operation: SUM
  }
}
layer {
  name: "lstm1_unit_3"
  type: "LSTMUnit"
  bottom: "c_2"
  bottom: "gate_input_3"
  bottom: "cont_3"
  top: "c_3"
  top: "h_3"
}
layer {
  name: "lstm1_h_conted_3"
  type: "Scale"
  bottom: "h_3"
  bottom: "cont_4"
  top: "h_conted_3"
  scale_param {
    axis: 0
  }
}
layer {
  name: "lstm1_transform_4"
  type: "InnerProduct"
  bottom: "h_conted_3"
  top: "W_hc_h_3"
  param {
    name: "W_hc"
  }
  inner_product_param {
    num_output: 64
    bias_term: false
    weight_filler {
      type: "xavier"
    }
    axis: 2
  }
}
layer {
  name: "lstm1_gate_input_4"
  type: "Eltwise"
  bottom: "W_hc_h_3"
  bottom: "W_xc_x_4"
  top: "gate_input_4"
  eltwise_param {
    operation: SUM
  }
}
layer {
  name: "lstm1_unit_4"
  type: "LSTMUnit"
  bottom: "c_3"
  bottom: "gate_input_4"
  bottom: "cont_4"
  top: "c_4"
  top: "h_4"
}
layer {
  name: "lstm1_h_conted_4"
  type: "Scale"
  bottom: "h_4"
  bottom: "cont_5"
  top: "h_conted_4"
  scale_param {
    axis: 0
  }
}
layer {
  name: "lstm1_transform_5"
  type: "InnerProduct"
  bottom: "h_conted_4"
  top: "W_hc_h_4"
  param {
    name: "W_hc"
  }
  inner_product_param {
    num_output: 64
    bias_term: false
    weight_filler {
      type: "xavier"
    }
    axis: 2
  }
}
layer {
  name: "lstm1_gate_input_5"
  type: "Eltwise"
  bottom: "W_hc_h_4"
  bottom: "W_xc_x_5"
  top: "gate_input_5"
  eltwise_param {
    operation: SUM
  }
}
layer {
  name: "lstm1_unit_5"
  type: "LSTMUnit"
  bottom: "c_4"
  bottom: "gate_input_5"
  bottom: "cont_5"
  top: "c_5"
  top: "h_5"
}
layer {
  name: "lstm1_h_conted_5"
  type: "Scale"
  bottom: "h_5"
  bottom: "cont_6"
  top: "h_conted_5"
  scale_param {
    axis: 0
  }
}
layer {
  name: "lstm1_transform_6"
  type: "InnerProduct"
  bottom: "h_conted_5"
  top: "W_hc_h_5"
  param {
    name: "W_hc"
  }
  inner_product_param {
    num_output: 64
    bias_term: false
    weight_filler {
      type: "xavier"
    }
    axis: 2
  }
}
layer {
  name: "lstm1_gate_input_6"
  type: "Eltwise"
  bottom: "W_hc_h_5"
  bottom: "W_xc_x_6"
  top: "gate_input_6"
  eltwise_param {
    operation: SUM
  }
}
layer {
  name: "lstm1_unit_6"
  type: "LSTMUnit"
  bottom: "c_5"
  bottom: "gate_input_6"
  bottom: "cont_6"
  top: "c_6"
  top: "h_6"
}
layer {
  name: "lstm1_h_conted_6"
  type: "Scale"
  bottom: "h_6"
  bottom: "cont_7"
  top: "h_conted_6"
  scale_param {
    axis: 0
  }
}
layer {
  name: "lstm1_transform_7"
  type: "InnerProduct"
  bottom: "h_conted_6"
  top: "W_hc_h_6"
  param {
    name: "W_hc"
  }
  inner_product_param {
    num_output: 64
    bias_term: false
    weight_filler {
      type: "xavier"
    }
    axis: 2
  }
}
layer {
  name: "lstm1_gate_input_7"
  type: "Eltwise"
  bottom: "W_hc_h_6"
  bottom: "W_xc_x_7"
  top: "gate_input_7"
  eltwise_param {
    operation: SUM
  }
}
layer {
  name: "lstm1_unit_7"
  type: "LSTMUnit"
  bottom: "c_6"
  bottom: "gate_input_7"
  bottom: "cont_7"
  top: "c_7"
  top: "h_7"
}
layer {
  name: "lstm1_h_conted_7"
  type: "Scale"
  bottom: "h_7"
  bottom: "cont_8"
  top: "h_conted_7"
  scale_param {
    axis: 0
  }
}
layer {
  name: "lstm1_transform_8"
  type: "InnerProduct"
  bottom: "h_conted_7"
  top: "W_hc_h_7"
  param {
    name: "W_hc"
  }
  inner_product_param {
    num_output: 64
    bias_term: false
    weight_filler {
      type: "xavier"
    }
    axis: 2
  }
}
layer {
  name: "lstm1_gate_input_8"
  type: "Eltwise"
  bottom: "W_hc_h_7"
  bottom: "W_xc_x_8"
  top: "gate_input_8"
  eltwise_param {
    operation: SUM
  }
}
layer {
  name: "lstm1_unit_8"
  type: "LSTMUnit"
  bottom: "c_7"
  bottom: "gate_input_8"
  bottom: "cont_8"
  top: "c_8"
  top: "h_8"
}
layer {
  name: "lstm1_h_conted_8"
  type: "Scale"
  bottom: "h_8"
  bottom: "cont_9"
  top: "h_conted_8"
  scale_param {
    axis: 0
  }
}
layer {
  name: "lstm1_transform_9"
  type: "InnerProduct"
  bottom: "h_conted_8"
  top: "W_hc_h_8"
  param {
    name: "W_hc"
  }
  inner_product_param {
    num_output: 64
    bias_term: false
    weight_filler {
      type: "xavier"
    }
    axis: 2
  }
}
layer {
  name: "lstm1_gate_input_9"
  type: "Eltwise"
  bottom: "W_hc_h_8"
  bottom: "W_xc_x_9"
  top: "gate_input_9"
  eltwise_param {
    operation: SUM
  }
}
layer {
  name: "lstm1_unit_9"
  type: "LSTMUnit"
  bottom: "c_8"
  bottom: "gate_input_9"
  bottom: "cont_9"
  top: "c_9"
  top: "h_9"
}
layer {
  name: "lstm1_h_conted_9"
  type: "Scale"
  bottom: "h_9"
  bottom: "cont_10"
  top: "h_conted_9"
  scale_param {
    axis: 0
  }
}
layer {
  name: "lstm1_transform_10"
  type: "InnerProduct"
  bottom: "h_conted_9"
  top: "W_hc_h_9"
  param {
    name: "W_hc"
  }
  inner_product_param {
    num_output: 64
    bias_term: false
    weight_filler {
      type: "xavier"
    }
    axis: 2
  }
}
layer {
  name: "lstm1_gate_input_10"
  type: "Eltwise"
  bottom: "W_hc_h_9"
  bottom: "W_xc_x_10"
  top: "gate_input_10"
  eltwise_param {
    operation: SUM
  }
}
layer {
  name: "lstm1_unit_10"
  type: "LSTMUnit"
  bottom: "c_9"
  bottom: "gate_input_10"
  bottom: "cont_10"
  top: "c_10"
  top: "h_10"
}
layer {
  name: "lstm1_h_conted_10"
  type: "Scale"
  bottom: "h_10"
  bottom: "cont_11"
  top: "h_conted_10"
  scale_param {
    axis: 0
  }
}
layer {
  name: "lstm1_transform_11"
  type: "InnerProduct"
  bottom: "h_conted_10"
  top: "W_hc_h_10"
  param {
    name: "W_hc"
  }
  inner_product_param {
    num_output: 64
    bias_term: false
    weight_filler {
      type: "xavier"
    }
    axis: 2
  }
}
layer {
  name: "lstm1_gate_input_11"
  type: "Eltwise"
  bottom: "W_hc_h_10"
  bottom: "W_xc_x_11"
  top: "gate_input_11"
  eltwise_param {
    operation: SUM
  }
}
layer {
  name: "lstm1_unit_11"
  type: "LSTMUnit"
  bottom: "c_10"
  bottom: "gate_input_11"
  bottom: "cont_11"
  top: "c_11"
  top: "h_11"
}
layer {
  name: "lstm1_h_conted_11"
  type: "Scale"
  bottom: "h_11"
  bottom: "cont_12"
  top: "h_conted_11"
  scale_param {
    axis: 0
  }
}
layer {
  name: "lstm1_transform_12"
  type: "InnerProduct"
  bottom: "h_conted_11"
  top: "W_hc_h_11"
  param {
    name: "W_hc"
  }
  inner_product_param {
    num_output: 64
    bias_term: false
    weight_filler {
      type: "xavier"
    }
    axis: 2
  }
}
layer {
  name: "lstm1_gate_input_12"
  type: "Eltwise"
  bottom: "W_hc_h_11"
  bottom: "W_xc_x_12"
  top: "gate_input_12"
  eltwise_param {
    operation: SUM
  }
}
layer {
  name: "lstm1_unit_12"
  type: "LSTMUnit"
  bottom: "c_11"
  bottom: "gate_input_12"
  bottom: "cont_12"
  top: "c_12"
  top: "h_12"
}
layer {
  name: "lstm1_h_conted_12"
  type: "Scale"
  bottom: "h_12"
  bottom: "cont_13"
  top: "h_conted_12"
  scale_param {
    axis: 0
  }
}
layer {
  name: "lstm1_transform_13"
  type: "InnerProduct"
  bottom: "h_conted_12"
  top: "W_hc_h_12"
  param {
    name: "W_hc"
  }
  inner_product_param {
    num_output: 64
    bias_term: false
    weight_filler {
      type: "xavier"
    }
    axis: 2
  }
}
layer {
  name: "lstm1_gate_input_13"
  type: "Eltwise"
  bottom: "W_hc_h_12"
  bottom: "W_xc_x_13"
  top: "gate_input_13"
  eltwise_param {
    operation: SUM
  }
}
layer {
  name: "lstm1_unit_13"
  type: "LSTMUnit"
  bottom: "c_12"
  bottom: "gate_input_13"
  bottom: "cont_13"
  top: "c_13"
  top: "h_13"
}
layer {
  name: "lstm1_h_conted_13"
  type: "Scale"
  bottom: "h_13"
  bottom: "cont_14"
  top: "h_conted_13"
  scale_param {
    axis: 0
  }
}
layer {
  name: "lstm1_transform_14"
  type: "InnerProduct"
  bottom: "h_conted_13"
  top: "W_hc_h_13"
  param {
    name: "W_hc"
  }
  inner_product_param {
    num_output: 64
    bias_term: false
    weight_filler {
      type: "xavier"
    }
    axis: 2
  }
}
layer {
  name: "lstm1_gate_input_14"
  type: "Eltwise"
  bottom: "W_hc_h_13"
  bottom: "W_xc_x_14"
  top: "gate_input_14"
  eltwise_param {
    operation: SUM
  }
}
layer {
  name: "lstm1_unit_14"
  type: "LSTMUnit"
  bottom: "c_13"
  bottom: "gate_input_14"
  bottom: "cont_14"
  top: "c_14"
  top: "h_14"
}
layer {
  name: "lstm1_h_conted_14"
  type: "Scale"
  bottom: "h_14"
  bottom: "cont_15"
  top: "h_conted_14"
  scale_param {
    axis: 0
  }
}
layer {
  name: "lstm1_transform_15"
  type: "InnerProduct"
  bottom: "h_conted_14"
  top: "W_hc_h_14"
  param {
    name: "W_hc"
  }
  inner_product_param {
    num_output: 64
    bias_term: false
    weight_filler {
      type: "xavier"
    }
    axis: 2
  }
}
layer {
  name: "lstm1_gate_input_15"
  type: "Eltwise"
  bottom: "W_hc_h_14"
  bottom: "W_xc_x_15"
  top: "gate_input_15"
  eltwise_param {
    operation: SUM
  }
}
layer {
  name: "lstm1_unit_15"
  type: "LSTMUnit"
  bottom: "c_14"
  bottom: "gate_input_15"
  bottom: "cont_15"
  top: "c_15"
  top: "h_15"
}
layer {
  name: "lstm1_h_conted_15"
  type: "Scale"
  bottom: "h_15"
  bottom: "cont_16"
  top: "h_conted_15"
  scale_param {
    axis: 0
  }
}
layer {
  name: "lstm1_transform_16"
  type: "InnerProduct"
  bottom: "h_conted_15"
  top: "W_hc_h_15"
  param {
    name: "W_hc"
  }
  inner_product_param {
    num_output: 64
    bias_term: false
    weight_filler {
      type: "xavier"
    }
    axis: 2
  }
}
layer {
  name: "lstm1_gate_input_16"
  type: "Eltwise"
  bottom: "W_hc_h_15"
  bottom: "W_xc_x_16"
  top: "gate_input_16"
  eltwise_param {
    operation: SUM
  }
}
layer {
  name: "lstm1_unit_16"
  type: "LSTMUnit"
  bottom: "c_15"
  bottom: "gate_input_16"
  bottom: "cont_16"
  top: "c_16"
  top: "h_16"
}
layer {
  name: "lstm1_"
  type: "Split"
  bottom: "c_16"
  top: "c_T"
}
layer {
  name: "lstm1_h_concat"
  type: "Concat"
  bottom: "h_1"
  bottom: "h_2"
  bottom: "h_3"
  bottom: "h_4"
  bottom: "h_5"
  bottom: "h_6"
  bottom: "h_7"
  bottom: "h_8"
  bottom: "h_9"
  bottom: "h_10"
  bottom: "h_11"
  bottom: "h_12"
  bottom: "h_13"
  bottom: "h_14"
  bottom: "h_15"
  bottom: "h_16"
  top: "h"
  concat_param {
    axis: 0
  }
}
layer {
  name: "h_pseudoloss"
  type: "Reduction"
  bottom: "h"
  top: "h_pseudoloss"
  loss_weight: 1
}
I0228 21:33:08.613378 13998 layer_factory.hpp:77] Creating layer lstm1_
I0228 21:33:08.613392 13998 net.cpp:84] Creating Layer lstm1_
I0228 21:33:08.613399 13998 net.cpp:380] lstm1_ -> x
I0228 21:33:08.613409 13998 net.cpp:380] lstm1_ -> cont
I0228 21:33:08.613437 13998 net.cpp:122] Setting up lstm1_
I0228 21:33:08.613445 13998 net.cpp:129] Top shape: 16 13 1 (208)
I0228 21:33:08.613450 13998 net.cpp:129] Top shape: 16 13 (208)
I0228 21:33:08.613452 13998 net.cpp:137] Memory required for data: 1664
I0228 21:33:08.613456 13998 layer_factory.hpp:77] Creating layer lstm1_
I0228 21:33:08.613461 13998 net.cpp:84] Creating Layer lstm1_
I0228 21:33:08.613466 13998 net.cpp:380] lstm1_ -> c_0
I0228 21:33:08.613471 13998 net.cpp:380] lstm1_ -> h_0
I0228 21:33:08.613503 13998 net.cpp:122] Setting up lstm1_
I0228 21:33:08.613508 13998 net.cpp:129] Top shape: 1 13 16 (208)
I0228 21:33:08.613528 13998 net.cpp:129] Top shape: 1 13 16 (208)
I0228 21:33:08.613530 13998 net.cpp:137] Memory required for data: 3328
I0228 21:33:08.613533 13998 layer_factory.hpp:77] Creating layer lstm1_cont_slice
I0228 21:33:08.613543 13998 net.cpp:84] Creating Layer lstm1_cont_slice
I0228 21:33:08.613546 13998 net.cpp:406] lstm1_cont_slice <- cont
I0228 21:33:08.613553 13998 net.cpp:380] lstm1_cont_slice -> cont_1
I0228 21:33:08.613559 13998 net.cpp:380] lstm1_cont_slice -> cont_2
…
I0228 21:33:08.613597 13998 net.cpp:380] lstm1_cont_slice -> cont_9
I0228 21:33:08.613602 13998 net.cpp:380] lstm1_cont_slice -> cont_10
I0228 21:33:08.613607 13998 net.cpp:380] lstm1_cont_slice -> cont_11
I0228 21:33:08.613612 13998 net.cpp:380] lstm1_cont_slice -> cont_12
I0228 21:33:08.613618 13998 net.cpp:380] lstm1_cont_slice -> cont_13
I0228 21:33:08.613625 13998 net.cpp:380] lstm1_cont_slice -> cont_14
I0228 21:33:08.613629 13998 net.cpp:380] lstm1_cont_slice -> cont_15
I0228 21:33:08.613634 13998 net.cpp:380] lstm1_cont_slice -> cont_16
I0228 21:33:08.613737 13998 net.cpp:122] Setting up lstm1_cont_slice
I0228 21:33:08.613744 13998 net.cpp:129] Top shape: 1 13 (13)
I0228 21:33:08.613749 13998 net.cpp:129] Top shape: 1 13 (13)
I0228 21:33:08.613752 13998 net.cpp:129] Top shape: 1 13 (13)
I0228 21:33:08.613756 13998 net.cpp:129] Top shape: 1 13 (13)
I0228 21:33:08.613760 13998 net.cpp:129] Top shape: 1 13 (13)
I0228 21:33:08.613764 13998 net.cpp:129] Top shape: 1 13 (13)
I0228 21:33:08.613767 13998 net.cpp:129] Top shape: 1 13 (13)
I0228 21:33:08.613771 13998 net.cpp:129] Top shape: 1 13 (13)
I0228 21:33:08.613775 13998 net.cpp:129] Top shape: 1 13 (13)
I0228 21:33:08.613778 13998 net.cpp:129] Top shape: 1 13 (13)
I0228 21:33:08.613782 13998 net.cpp:129] Top shape: 1 13 (13)
I0228 21:33:08.613785 13998 net.cpp:129] Top shape: 1 13 (13)
I0228 21:33:08.613790 13998 net.cpp:129] Top shape: 1 13 (13)
I0228 21:33:08.613793 13998 net.cpp:129] Top shape: 1 13 (13)
I0228 21:33:08.613797 13998 net.cpp:129] Top shape: 1 13 (13)
I0228 21:33:08.613801 13998 net.cpp:129] Top shape: 1 13 (13)
I0228 21:33:08.613803 13998 net.cpp:137] Memory required for data: 4160
I0228 21:33:08.613806 13998 layer_factory.hpp:77] Creating layer cont_1_lstm1_cont_slice_0_split
I0228 21:33:08.613812 13998 net.cpp:84] Creating Layer cont_1_lstm1_cont_slice_0_split
I0228 21:33:08.613816 13998 net.cpp:406] cont_1_lstm1_cont_slice_0_split <- cont_1
I0228 21:33:08.613821 13998 net.cpp:380] cont_1_lstm1_cont_slice_0_split -> cont_1_lstm1_cont_slice_0_split_0
I0228 21:33:08.613826 13998 net.cpp:380] cont_1_lstm1_cont_slice_0_split -> cont_1_lstm1_cont_slice_0_split_1
I0228 21:33:08.613843 13998 net.cpp:122] Setting up cont_1_lstm1_cont_slice_0_split
I0228 21:33:08.621219 13998 net.cpp:129] Top shape: 1 13 (13)
I0228 21:33:08.621233 13998 net.cpp:129] Top shape: 1 13 (13)
I0228 21:33:08.621237 13998 net.cpp:137] Memory required for data: 4264
I0228 21:33:08.621242 13998 layer_factory.hpp:77] Creating layer cont_2_lstm1_cont_slice_1_split
I0228 21:33:08.621253 13998 net.cpp:84] Creating Layer cont_2_lstm1_cont_slice_1_split
I0228 21:33:08.621258 13998 net.cpp:406] cont_2_lstm1_cont_slice_1_split <- cont_2
I0228 21:33:08.621266 13998 net.cpp:380] cont_2_lstm1_cont_slice_1_split -> cont_2_lstm1_cont_slice_1_split_0
I0228 21:33:08.621273 13998 net.cpp:380] cont_2_lstm1_cont_slice_1_split -> cont_2_lstm1_cont_slice_1_split_1
I0228 21:33:08.621314 13998 net.cpp:122] Setting up cont_2_lstm1_cont_slice_1_split
I0228 21:33:08.621318 13998 net.cpp:129] Top shape: 1 13 (13)
I0228 21:33:08.621322 13998 net.cpp:129] Top shape: 1 13 (13)
I0228 21:33:08.621325 13998 net.cpp:137] Memory required for data: 4368
I0228 21:33:08.621328 13998 layer_factory.hpp:77] Creating layer cont_3_lstm1_cont_slice_2_split
I0228 21:33:08.621332 13998 net.cpp:84] Creating Layer cont_3_lstm1_cont_slice_2_split
I0228 21:33:08.621335 13998 net.cpp:406] cont_3_lstm1_cont_slice_2_split <- cont_3
I0228 21:33:08.621340 13998 net.cpp:380] cont_3_lstm1_cont_slice_2_split -> cont_3_lstm1_cont_slice_2_split_0
I0228 21:33:08.621345 13998 net.cpp:380] cont_3_lstm1_cont_slice_2_split -> cont_3_lstm1_cont_slice_2_split_1
I0228 21:33:08.621392 13998 net.cpp:122] Setting up cont_3_lstm1_cont_slice_2_split
I0228 21:33:08.621397 13998 net.cpp:129] Top shape: 1 13 (13)
I0228 21:33:08.621400 13998 net.cpp:129] Top shape: 1 13 (13)
I0228 21:33:08.621403 13998 net.cpp:137] Memory required for data: 4472
I0228 21:33:08.621407 13998 layer_factory.hpp:77] Creating layer cont_4_lstm1_cont_slice_3_split
I0228 21:33:08.621410 13998 net.cpp:84] Creating Layer cont_4_lstm1_cont_slice_3_split
I0228 21:33:08.621414 13998 net.cpp:406] cont_4_lstm1_cont_slice_3_split <- cont_4
I0228 21:33:08.621418 13998 net.cpp:380] cont_4_lstm1_cont_slice_3_split -> cont_4_lstm1_cont_slice_3_split_0
I0228 21:33:08.621423 13998 net.cpp:380] cont_4_lstm1_cont_slice_3_split -> cont_4_lstm1_cont_slice_3_split_1
I0228 21:33:08.621443 13998 net.cpp:122] Setting up cont_4_lstm1_cont_slice_3_split
I0228 21:33:08.621449 13998 net.cpp:129] Top shape: 1 13 (13)
I0228 21:33:08.621455 13998 net.cpp:129] Top shape: 1 13 (13)
I0228 21:33:08.621469 13998 net.cpp:137] Memory required for data: 4576
I0228 21:33:08.621472 13998 layer_factory.hpp:77] Creating layer cont_5_lstm1_cont_slice_4_split
I0228 21:33:08.621476 13998 net.cpp:84] Creating Layer cont_5_lstm1_cont_slice_4_split
I0228 21:33:08.621480 13998 net.cpp:406] cont_5_lstm1_cont_slice_4_split <- cont_5
I0228 21:33:08.621485 13998 net.cpp:380] cont_5_lstm1_cont_slice_4_split -> cont_5_lstm1_cont_slice_4_split_0
I0228 21:33:08.621490 13998 net.cpp:380] cont_5_lstm1_cont_slice_4_split -> cont_5_lstm1_cont_slice_4_split_1
I0228 21:33:08.621510 13998 net.cpp:122] Setting up cont_5_lstm1_cont_slice_4_split
I0228 21:33:08.621515 13998 net.cpp:129] Top shape: 1 13 (13)
I0228 21:33:08.621518 13998 net.cpp:129] Top shape: 1 13 (13)
I0228 21:33:08.621521 13998 net.cpp:137] Memory required for data: 4680
I0228 21:33:08.621525 13998 layer_factory.hpp:77] Creating layer cont_6_lstm1_cont_slice_5_split
I0228 21:33:08.621531 13998 net.cpp:84] Creating Layer cont_6_lstm1_cont_slice_5_split
I0228 21:33:08.621533 13998 net.cpp:406] cont_6_lstm1_cont_slice_5_split <- cont_6
I0228 21:33:08.621538 13998 net.cpp:380] cont_6_lstm1_cont_slice_5_split -> cont_6_lstm1_cont_slice_5_split_0
I0228 21:33:08.623116 13998 net.cpp:380] cont_6_lstm1_cont_slice_5_split -> cont_6_lstm1_cont_slice_5_split_1
I0228 21:33:08.623162 13998 net.cpp:122] Setting up cont_6_lstm1_cont_slice_5_split
I0228 21:33:08.623169 13998 net.cpp:129] Top shape: 1 13 (13)
I0228 21:33:08.623173 13998 net.cpp:129] Top shape: 1 13 (13)
I0228 21:33:08.623178 13998 net.cpp:137] Memory required for data: 4784
I0228 21:33:08.623180 13998 layer_factory.hpp:77] Creating layer cont_7_lstm1_cont_slice_6_split
I0228 21:33:08.623185 13998 net.cpp:84] Creating Layer cont_7_lstm1_cont_slice_6_split
I0228 21:33:08.623188 13998 net.cpp:406] cont_7_lstm1_cont_slice_6_split <- cont_7
I0228 21:33:08.623194 13998 net.cpp:380] cont_7_lstm1_cont_slice_6_split -> cont_7_lstm1_cont_slice_6_split_0
I0228 21:33:08.623217 13998 net.cpp:380] cont_7_lstm1_cont_slice_6_split -> cont_7_lstm1_cont_slice_6_split_1
I0228 21:33:08.623239 13998 net.cpp:122] Setting up cont_7_lstm1_cont_slice_6_split
I0228 21:33:08.623245 13998 net.cpp:129] Top shape: 1 13 (13)
I0228 21:33:08.623250 13998 net.cpp:129] Top shape: 1 13 (13)
I0228 21:33:08.623252 13998 net.cpp:137] Memory required for data: 4888
I0228 21:33:08.623255 13998 layer_factory.hpp:77] Creating layer cont_8_lstm1_cont_slice_7_split
I0228 21:33:08.623260 13998 net.cpp:84] Creating Layer cont_8_lstm1_cont_slice_7_split
I0228 21:33:08.623262 13998 net.cpp:406] cont_8_lstm1_cont_slice_7_split <- cont_8
I0228 21:33:08.623267 13998 net.cpp:380] cont_8_lstm1_cont_slice_7_split -> cont_8_lstm1_cont_slice_7_split_0
I0228 21:33:08.623271 13998 net.cpp:380] cont_8_lstm1_cont_slice_7_split -> cont_8_lstm1_cont_slice_7_split_1
I0228 21:33:08.623289 13998 net.cpp:122] Setting up cont_8_lstm1_cont_slice_7_split
I0228 21:33:08.623294 13998 net.cpp:129] Top shape: 1 13 (13)
I0228 21:33:08.623298 13998 net.cpp:129] Top shape: 1 13 (13)
I0228 21:33:08.623301 13998 net.cpp:137] Memory required for data: 4992
I0228 21:33:08.623304 13998 layer_factory.hpp:77] Creating layer cont_9_lstm1_cont_slice_8_split
I0228 21:33:08.623308 13998 net.cpp:84] Creating Layer cont_9_lstm1_cont_slice_8_split
I0228 21:33:08.623311 13998 net.cpp:406] cont_9_lstm1_cont_slice_8_split <- cont_9
I0228 21:33:08.623317 13998 net.cpp:380] cont_9_lstm1_cont_slice_8_split -> cont_9_lstm1_cont_slice_8_split_0
I0228 21:33:08.623322 13998 net.cpp:380] cont_9_lstm1_cont_slice_8_split -> cont_9_lstm1_cont_slice_8_split_1
I0228 21:33:08.623338 13998 net.cpp:122] Setting up cont_9_lstm1_cont_slice_8_split
I0228 21:33:08.623342 13998 net.cpp:129] Top shape: 1 13 (13)
I0228 21:33:08.623347 13998 net.cpp:129] Top shape: 1 13 (13)
I0228 21:33:08.623349 13998 net.cpp:137] Memory required for data: 5096
I0228 21:33:08.623353 13998 layer_factory.hpp:77] Creating layer cont_10_lstm1_cont_slice_9_split
I0228 21:33:08.623358 13998 net.cpp:84] Creating Layer cont_10_lstm1_cont_slice_9_split
I0228 21:33:08.623368 13998 net.cpp:406] cont_10_lstm1_cont_slice_9_split <- cont_10
I0228 21:33:08.623373 13998 net.cpp:380] cont_10_lstm1_cont_slice_9_split -> cont_10_lstm1_cont_slice_9_split_0
I0228 21:33:08.623378 13998 net.cpp:380] cont_10_lstm1_cont_slice_9_split -> cont_10_lstm1_cont_slice_9_split_1
I0228 21:33:08.623397 13998 net.cpp:122] Setting up cont_10_lstm1_cont_slice_9_split
I0228 21:33:08.623402 13998 net.cpp:129] Top shape: 1 13 (13)
I0228 21:33:08.623406 13998 net.cpp:129] Top shape: 1 13 (13)
I0228 21:33:08.623409 13998 net.cpp:137] Memory required for data: 5200
I0228 21:33:08.623425 13998 layer_factory.hpp:77] Creating layer cont_11_lstm1_cont_slice_10_split
I0228 21:33:08.623430 13998 net.cpp:84] Creating Layer cont_11_lstm1_cont_slice_10_split
I0228 21:33:08.623432 13998 net.cpp:406] cont_11_lstm1_cont_slice_10_split <- cont_11
I0228 21:33:08.623436 13998 net.cpp:380] cont_11_lstm1_cont_slice_10_split -> cont_11_lstm1_cont_slice_10_split_0
I0228 21:33:08.623441 13998 net.cpp:380] cont_11_lstm1_cont_slice_10_split -> cont_11_lstm1_cont_slice_10_split_1
I0228 21:33:08.623459 13998 net.cpp:122] Setting up cont_11_lstm1_cont_slice_10_split
I0228 21:33:08.623463 13998 net.cpp:129] Top shape: 1 13 (13)
I0228 21:33:08.623467 13998 net.cpp:129] Top shape: 1 13 (13)
I0228 21:33:08.623471 13998 net.cpp:137] Memory required for data: 5304
I0228 21:33:08.623473 13998 layer_factory.hpp:77] Creating layer cont_12_lstm1_cont_slice_11_split
I0228 21:33:08.623477 13998 net.cpp:84] Creating Layer cont_12_lstm1_cont_slice_11_split
I0228 21:33:08.623481 13998 net.cpp:406] cont_12_lstm1_cont_slice_11_split <- cont_12
I0228 21:33:08.623484 13998 net.cpp:380] cont_12_lstm1_cont_slice_11_split -> cont_12_lstm1_cont_slice_11_split_0
I0228 21:33:08.623488 13998 net.cpp:380] cont_12_lstm1_cont_slice_11_split -> cont_12_lstm1_cont_slice_11_split_1
I0228 21:33:08.623505 13998 net.cpp:122] Setting up cont_12_lstm1_cont_slice_11_split
I0228 21:33:08.623509 13998 net.cpp:129] Top shape: 1 13 (13)
I0228 21:33:08.623513 13998 net.cpp:129] Top shape: 1 13 (13)
I0228 21:33:08.623517 13998 net.cpp:137] Memory required for data: 5408
I0228 21:33:08.623519 13998 layer_factory.hpp:77] Creating layer cont_13_lstm1_cont_slice_12_split
I0228 21:33:08.623524 13998 net.cpp:84] Creating Layer cont_13_lstm1_cont_slice_12_split
I0228 21:33:08.623528 13998 net.cpp:406] cont_13_lstm1_cont_slice_12_split <- cont_13
I0228 21:33:08.623531 13998 net.cpp:380] cont_13_lstm1_cont_slice_12_split -> cont_13_lstm1_cont_slice_12_split_0
I0228 21:33:08.623535 13998 net.cpp:380] cont_13_lstm1_cont_slice_12_split -> cont_13_lstm1_cont_slice_12_split_1
I0228 21:33:08.623553 13998 net.cpp:122] Setting up cont_13_lstm1_cont_slice_12_split
I0228 21:33:08.623558 13998 net.cpp:129] Top shape: 1 13 (13)
I0228 21:33:08.623560 13998 net.cpp:129] Top shape: 1 13 (13)
I0228 21:33:08.623564 13998 net.cpp:137] Memory required for data: 5512
I0228 21:33:08.623566 13998 layer_factory.hpp:77] Creating layer cont_14_lstm1_cont_slice_13_split
I0228 21:33:08.623572 13998 net.cpp:84] Creating Layer cont_14_lstm1_cont_slice_13_split
I0228 21:33:08.623575 13998 net.cpp:406] cont_14_lstm1_cont_slice_13_split <- cont_14
I0228 21:33:08.623579 13998 net.cpp:380] cont_14_lstm1_cont_slice_13_split -> cont_14_lstm1_cont_slice_13_split_0
I0228 21:33:08.623600 13998 net.cpp:380] cont_14_lstm1_cont_slice_13_split -> cont_14_lstm1_cont_slice_13_split_1
I0228 21:33:08.623617 13998 net.cpp:122] Setting up cont_14_lstm1_cont_slice_13_split
I0228 21:33:08.623622 13998 net.cpp:129] Top shape: 1 13 (13)
I0228 21:33:08.623626 13998 net.cpp:129] Top shape: 1 13 (13)
I0228 21:33:08.623642 13998 net.cpp:137] Memory required for data: 5616
I0228 21:33:08.623646 13998 layer_factory.hpp:77] Creating layer cont_15_lstm1_cont_slice_14_split
I0228 21:33:08.623649 13998 net.cpp:84] Creating Layer cont_15_lstm1_cont_slice_14_split
I0228 21:33:08.623652 13998 net.cpp:406] cont_15_lstm1_cont_slice_14_split <- cont_15
I0228 21:33:08.623656 13998 net.cpp:380] cont_15_lstm1_cont_slice_14_split -> cont_15_lstm1_cont_slice_14_split_0
I0228 21:33:08.623667 13998 net.cpp:380] cont_15_lstm1_cont_slice_14_split -> cont_15_lstm1_cont_slice_14_split_1
I0228 21:33:08.623683 13998 net.cpp:122] Setting up cont_15_lstm1_cont_slice_14_split
I0228 21:33:08.623688 13998 net.cpp:129] Top shape: 1 13 (13)
I0228 21:33:08.623692 13998 net.cpp:129] Top shape: 1 13 (13)
I0228 21:33:08.623695 13998 net.cpp:137] Memory required for data: 5720
I0228 21:33:08.623698 13998 layer_factory.hpp:77] Creating layer cont_16_lstm1_cont_slice_15_split
I0228 21:33:08.623703 13998 net.cpp:84] Creating Layer cont_16_lstm1_cont_slice_15_split
I0228 21:33:08.623706 13998 net.cpp:406] cont_16_lstm1_cont_slice_15_split <- cont_16
I0228 21:33:08.623710 13998 net.cpp:380] cont_16_lstm1_cont_slice_15_split -> cont_16_lstm1_cont_slice_15_split_0
I0228 21:33:08.623714 13998 net.cpp:380] cont_16_lstm1_cont_slice_15_split -> cont_16_lstm1_cont_slice_15_split_1
I0228 21:33:08.653352 13998 net.cpp:122] Setting up cont_16_lstm1_cont_slice_15_split
I0228 21:33:08.653386 13998 net.cpp:129] Top shape: 1 13 (13)
I0228 21:33:08.653393 13998 net.cpp:129] Top shape: 1 13 (13)
I0228 21:33:08.653398 13998 net.cpp:137] Memory required for data: 5824
I0228 21:33:08.653403 13998 layer_factory.hpp:77] Creating layer lstm1_x_transform
I0228 21:33:08.653419 13998 net.cpp:84] Creating Layer lstm1_x_transform
I0228 21:33:08.653425 13998 net.cpp:406] lstm1_x_transform <- x
I0228 21:33:08.653434 13998 net.cpp:380] lstm1_x_transform -> W_xc_x
I0228 21:33:08.653964 13998 net.cpp:122] Setting up lstm1_x_transform
I0228 21:33:08.653976 13998 net.cpp:129] Top shape: 16 13 64 (13312)
I0228 21:33:08.653981 13998 net.cpp:137] Memory required for data: 59072
I0228 21:33:08.654003 13998 layer_factory.hpp:77] Creating layer lstm1_W_xc_x_slice
I0228 21:33:08.654013 13998 net.cpp:84] Creating Layer lstm1_W_xc_x_slice
I0228 21:33:08.654018 13998 net.cpp:406] lstm1_W_xc_x_slice <- W_xc_x
I0228 21:33:08.654026 13998 net.cpp:380] lstm1_W_xc_x_slice -> W_xc_x_1
I0228 21:33:08.654036 13998 net.cpp:380] lstm1_W_xc_x_slice -> W_xc_x_2
…
I0228 21:33:08.654098 13998 net.cpp:380] lstm1_W_xc_x_slice -> W_xc_x_10
I0228 21:33:08.654106 13998 net.cpp:380] lstm1_W_xc_x_slice -> W_xc_x_11
I0228 21:33:08.654114 13998 net.cpp:380] lstm1_W_xc_x_slice -> W_xc_x_12
I0228 21:33:08.654129 13998 net.cpp:380] lstm1_W_xc_x_slice -> W_xc_x_13
I0228 21:33:08.654137 13998 net.cpp:380] lstm1_W_xc_x_slice -> W_xc_x_14
I0228 21:33:08.654145 13998 net.cpp:380] lstm1_W_xc_x_slice -> W_xc_x_15
I0228 21:33:08.654151 13998 net.cpp:380] lstm1_W_xc_x_slice -> W_xc_x_16
I0228 21:33:08.654285 13998 net.cpp:122] Setting up lstm1_W_xc_x_slice
I0228 21:33:08.654294 13998 net.cpp:129] Top shape: 1 13 64 (832)
I0228 21:33:08.654300 13998 net.cpp:129] Top shape: 1 13 64 (832)
I0228 21:33:08.654306 13998 net.cpp:129] Top shape: 1 13 64 (832)
I0228 21:33:08.654311 13998 net.cpp:129] Top shape: 1 13 64 (832)
I0228 21:33:08.654317 13998 net.cpp:129] Top shape: 1 13 64 (832)
I0228 21:33:08.654323 13998 net.cpp:129] Top shape: 1 13 64 (832)
I0228 21:33:08.654328 13998 net.cpp:129] Top shape: 1 13 64 (832)
I0228 21:33:08.654335 13998 net.cpp:129] Top shape: 1 13 64 (832)
I0228 21:33:08.654340 13998 net.cpp:129] Top shape: 1 13 64 (832)
I0228 21:33:08.654345 13998 net.cpp:129] Top shape: 1 13 64 (832)
I0228 21:33:08.654351 13998 net.cpp:129] Top shape: 1 13 64 (832)
I0228 21:33:08.654358 13998 net.cpp:129] Top shape: 1 13 64 (832)
I0228 21:33:08.654363 13998 net.cpp:129] Top shape: 1 13 64 (832)
I0228 21:33:08.654369 13998 net.cpp:129] Top shape: 1 13 64 (832)
I0228 21:33:08.654383 13998 net.cpp:129] Top shape: 1 13 64 (832)
I0228 21:33:08.654389 13998 net.cpp:129] Top shape: 1 13 64 (832)
I0228 21:33:08.654394 13998 net.cpp:137] Memory required for data: 112320
I0228 21:33:08.654399 13998 layer_factory.hpp:77] Creating layer lstm1_h_conted_0
I0228 21:33:08.654405 13998 net.cpp:84] Creating Layer lstm1_h_conted_0
I0228 21:33:08.654410 13998 net.cpp:406] lstm1_h_conted_0 <- h_0
I0228 21:33:08.654418 13998 net.cpp:406] lstm1_h_conted_0 <- cont_1_lstm1_cont_slice_0_split_0
I0228 21:33:08.654424 13998 net.cpp:380] lstm1_h_conted_0 -> h_conted_0
I0228 21:33:08.654474 13998 net.cpp:122] Setting up lstm1_h_conted_0
I0228 21:33:08.654481 13998 net.cpp:129] Top shape: 1 13 16 (208)
I0228 21:33:08.654486 13998 net.cpp:137] Memory required for data: 113152
I0228 21:33:08.654490 13998 layer_factory.hpp:77] Creating layer lstm1_transform_1
I0228 21:33:08.654498 13998 net.cpp:84] Creating Layer lstm1_transform_1
I0228 21:33:08.654505 13998 net.cpp:406] lstm1_transform_1 <- h_conted_0
I0228 21:33:08.654511 13998 net.cpp:380] lstm1_transform_1 -> W_hc_h_0
I0228 21:33:08.655436 13998 net.cpp:122] Setting up lstm1_transform_1
I0228 21:33:08.655450 13998 net.cpp:129] Top shape: 1 13 64 (832)
I0228 21:33:08.655455 13998 net.cpp:137] Memory required for data: 116480
I0228 21:33:08.655467 13998 layer_factory.hpp:77] Creating layer lstm1_gate_input_1
I0228 21:33:08.655498 13998 net.cpp:84] Creating Layer lstm1_gate_input_1
I0228 21:33:08.655503 13998 net.cpp:406] lstm1_gate_input_1 <- W_hc_h_0
I0228 21:33:08.655509 13998 net.cpp:406] lstm1_gate_input_1 <- W_xc_x_1
I0228 21:33:08.655515 13998 net.cpp:380] lstm1_gate_input_1 -> gate_input_1
I0228 21:33:08.655545 13998 net.cpp:122] Setting up lstm1_gate_input_1
I0228 21:33:08.655555 13998 net.cpp:129] Top shape: 1 13 64 (832)
I0228 21:33:08.655558 13998 net.cpp:137] Memory required for data: 119808
I0228 21:33:08.655563 13998 layer_factory.hpp:77] Creating layer lstm1_unit_1
I0228 21:33:08.655570 13998 net.cpp:84] Creating Layer lstm1_unit_1
I0228 21:33:08.655589 13998 net.cpp:406] lstm1_unit_1 <- c_0
I0228 21:33:08.655596 13998 net.cpp:406] lstm1_unit_1 <- gate_input_1
I0228 21:33:08.655602 13998 net.cpp:406] lstm1_unit_1 <- cont_1_lstm1_cont_slice_0_split_1
I0228 21:33:08.655611 13998 net.cpp:380] lstm1_unit_1 -> c_1
I0228 21:33:08.655618 13998 net.cpp:380] lstm1_unit_1 -> h_1
I0228 21:33:08.655671 13998 net.cpp:122] Setting up lstm1_unit_1
I0228 21:33:08.655695 13998 net.cpp:129] Top shape: 1 13 16 (208)
I0228 21:33:08.655701 13998 net.cpp:129] Top shape: 1 13 16 (208)
I0228 21:33:08.655722 13998 net.cpp:137] Memory required for data: 121472
I0228 21:33:08.655726 13998 layer_factory.hpp:77] Creating layer h_1_lstm1_unit_1_1_split
I0228 21:33:08.655736 13998 net.cpp:84] Creating Layer h_1_lstm1_unit_1_1_split
I0228 21:33:08.655741 13998 net.cpp:406] h_1_lstm1_unit_1_1_split <- h_1
I0228 21:33:08.655762 13998 net.cpp:380] h_1_lstm1_unit_1_1_split -> h_1_lstm1_unit_1_1_split_0
I0228 21:33:08.655787 13998 net.cpp:380] h_1_lstm1_unit_1_1_split -> h_1_lstm1_unit_1_1_split_1
I0228 21:33:08.655819 13998 net.cpp:122] Setting up h_1_lstm1_unit_1_1_split
I0228 21:33:08.655829 13998 net.cpp:129] Top shape: 1 13 16 (208)
I0228 21:33:08.655836 13998 net.cpp:129] Top shape: 1 13 16 (208)
I0228 21:33:08.655841 13998 net.cpp:137] Memory required for data: 123136
I0228 21:33:08.655846 13998 layer_factory.hpp:77] Creating layer lstm1_h_conted_1
I0228 21:33:08.655853 13998 net.cpp:84] Creating Layer lstm1_h_conted_1
I0228 21:33:08.655858 13998 net.cpp:406] lstm1_h_conted_1 <- h_1_lstm1_unit_1_1_split_0
I0228 21:33:08.655871 13998 net.cpp:406] lstm1_h_conted_1 <- cont_2_lstm1_cont_slice_1_split_0
I0228 21:33:08.655882 13998 net.cpp:380] lstm1_h_conted_1 -> h_conted_1
I0228 21:33:08.655936 13998 net.cpp:122] Setting up lstm1_h_conted_1
I0228 21:33:08.655951 13998 net.cpp:129] Top shape: 1 13 16 (208)
I0228 21:33:08.655958 13998 net.cpp:137] Memory required for data: 123968
I0228 21:33:08.655966 13998 layer_factory.hpp:77] Creating layer lstm1_transform_2
I0228 21:33:08.655988 13998 net.cpp:84] Creating Layer lstm1_transform_2
I0228 21:33:08.655997 13998 net.cpp:406] lstm1_transform_2 <- h_conted_1
I0228 21:33:08.656006 13998 net.cpp:380] lstm1_transform_2 -> W_hc_h_1
I0228 21:33:08.656067 13998 net.cpp:122] Setting up lstm1_transform_2
I0228 21:33:08.656076 13998 net.cpp:129] Top shape: 1 13 64 (832)
I0228 21:33:08.656080 13998 net.cpp:137] Memory required for data: 127296
I0228 21:33:08.656085 13998 net.cpp:465] Sharing parameters 'W_hc' owned by layer 'lstm1_transform_1', param index 0
I0228 21:33:08.656090 13998 layer_factory.hpp:77] Creating layer lstm1_gate_input_2
I0228 21:33:08.656098 13998 net.cpp:84] Creating Layer lstm1_gate_input_2
I0228 21:33:08.657346 13998 net.cpp:406] lstm1_gate_input_2 <- W_hc_h_1
I0228 21:33:08.657371 13998 net.cpp:406] lstm1_gate_input_2 <- W_xc_x_2
I0228 21:33:08.657379 13998 net.cpp:380] lstm1_gate_input_2 -> gate_input_2
I0228 21:33:08.657404 13998 net.cpp:122] Setting up lstm1_gate_input_2
I0228 21:33:08.657413 13998 net.cpp:129] Top shape: 1 13 64 (832)
I0228 21:33:08.657415 13998 net.cpp:137] Memory required for data: 130624
I0228 21:33:08.657420 13998 layer_factory.hpp:77] Creating layer lstm1_unit_2
I0228 21:33:08.657428 13998 net.cpp:84] Creating Layer lstm1_unit_2
I0228 21:33:08.657433 13998 net.cpp:406] lstm1_unit_2 <- c_1
I0228 21:33:08.657438 13998 net.cpp:406] lstm1_unit_2 <- gate_input_2
I0228 21:33:08.657443 13998 net.cpp:406] lstm1_unit_2 <- cont_2_lstm1_cont_slice_1_split_1
I0228 21:33:08.657449 13998 net.cpp:380] lstm1_unit_2 -> c_2
I0228 21:33:08.657454 13998 net.cpp:380] lstm1_unit_2 -> h_2
I0228 21:33:08.657483 13998 net.cpp:122] Setting up lstm1_unit_2
I0228 21:33:08.657490 13998 net.cpp:129] Top shape: 1 13 16 (208)
I0228 21:33:08.657495 13998 net.cpp:129] Top shape: 1 13 16 (208)
I0228 21:33:08.657498 13998 net.cpp:137] Memory required for data: 132288
I0228 21:33:08.657502 13998 layer_factory.hpp:77] Creating layer h_2_lstm1_unit_2_1_split
I0228 21:33:08.657507 13998 net.cpp:84] Creating Layer h_2_lstm1_unit_2_1_split
I0228 21:33:08.657510 13998 net.cpp:406] h_2_lstm1_unit_2_1_split <- h_2
I0228 21:33:08.657517 13998 net.cpp:380] h_2_lstm1_unit_2_1_split -> h_2_lstm1_unit_2_1_split_0
I0228 21:33:08.657522 13998 net.cpp:380] h_2_lstm1_unit_2_1_split -> h_2_lstm1_unit_2_1_split_1
I0228 21:33:08.657541 13998 net.cpp:122] Setting up h_2_lstm1_unit_2_1_split
I0228 21:33:08.657547 13998 net.cpp:129] Top shape: 1 13 16 (208)
I0228 21:33:08.657552 13998 net.cpp:129] Top shape: 1 13 16 (208)
I0228 21:33:08.657555 13998 net.cpp:137] Memory required for data: 133952
I0228 21:33:08.657559 13998 layer_factory.hpp:77] Creating layer lstm1_h_conted_2
I0228 21:33:08.657567 13998 net.cpp:84] Creating Layer lstm1_h_conted_2
I0228 21:33:08.657570 13998 net.cpp:406] lstm1_h_conted_2 <- h_2_lstm1_unit_2_1_split_0
I0228 21:33:08.657575 13998 net.cpp:406] lstm1_h_conted_2 <- cont_3_lstm1_cont_slice_2_split_0
I0228 21:33:08.657580 13998 net.cpp:380] lstm1_h_conted_2 -> h_conted_2
I0228 21:33:08.657625 13998 net.cpp:122] Setting up lstm1_h_conted_2
I0228 21:33:08.657634 13998 net.cpp:129] Top shape: 1 13 16 (208)
I0228 21:33:08.657636 13998 net.cpp:137] Memory required for data: 134784
I0228 21:33:08.657640 13998 layer_factory.hpp:77] Creating layer lstm1_transform_3
I0228 21:33:08.657651 13998 net.cpp:84] Creating Layer lstm1_transform_3
I0228 21:33:08.657656 13998 net.cpp:406] lstm1_transform_3 <- h_conted_2
I0228 21:33:08.657661 13998 net.cpp:380] lstm1_transform_3 -> W_hc_h_2
I0228 21:33:08.657701 13998 net.cpp:122] Setting up lstm1_transform_3
I0228 21:33:08.657707 13998 net.cpp:129] Top shape: 1 13 64 (832)
I0228 21:33:08.657711 13998 net.cpp:137] Memory required for data: 138112
I0228 21:33:08.657717 13998 net.cpp:465] Sharing parameters 'W_hc' owned by layer 'lstm1_transform_1', param index 0
I0228 21:33:08.657722 13998 layer_factory.hpp:77] Creating layer lstm1_gate_input_3
I0228 21:33:08.657732 13998 net.cpp:84] Creating Layer lstm1_gate_input_3
I0228 21:33:08.657737 13998 net.cpp:406] lstm1_gate_input_3 <- W_hc_h_2
I0228 21:33:08.657754 13998 net.cpp:406] lstm1_gate_input_3 <- W_xc_x_3
I0228 21:33:08.657761 13998 net.cpp:380] lstm1_gate_input_3 -> gate_input_3
I0228 21:33:08.657781 13998 net.cpp:122] Setting up lstm1_gate_input_3
I0228 21:33:08.657788 13998 net.cpp:129] Top shape: 1 13 64 (832)
I0228 21:33:08.657793 13998 net.cpp:137] Memory required for data: 141440
I0228 21:33:08.657796 13998 layer_factory.hpp:77] Creating layer lstm1_unit_3
I0228 21:33:08.657804 13998 net.cpp:84] Creating Layer lstm1_unit_3
I0228 21:33:08.657807 13998 net.cpp:406] lstm1_unit_3 <- c_2
I0228 21:33:08.657812 13998 net.cpp:406] lstm1_unit_3 <- gate_input_3
I0228 21:33:08.657819 13998 net.cpp:406] lstm1_unit_3 <- cont_3_lstm1_cont_slice_2_split_1
I0228 21:33:08.657826 13998 net.cpp:380] lstm1_unit_3 -> c_3
I0228 21:33:08.657835 13998 net.cpp:380] lstm1_unit_3 -> h_3
I0228 21:33:08.657861 13998 net.cpp:122] Setting up lstm1_unit_3
I0228 21:33:08.657868 13998 net.cpp:129] Top shape: 1 13 16 (208)
I0228 21:33:08.657873 13998 net.cpp:129] Top shape: 1 13 16 (208)
I0228 21:33:08.657877 13998 net.cpp:137] Memory required for data: 143104
I0228 21:33:08.657881 13998 layer_factory.hpp:77] Creating layer h_3_lstm1_unit_3_1_split
I0228 21:33:08.657898 13998 net.cpp:84] Creating Layer h_3_lstm1_unit_3_1_split
I0228 21:33:08.657902 13998 net.cpp:406] h_3_lstm1_unit_3_1_split <- h_3
I0228 21:33:08.657908 13998 net.cpp:380] h_3_lstm1_unit_3_1_split -> h_3_lstm1_unit_3_1_split_0
I0228 21:33:08.657914 13998 net.cpp:380] h_3_lstm1_unit_3_1_split -> h_3_lstm1_unit_3_1_split_1
I0228 21:33:08.657932 13998 net.cpp:122] Setting up h_3_lstm1_unit_3_1_split
I0228 21:33:08.657938 13998 net.cpp:129] Top shape: 1 13 16 (208)
I0228 21:33:08.657941 13998 net.cpp:129] Top shape: 1 13 16 (208)
I0228 21:33:08.657945 13998 net.cpp:137] Memory required for data: 144768
I0228 21:33:08.657949 13998 layer_factory.hpp:77] Creating layer lstm1_h_conted_3
I0228 21:33:08.657954 13998 net.cpp:84] Creating Layer lstm1_h_conted_3
I0228 21:33:08.657959 13998 net.cpp:406] lstm1_h_conted_3 <- h_3_lstm1_unit_3_1_split_0
I0228 21:33:08.657964 13998 net.cpp:406] lstm1_h_conted_3 <- cont_4_lstm1_cont_slice_3_split_0
I0228 21:33:08.657968 13998 net.cpp:380] lstm1_h_conted_3 -> h_conted_3
I0228 21:33:08.658001 13998 net.cpp:122] Setting up lstm1_h_conted_3
I0228 21:33:08.658007 13998 net.cpp:129] Top shape: 1 13 16 (208)
I0228 21:33:08.658011 13998 net.cpp:137] Memory required for data: 145600
I0228 21:33:08.658015 13998 layer_factory.hpp:77] Creating layer lstm1_transform_4
I0228 21:33:08.658020 13998 net.cpp:84] Creating Layer lstm1_transform_4
I0228 21:33:08.658025 13998 net.cpp:406] lstm1_transform_4 <- h_conted_3
I0228 21:33:08.658030 13998 net.cpp:380] lstm1_transform_4 -> W_hc_h_3
I0228 21:33:08.658061 13998 net.cpp:122] Setting up lstm1_transform_4
I0228 21:33:08.658068 13998 net.cpp:129] Top shape: 1 13 64 (832)
I0228 21:33:08.658071 13998 net.cpp:137] Memory required for data: 148928
I0228 21:33:08.658076 13998 net.cpp:465] Sharing parameters 'W_hc' owned by layer 'lstm1_transform_1', param index 0
I0228 21:33:08.658079 13998 layer_factory.hpp:77] Creating layer lstm1_gate_input_4
I0228 21:33:08.658084 13998 net.cpp:84] Creating Layer lstm1_gate_input_4
I0228 21:33:08.658088 13998 net.cpp:406] lstm1_gate_input_4 <- W_hc_h_3
I0228 21:33:08.658093 13998 net.cpp:406] lstm1_gate_input_4 <- W_xc_x_4
I0228 21:33:08.658099 13998 net.cpp:380] lstm1_gate_input_4 -> gate_input_4
I0228 21:33:08.658114 13998 net.cpp:122] Setting up lstm1_gate_input_4
I0228 21:33:08.658120 13998 net.cpp:129] Top shape: 1 13 64 (832)
I0228 21:33:08.658123 13998 net.cpp:137] Memory required for data: 152256
I0228 21:33:08.658128 13998 layer_factory.hpp:77] Creating layer lstm1_unit_4
I0228 21:33:08.658133 13998 net.cpp:84] Creating Layer lstm1_unit_4
I0228 21:33:08.658136 13998 net.cpp:406] lstm1_unit_4 <- c_3
I0228 21:33:08.658140 13998 net.cpp:406] lstm1_unit_4 <- gate_input_4
I0228 21:33:08.658144 13998 net.cpp:406] lstm1_unit_4 <- cont_4_lstm1_cont_slice_3_split_1
I0228 21:33:08.658150 13998 net.cpp:380] lstm1_unit_4 -> c_4
I0228 21:33:08.658161 13998 net.cpp:380] lstm1_unit_4 -> h_4
I0228 21:33:08.658187 13998 net.cpp:122] Setting up lstm1_unit_4
I0228 21:33:08.658193 13998 net.cpp:129] Top shape: 1 13 16 (208)
I0228 21:33:08.658198 13998 net.cpp:129] Top shape: 1 13 16 (208)
I0228 21:33:08.658201 13998 net.cpp:137] Memory required for data: 153920
I0228 21:33:08.658205 13998 layer_factory.hpp:77] Creating layer h_4_lstm1_unit_4_1_split
I0228 21:33:08.658210 13998 net.cpp:84] Creating Layer h_4_lstm1_unit_4_1_split
I0228 21:33:08.658213 13998 net.cpp:406] h_4_lstm1_unit_4_1_split <- h_4
I0228 21:33:08.683514 13998 net.cpp:380] h_4_lstm1_unit_4_1_split -> h_4_lstm1_unit_4_1_split_0
I0228 21:33:08.683539 13998 net.cpp:380] h_4_lstm1_unit_4_1_split -> h_4_lstm1_unit_4_1_split_1
I0228 21:33:08.683603 13998 net.cpp:122] Setting up h_4_lstm1_unit_4_1_split
I0228 21:33:08.683619 13998 net.cpp:129] Top shape: 1 13 16 (208)
I0228 21:33:08.683624 13998 net.cpp:129] Top shape: 1 13 16 (208)
I0228 21:33:08.683629 13998 net.cpp:137] Memory required for data: 155584
I0228 21:33:08.683634 13998 layer_factory.hpp:77] Creating layer lstm1_h_conted_4
I0228 21:33:08.683641 13998 net.cpp:84] Creating Layer lstm1_h_conted_4
I0228 21:33:08.683645 13998 net.cpp:406] lstm1_h_conted_4 <- h_4_lstm1_unit_4_1_split_0
I0228 21:33:08.683650 13998 net.cpp:406] lstm1_h_conted_4 <- cont_5_lstm1_cont_slice_4_split_0
I0228 21:33:08.683657 13998 net.cpp:380] lstm1_h_conted_4 -> h_conted_4
I0228 21:33:08.683699 13998 net.cpp:122] Setting up lstm1_h_conted_4
I0228 21:33:08.683706 13998 net.cpp:129] Top shape: 1 13 16 (208)
I0228 21:33:08.683708 13998 net.cpp:137] Memory required for data: 156416
I0228 21:33:08.683712 13998 layer_factory.hpp:77] Creating layer lstm1_transform_5
I0228 21:33:08.683719 13998 net.cpp:84] Creating Layer lstm1_transform_5
I0228 21:33:08.683723 13998 net.cpp:406] lstm1_transform_5 <- h_conted_4
I0228 21:33:08.683728 13998 net.cpp:380] lstm1_transform_5 -> W_hc_h_4
I0228 21:33:08.683784 13998 net.cpp:122] Setting up lstm1_transform_5
I0228 21:33:08.683790 13998 net.cpp:129] Top shape: 1 13 64 (832)
I0228 21:33:08.683794 13998 net.cpp:137] Memory required for data: 159744
I0228 21:33:08.683797 13998 net.cpp:465] Sharing parameters 'W_hc' owned by layer 'lstm1_transform_1', param index 0
I0228 21:33:08.683801 13998 layer_factory.hpp:77] Creating layer lstm1_gate_input_5
I0228 21:33:08.683806 13998 net.cpp:84] Creating Layer lstm1_gate_input_5
I0228 21:33:08.683810 13998 net.cpp:406] lstm1_gate_input_5 <- W_hc_h_4
I0228 21:33:08.683815 13998 net.cpp:406] lstm1_gate_input_5 <- W_xc_x_5
I0228 21:33:08.683820 13998 net.cpp:380] lstm1_gate_input_5 -> gate_input_5
I0228 21:33:08.683837 13998 net.cpp:122] Setting up lstm1_gate_input_5
I0228 21:33:08.683842 13998 net.cpp:129] Top shape: 1 13 64 (832)
I0228 21:33:08.683845 13998 net.cpp:137] Memory required for data: 163072
I0228 21:33:08.683848 13998 layer_factory.hpp:77] Creating layer lstm1_unit_5
I0228 21:33:08.683853 13998 net.cpp:84] Creating Layer lstm1_unit_5
I0228 21:33:08.683857 13998 net.cpp:406] lstm1_unit_5 <- c_4
I0228 21:33:08.683861 13998 net.cpp:406] lstm1_unit_5 <- gate_input_5
I0228 21:33:08.683866 13998 net.cpp:406] lstm1_unit_5 <- cont_5_lstm1_cont_slice_4_split_1
I0228 21:33:08.683869 13998 net.cpp:380] lstm1_unit_5 -> c_5
I0228 21:33:08.683874 13998 net.cpp:380] lstm1_unit_5 -> h_5
I0228 21:33:08.683902 13998 net.cpp:122] Setting up lstm1_unit_5
I0228 21:33:08.683908 13998 net.cpp:129] Top shape: 1 13 16 (208)
I0228 21:33:08.683912 13998 net.cpp:129] Top shape: 1 13 16 (208)
I0228 21:33:08.683915 13998 net.cpp:137] Memory required for data: 164736
I0228 21:33:08.683918 13998 layer_factory.hpp:77] Creating layer h_5_lstm1_unit_5_1_split
I0228 21:33:08.683923 13998 net.cpp:84] Creating Layer h_5_lstm1_unit_5_1_split
I0228 21:33:08.683926 13998 net.cpp:406] h_5_lstm1_unit_5_1_split <- h_5
I0228 21:33:08.683930 13998 net.cpp:380] h_5_lstm1_unit_5_1_split -> h_5_lstm1_unit_5_1_split_0
I0228 21:33:08.683935 13998 net.cpp:380] h_5_lstm1_unit_5_1_split -> h_5_lstm1_unit_5_1_split_1
I0228 21:33:08.683954 13998 net.cpp:122] Setting up h_5_lstm1_unit_5_1_split
I0228 21:33:08.683967 13998 net.cpp:129] Top shape: 1 13 16 (208)
I0228 21:33:08.683971 13998 net.cpp:129] Top shape: 1 13 16 (208)
I0228 21:33:08.683974 13998 net.cpp:137] Memory required for data: 166400
I0228 21:33:08.683977 13998 layer_factory.hpp:77] Creating layer lstm1_h_conted_5
I0228 21:33:08.683982 13998 net.cpp:84] Creating Layer lstm1_h_conted_5
I0228 21:33:08.683985 13998 net.cpp:406] lstm1_h_conted_5 <- h_5_lstm1_unit_5_1_split_0
I0228 21:33:08.683990 13998 net.cpp:406] lstm1_h_conted_5 <- cont_6_lstm1_cont_slice_5_split_0
I0228 21:33:08.683995 13998 net.cpp:380] lstm1_h_conted_5 -> h_conted_5
I0228 21:33:08.684023 13998 net.cpp:122] Setting up lstm1_h_conted_5
I0228 21:33:08.684029 13998 net.cpp:129] Top shape: 1 13 16 (208)
I0228 21:33:08.684032 13998 net.cpp:137] Memory required for data: 167232
I0228 21:33:08.684036 13998 layer_factory.hpp:77] Creating layer lstm1_transform_6
I0228 21:33:08.684041 13998 net.cpp:84] Creating Layer lstm1_transform_6
I0228 21:33:08.684043 13998 net.cpp:406] lstm1_transform_6 <- h_conted_5
I0228 21:33:08.684048 13998 net.cpp:380] lstm1_transform_6 -> W_hc_h_5
I0228 21:33:08.684078 13998 net.cpp:122] Setting up lstm1_transform_6
I0228 21:33:08.684083 13998 net.cpp:129] Top shape: 1 13 64 (832)
I0228 21:33:08.684087 13998 net.cpp:137] Memory required for data: 170560
I0228 21:33:08.684090 13998 net.cpp:465] Sharing parameters 'W_hc' owned by layer 'lstm1_transform_1', param index 0
I0228 21:33:08.684093 13998 layer_factory.hpp:77] Creating layer lstm1_gate_input_6
I0228 21:33:08.684098 13998 net.cpp:84] Creating Layer lstm1_gate_input_6
I0228 21:33:08.684101 13998 net.cpp:406] lstm1_gate_input_6 <- W_hc_h_5
I0228 21:33:08.684105 13998 net.cpp:406] lstm1_gate_input_6 <- W_xc_x_6
I0228 21:33:08.684109 13998 net.cpp:380] lstm1_gate_input_6 -> gate_input_6
I0228 21:33:08.684123 13998 net.cpp:122] Setting up lstm1_gate_input_6
I0228 21:33:08.684128 13998 net.cpp:129] Top shape: 1 13 64 (832)
I0228 21:33:08.684131 13998 net.cpp:137] Memory required for data: 173888
I0228 21:33:08.684134 13998 layer_factory.hpp:77] Creating layer lstm1_unit_6
I0228 21:33:08.684139 13998 net.cpp:84] Creating Layer lstm1_unit_6
I0228 21:33:08.684142 13998 net.cpp:406] lstm1_unit_6 <- c_5
I0228 21:33:08.684146 13998 net.cpp:406] lstm1_unit_6 <- gate_input_6
I0228 21:33:08.684149 13998 net.cpp:406] lstm1_unit_6 <- cont_6_lstm1_cont_slice_5_split_1
I0228 21:33:08.684154 13998 net.cpp:380] lstm1_unit_6 -> c_6
I0228 21:33:08.684159 13998 net.cpp:380] lstm1_unit_6 -> h_6
I0228 21:33:08.684182 13998 net.cpp:122] Setting up lstm1_unit_6
I0228 21:33:08.684187 13998 net.cpp:129] Top shape: 1 13 16 (208)
I0228 21:33:08.684191 13998 net.cpp:129] Top shape: 1 13 16 (208)
I0228 21:33:08.684195 13998 net.cpp:137] Memory required for data: 175552
I0228 21:33:08.684197 13998 layer_factory.hpp:77] Creating layer h_6_lstm1_unit_6_1_split
I0228 21:33:08.684202 13998 net.cpp:84] Creating Layer h_6_lstm1_unit_6_1_split
I0228 21:33:08.684206 13998 net.cpp:406] h_6_lstm1_unit_6_1_split <- h_6
I0228 21:33:08.684211 13998 net.cpp:380] h_6_lstm1_unit_6_1_split -> h_6_lstm1_unit_6_1_split_0
I0228 21:33:08.684214 13998 net.cpp:380] h_6_lstm1_unit_6_1_split -> h_6_lstm1_unit_6_1_split_1
I0228 21:33:08.684232 13998 net.cpp:122] Setting up h_6_lstm1_unit_6_1_split
I0228 21:33:08.684237 13998 net.cpp:129] Top shape: 1 13 16 (208)
I0228 21:33:08.684240 13998 net.cpp:129] Top shape: 1 13 16 (208)
I0228 21:33:08.684243 13998 net.cpp:137] Memory required for data: 177216
I0228 21:33:08.684247 13998 layer_factory.hpp:77] Creating layer lstm1_h_conted_6
I0228 21:33:08.684252 13998 net.cpp:84] Creating Layer lstm1_h_conted_6
I0228 21:33:08.684255 13998 net.cpp:406] lstm1_h_conted_6 <- h_6_lstm1_unit_6_1_split_0
I0228 21:33:08.684259 13998 net.cpp:406] lstm1_h_conted_6 <- cont_7_lstm1_cont_slice_6_split_0
I0228 21:33:08.684263 13998 net.cpp:380] lstm1_h_conted_6 -> h_conted_6
I0228 21:33:08.684293 13998 net.cpp:122] Setting up lstm1_h_conted_6
I0228 21:33:08.684298 13998 net.cpp:129] Top shape: 1 13 16 (208)
I0228 21:33:08.684304 13998 net.cpp:137] Memory required for data: 178048
I0228 21:33:08.684309 13998 layer_factory.hpp:77] Creating layer lstm1_transform_7
I0228 21:33:08.684312 13998 net.cpp:84] Creating Layer lstm1_transform_7
I0228 21:33:08.684315 13998 net.cpp:406] lstm1_transform_7 <- h_conted_6
I0228 21:33:08.684320 13998 net.cpp:380] lstm1_transform_7 -> W_hc_h_6
I0228 21:33:08.684422 13998 net.cpp:122] Setting up lstm1_transform_7
I0228 21:33:08.684429 13998 net.cpp:129] Top shape: 1 13 64 (832)
I0228 21:33:08.684433 13998 net.cpp:137] Memory required for data: 181376
I0228 21:33:08.684442 13998 net.cpp:465] Sharing parameters 'W_hc' owned by layer 'lstm1_transform_1', param index 0
I0228 21:33:08.684445 13998 layer_factory.hpp:77] Creating layer lstm1_gate_input_7
I0228 21:33:08.684450 13998 net.cpp:84] Creating Layer lstm1_gate_input_7
I0228 21:33:08.686570 13998 net.cpp:406] lstm1_gate_input_7 <- W_hc_h_6
I0228 21:33:08.686583 13998 net.cpp:406] lstm1_gate_input_7 <- W_xc_x_7
I0228 21:33:08.686592 13998 net.cpp:380] lstm1_gate_input_7 -> gate_input_7
I0228 21:33:08.686624 13998 net.cpp:122] Setting up lstm1_gate_input_7
I0228 21:33:08.686645 13998 net.cpp:129] Top shape: 1 13 64 (832)
I0228 21:33:08.686648 13998 net.cpp:137] Memory required for data: 184704
I0228 21:33:08.686652 13998 layer_factory.hpp:77] Creating layer lstm1_unit_7
I0228 21:33:08.686661 13998 net.cpp:84] Creating Layer lstm1_unit_7
I0228 21:33:08.686664 13998 net.cpp:406] lstm1_unit_7 <- c_6
I0228 21:33:08.686668 13998 net.cpp:406] lstm1_unit_7 <- gate_input_7
I0228 21:33:08.686672 13998 net.cpp:406] lstm1_unit_7 <- cont_7_lstm1_cont_slice_6_split_1
I0228 21:33:08.686676 13998 net.cpp:380] lstm1_unit_7 -> c_7
I0228 21:33:08.686681 13998 net.cpp:380] lstm1_unit_7 -> h_7
I0228 21:33:08.686707 13998 net.cpp:122] Setting up lstm1_unit_7
I0228 21:33:08.686713 13998 net.cpp:129] Top shape: 1 13 16 (208)
I0228 21:33:08.686717 13998 net.cpp:129] Top shape: 1 13 16 (208)
I0228 21:33:08.686720 13998 net.cpp:137] Memory required for data: 186368
I0228 21:33:08.686723 13998 layer_factory.hpp:77] Creating layer h_7_lstm1_unit_7_1_split
I0228 21:33:08.686728 13998 net.cpp:84] Creating Layer h_7_lstm1_unit_7_1_split
I0228 21:33:08.686730 13998 net.cpp:406] h_7_lstm1_unit_7_1_split <- h_7
I0228 21:33:08.686735 13998 net.cpp:380] h_7_lstm1_unit_7_1_split -> h_7_lstm1_unit_7_1_split_0
I0228 21:33:08.686740 13998 net.cpp:380] h_7_lstm1_unit_7_1_split -> h_7_lstm1_unit_7_1_split_1
I0228 21:33:08.686758 13998 net.cpp:122] Setting up h_7_lstm1_unit_7_1_split
I0228 21:33:08.686764 13998 net.cpp:129] Top shape: 1 13 16 (208)
I0228 21:33:08.686767 13998 net.cpp:129] Top shape: 1 13 16 (208)
I0228 21:33:08.686770 13998 net.cpp:137] Memory required for data: 188032
I0228 21:33:08.686774 13998 layer_factory.hpp:77] Creating layer lstm1_h_conted_7
I0228 21:33:08.686779 13998 net.cpp:84] Creating Layer lstm1_h_conted_7
I0228 21:33:08.686797 13998 net.cpp:406] lstm1_h_conted_7 <- h_7_lstm1_unit_7_1_split_0
I0228 21:33:08.686802 13998 net.cpp:406] lstm1_h_conted_7 <- cont_8_lstm1_cont_slice_7_split_0
I0228 21:33:08.686807 13998 net.cpp:380] lstm1_h_conted_7 -> h_conted_7
I0228 21:33:08.686856 13998 net.cpp:122] Setting up lstm1_h_conted_7
I0228 21:33:08.686861 13998 net.cpp:129] Top shape: 1 13 16 (208)
I0228 21:33:08.686879 13998 net.cpp:137] Memory required for data: 188864
I0228 21:33:08.686882 13998 layer_factory.hpp:77] Creating layer lstm1_transform_8
I0228 21:33:08.686887 13998 net.cpp:84] Creating Layer lstm1_transform_8
I0228 21:33:08.686890 13998 net.cpp:406] lstm1_transform_8 <- h_conted_7
I0228 21:33:08.686894 13998 net.cpp:380] lstm1_transform_8 -> W_hc_h_7
I0228 21:33:08.686975 13998 net.cpp:122] Setting up lstm1_transform_8
I0228 21:33:08.686980 13998 net.cpp:129] Top shape: 1 13 64 (832)
I0228 21:33:08.686998 13998 net.cpp:137] Memory required for data: 192192
I0228 21:33:08.687001 13998 net.cpp:465] Sharing parameters 'W_hc' owned by layer 'lstm1_transform_1', param index 0
I0228 21:33:08.687005 13998 layer_factory.hpp:77] Creating layer lstm1_gate_input_8
I0228 21:33:08.687018 13998 net.cpp:84] Creating Layer lstm1_gate_input_8
I0228 21:33:08.687022 13998 net.cpp:406] lstm1_gate_input_8 <- W_hc_h_7
I0228 21:33:08.687039 13998 net.cpp:406] lstm1_gate_input_8 <- W_xc_x_8
I0228 21:33:08.687043 13998 net.cpp:380] lstm1_gate_input_8 -> gate_input_8
I0228 21:33:08.687072 13998 net.cpp:122] Setting up lstm1_gate_input_8
I0228 21:33:08.687090 13998 net.cpp:129] Top shape: 1 13 64 (832)
I0228 21:33:08.687093 13998 net.cpp:137] Memory required for data: 195520
I0228 21:33:08.687095 13998 layer_factory.hpp:77] Creating layer lstm1_unit_8
I0228 21:33:08.687114 13998 net.cpp:84] Creating Layer lstm1_unit_8
I0228 21:33:08.687116 13998 net.cpp:406] lstm1_unit_8 <- c_7
I0228 21:33:08.687120 13998 net.cpp:406] lstm1_unit_8 <- gate_input_8
I0228 21:33:08.687124 13998 net.cpp:406] lstm1_unit_8 <- cont_8_lstm1_cont_slice_7_split_1
I0228 21:33:08.687130 13998 net.cpp:380] lstm1_unit_8 -> c_8
I0228 21:33:08.687135 13998 net.cpp:380] lstm1_unit_8 -> h_8
I0228 21:33:08.687160 13998 net.cpp:122] Setting up lstm1_unit_8
I0228 21:33:08.687165 13998 net.cpp:129] Top shape: 1 13 16 (208)
I0228 21:33:08.687168 13998 net.cpp:129] Top shape: 1 13 16 (208)
I0228 21:33:08.687171 13998 net.cpp:137] Memory required for data: 197184
I0228 21:33:08.687175 13998 layer_factory.hpp:77] Creating layer h_8_lstm1_unit_8_1_split
I0228 21:33:08.687178 13998 net.cpp:84] Creating Layer h_8_lstm1_unit_8_1_split
I0228 21:33:08.687181 13998 net.cpp:406] h_8_lstm1_unit_8_1_split <- h_8
I0228 21:33:08.687186 13998 net.cpp:380] h_8_lstm1_unit_8_1_split -> h_8_lstm1_unit_8_1_split_0
I0228 21:33:08.687191 13998 net.cpp:380] h_8_lstm1_unit_8_1_split -> h_8_lstm1_unit_8_1_split_1
I0228 21:33:08.687208 13998 net.cpp:122] Setting up h_8_lstm1_unit_8_1_split
I0228 21:33:08.687213 13998 net.cpp:129] Top shape: 1 13 16 (208)
I0228 21:33:08.687217 13998 net.cpp:129] Top shape: 1 13 16 (208)
I0228 21:33:08.687221 13998 net.cpp:137] Memory required for data: 198848
I0228 21:33:08.687223 13998 layer_factory.hpp:77] Creating layer lstm1_h_conted_8
I0228 21:33:08.687228 13998 net.cpp:84] Creating Layer lstm1_h_conted_8
I0228 21:33:08.687232 13998 net.cpp:406] lstm1_h_conted_8 <- h_8_lstm1_unit_8_1_split_0
I0228 21:33:08.687237 13998 net.cpp:406] lstm1_h_conted_8 <- cont_9_lstm1_cont_slice_8_split_0
I0228 21:33:08.687240 13998 net.cpp:380] lstm1_h_conted_8 -> h_conted_8
I0228 21:33:08.687274 13998 net.cpp:122] Setting up lstm1_h_conted_8
I0228 21:33:08.687280 13998 net.cpp:129] Top shape: 1 13 16 (208)
I0228 21:33:08.687283 13998 net.cpp:137] Memory required for data: 199680
I0228 21:33:08.687286 13998 layer_factory.hpp:77] Creating layer lstm1_transform_9
I0228 21:33:08.687292 13998 net.cpp:84] Creating Layer lstm1_transform_9
I0228 21:33:08.687295 13998 net.cpp:406] lstm1_transform_9 <- h_conted_8
I0228 21:33:08.687300 13998 net.cpp:380] lstm1_transform_9 -> W_hc_h_8
I0228 21:33:08.687331 13998 net.cpp:122] Setting up lstm1_transform_9
I0228 21:33:08.687336 13998 net.cpp:129] Top shape: 1 13 64 (832)
I0228 21:33:08.687340 13998 net.cpp:137] Memory required for data: 203008
I0228 21:33:08.687343 13998 net.cpp:465] Sharing parameters 'W_hc' owned by layer 'lstm1_transform_1', param index 0
I0228 21:33:08.687347 13998 layer_factory.hpp:77] Creating layer lstm1_gate_input_9
I0228 21:33:08.687351 13998 net.cpp:84] Creating Layer lstm1_gate_input_9
I0228 21:33:08.687355 13998 net.cpp:406] lstm1_gate_input_9 <- W_hc_h_8
I0228 21:33:08.687358 13998 net.cpp:406] lstm1_gate_input_9 <- W_xc_x_9
I0228 21:33:08.687364 13998 net.cpp:380] lstm1_gate_input_9 -> gate_input_9
I0228 21:33:08.687377 13998 net.cpp:122] Setting up lstm1_gate_input_9
I0228 21:33:08.687382 13998 net.cpp:129] Top shape: 1 13 64 (832)
I0228 21:33:08.687386 13998 net.cpp:137] Memory required for data: 206336
I0228 21:33:08.687388 13998 layer_factory.hpp:77] Creating layer lstm1_unit_9
I0228 21:33:08.687400 13998 net.cpp:84] Creating Layer lstm1_unit_9
I0228 21:33:08.687404 13998 net.cpp:406] lstm1_unit_9 <- c_8
I0228 21:33:08.687409 13998 net.cpp:406] lstm1_unit_9 <- gate_input_9
I0228 21:33:08.687418 13998 net.cpp:406] lstm1_unit_9 <- cont_9_lstm1_cont_slice_8_split_1
I0228 21:33:08.687422 13998 net.cpp:380] lstm1_unit_9 -> c_9
I0228 21:33:08.687436 13998 net.cpp:380] lstm1_unit_9 -> h_9
I0228 21:33:08.687461 13998 net.cpp:122] Setting up lstm1_unit_9
I0228 21:33:08.687467 13998 net.cpp:129] Top shape: 1 13 16 (208)
I0228 21:33:08.687472 13998 net.cpp:129] Top shape: 1 13 16 (208)
I0228 21:33:08.687475 13998 net.cpp:137] Memory required for data: 208000
I0228 21:33:08.687479 13998 layer_factory.hpp:77] Creating layer h_9_lstm1_unit_9_1_split
I0228 21:33:08.687484 13998 net.cpp:84] Creating Layer h_9_lstm1_unit_9_1_split
I0228 21:33:08.687487 13998 net.cpp:406] h_9_lstm1_unit_9_1_split <- h_9
I0228 21:33:08.713685 13998 net.cpp:380] h_9_lstm1_unit_9_1_split -> h_9_lstm1_unit_9_1_split_0
I0228 21:33:08.713702 13998 net.cpp:380] h_9_lstm1_unit_9_1_split -> h_9_lstm1_unit_9_1_split_1
I0228 21:33:08.713770 13998 net.cpp:122] Setting up h_9_lstm1_unit_9_1_split
I0228 21:33:08.713783 13998 net.cpp:129] Top shape: 1 13 16 (208)
I0228 21:33:08.713789 13998 net.cpp:129] Top shape: 1 13 16 (208)
I0228 21:33:08.713794 13998 net.cpp:137] Memory required for data: 209664
I0228 21:33:08.713798 13998 layer_factory.hpp:77] Creating layer lstm1_h_conted_9
I0228 21:33:08.713806 13998 net.cpp:84] Creating Layer lstm1_h_conted_9
I0228 21:33:08.713809 13998 net.cpp:406] lstm1_h_conted_9 <- h_9_lstm1_unit_9_1_split_0
I0228 21:33:08.713815 13998 net.cpp:406] lstm1_h_conted_9 <- cont_10_lstm1_cont_slice_9_split_0
I0228 21:33:08.713822 13998 net.cpp:380] lstm1_h_conted_9 -> h_conted_9
I0228 21:33:08.713862 13998 net.cpp:122] Setting up lstm1_h_conted_9
I0228 21:33:08.713868 13998 net.cpp:129] Top shape: 1 13 16 (208)
I0228 21:33:08.713871 13998 net.cpp:137] Memory required for data: 210496
I0228 21:33:08.713874 13998 layer_factory.hpp:77] Creating layer lstm1_transform_10
I0228 21:33:08.713881 13998 net.cpp:84] Creating Layer lstm1_transform_10
I0228 21:33:08.713886 13998 net.cpp:406] lstm1_transform_10 <- h_conted_9
I0228 21:33:08.713891 13998 net.cpp:380] lstm1_transform_10 -> W_hc_h_9
I0228 21:33:08.713932 13998 net.cpp:122] Setting up lstm1_transform_10
I0228 21:33:08.713937 13998 net.cpp:129] Top shape: 1 13 64 (832)
I0228 21:33:08.713940 13998 net.cpp:137] Memory required for data: 213824
I0228 21:33:08.713944 13998 net.cpp:465] Sharing parameters 'W_hc' owned by layer 'lstm1_transform_1', param index 0
I0228 21:33:08.713948 13998 layer_factory.hpp:77] Creating layer lstm1_gate_input_10
I0228 21:33:08.713953 13998 net.cpp:84] Creating Layer lstm1_gate_input_10
I0228 21:33:08.713956 13998 net.cpp:406] lstm1_gate_input_10 <- W_hc_h_9
I0228 21:33:08.713960 13998 net.cpp:406] lstm1_gate_input_10 <- W_xc_x_10
I0228 21:33:08.713966 13998 net.cpp:380] lstm1_gate_input_10 -> gate_input_10
I0228 21:33:08.713984 13998 net.cpp:122] Setting up lstm1_gate_input_10
I0228 21:33:08.713989 13998 net.cpp:129] Top shape: 1 13 64 (832)
I0228 21:33:08.713991 13998 net.cpp:137] Memory required for data: 217152
I0228 21:33:08.713994 13998 layer_factory.hpp:77] Creating layer lstm1_unit_10
I0228 21:33:08.713999 13998 net.cpp:84] Creating Layer lstm1_unit_10
I0228 21:33:08.714004 13998 net.cpp:406] lstm1_unit_10 <- c_9
I0228 21:33:08.714007 13998 net.cpp:406] lstm1_unit_10 <- gate_input_10
I0228 21:33:08.714011 13998 net.cpp:406] lstm1_unit_10 <- cont_10_lstm1_cont_slice_9_split_1
I0228 21:33:08.714016 13998 net.cpp:380] lstm1_unit_10 -> c_10
I0228 21:33:08.714021 13998 net.cpp:380] lstm1_unit_10 -> h_10
I0228 21:33:08.714045 13998 net.cpp:122] Setting up lstm1_unit_10
I0228 21:33:08.714051 13998 net.cpp:129] Top shape: 1 13 16 (208)
I0228 21:33:08.714053 13998 net.cpp:129] Top shape: 1 13 16 (208)
I0228 21:33:08.714056 13998 net.cpp:137] Memory required for data: 218816
I0228 21:33:08.714059 13998 layer_factory.hpp:77] Creating layer h_10_lstm1_unit_10_1_split
I0228 21:33:08.714064 13998 net.cpp:84] Creating Layer h_10_lstm1_unit_10_1_split
I0228 21:33:08.714067 13998 net.cpp:406] h_10_lstm1_unit_10_1_split <- h_10
I0228 21:33:08.714081 13998 net.cpp:380] h_10_lstm1_unit_10_1_split -> h_10_lstm1_unit_10_1_split_0
I0228 21:33:08.714102 13998 net.cpp:380] h_10_lstm1_unit_10_1_split -> h_10_lstm1_unit_10_1_split_1
I0228 21:33:08.714123 13998 net.cpp:122] Setting up h_10_lstm1_unit_10_1_split
I0228 21:33:08.714128 13998 net.cpp:129] Top shape: 1 13 16 (208)
I0228 21:33:08.714131 13998 net.cpp:129] Top shape: 1 13 16 (208)
I0228 21:33:08.714134 13998 net.cpp:137] Memory required for data: 220480
I0228 21:33:08.714138 13998 layer_factory.hpp:77] Creating layer lstm1_h_conted_10
I0228 21:33:08.714141 13998 net.cpp:84] Creating Layer lstm1_h_conted_10
I0228 21:33:08.714145 13998 net.cpp:406] lstm1_h_conted_10 <- h_10_lstm1_unit_10_1_split_0
I0228 21:33:08.714149 13998 net.cpp:406] lstm1_h_conted_10 <- cont_11_lstm1_cont_slice_10_split_0
I0228 21:33:08.714155 13998 net.cpp:380] lstm1_h_conted_10 -> h_conted_10
I0228 21:33:08.714198 13998 net.cpp:122] Setting up lstm1_h_conted_10
I0228 21:33:08.714203 13998 net.cpp:129] Top shape: 1 13 16 (208)
I0228 21:33:08.714207 13998 net.cpp:137] Memory required for data: 221312
I0228 21:33:08.714210 13998 layer_factory.hpp:77] Creating layer lstm1_transform_11
I0228 21:33:08.714215 13998 net.cpp:84] Creating Layer lstm1_transform_11
I0228 21:33:08.714220 13998 net.cpp:406] lstm1_transform_11 <- h_conted_10
I0228 21:33:08.714224 13998 net.cpp:380] lstm1_transform_11 -> W_hc_h_10
I0228 21:33:08.714257 13998 net.cpp:122] Setting up lstm1_transform_11
I0228 21:33:08.714262 13998 net.cpp:129] Top shape: 1 13 64 (832)
I0228 21:33:08.714264 13998 net.cpp:137] Memory required for data: 224640
I0228 21:33:08.714268 13998 net.cpp:465] Sharing parameters 'W_hc' owned by layer 'lstm1_transform_1', param index 0
I0228 21:33:08.714272 13998 layer_factory.hpp:77] Creating layer lstm1_gate_input_11
I0228 21:33:08.714277 13998 net.cpp:84] Creating Layer lstm1_gate_input_11
I0228 21:33:08.714279 13998 net.cpp:406] lstm1_gate_input_11 <- W_hc_h_10
I0228 21:33:08.714283 13998 net.cpp:406] lstm1_gate_input_11 <- W_xc_x_11
I0228 21:33:08.714287 13998 net.cpp:380] lstm1_gate_input_11 -> gate_input_11
I0228 21:33:08.714303 13998 net.cpp:122] Setting up lstm1_gate_input_11
I0228 21:33:08.714308 13998 net.cpp:129] Top shape: 1 13 64 (832)
I0228 21:33:08.714310 13998 net.cpp:137] Memory required for data: 227968
I0228 21:33:08.714313 13998 layer_factory.hpp:77] Creating layer lstm1_unit_11
I0228 21:33:08.714318 13998 net.cpp:84] Creating Layer lstm1_unit_11
I0228 21:33:08.714323 13998 net.cpp:406] lstm1_unit_11 <- c_10
I0228 21:33:08.714326 13998 net.cpp:406] lstm1_unit_11 <- gate_input_11
I0228 21:33:08.714329 13998 net.cpp:406] lstm1_unit_11 <- cont_11_lstm1_cont_slice_10_split_1
I0228 21:33:08.714347 13998 net.cpp:380] lstm1_unit_11 -> c_11
I0228 21:33:08.714355 13998 net.cpp:380] lstm1_unit_11 -> h_11
I0228 21:33:08.714393 13998 net.cpp:122] Setting up lstm1_unit_11
I0228 21:33:08.714398 13998 net.cpp:129] Top shape: 1 13 16 (208)
I0228 21:33:08.714402 13998 net.cpp:129] Top shape: 1 13 16 (208)
I0228 21:33:08.714406 13998 net.cpp:137] Memory required for data: 229632
I0228 21:33:08.714408 13998 layer_factory.hpp:77] Creating layer h_11_lstm1_unit_11_1_split
I0228 21:33:08.714413 13998 net.cpp:84] Creating Layer h_11_lstm1_unit_11_1_split
I0228 21:33:08.714416 13998 net.cpp:406] h_11_lstm1_unit_11_1_split <- h_11
I0228 21:33:08.714421 13998 net.cpp:380] h_11_lstm1_unit_11_1_split -> h_11_lstm1_unit_11_1_split_0
I0228 21:33:08.714426 13998 net.cpp:380] h_11_lstm1_unit_11_1_split -> h_11_lstm1_unit_11_1_split_1
I0228 21:33:08.714444 13998 net.cpp:122] Setting up h_11_lstm1_unit_11_1_split
I0228 21:33:08.714449 13998 net.cpp:129] Top shape: 1 13 16 (208)
I0228 21:33:08.714453 13998 net.cpp:129] Top shape: 1 13 16 (208)
I0228 21:33:08.714457 13998 net.cpp:137] Memory required for data: 231296
I0228 21:33:08.714459 13998 layer_factory.hpp:77] Creating layer lstm1_h_conted_11
I0228 21:33:08.714463 13998 net.cpp:84] Creating Layer lstm1_h_conted_11
I0228 21:33:08.714467 13998 net.cpp:406] lstm1_h_conted_11 <- h_11_lstm1_unit_11_1_split_0
I0228 21:33:08.714475 13998 net.cpp:406] lstm1_h_conted_11 <- cont_12_lstm1_cont_slice_11_split_0
I0228 21:33:08.714480 13998 net.cpp:380] lstm1_h_conted_11 -> h_conted_11
I0228 21:33:08.714511 13998 net.cpp:122] Setting up lstm1_h_conted_11
I0228 21:33:08.714516 13998 net.cpp:129] Top shape: 1 13 16 (208)
I0228 21:33:08.714520 13998 net.cpp:137] Memory required for data: 232128
I0228 21:33:08.714524 13998 layer_factory.hpp:77] Creating layer lstm1_transform_12
I0228 21:33:08.716908 13998 net.cpp:84] Creating Layer lstm1_transform_12
I0228 21:33:08.716918 13998 net.cpp:406] lstm1_transform_12 <- h_conted_11
I0228 21:33:08.716926 13998 net.cpp:380] lstm1_transform_12 -> W_hc_h_11
I0228 21:33:08.716975 13998 net.cpp:122] Setting up lstm1_transform_12
I0228 21:33:08.716982 13998 net.cpp:129] Top shape: 1 13 64 (832)
I0228 21:33:08.716986 13998 net.cpp:137] Memory required for data: 235456
I0228 21:33:08.716989 13998 net.cpp:465] Sharing parameters 'W_hc' owned by layer 'lstm1_transform_1', param index 0
I0228 21:33:08.716994 13998 layer_factory.hpp:77] Creating layer lstm1_gate_input_12
I0228 21:33:08.716998 13998 net.cpp:84] Creating Layer lstm1_gate_input_12
I0228 21:33:08.717001 13998 net.cpp:406] lstm1_gate_input_12 <- W_hc_h_11
I0228 21:33:08.717005 13998 net.cpp:406] lstm1_gate_input_12 <- W_xc_x_12
I0228 21:33:08.717010 13998 net.cpp:380] lstm1_gate_input_12 -> gate_input_12
I0228 21:33:08.717026 13998 net.cpp:122] Setting up lstm1_gate_input_12
I0228 21:33:08.717031 13998 net.cpp:129] Top shape: 1 13 64 (832)
I0228 21:33:08.717034 13998 net.cpp:137] Memory required for data: 238784
I0228 21:33:08.717037 13998 layer_factory.hpp:77] Creating layer lstm1_unit_12
I0228 21:33:08.717046 13998 net.cpp:84] Creating Layer lstm1_unit_12
I0228 21:33:08.717049 13998 net.cpp:406] lstm1_unit_12 <- c_11
I0228 21:33:08.717053 13998 net.cpp:406] lstm1_unit_12 <- gate_input_12
I0228 21:33:08.717057 13998 net.cpp:406] lstm1_unit_12 <- cont_12_lstm1_cont_slice_11_split_1
I0228 21:33:08.717061 13998 net.cpp:380] lstm1_unit_12 -> c_12
I0228 21:33:08.717068 13998 net.cpp:380] lstm1_unit_12 -> h_12
I0228 21:33:08.717099 13998 net.cpp:122] Setting up lstm1_unit_12
I0228 21:33:08.717106 13998 net.cpp:129] Top shape: 1 13 16 (208)
I0228 21:33:08.717110 13998 net.cpp:129] Top shape: 1 13 16 (208)
I0228 21:33:08.717113 13998 net.cpp:137] Memory required for data: 240448
I0228 21:33:08.717116 13998 layer_factory.hpp:77] Creating layer h_12_lstm1_unit_12_1_split
I0228 21:33:08.717120 13998 net.cpp:84] Creating Layer h_12_lstm1_unit_12_1_split
I0228 21:33:08.717124 13998 net.cpp:406] h_12_lstm1_unit_12_1_split <- h_12
I0228 21:33:08.717129 13998 net.cpp:380] h_12_lstm1_unit_12_1_split -> h_12_lstm1_unit_12_1_split_0
I0228 21:33:08.717134 13998 net.cpp:380] h_12_lstm1_unit_12_1_split -> h_12_lstm1_unit_12_1_split_1
I0228 21:33:08.717154 13998 net.cpp:122] Setting up h_12_lstm1_unit_12_1_split
I0228 21:33:08.717159 13998 net.cpp:129] Top shape: 1 13 16 (208)
I0228 21:33:08.717162 13998 net.cpp:129] Top shape: 1 13 16 (208)
I0228 21:33:08.717165 13998 net.cpp:137] Memory required for data: 242112
I0228 21:33:08.717169 13998 layer_factory.hpp:77] Creating layer lstm1_h_conted_12
I0228 21:33:08.717172 13998 net.cpp:84] Creating Layer lstm1_h_conted_12
I0228 21:33:08.717176 13998 net.cpp:406] lstm1_h_conted_12 <- h_12_lstm1_unit_12_1_split_0
I0228 21:33:08.717180 13998 net.cpp:406] lstm1_h_conted_12 <- cont_13_lstm1_cont_slice_12_split_0
I0228 21:33:08.717187 13998 net.cpp:380] lstm1_h_conted_12 -> h_conted_12
I0228 21:33:08.717219 13998 net.cpp:122] Setting up lstm1_h_conted_12
I0228 21:33:08.717224 13998 net.cpp:129] Top shape: 1 13 16 (208)
I0228 21:33:08.717227 13998 net.cpp:137] Memory required for data: 242944
I0228 21:33:08.717231 13998 layer_factory.hpp:77] Creating layer lstm1_transform_13
I0228 21:33:08.717236 13998 net.cpp:84] Creating Layer lstm1_transform_13
I0228 21:33:08.717239 13998 net.cpp:406] lstm1_transform_13 <- h_conted_12
I0228 21:33:08.717243 13998 net.cpp:380] lstm1_transform_13 -> W_hc_h_12
I0228 21:33:08.717274 13998 net.cpp:122] Setting up lstm1_transform_13
I0228 21:33:08.717288 13998 net.cpp:129] Top shape: 1 13 64 (832)
I0228 21:33:08.717291 13998 net.cpp:137] Memory required for data: 246272
I0228 21:33:08.717296 13998 net.cpp:465] Sharing parameters 'W_hc' owned by layer 'lstm1_transform_1', param index 0
I0228 21:33:08.717301 13998 layer_factory.hpp:77] Creating layer lstm1_gate_input_13
I0228 21:33:08.717306 13998 net.cpp:84] Creating Layer lstm1_gate_input_13
I0228 21:33:08.717310 13998 net.cpp:406] lstm1_gate_input_13 <- W_hc_h_12
I0228 21:33:08.717314 13998 net.cpp:406] lstm1_gate_input_13 <- W_xc_x_13
I0228 21:33:08.717319 13998 net.cpp:380] lstm1_gate_input_13 -> gate_input_13
I0228 21:33:08.717334 13998 net.cpp:122] Setting up lstm1_gate_input_13
I0228 21:33:08.717339 13998 net.cpp:129] Top shape: 1 13 64 (832)
I0228 21:33:08.717342 13998 net.cpp:137] Memory required for data: 249600
I0228 21:33:08.717345 13998 layer_factory.hpp:77] Creating layer lstm1_unit_13
I0228 21:33:08.717350 13998 net.cpp:84] Creating Layer lstm1_unit_13
I0228 21:33:08.717352 13998 net.cpp:406] lstm1_unit_13 <- c_12
I0228 21:33:08.717370 13998 net.cpp:406] lstm1_unit_13 <- gate_input_13
I0228 21:33:08.717375 13998 net.cpp:406] lstm1_unit_13 <- cont_13_lstm1_cont_slice_12_split_1
I0228 21:33:08.717380 13998 net.cpp:380] lstm1_unit_13 -> c_13
I0228 21:33:08.717384 13998 net.cpp:380] lstm1_unit_13 -> h_13
I0228 21:33:08.717409 13998 net.cpp:122] Setting up lstm1_unit_13
I0228 21:33:08.717414 13998 net.cpp:129] Top shape: 1 13 16 (208)
I0228 21:33:08.717418 13998 net.cpp:129] Top shape: 1 13 16 (208)
I0228 21:33:08.717422 13998 net.cpp:137] Memory required for data: 251264
I0228 21:33:08.717424 13998 layer_factory.hpp:77] Creating layer h_13_lstm1_unit_13_1_split
I0228 21:33:08.717428 13998 net.cpp:84] Creating Layer h_13_lstm1_unit_13_1_split
I0228 21:33:08.717432 13998 net.cpp:406] h_13_lstm1_unit_13_1_split <- h_13
I0228 21:33:08.717435 13998 net.cpp:380] h_13_lstm1_unit_13_1_split -> h_13_lstm1_unit_13_1_split_0
I0228 21:33:08.717442 13998 net.cpp:380] h_13_lstm1_unit_13_1_split -> h_13_lstm1_unit_13_1_split_1
I0228 21:33:08.717459 13998 net.cpp:122] Setting up h_13_lstm1_unit_13_1_split
I0228 21:33:08.717464 13998 net.cpp:129] Top shape: 1 13 16 (208)
I0228 21:33:08.717468 13998 net.cpp:129] Top shape: 1 13 16 (208)
I0228 21:33:08.717471 13998 net.cpp:137] Memory required for data: 252928
I0228 21:33:08.717473 13998 layer_factory.hpp:77] Creating layer lstm1_h_conted_13
I0228 21:33:08.717479 13998 net.cpp:84] Creating Layer lstm1_h_conted_13
I0228 21:33:08.717483 13998 net.cpp:406] lstm1_h_conted_13 <- h_13_lstm1_unit_13_1_split_0
I0228 21:33:08.717502 13998 net.cpp:406] lstm1_h_conted_13 <- cont_14_lstm1_cont_slice_13_split_0
I0228 21:33:08.717507 13998 net.cpp:380] lstm1_h_conted_13 -> h_conted_13
I0228 21:33:08.717547 13998 net.cpp:122] Setting up lstm1_h_conted_13
I0228 21:33:08.717557 13998 net.cpp:129] Top shape: 1 13 16 (208)
I0228 21:33:08.717561 13998 net.cpp:137] Memory required for data: 253760
I0228 21:33:08.717566 13998 layer_factory.hpp:77] Creating layer lstm1_transform_14
I0228 21:33:08.717573 13998 net.cpp:84] Creating Layer lstm1_transform_14
I0228 21:33:08.717579 13998 net.cpp:406] lstm1_transform_14 <- h_conted_13
I0228 21:33:08.717586 13998 net.cpp:380] lstm1_transform_14 -> W_hc_h_13
I0228 21:33:08.717627 13998 net.cpp:122] Setting up lstm1_transform_14
I0228 21:33:08.717648 13998 net.cpp:129] Top shape: 1 13 64 (832)
I0228 21:33:08.717650 13998 net.cpp:137] Memory required for data: 257088
I0228 21:33:08.717653 13998 net.cpp:465] Sharing parameters 'W_hc' owned by layer 'lstm1_transform_1', param index 0
I0228 21:33:08.717658 13998 layer_factory.hpp:77] Creating layer lstm1_gate_input_14
I0228 21:33:08.717663 13998 net.cpp:84] Creating Layer lstm1_gate_input_14
I0228 21:33:08.717665 13998 net.cpp:406] lstm1_gate_input_14 <- W_hc_h_13
I0228 21:33:08.717669 13998 net.cpp:406] lstm1_gate_input_14 <- W_xc_x_14
I0228 21:33:08.717675 13998 net.cpp:380] lstm1_gate_input_14 -> gate_input_14
I0228 21:33:08.717689 13998 net.cpp:122] Setting up lstm1_gate_input_14
I0228 21:33:08.717700 13998 net.cpp:129] Top shape: 1 13 64 (832)
I0228 21:33:08.717705 13998 net.cpp:137] Memory required for data: 260416
I0228 21:33:08.717707 13998 layer_factory.hpp:77] Creating layer lstm1_unit_14
I0228 21:33:08.744022 13998 net.cpp:84] Creating Layer lstm1_unit_14
I0228 21:33:08.744038 13998 net.cpp:406] lstm1_unit_14 <- c_13
I0228 21:33:08.744045 13998 net.cpp:406] lstm1_unit_14 <- gate_input_14
I0228 21:33:08.744050 13998 net.cpp:406] lstm1_unit_14 <- cont_14_lstm1_cont_slice_13_split_1
I0228 21:33:08.744072 13998 net.cpp:380] lstm1_unit_14 -> c_14
I0228 21:33:08.744086 13998 net.cpp:380] lstm1_unit_14 -> h_14
I0228 21:33:08.744153 13998 net.cpp:122] Setting up lstm1_unit_14
I0228 21:33:08.744163 13998 net.cpp:129] Top shape: 1 13 16 (208)
I0228 21:33:08.744168 13998 net.cpp:129] Top shape: 1 13 16 (208)
I0228 21:33:08.744170 13998 net.cpp:137] Memory required for data: 262080
I0228 21:33:08.744174 13998 layer_factory.hpp:77] Creating layer h_14_lstm1_unit_14_1_split
I0228 21:33:08.744179 13998 net.cpp:84] Creating Layer h_14_lstm1_unit_14_1_split
I0228 21:33:08.744184 13998 net.cpp:406] h_14_lstm1_unit_14_1_split <- h_14
I0228 21:33:08.744187 13998 net.cpp:380] h_14_lstm1_unit_14_1_split -> h_14_lstm1_unit_14_1_split_0
I0228 21:33:08.744192 13998 net.cpp:380] h_14_lstm1_unit_14_1_split -> h_14_lstm1_unit_14_1_split_1
I0228 21:33:08.744213 13998 net.cpp:122] Setting up h_14_lstm1_unit_14_1_split
I0228 21:33:08.744218 13998 net.cpp:129] Top shape: 1 13 16 (208)
I0228 21:33:08.744222 13998 net.cpp:129] Top shape: 1 13 16 (208)
I0228 21:33:08.744225 13998 net.cpp:137] Memory required for data: 263744
I0228 21:33:08.744228 13998 layer_factory.hpp:77] Creating layer lstm1_h_conted_14
I0228 21:33:08.744233 13998 net.cpp:84] Creating Layer lstm1_h_conted_14
I0228 21:33:08.744237 13998 net.cpp:406] lstm1_h_conted_14 <- h_14_lstm1_unit_14_1_split_0
I0228 21:33:08.744241 13998 net.cpp:406] lstm1_h_conted_14 <- cont_15_lstm1_cont_slice_14_split_0
I0228 21:33:08.744247 13998 net.cpp:380] lstm1_h_conted_14 -> h_conted_14
I0228 21:33:08.744285 13998 net.cpp:122] Setting up lstm1_h_conted_14
I0228 21:33:08.744292 13998 net.cpp:129] Top shape: 1 13 16 (208)
I0228 21:33:08.744294 13998 net.cpp:137] Memory required for data: 264576
I0228 21:33:08.744297 13998 layer_factory.hpp:77] Creating layer lstm1_transform_15
I0228 21:33:08.744303 13998 net.cpp:84] Creating Layer lstm1_transform_15
I0228 21:33:08.744307 13998 net.cpp:406] lstm1_transform_15 <- h_conted_14
I0228 21:33:08.744313 13998 net.cpp:380] lstm1_transform_15 -> W_hc_h_14
I0228 21:33:08.744354 13998 net.cpp:122] Setting up lstm1_transform_15
I0228 21:33:08.744359 13998 net.cpp:129] Top shape: 1 13 64 (832)
I0228 21:33:08.744361 13998 net.cpp:137] Memory required for data: 267904
I0228 21:33:08.744371 13998 net.cpp:465] Sharing parameters 'W_hc' owned by layer 'lstm1_transform_1', param index 0
I0228 21:33:08.744375 13998 layer_factory.hpp:77] Creating layer lstm1_gate_input_15
I0228 21:33:08.744381 13998 net.cpp:84] Creating Layer lstm1_gate_input_15
I0228 21:33:08.744385 13998 net.cpp:406] lstm1_gate_input_15 <- W_hc_h_14
I0228 21:33:08.744390 13998 net.cpp:406] lstm1_gate_input_15 <- W_xc_x_15
I0228 21:33:08.744395 13998 net.cpp:380] lstm1_gate_input_15 -> gate_input_15
I0228 21:33:08.744426 13998 net.cpp:122] Setting up lstm1_gate_input_15
I0228 21:33:08.744432 13998 net.cpp:129] Top shape: 1 13 64 (832)
I0228 21:33:08.744436 13998 net.cpp:137] Memory required for data: 271232
I0228 21:33:08.744439 13998 layer_factory.hpp:77] Creating layer lstm1_unit_15
I0228 21:33:08.744446 13998 net.cpp:84] Creating Layer lstm1_unit_15
I0228 21:33:08.744451 13998 net.cpp:406] lstm1_unit_15 <- c_14
I0228 21:33:08.744455 13998 net.cpp:406] lstm1_unit_15 <- gate_input_15
I0228 21:33:08.744459 13998 net.cpp:406] lstm1_unit_15 <- cont_15_lstm1_cont_slice_14_split_1
I0228 21:33:08.744464 13998 net.cpp:380] lstm1_unit_15 -> c_15
I0228 21:33:08.744469 13998 net.cpp:380] lstm1_unit_15 -> h_15
I0228 21:33:08.744504 13998 net.cpp:122] Setting up lstm1_unit_15
I0228 21:33:08.744523 13998 net.cpp:129] Top shape: 1 13 16 (208)
I0228 21:33:08.744529 13998 net.cpp:129] Top shape: 1 13 16 (208)
I0228 21:33:08.744534 13998 net.cpp:137] Memory required for data: 272896
I0228 21:33:08.744537 13998 layer_factory.hpp:77] Creating layer h_15_lstm1_unit_15_1_split
I0228 21:33:08.744541 13998 net.cpp:84] Creating Layer h_15_lstm1_unit_15_1_split
I0228 21:33:08.744559 13998 net.cpp:406] h_15_lstm1_unit_15_1_split <- h_15
I0228 21:33:08.744562 13998 net.cpp:380] h_15_lstm1_unit_15_1_split -> h_15_lstm1_unit_15_1_split_0
I0228 21:33:08.744568 13998 net.cpp:380] h_15_lstm1_unit_15_1_split -> h_15_lstm1_unit_15_1_split_1
I0228 21:33:08.744588 13998 net.cpp:122] Setting up h_15_lstm1_unit_15_1_split
I0228 21:33:08.744593 13998 net.cpp:129] Top shape: 1 13 16 (208)
I0228 21:33:08.744597 13998 net.cpp:129] Top shape: 1 13 16 (208)
I0228 21:33:08.744601 13998 net.cpp:137] Memory required for data: 274560
I0228 21:33:08.744603 13998 layer_factory.hpp:77] Creating layer lstm1_h_conted_15
I0228 21:33:08.744607 13998 net.cpp:84] Creating Layer lstm1_h_conted_15
I0228 21:33:08.744611 13998 net.cpp:406] lstm1_h_conted_15 <- h_15_lstm1_unit_15_1_split_0
I0228 21:33:08.744616 13998 net.cpp:406] lstm1_h_conted_15 <- cont_16_lstm1_cont_slice_15_split_0
I0228 21:33:08.744621 13998 net.cpp:380] lstm1_h_conted_15 -> h_conted_15
I0228 21:33:08.744654 13998 net.cpp:122] Setting up lstm1_h_conted_15
I0228 21:33:08.744659 13998 net.cpp:129] Top shape: 1 13 16 (208)
I0228 21:33:08.744663 13998 net.cpp:137] Memory required for data: 275392
I0228 21:33:08.744665 13998 layer_factory.hpp:77] Creating layer lstm1_transform_16
I0228 21:33:08.744670 13998 net.cpp:84] Creating Layer lstm1_transform_16
I0228 21:33:08.744673 13998 net.cpp:406] lstm1_transform_16 <- h_conted_15
I0228 21:33:08.744679 13998 net.cpp:380] lstm1_transform_16 -> W_hc_h_15
I0228 21:33:08.744714 13998 net.cpp:122] Setting up lstm1_transform_16
I0228 21:33:08.744719 13998 net.cpp:129] Top shape: 1 13 64 (832)
I0228 21:33:08.744722 13998 net.cpp:137] Memory required for data: 278720
I0228 21:33:08.744725 13998 net.cpp:465] Sharing parameters 'W_hc' owned by layer 'lstm1_transform_1', param index 0
I0228 21:33:08.744729 13998 layer_factory.hpp:77] Creating layer lstm1_gate_input_16
I0228 21:33:08.744734 13998 net.cpp:84] Creating Layer lstm1_gate_input_16
I0228 21:33:08.744736 13998 net.cpp:406] lstm1_gate_input_16 <- W_hc_h_15
I0228 21:33:08.744740 13998 net.cpp:406] lstm1_gate_input_16 <- W_xc_x_16
I0228 21:33:08.744745 13998 net.cpp:380] lstm1_gate_input_16 -> gate_input_16
I0228 21:33:08.744760 13998 net.cpp:122] Setting up lstm1_gate_input_16
I0228 21:33:08.744765 13998 net.cpp:129] Top shape: 1 13 64 (832)
I0228 21:33:08.744768 13998 net.cpp:137] Memory required for data: 282048
I0228 21:33:08.744771 13998 layer_factory.hpp:77] Creating layer lstm1_unit_16
I0228 21:33:08.744776 13998 net.cpp:84] Creating Layer lstm1_unit_16
I0228 21:33:08.744781 13998 net.cpp:406] lstm1_unit_16 <- c_15
I0228 21:33:08.744786 13998 net.cpp:406] lstm1_unit_16 <- gate_input_16
I0228 21:33:08.744791 13998 net.cpp:406] lstm1_unit_16 <- cont_16_lstm1_cont_slice_15_split_1
I0228 21:33:08.744796 13998 net.cpp:380] lstm1_unit_16 -> c_16
I0228 21:33:08.744817 13998 net.cpp:380] lstm1_unit_16 -> h_16
I0228 21:33:08.744841 13998 net.cpp:122] Setting up lstm1_unit_16
I0228 21:33:08.744860 13998 net.cpp:129] Top shape: 1 13 16 (208)
I0228 21:33:08.744864 13998 net.cpp:129] Top shape: 1 13 16 (208)
I0228 21:33:08.744868 13998 net.cpp:137] Memory required for data: 283712
I0228 21:33:08.744870 13998 layer_factory.hpp:77] Creating layer lstm1_
I0228 21:33:08.744875 13998 net.cpp:84] Creating Layer lstm1_
I0228 21:33:08.744879 13998 net.cpp:406] lstm1_ <- c_16
I0228 21:33:08.744884 13998 net.cpp:380] lstm1_ -> c_T
I0228 21:33:08.744894 13998 net.cpp:122] Setting up lstm1_
I0228 21:33:08.744899 13998 net.cpp:129] Top shape: 1 13 16 (208)
I0228 21:33:08.744902 13998 net.cpp:137] Memory required for data: 284544
I0228 21:33:08.744905 13998 layer_factory.hpp:77] Creating layer lstm1_h_concat
I0228 21:33:08.747136 13998 net.cpp:84] Creating Layer lstm1_h_concat
I0228 21:33:08.747146 13998 net.cpp:406] lstm1_h_concat <- h_1_lstm1_unit_1_1_split_1
I0228 21:33:08.747151 13998 net.cpp:406] lstm1_h_concat <- h_2_lstm1_unit_2_1_split_1
…
I0228 21:33:08.774559 13998 net.cpp:200] lstm1_ does not need backward computation.
I0228 21:33:08.774561 13998 net.cpp:242] This network produces output c_T
I0228 21:33:08.774569 13998 net.cpp:242] This network produces output h_pseudoloss
I0228 21:33:08.774752 13998 net.cpp:255] Network initialization done.
I0228 21:33:08.774874 13998 recurrent_layer.cpp:150] Adding parameter 0: W_xc
I0228 21:33:08.774880 13998 recurrent_layer.cpp:150] Adding parameter 1: b_c
I0228 21:33:08.774883 13998 recurrent_layer.cpp:150] Adding parameter 2: W_hc
I0228 21:33:08.775010 13998 net.cpp:122] Setting up lstm1
I0228 21:33:08.775022 13998 net.cpp:129] Top shape: 16 13 16 (3328)
I0228 21:33:08.775025 13998 net.cpp:137] Memory required for data: 17536
I0228 21:33:08.775048 13998 layer_factory.hpp:77] Creating layer lstm2
I0228 21:33:08.775056 13998 net.cpp:84] Creating Layer lstm2
I0228 21:33:08.775060 13998 net.cpp:406] lstm2 <- lstm1
I0228 21:33:08.775065 13998 net.cpp:406] lstm2 <- clip_Input_1_split_1
I0228 21:33:08.775070 13998 net.cpp:380] lstm2 -> lstm2
I0228 21:33:08.775076 13998 recurrent_layer.cpp:20] Initializing recurrent layer: assuming input batch contains 16 timesteps of 13 independent streams.
I0228 21:33:08.775465 13998 net.cpp:51] Initializing net from parameters: 
layer {
  name: "lstm2_"
  type: "Input"
  top: "x"
  top: "cont"
  input_param {
    shape {
      dim: 16
      dim: 13
      dim: 16
    }
    shape {
      dim: 16
      dim: 13
    }
  }
}
layer {
  name: "lstm2_"
  type: "Input"
  top: "c_0"
  top: "h_0"
  input_param {
    shape {
      dim: 1
      dim: 13
      dim: 16
    }
    shape {
      dim: 1
      dim: 13
      dim: 16
    }
  }
}
layer {
  name: "lstm2_cont_slice"
  type: "Slice"
  bottom: "cont"
  top: "cont_1"
  top: "cont_2"
  top: "cont_3"
  top: "cont_4"
  top: "cont_5"
  top: "cont_6"
  top: "cont_7"
  top: "cont_8"
  top: "cont_9"
  top: "cont_10"
  top: "cont_11"
  top: "cont_12"
  top: "cont_13"
  top: "cont_14"
  top: "cont_15"
  top: "cont_16"
  slice_param {
    axis: 0
  }
}
layer {
  name: "lstm2_x_transform"
  type: "InnerProduct"
  bottom: "x"
  top: "W_xc_x"
  param {
    name: "W_xc"
  }
  param {
    name: "b_c"
  }
  propagate_down: true
  inner_product_param {
    num_output: 64
    bias_term: true
    weight_filler {
      type: "xavier"
    }
    bias_filler {
      type: "constant"
    }
    axis: 2
  }
}
layer {
  name: "lstm2_W_xc_x_slice"
  type: "Slice"
  bottom: "W_xc_x"
  top: "W_xc_x_1"
  top: "W_xc_x_2"
  top: "W_xc_x_3"
  top: "W_xc_x_4"
  top: "W_xc_x_5"
  top: "W_xc_x_6"
  top: "W_xc_x_7"
  top: "W_xc_x_8"
  top: "W_xc_x_9"
  top: "W_xc_x_10"
  top: "W_xc_x_11"
  top: "W_xc_x_12"
  top: "W_xc_x_13"
  top: "W_xc_x_14"
  top: "W_xc_x_15"
  top: "W_xc_x_16"
  slice_param {
    axis: 0
  }
}
layer {
  name: "lstm2_h_conted_0"
  type: "Scale"
  bottom: "h_0"
  bottom: "cont_1"
  top: "h_conted_0"
  scale_param {
    axis: 0
  }
}
layer {
  name: "lstm2_transform_1"
  type: "InnerProduct"
  bottom: "h_conted_0"
  top: "W_hc_h_0"
  param {
    name: "W_hc"
  }
  inner_product_param {
    num_output: 64
    bias_term: false
    weight_filler {
      type: "xavier"
    }
    axis: 2
  }
}
layer {
  name: "lstm2_gate_input_1"
  type: "Eltwise"
  bottom: "W_hc_h_0"
  bottom: "W_xc_x_1"
  top: "gate_input_1"
  eltwise_param {
    operation: SUM
  }
}
layer {
  name: "lstm2_unit_1"
  type: "LSTMUnit"
  bottom: "c_0"
  bottom: "gate_input_1"
  bottom: "cont_1"
  top: "c_1"
  top: "h_1"
}
layer {
  name: "lstm2_h_conted_1"
  type: "Scale"
  bottom: "h_1"
  bottom: "cont_2"
  top: "h_conted_1"
  scale_param {
    axis: 0
  }
}
layer {
  name: "lstm2_transform_2"
  type: "InnerProduct"
  bottom: "h_conted_1"
  top: "W_hc_h_1"
  param {
    name: "W_hc"
  }
  inner_product_param {
    num_output: 64
    bias_term: false
    weight_filler {
      type: "xavier"
    }
    axis: 2
  }
}
layer {
  name: "lstm2_gate_input_2"
  type: "Eltwise"
  bottom: "W_hc_h_1"
  bottom: "W_xc_x_2"
  top: "gate_input_2"
  eltwise_param {
    operation: SUM
  }
}
layer {
  name: "lstm2_unit_2"
  type: "LSTMUnit"
  bottom: "c_1"
  bottom: "gate_input_2"
  bottom: "cont_2"
  top: "c_2"
  top: "h_2"
}
layer {
  name: "lstm2_h_conted_2"
  type: "Scale"
  bottom: "h_2"
  bottom: "cont_3"
  top: "h_conted_2"
  scale_param {
    axis: 0
  }
}
layer {
  name: "lstm2_transform_3"
  type: "InnerProduct"
  bottom: "h_conted_2"
  top: "W_hc_h_2"
  param {
    name: "W_hc"
  }
  inner_product_param {
    num_output: 64
    bias_term: false
    weight_filler {
      type: "xavier"
    }
    axis: 2
  }
}
layer {
  name: "lstm2_gate_input_3"
  type: "Eltwise"
  bottom: "W_hc_h_2"
  bottom: "W_xc_x_3"
  top: "gate_input_3"
  eltwise_param {
    operation: SUM
  }
}
layer {
  name: "lstm2_unit_3"
  type: "LSTMUnit"
  bottom: "c_2"
  bottom: "gate_input_3"
  bottom: "cont_3"
  top: "c_3"
  top: "h_3"
}
layer {
  name: "lstm2_h_conted_3"
  type: "Scale"
  bottom: "h_3"
  bottom: "cont_4"
  top: "h_conted_3"
  scale_param {
    axis: 0
  }
}
layer {
  name: "lstm2_transform_4"
  type: "InnerProduct"
  bottom: "h_conted_3"
  top: "W_hc_h_3"
  param {
    name: "W_hc"
  }
  inner_product_param {
    num_output: 64
    bias_term: false
    weight_filler {
      type: "xavier"
    }
    axis: 2
  }
}
layer {
  name: "lstm2_gate_input_4"
  type: "Eltwise"
  bottom: "W_hc_h_3"
  bottom: "W_xc_x_4"
  top: "gate_input_4"
  eltwise_param {
    operation: SUM
  }
}
layer {
  name: "lstm2_unit_4"
  type: "LSTMUnit"
  bottom: "c_3"
  bottom: "gate_input_4"
  bottom: "cont_4"
  top: "c_4"
  top: "h_4"
}
layer {
  name: "lstm2_h_conted_4"
  type: "Scale"
  bottom: "h_4"
  bottom: "cont_5"
  top: "h_conted_4"
  scale_param {
    axis: 0
  }
}
layer {
  name: "lstm2_transform_5"
  type: "InnerProduct"
  bottom: "h_conted_4"
  top: "W_hc_h_4"
  param {
    name: "W_hc"
  }
  inner_product_param {
    num_output: 64
    bias_term: false
    weight_filler {
      type: "xavier"
    }
    axis: 2
  }
}
layer {
  name: "lstm2_gate_input_5"
  type: "Eltwise"
  bottom: "W_hc_h_4"
  bottom: "W_xc_x_5"
  top: "gate_input_5"
  eltwise_param {
    operation: SUM
  }
}
layer {
  name: "lstm2_unit_5"
  type: "LSTMUnit"
  bottom: "c_4"
  bottom: "gate_input_5"
  bottom: "cont_5"
  top: "c_5"
  top: "h_5"
}
layer {
  name: "lstm2_h_conted_5"
  type: "Scale"
  bottom: "h_5"
  bottom: "cont_6"
  top: "h_conted_5"
  scale_param {
    axis: 0
  }
}
layer {
  name: "lstm2_transform_6"
  type: "InnerProduct"
  bottom: "h_conted_5"
  top: "W_hc_h_5"
  param {
    name: "W_hc"
  }
  inner_product_param {
    num_output: 64
    bias_term: false
    weight_filler {
      type: "xavier"
    }
    axis: 2
  }
}
layer {
  name: "lstm2_gate_input_6"
  type: "Eltwise"
  bottom: "W_hc_h_5"
  bottom: "W_xc_x_6"
  top: "gate_input_6"
  eltwise_param {
    operation: SUM
  }
}
layer {
  name: "lstm2_unit_6"
  type: "LSTMUnit"
  bottom: "c_5"
  bottom: "gate_input_6"
  bottom: "cont_6"
  top: "c_6"
  top: "h_6"
}
layer {
  name: "lstm2_h_conted_6"
  type: "Scale"
  bottom: "h_6"
  bottom: "cont_7"
  top: "h_conted_6"
  scale_param {
    axis: 0
  }
}
layer {
  name: "lstm2_transform_7"
  type: "InnerProduct"
  bottom: "h_conted_6"
  top: "W_hc_h_6"
  param {
    name: "W_hc"
  }
  inner_product_param {
    num_output: 64
    bias_term: false
    weight_filler {
      type: "xavier"
    }
    axis: 2
  }
}
layer {
  name: "lstm2_gate_input_7"
  type: "Eltwise"
  bottom: "W_hc_h_6"
  bottom: "W_xc_x_7"
  top: "gate_input_7"
  eltwise_param {
    operation: SUM
  }
}
layer {
  name: "lstm2_unit_7"
  type: "LSTMUnit"
  bottom: "c_6"
  bottom: "gate_input_7"
  bottom: "cont_7"
  top: "c_7"
  top: "h_7"
}
layer {
  name: "lstm2_h_conted_7"
  type: "Scale"
  bottom: "h_7"
  bottom: "cont_8"
  top: "h_conted_7"
  scale_param {
    axis: 0
  }
}
layer {
  name: "lstm2_transform_8"
  type: "InnerProduct"
  bottom: "h_conted_7"
  top: "W_hc_h_7"
  param {
    name: "W_hc"
  }
  inner_product_param {
    num_output: 64
    bias_term: false
    weight_filler {
      type: "xavier"
    }
    axis: 2
  }
}
layer {
  name: "lstm2_gate_input_8"
  type: "Eltwise"
  bottom: "W_hc_h_7"
  bottom: "W_xc_x_8"
  top: "gate_input_8"
  eltwise_param {
    operation: SUM
  }
}
layer {
  name: "lstm2_unit_8"
  type: "LSTMUnit"
  bottom: "c_7"
  bottom: "gate_input_8"
  bottom: "cont_8"
  top: "c_8"
  top: "h_8"
}
layer {
  name: "lstm2_h_conted_8"
  type: "Scale"
  bottom: "h_8"
  bottom: "cont_9"
  top: "h_conted_8"
  scale_param {
    axis: 0
  }
}
layer {
  name: "lstm2_transform_9"
  type: "InnerProduct"
  bottom: "h_conted_8"
  top: "W_hc_h_8"
  param {
    name: "W_hc"
  }
  inner_product_param {
    num_output: 64
    bias_term: false
    weight_filler {
      type: "xavier"
    }
    axis: 2
  }
}
layer {
  name: "lstm2_gate_input_9"
  type: "Eltwise"
  bottom: "W_hc_h_8"
  bottom: "W_xc_x_9"
  top: "gate_input_9"
  eltwise_param {
    operation: SUM
  }
}
layer {
  name: "lstm2_unit_9"
  type: "LSTMUnit"
  bottom: "c_8"
  bottom: "gate_input_9"
  bottom: "cont_9"
  top: "c_9"
  top: "h_9"
}
layer {
  name: "lstm2_h_conted_9"
  type: "Scale"
  bottom: "h_9"
  bottom: "cont_10"
  top: "h_conted_9"
  scale_param {
    axis: 0
  }
}
layer {
  name: "lstm2_transform_10"
  type: "InnerProduct"
  bottom: "h_conted_9"
  top: "W_hc_h_9"
  param {
    name: "W_hc"
  }
  inner_product_param {
    num_output: 64
    bias_term: false
    weight_filler {
      type: "xavier"
    }
    axis: 2
  }
}
layer {
  name: "lstm2_gate_input_10"
  type: "Eltwise"
  bottom: "W_hc_h_9"
  bottom: "W_xc_x_10"
  top: "gate_input_10"
  eltwise_param {
    operation: SUM
  }
}
layer {
  name: "lstm2_unit_10"
  type: "LSTMUnit"
  bottom: "c_9"
  bottom: "gate_input_10"
  bottom: "cont_10"
  top: "c_10"
  top: "h_10"
}
layer {
  name: "lstm2_h_conted_10"
  type: "Scale"
  bottom: "h_10"
  bottom: "cont_11"
  top: "h_conted_10"
  scale_param {
    axis: 0
  }
}
layer {
  name: "lstm2_transform_11"
  type: "InnerProduct"
  bottom: "h_conted_10"
  top: "W_hc_h_10"
  param {
    name: "W_hc"
  }
  inner_product_param {
    num_output: 64
    bias_term: false
    weight_filler {
      type: "xavier"
    }
    axis: 2
  }
}
layer {
  name: "lstm2_gate_input_11"
  type: "Eltwise"
  bottom: "W_hc_h_10"
  bottom: "W_xc_x_11"
  top: "gate_input_11"
  eltwise_param {
    operation: SUM
  }
}
layer {
  name: "lstm2_unit_11"
  type: "LSTMUnit"
  bottom: "c_10"
  bottom: "gate_input_11"
  bottom: "cont_11"
  top: "c_11"
  top: "h_11"
}
layer {
  name: "lstm2_h_conted_11"
  type: "Scale"
  bottom: "h_11"
  bottom: "cont_12"
  top: "h_conted_11"
  scale_param {
    axis: 0
  }
}
layer {
  name: "lstm2_transform_12"
  type: "InnerProduct"
  bottom: "h_conted_11"
  top: "W_hc_h_11"
  param {
    name: "W_hc"
  }
  inner_product_param {
    num_output: 64
    bias_term: false
    weight_filler {
      type: "xavier"
    }
    axis: 2
  }
}
layer {
  name: "lstm2_gate_input_12"
  type: "Eltwise"
  bottom: "W_hc_h_11"
  bottom: "W_xc_x_12"
  top: "gate_input_12"
  eltwise_param {
    operation: SUM
  }
}
layer {
  name: "lstm2_unit_12"
  type: "LSTMUnit"
  bottom: "c_11"
  bottom: "gate_input_12"
  bottom: "cont_12"
  top: "c_12"
  top: "h_12"
}
layer {
  name: "lstm2_h_conted_12"
  type: "Scale"
  bottom: "h_12"
  bottom: "cont_13"
  top: "h_conted_12"
  scale_param {
    axis: 0
  }
}
layer {
  name: "lstm2_transform_13"
  type: "InnerProduct"
  bottom: "h_conted_12"
  top: "W_hc_h_12"
  param {
    name: "W_hc"
  }
  inner_product_param {
    num_output: 64
    bias_term: false
    weight_filler {
      type: "xavier"
    }
    axis: 2
  }
}
layer {
  name: "lstm2_gate_input_13"
  type: "Eltwise"
  bottom: "W_hc_h_12"
  bottom: "W_xc_x_13"
  top: "gate_input_13"
  eltwise_param {
    operation: SUM
  }
}
layer {
  name: "lstm2_unit_13"
  type: "LSTMUnit"
  bottom: "c_12"
  bottom: "gate_input_13"
  bottom: "cont_13"
  top: "c_13"
  top: "h_13"
}
layer {
  name: "lstm2_h_conted_13"
  type: "Scale"
  bottom: "h_13"
  bottom: "cont_14"
  top: "h_conted_13"
  scale_param {
    axis: 0
  }
}
layer {
  name: "lstm2_transform_14"
  type: "InnerProduct"
  bottom: "h_conted_13"
  top: "W_hc_h_13"
  param {
    name: "W_hc"
  }
  inner_product_param {
    num_output: 64
    bias_term: false
    weight_filler {
      type: "xavier"
    }
    axis: 2
  }
}
layer {
  name: "lstm2_gate_input_14"
  type: "Eltwise"
  bottom: "W_hc_h_13"
  bottom: "W_xc_x_14"
  top: "gate_input_14"
  eltwise_param {
    operation: SUM
  }
}
layer {
  name: "lstm2_unit_14"
  type: "LSTMUnit"
  bottom: "c_13"
  bottom: "gate_input_14"
  bottom: "cont_14"
  top: "c_14"
  top: "h_14"
}
layer {
  name: "lstm2_h_conted_14"
  type: "Scale"
  bottom: "h_14"
  bottom: "cont_15"
  top: "h_conted_14"
  scale_param {
    axis: 0
  }
}
layer {
  name: "lstm2_transform_15"
  type: "InnerProduct"
  bottom: "h_conted_14"
  top: "W_hc_h_14"
  param {
    name: "W_hc"
  }
  inner_product_param {
    num_output: 64
    bias_term: false
    weight_filler {
      type: "xavier"
    }
    axis: 2
  }
}
layer {
  name: "lstm2_gate_input_15"
  type: "Eltwise"
  bottom: "W_hc_h_14"
  bottom: "W_xc_x_15"
  top: "gate_input_15"
  eltwise_param {
    operation: SUM
  }
}
layer {
  name: "lstm2_unit_15"
  type: "LSTMUnit"
  bottom: "c_14"
  bottom: "gate_input_15"
  bottom: "cont_15"
  top: "c_15"
  top: "h_15"
}
layer {
  name: "lstm2_h_conted_15"
  type: "Scale"
  bottom: "h_15"
  bottom: "cont_16"
  top: "h_conted_15"
  scale_param {
    axis: 0
  }
}
layer {
  name: "lstm2_transform_16"
  type: "InnerProduct"
  bottom: "h_conted_15"
  top: "W_hc_h_15"
  param {
    name: "W_hc"
  }
  inner_product_param {
    num_output: 64
    bias_term: false
    weight_filler {
      type: "xavier"
    }
    axis: 2
  }
}
layer {
  name: "lstm2_gate_input_16"
  type: "Eltwise"
  bottom: "W_hc_h_15"
  bottom: "W_xc_x_16"
  top: "gate_input_16"
  eltwise_param {
    operation: SUM
  }
}
layer {
  name: "lstm2_unit_16"
  type: "LSTMUnit"
  bottom: "c_15"
  bottom: "gate_input_16"
  bottom: "cont_16"
  top: "c_16"
  top: "h_16"
}
layer {
  name: "lstm2_"
  type: "Split"
  bottom: "c_16"
  top: "c_T"
}
layer {
  name: "lstm2_h_concat"
  type: "Concat"
  bottom: "h_1"
  bottom: "h_2"
  bottom: "h_3"
  bottom: "h_4"
  bottom: "h_5"
  bottom: "h_6"
  bottom: "h_7"
  bottom: "h_8"
  bottom: "h_9"
  bottom: "h_10"
  bottom: "h_11"
  bottom: "h_12"
  bottom: "h_13"
  bottom: "h_14"
  bottom: "h_15"
  bottom: "h_16"
  top: "h"
  concat_param {
    axis: 0
  }
}
layer {
  name: "h_pseudoloss"
  type: "Reduction"
  bottom: "h"
  top: "h_pseudoloss"
  loss_weight: 1
}
I0228 21:33:08.804958 13998 layer_factory.hpp:77] Creating layer lstm2_
I0228 21:33:08.804980 13998 net.cpp:84] Creating Layer lstm2_
I0228 21:33:08.804986 13998 net.cpp:380] lstm2_ -> x
I0228 21:33:08.804996 13998 net.cpp:380] lstm2_ -> cont
I0228 21:33:08.805047 13998 net.cpp:122] Setting up lstm2_
I0228 21:33:08.805058 13998 net.cpp:129] Top shape: 16 13 16 (3328)
I0228 21:33:08.805063 13998 net.cpp:129] Top shape: 16 13 (208)
I0228 21:33:08.805065 13998 net.cpp:137] Memory required for data: 14144
I0228 21:33:08.805069 13998 layer_factory.hpp:77] Creating layer lstm2_
I0228 21:33:08.805074 13998 net.cpp:84] Creating Layer lstm2_
I0228 21:33:08.805078 13998 net.cpp:380] lstm2_ -> c_0
I0228 21:33:08.805084 13998 net.cpp:380] lstm2_ -> h_0
I0228 21:33:08.805109 13998 net.cpp:122] Setting up lstm2_
I0228 21:33:08.805114 13998 net.cpp:129] Top shape: 1 13 16 (208)
I0228 21:33:08.805119 13998 net.cpp:129] Top shape: 1 13 16 (208)
I0228 21:33:08.805121 13998 net.cpp:137] Memory required for data: 15808
I0228 21:33:08.805125 13998 layer_factory.hpp:77] Creating layer lstm2_cont_slice
I0228 21:33:08.805131 13998 net.cpp:84] Creating Layer lstm2_cont_slice
I0228 21:33:08.805135 13998 net.cpp:406] lstm2_cont_slice <- cont
I0228 21:33:08.805142 13998 net.cpp:380] lstm2_cont_slice -> cont_1
I0228 21:33:08.805150 13998 net.cpp:380] lstm2_cont_slice -> cont_2
…
