…
  top: "data"
  data_param {
    source: "/home/leonida/ThesisCode/LSTM_on_Create2/NavDatabases/LAB-21-2-new-step-condition/states_db-2-21-15-4_lmdb"
    batch_size: 24
    backend: LMDB
  }
}
layer {
  name: "label"
  type: "Data"
  top: "labels"
  data_param {
    source: "/home/leonida/ThesisCode/LSTM_on_Create2/NavDatabases/LAB-21-2-new-step-condition/labels_db-2-21-15-4_twist-variant_lmdb"
    batch_size: 24
    backend: LMDB
  }
}
layer {
  name: "clip"
  type: "Input"
  top: "clip"
  input_param {
    shape {
      dim: 24
      dim: 26
    }
  }
}
layer {
  name: "lstm1"
  type: "LSTM"
  bottom: "data"
  bottom: "clip"
  top: "lstm1"
  recurrent_param {
    num_output: 64
    weight_filler {
      type: "xavier"
    }
    bias_filler {
      type: "constant"
    }
  }
}
layer {
  name: "out"
  type: "InnerProduct"
  bottom: "lstm1"
  top: "out"
  inner_product_param {
    num_output: 2
    weight_filler {
      type: "gaussian"
      std: 0.1
    }
    bias_filler {
      type: "constant"
    }
  }
}
layer {
  name: "euclideanLoss"
  type: "EuclideanLoss"
  bottom: "out"
  bottom: "labels"
  top: "loss"
}
I0222 17:41:07.577997 25054 layer_factory.hpp:77] Creating layer data
I0222 17:41:07.578066 25054 db_lmdb.cpp:35] Opened lmdb /home/leonida/ThesisCode/LSTM_on_Create2/NavDatabases/LAB-21-2-new-step-condition/states_db-2-21-15-4_lmdb
I0222 17:41:07.578083 25054 net.cpp:84] Creating Layer data
I0222 17:41:07.578091 25054 net.cpp:380] data -> data
I0222 17:41:07.578742 25054 data_layer.cpp:45] output data size: 24,26,1,1
I0222 17:41:07.581167 25054 net.cpp:122] Setting up data
I0222 17:41:07.581197 25054 net.cpp:129] Top shape: 24 26 1 1 (624)
I0222 17:41:07.581200 25054 net.cpp:137] Memory required for data: 2496
I0222 17:41:07.581207 25054 layer_factory.hpp:77] Creating layer label
I0222 17:41:07.581250 25054 db_lmdb.cpp:35] Opened lmdb /home/leonida/ThesisCode/LSTM_on_Create2/NavDatabases/LAB-21-2-new-step-condition/labels_db-2-21-15-4_twist-variant_lmdb
I0222 17:41:07.581279 25054 net.cpp:84] Creating Layer label
I0222 17:41:07.581284 25054 net.cpp:380] label -> labels
I0222 17:41:07.581336 25054 data_layer.cpp:45] output data size: 24,2,1,1
I0222 17:41:07.586562 25054 net.cpp:122] Setting up label
I0222 17:41:07.586597 25054 net.cpp:129] Top shape: 24 2 1 1 (48)
I0222 17:41:07.586601 25054 net.cpp:137] Memory required for data: 2688
I0222 17:41:07.586604 25054 layer_factory.hpp:77] Creating layer clip
I0222 17:41:07.586613 25054 net.cpp:84] Creating Layer clip
I0222 17:41:07.586630 25054 net.cpp:380] clip -> clip
I0222 17:41:07.586680 25054 net.cpp:122] Setting up clip
I0222 17:41:07.586701 25054 net.cpp:129] Top shape: 24 26 (624)
I0222 17:41:07.586704 25054 net.cpp:137] Memory required for data: 5184
I0222 17:41:07.586724 25054 layer_factory.hpp:77] Creating layer lstm1
I0222 17:41:07.586733 25054 net.cpp:84] Creating Layer lstm1
I0222 17:41:07.586748 25054 net.cpp:406] lstm1 <- data
I0222 17:41:07.586768 25054 net.cpp:406] lstm1 <- clip
I0222 17:41:07.586772 25054 net.cpp:380] lstm1 -> lstm1
I0222 17:41:07.586796 25054 recurrent_layer.cpp:20] Initializing recurrent layer: assuming input batch contains 24 timesteps of 26 independent streams.
I0222 17:41:07.587302 25054 net.cpp:51] Initializing net from parameters: 
layer {
  name: "lstm1_"
  type: "Input"
  top: "x"
  top: "cont"
  input_param {
    shape {
      dim: 24
      dim: 26
      dim: 1
      dim: 1
    }
    shape {
      dim: 24
      dim: 26
    }
  }
}
layer {
  name: "lstm1_"
  type: "Input"
  top: "c_0"
  top: "h_0"
  input_param {
    shape {
      dim: 1
      dim: 26
      dim: 64
    }
    shape {
      dim: 1
      dim: 26
      dim: 64
    }
  }
}
layer {
  name: "lstm1_cont_slice"
  type: "Slice"
  bottom: "cont"
  top: "cont_1"
  top: "cont_2"
  top: "cont_3"
  top: "cont_4"
  top: "cont_5"
  top: "cont_6"
  top: "cont_7"
  top: "cont_8"
  top: "cont_9"
  top: "cont_10"
  top: "cont_11"
  top: "cont_12"
  top: "cont_13"
  top: "cont_14"
  top: "cont_15"
  top: "cont_16"
  top: "cont_17"
  top: "cont_18"
  top: "cont_19"
  top: "cont_20"
  top: "cont_21"
  top: "cont_22"
  top: "cont_23"
  top: "cont_24"
  slice_param {
    axis: 0
  }
}
layer {
  name: "lstm1_x_transform"
  type: "InnerProduct"
  bottom: "x"
  top: "W_xc_x"
  param {
    name: "W_xc"
  }
  param {
    name: "b_c"
  }
  propagate_down: true
  inner_product_param {
    num_output: 256
    bias_term: true
    weight_filler {
      type: "xavier"
    }
    bias_filler {
      type: "constant"
    }
    axis: 2
  }
}
layer {
  name: "lstm1_W_xc_x_slice"
  type: "Slice"
  bottom: "W_xc_x"
  top: "W_xc_x_1"
  top: "W_xc_x_2"
  top: "W_xc_x_3"
  top: "W_xc_x_4"
  top: "W_xc_x_5"
  top: "W_xc_x_6"
  top: "W_xc_x_7"
  top: "W_xc_x_8"
  top: "W_xc_x_9"
  top: "W_xc_x_10"
  top: "W_xc_x_11"
  top: "W_xc_x_12"
  top: "W_xc_x_13"
  top: "W_xc_x_14"
  top: "W_xc_x_15"
  top: "W_xc_x_16"
  top: "W_xc_x_17"
  top: "W_xc_x_18"
  top: "W_xc_x_19"
  top: "W_xc_x_20"
  top: "W_xc_x_21"
  top: "W_xc_x_22"
  top: "W_xc_x_23"
  top: "W_xc_x_24"
  slice_param {
    axis: 0
  }
}
layer {
  name: "lstm1_h_conted_0"
  type: "Scale"
  bottom: "h_0"
  bottom: "cont_1"
  top: "h_conted_0"
  scale_param {
    axis: 0
  }
}
layer {
  name: "lstm1_transform_1"
  type: "InnerProduct"
  bottom: "h_conted_0"
  top: "W_hc_h_0"
  param {
    name: "W_hc"
  }
  inner_product_param {
    num_output: 256
    bias_term: false
    weight_filler {
      type: "xavier"
    }
    axis: 2
  }
}
layer {
  name: "lstm1_gate_input_1"
  type: "Eltwise"
  bottom: "W_hc_h_0"
  bottom: "W_xc_x_1"
  top: "gate_input_1"
  eltwise_param {
    operation: SUM
  }
}
layer {
  name: "lstm1_unit_1"
  type: "LSTMUnit"
  bottom: "c_0"
  bottom: "gate_input_1"
  bottom: "cont_1"
  top: "c_1"
  top: "h_1"
}
layer {
  name: "lstm1_h_conted_1"
  type: "Scale"
  bottom: "h_1"
  bottom: "cont_2"
  top: "h_conted_1"
  scale_param {
    axis: 0
  }
}
layer {
  name: "lstm1_transform_2"
  type: "InnerProduct"
  bottom: "h_conted_1"
  top: "W_hc_h_1"
  param {
    name: "W_hc"
  }
  inner_product_param {
    num_output: 256
    bias_term: false
    weight_filler {
      type: "xavier"
    }
    axis: 2
  }
}
layer {
  name: "lstm1_gate_input_2"
  type: "Eltwise"
  bottom: "W_hc_h_1"
  bottom: "W_xc_x_2"
  top: "gate_input_2"
  eltwise_param {
    operation: SUM
  }
}
layer {
  name: "lstm1_unit_2"
  type: "LSTMUnit"
  bottom: "c_1"
  bottom: "gate_input_2"
  bottom: "cont_2"
  top: "c_2"
  top: "h_2"
}
layer {
  name: "lstm1_h_conted_2"
  type: "Scale"
  bottom: "h_2"
  bottom: "cont_3"
  top: "h_conted_2"
  scale_param {
    axis: 0
  }
}
layer {
  name: "lstm1_transform_3"
  type: "InnerProduct"
  bottom: "h_conted_2"
  top: "W_hc_h_2"
  param {
    name: "W_hc"
  }
  inner_product_param {
    num_output: 256
    bias_term: false
    weight_filler {
      type: "xavier"
    }
    axis: 2
  }
}
layer {
  name: "lstm1_gate_input_3"
  type: "Eltwise"
  bottom: "W_hc_h_2"
  bottom: "W_xc_x_3"
  top: "gate_input_3"
  eltwise_param {
    operation: SUM
  }
}
layer {
  name: "lstm1_unit_3"
  type: "LSTMUnit"
  bottom: "c_2"
  bottom: "gate_input_3"
  bottom: "cont_3"
  top: "c_3"
  top: "h_3"
}
layer {
  name: "lstm1_h_conted_3"
  type: "Scale"
  bottom: "h_3"
  bottom: "cont_4"
  top: "h_conted_3"
  scale_param {
    axis: 0
  }
}
layer {
  name: "lstm1_transform_4"
  type: "InnerProduct"
  bottom: "h_conted_3"
  top: "W_hc_h_3"
  param {
    name: "W_hc"
  }
  inner_product_param {
    num_output: 256
    bias_term: false
    weight_filler {
      type: "xavier"
    }
    axis: 2
  }
}
layer {
  name: "lstm1_gate_input_4"
  type: "Eltwise"
  bottom: "W_hc_h_3"
  bottom: "W_xc_x_4"
  top: "gate_input_4"
  eltwise_param {
    operation: SUM
  }
}
layer {
  name: "lstm1_unit_4"
  type: "LSTMUnit"
  bottom: "c_3"
  bottom: "gate_input_4"
  bottom: "cont_4"
  top: "c_4"
  top: "h_4"
}
layer {
  name: "lstm1_h_conted_4"
  type: "Scale"
  bottom: "h_4"
  bottom: "cont_5"
  top: "h_conted_4"
  scale_param {
    axis: 0
  }
}
layer {
  name: "lstm1_transform_5"
  type: "InnerProduct"
  bottom: "h_conted_4"
  top: "W_hc_h_4"
  param {
    name: "W_hc"
  }
  inner_product_param {
    num_output: 256
    bias_term: false
    weight_filler {
      type: "xavier"
    }
    axis: 2
  }
}
layer {
  name: "lstm1_gate_input_5"
  type: "Eltwise"
  bottom: "W_hc_h_4"
  bottom: "W_xc_x_5"
  top: "gate_input_5"
  eltwise_param {
    operation: SUM
  }
}
layer {
  name: "lstm1_unit_5"
  type: "LSTMUnit"
  bottom: "c_4"
  bottom: "gate_input_5"
  bottom: "cont_5"
  top: "c_5"
  top: "h_5"
}
layer {
  name: "lstm1_h_conted_5"
  type: "Scale"
  bottom: "h_5"
  bottom: "cont_6"
  top: "h_conted_5"
  scale_param {
    axis: 0
  }
}
layer {
  name: "lstm1_transform_6"
  type: "InnerProduct"
  bottom: "h_conted_5"
  top: "W_hc_h_5"
  param {
    name: "W_hc"
  }
  inner_product_param {
    num_output: 256
    bias_term: false
    weight_filler {
      type: "xavier"
    }
    axis: 2
  }
}
layer {
  name: "lstm1_gate_input_6"
  type: "Eltwise"
  bottom: "W_hc_h_5"
  bottom: "W_xc_x_6"
  top: "gate_input_6"
  eltwise_param {
    operation: SUM
  }
}
layer {
  name: "lstm1_unit_6"
  type: "LSTMUnit"
  bottom: "c_5"
  bottom: "gate_input_6"
  bottom: "cont_6"
  top: "c_6"
  top: "h_6"
}
layer {
  name: "lstm1_h_conted_6"
  type: "Scale"
  bottom: "h_6"
  bottom: "cont_7"
  top: "h_conted_6"
  scale_param {
    axis: 0
  }
}
layer {
  name: "lstm1_transform_7"
  type: "InnerProduct"
  bottom: "h_conted_6"
  top: "W_hc_h_6"
  param {
    name: "W_hc"
  }
  inner_product_param {
    num_output: 256
    bias_term: false
    weight_filler {
      type: "xavier"
    }
    axis: 2
  }
}
layer {
  name: "lstm1_gate_input_7"
  type: "Eltwise"
  bottom: "W_hc_h_6"
  bottom: "W_xc_x_7"
  top: "gate_input_7"
  eltwise_param {
    operation: SUM
  }
}
layer {
  name: "lstm1_unit_7"
  type: "LSTMUnit"
  bottom: "c_6"
  bottom: "gate_input_7"
  bottom: "cont_7"
  top: "c_7"
  top: "h_7"
}
layer {
  name: "lstm1_h_conted_7"
  type: "Scale"
  bottom: "h_7"
  bottom: "cont_8"
  top: "h_conted_7"
  scale_param {
    axis: 0
  }
}
layer {
  name: "lstm1_transform_8"
  type: "InnerProduct"
  bottom: "h_conted_7"
  top: "W_hc_h_7"
  param {
    name: "W_hc"
  }
  inner_product_param {
    num_output: 256
    bias_term: false
    weight_filler {
      type: "xavier"
    }
    axis: 2
  }
}
layer {
  name: "lstm1_gate_input_8"
  type: "Eltwise"
  bottom: "W_hc_h_7"
  bottom: "W_xc_x_8"
  top: "gate_input_8"
  eltwise_param {
    operation: SUM
  }
}
layer {
  name: "lstm1_unit_8"
  type: "LSTMUnit"
  bottom: "c_7"
  bottom: "gate_input_8"
  bottom: "cont_8"
  top: "c_8"
  top: "h_8"
}
layer {
  name: "lstm1_h_conted_8"
  type: "Scale"
  bottom: "h_8"
  bottom: "cont_9"
  top: "h_conted_8"
  scale_param {
    axis: 0
  }
}
layer {
  name: "lstm1_transform_9"
  type: "InnerProduct"
  bottom: "h_conted_8"
  top: "W_hc_h_8"
  param {
    name: "W_hc"
  }
  inner_product_param {
    num_output: 256
    bias_term: false
    weight_filler {
      type: "xavier"
    }
    axis: 2
  }
}
layer {
  name: "lstm1_gate_input_9"
  type: "Eltwise"
  bottom: "W_hc_h_8"
  bottom: "W_xc_x_9"
  top: "gate_input_9"
  eltwise_param {
    operation: SUM
  }
}
layer {
  name: "lstm1_unit_9"
  type: "LSTMUnit"
  bottom: "c_8"
  bottom: "gate_input_9"
  bottom: "cont_9"
  top: "c_9"
  top: "h_9"
}
layer {
  name: "lstm1_h_conted_9"
  type: "Scale"
  bottom: "h_9"
  bottom: "cont_10"
  top: "h_conted_9"
  scale_param {
    axis: 0
  }
}
layer {
  name: "lstm1_transform_10"
  type: "InnerProduct"
  bottom: "h_conted_9"
  top: "W_hc_h_9"
  param {
    name: "W_hc"
  }
  inner_product_param {
    num_output: 256
    bias_term: false
    weight_filler {
      type: "xavier"
    }
    axis: 2
  }
}
layer {
  name: "lstm1_gate_input_10"
  type: "Eltwise"
  bottom: "W_hc_h_9"
  bottom: "W_xc_x_10"
  top: "gate_input_10"
  eltwise_param {
    operation: SUM
  }
}
layer {
  name: "lstm1_unit_10"
  type: "LSTMUnit"
  bottom: "c_9"
  bottom: "gate_input_10"
  bottom: "cont_10"
  top: "c_10"
  top: "h_10"
}
layer {
  name: "lstm1_h_conted_10"
  type: "Scale"
  bottom: "h_10"
  bottom: "cont_11"
  top: "h_conted_10"
  scale_param {
    axis: 0
  }
}
layer {
  name: "lstm1_transform_11"
  type: "InnerProduct"
  bottom: "h_conted_10"
  top: "W_hc_h_10"
  param {
    name: "W_hc"
  }
  inner_product_param {
    num_output: 256
    bias_term: false
    weight_filler {
      type: "xavier"
    }
    axis: 2
  }
}
layer {
  name: "lstm1_gate_input_11"
  type: "Eltwise"
  bottom: "W_hc_h_10"
  bottom: "W_xc_x_11"
  top: "gate_input_11"
  eltwise_param {
    operation: SUM
  }
}
layer {
  name: "lstm1_unit_11"
  type: "LSTMUnit"
  bottom: "c_10"
  bottom: "gate_input_11"
  bottom: "cont_11"
  top: "c_11"
  top: "h_11"
}
layer {
  name: "lstm1_h_conted_11"
  type: "Scale"
  bottom: "h_11"
  bottom: "cont_12"
  top: "h_conted_11"
  scale_param {
    axis: 0
  }
}
layer {
  name: "lstm1_transform_12"
  type: "InnerProduct"
  bottom: "h_conted_11"
  top: "W_hc_h_11"
  param {
    name: "W_hc"
  }
  inner_product_param {
    num_output: 256
    bias_term: false
    weight_filler {
      type: "xavier"
    }
    axis: 2
  }
}
layer {
  name: "lstm1_gate_input_12"
  type: "Eltwise"
  bottom: "W_hc_h_11"
  bottom: "W_xc_x_12"
  top: "gate_input_12"
  eltwise_param {
    operation: SUM
  }
}
layer {
  name: "lstm1_unit_12"
  type: "LSTMUnit"
  bottom: "c_11"
  bottom: "gate_input_12"
  bottom: "cont_12"
  top: "c_12"
  top: "h_12"
}
layer {
  name: "lstm1_h_conted_12"
  type: "Scale"
  bottom: "h_12"
  bottom: "cont_13"
  top: "h_conted_12"
  scale_param {
    axis: 0
  }
}
layer {
  name: "lstm1_transform_13"
  type: "InnerProduct"
  bottom: "h_conted_12"
  top: "W_hc_h_12"
  param {
    name: "W_hc"
  }
  inner_product_param {
    num_output: 256
    bias_term: false
    weight_filler {
      type: "xavier"
    }
    axis: 2
  }
}
layer {
  name: "lstm1_gate_input_13"
  type: "Eltwise"
  bottom: "W_hc_h_12"
  bottom: "W_xc_x_13"
  top: "gate_input_13"
  eltwise_param {
    operation: SUM
  }
}
layer {
  name: "lstm1_unit_13"
  type: "LSTMUnit"
  bottom: "c_12"
  bottom: "gate_input_13"
  bottom: "cont_13"
  top: "c_13"
  top: "h_13"
}
layer {
  name: "lstm1_h_conted_13"
  type: "Scale"
  bottom: "h_13"
  bottom: "cont_14"
  top: "h_conted_13"
  scale_param {
    axis: 0
  }
}
layer {
  name: "lstm1_transform_14"
  type: "InnerProduct"
  bottom: "h_conted_13"
  top: "W_hc_h_13"
  param {
    name: "W_hc"
  }
  inner_product_param {
    num_output: 256
    bias_term: false
    weight_filler {
      type: "xavier"
    }
    axis: 2
  }
}
layer {
  name: "lstm1_gate_input_14"
  type: "Eltwise"
  bottom: "W_hc_h_13"
  bottom: "W_xc_x_14"
  top: "gate_input_14"
  eltwise_param {
    operation: SUM
  }
}
layer {
  name: "lstm1_unit_14"
  type: "LSTMUnit"
  bottom: "c_13"
  bottom: "gate_input_14"
  bottom: "cont_14"
  top: "c_14"
  top: "h_14"
}
layer {
  name: "lstm1_h_conted_14"
  type: "Scale"
  bottom: "h_14"
  bottom: "cont_15"
  top: "h_conted_14"
  scale_param {
    axis: 0
  }
}
layer {
  name: "lstm1_transform_15"
  type: "InnerProduct"
  bottom: "h_conted_14"
  top: "W_hc_h_14"
  param {
    name: "W_hc"
  }
  inner_product_param {
    num_output: 256
    bias_term: false
    weight_filler {
      type: "xavier"
    }
    axis: 2
  }
}
layer {
  name: "lstm1_gate_input_15"
  type: "Eltwise"
  bottom: "W_hc_h_14"
  bottom: "W_xc_x_15"
  top: "gate_input_15"
  eltwise_param {
    operation: SUM
  }
}
layer {
  name: "lstm1_unit_15"
  type: "LSTMUnit"
  bottom: "c_14"
  bottom: "gate_input_15"
  bottom: "cont_15"
  top: "c_15"
  top: "h_15"
}
layer {
  name: "lstm1_h_conted_15"
  type: "Scale"
  bottom: "h_15"
  bottom: "cont_16"
  top: "h_conted_15"
  scale_param {
    axis: 0
  }
}
layer {
  name: "lstm1_transform_16"
  type: "InnerProduct"
  bottom: "h_conted_15"
  top: "W_hc_h_15"
  param {
    name: "W_hc"
  }
  inner_product_param {
    num_output: 256
    bias_term: false
    weight_filler {
      type: "xavier"
    }
    axis: 2
  }
}
layer {
  name: "lstm1_gate_input_16"
  type: "Eltwise"
  bottom: "W_hc_h_15"
  bottom: "W_xc_x_16"
  top: "gate_input_16"
  eltwise_param {
    operation: SUM
  }
}
layer {
  name: "lstm1_unit_16"
  type: "LSTMUnit"
  bottom: "c_15"
  bottom: "gate_input_16"
  bottom: "cont_16"
  top: "c_16"
  top: "h_16"
}
layer {
  name: "lstm1_h_conted_16"
  type: "Scale"
  bottom: "h_16"
  bottom: "cont_17"
  top: "h_conted_16"
  scale_param {
    axis: 0
  }
}
layer {
  name: "lstm1_transform_17"
  type: "InnerProduct"
  bottom: "h_conted_16"
  top: "W_hc_h_16"
  param {
    name: "W_hc"
  }
  inner_product_param {
    num_output: 256
    bias_term: false
    weight_filler {
      type: "xavier"
    }
    axis: 2
  }
}
layer {
  name: "lstm1_gate_input_17"
  type: "Eltwise"
  bottom: "W_hc_h_16"
  bottom: "W_xc_x_17"
  top: "gate_input_17"
  eltwise_param {
    operation: SUM
  }
}
layer {
  name: "lstm1_unit_17"
  type: "LSTMUnit"
  bottom: "c_16"
  bottom: "gate_input_17"
  bottom: "cont_17"
  top: "c_17"
  top: "h_17"
}
layer {
  name: "lstm1_h_conted_17"
  type: "Scale"
  bottom: "h_17"
  bottom: "cont_18"
  top: "h_conted_17"
  scale_param {
    axis: 0
  }
}
layer {
  name: "lstm1_transform_18"
  type: "InnerProduct"
  bottom: "h_conted_17"
  top: "W_hc_h_17"
  param {
    name: "W_hc"
  }
  inner_product_param {
    num_output: 256
    bias_term: false
    weight_filler {
      type: "xavier"
    }
    axis: 2
  }
}
layer {
  name: "lstm1_gate_input_18"
  type: "Eltwise"
  bottom: "W_hc_h_17"
  bottom: "W_xc_x_18"
  top: "gate_input_18"
  eltwise_param {
    operation: SUM
  }
}
layer {
  name: "lstm1_unit_18"
  type: "LSTMUnit"
  bottom: "c_17"
  bottom: "gate_input_18"
  bottom: "cont_18"
  top: "c_18"
  top: "h_18"
}
layer {
  name: "lstm1_h_conted_18"
  type: "Scale"
  bottom: "h_18"
  bottom: "cont_19"
  top: "h_conted_18"
  scale_param {
    axis: 0
  }
}
layer {
  name: "lstm1_transform_19"
  type: "InnerProduct"
  bottom: "h_conted_18"
  top: "W_hc_h_18"
  param {
    name: "W_hc"
  }
  inner_product_param {
    num_output: 256
    bias_term: false
    weight_filler {
      type: "xavier"
    }
    axis: 2
  }
}
layer {
  name: "lstm1_gate_input_19"
  type: "Eltwise"
  bottom: "W_hc_h_18"
  bottom: "W_xc_x_19"
  top: "gate_input_19"
  eltwise_param {
    operation: SUM
  }
}
layer {
  name: "lstm1_unit_19"
  type: "LSTMUnit"
  bottom: "c_18"
  bottom: "gate_input_19"
  bottom: "cont_19"
  top: "c_19"
  top: "h_19"
}
layer {
  name: "lstm1_h_conted_19"
  type: "Scale"
  bottom: "h_19"
  bottom: "cont_20"
  top: "h_conted_19"
  scale_param {
    axis: 0
  }
}
layer {
  name: "lstm1_transform_20"
  type: "InnerProduct"
  bottom: "h_conted_19"
  top: "W_hc_h_19"
  param {
    name: "W_hc"
  }
  inner_product_param {
    num_output: 256
    bias_term: false
    weight_filler {
      type: "xavier"
    }
    axis: 2
  }
}
layer {
  name: "lstm1_gate_input_20"
  type: "Eltwise"
  bottom: "W_hc_h_19"
  bottom: "W_xc_x_20"
  top: "gate_input_20"
  eltwise_param {
    operation: SUM
  }
}
layer {
  name: "lstm1_unit_20"
  type: "LSTMUnit"
  bottom: "c_19"
  bottom: "gate_input_20"
  bottom: "cont_20"
  top: "c_20"
  top: "h_20"
}
layer {
  name: "lstm1_h_conted_20"
  type: "Scale"
  bottom: "h_20"
  bottom: "cont_21"
  top: "h_conted_20"
  scale_param {
    axis: 0
  }
}
layer {
  name: "lstm1_transform_21"
  type: "InnerProduct"
  bottom: "h_conted_20"
  top: "W_hc_h_20"
  param {
    name: "W_hc"
  }
  inner_product_param {
    num_output: 256
    bias_term: false
    weight_filler {
      type: "xavier"
    }
    axis: 2
  }
}
layer {
  name: "lstm1_gate_input_21"
  type: "Eltwise"
  bottom: "W_hc_h_20"
  bottom: "W_xc_x_21"
  top: "gate_input_21"
  eltwise_param {
    operation: SUM
  }
}
layer {
  name: "lstm1_unit_21"
  type: "LSTMUnit"
  bottom: "c_20"
  bottom: "gate_input_21"
  bottom: "cont_21"
  top: "c_21"
  top: "h_21"
}
layer {
  name: "lstm1_h_conted_21"
  type: "Scale"
  bottom: "h_21"
  bottom: "cont_22"
  top: "h_conted_21"
  scale_param {
    axis: 0
  }
}
layer {
  name: "lstm1_transform_22"
  type: "InnerProduct"
  bottom: "h_conted_21"
  top: "W_hc_h_21"
  param {
    name: "W_hc"
  }
  inner_product_param {
    num_output: 256
    bias_term: false
    weight_filler {
      type: "xavier"
    }
    axis: 2
  }
}
layer {
  name: "lstm1_gate_input_22"
  type: "Eltwise"
  bottom: "W_hc_h_21"
  bottom: "W_xc_x_22"
  top: "gate_input_22"
  eltwise_param {
    operation: SUM
  }
}
layer {
  name: "lstm1_unit_22"
  type: "LSTMUnit"
  bottom: "c_21"
  bottom: "gate_input_22"
  bottom: "cont_22"
  top: "c_22"
  top: "h_22"
}
layer {
  name: "lstm1_h_conted_22"
  type: "Scale"
  bottom: "h_22"
  bottom: "cont_23"
  top: "h_conted_22"
  scale_param {
    axis: 0
  }
}
layer {
  name: "lstm1_transform_23"
  type: "InnerProduct"
  bottom: "h_conted_22"
  top: "W_hc_h_22"
  param {
    name: "W_hc"
  }
  inner_product_param {
    num_output: 256
    bias_term: false
    weight_filler {
      type: "xavier"
    }
    axis: 2
  }
}
layer {
  name: "lstm1_gate_input_23"
  type: "Eltwise"
  bottom: "W_hc_h_22"
  bottom: "W_xc_x_23"
  top: "gate_input_23"
  eltwise_param {
    operation: SUM
  }
}
layer {
  name: "lstm1_unit_23"
  type: "LSTMUnit"
  bottom: "c_22"
  bottom: "gate_input_23"
  bottom: "cont_23"
  top: "c_23"
  top: "h_23"
}
layer {
  name: "lstm1_h_conted_23"
  type: "Scale"
  bottom: "h_23"
  bottom: "cont_24"
  top: "h_conted_23"
  scale_param {
    axis: 0
  }
}
layer {
  name: "lstm1_transform_24"
  type: "InnerProduct"
  bottom: "h_conted_23"
  top: "W_hc_h_23"
  param {
    name: "W_hc"
  }
  inner_product_param {
    num_output: 256
    bias_term: false
    weight_filler {
      type: "xavier"
    }
    axis: 2
  }
}
layer {
  name: "lstm1_gate_input_24"
  type: "Eltwise"
  bottom: "W_hc_h_23"
  bottom: "W_xc_x_24"
  top: "gate_input_24"
  eltwise_param {
    operation: SUM
  }
}
layer {
  name: "lstm1_unit_24"
  type: "LSTMUnit"
  bottom: "c_23"
  bottom: "gate_input_24"
  bottom: "cont_24"
  top: "c_24"
  top: "h_24"
}
layer {
  name: "lstm1_"
  type: "Split"
  bottom: "c_24"
  top: "c_T"
}
layer {
  name: "lstm1_h_concat"
  type: "Concat"
  bottom: "h_1"
  bottom: "h_2"
  bottom: "h_3"
  bottom: "h_4"
  bottom: "h_5"
  bottom: "h_6"
  bottom: "h_7"
  bottom: "h_8"
  bottom: "h_9"
  bottom: "h_10"
  bottom: "h_11"
  bottom: "h_12"
  bottom: "h_13"
  bottom: "h_14"
  bottom: "h_15"
  bottom: "h_16"
  bottom: "h_17"
  bottom: "h_18"
  bottom: "h_19"
  bottom: "h_20"
  bottom: "h_21"
  bottom: "h_22"
  bottom: "h_23"
  bottom: "h_24"
  top: "h"
  concat_param {
    axis: 0
  }
}
layer {
  name: "h_pseudoloss"
  type: "Reduction"
  bottom: "h"
  top: "h_pseudoloss"
  loss_weight: 1
}
I0222 17:41:07.588150 25054 layer_factory.hpp:77] Creating layer lstm1_
I0222 17:41:07.588160 25054 net.cpp:84] Creating Layer lstm1_
I0222 17:41:07.588165 25054 net.cpp:380] lstm1_ -> x
I0222 17:41:07.588171 25054 net.cpp:380] lstm1_ -> cont
I0222 17:41:07.588196 25054 net.cpp:122] Setting up lstm1_
I0222 17:41:07.588201 25054 net.cpp:129] Top shape: 24 26 1 1 (624)
I0222 17:41:07.588205 25054 net.cpp:129] Top shape: 24 26 (624)
I0222 17:41:07.588208 25054 net.cpp:137] Memory required for data: 4992
I0222 17:41:07.588212 25054 layer_factory.hpp:77] Creating layer lstm1_
I0222 17:41:07.588222 25054 net.cpp:84] Creating Layer lstm1_
I0222 17:41:07.588227 25054 net.cpp:380] lstm1_ -> c_0
I0222 17:41:07.588232 25054 net.cpp:380] lstm1_ -> h_0
I0222 17:41:07.588250 25054 net.cpp:122] Setting up lstm1_
I0222 17:41:07.588255 25054 net.cpp:129] Top shape: 1 26 64 (1664)
I0222 17:41:07.588259 25054 net.cpp:129] Top shape: 1 26 64 (1664)
I0222 17:41:07.588263 25054 net.cpp:137] Memory required for data: 18304
I0222 17:41:07.588266 25054 layer_factory.hpp:77] Creating layer lstm1_cont_slice
I0222 17:41:07.588275 25054 net.cpp:84] Creating Layer lstm1_cont_slice
I0222 17:41:07.588279 25054 net.cpp:406] lstm1_cont_slice <- cont
I0222 17:41:07.588284 25054 net.cpp:380] lstm1_cont_slice -> cont_1
I0222 17:41:07.588290 25054 net.cpp:380] lstm1_cont_slice -> cont_2
…
I0222 17:41:07.588393 25054 net.cpp:380] lstm1_cont_slice -> cont_17
I0222 17:41:07.588402 25054 net.cpp:380] lstm1_cont_slice -> cont_18
I0222 17:41:07.588409 25054 net.cpp:380] lstm1_cont_slice -> cont_19
I0222 17:41:07.588415 25054 net.cpp:380] lstm1_cont_slice -> cont_20
I0222 17:41:07.588421 25054 net.cpp:380] lstm1_cont_slice -> cont_21
I0222 17:41:07.588433 25054 net.cpp:380] lstm1_cont_slice -> cont_22
I0222 17:41:07.588438 25054 net.cpp:380] lstm1_cont_slice -> cont_23
I0222 17:41:07.588448 25054 net.cpp:380] lstm1_cont_slice -> cont_24
I0222 17:41:07.588613 25054 net.cpp:122] Setting up lstm1_cont_slice
I0222 17:41:07.588619 25054 net.cpp:129] Top shape: 1 26 (26)
I0222 17:41:07.588624 25054 net.cpp:129] Top shape: 1 26 (26)
I0222 17:41:07.588627 25054 net.cpp:129] Top shape: 1 26 (26)
I0222 17:41:07.588630 25054 net.cpp:129] Top shape: 1 26 (26)
I0222 17:41:07.588634 25054 net.cpp:129] Top shape: 1 26 (26)
I0222 17:41:07.588637 25054 net.cpp:129] Top shape: 1 26 (26)
I0222 17:41:07.588640 25054 net.cpp:129] Top shape: 1 26 (26)
I0222 17:41:07.588644 25054 net.cpp:129] Top shape: 1 26 (26)
I0222 17:41:07.588647 25054 net.cpp:129] Top shape: 1 26 (26)
I0222 17:41:07.588650 25054 net.cpp:129] Top shape: 1 26 (26)
I0222 17:41:07.588654 25054 net.cpp:129] Top shape: 1 26 (26)
I0222 17:41:07.588657 25054 net.cpp:129] Top shape: 1 26 (26)
I0222 17:41:07.588661 25054 net.cpp:129] Top shape: 1 26 (26)
I0222 17:41:07.588665 25054 net.cpp:129] Top shape: 1 26 (26)
I0222 17:41:07.588667 25054 net.cpp:129] Top shape: 1 26 (26)
I0222 17:41:07.588671 25054 net.cpp:129] Top shape: 1 26 (26)
I0222 17:41:07.588675 25054 net.cpp:129] Top shape: 1 26 (26)
I0222 17:41:07.588678 25054 net.cpp:129] Top shape: 1 26 (26)
I0222 17:41:07.588681 25054 net.cpp:129] Top shape: 1 26 (26)
I0222 17:41:07.588685 25054 net.cpp:129] Top shape: 1 26 (26)
I0222 17:41:07.588687 25054 net.cpp:129] Top shape: 1 26 (26)
I0222 17:41:07.588691 25054 net.cpp:129] Top shape: 1 26 (26)
I0222 17:41:07.588695 25054 net.cpp:129] Top shape: 1 26 (26)
I0222 17:41:07.588697 25054 net.cpp:129] Top shape: 1 26 (26)
I0222 17:41:07.588701 25054 net.cpp:137] Memory required for data: 20800
I0222 17:41:07.588704 25054 layer_factory.hpp:77] Creating layer cont_1_lstm1_cont_slice_0_split
I0222 17:41:07.588716 25054 net.cpp:84] Creating Layer cont_1_lstm1_cont_slice_0_split
I0222 17:41:07.588719 25054 net.cpp:406] cont_1_lstm1_cont_slice_0_split <- cont_1
I0222 17:41:07.588724 25054 net.cpp:380] cont_1_lstm1_cont_slice_0_split -> cont_1_lstm1_cont_slice_0_split_0
I0222 17:41:07.613643 25054 net.cpp:380] cont_1_lstm1_cont_slice_0_split -> cont_1_lstm1_cont_slice_0_split_1
I0222 17:41:07.613692 25054 net.cpp:122] Setting up cont_1_lstm1_cont_slice_0_split
I0222 17:41:07.613698 25054 net.cpp:129] Top shape: 1 26 (26)
I0222 17:41:07.613716 25054 net.cpp:129] Top shape: 1 26 (26)
I0222 17:41:07.613720 25054 net.cpp:137] Memory required for data: 21008
I0222 17:41:07.613723 25054 layer_factory.hpp:77] Creating layer cont_2_lstm1_cont_slice_1_split
I0222 17:41:07.613730 25054 net.cpp:84] Creating Layer cont_2_lstm1_cont_slice_1_split
I0222 17:41:07.613734 25054 net.cpp:406] cont_2_lstm1_cont_slice_1_split <- cont_2
I0222 17:41:07.613739 25054 net.cpp:380] cont_2_lstm1_cont_slice_1_split -> cont_2_lstm1_cont_slice_1_split_0
I0222 17:41:07.613741 25054 net.cpp:380] cont_2_lstm1_cont_slice_1_split -> cont_2_lstm1_cont_slice_1_split_1
I0222 17:41:07.613792 25054 net.cpp:122] Setting up cont_2_lstm1_cont_slice_1_split
I0222 17:41:07.613796 25054 net.cpp:129] Top shape: 1 26 (26)
I0222 17:41:07.613800 25054 net.cpp:129] Top shape: 1 26 (26)
I0222 17:41:07.613802 25054 net.cpp:137] Memory required for data: 21216
I0222 17:41:07.613806 25054 layer_factory.hpp:77] Creating layer cont_3_lstm1_cont_slice_2_split
I0222 17:41:07.613808 25054 net.cpp:84] Creating Layer cont_3_lstm1_cont_slice_2_split
I0222 17:41:07.613811 25054 net.cpp:406] cont_3_lstm1_cont_slice_2_split <- cont_3
I0222 17:41:07.613816 25054 net.cpp:380] cont_3_lstm1_cont_slice_2_split -> cont_3_lstm1_cont_slice_2_split_0
I0222 17:41:07.613823 25054 net.cpp:380] cont_3_lstm1_cont_slice_2_split -> cont_3_lstm1_cont_slice_2_split_1
I0222 17:41:07.613842 25054 net.cpp:122] Setting up cont_3_lstm1_cont_slice_2_split
I0222 17:41:07.613847 25054 net.cpp:129] Top shape: 1 26 (26)
I0222 17:41:07.613850 25054 net.cpp:129] Top shape: 1 26 (26)
I0222 17:41:07.613853 25054 net.cpp:137] Memory required for data: 21424
I0222 17:41:07.613857 25054 layer_factory.hpp:77] Creating layer cont_4_lstm1_cont_slice_3_split
I0222 17:41:07.613860 25054 net.cpp:84] Creating Layer cont_4_lstm1_cont_slice_3_split
I0222 17:41:07.613863 25054 net.cpp:406] cont_4_lstm1_cont_slice_3_split <- cont_4
I0222 17:41:07.613871 25054 net.cpp:380] cont_4_lstm1_cont_slice_3_split -> cont_4_lstm1_cont_slice_3_split_0
I0222 17:41:07.613876 25054 net.cpp:380] cont_4_lstm1_cont_slice_3_split -> cont_4_lstm1_cont_slice_3_split_1
I0222 17:41:07.613893 25054 net.cpp:122] Setting up cont_4_lstm1_cont_slice_3_split
I0222 17:41:07.613898 25054 net.cpp:129] Top shape: 1 26 (26)
I0222 17:41:07.613903 25054 net.cpp:129] Top shape: 1 26 (26)
I0222 17:41:07.613904 25054 net.cpp:137] Memory required for data: 21632
I0222 17:41:07.613907 25054 layer_factory.hpp:77] Creating layer cont_5_lstm1_cont_slice_4_split
I0222 17:41:07.613912 25054 net.cpp:84] Creating Layer cont_5_lstm1_cont_slice_4_split
I0222 17:41:07.613915 25054 net.cpp:406] cont_5_lstm1_cont_slice_4_split <- cont_5
I0222 17:41:07.613919 25054 net.cpp:380] cont_5_lstm1_cont_slice_4_split -> cont_5_lstm1_cont_slice_4_split_0
I0222 17:41:07.613924 25054 net.cpp:380] cont_5_lstm1_cont_slice_4_split -> cont_5_lstm1_cont_slice_4_split_1
I0222 17:41:07.613941 25054 net.cpp:122] Setting up cont_5_lstm1_cont_slice_4_split
I0222 17:41:07.613946 25054 net.cpp:129] Top shape: 1 26 (26)
I0222 17:41:07.613950 25054 net.cpp:129] Top shape: 1 26 (26)
I0222 17:41:07.613952 25054 net.cpp:137] Memory required for data: 21840
I0222 17:41:07.613955 25054 layer_factory.hpp:77] Creating layer cont_6_lstm1_cont_slice_5_split
I0222 17:41:07.613960 25054 net.cpp:84] Creating Layer cont_6_lstm1_cont_slice_5_split
I0222 17:41:07.613963 25054 net.cpp:406] cont_6_lstm1_cont_slice_5_split <- cont_6
I0222 17:41:07.613967 25054 net.cpp:380] cont_6_lstm1_cont_slice_5_split -> cont_6_lstm1_cont_slice_5_split_0
I0222 17:41:07.613978 25054 net.cpp:380] cont_6_lstm1_cont_slice_5_split -> cont_6_lstm1_cont_slice_5_split_1
I0222 17:41:07.613996 25054 net.cpp:122] Setting up cont_6_lstm1_cont_slice_5_split
I0222 17:41:07.614001 25054 net.cpp:129] Top shape: 1 26 (26)
I0222 17:41:07.614004 25054 net.cpp:129] Top shape: 1 26 (26)
I0222 17:41:07.614007 25054 net.cpp:137] Memory required for data: 22048
I0222 17:41:07.614011 25054 layer_factory.hpp:77] Creating layer cont_7_lstm1_cont_slice_6_split
I0222 17:41:07.614013 25054 net.cpp:84] Creating Layer cont_7_lstm1_cont_slice_6_split
I0222 17:41:07.614017 25054 net.cpp:406] cont_7_lstm1_cont_slice_6_split <- cont_7
I0222 17:41:07.614022 25054 net.cpp:380] cont_7_lstm1_cont_slice_6_split -> cont_7_lstm1_cont_slice_6_split_0
I0222 17:41:07.614027 25054 net.cpp:380] cont_7_lstm1_cont_slice_6_split -> cont_7_lstm1_cont_slice_6_split_1
I0222 17:41:07.614042 25054 net.cpp:122] Setting up cont_7_lstm1_cont_slice_6_split
I0222 17:41:07.614045 25054 net.cpp:129] Top shape: 1 26 (26)
I0222 17:41:07.614049 25054 net.cpp:129] Top shape: 1 26 (26)
I0222 17:41:07.614051 25054 net.cpp:137] Memory required for data: 22256
I0222 17:41:07.614054 25054 layer_factory.hpp:77] Creating layer cont_8_lstm1_cont_slice_7_split
I0222 17:41:07.614059 25054 net.cpp:84] Creating Layer cont_8_lstm1_cont_slice_7_split
I0222 17:41:07.614063 25054 net.cpp:406] cont_8_lstm1_cont_slice_7_split <- cont_8
I0222 17:41:07.614066 25054 net.cpp:380] cont_8_lstm1_cont_slice_7_split -> cont_8_lstm1_cont_slice_7_split_0
I0222 17:41:07.614070 25054 net.cpp:380] cont_8_lstm1_cont_slice_7_split -> cont_8_lstm1_cont_slice_7_split_1
I0222 17:41:07.614086 25054 net.cpp:122] Setting up cont_8_lstm1_cont_slice_7_split
I0222 17:41:07.614091 25054 net.cpp:129] Top shape: 1 26 (26)
I0222 17:41:07.614094 25054 net.cpp:129] Top shape: 1 26 (26)
I0222 17:41:07.614097 25054 net.cpp:137] Memory required for data: 22464
I0222 17:41:07.614100 25054 layer_factory.hpp:77] Creating layer cont_9_lstm1_cont_slice_8_split
I0222 17:41:07.614104 25054 net.cpp:84] Creating Layer cont_9_lstm1_cont_slice_8_split
I0222 17:41:07.614107 25054 net.cpp:406] cont_9_lstm1_cont_slice_8_split <- cont_9
I0222 17:41:07.614110 25054 net.cpp:380] cont_9_lstm1_cont_slice_8_split -> cont_9_lstm1_cont_slice_8_split_0
I0222 17:41:07.614115 25054 net.cpp:380] cont_9_lstm1_cont_slice_8_split -> cont_9_lstm1_cont_slice_8_split_1
I0222 17:41:07.614131 25054 net.cpp:122] Setting up cont_9_lstm1_cont_slice_8_split
I0222 17:41:07.614136 25054 net.cpp:129] Top shape: 1 26 (26)
I0222 17:41:07.614140 25054 net.cpp:129] Top shape: 1 26 (26)
I0222 17:41:07.614142 25054 net.cpp:137] Memory required for data: 22672
I0222 17:41:07.614145 25054 layer_factory.hpp:77] Creating layer cont_10_lstm1_cont_slice_9_split
I0222 17:41:07.614150 25054 net.cpp:84] Creating Layer cont_10_lstm1_cont_slice_9_split
I0222 17:41:07.614152 25054 net.cpp:406] cont_10_lstm1_cont_slice_9_split <- cont_10
I0222 17:41:07.614156 25054 net.cpp:380] cont_10_lstm1_cont_slice_9_split -> cont_10_lstm1_cont_slice_9_split_0
I0222 17:41:07.614161 25054 net.cpp:380] cont_10_lstm1_cont_slice_9_split -> cont_10_lstm1_cont_slice_9_split_1
I0222 17:41:07.614178 25054 net.cpp:122] Setting up cont_10_lstm1_cont_slice_9_split
I0222 17:41:07.614182 25054 net.cpp:129] Top shape: 1 26 (26)
I0222 17:41:07.614186 25054 net.cpp:129] Top shape: 1 26 (26)
I0222 17:41:07.614188 25054 net.cpp:137] Memory required for data: 22880
I0222 17:41:07.614192 25054 layer_factory.hpp:77] Creating layer cont_11_lstm1_cont_slice_10_split
I0222 17:41:07.616981 25054 net.cpp:84] Creating Layer cont_11_lstm1_cont_slice_10_split
I0222 17:41:07.617005 25054 net.cpp:406] cont_11_lstm1_cont_slice_10_split <- cont_11
I0222 17:41:07.617024 25054 net.cpp:380] cont_11_lstm1_cont_slice_10_split -> cont_11_lstm1_cont_slice_10_split_0
I0222 17:41:07.617030 25054 net.cpp:380] cont_11_lstm1_cont_slice_10_split -> cont_11_lstm1_cont_slice_10_split_1
I0222 17:41:07.617058 25054 net.cpp:122] Setting up cont_11_lstm1_cont_slice_10_split
I0222 17:41:07.617064 25054 net.cpp:129] Top shape: 1 26 (26)
I0222 17:41:07.617074 25054 net.cpp:129] Top shape: 1 26 (26)
I0222 17:41:07.617077 25054 net.cpp:137] Memory required for data: 23088
I0222 17:41:07.617081 25054 layer_factory.hpp:77] Creating layer cont_12_lstm1_cont_slice_11_split
I0222 17:41:07.617085 25054 net.cpp:84] Creating Layer cont_12_lstm1_cont_slice_11_split
I0222 17:41:07.617089 25054 net.cpp:406] cont_12_lstm1_cont_slice_11_split <- cont_12
I0222 17:41:07.617092 25054 net.cpp:380] cont_12_lstm1_cont_slice_11_split -> cont_12_lstm1_cont_slice_11_split_0
I0222 17:41:07.617096 25054 net.cpp:380] cont_12_lstm1_cont_slice_11_split -> cont_12_lstm1_cont_slice_11_split_1
I0222 17:41:07.617116 25054 net.cpp:122] Setting up cont_12_lstm1_cont_slice_11_split
I0222 17:41:07.617120 25054 net.cpp:129] Top shape: 1 26 (26)
I0222 17:41:07.617125 25054 net.cpp:129] Top shape: 1 26 (26)
I0222 17:41:07.617127 25054 net.cpp:137] Memory required for data: 23296
I0222 17:41:07.617130 25054 layer_factory.hpp:77] Creating layer cont_13_lstm1_cont_slice_12_split
I0222 17:41:07.617133 25054 net.cpp:84] Creating Layer cont_13_lstm1_cont_slice_12_split
I0222 17:41:07.617136 25054 net.cpp:406] cont_13_lstm1_cont_slice_12_split <- cont_13
I0222 17:41:07.617141 25054 net.cpp:380] cont_13_lstm1_cont_slice_12_split -> cont_13_lstm1_cont_slice_12_split_0
I0222 17:41:07.617144 25054 net.cpp:380] cont_13_lstm1_cont_slice_12_split -> cont_13_lstm1_cont_slice_12_split_1
I0222 17:41:07.617162 25054 net.cpp:122] Setting up cont_13_lstm1_cont_slice_12_split
I0222 17:41:07.617166 25054 net.cpp:129] Top shape: 1 26 (26)
I0222 17:41:07.617169 25054 net.cpp:129] Top shape: 1 26 (26)
I0222 17:41:07.617172 25054 net.cpp:137] Memory required for data: 23504
I0222 17:41:07.617175 25054 layer_factory.hpp:77] Creating layer cont_14_lstm1_cont_slice_13_split
I0222 17:41:07.617182 25054 net.cpp:84] Creating Layer cont_14_lstm1_cont_slice_13_split
I0222 17:41:07.617185 25054 net.cpp:406] cont_14_lstm1_cont_slice_13_split <- cont_14
I0222 17:41:07.617188 25054 net.cpp:380] cont_14_lstm1_cont_slice_13_split -> cont_14_lstm1_cont_slice_13_split_0
I0222 17:41:07.617193 25054 net.cpp:380] cont_14_lstm1_cont_slice_13_split -> cont_14_lstm1_cont_slice_13_split_1
I0222 17:41:07.617210 25054 net.cpp:122] Setting up cont_14_lstm1_cont_slice_13_split
I0222 17:41:07.617214 25054 net.cpp:129] Top shape: 1 26 (26)
I0222 17:41:07.617218 25054 net.cpp:129] Top shape: 1 26 (26)
I0222 17:41:07.617220 25054 net.cpp:137] Memory required for data: 23712
I0222 17:41:07.617223 25054 layer_factory.hpp:77] Creating layer cont_15_lstm1_cont_slice_14_split
I0222 17:41:07.617228 25054 net.cpp:84] Creating Layer cont_15_lstm1_cont_slice_14_split
I0222 17:41:07.617230 25054 net.cpp:406] cont_15_lstm1_cont_slice_14_split <- cont_15
I0222 17:41:07.617234 25054 net.cpp:380] cont_15_lstm1_cont_slice_14_split -> cont_15_lstm1_cont_slice_14_split_0
I0222 17:41:07.617238 25054 net.cpp:380] cont_15_lstm1_cont_slice_14_split -> cont_15_lstm1_cont_slice_14_split_1
I0222 17:41:07.617255 25054 net.cpp:122] Setting up cont_15_lstm1_cont_slice_14_split
I0222 17:41:07.617259 25054 net.cpp:129] Top shape: 1 26 (26)
I0222 17:41:07.617262 25054 net.cpp:129] Top shape: 1 26 (26)
I0222 17:41:07.617265 25054 net.cpp:137] Memory required for data: 23920
I0222 17:41:07.617269 25054 layer_factory.hpp:77] Creating layer cont_16_lstm1_cont_slice_15_split
I0222 17:41:07.617271 25054 net.cpp:84] Creating Layer cont_16_lstm1_cont_slice_15_split
I0222 17:41:07.617274 25054 net.cpp:406] cont_16_lstm1_cont_slice_15_split <- cont_16
I0222 17:41:07.617278 25054 net.cpp:380] cont_16_lstm1_cont_slice_15_split -> cont_16_lstm1_cont_slice_15_split_0
I0222 17:41:07.617282 25054 net.cpp:380] cont_16_lstm1_cont_slice_15_split -> cont_16_lstm1_cont_slice_15_split_1
I0222 17:41:07.617300 25054 net.cpp:122] Setting up cont_16_lstm1_cont_slice_15_split
I0222 17:41:07.617303 25054 net.cpp:129] Top shape: 1 26 (26)
I0222 17:41:07.617307 25054 net.cpp:129] Top shape: 1 26 (26)
I0222 17:41:07.617310 25054 net.cpp:137] Memory required for data: 24128
I0222 17:41:07.617317 25054 layer_factory.hpp:77] Creating layer cont_17_lstm1_cont_slice_16_split
I0222 17:41:07.617321 25054 net.cpp:84] Creating Layer cont_17_lstm1_cont_slice_16_split
I0222 17:41:07.617324 25054 net.cpp:406] cont_17_lstm1_cont_slice_16_split <- cont_17
I0222 17:41:07.617328 25054 net.cpp:380] cont_17_lstm1_cont_slice_16_split -> cont_17_lstm1_cont_slice_16_split_0
I0222 17:41:07.617333 25054 net.cpp:380] cont_17_lstm1_cont_slice_16_split -> cont_17_lstm1_cont_slice_16_split_1
I0222 17:41:07.617350 25054 net.cpp:122] Setting up cont_17_lstm1_cont_slice_16_split
I0222 17:41:07.617367 25054 net.cpp:129] Top shape: 1 26 (26)
I0222 17:41:07.617370 25054 net.cpp:129] Top shape: 1 26 (26)
I0222 17:41:07.617373 25054 net.cpp:137] Memory required for data: 24336
I0222 17:41:07.617377 25054 layer_factory.hpp:77] Creating layer cont_18_lstm1_cont_slice_17_split
I0222 17:41:07.617380 25054 net.cpp:84] Creating Layer cont_18_lstm1_cont_slice_17_split
I0222 17:41:07.617383 25054 net.cpp:406] cont_18_lstm1_cont_slice_17_split <- cont_18
I0222 17:41:07.617388 25054 net.cpp:380] cont_18_lstm1_cont_slice_17_split -> cont_18_lstm1_cont_slice_17_split_0
I0222 17:41:07.617391 25054 net.cpp:380] cont_18_lstm1_cont_slice_17_split -> cont_18_lstm1_cont_slice_17_split_1
I0222 17:41:07.617408 25054 net.cpp:122] Setting up cont_18_lstm1_cont_slice_17_split
I0222 17:41:07.617413 25054 net.cpp:129] Top shape: 1 26 (26)
I0222 17:41:07.617416 25054 net.cpp:129] Top shape: 1 26 (26)
I0222 17:41:07.617419 25054 net.cpp:137] Memory required for data: 24544
I0222 17:41:07.617421 25054 layer_factory.hpp:77] Creating layer cont_19_lstm1_cont_slice_18_split
I0222 17:41:07.617425 25054 net.cpp:84] Creating Layer cont_19_lstm1_cont_slice_18_split
I0222 17:41:07.617429 25054 net.cpp:406] cont_19_lstm1_cont_slice_18_split <- cont_19
I0222 17:41:07.617432 25054 net.cpp:380] cont_19_lstm1_cont_slice_18_split -> cont_19_lstm1_cont_slice_18_split_0
I0222 17:41:07.617441 25054 net.cpp:380] cont_19_lstm1_cont_slice_18_split -> cont_19_lstm1_cont_slice_18_split_1
I0222 17:41:07.617457 25054 net.cpp:122] Setting up cont_19_lstm1_cont_slice_18_split
I0222 17:41:07.617465 25054 net.cpp:129] Top shape: 1 26 (26)
I0222 17:41:07.617468 25054 net.cpp:129] Top shape: 1 26 (26)
I0222 17:41:07.617470 25054 net.cpp:137] Memory required for data: 24752
I0222 17:41:07.617473 25054 layer_factory.hpp:77] Creating layer cont_20_lstm1_cont_slice_19_split
I0222 17:41:07.617477 25054 net.cpp:84] Creating Layer cont_20_lstm1_cont_slice_19_split
I0222 17:41:07.617480 25054 net.cpp:406] cont_20_lstm1_cont_slice_19_split <- cont_20
I0222 17:41:07.617485 25054 net.cpp:380] cont_20_lstm1_cont_slice_19_split -> cont_20_lstm1_cont_slice_19_split_0
I0222 17:41:07.617489 25054 net.cpp:380] cont_20_lstm1_cont_slice_19_split -> cont_20_lstm1_cont_slice_19_split_1
I0222 17:41:07.617506 25054 net.cpp:122] Setting up cont_20_lstm1_cont_slice_19_split
I0222 17:41:07.617511 25054 net.cpp:129] Top shape: 1 26 (26)
I0222 17:41:07.617513 25054 net.cpp:129] Top shape: 1 26 (26)
I0222 17:41:07.617516 25054 net.cpp:137] Memory required for data: 24960
I0222 17:41:07.617519 25054 layer_factory.hpp:77] Creating layer cont_21_lstm1_cont_slice_20_split
I0222 17:41:07.617522 25054 net.cpp:84] Creating Layer cont_21_lstm1_cont_slice_20_split
I0222 17:41:07.644114 25054 net.cpp:406] cont_21_lstm1_cont_slice_20_split <- cont_21
I0222 17:41:07.644124 25054 net.cpp:380] cont_21_lstm1_cont_slice_20_split -> cont_21_lstm1_cont_slice_20_split_0
I0222 17:41:07.644131 25054 net.cpp:380] cont_21_lstm1_cont_slice_20_split -> cont_21_lstm1_cont_slice_20_split_1
I0222 17:41:07.644165 25054 net.cpp:122] Setting up cont_21_lstm1_cont_slice_20_split
I0222 17:41:07.644172 25054 net.cpp:129] Top shape: 1 26 (26)
I0222 17:41:07.644176 25054 net.cpp:129] Top shape: 1 26 (26)
I0222 17:41:07.644178 25054 net.cpp:137] Memory required for data: 25168
I0222 17:41:07.644181 25054 layer_factory.hpp:77] Creating layer cont_22_lstm1_cont_slice_21_split
I0222 17:41:07.644186 25054 net.cpp:84] Creating Layer cont_22_lstm1_cont_slice_21_split
I0222 17:41:07.644196 25054 net.cpp:406] cont_22_lstm1_cont_slice_21_split <- cont_22
I0222 17:41:07.644202 25054 net.cpp:380] cont_22_lstm1_cont_slice_21_split -> cont_22_lstm1_cont_slice_21_split_0
I0222 17:41:07.644207 25054 net.cpp:380] cont_22_lstm1_cont_slice_21_split -> cont_22_lstm1_cont_slice_21_split_1
I0222 17:41:07.644223 25054 net.cpp:122] Setting up cont_22_lstm1_cont_slice_21_split
I0222 17:41:07.644227 25054 net.cpp:129] Top shape: 1 26 (26)
I0222 17:41:07.644230 25054 net.cpp:129] Top shape: 1 26 (26)
I0222 17:41:07.644233 25054 net.cpp:137] Memory required for data: 25376
I0222 17:41:07.644235 25054 layer_factory.hpp:77] Creating layer cont_23_lstm1_cont_slice_22_split
I0222 17:41:07.644239 25054 net.cpp:84] Creating Layer cont_23_lstm1_cont_slice_22_split
I0222 17:41:07.644243 25054 net.cpp:406] cont_23_lstm1_cont_slice_22_split <- cont_23
I0222 17:41:07.644245 25054 net.cpp:380] cont_23_lstm1_cont_slice_22_split -> cont_23_lstm1_cont_slice_22_split_0
I0222 17:41:07.644249 25054 net.cpp:380] cont_23_lstm1_cont_slice_22_split -> cont_23_lstm1_cont_slice_22_split_1
I0222 17:41:07.644265 25054 net.cpp:122] Setting up cont_23_lstm1_cont_slice_22_split
I0222 17:41:07.644269 25054 net.cpp:129] Top shape: 1 26 (26)
I0222 17:41:07.644273 25054 net.cpp:129] Top shape: 1 26 (26)
I0222 17:41:07.644274 25054 net.cpp:137] Memory required for data: 25584
I0222 17:41:07.644278 25054 layer_factory.hpp:77] Creating layer cont_24_lstm1_cont_slice_23_split
I0222 17:41:07.644280 25054 net.cpp:84] Creating Layer cont_24_lstm1_cont_slice_23_split
I0222 17:41:07.644282 25054 net.cpp:406] cont_24_lstm1_cont_slice_23_split <- cont_24
I0222 17:41:07.644286 25054 net.cpp:380] cont_24_lstm1_cont_slice_23_split -> cont_24_lstm1_cont_slice_23_split_0
I0222 17:41:07.644289 25054 net.cpp:380] cont_24_lstm1_cont_slice_23_split -> cont_24_lstm1_cont_slice_23_split_1
I0222 17:41:07.644306 25054 net.cpp:122] Setting up cont_24_lstm1_cont_slice_23_split
I0222 17:41:07.644310 25054 net.cpp:129] Top shape: 1 26 (26)
I0222 17:41:07.644313 25054 net.cpp:129] Top shape: 1 26 (26)
I0222 17:41:07.644315 25054 net.cpp:137] Memory required for data: 25792
I0222 17:41:07.644317 25054 layer_factory.hpp:77] Creating layer lstm1_x_transform
I0222 17:41:07.644326 25054 net.cpp:84] Creating Layer lstm1_x_transform
I0222 17:41:07.644330 25054 net.cpp:406] lstm1_x_transform <- x
I0222 17:41:07.644335 25054 net.cpp:380] lstm1_x_transform -> W_xc_x
I0222 17:41:07.644407 25054 net.cpp:122] Setting up lstm1_x_transform
I0222 17:41:07.644412 25054 net.cpp:129] Top shape: 24 26 256 (159744)
I0222 17:41:07.644414 25054 net.cpp:137] Memory required for data: 664768
I0222 17:41:07.644424 25054 layer_factory.hpp:77] Creating layer lstm1_W_xc_x_slice
I0222 17:41:07.644431 25054 net.cpp:84] Creating Layer lstm1_W_xc_x_slice
I0222 17:41:07.644434 25054 net.cpp:406] lstm1_W_xc_x_slice <- W_xc_x
I0222 17:41:07.644438 25054 net.cpp:380] lstm1_W_xc_x_slice -> W_xc_x_1
I0222 17:41:07.644444 25054 net.cpp:380] lstm1_W_xc_x_slice -> W_xc_x_2
…
I0222 17:41:07.644539 25054 net.cpp:380] lstm1_W_xc_x_slice -> W_xc_x_18
I0222 17:41:07.644546 25054 net.cpp:380] lstm1_W_xc_x_slice -> W_xc_x_19
I0222 17:41:07.644551 25054 net.cpp:380] lstm1_W_xc_x_slice -> W_xc_x_20
I0222 17:41:07.644556 25054 net.cpp:380] lstm1_W_xc_x_slice -> W_xc_x_21
I0222 17:41:07.644562 25054 net.cpp:380] lstm1_W_xc_x_slice -> W_xc_x_22
I0222 17:41:07.644567 25054 net.cpp:380] lstm1_W_xc_x_slice -> W_xc_x_23
I0222 17:41:07.644572 25054 net.cpp:380] lstm1_W_xc_x_slice -> W_xc_x_24
I0222 17:41:07.644706 25054 net.cpp:122] Setting up lstm1_W_xc_x_slice
I0222 17:41:07.644711 25054 net.cpp:129] Top shape: 1 26 256 (6656)
I0222 17:41:07.644714 25054 net.cpp:129] Top shape: 1 26 256 (6656)
I0222 17:41:07.644718 25054 net.cpp:129] Top shape: 1 26 256 (6656)
I0222 17:41:07.644721 25054 net.cpp:129] Top shape: 1 26 256 (6656)
I0222 17:41:07.644726 25054 net.cpp:129] Top shape: 1 26 256 (6656)
I0222 17:41:07.644728 25054 net.cpp:129] Top shape: 1 26 256 (6656)
I0222 17:41:07.644731 25054 net.cpp:129] Top shape: 1 26 256 (6656)
I0222 17:41:07.644734 25054 net.cpp:129] Top shape: 1 26 256 (6656)
I0222 17:41:07.644738 25054 net.cpp:129] Top shape: 1 26 256 (6656)
I0222 17:41:07.644742 25054 net.cpp:129] Top shape: 1 26 256 (6656)
I0222 17:41:07.644744 25054 net.cpp:129] Top shape: 1 26 256 (6656)
I0222 17:41:07.644748 25054 net.cpp:129] Top shape: 1 26 256 (6656)
I0222 17:41:07.644752 25054 net.cpp:129] Top shape: 1 26 256 (6656)
I0222 17:41:07.644754 25054 net.cpp:129] Top shape: 1 26 256 (6656)
I0222 17:41:07.644758 25054 net.cpp:129] Top shape: 1 26 256 (6656)
I0222 17:41:07.644762 25054 net.cpp:129] Top shape: 1 26 256 (6656)
I0222 17:41:07.644764 25054 net.cpp:129] Top shape: 1 26 256 (6656)
I0222 17:41:07.644768 25054 net.cpp:129] Top shape: 1 26 256 (6656)
I0222 17:41:07.644771 25054 net.cpp:129] Top shape: 1 26 256 (6656)
I0222 17:41:07.644774 25054 net.cpp:129] Top shape: 1 26 256 (6656)
I0222 17:41:07.644778 25054 net.cpp:129] Top shape: 1 26 256 (6656)
I0222 17:41:07.644781 25054 net.cpp:129] Top shape: 1 26 256 (6656)
I0222 17:41:07.644784 25054 net.cpp:129] Top shape: 1 26 256 (6656)
I0222 17:41:07.644788 25054 net.cpp:129] Top shape: 1 26 256 (6656)
I0222 17:41:07.644790 25054 net.cpp:137] Memory required for data: 1303744
I0222 17:41:07.644793 25054 layer_factory.hpp:77] Creating layer lstm1_h_conted_0
I0222 17:41:07.644798 25054 net.cpp:84] Creating Layer lstm1_h_conted_0
I0222 17:41:07.644803 25054 net.cpp:406] lstm1_h_conted_0 <- h_0
I0222 17:41:07.644807 25054 net.cpp:406] lstm1_h_conted_0 <- cont_1_lstm1_cont_slice_0_split_0
I0222 17:41:07.644811 25054 net.cpp:380] lstm1_h_conted_0 -> h_conted_0
I0222 17:41:07.644846 25054 net.cpp:122] Setting up lstm1_h_conted_0
I0222 17:41:07.644851 25054 net.cpp:129] Top shape: 1 26 64 (1664)
I0222 17:41:07.644855 25054 net.cpp:137] Memory required for data: 1310400
I0222 17:41:07.644857 25054 layer_factory.hpp:77] Creating layer lstm1_transform_1
I0222 17:41:07.644862 25054 net.cpp:84] Creating Layer lstm1_transform_1
I0222 17:41:07.647017 25054 net.cpp:406] lstm1_transform_1 <- h_conted_0
I0222 17:41:07.647028 25054 net.cpp:380] lstm1_transform_1 -> W_hc_h_0
I0222 17:41:07.647771 25054 net.cpp:122] Setting up lstm1_transform_1
I0222 17:41:07.647780 25054 net.cpp:129] Top shape: 1 26 256 (6656)
I0222 17:41:07.647799 25054 net.cpp:137] Memory required for data: 1337024
I0222 17:41:07.647805 25054 layer_factory.hpp:77] Creating layer lstm1_gate_input_1
I0222 17:41:07.647811 25054 net.cpp:84] Creating Layer lstm1_gate_input_1
I0222 17:41:07.647814 25054 net.cpp:406] lstm1_gate_input_1 <- W_hc_h_0
I0222 17:41:07.647817 25054 net.cpp:406] lstm1_gate_input_1 <- W_xc_x_1
I0222 17:41:07.647835 25054 net.cpp:380] lstm1_gate_input_1 -> gate_input_1
I0222 17:41:07.647866 25054 net.cpp:122] Setting up lstm1_gate_input_1
I0222 17:41:07.647871 25054 net.cpp:129] Top shape: 1 26 256 (6656)
I0222 17:41:07.647874 25054 net.cpp:137] Memory required for data: 1363648
I0222 17:41:07.647876 25054 layer_factory.hpp:77] Creating layer lstm1_unit_1
I0222 17:41:07.647922 25054 net.cpp:84] Creating Layer lstm1_unit_1
I0222 17:41:07.647924 25054 net.cpp:406] lstm1_unit_1 <- c_0
I0222 17:41:07.647929 25054 net.cpp:406] lstm1_unit_1 <- gate_input_1
I0222 17:41:07.647933 25054 net.cpp:406] lstm1_unit_1 <- cont_1_lstm1_cont_slice_0_split_1
I0222 17:41:07.647938 25054 net.cpp:380] lstm1_unit_1 -> c_1
I0222 17:41:07.647943 25054 net.cpp:380] lstm1_unit_1 -> h_1
I0222 17:41:07.647984 25054 net.cpp:122] Setting up lstm1_unit_1
I0222 17:41:07.647991 25054 net.cpp:129] Top shape: 1 26 64 (1664)
I0222 17:41:07.648011 25054 net.cpp:129] Top shape: 1 26 64 (1664)
I0222 17:41:07.648015 25054 net.cpp:137] Memory required for data: 1376960
I0222 17:41:07.648018 25054 layer_factory.hpp:77] Creating layer h_1_lstm1_unit_1_1_split
I0222 17:41:07.648025 25054 net.cpp:84] Creating Layer h_1_lstm1_unit_1_1_split
I0222 17:41:07.648028 25054 net.cpp:406] h_1_lstm1_unit_1_1_split <- h_1
I0222 17:41:07.648033 25054 net.cpp:380] h_1_lstm1_unit_1_1_split -> h_1_lstm1_unit_1_1_split_0
I0222 17:41:07.648039 25054 net.cpp:380] h_1_lstm1_unit_1_1_split -> h_1_lstm1_unit_1_1_split_1
I0222 17:41:07.648063 25054 net.cpp:122] Setting up h_1_lstm1_unit_1_1_split
I0222 17:41:07.648069 25054 net.cpp:129] Top shape: 1 26 64 (1664)
I0222 17:41:07.648073 25054 net.cpp:129] Top shape: 1 26 64 (1664)
I0222 17:41:07.648077 25054 net.cpp:137] Memory required for data: 1390272
I0222 17:41:07.648082 25054 layer_factory.hpp:77] Creating layer lstm1_h_conted_1
I0222 17:41:07.648087 25054 net.cpp:84] Creating Layer lstm1_h_conted_1
I0222 17:41:07.648092 25054 net.cpp:406] lstm1_h_conted_1 <- h_1_lstm1_unit_1_1_split_0
I0222 17:41:07.648097 25054 net.cpp:406] lstm1_h_conted_1 <- cont_2_lstm1_cont_slice_1_split_0
I0222 17:41:07.648103 25054 net.cpp:380] lstm1_h_conted_1 -> h_conted_1
I0222 17:41:07.648145 25054 net.cpp:122] Setting up lstm1_h_conted_1
I0222 17:41:07.648154 25054 net.cpp:129] Top shape: 1 26 64 (1664)
I0222 17:41:07.648157 25054 net.cpp:137] Memory required for data: 1396928
I0222 17:41:07.648162 25054 layer_factory.hpp:77] Creating layer lstm1_transform_2
I0222 17:41:07.648170 25054 net.cpp:84] Creating Layer lstm1_transform_2
I0222 17:41:07.648175 25054 net.cpp:406] lstm1_transform_2 <- h_conted_1
I0222 17:41:07.648182 25054 net.cpp:380] lstm1_transform_2 -> W_hc_h_1
I0222 17:41:07.648290 25054 net.cpp:122] Setting up lstm1_transform_2
I0222 17:41:07.648298 25054 net.cpp:129] Top shape: 1 26 256 (6656)
I0222 17:41:07.648303 25054 net.cpp:137] Memory required for data: 1423552
I0222 17:41:07.648308 25054 net.cpp:465] Sharing parameters 'W_hc' owned by layer 'lstm1_transform_1', param index 0
I0222 17:41:07.648313 25054 layer_factory.hpp:77] Creating layer lstm1_gate_input_2
I0222 17:41:07.648319 25054 net.cpp:84] Creating Layer lstm1_gate_input_2
I0222 17:41:07.648322 25054 net.cpp:406] lstm1_gate_input_2 <- W_hc_h_1
I0222 17:41:07.648329 25054 net.cpp:406] lstm1_gate_input_2 <- W_xc_x_2
I0222 17:41:07.648334 25054 net.cpp:380] lstm1_gate_input_2 -> gate_input_2
I0222 17:41:07.648350 25054 net.cpp:122] Setting up lstm1_gate_input_2
I0222 17:41:07.648356 25054 net.cpp:129] Top shape: 1 26 256 (6656)
I0222 17:41:07.648360 25054 net.cpp:137] Memory required for data: 1450176
I0222 17:41:07.648365 25054 layer_factory.hpp:77] Creating layer lstm1_unit_2
I0222 17:41:07.648370 25054 net.cpp:84] Creating Layer lstm1_unit_2
I0222 17:41:07.648375 25054 net.cpp:406] lstm1_unit_2 <- c_1
I0222 17:41:07.648380 25054 net.cpp:406] lstm1_unit_2 <- gate_input_2
I0222 17:41:07.648385 25054 net.cpp:406] lstm1_unit_2 <- cont_2_lstm1_cont_slice_1_split_1
I0222 17:41:07.648389 25054 net.cpp:380] lstm1_unit_2 -> c_2
I0222 17:41:07.648396 25054 net.cpp:380] lstm1_unit_2 -> h_2
I0222 17:41:07.648424 25054 net.cpp:122] Setting up lstm1_unit_2
I0222 17:41:07.648430 25054 net.cpp:129] Top shape: 1 26 64 (1664)
I0222 17:41:07.648435 25054 net.cpp:129] Top shape: 1 26 64 (1664)
I0222 17:41:07.648439 25054 net.cpp:137] Memory required for data: 1463488
I0222 17:41:07.648443 25054 layer_factory.hpp:77] Creating layer h_2_lstm1_unit_2_1_split
I0222 17:41:07.648455 25054 net.cpp:84] Creating Layer h_2_lstm1_unit_2_1_split
I0222 17:41:07.648460 25054 net.cpp:406] h_2_lstm1_unit_2_1_split <- h_2
I0222 17:41:07.648466 25054 net.cpp:380] h_2_lstm1_unit_2_1_split -> h_2_lstm1_unit_2_1_split_0
I0222 17:41:07.648473 25054 net.cpp:380] h_2_lstm1_unit_2_1_split -> h_2_lstm1_unit_2_1_split_1
I0222 17:41:07.648495 25054 net.cpp:122] Setting up h_2_lstm1_unit_2_1_split
I0222 17:41:07.648501 25054 net.cpp:129] Top shape: 1 26 64 (1664)
I0222 17:41:07.648506 25054 net.cpp:129] Top shape: 1 26 64 (1664)
I0222 17:41:07.648510 25054 net.cpp:137] Memory required for data: 1476800
I0222 17:41:07.648514 25054 layer_factory.hpp:77] Creating layer lstm1_h_conted_2
I0222 17:41:07.648520 25054 net.cpp:84] Creating Layer lstm1_h_conted_2
I0222 17:41:07.648525 25054 net.cpp:406] lstm1_h_conted_2 <- h_2_lstm1_unit_2_1_split_0
I0222 17:41:07.648530 25054 net.cpp:406] lstm1_h_conted_2 <- cont_3_lstm1_cont_slice_2_split_0
I0222 17:41:07.648536 25054 net.cpp:380] lstm1_h_conted_2 -> h_conted_2
I0222 17:41:07.648573 25054 net.cpp:122] Setting up lstm1_h_conted_2
I0222 17:41:07.648581 25054 net.cpp:129] Top shape: 1 26 64 (1664)
I0222 17:41:07.648584 25054 net.cpp:137] Memory required for data: 1483456
I0222 17:41:07.648588 25054 layer_factory.hpp:77] Creating layer lstm1_transform_3
I0222 17:41:07.648593 25054 net.cpp:84] Creating Layer lstm1_transform_3
I0222 17:41:07.648598 25054 net.cpp:406] lstm1_transform_3 <- h_conted_2
I0222 17:41:07.648605 25054 net.cpp:380] lstm1_transform_3 -> W_hc_h_2
I0222 17:41:07.648715 25054 net.cpp:122] Setting up lstm1_transform_3
I0222 17:41:07.648722 25054 net.cpp:129] Top shape: 1 26 256 (6656)
I0222 17:41:07.648726 25054 net.cpp:137] Memory required for data: 1510080
I0222 17:41:07.648733 25054 net.cpp:465] Sharing parameters 'W_hc' owned by layer 'lstm1_transform_1', param index 0
I0222 17:41:07.648737 25054 layer_factory.hpp:77] Creating layer lstm1_gate_input_3
I0222 17:41:07.648743 25054 net.cpp:84] Creating Layer lstm1_gate_input_3
I0222 17:41:07.648747 25054 net.cpp:406] lstm1_gate_input_3 <- W_hc_h_2
I0222 17:41:07.648753 25054 net.cpp:406] lstm1_gate_input_3 <- W_xc_x_3
I0222 17:41:07.648759 25054 net.cpp:380] lstm1_gate_input_3 -> gate_input_3
I0222 17:41:07.648779 25054 net.cpp:122] Setting up lstm1_gate_input_3
I0222 17:41:07.648787 25054 net.cpp:129] Top shape: 1 26 256 (6656)
I0222 17:41:07.648792 25054 net.cpp:137] Memory required for data: 1536704
I0222 17:41:07.648797 25054 layer_factory.hpp:77] Creating layer lstm1_unit_3
I0222 17:41:07.648804 25054 net.cpp:84] Creating Layer lstm1_unit_3
I0222 17:41:07.648810 25054 net.cpp:406] lstm1_unit_3 <- c_2
I0222 17:41:07.648816 25054 net.cpp:406] lstm1_unit_3 <- gate_input_3
I0222 17:41:07.648823 25054 net.cpp:406] lstm1_unit_3 <- cont_3_lstm1_cont_slice_2_split_1
I0222 17:41:07.648829 25054 net.cpp:380] lstm1_unit_3 -> c_3
I0222 17:41:07.648838 25054 net.cpp:380] lstm1_unit_3 -> h_3
I0222 17:41:07.648875 25054 net.cpp:122] Setting up lstm1_unit_3
I0222 17:41:07.648885 25054 net.cpp:129] Top shape: 1 26 64 (1664)
I0222 17:41:07.675186 25054 net.cpp:129] Top shape: 1 26 64 (1664)
I0222 17:41:07.675194 25054 net.cpp:137] Memory required for data: 1550016
I0222 17:41:07.675199 25054 layer_factory.hpp:77] Creating layer h_3_lstm1_unit_3_1_split
I0222 17:41:07.675210 25054 net.cpp:84] Creating Layer h_3_lstm1_unit_3_1_split
I0222 17:41:07.675215 25054 net.cpp:406] h_3_lstm1_unit_3_1_split <- h_3
I0222 17:41:07.675220 25054 net.cpp:380] h_3_lstm1_unit_3_1_split -> h_3_lstm1_unit_3_1_split_0
I0222 17:41:07.675228 25054 net.cpp:380] h_3_lstm1_unit_3_1_split -> h_3_lstm1_unit_3_1_split_1
I0222 17:41:07.675267 25054 net.cpp:122] Setting up h_3_lstm1_unit_3_1_split
I0222 17:41:07.675272 25054 net.cpp:129] Top shape: 1 26 64 (1664)
I0222 17:41:07.675276 25054 net.cpp:129] Top shape: 1 26 64 (1664)
I0222 17:41:07.675279 25054 net.cpp:137] Memory required for data: 1563328
I0222 17:41:07.675282 25054 layer_factory.hpp:77] Creating layer lstm1_h_conted_3
I0222 17:41:07.675287 25054 net.cpp:84] Creating Layer lstm1_h_conted_3
I0222 17:41:07.675303 25054 net.cpp:406] lstm1_h_conted_3 <- h_3_lstm1_unit_3_1_split_0
I0222 17:41:07.675307 25054 net.cpp:406] lstm1_h_conted_3 <- cont_4_lstm1_cont_slice_3_split_0
I0222 17:41:07.675312 25054 net.cpp:380] lstm1_h_conted_3 -> h_conted_3
I0222 17:41:07.675349 25054 net.cpp:122] Setting up lstm1_h_conted_3
I0222 17:41:07.675355 25054 net.cpp:129] Top shape: 1 26 64 (1664)
I0222 17:41:07.675359 25054 net.cpp:137] Memory required for data: 1569984
I0222 17:41:07.675361 25054 layer_factory.hpp:77] Creating layer lstm1_transform_4
I0222 17:41:07.675366 25054 net.cpp:84] Creating Layer lstm1_transform_4
I0222 17:41:07.675369 25054 net.cpp:406] lstm1_transform_4 <- h_conted_3
I0222 17:41:07.675375 25054 net.cpp:380] lstm1_transform_4 -> W_hc_h_3
I0222 17:41:07.675475 25054 net.cpp:122] Setting up lstm1_transform_4
I0222 17:41:07.675482 25054 net.cpp:129] Top shape: 1 26 256 (6656)
I0222 17:41:07.675484 25054 net.cpp:137] Memory required for data: 1596608
I0222 17:41:07.675487 25054 net.cpp:465] Sharing parameters 'W_hc' owned by layer 'lstm1_transform_1', param index 0
I0222 17:41:07.675492 25054 layer_factory.hpp:77] Creating layer lstm1_gate_input_4
I0222 17:41:07.675496 25054 net.cpp:84] Creating Layer lstm1_gate_input_4
I0222 17:41:07.675500 25054 net.cpp:406] lstm1_gate_input_4 <- W_hc_h_3
I0222 17:41:07.675504 25054 net.cpp:406] lstm1_gate_input_4 <- W_xc_x_4
I0222 17:41:07.675509 25054 net.cpp:380] lstm1_gate_input_4 -> gate_input_4
I0222 17:41:07.675523 25054 net.cpp:122] Setting up lstm1_gate_input_4
I0222 17:41:07.675528 25054 net.cpp:129] Top shape: 1 26 256 (6656)
I0222 17:41:07.675530 25054 net.cpp:137] Memory required for data: 1623232
I0222 17:41:07.675534 25054 layer_factory.hpp:77] Creating layer lstm1_unit_4
I0222 17:41:07.675539 25054 net.cpp:84] Creating Layer lstm1_unit_4
I0222 17:41:07.675542 25054 net.cpp:406] lstm1_unit_4 <- c_3
I0222 17:41:07.675546 25054 net.cpp:406] lstm1_unit_4 <- gate_input_4
I0222 17:41:07.675550 25054 net.cpp:406] lstm1_unit_4 <- cont_4_lstm1_cont_slice_3_split_1
I0222 17:41:07.675554 25054 net.cpp:380] lstm1_unit_4 -> c_4
I0222 17:41:07.675559 25054 net.cpp:380] lstm1_unit_4 -> h_4
I0222 17:41:07.675582 25054 net.cpp:122] Setting up lstm1_unit_4
I0222 17:41:07.675587 25054 net.cpp:129] Top shape: 1 26 64 (1664)
I0222 17:41:07.675591 25054 net.cpp:129] Top shape: 1 26 64 (1664)
I0222 17:41:07.675595 25054 net.cpp:137] Memory required for data: 1636544
I0222 17:41:07.675597 25054 layer_factory.hpp:77] Creating layer h_4_lstm1_unit_4_1_split
I0222 17:41:07.675601 25054 net.cpp:84] Creating Layer h_4_lstm1_unit_4_1_split
I0222 17:41:07.675604 25054 net.cpp:406] h_4_lstm1_unit_4_1_split <- h_4
I0222 17:41:07.675609 25054 net.cpp:380] h_4_lstm1_unit_4_1_split -> h_4_lstm1_unit_4_1_split_0
I0222 17:41:07.675613 25054 net.cpp:380] h_4_lstm1_unit_4_1_split -> h_4_lstm1_unit_4_1_split_1
I0222 17:41:07.675642 25054 net.cpp:122] Setting up h_4_lstm1_unit_4_1_split
I0222 17:41:07.675647 25054 net.cpp:129] Top shape: 1 26 64 (1664)
I0222 17:41:07.675652 25054 net.cpp:129] Top shape: 1 26 64 (1664)
I0222 17:41:07.675654 25054 net.cpp:137] Memory required for data: 1649856
I0222 17:41:07.675657 25054 layer_factory.hpp:77] Creating layer lstm1_h_conted_4
I0222 17:41:07.675662 25054 net.cpp:84] Creating Layer lstm1_h_conted_4
I0222 17:41:07.675667 25054 net.cpp:406] lstm1_h_conted_4 <- h_4_lstm1_unit_4_1_split_0
I0222 17:41:07.675670 25054 net.cpp:406] lstm1_h_conted_4 <- cont_5_lstm1_cont_slice_4_split_0
I0222 17:41:07.675674 25054 net.cpp:380] lstm1_h_conted_4 -> h_conted_4
I0222 17:41:07.675705 25054 net.cpp:122] Setting up lstm1_h_conted_4
I0222 17:41:07.675710 25054 net.cpp:129] Top shape: 1 26 64 (1664)
I0222 17:41:07.675714 25054 net.cpp:137] Memory required for data: 1656512
I0222 17:41:07.675716 25054 layer_factory.hpp:77] Creating layer lstm1_transform_5
I0222 17:41:07.675720 25054 net.cpp:84] Creating Layer lstm1_transform_5
I0222 17:41:07.675724 25054 net.cpp:406] lstm1_transform_5 <- h_conted_4
I0222 17:41:07.675729 25054 net.cpp:380] lstm1_transform_5 -> W_hc_h_4
I0222 17:41:07.675827 25054 net.cpp:122] Setting up lstm1_transform_5
I0222 17:41:07.675832 25054 net.cpp:129] Top shape: 1 26 256 (6656)
I0222 17:41:07.675835 25054 net.cpp:137] Memory required for data: 1683136
I0222 17:41:07.675839 25054 net.cpp:465] Sharing parameters 'W_hc' owned by layer 'lstm1_transform_1', param index 0
I0222 17:41:07.675843 25054 layer_factory.hpp:77] Creating layer lstm1_gate_input_5
I0222 17:41:07.675848 25054 net.cpp:84] Creating Layer lstm1_gate_input_5
I0222 17:41:07.675851 25054 net.cpp:406] lstm1_gate_input_5 <- W_hc_h_4
I0222 17:41:07.675855 25054 net.cpp:406] lstm1_gate_input_5 <- W_xc_x_5
I0222 17:41:07.675859 25054 net.cpp:380] lstm1_gate_input_5 -> gate_input_5
I0222 17:41:07.675873 25054 net.cpp:122] Setting up lstm1_gate_input_5
I0222 17:41:07.675876 25054 net.cpp:129] Top shape: 1 26 256 (6656)
I0222 17:41:07.675879 25054 net.cpp:137] Memory required for data: 1709760
I0222 17:41:07.675882 25054 layer_factory.hpp:77] Creating layer lstm1_unit_5
I0222 17:41:07.675886 25054 net.cpp:84] Creating Layer lstm1_unit_5
I0222 17:41:07.675890 25054 net.cpp:406] lstm1_unit_5 <- c_4
I0222 17:41:07.675894 25054 net.cpp:406] lstm1_unit_5 <- gate_input_5
I0222 17:41:07.675897 25054 net.cpp:406] lstm1_unit_5 <- cont_5_lstm1_cont_slice_4_split_1
I0222 17:41:07.675902 25054 net.cpp:380] lstm1_unit_5 -> c_5
I0222 17:41:07.675907 25054 net.cpp:380] lstm1_unit_5 -> h_5
I0222 17:41:07.675930 25054 net.cpp:122] Setting up lstm1_unit_5
I0222 17:41:07.675935 25054 net.cpp:129] Top shape: 1 26 64 (1664)
I0222 17:41:07.675940 25054 net.cpp:129] Top shape: 1 26 64 (1664)
I0222 17:41:07.675942 25054 net.cpp:137] Memory required for data: 1723072
I0222 17:41:07.675945 25054 layer_factory.hpp:77] Creating layer h_5_lstm1_unit_5_1_split
I0222 17:41:07.675964 25054 net.cpp:84] Creating Layer h_5_lstm1_unit_5_1_split
I0222 17:41:07.675967 25054 net.cpp:406] h_5_lstm1_unit_5_1_split <- h_5
I0222 17:41:07.675971 25054 net.cpp:380] h_5_lstm1_unit_5_1_split -> h_5_lstm1_unit_5_1_split_0
I0222 17:41:07.675976 25054 net.cpp:380] h_5_lstm1_unit_5_1_split -> h_5_lstm1_unit_5_1_split_1
I0222 17:41:07.675993 25054 net.cpp:122] Setting up h_5_lstm1_unit_5_1_split
I0222 17:41:07.675998 25054 net.cpp:129] Top shape: 1 26 64 (1664)
I0222 17:41:07.676017 25054 net.cpp:129] Top shape: 1 26 64 (1664)
I0222 17:41:07.676019 25054 net.cpp:137] Memory required for data: 1736384
I0222 17:41:07.676023 25054 layer_factory.hpp:77] Creating layer lstm1_h_conted_5
I0222 17:41:07.676026 25054 net.cpp:84] Creating Layer lstm1_h_conted_5
I0222 17:41:07.676029 25054 net.cpp:406] lstm1_h_conted_5 <- h_5_lstm1_unit_5_1_split_0
I0222 17:41:07.676033 25054 net.cpp:406] lstm1_h_conted_5 <- cont_6_lstm1_cont_slice_5_split_0
I0222 17:41:07.676038 25054 net.cpp:380] lstm1_h_conted_5 -> h_conted_5
I0222 17:41:07.676069 25054 net.cpp:122] Setting up lstm1_h_conted_5
I0222 17:41:07.677942 25054 net.cpp:129] Top shape: 1 26 64 (1664)
I0222 17:41:07.677948 25054 net.cpp:137] Memory required for data: 1743040
I0222 17:41:07.677951 25054 layer_factory.hpp:77] Creating layer lstm1_transform_6
I0222 17:41:07.677958 25054 net.cpp:84] Creating Layer lstm1_transform_6
I0222 17:41:07.677963 25054 net.cpp:406] lstm1_transform_6 <- h_conted_5
I0222 17:41:07.677968 25054 net.cpp:380] lstm1_transform_6 -> W_hc_h_5
I0222 17:41:07.678071 25054 net.cpp:122] Setting up lstm1_transform_6
I0222 17:41:07.678076 25054 net.cpp:129] Top shape: 1 26 256 (6656)
I0222 17:41:07.678078 25054 net.cpp:137] Memory required for data: 1769664
I0222 17:41:07.678081 25054 net.cpp:465] Sharing parameters 'W_hc' owned by layer 'lstm1_transform_1', param index 0
I0222 17:41:07.678084 25054 layer_factory.hpp:77] Creating layer lstm1_gate_input_6
I0222 17:41:07.678088 25054 net.cpp:84] Creating Layer lstm1_gate_input_6
I0222 17:41:07.678092 25054 net.cpp:406] lstm1_gate_input_6 <- W_hc_h_5
I0222 17:41:07.678094 25054 net.cpp:406] lstm1_gate_input_6 <- W_xc_x_6
I0222 17:41:07.678099 25054 net.cpp:380] lstm1_gate_input_6 -> gate_input_6
I0222 17:41:07.678113 25054 net.cpp:122] Setting up lstm1_gate_input_6
I0222 17:41:07.678124 25054 net.cpp:129] Top shape: 1 26 256 (6656)
I0222 17:41:07.678128 25054 net.cpp:137] Memory required for data: 1796288
I0222 17:41:07.678130 25054 layer_factory.hpp:77] Creating layer lstm1_unit_6
I0222 17:41:07.678133 25054 net.cpp:84] Creating Layer lstm1_unit_6
I0222 17:41:07.678136 25054 net.cpp:406] lstm1_unit_6 <- c_5
I0222 17:41:07.678139 25054 net.cpp:406] lstm1_unit_6 <- gate_input_6
I0222 17:41:07.678143 25054 net.cpp:406] lstm1_unit_6 <- cont_6_lstm1_cont_slice_5_split_1
I0222 17:41:07.678146 25054 net.cpp:380] lstm1_unit_6 -> c_6
I0222 17:41:07.678150 25054 net.cpp:380] lstm1_unit_6 -> h_6
I0222 17:41:07.678176 25054 net.cpp:122] Setting up lstm1_unit_6
I0222 17:41:07.678181 25054 net.cpp:129] Top shape: 1 26 64 (1664)
I0222 17:41:07.678184 25054 net.cpp:129] Top shape: 1 26 64 (1664)
I0222 17:41:07.678187 25054 net.cpp:137] Memory required for data: 1809600
I0222 17:41:07.678190 25054 layer_factory.hpp:77] Creating layer h_6_lstm1_unit_6_1_split
I0222 17:41:07.678194 25054 net.cpp:84] Creating Layer h_6_lstm1_unit_6_1_split
I0222 17:41:07.678197 25054 net.cpp:406] h_6_lstm1_unit_6_1_split <- h_6
I0222 17:41:07.678201 25054 net.cpp:380] h_6_lstm1_unit_6_1_split -> h_6_lstm1_unit_6_1_split_0
I0222 17:41:07.678206 25054 net.cpp:380] h_6_lstm1_unit_6_1_split -> h_6_lstm1_unit_6_1_split_1
I0222 17:41:07.678227 25054 net.cpp:122] Setting up h_6_lstm1_unit_6_1_split
I0222 17:41:07.678231 25054 net.cpp:129] Top shape: 1 26 64 (1664)
I0222 17:41:07.678236 25054 net.cpp:129] Top shape: 1 26 64 (1664)
I0222 17:41:07.678238 25054 net.cpp:137] Memory required for data: 1822912
I0222 17:41:07.678241 25054 layer_factory.hpp:77] Creating layer lstm1_h_conted_6
I0222 17:41:07.678246 25054 net.cpp:84] Creating Layer lstm1_h_conted_6
I0222 17:41:07.678248 25054 net.cpp:406] lstm1_h_conted_6 <- h_6_lstm1_unit_6_1_split_0
I0222 17:41:07.678252 25054 net.cpp:406] lstm1_h_conted_6 <- cont_7_lstm1_cont_slice_6_split_0
I0222 17:41:07.678256 25054 net.cpp:380] lstm1_h_conted_6 -> h_conted_6
I0222 17:41:07.678288 25054 net.cpp:122] Setting up lstm1_h_conted_6
I0222 17:41:07.678293 25054 net.cpp:129] Top shape: 1 26 64 (1664)
I0222 17:41:07.678297 25054 net.cpp:137] Memory required for data: 1829568
I0222 17:41:07.678299 25054 layer_factory.hpp:77] Creating layer lstm1_transform_7
I0222 17:41:07.678304 25054 net.cpp:84] Creating Layer lstm1_transform_7
I0222 17:41:07.678308 25054 net.cpp:406] lstm1_transform_7 <- h_conted_6
I0222 17:41:07.678313 25054 net.cpp:380] lstm1_transform_7 -> W_hc_h_6
I0222 17:41:07.678406 25054 net.cpp:122] Setting up lstm1_transform_7
I0222 17:41:07.678411 25054 net.cpp:129] Top shape: 1 26 256 (6656)
I0222 17:41:07.678413 25054 net.cpp:137] Memory required for data: 1856192
I0222 17:41:07.678419 25054 net.cpp:465] Sharing parameters 'W_hc' owned by layer 'lstm1_transform_1', param index 0
I0222 17:41:07.678423 25054 layer_factory.hpp:77] Creating layer lstm1_gate_input_7
I0222 17:41:07.678427 25054 net.cpp:84] Creating Layer lstm1_gate_input_7
I0222 17:41:07.678431 25054 net.cpp:406] lstm1_gate_input_7 <- W_hc_h_6
I0222 17:41:07.678434 25054 net.cpp:406] lstm1_gate_input_7 <- W_xc_x_7
I0222 17:41:07.678438 25054 net.cpp:380] lstm1_gate_input_7 -> gate_input_7
I0222 17:41:07.678452 25054 net.cpp:122] Setting up lstm1_gate_input_7
I0222 17:41:07.678457 25054 net.cpp:129] Top shape: 1 26 256 (6656)
I0222 17:41:07.678460 25054 net.cpp:137] Memory required for data: 1882816
I0222 17:41:07.678463 25054 layer_factory.hpp:77] Creating layer lstm1_unit_7
I0222 17:41:07.678468 25054 net.cpp:84] Creating Layer lstm1_unit_7
I0222 17:41:07.678472 25054 net.cpp:406] lstm1_unit_7 <- c_6
I0222 17:41:07.678475 25054 net.cpp:406] lstm1_unit_7 <- gate_input_7
I0222 17:41:07.678478 25054 net.cpp:406] lstm1_unit_7 <- cont_7_lstm1_cont_slice_6_split_1
I0222 17:41:07.678483 25054 net.cpp:380] lstm1_unit_7 -> c_7
I0222 17:41:07.678488 25054 net.cpp:380] lstm1_unit_7 -> h_7
I0222 17:41:07.678511 25054 net.cpp:122] Setting up lstm1_unit_7
I0222 17:41:07.678516 25054 net.cpp:129] Top shape: 1 26 64 (1664)
I0222 17:41:07.678524 25054 net.cpp:129] Top shape: 1 26 64 (1664)
I0222 17:41:07.678527 25054 net.cpp:137] Memory required for data: 1896128
I0222 17:41:07.678530 25054 layer_factory.hpp:77] Creating layer h_7_lstm1_unit_7_1_split
I0222 17:41:07.678539 25054 net.cpp:84] Creating Layer h_7_lstm1_unit_7_1_split
I0222 17:41:07.678544 25054 net.cpp:406] h_7_lstm1_unit_7_1_split <- h_7
I0222 17:41:07.678547 25054 net.cpp:380] h_7_lstm1_unit_7_1_split -> h_7_lstm1_unit_7_1_split_0
I0222 17:41:07.678551 25054 net.cpp:380] h_7_lstm1_unit_7_1_split -> h_7_lstm1_unit_7_1_split_1
I0222 17:41:07.678570 25054 net.cpp:122] Setting up h_7_lstm1_unit_7_1_split
I0222 17:41:07.678575 25054 net.cpp:129] Top shape: 1 26 64 (1664)
I0222 17:41:07.678578 25054 net.cpp:129] Top shape: 1 26 64 (1664)
I0222 17:41:07.678581 25054 net.cpp:137] Memory required for data: 1909440
I0222 17:41:07.678584 25054 layer_factory.hpp:77] Creating layer lstm1_h_conted_7
I0222 17:41:07.678594 25054 net.cpp:84] Creating Layer lstm1_h_conted_7
I0222 17:41:07.678598 25054 net.cpp:406] lstm1_h_conted_7 <- h_7_lstm1_unit_7_1_split_0
I0222 17:41:07.678602 25054 net.cpp:406] lstm1_h_conted_7 <- cont_8_lstm1_cont_slice_7_split_0
I0222 17:41:07.678606 25054 net.cpp:380] lstm1_h_conted_7 -> h_conted_7
I0222 17:41:07.678637 25054 net.cpp:122] Setting up lstm1_h_conted_7
I0222 17:41:07.678642 25054 net.cpp:129] Top shape: 1 26 64 (1664)
I0222 17:41:07.678645 25054 net.cpp:137] Memory required for data: 1916096
I0222 17:41:07.678649 25054 layer_factory.hpp:77] Creating layer lstm1_transform_8
I0222 17:41:07.678654 25054 net.cpp:84] Creating Layer lstm1_transform_8
I0222 17:41:07.678658 25054 net.cpp:406] lstm1_transform_8 <- h_conted_7
I0222 17:41:07.678663 25054 net.cpp:380] lstm1_transform_8 -> W_hc_h_7
I0222 17:41:07.678755 25054 net.cpp:122] Setting up lstm1_transform_8
I0222 17:41:07.678761 25054 net.cpp:129] Top shape: 1 26 256 (6656)
I0222 17:41:07.678763 25054 net.cpp:137] Memory required for data: 1942720
I0222 17:41:07.678766 25054 net.cpp:465] Sharing parameters 'W_hc' owned by layer 'lstm1_transform_1', param index 0
I0222 17:41:07.678769 25054 layer_factory.hpp:77] Creating layer lstm1_gate_input_8
I0222 17:41:07.678773 25054 net.cpp:84] Creating Layer lstm1_gate_input_8
I0222 17:41:07.678777 25054 net.cpp:406] lstm1_gate_input_8 <- W_hc_h_7
I0222 17:41:07.678781 25054 net.cpp:406] lstm1_gate_input_8 <- W_xc_x_8
I0222 17:41:07.678786 25054 net.cpp:380] lstm1_gate_input_8 -> gate_input_8
I0222 17:41:07.678799 25054 net.cpp:122] Setting up lstm1_gate_input_8
I0222 17:41:07.678803 25054 net.cpp:129] Top shape: 1 26 256 (6656)
I0222 17:41:07.678807 25054 net.cpp:137] Memory required for data: 1969344
I0222 17:41:07.678809 25054 layer_factory.hpp:77] Creating layer lstm1_unit_8
I0222 17:41:07.678813 25054 net.cpp:84] Creating Layer lstm1_unit_8
I0222 17:41:07.678817 25054 net.cpp:406] lstm1_unit_8 <- c_7
I0222 17:41:07.678820 25054 net.cpp:406] lstm1_unit_8 <- gate_input_8
I0222 17:41:07.678824 25054 net.cpp:406] lstm1_unit_8 <- cont_8_lstm1_cont_slice_7_split_1
I0222 17:41:07.678828 25054 net.cpp:380] lstm1_unit_8 -> c_8
I0222 17:41:07.678833 25054 net.cpp:380] lstm1_unit_8 -> h_8
I0222 17:41:07.706125 25054 net.cpp:122] Setting up lstm1_unit_8
I0222 17:41:07.706137 25054 net.cpp:129] Top shape: 1 26 64 (1664)
I0222 17:41:07.706157 25054 net.cpp:129] Top shape: 1 26 64 (1664)
I0222 17:41:07.706161 25054 net.cpp:137] Memory required for data: 1982656
I0222 17:41:07.706164 25054 layer_factory.hpp:77] Creating layer h_8_lstm1_unit_8_1_split
I0222 17:41:07.706169 25054 net.cpp:84] Creating Layer h_8_lstm1_unit_8_1_split
I0222 17:41:07.706173 25054 net.cpp:406] h_8_lstm1_unit_8_1_split <- h_8
I0222 17:41:07.706178 25054 net.cpp:380] h_8_lstm1_unit_8_1_split -> h_8_lstm1_unit_8_1_split_0
I0222 17:41:07.706183 25054 net.cpp:380] h_8_lstm1_unit_8_1_split -> h_8_lstm1_unit_8_1_split_1
I0222 17:41:07.706218 25054 net.cpp:122] Setting up h_8_lstm1_unit_8_1_split
I0222 17:41:07.706221 25054 net.cpp:129] Top shape: 1 26 64 (1664)
I0222 17:41:07.706248 25054 net.cpp:129] Top shape: 1 26 64 (1664)
I0222 17:41:07.706252 25054 net.cpp:137] Memory required for data: 1995968
I0222 17:41:07.706255 25054 layer_factory.hpp:77] Creating layer lstm1_h_conted_8
I0222 17:41:07.706260 25054 net.cpp:84] Creating Layer lstm1_h_conted_8
I0222 17:41:07.706264 25054 net.cpp:406] lstm1_h_conted_8 <- h_8_lstm1_unit_8_1_split_0
I0222 17:41:07.706267 25054 net.cpp:406] lstm1_h_conted_8 <- cont_9_lstm1_cont_slice_8_split_0
I0222 17:41:07.706272 25054 net.cpp:380] lstm1_h_conted_8 -> h_conted_8
I0222 17:41:07.706308 25054 net.cpp:122] Setting up lstm1_h_conted_8
I0222 17:41:07.706313 25054 net.cpp:129] Top shape: 1 26 64 (1664)
I0222 17:41:07.706316 25054 net.cpp:137] Memory required for data: 2002624
I0222 17:41:07.706320 25054 layer_factory.hpp:77] Creating layer lstm1_transform_9
I0222 17:41:07.706324 25054 net.cpp:84] Creating Layer lstm1_transform_9
I0222 17:41:07.706328 25054 net.cpp:406] lstm1_transform_9 <- h_conted_8
I0222 17:41:07.706334 25054 net.cpp:380] lstm1_transform_9 -> W_hc_h_8
I0222 17:41:07.706432 25054 net.cpp:122] Setting up lstm1_transform_9
I0222 17:41:07.706437 25054 net.cpp:129] Top shape: 1 26 256 (6656)
I0222 17:41:07.706440 25054 net.cpp:137] Memory required for data: 2029248
I0222 17:41:07.706444 25054 net.cpp:465] Sharing parameters 'W_hc' owned by layer 'lstm1_transform_1', param index 0
I0222 17:41:07.706449 25054 layer_factory.hpp:77] Creating layer lstm1_gate_input_9
I0222 17:41:07.706452 25054 net.cpp:84] Creating Layer lstm1_gate_input_9
I0222 17:41:07.706456 25054 net.cpp:406] lstm1_gate_input_9 <- W_hc_h_8
I0222 17:41:07.706460 25054 net.cpp:406] lstm1_gate_input_9 <- W_xc_x_9
I0222 17:41:07.706465 25054 net.cpp:380] lstm1_gate_input_9 -> gate_input_9
I0222 17:41:07.706480 25054 net.cpp:122] Setting up lstm1_gate_input_9
I0222 17:41:07.706485 25054 net.cpp:129] Top shape: 1 26 256 (6656)
I0222 17:41:07.706487 25054 net.cpp:137] Memory required for data: 2055872
I0222 17:41:07.706490 25054 layer_factory.hpp:77] Creating layer lstm1_unit_9
I0222 17:41:07.706496 25054 net.cpp:84] Creating Layer lstm1_unit_9
I0222 17:41:07.706498 25054 net.cpp:406] lstm1_unit_9 <- c_8
I0222 17:41:07.706502 25054 net.cpp:406] lstm1_unit_9 <- gate_input_9
I0222 17:41:07.706506 25054 net.cpp:406] lstm1_unit_9 <- cont_9_lstm1_cont_slice_8_split_1
I0222 17:41:07.706511 25054 net.cpp:380] lstm1_unit_9 -> c_9
I0222 17:41:07.706516 25054 net.cpp:380] lstm1_unit_9 -> h_9
I0222 17:41:07.706540 25054 net.cpp:122] Setting up lstm1_unit_9
I0222 17:41:07.706545 25054 net.cpp:129] Top shape: 1 26 64 (1664)
I0222 17:41:07.706549 25054 net.cpp:129] Top shape: 1 26 64 (1664)
I0222 17:41:07.706552 25054 net.cpp:137] Memory required for data: 2069184
I0222 17:41:07.706555 25054 layer_factory.hpp:77] Creating layer h_9_lstm1_unit_9_1_split
I0222 17:41:07.706559 25054 net.cpp:84] Creating Layer h_9_lstm1_unit_9_1_split
I0222 17:41:07.706563 25054 net.cpp:406] h_9_lstm1_unit_9_1_split <- h_9
I0222 17:41:07.706568 25054 net.cpp:380] h_9_lstm1_unit_9_1_split -> h_9_lstm1_unit_9_1_split_0
I0222 17:41:07.706573 25054 net.cpp:380] h_9_lstm1_unit_9_1_split -> h_9_lstm1_unit_9_1_split_1
I0222 17:41:07.706589 25054 net.cpp:122] Setting up h_9_lstm1_unit_9_1_split
I0222 17:41:07.706594 25054 net.cpp:129] Top shape: 1 26 64 (1664)
I0222 17:41:07.706598 25054 net.cpp:129] Top shape: 1 26 64 (1664)
I0222 17:41:07.706600 25054 net.cpp:137] Memory required for data: 2082496
I0222 17:41:07.706604 25054 layer_factory.hpp:77] Creating layer lstm1_h_conted_9
I0222 17:41:07.706609 25054 net.cpp:84] Creating Layer lstm1_h_conted_9
I0222 17:41:07.706612 25054 net.cpp:406] lstm1_h_conted_9 <- h_9_lstm1_unit_9_1_split_0
I0222 17:41:07.706616 25054 net.cpp:406] lstm1_h_conted_9 <- cont_10_lstm1_cont_slice_9_split_0
I0222 17:41:07.706621 25054 net.cpp:380] lstm1_h_conted_9 -> h_conted_9
I0222 17:41:07.706651 25054 net.cpp:122] Setting up lstm1_h_conted_9
I0222 17:41:07.706656 25054 net.cpp:129] Top shape: 1 26 64 (1664)
I0222 17:41:07.706660 25054 net.cpp:137] Memory required for data: 2089152
I0222 17:41:07.706667 25054 layer_factory.hpp:77] Creating layer lstm1_transform_10
I0222 17:41:07.706672 25054 net.cpp:84] Creating Layer lstm1_transform_10
I0222 17:41:07.706676 25054 net.cpp:406] lstm1_transform_10 <- h_conted_9
I0222 17:41:07.706681 25054 net.cpp:380] lstm1_transform_10 -> W_hc_h_9
I0222 17:41:07.706779 25054 net.cpp:122] Setting up lstm1_transform_10
I0222 17:41:07.706784 25054 net.cpp:129] Top shape: 1 26 256 (6656)
I0222 17:41:07.706786 25054 net.cpp:137] Memory required for data: 2115776
I0222 17:41:07.706789 25054 net.cpp:465] Sharing parameters 'W_hc' owned by layer 'lstm1_transform_1', param index 0
I0222 17:41:07.706794 25054 layer_factory.hpp:77] Creating layer lstm1_gate_input_10
I0222 17:41:07.706797 25054 net.cpp:84] Creating Layer lstm1_gate_input_10
I0222 17:41:07.706800 25054 net.cpp:406] lstm1_gate_input_10 <- W_hc_h_9
I0222 17:41:07.706804 25054 net.cpp:406] lstm1_gate_input_10 <- W_xc_x_10
I0222 17:41:07.706809 25054 net.cpp:380] lstm1_gate_input_10 -> gate_input_10
I0222 17:41:07.706821 25054 net.cpp:122] Setting up lstm1_gate_input_10
I0222 17:41:07.706825 25054 net.cpp:129] Top shape: 1 26 256 (6656)
I0222 17:41:07.706828 25054 net.cpp:137] Memory required for data: 2142400
I0222 17:41:07.706831 25054 layer_factory.hpp:77] Creating layer lstm1_unit_10
I0222 17:41:07.706836 25054 net.cpp:84] Creating Layer lstm1_unit_10
I0222 17:41:07.706840 25054 net.cpp:406] lstm1_unit_10 <- c_9
I0222 17:41:07.706845 25054 net.cpp:406] lstm1_unit_10 <- gate_input_10
I0222 17:41:07.706847 25054 net.cpp:406] lstm1_unit_10 <- cont_10_lstm1_cont_slice_9_split_1
I0222 17:41:07.706852 25054 net.cpp:380] lstm1_unit_10 -> c_10
I0222 17:41:07.706856 25054 net.cpp:380] lstm1_unit_10 -> h_10
I0222 17:41:07.706881 25054 net.cpp:122] Setting up lstm1_unit_10
I0222 17:41:07.706885 25054 net.cpp:129] Top shape: 1 26 64 (1664)
I0222 17:41:07.706889 25054 net.cpp:129] Top shape: 1 26 64 (1664)
I0222 17:41:07.706892 25054 net.cpp:137] Memory required for data: 2155712
I0222 17:41:07.706895 25054 layer_factory.hpp:77] Creating layer h_10_lstm1_unit_10_1_split
I0222 17:41:07.706899 25054 net.cpp:84] Creating Layer h_10_lstm1_unit_10_1_split
I0222 17:41:07.706902 25054 net.cpp:406] h_10_lstm1_unit_10_1_split <- h_10
I0222 17:41:07.706907 25054 net.cpp:380] h_10_lstm1_unit_10_1_split -> h_10_lstm1_unit_10_1_split_0
I0222 17:41:07.706912 25054 net.cpp:380] h_10_lstm1_unit_10_1_split -> h_10_lstm1_unit_10_1_split_1
I0222 17:41:07.706929 25054 net.cpp:122] Setting up h_10_lstm1_unit_10_1_split
I0222 17:41:07.706933 25054 net.cpp:129] Top shape: 1 26 64 (1664)
I0222 17:41:07.706938 25054 net.cpp:129] Top shape: 1 26 64 (1664)
I0222 17:41:07.706940 25054 net.cpp:137] Memory required for data: 2169024
I0222 17:41:07.706943 25054 layer_factory.hpp:77] Creating layer lstm1_h_conted_10
I0222 17:41:07.706948 25054 net.cpp:84] Creating Layer lstm1_h_conted_10
I0222 17:41:07.706951 25054 net.cpp:406] lstm1_h_conted_10 <- h_10_lstm1_unit_10_1_split_0
I0222 17:41:07.706956 25054 net.cpp:406] lstm1_h_conted_10 <- cont_11_lstm1_cont_slice_10_split_0
I0222 17:41:07.706961 25054 net.cpp:380] lstm1_h_conted_10 -> h_conted_10
I0222 17:41:07.708894 25054 net.cpp:122] Setting up lstm1_h_conted_10
I0222 17:41:07.708904 25054 net.cpp:129] Top shape: 1 26 64 (1664)
I0222 17:41:07.708920 25054 net.cpp:137] Memory required for data: 2175680
I0222 17:41:07.708923 25054 layer_factory.hpp:77] Creating layer lstm1_transform_11
I0222 17:41:07.708930 25054 net.cpp:84] Creating Layer lstm1_transform_11
I0222 17:41:07.708932 25054 net.cpp:406] lstm1_transform_11 <- h_conted_10
I0222 17:41:07.708937 25054 net.cpp:380] lstm1_transform_11 -> W_hc_h_10
I0222 17:41:07.709034 25054 net.cpp:122] Setting up lstm1_transform_11
I0222 17:41:07.709039 25054 net.cpp:129] Top shape: 1 26 256 (6656)
I0222 17:41:07.709043 25054 net.cpp:137] Memory required for data: 2202304
I0222 17:41:07.709046 25054 net.cpp:465] Sharing parameters 'W_hc' owned by layer 'lstm1_transform_1', param index 0
I0222 17:41:07.709049 25054 layer_factory.hpp:77] Creating layer lstm1_gate_input_11
I0222 17:41:07.709061 25054 net.cpp:84] Creating Layer lstm1_gate_input_11
I0222 17:41:07.709065 25054 net.cpp:406] lstm1_gate_input_11 <- W_hc_h_10
I0222 17:41:07.709069 25054 net.cpp:406] lstm1_gate_input_11 <- W_xc_x_11
I0222 17:41:07.709074 25054 net.cpp:380] lstm1_gate_input_11 -> gate_input_11
I0222 17:41:07.709087 25054 net.cpp:122] Setting up lstm1_gate_input_11
I0222 17:41:07.709092 25054 net.cpp:129] Top shape: 1 26 256 (6656)
I0222 17:41:07.709095 25054 net.cpp:137] Memory required for data: 2228928
I0222 17:41:07.709098 25054 layer_factory.hpp:77] Creating layer lstm1_unit_11
I0222 17:41:07.709102 25054 net.cpp:84] Creating Layer lstm1_unit_11
I0222 17:41:07.709105 25054 net.cpp:406] lstm1_unit_11 <- c_10
I0222 17:41:07.709110 25054 net.cpp:406] lstm1_unit_11 <- gate_input_11
I0222 17:41:07.709113 25054 net.cpp:406] lstm1_unit_11 <- cont_11_lstm1_cont_slice_10_split_1
I0222 17:41:07.709120 25054 net.cpp:380] lstm1_unit_11 -> c_11
I0222 17:41:07.709125 25054 net.cpp:380] lstm1_unit_11 -> h_11
I0222 17:41:07.709148 25054 net.cpp:122] Setting up lstm1_unit_11
I0222 17:41:07.709153 25054 net.cpp:129] Top shape: 1 26 64 (1664)
I0222 17:41:07.709157 25054 net.cpp:129] Top shape: 1 26 64 (1664)
I0222 17:41:07.709161 25054 net.cpp:137] Memory required for data: 2242240
I0222 17:41:07.709163 25054 layer_factory.hpp:77] Creating layer h_11_lstm1_unit_11_1_split
I0222 17:41:07.709167 25054 net.cpp:84] Creating Layer h_11_lstm1_unit_11_1_split
I0222 17:41:07.709170 25054 net.cpp:406] h_11_lstm1_unit_11_1_split <- h_11
I0222 17:41:07.709174 25054 net.cpp:380] h_11_lstm1_unit_11_1_split -> h_11_lstm1_unit_11_1_split_0
I0222 17:41:07.709179 25054 net.cpp:380] h_11_lstm1_unit_11_1_split -> h_11_lstm1_unit_11_1_split_1
I0222 17:41:07.709197 25054 net.cpp:122] Setting up h_11_lstm1_unit_11_1_split
I0222 17:41:07.709203 25054 net.cpp:129] Top shape: 1 26 64 (1664)
I0222 17:41:07.709205 25054 net.cpp:129] Top shape: 1 26 64 (1664)
I0222 17:41:07.709208 25054 net.cpp:137] Memory required for data: 2255552
I0222 17:41:07.709211 25054 layer_factory.hpp:77] Creating layer lstm1_h_conted_11
I0222 17:41:07.709220 25054 net.cpp:84] Creating Layer lstm1_h_conted_11
I0222 17:41:07.709224 25054 net.cpp:406] lstm1_h_conted_11 <- h_11_lstm1_unit_11_1_split_0
I0222 17:41:07.709229 25054 net.cpp:406] lstm1_h_conted_11 <- cont_12_lstm1_cont_slice_11_split_0
I0222 17:41:07.709233 25054 net.cpp:380] lstm1_h_conted_11 -> h_conted_11
I0222 17:41:07.709266 25054 net.cpp:122] Setting up lstm1_h_conted_11
I0222 17:41:07.709271 25054 net.cpp:129] Top shape: 1 26 64 (1664)
I0222 17:41:07.709275 25054 net.cpp:137] Memory required for data: 2262208
I0222 17:41:07.709277 25054 layer_factory.hpp:77] Creating layer lstm1_transform_12
I0222 17:41:07.709282 25054 net.cpp:84] Creating Layer lstm1_transform_12
I0222 17:41:07.709285 25054 net.cpp:406] lstm1_transform_12 <- h_conted_11
I0222 17:41:07.709290 25054 net.cpp:380] lstm1_transform_12 -> W_hc_h_11
I0222 17:41:07.709391 25054 net.cpp:122] Setting up lstm1_transform_12
I0222 17:41:07.709396 25054 net.cpp:129] Top shape: 1 26 256 (6656)
I0222 17:41:07.709399 25054 net.cpp:137] Memory required for data: 2288832
I0222 17:41:07.709403 25054 net.cpp:465] Sharing parameters 'W_hc' owned by layer 'lstm1_transform_1', param index 0
I0222 17:41:07.709406 25054 layer_factory.hpp:77] Creating layer lstm1_gate_input_12
I0222 17:41:07.709410 25054 net.cpp:84] Creating Layer lstm1_gate_input_12
I0222 17:41:07.709414 25054 net.cpp:406] lstm1_gate_input_12 <- W_hc_h_11
I0222 17:41:07.709417 25054 net.cpp:406] lstm1_gate_input_12 <- W_xc_x_12
I0222 17:41:07.709422 25054 net.cpp:380] lstm1_gate_input_12 -> gate_input_12
I0222 17:41:07.709435 25054 net.cpp:122] Setting up lstm1_gate_input_12
I0222 17:41:07.709440 25054 net.cpp:129] Top shape: 1 26 256 (6656)
I0222 17:41:07.709444 25054 net.cpp:137] Memory required for data: 2315456
I0222 17:41:07.709445 25054 layer_factory.hpp:77] Creating layer lstm1_unit_12
I0222 17:41:07.709450 25054 net.cpp:84] Creating Layer lstm1_unit_12
I0222 17:41:07.709453 25054 net.cpp:406] lstm1_unit_12 <- c_11
I0222 17:41:07.709462 25054 net.cpp:406] lstm1_unit_12 <- gate_input_12
I0222 17:41:07.709467 25054 net.cpp:406] lstm1_unit_12 <- cont_12_lstm1_cont_slice_11_split_1
I0222 17:41:07.709470 25054 net.cpp:380] lstm1_unit_12 -> c_12
I0222 17:41:07.709475 25054 net.cpp:380] lstm1_unit_12 -> h_12
I0222 17:41:07.709499 25054 net.cpp:122] Setting up lstm1_unit_12
I0222 17:41:07.709504 25054 net.cpp:129] Top shape: 1 26 64 (1664)
I0222 17:41:07.709507 25054 net.cpp:129] Top shape: 1 26 64 (1664)
I0222 17:41:07.709511 25054 net.cpp:137] Memory required for data: 2328768
I0222 17:41:07.709513 25054 layer_factory.hpp:77] Creating layer h_12_lstm1_unit_12_1_split
I0222 17:41:07.709517 25054 net.cpp:84] Creating Layer h_12_lstm1_unit_12_1_split
I0222 17:41:07.709522 25054 net.cpp:406] h_12_lstm1_unit_12_1_split <- h_12
I0222 17:41:07.709525 25054 net.cpp:380] h_12_lstm1_unit_12_1_split -> h_12_lstm1_unit_12_1_split_0
I0222 17:41:07.709529 25054 net.cpp:380] h_12_lstm1_unit_12_1_split -> h_12_lstm1_unit_12_1_split_1
I0222 17:41:07.709547 25054 net.cpp:122] Setting up h_12_lstm1_unit_12_1_split
I0222 17:41:07.709553 25054 net.cpp:129] Top shape: 1 26 64 (1664)
I0222 17:41:07.709555 25054 net.cpp:129] Top shape: 1 26 64 (1664)
I0222 17:41:07.709558 25054 net.cpp:137] Memory required for data: 2342080
I0222 17:41:07.709561 25054 layer_factory.hpp:77] Creating layer lstm1_h_conted_12
I0222 17:41:07.709565 25054 net.cpp:84] Creating Layer lstm1_h_conted_12
I0222 17:41:07.709569 25054 net.cpp:406] lstm1_h_conted_12 <- h_12_lstm1_unit_12_1_split_0
I0222 17:41:07.709573 25054 net.cpp:406] lstm1_h_conted_12 <- cont_13_lstm1_cont_slice_12_split_0
I0222 17:41:07.709578 25054 net.cpp:380] lstm1_h_conted_12 -> h_conted_12
I0222 17:41:07.709606 25054 net.cpp:122] Setting up lstm1_h_conted_12
I0222 17:41:07.709611 25054 net.cpp:129] Top shape: 1 26 64 (1664)
I0222 17:41:07.709614 25054 net.cpp:137] Memory required for data: 2348736
I0222 17:41:07.709617 25054 layer_factory.hpp:77] Creating layer lstm1_transform_13
I0222 17:41:07.709622 25054 net.cpp:84] Creating Layer lstm1_transform_13
I0222 17:41:07.709625 25054 net.cpp:406] lstm1_transform_13 <- h_conted_12
I0222 17:41:07.709630 25054 net.cpp:380] lstm1_transform_13 -> W_hc_h_12
I0222 17:41:07.709722 25054 net.cpp:122] Setting up lstm1_transform_13
I0222 17:41:07.709728 25054 net.cpp:129] Top shape: 1 26 256 (6656)
I0222 17:41:07.709730 25054 net.cpp:137] Memory required for data: 2375360
I0222 17:41:07.709733 25054 net.cpp:465] Sharing parameters 'W_hc' owned by layer 'lstm1_transform_1', param index 0
I0222 17:41:07.709736 25054 layer_factory.hpp:77] Creating layer lstm1_gate_input_13
I0222 17:41:07.709740 25054 net.cpp:84] Creating Layer lstm1_gate_input_13
I0222 17:41:07.709744 25054 net.cpp:406] lstm1_gate_input_13 <- W_hc_h_12
I0222 17:41:07.709748 25054 net.cpp:406] lstm1_gate_input_13 <- W_xc_x_13
I0222 17:41:07.736958 25054 net.cpp:380] lstm1_gate_input_13 -> gate_input_13
I0222 17:41:07.736997 25054 net.cpp:122] Setting up lstm1_gate_input_13
I0222 17:41:07.737004 25054 net.cpp:129] Top shape: 1 26 256 (6656)
I0222 17:41:07.737007 25054 net.cpp:137] Memory required for data: 2401984
I0222 17:41:07.737010 25054 layer_factory.hpp:77] Creating layer lstm1_unit_13
I0222 17:41:07.737015 25054 net.cpp:84] Creating Layer lstm1_unit_13
I0222 17:41:07.737018 25054 net.cpp:406] lstm1_unit_13 <- c_12
I0222 17:41:07.737022 25054 net.cpp:406] lstm1_unit_13 <- gate_input_13
I0222 17:41:07.737027 25054 net.cpp:406] lstm1_unit_13 <- cont_13_lstm1_cont_slice_12_split_1
I0222 17:41:07.737031 25054 net.cpp:380] lstm1_unit_13 -> c_13
I0222 17:41:07.737035 25054 net.cpp:380] lstm1_unit_13 -> h_13
I0222 17:41:07.737061 25054 net.cpp:122] Setting up lstm1_unit_13
I0222 17:41:07.737066 25054 net.cpp:129] Top shape: 1 26 64 (1664)
I0222 17:41:07.737068 25054 net.cpp:129] Top shape: 1 26 64 (1664)
I0222 17:41:07.737071 25054 net.cpp:137] Memory required for data: 2415296
I0222 17:41:07.737073 25054 layer_factory.hpp:77] Creating layer h_13_lstm1_unit_13_1_split
I0222 17:41:07.737077 25054 net.cpp:84] Creating Layer h_13_lstm1_unit_13_1_split
I0222 17:41:07.737092 25054 net.cpp:406] h_13_lstm1_unit_13_1_split <- h_13
I0222 17:41:07.737095 25054 net.cpp:380] h_13_lstm1_unit_13_1_split -> h_13_lstm1_unit_13_1_split_0
I0222 17:41:07.737100 25054 net.cpp:380] h_13_lstm1_unit_13_1_split -> h_13_lstm1_unit_13_1_split_1
I0222 17:41:07.737120 25054 net.cpp:122] Setting up h_13_lstm1_unit_13_1_split
I0222 17:41:07.737124 25054 net.cpp:129] Top shape: 1 26 64 (1664)
I0222 17:41:07.737128 25054 net.cpp:129] Top shape: 1 26 64 (1664)
I0222 17:41:07.737131 25054 net.cpp:137] Memory required for data: 2428608
I0222 17:41:07.737134 25054 layer_factory.hpp:77] Creating layer lstm1_h_conted_13
I0222 17:41:07.737143 25054 net.cpp:84] Creating Layer lstm1_h_conted_13
I0222 17:41:07.737145 25054 net.cpp:406] lstm1_h_conted_13 <- h_13_lstm1_unit_13_1_split_0
I0222 17:41:07.737150 25054 net.cpp:406] lstm1_h_conted_13 <- cont_14_lstm1_cont_slice_13_split_0
I0222 17:41:07.737155 25054 net.cpp:380] lstm1_h_conted_13 -> h_conted_13
I0222 17:41:07.737190 25054 net.cpp:122] Setting up lstm1_h_conted_13
I0222 17:41:07.737195 25054 net.cpp:129] Top shape: 1 26 64 (1664)
I0222 17:41:07.737197 25054 net.cpp:137] Memory required for data: 2435264
I0222 17:41:07.737200 25054 layer_factory.hpp:77] Creating layer lstm1_transform_14
I0222 17:41:07.737205 25054 net.cpp:84] Creating Layer lstm1_transform_14
I0222 17:41:07.737210 25054 net.cpp:406] lstm1_transform_14 <- h_conted_13
I0222 17:41:07.737215 25054 net.cpp:380] lstm1_transform_14 -> W_hc_h_13
I0222 17:41:07.737313 25054 net.cpp:122] Setting up lstm1_transform_14
I0222 17:41:07.737318 25054 net.cpp:129] Top shape: 1 26 256 (6656)
I0222 17:41:07.737321 25054 net.cpp:137] Memory required for data: 2461888
I0222 17:41:07.737324 25054 net.cpp:465] Sharing parameters 'W_hc' owned by layer 'lstm1_transform_1', param index 0
I0222 17:41:07.737329 25054 layer_factory.hpp:77] Creating layer lstm1_gate_input_14
I0222 17:41:07.737334 25054 net.cpp:84] Creating Layer lstm1_gate_input_14
I0222 17:41:07.737336 25054 net.cpp:406] lstm1_gate_input_14 <- W_hc_h_13
I0222 17:41:07.737340 25054 net.cpp:406] lstm1_gate_input_14 <- W_xc_x_14
I0222 17:41:07.737344 25054 net.cpp:380] lstm1_gate_input_14 -> gate_input_14
I0222 17:41:07.737373 25054 net.cpp:122] Setting up lstm1_gate_input_14
I0222 17:41:07.737380 25054 net.cpp:129] Top shape: 1 26 256 (6656)
I0222 17:41:07.737382 25054 net.cpp:137] Memory required for data: 2488512
I0222 17:41:07.737385 25054 layer_factory.hpp:77] Creating layer lstm1_unit_14
I0222 17:41:07.737391 25054 net.cpp:84] Creating Layer lstm1_unit_14
I0222 17:41:07.737396 25054 net.cpp:406] lstm1_unit_14 <- c_13
I0222 17:41:07.737399 25054 net.cpp:406] lstm1_unit_14 <- gate_input_14
I0222 17:41:07.737402 25054 net.cpp:406] lstm1_unit_14 <- cont_14_lstm1_cont_slice_13_split_1
I0222 17:41:07.737406 25054 net.cpp:380] lstm1_unit_14 -> c_14
I0222 17:41:07.737411 25054 net.cpp:380] lstm1_unit_14 -> h_14
I0222 17:41:07.737435 25054 net.cpp:122] Setting up lstm1_unit_14
I0222 17:41:07.737440 25054 net.cpp:129] Top shape: 1 26 64 (1664)
I0222 17:41:07.737443 25054 net.cpp:129] Top shape: 1 26 64 (1664)
I0222 17:41:07.737447 25054 net.cpp:137] Memory required for data: 2501824
I0222 17:41:07.737449 25054 layer_factory.hpp:77] Creating layer h_14_lstm1_unit_14_1_split
I0222 17:41:07.737453 25054 net.cpp:84] Creating Layer h_14_lstm1_unit_14_1_split
I0222 17:41:07.737457 25054 net.cpp:406] h_14_lstm1_unit_14_1_split <- h_14
I0222 17:41:07.737462 25054 net.cpp:380] h_14_lstm1_unit_14_1_split -> h_14_lstm1_unit_14_1_split_0
I0222 17:41:07.737466 25054 net.cpp:380] h_14_lstm1_unit_14_1_split -> h_14_lstm1_unit_14_1_split_1
I0222 17:41:07.737483 25054 net.cpp:122] Setting up h_14_lstm1_unit_14_1_split
I0222 17:41:07.737488 25054 net.cpp:129] Top shape: 1 26 64 (1664)
I0222 17:41:07.737491 25054 net.cpp:129] Top shape: 1 26 64 (1664)
I0222 17:41:07.737493 25054 net.cpp:137] Memory required for data: 2515136
I0222 17:41:07.737496 25054 layer_factory.hpp:77] Creating layer lstm1_h_conted_14
I0222 17:41:07.737501 25054 net.cpp:84] Creating Layer lstm1_h_conted_14
I0222 17:41:07.737511 25054 net.cpp:406] lstm1_h_conted_14 <- h_14_lstm1_unit_14_1_split_0
I0222 17:41:07.737515 25054 net.cpp:406] lstm1_h_conted_14 <- cont_15_lstm1_cont_slice_14_split_0
I0222 17:41:07.737520 25054 net.cpp:380] lstm1_h_conted_14 -> h_conted_14
I0222 17:41:07.737552 25054 net.cpp:122] Setting up lstm1_h_conted_14
I0222 17:41:07.737557 25054 net.cpp:129] Top shape: 1 26 64 (1664)
I0222 17:41:07.737560 25054 net.cpp:137] Memory required for data: 2521792
I0222 17:41:07.737563 25054 layer_factory.hpp:77] Creating layer lstm1_transform_15
I0222 17:41:07.737567 25054 net.cpp:84] Creating Layer lstm1_transform_15
I0222 17:41:07.737571 25054 net.cpp:406] lstm1_transform_15 <- h_conted_14
I0222 17:41:07.737576 25054 net.cpp:380] lstm1_transform_15 -> W_hc_h_14
I0222 17:41:07.737699 25054 net.cpp:122] Setting up lstm1_transform_15
I0222 17:41:07.737720 25054 net.cpp:129] Top shape: 1 26 256 (6656)
I0222 17:41:07.737723 25054 net.cpp:137] Memory required for data: 2548416
I0222 17:41:07.737731 25054 net.cpp:465] Sharing parameters 'W_hc' owned by layer 'lstm1_transform_1', param index 0
I0222 17:41:07.737735 25054 layer_factory.hpp:77] Creating layer lstm1_gate_input_15
I0222 17:41:07.737740 25054 net.cpp:84] Creating Layer lstm1_gate_input_15
I0222 17:41:07.737745 25054 net.cpp:406] lstm1_gate_input_15 <- W_hc_h_14
I0222 17:41:07.737747 25054 net.cpp:406] lstm1_gate_input_15 <- W_xc_x_15
I0222 17:41:07.737766 25054 net.cpp:380] lstm1_gate_input_15 -> gate_input_15
I0222 17:41:07.737779 25054 net.cpp:122] Setting up lstm1_gate_input_15
I0222 17:41:07.737784 25054 net.cpp:129] Top shape: 1 26 256 (6656)
I0222 17:41:07.737787 25054 net.cpp:137] Memory required for data: 2575040
I0222 17:41:07.737790 25054 layer_factory.hpp:77] Creating layer lstm1_unit_15
I0222 17:41:07.737795 25054 net.cpp:84] Creating Layer lstm1_unit_15
I0222 17:41:07.737798 25054 net.cpp:406] lstm1_unit_15 <- c_14
I0222 17:41:07.737802 25054 net.cpp:406] lstm1_unit_15 <- gate_input_15
I0222 17:41:07.737807 25054 net.cpp:406] lstm1_unit_15 <- cont_15_lstm1_cont_slice_14_split_1
I0222 17:41:07.737810 25054 net.cpp:380] lstm1_unit_15 -> c_15
I0222 17:41:07.737815 25054 net.cpp:380] lstm1_unit_15 -> h_15
I0222 17:41:07.737839 25054 net.cpp:122] Setting up lstm1_unit_15
I0222 17:41:07.737844 25054 net.cpp:129] Top shape: 1 26 64 (1664)
I0222 17:41:07.737848 25054 net.cpp:129] Top shape: 1 26 64 (1664)
I0222 17:41:07.737850 25054 net.cpp:137] Memory required for data: 2588352
I0222 17:41:07.737854 25054 layer_factory.hpp:77] Creating layer h_15_lstm1_unit_15_1_split
I0222 17:41:07.737857 25054 net.cpp:84] Creating Layer h_15_lstm1_unit_15_1_split
I0222 17:41:07.741751 25054 net.cpp:406] h_15_lstm1_unit_15_1_split <- h_15
I0222 17:41:07.741763 25054 net.cpp:380] h_15_lstm1_unit_15_1_split -> h_15_lstm1_unit_15_1_split_0
I0222 17:41:07.741770 25054 net.cpp:380] h_15_lstm1_unit_15_1_split -> h_15_lstm1_unit_15_1_split_1
I0222 17:41:07.741796 25054 net.cpp:122] Setting up h_15_lstm1_unit_15_1_split
I0222 17:41:07.741802 25054 net.cpp:129] Top shape: 1 26 64 (1664)
I0222 17:41:07.741806 25054 net.cpp:129] Top shape: 1 26 64 (1664)
I0222 17:41:07.741807 25054 net.cpp:137] Memory required for data: 2601664
I0222 17:41:07.741811 25054 layer_factory.hpp:77] Creating layer lstm1_h_conted_15
I0222 17:41:07.741816 25054 net.cpp:84] Creating Layer lstm1_h_conted_15
I0222 17:41:07.741819 25054 net.cpp:406] lstm1_h_conted_15 <- h_15_lstm1_unit_15_1_split_0
I0222 17:41:07.741835 25054 net.cpp:406] lstm1_h_conted_15 <- cont_16_lstm1_cont_slice_15_split_0
I0222 17:41:07.741840 25054 net.cpp:380] lstm1_h_conted_15 -> h_conted_15
I0222 17:41:07.741907 25054 net.cpp:122] Setting up lstm1_h_conted_15
I0222 17:41:07.741912 25054 net.cpp:129] Top shape: 1 26 64 (1664)
I0222 17:41:07.741930 25054 net.cpp:137] Memory required for data: 2608320
I0222 17:41:07.741933 25054 layer_factory.hpp:77] Creating layer lstm1_transform_16
I0222 17:41:07.741938 25054 net.cpp:84] Creating Layer lstm1_transform_16
I0222 17:41:07.741942 25054 net.cpp:406] lstm1_transform_16 <- h_conted_15
I0222 17:41:07.741953 25054 net.cpp:380] lstm1_transform_16 -> W_hc_h_15
I0222 17:41:07.742050 25054 net.cpp:122] Setting up lstm1_transform_16
I0222 17:41:07.742055 25054 net.cpp:129] Top shape: 1 26 256 (6656)
I0222 17:41:07.742058 25054 net.cpp:137] Memory required for data: 2634944
I0222 17:41:07.742063 25054 net.cpp:465] Sharing parameters 'W_hc' owned by layer 'lstm1_transform_1', param index 0
I0222 17:41:07.742065 25054 layer_factory.hpp:77] Creating layer lstm1_gate_input_16
I0222 17:41:07.742071 25054 net.cpp:84] Creating Layer lstm1_gate_input_16
I0222 17:41:07.742074 25054 net.cpp:406] lstm1_gate_input_16 <- W_hc_h_15
I0222 17:41:07.742079 25054 net.cpp:406] lstm1_gate_input_16 <- W_xc_x_16
I0222 17:41:07.742082 25054 net.cpp:380] lstm1_gate_input_16 -> gate_input_16
I0222 17:41:07.742095 25054 net.cpp:122] Setting up lstm1_gate_input_16
I0222 17:41:07.742100 25054 net.cpp:129] Top shape: 1 26 256 (6656)
I0222 17:41:07.742102 25054 net.cpp:137] Memory required for data: 2661568
I0222 17:41:07.742105 25054 layer_factory.hpp:77] Creating layer lstm1_unit_16
I0222 17:41:07.742110 25054 net.cpp:84] Creating Layer lstm1_unit_16
I0222 17:41:07.742113 25054 net.cpp:406] lstm1_unit_16 <- c_15
I0222 17:41:07.742117 25054 net.cpp:406] lstm1_unit_16 <- gate_input_16
I0222 17:41:07.742120 25054 net.cpp:406] lstm1_unit_16 <- cont_16_lstm1_cont_slice_15_split_1
I0222 17:41:07.742126 25054 net.cpp:380] lstm1_unit_16 -> c_16
I0222 17:41:07.742131 25054 net.cpp:380] lstm1_unit_16 -> h_16
I0222 17:41:07.742156 25054 net.cpp:122] Setting up lstm1_unit_16
I0222 17:41:07.742159 25054 net.cpp:129] Top shape: 1 26 64 (1664)
I0222 17:41:07.742163 25054 net.cpp:129] Top shape: 1 26 64 (1664)
I0222 17:41:07.742166 25054 net.cpp:137] Memory required for data: 2674880
I0222 17:41:07.742169 25054 layer_factory.hpp:77] Creating layer h_16_lstm1_unit_16_1_split
I0222 17:41:07.742173 25054 net.cpp:84] Creating Layer h_16_lstm1_unit_16_1_split
I0222 17:41:07.742177 25054 net.cpp:406] h_16_lstm1_unit_16_1_split <- h_16
I0222 17:41:07.742180 25054 net.cpp:380] h_16_lstm1_unit_16_1_split -> h_16_lstm1_unit_16_1_split_0
I0222 17:41:07.742185 25054 net.cpp:380] h_16_lstm1_unit_16_1_split -> h_16_lstm1_unit_16_1_split_1
I0222 17:41:07.742202 25054 net.cpp:122] Setting up h_16_lstm1_unit_16_1_split
I0222 17:41:07.742208 25054 net.cpp:129] Top shape: 1 26 64 (1664)
I0222 17:41:07.742211 25054 net.cpp:129] Top shape: 1 26 64 (1664)
I0222 17:41:07.742213 25054 net.cpp:137] Memory required for data: 2688192
I0222 17:41:07.742216 25054 layer_factory.hpp:77] Creating layer lstm1_h_conted_16
I0222 17:41:07.742220 25054 net.cpp:84] Creating Layer lstm1_h_conted_16
I0222 17:41:07.742224 25054 net.cpp:406] lstm1_h_conted_16 <- h_16_lstm1_unit_16_1_split_0
I0222 17:41:07.742229 25054 net.cpp:406] lstm1_h_conted_16 <- cont_17_lstm1_cont_slice_16_split_0
I0222 17:41:07.742233 25054 net.cpp:380] lstm1_h_conted_16 -> h_conted_16
I0222 17:41:07.742264 25054 net.cpp:122] Setting up lstm1_h_conted_16
I0222 17:41:07.742269 25054 net.cpp:129] Top shape: 1 26 64 (1664)
I0222 17:41:07.742271 25054 net.cpp:137] Memory required for data: 2694848
I0222 17:41:07.742274 25054 layer_factory.hpp:77] Creating layer lstm1_transform_17
I0222 17:41:07.742280 25054 net.cpp:84] Creating Layer lstm1_transform_17
I0222 17:41:07.742283 25054 net.cpp:406] lstm1_transform_17 <- h_conted_16
I0222 17:41:07.742288 25054 net.cpp:380] lstm1_transform_17 -> W_hc_h_16
I0222 17:41:07.742379 25054 net.cpp:122] Setting up lstm1_transform_17
I0222 17:41:07.742385 25054 net.cpp:129] Top shape: 1 26 256 (6656)
I0222 17:41:07.742388 25054 net.cpp:137] Memory required for data: 2721472
I0222 17:41:07.742391 25054 net.cpp:465] Sharing parameters 'W_hc' owned by layer 'lstm1_transform_1', param index 0
I0222 17:41:07.742394 25054 layer_factory.hpp:77] Creating layer lstm1_gate_input_17
I0222 17:41:07.742399 25054 net.cpp:84] Creating Layer lstm1_gate_input_17
I0222 17:41:07.742403 25054 net.cpp:406] lstm1_gate_input_17 <- W_hc_h_16
I0222 17:41:07.742405 25054 net.cpp:406] lstm1_gate_input_17 <- W_xc_x_17
I0222 17:41:07.742415 25054 net.cpp:380] lstm1_gate_input_17 -> gate_input_17
I0222 17:41:07.742432 25054 net.cpp:122] Setting up lstm1_gate_input_17
I0222 17:41:07.742436 25054 net.cpp:129] Top shape: 1 26 256 (6656)
I0222 17:41:07.742439 25054 net.cpp:137] Memory required for data: 2748096
I0222 17:41:07.742442 25054 layer_factory.hpp:77] Creating layer lstm1_unit_17
I0222 17:41:07.742446 25054 net.cpp:84] Creating Layer lstm1_unit_17
I0222 17:41:07.742449 25054 net.cpp:406] lstm1_unit_17 <- c_16
I0222 17:41:07.742453 25054 net.cpp:406] lstm1_unit_17 <- gate_input_17
I0222 17:41:07.742457 25054 net.cpp:406] lstm1_unit_17 <- cont_17_lstm1_cont_slice_16_split_1
I0222 17:41:07.742461 25054 net.cpp:380] lstm1_unit_17 -> c_17
I0222 17:41:07.742466 25054 net.cpp:380] lstm1_unit_17 -> h_17
I0222 17:41:07.742489 25054 net.cpp:122] Setting up lstm1_unit_17
I0222 17:41:07.742494 25054 net.cpp:129] Top shape: 1 26 64 (1664)
I0222 17:41:07.742498 25054 net.cpp:129] Top shape: 1 26 64 (1664)
I0222 17:41:07.742501 25054 net.cpp:137] Memory required for data: 2761408
I0222 17:41:07.742504 25054 layer_factory.hpp:77] Creating layer h_17_lstm1_unit_17_1_split
I0222 17:41:07.742508 25054 net.cpp:84] Creating Layer h_17_lstm1_unit_17_1_split
I0222 17:41:07.742511 25054 net.cpp:406] h_17_lstm1_unit_17_1_split <- h_17
I0222 17:41:07.742516 25054 net.cpp:380] h_17_lstm1_unit_17_1_split -> h_17_lstm1_unit_17_1_split_0
I0222 17:41:07.742519 25054 net.cpp:380] h_17_lstm1_unit_17_1_split -> h_17_lstm1_unit_17_1_split_1
I0222 17:41:07.742537 25054 net.cpp:122] Setting up h_17_lstm1_unit_17_1_split
I0222 17:41:07.742542 25054 net.cpp:129] Top shape: 1 26 64 (1664)
I0222 17:41:07.742545 25054 net.cpp:129] Top shape: 1 26 64 (1664)
I0222 17:41:07.742548 25054 net.cpp:137] Memory required for data: 2774720
I0222 17:41:07.742552 25054 layer_factory.hpp:77] Creating layer lstm1_h_conted_17
I0222 17:41:07.742555 25054 net.cpp:84] Creating Layer lstm1_h_conted_17
I0222 17:41:07.742558 25054 net.cpp:406] lstm1_h_conted_17 <- h_17_lstm1_unit_17_1_split_0
I0222 17:41:07.742563 25054 net.cpp:406] lstm1_h_conted_17 <- cont_18_lstm1_cont_slice_17_split_0
I0222 17:41:07.742566 25054 net.cpp:380] lstm1_h_conted_17 -> h_conted_17
I0222 17:41:07.742597 25054 net.cpp:122] Setting up lstm1_h_conted_17
I0222 17:41:07.742602 25054 net.cpp:129] Top shape: 1 26 64 (1664)
I0222 17:41:07.742605 25054 net.cpp:137] Memory required for data: 2781376
I0222 17:41:07.767974 25054 layer_factory.hpp:77] Creating layer lstm1_transform_18
I0222 17:41:07.767987 25054 net.cpp:84] Creating Layer lstm1_transform_18
I0222 17:41:07.767990 25054 net.cpp:406] lstm1_transform_18 <- h_conted_17
I0222 17:41:07.768012 25054 net.cpp:380] lstm1_transform_18 -> W_hc_h_17
I0222 17:41:07.768124 25054 net.cpp:122] Setting up lstm1_transform_18
I0222 17:41:07.768131 25054 net.cpp:129] Top shape: 1 26 256 (6656)
I0222 17:41:07.768133 25054 net.cpp:137] Memory required for data: 2808000
I0222 17:41:07.768136 25054 net.cpp:465] Sharing parameters 'W_hc' owned by layer 'lstm1_transform_1', param index 0
I0222 17:41:07.768139 25054 layer_factory.hpp:77] Creating layer lstm1_gate_input_18
I0222 17:41:07.768143 25054 net.cpp:84] Creating Layer lstm1_gate_input_18
I0222 17:41:07.768146 25054 net.cpp:406] lstm1_gate_input_18 <- W_hc_h_17
I0222 17:41:07.768149 25054 net.cpp:406] lstm1_gate_input_18 <- W_xc_x_18
I0222 17:41:07.768154 25054 net.cpp:380] lstm1_gate_input_18 -> gate_input_18
I0222 17:41:07.768169 25054 net.cpp:122] Setting up lstm1_gate_input_18
I0222 17:41:07.768174 25054 net.cpp:129] Top shape: 1 26 256 (6656)
I0222 17:41:07.768177 25054 net.cpp:137] Memory required for data: 2834624
I0222 17:41:07.768178 25054 layer_factory.hpp:77] Creating layer lstm1_unit_18
I0222 17:41:07.768182 25054 net.cpp:84] Creating Layer lstm1_unit_18
I0222 17:41:07.768185 25054 net.cpp:406] lstm1_unit_18 <- c_17
I0222 17:41:07.768188 25054 net.cpp:406] lstm1_unit_18 <- gate_input_18
I0222 17:41:07.768193 25054 net.cpp:406] lstm1_unit_18 <- cont_18_lstm1_cont_slice_17_split_1
I0222 17:41:07.768206 25054 net.cpp:380] lstm1_unit_18 -> c_18
I0222 17:41:07.768211 25054 net.cpp:380] lstm1_unit_18 -> h_18
I0222 17:41:07.768236 25054 net.cpp:122] Setting up lstm1_unit_18
I0222 17:41:07.768240 25054 net.cpp:129] Top shape: 1 26 64 (1664)
I0222 17:41:07.768244 25054 net.cpp:129] Top shape: 1 26 64 (1664)
I0222 17:41:07.768247 25054 net.cpp:137] Memory required for data: 2847936
I0222 17:41:07.768250 25054 layer_factory.hpp:77] Creating layer h_18_lstm1_unit_18_1_split
I0222 17:41:07.768254 25054 net.cpp:84] Creating Layer h_18_lstm1_unit_18_1_split
I0222 17:41:07.768259 25054 net.cpp:406] h_18_lstm1_unit_18_1_split <- h_18
I0222 17:41:07.768261 25054 net.cpp:380] h_18_lstm1_unit_18_1_split -> h_18_lstm1_unit_18_1_split_0
I0222 17:41:07.768266 25054 net.cpp:380] h_18_lstm1_unit_18_1_split -> h_18_lstm1_unit_18_1_split_1
I0222 17:41:07.768285 25054 net.cpp:122] Setting up h_18_lstm1_unit_18_1_split
I0222 17:41:07.768290 25054 net.cpp:129] Top shape: 1 26 64 (1664)
I0222 17:41:07.768292 25054 net.cpp:129] Top shape: 1 26 64 (1664)
I0222 17:41:07.768296 25054 net.cpp:137] Memory required for data: 2861248
I0222 17:41:07.768298 25054 layer_factory.hpp:77] Creating layer lstm1_h_conted_18
I0222 17:41:07.768303 25054 net.cpp:84] Creating Layer lstm1_h_conted_18
I0222 17:41:07.768307 25054 net.cpp:406] lstm1_h_conted_18 <- h_18_lstm1_unit_18_1_split_0
I0222 17:41:07.768311 25054 net.cpp:406] lstm1_h_conted_18 <- cont_19_lstm1_cont_slice_18_split_0
I0222 17:41:07.768316 25054 net.cpp:380] lstm1_h_conted_18 -> h_conted_18
I0222 17:41:07.768347 25054 net.cpp:122] Setting up lstm1_h_conted_18
I0222 17:41:07.768352 25054 net.cpp:129] Top shape: 1 26 64 (1664)
I0222 17:41:07.768354 25054 net.cpp:137] Memory required for data: 2867904
I0222 17:41:07.768357 25054 layer_factory.hpp:77] Creating layer lstm1_transform_19
I0222 17:41:07.768362 25054 net.cpp:84] Creating Layer lstm1_transform_19
I0222 17:41:07.768365 25054 net.cpp:406] lstm1_transform_19 <- h_conted_18
I0222 17:41:07.768369 25054 net.cpp:380] lstm1_transform_19 -> W_hc_h_18
I0222 17:41:07.768462 25054 net.cpp:122] Setting up lstm1_transform_19
I0222 17:41:07.768467 25054 net.cpp:129] Top shape: 1 26 256 (6656)
I0222 17:41:07.768471 25054 net.cpp:137] Memory required for data: 2894528
I0222 17:41:07.768474 25054 net.cpp:465] Sharing parameters 'W_hc' owned by layer 'lstm1_transform_1', param index 0
I0222 17:41:07.768477 25054 layer_factory.hpp:77] Creating layer lstm1_gate_input_19
I0222 17:41:07.768481 25054 net.cpp:84] Creating Layer lstm1_gate_input_19
I0222 17:41:07.768486 25054 net.cpp:406] lstm1_gate_input_19 <- W_hc_h_18
I0222 17:41:07.768488 25054 net.cpp:406] lstm1_gate_input_19 <- W_xc_x_19
I0222 17:41:07.768492 25054 net.cpp:380] lstm1_gate_input_19 -> gate_input_19
I0222 17:41:07.768506 25054 net.cpp:122] Setting up lstm1_gate_input_19
I0222 17:41:07.768510 25054 net.cpp:129] Top shape: 1 26 256 (6656)
I0222 17:41:07.768512 25054 net.cpp:137] Memory required for data: 2921152
I0222 17:41:07.768515 25054 layer_factory.hpp:77] Creating layer lstm1_unit_19
I0222 17:41:07.768522 25054 net.cpp:84] Creating Layer lstm1_unit_19
I0222 17:41:07.768524 25054 net.cpp:406] lstm1_unit_19 <- c_18
I0222 17:41:07.768528 25054 net.cpp:406] lstm1_unit_19 <- gate_input_19
I0222 17:41:07.768532 25054 net.cpp:406] lstm1_unit_19 <- cont_19_lstm1_cont_slice_18_split_1
I0222 17:41:07.768537 25054 net.cpp:380] lstm1_unit_19 -> c_19
I0222 17:41:07.768540 25054 net.cpp:380] lstm1_unit_19 -> h_19
I0222 17:41:07.768566 25054 net.cpp:122] Setting up lstm1_unit_19
I0222 17:41:07.768570 25054 net.cpp:129] Top shape: 1 26 64 (1664)
I0222 17:41:07.768574 25054 net.cpp:129] Top shape: 1 26 64 (1664)
I0222 17:41:07.768577 25054 net.cpp:137] Memory required for data: 2934464
I0222 17:41:07.768580 25054 layer_factory.hpp:77] Creating layer h_19_lstm1_unit_19_1_split
I0222 17:41:07.768584 25054 net.cpp:84] Creating Layer h_19_lstm1_unit_19_1_split
I0222 17:41:07.768587 25054 net.cpp:406] h_19_lstm1_unit_19_1_split <- h_19
I0222 17:41:07.768592 25054 net.cpp:380] h_19_lstm1_unit_19_1_split -> h_19_lstm1_unit_19_1_split_0
I0222 17:41:07.768601 25054 net.cpp:380] h_19_lstm1_unit_19_1_split -> h_19_lstm1_unit_19_1_split_1
I0222 17:41:07.768620 25054 net.cpp:122] Setting up h_19_lstm1_unit_19_1_split
I0222 17:41:07.768625 25054 net.cpp:129] Top shape: 1 26 64 (1664)
I0222 17:41:07.768627 25054 net.cpp:129] Top shape: 1 26 64 (1664)
I0222 17:41:07.768630 25054 net.cpp:137] Memory required for data: 2947776
I0222 17:41:07.768633 25054 layer_factory.hpp:77] Creating layer lstm1_h_conted_19
I0222 17:41:07.768638 25054 net.cpp:84] Creating Layer lstm1_h_conted_19
I0222 17:41:07.768642 25054 net.cpp:406] lstm1_h_conted_19 <- h_19_lstm1_unit_19_1_split_0
I0222 17:41:07.768646 25054 net.cpp:406] lstm1_h_conted_19 <- cont_20_lstm1_cont_slice_19_split_0
I0222 17:41:07.768651 25054 net.cpp:380] lstm1_h_conted_19 -> h_conted_19
I0222 17:41:07.768682 25054 net.cpp:122] Setting up lstm1_h_conted_19
I0222 17:41:07.768687 25054 net.cpp:129] Top shape: 1 26 64 (1664)
I0222 17:41:07.768690 25054 net.cpp:137] Memory required for data: 2954432
I0222 17:41:07.768693 25054 layer_factory.hpp:77] Creating layer lstm1_transform_20
I0222 17:41:07.768697 25054 net.cpp:84] Creating Layer lstm1_transform_20
I0222 17:41:07.768702 25054 net.cpp:406] lstm1_transform_20 <- h_conted_19
I0222 17:41:07.768705 25054 net.cpp:380] lstm1_transform_20 -> W_hc_h_19
I0222 17:41:07.768798 25054 net.cpp:122] Setting up lstm1_transform_20
I0222 17:41:07.768803 25054 net.cpp:129] Top shape: 1 26 256 (6656)
I0222 17:41:07.768806 25054 net.cpp:137] Memory required for data: 2981056
I0222 17:41:07.768810 25054 net.cpp:465] Sharing parameters 'W_hc' owned by layer 'lstm1_transform_1', param index 0
I0222 17:41:07.768812 25054 layer_factory.hpp:77] Creating layer lstm1_gate_input_20
I0222 17:41:07.768821 25054 net.cpp:84] Creating Layer lstm1_gate_input_20
I0222 17:41:07.768826 25054 net.cpp:406] lstm1_gate_input_20 <- W_hc_h_19
I0222 17:41:07.768829 25054 net.cpp:406] lstm1_gate_input_20 <- W_xc_x_20
I0222 17:41:07.768833 25054 net.cpp:380] lstm1_gate_input_20 -> gate_input_20
I0222 17:41:07.768846 25054 net.cpp:122] Setting up lstm1_gate_input_20
I0222 17:41:07.768851 25054 net.cpp:129] Top shape: 1 26 256 (6656)
I0222 17:41:07.768853 25054 net.cpp:137] Memory required for data: 3007680
I0222 17:41:07.771262 25054 layer_factory.hpp:77] Creating layer lstm1_unit_20
I0222 17:41:07.771297 25054 net.cpp:84] Creating Layer lstm1_unit_20
I0222 17:41:07.771301 25054 net.cpp:406] lstm1_unit_20 <- c_19
I0222 17:41:07.771306 25054 net.cpp:406] lstm1_unit_20 <- gate_input_20
I0222 17:41:07.771322 25054 net.cpp:406] lstm1_unit_20 <- cont_20_lstm1_cont_slice_19_split_1
I0222 17:41:07.771327 25054 net.cpp:380] lstm1_unit_20 -> c_20
I0222 17:41:07.771347 25054 net.cpp:380] lstm1_unit_20 -> h_20
I0222 17:41:07.771406 25054 net.cpp:122] Setting up lstm1_unit_20
I0222 17:41:07.771411 25054 net.cpp:129] Top shape: 1 26 64 (1664)
I0222 17:41:07.771430 25054 net.cpp:129] Top shape: 1 26 64 (1664)
I0222 17:41:07.771433 25054 net.cpp:137] Memory required for data: 3020992
I0222 17:41:07.771436 25054 layer_factory.hpp:77] Creating layer h_20_lstm1_unit_20_1_split
I0222 17:41:07.771450 25054 net.cpp:84] Creating Layer h_20_lstm1_unit_20_1_split
I0222 17:41:07.771453 25054 net.cpp:406] h_20_lstm1_unit_20_1_split <- h_20
I0222 17:41:07.771457 25054 net.cpp:380] h_20_lstm1_unit_20_1_split -> h_20_lstm1_unit_20_1_split_0
I0222 17:41:07.771461 25054 net.cpp:380] h_20_lstm1_unit_20_1_split -> h_20_lstm1_unit_20_1_split_1
I0222 17:41:07.771482 25054 net.cpp:122] Setting up h_20_lstm1_unit_20_1_split
I0222 17:41:07.771487 25054 net.cpp:129] Top shape: 1 26 64 (1664)
I0222 17:41:07.771490 25054 net.cpp:129] Top shape: 1 26 64 (1664)
I0222 17:41:07.771493 25054 net.cpp:137] Memory required for data: 3034304
I0222 17:41:07.771497 25054 layer_factory.hpp:77] Creating layer lstm1_h_conted_20
I0222 17:41:07.771500 25054 net.cpp:84] Creating Layer lstm1_h_conted_20
I0222 17:41:07.771503 25054 net.cpp:406] lstm1_h_conted_20 <- h_20_lstm1_unit_20_1_split_0
I0222 17:41:07.771507 25054 net.cpp:406] lstm1_h_conted_20 <- cont_21_lstm1_cont_slice_20_split_0
I0222 17:41:07.771523 25054 net.cpp:380] lstm1_h_conted_20 -> h_conted_20
I0222 17:41:07.771558 25054 net.cpp:122] Setting up lstm1_h_conted_20
I0222 17:41:07.771562 25054 net.cpp:129] Top shape: 1 26 64 (1664)
I0222 17:41:07.771565 25054 net.cpp:137] Memory required for data: 3040960
I0222 17:41:07.771569 25054 layer_factory.hpp:77] Creating layer lstm1_transform_21
I0222 17:41:07.771572 25054 net.cpp:84] Creating Layer lstm1_transform_21
I0222 17:41:07.771576 25054 net.cpp:406] lstm1_transform_21 <- h_conted_20
I0222 17:41:07.771581 25054 net.cpp:380] lstm1_transform_21 -> W_hc_h_20
I0222 17:41:07.771677 25054 net.cpp:122] Setting up lstm1_transform_21
I0222 17:41:07.771682 25054 net.cpp:129] Top shape: 1 26 256 (6656)
I0222 17:41:07.771684 25054 net.cpp:137] Memory required for data: 3067584
I0222 17:41:07.771687 25054 net.cpp:465] Sharing parameters 'W_hc' owned by layer 'lstm1_transform_1', param index 0
I0222 17:41:07.771692 25054 layer_factory.hpp:77] Creating layer lstm1_gate_input_21
I0222 17:41:07.771695 25054 net.cpp:84] Creating Layer lstm1_gate_input_21
I0222 17:41:07.771699 25054 net.cpp:406] lstm1_gate_input_21 <- W_hc_h_20
I0222 17:41:07.771703 25054 net.cpp:406] lstm1_gate_input_21 <- W_xc_x_21
I0222 17:41:07.771708 25054 net.cpp:380] lstm1_gate_input_21 -> gate_input_21
I0222 17:41:07.771721 25054 net.cpp:122] Setting up lstm1_gate_input_21
I0222 17:41:07.771726 25054 net.cpp:129] Top shape: 1 26 256 (6656)
I0222 17:41:07.771729 25054 net.cpp:137] Memory required for data: 3094208
I0222 17:41:07.771731 25054 layer_factory.hpp:77] Creating layer lstm1_unit_21
I0222 17:41:07.771735 25054 net.cpp:84] Creating Layer lstm1_unit_21
I0222 17:41:07.771739 25054 net.cpp:406] lstm1_unit_21 <- c_20
I0222 17:41:07.771744 25054 net.cpp:406] lstm1_unit_21 <- gate_input_21
I0222 17:41:07.771746 25054 net.cpp:406] lstm1_unit_21 <- cont_21_lstm1_cont_slice_20_split_1
I0222 17:41:07.771750 25054 net.cpp:380] lstm1_unit_21 -> c_21
I0222 17:41:07.771755 25054 net.cpp:380] lstm1_unit_21 -> h_21
I0222 17:41:07.771780 25054 net.cpp:122] Setting up lstm1_unit_21
I0222 17:41:07.771783 25054 net.cpp:129] Top shape: 1 26 64 (1664)
I0222 17:41:07.771787 25054 net.cpp:129] Top shape: 1 26 64 (1664)
I0222 17:41:07.771790 25054 net.cpp:137] Memory required for data: 3107520
I0222 17:41:07.771792 25054 layer_factory.hpp:77] Creating layer h_21_lstm1_unit_21_1_split
I0222 17:41:07.771797 25054 net.cpp:84] Creating Layer h_21_lstm1_unit_21_1_split
I0222 17:41:07.771800 25054 net.cpp:406] h_21_lstm1_unit_21_1_split <- h_21
I0222 17:41:07.771805 25054 net.cpp:380] h_21_lstm1_unit_21_1_split -> h_21_lstm1_unit_21_1_split_0
I0222 17:41:07.771809 25054 net.cpp:380] h_21_lstm1_unit_21_1_split -> h_21_lstm1_unit_21_1_split_1
I0222 17:41:07.771826 25054 net.cpp:122] Setting up h_21_lstm1_unit_21_1_split
I0222 17:41:07.771831 25054 net.cpp:129] Top shape: 1 26 64 (1664)
I0222 17:41:07.771834 25054 net.cpp:129] Top shape: 1 26 64 (1664)
I0222 17:41:07.771837 25054 net.cpp:137] Memory required for data: 3120832
I0222 17:41:07.771841 25054 layer_factory.hpp:77] Creating layer lstm1_h_conted_21
I0222 17:41:07.771844 25054 net.cpp:84] Creating Layer lstm1_h_conted_21
I0222 17:41:07.771847 25054 net.cpp:406] lstm1_h_conted_21 <- h_21_lstm1_unit_21_1_split_0
I0222 17:41:07.771852 25054 net.cpp:406] lstm1_h_conted_21 <- cont_22_lstm1_cont_slice_21_split_0
I0222 17:41:07.771857 25054 net.cpp:380] lstm1_h_conted_21 -> h_conted_21
I0222 17:41:07.771888 25054 net.cpp:122] Setting up lstm1_h_conted_21
I0222 17:41:07.771891 25054 net.cpp:129] Top shape: 1 26 64 (1664)
I0222 17:41:07.771894 25054 net.cpp:137] Memory required for data: 3127488
I0222 17:41:07.771898 25054 layer_factory.hpp:77] Creating layer lstm1_transform_22
I0222 17:41:07.771903 25054 net.cpp:84] Creating Layer lstm1_transform_22
I0222 17:41:07.771905 25054 net.cpp:406] lstm1_transform_22 <- h_conted_21
I0222 17:41:07.771910 25054 net.cpp:380] lstm1_transform_22 -> W_hc_h_21
I0222 17:41:07.772003 25054 net.cpp:122] Setting up lstm1_transform_22
I0222 17:41:07.772012 25054 net.cpp:129] Top shape: 1 26 256 (6656)
I0222 17:41:07.772017 25054 net.cpp:137] Memory required for data: 3154112
I0222 17:41:07.772019 25054 net.cpp:465] Sharing parameters 'W_hc' owned by layer 'lstm1_transform_1', param index 0
I0222 17:41:07.772022 25054 layer_factory.hpp:77] Creating layer lstm1_gate_input_22
I0222 17:41:07.772027 25054 net.cpp:84] Creating Layer lstm1_gate_input_22
I0222 17:41:07.772030 25054 net.cpp:406] lstm1_gate_input_22 <- W_hc_h_21
I0222 17:41:07.772034 25054 net.cpp:406] lstm1_gate_input_22 <- W_xc_x_22
I0222 17:41:07.772038 25054 net.cpp:380] lstm1_gate_input_22 -> gate_input_22
I0222 17:41:07.772052 25054 net.cpp:122] Setting up lstm1_gate_input_22
I0222 17:41:07.772056 25054 net.cpp:129] Top shape: 1 26 256 (6656)
I0222 17:41:07.772058 25054 net.cpp:137] Memory required for data: 3180736
I0222 17:41:07.772061 25054 layer_factory.hpp:77] Creating layer lstm1_unit_22
I0222 17:41:07.772068 25054 net.cpp:84] Creating Layer lstm1_unit_22
I0222 17:41:07.772070 25054 net.cpp:406] lstm1_unit_22 <- c_21
I0222 17:41:07.772074 25054 net.cpp:406] lstm1_unit_22 <- gate_input_22
I0222 17:41:07.772078 25054 net.cpp:406] lstm1_unit_22 <- cont_22_lstm1_cont_slice_21_split_1
I0222 17:41:07.772083 25054 net.cpp:380] lstm1_unit_22 -> c_22
I0222 17:41:07.772087 25054 net.cpp:380] lstm1_unit_22 -> h_22
I0222 17:41:07.772110 25054 net.cpp:122] Setting up lstm1_unit_22
I0222 17:41:07.772115 25054 net.cpp:129] Top shape: 1 26 64 (1664)
I0222 17:41:07.772119 25054 net.cpp:129] Top shape: 1 26 64 (1664)
I0222 17:41:07.772121 25054 net.cpp:137] Memory required for data: 3194048
I0222 17:41:07.772125 25054 layer_factory.hpp:77] Creating layer h_22_lstm1_unit_22_1_split
I0222 17:41:07.772128 25054 net.cpp:84] Creating Layer h_22_lstm1_unit_22_1_split
I0222 17:41:07.772131 25054 net.cpp:406] h_22_lstm1_unit_22_1_split <- h_22
I0222 17:41:07.772136 25054 net.cpp:380] h_22_lstm1_unit_22_1_split -> h_22_lstm1_unit_22_1_split_0
I0222 17:41:07.772141 25054 net.cpp:380] h_22_lstm1_unit_22_1_split -> h_22_lstm1_unit_22_1_split_1
I0222 17:41:07.798460 25054 net.cpp:122] Setting up h_22_lstm1_unit_22_1_split
I0222 17:41:07.798471 25054 net.cpp:129] Top shape: 1 26 64 (1664)
I0222 17:41:07.798491 25054 net.cpp:129] Top shape: 1 26 64 (1664)
I0222 17:41:07.798494 25054 net.cpp:137] Memory required for data: 3207360
I0222 17:41:07.798497 25054 layer_factory.hpp:77] Creating layer lstm1_h_conted_22
I0222 17:41:07.798504 25054 net.cpp:84] Creating Layer lstm1_h_conted_22
I0222 17:41:07.798508 25054 net.cpp:406] lstm1_h_conted_22 <- h_22_lstm1_unit_22_1_split_0
I0222 17:41:07.798513 25054 net.cpp:406] lstm1_h_conted_22 <- cont_23_lstm1_cont_slice_22_split_0
I0222 17:41:07.798518 25054 net.cpp:380] lstm1_h_conted_22 -> h_conted_22
I0222 17:41:07.798585 25054 net.cpp:122] Setting up lstm1_h_conted_22
I0222 17:41:07.798604 25054 net.cpp:129] Top shape: 1 26 64 (1664)
I0222 17:41:07.798606 25054 net.cpp:137] Memory required for data: 3214016
I0222 17:41:07.798624 25054 layer_factory.hpp:77] Creating layer lstm1_transform_23
I0222 17:41:07.798629 25054 net.cpp:84] Creating Layer lstm1_transform_23
I0222 17:41:07.798632 25054 net.cpp:406] lstm1_transform_23 <- h_conted_22
I0222 17:41:07.798636 25054 net.cpp:380] lstm1_transform_23 -> W_hc_h_22
I0222 17:41:07.798764 25054 net.cpp:122] Setting up lstm1_transform_23
I0222 17:41:07.798770 25054 net.cpp:129] Top shape: 1 26 256 (6656)
I0222 17:41:07.798789 25054 net.cpp:137] Memory required for data: 3240640
I0222 17:41:07.798791 25054 net.cpp:465] Sharing parameters 'W_hc' owned by layer 'lstm1_transform_1', param index 0
I0222 17:41:07.798794 25054 layer_factory.hpp:77] Creating layer lstm1_gate_input_23
I0222 17:41:07.798799 25054 net.cpp:84] Creating Layer lstm1_gate_input_23
I0222 17:41:07.798802 25054 net.cpp:406] lstm1_gate_input_23 <- W_hc_h_22
I0222 17:41:07.798806 25054 net.cpp:406] lstm1_gate_input_23 <- W_xc_x_23
I0222 17:41:07.798811 25054 net.cpp:380] lstm1_gate_input_23 -> gate_input_23
I0222 17:41:07.798826 25054 net.cpp:122] Setting up lstm1_gate_input_23
I0222 17:41:07.798838 25054 net.cpp:129] Top shape: 1 26 256 (6656)
I0222 17:41:07.798841 25054 net.cpp:137] Memory required for data: 3267264
I0222 17:41:07.798844 25054 layer_factory.hpp:77] Creating layer lstm1_unit_23
I0222 17:41:07.798849 25054 net.cpp:84] Creating Layer lstm1_unit_23
I0222 17:41:07.798852 25054 net.cpp:406] lstm1_unit_23 <- c_22
I0222 17:41:07.798856 25054 net.cpp:406] lstm1_unit_23 <- gate_input_23
I0222 17:41:07.798861 25054 net.cpp:406] lstm1_unit_23 <- cont_23_lstm1_cont_slice_22_split_1
I0222 17:41:07.798864 25054 net.cpp:380] lstm1_unit_23 -> c_23
I0222 17:41:07.798869 25054 net.cpp:380] lstm1_unit_23 -> h_23
I0222 17:41:07.798895 25054 net.cpp:122] Setting up lstm1_unit_23
I0222 17:41:07.798900 25054 net.cpp:129] Top shape: 1 26 64 (1664)
I0222 17:41:07.798904 25054 net.cpp:129] Top shape: 1 26 64 (1664)
I0222 17:41:07.798907 25054 net.cpp:137] Memory required for data: 3280576
I0222 17:41:07.798910 25054 layer_factory.hpp:77] Creating layer h_23_lstm1_unit_23_1_split
I0222 17:41:07.798915 25054 net.cpp:84] Creating Layer h_23_lstm1_unit_23_1_split
I0222 17:41:07.798918 25054 net.cpp:406] h_23_lstm1_unit_23_1_split <- h_23
I0222 17:41:07.798923 25054 net.cpp:380] h_23_lstm1_unit_23_1_split -> h_23_lstm1_unit_23_1_split_0
I0222 17:41:07.798928 25054 net.cpp:380] h_23_lstm1_unit_23_1_split -> h_23_lstm1_unit_23_1_split_1
I0222 17:41:07.798945 25054 net.cpp:122] Setting up h_23_lstm1_unit_23_1_split
I0222 17:41:07.798950 25054 net.cpp:129] Top shape: 1 26 64 (1664)
I0222 17:41:07.798954 25054 net.cpp:129] Top shape: 1 26 64 (1664)
I0222 17:41:07.798957 25054 net.cpp:137] Memory required for data: 3293888
I0222 17:41:07.798959 25054 layer_factory.hpp:77] Creating layer lstm1_h_conted_23
I0222 17:41:07.798964 25054 net.cpp:84] Creating Layer lstm1_h_conted_23
I0222 17:41:07.798967 25054 net.cpp:406] lstm1_h_conted_23 <- h_23_lstm1_unit_23_1_split_0
I0222 17:41:07.798971 25054 net.cpp:406] lstm1_h_conted_23 <- cont_24_lstm1_cont_slice_23_split_0
I0222 17:41:07.798976 25054 net.cpp:380] lstm1_h_conted_23 -> h_conted_23
I0222 17:41:07.799011 25054 net.cpp:122] Setting up lstm1_h_conted_23
I0222 17:41:07.799016 25054 net.cpp:129] Top shape: 1 26 64 (1664)
I0222 17:41:07.799019 25054 net.cpp:137] Memory required for data: 3300544
I0222 17:41:07.799022 25054 layer_factory.hpp:77] Creating layer lstm1_transform_24
I0222 17:41:07.799028 25054 net.cpp:84] Creating Layer lstm1_transform_24
I0222 17:41:07.799031 25054 net.cpp:406] lstm1_transform_24 <- h_conted_23
I0222 17:41:07.799036 25054 net.cpp:380] lstm1_transform_24 -> W_hc_h_23
I0222 17:41:07.799134 25054 net.cpp:122] Setting up lstm1_transform_24
I0222 17:41:07.799140 25054 net.cpp:129] Top shape: 1 26 256 (6656)
I0222 17:41:07.799144 25054 net.cpp:137] Memory required for data: 3327168
I0222 17:41:07.799146 25054 net.cpp:465] Sharing parameters 'W_hc' owned by layer 'lstm1_transform_1', param index 0
I0222 17:41:07.799149 25054 layer_factory.hpp:77] Creating layer lstm1_gate_input_24
I0222 17:41:07.799154 25054 net.cpp:84] Creating Layer lstm1_gate_input_24
I0222 17:41:07.799157 25054 net.cpp:406] lstm1_gate_input_24 <- W_hc_h_23
I0222 17:41:07.799161 25054 net.cpp:406] lstm1_gate_input_24 <- W_xc_x_24
I0222 17:41:07.799165 25054 net.cpp:380] lstm1_gate_input_24 -> gate_input_24
I0222 17:41:07.799180 25054 net.cpp:122] Setting up lstm1_gate_input_24
I0222 17:41:07.799185 25054 net.cpp:129] Top shape: 1 26 256 (6656)
I0222 17:41:07.799187 25054 net.cpp:137] Memory required for data: 3353792
I0222 17:41:07.799190 25054 layer_factory.hpp:77] Creating layer lstm1_unit_24
I0222 17:41:07.799198 25054 net.cpp:84] Creating Layer lstm1_unit_24
I0222 17:41:07.799201 25054 net.cpp:406] lstm1_unit_24 <- c_23
I0222 17:41:07.799206 25054 net.cpp:406] lstm1_unit_24 <- gate_input_24
I0222 17:41:07.799209 25054 net.cpp:406] lstm1_unit_24 <- cont_24_lstm1_cont_slice_23_split_1
I0222 17:41:07.799213 25054 net.cpp:380] lstm1_unit_24 -> c_24
I0222 17:41:07.799218 25054 net.cpp:380] lstm1_unit_24 -> h_24
I0222 17:41:07.799242 25054 net.cpp:122] Setting up lstm1_unit_24
I0222 17:41:07.799252 25054 net.cpp:129] Top shape: 1 26 64 (1664)
I0222 17:41:07.799257 25054 net.cpp:129] Top shape: 1 26 64 (1664)
I0222 17:41:07.799259 25054 net.cpp:137] Memory required for data: 3367104
I0222 17:41:07.799263 25054 layer_factory.hpp:77] Creating layer lstm1_
I0222 17:41:07.799268 25054 net.cpp:84] Creating Layer lstm1_
I0222 17:41:07.799270 25054 net.cpp:406] lstm1_ <- c_24
I0222 17:41:07.799274 25054 net.cpp:380] lstm1_ -> c_T
I0222 17:41:07.799286 25054 net.cpp:122] Setting up lstm1_
I0222 17:41:07.799291 25054 net.cpp:129] Top shape: 1 26 64 (1664)
I0222 17:41:07.799294 25054 net.cpp:137] Memory required for data: 3373760
I0222 17:41:07.799298 25054 layer_factory.hpp:77] Creating layer lstm1_h_concat
I0222 17:41:07.799304 25054 net.cpp:84] Creating Layer lstm1_h_concat
I0222 17:41:07.799307 25054 net.cpp:406] lstm1_h_concat <- h_1_lstm1_unit_1_1_split_1
I0222 17:41:07.799311 25054 net.cpp:406] lstm1_h_concat <- h_2_lstm1_unit_2_1_split_1
…
