…
  top: "data"
  data_param {
    source: "/home/leonida/ThesisCode/LSTM_on_Create2/NavDatabases/LAB-21-2-new-step-condition/states_db-2-21-15-4_lmdb"
    batch_size: 24
    backend: LMDB
  }
}
layer {
  name: "label"
  type: "Data"
  top: "labels"
  data_param {
    source: "/home/leonida/ThesisCode/LSTM_on_Create2/NavDatabases/LAB-21-2-new-step-condition/labels_db-2-21-15-4_twist-variant_lmdb"
    batch_size: 24
    backend: LMDB
  }
}
layer {
  name: "clip"
  type: "Input"
  top: "clip"
  input_param {
    shape {
      dim: 24
      dim: 26
    }
  }
}
layer {
  name: "lstm1"
  type: "LSTM"
  bottom: "data"
  bottom: "clip"
  top: "lstm1"
  recurrent_param {
    num_output: 16
    weight_filler {
      type: "xavier"
    }
    bias_filler {
      type: "constant"
    }
  }
}
layer {
  name: "out"
  type: "InnerProduct"
  bottom: "lstm1"
  top: "out"
  inner_product_param {
    num_output: 2
    weight_filler {
      type: "gaussian"
      std: 0.1
    }
    bias_filler {
      type: "constant"
    }
  }
}
layer {
  name: "euclideanLoss"
  type: "EuclideanLoss"
  bottom: "out"
  bottom: "labels"
  top: "loss"
}
I0222 17:35:27.699156 24465 layer_factory.hpp:77] Creating layer data
I0222 17:35:27.699239 24465 db_lmdb.cpp:35] Opened lmdb /home/leonida/ThesisCode/LSTM_on_Create2/NavDatabases/LAB-21-2-new-step-condition/states_db-2-21-15-4_lmdb
I0222 17:35:27.699270 24465 net.cpp:84] Creating Layer data
I0222 17:35:27.699276 24465 net.cpp:380] data -> data
I0222 17:35:27.699944 24465 data_layer.cpp:45] output data size: 24,26,1,1
I0222 17:35:27.705845 24465 net.cpp:122] Setting up data
I0222 17:35:27.705863 24465 net.cpp:129] Top shape: 24 26 1 1 (624)
I0222 17:35:27.705868 24465 net.cpp:137] Memory required for data: 2496
I0222 17:35:27.705873 24465 layer_factory.hpp:77] Creating layer label
I0222 17:35:27.706006 24465 db_lmdb.cpp:35] Opened lmdb /home/leonida/ThesisCode/LSTM_on_Create2/NavDatabases/LAB-21-2-new-step-condition/labels_db-2-21-15-4_twist-variant_lmdb
I0222 17:35:27.706022 24465 net.cpp:84] Creating Layer label
I0222 17:35:27.706027 24465 net.cpp:380] label -> labels
I0222 17:35:27.706117 24465 data_layer.cpp:45] output data size: 24,2,1,1
I0222 17:35:27.708488 24465 net.cpp:122] Setting up label
I0222 17:35:27.708497 24465 net.cpp:129] Top shape: 24 2 1 1 (48)
I0222 17:35:27.708499 24465 net.cpp:137] Memory required for data: 2688
I0222 17:35:27.708503 24465 layer_factory.hpp:77] Creating layer clip
I0222 17:35:27.708513 24465 net.cpp:84] Creating Layer clip
I0222 17:35:27.708515 24465 net.cpp:380] clip -> clip
I0222 17:35:27.708554 24465 net.cpp:122] Setting up clip
I0222 17:35:27.708559 24465 net.cpp:129] Top shape: 24 26 (624)
I0222 17:35:27.708576 24465 net.cpp:137] Memory required for data: 5184
I0222 17:35:27.708578 24465 layer_factory.hpp:77] Creating layer lstm1
I0222 17:35:27.708587 24465 net.cpp:84] Creating Layer lstm1
I0222 17:35:27.708601 24465 net.cpp:406] lstm1 <- data
I0222 17:35:27.708608 24465 net.cpp:406] lstm1 <- clip
I0222 17:35:27.708612 24465 net.cpp:380] lstm1 -> lstm1
I0222 17:35:27.708647 24465 recurrent_layer.cpp:20] Initializing recurrent layer: assuming input batch contains 24 timesteps of 26 independent streams.
I0222 17:35:27.709148 24465 net.cpp:51] Initializing net from parameters: 
layer {
  name: "lstm1_"
  type: "Input"
  top: "x"
  top: "cont"
  input_param {
    shape {
      dim: 24
      dim: 26
      dim: 1
      dim: 1
    }
    shape {
      dim: 24
      dim: 26
    }
  }
}
layer {
  name: "lstm1_"
  type: "Input"
  top: "c_0"
  top: "h_0"
  input_param {
    shape {
      dim: 1
      dim: 26
      dim: 16
    }
    shape {
      dim: 1
      dim: 26
      dim: 16
    }
  }
}
layer {
  name: "lstm1_cont_slice"
  type: "Slice"
  bottom: "cont"
  top: "cont_1"
  top: "cont_2"
  top: "cont_3"
  top: "cont_4"
  top: "cont_5"
  top: "cont_6"
  top: "cont_7"
  top: "cont_8"
  top: "cont_9"
  top: "cont_10"
  top: "cont_11"
  top: "cont_12"
  top: "cont_13"
  top: "cont_14"
  top: "cont_15"
  top: "cont_16"
  top: "cont_17"
  top: "cont_18"
  top: "cont_19"
  top: "cont_20"
  top: "cont_21"
  top: "cont_22"
  top: "cont_23"
  top: "cont_24"
  slice_param {
    axis: 0
  }
}
layer {
  name: "lstm1_x_transform"
  type: "InnerProduct"
  bottom: "x"
  top: "W_xc_x"
  param {
    name: "W_xc"
  }
  param {
    name: "b_c"
  }
  propagate_down: true
  inner_product_param {
    num_output: 64
    bias_term: true
    weight_filler {
      type: "xavier"
    }
    bias_filler {
      type: "constant"
    }
    axis: 2
  }
}
layer {
  name: "lstm1_W_xc_x_slice"
  type: "Slice"
  bottom: "W_xc_x"
  top: "W_xc_x_1"
  top: "W_xc_x_2"
  top: "W_xc_x_3"
  top: "W_xc_x_4"
  top: "W_xc_x_5"
  top: "W_xc_x_6"
  top: "W_xc_x_7"
  top: "W_xc_x_8"
  top: "W_xc_x_9"
  top: "W_xc_x_10"
  top: "W_xc_x_11"
  top: "W_xc_x_12"
  top: "W_xc_x_13"
  top: "W_xc_x_14"
  top: "W_xc_x_15"
  top: "W_xc_x_16"
  top: "W_xc_x_17"
  top: "W_xc_x_18"
  top: "W_xc_x_19"
  top: "W_xc_x_20"
  top: "W_xc_x_21"
  top: "W_xc_x_22"
  top: "W_xc_x_23"
  top: "W_xc_x_24"
  slice_param {
    axis: 0
  }
}
layer {
  name: "lstm1_h_conted_0"
  type: "Scale"
  bottom: "h_0"
  bottom: "cont_1"
  top: "h_conted_0"
  scale_param {
    axis: 0
  }
}
layer {
  name: "lstm1_transform_1"
  type: "InnerProduct"
  bottom: "h_conted_0"
  top: "W_hc_h_0"
  param {
    name: "W_hc"
  }
  inner_product_param {
    num_output: 64
    bias_term: false
    weight_filler {
      type: "xavier"
    }
    axis: 2
  }
}
layer {
  name: "lstm1_gate_input_1"
  type: "Eltwise"
  bottom: "W_hc_h_0"
  bottom: "W_xc_x_1"
  top: "gate_input_1"
  eltwise_param {
    operation: SUM
  }
}
layer {
  name: "lstm1_unit_1"
  type: "LSTMUnit"
  bottom: "c_0"
  bottom: "gate_input_1"
  bottom: "cont_1"
  top: "c_1"
  top: "h_1"
}
layer {
  name: "lstm1_h_conted_1"
  type: "Scale"
  bottom: "h_1"
  bottom: "cont_2"
  top: "h_conted_1"
  scale_param {
    axis: 0
  }
}
layer {
  name: "lstm1_transform_2"
  type: "InnerProduct"
  bottom: "h_conted_1"
  top: "W_hc_h_1"
  param {
    name: "W_hc"
  }
  inner_product_param {
    num_output: 64
    bias_term: false
    weight_filler {
      type: "xavier"
    }
    axis: 2
  }
}
layer {
  name: "lstm1_gate_input_2"
  type: "Eltwise"
  bottom: "W_hc_h_1"
  bottom: "W_xc_x_2"
  top: "gate_input_2"
  eltwise_param {
    operation: SUM
  }
}
layer {
  name: "lstm1_unit_2"
  type: "LSTMUnit"
  bottom: "c_1"
  bottom: "gate_input_2"
  bottom: "cont_2"
  top: "c_2"
  top: "h_2"
}
layer {
  name: "lstm1_h_conted_2"
  type: "Scale"
  bottom: "h_2"
  bottom: "cont_3"
  top: "h_conted_2"
  scale_param {
    axis: 0
  }
}
layer {
  name: "lstm1_transform_3"
  type: "InnerProduct"
  bottom: "h_conted_2"
  top: "W_hc_h_2"
  param {
    name: "W_hc"
  }
  inner_product_param {
    num_output: 64
    bias_term: false
    weight_filler {
      type: "xavier"
    }
    axis: 2
  }
}
layer {
  name: "lstm1_gate_input_3"
  type: "Eltwise"
  bottom: "W_hc_h_2"
  bottom: "W_xc_x_3"
  top: "gate_input_3"
  eltwise_param {
    operation: SUM
  }
}
layer {
  name: "lstm1_unit_3"
  type: "LSTMUnit"
  bottom: "c_2"
  bottom: "gate_input_3"
  bottom: "cont_3"
  top: "c_3"
  top: "h_3"
}
layer {
  name: "lstm1_h_conted_3"
  type: "Scale"
  bottom: "h_3"
  bottom: "cont_4"
  top: "h_conted_3"
  scale_param {
    axis: 0
  }
}
layer {
  name: "lstm1_transform_4"
  type: "InnerProduct"
  bottom: "h_conted_3"
  top: "W_hc_h_3"
  param {
    name: "W_hc"
  }
  inner_product_param {
    num_output: 64
    bias_term: false
    weight_filler {
      type: "xavier"
    }
    axis: 2
  }
}
layer {
  name: "lstm1_gate_input_4"
  type: "Eltwise"
  bottom: "W_hc_h_3"
  bottom: "W_xc_x_4"
  top: "gate_input_4"
  eltwise_param {
    operation: SUM
  }
}
layer {
  name: "lstm1_unit_4"
  type: "LSTMUnit"
  bottom: "c_3"
  bottom: "gate_input_4"
  bottom: "cont_4"
  top: "c_4"
  top: "h_4"
}
layer {
  name: "lstm1_h_conted_4"
  type: "Scale"
  bottom: "h_4"
  bottom: "cont_5"
  top: "h_conted_4"
  scale_param {
    axis: 0
  }
}
layer {
  name: "lstm1_transform_5"
  type: "InnerProduct"
  bottom: "h_conted_4"
  top: "W_hc_h_4"
  param {
    name: "W_hc"
  }
  inner_product_param {
    num_output: 64
    bias_term: false
    weight_filler {
      type: "xavier"
    }
    axis: 2
  }
}
layer {
  name: "lstm1_gate_input_5"
  type: "Eltwise"
  bottom: "W_hc_h_4"
  bottom: "W_xc_x_5"
  top: "gate_input_5"
  eltwise_param {
    operation: SUM
  }
}
layer {
  name: "lstm1_unit_5"
  type: "LSTMUnit"
  bottom: "c_4"
  bottom: "gate_input_5"
  bottom: "cont_5"
  top: "c_5"
  top: "h_5"
}
layer {
  name: "lstm1_h_conted_5"
  type: "Scale"
  bottom: "h_5"
  bottom: "cont_6"
  top: "h_conted_5"
  scale_param {
    axis: 0
  }
}
layer {
  name: "lstm1_transform_6"
  type: "InnerProduct"
  bottom: "h_conted_5"
  top: "W_hc_h_5"
  param {
    name: "W_hc"
  }
  inner_product_param {
    num_output: 64
    bias_term: false
    weight_filler {
      type: "xavier"
    }
    axis: 2
  }
}
layer {
  name: "lstm1_gate_input_6"
  type: "Eltwise"
  bottom: "W_hc_h_5"
  bottom: "W_xc_x_6"
  top: "gate_input_6"
  eltwise_param {
    operation: SUM
  }
}
layer {
  name: "lstm1_unit_6"
  type: "LSTMUnit"
  bottom: "c_5"
  bottom: "gate_input_6"
  bottom: "cont_6"
  top: "c_6"
  top: "h_6"
}
layer {
  name: "lstm1_h_conted_6"
  type: "Scale"
  bottom: "h_6"
  bottom: "cont_7"
  top: "h_conted_6"
  scale_param {
    axis: 0
  }
}
layer {
  name: "lstm1_transform_7"
  type: "InnerProduct"
  bottom: "h_conted_6"
  top: "W_hc_h_6"
  param {
    name: "W_hc"
  }
  inner_product_param {
    num_output: 64
    bias_term: false
    weight_filler {
      type: "xavier"
    }
    axis: 2
  }
}
layer {
  name: "lstm1_gate_input_7"
  type: "Eltwise"
  bottom: "W_hc_h_6"
  bottom: "W_xc_x_7"
  top: "gate_input_7"
  eltwise_param {
    operation: SUM
  }
}
layer {
  name: "lstm1_unit_7"
  type: "LSTMUnit"
  bottom: "c_6"
  bottom: "gate_input_7"
  bottom: "cont_7"
  top: "c_7"
  top: "h_7"
}
layer {
  name: "lstm1_h_conted_7"
  type: "Scale"
  bottom: "h_7"
  bottom: "cont_8"
  top: "h_conted_7"
  scale_param {
    axis: 0
  }
}
layer {
  name: "lstm1_transform_8"
  type: "InnerProduct"
  bottom: "h_conted_7"
  top: "W_hc_h_7"
  param {
    name: "W_hc"
  }
  inner_product_param {
    num_output: 64
    bias_term: false
    weight_filler {
      type: "xavier"
    }
    axis: 2
  }
}
layer {
  name: "lstm1_gate_input_8"
  type: "Eltwise"
  bottom: "W_hc_h_7"
  bottom: "W_xc_x_8"
  top: "gate_input_8"
  eltwise_param {
    operation: SUM
  }
}
layer {
  name: "lstm1_unit_8"
  type: "LSTMUnit"
  bottom: "c_7"
  bottom: "gate_input_8"
  bottom: "cont_8"
  top: "c_8"
  top: "h_8"
}
layer {
  name: "lstm1_h_conted_8"
  type: "Scale"
  bottom: "h_8"
  bottom: "cont_9"
  top: "h_conted_8"
  scale_param {
    axis: 0
  }
}
layer {
  name: "lstm1_transform_9"
  type: "InnerProduct"
  bottom: "h_conted_8"
  top: "W_hc_h_8"
  param {
    name: "W_hc"
  }
  inner_product_param {
    num_output: 64
    bias_term: false
    weight_filler {
      type: "xavier"
    }
    axis: 2
  }
}
layer {
  name: "lstm1_gate_input_9"
  type: "Eltwise"
  bottom: "W_hc_h_8"
  bottom: "W_xc_x_9"
  top: "gate_input_9"
  eltwise_param {
    operation: SUM
  }
}
layer {
  name: "lstm1_unit_9"
  type: "LSTMUnit"
  bottom: "c_8"
  bottom: "gate_input_9"
  bottom: "cont_9"
  top: "c_9"
  top: "h_9"
}
layer {
  name: "lstm1_h_conted_9"
  type: "Scale"
  bottom: "h_9"
  bottom: "cont_10"
  top: "h_conted_9"
  scale_param {
    axis: 0
  }
}
layer {
  name: "lstm1_transform_10"
  type: "InnerProduct"
  bottom: "h_conted_9"
  top: "W_hc_h_9"
  param {
    name: "W_hc"
  }
  inner_product_param {
    num_output: 64
    bias_term: false
    weight_filler {
      type: "xavier"
    }
    axis: 2
  }
}
layer {
  name: "lstm1_gate_input_10"
  type: "Eltwise"
  bottom: "W_hc_h_9"
  bottom: "W_xc_x_10"
  top: "gate_input_10"
  eltwise_param {
    operation: SUM
  }
}
layer {
  name: "lstm1_unit_10"
  type: "LSTMUnit"
  bottom: "c_9"
  bottom: "gate_input_10"
  bottom: "cont_10"
  top: "c_10"
  top: "h_10"
}
layer {
  name: "lstm1_h_conted_10"
  type: "Scale"
  bottom: "h_10"
  bottom: "cont_11"
  top: "h_conted_10"
  scale_param {
    axis: 0
  }
}
layer {
  name: "lstm1_transform_11"
  type: "InnerProduct"
  bottom: "h_conted_10"
  top: "W_hc_h_10"
  param {
    name: "W_hc"
  }
  inner_product_param {
    num_output: 64
    bias_term: false
    weight_filler {
      type: "xavier"
    }
    axis: 2
  }
}
layer {
  name: "lstm1_gate_input_11"
  type: "Eltwise"
  bottom: "W_hc_h_10"
  bottom: "W_xc_x_11"
  top: "gate_input_11"
  eltwise_param {
    operation: SUM
  }
}
layer {
  name: "lstm1_unit_11"
  type: "LSTMUnit"
  bottom: "c_10"
  bottom: "gate_input_11"
  bottom: "cont_11"
  top: "c_11"
  top: "h_11"
}
layer {
  name: "lstm1_h_conted_11"
  type: "Scale"
  bottom: "h_11"
  bottom: "cont_12"
  top: "h_conted_11"
  scale_param {
    axis: 0
  }
}
layer {
  name: "lstm1_transform_12"
  type: "InnerProduct"
  bottom: "h_conted_11"
  top: "W_hc_h_11"
  param {
    name: "W_hc"
  }
  inner_product_param {
    num_output: 64
    bias_term: false
    weight_filler {
      type: "xavier"
    }
    axis: 2
  }
}
layer {
  name: "lstm1_gate_input_12"
  type: "Eltwise"
  bottom: "W_hc_h_11"
  bottom: "W_xc_x_12"
  top: "gate_input_12"
  eltwise_param {
    operation: SUM
  }
}
layer {
  name: "lstm1_unit_12"
  type: "LSTMUnit"
  bottom: "c_11"
  bottom: "gate_input_12"
  bottom: "cont_12"
  top: "c_12"
  top: "h_12"
}
layer {
  name: "lstm1_h_conted_12"
  type: "Scale"
  bottom: "h_12"
  bottom: "cont_13"
  top: "h_conted_12"
  scale_param {
    axis: 0
  }
}
layer {
  name: "lstm1_transform_13"
  type: "InnerProduct"
  bottom: "h_conted_12"
  top: "W_hc_h_12"
  param {
    name: "W_hc"
  }
  inner_product_param {
    num_output: 64
    bias_term: false
    weight_filler {
      type: "xavier"
    }
    axis: 2
  }
}
layer {
  name: "lstm1_gate_input_13"
  type: "Eltwise"
  bottom: "W_hc_h_12"
  bottom: "W_xc_x_13"
  top: "gate_input_13"
  eltwise_param {
    operation: SUM
  }
}
layer {
  name: "lstm1_unit_13"
  type: "LSTMUnit"
  bottom: "c_12"
  bottom: "gate_input_13"
  bottom: "cont_13"
  top: "c_13"
  top: "h_13"
}
layer {
  name: "lstm1_h_conted_13"
  type: "Scale"
  bottom: "h_13"
  bottom: "cont_14"
  top: "h_conted_13"
  scale_param {
    axis: 0
  }
}
layer {
  name: "lstm1_transform_14"
  type: "InnerProduct"
  bottom: "h_conted_13"
  top: "W_hc_h_13"
  param {
    name: "W_hc"
  }
  inner_product_param {
    num_output: 64
    bias_term: false
    weight_filler {
      type: "xavier"
    }
    axis: 2
  }
}
layer {
  name: "lstm1_gate_input_14"
  type: "Eltwise"
  bottom: "W_hc_h_13"
  bottom: "W_xc_x_14"
  top: "gate_input_14"
  eltwise_param {
    operation: SUM
  }
}
layer {
  name: "lstm1_unit_14"
  type: "LSTMUnit"
  bottom: "c_13"
  bottom: "gate_input_14"
  bottom: "cont_14"
  top: "c_14"
  top: "h_14"
}
layer {
  name: "lstm1_h_conted_14"
  type: "Scale"
  bottom: "h_14"
  bottom: "cont_15"
  top: "h_conted_14"
  scale_param {
    axis: 0
  }
}
layer {
  name: "lstm1_transform_15"
  type: "InnerProduct"
  bottom: "h_conted_14"
  top: "W_hc_h_14"
  param {
    name: "W_hc"
  }
  inner_product_param {
    num_output: 64
    bias_term: false
    weight_filler {
      type: "xavier"
    }
    axis: 2
  }
}
layer {
  name: "lstm1_gate_input_15"
  type: "Eltwise"
  bottom: "W_hc_h_14"
  bottom: "W_xc_x_15"
  top: "gate_input_15"
  eltwise_param {
    operation: SUM
  }
}
layer {
  name: "lstm1_unit_15"
  type: "LSTMUnit"
  bottom: "c_14"
  bottom: "gate_input_15"
  bottom: "cont_15"
  top: "c_15"
  top: "h_15"
}
layer {
  name: "lstm1_h_conted_15"
  type: "Scale"
  bottom: "h_15"
  bottom: "cont_16"
  top: "h_conted_15"
  scale_param {
    axis: 0
  }
}
layer {
  name: "lstm1_transform_16"
  type: "InnerProduct"
  bottom: "h_conted_15"
  top: "W_hc_h_15"
  param {
    name: "W_hc"
  }
  inner_product_param {
    num_output: 64
    bias_term: false
    weight_filler {
      type: "xavier"
    }
    axis: 2
  }
}
layer {
  name: "lstm1_gate_input_16"
  type: "Eltwise"
  bottom: "W_hc_h_15"
  bottom: "W_xc_x_16"
  top: "gate_input_16"
  eltwise_param {
    operation: SUM
  }
}
layer {
  name: "lstm1_unit_16"
  type: "LSTMUnit"
  bottom: "c_15"
  bottom: "gate_input_16"
  bottom: "cont_16"
  top: "c_16"
  top: "h_16"
}
layer {
  name: "lstm1_h_conted_16"
  type: "Scale"
  bottom: "h_16"
  bottom: "cont_17"
  top: "h_conted_16"
  scale_param {
    axis: 0
  }
}
layer {
  name: "lstm1_transform_17"
  type: "InnerProduct"
  bottom: "h_conted_16"
  top: "W_hc_h_16"
  param {
    name: "W_hc"
  }
  inner_product_param {
    num_output: 64
    bias_term: false
    weight_filler {
      type: "xavier"
    }
    axis: 2
  }
}
layer {
  name: "lstm1_gate_input_17"
  type: "Eltwise"
  bottom: "W_hc_h_16"
  bottom: "W_xc_x_17"
  top: "gate_input_17"
  eltwise_param {
    operation: SUM
  }
}
layer {
  name: "lstm1_unit_17"
  type: "LSTMUnit"
  bottom: "c_16"
  bottom: "gate_input_17"
  bottom: "cont_17"
  top: "c_17"
  top: "h_17"
}
layer {
  name: "lstm1_h_conted_17"
  type: "Scale"
  bottom: "h_17"
  bottom: "cont_18"
  top: "h_conted_17"
  scale_param {
    axis: 0
  }
}
layer {
  name: "lstm1_transform_18"
  type: "InnerProduct"
  bottom: "h_conted_17"
  top: "W_hc_h_17"
  param {
    name: "W_hc"
  }
  inner_product_param {
    num_output: 64
    bias_term: false
    weight_filler {
      type: "xavier"
    }
    axis: 2
  }
}
layer {
  name: "lstm1_gate_input_18"
  type: "Eltwise"
  bottom: "W_hc_h_17"
  bottom: "W_xc_x_18"
  top: "gate_input_18"
  eltwise_param {
    operation: SUM
  }
}
layer {
  name: "lstm1_unit_18"
  type: "LSTMUnit"
  bottom: "c_17"
  bottom: "gate_input_18"
  bottom: "cont_18"
  top: "c_18"
  top: "h_18"
}
layer {
  name: "lstm1_h_conted_18"
  type: "Scale"
  bottom: "h_18"
  bottom: "cont_19"
  top: "h_conted_18"
  scale_param {
    axis: 0
  }
}
layer {
  name: "lstm1_transform_19"
  type: "InnerProduct"
  bottom: "h_conted_18"
  top: "W_hc_h_18"
  param {
    name: "W_hc"
  }
  inner_product_param {
    num_output: 64
    bias_term: false
    weight_filler {
      type: "xavier"
    }
    axis: 2
  }
}
layer {
  name: "lstm1_gate_input_19"
  type: "Eltwise"
  bottom: "W_hc_h_18"
  bottom: "W_xc_x_19"
  top: "gate_input_19"
  eltwise_param {
    operation: SUM
  }
}
layer {
  name: "lstm1_unit_19"
  type: "LSTMUnit"
  bottom: "c_18"
  bottom: "gate_input_19"
  bottom: "cont_19"
  top: "c_19"
  top: "h_19"
}
layer {
  name: "lstm1_h_conted_19"
  type: "Scale"
  bottom: "h_19"
  bottom: "cont_20"
  top: "h_conted_19"
  scale_param {
    axis: 0
  }
}
layer {
  name: "lstm1_transform_20"
  type: "InnerProduct"
  bottom: "h_conted_19"
  top: "W_hc_h_19"
  param {
    name: "W_hc"
  }
  inner_product_param {
    num_output: 64
    bias_term: false
    weight_filler {
      type: "xavier"
    }
    axis: 2
  }
}
layer {
  name: "lstm1_gate_input_20"
  type: "Eltwise"
  bottom: "W_hc_h_19"
  bottom: "W_xc_x_20"
  top: "gate_input_20"
  eltwise_param {
    operation: SUM
  }
}
layer {
  name: "lstm1_unit_20"
  type: "LSTMUnit"
  bottom: "c_19"
  bottom: "gate_input_20"
  bottom: "cont_20"
  top: "c_20"
  top: "h_20"
}
layer {
  name: "lstm1_h_conted_20"
  type: "Scale"
  bottom: "h_20"
  bottom: "cont_21"
  top: "h_conted_20"
  scale_param {
    axis: 0
  }
}
layer {
  name: "lstm1_transform_21"
  type: "InnerProduct"
  bottom: "h_conted_20"
  top: "W_hc_h_20"
  param {
    name: "W_hc"
  }
  inner_product_param {
    num_output: 64
    bias_term: false
    weight_filler {
      type: "xavier"
    }
    axis: 2
  }
}
layer {
  name: "lstm1_gate_input_21"
  type: "Eltwise"
  bottom: "W_hc_h_20"
  bottom: "W_xc_x_21"
  top: "gate_input_21"
  eltwise_param {
    operation: SUM
  }
}
layer {
  name: "lstm1_unit_21"
  type: "LSTMUnit"
  bottom: "c_20"
  bottom: "gate_input_21"
  bottom: "cont_21"
  top: "c_21"
  top: "h_21"
}
layer {
  name: "lstm1_h_conted_21"
  type: "Scale"
  bottom: "h_21"
  bottom: "cont_22"
  top: "h_conted_21"
  scale_param {
    axis: 0
  }
}
layer {
  name: "lstm1_transform_22"
  type: "InnerProduct"
  bottom: "h_conted_21"
  top: "W_hc_h_21"
  param {
    name: "W_hc"
  }
  inner_product_param {
    num_output: 64
    bias_term: false
    weight_filler {
      type: "xavier"
    }
    axis: 2
  }
}
layer {
  name: "lstm1_gate_input_22"
  type: "Eltwise"
  bottom: "W_hc_h_21"
  bottom: "W_xc_x_22"
  top: "gate_input_22"
  eltwise_param {
    operation: SUM
  }
}
layer {
  name: "lstm1_unit_22"
  type: "LSTMUnit"
  bottom: "c_21"
  bottom: "gate_input_22"
  bottom: "cont_22"
  top: "c_22"
  top: "h_22"
}
layer {
  name: "lstm1_h_conted_22"
  type: "Scale"
  bottom: "h_22"
  bottom: "cont_23"
  top: "h_conted_22"
  scale_param {
    axis: 0
  }
}
layer {
  name: "lstm1_transform_23"
  type: "InnerProduct"
  bottom: "h_conted_22"
  top: "W_hc_h_22"
  param {
    name: "W_hc"
  }
  inner_product_param {
    num_output: 64
    bias_term: false
    weight_filler {
      type: "xavier"
    }
    axis: 2
  }
}
layer {
  name: "lstm1_gate_input_23"
  type: "Eltwise"
  bottom: "W_hc_h_22"
  bottom: "W_xc_x_23"
  top: "gate_input_23"
  eltwise_param {
    operation: SUM
  }
}
layer {
  name: "lstm1_unit_23"
  type: "LSTMUnit"
  bottom: "c_22"
  bottom: "gate_input_23"
  bottom: "cont_23"
  top: "c_23"
  top: "h_23"
}
layer {
  name: "lstm1_h_conted_23"
  type: "Scale"
  bottom: "h_23"
  bottom: "cont_24"
  top: "h_conted_23"
  scale_param {
    axis: 0
  }
}
layer {
  name: "lstm1_transform_24"
  type: "InnerProduct"
  bottom: "h_conted_23"
  top: "W_hc_h_23"
  param {
    name: "W_hc"
  }
  inner_product_param {
    num_output: 64
    bias_term: false
    weight_filler {
      type: "xavier"
    }
    axis: 2
  }
}
layer {
  name: "lstm1_gate_input_24"
  type: "Eltwise"
  bottom: "W_hc_h_23"
  bottom: "W_xc_x_24"
  top: "gate_input_24"
  eltwise_param {
    operation: SUM
  }
}
layer {
  name: "lstm1_unit_24"
  type: "LSTMUnit"
  bottom: "c_23"
  bottom: "gate_input_24"
  bottom: "cont_24"
  top: "c_24"
  top: "h_24"
}
layer {
  name: "lstm1_"
  type: "Split"
  bottom: "c_24"
  top: "c_T"
}
layer {
  name: "lstm1_h_concat"
  type: "Concat"
  bottom: "h_1"
  bottom: "h_2"
  bottom: "h_3"
  bottom: "h_4"
  bottom: "h_5"
  bottom: "h_6"
  bottom: "h_7"
  bottom: "h_8"
  bottom: "h_9"
  bottom: "h_10"
  bottom: "h_11"
  bottom: "h_12"
  bottom: "h_13"
  bottom: "h_14"
  bottom: "h_15"
  bottom: "h_16"
  bottom: "h_17"
  bottom: "h_18"
  bottom: "h_19"
  bottom: "h_20"
  bottom: "h_21"
  bottom: "h_22"
  bottom: "h_23"
  bottom: "h_24"
  top: "h"
  concat_param {
    axis: 0
  }
}
layer {
  name: "h_pseudoloss"
  type: "Reduction"
  bottom: "h"
  top: "h_pseudoloss"
  loss_weight: 1
}
I0222 17:35:27.710079 24465 layer_factory.hpp:77] Creating layer lstm1_
I0222 17:35:27.710088 24465 net.cpp:84] Creating Layer lstm1_
I0222 17:35:27.710093 24465 net.cpp:380] lstm1_ -> x
I0222 17:35:27.710099 24465 net.cpp:380] lstm1_ -> cont
I0222 17:35:27.710124 24465 net.cpp:122] Setting up lstm1_
I0222 17:35:27.710129 24465 net.cpp:129] Top shape: 24 26 1 1 (624)
I0222 17:35:27.710134 24465 net.cpp:129] Top shape: 24 26 (624)
I0222 17:35:27.710136 24465 net.cpp:137] Memory required for data: 4992
I0222 17:35:27.710140 24465 layer_factory.hpp:77] Creating layer lstm1_
I0222 17:35:27.710151 24465 net.cpp:84] Creating Layer lstm1_
I0222 17:35:27.710155 24465 net.cpp:380] lstm1_ -> c_0
I0222 17:35:27.710161 24465 net.cpp:380] lstm1_ -> h_0
I0222 17:35:27.710196 24465 net.cpp:122] Setting up lstm1_
I0222 17:35:27.710203 24465 net.cpp:129] Top shape: 1 26 16 (416)
I0222 17:35:27.710207 24465 net.cpp:129] Top shape: 1 26 16 (416)
I0222 17:35:27.710214 24465 net.cpp:137] Memory required for data: 8320
I0222 17:35:27.710218 24465 layer_factory.hpp:77] Creating layer lstm1_cont_slice
I0222 17:35:27.710232 24465 net.cpp:84] Creating Layer lstm1_cont_slice
I0222 17:35:27.710237 24465 net.cpp:406] lstm1_cont_slice <- cont
I0222 17:35:27.710243 24465 net.cpp:380] lstm1_cont_slice -> cont_1
I0222 17:35:27.710252 24465 net.cpp:380] lstm1_cont_slice -> cont_2
…
I0222 17:35:27.710348 24465 net.cpp:380] lstm1_cont_slice -> cont_17
I0222 17:35:27.710355 24465 net.cpp:380] lstm1_cont_slice -> cont_18
I0222 17:35:27.710360 24465 net.cpp:380] lstm1_cont_slice -> cont_19
I0222 17:35:27.710364 24465 net.cpp:380] lstm1_cont_slice -> cont_20
I0222 17:35:27.710371 24465 net.cpp:380] lstm1_cont_slice -> cont_21
I0222 17:35:27.710376 24465 net.cpp:380] lstm1_cont_slice -> cont_22
I0222 17:35:27.710382 24465 net.cpp:380] lstm1_cont_slice -> cont_23
I0222 17:35:27.710387 24465 net.cpp:380] lstm1_cont_slice -> cont_24
I0222 17:35:27.710530 24465 net.cpp:122] Setting up lstm1_cont_slice
I0222 17:35:27.710536 24465 net.cpp:129] Top shape: 1 26 (26)
I0222 17:35:27.710541 24465 net.cpp:129] Top shape: 1 26 (26)
I0222 17:35:27.710543 24465 net.cpp:129] Top shape: 1 26 (26)
I0222 17:35:27.710546 24465 net.cpp:129] Top shape: 1 26 (26)
I0222 17:35:27.710551 24465 net.cpp:129] Top shape: 1 26 (26)
I0222 17:35:27.710556 24465 net.cpp:129] Top shape: 1 26 (26)
I0222 17:35:27.710558 24465 net.cpp:129] Top shape: 1 26 (26)
I0222 17:35:27.710561 24465 net.cpp:129] Top shape: 1 26 (26)
I0222 17:35:27.710566 24465 net.cpp:129] Top shape: 1 26 (26)
I0222 17:35:27.710568 24465 net.cpp:129] Top shape: 1 26 (26)
I0222 17:35:27.710572 24465 net.cpp:129] Top shape: 1 26 (26)
I0222 17:35:27.710574 24465 net.cpp:129] Top shape: 1 26 (26)
I0222 17:35:27.710578 24465 net.cpp:129] Top shape: 1 26 (26)
I0222 17:35:27.710582 24465 net.cpp:129] Top shape: 1 26 (26)
I0222 17:35:27.710585 24465 net.cpp:129] Top shape: 1 26 (26)
I0222 17:35:27.710588 24465 net.cpp:129] Top shape: 1 26 (26)
I0222 17:35:27.710592 24465 net.cpp:129] Top shape: 1 26 (26)
I0222 17:35:27.710595 24465 net.cpp:129] Top shape: 1 26 (26)
I0222 17:35:27.710598 24465 net.cpp:129] Top shape: 1 26 (26)
I0222 17:35:27.710602 24465 net.cpp:129] Top shape: 1 26 (26)
I0222 17:35:27.710608 24465 net.cpp:129] Top shape: 1 26 (26)
I0222 17:35:27.710610 24465 net.cpp:129] Top shape: 1 26 (26)
I0222 17:35:27.710614 24465 net.cpp:129] Top shape: 1 26 (26)
I0222 17:35:27.710618 24465 net.cpp:129] Top shape: 1 26 (26)
I0222 17:35:27.710623 24465 net.cpp:137] Memory required for data: 10816
I0222 17:35:27.710626 24465 layer_factory.hpp:77] Creating layer cont_1_lstm1_cont_slice_0_split
I0222 17:35:27.710634 24465 net.cpp:84] Creating Layer cont_1_lstm1_cont_slice_0_split
I0222 17:35:27.710644 24465 net.cpp:406] cont_1_lstm1_cont_slice_0_split <- cont_1
I0222 17:35:27.710649 24465 net.cpp:380] cont_1_lstm1_cont_slice_0_split -> cont_1_lstm1_cont_slice_0_split_0
I0222 17:35:27.710654 24465 net.cpp:380] cont_1_lstm1_cont_slice_0_split -> cont_1_lstm1_cont_slice_0_split_1
I0222 17:35:27.710675 24465 net.cpp:122] Setting up cont_1_lstm1_cont_slice_0_split
I0222 17:35:27.710680 24465 net.cpp:129] Top shape: 1 26 (26)
I0222 17:35:27.732465 24465 net.cpp:129] Top shape: 1 26 (26)
I0222 17:35:27.732473 24465 net.cpp:137] Memory required for data: 11024
I0222 17:35:27.732476 24465 layer_factory.hpp:77] Creating layer cont_2_lstm1_cont_slice_1_split
I0222 17:35:27.732484 24465 net.cpp:84] Creating Layer cont_2_lstm1_cont_slice_1_split
I0222 17:35:27.732488 24465 net.cpp:406] cont_2_lstm1_cont_slice_1_split <- cont_2
I0222 17:35:27.732496 24465 net.cpp:380] cont_2_lstm1_cont_slice_1_split -> cont_2_lstm1_cont_slice_1_split_0
I0222 17:35:27.732501 24465 net.cpp:380] cont_2_lstm1_cont_slice_1_split -> cont_2_lstm1_cont_slice_1_split_1
I0222 17:35:27.732535 24465 net.cpp:122] Setting up cont_2_lstm1_cont_slice_1_split
I0222 17:35:27.732540 24465 net.cpp:129] Top shape: 1 26 (26)
I0222 17:35:27.732543 24465 net.cpp:129] Top shape: 1 26 (26)
I0222 17:35:27.732545 24465 net.cpp:137] Memory required for data: 11232
I0222 17:35:27.732548 24465 layer_factory.hpp:77] Creating layer cont_3_lstm1_cont_slice_2_split
I0222 17:35:27.732553 24465 net.cpp:84] Creating Layer cont_3_lstm1_cont_slice_2_split
I0222 17:35:27.732555 24465 net.cpp:406] cont_3_lstm1_cont_slice_2_split <- cont_3
I0222 17:35:27.732558 24465 net.cpp:380] cont_3_lstm1_cont_slice_2_split -> cont_3_lstm1_cont_slice_2_split_0
I0222 17:35:27.732566 24465 net.cpp:380] cont_3_lstm1_cont_slice_2_split -> cont_3_lstm1_cont_slice_2_split_1
I0222 17:35:27.732585 24465 net.cpp:122] Setting up cont_3_lstm1_cont_slice_2_split
I0222 17:35:27.732590 24465 net.cpp:129] Top shape: 1 26 (26)
I0222 17:35:27.732594 24465 net.cpp:129] Top shape: 1 26 (26)
I0222 17:35:27.732596 24465 net.cpp:137] Memory required for data: 11440
I0222 17:35:27.732599 24465 layer_factory.hpp:77] Creating layer cont_4_lstm1_cont_slice_3_split
I0222 17:35:27.732601 24465 net.cpp:84] Creating Layer cont_4_lstm1_cont_slice_3_split
I0222 17:35:27.732604 24465 net.cpp:406] cont_4_lstm1_cont_slice_3_split <- cont_4
I0222 17:35:27.732607 24465 net.cpp:380] cont_4_lstm1_cont_slice_3_split -> cont_4_lstm1_cont_slice_3_split_0
I0222 17:35:27.732611 24465 net.cpp:380] cont_4_lstm1_cont_slice_3_split -> cont_4_lstm1_cont_slice_3_split_1
I0222 17:35:27.732631 24465 net.cpp:122] Setting up cont_4_lstm1_cont_slice_3_split
I0222 17:35:27.732635 24465 net.cpp:129] Top shape: 1 26 (26)
I0222 17:35:27.732638 24465 net.cpp:129] Top shape: 1 26 (26)
I0222 17:35:27.732640 24465 net.cpp:137] Memory required for data: 11648
I0222 17:35:27.732643 24465 layer_factory.hpp:77] Creating layer cont_5_lstm1_cont_slice_4_split
I0222 17:35:27.732646 24465 net.cpp:84] Creating Layer cont_5_lstm1_cont_slice_4_split
I0222 17:35:27.732648 24465 net.cpp:406] cont_5_lstm1_cont_slice_4_split <- cont_5
I0222 17:35:27.732652 24465 net.cpp:380] cont_5_lstm1_cont_slice_4_split -> cont_5_lstm1_cont_slice_4_split_0
I0222 17:35:27.732656 24465 net.cpp:380] cont_5_lstm1_cont_slice_4_split -> cont_5_lstm1_cont_slice_4_split_1
I0222 17:35:27.732673 24465 net.cpp:122] Setting up cont_5_lstm1_cont_slice_4_split
I0222 17:35:27.732677 24465 net.cpp:129] Top shape: 1 26 (26)
I0222 17:35:27.732681 24465 net.cpp:129] Top shape: 1 26 (26)
I0222 17:35:27.732682 24465 net.cpp:137] Memory required for data: 11856
I0222 17:35:27.732686 24465 layer_factory.hpp:77] Creating layer cont_6_lstm1_cont_slice_5_split
I0222 17:35:27.732689 24465 net.cpp:84] Creating Layer cont_6_lstm1_cont_slice_5_split
I0222 17:35:27.732692 24465 net.cpp:406] cont_6_lstm1_cont_slice_5_split <- cont_6
I0222 17:35:27.732695 24465 net.cpp:380] cont_6_lstm1_cont_slice_5_split -> cont_6_lstm1_cont_slice_5_split_0
I0222 17:35:27.732699 24465 net.cpp:380] cont_6_lstm1_cont_slice_5_split -> cont_6_lstm1_cont_slice_5_split_1
I0222 17:35:27.732725 24465 net.cpp:122] Setting up cont_6_lstm1_cont_slice_5_split
I0222 17:35:27.732730 24465 net.cpp:129] Top shape: 1 26 (26)
I0222 17:35:27.732733 24465 net.cpp:129] Top shape: 1 26 (26)
I0222 17:35:27.732736 24465 net.cpp:137] Memory required for data: 12064
I0222 17:35:27.732739 24465 layer_factory.hpp:77] Creating layer cont_7_lstm1_cont_slice_6_split
I0222 17:35:27.732743 24465 net.cpp:84] Creating Layer cont_7_lstm1_cont_slice_6_split
I0222 17:35:27.732746 24465 net.cpp:406] cont_7_lstm1_cont_slice_6_split <- cont_7
I0222 17:35:27.732750 24465 net.cpp:380] cont_7_lstm1_cont_slice_6_split -> cont_7_lstm1_cont_slice_6_split_0
I0222 17:35:27.732754 24465 net.cpp:380] cont_7_lstm1_cont_slice_6_split -> cont_7_lstm1_cont_slice_6_split_1
I0222 17:35:27.732771 24465 net.cpp:122] Setting up cont_7_lstm1_cont_slice_6_split
I0222 17:35:27.732775 24465 net.cpp:129] Top shape: 1 26 (26)
I0222 17:35:27.732779 24465 net.cpp:129] Top shape: 1 26 (26)
I0222 17:35:27.732781 24465 net.cpp:137] Memory required for data: 12272
I0222 17:35:27.732784 24465 layer_factory.hpp:77] Creating layer cont_8_lstm1_cont_slice_7_split
I0222 17:35:27.732789 24465 net.cpp:84] Creating Layer cont_8_lstm1_cont_slice_7_split
I0222 17:35:27.732790 24465 net.cpp:406] cont_8_lstm1_cont_slice_7_split <- cont_8
I0222 17:35:27.732795 24465 net.cpp:380] cont_8_lstm1_cont_slice_7_split -> cont_8_lstm1_cont_slice_7_split_0
I0222 17:35:27.732800 24465 net.cpp:380] cont_8_lstm1_cont_slice_7_split -> cont_8_lstm1_cont_slice_7_split_1
I0222 17:35:27.732816 24465 net.cpp:122] Setting up cont_8_lstm1_cont_slice_7_split
I0222 17:35:27.732820 24465 net.cpp:129] Top shape: 1 26 (26)
I0222 17:35:27.732825 24465 net.cpp:129] Top shape: 1 26 (26)
I0222 17:35:27.732827 24465 net.cpp:137] Memory required for data: 12480
I0222 17:35:27.732830 24465 layer_factory.hpp:77] Creating layer cont_9_lstm1_cont_slice_8_split
I0222 17:35:27.732833 24465 net.cpp:84] Creating Layer cont_9_lstm1_cont_slice_8_split
I0222 17:35:27.732836 24465 net.cpp:406] cont_9_lstm1_cont_slice_8_split <- cont_9
I0222 17:35:27.732841 24465 net.cpp:380] cont_9_lstm1_cont_slice_8_split -> cont_9_lstm1_cont_slice_8_split_0
I0222 17:35:27.732844 24465 net.cpp:380] cont_9_lstm1_cont_slice_8_split -> cont_9_lstm1_cont_slice_8_split_1
I0222 17:35:27.732861 24465 net.cpp:122] Setting up cont_9_lstm1_cont_slice_8_split
I0222 17:35:27.732866 24465 net.cpp:129] Top shape: 1 26 (26)
I0222 17:35:27.732868 24465 net.cpp:129] Top shape: 1 26 (26)
I0222 17:35:27.732872 24465 net.cpp:137] Memory required for data: 12688
I0222 17:35:27.732874 24465 layer_factory.hpp:77] Creating layer cont_10_lstm1_cont_slice_9_split
I0222 17:35:27.732877 24465 net.cpp:84] Creating Layer cont_10_lstm1_cont_slice_9_split
I0222 17:35:27.732882 24465 net.cpp:406] cont_10_lstm1_cont_slice_9_split <- cont_10
I0222 17:35:27.732884 24465 net.cpp:380] cont_10_lstm1_cont_slice_9_split -> cont_10_lstm1_cont_slice_9_split_0
I0222 17:35:27.732889 24465 net.cpp:380] cont_10_lstm1_cont_slice_9_split -> cont_10_lstm1_cont_slice_9_split_1
I0222 17:35:27.732908 24465 net.cpp:122] Setting up cont_10_lstm1_cont_slice_9_split
I0222 17:35:27.732911 24465 net.cpp:129] Top shape: 1 26 (26)
I0222 17:35:27.732914 24465 net.cpp:129] Top shape: 1 26 (26)
I0222 17:35:27.732918 24465 net.cpp:137] Memory required for data: 12896
I0222 17:35:27.732920 24465 layer_factory.hpp:77] Creating layer cont_11_lstm1_cont_slice_10_split
I0222 17:35:27.732923 24465 net.cpp:84] Creating Layer cont_11_lstm1_cont_slice_10_split
I0222 17:35:27.732926 24465 net.cpp:406] cont_11_lstm1_cont_slice_10_split <- cont_11
I0222 17:35:27.732934 24465 net.cpp:380] cont_11_lstm1_cont_slice_10_split -> cont_11_lstm1_cont_slice_10_split_0
I0222 17:35:27.736549 24465 net.cpp:380] cont_11_lstm1_cont_slice_10_split -> cont_11_lstm1_cont_slice_10_split_1
I0222 17:35:27.736578 24465 net.cpp:122] Setting up cont_11_lstm1_cont_slice_10_split
I0222 17:35:27.736584 24465 net.cpp:129] Top shape: 1 26 (26)
I0222 17:35:27.736595 24465 net.cpp:129] Top shape: 1 26 (26)
I0222 17:35:27.736598 24465 net.cpp:137] Memory required for data: 13104
I0222 17:35:27.736600 24465 layer_factory.hpp:77] Creating layer cont_12_lstm1_cont_slice_11_split
I0222 17:35:27.736606 24465 net.cpp:84] Creating Layer cont_12_lstm1_cont_slice_11_split
I0222 17:35:27.736610 24465 net.cpp:406] cont_12_lstm1_cont_slice_11_split <- cont_12
I0222 17:35:27.736614 24465 net.cpp:380] cont_12_lstm1_cont_slice_11_split -> cont_12_lstm1_cont_slice_11_split_0
I0222 17:35:27.736619 24465 net.cpp:380] cont_12_lstm1_cont_slice_11_split -> cont_12_lstm1_cont_slice_11_split_1
I0222 17:35:27.736650 24465 net.cpp:122] Setting up cont_12_lstm1_cont_slice_11_split
I0222 17:35:27.736668 24465 net.cpp:129] Top shape: 1 26 (26)
I0222 17:35:27.736672 24465 net.cpp:129] Top shape: 1 26 (26)
I0222 17:35:27.736675 24465 net.cpp:137] Memory required for data: 13312
I0222 17:35:27.736677 24465 layer_factory.hpp:77] Creating layer cont_13_lstm1_cont_slice_12_split
I0222 17:35:27.736681 24465 net.cpp:84] Creating Layer cont_13_lstm1_cont_slice_12_split
I0222 17:35:27.736685 24465 net.cpp:406] cont_13_lstm1_cont_slice_12_split <- cont_13
I0222 17:35:27.736688 24465 net.cpp:380] cont_13_lstm1_cont_slice_12_split -> cont_13_lstm1_cont_slice_12_split_0
I0222 17:35:27.736692 24465 net.cpp:380] cont_13_lstm1_cont_slice_12_split -> cont_13_lstm1_cont_slice_12_split_1
I0222 17:35:27.736709 24465 net.cpp:122] Setting up cont_13_lstm1_cont_slice_12_split
I0222 17:35:27.736714 24465 net.cpp:129] Top shape: 1 26 (26)
I0222 17:35:27.736717 24465 net.cpp:129] Top shape: 1 26 (26)
I0222 17:35:27.736721 24465 net.cpp:137] Memory required for data: 13520
I0222 17:35:27.736723 24465 layer_factory.hpp:77] Creating layer cont_14_lstm1_cont_slice_13_split
I0222 17:35:27.736728 24465 net.cpp:84] Creating Layer cont_14_lstm1_cont_slice_13_split
I0222 17:35:27.736732 24465 net.cpp:406] cont_14_lstm1_cont_slice_13_split <- cont_14
I0222 17:35:27.736737 24465 net.cpp:380] cont_14_lstm1_cont_slice_13_split -> cont_14_lstm1_cont_slice_13_split_0
I0222 17:35:27.736742 24465 net.cpp:380] cont_14_lstm1_cont_slice_13_split -> cont_14_lstm1_cont_slice_13_split_1
I0222 17:35:27.736757 24465 net.cpp:122] Setting up cont_14_lstm1_cont_slice_13_split
I0222 17:35:27.736762 24465 net.cpp:129] Top shape: 1 26 (26)
I0222 17:35:27.736765 24465 net.cpp:129] Top shape: 1 26 (26)
I0222 17:35:27.736768 24465 net.cpp:137] Memory required for data: 13728
I0222 17:35:27.736771 24465 layer_factory.hpp:77] Creating layer cont_15_lstm1_cont_slice_14_split
I0222 17:35:27.736775 24465 net.cpp:84] Creating Layer cont_15_lstm1_cont_slice_14_split
I0222 17:35:27.736778 24465 net.cpp:406] cont_15_lstm1_cont_slice_14_split <- cont_15
I0222 17:35:27.736783 24465 net.cpp:380] cont_15_lstm1_cont_slice_14_split -> cont_15_lstm1_cont_slice_14_split_0
I0222 17:35:27.736786 24465 net.cpp:380] cont_15_lstm1_cont_slice_14_split -> cont_15_lstm1_cont_slice_14_split_1
I0222 17:35:27.736804 24465 net.cpp:122] Setting up cont_15_lstm1_cont_slice_14_split
I0222 17:35:27.736807 24465 net.cpp:129] Top shape: 1 26 (26)
I0222 17:35:27.736811 24465 net.cpp:129] Top shape: 1 26 (26)
I0222 17:35:27.736814 24465 net.cpp:137] Memory required for data: 13936
I0222 17:35:27.736816 24465 layer_factory.hpp:77] Creating layer cont_16_lstm1_cont_slice_15_split
I0222 17:35:27.736820 24465 net.cpp:84] Creating Layer cont_16_lstm1_cont_slice_15_split
I0222 17:35:27.736824 24465 net.cpp:406] cont_16_lstm1_cont_slice_15_split <- cont_16
I0222 17:35:27.736827 24465 net.cpp:380] cont_16_lstm1_cont_slice_15_split -> cont_16_lstm1_cont_slice_15_split_0
I0222 17:35:27.736831 24465 net.cpp:380] cont_16_lstm1_cont_slice_15_split -> cont_16_lstm1_cont_slice_15_split_1
I0222 17:35:27.736847 24465 net.cpp:122] Setting up cont_16_lstm1_cont_slice_15_split
I0222 17:35:27.736852 24465 net.cpp:129] Top shape: 1 26 (26)
I0222 17:35:27.736855 24465 net.cpp:129] Top shape: 1 26 (26)
I0222 17:35:27.736858 24465 net.cpp:137] Memory required for data: 14144
I0222 17:35:27.736861 24465 layer_factory.hpp:77] Creating layer cont_17_lstm1_cont_slice_16_split
I0222 17:35:27.736870 24465 net.cpp:84] Creating Layer cont_17_lstm1_cont_slice_16_split
I0222 17:35:27.736872 24465 net.cpp:406] cont_17_lstm1_cont_slice_16_split <- cont_17
I0222 17:35:27.736877 24465 net.cpp:380] cont_17_lstm1_cont_slice_16_split -> cont_17_lstm1_cont_slice_16_split_0
I0222 17:35:27.736882 24465 net.cpp:380] cont_17_lstm1_cont_slice_16_split -> cont_17_lstm1_cont_slice_16_split_1
I0222 17:35:27.736898 24465 net.cpp:122] Setting up cont_17_lstm1_cont_slice_16_split
I0222 17:35:27.736902 24465 net.cpp:129] Top shape: 1 26 (26)
I0222 17:35:27.736905 24465 net.cpp:129] Top shape: 1 26 (26)
I0222 17:35:27.736908 24465 net.cpp:137] Memory required for data: 14352
I0222 17:35:27.736912 24465 layer_factory.hpp:77] Creating layer cont_18_lstm1_cont_slice_17_split
I0222 17:35:27.736917 24465 net.cpp:84] Creating Layer cont_18_lstm1_cont_slice_17_split
I0222 17:35:27.736919 24465 net.cpp:406] cont_18_lstm1_cont_slice_17_split <- cont_18
I0222 17:35:27.736922 24465 net.cpp:380] cont_18_lstm1_cont_slice_17_split -> cont_18_lstm1_cont_slice_17_split_0
I0222 17:35:27.736927 24465 net.cpp:380] cont_18_lstm1_cont_slice_17_split -> cont_18_lstm1_cont_slice_17_split_1
I0222 17:35:27.736943 24465 net.cpp:122] Setting up cont_18_lstm1_cont_slice_17_split
I0222 17:35:27.736948 24465 net.cpp:129] Top shape: 1 26 (26)
I0222 17:35:27.736951 24465 net.cpp:129] Top shape: 1 26 (26)
I0222 17:35:27.736954 24465 net.cpp:137] Memory required for data: 14560
I0222 17:35:27.736958 24465 layer_factory.hpp:77] Creating layer cont_19_lstm1_cont_slice_18_split
I0222 17:35:27.736960 24465 net.cpp:84] Creating Layer cont_19_lstm1_cont_slice_18_split
I0222 17:35:27.736963 24465 net.cpp:406] cont_19_lstm1_cont_slice_18_split <- cont_19
I0222 17:35:27.736968 24465 net.cpp:380] cont_19_lstm1_cont_slice_18_split -> cont_19_lstm1_cont_slice_18_split_0
I0222 17:35:27.736977 24465 net.cpp:380] cont_19_lstm1_cont_slice_18_split -> cont_19_lstm1_cont_slice_18_split_1
I0222 17:35:27.736994 24465 net.cpp:122] Setting up cont_19_lstm1_cont_slice_18_split
I0222 17:35:27.736999 24465 net.cpp:129] Top shape: 1 26 (26)
I0222 17:35:27.737001 24465 net.cpp:129] Top shape: 1 26 (26)
I0222 17:35:27.737004 24465 net.cpp:137] Memory required for data: 14768
I0222 17:35:27.737007 24465 layer_factory.hpp:77] Creating layer cont_20_lstm1_cont_slice_19_split
I0222 17:35:27.737012 24465 net.cpp:84] Creating Layer cont_20_lstm1_cont_slice_19_split
I0222 17:35:27.737015 24465 net.cpp:406] cont_20_lstm1_cont_slice_19_split <- cont_20
I0222 17:35:27.737020 24465 net.cpp:380] cont_20_lstm1_cont_slice_19_split -> cont_20_lstm1_cont_slice_19_split_0
I0222 17:35:27.737025 24465 net.cpp:380] cont_20_lstm1_cont_slice_19_split -> cont_20_lstm1_cont_slice_19_split_1
I0222 17:35:27.737040 24465 net.cpp:122] Setting up cont_20_lstm1_cont_slice_19_split
I0222 17:35:27.737046 24465 net.cpp:129] Top shape: 1 26 (26)
I0222 17:35:27.737048 24465 net.cpp:129] Top shape: 1 26 (26)
I0222 17:35:27.737051 24465 net.cpp:137] Memory required for data: 14976
I0222 17:35:27.762812 24465 layer_factory.hpp:77] Creating layer cont_21_lstm1_cont_slice_20_split
I0222 17:35:27.762823 24465 net.cpp:84] Creating Layer cont_21_lstm1_cont_slice_20_split
I0222 17:35:27.762828 24465 net.cpp:406] cont_21_lstm1_cont_slice_20_split <- cont_21
I0222 17:35:27.762833 24465 net.cpp:380] cont_21_lstm1_cont_slice_20_split -> cont_21_lstm1_cont_slice_20_split_0
I0222 17:35:27.762840 24465 net.cpp:380] cont_21_lstm1_cont_slice_20_split -> cont_21_lstm1_cont_slice_20_split_1
I0222 17:35:27.762876 24465 net.cpp:122] Setting up cont_21_lstm1_cont_slice_20_split
I0222 17:35:27.762882 24465 net.cpp:129] Top shape: 1 26 (26)
I0222 17:35:27.762886 24465 net.cpp:129] Top shape: 1 26 (26)
I0222 17:35:27.762888 24465 net.cpp:137] Memory required for data: 15184
I0222 17:35:27.762892 24465 layer_factory.hpp:77] Creating layer cont_22_lstm1_cont_slice_21_split
I0222 17:35:27.762895 24465 net.cpp:84] Creating Layer cont_22_lstm1_cont_slice_21_split
I0222 17:35:27.762908 24465 net.cpp:406] cont_22_lstm1_cont_slice_21_split <- cont_22
I0222 17:35:27.762913 24465 net.cpp:380] cont_22_lstm1_cont_slice_21_split -> cont_22_lstm1_cont_slice_21_split_0
I0222 17:35:27.762919 24465 net.cpp:380] cont_22_lstm1_cont_slice_21_split -> cont_22_lstm1_cont_slice_21_split_1
I0222 17:35:27.762938 24465 net.cpp:122] Setting up cont_22_lstm1_cont_slice_21_split
I0222 17:35:27.762943 24465 net.cpp:129] Top shape: 1 26 (26)
I0222 17:35:27.762946 24465 net.cpp:129] Top shape: 1 26 (26)
I0222 17:35:27.762949 24465 net.cpp:137] Memory required for data: 15392
I0222 17:35:27.762953 24465 layer_factory.hpp:77] Creating layer cont_23_lstm1_cont_slice_22_split
I0222 17:35:27.762958 24465 net.cpp:84] Creating Layer cont_23_lstm1_cont_slice_22_split
I0222 17:35:27.762960 24465 net.cpp:406] cont_23_lstm1_cont_slice_22_split <- cont_23
I0222 17:35:27.762964 24465 net.cpp:380] cont_23_lstm1_cont_slice_22_split -> cont_23_lstm1_cont_slice_22_split_0
I0222 17:35:27.762969 24465 net.cpp:380] cont_23_lstm1_cont_slice_22_split -> cont_23_lstm1_cont_slice_22_split_1
I0222 17:35:27.762989 24465 net.cpp:122] Setting up cont_23_lstm1_cont_slice_22_split
I0222 17:35:27.762992 24465 net.cpp:129] Top shape: 1 26 (26)
I0222 17:35:27.762996 24465 net.cpp:129] Top shape: 1 26 (26)
I0222 17:35:27.762998 24465 net.cpp:137] Memory required for data: 15600
I0222 17:35:27.763001 24465 layer_factory.hpp:77] Creating layer cont_24_lstm1_cont_slice_23_split
I0222 17:35:27.763005 24465 net.cpp:84] Creating Layer cont_24_lstm1_cont_slice_23_split
I0222 17:35:27.763008 24465 net.cpp:406] cont_24_lstm1_cont_slice_23_split <- cont_24
I0222 17:35:27.763012 24465 net.cpp:380] cont_24_lstm1_cont_slice_23_split -> cont_24_lstm1_cont_slice_23_split_0
I0222 17:35:27.763017 24465 net.cpp:380] cont_24_lstm1_cont_slice_23_split -> cont_24_lstm1_cont_slice_23_split_1
I0222 17:35:27.763034 24465 net.cpp:122] Setting up cont_24_lstm1_cont_slice_23_split
I0222 17:35:27.763038 24465 net.cpp:129] Top shape: 1 26 (26)
I0222 17:35:27.763041 24465 net.cpp:129] Top shape: 1 26 (26)
I0222 17:35:27.763044 24465 net.cpp:137] Memory required for data: 15808
I0222 17:35:27.763047 24465 layer_factory.hpp:77] Creating layer lstm1_x_transform
I0222 17:35:27.763053 24465 net.cpp:84] Creating Layer lstm1_x_transform
I0222 17:35:27.763057 24465 net.cpp:406] lstm1_x_transform <- x
I0222 17:35:27.763062 24465 net.cpp:380] lstm1_x_transform -> W_xc_x
I0222 17:35:27.763142 24465 net.cpp:122] Setting up lstm1_x_transform
I0222 17:35:27.763149 24465 net.cpp:129] Top shape: 24 26 64 (39936)
I0222 17:35:27.763150 24465 net.cpp:137] Memory required for data: 175552
I0222 17:35:27.763161 24465 layer_factory.hpp:77] Creating layer lstm1_W_xc_x_slice
I0222 17:35:27.763169 24465 net.cpp:84] Creating Layer lstm1_W_xc_x_slice
I0222 17:35:27.763171 24465 net.cpp:406] lstm1_W_xc_x_slice <- W_xc_x
I0222 17:35:27.763177 24465 net.cpp:380] lstm1_W_xc_x_slice -> W_xc_x_1
I0222 17:35:27.763183 24465 net.cpp:380] lstm1_W_xc_x_slice -> W_xc_x_2
…
I0222 17:35:27.763275 24465 net.cpp:380] lstm1_W_xc_x_slice -> W_xc_x_18
I0222 17:35:27.763281 24465 net.cpp:380] lstm1_W_xc_x_slice -> W_xc_x_19
I0222 17:35:27.763286 24465 net.cpp:380] lstm1_W_xc_x_slice -> W_xc_x_20
I0222 17:35:27.763291 24465 net.cpp:380] lstm1_W_xc_x_slice -> W_xc_x_21
I0222 17:35:27.763296 24465 net.cpp:380] lstm1_W_xc_x_slice -> W_xc_x_22
I0222 17:35:27.763303 24465 net.cpp:380] lstm1_W_xc_x_slice -> W_xc_x_23
I0222 17:35:27.763308 24465 net.cpp:380] lstm1_W_xc_x_slice -> W_xc_x_24
I0222 17:35:27.763445 24465 net.cpp:122] Setting up lstm1_W_xc_x_slice
I0222 17:35:27.763451 24465 net.cpp:129] Top shape: 1 26 64 (1664)
I0222 17:35:27.763454 24465 net.cpp:129] Top shape: 1 26 64 (1664)
I0222 17:35:27.763458 24465 net.cpp:129] Top shape: 1 26 64 (1664)
I0222 17:35:27.763461 24465 net.cpp:129] Top shape: 1 26 64 (1664)
I0222 17:35:27.763465 24465 net.cpp:129] Top shape: 1 26 64 (1664)
I0222 17:35:27.763468 24465 net.cpp:129] Top shape: 1 26 64 (1664)
I0222 17:35:27.763471 24465 net.cpp:129] Top shape: 1 26 64 (1664)
I0222 17:35:27.763475 24465 net.cpp:129] Top shape: 1 26 64 (1664)
I0222 17:35:27.763478 24465 net.cpp:129] Top shape: 1 26 64 (1664)
I0222 17:35:27.763481 24465 net.cpp:129] Top shape: 1 26 64 (1664)
I0222 17:35:27.763485 24465 net.cpp:129] Top shape: 1 26 64 (1664)
I0222 17:35:27.763489 24465 net.cpp:129] Top shape: 1 26 64 (1664)
I0222 17:35:27.763491 24465 net.cpp:129] Top shape: 1 26 64 (1664)
I0222 17:35:27.763494 24465 net.cpp:129] Top shape: 1 26 64 (1664)
I0222 17:35:27.763499 24465 net.cpp:129] Top shape: 1 26 64 (1664)
I0222 17:35:27.763501 24465 net.cpp:129] Top shape: 1 26 64 (1664)
I0222 17:35:27.763504 24465 net.cpp:129] Top shape: 1 26 64 (1664)
I0222 17:35:27.763507 24465 net.cpp:129] Top shape: 1 26 64 (1664)
I0222 17:35:27.763511 24465 net.cpp:129] Top shape: 1 26 64 (1664)
I0222 17:35:27.763514 24465 net.cpp:129] Top shape: 1 26 64 (1664)
I0222 17:35:27.763517 24465 net.cpp:129] Top shape: 1 26 64 (1664)
I0222 17:35:27.763521 24465 net.cpp:129] Top shape: 1 26 64 (1664)
I0222 17:35:27.763525 24465 net.cpp:129] Top shape: 1 26 64 (1664)
I0222 17:35:27.763527 24465 net.cpp:129] Top shape: 1 26 64 (1664)
I0222 17:35:27.763530 24465 net.cpp:137] Memory required for data: 335296
I0222 17:35:27.763533 24465 layer_factory.hpp:77] Creating layer lstm1_h_conted_0
I0222 17:35:27.763538 24465 net.cpp:84] Creating Layer lstm1_h_conted_0
I0222 17:35:27.763542 24465 net.cpp:406] lstm1_h_conted_0 <- h_0
I0222 17:35:27.763546 24465 net.cpp:406] lstm1_h_conted_0 <- cont_1_lstm1_cont_slice_0_split_0
I0222 17:35:27.763551 24465 net.cpp:380] lstm1_h_conted_0 -> h_conted_0
I0222 17:35:27.763584 24465 net.cpp:122] Setting up lstm1_h_conted_0
I0222 17:35:27.763590 24465 net.cpp:129] Top shape: 1 26 16 (416)
I0222 17:35:27.763593 24465 net.cpp:137] Memory required for data: 336960
I0222 17:35:27.763597 24465 layer_factory.hpp:77] Creating layer lstm1_transform_1
I0222 17:35:27.763602 24465 net.cpp:84] Creating Layer lstm1_transform_1
I0222 17:35:27.763604 24465 net.cpp:406] lstm1_transform_1 <- h_conted_0
I0222 17:35:27.763609 24465 net.cpp:380] lstm1_transform_1 -> W_hc_h_0
I0222 17:35:27.763644 24465 net.cpp:122] Setting up lstm1_transform_1
I0222 17:35:27.763649 24465 net.cpp:129] Top shape: 1 26 64 (1664)
I0222 17:35:27.763651 24465 net.cpp:137] Memory required for data: 343616
I0222 17:35:27.766072 24465 layer_factory.hpp:77] Creating layer lstm1_gate_input_1
I0222 17:35:27.766086 24465 net.cpp:84] Creating Layer lstm1_gate_input_1
I0222 17:35:27.766090 24465 net.cpp:406] lstm1_gate_input_1 <- W_hc_h_0
I0222 17:35:27.766094 24465 net.cpp:406] lstm1_gate_input_1 <- W_xc_x_1
I0222 17:35:27.766099 24465 net.cpp:380] lstm1_gate_input_1 -> gate_input_1
I0222 17:35:27.766125 24465 net.cpp:122] Setting up lstm1_gate_input_1
I0222 17:35:27.766131 24465 net.cpp:129] Top shape: 1 26 64 (1664)
I0222 17:35:27.766134 24465 net.cpp:137] Memory required for data: 350272
I0222 17:35:27.766136 24465 layer_factory.hpp:77] Creating layer lstm1_unit_1
I0222 17:35:27.766146 24465 net.cpp:84] Creating Layer lstm1_unit_1
I0222 17:35:27.766156 24465 net.cpp:406] lstm1_unit_1 <- c_0
I0222 17:35:27.766161 24465 net.cpp:406] lstm1_unit_1 <- gate_input_1
I0222 17:35:27.766165 24465 net.cpp:406] lstm1_unit_1 <- cont_1_lstm1_cont_slice_0_split_1
I0222 17:35:27.766168 24465 net.cpp:380] lstm1_unit_1 -> c_1
I0222 17:35:27.766173 24465 net.cpp:380] lstm1_unit_1 -> h_1
I0222 17:35:27.766202 24465 net.cpp:122] Setting up lstm1_unit_1
I0222 17:35:27.766206 24465 net.cpp:129] Top shape: 1 26 16 (416)
I0222 17:35:27.766211 24465 net.cpp:129] Top shape: 1 26 16 (416)
I0222 17:35:27.766213 24465 net.cpp:137] Memory required for data: 353600
I0222 17:35:27.766216 24465 layer_factory.hpp:77] Creating layer h_1_lstm1_unit_1_1_split
I0222 17:35:27.766221 24465 net.cpp:84] Creating Layer h_1_lstm1_unit_1_1_split
I0222 17:35:27.766223 24465 net.cpp:406] h_1_lstm1_unit_1_1_split <- h_1
I0222 17:35:27.766227 24465 net.cpp:380] h_1_lstm1_unit_1_1_split -> h_1_lstm1_unit_1_1_split_0
I0222 17:35:27.766232 24465 net.cpp:380] h_1_lstm1_unit_1_1_split -> h_1_lstm1_unit_1_1_split_1
I0222 17:35:27.766249 24465 net.cpp:122] Setting up h_1_lstm1_unit_1_1_split
I0222 17:35:27.766254 24465 net.cpp:129] Top shape: 1 26 16 (416)
I0222 17:35:27.766259 24465 net.cpp:129] Top shape: 1 26 16 (416)
I0222 17:35:27.766261 24465 net.cpp:137] Memory required for data: 356928
I0222 17:35:27.766265 24465 layer_factory.hpp:77] Creating layer lstm1_h_conted_1
I0222 17:35:27.766269 24465 net.cpp:84] Creating Layer lstm1_h_conted_1
I0222 17:35:27.766273 24465 net.cpp:406] lstm1_h_conted_1 <- h_1_lstm1_unit_1_1_split_0
I0222 17:35:27.766276 24465 net.cpp:406] lstm1_h_conted_1 <- cont_2_lstm1_cont_slice_1_split_0
I0222 17:35:27.766280 24465 net.cpp:380] lstm1_h_conted_1 -> h_conted_1
I0222 17:35:27.766312 24465 net.cpp:122] Setting up lstm1_h_conted_1
I0222 17:35:27.766317 24465 net.cpp:129] Top shape: 1 26 16 (416)
I0222 17:35:27.766320 24465 net.cpp:137] Memory required for data: 358592
I0222 17:35:27.766322 24465 layer_factory.hpp:77] Creating layer lstm1_transform_2
I0222 17:35:27.766327 24465 net.cpp:84] Creating Layer lstm1_transform_2
I0222 17:35:27.766330 24465 net.cpp:406] lstm1_transform_2 <- h_conted_1
I0222 17:35:27.766335 24465 net.cpp:380] lstm1_transform_2 -> W_hc_h_1
I0222 17:35:27.766369 24465 net.cpp:122] Setting up lstm1_transform_2
I0222 17:35:27.766374 24465 net.cpp:129] Top shape: 1 26 64 (1664)
I0222 17:35:27.766377 24465 net.cpp:137] Memory required for data: 365248
I0222 17:35:27.766381 24465 net.cpp:465] Sharing parameters 'W_hc' owned by layer 'lstm1_transform_1', param index 0
I0222 17:35:27.766384 24465 layer_factory.hpp:77] Creating layer lstm1_gate_input_2
I0222 17:35:27.766388 24465 net.cpp:84] Creating Layer lstm1_gate_input_2
I0222 17:35:27.766392 24465 net.cpp:406] lstm1_gate_input_2 <- W_hc_h_1
I0222 17:35:27.766396 24465 net.cpp:406] lstm1_gate_input_2 <- W_xc_x_2
I0222 17:35:27.766400 24465 net.cpp:380] lstm1_gate_input_2 -> gate_input_2
I0222 17:35:27.766412 24465 net.cpp:122] Setting up lstm1_gate_input_2
I0222 17:35:27.766417 24465 net.cpp:129] Top shape: 1 26 64 (1664)
I0222 17:35:27.766419 24465 net.cpp:137] Memory required for data: 371904
I0222 17:35:27.766422 24465 layer_factory.hpp:77] Creating layer lstm1_unit_2
I0222 17:35:27.766427 24465 net.cpp:84] Creating Layer lstm1_unit_2
I0222 17:35:27.766430 24465 net.cpp:406] lstm1_unit_2 <- c_1
I0222 17:35:27.766434 24465 net.cpp:406] lstm1_unit_2 <- gate_input_2
I0222 17:35:27.766438 24465 net.cpp:406] lstm1_unit_2 <- cont_2_lstm1_cont_slice_1_split_1
I0222 17:35:27.766443 24465 net.cpp:380] lstm1_unit_2 -> c_2
I0222 17:35:27.766448 24465 net.cpp:380] lstm1_unit_2 -> h_2
I0222 17:35:27.766470 24465 net.cpp:122] Setting up lstm1_unit_2
I0222 17:35:27.766474 24465 net.cpp:129] Top shape: 1 26 16 (416)
I0222 17:35:27.766479 24465 net.cpp:129] Top shape: 1 26 16 (416)
I0222 17:35:27.766480 24465 net.cpp:137] Memory required for data: 375232
I0222 17:35:27.766484 24465 layer_factory.hpp:77] Creating layer h_2_lstm1_unit_2_1_split
I0222 17:35:27.766489 24465 net.cpp:84] Creating Layer h_2_lstm1_unit_2_1_split
I0222 17:35:27.766496 24465 net.cpp:406] h_2_lstm1_unit_2_1_split <- h_2
I0222 17:35:27.766501 24465 net.cpp:380] h_2_lstm1_unit_2_1_split -> h_2_lstm1_unit_2_1_split_0
I0222 17:35:27.766505 24465 net.cpp:380] h_2_lstm1_unit_2_1_split -> h_2_lstm1_unit_2_1_split_1
I0222 17:35:27.766523 24465 net.cpp:122] Setting up h_2_lstm1_unit_2_1_split
I0222 17:35:27.766528 24465 net.cpp:129] Top shape: 1 26 16 (416)
I0222 17:35:27.766531 24465 net.cpp:129] Top shape: 1 26 16 (416)
I0222 17:35:27.766535 24465 net.cpp:137] Memory required for data: 378560
I0222 17:35:27.766537 24465 layer_factory.hpp:77] Creating layer lstm1_h_conted_2
I0222 17:35:27.766542 24465 net.cpp:84] Creating Layer lstm1_h_conted_2
I0222 17:35:27.766546 24465 net.cpp:406] lstm1_h_conted_2 <- h_2_lstm1_unit_2_1_split_0
I0222 17:35:27.766549 24465 net.cpp:406] lstm1_h_conted_2 <- cont_3_lstm1_cont_slice_2_split_0
I0222 17:35:27.766553 24465 net.cpp:380] lstm1_h_conted_2 -> h_conted_2
I0222 17:35:27.766582 24465 net.cpp:122] Setting up lstm1_h_conted_2
I0222 17:35:27.766587 24465 net.cpp:129] Top shape: 1 26 16 (416)
I0222 17:35:27.766590 24465 net.cpp:137] Memory required for data: 380224
I0222 17:35:27.766593 24465 layer_factory.hpp:77] Creating layer lstm1_transform_3
I0222 17:35:27.766598 24465 net.cpp:84] Creating Layer lstm1_transform_3
I0222 17:35:27.766602 24465 net.cpp:406] lstm1_transform_3 <- h_conted_2
I0222 17:35:27.766605 24465 net.cpp:380] lstm1_transform_3 -> W_hc_h_2
I0222 17:35:27.766635 24465 net.cpp:122] Setting up lstm1_transform_3
I0222 17:35:27.766640 24465 net.cpp:129] Top shape: 1 26 64 (1664)
I0222 17:35:27.766644 24465 net.cpp:137] Memory required for data: 386880
I0222 17:35:27.766649 24465 net.cpp:465] Sharing parameters 'W_hc' owned by layer 'lstm1_transform_1', param index 0
I0222 17:35:27.766652 24465 layer_factory.hpp:77] Creating layer lstm1_gate_input_3
I0222 17:35:27.766656 24465 net.cpp:84] Creating Layer lstm1_gate_input_3
I0222 17:35:27.766659 24465 net.cpp:406] lstm1_gate_input_3 <- W_hc_h_2
I0222 17:35:27.766664 24465 net.cpp:406] lstm1_gate_input_3 <- W_xc_x_3
I0222 17:35:27.766667 24465 net.cpp:380] lstm1_gate_input_3 -> gate_input_3
I0222 17:35:27.766680 24465 net.cpp:122] Setting up lstm1_gate_input_3
I0222 17:35:27.766685 24465 net.cpp:129] Top shape: 1 26 64 (1664)
I0222 17:35:27.766687 24465 net.cpp:137] Memory required for data: 393536
I0222 17:35:27.766690 24465 layer_factory.hpp:77] Creating layer lstm1_unit_3
I0222 17:35:27.766695 24465 net.cpp:84] Creating Layer lstm1_unit_3
I0222 17:35:27.766698 24465 net.cpp:406] lstm1_unit_3 <- c_2
I0222 17:35:27.766702 24465 net.cpp:406] lstm1_unit_3 <- gate_input_3
I0222 17:35:27.766706 24465 net.cpp:406] lstm1_unit_3 <- cont_3_lstm1_cont_slice_2_split_1
I0222 17:35:27.766710 24465 net.cpp:380] lstm1_unit_3 -> c_3
I0222 17:35:27.766715 24465 net.cpp:380] lstm1_unit_3 -> h_3
I0222 17:35:27.766736 24465 net.cpp:122] Setting up lstm1_unit_3
I0222 17:35:27.766741 24465 net.cpp:129] Top shape: 1 26 16 (416)
I0222 17:35:27.766746 24465 net.cpp:129] Top shape: 1 26 16 (416)
I0222 17:35:27.793272 24465 net.cpp:137] Memory required for data: 396864
I0222 17:35:27.793284 24465 layer_factory.hpp:77] Creating layer h_3_lstm1_unit_3_1_split
I0222 17:35:27.793292 24465 net.cpp:84] Creating Layer h_3_lstm1_unit_3_1_split
I0222 17:35:27.793296 24465 net.cpp:406] h_3_lstm1_unit_3_1_split <- h_3
I0222 17:35:27.793306 24465 net.cpp:380] h_3_lstm1_unit_3_1_split -> h_3_lstm1_unit_3_1_split_0
I0222 17:35:27.793314 24465 net.cpp:380] h_3_lstm1_unit_3_1_split -> h_3_lstm1_unit_3_1_split_1
I0222 17:35:27.793370 24465 net.cpp:122] Setting up h_3_lstm1_unit_3_1_split
I0222 17:35:27.793377 24465 net.cpp:129] Top shape: 1 26 16 (416)
I0222 17:35:27.793381 24465 net.cpp:129] Top shape: 1 26 16 (416)
I0222 17:35:27.793385 24465 net.cpp:137] Memory required for data: 400192
I0222 17:35:27.793387 24465 layer_factory.hpp:77] Creating layer lstm1_h_conted_3
I0222 17:35:27.793393 24465 net.cpp:84] Creating Layer lstm1_h_conted_3
I0222 17:35:27.793397 24465 net.cpp:406] lstm1_h_conted_3 <- h_3_lstm1_unit_3_1_split_0
I0222 17:35:27.793416 24465 net.cpp:406] lstm1_h_conted_3 <- cont_4_lstm1_cont_slice_3_split_0
I0222 17:35:27.793422 24465 net.cpp:380] lstm1_h_conted_3 -> h_conted_3
I0222 17:35:27.793463 24465 net.cpp:122] Setting up lstm1_h_conted_3
I0222 17:35:27.793468 24465 net.cpp:129] Top shape: 1 26 16 (416)
I0222 17:35:27.793470 24465 net.cpp:137] Memory required for data: 401856
I0222 17:35:27.793473 24465 layer_factory.hpp:77] Creating layer lstm1_transform_4
I0222 17:35:27.793479 24465 net.cpp:84] Creating Layer lstm1_transform_4
I0222 17:35:27.793483 24465 net.cpp:406] lstm1_transform_4 <- h_conted_3
I0222 17:35:27.793488 24465 net.cpp:380] lstm1_transform_4 -> W_hc_h_3
I0222 17:35:27.793526 24465 net.cpp:122] Setting up lstm1_transform_4
I0222 17:35:27.793531 24465 net.cpp:129] Top shape: 1 26 64 (1664)
I0222 17:35:27.793534 24465 net.cpp:137] Memory required for data: 408512
I0222 17:35:27.793537 24465 net.cpp:465] Sharing parameters 'W_hc' owned by layer 'lstm1_transform_1', param index 0
I0222 17:35:27.793541 24465 layer_factory.hpp:77] Creating layer lstm1_gate_input_4
I0222 17:35:27.793547 24465 net.cpp:84] Creating Layer lstm1_gate_input_4
I0222 17:35:27.793550 24465 net.cpp:406] lstm1_gate_input_4 <- W_hc_h_3
I0222 17:35:27.793555 24465 net.cpp:406] lstm1_gate_input_4 <- W_xc_x_4
I0222 17:35:27.793560 24465 net.cpp:380] lstm1_gate_input_4 -> gate_input_4
I0222 17:35:27.793573 24465 net.cpp:122] Setting up lstm1_gate_input_4
I0222 17:35:27.793577 24465 net.cpp:129] Top shape: 1 26 64 (1664)
I0222 17:35:27.793581 24465 net.cpp:137] Memory required for data: 415168
I0222 17:35:27.793583 24465 layer_factory.hpp:77] Creating layer lstm1_unit_4
I0222 17:35:27.793588 24465 net.cpp:84] Creating Layer lstm1_unit_4
I0222 17:35:27.793591 24465 net.cpp:406] lstm1_unit_4 <- c_3
I0222 17:35:27.793596 24465 net.cpp:406] lstm1_unit_4 <- gate_input_4
I0222 17:35:27.793599 24465 net.cpp:406] lstm1_unit_4 <- cont_4_lstm1_cont_slice_3_split_1
I0222 17:35:27.793604 24465 net.cpp:380] lstm1_unit_4 -> c_4
I0222 17:35:27.793609 24465 net.cpp:380] lstm1_unit_4 -> h_4
I0222 17:35:27.793633 24465 net.cpp:122] Setting up lstm1_unit_4
I0222 17:35:27.793637 24465 net.cpp:129] Top shape: 1 26 16 (416)
I0222 17:35:27.793642 24465 net.cpp:129] Top shape: 1 26 16 (416)
I0222 17:35:27.793644 24465 net.cpp:137] Memory required for data: 418496
I0222 17:35:27.793648 24465 layer_factory.hpp:77] Creating layer h_4_lstm1_unit_4_1_split
I0222 17:35:27.793651 24465 net.cpp:84] Creating Layer h_4_lstm1_unit_4_1_split
I0222 17:35:27.793654 24465 net.cpp:406] h_4_lstm1_unit_4_1_split <- h_4
I0222 17:35:27.793658 24465 net.cpp:380] h_4_lstm1_unit_4_1_split -> h_4_lstm1_unit_4_1_split_0
I0222 17:35:27.793663 24465 net.cpp:380] h_4_lstm1_unit_4_1_split -> h_4_lstm1_unit_4_1_split_1
I0222 17:35:27.793690 24465 net.cpp:122] Setting up h_4_lstm1_unit_4_1_split
I0222 17:35:27.793695 24465 net.cpp:129] Top shape: 1 26 16 (416)
I0222 17:35:27.793699 24465 net.cpp:129] Top shape: 1 26 16 (416)
I0222 17:35:27.793702 24465 net.cpp:137] Memory required for data: 421824
I0222 17:35:27.793705 24465 layer_factory.hpp:77] Creating layer lstm1_h_conted_4
I0222 17:35:27.793709 24465 net.cpp:84] Creating Layer lstm1_h_conted_4
I0222 17:35:27.793712 24465 net.cpp:406] lstm1_h_conted_4 <- h_4_lstm1_unit_4_1_split_0
I0222 17:35:27.793717 24465 net.cpp:406] lstm1_h_conted_4 <- cont_5_lstm1_cont_slice_4_split_0
I0222 17:35:27.793726 24465 net.cpp:380] lstm1_h_conted_4 -> h_conted_4
I0222 17:35:27.793756 24465 net.cpp:122] Setting up lstm1_h_conted_4
I0222 17:35:27.793761 24465 net.cpp:129] Top shape: 1 26 16 (416)
I0222 17:35:27.793763 24465 net.cpp:137] Memory required for data: 423488
I0222 17:35:27.793766 24465 layer_factory.hpp:77] Creating layer lstm1_transform_5
I0222 17:35:27.793771 24465 net.cpp:84] Creating Layer lstm1_transform_5
I0222 17:35:27.793776 24465 net.cpp:406] lstm1_transform_5 <- h_conted_4
I0222 17:35:27.793779 24465 net.cpp:380] lstm1_transform_5 -> W_hc_h_4
I0222 17:35:27.793809 24465 net.cpp:122] Setting up lstm1_transform_5
I0222 17:35:27.793819 24465 net.cpp:129] Top shape: 1 26 64 (1664)
I0222 17:35:27.793823 24465 net.cpp:137] Memory required for data: 430144
I0222 17:35:27.793826 24465 net.cpp:465] Sharing parameters 'W_hc' owned by layer 'lstm1_transform_1', param index 0
I0222 17:35:27.793829 24465 layer_factory.hpp:77] Creating layer lstm1_gate_input_5
I0222 17:35:27.793834 24465 net.cpp:84] Creating Layer lstm1_gate_input_5
I0222 17:35:27.793838 24465 net.cpp:406] lstm1_gate_input_5 <- W_hc_h_4
I0222 17:35:27.793841 24465 net.cpp:406] lstm1_gate_input_5 <- W_xc_x_5
I0222 17:35:27.793845 24465 net.cpp:380] lstm1_gate_input_5 -> gate_input_5
I0222 17:35:27.793859 24465 net.cpp:122] Setting up lstm1_gate_input_5
I0222 17:35:27.793864 24465 net.cpp:129] Top shape: 1 26 64 (1664)
I0222 17:35:27.793866 24465 net.cpp:137] Memory required for data: 436800
I0222 17:35:27.793869 24465 layer_factory.hpp:77] Creating layer lstm1_unit_5
I0222 17:35:27.793874 24465 net.cpp:84] Creating Layer lstm1_unit_5
I0222 17:35:27.793876 24465 net.cpp:406] lstm1_unit_5 <- c_4
I0222 17:35:27.793880 24465 net.cpp:406] lstm1_unit_5 <- gate_input_5
I0222 17:35:27.793884 24465 net.cpp:406] lstm1_unit_5 <- cont_5_lstm1_cont_slice_4_split_1
I0222 17:35:27.793889 24465 net.cpp:380] lstm1_unit_5 -> c_5
I0222 17:35:27.793892 24465 net.cpp:380] lstm1_unit_5 -> h_5
I0222 17:35:27.793916 24465 net.cpp:122] Setting up lstm1_unit_5
I0222 17:35:27.793921 24465 net.cpp:129] Top shape: 1 26 16 (416)
I0222 17:35:27.793925 24465 net.cpp:129] Top shape: 1 26 16 (416)
I0222 17:35:27.793927 24465 net.cpp:137] Memory required for data: 440128
I0222 17:35:27.793931 24465 layer_factory.hpp:77] Creating layer h_5_lstm1_unit_5_1_split
I0222 17:35:27.793937 24465 net.cpp:84] Creating Layer h_5_lstm1_unit_5_1_split
I0222 17:35:27.793941 24465 net.cpp:406] h_5_lstm1_unit_5_1_split <- h_5
I0222 17:35:27.793946 24465 net.cpp:380] h_5_lstm1_unit_5_1_split -> h_5_lstm1_unit_5_1_split_0
I0222 17:35:27.793949 24465 net.cpp:380] h_5_lstm1_unit_5_1_split -> h_5_lstm1_unit_5_1_split_1
I0222 17:35:27.793967 24465 net.cpp:122] Setting up h_5_lstm1_unit_5_1_split
I0222 17:35:27.793972 24465 net.cpp:129] Top shape: 1 26 16 (416)
I0222 17:35:27.793975 24465 net.cpp:129] Top shape: 1 26 16 (416)
I0222 17:35:27.793978 24465 net.cpp:137] Memory required for data: 443456
I0222 17:35:27.793982 24465 layer_factory.hpp:77] Creating layer lstm1_h_conted_5
I0222 17:35:27.793985 24465 net.cpp:84] Creating Layer lstm1_h_conted_5
I0222 17:35:27.793988 24465 net.cpp:406] lstm1_h_conted_5 <- h_5_lstm1_unit_5_1_split_0
I0222 17:35:27.793992 24465 net.cpp:406] lstm1_h_conted_5 <- cont_6_lstm1_cont_slice_5_split_0
I0222 17:35:27.793997 24465 net.cpp:380] lstm1_h_conted_5 -> h_conted_5
I0222 17:35:27.794026 24465 net.cpp:122] Setting up lstm1_h_conted_5
I0222 17:35:27.794030 24465 net.cpp:129] Top shape: 1 26 16 (416)
I0222 17:35:27.794034 24465 net.cpp:137] Memory required for data: 445120
I0222 17:35:27.797617 24465 layer_factory.hpp:77] Creating layer lstm1_transform_6
I0222 17:35:27.797628 24465 net.cpp:84] Creating Layer lstm1_transform_6
I0222 17:35:27.797632 24465 net.cpp:406] lstm1_transform_6 <- h_conted_5
I0222 17:35:27.797639 24465 net.cpp:380] lstm1_transform_6 -> W_hc_h_5
I0222 17:35:27.797683 24465 net.cpp:122] Setting up lstm1_transform_6
I0222 17:35:27.797688 24465 net.cpp:129] Top shape: 1 26 64 (1664)
I0222 17:35:27.797691 24465 net.cpp:137] Memory required for data: 451776
I0222 17:35:27.797694 24465 net.cpp:465] Sharing parameters 'W_hc' owned by layer 'lstm1_transform_1', param index 0
I0222 17:35:27.797698 24465 layer_factory.hpp:77] Creating layer lstm1_gate_input_6
I0222 17:35:27.797703 24465 net.cpp:84] Creating Layer lstm1_gate_input_6
I0222 17:35:27.797706 24465 net.cpp:406] lstm1_gate_input_6 <- W_hc_h_5
I0222 17:35:27.797710 24465 net.cpp:406] lstm1_gate_input_6 <- W_xc_x_6
I0222 17:35:27.797714 24465 net.cpp:380] lstm1_gate_input_6 -> gate_input_6
I0222 17:35:27.797729 24465 net.cpp:122] Setting up lstm1_gate_input_6
I0222 17:35:27.797732 24465 net.cpp:129] Top shape: 1 26 64 (1664)
I0222 17:35:27.797744 24465 net.cpp:137] Memory required for data: 458432
I0222 17:35:27.797746 24465 layer_factory.hpp:77] Creating layer lstm1_unit_6
I0222 17:35:27.797751 24465 net.cpp:84] Creating Layer lstm1_unit_6
I0222 17:35:27.797755 24465 net.cpp:406] lstm1_unit_6 <- c_5
I0222 17:35:27.797760 24465 net.cpp:406] lstm1_unit_6 <- gate_input_6
I0222 17:35:27.797763 24465 net.cpp:406] lstm1_unit_6 <- cont_6_lstm1_cont_slice_5_split_1
I0222 17:35:27.797767 24465 net.cpp:380] lstm1_unit_6 -> c_6
I0222 17:35:27.797772 24465 net.cpp:380] lstm1_unit_6 -> h_6
I0222 17:35:27.797798 24465 net.cpp:122] Setting up lstm1_unit_6
I0222 17:35:27.797802 24465 net.cpp:129] Top shape: 1 26 16 (416)
I0222 17:35:27.797806 24465 net.cpp:129] Top shape: 1 26 16 (416)
I0222 17:35:27.797809 24465 net.cpp:137] Memory required for data: 461760
I0222 17:35:27.797812 24465 layer_factory.hpp:77] Creating layer h_6_lstm1_unit_6_1_split
I0222 17:35:27.797816 24465 net.cpp:84] Creating Layer h_6_lstm1_unit_6_1_split
I0222 17:35:27.797819 24465 net.cpp:406] h_6_lstm1_unit_6_1_split <- h_6
I0222 17:35:27.797824 24465 net.cpp:380] h_6_lstm1_unit_6_1_split -> h_6_lstm1_unit_6_1_split_0
I0222 17:35:27.797829 24465 net.cpp:380] h_6_lstm1_unit_6_1_split -> h_6_lstm1_unit_6_1_split_1
I0222 17:35:27.797847 24465 net.cpp:122] Setting up h_6_lstm1_unit_6_1_split
I0222 17:35:27.797852 24465 net.cpp:129] Top shape: 1 26 16 (416)
I0222 17:35:27.797855 24465 net.cpp:129] Top shape: 1 26 16 (416)
I0222 17:35:27.797858 24465 net.cpp:137] Memory required for data: 465088
I0222 17:35:27.797861 24465 layer_factory.hpp:77] Creating layer lstm1_h_conted_6
I0222 17:35:27.797865 24465 net.cpp:84] Creating Layer lstm1_h_conted_6
I0222 17:35:27.797868 24465 net.cpp:406] lstm1_h_conted_6 <- h_6_lstm1_unit_6_1_split_0
I0222 17:35:27.797873 24465 net.cpp:406] lstm1_h_conted_6 <- cont_7_lstm1_cont_slice_6_split_0
I0222 17:35:27.797878 24465 net.cpp:380] lstm1_h_conted_6 -> h_conted_6
I0222 17:35:27.797909 24465 net.cpp:122] Setting up lstm1_h_conted_6
I0222 17:35:27.797914 24465 net.cpp:129] Top shape: 1 26 16 (416)
I0222 17:35:27.797916 24465 net.cpp:137] Memory required for data: 466752
I0222 17:35:27.797919 24465 layer_factory.hpp:77] Creating layer lstm1_transform_7
I0222 17:35:27.797924 24465 net.cpp:84] Creating Layer lstm1_transform_7
I0222 17:35:27.797929 24465 net.cpp:406] lstm1_transform_7 <- h_conted_6
I0222 17:35:27.797932 24465 net.cpp:380] lstm1_transform_7 -> W_hc_h_6
I0222 17:35:27.797962 24465 net.cpp:122] Setting up lstm1_transform_7
I0222 17:35:27.797967 24465 net.cpp:129] Top shape: 1 26 64 (1664)
I0222 17:35:27.797971 24465 net.cpp:137] Memory required for data: 473408
I0222 17:35:27.797977 24465 net.cpp:465] Sharing parameters 'W_hc' owned by layer 'lstm1_transform_1', param index 0
I0222 17:35:27.797981 24465 layer_factory.hpp:77] Creating layer lstm1_gate_input_7
I0222 17:35:27.797984 24465 net.cpp:84] Creating Layer lstm1_gate_input_7
I0222 17:35:27.797988 24465 net.cpp:406] lstm1_gate_input_7 <- W_hc_h_6
I0222 17:35:27.797992 24465 net.cpp:406] lstm1_gate_input_7 <- W_xc_x_7
I0222 17:35:27.797996 24465 net.cpp:380] lstm1_gate_input_7 -> gate_input_7
I0222 17:35:27.798009 24465 net.cpp:122] Setting up lstm1_gate_input_7
I0222 17:35:27.798013 24465 net.cpp:129] Top shape: 1 26 64 (1664)
I0222 17:35:27.798017 24465 net.cpp:137] Memory required for data: 480064
I0222 17:35:27.798019 24465 layer_factory.hpp:77] Creating layer lstm1_unit_7
I0222 17:35:27.798024 24465 net.cpp:84] Creating Layer lstm1_unit_7
I0222 17:35:27.798028 24465 net.cpp:406] lstm1_unit_7 <- c_6
I0222 17:35:27.798032 24465 net.cpp:406] lstm1_unit_7 <- gate_input_7
I0222 17:35:27.798035 24465 net.cpp:406] lstm1_unit_7 <- cont_7_lstm1_cont_slice_6_split_1
I0222 17:35:27.798039 24465 net.cpp:380] lstm1_unit_7 -> c_7
I0222 17:35:27.798043 24465 net.cpp:380] lstm1_unit_7 -> h_7
I0222 17:35:27.798068 24465 net.cpp:122] Setting up lstm1_unit_7
I0222 17:35:27.798071 24465 net.cpp:129] Top shape: 1 26 16 (416)
I0222 17:35:27.798075 24465 net.cpp:129] Top shape: 1 26 16 (416)
I0222 17:35:27.798079 24465 net.cpp:137] Memory required for data: 483392
I0222 17:35:27.798085 24465 layer_factory.hpp:77] Creating layer h_7_lstm1_unit_7_1_split
I0222 17:35:27.798089 24465 net.cpp:84] Creating Layer h_7_lstm1_unit_7_1_split
I0222 17:35:27.798094 24465 net.cpp:406] h_7_lstm1_unit_7_1_split <- h_7
I0222 17:35:27.798099 24465 net.cpp:380] h_7_lstm1_unit_7_1_split -> h_7_lstm1_unit_7_1_split_0
I0222 17:35:27.798102 24465 net.cpp:380] h_7_lstm1_unit_7_1_split -> h_7_lstm1_unit_7_1_split_1
I0222 17:35:27.798120 24465 net.cpp:122] Setting up h_7_lstm1_unit_7_1_split
I0222 17:35:27.798125 24465 net.cpp:129] Top shape: 1 26 16 (416)
I0222 17:35:27.798127 24465 net.cpp:129] Top shape: 1 26 16 (416)
I0222 17:35:27.798130 24465 net.cpp:137] Memory required for data: 486720
I0222 17:35:27.798133 24465 layer_factory.hpp:77] Creating layer lstm1_h_conted_7
I0222 17:35:27.798143 24465 net.cpp:84] Creating Layer lstm1_h_conted_7
I0222 17:35:27.798147 24465 net.cpp:406] lstm1_h_conted_7 <- h_7_lstm1_unit_7_1_split_0
I0222 17:35:27.798151 24465 net.cpp:406] lstm1_h_conted_7 <- cont_8_lstm1_cont_slice_7_split_0
I0222 17:35:27.798156 24465 net.cpp:380] lstm1_h_conted_7 -> h_conted_7
I0222 17:35:27.798185 24465 net.cpp:122] Setting up lstm1_h_conted_7
I0222 17:35:27.798190 24465 net.cpp:129] Top shape: 1 26 16 (416)
I0222 17:35:27.798193 24465 net.cpp:137] Memory required for data: 488384
I0222 17:35:27.798197 24465 layer_factory.hpp:77] Creating layer lstm1_transform_8
I0222 17:35:27.798202 24465 net.cpp:84] Creating Layer lstm1_transform_8
I0222 17:35:27.798204 24465 net.cpp:406] lstm1_transform_8 <- h_conted_7
I0222 17:35:27.798209 24465 net.cpp:380] lstm1_transform_8 -> W_hc_h_7
I0222 17:35:27.798240 24465 net.cpp:122] Setting up lstm1_transform_8
I0222 17:35:27.798245 24465 net.cpp:129] Top shape: 1 26 64 (1664)
I0222 17:35:27.798249 24465 net.cpp:137] Memory required for data: 495040
I0222 17:35:27.798251 24465 net.cpp:465] Sharing parameters 'W_hc' owned by layer 'lstm1_transform_1', param index 0
I0222 17:35:27.798255 24465 layer_factory.hpp:77] Creating layer lstm1_gate_input_8
I0222 17:35:27.798259 24465 net.cpp:84] Creating Layer lstm1_gate_input_8
I0222 17:35:27.798264 24465 net.cpp:406] lstm1_gate_input_8 <- W_hc_h_7
I0222 17:35:27.798266 24465 net.cpp:406] lstm1_gate_input_8 <- W_xc_x_8
I0222 17:35:27.798271 24465 net.cpp:380] lstm1_gate_input_8 -> gate_input_8
I0222 17:35:27.798283 24465 net.cpp:122] Setting up lstm1_gate_input_8
I0222 17:35:27.798288 24465 net.cpp:129] Top shape: 1 26 64 (1664)
I0222 17:35:27.798290 24465 net.cpp:137] Memory required for data: 501696
I0222 17:35:27.798293 24465 layer_factory.hpp:77] Creating layer lstm1_unit_8
I0222 17:35:27.798298 24465 net.cpp:84] Creating Layer lstm1_unit_8
I0222 17:35:27.798302 24465 net.cpp:406] lstm1_unit_8 <- c_7
I0222 17:35:27.823778 24465 net.cpp:406] lstm1_unit_8 <- gate_input_8
I0222 17:35:27.823788 24465 net.cpp:406] lstm1_unit_8 <- cont_8_lstm1_cont_slice_7_split_1
I0222 17:35:27.823796 24465 net.cpp:380] lstm1_unit_8 -> c_8
I0222 17:35:27.823802 24465 net.cpp:380] lstm1_unit_8 -> h_8
I0222 17:35:27.823844 24465 net.cpp:122] Setting up lstm1_unit_8
I0222 17:35:27.823850 24465 net.cpp:129] Top shape: 1 26 16 (416)
I0222 17:35:27.823854 24465 net.cpp:129] Top shape: 1 26 16 (416)
I0222 17:35:27.823858 24465 net.cpp:137] Memory required for data: 505024
I0222 17:35:27.823860 24465 layer_factory.hpp:77] Creating layer h_8_lstm1_unit_8_1_split
I0222 17:35:27.823865 24465 net.cpp:84] Creating Layer h_8_lstm1_unit_8_1_split
I0222 17:35:27.823868 24465 net.cpp:406] h_8_lstm1_unit_8_1_split <- h_8
I0222 17:35:27.823873 24465 net.cpp:380] h_8_lstm1_unit_8_1_split -> h_8_lstm1_unit_8_1_split_0
I0222 17:35:27.823879 24465 net.cpp:380] h_8_lstm1_unit_8_1_split -> h_8_lstm1_unit_8_1_split_1
I0222 17:35:27.823897 24465 net.cpp:122] Setting up h_8_lstm1_unit_8_1_split
I0222 17:35:27.823902 24465 net.cpp:129] Top shape: 1 26 16 (416)
I0222 17:35:27.823905 24465 net.cpp:129] Top shape: 1 26 16 (416)
I0222 17:35:27.823909 24465 net.cpp:137] Memory required for data: 508352
I0222 17:35:27.823920 24465 layer_factory.hpp:77] Creating layer lstm1_h_conted_8
I0222 17:35:27.823925 24465 net.cpp:84] Creating Layer lstm1_h_conted_8
I0222 17:35:27.823927 24465 net.cpp:406] lstm1_h_conted_8 <- h_8_lstm1_unit_8_1_split_0
I0222 17:35:27.823931 24465 net.cpp:406] lstm1_h_conted_8 <- cont_9_lstm1_cont_slice_8_split_0
I0222 17:35:27.823937 24465 net.cpp:380] lstm1_h_conted_8 -> h_conted_8
I0222 17:35:27.823976 24465 net.cpp:122] Setting up lstm1_h_conted_8
I0222 17:35:27.823982 24465 net.cpp:129] Top shape: 1 26 16 (416)
I0222 17:35:27.823984 24465 net.cpp:137] Memory required for data: 510016
I0222 17:35:27.823987 24465 layer_factory.hpp:77] Creating layer lstm1_transform_9
I0222 17:35:27.823992 24465 net.cpp:84] Creating Layer lstm1_transform_9
I0222 17:35:27.823995 24465 net.cpp:406] lstm1_transform_9 <- h_conted_8
I0222 17:35:27.824000 24465 net.cpp:380] lstm1_transform_9 -> W_hc_h_8
I0222 17:35:27.824034 24465 net.cpp:122] Setting up lstm1_transform_9
I0222 17:35:27.824039 24465 net.cpp:129] Top shape: 1 26 64 (1664)
I0222 17:35:27.824043 24465 net.cpp:137] Memory required for data: 516672
I0222 17:35:27.824046 24465 net.cpp:465] Sharing parameters 'W_hc' owned by layer 'lstm1_transform_1', param index 0
I0222 17:35:27.824049 24465 layer_factory.hpp:77] Creating layer lstm1_gate_input_9
I0222 17:35:27.824059 24465 net.cpp:84] Creating Layer lstm1_gate_input_9
I0222 17:35:27.824061 24465 net.cpp:406] lstm1_gate_input_9 <- W_hc_h_8
I0222 17:35:27.824065 24465 net.cpp:406] lstm1_gate_input_9 <- W_xc_x_9
I0222 17:35:27.824070 24465 net.cpp:380] lstm1_gate_input_9 -> gate_input_9
I0222 17:35:27.824082 24465 net.cpp:122] Setting up lstm1_gate_input_9
I0222 17:35:27.824087 24465 net.cpp:129] Top shape: 1 26 64 (1664)
I0222 17:35:27.824090 24465 net.cpp:137] Memory required for data: 523328
I0222 17:35:27.824093 24465 layer_factory.hpp:77] Creating layer lstm1_unit_9
I0222 17:35:27.824097 24465 net.cpp:84] Creating Layer lstm1_unit_9
I0222 17:35:27.824100 24465 net.cpp:406] lstm1_unit_9 <- c_8
I0222 17:35:27.824105 24465 net.cpp:406] lstm1_unit_9 <- gate_input_9
I0222 17:35:27.824108 24465 net.cpp:406] lstm1_unit_9 <- cont_9_lstm1_cont_slice_8_split_1
I0222 17:35:27.824113 24465 net.cpp:380] lstm1_unit_9 -> c_9
I0222 17:35:27.824118 24465 net.cpp:380] lstm1_unit_9 -> h_9
I0222 17:35:27.824141 24465 net.cpp:122] Setting up lstm1_unit_9
I0222 17:35:27.824146 24465 net.cpp:129] Top shape: 1 26 16 (416)
I0222 17:35:27.824149 24465 net.cpp:129] Top shape: 1 26 16 (416)
I0222 17:35:27.824152 24465 net.cpp:137] Memory required for data: 526656
I0222 17:35:27.824154 24465 layer_factory.hpp:77] Creating layer h_9_lstm1_unit_9_1_split
I0222 17:35:27.824158 24465 net.cpp:84] Creating Layer h_9_lstm1_unit_9_1_split
I0222 17:35:27.824162 24465 net.cpp:406] h_9_lstm1_unit_9_1_split <- h_9
I0222 17:35:27.824165 24465 net.cpp:380] h_9_lstm1_unit_9_1_split -> h_9_lstm1_unit_9_1_split_0
I0222 17:35:27.824172 24465 net.cpp:380] h_9_lstm1_unit_9_1_split -> h_9_lstm1_unit_9_1_split_1
I0222 17:35:27.824187 24465 net.cpp:122] Setting up h_9_lstm1_unit_9_1_split
I0222 17:35:27.824193 24465 net.cpp:129] Top shape: 1 26 16 (416)
I0222 17:35:27.824195 24465 net.cpp:129] Top shape: 1 26 16 (416)
I0222 17:35:27.824198 24465 net.cpp:137] Memory required for data: 529984
I0222 17:35:27.824201 24465 layer_factory.hpp:77] Creating layer lstm1_h_conted_9
I0222 17:35:27.824206 24465 net.cpp:84] Creating Layer lstm1_h_conted_9
I0222 17:35:27.824210 24465 net.cpp:406] lstm1_h_conted_9 <- h_9_lstm1_unit_9_1_split_0
I0222 17:35:27.824214 24465 net.cpp:406] lstm1_h_conted_9 <- cont_10_lstm1_cont_slice_9_split_0
I0222 17:35:27.824218 24465 net.cpp:380] lstm1_h_conted_9 -> h_conted_9
I0222 17:35:27.824249 24465 net.cpp:122] Setting up lstm1_h_conted_9
I0222 17:35:27.824254 24465 net.cpp:129] Top shape: 1 26 16 (416)
I0222 17:35:27.824257 24465 net.cpp:137] Memory required for data: 531648
I0222 17:35:27.824259 24465 layer_factory.hpp:77] Creating layer lstm1_transform_10
I0222 17:35:27.824265 24465 net.cpp:84] Creating Layer lstm1_transform_10
I0222 17:35:27.824273 24465 net.cpp:406] lstm1_transform_10 <- h_conted_9
I0222 17:35:27.824277 24465 net.cpp:380] lstm1_transform_10 -> W_hc_h_9
I0222 17:35:27.824308 24465 net.cpp:122] Setting up lstm1_transform_10
I0222 17:35:27.824313 24465 net.cpp:129] Top shape: 1 26 64 (1664)
I0222 17:35:27.824317 24465 net.cpp:137] Memory required for data: 538304
I0222 17:35:27.824321 24465 net.cpp:465] Sharing parameters 'W_hc' owned by layer 'lstm1_transform_1', param index 0
I0222 17:35:27.824323 24465 layer_factory.hpp:77] Creating layer lstm1_gate_input_10
I0222 17:35:27.824327 24465 net.cpp:84] Creating Layer lstm1_gate_input_10
I0222 17:35:27.824331 24465 net.cpp:406] lstm1_gate_input_10 <- W_hc_h_9
I0222 17:35:27.824334 24465 net.cpp:406] lstm1_gate_input_10 <- W_xc_x_10
I0222 17:35:27.824340 24465 net.cpp:380] lstm1_gate_input_10 -> gate_input_10
I0222 17:35:27.824352 24465 net.cpp:122] Setting up lstm1_gate_input_10
I0222 17:35:27.824357 24465 net.cpp:129] Top shape: 1 26 64 (1664)
I0222 17:35:27.824359 24465 net.cpp:137] Memory required for data: 544960
I0222 17:35:27.824362 24465 layer_factory.hpp:77] Creating layer lstm1_unit_10
I0222 17:35:27.824367 24465 net.cpp:84] Creating Layer lstm1_unit_10
I0222 17:35:27.824370 24465 net.cpp:406] lstm1_unit_10 <- c_9
I0222 17:35:27.824374 24465 net.cpp:406] lstm1_unit_10 <- gate_input_10
I0222 17:35:27.824378 24465 net.cpp:406] lstm1_unit_10 <- cont_10_lstm1_cont_slice_9_split_1
I0222 17:35:27.824381 24465 net.cpp:380] lstm1_unit_10 -> c_10
I0222 17:35:27.824388 24465 net.cpp:380] lstm1_unit_10 -> h_10
I0222 17:35:27.824410 24465 net.cpp:122] Setting up lstm1_unit_10
I0222 17:35:27.824415 24465 net.cpp:129] Top shape: 1 26 16 (416)
I0222 17:35:27.824419 24465 net.cpp:129] Top shape: 1 26 16 (416)
I0222 17:35:27.824421 24465 net.cpp:137] Memory required for data: 548288
I0222 17:35:27.824424 24465 layer_factory.hpp:77] Creating layer h_10_lstm1_unit_10_1_split
I0222 17:35:27.824429 24465 net.cpp:84] Creating Layer h_10_lstm1_unit_10_1_split
I0222 17:35:27.824432 24465 net.cpp:406] h_10_lstm1_unit_10_1_split <- h_10
I0222 17:35:27.824436 24465 net.cpp:380] h_10_lstm1_unit_10_1_split -> h_10_lstm1_unit_10_1_split_0
I0222 17:35:27.824440 24465 net.cpp:380] h_10_lstm1_unit_10_1_split -> h_10_lstm1_unit_10_1_split_1
I0222 17:35:27.824458 24465 net.cpp:122] Setting up h_10_lstm1_unit_10_1_split
I0222 17:35:27.824462 24465 net.cpp:129] Top shape: 1 26 16 (416)
I0222 17:35:27.824466 24465 net.cpp:129] Top shape: 1 26 16 (416)
I0222 17:35:27.824468 24465 net.cpp:137] Memory required for data: 551616
I0222 17:35:27.824471 24465 layer_factory.hpp:77] Creating layer lstm1_h_conted_10
I0222 17:35:27.826762 24465 net.cpp:84] Creating Layer lstm1_h_conted_10
I0222 17:35:27.826771 24465 net.cpp:406] lstm1_h_conted_10 <- h_10_lstm1_unit_10_1_split_0
I0222 17:35:27.826777 24465 net.cpp:406] lstm1_h_conted_10 <- cont_11_lstm1_cont_slice_10_split_0
I0222 17:35:27.826784 24465 net.cpp:380] lstm1_h_conted_10 -> h_conted_10
I0222 17:35:27.826827 24465 net.cpp:122] Setting up lstm1_h_conted_10
I0222 17:35:27.826831 24465 net.cpp:129] Top shape: 1 26 16 (416)
I0222 17:35:27.826835 24465 net.cpp:137] Memory required for data: 553280
I0222 17:35:27.826838 24465 layer_factory.hpp:77] Creating layer lstm1_transform_11
I0222 17:35:27.826844 24465 net.cpp:84] Creating Layer lstm1_transform_11
I0222 17:35:27.826848 24465 net.cpp:406] lstm1_transform_11 <- h_conted_10
I0222 17:35:27.826853 24465 net.cpp:380] lstm1_transform_11 -> W_hc_h_10
I0222 17:35:27.826885 24465 net.cpp:122] Setting up lstm1_transform_11
I0222 17:35:27.826890 24465 net.cpp:129] Top shape: 1 26 64 (1664)
I0222 17:35:27.826894 24465 net.cpp:137] Memory required for data: 559936
I0222 17:35:27.826896 24465 net.cpp:465] Sharing parameters 'W_hc' owned by layer 'lstm1_transform_1', param index 0
I0222 17:35:27.826900 24465 layer_factory.hpp:77] Creating layer lstm1_gate_input_11
I0222 17:35:27.826905 24465 net.cpp:84] Creating Layer lstm1_gate_input_11
I0222 17:35:27.826907 24465 net.cpp:406] lstm1_gate_input_11 <- W_hc_h_10
I0222 17:35:27.826911 24465 net.cpp:406] lstm1_gate_input_11 <- W_xc_x_11
I0222 17:35:27.826923 24465 net.cpp:380] lstm1_gate_input_11 -> gate_input_11
I0222 17:35:27.826938 24465 net.cpp:122] Setting up lstm1_gate_input_11
I0222 17:35:27.826943 24465 net.cpp:129] Top shape: 1 26 64 (1664)
I0222 17:35:27.826946 24465 net.cpp:137] Memory required for data: 566592
I0222 17:35:27.826949 24465 layer_factory.hpp:77] Creating layer lstm1_unit_11
I0222 17:35:27.826953 24465 net.cpp:84] Creating Layer lstm1_unit_11
I0222 17:35:27.826957 24465 net.cpp:406] lstm1_unit_11 <- c_10
I0222 17:35:27.826961 24465 net.cpp:406] lstm1_unit_11 <- gate_input_11
I0222 17:35:27.826966 24465 net.cpp:406] lstm1_unit_11 <- cont_11_lstm1_cont_slice_10_split_1
I0222 17:35:27.826969 24465 net.cpp:380] lstm1_unit_11 -> c_11
I0222 17:35:27.826974 24465 net.cpp:380] lstm1_unit_11 -> h_11
I0222 17:35:27.826998 24465 net.cpp:122] Setting up lstm1_unit_11
I0222 17:35:27.827003 24465 net.cpp:129] Top shape: 1 26 16 (416)
I0222 17:35:27.827008 24465 net.cpp:129] Top shape: 1 26 16 (416)
I0222 17:35:27.827010 24465 net.cpp:137] Memory required for data: 569920
I0222 17:35:27.827013 24465 layer_factory.hpp:77] Creating layer h_11_lstm1_unit_11_1_split
I0222 17:35:27.827018 24465 net.cpp:84] Creating Layer h_11_lstm1_unit_11_1_split
I0222 17:35:27.827020 24465 net.cpp:406] h_11_lstm1_unit_11_1_split <- h_11
I0222 17:35:27.827024 24465 net.cpp:380] h_11_lstm1_unit_11_1_split -> h_11_lstm1_unit_11_1_split_0
I0222 17:35:27.827029 24465 net.cpp:380] h_11_lstm1_unit_11_1_split -> h_11_lstm1_unit_11_1_split_1
I0222 17:35:27.827046 24465 net.cpp:122] Setting up h_11_lstm1_unit_11_1_split
I0222 17:35:27.827051 24465 net.cpp:129] Top shape: 1 26 16 (416)
I0222 17:35:27.827055 24465 net.cpp:129] Top shape: 1 26 16 (416)
I0222 17:35:27.827057 24465 net.cpp:137] Memory required for data: 573248
I0222 17:35:27.827060 24465 layer_factory.hpp:77] Creating layer lstm1_h_conted_11
I0222 17:35:27.827064 24465 net.cpp:84] Creating Layer lstm1_h_conted_11
I0222 17:35:27.827069 24465 net.cpp:406] lstm1_h_conted_11 <- h_11_lstm1_unit_11_1_split_0
I0222 17:35:27.827072 24465 net.cpp:406] lstm1_h_conted_11 <- cont_12_lstm1_cont_slice_11_split_0
I0222 17:35:27.827076 24465 net.cpp:380] lstm1_h_conted_11 -> h_conted_11
I0222 17:35:27.827108 24465 net.cpp:122] Setting up lstm1_h_conted_11
I0222 17:35:27.827113 24465 net.cpp:129] Top shape: 1 26 16 (416)
I0222 17:35:27.827116 24465 net.cpp:137] Memory required for data: 574912
I0222 17:35:27.827119 24465 layer_factory.hpp:77] Creating layer lstm1_transform_12
I0222 17:35:27.827123 24465 net.cpp:84] Creating Layer lstm1_transform_12
I0222 17:35:27.827127 24465 net.cpp:406] lstm1_transform_12 <- h_conted_11
I0222 17:35:27.827132 24465 net.cpp:380] lstm1_transform_12 -> W_hc_h_11
I0222 17:35:27.827162 24465 net.cpp:122] Setting up lstm1_transform_12
I0222 17:35:27.827167 24465 net.cpp:129] Top shape: 1 26 64 (1664)
I0222 17:35:27.827170 24465 net.cpp:137] Memory required for data: 581568
I0222 17:35:27.827173 24465 net.cpp:465] Sharing parameters 'W_hc' owned by layer 'lstm1_transform_1', param index 0
I0222 17:35:27.827177 24465 layer_factory.hpp:77] Creating layer lstm1_gate_input_12
I0222 17:35:27.827181 24465 net.cpp:84] Creating Layer lstm1_gate_input_12
I0222 17:35:27.827184 24465 net.cpp:406] lstm1_gate_input_12 <- W_hc_h_11
I0222 17:35:27.827188 24465 net.cpp:406] lstm1_gate_input_12 <- W_xc_x_12
I0222 17:35:27.827193 24465 net.cpp:380] lstm1_gate_input_12 -> gate_input_12
I0222 17:35:27.827205 24465 net.cpp:122] Setting up lstm1_gate_input_12
I0222 17:35:27.827209 24465 net.cpp:129] Top shape: 1 26 64 (1664)
I0222 17:35:27.827213 24465 net.cpp:137] Memory required for data: 588224
I0222 17:35:27.827215 24465 layer_factory.hpp:77] Creating layer lstm1_unit_12
I0222 17:35:27.827220 24465 net.cpp:84] Creating Layer lstm1_unit_12
I0222 17:35:27.827224 24465 net.cpp:406] lstm1_unit_12 <- c_11
I0222 17:35:27.827229 24465 net.cpp:406] lstm1_unit_12 <- gate_input_12
I0222 17:35:27.827231 24465 net.cpp:406] lstm1_unit_12 <- cont_12_lstm1_cont_slice_11_split_1
I0222 17:35:27.827241 24465 net.cpp:380] lstm1_unit_12 -> c_12
I0222 17:35:27.827246 24465 net.cpp:380] lstm1_unit_12 -> h_12
I0222 17:35:27.827270 24465 net.cpp:122] Setting up lstm1_unit_12
I0222 17:35:27.827275 24465 net.cpp:129] Top shape: 1 26 16 (416)
I0222 17:35:27.827280 24465 net.cpp:129] Top shape: 1 26 16 (416)
I0222 17:35:27.827281 24465 net.cpp:137] Memory required for data: 591552
I0222 17:35:27.827284 24465 layer_factory.hpp:77] Creating layer h_12_lstm1_unit_12_1_split
I0222 17:35:27.827289 24465 net.cpp:84] Creating Layer h_12_lstm1_unit_12_1_split
I0222 17:35:27.827293 24465 net.cpp:406] h_12_lstm1_unit_12_1_split <- h_12
I0222 17:35:27.827297 24465 net.cpp:380] h_12_lstm1_unit_12_1_split -> h_12_lstm1_unit_12_1_split_0
I0222 17:35:27.827301 24465 net.cpp:380] h_12_lstm1_unit_12_1_split -> h_12_lstm1_unit_12_1_split_1
I0222 17:35:27.827319 24465 net.cpp:122] Setting up h_12_lstm1_unit_12_1_split
I0222 17:35:27.827324 24465 net.cpp:129] Top shape: 1 26 16 (416)
I0222 17:35:27.827327 24465 net.cpp:129] Top shape: 1 26 16 (416)
I0222 17:35:27.827330 24465 net.cpp:137] Memory required for data: 594880
I0222 17:35:27.827333 24465 layer_factory.hpp:77] Creating layer lstm1_h_conted_12
I0222 17:35:27.827337 24465 net.cpp:84] Creating Layer lstm1_h_conted_12
I0222 17:35:27.827343 24465 net.cpp:406] lstm1_h_conted_12 <- h_12_lstm1_unit_12_1_split_0
I0222 17:35:27.827348 24465 net.cpp:406] lstm1_h_conted_12 <- cont_13_lstm1_cont_slice_12_split_0
I0222 17:35:27.827353 24465 net.cpp:380] lstm1_h_conted_12 -> h_conted_12
I0222 17:35:27.827383 24465 net.cpp:122] Setting up lstm1_h_conted_12
I0222 17:35:27.827386 24465 net.cpp:129] Top shape: 1 26 16 (416)
I0222 17:35:27.827389 24465 net.cpp:137] Memory required for data: 596544
I0222 17:35:27.827392 24465 layer_factory.hpp:77] Creating layer lstm1_transform_13
I0222 17:35:27.827397 24465 net.cpp:84] Creating Layer lstm1_transform_13
I0222 17:35:27.827400 24465 net.cpp:406] lstm1_transform_13 <- h_conted_12
I0222 17:35:27.827404 24465 net.cpp:380] lstm1_transform_13 -> W_hc_h_12
I0222 17:35:27.827435 24465 net.cpp:122] Setting up lstm1_transform_13
I0222 17:35:27.827440 24465 net.cpp:129] Top shape: 1 26 64 (1664)
I0222 17:35:27.827442 24465 net.cpp:137] Memory required for data: 603200
I0222 17:35:27.827445 24465 net.cpp:465] Sharing parameters 'W_hc' owned by layer 'lstm1_transform_1', param index 0
I0222 17:35:27.827448 24465 layer_factory.hpp:77] Creating layer lstm1_gate_input_13
I0222 17:35:27.853916 24465 net.cpp:84] Creating Layer lstm1_gate_input_13
I0222 17:35:27.853926 24465 net.cpp:406] lstm1_gate_input_13 <- W_hc_h_12
I0222 17:35:27.853931 24465 net.cpp:406] lstm1_gate_input_13 <- W_xc_x_13
I0222 17:35:27.853936 24465 net.cpp:380] lstm1_gate_input_13 -> gate_input_13
I0222 17:35:27.853965 24465 net.cpp:122] Setting up lstm1_gate_input_13
I0222 17:35:27.853971 24465 net.cpp:129] Top shape: 1 26 64 (1664)
I0222 17:35:27.853974 24465 net.cpp:137] Memory required for data: 609856
I0222 17:35:27.853977 24465 layer_factory.hpp:77] Creating layer lstm1_unit_13
I0222 17:35:27.853982 24465 net.cpp:84] Creating Layer lstm1_unit_13
I0222 17:35:27.853986 24465 net.cpp:406] lstm1_unit_13 <- c_12
I0222 17:35:27.853989 24465 net.cpp:406] lstm1_unit_13 <- gate_input_13
I0222 17:35:27.853992 24465 net.cpp:406] lstm1_unit_13 <- cont_13_lstm1_cont_slice_12_split_1
I0222 17:35:27.853996 24465 net.cpp:380] lstm1_unit_13 -> c_13
I0222 17:35:27.854001 24465 net.cpp:380] lstm1_unit_13 -> h_13
I0222 17:35:27.854027 24465 net.cpp:122] Setting up lstm1_unit_13
I0222 17:35:27.854032 24465 net.cpp:129] Top shape: 1 26 16 (416)
I0222 17:35:27.854035 24465 net.cpp:129] Top shape: 1 26 16 (416)
I0222 17:35:27.854038 24465 net.cpp:137] Memory required for data: 613184
I0222 17:35:27.854039 24465 layer_factory.hpp:77] Creating layer h_13_lstm1_unit_13_1_split
I0222 17:35:27.854043 24465 net.cpp:84] Creating Layer h_13_lstm1_unit_13_1_split
I0222 17:35:27.854046 24465 net.cpp:406] h_13_lstm1_unit_13_1_split <- h_13
I0222 17:35:27.854049 24465 net.cpp:380] h_13_lstm1_unit_13_1_split -> h_13_lstm1_unit_13_1_split_0
I0222 17:35:27.854065 24465 net.cpp:380] h_13_lstm1_unit_13_1_split -> h_13_lstm1_unit_13_1_split_1
I0222 17:35:27.854084 24465 net.cpp:122] Setting up h_13_lstm1_unit_13_1_split
I0222 17:35:27.854089 24465 net.cpp:129] Top shape: 1 26 16 (416)
I0222 17:35:27.854092 24465 net.cpp:129] Top shape: 1 26 16 (416)
I0222 17:35:27.854095 24465 net.cpp:137] Memory required for data: 616512
I0222 17:35:27.854099 24465 layer_factory.hpp:77] Creating layer lstm1_h_conted_13
I0222 17:35:27.854104 24465 net.cpp:84] Creating Layer lstm1_h_conted_13
I0222 17:35:27.854107 24465 net.cpp:406] lstm1_h_conted_13 <- h_13_lstm1_unit_13_1_split_0
I0222 17:35:27.854112 24465 net.cpp:406] lstm1_h_conted_13 <- cont_14_lstm1_cont_slice_13_split_0
I0222 17:35:27.854116 24465 net.cpp:380] lstm1_h_conted_13 -> h_conted_13
I0222 17:35:27.854152 24465 net.cpp:122] Setting up lstm1_h_conted_13
I0222 17:35:27.854157 24465 net.cpp:129] Top shape: 1 26 16 (416)
I0222 17:35:27.854161 24465 net.cpp:137] Memory required for data: 618176
I0222 17:35:27.854163 24465 layer_factory.hpp:77] Creating layer lstm1_transform_14
I0222 17:35:27.854168 24465 net.cpp:84] Creating Layer lstm1_transform_14
I0222 17:35:27.854171 24465 net.cpp:406] lstm1_transform_14 <- h_conted_13
I0222 17:35:27.854176 24465 net.cpp:380] lstm1_transform_14 -> W_hc_h_13
I0222 17:35:27.854212 24465 net.cpp:122] Setting up lstm1_transform_14
I0222 17:35:27.854216 24465 net.cpp:129] Top shape: 1 26 64 (1664)
I0222 17:35:27.854219 24465 net.cpp:137] Memory required for data: 624832
I0222 17:35:27.854223 24465 net.cpp:465] Sharing parameters 'W_hc' owned by layer 'lstm1_transform_1', param index 0
I0222 17:35:27.854226 24465 layer_factory.hpp:77] Creating layer lstm1_gate_input_14
I0222 17:35:27.854230 24465 net.cpp:84] Creating Layer lstm1_gate_input_14
I0222 17:35:27.854234 24465 net.cpp:406] lstm1_gate_input_14 <- W_hc_h_13
I0222 17:35:27.854238 24465 net.cpp:406] lstm1_gate_input_14 <- W_xc_x_14
I0222 17:35:27.854243 24465 net.cpp:380] lstm1_gate_input_14 -> gate_input_14
I0222 17:35:27.854256 24465 net.cpp:122] Setting up lstm1_gate_input_14
I0222 17:35:27.854260 24465 net.cpp:129] Top shape: 1 26 64 (1664)
I0222 17:35:27.854264 24465 net.cpp:137] Memory required for data: 631488
I0222 17:35:27.854266 24465 layer_factory.hpp:77] Creating layer lstm1_unit_14
I0222 17:35:27.854270 24465 net.cpp:84] Creating Layer lstm1_unit_14
I0222 17:35:27.854274 24465 net.cpp:406] lstm1_unit_14 <- c_13
I0222 17:35:27.854277 24465 net.cpp:406] lstm1_unit_14 <- gate_input_14
I0222 17:35:27.854281 24465 net.cpp:406] lstm1_unit_14 <- cont_14_lstm1_cont_slice_13_split_1
I0222 17:35:27.854286 24465 net.cpp:380] lstm1_unit_14 -> c_14
I0222 17:35:27.854291 24465 net.cpp:380] lstm1_unit_14 -> h_14
I0222 17:35:27.854315 24465 net.cpp:122] Setting up lstm1_unit_14
I0222 17:35:27.854320 24465 net.cpp:129] Top shape: 1 26 16 (416)
I0222 17:35:27.854322 24465 net.cpp:129] Top shape: 1 26 16 (416)
I0222 17:35:27.854326 24465 net.cpp:137] Memory required for data: 634816
I0222 17:35:27.854328 24465 layer_factory.hpp:77] Creating layer h_14_lstm1_unit_14_1_split
I0222 17:35:27.854332 24465 net.cpp:84] Creating Layer h_14_lstm1_unit_14_1_split
I0222 17:35:27.854336 24465 net.cpp:406] h_14_lstm1_unit_14_1_split <- h_14
I0222 17:35:27.854339 24465 net.cpp:380] h_14_lstm1_unit_14_1_split -> h_14_lstm1_unit_14_1_split_0
I0222 17:35:27.854344 24465 net.cpp:380] h_14_lstm1_unit_14_1_split -> h_14_lstm1_unit_14_1_split_1
I0222 17:35:27.854362 24465 net.cpp:122] Setting up h_14_lstm1_unit_14_1_split
I0222 17:35:27.854367 24465 net.cpp:129] Top shape: 1 26 16 (416)
I0222 17:35:27.854370 24465 net.cpp:129] Top shape: 1 26 16 (416)
I0222 17:35:27.854372 24465 net.cpp:137] Memory required for data: 638144
I0222 17:35:27.854375 24465 layer_factory.hpp:77] Creating layer lstm1_h_conted_14
I0222 17:35:27.854379 24465 net.cpp:84] Creating Layer lstm1_h_conted_14
I0222 17:35:27.854383 24465 net.cpp:406] lstm1_h_conted_14 <- h_14_lstm1_unit_14_1_split_0
I0222 17:35:27.854387 24465 net.cpp:406] lstm1_h_conted_14 <- cont_15_lstm1_cont_slice_14_split_0
I0222 17:35:27.854398 24465 net.cpp:380] lstm1_h_conted_14 -> h_conted_14
I0222 17:35:27.854429 24465 net.cpp:122] Setting up lstm1_h_conted_14
I0222 17:35:27.854434 24465 net.cpp:129] Top shape: 1 26 16 (416)
I0222 17:35:27.854436 24465 net.cpp:137] Memory required for data: 639808
I0222 17:35:27.854439 24465 layer_factory.hpp:77] Creating layer lstm1_transform_15
I0222 17:35:27.854444 24465 net.cpp:84] Creating Layer lstm1_transform_15
I0222 17:35:27.854449 24465 net.cpp:406] lstm1_transform_15 <- h_conted_14
I0222 17:35:27.854452 24465 net.cpp:380] lstm1_transform_15 -> W_hc_h_14
I0222 17:35:27.854482 24465 net.cpp:122] Setting up lstm1_transform_15
I0222 17:35:27.854487 24465 net.cpp:129] Top shape: 1 26 64 (1664)
I0222 17:35:27.854490 24465 net.cpp:137] Memory required for data: 646464
I0222 17:35:27.854498 24465 net.cpp:465] Sharing parameters 'W_hc' owned by layer 'lstm1_transform_1', param index 0
I0222 17:35:27.854501 24465 layer_factory.hpp:77] Creating layer lstm1_gate_input_15
I0222 17:35:27.854506 24465 net.cpp:84] Creating Layer lstm1_gate_input_15
I0222 17:35:27.854509 24465 net.cpp:406] lstm1_gate_input_15 <- W_hc_h_14
I0222 17:35:27.854513 24465 net.cpp:406] lstm1_gate_input_15 <- W_xc_x_15
I0222 17:35:27.854518 24465 net.cpp:380] lstm1_gate_input_15 -> gate_input_15
I0222 17:35:27.854532 24465 net.cpp:122] Setting up lstm1_gate_input_15
I0222 17:35:27.854535 24465 net.cpp:129] Top shape: 1 26 64 (1664)
I0222 17:35:27.854538 24465 net.cpp:137] Memory required for data: 653120
I0222 17:35:27.854542 24465 layer_factory.hpp:77] Creating layer lstm1_unit_15
I0222 17:35:27.854545 24465 net.cpp:84] Creating Layer lstm1_unit_15
I0222 17:35:27.854549 24465 net.cpp:406] lstm1_unit_15 <- c_14
I0222 17:35:27.854553 24465 net.cpp:406] lstm1_unit_15 <- gate_input_15
I0222 17:35:27.854557 24465 net.cpp:406] lstm1_unit_15 <- cont_15_lstm1_cont_slice_14_split_1
I0222 17:35:27.854560 24465 net.cpp:380] lstm1_unit_15 -> c_15
I0222 17:35:27.854566 24465 net.cpp:380] lstm1_unit_15 -> h_15
I0222 17:35:27.854590 24465 net.cpp:122] Setting up lstm1_unit_15
I0222 17:35:27.854594 24465 net.cpp:129] Top shape: 1 26 16 (416)
I0222 17:35:27.854598 24465 net.cpp:129] Top shape: 1 26 16 (416)
I0222 17:35:27.854601 24465 net.cpp:137] Memory required for data: 656448
I0222 17:35:27.854604 24465 layer_factory.hpp:77] Creating layer h_15_lstm1_unit_15_1_split
I0222 17:35:27.854607 24465 net.cpp:84] Creating Layer h_15_lstm1_unit_15_1_split
I0222 17:35:27.854611 24465 net.cpp:406] h_15_lstm1_unit_15_1_split <- h_15
I0222 17:35:27.854614 24465 net.cpp:380] h_15_lstm1_unit_15_1_split -> h_15_lstm1_unit_15_1_split_0
I0222 17:35:27.857885 24465 net.cpp:380] h_15_lstm1_unit_15_1_split -> h_15_lstm1_unit_15_1_split_1
I0222 17:35:27.857949 24465 net.cpp:122] Setting up h_15_lstm1_unit_15_1_split
I0222 17:35:27.857954 24465 net.cpp:129] Top shape: 1 26 16 (416)
I0222 17:35:27.857957 24465 net.cpp:129] Top shape: 1 26 16 (416)
I0222 17:35:27.857960 24465 net.cpp:137] Memory required for data: 659776
I0222 17:35:27.857962 24465 layer_factory.hpp:77] Creating layer lstm1_h_conted_15
I0222 17:35:27.857966 24465 net.cpp:84] Creating Layer lstm1_h_conted_15
I0222 17:35:27.857970 24465 net.cpp:406] lstm1_h_conted_15 <- h_15_lstm1_unit_15_1_split_0
I0222 17:35:27.857975 24465 net.cpp:406] lstm1_h_conted_15 <- cont_16_lstm1_cont_slice_15_split_0
I0222 17:35:27.857980 24465 net.cpp:380] lstm1_h_conted_15 -> h_conted_15
I0222 17:35:27.858026 24465 net.cpp:122] Setting up lstm1_h_conted_15
I0222 17:35:27.858031 24465 net.cpp:129] Top shape: 1 26 16 (416)
I0222 17:35:27.858048 24465 net.cpp:137] Memory required for data: 661440
I0222 17:35:27.858050 24465 layer_factory.hpp:77] Creating layer lstm1_transform_16
I0222 17:35:27.858057 24465 net.cpp:84] Creating Layer lstm1_transform_16
I0222 17:35:27.858059 24465 net.cpp:406] lstm1_transform_16 <- h_conted_15
I0222 17:35:27.858063 24465 net.cpp:380] lstm1_transform_16 -> W_hc_h_15
I0222 17:35:27.858124 24465 net.cpp:122] Setting up lstm1_transform_16
I0222 17:35:27.858142 24465 net.cpp:129] Top shape: 1 26 64 (1664)
I0222 17:35:27.858167 24465 net.cpp:137] Memory required for data: 668096
I0222 17:35:27.858170 24465 net.cpp:465] Sharing parameters 'W_hc' owned by layer 'lstm1_transform_1', param index 0
I0222 17:35:27.858175 24465 layer_factory.hpp:77] Creating layer lstm1_gate_input_16
I0222 17:35:27.858180 24465 net.cpp:84] Creating Layer lstm1_gate_input_16
I0222 17:35:27.858182 24465 net.cpp:406] lstm1_gate_input_16 <- W_hc_h_15
I0222 17:35:27.858186 24465 net.cpp:406] lstm1_gate_input_16 <- W_xc_x_16
I0222 17:35:27.858191 24465 net.cpp:380] lstm1_gate_input_16 -> gate_input_16
I0222 17:35:27.858207 24465 net.cpp:122] Setting up lstm1_gate_input_16
I0222 17:35:27.858212 24465 net.cpp:129] Top shape: 1 26 64 (1664)
I0222 17:35:27.858214 24465 net.cpp:137] Memory required for data: 674752
I0222 17:35:27.858217 24465 layer_factory.hpp:77] Creating layer lstm1_unit_16
I0222 17:35:27.858220 24465 net.cpp:84] Creating Layer lstm1_unit_16
I0222 17:35:27.858223 24465 net.cpp:406] lstm1_unit_16 <- c_15
I0222 17:35:27.858227 24465 net.cpp:406] lstm1_unit_16 <- gate_input_16
I0222 17:35:27.858230 24465 net.cpp:406] lstm1_unit_16 <- cont_16_lstm1_cont_slice_15_split_1
I0222 17:35:27.858233 24465 net.cpp:380] lstm1_unit_16 -> c_16
I0222 17:35:27.858237 24465 net.cpp:380] lstm1_unit_16 -> h_16
I0222 17:35:27.858261 24465 net.cpp:122] Setting up lstm1_unit_16
I0222 17:35:27.858265 24465 net.cpp:129] Top shape: 1 26 16 (416)
I0222 17:35:27.858268 24465 net.cpp:129] Top shape: 1 26 16 (416)
I0222 17:35:27.858271 24465 net.cpp:137] Memory required for data: 678080
I0222 17:35:27.858273 24465 layer_factory.hpp:77] Creating layer h_16_lstm1_unit_16_1_split
I0222 17:35:27.858278 24465 net.cpp:84] Creating Layer h_16_lstm1_unit_16_1_split
I0222 17:35:27.858280 24465 net.cpp:406] h_16_lstm1_unit_16_1_split <- h_16
I0222 17:35:27.858284 24465 net.cpp:380] h_16_lstm1_unit_16_1_split -> h_16_lstm1_unit_16_1_split_0
I0222 17:35:27.858289 24465 net.cpp:380] h_16_lstm1_unit_16_1_split -> h_16_lstm1_unit_16_1_split_1
I0222 17:35:27.858305 24465 net.cpp:122] Setting up h_16_lstm1_unit_16_1_split
I0222 17:35:27.858309 24465 net.cpp:129] Top shape: 1 26 16 (416)
I0222 17:35:27.858312 24465 net.cpp:129] Top shape: 1 26 16 (416)
I0222 17:35:27.858315 24465 net.cpp:137] Memory required for data: 681408
I0222 17:35:27.858317 24465 layer_factory.hpp:77] Creating layer lstm1_h_conted_16
I0222 17:35:27.858321 24465 net.cpp:84] Creating Layer lstm1_h_conted_16
I0222 17:35:27.858323 24465 net.cpp:406] lstm1_h_conted_16 <- h_16_lstm1_unit_16_1_split_0
I0222 17:35:27.858327 24465 net.cpp:406] lstm1_h_conted_16 <- cont_17_lstm1_cont_slice_16_split_0
I0222 17:35:27.858331 24465 net.cpp:380] lstm1_h_conted_16 -> h_conted_16
I0222 17:35:27.858361 24465 net.cpp:122] Setting up lstm1_h_conted_16
I0222 17:35:27.858364 24465 net.cpp:129] Top shape: 1 26 16 (416)
I0222 17:35:27.858367 24465 net.cpp:137] Memory required for data: 683072
I0222 17:35:27.858369 24465 layer_factory.hpp:77] Creating layer lstm1_transform_17
I0222 17:35:27.858373 24465 net.cpp:84] Creating Layer lstm1_transform_17
I0222 17:35:27.858376 24465 net.cpp:406] lstm1_transform_17 <- h_conted_16
I0222 17:35:27.858381 24465 net.cpp:380] lstm1_transform_17 -> W_hc_h_16
I0222 17:35:27.858412 24465 net.cpp:122] Setting up lstm1_transform_17
I0222 17:35:27.858415 24465 net.cpp:129] Top shape: 1 26 64 (1664)
I0222 17:35:27.858418 24465 net.cpp:137] Memory required for data: 689728
I0222 17:35:27.858420 24465 net.cpp:465] Sharing parameters 'W_hc' owned by layer 'lstm1_transform_1', param index 0
I0222 17:35:27.858423 24465 layer_factory.hpp:77] Creating layer lstm1_gate_input_17
I0222 17:35:27.858427 24465 net.cpp:84] Creating Layer lstm1_gate_input_17
I0222 17:35:27.858429 24465 net.cpp:406] lstm1_gate_input_17 <- W_hc_h_16
I0222 17:35:27.858433 24465 net.cpp:406] lstm1_gate_input_17 <- W_xc_x_17
I0222 17:35:27.858436 24465 net.cpp:380] lstm1_gate_input_17 -> gate_input_17
I0222 17:35:27.858448 24465 net.cpp:122] Setting up lstm1_gate_input_17
I0222 17:35:27.858451 24465 net.cpp:129] Top shape: 1 26 64 (1664)
I0222 17:35:27.858458 24465 net.cpp:137] Memory required for data: 696384
I0222 17:35:27.858461 24465 layer_factory.hpp:77] Creating layer lstm1_unit_17
I0222 17:35:27.858466 24465 net.cpp:84] Creating Layer lstm1_unit_17
I0222 17:35:27.858469 24465 net.cpp:406] lstm1_unit_17 <- c_16
I0222 17:35:27.858472 24465 net.cpp:406] lstm1_unit_17 <- gate_input_17
I0222 17:35:27.858475 24465 net.cpp:406] lstm1_unit_17 <- cont_17_lstm1_cont_slice_16_split_1
I0222 17:35:27.858479 24465 net.cpp:380] lstm1_unit_17 -> c_17
I0222 17:35:27.858484 24465 net.cpp:380] lstm1_unit_17 -> h_17
I0222 17:35:27.858507 24465 net.cpp:122] Setting up lstm1_unit_17
I0222 17:35:27.858512 24465 net.cpp:129] Top shape: 1 26 16 (416)
I0222 17:35:27.858516 24465 net.cpp:129] Top shape: 1 26 16 (416)
I0222 17:35:27.858518 24465 net.cpp:137] Memory required for data: 699712
I0222 17:35:27.858521 24465 layer_factory.hpp:77] Creating layer h_17_lstm1_unit_17_1_split
I0222 17:35:27.858525 24465 net.cpp:84] Creating Layer h_17_lstm1_unit_17_1_split
I0222 17:35:27.858530 24465 net.cpp:406] h_17_lstm1_unit_17_1_split <- h_17
I0222 17:35:27.858534 24465 net.cpp:380] h_17_lstm1_unit_17_1_split -> h_17_lstm1_unit_17_1_split_0
I0222 17:35:27.858539 24465 net.cpp:380] h_17_lstm1_unit_17_1_split -> h_17_lstm1_unit_17_1_split_1
I0222 17:35:27.858557 24465 net.cpp:122] Setting up h_17_lstm1_unit_17_1_split
I0222 17:35:27.858561 24465 net.cpp:129] Top shape: 1 26 16 (416)
I0222 17:35:27.858566 24465 net.cpp:129] Top shape: 1 26 16 (416)
I0222 17:35:27.858567 24465 net.cpp:137] Memory required for data: 703040
I0222 17:35:27.858570 24465 layer_factory.hpp:77] Creating layer lstm1_h_conted_17
I0222 17:35:27.858574 24465 net.cpp:84] Creating Layer lstm1_h_conted_17
I0222 17:35:27.858578 24465 net.cpp:406] lstm1_h_conted_17 <- h_17_lstm1_unit_17_1_split_0
I0222 17:35:27.858582 24465 net.cpp:406] lstm1_h_conted_17 <- cont_18_lstm1_cont_slice_17_split_0
I0222 17:35:27.858587 24465 net.cpp:380] lstm1_h_conted_17 -> h_conted_17
I0222 17:35:27.858616 24465 net.cpp:122] Setting up lstm1_h_conted_17
I0222 17:35:27.858621 24465 net.cpp:129] Top shape: 1 26 16 (416)
I0222 17:35:27.858624 24465 net.cpp:137] Memory required for data: 704704
I0222 17:35:27.858628 24465 layer_factory.hpp:77] Creating layer lstm1_transform_18
I0222 17:35:27.858633 24465 net.cpp:84] Creating Layer lstm1_transform_18
I0222 17:35:27.858635 24465 net.cpp:406] lstm1_transform_18 <- h_conted_17
I0222 17:35:27.884099 24465 net.cpp:380] lstm1_transform_18 -> W_hc_h_17
I0222 17:35:27.884156 24465 net.cpp:122] Setting up lstm1_transform_18
I0222 17:35:27.884163 24465 net.cpp:129] Top shape: 1 26 64 (1664)
I0222 17:35:27.884166 24465 net.cpp:137] Memory required for data: 711360
I0222 17:35:27.884171 24465 net.cpp:465] Sharing parameters 'W_hc' owned by layer 'lstm1_transform_1', param index 0
I0222 17:35:27.884173 24465 layer_factory.hpp:77] Creating layer lstm1_gate_input_18
I0222 17:35:27.884181 24465 net.cpp:84] Creating Layer lstm1_gate_input_18
I0222 17:35:27.884183 24465 net.cpp:406] lstm1_gate_input_18 <- W_hc_h_17
I0222 17:35:27.884187 24465 net.cpp:406] lstm1_gate_input_18 <- W_xc_x_18
I0222 17:35:27.884192 24465 net.cpp:380] lstm1_gate_input_18 -> gate_input_18
I0222 17:35:27.884207 24465 net.cpp:122] Setting up lstm1_gate_input_18
I0222 17:35:27.884212 24465 net.cpp:129] Top shape: 1 26 64 (1664)
I0222 17:35:27.884215 24465 net.cpp:137] Memory required for data: 718016
I0222 17:35:27.884217 24465 layer_factory.hpp:77] Creating layer lstm1_unit_18
I0222 17:35:27.884222 24465 net.cpp:84] Creating Layer lstm1_unit_18
I0222 17:35:27.884227 24465 net.cpp:406] lstm1_unit_18 <- c_17
I0222 17:35:27.884232 24465 net.cpp:406] lstm1_unit_18 <- gate_input_18
I0222 17:35:27.884235 24465 net.cpp:406] lstm1_unit_18 <- cont_18_lstm1_cont_slice_17_split_1
I0222 17:35:27.884239 24465 net.cpp:380] lstm1_unit_18 -> c_18
I0222 17:35:27.884244 24465 net.cpp:380] lstm1_unit_18 -> h_18
I0222 17:35:27.884270 24465 net.cpp:122] Setting up lstm1_unit_18
I0222 17:35:27.884274 24465 net.cpp:129] Top shape: 1 26 16 (416)
I0222 17:35:27.884287 24465 net.cpp:129] Top shape: 1 26 16 (416)
I0222 17:35:27.884290 24465 net.cpp:137] Memory required for data: 721344
I0222 17:35:27.884294 24465 layer_factory.hpp:77] Creating layer h_18_lstm1_unit_18_1_split
I0222 17:35:27.884299 24465 net.cpp:84] Creating Layer h_18_lstm1_unit_18_1_split
I0222 17:35:27.884301 24465 net.cpp:406] h_18_lstm1_unit_18_1_split <- h_18
I0222 17:35:27.884305 24465 net.cpp:380] h_18_lstm1_unit_18_1_split -> h_18_lstm1_unit_18_1_split_0
I0222 17:35:27.884311 24465 net.cpp:380] h_18_lstm1_unit_18_1_split -> h_18_lstm1_unit_18_1_split_1
I0222 17:35:27.884330 24465 net.cpp:122] Setting up h_18_lstm1_unit_18_1_split
I0222 17:35:27.884333 24465 net.cpp:129] Top shape: 1 26 16 (416)
I0222 17:35:27.884337 24465 net.cpp:129] Top shape: 1 26 16 (416)
I0222 17:35:27.884341 24465 net.cpp:137] Memory required for data: 724672
I0222 17:35:27.884343 24465 layer_factory.hpp:77] Creating layer lstm1_h_conted_18
I0222 17:35:27.884349 24465 net.cpp:84] Creating Layer lstm1_h_conted_18
I0222 17:35:27.884352 24465 net.cpp:406] lstm1_h_conted_18 <- h_18_lstm1_unit_18_1_split_0
I0222 17:35:27.884357 24465 net.cpp:406] lstm1_h_conted_18 <- cont_19_lstm1_cont_slice_18_split_0
I0222 17:35:27.884361 24465 net.cpp:380] lstm1_h_conted_18 -> h_conted_18
I0222 17:35:27.884394 24465 net.cpp:122] Setting up lstm1_h_conted_18
I0222 17:35:27.884399 24465 net.cpp:129] Top shape: 1 26 16 (416)
I0222 17:35:27.884402 24465 net.cpp:137] Memory required for data: 726336
I0222 17:35:27.884405 24465 layer_factory.hpp:77] Creating layer lstm1_transform_19
I0222 17:35:27.884410 24465 net.cpp:84] Creating Layer lstm1_transform_19
I0222 17:35:27.884413 24465 net.cpp:406] lstm1_transform_19 <- h_conted_18
I0222 17:35:27.884418 24465 net.cpp:380] lstm1_transform_19 -> W_hc_h_18
I0222 17:35:27.884449 24465 net.cpp:122] Setting up lstm1_transform_19
I0222 17:35:27.884454 24465 net.cpp:129] Top shape: 1 26 64 (1664)
I0222 17:35:27.884457 24465 net.cpp:137] Memory required for data: 732992
I0222 17:35:27.884460 24465 net.cpp:465] Sharing parameters 'W_hc' owned by layer 'lstm1_transform_1', param index 0
I0222 17:35:27.884464 24465 layer_factory.hpp:77] Creating layer lstm1_gate_input_19
I0222 17:35:27.884467 24465 net.cpp:84] Creating Layer lstm1_gate_input_19
I0222 17:35:27.884471 24465 net.cpp:406] lstm1_gate_input_19 <- W_hc_h_18
I0222 17:35:27.884474 24465 net.cpp:406] lstm1_gate_input_19 <- W_xc_x_19
I0222 17:35:27.884479 24465 net.cpp:380] lstm1_gate_input_19 -> gate_input_19
I0222 17:35:27.884492 24465 net.cpp:122] Setting up lstm1_gate_input_19
I0222 17:35:27.884496 24465 net.cpp:129] Top shape: 1 26 64 (1664)
I0222 17:35:27.884500 24465 net.cpp:137] Memory required for data: 739648
I0222 17:35:27.884502 24465 layer_factory.hpp:77] Creating layer lstm1_unit_19
I0222 17:35:27.884506 24465 net.cpp:84] Creating Layer lstm1_unit_19
I0222 17:35:27.884510 24465 net.cpp:406] lstm1_unit_19 <- c_18
I0222 17:35:27.884515 24465 net.cpp:406] lstm1_unit_19 <- gate_input_19
I0222 17:35:27.884517 24465 net.cpp:406] lstm1_unit_19 <- cont_19_lstm1_cont_slice_18_split_1
I0222 17:35:27.884521 24465 net.cpp:380] lstm1_unit_19 -> c_19
I0222 17:35:27.884527 24465 net.cpp:380] lstm1_unit_19 -> h_19
I0222 17:35:27.884552 24465 net.cpp:122] Setting up lstm1_unit_19
I0222 17:35:27.884555 24465 net.cpp:129] Top shape: 1 26 16 (416)
I0222 17:35:27.884559 24465 net.cpp:129] Top shape: 1 26 16 (416)
I0222 17:35:27.884562 24465 net.cpp:137] Memory required for data: 742976
I0222 17:35:27.884565 24465 layer_factory.hpp:77] Creating layer h_19_lstm1_unit_19_1_split
I0222 17:35:27.884569 24465 net.cpp:84] Creating Layer h_19_lstm1_unit_19_1_split
I0222 17:35:27.884572 24465 net.cpp:406] h_19_lstm1_unit_19_1_split <- h_19
I0222 17:35:27.884577 24465 net.cpp:380] h_19_lstm1_unit_19_1_split -> h_19_lstm1_unit_19_1_split_0
I0222 17:35:27.884580 24465 net.cpp:380] h_19_lstm1_unit_19_1_split -> h_19_lstm1_unit_19_1_split_1
I0222 17:35:27.884598 24465 net.cpp:122] Setting up h_19_lstm1_unit_19_1_split
I0222 17:35:27.884603 24465 net.cpp:129] Top shape: 1 26 16 (416)
I0222 17:35:27.884611 24465 net.cpp:129] Top shape: 1 26 16 (416)
I0222 17:35:27.884614 24465 net.cpp:137] Memory required for data: 746304
I0222 17:35:27.884618 24465 layer_factory.hpp:77] Creating layer lstm1_h_conted_19
I0222 17:35:27.884621 24465 net.cpp:84] Creating Layer lstm1_h_conted_19
I0222 17:35:27.884625 24465 net.cpp:406] lstm1_h_conted_19 <- h_19_lstm1_unit_19_1_split_0
I0222 17:35:27.884629 24465 net.cpp:406] lstm1_h_conted_19 <- cont_20_lstm1_cont_slice_19_split_0
I0222 17:35:27.884634 24465 net.cpp:380] lstm1_h_conted_19 -> h_conted_19
I0222 17:35:27.884668 24465 net.cpp:122] Setting up lstm1_h_conted_19
I0222 17:35:27.884672 24465 net.cpp:129] Top shape: 1 26 16 (416)
I0222 17:35:27.884675 24465 net.cpp:137] Memory required for data: 747968
I0222 17:35:27.884678 24465 layer_factory.hpp:77] Creating layer lstm1_transform_20
I0222 17:35:27.884685 24465 net.cpp:84] Creating Layer lstm1_transform_20
I0222 17:35:27.884687 24465 net.cpp:406] lstm1_transform_20 <- h_conted_19
I0222 17:35:27.884691 24465 net.cpp:380] lstm1_transform_20 -> W_hc_h_19
I0222 17:35:27.884722 24465 net.cpp:122] Setting up lstm1_transform_20
I0222 17:35:27.884727 24465 net.cpp:129] Top shape: 1 26 64 (1664)
I0222 17:35:27.884729 24465 net.cpp:137] Memory required for data: 754624
I0222 17:35:27.884732 24465 net.cpp:465] Sharing parameters 'W_hc' owned by layer 'lstm1_transform_1', param index 0
I0222 17:35:27.884737 24465 layer_factory.hpp:77] Creating layer lstm1_gate_input_20
I0222 17:35:27.884740 24465 net.cpp:84] Creating Layer lstm1_gate_input_20
I0222 17:35:27.884743 24465 net.cpp:406] lstm1_gate_input_20 <- W_hc_h_19
I0222 17:35:27.884747 24465 net.cpp:406] lstm1_gate_input_20 <- W_xc_x_20
I0222 17:35:27.884752 24465 net.cpp:380] lstm1_gate_input_20 -> gate_input_20
I0222 17:35:27.884765 24465 net.cpp:122] Setting up lstm1_gate_input_20
I0222 17:35:27.884769 24465 net.cpp:129] Top shape: 1 26 64 (1664)
I0222 17:35:27.884773 24465 net.cpp:137] Memory required for data: 761280
I0222 17:35:27.884775 24465 layer_factory.hpp:77] Creating layer lstm1_unit_20
I0222 17:35:27.884779 24465 net.cpp:84] Creating Layer lstm1_unit_20
I0222 17:35:27.888278 24465 net.cpp:406] lstm1_unit_20 <- c_19
I0222 17:35:27.888288 24465 net.cpp:406] lstm1_unit_20 <- gate_input_20
I0222 17:35:27.888293 24465 net.cpp:406] lstm1_unit_20 <- cont_20_lstm1_cont_slice_19_split_1
I0222 17:35:27.888298 24465 net.cpp:380] lstm1_unit_20 -> c_20
I0222 17:35:27.888304 24465 net.cpp:380] lstm1_unit_20 -> h_20
I0222 17:35:27.888339 24465 net.cpp:122] Setting up lstm1_unit_20
I0222 17:35:27.888345 24465 net.cpp:129] Top shape: 1 26 16 (416)
I0222 17:35:27.888348 24465 net.cpp:129] Top shape: 1 26 16 (416)
I0222 17:35:27.888351 24465 net.cpp:137] Memory required for data: 764608
I0222 17:35:27.888355 24465 layer_factory.hpp:77] Creating layer h_20_lstm1_unit_20_1_split
I0222 17:35:27.888370 24465 net.cpp:84] Creating Layer h_20_lstm1_unit_20_1_split
I0222 17:35:27.888373 24465 net.cpp:406] h_20_lstm1_unit_20_1_split <- h_20
I0222 17:35:27.888378 24465 net.cpp:380] h_20_lstm1_unit_20_1_split -> h_20_lstm1_unit_20_1_split_0
I0222 17:35:27.888383 24465 net.cpp:380] h_20_lstm1_unit_20_1_split -> h_20_lstm1_unit_20_1_split_1
I0222 17:35:27.888402 24465 net.cpp:122] Setting up h_20_lstm1_unit_20_1_split
I0222 17:35:27.888407 24465 net.cpp:129] Top shape: 1 26 16 (416)
I0222 17:35:27.888411 24465 net.cpp:129] Top shape: 1 26 16 (416)
I0222 17:35:27.888413 24465 net.cpp:137] Memory required for data: 767936
I0222 17:35:27.888417 24465 layer_factory.hpp:77] Creating layer lstm1_h_conted_20
I0222 17:35:27.888422 24465 net.cpp:84] Creating Layer lstm1_h_conted_20
I0222 17:35:27.888424 24465 net.cpp:406] lstm1_h_conted_20 <- h_20_lstm1_unit_20_1_split_0
I0222 17:35:27.888428 24465 net.cpp:406] lstm1_h_conted_20 <- cont_21_lstm1_cont_slice_20_split_0
I0222 17:35:27.888433 24465 net.cpp:380] lstm1_h_conted_20 -> h_conted_20
I0222 17:35:27.888464 24465 net.cpp:122] Setting up lstm1_h_conted_20
I0222 17:35:27.888469 24465 net.cpp:129] Top shape: 1 26 16 (416)
I0222 17:35:27.888479 24465 net.cpp:137] Memory required for data: 769600
I0222 17:35:27.888483 24465 layer_factory.hpp:77] Creating layer lstm1_transform_21
I0222 17:35:27.888487 24465 net.cpp:84] Creating Layer lstm1_transform_21
I0222 17:35:27.888491 24465 net.cpp:406] lstm1_transform_21 <- h_conted_20
I0222 17:35:27.888495 24465 net.cpp:380] lstm1_transform_21 -> W_hc_h_20
I0222 17:35:27.888530 24465 net.cpp:122] Setting up lstm1_transform_21
I0222 17:35:27.888535 24465 net.cpp:129] Top shape: 1 26 64 (1664)
I0222 17:35:27.888537 24465 net.cpp:137] Memory required for data: 776256
I0222 17:35:27.888541 24465 net.cpp:465] Sharing parameters 'W_hc' owned by layer 'lstm1_transform_1', param index 0
I0222 17:35:27.888545 24465 layer_factory.hpp:77] Creating layer lstm1_gate_input_21
I0222 17:35:27.888550 24465 net.cpp:84] Creating Layer lstm1_gate_input_21
I0222 17:35:27.888553 24465 net.cpp:406] lstm1_gate_input_21 <- W_hc_h_20
I0222 17:35:27.888557 24465 net.cpp:406] lstm1_gate_input_21 <- W_xc_x_21
I0222 17:35:27.888561 24465 net.cpp:380] lstm1_gate_input_21 -> gate_input_21
I0222 17:35:27.888574 24465 net.cpp:122] Setting up lstm1_gate_input_21
I0222 17:35:27.888579 24465 net.cpp:129] Top shape: 1 26 64 (1664)
I0222 17:35:27.888582 24465 net.cpp:137] Memory required for data: 782912
I0222 17:35:27.888584 24465 layer_factory.hpp:77] Creating layer lstm1_unit_21
I0222 17:35:27.888590 24465 net.cpp:84] Creating Layer lstm1_unit_21
I0222 17:35:27.888593 24465 net.cpp:406] lstm1_unit_21 <- c_20
I0222 17:35:27.888597 24465 net.cpp:406] lstm1_unit_21 <- gate_input_21
I0222 17:35:27.888602 24465 net.cpp:406] lstm1_unit_21 <- cont_21_lstm1_cont_slice_20_split_1
I0222 17:35:27.888605 24465 net.cpp:380] lstm1_unit_21 -> c_21
I0222 17:35:27.888609 24465 net.cpp:380] lstm1_unit_21 -> h_21
I0222 17:35:27.888633 24465 net.cpp:122] Setting up lstm1_unit_21
I0222 17:35:27.888638 24465 net.cpp:129] Top shape: 1 26 16 (416)
I0222 17:35:27.888641 24465 net.cpp:129] Top shape: 1 26 16 (416)
I0222 17:35:27.888644 24465 net.cpp:137] Memory required for data: 786240
I0222 17:35:27.888648 24465 layer_factory.hpp:77] Creating layer h_21_lstm1_unit_21_1_split
I0222 17:35:27.888651 24465 net.cpp:84] Creating Layer h_21_lstm1_unit_21_1_split
I0222 17:35:27.888654 24465 net.cpp:406] h_21_lstm1_unit_21_1_split <- h_21
I0222 17:35:27.888664 24465 net.cpp:380] h_21_lstm1_unit_21_1_split -> h_21_lstm1_unit_21_1_split_0
I0222 17:35:27.888669 24465 net.cpp:380] h_21_lstm1_unit_21_1_split -> h_21_lstm1_unit_21_1_split_1
I0222 17:35:27.888685 24465 net.cpp:122] Setting up h_21_lstm1_unit_21_1_split
I0222 17:35:27.888689 24465 net.cpp:129] Top shape: 1 26 16 (416)
I0222 17:35:27.888694 24465 net.cpp:129] Top shape: 1 26 16 (416)
I0222 17:35:27.888696 24465 net.cpp:137] Memory required for data: 789568
I0222 17:35:27.888700 24465 layer_factory.hpp:77] Creating layer lstm1_h_conted_21
I0222 17:35:27.888705 24465 net.cpp:84] Creating Layer lstm1_h_conted_21
I0222 17:35:27.888707 24465 net.cpp:406] lstm1_h_conted_21 <- h_21_lstm1_unit_21_1_split_0
I0222 17:35:27.888711 24465 net.cpp:406] lstm1_h_conted_21 <- cont_22_lstm1_cont_slice_21_split_0
I0222 17:35:27.888715 24465 net.cpp:380] lstm1_h_conted_21 -> h_conted_21
I0222 17:35:27.888748 24465 net.cpp:122] Setting up lstm1_h_conted_21
I0222 17:35:27.888753 24465 net.cpp:129] Top shape: 1 26 16 (416)
I0222 17:35:27.888756 24465 net.cpp:137] Memory required for data: 791232
I0222 17:35:27.888758 24465 layer_factory.hpp:77] Creating layer lstm1_transform_22
I0222 17:35:27.888763 24465 net.cpp:84] Creating Layer lstm1_transform_22
I0222 17:35:27.888767 24465 net.cpp:406] lstm1_transform_22 <- h_conted_21
I0222 17:35:27.888772 24465 net.cpp:380] lstm1_transform_22 -> W_hc_h_21
I0222 17:35:27.888801 24465 net.cpp:122] Setting up lstm1_transform_22
I0222 17:35:27.888806 24465 net.cpp:129] Top shape: 1 26 64 (1664)
I0222 17:35:27.888809 24465 net.cpp:137] Memory required for data: 797888
I0222 17:35:27.888813 24465 net.cpp:465] Sharing parameters 'W_hc' owned by layer 'lstm1_transform_1', param index 0
I0222 17:35:27.888815 24465 layer_factory.hpp:77] Creating layer lstm1_gate_input_22
I0222 17:35:27.888824 24465 net.cpp:84] Creating Layer lstm1_gate_input_22
I0222 17:35:27.888828 24465 net.cpp:406] lstm1_gate_input_22 <- W_hc_h_21
I0222 17:35:27.888833 24465 net.cpp:406] lstm1_gate_input_22 <- W_xc_x_22
I0222 17:35:27.888837 24465 net.cpp:380] lstm1_gate_input_22 -> gate_input_22
I0222 17:35:27.888850 24465 net.cpp:122] Setting up lstm1_gate_input_22
I0222 17:35:27.888854 24465 net.cpp:129] Top shape: 1 26 64 (1664)
I0222 17:35:27.888857 24465 net.cpp:137] Memory required for data: 804544
I0222 17:35:27.888860 24465 layer_factory.hpp:77] Creating layer lstm1_unit_22
I0222 17:35:27.888864 24465 net.cpp:84] Creating Layer lstm1_unit_22
I0222 17:35:27.888867 24465 net.cpp:406] lstm1_unit_22 <- c_21
I0222 17:35:27.888871 24465 net.cpp:406] lstm1_unit_22 <- gate_input_22
I0222 17:35:27.888875 24465 net.cpp:406] lstm1_unit_22 <- cont_22_lstm1_cont_slice_21_split_1
I0222 17:35:27.888880 24465 net.cpp:380] lstm1_unit_22 -> c_22
I0222 17:35:27.888885 24465 net.cpp:380] lstm1_unit_22 -> h_22
I0222 17:35:27.888909 24465 net.cpp:122] Setting up lstm1_unit_22
I0222 17:35:27.888913 24465 net.cpp:129] Top shape: 1 26 16 (416)
I0222 17:35:27.888917 24465 net.cpp:129] Top shape: 1 26 16 (416)
I0222 17:35:27.888921 24465 net.cpp:137] Memory required for data: 807872
I0222 17:35:27.888922 24465 layer_factory.hpp:77] Creating layer h_22_lstm1_unit_22_1_split
I0222 17:35:27.888926 24465 net.cpp:84] Creating Layer h_22_lstm1_unit_22_1_split
I0222 17:35:27.888931 24465 net.cpp:406] h_22_lstm1_unit_22_1_split <- h_22
I0222 17:35:27.888933 24465 net.cpp:380] h_22_lstm1_unit_22_1_split -> h_22_lstm1_unit_22_1_split_0
I0222 17:35:27.888938 24465 net.cpp:380] h_22_lstm1_unit_22_1_split -> h_22_lstm1_unit_22_1_split_1
I0222 17:35:27.888955 24465 net.cpp:122] Setting up h_22_lstm1_unit_22_1_split
I0222 17:35:27.888960 24465 net.cpp:129] Top shape: 1 26 16 (416)
I0222 17:35:27.888963 24465 net.cpp:129] Top shape: 1 26 16 (416)
I0222 17:35:27.914424 24465 net.cpp:137] Memory required for data: 811200
I0222 17:35:27.914433 24465 layer_factory.hpp:77] Creating layer lstm1_h_conted_22
I0222 17:35:27.914440 24465 net.cpp:84] Creating Layer lstm1_h_conted_22
I0222 17:35:27.914444 24465 net.cpp:406] lstm1_h_conted_22 <- h_22_lstm1_unit_22_1_split_0
I0222 17:35:27.914450 24465 net.cpp:406] lstm1_h_conted_22 <- cont_23_lstm1_cont_slice_22_split_0
I0222 17:35:27.914458 24465 net.cpp:380] lstm1_h_conted_22 -> h_conted_22
I0222 17:35:27.914507 24465 net.cpp:122] Setting up lstm1_h_conted_22
I0222 17:35:27.914513 24465 net.cpp:129] Top shape: 1 26 16 (416)
I0222 17:35:27.914516 24465 net.cpp:137] Memory required for data: 812864
I0222 17:35:27.914518 24465 layer_factory.hpp:77] Creating layer lstm1_transform_23
I0222 17:35:27.914525 24465 net.cpp:84] Creating Layer lstm1_transform_23
I0222 17:35:27.914527 24465 net.cpp:406] lstm1_transform_23 <- h_conted_22
I0222 17:35:27.914531 24465 net.cpp:380] lstm1_transform_23 -> W_hc_h_22
I0222 17:35:27.914583 24465 net.cpp:122] Setting up lstm1_transform_23
I0222 17:35:27.914590 24465 net.cpp:129] Top shape: 1 26 64 (1664)
I0222 17:35:27.914593 24465 net.cpp:137] Memory required for data: 819520
I0222 17:35:27.914597 24465 net.cpp:465] Sharing parameters 'W_hc' owned by layer 'lstm1_transform_1', param index 0
I0222 17:35:27.914599 24465 layer_factory.hpp:77] Creating layer lstm1_gate_input_23
I0222 17:35:27.914603 24465 net.cpp:84] Creating Layer lstm1_gate_input_23
I0222 17:35:27.914607 24465 net.cpp:406] lstm1_gate_input_23 <- W_hc_h_22
I0222 17:35:27.914610 24465 net.cpp:406] lstm1_gate_input_23 <- W_xc_x_23
I0222 17:35:27.914613 24465 net.cpp:380] lstm1_gate_input_23 -> gate_input_23
I0222 17:35:27.914628 24465 net.cpp:122] Setting up lstm1_gate_input_23
I0222 17:35:27.914633 24465 net.cpp:129] Top shape: 1 26 64 (1664)
I0222 17:35:27.914635 24465 net.cpp:137] Memory required for data: 826176
I0222 17:35:27.914638 24465 layer_factory.hpp:77] Creating layer lstm1_unit_23
I0222 17:35:27.914644 24465 net.cpp:84] Creating Layer lstm1_unit_23
I0222 17:35:27.914657 24465 net.cpp:406] lstm1_unit_23 <- c_22
I0222 17:35:27.914662 24465 net.cpp:406] lstm1_unit_23 <- gate_input_23
I0222 17:35:27.914666 24465 net.cpp:406] lstm1_unit_23 <- cont_23_lstm1_cont_slice_22_split_1
I0222 17:35:27.914670 24465 net.cpp:380] lstm1_unit_23 -> c_23
I0222 17:35:27.914675 24465 net.cpp:380] lstm1_unit_23 -> h_23
I0222 17:35:27.914701 24465 net.cpp:122] Setting up lstm1_unit_23
I0222 17:35:27.914705 24465 net.cpp:129] Top shape: 1 26 16 (416)
I0222 17:35:27.914710 24465 net.cpp:129] Top shape: 1 26 16 (416)
I0222 17:35:27.914712 24465 net.cpp:137] Memory required for data: 829504
I0222 17:35:27.914716 24465 layer_factory.hpp:77] Creating layer h_23_lstm1_unit_23_1_split
I0222 17:35:27.914721 24465 net.cpp:84] Creating Layer h_23_lstm1_unit_23_1_split
I0222 17:35:27.914723 24465 net.cpp:406] h_23_lstm1_unit_23_1_split <- h_23
I0222 17:35:27.914727 24465 net.cpp:380] h_23_lstm1_unit_23_1_split -> h_23_lstm1_unit_23_1_split_0
I0222 17:35:27.914732 24465 net.cpp:380] h_23_lstm1_unit_23_1_split -> h_23_lstm1_unit_23_1_split_1
I0222 17:35:27.914750 24465 net.cpp:122] Setting up h_23_lstm1_unit_23_1_split
I0222 17:35:27.914754 24465 net.cpp:129] Top shape: 1 26 16 (416)
I0222 17:35:27.914758 24465 net.cpp:129] Top shape: 1 26 16 (416)
I0222 17:35:27.914762 24465 net.cpp:137] Memory required for data: 832832
I0222 17:35:27.914764 24465 layer_factory.hpp:77] Creating layer lstm1_h_conted_23
I0222 17:35:27.914768 24465 net.cpp:84] Creating Layer lstm1_h_conted_23
I0222 17:35:27.914772 24465 net.cpp:406] lstm1_h_conted_23 <- h_23_lstm1_unit_23_1_split_0
I0222 17:35:27.914775 24465 net.cpp:406] lstm1_h_conted_23 <- cont_24_lstm1_cont_slice_23_split_0
I0222 17:35:27.914779 24465 net.cpp:380] lstm1_h_conted_23 -> h_conted_23
I0222 17:35:27.914811 24465 net.cpp:122] Setting up lstm1_h_conted_23
I0222 17:35:27.914816 24465 net.cpp:129] Top shape: 1 26 16 (416)
I0222 17:35:27.914819 24465 net.cpp:137] Memory required for data: 834496
I0222 17:35:27.914822 24465 layer_factory.hpp:77] Creating layer lstm1_transform_24
I0222 17:35:27.914826 24465 net.cpp:84] Creating Layer lstm1_transform_24
I0222 17:35:27.914829 24465 net.cpp:406] lstm1_transform_24 <- h_conted_23
I0222 17:35:27.914834 24465 net.cpp:380] lstm1_transform_24 -> W_hc_h_23
I0222 17:35:27.914866 24465 net.cpp:122] Setting up lstm1_transform_24
I0222 17:35:27.914871 24465 net.cpp:129] Top shape: 1 26 64 (1664)
I0222 17:35:27.914875 24465 net.cpp:137] Memory required for data: 841152
I0222 17:35:27.914877 24465 net.cpp:465] Sharing parameters 'W_hc' owned by layer 'lstm1_transform_1', param index 0
I0222 17:35:27.914881 24465 layer_factory.hpp:77] Creating layer lstm1_gate_input_24
I0222 17:35:27.914885 24465 net.cpp:84] Creating Layer lstm1_gate_input_24
I0222 17:35:27.914888 24465 net.cpp:406] lstm1_gate_input_24 <- W_hc_h_23
I0222 17:35:27.914892 24465 net.cpp:406] lstm1_gate_input_24 <- W_xc_x_24
I0222 17:35:27.914896 24465 net.cpp:380] lstm1_gate_input_24 -> gate_input_24
I0222 17:35:27.914909 24465 net.cpp:122] Setting up lstm1_gate_input_24
I0222 17:35:27.914913 24465 net.cpp:129] Top shape: 1 26 64 (1664)
I0222 17:35:27.914916 24465 net.cpp:137] Memory required for data: 847808
I0222 17:35:27.914919 24465 layer_factory.hpp:77] Creating layer lstm1_unit_24
I0222 17:35:27.914924 24465 net.cpp:84] Creating Layer lstm1_unit_24
I0222 17:35:27.914928 24465 net.cpp:406] lstm1_unit_24 <- c_23
I0222 17:35:27.914932 24465 net.cpp:406] lstm1_unit_24 <- gate_input_24
I0222 17:35:27.914935 24465 net.cpp:406] lstm1_unit_24 <- cont_24_lstm1_cont_slice_23_split_1
I0222 17:35:27.914939 24465 net.cpp:380] lstm1_unit_24 -> c_24
I0222 17:35:27.914944 24465 net.cpp:380] lstm1_unit_24 -> h_24
I0222 17:35:27.914968 24465 net.cpp:122] Setting up lstm1_unit_24
I0222 17:35:27.914973 24465 net.cpp:129] Top shape: 1 26 16 (416)
I0222 17:35:27.914976 24465 net.cpp:129] Top shape: 1 26 16 (416)
I0222 17:35:27.914979 24465 net.cpp:137] Memory required for data: 851136
I0222 17:35:27.914983 24465 layer_factory.hpp:77] Creating layer lstm1_
I0222 17:35:27.914986 24465 net.cpp:84] Creating Layer lstm1_
I0222 17:35:27.914994 24465 net.cpp:406] lstm1_ <- c_24
I0222 17:35:27.914999 24465 net.cpp:380] lstm1_ -> c_T
I0222 17:35:27.915011 24465 net.cpp:122] Setting up lstm1_
I0222 17:35:27.915016 24465 net.cpp:129] Top shape: 1 26 16 (416)
I0222 17:35:27.915019 24465 net.cpp:137] Memory required for data: 852800
I0222 17:35:27.915022 24465 layer_factory.hpp:77] Creating layer lstm1_h_concat
I0222 17:35:27.915027 24465 net.cpp:84] Creating Layer lstm1_h_concat
I0222 17:35:27.915031 24465 net.cpp:406] lstm1_h_concat <- h_1_lstm1_unit_1_1_split_1
I0222 17:35:27.915035 24465 net.cpp:406] lstm1_h_concat <- h_2_lstm1_unit_2_1_split_1
…
