…
  top: "data"
  data_param {
    source: "/home/leonida/ThesisCode/LSTM_on_Create2/NavDatabases/LAB-21-2-new-step-condition/states_db-2-21-15-4_lmdb"
    batch_size: 24
    backend: LMDB
  }
}
layer {
  name: "label"
  type: "Data"
  top: "labels"
  data_param {
    source: "/home/leonida/ThesisCode/LSTM_on_Create2/NavDatabases/LAB-21-2-new-step-condition/labels_db-2-21-15-4_twist-variant_lmdb"
    batch_size: 24
    backend: LMDB
  }
}
layer {
  name: "clip"
  type: "Input"
  top: "clip"
  input_param {
    shape {
      dim: 24
      dim: 26
    }
  }
}
layer {
  name: "lstm1"
  type: "LSTM"
  bottom: "data"
  bottom: "clip"
  top: "lstm1"
  recurrent_param {
    num_output: 64
    weight_filler {
      type: "xavier"
    }
    bias_filler {
      type: "constant"
    }
  }
}
layer {
  name: "bn1"
  type: "BatchNorm"
  bottom: "lstm1"
  top: "bn1"
  batch_norm_param {
    use_global_stats: false
  }
}
layer {
  name: "lstm2"
  type: "LSTM"
  bottom: "bn1"
  bottom: "clip"
  top: "lstm2"
  recurrent_param {
    num_output: 64
    weight_filler {
      type: "xavier"
    }
    bias_filler {
      type: "constant"
    }
  }
}
layer {
  name: "out"
  type: "InnerProduct"
  bottom: "lstm2"
  top: "out"
  inner_product_param {
    num_output: 2
    weight_filler {
      type: "gaussian"
      std: 0.1
    }
    bias_filler {
      type: "constant"
    }
  }
}
layer {
  name: "euclideanLoss"
  type: "EuclideanLoss"
  bottom: "out"
  bottom: "labels"
  top: "loss"
}
I0222 17:46:33.131747 25487 layer_factory.hpp:77] Creating layer data
I0222 17:46:33.131846 25487 db_lmdb.cpp:35] Opened lmdb /home/leonida/ThesisCode/LSTM_on_Create2/NavDatabases/LAB-21-2-new-step-condition/states_db-2-21-15-4_lmdb
I0222 17:46:33.131891 25487 net.cpp:84] Creating Layer data
I0222 17:46:33.131897 25487 net.cpp:380] data -> data
I0222 17:46:33.132556 25487 data_layer.cpp:45] output data size: 24,26,1,1
I0222 17:46:33.135320 25487 net.cpp:122] Setting up data
I0222 17:46:33.135335 25487 net.cpp:129] Top shape: 24 26 1 1 (624)
I0222 17:46:33.135344 25487 net.cpp:137] Memory required for data: 2496
I0222 17:46:33.135365 25487 layer_factory.hpp:77] Creating layer label
I0222 17:46:33.135426 25487 db_lmdb.cpp:35] Opened lmdb /home/leonida/ThesisCode/LSTM_on_Create2/NavDatabases/LAB-21-2-new-step-condition/labels_db-2-21-15-4_twist-variant_lmdb
I0222 17:46:33.135437 25487 net.cpp:84] Creating Layer label
I0222 17:46:33.135440 25487 net.cpp:380] label -> labels
I0222 17:46:33.135493 25487 data_layer.cpp:45] output data size: 24,2,1,1
I0222 17:46:33.137257 25487 net.cpp:122] Setting up label
I0222 17:46:33.137281 25487 net.cpp:129] Top shape: 24 2 1 1 (48)
I0222 17:46:33.137285 25487 net.cpp:137] Memory required for data: 2688
I0222 17:46:33.137289 25487 layer_factory.hpp:77] Creating layer clip
I0222 17:46:33.137300 25487 net.cpp:84] Creating Layer clip
I0222 17:46:33.137303 25487 net.cpp:380] clip -> clip
I0222 17:46:33.137390 25487 net.cpp:122] Setting up clip
I0222 17:46:33.137396 25487 net.cpp:129] Top shape: 24 26 (624)
I0222 17:46:33.137398 25487 net.cpp:137] Memory required for data: 5184
I0222 17:46:33.137401 25487 layer_factory.hpp:77] Creating layer clip_clip_0_split
I0222 17:46:33.137408 25487 net.cpp:84] Creating Layer clip_clip_0_split
I0222 17:46:33.137436 25487 net.cpp:406] clip_clip_0_split <- clip
I0222 17:46:33.137444 25487 net.cpp:380] clip_clip_0_split -> clip_clip_0_split_0
I0222 17:46:33.137447 25487 net.cpp:380] clip_clip_0_split -> clip_clip_0_split_1
I0222 17:46:33.137491 25487 net.cpp:122] Setting up clip_clip_0_split
I0222 17:46:33.137496 25487 net.cpp:129] Top shape: 24 26 (624)
I0222 17:46:33.137501 25487 net.cpp:129] Top shape: 24 26 (624)
I0222 17:46:33.137502 25487 net.cpp:137] Memory required for data: 10176
I0222 17:46:33.137504 25487 layer_factory.hpp:77] Creating layer lstm1
I0222 17:46:33.137537 25487 net.cpp:84] Creating Layer lstm1
I0222 17:46:33.137539 25487 net.cpp:406] lstm1 <- data
I0222 17:46:33.137544 25487 net.cpp:406] lstm1 <- clip_clip_0_split_0
I0222 17:46:33.137548 25487 net.cpp:380] lstm1 -> lstm1
I0222 17:46:33.137557 25487 recurrent_layer.cpp:20] Initializing recurrent layer: assuming input batch contains 24 timesteps of 26 independent streams.
I0222 17:46:33.138118 25487 net.cpp:51] Initializing net from parameters: 
layer {
  name: "lstm1_"
  type: "Input"
  top: "x"
  top: "cont"
  input_param {
    shape {
      dim: 24
      dim: 26
      dim: 1
      dim: 1
    }
    shape {
      dim: 24
      dim: 26
    }
  }
}
layer {
  name: "lstm1_"
  type: "Input"
  top: "c_0"
  top: "h_0"
  input_param {
    shape {
      dim: 1
      dim: 26
      dim: 64
    }
    shape {
      dim: 1
      dim: 26
      dim: 64
    }
  }
}
layer {
  name: "lstm1_cont_slice"
  type: "Slice"
  bottom: "cont"
  top: "cont_1"
  top: "cont_2"
  top: "cont_3"
  top: "cont_4"
  top: "cont_5"
  top: "cont_6"
  top: "cont_7"
  top: "cont_8"
  top: "cont_9"
  top: "cont_10"
  top: "cont_11"
  top: "cont_12"
  top: "cont_13"
  top: "cont_14"
  top: "cont_15"
  top: "cont_16"
  top: "cont_17"
  top: "cont_18"
  top: "cont_19"
  top: "cont_20"
  top: "cont_21"
  top: "cont_22"
  top: "cont_23"
  top: "cont_24"
  slice_param {
    axis: 0
  }
}
layer {
  name: "lstm1_x_transform"
  type: "InnerProduct"
  bottom: "x"
  top: "W_xc_x"
  param {
    name: "W_xc"
  }
  param {
    name: "b_c"
  }
  propagate_down: true
  inner_product_param {
    num_output: 256
    bias_term: true
    weight_filler {
      type: "xavier"
    }
    bias_filler {
      type: "constant"
    }
    axis: 2
  }
}
layer {
  name: "lstm1_W_xc_x_slice"
  type: "Slice"
  bottom: "W_xc_x"
  top: "W_xc_x_1"
  top: "W_xc_x_2"
  top: "W_xc_x_3"
  top: "W_xc_x_4"
  top: "W_xc_x_5"
  top: "W_xc_x_6"
  top: "W_xc_x_7"
  top: "W_xc_x_8"
  top: "W_xc_x_9"
  top: "W_xc_x_10"
  top: "W_xc_x_11"
  top: "W_xc_x_12"
  top: "W_xc_x_13"
  top: "W_xc_x_14"
  top: "W_xc_x_15"
  top: "W_xc_x_16"
  top: "W_xc_x_17"
  top: "W_xc_x_18"
  top: "W_xc_x_19"
  top: "W_xc_x_20"
  top: "W_xc_x_21"
  top: "W_xc_x_22"
  top: "W_xc_x_23"
  top: "W_xc_x_24"
  slice_param {
    axis: 0
  }
}
layer {
  name: "lstm1_h_conted_0"
  type: "Scale"
  bottom: "h_0"
  bottom: "cont_1"
  top: "h_conted_0"
  scale_param {
    axis: 0
  }
}
layer {
  name: "lstm1_transform_1"
  type: "InnerProduct"
  bottom: "h_conted_0"
  top: "W_hc_h_0"
  param {
    name: "W_hc"
  }
  inner_product_param {
    num_output: 256
    bias_term: false
    weight_filler {
      type: "xavier"
    }
    axis: 2
  }
}
layer {
  name: "lstm1_gate_input_1"
  type: "Eltwise"
  bottom: "W_hc_h_0"
  bottom: "W_xc_x_1"
  top: "gate_input_1"
  eltwise_param {
    operation: SUM
  }
}
layer {
  name: "lstm1_unit_1"
  type: "LSTMUnit"
  bottom: "c_0"
  bottom: "gate_input_1"
  bottom: "cont_1"
  top: "c_1"
  top: "h_1"
}
layer {
  name: "lstm1_h_conted_1"
  type: "Scale"
  bottom: "h_1"
  bottom: "cont_2"
  top: "h_conted_1"
  scale_param {
    axis: 0
  }
}
layer {
  name: "lstm1_transform_2"
  type: "InnerProduct"
  bottom: "h_conted_1"
  top: "W_hc_h_1"
  param {
    name: "W_hc"
  }
  inner_product_param {
    num_output: 256
    bias_term: false
    weight_filler {
      type: "xavier"
    }
    axis: 2
  }
}
layer {
  name: "lstm1_gate_input_2"
  type: "Eltwise"
  bottom: "W_hc_h_1"
  bottom: "W_xc_x_2"
  top: "gate_input_2"
  eltwise_param {
    operation: SUM
  }
}
layer {
  name: "lstm1_unit_2"
  type: "LSTMUnit"
  bottom: "c_1"
  bottom: "gate_input_2"
  bottom: "cont_2"
  top: "c_2"
  top: "h_2"
}
layer {
  name: "lstm1_h_conted_2"
  type: "Scale"
  bottom: "h_2"
  bottom: "cont_3"
  top: "h_conted_2"
  scale_param {
    axis: 0
  }
}
layer {
  name: "lstm1_transform_3"
  type: "InnerProduct"
  bottom: "h_conted_2"
  top: "W_hc_h_2"
  param {
    name: "W_hc"
  }
  inner_product_param {
    num_output: 256
    bias_term: false
    weight_filler {
      type: "xavier"
    }
    axis: 2
  }
}
layer {
  name: "lstm1_gate_input_3"
  type: "Eltwise"
  bottom: "W_hc_h_2"
  bottom: "W_xc_x_3"
  top: "gate_input_3"
  eltwise_param {
    operation: SUM
  }
}
layer {
  name: "lstm1_unit_3"
  type: "LSTMUnit"
  bottom: "c_2"
  bottom: "gate_input_3"
  bottom: "cont_3"
  top: "c_3"
  top: "h_3"
}
layer {
  name: "lstm1_h_conted_3"
  type: "Scale"
  bottom: "h_3"
  bottom: "cont_4"
  top: "h_conted_3"
  scale_param {
    axis: 0
  }
}
layer {
  name: "lstm1_transform_4"
  type: "InnerProduct"
  bottom: "h_conted_3"
  top: "W_hc_h_3"
  param {
    name: "W_hc"
  }
  inner_product_param {
    num_output: 256
    bias_term: false
    weight_filler {
      type: "xavier"
    }
    axis: 2
  }
}
layer {
  name: "lstm1_gate_input_4"
  type: "Eltwise"
  bottom: "W_hc_h_3"
  bottom: "W_xc_x_4"
  top: "gate_input_4"
  eltwise_param {
    operation: SUM
  }
}
layer {
  name: "lstm1_unit_4"
  type: "LSTMUnit"
  bottom: "c_3"
  bottom: "gate_input_4"
  bottom: "cont_4"
  top: "c_4"
  top: "h_4"
}
layer {
  name: "lstm1_h_conted_4"
  type: "Scale"
  bottom: "h_4"
  bottom: "cont_5"
  top: "h_conted_4"
  scale_param {
    axis: 0
  }
}
layer {
  name: "lstm1_transform_5"
  type: "InnerProduct"
  bottom: "h_conted_4"
  top: "W_hc_h_4"
  param {
    name: "W_hc"
  }
  inner_product_param {
    num_output: 256
    bias_term: false
    weight_filler {
      type: "xavier"
    }
    axis: 2
  }
}
layer {
  name: "lstm1_gate_input_5"
  type: "Eltwise"
  bottom: "W_hc_h_4"
  bottom: "W_xc_x_5"
  top: "gate_input_5"
  eltwise_param {
    operation: SUM
  }
}
layer {
  name: "lstm1_unit_5"
  type: "LSTMUnit"
  bottom: "c_4"
  bottom: "gate_input_5"
  bottom: "cont_5"
  top: "c_5"
  top: "h_5"
}
layer {
  name: "lstm1_h_conted_5"
  type: "Scale"
  bottom: "h_5"
  bottom: "cont_6"
  top: "h_conted_5"
  scale_param {
    axis: 0
  }
}
layer {
  name: "lstm1_transform_6"
  type: "InnerProduct"
  bottom: "h_conted_5"
  top: "W_hc_h_5"
  param {
    name: "W_hc"
  }
  inner_product_param {
    num_output: 256
    bias_term: false
    weight_filler {
      type: "xavier"
    }
    axis: 2
  }
}
layer {
  name: "lstm1_gate_input_6"
  type: "Eltwise"
  bottom: "W_hc_h_5"
  bottom: "W_xc_x_6"
  top: "gate_input_6"
  eltwise_param {
    operation: SUM
  }
}
layer {
  name: "lstm1_unit_6"
  type: "LSTMUnit"
  bottom: "c_5"
  bottom: "gate_input_6"
  bottom: "cont_6"
  top: "c_6"
  top: "h_6"
}
layer {
  name: "lstm1_h_conted_6"
  type: "Scale"
  bottom: "h_6"
  bottom: "cont_7"
  top: "h_conted_6"
  scale_param {
    axis: 0
  }
}
layer {
  name: "lstm1_transform_7"
  type: "InnerProduct"
  bottom: "h_conted_6"
  top: "W_hc_h_6"
  param {
    name: "W_hc"
  }
  inner_product_param {
    num_output: 256
    bias_term: false
    weight_filler {
      type: "xavier"
    }
    axis: 2
  }
}
layer {
  name: "lstm1_gate_input_7"
  type: "Eltwise"
  bottom: "W_hc_h_6"
  bottom: "W_xc_x_7"
  top: "gate_input_7"
  eltwise_param {
    operation: SUM
  }
}
layer {
  name: "lstm1_unit_7"
  type: "LSTMUnit"
  bottom: "c_6"
  bottom: "gate_input_7"
  bottom: "cont_7"
  top: "c_7"
  top: "h_7"
}
layer {
  name: "lstm1_h_conted_7"
  type: "Scale"
  bottom: "h_7"
  bottom: "cont_8"
  top: "h_conted_7"
  scale_param {
    axis: 0
  }
}
layer {
  name: "lstm1_transform_8"
  type: "InnerProduct"
  bottom: "h_conted_7"
  top: "W_hc_h_7"
  param {
    name: "W_hc"
  }
  inner_product_param {
    num_output: 256
    bias_term: false
    weight_filler {
      type: "xavier"
    }
    axis: 2
  }
}
layer {
  name: "lstm1_gate_input_8"
  type: "Eltwise"
  bottom: "W_hc_h_7"
  bottom: "W_xc_x_8"
  top: "gate_input_8"
  eltwise_param {
    operation: SUM
  }
}
layer {
  name: "lstm1_unit_8"
  type: "LSTMUnit"
  bottom: "c_7"
  bottom: "gate_input_8"
  bottom: "cont_8"
  top: "c_8"
  top: "h_8"
}
layer {
  name: "lstm1_h_conted_8"
  type: "Scale"
  bottom: "h_8"
  bottom: "cont_9"
  top: "h_conted_8"
  scale_param {
    axis: 0
  }
}
layer {
  name: "lstm1_transform_9"
  type: "InnerProduct"
  bottom: "h_conted_8"
  top: "W_hc_h_8"
  param {
    name: "W_hc"
  }
  inner_product_param {
    num_output: 256
    bias_term: false
    weight_filler {
      type: "xavier"
    }
    axis: 2
  }
}
layer {
  name: "lstm1_gate_input_9"
  type: "Eltwise"
  bottom: "W_hc_h_8"
  bottom: "W_xc_x_9"
  top: "gate_input_9"
  eltwise_param {
    operation: SUM
  }
}
layer {
  name: "lstm1_unit_9"
  type: "LSTMUnit"
  bottom: "c_8"
  bottom: "gate_input_9"
  bottom: "cont_9"
  top: "c_9"
  top: "h_9"
}
layer {
  name: "lstm1_h_conted_9"
  type: "Scale"
  bottom: "h_9"
  bottom: "cont_10"
  top: "h_conted_9"
  scale_param {
    axis: 0
  }
}
layer {
  name: "lstm1_transform_10"
  type: "InnerProduct"
  bottom: "h_conted_9"
  top: "W_hc_h_9"
  param {
    name: "W_hc"
  }
  inner_product_param {
    num_output: 256
    bias_term: false
    weight_filler {
      type: "xavier"
    }
    axis: 2
  }
}
layer {
  name: "lstm1_gate_input_10"
  type: "Eltwise"
  bottom: "W_hc_h_9"
  bottom: "W_xc_x_10"
  top: "gate_input_10"
  eltwise_param {
    operation: SUM
  }
}
layer {
  name: "lstm1_unit_10"
  type: "LSTMUnit"
  bottom: "c_9"
  bottom: "gate_input_10"
  bottom: "cont_10"
  top: "c_10"
  top: "h_10"
}
layer {
  name: "lstm1_h_conted_10"
  type: "Scale"
  bottom: "h_10"
  bottom: "cont_11"
  top: "h_conted_10"
  scale_param {
    axis: 0
  }
}
layer {
  name: "lstm1_transform_11"
  type: "InnerProduct"
  bottom: "h_conted_10"
  top: "W_hc_h_10"
  param {
    name: "W_hc"
  }
  inner_product_param {
    num_output: 256
    bias_term: false
    weight_filler {
      type: "xavier"
    }
    axis: 2
  }
}
layer {
  name: "lstm1_gate_input_11"
  type: "Eltwise"
  bottom: "W_hc_h_10"
  bottom: "W_xc_x_11"
  top: "gate_input_11"
  eltwise_param {
    operation: SUM
  }
}
layer {
  name: "lstm1_unit_11"
  type: "LSTMUnit"
  bottom: "c_10"
  bottom: "gate_input_11"
  bottom: "cont_11"
  top: "c_11"
  top: "h_11"
}
layer {
  name: "lstm1_h_conted_11"
  type: "Scale"
  bottom: "h_11"
  bottom: "cont_12"
  top: "h_conted_11"
  scale_param {
    axis: 0
  }
}
layer {
  name: "lstm1_transform_12"
  type: "InnerProduct"
  bottom: "h_conted_11"
  top: "W_hc_h_11"
  param {
    name: "W_hc"
  }
  inner_product_param {
    num_output: 256
    bias_term: false
    weight_filler {
      type: "xavier"
    }
    axis: 2
  }
}
layer {
  name: "lstm1_gate_input_12"
  type: "Eltwise"
  bottom: "W_hc_h_11"
  bottom: "W_xc_x_12"
  top: "gate_input_12"
  eltwise_param {
    operation: SUM
  }
}
layer {
  name: "lstm1_unit_12"
  type: "LSTMUnit"
  bottom: "c_11"
  bottom: "gate_input_12"
  bottom: "cont_12"
  top: "c_12"
  top: "h_12"
}
layer {
  name: "lstm1_h_conted_12"
  type: "Scale"
  bottom: "h_12"
  bottom: "cont_13"
  top: "h_conted_12"
  scale_param {
    axis: 0
  }
}
layer {
  name: "lstm1_transform_13"
  type: "InnerProduct"
  bottom: "h_conted_12"
  top: "W_hc_h_12"
  param {
    name: "W_hc"
  }
  inner_product_param {
    num_output: 256
    bias_term: false
    weight_filler {
      type: "xavier"
    }
    axis: 2
  }
}
layer {
  name: "lstm1_gate_input_13"
  type: "Eltwise"
  bottom: "W_hc_h_12"
  bottom: "W_xc_x_13"
  top: "gate_input_13"
  eltwise_param {
    operation: SUM
  }
}
layer {
  name: "lstm1_unit_13"
  type: "LSTMUnit"
  bottom: "c_12"
  bottom: "gate_input_13"
  bottom: "cont_13"
  top: "c_13"
  top: "h_13"
}
layer {
  name: "lstm1_h_conted_13"
  type: "Scale"
  bottom: "h_13"
  bottom: "cont_14"
  top: "h_conted_13"
  scale_param {
    axis: 0
  }
}
layer {
  name: "lstm1_transform_14"
  type: "InnerProduct"
  bottom: "h_conted_13"
  top: "W_hc_h_13"
  param {
    name: "W_hc"
  }
  inner_product_param {
    num_output: 256
    bias_term: false
    weight_filler {
      type: "xavier"
    }
    axis: 2
  }
}
layer {
  name: "lstm1_gate_input_14"
  type: "Eltwise"
  bottom: "W_hc_h_13"
  bottom: "W_xc_x_14"
  top: "gate_input_14"
  eltwise_param {
    operation: SUM
  }
}
layer {
  name: "lstm1_unit_14"
  type: "LSTMUnit"
  bottom: "c_13"
  bottom: "gate_input_14"
  bottom: "cont_14"
  top: "c_14"
  top: "h_14"
}
layer {
  name: "lstm1_h_conted_14"
  type: "Scale"
  bottom: "h_14"
  bottom: "cont_15"
  top: "h_conted_14"
  scale_param {
    axis: 0
  }
}
layer {
  name: "lstm1_transform_15"
  type: "InnerProduct"
  bottom: "h_conted_14"
  top: "W_hc_h_14"
  param {
    name: "W_hc"
  }
  inner_product_param {
    num_output: 256
    bias_term: false
    weight_filler {
      type: "xavier"
    }
    axis: 2
  }
}
layer {
  name: "lstm1_gate_input_15"
  type: "Eltwise"
  bottom: "W_hc_h_14"
  bottom: "W_xc_x_15"
  top: "gate_input_15"
  eltwise_param {
    operation: SUM
  }
}
layer {
  name: "lstm1_unit_15"
  type: "LSTMUnit"
  bottom: "c_14"
  bottom: "gate_input_15"
  bottom: "cont_15"
  top: "c_15"
  top: "h_15"
}
layer {
  name: "lstm1_h_conted_15"
  type: "Scale"
  bottom: "h_15"
  bottom: "cont_16"
  top: "h_conted_15"
  scale_param {
    axis: 0
  }
}
layer {
  name: "lstm1_transform_16"
  type: "InnerProduct"
  bottom: "h_conted_15"
  top: "W_hc_h_15"
  param {
    name: "W_hc"
  }
  inner_product_param {
    num_output: 256
    bias_term: false
    weight_filler {
      type: "xavier"
    }
    axis: 2
  }
}
layer {
  name: "lstm1_gate_input_16"
  type: "Eltwise"
  bottom: "W_hc_h_15"
  bottom: "W_xc_x_16"
  top: "gate_input_16"
  eltwise_param {
    operation: SUM
  }
}
layer {
  name: "lstm1_unit_16"
  type: "LSTMUnit"
  bottom: "c_15"
  bottom: "gate_input_16"
  bottom: "cont_16"
  top: "c_16"
  top: "h_16"
}
layer {
  name: "lstm1_h_conted_16"
  type: "Scale"
  bottom: "h_16"
  bottom: "cont_17"
  top: "h_conted_16"
  scale_param {
    axis: 0
  }
}
layer {
  name: "lstm1_transform_17"
  type: "InnerProduct"
  bottom: "h_conted_16"
  top: "W_hc_h_16"
  param {
    name: "W_hc"
  }
  inner_product_param {
    num_output: 256
    bias_term: false
    weight_filler {
      type: "xavier"
    }
    axis: 2
  }
}
layer {
  name: "lstm1_gate_input_17"
  type: "Eltwise"
  bottom: "W_hc_h_16"
  bottom: "W_xc_x_17"
  top: "gate_input_17"
  eltwise_param {
    operation: SUM
  }
}
layer {
  name: "lstm1_unit_17"
  type: "LSTMUnit"
  bottom: "c_16"
  bottom: "gate_input_17"
  bottom: "cont_17"
  top: "c_17"
  top: "h_17"
}
layer {
  name: "lstm1_h_conted_17"
  type: "Scale"
  bottom: "h_17"
  bottom: "cont_18"
  top: "h_conted_17"
  scale_param {
    axis: 0
  }
}
layer {
  name: "lstm1_transform_18"
  type: "InnerProduct"
  bottom: "h_conted_17"
  top: "W_hc_h_17"
  param {
    name: "W_hc"
  }
  inner_product_param {
    num_output: 256
    bias_term: false
    weight_filler {
      type: "xavier"
    }
    axis: 2
  }
}
layer {
  name: "lstm1_gate_input_18"
  type: "Eltwise"
  bottom: "W_hc_h_17"
  bottom: "W_xc_x_18"
  top: "gate_input_18"
  eltwise_param {
    operation: SUM
  }
}
layer {
  name: "lstm1_unit_18"
  type: "LSTMUnit"
  bottom: "c_17"
  bottom: "gate_input_18"
  bottom: "cont_18"
  top: "c_18"
  top: "h_18"
}
layer {
  name: "lstm1_h_conted_18"
  type: "Scale"
  bottom: "h_18"
  bottom: "cont_19"
  top: "h_conted_18"
  scale_param {
    axis: 0
  }
}
layer {
  name: "lstm1_transform_19"
  type: "InnerProduct"
  bottom: "h_conted_18"
  top: "W_hc_h_18"
  param {
    name: "W_hc"
  }
  inner_product_param {
    num_output: 256
    bias_term: false
    weight_filler {
      type: "xavier"
    }
    axis: 2
  }
}
layer {
  name: "lstm1_gate_input_19"
  type: "Eltwise"
  bottom: "W_hc_h_18"
  bottom: "W_xc_x_19"
  top: "gate_input_19"
  eltwise_param {
    operation: SUM
  }
}
layer {
  name: "lstm1_unit_19"
  type: "LSTMUnit"
  bottom: "c_18"
  bottom: "gate_input_19"
  bottom: "cont_19"
  top: "c_19"
  top: "h_19"
}
layer {
  name: "lstm1_h_conted_19"
  type: "Scale"
  bottom: "h_19"
  bottom: "cont_20"
  top: "h_conted_19"
  scale_param {
    axis: 0
  }
}
layer {
  name: "lstm1_transform_20"
  type: "InnerProduct"
  bottom: "h_conted_19"
  top: "W_hc_h_19"
  param {
    name: "W_hc"
  }
  inner_product_param {
    num_output: 256
    bias_term: false
    weight_filler {
      type: "xavier"
    }
    axis: 2
  }
}
layer {
  name: "lstm1_gate_input_20"
  type: "Eltwise"
  bottom: "W_hc_h_19"
  bottom: "W_xc_x_20"
  top: "gate_input_20"
  eltwise_param {
    operation: SUM
  }
}
layer {
  name: "lstm1_unit_20"
  type: "LSTMUnit"
  bottom: "c_19"
  bottom: "gate_input_20"
  bottom: "cont_20"
  top: "c_20"
  top: "h_20"
}
layer {
  name: "lstm1_h_conted_20"
  type: "Scale"
  bottom: "h_20"
  bottom: "cont_21"
  top: "h_conted_20"
  scale_param {
    axis: 0
  }
}
layer {
  name: "lstm1_transform_21"
  type: "InnerProduct"
  bottom: "h_conted_20"
  top: "W_hc_h_20"
  param {
    name: "W_hc"
  }
  inner_product_param {
    num_output: 256
    bias_term: false
    weight_filler {
      type: "xavier"
    }
    axis: 2
  }
}
layer {
  name: "lstm1_gate_input_21"
  type: "Eltwise"
  bottom: "W_hc_h_20"
  bottom: "W_xc_x_21"
  top: "gate_input_21"
  eltwise_param {
    operation: SUM
  }
}
layer {
  name: "lstm1_unit_21"
  type: "LSTMUnit"
  bottom: "c_20"
  bottom: "gate_input_21"
  bottom: "cont_21"
  top: "c_21"
  top: "h_21"
}
layer {
  name: "lstm1_h_conted_21"
  type: "Scale"
  bottom: "h_21"
  bottom: "cont_22"
  top: "h_conted_21"
  scale_param {
    axis: 0
  }
}
layer {
  name: "lstm1_transform_22"
  type: "InnerProduct"
  bottom: "h_conted_21"
  top: "W_hc_h_21"
  param {
    name: "W_hc"
  }
  inner_product_param {
    num_output: 256
    bias_term: false
    weight_filler {
      type: "xavier"
    }
    axis: 2
  }
}
layer {
  name: "lstm1_gate_input_22"
  type: "Eltwise"
  bottom: "W_hc_h_21"
  bottom: "W_xc_x_22"
  top: "gate_input_22"
  eltwise_param {
    operation: SUM
  }
}
layer {
  name: "lstm1_unit_22"
  type: "LSTMUnit"
  bottom: "c_21"
  bottom: "gate_input_22"
  bottom: "cont_22"
  top: "c_22"
  top: "h_22"
}
layer {
  name: "lstm1_h_conted_22"
  type: "Scale"
  bottom: "h_22"
  bottom: "cont_23"
  top: "h_conted_22"
  scale_param {
    axis: 0
  }
}
layer {
  name: "lstm1_transform_23"
  type: "InnerProduct"
  bottom: "h_conted_22"
  top: "W_hc_h_22"
  param {
    name: "W_hc"
  }
  inner_product_param {
    num_output: 256
    bias_term: false
    weight_filler {
      type: "xavier"
    }
    axis: 2
  }
}
layer {
  name: "lstm1_gate_input_23"
  type: "Eltwise"
  bottom: "W_hc_h_22"
  bottom: "W_xc_x_23"
  top: "gate_input_23"
  eltwise_param {
    operation: SUM
  }
}
layer {
  name: "lstm1_unit_23"
  type: "LSTMUnit"
  bottom: "c_22"
  bottom: "gate_input_23"
  bottom: "cont_23"
  top: "c_23"
  top: "h_23"
}
layer {
  name: "lstm1_h_conted_23"
  type: "Scale"
  bottom: "h_23"
  bottom: "cont_24"
  top: "h_conted_23"
  scale_param {
    axis: 0
  }
}
layer {
  name: "lstm1_transform_24"
  type: "InnerProduct"
  bottom: "h_conted_23"
  top: "W_hc_h_23"
  param {
    name: "W_hc"
  }
  inner_product_param {
    num_output: 256
    bias_term: false
    weight_filler {
      type: "xavier"
    }
    axis: 2
  }
}
layer {
  name: "lstm1_gate_input_24"
  type: "Eltwise"
  bottom: "W_hc_h_23"
  bottom: "W_xc_x_24"
  top: "gate_input_24"
  eltwise_param {
    operation: SUM
  }
}
layer {
  name: "lstm1_unit_24"
  type: "LSTMUnit"
  bottom: "c_23"
  bottom: "gate_input_24"
  bottom: "cont_24"
  top: "c_24"
  top: "h_24"
}
layer {
  name: "lstm1_"
  type: "Split"
  bottom: "c_24"
  top: "c_T"
}
layer {
  name: "lstm1_h_concat"
  type: "Concat"
  bottom: "h_1"
  bottom: "h_2"
  bottom: "h_3"
  bottom: "h_4"
  bottom: "h_5"
  bottom: "h_6"
  bottom: "h_7"
  bottom: "h_8"
  bottom: "h_9"
  bottom: "h_10"
  bottom: "h_11"
  bottom: "h_12"
  bottom: "h_13"
  bottom: "h_14"
  bottom: "h_15"
  bottom: "h_16"
  bottom: "h_17"
  bottom: "h_18"
  bottom: "h_19"
  bottom: "h_20"
  bottom: "h_21"
  bottom: "h_22"
  bottom: "h_23"
  bottom: "h_24"
  top: "h"
  concat_param {
    axis: 0
  }
}
layer {
  name: "h_pseudoloss"
  type: "Reduction"
  bottom: "h"
  top: "h_pseudoloss"
  loss_weight: 1
}
I0222 17:46:33.139068 25487 layer_factory.hpp:77] Creating layer lstm1_
I0222 17:46:33.139080 25487 net.cpp:84] Creating Layer lstm1_
I0222 17:46:33.139083 25487 net.cpp:380] lstm1_ -> x
I0222 17:46:33.139091 25487 net.cpp:380] lstm1_ -> cont
I0222 17:46:33.139118 25487 net.cpp:122] Setting up lstm1_
I0222 17:46:33.139124 25487 net.cpp:129] Top shape: 24 26 1 1 (624)
I0222 17:46:33.139128 25487 net.cpp:129] Top shape: 24 26 (624)
I0222 17:46:33.139132 25487 net.cpp:137] Memory required for data: 4992
I0222 17:46:33.139134 25487 layer_factory.hpp:77] Creating layer lstm1_
I0222 17:46:33.139139 25487 net.cpp:84] Creating Layer lstm1_
I0222 17:46:33.139143 25487 net.cpp:380] lstm1_ -> c_0
I0222 17:46:33.139148 25487 net.cpp:380] lstm1_ -> h_0
I0222 17:46:33.139166 25487 net.cpp:122] Setting up lstm1_
I0222 17:46:33.139171 25487 net.cpp:129] Top shape: 1 26 64 (1664)
I0222 17:46:33.139175 25487 net.cpp:129] Top shape: 1 26 64 (1664)
I0222 17:46:33.139178 25487 net.cpp:137] Memory required for data: 18304
I0222 17:46:33.139181 25487 layer_factory.hpp:77] Creating layer lstm1_cont_slice
I0222 17:46:33.139190 25487 net.cpp:84] Creating Layer lstm1_cont_slice
I0222 17:46:33.139194 25487 net.cpp:406] lstm1_cont_slice <- cont
I0222 17:46:33.139199 25487 net.cpp:380] lstm1_cont_slice -> cont_1
I0222 17:46:33.139205 25487 net.cpp:380] lstm1_cont_slice -> cont_2
…
I0222 17:46:33.139325 25487 net.cpp:380] lstm1_cont_slice -> cont_17
I0222 17:46:33.139331 25487 net.cpp:380] lstm1_cont_slice -> cont_18
I0222 17:46:33.139336 25487 net.cpp:380] lstm1_cont_slice -> cont_19
I0222 17:46:33.139343 25487 net.cpp:380] lstm1_cont_slice -> cont_20
I0222 17:46:33.139351 25487 net.cpp:380] lstm1_cont_slice -> cont_21
I0222 17:46:33.139356 25487 net.cpp:380] lstm1_cont_slice -> cont_22
I0222 17:46:33.139364 25487 net.cpp:380] lstm1_cont_slice -> cont_23
I0222 17:46:33.139374 25487 net.cpp:380] lstm1_cont_slice -> cont_24
I0222 17:46:33.139528 25487 net.cpp:122] Setting up lstm1_cont_slice
I0222 17:46:33.139534 25487 net.cpp:129] Top shape: 1 26 (26)
I0222 17:46:33.139539 25487 net.cpp:129] Top shape: 1 26 (26)
I0222 17:46:33.139541 25487 net.cpp:129] Top shape: 1 26 (26)
I0222 17:46:33.139544 25487 net.cpp:129] Top shape: 1 26 (26)
I0222 17:46:33.139549 25487 net.cpp:129] Top shape: 1 26 (26)
I0222 17:46:33.139551 25487 net.cpp:129] Top shape: 1 26 (26)
I0222 17:46:33.139555 25487 net.cpp:129] Top shape: 1 26 (26)
I0222 17:46:33.139559 25487 net.cpp:129] Top shape: 1 26 (26)
I0222 17:46:33.139562 25487 net.cpp:129] Top shape: 1 26 (26)
I0222 17:46:33.139565 25487 net.cpp:129] Top shape: 1 26 (26)
I0222 17:46:33.139569 25487 net.cpp:129] Top shape: 1 26 (26)
I0222 17:46:33.139578 25487 net.cpp:129] Top shape: 1 26 (26)
I0222 17:46:33.139582 25487 net.cpp:129] Top shape: 1 26 (26)
I0222 17:46:33.139585 25487 net.cpp:129] Top shape: 1 26 (26)
I0222 17:46:33.139588 25487 net.cpp:129] Top shape: 1 26 (26)
I0222 17:46:33.139592 25487 net.cpp:129] Top shape: 1 26 (26)
I0222 17:46:33.139595 25487 net.cpp:129] Top shape: 1 26 (26)
I0222 17:46:33.139598 25487 net.cpp:129] Top shape: 1 26 (26)
I0222 17:46:33.139602 25487 net.cpp:129] Top shape: 1 26 (26)
I0222 17:46:33.139605 25487 net.cpp:129] Top shape: 1 26 (26)
I0222 17:46:33.139608 25487 net.cpp:129] Top shape: 1 26 (26)
I0222 17:46:33.139612 25487 net.cpp:129] Top shape: 1 26 (26)
I0222 17:46:33.168432 25487 net.cpp:129] Top shape: 1 26 (26)
I0222 17:46:33.168442 25487 net.cpp:129] Top shape: 1 26 (26)
I0222 17:46:33.168444 25487 net.cpp:137] Memory required for data: 20800
I0222 17:46:33.168448 25487 layer_factory.hpp:77] Creating layer cont_1_lstm1_cont_slice_0_split
I0222 17:46:33.168453 25487 net.cpp:84] Creating Layer cont_1_lstm1_cont_slice_0_split
I0222 17:46:33.168473 25487 net.cpp:406] cont_1_lstm1_cont_slice_0_split <- cont_1
I0222 17:46:33.168480 25487 net.cpp:380] cont_1_lstm1_cont_slice_0_split -> cont_1_lstm1_cont_slice_0_split_0
I0222 17:46:33.168488 25487 net.cpp:380] cont_1_lstm1_cont_slice_0_split -> cont_1_lstm1_cont_slice_0_split_1
I0222 17:46:33.168551 25487 net.cpp:122] Setting up cont_1_lstm1_cont_slice_0_split
I0222 17:46:33.168556 25487 net.cpp:129] Top shape: 1 26 (26)
I0222 17:46:33.168560 25487 net.cpp:129] Top shape: 1 26 (26)
I0222 17:46:33.168576 25487 net.cpp:137] Memory required for data: 21008
I0222 17:46:33.168579 25487 layer_factory.hpp:77] Creating layer cont_2_lstm1_cont_slice_1_split
I0222 17:46:33.168586 25487 net.cpp:84] Creating Layer cont_2_lstm1_cont_slice_1_split
I0222 17:46:33.168589 25487 net.cpp:406] cont_2_lstm1_cont_slice_1_split <- cont_2
I0222 17:46:33.168594 25487 net.cpp:380] cont_2_lstm1_cont_slice_1_split -> cont_2_lstm1_cont_slice_1_split_0
I0222 17:46:33.168598 25487 net.cpp:380] cont_2_lstm1_cont_slice_1_split -> cont_2_lstm1_cont_slice_1_split_1
I0222 17:46:33.168617 25487 net.cpp:122] Setting up cont_2_lstm1_cont_slice_1_split
I0222 17:46:33.168622 25487 net.cpp:129] Top shape: 1 26 (26)
I0222 17:46:33.168624 25487 net.cpp:129] Top shape: 1 26 (26)
I0222 17:46:33.168627 25487 net.cpp:137] Memory required for data: 21216
I0222 17:46:33.168630 25487 layer_factory.hpp:77] Creating layer cont_3_lstm1_cont_slice_2_split
I0222 17:46:33.168634 25487 net.cpp:84] Creating Layer cont_3_lstm1_cont_slice_2_split
I0222 17:46:33.168637 25487 net.cpp:406] cont_3_lstm1_cont_slice_2_split <- cont_3
I0222 17:46:33.168642 25487 net.cpp:380] cont_3_lstm1_cont_slice_2_split -> cont_3_lstm1_cont_slice_2_split_0
I0222 17:46:33.168648 25487 net.cpp:380] cont_3_lstm1_cont_slice_2_split -> cont_3_lstm1_cont_slice_2_split_1
I0222 17:46:33.168666 25487 net.cpp:122] Setting up cont_3_lstm1_cont_slice_2_split
I0222 17:46:33.168671 25487 net.cpp:129] Top shape: 1 26 (26)
I0222 17:46:33.168674 25487 net.cpp:129] Top shape: 1 26 (26)
I0222 17:46:33.168678 25487 net.cpp:137] Memory required for data: 21424
I0222 17:46:33.168680 25487 layer_factory.hpp:77] Creating layer cont_4_lstm1_cont_slice_3_split
I0222 17:46:33.168684 25487 net.cpp:84] Creating Layer cont_4_lstm1_cont_slice_3_split
I0222 17:46:33.168687 25487 net.cpp:406] cont_4_lstm1_cont_slice_3_split <- cont_4
I0222 17:46:33.168691 25487 net.cpp:380] cont_4_lstm1_cont_slice_3_split -> cont_4_lstm1_cont_slice_3_split_0
I0222 17:46:33.168695 25487 net.cpp:380] cont_4_lstm1_cont_slice_3_split -> cont_4_lstm1_cont_slice_3_split_1
I0222 17:46:33.168715 25487 net.cpp:122] Setting up cont_4_lstm1_cont_slice_3_split
I0222 17:46:33.168720 25487 net.cpp:129] Top shape: 1 26 (26)
I0222 17:46:33.168723 25487 net.cpp:129] Top shape: 1 26 (26)
I0222 17:46:33.168725 25487 net.cpp:137] Memory required for data: 21632
I0222 17:46:33.168728 25487 layer_factory.hpp:77] Creating layer cont_5_lstm1_cont_slice_4_split
I0222 17:46:33.168740 25487 net.cpp:84] Creating Layer cont_5_lstm1_cont_slice_4_split
I0222 17:46:33.168745 25487 net.cpp:406] cont_5_lstm1_cont_slice_4_split <- cont_5
I0222 17:46:33.168748 25487 net.cpp:380] cont_5_lstm1_cont_slice_4_split -> cont_5_lstm1_cont_slice_4_split_0
I0222 17:46:33.168753 25487 net.cpp:380] cont_5_lstm1_cont_slice_4_split -> cont_5_lstm1_cont_slice_4_split_1
I0222 17:46:33.168771 25487 net.cpp:122] Setting up cont_5_lstm1_cont_slice_4_split
I0222 17:46:33.168776 25487 net.cpp:129] Top shape: 1 26 (26)
I0222 17:46:33.168778 25487 net.cpp:129] Top shape: 1 26 (26)
I0222 17:46:33.168781 25487 net.cpp:137] Memory required for data: 21840
I0222 17:46:33.168783 25487 layer_factory.hpp:77] Creating layer cont_6_lstm1_cont_slice_5_split
I0222 17:46:33.168788 25487 net.cpp:84] Creating Layer cont_6_lstm1_cont_slice_5_split
I0222 17:46:33.168792 25487 net.cpp:406] cont_6_lstm1_cont_slice_5_split <- cont_6
I0222 17:46:33.168795 25487 net.cpp:380] cont_6_lstm1_cont_slice_5_split -> cont_6_lstm1_cont_slice_5_split_0
I0222 17:46:33.168802 25487 net.cpp:380] cont_6_lstm1_cont_slice_5_split -> cont_6_lstm1_cont_slice_5_split_1
I0222 17:46:33.168817 25487 net.cpp:122] Setting up cont_6_lstm1_cont_slice_5_split
I0222 17:46:33.168820 25487 net.cpp:129] Top shape: 1 26 (26)
I0222 17:46:33.168824 25487 net.cpp:129] Top shape: 1 26 (26)
I0222 17:46:33.168828 25487 net.cpp:137] Memory required for data: 22048
I0222 17:46:33.168829 25487 layer_factory.hpp:77] Creating layer cont_7_lstm1_cont_slice_6_split
I0222 17:46:33.168834 25487 net.cpp:84] Creating Layer cont_7_lstm1_cont_slice_6_split
I0222 17:46:33.168838 25487 net.cpp:406] cont_7_lstm1_cont_slice_6_split <- cont_7
I0222 17:46:33.168841 25487 net.cpp:380] cont_7_lstm1_cont_slice_6_split -> cont_7_lstm1_cont_slice_6_split_0
I0222 17:46:33.168845 25487 net.cpp:380] cont_7_lstm1_cont_slice_6_split -> cont_7_lstm1_cont_slice_6_split_1
I0222 17:46:33.168861 25487 net.cpp:122] Setting up cont_7_lstm1_cont_slice_6_split
I0222 17:46:33.168865 25487 net.cpp:129] Top shape: 1 26 (26)
I0222 17:46:33.168869 25487 net.cpp:129] Top shape: 1 26 (26)
I0222 17:46:33.168871 25487 net.cpp:137] Memory required for data: 22256
I0222 17:46:33.168874 25487 layer_factory.hpp:77] Creating layer cont_8_lstm1_cont_slice_7_split
I0222 17:46:33.168877 25487 net.cpp:84] Creating Layer cont_8_lstm1_cont_slice_7_split
I0222 17:46:33.168880 25487 net.cpp:406] cont_8_lstm1_cont_slice_7_split <- cont_8
I0222 17:46:33.168884 25487 net.cpp:380] cont_8_lstm1_cont_slice_7_split -> cont_8_lstm1_cont_slice_7_split_0
I0222 17:46:33.168889 25487 net.cpp:380] cont_8_lstm1_cont_slice_7_split -> cont_8_lstm1_cont_slice_7_split_1
I0222 17:46:33.168905 25487 net.cpp:122] Setting up cont_8_lstm1_cont_slice_7_split
I0222 17:46:33.168908 25487 net.cpp:129] Top shape: 1 26 (26)
I0222 17:46:33.168911 25487 net.cpp:129] Top shape: 1 26 (26)
I0222 17:46:33.168915 25487 net.cpp:137] Memory required for data: 22464
I0222 17:46:33.168917 25487 layer_factory.hpp:77] Creating layer cont_9_lstm1_cont_slice_8_split
I0222 17:46:33.168920 25487 net.cpp:84] Creating Layer cont_9_lstm1_cont_slice_8_split
I0222 17:46:33.168923 25487 net.cpp:406] cont_9_lstm1_cont_slice_8_split <- cont_9
I0222 17:46:33.168927 25487 net.cpp:380] cont_9_lstm1_cont_slice_8_split -> cont_9_lstm1_cont_slice_8_split_0
I0222 17:46:33.168931 25487 net.cpp:380] cont_9_lstm1_cont_slice_8_split -> cont_9_lstm1_cont_slice_8_split_1
I0222 17:46:33.168948 25487 net.cpp:122] Setting up cont_9_lstm1_cont_slice_8_split
I0222 17:46:33.168952 25487 net.cpp:129] Top shape: 1 26 (26)
I0222 17:46:33.168956 25487 net.cpp:129] Top shape: 1 26 (26)
I0222 17:46:33.168958 25487 net.cpp:137] Memory required for data: 22672
I0222 17:46:33.168962 25487 layer_factory.hpp:77] Creating layer cont_10_lstm1_cont_slice_9_split
I0222 17:46:33.168965 25487 net.cpp:84] Creating Layer cont_10_lstm1_cont_slice_9_split
I0222 17:46:33.168968 25487 net.cpp:406] cont_10_lstm1_cont_slice_9_split <- cont_10
I0222 17:46:33.171346 25487 net.cpp:380] cont_10_lstm1_cont_slice_9_split -> cont_10_lstm1_cont_slice_9_split_0
I0222 17:46:33.171362 25487 net.cpp:380] cont_10_lstm1_cont_slice_9_split -> cont_10_lstm1_cont_slice_9_split_1
I0222 17:46:33.171387 25487 net.cpp:122] Setting up cont_10_lstm1_cont_slice_9_split
I0222 17:46:33.171407 25487 net.cpp:129] Top shape: 1 26 (26)
I0222 17:46:33.171411 25487 net.cpp:129] Top shape: 1 26 (26)
I0222 17:46:33.171412 25487 net.cpp:137] Memory required for data: 22880
I0222 17:46:33.171430 25487 layer_factory.hpp:77] Creating layer cont_11_lstm1_cont_slice_10_split
I0222 17:46:33.171434 25487 net.cpp:84] Creating Layer cont_11_lstm1_cont_slice_10_split
I0222 17:46:33.171437 25487 net.cpp:406] cont_11_lstm1_cont_slice_10_split <- cont_11
I0222 17:46:33.171442 25487 net.cpp:380] cont_11_lstm1_cont_slice_10_split -> cont_11_lstm1_cont_slice_10_split_0
I0222 17:46:33.171445 25487 net.cpp:380] cont_11_lstm1_cont_slice_10_split -> cont_11_lstm1_cont_slice_10_split_1
I0222 17:46:33.171476 25487 net.cpp:122] Setting up cont_11_lstm1_cont_slice_10_split
I0222 17:46:33.171480 25487 net.cpp:129] Top shape: 1 26 (26)
I0222 17:46:33.171483 25487 net.cpp:129] Top shape: 1 26 (26)
I0222 17:46:33.171499 25487 net.cpp:137] Memory required for data: 23088
I0222 17:46:33.171501 25487 layer_factory.hpp:77] Creating layer cont_12_lstm1_cont_slice_11_split
I0222 17:46:33.171504 25487 net.cpp:84] Creating Layer cont_12_lstm1_cont_slice_11_split
I0222 17:46:33.171507 25487 net.cpp:406] cont_12_lstm1_cont_slice_11_split <- cont_12
I0222 17:46:33.171511 25487 net.cpp:380] cont_12_lstm1_cont_slice_11_split -> cont_12_lstm1_cont_slice_11_split_0
I0222 17:46:33.171515 25487 net.cpp:380] cont_12_lstm1_cont_slice_11_split -> cont_12_lstm1_cont_slice_11_split_1
I0222 17:46:33.171532 25487 net.cpp:122] Setting up cont_12_lstm1_cont_slice_11_split
I0222 17:46:33.171536 25487 net.cpp:129] Top shape: 1 26 (26)
I0222 17:46:33.171540 25487 net.cpp:129] Top shape: 1 26 (26)
I0222 17:46:33.171543 25487 net.cpp:137] Memory required for data: 23296
I0222 17:46:33.171545 25487 layer_factory.hpp:77] Creating layer cont_13_lstm1_cont_slice_12_split
I0222 17:46:33.171550 25487 net.cpp:84] Creating Layer cont_13_lstm1_cont_slice_12_split
I0222 17:46:33.171552 25487 net.cpp:406] cont_13_lstm1_cont_slice_12_split <- cont_13
I0222 17:46:33.171557 25487 net.cpp:380] cont_13_lstm1_cont_slice_12_split -> cont_13_lstm1_cont_slice_12_split_0
I0222 17:46:33.171561 25487 net.cpp:380] cont_13_lstm1_cont_slice_12_split -> cont_13_lstm1_cont_slice_12_split_1
I0222 17:46:33.171577 25487 net.cpp:122] Setting up cont_13_lstm1_cont_slice_12_split
I0222 17:46:33.171581 25487 net.cpp:129] Top shape: 1 26 (26)
I0222 17:46:33.171586 25487 net.cpp:129] Top shape: 1 26 (26)
I0222 17:46:33.171587 25487 net.cpp:137] Memory required for data: 23504
I0222 17:46:33.171591 25487 layer_factory.hpp:77] Creating layer cont_14_lstm1_cont_slice_13_split
I0222 17:46:33.171597 25487 net.cpp:84] Creating Layer cont_14_lstm1_cont_slice_13_split
I0222 17:46:33.171600 25487 net.cpp:406] cont_14_lstm1_cont_slice_13_split <- cont_14
I0222 17:46:33.171604 25487 net.cpp:380] cont_14_lstm1_cont_slice_13_split -> cont_14_lstm1_cont_slice_13_split_0
I0222 17:46:33.171609 25487 net.cpp:380] cont_14_lstm1_cont_slice_13_split -> cont_14_lstm1_cont_slice_13_split_1
I0222 17:46:33.171625 25487 net.cpp:122] Setting up cont_14_lstm1_cont_slice_13_split
I0222 17:46:33.171629 25487 net.cpp:129] Top shape: 1 26 (26)
I0222 17:46:33.171633 25487 net.cpp:129] Top shape: 1 26 (26)
I0222 17:46:33.171636 25487 net.cpp:137] Memory required for data: 23712
I0222 17:46:33.171639 25487 layer_factory.hpp:77] Creating layer cont_15_lstm1_cont_slice_14_split
I0222 17:46:33.171643 25487 net.cpp:84] Creating Layer cont_15_lstm1_cont_slice_14_split
I0222 17:46:33.171645 25487 net.cpp:406] cont_15_lstm1_cont_slice_14_split <- cont_15
I0222 17:46:33.171649 25487 net.cpp:380] cont_15_lstm1_cont_slice_14_split -> cont_15_lstm1_cont_slice_14_split_0
I0222 17:46:33.171653 25487 net.cpp:380] cont_15_lstm1_cont_slice_14_split -> cont_15_lstm1_cont_slice_14_split_1
I0222 17:46:33.171670 25487 net.cpp:122] Setting up cont_15_lstm1_cont_slice_14_split
I0222 17:46:33.171679 25487 net.cpp:129] Top shape: 1 26 (26)
I0222 17:46:33.171684 25487 net.cpp:129] Top shape: 1 26 (26)
I0222 17:46:33.171685 25487 net.cpp:137] Memory required for data: 23920
I0222 17:46:33.171689 25487 layer_factory.hpp:77] Creating layer cont_16_lstm1_cont_slice_15_split
I0222 17:46:33.171692 25487 net.cpp:84] Creating Layer cont_16_lstm1_cont_slice_15_split
I0222 17:46:33.171695 25487 net.cpp:406] cont_16_lstm1_cont_slice_15_split <- cont_16
I0222 17:46:33.171700 25487 net.cpp:380] cont_16_lstm1_cont_slice_15_split -> cont_16_lstm1_cont_slice_15_split_0
I0222 17:46:33.171705 25487 net.cpp:380] cont_16_lstm1_cont_slice_15_split -> cont_16_lstm1_cont_slice_15_split_1
I0222 17:46:33.171720 25487 net.cpp:122] Setting up cont_16_lstm1_cont_slice_15_split
I0222 17:46:33.171725 25487 net.cpp:129] Top shape: 1 26 (26)
I0222 17:46:33.171728 25487 net.cpp:129] Top shape: 1 26 (26)
I0222 17:46:33.171731 25487 net.cpp:137] Memory required for data: 24128
I0222 17:46:33.171733 25487 layer_factory.hpp:77] Creating layer cont_17_lstm1_cont_slice_16_split
I0222 17:46:33.171738 25487 net.cpp:84] Creating Layer cont_17_lstm1_cont_slice_16_split
I0222 17:46:33.171741 25487 net.cpp:406] cont_17_lstm1_cont_slice_16_split <- cont_17
I0222 17:46:33.171744 25487 net.cpp:380] cont_17_lstm1_cont_slice_16_split -> cont_17_lstm1_cont_slice_16_split_0
I0222 17:46:33.171749 25487 net.cpp:380] cont_17_lstm1_cont_slice_16_split -> cont_17_lstm1_cont_slice_16_split_1
I0222 17:46:33.171766 25487 net.cpp:122] Setting up cont_17_lstm1_cont_slice_16_split
I0222 17:46:33.171769 25487 net.cpp:129] Top shape: 1 26 (26)
I0222 17:46:33.171773 25487 net.cpp:129] Top shape: 1 26 (26)
I0222 17:46:33.171775 25487 net.cpp:137] Memory required for data: 24336
I0222 17:46:33.171778 25487 layer_factory.hpp:77] Creating layer cont_18_lstm1_cont_slice_17_split
I0222 17:46:33.171782 25487 net.cpp:84] Creating Layer cont_18_lstm1_cont_slice_17_split
I0222 17:46:33.171785 25487 net.cpp:406] cont_18_lstm1_cont_slice_17_split <- cont_18
I0222 17:46:33.171788 25487 net.cpp:380] cont_18_lstm1_cont_slice_17_split -> cont_18_lstm1_cont_slice_17_split_0
I0222 17:46:33.171793 25487 net.cpp:380] cont_18_lstm1_cont_slice_17_split -> cont_18_lstm1_cont_slice_17_split_1
I0222 17:46:33.171808 25487 net.cpp:122] Setting up cont_18_lstm1_cont_slice_17_split
I0222 17:46:33.171813 25487 net.cpp:129] Top shape: 1 26 (26)
I0222 17:46:33.171816 25487 net.cpp:129] Top shape: 1 26 (26)
I0222 17:46:33.171819 25487 net.cpp:137] Memory required for data: 24544
I0222 17:46:33.171823 25487 layer_factory.hpp:77] Creating layer cont_19_lstm1_cont_slice_18_split
I0222 17:46:33.171825 25487 net.cpp:84] Creating Layer cont_19_lstm1_cont_slice_18_split
I0222 17:46:33.171829 25487 net.cpp:406] cont_19_lstm1_cont_slice_18_split <- cont_19
I0222 17:46:33.171833 25487 net.cpp:380] cont_19_lstm1_cont_slice_18_split -> cont_19_lstm1_cont_slice_18_split_0
I0222 17:46:33.171841 25487 net.cpp:380] cont_19_lstm1_cont_slice_18_split -> cont_19_lstm1_cont_slice_18_split_1
I0222 17:46:33.171859 25487 net.cpp:122] Setting up cont_19_lstm1_cont_slice_18_split
I0222 17:46:33.171864 25487 net.cpp:129] Top shape: 1 26 (26)
I0222 17:46:33.171866 25487 net.cpp:129] Top shape: 1 26 (26)
I0222 17:46:33.171869 25487 net.cpp:137] Memory required for data: 24752
I0222 17:46:33.171872 25487 layer_factory.hpp:77] Creating layer cont_20_lstm1_cont_slice_19_split
I0222 17:46:33.171876 25487 net.cpp:84] Creating Layer cont_20_lstm1_cont_slice_19_split
I0222 17:46:33.171880 25487 net.cpp:406] cont_20_lstm1_cont_slice_19_split <- cont_20
I0222 17:46:33.171883 25487 net.cpp:380] cont_20_lstm1_cont_slice_19_split -> cont_20_lstm1_cont_slice_19_split_0
I0222 17:46:33.199482 25487 net.cpp:380] cont_20_lstm1_cont_slice_19_split -> cont_20_lstm1_cont_slice_19_split_1
I0222 17:46:33.199523 25487 net.cpp:122] Setting up cont_20_lstm1_cont_slice_19_split
I0222 17:46:33.199532 25487 net.cpp:129] Top shape: 1 26 (26)
I0222 17:46:33.199534 25487 net.cpp:129] Top shape: 1 26 (26)
I0222 17:46:33.199548 25487 net.cpp:137] Memory required for data: 24960
I0222 17:46:33.199551 25487 layer_factory.hpp:77] Creating layer cont_21_lstm1_cont_slice_20_split
I0222 17:46:33.199555 25487 net.cpp:84] Creating Layer cont_21_lstm1_cont_slice_20_split
I0222 17:46:33.199558 25487 net.cpp:406] cont_21_lstm1_cont_slice_20_split <- cont_21
I0222 17:46:33.199563 25487 net.cpp:380] cont_21_lstm1_cont_slice_20_split -> cont_21_lstm1_cont_slice_20_split_0
I0222 17:46:33.199568 25487 net.cpp:380] cont_21_lstm1_cont_slice_20_split -> cont_21_lstm1_cont_slice_20_split_1
I0222 17:46:33.199585 25487 net.cpp:122] Setting up cont_21_lstm1_cont_slice_20_split
I0222 17:46:33.199589 25487 net.cpp:129] Top shape: 1 26 (26)
I0222 17:46:33.199592 25487 net.cpp:129] Top shape: 1 26 (26)
I0222 17:46:33.199594 25487 net.cpp:137] Memory required for data: 25168
I0222 17:46:33.199597 25487 layer_factory.hpp:77] Creating layer cont_22_lstm1_cont_slice_21_split
I0222 17:46:33.199601 25487 net.cpp:84] Creating Layer cont_22_lstm1_cont_slice_21_split
I0222 17:46:33.199604 25487 net.cpp:406] cont_22_lstm1_cont_slice_21_split <- cont_22
I0222 17:46:33.199607 25487 net.cpp:380] cont_22_lstm1_cont_slice_21_split -> cont_22_lstm1_cont_slice_21_split_0
I0222 17:46:33.199611 25487 net.cpp:380] cont_22_lstm1_cont_slice_21_split -> cont_22_lstm1_cont_slice_21_split_1
I0222 17:46:33.199627 25487 net.cpp:122] Setting up cont_22_lstm1_cont_slice_21_split
I0222 17:46:33.199631 25487 net.cpp:129] Top shape: 1 26 (26)
I0222 17:46:33.199635 25487 net.cpp:129] Top shape: 1 26 (26)
I0222 17:46:33.199636 25487 net.cpp:137] Memory required for data: 25376
I0222 17:46:33.199640 25487 layer_factory.hpp:77] Creating layer cont_23_lstm1_cont_slice_22_split
I0222 17:46:33.199642 25487 net.cpp:84] Creating Layer cont_23_lstm1_cont_slice_22_split
I0222 17:46:33.199645 25487 net.cpp:406] cont_23_lstm1_cont_slice_22_split <- cont_23
I0222 17:46:33.199647 25487 net.cpp:380] cont_23_lstm1_cont_slice_22_split -> cont_23_lstm1_cont_slice_22_split_0
I0222 17:46:33.199651 25487 net.cpp:380] cont_23_lstm1_cont_slice_22_split -> cont_23_lstm1_cont_slice_22_split_1
I0222 17:46:33.199667 25487 net.cpp:122] Setting up cont_23_lstm1_cont_slice_22_split
I0222 17:46:33.199671 25487 net.cpp:129] Top shape: 1 26 (26)
I0222 17:46:33.199674 25487 net.cpp:129] Top shape: 1 26 (26)
I0222 17:46:33.199676 25487 net.cpp:137] Memory required for data: 25584
I0222 17:46:33.199678 25487 layer_factory.hpp:77] Creating layer cont_24_lstm1_cont_slice_23_split
I0222 17:46:33.199681 25487 net.cpp:84] Creating Layer cont_24_lstm1_cont_slice_23_split
I0222 17:46:33.199684 25487 net.cpp:406] cont_24_lstm1_cont_slice_23_split <- cont_24
I0222 17:46:33.199688 25487 net.cpp:380] cont_24_lstm1_cont_slice_23_split -> cont_24_lstm1_cont_slice_23_split_0
I0222 17:46:33.199692 25487 net.cpp:380] cont_24_lstm1_cont_slice_23_split -> cont_24_lstm1_cont_slice_23_split_1
I0222 17:46:33.199707 25487 net.cpp:122] Setting up cont_24_lstm1_cont_slice_23_split
I0222 17:46:33.199710 25487 net.cpp:129] Top shape: 1 26 (26)
I0222 17:46:33.199713 25487 net.cpp:129] Top shape: 1 26 (26)
I0222 17:46:33.199715 25487 net.cpp:137] Memory required for data: 25792
I0222 17:46:33.199718 25487 layer_factory.hpp:77] Creating layer lstm1_x_transform
I0222 17:46:33.199728 25487 net.cpp:84] Creating Layer lstm1_x_transform
I0222 17:46:33.199731 25487 net.cpp:406] lstm1_x_transform <- x
I0222 17:46:33.199735 25487 net.cpp:380] lstm1_x_transform -> W_xc_x
I0222 17:46:33.199808 25487 net.cpp:122] Setting up lstm1_x_transform
I0222 17:46:33.199813 25487 net.cpp:129] Top shape: 24 26 256 (159744)
I0222 17:46:33.199816 25487 net.cpp:137] Memory required for data: 664768
I0222 17:46:33.199826 25487 layer_factory.hpp:77] Creating layer lstm1_W_xc_x_slice
I0222 17:46:33.199834 25487 net.cpp:84] Creating Layer lstm1_W_xc_x_slice
I0222 17:46:33.199837 25487 net.cpp:406] lstm1_W_xc_x_slice <- W_xc_x
I0222 17:46:33.199843 25487 net.cpp:380] lstm1_W_xc_x_slice -> W_xc_x_1
I0222 17:46:33.199849 25487 net.cpp:380] lstm1_W_xc_x_slice -> W_xc_x_2
…
I0222 17:46:33.199939 25487 net.cpp:380] lstm1_W_xc_x_slice -> W_xc_x_18
I0222 17:46:33.199944 25487 net.cpp:380] lstm1_W_xc_x_slice -> W_xc_x_19
I0222 17:46:33.199949 25487 net.cpp:380] lstm1_W_xc_x_slice -> W_xc_x_20
I0222 17:46:33.199954 25487 net.cpp:380] lstm1_W_xc_x_slice -> W_xc_x_21
I0222 17:46:33.199959 25487 net.cpp:380] lstm1_W_xc_x_slice -> W_xc_x_22
I0222 17:46:33.199965 25487 net.cpp:380] lstm1_W_xc_x_slice -> W_xc_x_23
I0222 17:46:33.199970 25487 net.cpp:380] lstm1_W_xc_x_slice -> W_xc_x_24
I0222 17:46:33.200104 25487 net.cpp:122] Setting up lstm1_W_xc_x_slice
I0222 17:46:33.200110 25487 net.cpp:129] Top shape: 1 26 256 (6656)
I0222 17:46:33.200114 25487 net.cpp:129] Top shape: 1 26 256 (6656)
I0222 17:46:33.200117 25487 net.cpp:129] Top shape: 1 26 256 (6656)
I0222 17:46:33.200121 25487 net.cpp:129] Top shape: 1 26 256 (6656)
I0222 17:46:33.200124 25487 net.cpp:129] Top shape: 1 26 256 (6656)
I0222 17:46:33.200127 25487 net.cpp:129] Top shape: 1 26 256 (6656)
I0222 17:46:33.200131 25487 net.cpp:129] Top shape: 1 26 256 (6656)
I0222 17:46:33.200134 25487 net.cpp:129] Top shape: 1 26 256 (6656)
I0222 17:46:33.200137 25487 net.cpp:129] Top shape: 1 26 256 (6656)
I0222 17:46:33.200140 25487 net.cpp:129] Top shape: 1 26 256 (6656)
I0222 17:46:33.200145 25487 net.cpp:129] Top shape: 1 26 256 (6656)
I0222 17:46:33.200147 25487 net.cpp:129] Top shape: 1 26 256 (6656)
I0222 17:46:33.200150 25487 net.cpp:129] Top shape: 1 26 256 (6656)
I0222 17:46:33.200153 25487 net.cpp:129] Top shape: 1 26 256 (6656)
I0222 17:46:33.200157 25487 net.cpp:129] Top shape: 1 26 256 (6656)
I0222 17:46:33.200160 25487 net.cpp:129] Top shape: 1 26 256 (6656)
I0222 17:46:33.200163 25487 net.cpp:129] Top shape: 1 26 256 (6656)
I0222 17:46:33.200166 25487 net.cpp:129] Top shape: 1 26 256 (6656)
I0222 17:46:33.200170 25487 net.cpp:129] Top shape: 1 26 256 (6656)
I0222 17:46:33.200173 25487 net.cpp:129] Top shape: 1 26 256 (6656)
I0222 17:46:33.200176 25487 net.cpp:129] Top shape: 1 26 256 (6656)
I0222 17:46:33.200179 25487 net.cpp:129] Top shape: 1 26 256 (6656)
I0222 17:46:33.200183 25487 net.cpp:129] Top shape: 1 26 256 (6656)
I0222 17:46:33.200186 25487 net.cpp:129] Top shape: 1 26 256 (6656)
I0222 17:46:33.200189 25487 net.cpp:137] Memory required for data: 1303744
I0222 17:46:33.200192 25487 layer_factory.hpp:77] Creating layer lstm1_h_conted_0
I0222 17:46:33.200197 25487 net.cpp:84] Creating Layer lstm1_h_conted_0
I0222 17:46:33.200201 25487 net.cpp:406] lstm1_h_conted_0 <- h_0
I0222 17:46:33.204160 25487 net.cpp:406] lstm1_h_conted_0 <- cont_1_lstm1_cont_slice_0_split_0
I0222 17:46:33.204170 25487 net.cpp:380] lstm1_h_conted_0 -> h_conted_0
I0222 17:46:33.204219 25487 net.cpp:122] Setting up lstm1_h_conted_0
I0222 17:46:33.204226 25487 net.cpp:129] Top shape: 1 26 64 (1664)
I0222 17:46:33.204228 25487 net.cpp:137] Memory required for data: 1310400
I0222 17:46:33.204231 25487 layer_factory.hpp:77] Creating layer lstm1_transform_1
I0222 17:46:33.204237 25487 net.cpp:84] Creating Layer lstm1_transform_1
I0222 17:46:33.204259 25487 net.cpp:406] lstm1_transform_1 <- h_conted_0
I0222 17:46:33.204264 25487 net.cpp:380] lstm1_transform_1 -> W_hc_h_0
I0222 17:46:33.204943 25487 net.cpp:122] Setting up lstm1_transform_1
I0222 17:46:33.204952 25487 net.cpp:129] Top shape: 1 26 256 (6656)
I0222 17:46:33.204955 25487 net.cpp:137] Memory required for data: 1337024
I0222 17:46:33.204962 25487 layer_factory.hpp:77] Creating layer lstm1_gate_input_1
I0222 17:46:33.204972 25487 net.cpp:84] Creating Layer lstm1_gate_input_1
I0222 17:46:33.204975 25487 net.cpp:406] lstm1_gate_input_1 <- W_hc_h_0
I0222 17:46:33.204979 25487 net.cpp:406] lstm1_gate_input_1 <- W_xc_x_1
I0222 17:46:33.204983 25487 net.cpp:380] lstm1_gate_input_1 -> gate_input_1
I0222 17:46:33.205003 25487 net.cpp:122] Setting up lstm1_gate_input_1
I0222 17:46:33.205008 25487 net.cpp:129] Top shape: 1 26 256 (6656)
I0222 17:46:33.205010 25487 net.cpp:137] Memory required for data: 1363648
I0222 17:46:33.205013 25487 layer_factory.hpp:77] Creating layer lstm1_unit_1
I0222 17:46:33.205024 25487 net.cpp:84] Creating Layer lstm1_unit_1
I0222 17:46:33.205026 25487 net.cpp:406] lstm1_unit_1 <- c_0
I0222 17:46:33.205030 25487 net.cpp:406] lstm1_unit_1 <- gate_input_1
I0222 17:46:33.205034 25487 net.cpp:406] lstm1_unit_1 <- cont_1_lstm1_cont_slice_0_split_1
I0222 17:46:33.205039 25487 net.cpp:380] lstm1_unit_1 -> c_1
I0222 17:46:33.205044 25487 net.cpp:380] lstm1_unit_1 -> h_1
I0222 17:46:33.205070 25487 net.cpp:122] Setting up lstm1_unit_1
I0222 17:46:33.205077 25487 net.cpp:129] Top shape: 1 26 64 (1664)
I0222 17:46:33.205097 25487 net.cpp:129] Top shape: 1 26 64 (1664)
I0222 17:46:33.205101 25487 net.cpp:137] Memory required for data: 1376960
I0222 17:46:33.205106 25487 layer_factory.hpp:77] Creating layer h_1_lstm1_unit_1_1_split
I0222 17:46:33.205111 25487 net.cpp:84] Creating Layer h_1_lstm1_unit_1_1_split
I0222 17:46:33.205116 25487 net.cpp:406] h_1_lstm1_unit_1_1_split <- h_1
I0222 17:46:33.205121 25487 net.cpp:380] h_1_lstm1_unit_1_1_split -> h_1_lstm1_unit_1_1_split_0
I0222 17:46:33.205127 25487 net.cpp:380] h_1_lstm1_unit_1_1_split -> h_1_lstm1_unit_1_1_split_1
I0222 17:46:33.205163 25487 net.cpp:122] Setting up h_1_lstm1_unit_1_1_split
I0222 17:46:33.205169 25487 net.cpp:129] Top shape: 1 26 64 (1664)
I0222 17:46:33.205173 25487 net.cpp:129] Top shape: 1 26 64 (1664)
I0222 17:46:33.205178 25487 net.cpp:137] Memory required for data: 1390272
I0222 17:46:33.205180 25487 layer_factory.hpp:77] Creating layer lstm1_h_conted_1
I0222 17:46:33.205188 25487 net.cpp:84] Creating Layer lstm1_h_conted_1
I0222 17:46:33.205191 25487 net.cpp:406] lstm1_h_conted_1 <- h_1_lstm1_unit_1_1_split_0
I0222 17:46:33.205196 25487 net.cpp:406] lstm1_h_conted_1 <- cont_2_lstm1_cont_slice_1_split_0
I0222 17:46:33.205202 25487 net.cpp:380] lstm1_h_conted_1 -> h_conted_1
I0222 17:46:33.205245 25487 net.cpp:122] Setting up lstm1_h_conted_1
I0222 17:46:33.205252 25487 net.cpp:129] Top shape: 1 26 64 (1664)
I0222 17:46:33.205256 25487 net.cpp:137] Memory required for data: 1396928
I0222 17:46:33.205260 25487 layer_factory.hpp:77] Creating layer lstm1_transform_2
I0222 17:46:33.205267 25487 net.cpp:84] Creating Layer lstm1_transform_2
I0222 17:46:33.205287 25487 net.cpp:406] lstm1_transform_2 <- h_conted_1
I0222 17:46:33.205291 25487 net.cpp:380] lstm1_transform_2 -> W_hc_h_1
I0222 17:46:33.205421 25487 net.cpp:122] Setting up lstm1_transform_2
I0222 17:46:33.205430 25487 net.cpp:129] Top shape: 1 26 256 (6656)
I0222 17:46:33.205433 25487 net.cpp:137] Memory required for data: 1423552
I0222 17:46:33.205437 25487 net.cpp:465] Sharing parameters 'W_hc' owned by layer 'lstm1_transform_1', param index 0
I0222 17:46:33.205441 25487 layer_factory.hpp:77] Creating layer lstm1_gate_input_2
I0222 17:46:33.205449 25487 net.cpp:84] Creating Layer lstm1_gate_input_2
I0222 17:46:33.205453 25487 net.cpp:406] lstm1_gate_input_2 <- W_hc_h_1
I0222 17:46:33.205458 25487 net.cpp:406] lstm1_gate_input_2 <- W_xc_x_2
I0222 17:46:33.205464 25487 net.cpp:380] lstm1_gate_input_2 -> gate_input_2
I0222 17:46:33.205487 25487 net.cpp:122] Setting up lstm1_gate_input_2
I0222 17:46:33.205492 25487 net.cpp:129] Top shape: 1 26 256 (6656)
I0222 17:46:33.205495 25487 net.cpp:137] Memory required for data: 1450176
I0222 17:46:33.205499 25487 layer_factory.hpp:77] Creating layer lstm1_unit_2
I0222 17:46:33.205504 25487 net.cpp:84] Creating Layer lstm1_unit_2
I0222 17:46:33.205508 25487 net.cpp:406] lstm1_unit_2 <- c_1
I0222 17:46:33.205513 25487 net.cpp:406] lstm1_unit_2 <- gate_input_2
I0222 17:46:33.205518 25487 net.cpp:406] lstm1_unit_2 <- cont_2_lstm1_cont_slice_1_split_1
I0222 17:46:33.205524 25487 net.cpp:380] lstm1_unit_2 -> c_2
I0222 17:46:33.205530 25487 net.cpp:380] lstm1_unit_2 -> h_2
I0222 17:46:33.205557 25487 net.cpp:122] Setting up lstm1_unit_2
I0222 17:46:33.205564 25487 net.cpp:129] Top shape: 1 26 64 (1664)
I0222 17:46:33.205569 25487 net.cpp:129] Top shape: 1 26 64 (1664)
I0222 17:46:33.205572 25487 net.cpp:137] Memory required for data: 1463488
I0222 17:46:33.205575 25487 layer_factory.hpp:77] Creating layer h_2_lstm1_unit_2_1_split
I0222 17:46:33.205581 25487 net.cpp:84] Creating Layer h_2_lstm1_unit_2_1_split
I0222 17:46:33.205585 25487 net.cpp:406] h_2_lstm1_unit_2_1_split <- h_2
I0222 17:46:33.205590 25487 net.cpp:380] h_2_lstm1_unit_2_1_split -> h_2_lstm1_unit_2_1_split_0
I0222 17:46:33.205596 25487 net.cpp:380] h_2_lstm1_unit_2_1_split -> h_2_lstm1_unit_2_1_split_1
I0222 17:46:33.205617 25487 net.cpp:122] Setting up h_2_lstm1_unit_2_1_split
I0222 17:46:33.205623 25487 net.cpp:129] Top shape: 1 26 64 (1664)
I0222 17:46:33.205627 25487 net.cpp:129] Top shape: 1 26 64 (1664)
I0222 17:46:33.205631 25487 net.cpp:137] Memory required for data: 1476800
I0222 17:46:33.205636 25487 layer_factory.hpp:77] Creating layer lstm1_h_conted_2
I0222 17:46:33.205643 25487 net.cpp:84] Creating Layer lstm1_h_conted_2
I0222 17:46:33.205648 25487 net.cpp:406] lstm1_h_conted_2 <- h_2_lstm1_unit_2_1_split_0
I0222 17:46:33.205652 25487 net.cpp:406] lstm1_h_conted_2 <- cont_3_lstm1_cont_slice_2_split_0
I0222 17:46:33.205658 25487 net.cpp:380] lstm1_h_conted_2 -> h_conted_2
I0222 17:46:33.205694 25487 net.cpp:122] Setting up lstm1_h_conted_2
I0222 17:46:33.205700 25487 net.cpp:129] Top shape: 1 26 64 (1664)
I0222 17:46:33.205704 25487 net.cpp:137] Memory required for data: 1483456
I0222 17:46:33.205708 25487 layer_factory.hpp:77] Creating layer lstm1_transform_3
I0222 17:46:33.205715 25487 net.cpp:84] Creating Layer lstm1_transform_3
I0222 17:46:33.205719 25487 net.cpp:406] lstm1_transform_3 <- h_conted_2
I0222 17:46:33.205725 25487 net.cpp:380] lstm1_transform_3 -> W_hc_h_2
I0222 17:46:33.205828 25487 net.cpp:122] Setting up lstm1_transform_3
I0222 17:46:33.205837 25487 net.cpp:129] Top shape: 1 26 256 (6656)
I0222 17:46:33.205840 25487 net.cpp:137] Memory required for data: 1510080
I0222 17:46:33.205847 25487 net.cpp:465] Sharing parameters 'W_hc' owned by layer 'lstm1_transform_1', param index 0
I0222 17:46:33.205852 25487 layer_factory.hpp:77] Creating layer lstm1_gate_input_3
I0222 17:46:33.205857 25487 net.cpp:84] Creating Layer lstm1_gate_input_3
I0222 17:46:33.205862 25487 net.cpp:406] lstm1_gate_input_3 <- W_hc_h_2
I0222 17:46:33.205866 25487 net.cpp:406] lstm1_gate_input_3 <- W_xc_x_3
I0222 17:46:33.205873 25487 net.cpp:380] lstm1_gate_input_3 -> gate_input_3
I0222 17:46:33.205888 25487 net.cpp:122] Setting up lstm1_gate_input_3
I0222 17:46:33.205894 25487 net.cpp:129] Top shape: 1 26 256 (6656)
I0222 17:46:33.205899 25487 net.cpp:137] Memory required for data: 1536704
I0222 17:46:33.205904 25487 layer_factory.hpp:77] Creating layer lstm1_unit_3
I0222 17:46:33.205909 25487 net.cpp:84] Creating Layer lstm1_unit_3
I0222 17:46:33.230484 25487 net.cpp:406] lstm1_unit_3 <- c_2
I0222 17:46:33.230510 25487 net.cpp:406] lstm1_unit_3 <- gate_input_3
I0222 17:46:33.230515 25487 net.cpp:406] lstm1_unit_3 <- cont_3_lstm1_cont_slice_2_split_1
I0222 17:46:33.230522 25487 net.cpp:380] lstm1_unit_3 -> c_3
I0222 17:46:33.230533 25487 net.cpp:380] lstm1_unit_3 -> h_3
I0222 17:46:33.230579 25487 net.cpp:122] Setting up lstm1_unit_3
I0222 17:46:33.230598 25487 net.cpp:129] Top shape: 1 26 64 (1664)
I0222 17:46:33.230602 25487 net.cpp:129] Top shape: 1 26 64 (1664)
I0222 17:46:33.230605 25487 net.cpp:137] Memory required for data: 1550016
I0222 17:46:33.230609 25487 layer_factory.hpp:77] Creating layer h_3_lstm1_unit_3_1_split
I0222 17:46:33.230614 25487 net.cpp:84] Creating Layer h_3_lstm1_unit_3_1_split
I0222 17:46:33.230618 25487 net.cpp:406] h_3_lstm1_unit_3_1_split <- h_3
I0222 17:46:33.230623 25487 net.cpp:380] h_3_lstm1_unit_3_1_split -> h_3_lstm1_unit_3_1_split_0
I0222 17:46:33.230626 25487 net.cpp:380] h_3_lstm1_unit_3_1_split -> h_3_lstm1_unit_3_1_split_1
I0222 17:46:33.230646 25487 net.cpp:122] Setting up h_3_lstm1_unit_3_1_split
I0222 17:46:33.230650 25487 net.cpp:129] Top shape: 1 26 64 (1664)
I0222 17:46:33.230654 25487 net.cpp:129] Top shape: 1 26 64 (1664)
I0222 17:46:33.230656 25487 net.cpp:137] Memory required for data: 1563328
I0222 17:46:33.230659 25487 layer_factory.hpp:77] Creating layer lstm1_h_conted_3
I0222 17:46:33.230664 25487 net.cpp:84] Creating Layer lstm1_h_conted_3
I0222 17:46:33.230667 25487 net.cpp:406] lstm1_h_conted_3 <- h_3_lstm1_unit_3_1_split_0
I0222 17:46:33.230671 25487 net.cpp:406] lstm1_h_conted_3 <- cont_4_lstm1_cont_slice_3_split_0
I0222 17:46:33.230676 25487 net.cpp:380] lstm1_h_conted_3 -> h_conted_3
I0222 17:46:33.230711 25487 net.cpp:122] Setting up lstm1_h_conted_3
I0222 17:46:33.230716 25487 net.cpp:129] Top shape: 1 26 64 (1664)
I0222 17:46:33.230718 25487 net.cpp:137] Memory required for data: 1569984
I0222 17:46:33.230721 25487 layer_factory.hpp:77] Creating layer lstm1_transform_4
I0222 17:46:33.230728 25487 net.cpp:84] Creating Layer lstm1_transform_4
I0222 17:46:33.230731 25487 net.cpp:406] lstm1_transform_4 <- h_conted_3
I0222 17:46:33.230736 25487 net.cpp:380] lstm1_transform_4 -> W_hc_h_3
I0222 17:46:33.230834 25487 net.cpp:122] Setting up lstm1_transform_4
I0222 17:46:33.230839 25487 net.cpp:129] Top shape: 1 26 256 (6656)
I0222 17:46:33.230842 25487 net.cpp:137] Memory required for data: 1596608
I0222 17:46:33.230846 25487 net.cpp:465] Sharing parameters 'W_hc' owned by layer 'lstm1_transform_1', param index 0
I0222 17:46:33.230849 25487 layer_factory.hpp:77] Creating layer lstm1_gate_input_4
I0222 17:46:33.230855 25487 net.cpp:84] Creating Layer lstm1_gate_input_4
I0222 17:46:33.230859 25487 net.cpp:406] lstm1_gate_input_4 <- W_hc_h_3
I0222 17:46:33.230862 25487 net.cpp:406] lstm1_gate_input_4 <- W_xc_x_4
I0222 17:46:33.230866 25487 net.cpp:380] lstm1_gate_input_4 -> gate_input_4
I0222 17:46:33.230880 25487 net.cpp:122] Setting up lstm1_gate_input_4
I0222 17:46:33.230885 25487 net.cpp:129] Top shape: 1 26 256 (6656)
I0222 17:46:33.230887 25487 net.cpp:137] Memory required for data: 1623232
I0222 17:46:33.230890 25487 layer_factory.hpp:77] Creating layer lstm1_unit_4
I0222 17:46:33.230895 25487 net.cpp:84] Creating Layer lstm1_unit_4
I0222 17:46:33.230898 25487 net.cpp:406] lstm1_unit_4 <- c_3
I0222 17:46:33.230902 25487 net.cpp:406] lstm1_unit_4 <- gate_input_4
I0222 17:46:33.230906 25487 net.cpp:406] lstm1_unit_4 <- cont_4_lstm1_cont_slice_3_split_1
I0222 17:46:33.230909 25487 net.cpp:380] lstm1_unit_4 -> c_4
I0222 17:46:33.230913 25487 net.cpp:380] lstm1_unit_4 -> h_4
I0222 17:46:33.230937 25487 net.cpp:122] Setting up lstm1_unit_4
I0222 17:46:33.230942 25487 net.cpp:129] Top shape: 1 26 64 (1664)
I0222 17:46:33.230945 25487 net.cpp:129] Top shape: 1 26 64 (1664)
I0222 17:46:33.230948 25487 net.cpp:137] Memory required for data: 1636544
I0222 17:46:33.230952 25487 layer_factory.hpp:77] Creating layer h_4_lstm1_unit_4_1_split
I0222 17:46:33.230957 25487 net.cpp:84] Creating Layer h_4_lstm1_unit_4_1_split
I0222 17:46:33.230959 25487 net.cpp:406] h_4_lstm1_unit_4_1_split <- h_4
I0222 17:46:33.230963 25487 net.cpp:380] h_4_lstm1_unit_4_1_split -> h_4_lstm1_unit_4_1_split_0
I0222 17:46:33.230967 25487 net.cpp:380] h_4_lstm1_unit_4_1_split -> h_4_lstm1_unit_4_1_split_1
I0222 17:46:33.230995 25487 net.cpp:122] Setting up h_4_lstm1_unit_4_1_split
I0222 17:46:33.231000 25487 net.cpp:129] Top shape: 1 26 64 (1664)
I0222 17:46:33.231009 25487 net.cpp:129] Top shape: 1 26 64 (1664)
I0222 17:46:33.231012 25487 net.cpp:137] Memory required for data: 1649856
I0222 17:46:33.231015 25487 layer_factory.hpp:77] Creating layer lstm1_h_conted_4
I0222 17:46:33.231019 25487 net.cpp:84] Creating Layer lstm1_h_conted_4
I0222 17:46:33.231024 25487 net.cpp:406] lstm1_h_conted_4 <- h_4_lstm1_unit_4_1_split_0
I0222 17:46:33.231026 25487 net.cpp:406] lstm1_h_conted_4 <- cont_5_lstm1_cont_slice_4_split_0
I0222 17:46:33.231030 25487 net.cpp:380] lstm1_h_conted_4 -> h_conted_4
I0222 17:46:33.231060 25487 net.cpp:122] Setting up lstm1_h_conted_4
I0222 17:46:33.231065 25487 net.cpp:129] Top shape: 1 26 64 (1664)
I0222 17:46:33.231068 25487 net.cpp:137] Memory required for data: 1656512
I0222 17:46:33.231071 25487 layer_factory.hpp:77] Creating layer lstm1_transform_5
I0222 17:46:33.231076 25487 net.cpp:84] Creating Layer lstm1_transform_5
I0222 17:46:33.231078 25487 net.cpp:406] lstm1_transform_5 <- h_conted_4
I0222 17:46:33.231083 25487 net.cpp:380] lstm1_transform_5 -> W_hc_h_4
I0222 17:46:33.231175 25487 net.cpp:122] Setting up lstm1_transform_5
I0222 17:46:33.231180 25487 net.cpp:129] Top shape: 1 26 256 (6656)
I0222 17:46:33.231184 25487 net.cpp:137] Memory required for data: 1683136
I0222 17:46:33.231186 25487 net.cpp:465] Sharing parameters 'W_hc' owned by layer 'lstm1_transform_1', param index 0
I0222 17:46:33.231189 25487 layer_factory.hpp:77] Creating layer lstm1_gate_input_5
I0222 17:46:33.231194 25487 net.cpp:84] Creating Layer lstm1_gate_input_5
I0222 17:46:33.231196 25487 net.cpp:406] lstm1_gate_input_5 <- W_hc_h_4
I0222 17:46:33.231200 25487 net.cpp:406] lstm1_gate_input_5 <- W_xc_x_5
I0222 17:46:33.231204 25487 net.cpp:380] lstm1_gate_input_5 -> gate_input_5
I0222 17:46:33.231216 25487 net.cpp:122] Setting up lstm1_gate_input_5
I0222 17:46:33.231220 25487 net.cpp:129] Top shape: 1 26 256 (6656)
I0222 17:46:33.231223 25487 net.cpp:137] Memory required for data: 1709760
I0222 17:46:33.231226 25487 layer_factory.hpp:77] Creating layer lstm1_unit_5
I0222 17:46:33.231231 25487 net.cpp:84] Creating Layer lstm1_unit_5
I0222 17:46:33.231235 25487 net.cpp:406] lstm1_unit_5 <- c_4
I0222 17:46:33.231238 25487 net.cpp:406] lstm1_unit_5 <- gate_input_5
I0222 17:46:33.231241 25487 net.cpp:406] lstm1_unit_5 <- cont_5_lstm1_cont_slice_4_split_1
I0222 17:46:33.231245 25487 net.cpp:380] lstm1_unit_5 -> c_5
I0222 17:46:33.231251 25487 net.cpp:380] lstm1_unit_5 -> h_5
I0222 17:46:33.231276 25487 net.cpp:122] Setting up lstm1_unit_5
I0222 17:46:33.231279 25487 net.cpp:129] Top shape: 1 26 64 (1664)
I0222 17:46:33.231283 25487 net.cpp:129] Top shape: 1 26 64 (1664)
I0222 17:46:33.231286 25487 net.cpp:137] Memory required for data: 1723072
I0222 17:46:33.231288 25487 layer_factory.hpp:77] Creating layer h_5_lstm1_unit_5_1_split
I0222 17:46:33.231292 25487 net.cpp:84] Creating Layer h_5_lstm1_unit_5_1_split
I0222 17:46:33.231295 25487 net.cpp:406] h_5_lstm1_unit_5_1_split <- h_5
I0222 17:46:33.231300 25487 net.cpp:380] h_5_lstm1_unit_5_1_split -> h_5_lstm1_unit_5_1_split_0
I0222 17:46:33.231304 25487 net.cpp:380] h_5_lstm1_unit_5_1_split -> h_5_lstm1_unit_5_1_split_1
I0222 17:46:33.231322 25487 net.cpp:122] Setting up h_5_lstm1_unit_5_1_split
I0222 17:46:33.231325 25487 net.cpp:129] Top shape: 1 26 64 (1664)
I0222 17:46:33.231328 25487 net.cpp:129] Top shape: 1 26 64 (1664)
I0222 17:46:33.231331 25487 net.cpp:137] Memory required for data: 1736384
I0222 17:46:33.233917 25487 layer_factory.hpp:77] Creating layer lstm1_h_conted_5
I0222 17:46:33.233943 25487 net.cpp:84] Creating Layer lstm1_h_conted_5
I0222 17:46:33.233947 25487 net.cpp:406] lstm1_h_conted_5 <- h_5_lstm1_unit_5_1_split_0
I0222 17:46:33.233952 25487 net.cpp:406] lstm1_h_conted_5 <- cont_6_lstm1_cont_slice_5_split_0
I0222 17:46:33.233958 25487 net.cpp:380] lstm1_h_conted_5 -> h_conted_5
I0222 17:46:33.233997 25487 net.cpp:122] Setting up lstm1_h_conted_5
I0222 17:46:33.234016 25487 net.cpp:129] Top shape: 1 26 64 (1664)
I0222 17:46:33.234019 25487 net.cpp:137] Memory required for data: 1743040
I0222 17:46:33.234028 25487 layer_factory.hpp:77] Creating layer lstm1_transform_6
I0222 17:46:33.234033 25487 net.cpp:84] Creating Layer lstm1_transform_6
I0222 17:46:33.234036 25487 net.cpp:406] lstm1_transform_6 <- h_conted_5
I0222 17:46:33.234040 25487 net.cpp:380] lstm1_transform_6 -> W_hc_h_5
I0222 17:46:33.234133 25487 net.cpp:122] Setting up lstm1_transform_6
I0222 17:46:33.234138 25487 net.cpp:129] Top shape: 1 26 256 (6656)
I0222 17:46:33.234141 25487 net.cpp:137] Memory required for data: 1769664
I0222 17:46:33.234144 25487 net.cpp:465] Sharing parameters 'W_hc' owned by layer 'lstm1_transform_1', param index 0
I0222 17:46:33.234148 25487 layer_factory.hpp:77] Creating layer lstm1_gate_input_6
I0222 17:46:33.234153 25487 net.cpp:84] Creating Layer lstm1_gate_input_6
I0222 17:46:33.234158 25487 net.cpp:406] lstm1_gate_input_6 <- W_hc_h_5
I0222 17:46:33.234161 25487 net.cpp:406] lstm1_gate_input_6 <- W_xc_x_6
I0222 17:46:33.234165 25487 net.cpp:380] lstm1_gate_input_6 -> gate_input_6
I0222 17:46:33.234179 25487 net.cpp:122] Setting up lstm1_gate_input_6
I0222 17:46:33.234182 25487 net.cpp:129] Top shape: 1 26 256 (6656)
I0222 17:46:33.234185 25487 net.cpp:137] Memory required for data: 1796288
I0222 17:46:33.234189 25487 layer_factory.hpp:77] Creating layer lstm1_unit_6
I0222 17:46:33.234192 25487 net.cpp:84] Creating Layer lstm1_unit_6
I0222 17:46:33.234195 25487 net.cpp:406] lstm1_unit_6 <- c_5
I0222 17:46:33.234200 25487 net.cpp:406] lstm1_unit_6 <- gate_input_6
I0222 17:46:33.234203 25487 net.cpp:406] lstm1_unit_6 <- cont_6_lstm1_cont_slice_5_split_1
I0222 17:46:33.234208 25487 net.cpp:380] lstm1_unit_6 -> c_6
I0222 17:46:33.234212 25487 net.cpp:380] lstm1_unit_6 -> h_6
I0222 17:46:33.234236 25487 net.cpp:122] Setting up lstm1_unit_6
I0222 17:46:33.234241 25487 net.cpp:129] Top shape: 1 26 64 (1664)
I0222 17:46:33.234244 25487 net.cpp:129] Top shape: 1 26 64 (1664)
I0222 17:46:33.234246 25487 net.cpp:137] Memory required for data: 1809600
I0222 17:46:33.234249 25487 layer_factory.hpp:77] Creating layer h_6_lstm1_unit_6_1_split
I0222 17:46:33.234253 25487 net.cpp:84] Creating Layer h_6_lstm1_unit_6_1_split
I0222 17:46:33.234256 25487 net.cpp:406] h_6_lstm1_unit_6_1_split <- h_6
I0222 17:46:33.234261 25487 net.cpp:380] h_6_lstm1_unit_6_1_split -> h_6_lstm1_unit_6_1_split_0
I0222 17:46:33.234266 25487 net.cpp:380] h_6_lstm1_unit_6_1_split -> h_6_lstm1_unit_6_1_split_1
I0222 17:46:33.234282 25487 net.cpp:122] Setting up h_6_lstm1_unit_6_1_split
I0222 17:46:33.234287 25487 net.cpp:129] Top shape: 1 26 64 (1664)
I0222 17:46:33.234290 25487 net.cpp:129] Top shape: 1 26 64 (1664)
I0222 17:46:33.234292 25487 net.cpp:137] Memory required for data: 1822912
I0222 17:46:33.234295 25487 layer_factory.hpp:77] Creating layer lstm1_h_conted_6
I0222 17:46:33.234300 25487 net.cpp:84] Creating Layer lstm1_h_conted_6
I0222 17:46:33.234304 25487 net.cpp:406] lstm1_h_conted_6 <- h_6_lstm1_unit_6_1_split_0
I0222 17:46:33.234308 25487 net.cpp:406] lstm1_h_conted_6 <- cont_7_lstm1_cont_slice_6_split_0
I0222 17:46:33.234311 25487 net.cpp:380] lstm1_h_conted_6 -> h_conted_6
I0222 17:46:33.234347 25487 net.cpp:122] Setting up lstm1_h_conted_6
I0222 17:46:33.234352 25487 net.cpp:129] Top shape: 1 26 64 (1664)
I0222 17:46:33.234355 25487 net.cpp:137] Memory required for data: 1829568
I0222 17:46:33.234359 25487 layer_factory.hpp:77] Creating layer lstm1_transform_7
I0222 17:46:33.234364 25487 net.cpp:84] Creating Layer lstm1_transform_7
I0222 17:46:33.234366 25487 net.cpp:406] lstm1_transform_7 <- h_conted_6
I0222 17:46:33.234370 25487 net.cpp:380] lstm1_transform_7 -> W_hc_h_6
I0222 17:46:33.234462 25487 net.cpp:122] Setting up lstm1_transform_7
I0222 17:46:33.234467 25487 net.cpp:129] Top shape: 1 26 256 (6656)
I0222 17:46:33.234470 25487 net.cpp:137] Memory required for data: 1856192
I0222 17:46:33.234475 25487 net.cpp:465] Sharing parameters 'W_hc' owned by layer 'lstm1_transform_1', param index 0
I0222 17:46:33.234478 25487 layer_factory.hpp:77] Creating layer lstm1_gate_input_7
I0222 17:46:33.234483 25487 net.cpp:84] Creating Layer lstm1_gate_input_7
I0222 17:46:33.234490 25487 net.cpp:406] lstm1_gate_input_7 <- W_hc_h_6
I0222 17:46:33.234495 25487 net.cpp:406] lstm1_gate_input_7 <- W_xc_x_7
I0222 17:46:33.234500 25487 net.cpp:380] lstm1_gate_input_7 -> gate_input_7
I0222 17:46:33.234513 25487 net.cpp:122] Setting up lstm1_gate_input_7
I0222 17:46:33.234517 25487 net.cpp:129] Top shape: 1 26 256 (6656)
I0222 17:46:33.234519 25487 net.cpp:137] Memory required for data: 1882816
I0222 17:46:33.234522 25487 layer_factory.hpp:77] Creating layer lstm1_unit_7
I0222 17:46:33.234527 25487 net.cpp:84] Creating Layer lstm1_unit_7
I0222 17:46:33.234530 25487 net.cpp:406] lstm1_unit_7 <- c_6
I0222 17:46:33.234534 25487 net.cpp:406] lstm1_unit_7 <- gate_input_7
I0222 17:46:33.234537 25487 net.cpp:406] lstm1_unit_7 <- cont_7_lstm1_cont_slice_6_split_1
I0222 17:46:33.234541 25487 net.cpp:380] lstm1_unit_7 -> c_7
I0222 17:46:33.234546 25487 net.cpp:380] lstm1_unit_7 -> h_7
I0222 17:46:33.234570 25487 net.cpp:122] Setting up lstm1_unit_7
I0222 17:46:33.234573 25487 net.cpp:129] Top shape: 1 26 64 (1664)
I0222 17:46:33.234576 25487 net.cpp:129] Top shape: 1 26 64 (1664)
I0222 17:46:33.234580 25487 net.cpp:137] Memory required for data: 1896128
I0222 17:46:33.234582 25487 layer_factory.hpp:77] Creating layer h_7_lstm1_unit_7_1_split
I0222 17:46:33.234586 25487 net.cpp:84] Creating Layer h_7_lstm1_unit_7_1_split
I0222 17:46:33.234589 25487 net.cpp:406] h_7_lstm1_unit_7_1_split <- h_7
I0222 17:46:33.234593 25487 net.cpp:380] h_7_lstm1_unit_7_1_split -> h_7_lstm1_unit_7_1_split_0
I0222 17:46:33.234597 25487 net.cpp:380] h_7_lstm1_unit_7_1_split -> h_7_lstm1_unit_7_1_split_1
I0222 17:46:33.234614 25487 net.cpp:122] Setting up h_7_lstm1_unit_7_1_split
I0222 17:46:33.234618 25487 net.cpp:129] Top shape: 1 26 64 (1664)
I0222 17:46:33.234622 25487 net.cpp:129] Top shape: 1 26 64 (1664)
I0222 17:46:33.234624 25487 net.cpp:137] Memory required for data: 1909440
I0222 17:46:33.234627 25487 layer_factory.hpp:77] Creating layer lstm1_h_conted_7
I0222 17:46:33.234637 25487 net.cpp:84] Creating Layer lstm1_h_conted_7
I0222 17:46:33.234640 25487 net.cpp:406] lstm1_h_conted_7 <- h_7_lstm1_unit_7_1_split_0
I0222 17:46:33.234644 25487 net.cpp:406] lstm1_h_conted_7 <- cont_8_lstm1_cont_slice_7_split_0
I0222 17:46:33.234648 25487 net.cpp:380] lstm1_h_conted_7 -> h_conted_7
I0222 17:46:33.234678 25487 net.cpp:122] Setting up lstm1_h_conted_7
I0222 17:46:33.234683 25487 net.cpp:129] Top shape: 1 26 64 (1664)
I0222 17:46:33.234685 25487 net.cpp:137] Memory required for data: 1916096
I0222 17:46:33.234689 25487 layer_factory.hpp:77] Creating layer lstm1_transform_8
I0222 17:46:33.234694 25487 net.cpp:84] Creating Layer lstm1_transform_8
I0222 17:46:33.234696 25487 net.cpp:406] lstm1_transform_8 <- h_conted_7
I0222 17:46:33.234700 25487 net.cpp:380] lstm1_transform_8 -> W_hc_h_7
I0222 17:46:33.234791 25487 net.cpp:122] Setting up lstm1_transform_8
I0222 17:46:33.234796 25487 net.cpp:129] Top shape: 1 26 256 (6656)
I0222 17:46:33.234797 25487 net.cpp:137] Memory required for data: 1942720
I0222 17:46:33.234800 25487 net.cpp:465] Sharing parameters 'W_hc' owned by layer 'lstm1_transform_1', param index 0
I0222 17:46:33.234804 25487 layer_factory.hpp:77] Creating layer lstm1_gate_input_8
I0222 17:46:33.234809 25487 net.cpp:84] Creating Layer lstm1_gate_input_8
I0222 17:46:33.261108 25487 net.cpp:406] lstm1_gate_input_8 <- W_hc_h_7
I0222 17:46:33.261132 25487 net.cpp:406] lstm1_gate_input_8 <- W_xc_x_8
I0222 17:46:33.261154 25487 net.cpp:380] lstm1_gate_input_8 -> gate_input_8
I0222 17:46:33.261185 25487 net.cpp:122] Setting up lstm1_gate_input_8
I0222 17:46:33.261191 25487 net.cpp:129] Top shape: 1 26 256 (6656)
I0222 17:46:33.261194 25487 net.cpp:137] Memory required for data: 1969344
I0222 17:46:33.261198 25487 layer_factory.hpp:77] Creating layer lstm1_unit_8
I0222 17:46:33.261202 25487 net.cpp:84] Creating Layer lstm1_unit_8
I0222 17:46:33.261205 25487 net.cpp:406] lstm1_unit_8 <- c_7
I0222 17:46:33.261209 25487 net.cpp:406] lstm1_unit_8 <- gate_input_8
I0222 17:46:33.261212 25487 net.cpp:406] lstm1_unit_8 <- cont_8_lstm1_cont_slice_7_split_1
I0222 17:46:33.261229 25487 net.cpp:380] lstm1_unit_8 -> c_8
I0222 17:46:33.261234 25487 net.cpp:380] lstm1_unit_8 -> h_8
I0222 17:46:33.261260 25487 net.cpp:122] Setting up lstm1_unit_8
I0222 17:46:33.261265 25487 net.cpp:129] Top shape: 1 26 64 (1664)
I0222 17:46:33.261268 25487 net.cpp:129] Top shape: 1 26 64 (1664)
I0222 17:46:33.261270 25487 net.cpp:137] Memory required for data: 1982656
I0222 17:46:33.261272 25487 layer_factory.hpp:77] Creating layer h_8_lstm1_unit_8_1_split
I0222 17:46:33.261276 25487 net.cpp:84] Creating Layer h_8_lstm1_unit_8_1_split
I0222 17:46:33.261278 25487 net.cpp:406] h_8_lstm1_unit_8_1_split <- h_8
I0222 17:46:33.261282 25487 net.cpp:380] h_8_lstm1_unit_8_1_split -> h_8_lstm1_unit_8_1_split_0
I0222 17:46:33.261286 25487 net.cpp:380] h_8_lstm1_unit_8_1_split -> h_8_lstm1_unit_8_1_split_1
I0222 17:46:33.261303 25487 net.cpp:122] Setting up h_8_lstm1_unit_8_1_split
I0222 17:46:33.261308 25487 net.cpp:129] Top shape: 1 26 64 (1664)
I0222 17:46:33.261312 25487 net.cpp:129] Top shape: 1 26 64 (1664)
I0222 17:46:33.261314 25487 net.cpp:137] Memory required for data: 1995968
I0222 17:46:33.261317 25487 layer_factory.hpp:77] Creating layer lstm1_h_conted_8
I0222 17:46:33.261322 25487 net.cpp:84] Creating Layer lstm1_h_conted_8
I0222 17:46:33.261325 25487 net.cpp:406] lstm1_h_conted_8 <- h_8_lstm1_unit_8_1_split_0
I0222 17:46:33.261330 25487 net.cpp:406] lstm1_h_conted_8 <- cont_9_lstm1_cont_slice_8_split_0
I0222 17:46:33.261334 25487 net.cpp:380] lstm1_h_conted_8 -> h_conted_8
I0222 17:46:33.261382 25487 net.cpp:122] Setting up lstm1_h_conted_8
I0222 17:46:33.261389 25487 net.cpp:129] Top shape: 1 26 64 (1664)
I0222 17:46:33.261391 25487 net.cpp:137] Memory required for data: 2002624
I0222 17:46:33.261394 25487 layer_factory.hpp:77] Creating layer lstm1_transform_9
I0222 17:46:33.261399 25487 net.cpp:84] Creating Layer lstm1_transform_9
I0222 17:46:33.261404 25487 net.cpp:406] lstm1_transform_9 <- h_conted_8
I0222 17:46:33.261407 25487 net.cpp:380] lstm1_transform_9 -> W_hc_h_8
I0222 17:46:33.261503 25487 net.cpp:122] Setting up lstm1_transform_9
I0222 17:46:33.261508 25487 net.cpp:129] Top shape: 1 26 256 (6656)
I0222 17:46:33.261512 25487 net.cpp:137] Memory required for data: 2029248
I0222 17:46:33.261514 25487 net.cpp:465] Sharing parameters 'W_hc' owned by layer 'lstm1_transform_1', param index 0
I0222 17:46:33.261518 25487 layer_factory.hpp:77] Creating layer lstm1_gate_input_9
I0222 17:46:33.261523 25487 net.cpp:84] Creating Layer lstm1_gate_input_9
I0222 17:46:33.261526 25487 net.cpp:406] lstm1_gate_input_9 <- W_hc_h_8
I0222 17:46:33.261529 25487 net.cpp:406] lstm1_gate_input_9 <- W_xc_x_9
I0222 17:46:33.261534 25487 net.cpp:380] lstm1_gate_input_9 -> gate_input_9
I0222 17:46:33.261548 25487 net.cpp:122] Setting up lstm1_gate_input_9
I0222 17:46:33.261551 25487 net.cpp:129] Top shape: 1 26 256 (6656)
I0222 17:46:33.261554 25487 net.cpp:137] Memory required for data: 2055872
I0222 17:46:33.261557 25487 layer_factory.hpp:77] Creating layer lstm1_unit_9
I0222 17:46:33.261561 25487 net.cpp:84] Creating Layer lstm1_unit_9
I0222 17:46:33.261564 25487 net.cpp:406] lstm1_unit_9 <- c_8
I0222 17:46:33.261569 25487 net.cpp:406] lstm1_unit_9 <- gate_input_9
I0222 17:46:33.261572 25487 net.cpp:406] lstm1_unit_9 <- cont_9_lstm1_cont_slice_8_split_1
I0222 17:46:33.261576 25487 net.cpp:380] lstm1_unit_9 -> c_9
I0222 17:46:33.261580 25487 net.cpp:380] lstm1_unit_9 -> h_9
I0222 17:46:33.261605 25487 net.cpp:122] Setting up lstm1_unit_9
I0222 17:46:33.261608 25487 net.cpp:129] Top shape: 1 26 64 (1664)
I0222 17:46:33.261611 25487 net.cpp:129] Top shape: 1 26 64 (1664)
I0222 17:46:33.261615 25487 net.cpp:137] Memory required for data: 2069184
I0222 17:46:33.261617 25487 layer_factory.hpp:77] Creating layer h_9_lstm1_unit_9_1_split
I0222 17:46:33.261621 25487 net.cpp:84] Creating Layer h_9_lstm1_unit_9_1_split
I0222 17:46:33.261624 25487 net.cpp:406] h_9_lstm1_unit_9_1_split <- h_9
I0222 17:46:33.261628 25487 net.cpp:380] h_9_lstm1_unit_9_1_split -> h_9_lstm1_unit_9_1_split_0
I0222 17:46:33.261637 25487 net.cpp:380] h_9_lstm1_unit_9_1_split -> h_9_lstm1_unit_9_1_split_1
I0222 17:46:33.261656 25487 net.cpp:122] Setting up h_9_lstm1_unit_9_1_split
I0222 17:46:33.261660 25487 net.cpp:129] Top shape: 1 26 64 (1664)
I0222 17:46:33.261664 25487 net.cpp:129] Top shape: 1 26 64 (1664)
I0222 17:46:33.261667 25487 net.cpp:137] Memory required for data: 2082496
I0222 17:46:33.261669 25487 layer_factory.hpp:77] Creating layer lstm1_h_conted_9
I0222 17:46:33.261674 25487 net.cpp:84] Creating Layer lstm1_h_conted_9
I0222 17:46:33.261677 25487 net.cpp:406] lstm1_h_conted_9 <- h_9_lstm1_unit_9_1_split_0
I0222 17:46:33.261682 25487 net.cpp:406] lstm1_h_conted_9 <- cont_10_lstm1_cont_slice_9_split_0
I0222 17:46:33.261685 25487 net.cpp:380] lstm1_h_conted_9 -> h_conted_9
I0222 17:46:33.261714 25487 net.cpp:122] Setting up lstm1_h_conted_9
I0222 17:46:33.261719 25487 net.cpp:129] Top shape: 1 26 64 (1664)
I0222 17:46:33.261723 25487 net.cpp:137] Memory required for data: 2089152
I0222 17:46:33.261724 25487 layer_factory.hpp:77] Creating layer lstm1_transform_10
I0222 17:46:33.261729 25487 net.cpp:84] Creating Layer lstm1_transform_10
I0222 17:46:33.261732 25487 net.cpp:406] lstm1_transform_10 <- h_conted_9
I0222 17:46:33.261737 25487 net.cpp:380] lstm1_transform_10 -> W_hc_h_9
I0222 17:46:33.261829 25487 net.cpp:122] Setting up lstm1_transform_10
I0222 17:46:33.261834 25487 net.cpp:129] Top shape: 1 26 256 (6656)
I0222 17:46:33.261837 25487 net.cpp:137] Memory required for data: 2115776
I0222 17:46:33.261840 25487 net.cpp:465] Sharing parameters 'W_hc' owned by layer 'lstm1_transform_1', param index 0
I0222 17:46:33.261843 25487 layer_factory.hpp:77] Creating layer lstm1_gate_input_10
I0222 17:46:33.261847 25487 net.cpp:84] Creating Layer lstm1_gate_input_10
I0222 17:46:33.261852 25487 net.cpp:406] lstm1_gate_input_10 <- W_hc_h_9
I0222 17:46:33.261854 25487 net.cpp:406] lstm1_gate_input_10 <- W_xc_x_10
I0222 17:46:33.261858 25487 net.cpp:380] lstm1_gate_input_10 -> gate_input_10
I0222 17:46:33.261871 25487 net.cpp:122] Setting up lstm1_gate_input_10
I0222 17:46:33.261876 25487 net.cpp:129] Top shape: 1 26 256 (6656)
I0222 17:46:33.261878 25487 net.cpp:137] Memory required for data: 2142400
I0222 17:46:33.261881 25487 layer_factory.hpp:77] Creating layer lstm1_unit_10
I0222 17:46:33.261885 25487 net.cpp:84] Creating Layer lstm1_unit_10
I0222 17:46:33.261888 25487 net.cpp:406] lstm1_unit_10 <- c_9
I0222 17:46:33.261893 25487 net.cpp:406] lstm1_unit_10 <- gate_input_10
I0222 17:46:33.261896 25487 net.cpp:406] lstm1_unit_10 <- cont_10_lstm1_cont_slice_9_split_1
I0222 17:46:33.261900 25487 net.cpp:380] lstm1_unit_10 -> c_10
I0222 17:46:33.261905 25487 net.cpp:380] lstm1_unit_10 -> h_10
I0222 17:46:33.261929 25487 net.cpp:122] Setting up lstm1_unit_10
I0222 17:46:33.261932 25487 net.cpp:129] Top shape: 1 26 64 (1664)
I0222 17:46:33.261935 25487 net.cpp:129] Top shape: 1 26 64 (1664)
I0222 17:46:33.261939 25487 net.cpp:137] Memory required for data: 2155712
I0222 17:46:33.261941 25487 layer_factory.hpp:77] Creating layer h_10_lstm1_unit_10_1_split
I0222 17:46:33.261946 25487 net.cpp:84] Creating Layer h_10_lstm1_unit_10_1_split
I0222 17:46:33.264055 25487 net.cpp:406] h_10_lstm1_unit_10_1_split <- h_10
I0222 17:46:33.264065 25487 net.cpp:380] h_10_lstm1_unit_10_1_split -> h_10_lstm1_unit_10_1_split_0
I0222 17:46:33.264071 25487 net.cpp:380] h_10_lstm1_unit_10_1_split -> h_10_lstm1_unit_10_1_split_1
I0222 17:46:33.264099 25487 net.cpp:122] Setting up h_10_lstm1_unit_10_1_split
I0222 17:46:33.264106 25487 net.cpp:129] Top shape: 1 26 64 (1664)
I0222 17:46:33.264109 25487 net.cpp:129] Top shape: 1 26 64 (1664)
I0222 17:46:33.264112 25487 net.cpp:137] Memory required for data: 2169024
I0222 17:46:33.264116 25487 layer_factory.hpp:77] Creating layer lstm1_h_conted_10
I0222 17:46:33.264120 25487 net.cpp:84] Creating Layer lstm1_h_conted_10
I0222 17:46:33.264124 25487 net.cpp:406] lstm1_h_conted_10 <- h_10_lstm1_unit_10_1_split_0
I0222 17:46:33.264128 25487 net.cpp:406] lstm1_h_conted_10 <- cont_11_lstm1_cont_slice_10_split_0
I0222 17:46:33.264139 25487 net.cpp:380] lstm1_h_conted_10 -> h_conted_10
I0222 17:46:33.264173 25487 net.cpp:122] Setting up lstm1_h_conted_10
I0222 17:46:33.264178 25487 net.cpp:129] Top shape: 1 26 64 (1664)
I0222 17:46:33.264181 25487 net.cpp:137] Memory required for data: 2175680
I0222 17:46:33.264185 25487 layer_factory.hpp:77] Creating layer lstm1_transform_11
I0222 17:46:33.264189 25487 net.cpp:84] Creating Layer lstm1_transform_11
I0222 17:46:33.264194 25487 net.cpp:406] lstm1_transform_11 <- h_conted_10
I0222 17:46:33.264197 25487 net.cpp:380] lstm1_transform_11 -> W_hc_h_10
I0222 17:46:33.264298 25487 net.cpp:122] Setting up lstm1_transform_11
I0222 17:46:33.264304 25487 net.cpp:129] Top shape: 1 26 256 (6656)
I0222 17:46:33.264307 25487 net.cpp:137] Memory required for data: 2202304
I0222 17:46:33.264310 25487 net.cpp:465] Sharing parameters 'W_hc' owned by layer 'lstm1_transform_1', param index 0
I0222 17:46:33.264313 25487 layer_factory.hpp:77] Creating layer lstm1_gate_input_11
I0222 17:46:33.264318 25487 net.cpp:84] Creating Layer lstm1_gate_input_11
I0222 17:46:33.264322 25487 net.cpp:406] lstm1_gate_input_11 <- W_hc_h_10
I0222 17:46:33.264325 25487 net.cpp:406] lstm1_gate_input_11 <- W_xc_x_11
I0222 17:46:33.264329 25487 net.cpp:380] lstm1_gate_input_11 -> gate_input_11
I0222 17:46:33.264343 25487 net.cpp:122] Setting up lstm1_gate_input_11
I0222 17:46:33.264346 25487 net.cpp:129] Top shape: 1 26 256 (6656)
I0222 17:46:33.264349 25487 net.cpp:137] Memory required for data: 2228928
I0222 17:46:33.264353 25487 layer_factory.hpp:77] Creating layer lstm1_unit_11
I0222 17:46:33.264358 25487 net.cpp:84] Creating Layer lstm1_unit_11
I0222 17:46:33.264361 25487 net.cpp:406] lstm1_unit_11 <- c_10
I0222 17:46:33.264365 25487 net.cpp:406] lstm1_unit_11 <- gate_input_11
I0222 17:46:33.264369 25487 net.cpp:406] lstm1_unit_11 <- cont_11_lstm1_cont_slice_10_split_1
I0222 17:46:33.264374 25487 net.cpp:380] lstm1_unit_11 -> c_11
I0222 17:46:33.264377 25487 net.cpp:380] lstm1_unit_11 -> h_11
I0222 17:46:33.264401 25487 net.cpp:122] Setting up lstm1_unit_11
I0222 17:46:33.264405 25487 net.cpp:129] Top shape: 1 26 64 (1664)
I0222 17:46:33.264410 25487 net.cpp:129] Top shape: 1 26 64 (1664)
I0222 17:46:33.264412 25487 net.cpp:137] Memory required for data: 2242240
I0222 17:46:33.264415 25487 layer_factory.hpp:77] Creating layer h_11_lstm1_unit_11_1_split
I0222 17:46:33.264420 25487 net.cpp:84] Creating Layer h_11_lstm1_unit_11_1_split
I0222 17:46:33.264422 25487 net.cpp:406] h_11_lstm1_unit_11_1_split <- h_11
I0222 17:46:33.264427 25487 net.cpp:380] h_11_lstm1_unit_11_1_split -> h_11_lstm1_unit_11_1_split_0
I0222 17:46:33.264432 25487 net.cpp:380] h_11_lstm1_unit_11_1_split -> h_11_lstm1_unit_11_1_split_1
I0222 17:46:33.264448 25487 net.cpp:122] Setting up h_11_lstm1_unit_11_1_split
I0222 17:46:33.264453 25487 net.cpp:129] Top shape: 1 26 64 (1664)
I0222 17:46:33.264456 25487 net.cpp:129] Top shape: 1 26 64 (1664)
I0222 17:46:33.264459 25487 net.cpp:137] Memory required for data: 2255552
I0222 17:46:33.264462 25487 layer_factory.hpp:77] Creating layer lstm1_h_conted_11
I0222 17:46:33.264467 25487 net.cpp:84] Creating Layer lstm1_h_conted_11
I0222 17:46:33.264470 25487 net.cpp:406] lstm1_h_conted_11 <- h_11_lstm1_unit_11_1_split_0
I0222 17:46:33.264474 25487 net.cpp:406] lstm1_h_conted_11 <- cont_12_lstm1_cont_slice_11_split_0
I0222 17:46:33.264479 25487 net.cpp:380] lstm1_h_conted_11 -> h_conted_11
I0222 17:46:33.264509 25487 net.cpp:122] Setting up lstm1_h_conted_11
I0222 17:46:33.264514 25487 net.cpp:129] Top shape: 1 26 64 (1664)
I0222 17:46:33.264518 25487 net.cpp:137] Memory required for data: 2262208
I0222 17:46:33.264520 25487 layer_factory.hpp:77] Creating layer lstm1_transform_12
I0222 17:46:33.264524 25487 net.cpp:84] Creating Layer lstm1_transform_12
I0222 17:46:33.264528 25487 net.cpp:406] lstm1_transform_12 <- h_conted_11
I0222 17:46:33.264531 25487 net.cpp:380] lstm1_transform_12 -> W_hc_h_11
I0222 17:46:33.264623 25487 net.cpp:122] Setting up lstm1_transform_12
I0222 17:46:33.264628 25487 net.cpp:129] Top shape: 1 26 256 (6656)
I0222 17:46:33.264636 25487 net.cpp:137] Memory required for data: 2288832
I0222 17:46:33.264639 25487 net.cpp:465] Sharing parameters 'W_hc' owned by layer 'lstm1_transform_1', param index 0
I0222 17:46:33.264642 25487 layer_factory.hpp:77] Creating layer lstm1_gate_input_12
I0222 17:46:33.264647 25487 net.cpp:84] Creating Layer lstm1_gate_input_12
I0222 17:46:33.264652 25487 net.cpp:406] lstm1_gate_input_12 <- W_hc_h_11
I0222 17:46:33.264654 25487 net.cpp:406] lstm1_gate_input_12 <- W_xc_x_12
I0222 17:46:33.264658 25487 net.cpp:380] lstm1_gate_input_12 -> gate_input_12
I0222 17:46:33.264672 25487 net.cpp:122] Setting up lstm1_gate_input_12
I0222 17:46:33.264675 25487 net.cpp:129] Top shape: 1 26 256 (6656)
I0222 17:46:33.264678 25487 net.cpp:137] Memory required for data: 2315456
I0222 17:46:33.264681 25487 layer_factory.hpp:77] Creating layer lstm1_unit_12
I0222 17:46:33.264685 25487 net.cpp:84] Creating Layer lstm1_unit_12
I0222 17:46:33.264688 25487 net.cpp:406] lstm1_unit_12 <- c_11
I0222 17:46:33.264693 25487 net.cpp:406] lstm1_unit_12 <- gate_input_12
I0222 17:46:33.264696 25487 net.cpp:406] lstm1_unit_12 <- cont_12_lstm1_cont_slice_11_split_1
I0222 17:46:33.264701 25487 net.cpp:380] lstm1_unit_12 -> c_12
I0222 17:46:33.264705 25487 net.cpp:380] lstm1_unit_12 -> h_12
I0222 17:46:33.264729 25487 net.cpp:122] Setting up lstm1_unit_12
I0222 17:46:33.264732 25487 net.cpp:129] Top shape: 1 26 64 (1664)
I0222 17:46:33.264736 25487 net.cpp:129] Top shape: 1 26 64 (1664)
I0222 17:46:33.264739 25487 net.cpp:137] Memory required for data: 2328768
I0222 17:46:33.264742 25487 layer_factory.hpp:77] Creating layer h_12_lstm1_unit_12_1_split
I0222 17:46:33.264745 25487 net.cpp:84] Creating Layer h_12_lstm1_unit_12_1_split
I0222 17:46:33.264749 25487 net.cpp:406] h_12_lstm1_unit_12_1_split <- h_12
I0222 17:46:33.264752 25487 net.cpp:380] h_12_lstm1_unit_12_1_split -> h_12_lstm1_unit_12_1_split_0
I0222 17:46:33.264757 25487 net.cpp:380] h_12_lstm1_unit_12_1_split -> h_12_lstm1_unit_12_1_split_1
I0222 17:46:33.264776 25487 net.cpp:122] Setting up h_12_lstm1_unit_12_1_split
I0222 17:46:33.264781 25487 net.cpp:129] Top shape: 1 26 64 (1664)
I0222 17:46:33.264784 25487 net.cpp:129] Top shape: 1 26 64 (1664)
I0222 17:46:33.264787 25487 net.cpp:137] Memory required for data: 2342080
I0222 17:46:33.264789 25487 layer_factory.hpp:77] Creating layer lstm1_h_conted_12
I0222 17:46:33.264796 25487 net.cpp:84] Creating Layer lstm1_h_conted_12
I0222 17:46:33.264799 25487 net.cpp:406] lstm1_h_conted_12 <- h_12_lstm1_unit_12_1_split_0
I0222 17:46:33.264803 25487 net.cpp:406] lstm1_h_conted_12 <- cont_13_lstm1_cont_slice_12_split_0
I0222 17:46:33.264807 25487 net.cpp:380] lstm1_h_conted_12 -> h_conted_12
I0222 17:46:33.264837 25487 net.cpp:122] Setting up lstm1_h_conted_12
I0222 17:46:33.264842 25487 net.cpp:129] Top shape: 1 26 64 (1664)
I0222 17:46:33.264844 25487 net.cpp:137] Memory required for data: 2348736
I0222 17:46:33.292217 25487 layer_factory.hpp:77] Creating layer lstm1_transform_13
I0222 17:46:33.292237 25487 net.cpp:84] Creating Layer lstm1_transform_13
I0222 17:46:33.292243 25487 net.cpp:406] lstm1_transform_13 <- h_conted_12
I0222 17:46:33.292249 25487 net.cpp:380] lstm1_transform_13 -> W_hc_h_12
I0222 17:46:33.292376 25487 net.cpp:122] Setting up lstm1_transform_13
I0222 17:46:33.292383 25487 net.cpp:129] Top shape: 1 26 256 (6656)
I0222 17:46:33.292387 25487 net.cpp:137] Memory required for data: 2375360
I0222 17:46:33.292390 25487 net.cpp:465] Sharing parameters 'W_hc' owned by layer 'lstm1_transform_1', param index 0
I0222 17:46:33.292394 25487 layer_factory.hpp:77] Creating layer lstm1_gate_input_13
I0222 17:46:33.292399 25487 net.cpp:84] Creating Layer lstm1_gate_input_13
I0222 17:46:33.292403 25487 net.cpp:406] lstm1_gate_input_13 <- W_hc_h_12
I0222 17:46:33.292407 25487 net.cpp:406] lstm1_gate_input_13 <- W_xc_x_13
I0222 17:46:33.292413 25487 net.cpp:380] lstm1_gate_input_13 -> gate_input_13
I0222 17:46:33.292430 25487 net.cpp:122] Setting up lstm1_gate_input_13
I0222 17:46:33.292434 25487 net.cpp:129] Top shape: 1 26 256 (6656)
I0222 17:46:33.292446 25487 net.cpp:137] Memory required for data: 2401984
I0222 17:46:33.292449 25487 layer_factory.hpp:77] Creating layer lstm1_unit_13
I0222 17:46:33.292454 25487 net.cpp:84] Creating Layer lstm1_unit_13
I0222 17:46:33.292459 25487 net.cpp:406] lstm1_unit_13 <- c_12
I0222 17:46:33.292462 25487 net.cpp:406] lstm1_unit_13 <- gate_input_13
I0222 17:46:33.292465 25487 net.cpp:406] lstm1_unit_13 <- cont_13_lstm1_cont_slice_12_split_1
I0222 17:46:33.292470 25487 net.cpp:380] lstm1_unit_13 -> c_13
I0222 17:46:33.292475 25487 net.cpp:380] lstm1_unit_13 -> h_13
I0222 17:46:33.292500 25487 net.cpp:122] Setting up lstm1_unit_13
I0222 17:46:33.292505 25487 net.cpp:129] Top shape: 1 26 64 (1664)
I0222 17:46:33.292510 25487 net.cpp:129] Top shape: 1 26 64 (1664)
I0222 17:46:33.292511 25487 net.cpp:137] Memory required for data: 2415296
I0222 17:46:33.292534 25487 layer_factory.hpp:77] Creating layer h_13_lstm1_unit_13_1_split
I0222 17:46:33.292541 25487 net.cpp:84] Creating Layer h_13_lstm1_unit_13_1_split
I0222 17:46:33.292544 25487 net.cpp:406] h_13_lstm1_unit_13_1_split <- h_13
I0222 17:46:33.292549 25487 net.cpp:380] h_13_lstm1_unit_13_1_split -> h_13_lstm1_unit_13_1_split_0
I0222 17:46:33.292554 25487 net.cpp:380] h_13_lstm1_unit_13_1_split -> h_13_lstm1_unit_13_1_split_1
I0222 17:46:33.292587 25487 net.cpp:122] Setting up h_13_lstm1_unit_13_1_split
I0222 17:46:33.292593 25487 net.cpp:129] Top shape: 1 26 64 (1664)
I0222 17:46:33.292595 25487 net.cpp:129] Top shape: 1 26 64 (1664)
I0222 17:46:33.292598 25487 net.cpp:137] Memory required for data: 2428608
I0222 17:46:33.292601 25487 layer_factory.hpp:77] Creating layer lstm1_h_conted_13
I0222 17:46:33.292606 25487 net.cpp:84] Creating Layer lstm1_h_conted_13
I0222 17:46:33.292609 25487 net.cpp:406] lstm1_h_conted_13 <- h_13_lstm1_unit_13_1_split_0
I0222 17:46:33.292613 25487 net.cpp:406] lstm1_h_conted_13 <- cont_14_lstm1_cont_slice_13_split_0
I0222 17:46:33.292618 25487 net.cpp:380] lstm1_h_conted_13 -> h_conted_13
I0222 17:46:33.292651 25487 net.cpp:122] Setting up lstm1_h_conted_13
I0222 17:46:33.292655 25487 net.cpp:129] Top shape: 1 26 64 (1664)
I0222 17:46:33.292659 25487 net.cpp:137] Memory required for data: 2435264
I0222 17:46:33.292661 25487 layer_factory.hpp:77] Creating layer lstm1_transform_14
I0222 17:46:33.292665 25487 net.cpp:84] Creating Layer lstm1_transform_14
I0222 17:46:33.292670 25487 net.cpp:406] lstm1_transform_14 <- h_conted_13
I0222 17:46:33.292675 25487 net.cpp:380] lstm1_transform_14 -> W_hc_h_13
I0222 17:46:33.292781 25487 net.cpp:122] Setting up lstm1_transform_14
I0222 17:46:33.292786 25487 net.cpp:129] Top shape: 1 26 256 (6656)
I0222 17:46:33.292803 25487 net.cpp:137] Memory required for data: 2461888
I0222 17:46:33.292805 25487 net.cpp:465] Sharing parameters 'W_hc' owned by layer 'lstm1_transform_1', param index 0
I0222 17:46:33.292809 25487 layer_factory.hpp:77] Creating layer lstm1_gate_input_14
I0222 17:46:33.292812 25487 net.cpp:84] Creating Layer lstm1_gate_input_14
I0222 17:46:33.292816 25487 net.cpp:406] lstm1_gate_input_14 <- W_hc_h_13
I0222 17:46:33.292819 25487 net.cpp:406] lstm1_gate_input_14 <- W_xc_x_14
I0222 17:46:33.292824 25487 net.cpp:380] lstm1_gate_input_14 -> gate_input_14
I0222 17:46:33.292836 25487 net.cpp:122] Setting up lstm1_gate_input_14
I0222 17:46:33.292841 25487 net.cpp:129] Top shape: 1 26 256 (6656)
I0222 17:46:33.292845 25487 net.cpp:137] Memory required for data: 2488512
I0222 17:46:33.292847 25487 layer_factory.hpp:77] Creating layer lstm1_unit_14
I0222 17:46:33.292850 25487 net.cpp:84] Creating Layer lstm1_unit_14
I0222 17:46:33.292856 25487 net.cpp:406] lstm1_unit_14 <- c_13
I0222 17:46:33.292860 25487 net.cpp:406] lstm1_unit_14 <- gate_input_14
I0222 17:46:33.292863 25487 net.cpp:406] lstm1_unit_14 <- cont_14_lstm1_cont_slice_13_split_1
I0222 17:46:33.292867 25487 net.cpp:380] lstm1_unit_14 -> c_14
I0222 17:46:33.292871 25487 net.cpp:380] lstm1_unit_14 -> h_14
I0222 17:46:33.292894 25487 net.cpp:122] Setting up lstm1_unit_14
I0222 17:46:33.292899 25487 net.cpp:129] Top shape: 1 26 64 (1664)
I0222 17:46:33.292907 25487 net.cpp:129] Top shape: 1 26 64 (1664)
I0222 17:46:33.292910 25487 net.cpp:137] Memory required for data: 2501824
I0222 17:46:33.292913 25487 layer_factory.hpp:77] Creating layer h_14_lstm1_unit_14_1_split
I0222 17:46:33.292918 25487 net.cpp:84] Creating Layer h_14_lstm1_unit_14_1_split
I0222 17:46:33.292922 25487 net.cpp:406] h_14_lstm1_unit_14_1_split <- h_14
I0222 17:46:33.292925 25487 net.cpp:380] h_14_lstm1_unit_14_1_split -> h_14_lstm1_unit_14_1_split_0
I0222 17:46:33.292930 25487 net.cpp:380] h_14_lstm1_unit_14_1_split -> h_14_lstm1_unit_14_1_split_1
I0222 17:46:33.292948 25487 net.cpp:122] Setting up h_14_lstm1_unit_14_1_split
I0222 17:46:33.292953 25487 net.cpp:129] Top shape: 1 26 64 (1664)
I0222 17:46:33.292956 25487 net.cpp:129] Top shape: 1 26 64 (1664)
I0222 17:46:33.292959 25487 net.cpp:137] Memory required for data: 2515136
I0222 17:46:33.292963 25487 layer_factory.hpp:77] Creating layer lstm1_h_conted_14
I0222 17:46:33.292966 25487 net.cpp:84] Creating Layer lstm1_h_conted_14
I0222 17:46:33.292969 25487 net.cpp:406] lstm1_h_conted_14 <- h_14_lstm1_unit_14_1_split_0
I0222 17:46:33.292973 25487 net.cpp:406] lstm1_h_conted_14 <- cont_15_lstm1_cont_slice_14_split_0
I0222 17:46:33.292978 25487 net.cpp:380] lstm1_h_conted_14 -> h_conted_14
I0222 17:46:33.293009 25487 net.cpp:122] Setting up lstm1_h_conted_14
I0222 17:46:33.293014 25487 net.cpp:129] Top shape: 1 26 64 (1664)
I0222 17:46:33.293016 25487 net.cpp:137] Memory required for data: 2521792
I0222 17:46:33.293020 25487 layer_factory.hpp:77] Creating layer lstm1_transform_15
I0222 17:46:33.293023 25487 net.cpp:84] Creating Layer lstm1_transform_15
I0222 17:46:33.293026 25487 net.cpp:406] lstm1_transform_15 <- h_conted_14
I0222 17:46:33.293031 25487 net.cpp:380] lstm1_transform_15 -> W_hc_h_14
I0222 17:46:33.293124 25487 net.cpp:122] Setting up lstm1_transform_15
I0222 17:46:33.293129 25487 net.cpp:129] Top shape: 1 26 256 (6656)
I0222 17:46:33.293131 25487 net.cpp:137] Memory required for data: 2548416
I0222 17:46:33.293139 25487 net.cpp:465] Sharing parameters 'W_hc' owned by layer 'lstm1_transform_1', param index 0
I0222 17:46:33.293143 25487 layer_factory.hpp:77] Creating layer lstm1_gate_input_15
I0222 17:46:33.293148 25487 net.cpp:84] Creating Layer lstm1_gate_input_15
I0222 17:46:33.293150 25487 net.cpp:406] lstm1_gate_input_15 <- W_hc_h_14
I0222 17:46:33.293154 25487 net.cpp:406] lstm1_gate_input_15 <- W_xc_x_15
I0222 17:46:33.293159 25487 net.cpp:380] lstm1_gate_input_15 -> gate_input_15
I0222 17:46:33.293177 25487 net.cpp:122] Setting up lstm1_gate_input_15
I0222 17:46:33.293181 25487 net.cpp:129] Top shape: 1 26 256 (6656)
I0222 17:46:33.293184 25487 net.cpp:137] Memory required for data: 2575040
I0222 17:46:33.296653 25487 layer_factory.hpp:77] Creating layer lstm1_unit_15
I0222 17:46:33.296661 25487 net.cpp:84] Creating Layer lstm1_unit_15
I0222 17:46:33.296665 25487 net.cpp:406] lstm1_unit_15 <- c_14
I0222 17:46:33.296670 25487 net.cpp:406] lstm1_unit_15 <- gate_input_15
I0222 17:46:33.296674 25487 net.cpp:406] lstm1_unit_15 <- cont_15_lstm1_cont_slice_14_split_1
I0222 17:46:33.296679 25487 net.cpp:380] lstm1_unit_15 -> c_15
I0222 17:46:33.296684 25487 net.cpp:380] lstm1_unit_15 -> h_15
I0222 17:46:33.296730 25487 net.cpp:122] Setting up lstm1_unit_15
I0222 17:46:33.296736 25487 net.cpp:129] Top shape: 1 26 64 (1664)
I0222 17:46:33.296739 25487 net.cpp:129] Top shape: 1 26 64 (1664)
I0222 17:46:33.296742 25487 net.cpp:137] Memory required for data: 2588352
I0222 17:46:33.296746 25487 layer_factory.hpp:77] Creating layer h_15_lstm1_unit_15_1_split
I0222 17:46:33.296751 25487 net.cpp:84] Creating Layer h_15_lstm1_unit_15_1_split
I0222 17:46:33.296754 25487 net.cpp:406] h_15_lstm1_unit_15_1_split <- h_15
I0222 17:46:33.296758 25487 net.cpp:380] h_15_lstm1_unit_15_1_split -> h_15_lstm1_unit_15_1_split_0
I0222 17:46:33.296762 25487 net.cpp:380] h_15_lstm1_unit_15_1_split -> h_15_lstm1_unit_15_1_split_1
I0222 17:46:33.296780 25487 net.cpp:122] Setting up h_15_lstm1_unit_15_1_split
I0222 17:46:33.296790 25487 net.cpp:129] Top shape: 1 26 64 (1664)
I0222 17:46:33.296794 25487 net.cpp:129] Top shape: 1 26 64 (1664)
I0222 17:46:33.296797 25487 net.cpp:137] Memory required for data: 2601664
I0222 17:46:33.296800 25487 layer_factory.hpp:77] Creating layer lstm1_h_conted_15
I0222 17:46:33.296805 25487 net.cpp:84] Creating Layer lstm1_h_conted_15
I0222 17:46:33.296809 25487 net.cpp:406] lstm1_h_conted_15 <- h_15_lstm1_unit_15_1_split_0
I0222 17:46:33.296813 25487 net.cpp:406] lstm1_h_conted_15 <- cont_16_lstm1_cont_slice_15_split_0
I0222 17:46:33.296818 25487 net.cpp:380] lstm1_h_conted_15 -> h_conted_15
I0222 17:46:33.296849 25487 net.cpp:122] Setting up lstm1_h_conted_15
I0222 17:46:33.296854 25487 net.cpp:129] Top shape: 1 26 64 (1664)
I0222 17:46:33.296857 25487 net.cpp:137] Memory required for data: 2608320
I0222 17:46:33.296860 25487 layer_factory.hpp:77] Creating layer lstm1_transform_16
I0222 17:46:33.296864 25487 net.cpp:84] Creating Layer lstm1_transform_16
I0222 17:46:33.296867 25487 net.cpp:406] lstm1_transform_16 <- h_conted_15
I0222 17:46:33.296871 25487 net.cpp:380] lstm1_transform_16 -> W_hc_h_15
I0222 17:46:33.296967 25487 net.cpp:122] Setting up lstm1_transform_16
I0222 17:46:33.296972 25487 net.cpp:129] Top shape: 1 26 256 (6656)
I0222 17:46:33.296975 25487 net.cpp:137] Memory required for data: 2634944
I0222 17:46:33.296978 25487 net.cpp:465] Sharing parameters 'W_hc' owned by layer 'lstm1_transform_1', param index 0
I0222 17:46:33.296983 25487 layer_factory.hpp:77] Creating layer lstm1_gate_input_16
I0222 17:46:33.296986 25487 net.cpp:84] Creating Layer lstm1_gate_input_16
I0222 17:46:33.296989 25487 net.cpp:406] lstm1_gate_input_16 <- W_hc_h_15
I0222 17:46:33.296993 25487 net.cpp:406] lstm1_gate_input_16 <- W_xc_x_16
I0222 17:46:33.296998 25487 net.cpp:380] lstm1_gate_input_16 -> gate_input_16
I0222 17:46:33.297009 25487 net.cpp:122] Setting up lstm1_gate_input_16
I0222 17:46:33.297014 25487 net.cpp:129] Top shape: 1 26 256 (6656)
I0222 17:46:33.297016 25487 net.cpp:137] Memory required for data: 2661568
I0222 17:46:33.297019 25487 layer_factory.hpp:77] Creating layer lstm1_unit_16
I0222 17:46:33.297024 25487 net.cpp:84] Creating Layer lstm1_unit_16
I0222 17:46:33.297027 25487 net.cpp:406] lstm1_unit_16 <- c_15
I0222 17:46:33.297031 25487 net.cpp:406] lstm1_unit_16 <- gate_input_16
I0222 17:46:33.297034 25487 net.cpp:406] lstm1_unit_16 <- cont_16_lstm1_cont_slice_15_split_1
I0222 17:46:33.297039 25487 net.cpp:380] lstm1_unit_16 -> c_16
I0222 17:46:33.297044 25487 net.cpp:380] lstm1_unit_16 -> h_16
I0222 17:46:33.297065 25487 net.cpp:122] Setting up lstm1_unit_16
I0222 17:46:33.297070 25487 net.cpp:129] Top shape: 1 26 64 (1664)
I0222 17:46:33.297073 25487 net.cpp:129] Top shape: 1 26 64 (1664)
I0222 17:46:33.297076 25487 net.cpp:137] Memory required for data: 2674880
I0222 17:46:33.297080 25487 layer_factory.hpp:77] Creating layer h_16_lstm1_unit_16_1_split
I0222 17:46:33.297083 25487 net.cpp:84] Creating Layer h_16_lstm1_unit_16_1_split
I0222 17:46:33.297086 25487 net.cpp:406] h_16_lstm1_unit_16_1_split <- h_16
I0222 17:46:33.297091 25487 net.cpp:380] h_16_lstm1_unit_16_1_split -> h_16_lstm1_unit_16_1_split_0
I0222 17:46:33.297096 25487 net.cpp:380] h_16_lstm1_unit_16_1_split -> h_16_lstm1_unit_16_1_split_1
I0222 17:46:33.297111 25487 net.cpp:122] Setting up h_16_lstm1_unit_16_1_split
I0222 17:46:33.297116 25487 net.cpp:129] Top shape: 1 26 64 (1664)
I0222 17:46:33.297118 25487 net.cpp:129] Top shape: 1 26 64 (1664)
I0222 17:46:33.297122 25487 net.cpp:137] Memory required for data: 2688192
I0222 17:46:33.297123 25487 layer_factory.hpp:77] Creating layer lstm1_h_conted_16
I0222 17:46:33.297128 25487 net.cpp:84] Creating Layer lstm1_h_conted_16
I0222 17:46:33.297132 25487 net.cpp:406] lstm1_h_conted_16 <- h_16_lstm1_unit_16_1_split_0
I0222 17:46:33.297135 25487 net.cpp:406] lstm1_h_conted_16 <- cont_17_lstm1_cont_slice_16_split_0
I0222 17:46:33.297140 25487 net.cpp:380] lstm1_h_conted_16 -> h_conted_16
I0222 17:46:33.297169 25487 net.cpp:122] Setting up lstm1_h_conted_16
I0222 17:46:33.297178 25487 net.cpp:129] Top shape: 1 26 64 (1664)
I0222 17:46:33.297181 25487 net.cpp:137] Memory required for data: 2694848
I0222 17:46:33.297184 25487 layer_factory.hpp:77] Creating layer lstm1_transform_17
I0222 17:46:33.297188 25487 net.cpp:84] Creating Layer lstm1_transform_17
I0222 17:46:33.297191 25487 net.cpp:406] lstm1_transform_17 <- h_conted_16
I0222 17:46:33.297196 25487 net.cpp:380] lstm1_transform_17 -> W_hc_h_16
I0222 17:46:33.297286 25487 net.cpp:122] Setting up lstm1_transform_17
I0222 17:46:33.297291 25487 net.cpp:129] Top shape: 1 26 256 (6656)
I0222 17:46:33.297293 25487 net.cpp:137] Memory required for data: 2721472
I0222 17:46:33.297297 25487 net.cpp:465] Sharing parameters 'W_hc' owned by layer 'lstm1_transform_1', param index 0
I0222 17:46:33.297300 25487 layer_factory.hpp:77] Creating layer lstm1_gate_input_17
I0222 17:46:33.297304 25487 net.cpp:84] Creating Layer lstm1_gate_input_17
I0222 17:46:33.297308 25487 net.cpp:406] lstm1_gate_input_17 <- W_hc_h_16
I0222 17:46:33.297312 25487 net.cpp:406] lstm1_gate_input_17 <- W_xc_x_17
I0222 17:46:33.297315 25487 net.cpp:380] lstm1_gate_input_17 -> gate_input_17
I0222 17:46:33.297327 25487 net.cpp:122] Setting up lstm1_gate_input_17
I0222 17:46:33.297332 25487 net.cpp:129] Top shape: 1 26 256 (6656)
I0222 17:46:33.297334 25487 net.cpp:137] Memory required for data: 2748096
I0222 17:46:33.297338 25487 layer_factory.hpp:77] Creating layer lstm1_unit_17
I0222 17:46:33.297340 25487 net.cpp:84] Creating Layer lstm1_unit_17
I0222 17:46:33.297343 25487 net.cpp:406] lstm1_unit_17 <- c_16
I0222 17:46:33.297348 25487 net.cpp:406] lstm1_unit_17 <- gate_input_17
I0222 17:46:33.297351 25487 net.cpp:406] lstm1_unit_17 <- cont_17_lstm1_cont_slice_16_split_1
I0222 17:46:33.297369 25487 net.cpp:380] lstm1_unit_17 -> c_17
I0222 17:46:33.297374 25487 net.cpp:380] lstm1_unit_17 -> h_17
I0222 17:46:33.297396 25487 net.cpp:122] Setting up lstm1_unit_17
I0222 17:46:33.297401 25487 net.cpp:129] Top shape: 1 26 64 (1664)
I0222 17:46:33.297405 25487 net.cpp:129] Top shape: 1 26 64 (1664)
I0222 17:46:33.297407 25487 net.cpp:137] Memory required for data: 2761408
I0222 17:46:33.297410 25487 layer_factory.hpp:77] Creating layer h_17_lstm1_unit_17_1_split
I0222 17:46:33.297413 25487 net.cpp:84] Creating Layer h_17_lstm1_unit_17_1_split
I0222 17:46:33.297416 25487 net.cpp:406] h_17_lstm1_unit_17_1_split <- h_17
I0222 17:46:33.297420 25487 net.cpp:380] h_17_lstm1_unit_17_1_split -> h_17_lstm1_unit_17_1_split_0
I0222 17:46:33.297425 25487 net.cpp:380] h_17_lstm1_unit_17_1_split -> h_17_lstm1_unit_17_1_split_1
I0222 17:46:33.297442 25487 net.cpp:122] Setting up h_17_lstm1_unit_17_1_split
I0222 17:46:33.297446 25487 net.cpp:129] Top shape: 1 26 64 (1664)
I0222 17:46:33.297451 25487 net.cpp:129] Top shape: 1 26 64 (1664)
I0222 17:46:33.297452 25487 net.cpp:137] Memory required for data: 2774720
I0222 17:46:33.297456 25487 layer_factory.hpp:77] Creating layer lstm1_h_conted_17
I0222 17:46:33.297461 25487 net.cpp:84] Creating Layer lstm1_h_conted_17
I0222 17:46:33.322818 25487 net.cpp:406] lstm1_h_conted_17 <- h_17_lstm1_unit_17_1_split_0
I0222 17:46:33.322829 25487 net.cpp:406] lstm1_h_conted_17 <- cont_18_lstm1_cont_slice_17_split_0
I0222 17:46:33.322839 25487 net.cpp:380] lstm1_h_conted_17 -> h_conted_17
I0222 17:46:33.322901 25487 net.cpp:122] Setting up lstm1_h_conted_17
I0222 17:46:33.322907 25487 net.cpp:129] Top shape: 1 26 64 (1664)
I0222 17:46:33.322909 25487 net.cpp:137] Memory required for data: 2781376
I0222 17:46:33.322912 25487 layer_factory.hpp:77] Creating layer lstm1_transform_18
I0222 17:46:33.322919 25487 net.cpp:84] Creating Layer lstm1_transform_18
I0222 17:46:33.322922 25487 net.cpp:406] lstm1_transform_18 <- h_conted_17
I0222 17:46:33.322927 25487 net.cpp:380] lstm1_transform_18 -> W_hc_h_17
I0222 17:46:33.323025 25487 net.cpp:122] Setting up lstm1_transform_18
I0222 17:46:33.323030 25487 net.cpp:129] Top shape: 1 26 256 (6656)
I0222 17:46:33.323034 25487 net.cpp:137] Memory required for data: 2808000
I0222 17:46:33.323036 25487 net.cpp:465] Sharing parameters 'W_hc' owned by layer 'lstm1_transform_1', param index 0
I0222 17:46:33.323048 25487 layer_factory.hpp:77] Creating layer lstm1_gate_input_18
I0222 17:46:33.323053 25487 net.cpp:84] Creating Layer lstm1_gate_input_18
I0222 17:46:33.323055 25487 net.cpp:406] lstm1_gate_input_18 <- W_hc_h_17
I0222 17:46:33.323060 25487 net.cpp:406] lstm1_gate_input_18 <- W_xc_x_18
I0222 17:46:33.323066 25487 net.cpp:380] lstm1_gate_input_18 -> gate_input_18
I0222 17:46:33.323081 25487 net.cpp:122] Setting up lstm1_gate_input_18
I0222 17:46:33.323086 25487 net.cpp:129] Top shape: 1 26 256 (6656)
I0222 17:46:33.323088 25487 net.cpp:137] Memory required for data: 2834624
I0222 17:46:33.323091 25487 layer_factory.hpp:77] Creating layer lstm1_unit_18
I0222 17:46:33.323096 25487 net.cpp:84] Creating Layer lstm1_unit_18
I0222 17:46:33.323099 25487 net.cpp:406] lstm1_unit_18 <- c_17
I0222 17:46:33.323103 25487 net.cpp:406] lstm1_unit_18 <- gate_input_18
I0222 17:46:33.323107 25487 net.cpp:406] lstm1_unit_18 <- cont_18_lstm1_cont_slice_17_split_1
I0222 17:46:33.323112 25487 net.cpp:380] lstm1_unit_18 -> c_18
I0222 17:46:33.323117 25487 net.cpp:380] lstm1_unit_18 -> h_18
I0222 17:46:33.323139 25487 net.cpp:122] Setting up lstm1_unit_18
I0222 17:46:33.323144 25487 net.cpp:129] Top shape: 1 26 64 (1664)
I0222 17:46:33.323148 25487 net.cpp:129] Top shape: 1 26 64 (1664)
I0222 17:46:33.323150 25487 net.cpp:137] Memory required for data: 2847936
I0222 17:46:33.323153 25487 layer_factory.hpp:77] Creating layer h_18_lstm1_unit_18_1_split
I0222 17:46:33.323158 25487 net.cpp:84] Creating Layer h_18_lstm1_unit_18_1_split
I0222 17:46:33.323160 25487 net.cpp:406] h_18_lstm1_unit_18_1_split <- h_18
I0222 17:46:33.323164 25487 net.cpp:380] h_18_lstm1_unit_18_1_split -> h_18_lstm1_unit_18_1_split_0
I0222 17:46:33.323169 25487 net.cpp:380] h_18_lstm1_unit_18_1_split -> h_18_lstm1_unit_18_1_split_1
I0222 17:46:33.323187 25487 net.cpp:122] Setting up h_18_lstm1_unit_18_1_split
I0222 17:46:33.323191 25487 net.cpp:129] Top shape: 1 26 64 (1664)
I0222 17:46:33.323195 25487 net.cpp:129] Top shape: 1 26 64 (1664)
I0222 17:46:33.323197 25487 net.cpp:137] Memory required for data: 2861248
I0222 17:46:33.323200 25487 layer_factory.hpp:77] Creating layer lstm1_h_conted_18
I0222 17:46:33.323205 25487 net.cpp:84] Creating Layer lstm1_h_conted_18
I0222 17:46:33.323209 25487 net.cpp:406] lstm1_h_conted_18 <- h_18_lstm1_unit_18_1_split_0
I0222 17:46:33.323212 25487 net.cpp:406] lstm1_h_conted_18 <- cont_19_lstm1_cont_slice_18_split_0
I0222 17:46:33.323217 25487 net.cpp:380] lstm1_h_conted_18 -> h_conted_18
I0222 17:46:33.323247 25487 net.cpp:122] Setting up lstm1_h_conted_18
I0222 17:46:33.323252 25487 net.cpp:129] Top shape: 1 26 64 (1664)
I0222 17:46:33.323256 25487 net.cpp:137] Memory required for data: 2867904
I0222 17:46:33.323258 25487 layer_factory.hpp:77] Creating layer lstm1_transform_19
I0222 17:46:33.323262 25487 net.cpp:84] Creating Layer lstm1_transform_19
I0222 17:46:33.323266 25487 net.cpp:406] lstm1_transform_19 <- h_conted_18
I0222 17:46:33.323271 25487 net.cpp:380] lstm1_transform_19 -> W_hc_h_18
I0222 17:46:33.323364 25487 net.cpp:122] Setting up lstm1_transform_19
I0222 17:46:33.323369 25487 net.cpp:129] Top shape: 1 26 256 (6656)
I0222 17:46:33.323371 25487 net.cpp:137] Memory required for data: 2894528
I0222 17:46:33.323375 25487 net.cpp:465] Sharing parameters 'W_hc' owned by layer 'lstm1_transform_1', param index 0
I0222 17:46:33.323379 25487 layer_factory.hpp:77] Creating layer lstm1_gate_input_19
I0222 17:46:33.323382 25487 net.cpp:84] Creating Layer lstm1_gate_input_19
I0222 17:46:33.323385 25487 net.cpp:406] lstm1_gate_input_19 <- W_hc_h_18
I0222 17:46:33.323390 25487 net.cpp:406] lstm1_gate_input_19 <- W_xc_x_19
I0222 17:46:33.323393 25487 net.cpp:380] lstm1_gate_input_19 -> gate_input_19
I0222 17:46:33.323407 25487 net.cpp:122] Setting up lstm1_gate_input_19
I0222 17:46:33.323411 25487 net.cpp:129] Top shape: 1 26 256 (6656)
I0222 17:46:33.323415 25487 net.cpp:137] Memory required for data: 2921152
I0222 17:46:33.323417 25487 layer_factory.hpp:77] Creating layer lstm1_unit_19
I0222 17:46:33.323426 25487 net.cpp:84] Creating Layer lstm1_unit_19
I0222 17:46:33.323429 25487 net.cpp:406] lstm1_unit_19 <- c_18
I0222 17:46:33.323433 25487 net.cpp:406] lstm1_unit_19 <- gate_input_19
I0222 17:46:33.323438 25487 net.cpp:406] lstm1_unit_19 <- cont_19_lstm1_cont_slice_18_split_1
I0222 17:46:33.323442 25487 net.cpp:380] lstm1_unit_19 -> c_19
I0222 17:46:33.323447 25487 net.cpp:380] lstm1_unit_19 -> h_19
I0222 17:46:33.323470 25487 net.cpp:122] Setting up lstm1_unit_19
I0222 17:46:33.323475 25487 net.cpp:129] Top shape: 1 26 64 (1664)
I0222 17:46:33.323478 25487 net.cpp:129] Top shape: 1 26 64 (1664)
I0222 17:46:33.323482 25487 net.cpp:137] Memory required for data: 2934464
I0222 17:46:33.323484 25487 layer_factory.hpp:77] Creating layer h_19_lstm1_unit_19_1_split
I0222 17:46:33.323493 25487 net.cpp:84] Creating Layer h_19_lstm1_unit_19_1_split
I0222 17:46:33.323496 25487 net.cpp:406] h_19_lstm1_unit_19_1_split <- h_19
I0222 17:46:33.323500 25487 net.cpp:380] h_19_lstm1_unit_19_1_split -> h_19_lstm1_unit_19_1_split_0
I0222 17:46:33.323505 25487 net.cpp:380] h_19_lstm1_unit_19_1_split -> h_19_lstm1_unit_19_1_split_1
I0222 17:46:33.323525 25487 net.cpp:122] Setting up h_19_lstm1_unit_19_1_split
I0222 17:46:33.323529 25487 net.cpp:129] Top shape: 1 26 64 (1664)
I0222 17:46:33.323534 25487 net.cpp:129] Top shape: 1 26 64 (1664)
I0222 17:46:33.323536 25487 net.cpp:137] Memory required for data: 2947776
I0222 17:46:33.323539 25487 layer_factory.hpp:77] Creating layer lstm1_h_conted_19
I0222 17:46:33.323542 25487 net.cpp:84] Creating Layer lstm1_h_conted_19
I0222 17:46:33.323546 25487 net.cpp:406] lstm1_h_conted_19 <- h_19_lstm1_unit_19_1_split_0
I0222 17:46:33.323550 25487 net.cpp:406] lstm1_h_conted_19 <- cont_20_lstm1_cont_slice_19_split_0
I0222 17:46:33.323554 25487 net.cpp:380] lstm1_h_conted_19 -> h_conted_19
I0222 17:46:33.323585 25487 net.cpp:122] Setting up lstm1_h_conted_19
I0222 17:46:33.323590 25487 net.cpp:129] Top shape: 1 26 64 (1664)
I0222 17:46:33.323592 25487 net.cpp:137] Memory required for data: 2954432
I0222 17:46:33.323596 25487 layer_factory.hpp:77] Creating layer lstm1_transform_20
I0222 17:46:33.323599 25487 net.cpp:84] Creating Layer lstm1_transform_20
I0222 17:46:33.323602 25487 net.cpp:406] lstm1_transform_20 <- h_conted_19
I0222 17:46:33.323607 25487 net.cpp:380] lstm1_transform_20 -> W_hc_h_19
I0222 17:46:33.323706 25487 net.cpp:122] Setting up lstm1_transform_20
I0222 17:46:33.323712 25487 net.cpp:129] Top shape: 1 26 256 (6656)
I0222 17:46:33.323715 25487 net.cpp:137] Memory required for data: 2981056
I0222 17:46:33.323719 25487 net.cpp:465] Sharing parameters 'W_hc' owned by layer 'lstm1_transform_1', param index 0
I0222 17:46:33.323722 25487 layer_factory.hpp:77] Creating layer lstm1_gate_input_20
I0222 17:46:33.323726 25487 net.cpp:84] Creating Layer lstm1_gate_input_20
I0222 17:46:33.326030 25487 net.cpp:406] lstm1_gate_input_20 <- W_hc_h_19
I0222 17:46:33.326055 25487 net.cpp:406] lstm1_gate_input_20 <- W_xc_x_20
I0222 17:46:33.326059 25487 net.cpp:380] lstm1_gate_input_20 -> gate_input_20
I0222 17:46:33.326081 25487 net.cpp:122] Setting up lstm1_gate_input_20
I0222 17:46:33.326086 25487 net.cpp:129] Top shape: 1 26 256 (6656)
I0222 17:46:33.326088 25487 net.cpp:137] Memory required for data: 3007680
I0222 17:46:33.326092 25487 layer_factory.hpp:77] Creating layer lstm1_unit_20
I0222 17:46:33.326098 25487 net.cpp:84] Creating Layer lstm1_unit_20
I0222 17:46:33.326102 25487 net.cpp:406] lstm1_unit_20 <- c_19
I0222 17:46:33.326118 25487 net.cpp:406] lstm1_unit_20 <- gate_input_20
I0222 17:46:33.326122 25487 net.cpp:406] lstm1_unit_20 <- cont_20_lstm1_cont_slice_19_split_1
I0222 17:46:33.326125 25487 net.cpp:380] lstm1_unit_20 -> c_20
I0222 17:46:33.326130 25487 net.cpp:380] lstm1_unit_20 -> h_20
I0222 17:46:33.326156 25487 net.cpp:122] Setting up lstm1_unit_20
I0222 17:46:33.326161 25487 net.cpp:129] Top shape: 1 26 64 (1664)
I0222 17:46:33.326164 25487 net.cpp:129] Top shape: 1 26 64 (1664)
I0222 17:46:33.326167 25487 net.cpp:137] Memory required for data: 3020992
I0222 17:46:33.326176 25487 layer_factory.hpp:77] Creating layer h_20_lstm1_unit_20_1_split
I0222 17:46:33.326191 25487 net.cpp:84] Creating Layer h_20_lstm1_unit_20_1_split
I0222 17:46:33.326195 25487 net.cpp:406] h_20_lstm1_unit_20_1_split <- h_20
I0222 17:46:33.326200 25487 net.cpp:380] h_20_lstm1_unit_20_1_split -> h_20_lstm1_unit_20_1_split_0
I0222 17:46:33.326205 25487 net.cpp:380] h_20_lstm1_unit_20_1_split -> h_20_lstm1_unit_20_1_split_1
I0222 17:46:33.326225 25487 net.cpp:122] Setting up h_20_lstm1_unit_20_1_split
I0222 17:46:33.326230 25487 net.cpp:129] Top shape: 1 26 64 (1664)
I0222 17:46:33.326232 25487 net.cpp:129] Top shape: 1 26 64 (1664)
I0222 17:46:33.326236 25487 net.cpp:137] Memory required for data: 3034304
I0222 17:46:33.326238 25487 layer_factory.hpp:77] Creating layer lstm1_h_conted_20
I0222 17:46:33.326243 25487 net.cpp:84] Creating Layer lstm1_h_conted_20
I0222 17:46:33.326246 25487 net.cpp:406] lstm1_h_conted_20 <- h_20_lstm1_unit_20_1_split_0
I0222 17:46:33.326251 25487 net.cpp:406] lstm1_h_conted_20 <- cont_21_lstm1_cont_slice_20_split_0
I0222 17:46:33.326256 25487 net.cpp:380] lstm1_h_conted_20 -> h_conted_20
I0222 17:46:33.326287 25487 net.cpp:122] Setting up lstm1_h_conted_20
I0222 17:46:33.326290 25487 net.cpp:129] Top shape: 1 26 64 (1664)
I0222 17:46:33.326293 25487 net.cpp:137] Memory required for data: 3040960
I0222 17:46:33.326297 25487 layer_factory.hpp:77] Creating layer lstm1_transform_21
I0222 17:46:33.326301 25487 net.cpp:84] Creating Layer lstm1_transform_21
I0222 17:46:33.326304 25487 net.cpp:406] lstm1_transform_21 <- h_conted_20
I0222 17:46:33.326308 25487 net.cpp:380] lstm1_transform_21 -> W_hc_h_20
I0222 17:46:33.326416 25487 net.cpp:122] Setting up lstm1_transform_21
I0222 17:46:33.326421 25487 net.cpp:129] Top shape: 1 26 256 (6656)
I0222 17:46:33.326423 25487 net.cpp:137] Memory required for data: 3067584
I0222 17:46:33.326427 25487 net.cpp:465] Sharing parameters 'W_hc' owned by layer 'lstm1_transform_1', param index 0
I0222 17:46:33.326431 25487 layer_factory.hpp:77] Creating layer lstm1_gate_input_21
I0222 17:46:33.326434 25487 net.cpp:84] Creating Layer lstm1_gate_input_21
I0222 17:46:33.326452 25487 net.cpp:406] lstm1_gate_input_21 <- W_hc_h_20
I0222 17:46:33.326454 25487 net.cpp:406] lstm1_gate_input_21 <- W_xc_x_21
I0222 17:46:33.326459 25487 net.cpp:380] lstm1_gate_input_21 -> gate_input_21
I0222 17:46:33.326472 25487 net.cpp:122] Setting up lstm1_gate_input_21
I0222 17:46:33.326475 25487 net.cpp:129] Top shape: 1 26 256 (6656)
I0222 17:46:33.326478 25487 net.cpp:137] Memory required for data: 3094208
I0222 17:46:33.326481 25487 layer_factory.hpp:77] Creating layer lstm1_unit_21
I0222 17:46:33.326485 25487 net.cpp:84] Creating Layer lstm1_unit_21
I0222 17:46:33.326488 25487 net.cpp:406] lstm1_unit_21 <- c_20
I0222 17:46:33.326493 25487 net.cpp:406] lstm1_unit_21 <- gate_input_21
I0222 17:46:33.326495 25487 net.cpp:406] lstm1_unit_21 <- cont_21_lstm1_cont_slice_20_split_1
I0222 17:46:33.326499 25487 net.cpp:380] lstm1_unit_21 -> c_21
I0222 17:46:33.326504 25487 net.cpp:380] lstm1_unit_21 -> h_21
I0222 17:46:33.326526 25487 net.cpp:122] Setting up lstm1_unit_21
I0222 17:46:33.326531 25487 net.cpp:129] Top shape: 1 26 64 (1664)
I0222 17:46:33.326534 25487 net.cpp:129] Top shape: 1 26 64 (1664)
I0222 17:46:33.326537 25487 net.cpp:137] Memory required for data: 3107520
I0222 17:46:33.326539 25487 layer_factory.hpp:77] Creating layer h_21_lstm1_unit_21_1_split
I0222 17:46:33.326544 25487 net.cpp:84] Creating Layer h_21_lstm1_unit_21_1_split
I0222 17:46:33.326546 25487 net.cpp:406] h_21_lstm1_unit_21_1_split <- h_21
I0222 17:46:33.326550 25487 net.cpp:380] h_21_lstm1_unit_21_1_split -> h_21_lstm1_unit_21_1_split_0
I0222 17:46:33.326555 25487 net.cpp:380] h_21_lstm1_unit_21_1_split -> h_21_lstm1_unit_21_1_split_1
I0222 17:46:33.326571 25487 net.cpp:122] Setting up h_21_lstm1_unit_21_1_split
I0222 17:46:33.326576 25487 net.cpp:129] Top shape: 1 26 64 (1664)
I0222 17:46:33.326580 25487 net.cpp:129] Top shape: 1 26 64 (1664)
I0222 17:46:33.326582 25487 net.cpp:137] Memory required for data: 3120832
I0222 17:46:33.326589 25487 layer_factory.hpp:77] Creating layer lstm1_h_conted_21
I0222 17:46:33.326593 25487 net.cpp:84] Creating Layer lstm1_h_conted_21
I0222 17:46:33.326596 25487 net.cpp:406] lstm1_h_conted_21 <- h_21_lstm1_unit_21_1_split_0
I0222 17:46:33.326601 25487 net.cpp:406] lstm1_h_conted_21 <- cont_22_lstm1_cont_slice_21_split_0
I0222 17:46:33.326606 25487 net.cpp:380] lstm1_h_conted_21 -> h_conted_21
I0222 17:46:33.326635 25487 net.cpp:122] Setting up lstm1_h_conted_21
I0222 17:46:33.326640 25487 net.cpp:129] Top shape: 1 26 64 (1664)
I0222 17:46:33.326643 25487 net.cpp:137] Memory required for data: 3127488
I0222 17:46:33.326645 25487 layer_factory.hpp:77] Creating layer lstm1_transform_22
I0222 17:46:33.326650 25487 net.cpp:84] Creating Layer lstm1_transform_22
I0222 17:46:33.326653 25487 net.cpp:406] lstm1_transform_22 <- h_conted_21
I0222 17:46:33.326658 25487 net.cpp:380] lstm1_transform_22 -> W_hc_h_21
I0222 17:46:33.326748 25487 net.cpp:122] Setting up lstm1_transform_22
I0222 17:46:33.326753 25487 net.cpp:129] Top shape: 1 26 256 (6656)
I0222 17:46:33.326756 25487 net.cpp:137] Memory required for data: 3154112
I0222 17:46:33.326759 25487 net.cpp:465] Sharing parameters 'W_hc' owned by layer 'lstm1_transform_1', param index 0
I0222 17:46:33.326762 25487 layer_factory.hpp:77] Creating layer lstm1_gate_input_22
I0222 17:46:33.326766 25487 net.cpp:84] Creating Layer lstm1_gate_input_22
I0222 17:46:33.326769 25487 net.cpp:406] lstm1_gate_input_22 <- W_hc_h_21
I0222 17:46:33.326772 25487 net.cpp:406] lstm1_gate_input_22 <- W_xc_x_22
I0222 17:46:33.326776 25487 net.cpp:380] lstm1_gate_input_22 -> gate_input_22
I0222 17:46:33.326789 25487 net.cpp:122] Setting up lstm1_gate_input_22
I0222 17:46:33.326794 25487 net.cpp:129] Top shape: 1 26 256 (6656)
I0222 17:46:33.326797 25487 net.cpp:137] Memory required for data: 3180736
I0222 17:46:33.326799 25487 layer_factory.hpp:77] Creating layer lstm1_unit_22
I0222 17:46:33.326804 25487 net.cpp:84] Creating Layer lstm1_unit_22
I0222 17:46:33.326808 25487 net.cpp:406] lstm1_unit_22 <- c_21
I0222 17:46:33.326812 25487 net.cpp:406] lstm1_unit_22 <- gate_input_22
I0222 17:46:33.326815 25487 net.cpp:406] lstm1_unit_22 <- cont_22_lstm1_cont_slice_21_split_1
I0222 17:46:33.326819 25487 net.cpp:380] lstm1_unit_22 -> c_22
I0222 17:46:33.326823 25487 net.cpp:380] lstm1_unit_22 -> h_22
I0222 17:46:33.326846 25487 net.cpp:122] Setting up lstm1_unit_22
I0222 17:46:33.326850 25487 net.cpp:129] Top shape: 1 26 64 (1664)
I0222 17:46:33.326853 25487 net.cpp:129] Top shape: 1 26 64 (1664)
I0222 17:46:33.326856 25487 net.cpp:137] Memory required for data: 3194048
I0222 17:46:33.353219 25487 layer_factory.hpp:77] Creating layer h_22_lstm1_unit_22_1_split
I0222 17:46:33.353232 25487 net.cpp:84] Creating Layer h_22_lstm1_unit_22_1_split
I0222 17:46:33.353238 25487 net.cpp:406] h_22_lstm1_unit_22_1_split <- h_22
I0222 17:46:33.353245 25487 net.cpp:380] h_22_lstm1_unit_22_1_split -> h_22_lstm1_unit_22_1_split_0
I0222 17:46:33.353250 25487 net.cpp:380] h_22_lstm1_unit_22_1_split -> h_22_lstm1_unit_22_1_split_1
I0222 17:46:33.353289 25487 net.cpp:122] Setting up h_22_lstm1_unit_22_1_split
I0222 17:46:33.353296 25487 net.cpp:129] Top shape: 1 26 64 (1664)
I0222 17:46:33.353299 25487 net.cpp:129] Top shape: 1 26 64 (1664)
I0222 17:46:33.353302 25487 net.cpp:137] Memory required for data: 3207360
I0222 17:46:33.353305 25487 layer_factory.hpp:77] Creating layer lstm1_h_conted_22
I0222 17:46:33.353310 25487 net.cpp:84] Creating Layer lstm1_h_conted_22
I0222 17:46:33.353313 25487 net.cpp:406] lstm1_h_conted_22 <- h_22_lstm1_unit_22_1_split_0
I0222 17:46:33.353318 25487 net.cpp:406] lstm1_h_conted_22 <- cont_23_lstm1_cont_slice_22_split_0
I0222 17:46:33.353323 25487 net.cpp:380] lstm1_h_conted_22 -> h_conted_22
I0222 17:46:33.353374 25487 net.cpp:122] Setting up lstm1_h_conted_22
I0222 17:46:33.353379 25487 net.cpp:129] Top shape: 1 26 64 (1664)
I0222 17:46:33.353382 25487 net.cpp:137] Memory required for data: 3214016
I0222 17:46:33.353385 25487 layer_factory.hpp:77] Creating layer lstm1_transform_23
I0222 17:46:33.353399 25487 net.cpp:84] Creating Layer lstm1_transform_23
I0222 17:46:33.353404 25487 net.cpp:406] lstm1_transform_23 <- h_conted_22
I0222 17:46:33.353410 25487 net.cpp:380] lstm1_transform_23 -> W_hc_h_22
I0222 17:46:33.353529 25487 net.cpp:122] Setting up lstm1_transform_23
I0222 17:46:33.353535 25487 net.cpp:129] Top shape: 1 26 256 (6656)
I0222 17:46:33.353539 25487 net.cpp:137] Memory required for data: 3240640
I0222 17:46:33.353543 25487 net.cpp:465] Sharing parameters 'W_hc' owned by layer 'lstm1_transform_1', param index 0
I0222 17:46:33.353546 25487 layer_factory.hpp:77] Creating layer lstm1_gate_input_23
I0222 17:46:33.353552 25487 net.cpp:84] Creating Layer lstm1_gate_input_23
I0222 17:46:33.353555 25487 net.cpp:406] lstm1_gate_input_23 <- W_hc_h_22
I0222 17:46:33.353559 25487 net.cpp:406] lstm1_gate_input_23 <- W_xc_x_23
I0222 17:46:33.353564 25487 net.cpp:380] lstm1_gate_input_23 -> gate_input_23
I0222 17:46:33.353576 25487 net.cpp:122] Setting up lstm1_gate_input_23
I0222 17:46:33.353581 25487 net.cpp:129] Top shape: 1 26 256 (6656)
I0222 17:46:33.353585 25487 net.cpp:137] Memory required for data: 3267264
I0222 17:46:33.353586 25487 layer_factory.hpp:77] Creating layer lstm1_unit_23
I0222 17:46:33.353591 25487 net.cpp:84] Creating Layer lstm1_unit_23
I0222 17:46:33.353595 25487 net.cpp:406] lstm1_unit_23 <- c_22
I0222 17:46:33.353598 25487 net.cpp:406] lstm1_unit_23 <- gate_input_23
I0222 17:46:33.353602 25487 net.cpp:406] lstm1_unit_23 <- cont_23_lstm1_cont_slice_22_split_1
I0222 17:46:33.353607 25487 net.cpp:380] lstm1_unit_23 -> c_23
I0222 17:46:33.353611 25487 net.cpp:380] lstm1_unit_23 -> h_23
I0222 17:46:33.353641 25487 net.cpp:122] Setting up lstm1_unit_23
I0222 17:46:33.353644 25487 net.cpp:129] Top shape: 1 26 64 (1664)
I0222 17:46:33.353648 25487 net.cpp:129] Top shape: 1 26 64 (1664)
I0222 17:46:33.353652 25487 net.cpp:137] Memory required for data: 3280576
I0222 17:46:33.353654 25487 layer_factory.hpp:77] Creating layer h_23_lstm1_unit_23_1_split
I0222 17:46:33.353657 25487 net.cpp:84] Creating Layer h_23_lstm1_unit_23_1_split
I0222 17:46:33.353662 25487 net.cpp:406] h_23_lstm1_unit_23_1_split <- h_23
I0222 17:46:33.353664 25487 net.cpp:380] h_23_lstm1_unit_23_1_split -> h_23_lstm1_unit_23_1_split_0
I0222 17:46:33.353669 25487 net.cpp:380] h_23_lstm1_unit_23_1_split -> h_23_lstm1_unit_23_1_split_1
I0222 17:46:33.353688 25487 net.cpp:122] Setting up h_23_lstm1_unit_23_1_split
I0222 17:46:33.353691 25487 net.cpp:129] Top shape: 1 26 64 (1664)
I0222 17:46:33.353695 25487 net.cpp:129] Top shape: 1 26 64 (1664)
I0222 17:46:33.353698 25487 net.cpp:137] Memory required for data: 3293888
I0222 17:46:33.353700 25487 layer_factory.hpp:77] Creating layer lstm1_h_conted_23
I0222 17:46:33.353706 25487 net.cpp:84] Creating Layer lstm1_h_conted_23
I0222 17:46:33.353710 25487 net.cpp:406] lstm1_h_conted_23 <- h_23_lstm1_unit_23_1_split_0
I0222 17:46:33.353713 25487 net.cpp:406] lstm1_h_conted_23 <- cont_24_lstm1_cont_slice_23_split_0
I0222 17:46:33.353718 25487 net.cpp:380] lstm1_h_conted_23 -> h_conted_23
I0222 17:46:33.353757 25487 net.cpp:122] Setting up lstm1_h_conted_23
I0222 17:46:33.353763 25487 net.cpp:129] Top shape: 1 26 64 (1664)
I0222 17:46:33.353766 25487 net.cpp:137] Memory required for data: 3300544
I0222 17:46:33.353770 25487 layer_factory.hpp:77] Creating layer lstm1_transform_24
I0222 17:46:33.353775 25487 net.cpp:84] Creating Layer lstm1_transform_24
I0222 17:46:33.353778 25487 net.cpp:406] lstm1_transform_24 <- h_conted_23
I0222 17:46:33.353783 25487 net.cpp:380] lstm1_transform_24 -> W_hc_h_23
I0222 17:46:33.353878 25487 net.cpp:122] Setting up lstm1_transform_24
I0222 17:46:33.353883 25487 net.cpp:129] Top shape: 1 26 256 (6656)
I0222 17:46:33.353885 25487 net.cpp:137] Memory required for data: 3327168
I0222 17:46:33.353888 25487 net.cpp:465] Sharing parameters 'W_hc' owned by layer 'lstm1_transform_1', param index 0
I0222 17:46:33.353891 25487 layer_factory.hpp:77] Creating layer lstm1_gate_input_24
I0222 17:46:33.353895 25487 net.cpp:84] Creating Layer lstm1_gate_input_24
I0222 17:46:33.353904 25487 net.cpp:406] lstm1_gate_input_24 <- W_hc_h_23
I0222 17:46:33.353909 25487 net.cpp:406] lstm1_gate_input_24 <- W_xc_x_24
I0222 17:46:33.353914 25487 net.cpp:380] lstm1_gate_input_24 -> gate_input_24
I0222 17:46:33.353927 25487 net.cpp:122] Setting up lstm1_gate_input_24
I0222 17:46:33.353931 25487 net.cpp:129] Top shape: 1 26 256 (6656)
I0222 17:46:33.353935 25487 net.cpp:137] Memory required for data: 3353792
I0222 17:46:33.353937 25487 layer_factory.hpp:77] Creating layer lstm1_unit_24
I0222 17:46:33.353941 25487 net.cpp:84] Creating Layer lstm1_unit_24
I0222 17:46:33.353945 25487 net.cpp:406] lstm1_unit_24 <- c_23
I0222 17:46:33.353948 25487 net.cpp:406] lstm1_unit_24 <- gate_input_24
I0222 17:46:33.353952 25487 net.cpp:406] lstm1_unit_24 <- cont_24_lstm1_cont_slice_23_split_1
I0222 17:46:33.353956 25487 net.cpp:380] lstm1_unit_24 -> c_24
I0222 17:46:33.353961 25487 net.cpp:380] lstm1_unit_24 -> h_24
I0222 17:46:33.353984 25487 net.cpp:122] Setting up lstm1_unit_24
I0222 17:46:33.353989 25487 net.cpp:129] Top shape: 1 26 64 (1664)
I0222 17:46:33.353992 25487 net.cpp:129] Top shape: 1 26 64 (1664)
I0222 17:46:33.353996 25487 net.cpp:137] Memory required for data: 3367104
I0222 17:46:33.353998 25487 layer_factory.hpp:77] Creating layer lstm1_
I0222 17:46:33.354002 25487 net.cpp:84] Creating Layer lstm1_
I0222 17:46:33.354005 25487 net.cpp:406] lstm1_ <- c_24
I0222 17:46:33.354009 25487 net.cpp:380] lstm1_ -> c_T
I0222 17:46:33.354020 25487 net.cpp:122] Setting up lstm1_
I0222 17:46:33.354025 25487 net.cpp:129] Top shape: 1 26 64 (1664)
I0222 17:46:33.354028 25487 net.cpp:137] Memory required for data: 3373760
I0222 17:46:33.354032 25487 layer_factory.hpp:77] Creating layer lstm1_h_concat
I0222 17:46:33.354038 25487 net.cpp:84] Creating Layer lstm1_h_concat
I0222 17:46:33.354040 25487 net.cpp:406] lstm1_h_concat <- h_1_lstm1_unit_1_1_split_1
I0222 17:46:33.354044 25487 net.cpp:406] lstm1_h_concat <- h_2_lstm1_unit_2_1_split_1
…
I0222 17:46:33.388523 25487 net.cpp:200] lstm1_ does not need backward computation.
I0222 17:46:33.388526 25487 net.cpp:242] This network produces output c_T
I0222 17:46:33.388533 25487 net.cpp:242] This network produces output h_pseudoloss
I0222 17:46:33.388761 25487 net.cpp:255] Network initialization done.
I0222 17:46:33.388941 25487 recurrent_layer.cpp:150] Adding parameter 0: W_xc
I0222 17:46:33.388945 25487 recurrent_layer.cpp:150] Adding parameter 1: b_c
I0222 17:46:33.388949 25487 recurrent_layer.cpp:150] Adding parameter 2: W_hc
I0222 17:46:33.389868 25487 net.cpp:122] Setting up lstm1
I0222 17:46:33.389880 25487 net.cpp:129] Top shape: 24 26 64 (39936)
I0222 17:46:33.389885 25487 net.cpp:137] Memory required for data: 169920
I0222 17:46:33.389899 25487 layer_factory.hpp:77] Creating layer bn1
I0222 17:46:33.389909 25487 net.cpp:84] Creating Layer bn1
I0222 17:46:33.389914 25487 net.cpp:406] bn1 <- lstm1
I0222 17:46:33.389920 25487 net.cpp:380] bn1 -> bn1
I0222 17:46:33.390058 25487 net.cpp:122] Setting up bn1
I0222 17:46:33.390064 25487 net.cpp:129] Top shape: 24 26 64 (39936)
I0222 17:46:33.390069 25487 net.cpp:137] Memory required for data: 329664
I0222 17:46:33.390079 25487 layer_factory.hpp:77] Creating layer lstm2
I0222 17:46:33.390086 25487 net.cpp:84] Creating Layer lstm2
I0222 17:46:33.390091 25487 net.cpp:406] lstm2 <- bn1
I0222 17:46:33.390096 25487 net.cpp:406] lstm2 <- clip_clip_0_split_1
I0222 17:46:33.390102 25487 net.cpp:380] lstm2 -> lstm2
I0222 17:46:33.390110 25487 recurrent_layer.cpp:20] Initializing recurrent layer: assuming input batch contains 24 timesteps of 26 independent streams.
I0222 17:46:33.390724 25487 net.cpp:51] Initializing net from parameters: 
layer {
  name: "lstm2_"
  type: "Input"
  top: "x"
  top: "cont"
  input_param {
    shape {
      dim: 24
      dim: 26
      dim: 64
    }
    shape {
      dim: 24
      dim: 26
    }
  }
}
layer {
  name: "lstm2_"
  type: "Input"
  top: "c_0"
  top: "h_0"
  input_param {
    shape {
      dim: 1
      dim: 26
      dim: 64
    }
    shape {
      dim: 1
      dim: 26
      dim: 64
    }
  }
}
layer {
  name: "lstm2_cont_slice"
  type: "Slice"
  bottom: "cont"
  top: "cont_1"
  top: "cont_2"
  top: "cont_3"
  top: "cont_4"
  top: "cont_5"
  top: "cont_6"
  top: "cont_7"
  top: "cont_8"
  top: "cont_9"
  top: "cont_10"
  top: "cont_11"
  top: "cont_12"
  top: "cont_13"
  top: "cont_14"
  top: "cont_15"
  top: "cont_16"
  top: "cont_17"
  top: "cont_18"
  top: "cont_19"
  top: "cont_20"
  top: "cont_21"
  top: "cont_22"
  top: "cont_23"
  top: "cont_24"
  slice_param {
    axis: 0
  }
}
layer {
  name: "lstm2_x_transform"
  type: "InnerProduct"
  bottom: "x"
  top: "W_xc_x"
  param {
    name: "W_xc"
  }
  param {
    name: "b_c"
  }
  propagate_down: true
  inner_product_param {
    num_output: 256
    bias_term: true
    weight_filler {
      type: "xavier"
    }
    bias_filler {
      type: "constant"
    }
    axis: 2
  }
}
layer {
  name: "lstm2_W_xc_x_slice"
  type: "Slice"
  bottom: "W_xc_x"
  top: "W_xc_x_1"
  top: "W_xc_x_2"
  top: "W_xc_x_3"
  top: "W_xc_x_4"
  top: "W_xc_x_5"
  top: "W_xc_x_6"
  top: "W_xc_x_7"
  top: "W_xc_x_8"
  top: "W_xc_x_9"
  top: "W_xc_x_10"
  top: "W_xc_x_11"
  top: "W_xc_x_12"
  top: "W_xc_x_13"
  top: "W_xc_x_14"
  top: "W_xc_x_15"
  top: "W_xc_x_16"
  top: "W_xc_x_17"
  top: "W_xc_x_18"
  top: "W_xc_x_19"
  top: "W_xc_x_20"
  top: "W_xc_x_21"
  top: "W_xc_x_22"
  top: "W_xc_x_23"
  top: "W_xc_x_24"
  slice_param {
    axis: 0
  }
}
layer {
  name: "lstm2_h_conted_0"
  type: "Scale"
  bottom: "h_0"
  bottom: "cont_1"
  top: "h_conted_0"
  scale_param {
    axis: 0
  }
}
layer {
  name: "lstm2_transform_1"
  type: "InnerProduct"
  bottom: "h_conted_0"
  top: "W_hc_h_0"
  param {
    name: "W_hc"
  }
  inner_product_param {
    num_output: 256
    bias_term: false
    weight_filler {
      type: "xavier"
    }
    axis: 2
  }
}
layer {
  name: "lstm2_gate_input_1"
  type: "Eltwise"
  bottom: "W_hc_h_0"
  bottom: "W_xc_x_1"
  top: "gate_input_1"
  eltwise_param {
    operation: SUM
  }
}
layer {
  name: "lstm2_unit_1"
  type: "LSTMUnit"
  bottom: "c_0"
  bottom: "gate_input_1"
  bottom: "cont_1"
  top: "c_1"
  top: "h_1"
}
layer {
  name: "lstm2_h_conted_1"
  type: "Scale"
  bottom: "h_1"
  bottom: "cont_2"
  top: "h_conted_1"
  scale_param {
    axis: 0
  }
}
layer {
  name: "lstm2_transform_2"
  type: "InnerProduct"
  bottom: "h_conted_1"
  top: "W_hc_h_1"
  param {
    name: "W_hc"
  }
  inner_product_param {
    num_output: 256
    bias_term: false
    weight_filler {
      type: "xavier"
    }
    axis: 2
  }
}
layer {
  name: "lstm2_gate_input_2"
  type: "Eltwise"
  bottom: "W_hc_h_1"
  bottom: "W_xc_x_2"
  top: "gate_input_2"
  eltwise_param {
    operation: SUM
  }
}
layer {
  name: "lstm2_unit_2"
  type: "LSTMUnit"
  bottom: "c_1"
  bottom: "gate_input_2"
  bottom: "cont_2"
  top: "c_2"
  top: "h_2"
}
layer {
  name: "lstm2_h_conted_2"
  type: "Scale"
  bottom: "h_2"
  bottom: "cont_3"
  top: "h_conted_2"
  scale_param {
    axis: 0
  }
}
layer {
  name: "lstm2_transform_3"
  type: "InnerProduct"
  bottom: "h_conted_2"
  top: "W_hc_h_2"
  param {
    name: "W_hc"
  }
  inner_product_param {
    num_output: 256
    bias_term: false
    weight_filler {
      type: "xavier"
    }
    axis: 2
  }
}
layer {
  name: "lstm2_gate_input_3"
  type: "Eltwise"
  bottom: "W_hc_h_2"
  bottom: "W_xc_x_3"
  top: "gate_input_3"
  eltwise_param {
    operation: SUM
  }
}
layer {
  name: "lstm2_unit_3"
  type: "LSTMUnit"
  bottom: "c_2"
  bottom: "gate_input_3"
  bottom: "cont_3"
  top: "c_3"
  top: "h_3"
}
layer {
  name: "lstm2_h_conted_3"
  type: "Scale"
  bottom: "h_3"
  bottom: "cont_4"
  top: "h_conted_3"
  scale_param {
    axis: 0
  }
}
layer {
  name: "lstm2_transform_4"
  type: "InnerProduct"
  bottom: "h_conted_3"
  top: "W_hc_h_3"
  param {
    name: "W_hc"
  }
  inner_product_param {
    num_output: 256
    bias_term: false
    weight_filler {
      type: "xavier"
    }
    axis: 2
  }
}
layer {
  name: "lstm2_gate_input_4"
  type: "Eltwise"
  bottom: "W_hc_h_3"
  bottom: "W_xc_x_4"
  top: "gate_input_4"
  eltwise_param {
    operation: SUM
  }
}
layer {
  name: "lstm2_unit_4"
  type: "LSTMUnit"
  bottom: "c_3"
  bottom: "gate_input_4"
  bottom: "cont_4"
  top: "c_4"
  top: "h_4"
}
layer {
  name: "lstm2_h_conted_4"
  type: "Scale"
  bottom: "h_4"
  bottom: "cont_5"
  top: "h_conted_4"
  scale_param {
    axis: 0
  }
}
layer {
  name: "lstm2_transform_5"
  type: "InnerProduct"
  bottom: "h_conted_4"
  top: "W_hc_h_4"
  param {
    name: "W_hc"
  }
  inner_product_param {
    num_output: 256
    bias_term: false
    weight_filler {
      type: "xavier"
    }
    axis: 2
  }
}
layer {
  name: "lstm2_gate_input_5"
  type: "Eltwise"
  bottom: "W_hc_h_4"
  bottom: "W_xc_x_5"
  top: "gate_input_5"
  eltwise_param {
    operation: SUM
  }
}
layer {
  name: "lstm2_unit_5"
  type: "LSTMUnit"
  bottom: "c_4"
  bottom: "gate_input_5"
  bottom: "cont_5"
  top: "c_5"
  top: "h_5"
}
layer {
  name: "lstm2_h_conted_5"
  type: "Scale"
  bottom: "h_5"
  bottom: "cont_6"
  top: "h_conted_5"
  scale_param {
    axis: 0
  }
}
layer {
  name: "lstm2_transform_6"
  type: "InnerProduct"
  bottom: "h_conted_5"
  top: "W_hc_h_5"
  param {
    name: "W_hc"
  }
  inner_product_param {
    num_output: 256
    bias_term: false
    weight_filler {
      type: "xavier"
    }
    axis: 2
  }
}
layer {
  name: "lstm2_gate_input_6"
  type: "Eltwise"
  bottom: "W_hc_h_5"
  bottom: "W_xc_x_6"
  top: "gate_input_6"
  eltwise_param {
    operation: SUM
  }
}
layer {
  name: "lstm2_unit_6"
  type: "LSTMUnit"
  bottom: "c_5"
  bottom: "gate_input_6"
  bottom: "cont_6"
  top: "c_6"
  top: "h_6"
}
layer {
  name: "lstm2_h_conted_6"
  type: "Scale"
  bottom: "h_6"
  bottom: "cont_7"
  top: "h_conted_6"
  scale_param {
    axis: 0
  }
}
layer {
  name: "lstm2_transform_7"
  type: "InnerProduct"
  bottom: "h_conted_6"
  top: "W_hc_h_6"
  param {
    name: "W_hc"
  }
  inner_product_param {
    num_output: 256
    bias_term: false
    weight_filler {
      type: "xavier"
    }
    axis: 2
  }
}
layer {
  name: "lstm2_gate_input_7"
  type: "Eltwise"
  bottom: "W_hc_h_6"
  bottom: "W_xc_x_7"
  top: "gate_input_7"
  eltwise_param {
    operation: SUM
  }
}
layer {
  name: "lstm2_unit_7"
  type: "LSTMUnit"
  bottom: "c_6"
  bottom: "gate_input_7"
  bottom: "cont_7"
  top: "c_7"
  top: "h_7"
}
layer {
  name: "lstm2_h_conted_7"
  type: "Scale"
  bottom: "h_7"
  bottom: "cont_8"
  top: "h_conted_7"
  scale_param {
    axis: 0
  }
}
layer {
  name: "lstm2_transform_8"
  type: "InnerProduct"
  bottom: "h_conted_7"
  top: "W_hc_h_7"
  param {
    name: "W_hc"
  }
  inner_product_param {
    num_output: 256
    bias_term: false
    weight_filler {
      type: "xavier"
    }
    axis: 2
  }
}
layer {
  name: "lstm2_gate_input_8"
  type: "Eltwise"
  bottom: "W_hc_h_7"
  bottom: "W_xc_x_8"
  top: "gate_input_8"
  eltwise_param {
    operation: SUM
  }
}
layer {
  name: "lstm2_unit_8"
  type: "LSTMUnit"
  bottom: "c_7"
  bottom: "gate_input_8"
  bottom: "cont_8"
  top: "c_8"
  top: "h_8"
}
layer {
  name: "lstm2_h_conted_8"
  type: "Scale"
  bottom: "h_8"
  bottom: "cont_9"
  top: "h_conted_8"
  scale_param {
    axis: 0
  }
}
layer {
  name: "lstm2_transform_9"
  type: "InnerProduct"
  bottom: "h_conted_8"
  top: "W_hc_h_8"
  param {
    name: "W_hc"
  }
  inner_product_param {
    num_output: 256
    bias_term: false
    weight_filler {
      type: "xavier"
    }
    axis: 2
  }
}
layer {
  name: "lstm2_gate_input_9"
  type: "Eltwise"
  bottom: "W_hc_h_8"
  bottom: "W_xc_x_9"
  top: "gate_input_9"
  eltwise_param {
    operation: SUM
  }
}
layer {
  name: "lstm2_unit_9"
  type: "LSTMUnit"
  bottom: "c_8"
  bottom: "gate_input_9"
  bottom: "cont_9"
  top: "c_9"
  top: "h_9"
}
layer {
  name: "lstm2_h_conted_9"
  type: "Scale"
  bottom: "h_9"
  bottom: "cont_10"
  top: "h_conted_9"
  scale_param {
    axis: 0
  }
}
layer {
  name: "lstm2_transform_10"
  type: "InnerProduct"
  bottom: "h_conted_9"
  top: "W_hc_h_9"
  param {
    name: "W_hc"
  }
  inner_product_param {
    num_output: 256
    bias_term: false
    weight_filler {
      type: "xavier"
    }
    axis: 2
  }
}
layer {
  name: "lstm2_gate_input_10"
  type: "Eltwise"
  bottom: "W_hc_h_9"
  bottom: "W_xc_x_10"
  top: "gate_input_10"
  eltwise_param {
    operation: SUM
  }
}
layer {
  name: "lstm2_unit_10"
  type: "LSTMUnit"
  bottom: "c_9"
  bottom: "gate_input_10"
  bottom: "cont_10"
  top: "c_10"
  top: "h_10"
}
layer {
  name: "lstm2_h_conted_10"
  type: "Scale"
  bottom: "h_10"
  bottom: "cont_11"
  top: "h_conted_10"
  scale_param {
    axis: 0
  }
}
layer {
  name: "lstm2_transform_11"
  type: "InnerProduct"
  bottom: "h_conted_10"
  top: "W_hc_h_10"
  param {
    name: "W_hc"
  }
  inner_product_param {
    num_output: 256
    bias_term: false
    weight_filler {
      type: "xavier"
    }
    axis: 2
  }
}
layer {
  name: "lstm2_gate_input_11"
  type: "Eltwise"
  bottom: "W_hc_h_10"
  bottom: "W_xc_x_11"
  top: "gate_input_11"
  eltwise_param {
    operation: SUM
  }
}
layer {
  name: "lstm2_unit_11"
  type: "LSTMUnit"
  bottom: "c_10"
  bottom: "gate_input_11"
  bottom: "cont_11"
  top: "c_11"
  top: "h_11"
}
layer {
  name: "lstm2_h_conted_11"
  type: "Scale"
  bottom: "h_11"
  bottom: "cont_12"
  top: "h_conted_11"
  scale_param {
    axis: 0
  }
}
layer {
  name: "lstm2_transform_12"
  type: "InnerProduct"
  bottom: "h_conted_11"
  top: "W_hc_h_11"
  param {
    name: "W_hc"
  }
  inner_product_param {
    num_output: 256
    bias_term: false
    weight_filler {
      type: "xavier"
    }
    axis: 2
  }
}
layer {
  name: "lstm2_gate_input_12"
  type: "Eltwise"
  bottom: "W_hc_h_11"
  bottom: "W_xc_x_12"
  top: "gate_input_12"
  eltwise_param {
    operation: SUM
  }
}
layer {
  name: "lstm2_unit_12"
  type: "LSTMUnit"
  bottom: "c_11"
  bottom: "gate_input_12"
  bottom: "cont_12"
  top: "c_12"
  top: "h_12"
}
layer {
  name: "lstm2_h_conted_12"
  type: "Scale"
  bottom: "h_12"
  bottom: "cont_13"
  top: "h_conted_12"
  scale_param {
    axis: 0
  }
}
layer {
  name: "lstm2_transform_13"
  type: "InnerProduct"
  bottom: "h_conted_12"
  top: "W_hc_h_12"
  param {
    name: "W_hc"
  }
  inner_product_param {
    num_output: 256
    bias_term: false
    weight_filler {
      type: "xavier"
    }
    axis: 2
  }
}
layer {
  name: "lstm2_gate_input_13"
  type: "Eltwise"
  bottom: "W_hc_h_12"
  bottom: "W_xc_x_13"
  top: "gate_input_13"
  eltwise_param {
    operation: SUM
  }
}
layer {
  name: "lstm2_unit_13"
  type: "LSTMUnit"
  bottom: "c_12"
  bottom: "gate_input_13"
  bottom: "cont_13"
  top: "c_13"
  top: "h_13"
}
layer {
  name: "lstm2_h_conted_13"
  type: "Scale"
  bottom: "h_13"
  bottom: "cont_14"
  top: "h_conted_13"
  scale_param {
    axis: 0
  }
}
layer {
  name: "lstm2_transform_14"
  type: "InnerProduct"
  bottom: "h_conted_13"
  top: "W_hc_h_13"
  param {
    name: "W_hc"
  }
  inner_product_param {
    num_output: 256
    bias_term: false
    weight_filler {
      type: "xavier"
    }
    axis: 2
  }
}
layer {
  name: "lstm2_gate_input_14"
  type: "Eltwise"
  bottom: "W_hc_h_13"
  bottom: "W_xc_x_14"
  top: "gate_input_14"
  eltwise_param {
    operation: SUM
  }
}
layer {
  name: "lstm2_unit_14"
  type: "LSTMUnit"
  bottom: "c_13"
  bottom: "gate_input_14"
  bottom: "cont_14"
  top: "c_14"
  top: "h_14"
}
layer {
  name: "lstm2_h_conted_14"
  type: "Scale"
  bottom: "h_14"
  bottom: "cont_15"
  top: "h_conted_14"
  scale_param {
    axis: 0
  }
}
layer {
  name: "lstm2_transform_15"
  type: "InnerProduct"
  bottom: "h_conted_14"
  top: "W_hc_h_14"
  param {
    name: "W_hc"
  }
  inner_product_param {
    num_output: 256
    bias_term: false
    weight_filler {
      type: "xavier"
    }
    axis: 2
  }
}
layer {
  name: "lstm2_gate_input_15"
  type: "Eltwise"
  bottom: "W_hc_h_14"
  bottom: "W_xc_x_15"
  top: "gate_input_15"
  eltwise_param {
    operation: SUM
  }
}
layer {
  name: "lstm2_unit_15"
  type: "LSTMUnit"
  bottom: "c_14"
  bottom: "gate_input_15"
  bottom: "cont_15"
  top: "c_15"
  top: "h_15"
}
layer {
  name: "lstm2_h_conted_15"
  type: "Scale"
  bottom: "h_15"
  bottom: "cont_16"
  top: "h_conted_15"
  scale_param {
    axis: 0
  }
}
layer {
  name: "lstm2_transform_16"
  type: "InnerProduct"
  bottom: "h_conted_15"
  top: "W_hc_h_15"
  param {
    name: "W_hc"
  }
  inner_product_param {
    num_output: 256
    bias_term: false
    weight_filler {
      type: "xavier"
    }
    axis: 2
  }
}
layer {
  name: "lstm2_gate_input_16"
  type: "Eltwise"
  bottom: "W_hc_h_15"
  bottom: "W_xc_x_16"
  top: "gate_input_16"
  eltwise_param {
    operation: SUM
  }
}
layer {
  name: "lstm2_unit_16"
  type: "LSTMUnit"
  bottom: "c_15"
  bottom: "gate_input_16"
  bottom: "cont_16"
  top: "c_16"
  top: "h_16"
}
layer {
  name: "lstm2_h_conted_16"
  type: "Scale"
  bottom: "h_16"
  bottom: "cont_17"
  top: "h_conted_16"
  scale_param {
    axis: 0
  }
}
layer {
  name: "lstm2_transform_17"
  type: "InnerProduct"
  bottom: "h_conted_16"
  top: "W_hc_h_16"
  param {
    name: "W_hc"
  }
  inner_product_param {
    num_output: 256
    bias_term: false
    weight_filler {
      type: "xavier"
    }
    axis: 2
  }
}
layer {
  name: "lstm2_gate_input_17"
  type: "Eltwise"
  bottom: "W_hc_h_16"
  bottom: "W_xc_x_17"
  top: "gate_input_17"
  eltwise_param {
    operation: SUM
  }
}
layer {
  name: "lstm2_unit_17"
  type: "LSTMUnit"
  bottom: "c_16"
  bottom: "gate_input_17"
  bottom: "cont_17"
  top: "c_17"
  top: "h_17"
}
layer {
  name: "lstm2_h_conted_17"
  type: "Scale"
  bottom: "h_17"
  bottom: "cont_18"
  top: "h_conted_17"
  scale_param {
    axis: 0
  }
}
layer {
  name: "lstm2_transform_18"
  type: "InnerProduct"
  bottom: "h_conted_17"
  top: "W_hc_h_17"
  param {
    name: "W_hc"
  }
  inner_product_param {
    num_output: 256
    bias_term: false
    weight_filler {
      type: "xavier"
    }
    axis: 2
  }
}
layer {
  name: "lstm2_gate_input_18"
  type: "Eltwise"
  bottom: "W_hc_h_17"
  bottom: "W_xc_x_18"
  top: "gate_input_18"
  eltwise_param {
    operation: SUM
  }
}
layer {
  name: "lstm2_unit_18"
  type: "LSTMUnit"
  bottom: "c_17"
  bottom: "gate_input_18"
  bottom: "cont_18"
  top: "c_18"
  top: "h_18"
}
layer {
  name: "lstm2_h_conted_18"
  type: "Scale"
  bottom: "h_18"
  bottom: "cont_19"
  top: "h_conted_18"
  scale_param {
    axis: 0
  }
}
layer {
  name: "lstm2_transform_19"
  type: "InnerProduct"
  bottom: "h_conted_18"
  top: "W_hc_h_18"
  param {
    name: "W_hc"
  }
  inner_product_param {
    num_output: 256
    bias_term: false
    weight_filler {
      type: "xavier"
    }
    axis: 2
  }
}
layer {
  name: "lstm2_gate_input_19"
  type: "Eltwise"
  bottom: "W_hc_h_18"
  bottom: "W_xc_x_19"
  top: "gate_input_19"
  eltwise_param {
    operation: SUM
  }
}
layer {
  name: "lstm2_unit_19"
  type: "LSTMUnit"
  bottom: "c_18"
  bottom: "gate_input_19"
  bottom: "cont_19"
  top: "c_19"
  top: "h_19"
}
layer {
  name: "lstm2_h_conted_19"
  type: "Scale"
  bottom: "h_19"
  bottom: "cont_20"
  top: "h_conted_19"
  scale_param {
    axis: 0
  }
}
layer {
  name: "lstm2_transform_20"
  type: "InnerProduct"
  bottom: "h_conted_19"
  top: "W_hc_h_19"
  param {
    name: "W_hc"
  }
  inner_product_param {
    num_output: 256
    bias_term: false
    weight_filler {
      type: "xavier"
    }
    axis: 2
  }
}
layer {
  name: "lstm2_gate_input_20"
  type: "Eltwise"
  bottom: "W_hc_h_19"
  bottom: "W_xc_x_20"
  top: "gate_input_20"
  eltwise_param {
    operation: SUM
  }
}
layer {
  name: "lstm2_unit_20"
  type: "LSTMUnit"
  bottom: "c_19"
  bottom: "gate_input_20"
  bottom: "cont_20"
  top: "c_20"
  top: "h_20"
}
layer {
  name: "lstm2_h_conted_20"
  type: "Scale"
  bottom: "h_20"
  bottom: "cont_21"
  top: "h_conted_20"
  scale_param {
    axis: 0
  }
}
layer {
  name: "lstm2_transform_21"
  type: "InnerProduct"
  bottom: "h_conted_20"
  top: "W_hc_h_20"
  param {
    name: "W_hc"
  }
  inner_product_param {
    num_output: 256
    bias_term: false
    weight_filler {
      type: "xavier"
    }
    axis: 2
  }
}
layer {
  name: "lstm2_gate_input_21"
  type: "Eltwise"
  bottom: "W_hc_h_20"
  bottom: "W_xc_x_21"
  top: "gate_input_21"
  eltwise_param {
    operation: SUM
  }
}
layer {
  name: "lstm2_unit_21"
  type: "LSTMUnit"
  bottom: "c_20"
  bottom: "gate_input_21"
  bottom: "cont_21"
  top: "c_21"
  top: "h_21"
}
layer {
  name: "lstm2_h_conted_21"
  type: "Scale"
  bottom: "h_21"
  bottom: "cont_22"
  top: "h_conted_21"
  scale_param {
    axis: 0
  }
}
layer {
  name: "lstm2_transform_22"
  type: "InnerProduct"
  bottom: "h_conted_21"
  top: "W_hc_h_21"
  param {
    name: "W_hc"
  }
  inner_product_param {
    num_output: 256
    bias_term: false
    weight_filler {
      type: "xavier"
    }
    axis: 2
  }
}
layer {
  name: "lstm2_gate_input_22"
  type: "Eltwise"
  bottom: "W_hc_h_21"
  bottom: "W_xc_x_22"
  top: "gate_input_22"
  eltwise_param {
    operation: SUM
  }
}
layer {
  name: "lstm2_unit_22"
  type: "LSTMUnit"
  bottom: "c_21"
  bottom: "gate_input_22"
  bottom: "cont_22"
  top: "c_22"
  top: "h_22"
}
layer {
  name: "lstm2_h_conted_22"
  type: "Scale"
  bottom: "h_22"
  bottom: "cont_23"
  top: "h_conted_22"
  scale_param {
    axis: 0
  }
}
layer {
  name: "lstm2_transform_23"
  type: "InnerProduct"
  bottom: "h_conted_22"
  top: "W_hc_h_22"
  param {
    name: "W_hc"
  }
  inner_product_param {
    num_output: 256
    bias_term: false
    weight_filler {
      type: "xavier"
    }
    axis: 2
  }
}
layer {
  name: "lstm2_gate_input_23"
  type: "Eltwise"
  bottom: "W_hc_h_22"
  bottom: "W_xc_x_23"
  top: "gate_input_23"
  eltwise_param {
    operation: SUM
  }
}
layer {
  name: "lstm2_unit_23"
  type: "LSTMUnit"
  bottom: "c_22"
  bottom: "gate_input_23"
  bottom: "cont_23"
  top: "c_23"
  top: "h_23"
}
layer {
  name: "lstm2_h_conted_23"
  type: "Scale"
  bottom: "h_23"
  bottom: "cont_24"
  top: "h_conted_23"
  scale_param {
    axis: 0
  }
}
layer {
  name: "lstm2_transform_24"
  type: "InnerProduct"
  bottom: "h_conted_23"
  top: "W_hc_h_23"
  param {
    name: "W_hc"
  }
  inner_product_param {
    num_output: 256
    bias_term: false
    weight_filler {
      type: "xavier"
    }
    axis: 2
  }
}
layer {
  name: "lstm2_gate_input_24"
  type: "Eltwise"
  bottom: "W_hc_h_23"
  bottom: "W_xc_x_24"
  top: "gate_input_24"
  eltwise_param {
    operation: SUM
  }
}
layer {
  name: "lstm2_unit_24"
  type: "LSTMUnit"
  bottom: "c_23"
  bottom: "gate_input_24"
  bottom: "cont_24"
  top: "c_24"
  top: "h_24"
}
layer {
  name: "lstm2_"
  type: "Split"
  bottom: "c_24"
  top: "c_T"
}
layer {
  name: "lstm2_h_concat"
  type: "Concat"
  bottom: "h_1"
  bottom: "h_2"
  bottom: "h_3"
  bottom: "h_4"
  bottom: "h_5"
  bottom: "h_6"
  bottom: "h_7"
  bottom: "h_8"
  bottom: "h_9"
  bottom: "h_10"
  bottom: "h_11"
  bottom: "h_12"
  bottom: "h_13"
  bottom: "h_14"
  bottom: "h_15"
  bottom: "h_16"
  bottom: "h_17"
  bottom: "h_18"
  bottom: "h_19"
  bottom: "h_20"
  bottom: "h_21"
  bottom: "h_22"
  bottom: "h_23"
  bottom: "h_24"
  top: "h"
  concat_param {
    axis: 0
  }
}
layer {
  name: "h_pseudoloss"
  type: "Reduction"
  bottom: "h"
  top: "h_pseudoloss"
  loss_weight: 1
}
I0222 17:46:33.419456 25487 layer_factory.hpp:77] Creating layer lstm2_
I0222 17:46:33.419468 25487 net.cpp:84] Creating Layer lstm2_
I0222 17:46:33.419473 25487 net.cpp:380] lstm2_ -> x
I0222 17:46:33.419481 25487 net.cpp:380] lstm2_ -> cont
I0222 17:46:33.419524 25487 net.cpp:122] Setting up lstm2_
I0222 17:46:33.419529 25487 net.cpp:129] Top shape: 24 26 64 (39936)
I0222 17:46:33.419533 25487 net.cpp:129] Top shape: 24 26 (624)
I0222 17:46:33.419536 25487 net.cpp:137] Memory required for data: 162240
I0222 17:46:33.419540 25487 layer_factory.hpp:77] Creating layer lstm2_
I0222 17:46:33.419544 25487 net.cpp:84] Creating Layer lstm2_
I0222 17:46:33.419548 25487 net.cpp:380] lstm2_ -> c_0
I0222 17:46:33.419553 25487 net.cpp:380] lstm2_ -> h_0
I0222 17:46:33.419575 25487 net.cpp:122] Setting up lstm2_
I0222 17:46:33.419580 25487 net.cpp:129] Top shape: 1 26 64 (1664)
I0222 17:46:33.419584 25487 net.cpp:129] Top shape: 1 26 64 (1664)
I0222 17:46:33.419586 25487 net.cpp:137] Memory required for data: 175552
I0222 17:46:33.419589 25487 layer_factory.hpp:77] Creating layer lstm2_cont_slice
I0222 17:46:33.419595 25487 net.cpp:84] Creating Layer lstm2_cont_slice
I0222 17:46:33.419598 25487 net.cpp:406] lstm2_cont_slice <- cont
I0222 17:46:33.419611 25487 net.cpp:380] lstm2_cont_slice -> cont_1
I0222 17:46:33.419618 25487 net.cpp:380] lstm2_cont_slice -> cont_2
…
