…
  top: "data"
  data_param {
    source: "/home/leonida/ThesisCode/LSTM_on_Create2/NavDatabases/LAB-21-2-new-step-condition/states_db-2-21-15-4_lmdb"
    batch_size: 16
    backend: LMDB
  }
}
layer {
  name: "label"
  type: "Data"
  top: "labels"
  data_param {
    source: "/home/leonida/ThesisCode/LSTM_on_Create2/NavDatabases/LAB-21-2-new-step-condition/labels_db-2-21-15-4_twist-variant_lmdb"
    batch_size: 16
    backend: LMDB
  }
}
layer {
  name: "clip"
  type: "Input"
  top: "clip"
  input_param {
    shape {
      dim: 16
      dim: 26
    }
  }
}
layer {
  name: "lstm1"
  type: "LSTM"
  bottom: "data"
  bottom: "clip"
  top: "lstm1"
  recurrent_param {
    num_output: 128
    weight_filler {
      type: "xavier"
    }
    bias_filler {
      type: "constant"
    }
  }
}
layer {
  name: "bn1"
  type: "BatchNorm"
  bottom: "lstm1"
  top: "bn1"
  batch_norm_param {
    use_global_stats: false
  }
}
layer {
  name: "lstm2"
  type: "LSTM"
  bottom: "bn1"
  bottom: "clip"
  top: "lstm2"
  recurrent_param {
    num_output: 128
    weight_filler {
      type: "xavier"
    }
    bias_filler {
      type: "constant"
    }
  }
}
layer {
  name: "bn2"
  type: "BatchNorm"
  bottom: "lstm2"
  top: "bn2"
  batch_norm_param {
    use_global_stats: false
  }
}
layer {
  name: "lstm3"
  type: "LSTM"
  bottom: "bn2"
  bottom: "clip"
  top: "lstm3"
  recurrent_param {
    num_output: 128
    weight_filler {
      type: "xavier"
    }
    bias_filler {
      type: "constant"
    }
  }
}
layer {
  name: "bn3"
  type: "BatchNorm"
  bottom: "lstm3"
  top: "bn3"
  batch_norm_param {
    use_global_stats: false
  }
}
layer {
  name: "lstm4"
  type: "LSTM"
  bottom: "bn3"
  bottom: "clip"
  top: "lstm4"
  recurrent_param {
    num_output: 128
    weight_filler {
      type: "xavier"
    }
    bias_filler {
      type: "constant"
    }
  }
}
layer {
  name: "out"
  type: "InnerProduct"
  bottom: "lstm4"
  top: "out"
  inner_product_param {
    num_output: 2
    weight_filler {
      type: "gaussian"
      std: 0.1
    }
    bias_filler {
      type: "constant"
    }
  }
}
layer {
  name: "euclideanLoss"
  type: "EuclideanLoss"
  bottom: "out"
  bottom: "labels"
  top: "loss"
}
I0222 18:02:21.879305 26014 layer_factory.hpp:77] Creating layer data
I0222 18:02:21.879390 26014 db_lmdb.cpp:35] Opened lmdb /home/leonida/ThesisCode/LSTM_on_Create2/NavDatabases/LAB-21-2-new-step-condition/states_db-2-21-15-4_lmdb
I0222 18:02:21.879407 26014 net.cpp:84] Creating Layer data
I0222 18:02:21.879412 26014 net.cpp:380] data -> data
I0222 18:02:21.880062 26014 data_layer.cpp:45] output data size: 16,26,1,1
I0222 18:02:21.881392 26014 net.cpp:122] Setting up data
I0222 18:02:21.881422 26014 net.cpp:129] Top shape: 16 26 1 1 (416)
I0222 18:02:21.881425 26014 net.cpp:137] Memory required for data: 1664
I0222 18:02:21.881431 26014 layer_factory.hpp:77] Creating layer label
I0222 18:02:21.881484 26014 db_lmdb.cpp:35] Opened lmdb /home/leonida/ThesisCode/LSTM_on_Create2/NavDatabases/LAB-21-2-new-step-condition/labels_db-2-21-15-4_twist-variant_lmdb
I0222 18:02:21.881494 26014 net.cpp:84] Creating Layer label
I0222 18:02:21.881498 26014 net.cpp:380] label -> labels
I0222 18:02:21.881548 26014 data_layer.cpp:45] output data size: 16,2,1,1
I0222 18:02:21.881907 26014 net.cpp:122] Setting up label
I0222 18:02:21.881932 26014 net.cpp:129] Top shape: 16 2 1 1 (32)
I0222 18:02:21.881937 26014 net.cpp:137] Memory required for data: 1792
I0222 18:02:21.881939 26014 layer_factory.hpp:77] Creating layer clip
I0222 18:02:21.881947 26014 net.cpp:84] Creating Layer clip
I0222 18:02:21.881952 26014 net.cpp:380] clip -> clip
I0222 18:02:21.881994 26014 net.cpp:122] Setting up clip
I0222 18:02:21.882011 26014 net.cpp:129] Top shape: 16 26 (416)
I0222 18:02:21.882014 26014 net.cpp:137] Memory required for data: 3456
I0222 18:02:21.882016 26014 layer_factory.hpp:77] Creating layer clip_clip_0_split
I0222 18:02:21.882024 26014 net.cpp:84] Creating Layer clip_clip_0_split
I0222 18:02:21.882028 26014 net.cpp:406] clip_clip_0_split <- clip
I0222 18:02:21.882035 26014 net.cpp:380] clip_clip_0_split -> clip_clip_0_split_0
I0222 18:02:21.882038 26014 net.cpp:380] clip_clip_0_split -> clip_clip_0_split_1
I0222 18:02:21.882045 26014 net.cpp:380] clip_clip_0_split -> clip_clip_0_split_2
I0222 18:02:21.882048 26014 net.cpp:380] clip_clip_0_split -> clip_clip_0_split_3
I0222 18:02:21.882097 26014 net.cpp:122] Setting up clip_clip_0_split
I0222 18:02:21.882102 26014 net.cpp:129] Top shape: 16 26 (416)
I0222 18:02:21.882105 26014 net.cpp:129] Top shape: 16 26 (416)
I0222 18:02:21.882109 26014 net.cpp:129] Top shape: 16 26 (416)
I0222 18:02:21.882112 26014 net.cpp:129] Top shape: 16 26 (416)
I0222 18:02:21.882115 26014 net.cpp:137] Memory required for data: 10112
I0222 18:02:21.882118 26014 layer_factory.hpp:77] Creating layer lstm1
I0222 18:02:21.882128 26014 net.cpp:84] Creating Layer lstm1
I0222 18:02:21.882131 26014 net.cpp:406] lstm1 <- data
I0222 18:02:21.882135 26014 net.cpp:406] lstm1 <- clip_clip_0_split_0
I0222 18:02:21.882139 26014 net.cpp:380] lstm1 -> lstm1
I0222 18:02:21.882150 26014 recurrent_layer.cpp:20] Initializing recurrent layer: assuming input batch contains 16 timesteps of 26 independent streams.
I0222 18:02:21.882652 26014 net.cpp:51] Initializing net from parameters: 
layer {
  name: "lstm1_"
  type: "Input"
  top: "x"
  top: "cont"
  input_param {
    shape {
      dim: 16
      dim: 26
      dim: 1
      dim: 1
    }
    shape {
      dim: 16
      dim: 26
    }
  }
}
layer {
  name: "lstm1_"
  type: "Input"
  top: "c_0"
  top: "h_0"
  input_param {
    shape {
      dim: 1
      dim: 26
      dim: 128
    }
    shape {
      dim: 1
      dim: 26
      dim: 128
    }
  }
}
layer {
  name: "lstm1_cont_slice"
  type: "Slice"
  bottom: "cont"
  top: "cont_1"
  top: "cont_2"
  top: "cont_3"
  top: "cont_4"
  top: "cont_5"
  top: "cont_6"
  top: "cont_7"
  top: "cont_8"
  top: "cont_9"
  top: "cont_10"
  top: "cont_11"
  top: "cont_12"
  top: "cont_13"
  top: "cont_14"
  top: "cont_15"
  top: "cont_16"
  slice_param {
    axis: 0
  }
}
layer {
  name: "lstm1_x_transform"
  type: "InnerProduct"
  bottom: "x"
  top: "W_xc_x"
  param {
    name: "W_xc"
  }
  param {
    name: "b_c"
  }
  propagate_down: true
  inner_product_param {
    num_output: 512
    bias_term: true
    weight_filler {
      type: "xavier"
    }
    bias_filler {
      type: "constant"
    }
    axis: 2
  }
}
layer {
  name: "lstm1_W_xc_x_slice"
  type: "Slice"
  bottom: "W_xc_x"
  top: "W_xc_x_1"
  top: "W_xc_x_2"
  top: "W_xc_x_3"
  top: "W_xc_x_4"
  top: "W_xc_x_5"
  top: "W_xc_x_6"
  top: "W_xc_x_7"
  top: "W_xc_x_8"
  top: "W_xc_x_9"
  top: "W_xc_x_10"
  top: "W_xc_x_11"
  top: "W_xc_x_12"
  top: "W_xc_x_13"
  top: "W_xc_x_14"
  top: "W_xc_x_15"
  top: "W_xc_x_16"
  slice_param {
    axis: 0
  }
}
layer {
  name: "lstm1_h_conted_0"
  type: "Scale"
  bottom: "h_0"
  bottom: "cont_1"
  top: "h_conted_0"
  scale_param {
    axis: 0
  }
}
layer {
  name: "lstm1_transform_1"
  type: "InnerProduct"
  bottom: "h_conted_0"
  top: "W_hc_h_0"
  param {
    name: "W_hc"
  }
  inner_product_param {
    num_output: 512
    bias_term: false
    weight_filler {
      type: "xavier"
    }
    axis: 2
  }
}
layer {
  name: "lstm1_gate_input_1"
  type: "Eltwise"
  bottom: "W_hc_h_0"
  bottom: "W_xc_x_1"
  top: "gate_input_1"
  eltwise_param {
    operation: SUM
  }
}
layer {
  name: "lstm1_unit_1"
  type: "LSTMUnit"
  bottom: "c_0"
  bottom: "gate_input_1"
  bottom: "cont_1"
  top: "c_1"
  top: "h_1"
}
layer {
  name: "lstm1_h_conted_1"
  type: "Scale"
  bottom: "h_1"
  bottom: "cont_2"
  top: "h_conted_1"
  scale_param {
    axis: 0
  }
}
layer {
  name: "lstm1_transform_2"
  type: "InnerProduct"
  bottom: "h_conted_1"
  top: "W_hc_h_1"
  param {
    name: "W_hc"
  }
  inner_product_param {
    num_output: 512
    bias_term: false
    weight_filler {
      type: "xavier"
    }
    axis: 2
  }
}
layer {
  name: "lstm1_gate_input_2"
  type: "Eltwise"
  bottom: "W_hc_h_1"
  bottom: "W_xc_x_2"
  top: "gate_input_2"
  eltwise_param {
    operation: SUM
  }
}
layer {
  name: "lstm1_unit_2"
  type: "LSTMUnit"
  bottom: "c_1"
  bottom: "gate_input_2"
  bottom: "cont_2"
  top: "c_2"
  top: "h_2"
}
layer {
  name: "lstm1_h_conted_2"
  type: "Scale"
  bottom: "h_2"
  bottom: "cont_3"
  top: "h_conted_2"
  scale_param {
    axis: 0
  }
}
layer {
  name: "lstm1_transform_3"
  type: "InnerProduct"
  bottom: "h_conted_2"
  top: "W_hc_h_2"
  param {
    name: "W_hc"
  }
  inner_product_param {
    num_output: 512
    bias_term: false
    weight_filler {
      type: "xavier"
    }
    axis: 2
  }
}
layer {
  name: "lstm1_gate_input_3"
  type: "Eltwise"
  bottom: "W_hc_h_2"
  bottom: "W_xc_x_3"
  top: "gate_input_3"
  eltwise_param {
    operation: SUM
  }
}
layer {
  name: "lstm1_unit_3"
  type: "LSTMUnit"
  bottom: "c_2"
  bottom: "gate_input_3"
  bottom: "cont_3"
  top: "c_3"
  top: "h_3"
}
layer {
  name: "lstm1_h_conted_3"
  type: "Scale"
  bottom: "h_3"
  bottom: "cont_4"
  top: "h_conted_3"
  scale_param {
    axis: 0
  }
}
layer {
  name: "lstm1_transform_4"
  type: "InnerProduct"
  bottom: "h_conted_3"
  top: "W_hc_h_3"
  param {
    name: "W_hc"
  }
  inner_product_param {
    num_output: 512
    bias_term: false
    weight_filler {
      type: "xavier"
    }
    axis: 2
  }
}
layer {
  name: "lstm1_gate_input_4"
  type: "Eltwise"
  bottom: "W_hc_h_3"
  bottom: "W_xc_x_4"
  top: "gate_input_4"
  eltwise_param {
    operation: SUM
  }
}
layer {
  name: "lstm1_unit_4"
  type: "LSTMUnit"
  bottom: "c_3"
  bottom: "gate_input_4"
  bottom: "cont_4"
  top: "c_4"
  top: "h_4"
}
layer {
  name: "lstm1_h_conted_4"
  type: "Scale"
  bottom: "h_4"
  bottom: "cont_5"
  top: "h_conted_4"
  scale_param {
    axis: 0
  }
}
layer {
  name: "lstm1_transform_5"
  type: "InnerProduct"
  bottom: "h_conted_4"
  top: "W_hc_h_4"
  param {
    name: "W_hc"
  }
  inner_product_param {
    num_output: 512
    bias_term: false
    weight_filler {
      type: "xavier"
    }
    axis: 2
  }
}
layer {
  name: "lstm1_gate_input_5"
  type: "Eltwise"
  bottom: "W_hc_h_4"
  bottom: "W_xc_x_5"
  top: "gate_input_5"
  eltwise_param {
    operation: SUM
  }
}
layer {
  name: "lstm1_unit_5"
  type: "LSTMUnit"
  bottom: "c_4"
  bottom: "gate_input_5"
  bottom: "cont_5"
  top: "c_5"
  top: "h_5"
}
layer {
  name: "lstm1_h_conted_5"
  type: "Scale"
  bottom: "h_5"
  bottom: "cont_6"
  top: "h_conted_5"
  scale_param {
    axis: 0
  }
}
layer {
  name: "lstm1_transform_6"
  type: "InnerProduct"
  bottom: "h_conted_5"
  top: "W_hc_h_5"
  param {
    name: "W_hc"
  }
  inner_product_param {
    num_output: 512
    bias_term: false
    weight_filler {
      type: "xavier"
    }
    axis: 2
  }
}
layer {
  name: "lstm1_gate_input_6"
  type: "Eltwise"
  bottom: "W_hc_h_5"
  bottom: "W_xc_x_6"
  top: "gate_input_6"
  eltwise_param {
    operation: SUM
  }
}
layer {
  name: "lstm1_unit_6"
  type: "LSTMUnit"
  bottom: "c_5"
  bottom: "gate_input_6"
  bottom: "cont_6"
  top: "c_6"
  top: "h_6"
}
layer {
  name: "lstm1_h_conted_6"
  type: "Scale"
  bottom: "h_6"
  bottom: "cont_7"
  top: "h_conted_6"
  scale_param {
    axis: 0
  }
}
layer {
  name: "lstm1_transform_7"
  type: "InnerProduct"
  bottom: "h_conted_6"
  top: "W_hc_h_6"
  param {
    name: "W_hc"
  }
  inner_product_param {
    num_output: 512
    bias_term: false
    weight_filler {
      type: "xavier"
    }
    axis: 2
  }
}
layer {
  name: "lstm1_gate_input_7"
  type: "Eltwise"
  bottom: "W_hc_h_6"
  bottom: "W_xc_x_7"
  top: "gate_input_7"
  eltwise_param {
    operation: SUM
  }
}
layer {
  name: "lstm1_unit_7"
  type: "LSTMUnit"
  bottom: "c_6"
  bottom: "gate_input_7"
  bottom: "cont_7"
  top: "c_7"
  top: "h_7"
}
layer {
  name: "lstm1_h_conted_7"
  type: "Scale"
  bottom: "h_7"
  bottom: "cont_8"
  top: "h_conted_7"
  scale_param {
    axis: 0
  }
}
layer {
  name: "lstm1_transform_8"
  type: "InnerProduct"
  bottom: "h_conted_7"
  top: "W_hc_h_7"
  param {
    name: "W_hc"
  }
  inner_product_param {
    num_output: 512
    bias_term: false
    weight_filler {
      type: "xavier"
    }
    axis: 2
  }
}
layer {
  name: "lstm1_gate_input_8"
  type: "Eltwise"
  bottom: "W_hc_h_7"
  bottom: "W_xc_x_8"
  top: "gate_input_8"
  eltwise_param {
    operation: SUM
  }
}
layer {
  name: "lstm1_unit_8"
  type: "LSTMUnit"
  bottom: "c_7"
  bottom: "gate_input_8"
  bottom: "cont_8"
  top: "c_8"
  top: "h_8"
}
layer {
  name: "lstm1_h_conted_8"
  type: "Scale"
  bottom: "h_8"
  bottom: "cont_9"
  top: "h_conted_8"
  scale_param {
    axis: 0
  }
}
layer {
  name: "lstm1_transform_9"
  type: "InnerProduct"
  bottom: "h_conted_8"
  top: "W_hc_h_8"
  param {
    name: "W_hc"
  }
  inner_product_param {
    num_output: 512
    bias_term: false
    weight_filler {
      type: "xavier"
    }
    axis: 2
  }
}
layer {
  name: "lstm1_gate_input_9"
  type: "Eltwise"
  bottom: "W_hc_h_8"
  bottom: "W_xc_x_9"
  top: "gate_input_9"
  eltwise_param {
    operation: SUM
  }
}
layer {
  name: "lstm1_unit_9"
  type: "LSTMUnit"
  bottom: "c_8"
  bottom: "gate_input_9"
  bottom: "cont_9"
  top: "c_9"
  top: "h_9"
}
layer {
  name: "lstm1_h_conted_9"
  type: "Scale"
  bottom: "h_9"
  bottom: "cont_10"
  top: "h_conted_9"
  scale_param {
    axis: 0
  }
}
layer {
  name: "lstm1_transform_10"
  type: "InnerProduct"
  bottom: "h_conted_9"
  top: "W_hc_h_9"
  param {
    name: "W_hc"
  }
  inner_product_param {
    num_output: 512
    bias_term: false
    weight_filler {
      type: "xavier"
    }
    axis: 2
  }
}
layer {
  name: "lstm1_gate_input_10"
  type: "Eltwise"
  bottom: "W_hc_h_9"
  bottom: "W_xc_x_10"
  top: "gate_input_10"
  eltwise_param {
    operation: SUM
  }
}
layer {
  name: "lstm1_unit_10"
  type: "LSTMUnit"
  bottom: "c_9"
  bottom: "gate_input_10"
  bottom: "cont_10"
  top: "c_10"
  top: "h_10"
}
layer {
  name: "lstm1_h_conted_10"
  type: "Scale"
  bottom: "h_10"
  bottom: "cont_11"
  top: "h_conted_10"
  scale_param {
    axis: 0
  }
}
layer {
  name: "lstm1_transform_11"
  type: "InnerProduct"
  bottom: "h_conted_10"
  top: "W_hc_h_10"
  param {
    name: "W_hc"
  }
  inner_product_param {
    num_output: 512
    bias_term: false
    weight_filler {
      type: "xavier"
    }
    axis: 2
  }
}
layer {
  name: "lstm1_gate_input_11"
  type: "Eltwise"
  bottom: "W_hc_h_10"
  bottom: "W_xc_x_11"
  top: "gate_input_11"
  eltwise_param {
    operation: SUM
  }
}
layer {
  name: "lstm1_unit_11"
  type: "LSTMUnit"
  bottom: "c_10"
  bottom: "gate_input_11"
  bottom: "cont_11"
  top: "c_11"
  top: "h_11"
}
layer {
  name: "lstm1_h_conted_11"
  type: "Scale"
  bottom: "h_11"
  bottom: "cont_12"
  top: "h_conted_11"
  scale_param {
    axis: 0
  }
}
layer {
  name: "lstm1_transform_12"
  type: "InnerProduct"
  bottom: "h_conted_11"
  top: "W_hc_h_11"
  param {
    name: "W_hc"
  }
  inner_product_param {
    num_output: 512
    bias_term: false
    weight_filler {
      type: "xavier"
    }
    axis: 2
  }
}
layer {
  name: "lstm1_gate_input_12"
  type: "Eltwise"
  bottom: "W_hc_h_11"
  bottom: "W_xc_x_12"
  top: "gate_input_12"
  eltwise_param {
    operation: SUM
  }
}
layer {
  name: "lstm1_unit_12"
  type: "LSTMUnit"
  bottom: "c_11"
  bottom: "gate_input_12"
  bottom: "cont_12"
  top: "c_12"
  top: "h_12"
}
layer {
  name: "lstm1_h_conted_12"
  type: "Scale"
  bottom: "h_12"
  bottom: "cont_13"
  top: "h_conted_12"
  scale_param {
    axis: 0
  }
}
layer {
  name: "lstm1_transform_13"
  type: "InnerProduct"
  bottom: "h_conted_12"
  top: "W_hc_h_12"
  param {
    name: "W_hc"
  }
  inner_product_param {
    num_output: 512
    bias_term: false
    weight_filler {
      type: "xavier"
    }
    axis: 2
  }
}
layer {
  name: "lstm1_gate_input_13"
  type: "Eltwise"
  bottom: "W_hc_h_12"
  bottom: "W_xc_x_13"
  top: "gate_input_13"
  eltwise_param {
    operation: SUM
  }
}
layer {
  name: "lstm1_unit_13"
  type: "LSTMUnit"
  bottom: "c_12"
  bottom: "gate_input_13"
  bottom: "cont_13"
  top: "c_13"
  top: "h_13"
}
layer {
  name: "lstm1_h_conted_13"
  type: "Scale"
  bottom: "h_13"
  bottom: "cont_14"
  top: "h_conted_13"
  scale_param {
    axis: 0
  }
}
layer {
  name: "lstm1_transform_14"
  type: "InnerProduct"
  bottom: "h_conted_13"
  top: "W_hc_h_13"
  param {
    name: "W_hc"
  }
  inner_product_param {
    num_output: 512
    bias_term: false
    weight_filler {
      type: "xavier"
    }
    axis: 2
  }
}
layer {
  name: "lstm1_gate_input_14"
  type: "Eltwise"
  bottom: "W_hc_h_13"
  bottom: "W_xc_x_14"
  top: "gate_input_14"
  eltwise_param {
    operation: SUM
  }
}
layer {
  name: "lstm1_unit_14"
  type: "LSTMUnit"
  bottom: "c_13"
  bottom: "gate_input_14"
  bottom: "cont_14"
  top: "c_14"
  top: "h_14"
}
layer {
  name: "lstm1_h_conted_14"
  type: "Scale"
  bottom: "h_14"
  bottom: "cont_15"
  top: "h_conted_14"
  scale_param {
    axis: 0
  }
}
layer {
  name: "lstm1_transform_15"
  type: "InnerProduct"
  bottom: "h_conted_14"
  top: "W_hc_h_14"
  param {
    name: "W_hc"
  }
  inner_product_param {
    num_output: 512
    bias_term: false
    weight_filler {
      type: "xavier"
    }
    axis: 2
  }
}
layer {
  name: "lstm1_gate_input_15"
  type: "Eltwise"
  bottom: "W_hc_h_14"
  bottom: "W_xc_x_15"
  top: "gate_input_15"
  eltwise_param {
    operation: SUM
  }
}
layer {
  name: "lstm1_unit_15"
  type: "LSTMUnit"
  bottom: "c_14"
  bottom: "gate_input_15"
  bottom: "cont_15"
  top: "c_15"
  top: "h_15"
}
layer {
  name: "lstm1_h_conted_15"
  type: "Scale"
  bottom: "h_15"
  bottom: "cont_16"
  top: "h_conted_15"
  scale_param {
    axis: 0
  }
}
layer {
  name: "lstm1_transform_16"
  type: "InnerProduct"
  bottom: "h_conted_15"
  top: "W_hc_h_15"
  param {
    name: "W_hc"
  }
  inner_product_param {
    num_output: 512
    bias_term: false
    weight_filler {
      type: "xavier"
    }
    axis: 2
  }
}
layer {
  name: "lstm1_gate_input_16"
  type: "Eltwise"
  bottom: "W_hc_h_15"
  bottom: "W_xc_x_16"
  top: "gate_input_16"
  eltwise_param {
    operation: SUM
  }
}
layer {
  name: "lstm1_unit_16"
  type: "LSTMUnit"
  bottom: "c_15"
  bottom: "gate_input_16"
  bottom: "cont_16"
  top: "c_16"
  top: "h_16"
}
layer {
  name: "lstm1_"
  type: "Split"
  bottom: "c_16"
  top: "c_T"
}
layer {
  name: "lstm1_h_concat"
  type: "Concat"
  bottom: "h_1"
  bottom: "h_2"
  bottom: "h_3"
  bottom: "h_4"
  bottom: "h_5"
  bottom: "h_6"
  bottom: "h_7"
  bottom: "h_8"
  bottom: "h_9"
  bottom: "h_10"
  bottom: "h_11"
  bottom: "h_12"
  bottom: "h_13"
  bottom: "h_14"
  bottom: "h_15"
  bottom: "h_16"
  top: "h"
  concat_param {
    axis: 0
  }
}
layer {
  name: "h_pseudoloss"
  type: "Reduction"
  bottom: "h"
  top: "h_pseudoloss"
  loss_weight: 1
}
I0222 18:02:21.883327 26014 layer_factory.hpp:77] Creating layer lstm1_
I0222 18:02:21.883337 26014 net.cpp:84] Creating Layer lstm1_
I0222 18:02:21.883340 26014 net.cpp:380] lstm1_ -> x
I0222 18:02:21.883347 26014 net.cpp:380] lstm1_ -> cont
I0222 18:02:21.883373 26014 net.cpp:122] Setting up lstm1_
I0222 18:02:21.883378 26014 net.cpp:129] Top shape: 16 26 1 1 (416)
I0222 18:02:21.883381 26014 net.cpp:129] Top shape: 16 26 (416)
I0222 18:02:21.883384 26014 net.cpp:137] Memory required for data: 3328
I0222 18:02:21.883388 26014 layer_factory.hpp:77] Creating layer lstm1_
I0222 18:02:21.883397 26014 net.cpp:84] Creating Layer lstm1_
I0222 18:02:21.883401 26014 net.cpp:380] lstm1_ -> c_0
I0222 18:02:21.883407 26014 net.cpp:380] lstm1_ -> h_0
I0222 18:02:21.883426 26014 net.cpp:122] Setting up lstm1_
I0222 18:02:21.883431 26014 net.cpp:129] Top shape: 1 26 128 (3328)
I0222 18:02:21.883435 26014 net.cpp:129] Top shape: 1 26 128 (3328)
I0222 18:02:21.883437 26014 net.cpp:137] Memory required for data: 29952
I0222 18:02:21.883440 26014 layer_factory.hpp:77] Creating layer lstm1_cont_slice
I0222 18:02:21.883450 26014 net.cpp:84] Creating Layer lstm1_cont_slice
I0222 18:02:21.883452 26014 net.cpp:406] lstm1_cont_slice <- cont
I0222 18:02:21.883457 26014 net.cpp:380] lstm1_cont_slice -> cont_1
I0222 18:02:21.883463 26014 net.cpp:380] lstm1_cont_slice -> cont_2
…
I0222 18:02:21.883498 26014 net.cpp:380] lstm1_cont_slice -> cont_9
I0222 18:02:21.883503 26014 net.cpp:380] lstm1_cont_slice -> cont_10
I0222 18:02:21.883509 26014 net.cpp:380] lstm1_cont_slice -> cont_11
I0222 18:02:21.883513 26014 net.cpp:380] lstm1_cont_slice -> cont_12
I0222 18:02:21.883518 26014 net.cpp:380] lstm1_cont_slice -> cont_13
I0222 18:02:21.883524 26014 net.cpp:380] lstm1_cont_slice -> cont_14
I0222 18:02:21.883528 26014 net.cpp:380] lstm1_cont_slice -> cont_15
I0222 18:02:21.883533 26014 net.cpp:380] lstm1_cont_slice -> cont_16
I0222 18:02:21.883626 26014 net.cpp:122] Setting up lstm1_cont_slice
I0222 18:02:21.883631 26014 net.cpp:129] Top shape: 1 26 (26)
I0222 18:02:21.883635 26014 net.cpp:129] Top shape: 1 26 (26)
I0222 18:02:21.883638 26014 net.cpp:129] Top shape: 1 26 (26)
I0222 18:02:21.883642 26014 net.cpp:129] Top shape: 1 26 (26)
I0222 18:02:21.883646 26014 net.cpp:129] Top shape: 1 26 (26)
I0222 18:02:21.883649 26014 net.cpp:129] Top shape: 1 26 (26)
I0222 18:02:21.883653 26014 net.cpp:129] Top shape: 1 26 (26)
I0222 18:02:21.883656 26014 net.cpp:129] Top shape: 1 26 (26)
I0222 18:02:21.883659 26014 net.cpp:129] Top shape: 1 26 (26)
I0222 18:02:21.883662 26014 net.cpp:129] Top shape: 1 26 (26)
I0222 18:02:21.883666 26014 net.cpp:129] Top shape: 1 26 (26)
I0222 18:02:21.883669 26014 net.cpp:129] Top shape: 1 26 (26)
I0222 18:02:21.883672 26014 net.cpp:129] Top shape: 1 26 (26)
I0222 18:02:21.883675 26014 net.cpp:129] Top shape: 1 26 (26)
I0222 18:02:21.883679 26014 net.cpp:129] Top shape: 1 26 (26)
I0222 18:02:21.883682 26014 net.cpp:129] Top shape: 1 26 (26)
I0222 18:02:21.883685 26014 net.cpp:137] Memory required for data: 31616
I0222 18:02:21.883688 26014 layer_factory.hpp:77] Creating layer cont_1_lstm1_cont_slice_0_split
I0222 18:02:21.883692 26014 net.cpp:84] Creating Layer cont_1_lstm1_cont_slice_0_split
I0222 18:02:21.883695 26014 net.cpp:406] cont_1_lstm1_cont_slice_0_split <- cont_1
I0222 18:02:21.883699 26014 net.cpp:380] cont_1_lstm1_cont_slice_0_split -> cont_1_lstm1_cont_slice_0_split_0
I0222 18:02:21.883704 26014 net.cpp:380] cont_1_lstm1_cont_slice_0_split -> cont_1_lstm1_cont_slice_0_split_1
I0222 18:02:21.883721 26014 net.cpp:122] Setting up cont_1_lstm1_cont_slice_0_split
I0222 18:02:21.883726 26014 net.cpp:129] Top shape: 1 26 (26)
I0222 18:02:21.883729 26014 net.cpp:129] Top shape: 1 26 (26)
I0222 18:02:21.883733 26014 net.cpp:137] Memory required for data: 31824
I0222 18:02:21.883735 26014 layer_factory.hpp:77] Creating layer cont_2_lstm1_cont_slice_1_split
I0222 18:02:21.883741 26014 net.cpp:84] Creating Layer cont_2_lstm1_cont_slice_1_split
I0222 18:02:21.883744 26014 net.cpp:406] cont_2_lstm1_cont_slice_1_split <- cont_2
I0222 18:02:21.883749 26014 net.cpp:380] cont_2_lstm1_cont_slice_1_split -> cont_2_lstm1_cont_slice_1_split_0
I0222 18:02:21.883752 26014 net.cpp:380] cont_2_lstm1_cont_slice_1_split -> cont_2_lstm1_cont_slice_1_split_1
I0222 18:02:21.883774 26014 net.cpp:122] Setting up cont_2_lstm1_cont_slice_1_split
I0222 18:02:21.883780 26014 net.cpp:129] Top shape: 1 26 (26)
I0222 18:02:21.883782 26014 net.cpp:129] Top shape: 1 26 (26)
I0222 18:02:21.883785 26014 net.cpp:137] Memory required for data: 32032
I0222 18:02:21.883788 26014 layer_factory.hpp:77] Creating layer cont_3_lstm1_cont_slice_2_split
I0222 18:02:21.883792 26014 net.cpp:84] Creating Layer cont_3_lstm1_cont_slice_2_split
I0222 18:02:21.883795 26014 net.cpp:406] cont_3_lstm1_cont_slice_2_split <- cont_3
I0222 18:02:21.883800 26014 net.cpp:380] cont_3_lstm1_cont_slice_2_split -> cont_3_lstm1_cont_slice_2_split_0
I0222 18:02:21.883805 26014 net.cpp:380] cont_3_lstm1_cont_slice_2_split -> cont_3_lstm1_cont_slice_2_split_1
I0222 18:02:21.883821 26014 net.cpp:122] Setting up cont_3_lstm1_cont_slice_2_split
I0222 18:02:21.883824 26014 net.cpp:129] Top shape: 1 26 (26)
I0222 18:02:21.883827 26014 net.cpp:129] Top shape: 1 26 (26)
I0222 18:02:21.883831 26014 net.cpp:137] Memory required for data: 32240
I0222 18:02:21.883833 26014 layer_factory.hpp:77] Creating layer cont_4_lstm1_cont_slice_3_split
I0222 18:02:21.883837 26014 net.cpp:84] Creating Layer cont_4_lstm1_cont_slice_3_split
I0222 18:02:21.883841 26014 net.cpp:406] cont_4_lstm1_cont_slice_3_split <- cont_4
I0222 18:02:21.883844 26014 net.cpp:380] cont_4_lstm1_cont_slice_3_split -> cont_4_lstm1_cont_slice_3_split_0
I0222 18:02:21.883848 26014 net.cpp:380] cont_4_lstm1_cont_slice_3_split -> cont_4_lstm1_cont_slice_3_split_1
I0222 18:02:21.883865 26014 net.cpp:122] Setting up cont_4_lstm1_cont_slice_3_split
I0222 18:02:21.883870 26014 net.cpp:129] Top shape: 1 26 (26)
I0222 18:02:21.883873 26014 net.cpp:129] Top shape: 1 26 (26)
I0222 18:02:21.883877 26014 net.cpp:137] Memory required for data: 32448
I0222 18:02:21.883878 26014 layer_factory.hpp:77] Creating layer cont_5_lstm1_cont_slice_4_split
I0222 18:02:21.883882 26014 net.cpp:84] Creating Layer cont_5_lstm1_cont_slice_4_split
I0222 18:02:21.883886 26014 net.cpp:406] cont_5_lstm1_cont_slice_4_split <- cont_5
I0222 18:02:21.883889 26014 net.cpp:380] cont_5_lstm1_cont_slice_4_split -> cont_5_lstm1_cont_slice_4_split_0
I0222 18:02:21.883894 26014 net.cpp:380] cont_5_lstm1_cont_slice_4_split -> cont_5_lstm1_cont_slice_4_split_1
I0222 18:02:21.883909 26014 net.cpp:122] Setting up cont_5_lstm1_cont_slice_4_split
I0222 18:02:21.883914 26014 net.cpp:129] Top shape: 1 26 (26)
I0222 18:02:21.883918 26014 net.cpp:129] Top shape: 1 26 (26)
I0222 18:02:21.883920 26014 net.cpp:137] Memory required for data: 32656
I0222 18:02:21.883924 26014 layer_factory.hpp:77] Creating layer cont_6_lstm1_cont_slice_5_split
I0222 18:02:21.883927 26014 net.cpp:84] Creating Layer cont_6_lstm1_cont_slice_5_split
I0222 18:02:21.883930 26014 net.cpp:406] cont_6_lstm1_cont_slice_5_split <- cont_6
I0222 18:02:21.883934 26014 net.cpp:380] cont_6_lstm1_cont_slice_5_split -> cont_6_lstm1_cont_slice_5_split_0
I0222 18:02:21.883939 26014 net.cpp:380] cont_6_lstm1_cont_slice_5_split -> cont_6_lstm1_cont_slice_5_split_1
I0222 18:02:21.883955 26014 net.cpp:122] Setting up cont_6_lstm1_cont_slice_5_split
I0222 18:02:21.883960 26014 net.cpp:129] Top shape: 1 26 (26)
I0222 18:02:21.883962 26014 net.cpp:129] Top shape: 1 26 (26)
I0222 18:02:21.883965 26014 net.cpp:137] Memory required for data: 32864
I0222 18:02:21.883968 26014 layer_factory.hpp:77] Creating layer cont_7_lstm1_cont_slice_6_split
I0222 18:02:21.883972 26014 net.cpp:84] Creating Layer cont_7_lstm1_cont_slice_6_split
I0222 18:02:21.883975 26014 net.cpp:406] cont_7_lstm1_cont_slice_6_split <- cont_7
I0222 18:02:21.883980 26014 net.cpp:380] cont_7_lstm1_cont_slice_6_split -> cont_7_lstm1_cont_slice_6_split_0
I0222 18:02:21.883985 26014 net.cpp:380] cont_7_lstm1_cont_slice_6_split -> cont_7_lstm1_cont_slice_6_split_1
I0222 18:02:21.884018 26014 net.cpp:122] Setting up cont_7_lstm1_cont_slice_6_split
I0222 18:02:21.884023 26014 net.cpp:129] Top shape: 1 26 (26)
I0222 18:02:21.884027 26014 net.cpp:129] Top shape: 1 26 (26)
I0222 18:02:21.884034 26014 net.cpp:137] Memory required for data: 33072
I0222 18:02:21.884037 26014 layer_factory.hpp:77] Creating layer cont_8_lstm1_cont_slice_7_split
I0222 18:02:21.884042 26014 net.cpp:84] Creating Layer cont_8_lstm1_cont_slice_7_split
I0222 18:02:21.884044 26014 net.cpp:406] cont_8_lstm1_cont_slice_7_split <- cont_8
I0222 18:02:21.884048 26014 net.cpp:380] cont_8_lstm1_cont_slice_7_split -> cont_8_lstm1_cont_slice_7_split_0
I0222 18:02:21.884052 26014 net.cpp:380] cont_8_lstm1_cont_slice_7_split -> cont_8_lstm1_cont_slice_7_split_1
I0222 18:02:21.884088 26014 net.cpp:122] Setting up cont_8_lstm1_cont_slice_7_split
I0222 18:02:21.884091 26014 net.cpp:129] Top shape: 1 26 (26)
I0222 18:02:21.884094 26014 net.cpp:129] Top shape: 1 26 (26)
I0222 18:02:21.884097 26014 net.cpp:137] Memory required for data: 33280
I0222 18:02:21.884100 26014 layer_factory.hpp:77] Creating layer cont_9_lstm1_cont_slice_8_split
I0222 18:02:21.884104 26014 net.cpp:84] Creating Layer cont_9_lstm1_cont_slice_8_split
I0222 18:02:21.884106 26014 net.cpp:406] cont_9_lstm1_cont_slice_8_split <- cont_9
I0222 18:02:21.884111 26014 net.cpp:380] cont_9_lstm1_cont_slice_8_split -> cont_9_lstm1_cont_slice_8_split_0
I0222 18:02:21.897130 26014 net.cpp:380] cont_9_lstm1_cont_slice_8_split -> cont_9_lstm1_cont_slice_8_split_1
I0222 18:02:21.897161 26014 net.cpp:122] Setting up cont_9_lstm1_cont_slice_8_split
I0222 18:02:21.897167 26014 net.cpp:129] Top shape: 1 26 (26)
I0222 18:02:21.897171 26014 net.cpp:129] Top shape: 1 26 (26)
I0222 18:02:21.897173 26014 net.cpp:137] Memory required for data: 33488
I0222 18:02:21.897176 26014 layer_factory.hpp:77] Creating layer cont_10_lstm1_cont_slice_9_split
I0222 18:02:21.897183 26014 net.cpp:84] Creating Layer cont_10_lstm1_cont_slice_9_split
I0222 18:02:21.897187 26014 net.cpp:406] cont_10_lstm1_cont_slice_9_split <- cont_10
I0222 18:02:21.897192 26014 net.cpp:380] cont_10_lstm1_cont_slice_9_split -> cont_10_lstm1_cont_slice_9_split_0
I0222 18:02:21.897197 26014 net.cpp:380] cont_10_lstm1_cont_slice_9_split -> cont_10_lstm1_cont_slice_9_split_1
I0222 18:02:21.897214 26014 net.cpp:122] Setting up cont_10_lstm1_cont_slice_9_split
I0222 18:02:21.897219 26014 net.cpp:129] Top shape: 1 26 (26)
I0222 18:02:21.897222 26014 net.cpp:129] Top shape: 1 26 (26)
I0222 18:02:21.897225 26014 net.cpp:137] Memory required for data: 33696
I0222 18:02:21.897228 26014 layer_factory.hpp:77] Creating layer cont_11_lstm1_cont_slice_10_split
I0222 18:02:21.897231 26014 net.cpp:84] Creating Layer cont_11_lstm1_cont_slice_10_split
I0222 18:02:21.897234 26014 net.cpp:406] cont_11_lstm1_cont_slice_10_split <- cont_11
I0222 18:02:21.897238 26014 net.cpp:380] cont_11_lstm1_cont_slice_10_split -> cont_11_lstm1_cont_slice_10_split_0
I0222 18:02:21.897243 26014 net.cpp:380] cont_11_lstm1_cont_slice_10_split -> cont_11_lstm1_cont_slice_10_split_1
I0222 18:02:21.897260 26014 net.cpp:122] Setting up cont_11_lstm1_cont_slice_10_split
I0222 18:02:21.897264 26014 net.cpp:129] Top shape: 1 26 (26)
I0222 18:02:21.897267 26014 net.cpp:129] Top shape: 1 26 (26)
I0222 18:02:21.897270 26014 net.cpp:137] Memory required for data: 33904
I0222 18:02:21.897274 26014 layer_factory.hpp:77] Creating layer cont_12_lstm1_cont_slice_11_split
I0222 18:02:21.897276 26014 net.cpp:84] Creating Layer cont_12_lstm1_cont_slice_11_split
I0222 18:02:21.897279 26014 net.cpp:406] cont_12_lstm1_cont_slice_11_split <- cont_12
I0222 18:02:21.897284 26014 net.cpp:380] cont_12_lstm1_cont_slice_11_split -> cont_12_lstm1_cont_slice_11_split_0
I0222 18:02:21.897289 26014 net.cpp:380] cont_12_lstm1_cont_slice_11_split -> cont_12_lstm1_cont_slice_11_split_1
I0222 18:02:21.897305 26014 net.cpp:122] Setting up cont_12_lstm1_cont_slice_11_split
I0222 18:02:21.897310 26014 net.cpp:129] Top shape: 1 26 (26)
I0222 18:02:21.897313 26014 net.cpp:129] Top shape: 1 26 (26)
I0222 18:02:21.897316 26014 net.cpp:137] Memory required for data: 34112
I0222 18:02:21.897320 26014 layer_factory.hpp:77] Creating layer cont_13_lstm1_cont_slice_12_split
I0222 18:02:21.897323 26014 net.cpp:84] Creating Layer cont_13_lstm1_cont_slice_12_split
I0222 18:02:21.897334 26014 net.cpp:406] cont_13_lstm1_cont_slice_12_split <- cont_13
I0222 18:02:21.897339 26014 net.cpp:380] cont_13_lstm1_cont_slice_12_split -> cont_13_lstm1_cont_slice_12_split_0
I0222 18:02:21.897343 26014 net.cpp:380] cont_13_lstm1_cont_slice_12_split -> cont_13_lstm1_cont_slice_12_split_1
I0222 18:02:21.897387 26014 net.cpp:122] Setting up cont_13_lstm1_cont_slice_12_split
I0222 18:02:21.897392 26014 net.cpp:129] Top shape: 1 26 (26)
I0222 18:02:21.897395 26014 net.cpp:129] Top shape: 1 26 (26)
I0222 18:02:21.897398 26014 net.cpp:137] Memory required for data: 34320
I0222 18:02:21.897414 26014 layer_factory.hpp:77] Creating layer cont_14_lstm1_cont_slice_13_split
I0222 18:02:21.897420 26014 net.cpp:84] Creating Layer cont_14_lstm1_cont_slice_13_split
I0222 18:02:21.897424 26014 net.cpp:406] cont_14_lstm1_cont_slice_13_split <- cont_14
I0222 18:02:21.897428 26014 net.cpp:380] cont_14_lstm1_cont_slice_13_split -> cont_14_lstm1_cont_slice_13_split_0
I0222 18:02:21.897433 26014 net.cpp:380] cont_14_lstm1_cont_slice_13_split -> cont_14_lstm1_cont_slice_13_split_1
I0222 18:02:21.897450 26014 net.cpp:122] Setting up cont_14_lstm1_cont_slice_13_split
I0222 18:02:21.897454 26014 net.cpp:129] Top shape: 1 26 (26)
I0222 18:02:21.897457 26014 net.cpp:129] Top shape: 1 26 (26)
I0222 18:02:21.897460 26014 net.cpp:137] Memory required for data: 34528
I0222 18:02:21.897464 26014 layer_factory.hpp:77] Creating layer cont_15_lstm1_cont_slice_14_split
I0222 18:02:21.897466 26014 net.cpp:84] Creating Layer cont_15_lstm1_cont_slice_14_split
I0222 18:02:21.897469 26014 net.cpp:406] cont_15_lstm1_cont_slice_14_split <- cont_15
I0222 18:02:21.897475 26014 net.cpp:380] cont_15_lstm1_cont_slice_14_split -> cont_15_lstm1_cont_slice_14_split_0
I0222 18:02:21.897478 26014 net.cpp:380] cont_15_lstm1_cont_slice_14_split -> cont_15_lstm1_cont_slice_14_split_1
I0222 18:02:21.897495 26014 net.cpp:122] Setting up cont_15_lstm1_cont_slice_14_split
I0222 18:02:21.897498 26014 net.cpp:129] Top shape: 1 26 (26)
I0222 18:02:21.897502 26014 net.cpp:129] Top shape: 1 26 (26)
I0222 18:02:21.897505 26014 net.cpp:137] Memory required for data: 34736
I0222 18:02:21.897507 26014 layer_factory.hpp:77] Creating layer cont_16_lstm1_cont_slice_15_split
I0222 18:02:21.897511 26014 net.cpp:84] Creating Layer cont_16_lstm1_cont_slice_15_split
I0222 18:02:21.897514 26014 net.cpp:406] cont_16_lstm1_cont_slice_15_split <- cont_16
I0222 18:02:21.897518 26014 net.cpp:380] cont_16_lstm1_cont_slice_15_split -> cont_16_lstm1_cont_slice_15_split_0
I0222 18:02:21.897522 26014 net.cpp:380] cont_16_lstm1_cont_slice_15_split -> cont_16_lstm1_cont_slice_15_split_1
I0222 18:02:21.897539 26014 net.cpp:122] Setting up cont_16_lstm1_cont_slice_15_split
I0222 18:02:21.897543 26014 net.cpp:129] Top shape: 1 26 (26)
I0222 18:02:21.897547 26014 net.cpp:129] Top shape: 1 26 (26)
I0222 18:02:21.897549 26014 net.cpp:137] Memory required for data: 34944
I0222 18:02:21.897552 26014 layer_factory.hpp:77] Creating layer lstm1_x_transform
I0222 18:02:21.897560 26014 net.cpp:84] Creating Layer lstm1_x_transform
I0222 18:02:21.897563 26014 net.cpp:406] lstm1_x_transform <- x
I0222 18:02:21.897567 26014 net.cpp:380] lstm1_x_transform -> W_xc_x
I0222 18:02:21.897637 26014 net.cpp:122] Setting up lstm1_x_transform
I0222 18:02:21.897642 26014 net.cpp:129] Top shape: 16 26 512 (212992)
I0222 18:02:21.897645 26014 net.cpp:137] Memory required for data: 886912
I0222 18:02:21.897655 26014 layer_factory.hpp:77] Creating layer lstm1_W_xc_x_slice
I0222 18:02:21.897660 26014 net.cpp:84] Creating Layer lstm1_W_xc_x_slice
I0222 18:02:21.897665 26014 net.cpp:406] lstm1_W_xc_x_slice <- W_xc_x
I0222 18:02:21.897668 26014 net.cpp:380] lstm1_W_xc_x_slice -> W_xc_x_1
I0222 18:02:21.897675 26014 net.cpp:380] lstm1_W_xc_x_slice -> W_xc_x_2
…
I0222 18:02:21.897719 26014 net.cpp:380] lstm1_W_xc_x_slice -> W_xc_x_10
I0222 18:02:21.897725 26014 net.cpp:380] lstm1_W_xc_x_slice -> W_xc_x_11
I0222 18:02:21.897730 26014 net.cpp:380] lstm1_W_xc_x_slice -> W_xc_x_12
I0222 18:02:21.897738 26014 net.cpp:380] lstm1_W_xc_x_slice -> W_xc_x_13
I0222 18:02:21.899252 26014 net.cpp:380] lstm1_W_xc_x_slice -> W_xc_x_14
I0222 18:02:21.899261 26014 net.cpp:380] lstm1_W_xc_x_slice -> W_xc_x_15
I0222 18:02:21.899266 26014 net.cpp:380] lstm1_W_xc_x_slice -> W_xc_x_16
I0222 18:02:21.899369 26014 net.cpp:122] Setting up lstm1_W_xc_x_slice
I0222 18:02:21.899375 26014 net.cpp:129] Top shape: 1 26 512 (13312)
I0222 18:02:21.899379 26014 net.cpp:129] Top shape: 1 26 512 (13312)
I0222 18:02:21.899381 26014 net.cpp:129] Top shape: 1 26 512 (13312)
I0222 18:02:21.899384 26014 net.cpp:129] Top shape: 1 26 512 (13312)
I0222 18:02:21.899386 26014 net.cpp:129] Top shape: 1 26 512 (13312)
I0222 18:02:21.899389 26014 net.cpp:129] Top shape: 1 26 512 (13312)
I0222 18:02:21.899392 26014 net.cpp:129] Top shape: 1 26 512 (13312)
I0222 18:02:21.899394 26014 net.cpp:129] Top shape: 1 26 512 (13312)
I0222 18:02:21.899397 26014 net.cpp:129] Top shape: 1 26 512 (13312)
I0222 18:02:21.899399 26014 net.cpp:129] Top shape: 1 26 512 (13312)
I0222 18:02:21.899404 26014 net.cpp:129] Top shape: 1 26 512 (13312)
I0222 18:02:21.899407 26014 net.cpp:129] Top shape: 1 26 512 (13312)
I0222 18:02:21.899410 26014 net.cpp:129] Top shape: 1 26 512 (13312)
I0222 18:02:21.899413 26014 net.cpp:129] Top shape: 1 26 512 (13312)
I0222 18:02:21.899416 26014 net.cpp:129] Top shape: 1 26 512 (13312)
I0222 18:02:21.899420 26014 net.cpp:129] Top shape: 1 26 512 (13312)
I0222 18:02:21.899422 26014 net.cpp:137] Memory required for data: 1738880
I0222 18:02:21.899425 26014 layer_factory.hpp:77] Creating layer lstm1_h_conted_0
I0222 18:02:21.899431 26014 net.cpp:84] Creating Layer lstm1_h_conted_0
I0222 18:02:21.899435 26014 net.cpp:406] lstm1_h_conted_0 <- h_0
I0222 18:02:21.899440 26014 net.cpp:406] lstm1_h_conted_0 <- cont_1_lstm1_cont_slice_0_split_0
I0222 18:02:21.899443 26014 net.cpp:380] lstm1_h_conted_0 -> h_conted_0
I0222 18:02:21.899478 26014 net.cpp:122] Setting up lstm1_h_conted_0
I0222 18:02:21.899483 26014 net.cpp:129] Top shape: 1 26 128 (3328)
I0222 18:02:21.899487 26014 net.cpp:137] Memory required for data: 1752192
I0222 18:02:21.899489 26014 layer_factory.hpp:77] Creating layer lstm1_transform_1
I0222 18:02:21.899494 26014 net.cpp:84] Creating Layer lstm1_transform_1
I0222 18:02:21.899497 26014 net.cpp:406] lstm1_transform_1 <- h_conted_0
I0222 18:02:21.899502 26014 net.cpp:380] lstm1_transform_1 -> W_hc_h_0
I0222 18:02:21.900445 26014 net.cpp:122] Setting up lstm1_transform_1
I0222 18:02:21.900454 26014 net.cpp:129] Top shape: 1 26 512 (13312)
I0222 18:02:21.900457 26014 net.cpp:137] Memory required for data: 1805440
I0222 18:02:21.900465 26014 layer_factory.hpp:77] Creating layer lstm1_gate_input_1
I0222 18:02:21.900475 26014 net.cpp:84] Creating Layer lstm1_gate_input_1
I0222 18:02:21.900478 26014 net.cpp:406] lstm1_gate_input_1 <- W_hc_h_0
I0222 18:02:21.900482 26014 net.cpp:406] lstm1_gate_input_1 <- W_xc_x_1
I0222 18:02:21.900487 26014 net.cpp:380] lstm1_gate_input_1 -> gate_input_1
I0222 18:02:21.900504 26014 net.cpp:122] Setting up lstm1_gate_input_1
I0222 18:02:21.900509 26014 net.cpp:129] Top shape: 1 26 512 (13312)
I0222 18:02:21.900512 26014 net.cpp:137] Memory required for data: 1858688
I0222 18:02:21.900516 26014 layer_factory.hpp:77] Creating layer lstm1_unit_1
I0222 18:02:21.900522 26014 net.cpp:84] Creating Layer lstm1_unit_1
I0222 18:02:21.900527 26014 net.cpp:406] lstm1_unit_1 <- c_0
I0222 18:02:21.900533 26014 net.cpp:406] lstm1_unit_1 <- gate_input_1
I0222 18:02:21.900538 26014 net.cpp:406] lstm1_unit_1 <- cont_1_lstm1_cont_slice_0_split_1
I0222 18:02:21.900554 26014 net.cpp:380] lstm1_unit_1 -> c_1
I0222 18:02:21.900560 26014 net.cpp:380] lstm1_unit_1 -> h_1
I0222 18:02:21.900588 26014 net.cpp:122] Setting up lstm1_unit_1
I0222 18:02:21.900593 26014 net.cpp:129] Top shape: 1 26 128 (3328)
I0222 18:02:21.900596 26014 net.cpp:129] Top shape: 1 26 128 (3328)
I0222 18:02:21.900599 26014 net.cpp:137] Memory required for data: 1885312
I0222 18:02:21.900602 26014 layer_factory.hpp:77] Creating layer h_1_lstm1_unit_1_1_split
I0222 18:02:21.900607 26014 net.cpp:84] Creating Layer h_1_lstm1_unit_1_1_split
I0222 18:02:21.900611 26014 net.cpp:406] h_1_lstm1_unit_1_1_split <- h_1
I0222 18:02:21.900615 26014 net.cpp:380] h_1_lstm1_unit_1_1_split -> h_1_lstm1_unit_1_1_split_0
I0222 18:02:21.900620 26014 net.cpp:380] h_1_lstm1_unit_1_1_split -> h_1_lstm1_unit_1_1_split_1
I0222 18:02:21.900638 26014 net.cpp:122] Setting up h_1_lstm1_unit_1_1_split
I0222 18:02:21.900642 26014 net.cpp:129] Top shape: 1 26 128 (3328)
I0222 18:02:21.900646 26014 net.cpp:129] Top shape: 1 26 128 (3328)
I0222 18:02:21.900648 26014 net.cpp:137] Memory required for data: 1911936
I0222 18:02:21.900652 26014 layer_factory.hpp:77] Creating layer lstm1_h_conted_1
I0222 18:02:21.900656 26014 net.cpp:84] Creating Layer lstm1_h_conted_1
I0222 18:02:21.900660 26014 net.cpp:406] lstm1_h_conted_1 <- h_1_lstm1_unit_1_1_split_0
I0222 18:02:21.900663 26014 net.cpp:406] lstm1_h_conted_1 <- cont_2_lstm1_cont_slice_1_split_0
I0222 18:02:21.900667 26014 net.cpp:380] lstm1_h_conted_1 -> h_conted_1
I0222 18:02:21.900698 26014 net.cpp:122] Setting up lstm1_h_conted_1
I0222 18:02:21.900703 26014 net.cpp:129] Top shape: 1 26 128 (3328)
I0222 18:02:21.900707 26014 net.cpp:137] Memory required for data: 1925248
I0222 18:02:21.900708 26014 layer_factory.hpp:77] Creating layer lstm1_transform_2
I0222 18:02:21.900714 26014 net.cpp:84] Creating Layer lstm1_transform_2
I0222 18:02:21.900717 26014 net.cpp:406] lstm1_transform_2 <- h_conted_1
I0222 18:02:21.900722 26014 net.cpp:380] lstm1_transform_2 -> W_hc_h_1
I0222 18:02:21.901067 26014 net.cpp:122] Setting up lstm1_transform_2
I0222 18:02:21.901073 26014 net.cpp:129] Top shape: 1 26 512 (13312)
I0222 18:02:21.901077 26014 net.cpp:137] Memory required for data: 1978496
I0222 18:02:21.901079 26014 net.cpp:465] Sharing parameters 'W_hc' owned by layer 'lstm1_transform_1', param index 0
I0222 18:02:21.901083 26014 layer_factory.hpp:77] Creating layer lstm1_gate_input_2
I0222 18:02:21.901088 26014 net.cpp:84] Creating Layer lstm1_gate_input_2
I0222 18:02:21.901093 26014 net.cpp:406] lstm1_gate_input_2 <- W_hc_h_1
I0222 18:02:21.901096 26014 net.cpp:406] lstm1_gate_input_2 <- W_xc_x_2
I0222 18:02:21.901100 26014 net.cpp:380] lstm1_gate_input_2 -> gate_input_2
I0222 18:02:21.901113 26014 net.cpp:122] Setting up lstm1_gate_input_2
I0222 18:02:21.901118 26014 net.cpp:129] Top shape: 1 26 512 (13312)
I0222 18:02:21.901120 26014 net.cpp:137] Memory required for data: 2031744
I0222 18:02:21.901124 26014 layer_factory.hpp:77] Creating layer lstm1_unit_2
I0222 18:02:21.901127 26014 net.cpp:84] Creating Layer lstm1_unit_2
I0222 18:02:21.901131 26014 net.cpp:406] lstm1_unit_2 <- c_1
I0222 18:02:21.901134 26014 net.cpp:406] lstm1_unit_2 <- gate_input_2
I0222 18:02:21.901139 26014 net.cpp:406] lstm1_unit_2 <- cont_2_lstm1_cont_slice_1_split_1
I0222 18:02:21.901144 26014 net.cpp:380] lstm1_unit_2 -> c_2
I0222 18:02:21.901147 26014 net.cpp:380] lstm1_unit_2 -> h_2
I0222 18:02:21.901171 26014 net.cpp:122] Setting up lstm1_unit_2
I0222 18:02:21.901176 26014 net.cpp:129] Top shape: 1 26 128 (3328)
I0222 18:02:21.901180 26014 net.cpp:129] Top shape: 1 26 128 (3328)
I0222 18:02:21.901183 26014 net.cpp:137] Memory required for data: 2058368
I0222 18:02:21.901185 26014 layer_factory.hpp:77] Creating layer h_2_lstm1_unit_2_1_split
I0222 18:02:21.901190 26014 net.cpp:84] Creating Layer h_2_lstm1_unit_2_1_split
I0222 18:02:21.901193 26014 net.cpp:406] h_2_lstm1_unit_2_1_split <- h_2
I0222 18:02:21.901197 26014 net.cpp:380] h_2_lstm1_unit_2_1_split -> h_2_lstm1_unit_2_1_split_0
I0222 18:02:21.901206 26014 net.cpp:380] h_2_lstm1_unit_2_1_split -> h_2_lstm1_unit_2_1_split_1
I0222 18:02:21.901226 26014 net.cpp:122] Setting up h_2_lstm1_unit_2_1_split
I0222 18:02:21.901230 26014 net.cpp:129] Top shape: 1 26 128 (3328)
I0222 18:02:21.901234 26014 net.cpp:129] Top shape: 1 26 128 (3328)
I0222 18:02:21.901237 26014 net.cpp:137] Memory required for data: 2084992
I0222 18:02:21.901239 26014 layer_factory.hpp:77] Creating layer lstm1_h_conted_2
I0222 18:02:21.901244 26014 net.cpp:84] Creating Layer lstm1_h_conted_2
I0222 18:02:21.901248 26014 net.cpp:406] lstm1_h_conted_2 <- h_2_lstm1_unit_2_1_split_0
I0222 18:02:21.901252 26014 net.cpp:406] lstm1_h_conted_2 <- cont_3_lstm1_cont_slice_2_split_0
I0222 18:02:21.901257 26014 net.cpp:380] lstm1_h_conted_2 -> h_conted_2
I0222 18:02:21.901286 26014 net.cpp:122] Setting up lstm1_h_conted_2
I0222 18:02:21.929530 26014 net.cpp:129] Top shape: 1 26 128 (3328)
I0222 18:02:21.929538 26014 net.cpp:137] Memory required for data: 2098304
I0222 18:02:21.929540 26014 layer_factory.hpp:77] Creating layer lstm1_transform_3
I0222 18:02:21.929553 26014 net.cpp:84] Creating Layer lstm1_transform_3
I0222 18:02:21.929558 26014 net.cpp:406] lstm1_transform_3 <- h_conted_2
I0222 18:02:21.929563 26014 net.cpp:380] lstm1_transform_3 -> W_hc_h_2
I0222 18:02:21.929873 26014 net.cpp:122] Setting up lstm1_transform_3
I0222 18:02:21.929879 26014 net.cpp:129] Top shape: 1 26 512 (13312)
I0222 18:02:21.929883 26014 net.cpp:137] Memory required for data: 2151552
I0222 18:02:21.929888 26014 net.cpp:465] Sharing parameters 'W_hc' owned by layer 'lstm1_transform_1', param index 0
I0222 18:02:21.929891 26014 layer_factory.hpp:77] Creating layer lstm1_gate_input_3
I0222 18:02:21.929896 26014 net.cpp:84] Creating Layer lstm1_gate_input_3
I0222 18:02:21.929900 26014 net.cpp:406] lstm1_gate_input_3 <- W_hc_h_2
I0222 18:02:21.929904 26014 net.cpp:406] lstm1_gate_input_3 <- W_xc_x_3
I0222 18:02:21.929909 26014 net.cpp:380] lstm1_gate_input_3 -> gate_input_3
I0222 18:02:21.929924 26014 net.cpp:122] Setting up lstm1_gate_input_3
I0222 18:02:21.929929 26014 net.cpp:129] Top shape: 1 26 512 (13312)
I0222 18:02:21.929931 26014 net.cpp:137] Memory required for data: 2204800
I0222 18:02:21.929934 26014 layer_factory.hpp:77] Creating layer lstm1_unit_3
I0222 18:02:21.929939 26014 net.cpp:84] Creating Layer lstm1_unit_3
I0222 18:02:21.929942 26014 net.cpp:406] lstm1_unit_3 <- c_2
I0222 18:02:21.929945 26014 net.cpp:406] lstm1_unit_3 <- gate_input_3
I0222 18:02:21.929949 26014 net.cpp:406] lstm1_unit_3 <- cont_3_lstm1_cont_slice_2_split_1
I0222 18:02:21.929953 26014 net.cpp:380] lstm1_unit_3 -> c_3
I0222 18:02:21.929960 26014 net.cpp:380] lstm1_unit_3 -> h_3
I0222 18:02:21.929983 26014 net.cpp:122] Setting up lstm1_unit_3
I0222 18:02:21.929987 26014 net.cpp:129] Top shape: 1 26 128 (3328)
I0222 18:02:21.929991 26014 net.cpp:129] Top shape: 1 26 128 (3328)
I0222 18:02:21.929994 26014 net.cpp:137] Memory required for data: 2231424
I0222 18:02:21.929997 26014 layer_factory.hpp:77] Creating layer h_3_lstm1_unit_3_1_split
I0222 18:02:21.930001 26014 net.cpp:84] Creating Layer h_3_lstm1_unit_3_1_split
I0222 18:02:21.930004 26014 net.cpp:406] h_3_lstm1_unit_3_1_split <- h_3
I0222 18:02:21.930008 26014 net.cpp:380] h_3_lstm1_unit_3_1_split -> h_3_lstm1_unit_3_1_split_0
I0222 18:02:21.930012 26014 net.cpp:380] h_3_lstm1_unit_3_1_split -> h_3_lstm1_unit_3_1_split_1
I0222 18:02:21.930032 26014 net.cpp:122] Setting up h_3_lstm1_unit_3_1_split
I0222 18:02:21.930035 26014 net.cpp:129] Top shape: 1 26 128 (3328)
I0222 18:02:21.930039 26014 net.cpp:129] Top shape: 1 26 128 (3328)
I0222 18:02:21.930042 26014 net.cpp:137] Memory required for data: 2258048
I0222 18:02:21.930044 26014 layer_factory.hpp:77] Creating layer lstm1_h_conted_3
I0222 18:02:21.930049 26014 net.cpp:84] Creating Layer lstm1_h_conted_3
I0222 18:02:21.930052 26014 net.cpp:406] lstm1_h_conted_3 <- h_3_lstm1_unit_3_1_split_0
I0222 18:02:21.930057 26014 net.cpp:406] lstm1_h_conted_3 <- cont_4_lstm1_cont_slice_3_split_0
I0222 18:02:21.930061 26014 net.cpp:380] lstm1_h_conted_3 -> h_conted_3
I0222 18:02:21.930102 26014 net.cpp:122] Setting up lstm1_h_conted_3
I0222 18:02:21.930107 26014 net.cpp:129] Top shape: 1 26 128 (3328)
I0222 18:02:21.930110 26014 net.cpp:137] Memory required for data: 2271360
I0222 18:02:21.930114 26014 layer_factory.hpp:77] Creating layer lstm1_transform_4
I0222 18:02:21.930119 26014 net.cpp:84] Creating Layer lstm1_transform_4
I0222 18:02:21.930122 26014 net.cpp:406] lstm1_transform_4 <- h_conted_3
I0222 18:02:21.930126 26014 net.cpp:380] lstm1_transform_4 -> W_hc_h_3
I0222 18:02:21.930416 26014 net.cpp:122] Setting up lstm1_transform_4
I0222 18:02:21.930421 26014 net.cpp:129] Top shape: 1 26 512 (13312)
I0222 18:02:21.930424 26014 net.cpp:137] Memory required for data: 2324608
I0222 18:02:21.930428 26014 net.cpp:465] Sharing parameters 'W_hc' owned by layer 'lstm1_transform_1', param index 0
I0222 18:02:21.930430 26014 layer_factory.hpp:77] Creating layer lstm1_gate_input_4
I0222 18:02:21.930435 26014 net.cpp:84] Creating Layer lstm1_gate_input_4
I0222 18:02:21.930438 26014 net.cpp:406] lstm1_gate_input_4 <- W_hc_h_3
I0222 18:02:21.930443 26014 net.cpp:406] lstm1_gate_input_4 <- W_xc_x_4
I0222 18:02:21.930446 26014 net.cpp:380] lstm1_gate_input_4 -> gate_input_4
I0222 18:02:21.930460 26014 net.cpp:122] Setting up lstm1_gate_input_4
I0222 18:02:21.930465 26014 net.cpp:129] Top shape: 1 26 512 (13312)
I0222 18:02:21.930467 26014 net.cpp:137] Memory required for data: 2377856
I0222 18:02:21.930470 26014 layer_factory.hpp:77] Creating layer lstm1_unit_4
I0222 18:02:21.930474 26014 net.cpp:84] Creating Layer lstm1_unit_4
I0222 18:02:21.930477 26014 net.cpp:406] lstm1_unit_4 <- c_3
I0222 18:02:21.930481 26014 net.cpp:406] lstm1_unit_4 <- gate_input_4
I0222 18:02:21.930485 26014 net.cpp:406] lstm1_unit_4 <- cont_4_lstm1_cont_slice_3_split_1
I0222 18:02:21.930490 26014 net.cpp:380] lstm1_unit_4 -> c_4
I0222 18:02:21.930493 26014 net.cpp:380] lstm1_unit_4 -> h_4
I0222 18:02:21.930516 26014 net.cpp:122] Setting up lstm1_unit_4
I0222 18:02:21.930521 26014 net.cpp:129] Top shape: 1 26 128 (3328)
I0222 18:02:21.930524 26014 net.cpp:129] Top shape: 1 26 128 (3328)
I0222 18:02:21.930527 26014 net.cpp:137] Memory required for data: 2404480
I0222 18:02:21.930531 26014 layer_factory.hpp:77] Creating layer h_4_lstm1_unit_4_1_split
I0222 18:02:21.930536 26014 net.cpp:84] Creating Layer h_4_lstm1_unit_4_1_split
I0222 18:02:21.930538 26014 net.cpp:406] h_4_lstm1_unit_4_1_split <- h_4
I0222 18:02:21.930542 26014 net.cpp:380] h_4_lstm1_unit_4_1_split -> h_4_lstm1_unit_4_1_split_0
I0222 18:02:21.930546 26014 net.cpp:380] h_4_lstm1_unit_4_1_split -> h_4_lstm1_unit_4_1_split_1
I0222 18:02:21.930564 26014 net.cpp:122] Setting up h_4_lstm1_unit_4_1_split
I0222 18:02:21.930568 26014 net.cpp:129] Top shape: 1 26 128 (3328)
I0222 18:02:21.930572 26014 net.cpp:129] Top shape: 1 26 128 (3328)
I0222 18:02:21.930574 26014 net.cpp:137] Memory required for data: 2431104
I0222 18:02:21.930577 26014 layer_factory.hpp:77] Creating layer lstm1_h_conted_4
I0222 18:02:21.930582 26014 net.cpp:84] Creating Layer lstm1_h_conted_4
I0222 18:02:21.930585 26014 net.cpp:406] lstm1_h_conted_4 <- h_4_lstm1_unit_4_1_split_0
I0222 18:02:21.930588 26014 net.cpp:406] lstm1_h_conted_4 <- cont_5_lstm1_cont_slice_4_split_0
I0222 18:02:21.930593 26014 net.cpp:380] lstm1_h_conted_4 -> h_conted_4
I0222 18:02:21.930630 26014 net.cpp:122] Setting up lstm1_h_conted_4
I0222 18:02:21.930639 26014 net.cpp:129] Top shape: 1 26 128 (3328)
I0222 18:02:21.930641 26014 net.cpp:137] Memory required for data: 2444416
I0222 18:02:21.930644 26014 layer_factory.hpp:77] Creating layer lstm1_transform_5
I0222 18:02:21.930649 26014 net.cpp:84] Creating Layer lstm1_transform_5
I0222 18:02:21.930651 26014 net.cpp:406] lstm1_transform_5 <- h_conted_4
I0222 18:02:21.930657 26014 net.cpp:380] lstm1_transform_5 -> W_hc_h_4
I0222 18:02:21.930970 26014 net.cpp:122] Setting up lstm1_transform_5
I0222 18:02:21.930979 26014 net.cpp:129] Top shape: 1 26 512 (13312)
I0222 18:02:21.930982 26014 net.cpp:137] Memory required for data: 2497664
I0222 18:02:21.930990 26014 net.cpp:465] Sharing parameters 'W_hc' owned by layer 'lstm1_transform_1', param index 0
I0222 18:02:21.930994 26014 layer_factory.hpp:77] Creating layer lstm1_gate_input_5
I0222 18:02:21.931000 26014 net.cpp:84] Creating Layer lstm1_gate_input_5
I0222 18:02:21.931005 26014 net.cpp:406] lstm1_gate_input_5 <- W_hc_h_4
I0222 18:02:21.931008 26014 net.cpp:406] lstm1_gate_input_5 <- W_xc_x_5
I0222 18:02:21.931012 26014 net.cpp:380] lstm1_gate_input_5 -> gate_input_5
I0222 18:02:21.931026 26014 net.cpp:122] Setting up lstm1_gate_input_5
I0222 18:02:21.931030 26014 net.cpp:129] Top shape: 1 26 512 (13312)
I0222 18:02:21.931033 26014 net.cpp:137] Memory required for data: 2550912
I0222 18:02:21.933810 26014 layer_factory.hpp:77] Creating layer lstm1_unit_5
I0222 18:02:21.933822 26014 net.cpp:84] Creating Layer lstm1_unit_5
I0222 18:02:21.933826 26014 net.cpp:406] lstm1_unit_5 <- c_4
I0222 18:02:21.933831 26014 net.cpp:406] lstm1_unit_5 <- gate_input_5
I0222 18:02:21.933835 26014 net.cpp:406] lstm1_unit_5 <- cont_5_lstm1_cont_slice_4_split_1
I0222 18:02:21.933840 26014 net.cpp:380] lstm1_unit_5 -> c_5
I0222 18:02:21.933845 26014 net.cpp:380] lstm1_unit_5 -> h_5
I0222 18:02:21.933878 26014 net.cpp:122] Setting up lstm1_unit_5
I0222 18:02:21.933884 26014 net.cpp:129] Top shape: 1 26 128 (3328)
I0222 18:02:21.933887 26014 net.cpp:129] Top shape: 1 26 128 (3328)
I0222 18:02:21.933890 26014 net.cpp:137] Memory required for data: 2577536
I0222 18:02:21.933893 26014 layer_factory.hpp:77] Creating layer h_5_lstm1_unit_5_1_split
I0222 18:02:21.933897 26014 net.cpp:84] Creating Layer h_5_lstm1_unit_5_1_split
I0222 18:02:21.933900 26014 net.cpp:406] h_5_lstm1_unit_5_1_split <- h_5
I0222 18:02:21.933904 26014 net.cpp:380] h_5_lstm1_unit_5_1_split -> h_5_lstm1_unit_5_1_split_0
I0222 18:02:21.933910 26014 net.cpp:380] h_5_lstm1_unit_5_1_split -> h_5_lstm1_unit_5_1_split_1
I0222 18:02:21.933928 26014 net.cpp:122] Setting up h_5_lstm1_unit_5_1_split
I0222 18:02:21.933933 26014 net.cpp:129] Top shape: 1 26 128 (3328)
I0222 18:02:21.933935 26014 net.cpp:129] Top shape: 1 26 128 (3328)
I0222 18:02:21.933938 26014 net.cpp:137] Memory required for data: 2604160
I0222 18:02:21.933941 26014 layer_factory.hpp:77] Creating layer lstm1_h_conted_5
I0222 18:02:21.933946 26014 net.cpp:84] Creating Layer lstm1_h_conted_5
I0222 18:02:21.933949 26014 net.cpp:406] lstm1_h_conted_5 <- h_5_lstm1_unit_5_1_split_0
I0222 18:02:21.933954 26014 net.cpp:406] lstm1_h_conted_5 <- cont_6_lstm1_cont_slice_5_split_0
I0222 18:02:21.933959 26014 net.cpp:380] lstm1_h_conted_5 -> h_conted_5
I0222 18:02:21.933990 26014 net.cpp:122] Setting up lstm1_h_conted_5
I0222 18:02:21.933995 26014 net.cpp:129] Top shape: 1 26 128 (3328)
I0222 18:02:21.933998 26014 net.cpp:137] Memory required for data: 2617472
I0222 18:02:21.934001 26014 layer_factory.hpp:77] Creating layer lstm1_transform_6
I0222 18:02:21.934005 26014 net.cpp:84] Creating Layer lstm1_transform_6
I0222 18:02:21.934010 26014 net.cpp:406] lstm1_transform_6 <- h_conted_5
I0222 18:02:21.934013 26014 net.cpp:380] lstm1_transform_6 -> W_hc_h_5
I0222 18:02:21.934303 26014 net.cpp:122] Setting up lstm1_transform_6
I0222 18:02:21.934309 26014 net.cpp:129] Top shape: 1 26 512 (13312)
I0222 18:02:21.934311 26014 net.cpp:137] Memory required for data: 2670720
I0222 18:02:21.934314 26014 net.cpp:465] Sharing parameters 'W_hc' owned by layer 'lstm1_transform_1', param index 0
I0222 18:02:21.934319 26014 layer_factory.hpp:77] Creating layer lstm1_gate_input_6
I0222 18:02:21.934322 26014 net.cpp:84] Creating Layer lstm1_gate_input_6
I0222 18:02:21.934326 26014 net.cpp:406] lstm1_gate_input_6 <- W_hc_h_5
I0222 18:02:21.934329 26014 net.cpp:406] lstm1_gate_input_6 <- W_xc_x_6
I0222 18:02:21.934337 26014 net.cpp:380] lstm1_gate_input_6 -> gate_input_6
I0222 18:02:21.934350 26014 net.cpp:122] Setting up lstm1_gate_input_6
I0222 18:02:21.934355 26014 net.cpp:129] Top shape: 1 26 512 (13312)
I0222 18:02:21.934357 26014 net.cpp:137] Memory required for data: 2723968
I0222 18:02:21.934361 26014 layer_factory.hpp:77] Creating layer lstm1_unit_6
I0222 18:02:21.934371 26014 net.cpp:84] Creating Layer lstm1_unit_6
I0222 18:02:21.934376 26014 net.cpp:406] lstm1_unit_6 <- c_5
I0222 18:02:21.934379 26014 net.cpp:406] lstm1_unit_6 <- gate_input_6
I0222 18:02:21.934382 26014 net.cpp:406] lstm1_unit_6 <- cont_6_lstm1_cont_slice_5_split_1
I0222 18:02:21.934386 26014 net.cpp:380] lstm1_unit_6 -> c_6
I0222 18:02:21.934391 26014 net.cpp:380] lstm1_unit_6 -> h_6
I0222 18:02:21.934415 26014 net.cpp:122] Setting up lstm1_unit_6
I0222 18:02:21.934420 26014 net.cpp:129] Top shape: 1 26 128 (3328)
I0222 18:02:21.934423 26014 net.cpp:129] Top shape: 1 26 128 (3328)
I0222 18:02:21.934427 26014 net.cpp:137] Memory required for data: 2750592
I0222 18:02:21.934429 26014 layer_factory.hpp:77] Creating layer h_6_lstm1_unit_6_1_split
I0222 18:02:21.934433 26014 net.cpp:84] Creating Layer h_6_lstm1_unit_6_1_split
I0222 18:02:21.934437 26014 net.cpp:406] h_6_lstm1_unit_6_1_split <- h_6
I0222 18:02:21.934440 26014 net.cpp:380] h_6_lstm1_unit_6_1_split -> h_6_lstm1_unit_6_1_split_0
I0222 18:02:21.934444 26014 net.cpp:380] h_6_lstm1_unit_6_1_split -> h_6_lstm1_unit_6_1_split_1
I0222 18:02:21.934463 26014 net.cpp:122] Setting up h_6_lstm1_unit_6_1_split
I0222 18:02:21.934468 26014 net.cpp:129] Top shape: 1 26 128 (3328)
I0222 18:02:21.934470 26014 net.cpp:129] Top shape: 1 26 128 (3328)
I0222 18:02:21.934473 26014 net.cpp:137] Memory required for data: 2777216
I0222 18:02:21.934476 26014 layer_factory.hpp:77] Creating layer lstm1_h_conted_6
I0222 18:02:21.934480 26014 net.cpp:84] Creating Layer lstm1_h_conted_6
I0222 18:02:21.934484 26014 net.cpp:406] lstm1_h_conted_6 <- h_6_lstm1_unit_6_1_split_0
I0222 18:02:21.934486 26014 net.cpp:406] lstm1_h_conted_6 <- cont_7_lstm1_cont_slice_6_split_0
I0222 18:02:21.934491 26014 net.cpp:380] lstm1_h_conted_6 -> h_conted_6
I0222 18:02:21.934522 26014 net.cpp:122] Setting up lstm1_h_conted_6
I0222 18:02:21.934526 26014 net.cpp:129] Top shape: 1 26 128 (3328)
I0222 18:02:21.934530 26014 net.cpp:137] Memory required for data: 2790528
I0222 18:02:21.934532 26014 layer_factory.hpp:77] Creating layer lstm1_transform_7
I0222 18:02:21.934536 26014 net.cpp:84] Creating Layer lstm1_transform_7
I0222 18:02:21.934540 26014 net.cpp:406] lstm1_transform_7 <- h_conted_6
I0222 18:02:21.934545 26014 net.cpp:380] lstm1_transform_7 -> W_hc_h_6
I0222 18:02:21.934896 26014 net.cpp:122] Setting up lstm1_transform_7
I0222 18:02:21.934901 26014 net.cpp:129] Top shape: 1 26 512 (13312)
I0222 18:02:21.934904 26014 net.cpp:137] Memory required for data: 2843776
I0222 18:02:21.934909 26014 net.cpp:465] Sharing parameters 'W_hc' owned by layer 'lstm1_transform_1', param index 0
I0222 18:02:21.934913 26014 layer_factory.hpp:77] Creating layer lstm1_gate_input_7
I0222 18:02:21.934917 26014 net.cpp:84] Creating Layer lstm1_gate_input_7
I0222 18:02:21.934921 26014 net.cpp:406] lstm1_gate_input_7 <- W_hc_h_6
I0222 18:02:21.934924 26014 net.cpp:406] lstm1_gate_input_7 <- W_xc_x_7
I0222 18:02:21.934928 26014 net.cpp:380] lstm1_gate_input_7 -> gate_input_7
I0222 18:02:21.934942 26014 net.cpp:122] Setting up lstm1_gate_input_7
I0222 18:02:21.934947 26014 net.cpp:129] Top shape: 1 26 512 (13312)
I0222 18:02:21.934949 26014 net.cpp:137] Memory required for data: 2897024
I0222 18:02:21.934952 26014 layer_factory.hpp:77] Creating layer lstm1_unit_7
I0222 18:02:21.934957 26014 net.cpp:84] Creating Layer lstm1_unit_7
I0222 18:02:21.934959 26014 net.cpp:406] lstm1_unit_7 <- c_6
I0222 18:02:21.934963 26014 net.cpp:406] lstm1_unit_7 <- gate_input_7
I0222 18:02:21.934967 26014 net.cpp:406] lstm1_unit_7 <- cont_7_lstm1_cont_slice_6_split_1
I0222 18:02:21.934972 26014 net.cpp:380] lstm1_unit_7 -> c_7
I0222 18:02:21.934976 26014 net.cpp:380] lstm1_unit_7 -> h_7
I0222 18:02:21.934999 26014 net.cpp:122] Setting up lstm1_unit_7
I0222 18:02:21.935004 26014 net.cpp:129] Top shape: 1 26 128 (3328)
I0222 18:02:21.935008 26014 net.cpp:129] Top shape: 1 26 128 (3328)
I0222 18:02:21.935010 26014 net.cpp:137] Memory required for data: 2923648
I0222 18:02:21.935014 26014 layer_factory.hpp:77] Creating layer h_7_lstm1_unit_7_1_split
I0222 18:02:21.935024 26014 net.cpp:84] Creating Layer h_7_lstm1_unit_7_1_split
I0222 18:02:21.935026 26014 net.cpp:406] h_7_lstm1_unit_7_1_split <- h_7
I0222 18:02:21.935030 26014 net.cpp:380] h_7_lstm1_unit_7_1_split -> h_7_lstm1_unit_7_1_split_0
I0222 18:02:21.935035 26014 net.cpp:380] h_7_lstm1_unit_7_1_split -> h_7_lstm1_unit_7_1_split_1
I0222 18:02:21.935053 26014 net.cpp:122] Setting up h_7_lstm1_unit_7_1_split
I0222 18:02:21.935058 26014 net.cpp:129] Top shape: 1 26 128 (3328)
I0222 18:02:21.935061 26014 net.cpp:129] Top shape: 1 26 128 (3328)
I0222 18:02:21.935065 26014 net.cpp:137] Memory required for data: 2950272
I0222 18:02:21.960420 26014 layer_factory.hpp:77] Creating layer lstm1_h_conted_7
I0222 18:02:21.960433 26014 net.cpp:84] Creating Layer lstm1_h_conted_7
I0222 18:02:21.960438 26014 net.cpp:406] lstm1_h_conted_7 <- h_7_lstm1_unit_7_1_split_0
I0222 18:02:21.960443 26014 net.cpp:406] lstm1_h_conted_7 <- cont_8_lstm1_cont_slice_7_split_0
I0222 18:02:21.960448 26014 net.cpp:380] lstm1_h_conted_7 -> h_conted_7
I0222 18:02:21.960500 26014 net.cpp:122] Setting up lstm1_h_conted_7
I0222 18:02:21.960506 26014 net.cpp:129] Top shape: 1 26 128 (3328)
I0222 18:02:21.960510 26014 net.cpp:137] Memory required for data: 2963584
I0222 18:02:21.960511 26014 layer_factory.hpp:77] Creating layer lstm1_transform_8
I0222 18:02:21.960516 26014 net.cpp:84] Creating Layer lstm1_transform_8
I0222 18:02:21.960520 26014 net.cpp:406] lstm1_transform_8 <- h_conted_7
I0222 18:02:21.960523 26014 net.cpp:380] lstm1_transform_8 -> W_hc_h_7
I0222 18:02:21.960824 26014 net.cpp:122] Setting up lstm1_transform_8
I0222 18:02:21.960830 26014 net.cpp:129] Top shape: 1 26 512 (13312)
I0222 18:02:21.960832 26014 net.cpp:137] Memory required for data: 3016832
I0222 18:02:21.960835 26014 net.cpp:465] Sharing parameters 'W_hc' owned by layer 'lstm1_transform_1', param index 0
I0222 18:02:21.960839 26014 layer_factory.hpp:77] Creating layer lstm1_gate_input_8
I0222 18:02:21.960844 26014 net.cpp:84] Creating Layer lstm1_gate_input_8
I0222 18:02:21.960847 26014 net.cpp:406] lstm1_gate_input_8 <- W_hc_h_7
I0222 18:02:21.960850 26014 net.cpp:406] lstm1_gate_input_8 <- W_xc_x_8
I0222 18:02:21.960855 26014 net.cpp:380] lstm1_gate_input_8 -> gate_input_8
I0222 18:02:21.960870 26014 net.cpp:122] Setting up lstm1_gate_input_8
I0222 18:02:21.960873 26014 net.cpp:129] Top shape: 1 26 512 (13312)
I0222 18:02:21.960876 26014 net.cpp:137] Memory required for data: 3070080
I0222 18:02:21.960880 26014 layer_factory.hpp:77] Creating layer lstm1_unit_8
I0222 18:02:21.960885 26014 net.cpp:84] Creating Layer lstm1_unit_8
I0222 18:02:21.960887 26014 net.cpp:406] lstm1_unit_8 <- c_7
I0222 18:02:21.960891 26014 net.cpp:406] lstm1_unit_8 <- gate_input_8
I0222 18:02:21.960896 26014 net.cpp:406] lstm1_unit_8 <- cont_8_lstm1_cont_slice_7_split_1
I0222 18:02:21.960901 26014 net.cpp:380] lstm1_unit_8 -> c_8
I0222 18:02:21.960906 26014 net.cpp:380] lstm1_unit_8 -> h_8
I0222 18:02:21.960929 26014 net.cpp:122] Setting up lstm1_unit_8
I0222 18:02:21.960933 26014 net.cpp:129] Top shape: 1 26 128 (3328)
I0222 18:02:21.960937 26014 net.cpp:129] Top shape: 1 26 128 (3328)
I0222 18:02:21.960940 26014 net.cpp:137] Memory required for data: 3096704
I0222 18:02:21.960943 26014 layer_factory.hpp:77] Creating layer h_8_lstm1_unit_8_1_split
I0222 18:02:21.960947 26014 net.cpp:84] Creating Layer h_8_lstm1_unit_8_1_split
I0222 18:02:21.960949 26014 net.cpp:406] h_8_lstm1_unit_8_1_split <- h_8
I0222 18:02:21.960953 26014 net.cpp:380] h_8_lstm1_unit_8_1_split -> h_8_lstm1_unit_8_1_split_0
I0222 18:02:21.960958 26014 net.cpp:380] h_8_lstm1_unit_8_1_split -> h_8_lstm1_unit_8_1_split_1
I0222 18:02:21.960976 26014 net.cpp:122] Setting up h_8_lstm1_unit_8_1_split
I0222 18:02:21.960980 26014 net.cpp:129] Top shape: 1 26 128 (3328)
I0222 18:02:21.960984 26014 net.cpp:129] Top shape: 1 26 128 (3328)
I0222 18:02:21.960986 26014 net.cpp:137] Memory required for data: 3123328
I0222 18:02:21.960989 26014 layer_factory.hpp:77] Creating layer lstm1_h_conted_8
I0222 18:02:21.961004 26014 net.cpp:84] Creating Layer lstm1_h_conted_8
I0222 18:02:21.961007 26014 net.cpp:406] lstm1_h_conted_8 <- h_8_lstm1_unit_8_1_split_0
I0222 18:02:21.961011 26014 net.cpp:406] lstm1_h_conted_8 <- cont_9_lstm1_cont_slice_8_split_0
I0222 18:02:21.961015 26014 net.cpp:380] lstm1_h_conted_8 -> h_conted_8
I0222 18:02:21.961047 26014 net.cpp:122] Setting up lstm1_h_conted_8
I0222 18:02:21.961052 26014 net.cpp:129] Top shape: 1 26 128 (3328)
I0222 18:02:21.961055 26014 net.cpp:137] Memory required for data: 3136640
I0222 18:02:21.961058 26014 layer_factory.hpp:77] Creating layer lstm1_transform_9
I0222 18:02:21.961063 26014 net.cpp:84] Creating Layer lstm1_transform_9
I0222 18:02:21.961066 26014 net.cpp:406] lstm1_transform_9 <- h_conted_8
I0222 18:02:21.961071 26014 net.cpp:380] lstm1_transform_9 -> W_hc_h_8
I0222 18:02:21.962020 26014 net.cpp:122] Setting up lstm1_transform_9
I0222 18:02:21.962031 26014 net.cpp:129] Top shape: 1 26 512 (13312)
I0222 18:02:21.962036 26014 net.cpp:137] Memory required for data: 3189888
I0222 18:02:21.962041 26014 net.cpp:465] Sharing parameters 'W_hc' owned by layer 'lstm1_transform_1', param index 0
I0222 18:02:21.962046 26014 layer_factory.hpp:77] Creating layer lstm1_gate_input_9
I0222 18:02:21.962059 26014 net.cpp:84] Creating Layer lstm1_gate_input_9
I0222 18:02:21.962079 26014 net.cpp:406] lstm1_gate_input_9 <- W_hc_h_8
I0222 18:02:21.962085 26014 net.cpp:406] lstm1_gate_input_9 <- W_xc_x_9
I0222 18:02:21.962091 26014 net.cpp:380] lstm1_gate_input_9 -> gate_input_9
I0222 18:02:21.962126 26014 net.cpp:122] Setting up lstm1_gate_input_9
I0222 18:02:21.962134 26014 net.cpp:129] Top shape: 1 26 512 (13312)
I0222 18:02:21.962139 26014 net.cpp:137] Memory required for data: 3243136
I0222 18:02:21.962144 26014 layer_factory.hpp:77] Creating layer lstm1_unit_9
I0222 18:02:21.962162 26014 net.cpp:84] Creating Layer lstm1_unit_9
I0222 18:02:21.962167 26014 net.cpp:406] lstm1_unit_9 <- c_8
I0222 18:02:21.962174 26014 net.cpp:406] lstm1_unit_9 <- gate_input_9
I0222 18:02:21.962179 26014 net.cpp:406] lstm1_unit_9 <- cont_9_lstm1_cont_slice_8_split_1
I0222 18:02:21.962186 26014 net.cpp:380] lstm1_unit_9 -> c_9
I0222 18:02:21.962206 26014 net.cpp:380] lstm1_unit_9 -> h_9
I0222 18:02:21.962239 26014 net.cpp:122] Setting up lstm1_unit_9
I0222 18:02:21.962245 26014 net.cpp:129] Top shape: 1 26 128 (3328)
I0222 18:02:21.962249 26014 net.cpp:129] Top shape: 1 26 128 (3328)
I0222 18:02:21.962252 26014 net.cpp:137] Memory required for data: 3269760
I0222 18:02:21.962255 26014 layer_factory.hpp:77] Creating layer h_9_lstm1_unit_9_1_split
I0222 18:02:21.962261 26014 net.cpp:84] Creating Layer h_9_lstm1_unit_9_1_split
I0222 18:02:21.962265 26014 net.cpp:406] h_9_lstm1_unit_9_1_split <- h_9
I0222 18:02:21.962270 26014 net.cpp:380] h_9_lstm1_unit_9_1_split -> h_9_lstm1_unit_9_1_split_0
I0222 18:02:21.962275 26014 net.cpp:380] h_9_lstm1_unit_9_1_split -> h_9_lstm1_unit_9_1_split_1
I0222 18:02:21.962294 26014 net.cpp:122] Setting up h_9_lstm1_unit_9_1_split
I0222 18:02:21.962299 26014 net.cpp:129] Top shape: 1 26 128 (3328)
I0222 18:02:21.962302 26014 net.cpp:129] Top shape: 1 26 128 (3328)
I0222 18:02:21.962306 26014 net.cpp:137] Memory required for data: 3296384
I0222 18:02:21.962308 26014 layer_factory.hpp:77] Creating layer lstm1_h_conted_9
I0222 18:02:21.962313 26014 net.cpp:84] Creating Layer lstm1_h_conted_9
I0222 18:02:21.962316 26014 net.cpp:406] lstm1_h_conted_9 <- h_9_lstm1_unit_9_1_split_0
I0222 18:02:21.962321 26014 net.cpp:406] lstm1_h_conted_9 <- cont_10_lstm1_cont_slice_9_split_0
I0222 18:02:21.962337 26014 net.cpp:380] lstm1_h_conted_9 -> h_conted_9
I0222 18:02:21.962369 26014 net.cpp:122] Setting up lstm1_h_conted_9
I0222 18:02:21.962374 26014 net.cpp:129] Top shape: 1 26 128 (3328)
I0222 18:02:21.962378 26014 net.cpp:137] Memory required for data: 3309696
I0222 18:02:21.962380 26014 layer_factory.hpp:77] Creating layer lstm1_transform_10
I0222 18:02:21.962384 26014 net.cpp:84] Creating Layer lstm1_transform_10
I0222 18:02:21.962388 26014 net.cpp:406] lstm1_transform_10 <- h_conted_9
I0222 18:02:21.962399 26014 net.cpp:380] lstm1_transform_10 -> W_hc_h_9
I0222 18:02:21.962687 26014 net.cpp:122] Setting up lstm1_transform_10
I0222 18:02:21.962692 26014 net.cpp:129] Top shape: 1 26 512 (13312)
I0222 18:02:21.962694 26014 net.cpp:137] Memory required for data: 3362944
I0222 18:02:21.962697 26014 net.cpp:465] Sharing parameters 'W_hc' owned by layer 'lstm1_transform_1', param index 0
I0222 18:02:21.962700 26014 layer_factory.hpp:77] Creating layer lstm1_gate_input_10
I0222 18:02:21.962707 26014 net.cpp:84] Creating Layer lstm1_gate_input_10
I0222 18:02:21.964144 26014 net.cpp:406] lstm1_gate_input_10 <- W_hc_h_9
I0222 18:02:21.964154 26014 net.cpp:406] lstm1_gate_input_10 <- W_xc_x_10
I0222 18:02:21.964159 26014 net.cpp:380] lstm1_gate_input_10 -> gate_input_10
I0222 18:02:21.964179 26014 net.cpp:122] Setting up lstm1_gate_input_10
I0222 18:02:21.964184 26014 net.cpp:129] Top shape: 1 26 512 (13312)
I0222 18:02:21.964187 26014 net.cpp:137] Memory required for data: 3416192
I0222 18:02:21.964190 26014 layer_factory.hpp:77] Creating layer lstm1_unit_10
I0222 18:02:21.964195 26014 net.cpp:84] Creating Layer lstm1_unit_10
I0222 18:02:21.964198 26014 net.cpp:406] lstm1_unit_10 <- c_9
I0222 18:02:21.964202 26014 net.cpp:406] lstm1_unit_10 <- gate_input_10
I0222 18:02:21.964206 26014 net.cpp:406] lstm1_unit_10 <- cont_10_lstm1_cont_slice_9_split_1
I0222 18:02:21.964212 26014 net.cpp:380] lstm1_unit_10 -> c_10
I0222 18:02:21.964217 26014 net.cpp:380] lstm1_unit_10 -> h_10
I0222 18:02:21.964243 26014 net.cpp:122] Setting up lstm1_unit_10
I0222 18:02:21.964247 26014 net.cpp:129] Top shape: 1 26 128 (3328)
I0222 18:02:21.964251 26014 net.cpp:129] Top shape: 1 26 128 (3328)
I0222 18:02:21.964254 26014 net.cpp:137] Memory required for data: 3442816
I0222 18:02:21.964257 26014 layer_factory.hpp:77] Creating layer h_10_lstm1_unit_10_1_split
I0222 18:02:21.964262 26014 net.cpp:84] Creating Layer h_10_lstm1_unit_10_1_split
I0222 18:02:21.964264 26014 net.cpp:406] h_10_lstm1_unit_10_1_split <- h_10
I0222 18:02:21.964268 26014 net.cpp:380] h_10_lstm1_unit_10_1_split -> h_10_lstm1_unit_10_1_split_0
I0222 18:02:21.964273 26014 net.cpp:380] h_10_lstm1_unit_10_1_split -> h_10_lstm1_unit_10_1_split_1
I0222 18:02:21.964292 26014 net.cpp:122] Setting up h_10_lstm1_unit_10_1_split
I0222 18:02:21.964296 26014 net.cpp:129] Top shape: 1 26 128 (3328)
I0222 18:02:21.964299 26014 net.cpp:129] Top shape: 1 26 128 (3328)
I0222 18:02:21.964303 26014 net.cpp:137] Memory required for data: 3469440
I0222 18:02:21.964305 26014 layer_factory.hpp:77] Creating layer lstm1_h_conted_10
I0222 18:02:21.964310 26014 net.cpp:84] Creating Layer lstm1_h_conted_10
I0222 18:02:21.964314 26014 net.cpp:406] lstm1_h_conted_10 <- h_10_lstm1_unit_10_1_split_0
I0222 18:02:21.964318 26014 net.cpp:406] lstm1_h_conted_10 <- cont_11_lstm1_cont_slice_10_split_0
I0222 18:02:21.964323 26014 net.cpp:380] lstm1_h_conted_10 -> h_conted_10
I0222 18:02:21.964354 26014 net.cpp:122] Setting up lstm1_h_conted_10
I0222 18:02:21.964359 26014 net.cpp:129] Top shape: 1 26 128 (3328)
I0222 18:02:21.964362 26014 net.cpp:137] Memory required for data: 3482752
I0222 18:02:21.964365 26014 layer_factory.hpp:77] Creating layer lstm1_transform_11
I0222 18:02:21.964370 26014 net.cpp:84] Creating Layer lstm1_transform_11
I0222 18:02:21.964373 26014 net.cpp:406] lstm1_transform_11 <- h_conted_10
I0222 18:02:21.964378 26014 net.cpp:380] lstm1_transform_11 -> W_hc_h_10
I0222 18:02:21.964664 26014 net.cpp:122] Setting up lstm1_transform_11
I0222 18:02:21.964669 26014 net.cpp:129] Top shape: 1 26 512 (13312)
I0222 18:02:21.964673 26014 net.cpp:137] Memory required for data: 3536000
I0222 18:02:21.964675 26014 net.cpp:465] Sharing parameters 'W_hc' owned by layer 'lstm1_transform_1', param index 0
I0222 18:02:21.964679 26014 layer_factory.hpp:77] Creating layer lstm1_gate_input_11
I0222 18:02:21.964684 26014 net.cpp:84] Creating Layer lstm1_gate_input_11
I0222 18:02:21.964686 26014 net.cpp:406] lstm1_gate_input_11 <- W_hc_h_10
I0222 18:02:21.964690 26014 net.cpp:406] lstm1_gate_input_11 <- W_xc_x_11
I0222 18:02:21.964700 26014 net.cpp:380] lstm1_gate_input_11 -> gate_input_11
I0222 18:02:21.964716 26014 net.cpp:122] Setting up lstm1_gate_input_11
I0222 18:02:21.964721 26014 net.cpp:129] Top shape: 1 26 512 (13312)
I0222 18:02:21.964723 26014 net.cpp:137] Memory required for data: 3589248
I0222 18:02:21.964726 26014 layer_factory.hpp:77] Creating layer lstm1_unit_11
I0222 18:02:21.964730 26014 net.cpp:84] Creating Layer lstm1_unit_11
I0222 18:02:21.964735 26014 net.cpp:406] lstm1_unit_11 <- c_10
I0222 18:02:21.964737 26014 net.cpp:406] lstm1_unit_11 <- gate_input_11
I0222 18:02:21.964741 26014 net.cpp:406] lstm1_unit_11 <- cont_11_lstm1_cont_slice_10_split_1
I0222 18:02:21.964745 26014 net.cpp:380] lstm1_unit_11 -> c_11
I0222 18:02:21.964749 26014 net.cpp:380] lstm1_unit_11 -> h_11
I0222 18:02:21.964776 26014 net.cpp:122] Setting up lstm1_unit_11
I0222 18:02:21.964781 26014 net.cpp:129] Top shape: 1 26 128 (3328)
I0222 18:02:21.964784 26014 net.cpp:129] Top shape: 1 26 128 (3328)
I0222 18:02:21.964787 26014 net.cpp:137] Memory required for data: 3615872
I0222 18:02:21.964790 26014 layer_factory.hpp:77] Creating layer h_11_lstm1_unit_11_1_split
I0222 18:02:21.964794 26014 net.cpp:84] Creating Layer h_11_lstm1_unit_11_1_split
I0222 18:02:21.964797 26014 net.cpp:406] h_11_lstm1_unit_11_1_split <- h_11
I0222 18:02:21.964802 26014 net.cpp:380] h_11_lstm1_unit_11_1_split -> h_11_lstm1_unit_11_1_split_0
I0222 18:02:21.964805 26014 net.cpp:380] h_11_lstm1_unit_11_1_split -> h_11_lstm1_unit_11_1_split_1
I0222 18:02:21.964823 26014 net.cpp:122] Setting up h_11_lstm1_unit_11_1_split
I0222 18:02:21.964828 26014 net.cpp:129] Top shape: 1 26 128 (3328)
I0222 18:02:21.964830 26014 net.cpp:129] Top shape: 1 26 128 (3328)
I0222 18:02:21.964833 26014 net.cpp:137] Memory required for data: 3642496
I0222 18:02:21.964836 26014 layer_factory.hpp:77] Creating layer lstm1_h_conted_11
I0222 18:02:21.964840 26014 net.cpp:84] Creating Layer lstm1_h_conted_11
I0222 18:02:21.964843 26014 net.cpp:406] lstm1_h_conted_11 <- h_11_lstm1_unit_11_1_split_0
I0222 18:02:21.964848 26014 net.cpp:406] lstm1_h_conted_11 <- cont_12_lstm1_cont_slice_11_split_0
I0222 18:02:21.964851 26014 net.cpp:380] lstm1_h_conted_11 -> h_conted_11
I0222 18:02:21.964880 26014 net.cpp:122] Setting up lstm1_h_conted_11
I0222 18:02:21.964885 26014 net.cpp:129] Top shape: 1 26 128 (3328)
I0222 18:02:21.964889 26014 net.cpp:137] Memory required for data: 3655808
I0222 18:02:21.964891 26014 layer_factory.hpp:77] Creating layer lstm1_transform_12
I0222 18:02:21.964895 26014 net.cpp:84] Creating Layer lstm1_transform_12
I0222 18:02:21.964898 26014 net.cpp:406] lstm1_transform_12 <- h_conted_11
I0222 18:02:21.964903 26014 net.cpp:380] lstm1_transform_12 -> W_hc_h_11
I0222 18:02:21.965188 26014 net.cpp:122] Setting up lstm1_transform_12
I0222 18:02:21.965193 26014 net.cpp:129] Top shape: 1 26 512 (13312)
I0222 18:02:21.965195 26014 net.cpp:137] Memory required for data: 3709056
I0222 18:02:21.965199 26014 net.cpp:465] Sharing parameters 'W_hc' owned by layer 'lstm1_transform_1', param index 0
I0222 18:02:21.965203 26014 layer_factory.hpp:77] Creating layer lstm1_gate_input_12
I0222 18:02:21.965206 26014 net.cpp:84] Creating Layer lstm1_gate_input_12
I0222 18:02:21.965210 26014 net.cpp:406] lstm1_gate_input_12 <- W_hc_h_11
I0222 18:02:21.965214 26014 net.cpp:406] lstm1_gate_input_12 <- W_xc_x_12
I0222 18:02:21.965217 26014 net.cpp:380] lstm1_gate_input_12 -> gate_input_12
I0222 18:02:21.965229 26014 net.cpp:122] Setting up lstm1_gate_input_12
I0222 18:02:21.965234 26014 net.cpp:129] Top shape: 1 26 512 (13312)
I0222 18:02:21.965236 26014 net.cpp:137] Memory required for data: 3762304
I0222 18:02:21.965240 26014 layer_factory.hpp:77] Creating layer lstm1_unit_12
I0222 18:02:21.965245 26014 net.cpp:84] Creating Layer lstm1_unit_12
I0222 18:02:21.965248 26014 net.cpp:406] lstm1_unit_12 <- c_11
I0222 18:02:21.965251 26014 net.cpp:406] lstm1_unit_12 <- gate_input_12
I0222 18:02:21.965255 26014 net.cpp:406] lstm1_unit_12 <- cont_12_lstm1_cont_slice_11_split_1
I0222 18:02:21.965260 26014 net.cpp:380] lstm1_unit_12 -> c_12
I0222 18:02:21.965268 26014 net.cpp:380] lstm1_unit_12 -> h_12
I0222 18:02:21.965293 26014 net.cpp:122] Setting up lstm1_unit_12
I0222 18:02:21.965298 26014 net.cpp:129] Top shape: 1 26 128 (3328)
I0222 18:02:21.965301 26014 net.cpp:129] Top shape: 1 26 128 (3328)
I0222 18:02:21.965304 26014 net.cpp:137] Memory required for data: 3788928
I0222 18:02:21.991335 26014 layer_factory.hpp:77] Creating layer h_12_lstm1_unit_12_1_split
I0222 18:02:21.991346 26014 net.cpp:84] Creating Layer h_12_lstm1_unit_12_1_split
I0222 18:02:21.991351 26014 net.cpp:406] h_12_lstm1_unit_12_1_split <- h_12
I0222 18:02:21.991358 26014 net.cpp:380] h_12_lstm1_unit_12_1_split -> h_12_lstm1_unit_12_1_split_0
I0222 18:02:21.991365 26014 net.cpp:380] h_12_lstm1_unit_12_1_split -> h_12_lstm1_unit_12_1_split_1
I0222 18:02:21.991395 26014 net.cpp:122] Setting up h_12_lstm1_unit_12_1_split
I0222 18:02:21.991400 26014 net.cpp:129] Top shape: 1 26 128 (3328)
I0222 18:02:21.991405 26014 net.cpp:129] Top shape: 1 26 128 (3328)
I0222 18:02:21.991406 26014 net.cpp:137] Memory required for data: 3815552
I0222 18:02:21.991410 26014 layer_factory.hpp:77] Creating layer lstm1_h_conted_12
I0222 18:02:21.991415 26014 net.cpp:84] Creating Layer lstm1_h_conted_12
I0222 18:02:21.991418 26014 net.cpp:406] lstm1_h_conted_12 <- h_12_lstm1_unit_12_1_split_0
I0222 18:02:21.991422 26014 net.cpp:406] lstm1_h_conted_12 <- cont_13_lstm1_cont_slice_12_split_0
I0222 18:02:21.991428 26014 net.cpp:380] lstm1_h_conted_12 -> h_conted_12
I0222 18:02:21.991462 26014 net.cpp:122] Setting up lstm1_h_conted_12
I0222 18:02:21.991467 26014 net.cpp:129] Top shape: 1 26 128 (3328)
I0222 18:02:21.991470 26014 net.cpp:137] Memory required for data: 3828864
I0222 18:02:21.991473 26014 layer_factory.hpp:77] Creating layer lstm1_transform_13
I0222 18:02:21.991478 26014 net.cpp:84] Creating Layer lstm1_transform_13
I0222 18:02:21.991482 26014 net.cpp:406] lstm1_transform_13 <- h_conted_12
I0222 18:02:21.991487 26014 net.cpp:380] lstm1_transform_13 -> W_hc_h_12
I0222 18:02:21.991780 26014 net.cpp:122] Setting up lstm1_transform_13
I0222 18:02:21.991785 26014 net.cpp:129] Top shape: 1 26 512 (13312)
I0222 18:02:21.991787 26014 net.cpp:137] Memory required for data: 3882112
I0222 18:02:21.991791 26014 net.cpp:465] Sharing parameters 'W_hc' owned by layer 'lstm1_transform_1', param index 0
I0222 18:02:21.991794 26014 layer_factory.hpp:77] Creating layer lstm1_gate_input_13
I0222 18:02:21.991798 26014 net.cpp:84] Creating Layer lstm1_gate_input_13
I0222 18:02:21.991802 26014 net.cpp:406] lstm1_gate_input_13 <- W_hc_h_12
I0222 18:02:21.991806 26014 net.cpp:406] lstm1_gate_input_13 <- W_xc_x_13
I0222 18:02:21.991811 26014 net.cpp:380] lstm1_gate_input_13 -> gate_input_13
I0222 18:02:21.991824 26014 net.cpp:122] Setting up lstm1_gate_input_13
I0222 18:02:21.991829 26014 net.cpp:129] Top shape: 1 26 512 (13312)
I0222 18:02:21.991832 26014 net.cpp:137] Memory required for data: 3935360
I0222 18:02:21.991834 26014 layer_factory.hpp:77] Creating layer lstm1_unit_13
I0222 18:02:21.991839 26014 net.cpp:84] Creating Layer lstm1_unit_13
I0222 18:02:21.991842 26014 net.cpp:406] lstm1_unit_13 <- c_12
I0222 18:02:21.991847 26014 net.cpp:406] lstm1_unit_13 <- gate_input_13
I0222 18:02:21.991850 26014 net.cpp:406] lstm1_unit_13 <- cont_13_lstm1_cont_slice_12_split_1
I0222 18:02:21.991854 26014 net.cpp:380] lstm1_unit_13 -> c_13
I0222 18:02:21.991863 26014 net.cpp:380] lstm1_unit_13 -> h_13
I0222 18:02:21.991888 26014 net.cpp:122] Setting up lstm1_unit_13
I0222 18:02:21.991892 26014 net.cpp:129] Top shape: 1 26 128 (3328)
I0222 18:02:21.991895 26014 net.cpp:129] Top shape: 1 26 128 (3328)
I0222 18:02:21.991899 26014 net.cpp:137] Memory required for data: 3961984
I0222 18:02:21.991901 26014 layer_factory.hpp:77] Creating layer h_13_lstm1_unit_13_1_split
I0222 18:02:21.991905 26014 net.cpp:84] Creating Layer h_13_lstm1_unit_13_1_split
I0222 18:02:21.991909 26014 net.cpp:406] h_13_lstm1_unit_13_1_split <- h_13
I0222 18:02:21.991912 26014 net.cpp:380] h_13_lstm1_unit_13_1_split -> h_13_lstm1_unit_13_1_split_0
I0222 18:02:21.991925 26014 net.cpp:380] h_13_lstm1_unit_13_1_split -> h_13_lstm1_unit_13_1_split_1
I0222 18:02:21.991943 26014 net.cpp:122] Setting up h_13_lstm1_unit_13_1_split
I0222 18:02:21.991948 26014 net.cpp:129] Top shape: 1 26 128 (3328)
I0222 18:02:21.991951 26014 net.cpp:129] Top shape: 1 26 128 (3328)
I0222 18:02:21.991955 26014 net.cpp:137] Memory required for data: 3988608
I0222 18:02:21.991957 26014 layer_factory.hpp:77] Creating layer lstm1_h_conted_13
I0222 18:02:21.991961 26014 net.cpp:84] Creating Layer lstm1_h_conted_13
I0222 18:02:21.991964 26014 net.cpp:406] lstm1_h_conted_13 <- h_13_lstm1_unit_13_1_split_0
I0222 18:02:21.991968 26014 net.cpp:406] lstm1_h_conted_13 <- cont_14_lstm1_cont_slice_13_split_0
I0222 18:02:21.991973 26014 net.cpp:380] lstm1_h_conted_13 -> h_conted_13
I0222 18:02:21.992005 26014 net.cpp:122] Setting up lstm1_h_conted_13
I0222 18:02:21.992009 26014 net.cpp:129] Top shape: 1 26 128 (3328)
I0222 18:02:21.992012 26014 net.cpp:137] Memory required for data: 4001920
I0222 18:02:21.992015 26014 layer_factory.hpp:77] Creating layer lstm1_transform_14
I0222 18:02:21.992020 26014 net.cpp:84] Creating Layer lstm1_transform_14
I0222 18:02:21.992024 26014 net.cpp:406] lstm1_transform_14 <- h_conted_13
I0222 18:02:21.992028 26014 net.cpp:380] lstm1_transform_14 -> W_hc_h_13
I0222 18:02:21.992317 26014 net.cpp:122] Setting up lstm1_transform_14
I0222 18:02:21.992322 26014 net.cpp:129] Top shape: 1 26 512 (13312)
I0222 18:02:21.992326 26014 net.cpp:137] Memory required for data: 4055168
I0222 18:02:21.992328 26014 net.cpp:465] Sharing parameters 'W_hc' owned by layer 'lstm1_transform_1', param index 0
I0222 18:02:21.992331 26014 layer_factory.hpp:77] Creating layer lstm1_gate_input_14
I0222 18:02:21.992336 26014 net.cpp:84] Creating Layer lstm1_gate_input_14
I0222 18:02:21.992339 26014 net.cpp:406] lstm1_gate_input_14 <- W_hc_h_13
I0222 18:02:21.992342 26014 net.cpp:406] lstm1_gate_input_14 <- W_xc_x_14
I0222 18:02:21.992347 26014 net.cpp:380] lstm1_gate_input_14 -> gate_input_14
I0222 18:02:21.992360 26014 net.cpp:122] Setting up lstm1_gate_input_14
I0222 18:02:21.992365 26014 net.cpp:129] Top shape: 1 26 512 (13312)
I0222 18:02:21.992368 26014 net.cpp:137] Memory required for data: 4108416
I0222 18:02:21.992370 26014 layer_factory.hpp:77] Creating layer lstm1_unit_14
I0222 18:02:21.992375 26014 net.cpp:84] Creating Layer lstm1_unit_14
I0222 18:02:21.992378 26014 net.cpp:406] lstm1_unit_14 <- c_13
I0222 18:02:21.992383 26014 net.cpp:406] lstm1_unit_14 <- gate_input_14
I0222 18:02:21.992385 26014 net.cpp:406] lstm1_unit_14 <- cont_14_lstm1_cont_slice_13_split_1
I0222 18:02:21.992389 26014 net.cpp:380] lstm1_unit_14 -> c_14
I0222 18:02:21.992394 26014 net.cpp:380] lstm1_unit_14 -> h_14
I0222 18:02:21.992419 26014 net.cpp:122] Setting up lstm1_unit_14
I0222 18:02:21.992424 26014 net.cpp:129] Top shape: 1 26 128 (3328)
I0222 18:02:21.992427 26014 net.cpp:129] Top shape: 1 26 128 (3328)
I0222 18:02:21.992430 26014 net.cpp:137] Memory required for data: 4135040
I0222 18:02:21.992432 26014 layer_factory.hpp:77] Creating layer h_14_lstm1_unit_14_1_split
I0222 18:02:21.992437 26014 net.cpp:84] Creating Layer h_14_lstm1_unit_14_1_split
I0222 18:02:21.992440 26014 net.cpp:406] h_14_lstm1_unit_14_1_split <- h_14
I0222 18:02:21.992444 26014 net.cpp:380] h_14_lstm1_unit_14_1_split -> h_14_lstm1_unit_14_1_split_0
I0222 18:02:21.992449 26014 net.cpp:380] h_14_lstm1_unit_14_1_split -> h_14_lstm1_unit_14_1_split_1
I0222 18:02:21.992467 26014 net.cpp:122] Setting up h_14_lstm1_unit_14_1_split
I0222 18:02:21.992471 26014 net.cpp:129] Top shape: 1 26 128 (3328)
I0222 18:02:21.992475 26014 net.cpp:129] Top shape: 1 26 128 (3328)
I0222 18:02:21.992477 26014 net.cpp:137] Memory required for data: 4161664
I0222 18:02:21.992480 26014 layer_factory.hpp:77] Creating layer lstm1_h_conted_14
I0222 18:02:21.992485 26014 net.cpp:84] Creating Layer lstm1_h_conted_14
I0222 18:02:21.992487 26014 net.cpp:406] lstm1_h_conted_14 <- h_14_lstm1_unit_14_1_split_0
I0222 18:02:21.992491 26014 net.cpp:406] lstm1_h_conted_14 <- cont_15_lstm1_cont_slice_14_split_0
I0222 18:02:21.992501 26014 net.cpp:380] lstm1_h_conted_14 -> h_conted_14
I0222 18:02:21.992532 26014 net.cpp:122] Setting up lstm1_h_conted_14
I0222 18:02:21.995270 26014 net.cpp:129] Top shape: 1 26 128 (3328)
I0222 18:02:21.995275 26014 net.cpp:137] Memory required for data: 4174976
I0222 18:02:21.995278 26014 layer_factory.hpp:77] Creating layer lstm1_transform_15
I0222 18:02:21.995283 26014 net.cpp:84] Creating Layer lstm1_transform_15
I0222 18:02:21.995286 26014 net.cpp:406] lstm1_transform_15 <- h_conted_14
I0222 18:02:21.995293 26014 net.cpp:380] lstm1_transform_15 -> W_hc_h_14
I0222 18:02:21.995590 26014 net.cpp:122] Setting up lstm1_transform_15
I0222 18:02:21.995596 26014 net.cpp:129] Top shape: 1 26 512 (13312)
I0222 18:02:21.995599 26014 net.cpp:137] Memory required for data: 4228224
I0222 18:02:21.995609 26014 net.cpp:465] Sharing parameters 'W_hc' owned by layer 'lstm1_transform_1', param index 0
I0222 18:02:21.995612 26014 layer_factory.hpp:77] Creating layer lstm1_gate_input_15
I0222 18:02:21.995617 26014 net.cpp:84] Creating Layer lstm1_gate_input_15
I0222 18:02:21.995620 26014 net.cpp:406] lstm1_gate_input_15 <- W_hc_h_14
I0222 18:02:21.995623 26014 net.cpp:406] lstm1_gate_input_15 <- W_xc_x_15
I0222 18:02:21.995627 26014 net.cpp:380] lstm1_gate_input_15 -> gate_input_15
I0222 18:02:21.995642 26014 net.cpp:122] Setting up lstm1_gate_input_15
I0222 18:02:21.995646 26014 net.cpp:129] Top shape: 1 26 512 (13312)
I0222 18:02:21.995649 26014 net.cpp:137] Memory required for data: 4281472
I0222 18:02:21.995652 26014 layer_factory.hpp:77] Creating layer lstm1_unit_15
I0222 18:02:21.995657 26014 net.cpp:84] Creating Layer lstm1_unit_15
I0222 18:02:21.995661 26014 net.cpp:406] lstm1_unit_15 <- c_14
I0222 18:02:21.995664 26014 net.cpp:406] lstm1_unit_15 <- gate_input_15
I0222 18:02:21.995668 26014 net.cpp:406] lstm1_unit_15 <- cont_15_lstm1_cont_slice_14_split_1
I0222 18:02:21.995672 26014 net.cpp:380] lstm1_unit_15 -> c_15
I0222 18:02:21.995677 26014 net.cpp:380] lstm1_unit_15 -> h_15
I0222 18:02:21.995702 26014 net.cpp:122] Setting up lstm1_unit_15
I0222 18:02:21.995707 26014 net.cpp:129] Top shape: 1 26 128 (3328)
I0222 18:02:21.995709 26014 net.cpp:129] Top shape: 1 26 128 (3328)
I0222 18:02:21.995712 26014 net.cpp:137] Memory required for data: 4308096
I0222 18:02:21.995715 26014 layer_factory.hpp:77] Creating layer h_15_lstm1_unit_15_1_split
I0222 18:02:21.995719 26014 net.cpp:84] Creating Layer h_15_lstm1_unit_15_1_split
I0222 18:02:21.995723 26014 net.cpp:406] h_15_lstm1_unit_15_1_split <- h_15
I0222 18:02:21.995728 26014 net.cpp:380] h_15_lstm1_unit_15_1_split -> h_15_lstm1_unit_15_1_split_0
I0222 18:02:21.995731 26014 net.cpp:380] h_15_lstm1_unit_15_1_split -> h_15_lstm1_unit_15_1_split_1
I0222 18:02:21.995749 26014 net.cpp:122] Setting up h_15_lstm1_unit_15_1_split
I0222 18:02:21.995754 26014 net.cpp:129] Top shape: 1 26 128 (3328)
I0222 18:02:21.995756 26014 net.cpp:129] Top shape: 1 26 128 (3328)
I0222 18:02:21.995759 26014 net.cpp:137] Memory required for data: 4334720
I0222 18:02:21.995762 26014 layer_factory.hpp:77] Creating layer lstm1_h_conted_15
I0222 18:02:21.995767 26014 net.cpp:84] Creating Layer lstm1_h_conted_15
I0222 18:02:21.995771 26014 net.cpp:406] lstm1_h_conted_15 <- h_15_lstm1_unit_15_1_split_0
I0222 18:02:21.995774 26014 net.cpp:406] lstm1_h_conted_15 <- cont_16_lstm1_cont_slice_15_split_0
I0222 18:02:21.995779 26014 net.cpp:380] lstm1_h_conted_15 -> h_conted_15
I0222 18:02:21.995810 26014 net.cpp:122] Setting up lstm1_h_conted_15
I0222 18:02:21.995815 26014 net.cpp:129] Top shape: 1 26 128 (3328)
I0222 18:02:21.995818 26014 net.cpp:137] Memory required for data: 4348032
I0222 18:02:21.995821 26014 layer_factory.hpp:77] Creating layer lstm1_transform_16
I0222 18:02:21.995826 26014 net.cpp:84] Creating Layer lstm1_transform_16
I0222 18:02:21.995828 26014 net.cpp:406] lstm1_transform_16 <- h_conted_15
I0222 18:02:21.995833 26014 net.cpp:380] lstm1_transform_16 -> W_hc_h_15
I0222 18:02:21.996121 26014 net.cpp:122] Setting up lstm1_transform_16
I0222 18:02:21.996134 26014 net.cpp:129] Top shape: 1 26 512 (13312)
I0222 18:02:21.996136 26014 net.cpp:137] Memory required for data: 4401280
I0222 18:02:21.996140 26014 net.cpp:465] Sharing parameters 'W_hc' owned by layer 'lstm1_transform_1', param index 0
I0222 18:02:21.996143 26014 layer_factory.hpp:77] Creating layer lstm1_gate_input_16
I0222 18:02:21.996148 26014 net.cpp:84] Creating Layer lstm1_gate_input_16
I0222 18:02:21.996151 26014 net.cpp:406] lstm1_gate_input_16 <- W_hc_h_15
I0222 18:02:21.996155 26014 net.cpp:406] lstm1_gate_input_16 <- W_xc_x_16
I0222 18:02:21.996160 26014 net.cpp:380] lstm1_gate_input_16 -> gate_input_16
I0222 18:02:21.996174 26014 net.cpp:122] Setting up lstm1_gate_input_16
I0222 18:02:21.996178 26014 net.cpp:129] Top shape: 1 26 512 (13312)
I0222 18:02:21.996181 26014 net.cpp:137] Memory required for data: 4454528
I0222 18:02:21.996184 26014 layer_factory.hpp:77] Creating layer lstm1_unit_16
I0222 18:02:21.996187 26014 net.cpp:84] Creating Layer lstm1_unit_16
I0222 18:02:21.996191 26014 net.cpp:406] lstm1_unit_16 <- c_15
I0222 18:02:21.996194 26014 net.cpp:406] lstm1_unit_16 <- gate_input_16
I0222 18:02:21.996198 26014 net.cpp:406] lstm1_unit_16 <- cont_16_lstm1_cont_slice_15_split_1
I0222 18:02:21.996202 26014 net.cpp:380] lstm1_unit_16 -> c_16
I0222 18:02:21.996208 26014 net.cpp:380] lstm1_unit_16 -> h_16
I0222 18:02:21.996249 26014 net.cpp:122] Setting up lstm1_unit_16
I0222 18:02:21.996253 26014 net.cpp:129] Top shape: 1 26 128 (3328)
I0222 18:02:21.996258 26014 net.cpp:129] Top shape: 1 26 128 (3328)
I0222 18:02:21.996260 26014 net.cpp:137] Memory required for data: 4481152
I0222 18:02:21.996263 26014 layer_factory.hpp:77] Creating layer lstm1_
I0222 18:02:21.996268 26014 net.cpp:84] Creating Layer lstm1_
I0222 18:02:21.996270 26014 net.cpp:406] lstm1_ <- c_16
I0222 18:02:21.996274 26014 net.cpp:380] lstm1_ -> c_T
I0222 18:02:21.996286 26014 net.cpp:122] Setting up lstm1_
I0222 18:02:21.996291 26014 net.cpp:129] Top shape: 1 26 128 (3328)
I0222 18:02:21.996294 26014 net.cpp:137] Memory required for data: 4494464
I0222 18:02:21.996297 26014 layer_factory.hpp:77] Creating layer lstm1_h_concat
I0222 18:02:21.996302 26014 net.cpp:84] Creating Layer lstm1_h_concat
I0222 18:02:21.996306 26014 net.cpp:406] lstm1_h_concat <- h_1_lstm1_unit_1_1_split_1
I0222 18:02:21.996310 26014 net.cpp:406] lstm1_h_concat <- h_2_lstm1_unit_2_1_split_1
…
I0222 18:02:22.025379 26014 net.cpp:200] lstm1_ does not need backward computation.
I0222 18:02:22.025382 26014 net.cpp:242] This network produces output c_T
I0222 18:02:22.025388 26014 net.cpp:242] This network produces output h_pseudoloss
I0222 18:02:22.025822 26014 net.cpp:255] Network initialization done.
I0222 18:02:22.025945 26014 recurrent_layer.cpp:150] Adding parameter 0: W_xc
I0222 18:02:22.025951 26014 recurrent_layer.cpp:150] Adding parameter 1: b_c
I0222 18:02:22.025954 26014 recurrent_layer.cpp:150] Adding parameter 2: W_hc
I0222 18:02:22.026742 26014 net.cpp:122] Setting up lstm1
I0222 18:02:22.026753 26014 net.cpp:129] Top shape: 16 26 128 (53248)
I0222 18:02:22.026757 26014 net.cpp:137] Memory required for data: 223104
I0222 18:02:22.026767 26014 layer_factory.hpp:77] Creating layer bn1
I0222 18:02:22.026774 26014 net.cpp:84] Creating Layer bn1
I0222 18:02:22.026777 26014 net.cpp:406] bn1 <- lstm1
I0222 18:02:22.026782 26014 net.cpp:380] bn1 -> bn1
I0222 18:02:22.026892 26014 net.cpp:122] Setting up bn1
I0222 18:02:22.026898 26014 net.cpp:129] Top shape: 16 26 128 (53248)
I0222 18:02:22.026901 26014 net.cpp:137] Memory required for data: 436096
I0222 18:02:22.026907 26014 layer_factory.hpp:77] Creating layer lstm2
I0222 18:02:22.026913 26014 net.cpp:84] Creating Layer lstm2
I0222 18:02:22.026916 26014 net.cpp:406] lstm2 <- bn1
I0222 18:02:22.026919 26014 net.cpp:406] lstm2 <- clip_clip_0_split_1
I0222 18:02:22.026923 26014 net.cpp:380] lstm2 -> lstm2
I0222 18:02:22.026929 26014 recurrent_layer.cpp:20] Initializing recurrent layer: assuming input batch contains 16 timesteps of 26 independent streams.
I0222 18:02:22.027223 26014 net.cpp:51] Initializing net from parameters: 
layer {
  name: "lstm2_"
  type: "Input"
  top: "x"
  top: "cont"
  input_param {
    shape {
      dim: 16
      dim: 26
      dim: 128
    }
    shape {
      dim: 16
      dim: 26
    }
  }
}
layer {
  name: "lstm2_"
  type: "Input"
  top: "c_0"
  top: "h_0"
  input_param {
    shape {
      dim: 1
      dim: 26
      dim: 128
    }
    shape {
      dim: 1
      dim: 26
      dim: 128
    }
  }
}
layer {
  name: "lstm2_cont_slice"
  type: "Slice"
  bottom: "cont"
  top: "cont_1"
  top: "cont_2"
  top: "cont_3"
  top: "cont_4"
  top: "cont_5"
  top: "cont_6"
  top: "cont_7"
  top: "cont_8"
  top: "cont_9"
  top: "cont_10"
  top: "cont_11"
  top: "cont_12"
  top: "cont_13"
  top: "cont_14"
  top: "cont_15"
  top: "cont_16"
  slice_param {
    axis: 0
  }
}
layer {
  name: "lstm2_x_transform"
  type: "InnerProduct"
  bottom: "x"
  top: "W_xc_x"
  param {
    name: "W_xc"
  }
  param {
    name: "b_c"
  }
  propagate_down: true
  inner_product_param {
    num_output: 512
    bias_term: true
    weight_filler {
      type: "xavier"
    }
    bias_filler {
      type: "constant"
    }
    axis: 2
  }
}
layer {
  name: "lstm2_W_xc_x_slice"
  type: "Slice"
  bottom: "W_xc_x"
  top: "W_xc_x_1"
  top: "W_xc_x_2"
  top: "W_xc_x_3"
  top: "W_xc_x_4"
  top: "W_xc_x_5"
  top: "W_xc_x_6"
  top: "W_xc_x_7"
  top: "W_xc_x_8"
  top: "W_xc_x_9"
  top: "W_xc_x_10"
  top: "W_xc_x_11"
  top: "W_xc_x_12"
  top: "W_xc_x_13"
  top: "W_xc_x_14"
  top: "W_xc_x_15"
  top: "W_xc_x_16"
  slice_param {
    axis: 0
  }
}
layer {
  name: "lstm2_h_conted_0"
  type: "Scale"
  bottom: "h_0"
  bottom: "cont_1"
  top: "h_conted_0"
  scale_param {
    axis: 0
  }
}
layer {
  name: "lstm2_transform_1"
  type: "InnerProduct"
  bottom: "h_conted_0"
  top: "W_hc_h_0"
  param {
    name: "W_hc"
  }
  inner_product_param {
    num_output: 512
    bias_term: false
    weight_filler {
      type: "xavier"
    }
    axis: 2
  }
}
layer {
  name: "lstm2_gate_input_1"
  type: "Eltwise"
  bottom: "W_hc_h_0"
  bottom: "W_xc_x_1"
  top: "gate_input_1"
  eltwise_param {
    operation: SUM
  }
}
layer {
  name: "lstm2_unit_1"
  type: "LSTMUnit"
  bottom: "c_0"
  bottom: "gate_input_1"
  bottom: "cont_1"
  top: "c_1"
  top: "h_1"
}
layer {
  name: "lstm2_h_conted_1"
  type: "Scale"
  bottom: "h_1"
  bottom: "cont_2"
  top: "h_conted_1"
  scale_param {
    axis: 0
  }
}
layer {
  name: "lstm2_transform_2"
  type: "InnerProduct"
  bottom: "h_conted_1"
  top: "W_hc_h_1"
  param {
    name: "W_hc"
  }
  inner_product_param {
    num_output: 512
    bias_term: false
    weight_filler {
      type: "xavier"
    }
    axis: 2
  }
}
layer {
  name: "lstm2_gate_input_2"
  type: "Eltwise"
  bottom: "W_hc_h_1"
  bottom: "W_xc_x_2"
  top: "gate_input_2"
  eltwise_param {
    operation: SUM
  }
}
layer {
  name: "lstm2_unit_2"
  type: "LSTMUnit"
  bottom: "c_1"
  bottom: "gate_input_2"
  bottom: "cont_2"
  top: "c_2"
  top: "h_2"
}
layer {
  name: "lstm2_h_conted_2"
  type: "Scale"
  bottom: "h_2"
  bottom: "cont_3"
  top: "h_conted_2"
  scale_param {
    axis: 0
  }
}
layer {
  name: "lstm2_transform_3"
  type: "InnerProduct"
  bottom: "h_conted_2"
  top: "W_hc_h_2"
  param {
    name: "W_hc"
  }
  inner_product_param {
    num_output: 512
    bias_term: false
    weight_filler {
      type: "xavier"
    }
    axis: 2
  }
}
layer {
  name: "lstm2_gate_input_3"
  type: "Eltwise"
  bottom: "W_hc_h_2"
  bottom: "W_xc_x_3"
  top: "gate_input_3"
  eltwise_param {
    operation: SUM
  }
}
layer {
  name: "lstm2_unit_3"
  type: "LSTMUnit"
  bottom: "c_2"
  bottom: "gate_input_3"
  bottom: "cont_3"
  top: "c_3"
  top: "h_3"
}
layer {
  name: "lstm2_h_conted_3"
  type: "Scale"
  bottom: "h_3"
  bottom: "cont_4"
  top: "h_conted_3"
  scale_param {
    axis: 0
  }
}
layer {
  name: "lstm2_transform_4"
  type: "InnerProduct"
  bottom: "h_conted_3"
  top: "W_hc_h_3"
  param {
    name: "W_hc"
  }
  inner_product_param {
    num_output: 512
    bias_term: false
    weight_filler {
      type: "xavier"
    }
    axis: 2
  }
}
layer {
  name: "lstm2_gate_input_4"
  type: "Eltwise"
  bottom: "W_hc_h_3"
  bottom: "W_xc_x_4"
  top: "gate_input_4"
  eltwise_param {
    operation: SUM
  }
}
layer {
  name: "lstm2_unit_4"
  type: "LSTMUnit"
  bottom: "c_3"
  bottom: "gate_input_4"
  bottom: "cont_4"
  top: "c_4"
  top: "h_4"
}
layer {
  name: "lstm2_h_conted_4"
  type: "Scale"
  bottom: "h_4"
  bottom: "cont_5"
  top: "h_conted_4"
  scale_param {
    axis: 0
  }
}
layer {
  name: "lstm2_transform_5"
  type: "InnerProduct"
  bottom: "h_conted_4"
  top: "W_hc_h_4"
  param {
    name: "W_hc"
  }
  inner_product_param {
    num_output: 512
    bias_term: false
    weight_filler {
      type: "xavier"
    }
    axis: 2
  }
}
layer {
  name: "lstm2_gate_input_5"
  type: "Eltwise"
  bottom: "W_hc_h_4"
  bottom: "W_xc_x_5"
  top: "gate_input_5"
  eltwise_param {
    operation: SUM
  }
}
layer {
  name: "lstm2_unit_5"
  type: "LSTMUnit"
  bottom: "c_4"
  bottom: "gate_input_5"
  bottom: "cont_5"
  top: "c_5"
  top: "h_5"
}
layer {
  name: "lstm2_h_conted_5"
  type: "Scale"
  bottom: "h_5"
  bottom: "cont_6"
  top: "h_conted_5"
  scale_param {
    axis: 0
  }
}
layer {
  name: "lstm2_transform_6"
  type: "InnerProduct"
  bottom: "h_conted_5"
  top: "W_hc_h_5"
  param {
    name: "W_hc"
  }
  inner_product_param {
    num_output: 512
    bias_term: false
    weight_filler {
      type: "xavier"
    }
    axis: 2
  }
}
layer {
  name: "lstm2_gate_input_6"
  type: "Eltwise"
  bottom: "W_hc_h_5"
  bottom: "W_xc_x_6"
  top: "gate_input_6"
  eltwise_param {
    operation: SUM
  }
}
layer {
  name: "lstm2_unit_6"
  type: "LSTMUnit"
  bottom: "c_5"
  bottom: "gate_input_6"
  bottom: "cont_6"
  top: "c_6"
  top: "h_6"
}
layer {
  name: "lstm2_h_conted_6"
  type: "Scale"
  bottom: "h_6"
  bottom: "cont_7"
  top: "h_conted_6"
  scale_param {
    axis: 0
  }
}
layer {
  name: "lstm2_transform_7"
  type: "InnerProduct"
  bottom: "h_conted_6"
  top: "W_hc_h_6"
  param {
    name: "W_hc"
  }
  inner_product_param {
    num_output: 512
    bias_term: false
    weight_filler {
      type: "xavier"
    }
    axis: 2
  }
}
layer {
  name: "lstm2_gate_input_7"
  type: "Eltwise"
  bottom: "W_hc_h_6"
  bottom: "W_xc_x_7"
  top: "gate_input_7"
  eltwise_param {
    operation: SUM
  }
}
layer {
  name: "lstm2_unit_7"
  type: "LSTMUnit"
  bottom: "c_6"
  bottom: "gate_input_7"
  bottom: "cont_7"
  top: "c_7"
  top: "h_7"
}
layer {
  name: "lstm2_h_conted_7"
  type: "Scale"
  bottom: "h_7"
  bottom: "cont_8"
  top: "h_conted_7"
  scale_param {
    axis: 0
  }
}
layer {
  name: "lstm2_transform_8"
  type: "InnerProduct"
  bottom: "h_conted_7"
  top: "W_hc_h_7"
  param {
    name: "W_hc"
  }
  inner_product_param {
    num_output: 512
    bias_term: false
    weight_filler {
      type: "xavier"
    }
    axis: 2
  }
}
layer {
  name: "lstm2_gate_input_8"
  type: "Eltwise"
  bottom: "W_hc_h_7"
  bottom: "W_xc_x_8"
  top: "gate_input_8"
  eltwise_param {
    operation: SUM
  }
}
layer {
  name: "lstm2_unit_8"
  type: "LSTMUnit"
  bottom: "c_7"
  bottom: "gate_input_8"
  bottom: "cont_8"
  top: "c_8"
  top: "h_8"
}
layer {
  name: "lstm2_h_conted_8"
  type: "Scale"
  bottom: "h_8"
  bottom: "cont_9"
  top: "h_conted_8"
  scale_param {
    axis: 0
  }
}
layer {
  name: "lstm2_transform_9"
  type: "InnerProduct"
  bottom: "h_conted_8"
  top: "W_hc_h_8"
  param {
    name: "W_hc"
  }
  inner_product_param {
    num_output: 512
    bias_term: false
    weight_filler {
      type: "xavier"
    }
    axis: 2
  }
}
layer {
  name: "lstm2_gate_input_9"
  type: "Eltwise"
  bottom: "W_hc_h_8"
  bottom: "W_xc_x_9"
  top: "gate_input_9"
  eltwise_param {
    operation: SUM
  }
}
layer {
  name: "lstm2_unit_9"
  type: "LSTMUnit"
  bottom: "c_8"
  bottom: "gate_input_9"
  bottom: "cont_9"
  top: "c_9"
  top: "h_9"
}
layer {
  name: "lstm2_h_conted_9"
  type: "Scale"
  bottom: "h_9"
  bottom: "cont_10"
  top: "h_conted_9"
  scale_param {
    axis: 0
  }
}
layer {
  name: "lstm2_transform_10"
  type: "InnerProduct"
  bottom: "h_conted_9"
  top: "W_hc_h_9"
  param {
    name: "W_hc"
  }
  inner_product_param {
    num_output: 512
    bias_term: false
    weight_filler {
      type: "xavier"
    }
    axis: 2
  }
}
layer {
  name: "lstm2_gate_input_10"
  type: "Eltwise"
  bottom: "W_hc_h_9"
  bottom: "W_xc_x_10"
  top: "gate_input_10"
  eltwise_param {
    operation: SUM
  }
}
layer {
  name: "lstm2_unit_10"
  type: "LSTMUnit"
  bottom: "c_9"
  bottom: "gate_input_10"
  bottom: "cont_10"
  top: "c_10"
  top: "h_10"
}
layer {
  name: "lstm2_h_conted_10"
  type: "Scale"
  bottom: "h_10"
  bottom: "cont_11"
  top: "h_conted_10"
  scale_param {
    axis: 0
  }
}
layer {
  name: "lstm2_transform_11"
  type: "InnerProduct"
  bottom: "h_conted_10"
  top: "W_hc_h_10"
  param {
    name: "W_hc"
  }
  inner_product_param {
    num_output: 512
    bias_term: false
    weight_filler {
      type: "xavier"
    }
    axis: 2
  }
}
layer {
  name: "lstm2_gate_input_11"
  type: "Eltwise"
  bottom: "W_hc_h_10"
  bottom: "W_xc_x_11"
  top: "gate_input_11"
  eltwise_param {
    operation: SUM
  }
}
layer {
  name: "lstm2_unit_11"
  type: "LSTMUnit"
  bottom: "c_10"
  bottom: "gate_input_11"
  bottom: "cont_11"
  top: "c_11"
  top: "h_11"
}
layer {
  name: "lstm2_h_conted_11"
  type: "Scale"
  bottom: "h_11"
  bottom: "cont_12"
  top: "h_conted_11"
  scale_param {
    axis: 0
  }
}
layer {
  name: "lstm2_transform_12"
  type: "InnerProduct"
  bottom: "h_conted_11"
  top: "W_hc_h_11"
  param {
    name: "W_hc"
  }
  inner_product_param {
    num_output: 512
    bias_term: false
    weight_filler {
      type: "xavier"
    }
    axis: 2
  }
}
layer {
  name: "lstm2_gate_input_12"
  type: "Eltwise"
  bottom: "W_hc_h_11"
  bottom: "W_xc_x_12"
  top: "gate_input_12"
  eltwise_param {
    operation: SUM
  }
}
layer {
  name: "lstm2_unit_12"
  type: "LSTMUnit"
  bottom: "c_11"
  bottom: "gate_input_12"
  bottom: "cont_12"
  top: "c_12"
  top: "h_12"
}
layer {
  name: "lstm2_h_conted_12"
  type: "Scale"
  bottom: "h_12"
  bottom: "cont_13"
  top: "h_conted_12"
  scale_param {
    axis: 0
  }
}
layer {
  name: "lstm2_transform_13"
  type: "InnerProduct"
  bottom: "h_conted_12"
  top: "W_hc_h_12"
  param {
    name: "W_hc"
  }
  inner_product_param {
    num_output: 512
    bias_term: false
    weight_filler {
      type: "xavier"
    }
    axis: 2
  }
}
layer {
  name: "lstm2_gate_input_13"
  type: "Eltwise"
  bottom: "W_hc_h_12"
  bottom: "W_xc_x_13"
  top: "gate_input_13"
  eltwise_param {
    operation: SUM
  }
}
layer {
  name: "lstm2_unit_13"
  type: "LSTMUnit"
  bottom: "c_12"
  bottom: "gate_input_13"
  bottom: "cont_13"
  top: "c_13"
  top: "h_13"
}
layer {
  name: "lstm2_h_conted_13"
  type: "Scale"
  bottom: "h_13"
  bottom: "cont_14"
  top: "h_conted_13"
  scale_param {
    axis: 0
  }
}
layer {
  name: "lstm2_transform_14"
  type: "InnerProduct"
  bottom: "h_conted_13"
  top: "W_hc_h_13"
  param {
    name: "W_hc"
  }
  inner_product_param {
    num_output: 512
    bias_term: false
    weight_filler {
      type: "xavier"
    }
    axis: 2
  }
}
layer {
  name: "lstm2_gate_input_14"
  type: "Eltwise"
  bottom: "W_hc_h_13"
  bottom: "W_xc_x_14"
  top: "gate_input_14"
  eltwise_param {
    operation: SUM
  }
}
layer {
  name: "lstm2_unit_14"
  type: "LSTMUnit"
  bottom: "c_13"
  bottom: "gate_input_14"
  bottom: "cont_14"
  top: "c_14"
  top: "h_14"
}
layer {
  name: "lstm2_h_conted_14"
  type: "Scale"
  bottom: "h_14"
  bottom: "cont_15"
  top: "h_conted_14"
  scale_param {
    axis: 0
  }
}
layer {
  name: "lstm2_transform_15"
  type: "InnerProduct"
  bottom: "h_conted_14"
  top: "W_hc_h_14"
  param {
    name: "W_hc"
  }
  inner_product_param {
    num_output: 512
    bias_term: false
    weight_filler {
      type: "xavier"
    }
    axis: 2
  }
}
layer {
  name: "lstm2_gate_input_15"
  type: "Eltwise"
  bottom: "W_hc_h_14"
  bottom: "W_xc_x_15"
  top: "gate_input_15"
  eltwise_param {
    operation: SUM
  }
}
layer {
  name: "lstm2_unit_15"
  type: "LSTMUnit"
  bottom: "c_14"
  bottom: "gate_input_15"
  bottom: "cont_15"
  top: "c_15"
  top: "h_15"
}
layer {
  name: "lstm2_h_conted_15"
  type: "Scale"
  bottom: "h_15"
  bottom: "cont_16"
  top: "h_conted_15"
  scale_param {
    axis: 0
  }
}
layer {
  name: "lstm2_transform_16"
  type: "InnerProduct"
  bottom: "h_conted_15"
  top: "W_hc_h_15"
  param {
    name: "W_hc"
  }
  inner_product_param {
    num_output: 512
    bias_term: false
    weight_filler {
      type: "xavier"
    }
    axis: 2
  }
}
layer {
  name: "lstm2_gate_input_16"
  type: "Eltwise"
  bottom: "W_hc_h_15"
  bottom: "W_xc_x_16"
  top: "gate_input_16"
  eltwise_param {
    operation: SUM
  }
}
layer {
  name: "lstm2_unit_16"
  type: "LSTMUnit"
  bottom: "c_15"
  bottom: "gate_input_16"
  bottom: "cont_16"
  top: "c_16"
  top: "h_16"
}
layer {
  name: "lstm2_"
  type: "Split"
  bottom: "c_16"
  top: "c_T"
}
layer {
  name: "lstm2_h_concat"
  type: "Concat"
  bottom: "h_1"
  bottom: "h_2"
  bottom: "h_3"
  bottom: "h_4"
  bottom: "h_5"
  bottom: "h_6"
  bottom: "h_7"
  bottom: "h_8"
  bottom: "h_9"
  bottom: "h_10"
  bottom: "h_11"
  bottom: "h_12"
  bottom: "h_13"
  bottom: "h_14"
  bottom: "h_15"
  bottom: "h_16"
  top: "h"
  concat_param {
    axis: 0
  }
}
layer {
  name: "h_pseudoloss"
  type: "Reduction"
  bottom: "h"
  top: "h_pseudoloss"
  loss_weight: 1
}
I0222 18:02:22.057147 26014 layer_factory.hpp:77] Creating layer lstm2_
I0222 18:02:22.057163 26014 net.cpp:84] Creating Layer lstm2_
I0222 18:02:22.057166 26014 net.cpp:380] lstm2_ -> x
I0222 18:02:22.057175 26014 net.cpp:380] lstm2_ -> cont
I0222 18:02:22.057221 26014 net.cpp:122] Setting up lstm2_
I0222 18:02:22.057227 26014 net.cpp:129] Top shape: 16 26 128 (53248)
I0222 18:02:22.057231 26014 net.cpp:129] Top shape: 16 26 (416)
I0222 18:02:22.057234 26014 net.cpp:137] Memory required for data: 214656
I0222 18:02:22.057236 26014 layer_factory.hpp:77] Creating layer lstm2_
I0222 18:02:22.057240 26014 net.cpp:84] Creating Layer lstm2_
I0222 18:02:22.057243 26014 net.cpp:380] lstm2_ -> c_0
I0222 18:02:22.057248 26014 net.cpp:380] lstm2_ -> h_0
I0222 18:02:22.057270 26014 net.cpp:122] Setting up lstm2_
I0222 18:02:22.057274 26014 net.cpp:129] Top shape: 1 26 128 (3328)
I0222 18:02:22.057277 26014 net.cpp:129] Top shape: 1 26 128 (3328)
I0222 18:02:22.057279 26014 net.cpp:137] Memory required for data: 241280
I0222 18:02:22.057282 26014 layer_factory.hpp:77] Creating layer lstm2_cont_slice
I0222 18:02:22.057287 26014 net.cpp:84] Creating Layer lstm2_cont_slice
I0222 18:02:22.057289 26014 net.cpp:406] lstm2_cont_slice <- cont
I0222 18:02:22.057294 26014 net.cpp:380] lstm2_cont_slice -> cont_1
I0222 18:02:22.057301 26014 net.cpp:380] lstm2_cont_slice -> cont_2
…
