…
I0228 21:28:48.983359 13535 solver.cpp:87] Creating training net from net file: /home/leonida/ThesisCode/LSTM_on_Create2/src/neural_network_planner/NetModels/LSTM/deep_stack-fc_classnet.prototxt
I0228 21:28:48.983549 13535 net.cpp:51] Initializing net from parameters: 
name: "LSTM_stack-fc-3-64"
state {
  phase: TRAIN
}
layer {
  name: "Input"
  type: "Input"
  top: "data"
  top: "clip"
  top: "label"
  input_param {
    shape {
      dim: 16
      dim: 13
      dim: 1
    }
    shape {
      dim: 16
      dim: 13
    }
    shape {
      dim: 16
    }
  }
}
layer {
  name: "lstm1"
  type: "LSTM"
  bottom: "data"
  bottom: "clip"
  top: "lstm1"
  recurrent_param {
    num_output: 8
    weight_filler {
      type: "xavier"
    }
    bias_filler {
      type: "constant"
    }
  }
}
layer {
  name: "out"
  type: "InnerProduct"
  bottom: "lstm1"
  top: "out"
  inner_product_param {
    num_output: 5
    weight_filler {
      type: "gaussian"
      std: 0.1
    }
    bias_filler {
      type: "constant"
    }
  }
}
layer {
  name: "softmax"
  type: "Softmax"
  bottom: "out"
  top: "softmax"
}
layer {
  name: "argmax"
  type: "ArgMax"
  bottom: "softmax"
  top: "argmax"
}
layer {
  name: "accuracy"
  type: "Accuracy"
  bottom: "softmax"
  bottom: "label"
  top: "accuracy"
}
layer {
  name: "softmaxloss"
  type: "SoftmaxWithLoss"
  bottom: "out"
  bottom: "label"
  top: "loss"
}
I0228 21:28:48.983651 13535 layer_factory.hpp:77] Creating layer Input
I0228 21:28:48.983674 13535 net.cpp:84] Creating Layer Input
I0228 21:28:48.983680 13535 net.cpp:380] Input -> data
I0228 21:28:48.983703 13535 net.cpp:380] Input -> clip
I0228 21:28:48.983712 13535 net.cpp:380] Input -> label
I0228 21:28:48.984483 13535 net.cpp:122] Setting up Input
I0228 21:28:48.984508 13535 net.cpp:129] Top shape: 16 13 1 (208)
I0228 21:28:48.984514 13535 net.cpp:129] Top shape: 16 13 (208)
I0228 21:28:48.984519 13535 net.cpp:129] Top shape: 16 (16)
I0228 21:28:48.984522 13535 net.cpp:137] Memory required for data: 1728
I0228 21:28:48.984529 13535 layer_factory.hpp:77] Creating layer label_Input_2_split
I0228 21:28:48.984539 13535 net.cpp:84] Creating Layer label_Input_2_split
I0228 21:28:48.984545 13535 net.cpp:406] label_Input_2_split <- label
I0228 21:28:48.984551 13535 net.cpp:380] label_Input_2_split -> label_Input_2_split_0
I0228 21:28:48.984557 13535 net.cpp:380] label_Input_2_split -> label_Input_2_split_1
I0228 21:28:48.984599 13535 net.cpp:122] Setting up label_Input_2_split
I0228 21:28:48.984606 13535 net.cpp:129] Top shape: 16 (16)
I0228 21:28:48.984611 13535 net.cpp:129] Top shape: 16 (16)
I0228 21:28:48.984614 13535 net.cpp:137] Memory required for data: 1856
I0228 21:28:48.984617 13535 layer_factory.hpp:77] Creating layer lstm1
I0228 21:28:48.984639 13535 net.cpp:84] Creating Layer lstm1
I0228 21:28:48.984643 13535 net.cpp:406] lstm1 <- data
I0228 21:28:48.984647 13535 net.cpp:406] lstm1 <- clip
I0228 21:28:48.984652 13535 net.cpp:380] lstm1 -> lstm1
I0228 21:28:48.984683 13535 recurrent_layer.cpp:20] Initializing recurrent layer: assuming input batch contains 16 timesteps of 13 independent streams.
I0228 21:28:48.985091 13535 net.cpp:51] Initializing net from parameters: 
layer {
  name: "lstm1_"
  type: "Input"
  top: "x"
  top: "cont"
  input_param {
    shape {
      dim: 16
      dim: 13
      dim: 1
    }
    shape {
      dim: 16
      dim: 13
    }
  }
}
layer {
  name: "lstm1_"
  type: "Input"
  top: "c_0"
  top: "h_0"
  input_param {
    shape {
      dim: 1
      dim: 13
      dim: 8
    }
    shape {
      dim: 1
      dim: 13
      dim: 8
    }
  }
}
layer {
  name: "lstm1_cont_slice"
  type: "Slice"
  bottom: "cont"
  top: "cont_1"
  top: "cont_2"
  top: "cont_3"
  top: "cont_4"
  top: "cont_5"
  top: "cont_6"
  top: "cont_7"
  top: "cont_8"
  top: "cont_9"
  top: "cont_10"
  top: "cont_11"
  top: "cont_12"
  top: "cont_13"
  top: "cont_14"
  top: "cont_15"
  top: "cont_16"
  slice_param {
    axis: 0
  }
}
layer {
  name: "lstm1_x_transform"
  type: "InnerProduct"
  bottom: "x"
  top: "W_xc_x"
  param {
    name: "W_xc"
  }
  param {
    name: "b_c"
  }
  propagate_down: true
  inner_product_param {
    num_output: 32
    bias_term: true
    weight_filler {
      type: "xavier"
    }
    bias_filler {
      type: "constant"
    }
    axis: 2
  }
}
layer {
  name: "lstm1_W_xc_x_slice"
  type: "Slice"
  bottom: "W_xc_x"
  top: "W_xc_x_1"
  top: "W_xc_x_2"
  top: "W_xc_x_3"
  top: "W_xc_x_4"
  top: "W_xc_x_5"
  top: "W_xc_x_6"
  top: "W_xc_x_7"
  top: "W_xc_x_8"
  top: "W_xc_x_9"
  top: "W_xc_x_10"
  top: "W_xc_x_11"
  top: "W_xc_x_12"
  top: "W_xc_x_13"
  top: "W_xc_x_14"
  top: "W_xc_x_15"
  top: "W_xc_x_16"
  slice_param {
    axis: 0
  }
}
layer {
  name: "lstm1_h_conted_0"
  type: "Scale"
  bottom: "h_0"
  bottom: "cont_1"
  top: "h_conted_0"
  scale_param {
    axis: 0
  }
}
layer {
  name: "lstm1_transform_1"
  type: "InnerProduct"
  bottom: "h_conted_0"
  top: "W_hc_h_0"
  param {
    name: "W_hc"
  }
  inner_product_param {
    num_output: 32
    bias_term: false
    weight_filler {
      type: "xavier"
    }
    axis: 2
  }
}
layer {
  name: "lstm1_gate_input_1"
  type: "Eltwise"
  bottom: "W_hc_h_0"
  bottom: "W_xc_x_1"
  top: "gate_input_1"
  eltwise_param {
    operation: SUM
  }
}
layer {
  name: "lstm1_unit_1"
  type: "LSTMUnit"
  bottom: "c_0"
  bottom: "gate_input_1"
  bottom: "cont_1"
  top: "c_1"
  top: "h_1"
}
layer {
  name: "lstm1_h_conted_1"
  type: "Scale"
  bottom: "h_1"
  bottom: "cont_2"
  top: "h_conted_1"
  scale_param {
    axis: 0
  }
}
layer {
  name: "lstm1_transform_2"
  type: "InnerProduct"
  bottom: "h_conted_1"
  top: "W_hc_h_1"
  param {
    name: "W_hc"
  }
  inner_product_param {
    num_output: 32
    bias_term: false
    weight_filler {
      type: "xavier"
    }
    axis: 2
  }
}
layer {
  name: "lstm1_gate_input_2"
  type: "Eltwise"
  bottom: "W_hc_h_1"
  bottom: "W_xc_x_2"
  top: "gate_input_2"
  eltwise_param {
    operation: SUM
  }
}
layer {
  name: "lstm1_unit_2"
  type: "LSTMUnit"
  bottom: "c_1"
  bottom: "gate_input_2"
  bottom: "cont_2"
  top: "c_2"
  top: "h_2"
}
layer {
  name: "lstm1_h_conted_2"
  type: "Scale"
  bottom: "h_2"
  bottom: "cont_3"
  top: "h_conted_2"
  scale_param {
    axis: 0
  }
}
layer {
  name: "lstm1_transform_3"
  type: "InnerProduct"
  bottom: "h_conted_2"
  top: "W_hc_h_2"
  param {
    name: "W_hc"
  }
  inner_product_param {
    num_output: 32
    bias_term: false
    weight_filler {
      type: "xavier"
    }
    axis: 2
  }
}
layer {
  name: "lstm1_gate_input_3"
  type: "Eltwise"
  bottom: "W_hc_h_2"
  bottom: "W_xc_x_3"
  top: "gate_input_3"
  eltwise_param {
    operation: SUM
  }
}
layer {
  name: "lstm1_unit_3"
  type: "LSTMUnit"
  bottom: "c_2"
  bottom: "gate_input_3"
  bottom: "cont_3"
  top: "c_3"
  top: "h_3"
}
layer {
  name: "lstm1_h_conted_3"
  type: "Scale"
  bottom: "h_3"
  bottom: "cont_4"
  top: "h_conted_3"
  scale_param {
    axis: 0
  }
}
layer {
  name: "lstm1_transform_4"
  type: "InnerProduct"
  bottom: "h_conted_3"
  top: "W_hc_h_3"
  param {
    name: "W_hc"
  }
  inner_product_param {
    num_output: 32
    bias_term: false
    weight_filler {
      type: "xavier"
    }
    axis: 2
  }
}
layer {
  name: "lstm1_gate_input_4"
  type: "Eltwise"
  bottom: "W_hc_h_3"
  bottom: "W_xc_x_4"
  top: "gate_input_4"
  eltwise_param {
    operation: SUM
  }
}
layer {
  name: "lstm1_unit_4"
  type: "LSTMUnit"
  bottom: "c_3"
  bottom: "gate_input_4"
  bottom: "cont_4"
  top: "c_4"
  top: "h_4"
}
layer {
  name: "lstm1_h_conted_4"
  type: "Scale"
  bottom: "h_4"
  bottom: "cont_5"
  top: "h_conted_4"
  scale_param {
    axis: 0
  }
}
layer {
  name: "lstm1_transform_5"
  type: "InnerProduct"
  bottom: "h_conted_4"
  top: "W_hc_h_4"
  param {
    name: "W_hc"
  }
  inner_product_param {
    num_output: 32
    bias_term: false
    weight_filler {
      type: "xavier"
    }
    axis: 2
  }
}
layer {
  name: "lstm1_gate_input_5"
  type: "Eltwise"
  bottom: "W_hc_h_4"
  bottom: "W_xc_x_5"
  top: "gate_input_5"
  eltwise_param {
    operation: SUM
  }
}
layer {
  name: "lstm1_unit_5"
  type: "LSTMUnit"
  bottom: "c_4"
  bottom: "gate_input_5"
  bottom: "cont_5"
  top: "c_5"
  top: "h_5"
}
layer {
  name: "lstm1_h_conted_5"
  type: "Scale"
  bottom: "h_5"
  bottom: "cont_6"
  top: "h_conted_5"
  scale_param {
    axis: 0
  }
}
layer {
  name: "lstm1_transform_6"
  type: "InnerProduct"
  bottom: "h_conted_5"
  top: "W_hc_h_5"
  param {
    name: "W_hc"
  }
  inner_product_param {
    num_output: 32
    bias_term: false
    weight_filler {
      type: "xavier"
    }
    axis: 2
  }
}
layer {
  name: "lstm1_gate_input_6"
  type: "Eltwise"
  bottom: "W_hc_h_5"
  bottom: "W_xc_x_6"
  top: "gate_input_6"
  eltwise_param {
    operation: SUM
  }
}
layer {
  name: "lstm1_unit_6"
  type: "LSTMUnit"
  bottom: "c_5"
  bottom: "gate_input_6"
  bottom: "cont_6"
  top: "c_6"
  top: "h_6"
}
layer {
  name: "lstm1_h_conted_6"
  type: "Scale"
  bottom: "h_6"
  bottom: "cont_7"
  top: "h_conted_6"
  scale_param {
    axis: 0
  }
}
layer {
  name: "lstm1_transform_7"
  type: "InnerProduct"
  bottom: "h_conted_6"
  top: "W_hc_h_6"
  param {
    name: "W_hc"
  }
  inner_product_param {
    num_output: 32
    bias_term: false
    weight_filler {
      type: "xavier"
    }
    axis: 2
  }
}
layer {
  name: "lstm1_gate_input_7"
  type: "Eltwise"
  bottom: "W_hc_h_6"
  bottom: "W_xc_x_7"
  top: "gate_input_7"
  eltwise_param {
    operation: SUM
  }
}
layer {
  name: "lstm1_unit_7"
  type: "LSTMUnit"
  bottom: "c_6"
  bottom: "gate_input_7"
  bottom: "cont_7"
  top: "c_7"
  top: "h_7"
}
layer {
  name: "lstm1_h_conted_7"
  type: "Scale"
  bottom: "h_7"
  bottom: "cont_8"
  top: "h_conted_7"
  scale_param {
    axis: 0
  }
}
layer {
  name: "lstm1_transform_8"
  type: "InnerProduct"
  bottom: "h_conted_7"
  top: "W_hc_h_7"
  param {
    name: "W_hc"
  }
  inner_product_param {
    num_output: 32
    bias_term: false
    weight_filler {
      type: "xavier"
    }
    axis: 2
  }
}
layer {
  name: "lstm1_gate_input_8"
  type: "Eltwise"
  bottom: "W_hc_h_7"
  bottom: "W_xc_x_8"
  top: "gate_input_8"
  eltwise_param {
    operation: SUM
  }
}
layer {
  name: "lstm1_unit_8"
  type: "LSTMUnit"
  bottom: "c_7"
  bottom: "gate_input_8"
  bottom: "cont_8"
  top: "c_8"
  top: "h_8"
}
layer {
  name: "lstm1_h_conted_8"
  type: "Scale"
  bottom: "h_8"
  bottom: "cont_9"
  top: "h_conted_8"
  scale_param {
    axis: 0
  }
}
layer {
  name: "lstm1_transform_9"
  type: "InnerProduct"
  bottom: "h_conted_8"
  top: "W_hc_h_8"
  param {
    name: "W_hc"
  }
  inner_product_param {
    num_output: 32
    bias_term: false
    weight_filler {
      type: "xavier"
    }
    axis: 2
  }
}
layer {
  name: "lstm1_gate_input_9"
  type: "Eltwise"
  bottom: "W_hc_h_8"
  bottom: "W_xc_x_9"
  top: "gate_input_9"
  eltwise_param {
    operation: SUM
  }
}
layer {
  name: "lstm1_unit_9"
  type: "LSTMUnit"
  bottom: "c_8"
  bottom: "gate_input_9"
  bottom: "cont_9"
  top: "c_9"
  top: "h_9"
}
layer {
  name: "lstm1_h_conted_9"
  type: "Scale"
  bottom: "h_9"
  bottom: "cont_10"
  top: "h_conted_9"
  scale_param {
    axis: 0
  }
}
layer {
  name: "lstm1_transform_10"
  type: "InnerProduct"
  bottom: "h_conted_9"
  top: "W_hc_h_9"
  param {
    name: "W_hc"
  }
  inner_product_param {
    num_output: 32
    bias_term: false
    weight_filler {
      type: "xavier"
    }
    axis: 2
  }
}
layer {
  name: "lstm1_gate_input_10"
  type: "Eltwise"
  bottom: "W_hc_h_9"
  bottom: "W_xc_x_10"
  top: "gate_input_10"
  eltwise_param {
    operation: SUM
  }
}
layer {
  name: "lstm1_unit_10"
  type: "LSTMUnit"
  bottom: "c_9"
  bottom: "gate_input_10"
  bottom: "cont_10"
  top: "c_10"
  top: "h_10"
}
layer {
  name: "lstm1_h_conted_10"
  type: "Scale"
  bottom: "h_10"
  bottom: "cont_11"
  top: "h_conted_10"
  scale_param {
    axis: 0
  }
}
layer {
  name: "lstm1_transform_11"
  type: "InnerProduct"
  bottom: "h_conted_10"
  top: "W_hc_h_10"
  param {
    name: "W_hc"
  }
  inner_product_param {
    num_output: 32
    bias_term: false
    weight_filler {
      type: "xavier"
    }
    axis: 2
  }
}
layer {
  name: "lstm1_gate_input_11"
  type: "Eltwise"
  bottom: "W_hc_h_10"
  bottom: "W_xc_x_11"
  top: "gate_input_11"
  eltwise_param {
    operation: SUM
  }
}
layer {
  name: "lstm1_unit_11"
  type: "LSTMUnit"
  bottom: "c_10"
  bottom: "gate_input_11"
  bottom: "cont_11"
  top: "c_11"
  top: "h_11"
}
layer {
  name: "lstm1_h_conted_11"
  type: "Scale"
  bottom: "h_11"
  bottom: "cont_12"
  top: "h_conted_11"
  scale_param {
    axis: 0
  }
}
layer {
  name: "lstm1_transform_12"
  type: "InnerProduct"
  bottom: "h_conted_11"
  top: "W_hc_h_11"
  param {
    name: "W_hc"
  }
  inner_product_param {
    num_output: 32
    bias_term: false
    weight_filler {
      type: "xavier"
    }
    axis: 2
  }
}
layer {
  name: "lstm1_gate_input_12"
  type: "Eltwise"
  bottom: "W_hc_h_11"
  bottom: "W_xc_x_12"
  top: "gate_input_12"
  eltwise_param {
    operation: SUM
  }
}
layer {
  name: "lstm1_unit_12"
  type: "LSTMUnit"
  bottom: "c_11"
  bottom: "gate_input_12"
  bottom: "cont_12"
  top: "c_12"
  top: "h_12"
}
layer {
  name: "lstm1_h_conted_12"
  type: "Scale"
  bottom: "h_12"
  bottom: "cont_13"
  top: "h_conted_12"
  scale_param {
    axis: 0
  }
}
layer {
  name: "lstm1_transform_13"
  type: "InnerProduct"
  bottom: "h_conted_12"
  top: "W_hc_h_12"
  param {
    name: "W_hc"
  }
  inner_product_param {
    num_output: 32
    bias_term: false
    weight_filler {
      type: "xavier"
    }
    axis: 2
  }
}
layer {
  name: "lstm1_gate_input_13"
  type: "Eltwise"
  bottom: "W_hc_h_12"
  bottom: "W_xc_x_13"
  top: "gate_input_13"
  eltwise_param {
    operation: SUM
  }
}
layer {
  name: "lstm1_unit_13"
  type: "LSTMUnit"
  bottom: "c_12"
  bottom: "gate_input_13"
  bottom: "cont_13"
  top: "c_13"
  top: "h_13"
}
layer {
  name: "lstm1_h_conted_13"
  type: "Scale"
  bottom: "h_13"
  bottom: "cont_14"
  top: "h_conted_13"
  scale_param {
    axis: 0
  }
}
layer {
  name: "lstm1_transform_14"
  type: "InnerProduct"
  bottom: "h_conted_13"
  top: "W_hc_h_13"
  param {
    name: "W_hc"
  }
  inner_product_param {
    num_output: 32
    bias_term: false
    weight_filler {
      type: "xavier"
    }
    axis: 2
  }
}
layer {
  name: "lstm1_gate_input_14"
  type: "Eltwise"
  bottom: "W_hc_h_13"
  bottom: "W_xc_x_14"
  top: "gate_input_14"
  eltwise_param {
    operation: SUM
  }
}
layer {
  name: "lstm1_unit_14"
  type: "LSTMUnit"
  bottom: "c_13"
  bottom: "gate_input_14"
  bottom: "cont_14"
  top: "c_14"
  top: "h_14"
}
layer {
  name: "lstm1_h_conted_14"
  type: "Scale"
  bottom: "h_14"
  bottom: "cont_15"
  top: "h_conted_14"
  scale_param {
    axis: 0
  }
}
layer {
  name: "lstm1_transform_15"
  type: "InnerProduct"
  bottom: "h_conted_14"
  top: "W_hc_h_14"
  param {
    name: "W_hc"
  }
  inner_product_param {
    num_output: 32
    bias_term: false
    weight_filler {
      type: "xavier"
    }
    axis: 2
  }
}
layer {
  name: "lstm1_gate_input_15"
  type: "Eltwise"
  bottom: "W_hc_h_14"
  bottom: "W_xc_x_15"
  top: "gate_input_15"
  eltwise_param {
    operation: SUM
  }
}
layer {
  name: "lstm1_unit_15"
  type: "LSTMUnit"
  bottom: "c_14"
  bottom: "gate_input_15"
  bottom: "cont_15"
  top: "c_15"
  top: "h_15"
}
layer {
  name: "lstm1_h_conted_15"
  type: "Scale"
  bottom: "h_15"
  bottom: "cont_16"
  top: "h_conted_15"
  scale_param {
    axis: 0
  }
}
layer {
  name: "lstm1_transform_16"
  type: "InnerProduct"
  bottom: "h_conted_15"
  top: "W_hc_h_15"
  param {
    name: "W_hc"
  }
  inner_product_param {
    num_output: 32
    bias_term: false
    weight_filler {
      type: "xavier"
    }
    axis: 2
  }
}
layer {
  name: "lstm1_gate_input_16"
  type: "Eltwise"
  bottom: "W_hc_h_15"
  bottom: "W_xc_x_16"
  top: "gate_input_16"
  eltwise_param {
    operation: SUM
  }
}
layer {
  name: "lstm1_unit_16"
  type: "LSTMUnit"
  bottom: "c_15"
  bottom: "gate_input_16"
  bottom: "cont_16"
  top: "c_16"
  top: "h_16"
}
layer {
  name: "lstm1_"
  type: "Split"
  bottom: "c_16"
  top: "c_T"
}
layer {
  name: "lstm1_h_concat"
  type: "Concat"
  bottom: "h_1"
  bottom: "h_2"
  bottom: "h_3"
  bottom: "h_4"
  bottom: "h_5"
  bottom: "h_6"
  bottom: "h_7"
  bottom: "h_8"
  bottom: "h_9"
  bottom: "h_10"
  bottom: "h_11"
  bottom: "h_12"
  bottom: "h_13"
  bottom: "h_14"
  bottom: "h_15"
  bottom: "h_16"
  top: "h"
  concat_param {
    axis: 0
  }
}
layer {
  name: "h_pseudoloss"
  type: "Reduction"
  bottom: "h"
  top: "h_pseudoloss"
  loss_weight: 1
}
I0228 21:28:48.985752 13535 layer_factory.hpp:77] Creating layer lstm1_
I0228 21:28:48.985762 13535 net.cpp:84] Creating Layer lstm1_
I0228 21:28:48.985767 13535 net.cpp:380] lstm1_ -> x
I0228 21:28:48.985776 13535 net.cpp:380] lstm1_ -> cont
I0228 21:28:48.985805 13535 net.cpp:122] Setting up lstm1_
I0228 21:28:48.985812 13535 net.cpp:129] Top shape: 16 13 1 (208)
I0228 21:28:48.985816 13535 net.cpp:129] Top shape: 16 13 (208)
I0228 21:28:48.985821 13535 net.cpp:137] Memory required for data: 1664
I0228 21:28:48.985823 13535 layer_factory.hpp:77] Creating layer lstm1_
I0228 21:28:48.985828 13535 net.cpp:84] Creating Layer lstm1_
I0228 21:28:48.985832 13535 net.cpp:380] lstm1_ -> c_0
I0228 21:28:48.985838 13535 net.cpp:380] lstm1_ -> h_0
I0228 21:28:48.985857 13535 net.cpp:122] Setting up lstm1_
I0228 21:28:48.985863 13535 net.cpp:129] Top shape: 1 13 8 (104)
I0228 21:28:48.985868 13535 net.cpp:129] Top shape: 1 13 8 (104)
I0228 21:28:48.985872 13535 net.cpp:137] Memory required for data: 2496
I0228 21:28:48.985874 13535 layer_factory.hpp:77] Creating layer lstm1_cont_slice
I0228 21:28:48.985883 13535 net.cpp:84] Creating Layer lstm1_cont_slice
I0228 21:28:48.985888 13535 net.cpp:406] lstm1_cont_slice <- cont
I0228 21:28:48.985894 13535 net.cpp:380] lstm1_cont_slice -> cont_1
I0228 21:28:48.985900 13535 net.cpp:380] lstm1_cont_slice -> cont_2
…
I0228 21:28:48.985950 13535 net.cpp:380] lstm1_cont_slice -> cont_9
I0228 21:28:48.985956 13535 net.cpp:380] lstm1_cont_slice -> cont_10
I0228 21:28:48.985961 13535 net.cpp:380] lstm1_cont_slice -> cont_11
I0228 21:28:48.985966 13535 net.cpp:380] lstm1_cont_slice -> cont_12
I0228 21:28:48.985971 13535 net.cpp:380] lstm1_cont_slice -> cont_13
I0228 21:28:48.985980 13535 net.cpp:380] lstm1_cont_slice -> cont_14
I0228 21:28:48.985985 13535 net.cpp:380] lstm1_cont_slice -> cont_15
I0228 21:28:48.985988 13535 net.cpp:380] lstm1_cont_slice -> cont_16
I0228 21:28:48.986088 13535 net.cpp:122] Setting up lstm1_cont_slice
I0228 21:28:48.986094 13535 net.cpp:129] Top shape: 1 13 (13)
I0228 21:28:48.986099 13535 net.cpp:129] Top shape: 1 13 (13)
I0228 21:28:48.986102 13535 net.cpp:129] Top shape: 1 13 (13)
I0228 21:28:48.986106 13535 net.cpp:129] Top shape: 1 13 (13)
I0228 21:28:48.986110 13535 net.cpp:129] Top shape: 1 13 (13)
I0228 21:28:48.986114 13535 net.cpp:129] Top shape: 1 13 (13)
I0228 21:28:48.986117 13535 net.cpp:129] Top shape: 1 13 (13)
I0228 21:28:48.986120 13535 net.cpp:129] Top shape: 1 13 (13)
I0228 21:28:48.986124 13535 net.cpp:129] Top shape: 1 13 (13)
I0228 21:28:48.986127 13535 net.cpp:129] Top shape: 1 13 (13)
I0228 21:28:48.986131 13535 net.cpp:129] Top shape: 1 13 (13)
I0228 21:28:48.986141 13535 net.cpp:129] Top shape: 1 13 (13)
I0228 21:28:48.986145 13535 net.cpp:129] Top shape: 1 13 (13)
I0228 21:28:48.986150 13535 net.cpp:129] Top shape: 1 13 (13)
I0228 21:28:48.986153 13535 net.cpp:129] Top shape: 1 13 (13)
I0228 21:28:48.986156 13535 net.cpp:129] Top shape: 1 13 (13)
I0228 21:28:48.986160 13535 net.cpp:137] Memory required for data: 3328
I0228 21:28:48.986162 13535 layer_factory.hpp:77] Creating layer cont_1_lstm1_cont_slice_0_split
I0228 21:28:48.986167 13535 net.cpp:84] Creating Layer cont_1_lstm1_cont_slice_0_split
I0228 21:28:48.986171 13535 net.cpp:406] cont_1_lstm1_cont_slice_0_split <- cont_1
I0228 21:28:48.986176 13535 net.cpp:380] cont_1_lstm1_cont_slice_0_split -> cont_1_lstm1_cont_slice_0_split_0
I0228 21:28:48.986181 13535 net.cpp:380] cont_1_lstm1_cont_slice_0_split -> cont_1_lstm1_cont_slice_0_split_1
I0228 21:28:48.986199 13535 net.cpp:122] Setting up cont_1_lstm1_cont_slice_0_split
I0228 21:28:48.986205 13535 net.cpp:129] Top shape: 1 13 (13)
I0228 21:28:48.986209 13535 net.cpp:129] Top shape: 1 13 (13)
I0228 21:28:48.986213 13535 net.cpp:137] Memory required for data: 3432
I0228 21:28:48.986217 13535 layer_factory.hpp:77] Creating layer cont_2_lstm1_cont_slice_1_split
I0228 21:28:48.986223 13535 net.cpp:84] Creating Layer cont_2_lstm1_cont_slice_1_split
I0228 21:28:48.986227 13535 net.cpp:406] cont_2_lstm1_cont_slice_1_split <- cont_2
I0228 21:28:48.986232 13535 net.cpp:380] cont_2_lstm1_cont_slice_1_split -> cont_2_lstm1_cont_slice_1_split_0
I0228 21:28:48.986238 13535 net.cpp:380] cont_2_lstm1_cont_slice_1_split -> cont_2_lstm1_cont_slice_1_split_1
I0228 21:28:48.986255 13535 net.cpp:122] Setting up cont_2_lstm1_cont_slice_1_split
I0228 21:28:48.986261 13535 net.cpp:129] Top shape: 1 13 (13)
I0228 21:28:48.986265 13535 net.cpp:129] Top shape: 1 13 (13)
I0228 21:28:48.986268 13535 net.cpp:137] Memory required for data: 3536
I0228 21:28:48.986271 13535 layer_factory.hpp:77] Creating layer cont_3_lstm1_cont_slice_2_split
I0228 21:28:48.986275 13535 net.cpp:84] Creating Layer cont_3_lstm1_cont_slice_2_split
I0228 21:28:48.986279 13535 net.cpp:406] cont_3_lstm1_cont_slice_2_split <- cont_3
I0228 21:28:48.986282 13535 net.cpp:380] cont_3_lstm1_cont_slice_2_split -> cont_3_lstm1_cont_slice_2_split_0
I0228 21:28:48.986286 13535 net.cpp:380] cont_3_lstm1_cont_slice_2_split -> cont_3_lstm1_cont_slice_2_split_1
I0228 21:28:48.986304 13535 net.cpp:122] Setting up cont_3_lstm1_cont_slice_2_split
I0228 21:28:48.986310 13535 net.cpp:129] Top shape: 1 13 (13)
I0228 21:28:48.986313 13535 net.cpp:129] Top shape: 1 13 (13)
I0228 21:28:48.986316 13535 net.cpp:137] Memory required for data: 3640
I0228 21:28:48.986320 13535 layer_factory.hpp:77] Creating layer cont_4_lstm1_cont_slice_3_split
I0228 21:28:48.986323 13535 net.cpp:84] Creating Layer cont_4_lstm1_cont_slice_3_split
I0228 21:28:48.986326 13535 net.cpp:406] cont_4_lstm1_cont_slice_3_split <- cont_4
I0228 21:28:48.986331 13535 net.cpp:380] cont_4_lstm1_cont_slice_3_split -> cont_4_lstm1_cont_slice_3_split_0
I0228 21:28:48.986336 13535 net.cpp:380] cont_4_lstm1_cont_slice_3_split -> cont_4_lstm1_cont_slice_3_split_1
I0228 21:28:48.986354 13535 net.cpp:122] Setting up cont_4_lstm1_cont_slice_3_split
I0228 21:28:48.986359 13535 net.cpp:129] Top shape: 1 13 (13)
I0228 21:28:48.986362 13535 net.cpp:129] Top shape: 1 13 (13)
I0228 21:28:48.986366 13535 net.cpp:137] Memory required for data: 3744
I0228 21:28:48.986368 13535 layer_factory.hpp:77] Creating layer cont_5_lstm1_cont_slice_4_split
I0228 21:28:48.986373 13535 net.cpp:84] Creating Layer cont_5_lstm1_cont_slice_4_split
I0228 21:28:48.986377 13535 net.cpp:406] cont_5_lstm1_cont_slice_4_split <- cont_5
I0228 21:28:48.986380 13535 net.cpp:380] cont_5_lstm1_cont_slice_4_split -> cont_5_lstm1_cont_slice_4_split_0
I0228 21:28:48.986385 13535 net.cpp:380] cont_5_lstm1_cont_slice_4_split -> cont_5_lstm1_cont_slice_4_split_1
I0228 21:28:48.986405 13535 net.cpp:122] Setting up cont_5_lstm1_cont_slice_4_split
I0228 21:28:48.986410 13535 net.cpp:129] Top shape: 1 13 (13)
I0228 21:28:48.986418 13535 net.cpp:129] Top shape: 1 13 (13)
I0228 21:28:48.986423 13535 net.cpp:137] Memory required for data: 3848
I0228 21:28:48.986425 13535 layer_factory.hpp:77] Creating layer cont_6_lstm1_cont_slice_5_split
I0228 21:28:48.986430 13535 net.cpp:84] Creating Layer cont_6_lstm1_cont_slice_5_split
I0228 21:28:48.986434 13535 net.cpp:406] cont_6_lstm1_cont_slice_5_split <- cont_6
I0228 21:28:48.986438 13535 net.cpp:380] cont_6_lstm1_cont_slice_5_split -> cont_6_lstm1_cont_slice_5_split_0
I0228 21:28:48.986443 13535 net.cpp:380] cont_6_lstm1_cont_slice_5_split -> cont_6_lstm1_cont_slice_5_split_1
I0228 21:28:48.986461 13535 net.cpp:122] Setting up cont_6_lstm1_cont_slice_5_split
I0228 21:28:48.986466 13535 net.cpp:129] Top shape: 1 13 (13)
I0228 21:28:48.986470 13535 net.cpp:129] Top shape: 1 13 (13)
I0228 21:28:48.986474 13535 net.cpp:137] Memory required for data: 3952
I0228 21:28:48.986476 13535 layer_factory.hpp:77] Creating layer cont_7_lstm1_cont_slice_6_split
I0228 21:28:48.986479 13535 net.cpp:84] Creating Layer cont_7_lstm1_cont_slice_6_split
I0228 21:28:48.986483 13535 net.cpp:406] cont_7_lstm1_cont_slice_6_split <- cont_7
I0228 21:28:48.988029 13535 net.cpp:380] cont_7_lstm1_cont_slice_6_split -> cont_7_lstm1_cont_slice_6_split_0
I0228 21:28:48.988049 13535 net.cpp:380] cont_7_lstm1_cont_slice_6_split -> cont_7_lstm1_cont_slice_6_split_1
I0228 21:28:48.988087 13535 net.cpp:122] Setting up cont_7_lstm1_cont_slice_6_split
I0228 21:28:48.988178 13535 net.cpp:129] Top shape: 1 13 (13)
I0228 21:28:48.988185 13535 net.cpp:129] Top shape: 1 13 (13)
I0228 21:28:48.988189 13535 net.cpp:137] Memory required for data: 4056
I0228 21:28:48.988193 13535 layer_factory.hpp:77] Creating layer cont_8_lstm1_cont_slice_7_split
I0228 21:28:48.988199 13535 net.cpp:84] Creating Layer cont_8_lstm1_cont_slice_7_split
I0228 21:28:48.988204 13535 net.cpp:406] cont_8_lstm1_cont_slice_7_split <- cont_8
I0228 21:28:48.988209 13535 net.cpp:380] cont_8_lstm1_cont_slice_7_split -> cont_8_lstm1_cont_slice_7_split_0
I0228 21:28:48.988229 13535 net.cpp:380] cont_8_lstm1_cont_slice_7_split -> cont_8_lstm1_cont_slice_7_split_1
I0228 21:28:48.988252 13535 net.cpp:122] Setting up cont_8_lstm1_cont_slice_7_split
I0228 21:28:48.988258 13535 net.cpp:129] Top shape: 1 13 (13)
I0228 21:28:48.988263 13535 net.cpp:129] Top shape: 1 13 (13)
I0228 21:28:48.988266 13535 net.cpp:137] Memory required for data: 4160
I0228 21:28:48.988270 13535 layer_factory.hpp:77] Creating layer cont_9_lstm1_cont_slice_8_split
I0228 21:28:48.988274 13535 net.cpp:84] Creating Layer cont_9_lstm1_cont_slice_8_split
I0228 21:28:48.988278 13535 net.cpp:406] cont_9_lstm1_cont_slice_8_split <- cont_9
I0228 21:28:48.988282 13535 net.cpp:380] cont_9_lstm1_cont_slice_8_split -> cont_9_lstm1_cont_slice_8_split_0
I0228 21:28:48.988288 13535 net.cpp:380] cont_9_lstm1_cont_slice_8_split -> cont_9_lstm1_cont_slice_8_split_1
I0228 21:28:48.988307 13535 net.cpp:122] Setting up cont_9_lstm1_cont_slice_8_split
I0228 21:28:48.988313 13535 net.cpp:129] Top shape: 1 13 (13)
I0228 21:28:48.988317 13535 net.cpp:129] Top shape: 1 13 (13)
I0228 21:28:48.988322 13535 net.cpp:137] Memory required for data: 4264
I0228 21:28:48.988324 13535 layer_factory.hpp:77] Creating layer cont_10_lstm1_cont_slice_9_split
I0228 21:28:48.988328 13535 net.cpp:84] Creating Layer cont_10_lstm1_cont_slice_9_split
I0228 21:28:48.988332 13535 net.cpp:406] cont_10_lstm1_cont_slice_9_split <- cont_10
I0228 21:28:48.988338 13535 net.cpp:380] cont_10_lstm1_cont_slice_9_split -> cont_10_lstm1_cont_slice_9_split_0
I0228 21:28:48.988343 13535 net.cpp:380] cont_10_lstm1_cont_slice_9_split -> cont_10_lstm1_cont_slice_9_split_1
I0228 21:28:48.988361 13535 net.cpp:122] Setting up cont_10_lstm1_cont_slice_9_split
I0228 21:28:48.988368 13535 net.cpp:129] Top shape: 1 13 (13)
I0228 21:28:48.988373 13535 net.cpp:129] Top shape: 1 13 (13)
I0228 21:28:48.988375 13535 net.cpp:137] Memory required for data: 4368
I0228 21:28:48.988379 13535 layer_factory.hpp:77] Creating layer cont_11_lstm1_cont_slice_10_split
I0228 21:28:48.988392 13535 net.cpp:84] Creating Layer cont_11_lstm1_cont_slice_10_split
I0228 21:28:48.988396 13535 net.cpp:406] cont_11_lstm1_cont_slice_10_split <- cont_11
I0228 21:28:48.988400 13535 net.cpp:380] cont_11_lstm1_cont_slice_10_split -> cont_11_lstm1_cont_slice_10_split_0
I0228 21:28:48.988406 13535 net.cpp:380] cont_11_lstm1_cont_slice_10_split -> cont_11_lstm1_cont_slice_10_split_1
I0228 21:28:48.988426 13535 net.cpp:122] Setting up cont_11_lstm1_cont_slice_10_split
I0228 21:28:48.988432 13535 net.cpp:129] Top shape: 1 13 (13)
I0228 21:28:48.988436 13535 net.cpp:129] Top shape: 1 13 (13)
I0228 21:28:48.988440 13535 net.cpp:137] Memory required for data: 4472
I0228 21:28:48.988443 13535 layer_factory.hpp:77] Creating layer cont_12_lstm1_cont_slice_11_split
I0228 21:28:48.988447 13535 net.cpp:84] Creating Layer cont_12_lstm1_cont_slice_11_split
I0228 21:28:48.988451 13535 net.cpp:406] cont_12_lstm1_cont_slice_11_split <- cont_12
I0228 21:28:48.988456 13535 net.cpp:380] cont_12_lstm1_cont_slice_11_split -> cont_12_lstm1_cont_slice_11_split_0
I0228 21:28:48.988462 13535 net.cpp:380] cont_12_lstm1_cont_slice_11_split -> cont_12_lstm1_cont_slice_11_split_1
I0228 21:28:48.988495 13535 net.cpp:122] Setting up cont_12_lstm1_cont_slice_11_split
I0228 21:28:48.988500 13535 net.cpp:129] Top shape: 1 13 (13)
I0228 21:28:48.988504 13535 net.cpp:129] Top shape: 1 13 (13)
I0228 21:28:48.988507 13535 net.cpp:137] Memory required for data: 4576
I0228 21:28:48.988510 13535 layer_factory.hpp:77] Creating layer cont_13_lstm1_cont_slice_12_split
I0228 21:28:48.988514 13535 net.cpp:84] Creating Layer cont_13_lstm1_cont_slice_12_split
I0228 21:28:48.988517 13535 net.cpp:406] cont_13_lstm1_cont_slice_12_split <- cont_13
I0228 21:28:48.988523 13535 net.cpp:380] cont_13_lstm1_cont_slice_12_split -> cont_13_lstm1_cont_slice_12_split_0
I0228 21:28:48.988528 13535 net.cpp:380] cont_13_lstm1_cont_slice_12_split -> cont_13_lstm1_cont_slice_12_split_1
I0228 21:28:48.988543 13535 net.cpp:122] Setting up cont_13_lstm1_cont_slice_12_split
I0228 21:28:48.988548 13535 net.cpp:129] Top shape: 1 13 (13)
I0228 21:28:48.988551 13535 net.cpp:129] Top shape: 1 13 (13)
I0228 21:28:48.988554 13535 net.cpp:137] Memory required for data: 4680
I0228 21:28:48.988557 13535 layer_factory.hpp:77] Creating layer cont_14_lstm1_cont_slice_13_split
I0228 21:28:48.988564 13535 net.cpp:84] Creating Layer cont_14_lstm1_cont_slice_13_split
I0228 21:28:48.988569 13535 net.cpp:406] cont_14_lstm1_cont_slice_13_split <- cont_14
I0228 21:28:48.988572 13535 net.cpp:380] cont_14_lstm1_cont_slice_13_split -> cont_14_lstm1_cont_slice_13_split_0
I0228 21:28:48.988577 13535 net.cpp:380] cont_14_lstm1_cont_slice_13_split -> cont_14_lstm1_cont_slice_13_split_1
I0228 21:28:48.988593 13535 net.cpp:122] Setting up cont_14_lstm1_cont_slice_13_split
I0228 21:28:48.988598 13535 net.cpp:129] Top shape: 1 13 (13)
I0228 21:28:48.988602 13535 net.cpp:129] Top shape: 1 13 (13)
I0228 21:28:48.988605 13535 net.cpp:137] Memory required for data: 4784
I0228 21:28:48.988608 13535 layer_factory.hpp:77] Creating layer cont_15_lstm1_cont_slice_14_split
I0228 21:28:48.988612 13535 net.cpp:84] Creating Layer cont_15_lstm1_cont_slice_14_split
I0228 21:28:48.988615 13535 net.cpp:406] cont_15_lstm1_cont_slice_14_split <- cont_15
I0228 21:28:48.988620 13535 net.cpp:380] cont_15_lstm1_cont_slice_14_split -> cont_15_lstm1_cont_slice_14_split_0
I0228 21:28:48.988626 13535 net.cpp:380] cont_15_lstm1_cont_slice_14_split -> cont_15_lstm1_cont_slice_14_split_1
I0228 21:28:48.988646 13535 net.cpp:122] Setting up cont_15_lstm1_cont_slice_14_split
I0228 21:28:48.988651 13535 net.cpp:129] Top shape: 1 13 (13)
I0228 21:28:48.988654 13535 net.cpp:129] Top shape: 1 13 (13)
I0228 21:28:48.988656 13535 net.cpp:137] Memory required for data: 4888
I0228 21:28:48.988659 13535 layer_factory.hpp:77] Creating layer cont_16_lstm1_cont_slice_15_split
I0228 21:28:48.988663 13535 net.cpp:84] Creating Layer cont_16_lstm1_cont_slice_15_split
I0228 21:28:48.988667 13535 net.cpp:406] cont_16_lstm1_cont_slice_15_split <- cont_16
I0228 21:28:48.988677 13535 net.cpp:380] cont_16_lstm1_cont_slice_15_split -> cont_16_lstm1_cont_slice_15_split_0
I0228 21:28:48.988682 13535 net.cpp:380] cont_16_lstm1_cont_slice_15_split -> cont_16_lstm1_cont_slice_15_split_1
I0228 21:28:48.988698 13535 net.cpp:122] Setting up cont_16_lstm1_cont_slice_15_split
I0228 21:28:48.988703 13535 net.cpp:129] Top shape: 1 13 (13)
I0228 21:28:48.988706 13535 net.cpp:129] Top shape: 1 13 (13)
I0228 21:28:48.988709 13535 net.cpp:137] Memory required for data: 4992
I0228 21:28:48.988713 13535 layer_factory.hpp:77] Creating layer lstm1_x_transform
I0228 21:28:48.988724 13535 net.cpp:84] Creating Layer lstm1_x_transform
I0228 21:28:48.988728 13535 net.cpp:406] lstm1_x_transform <- x
I0228 21:28:48.988732 13535 net.cpp:380] lstm1_x_transform -> W_xc_x
I0228 21:28:48.989172 13535 net.cpp:122] Setting up lstm1_x_transform
I0228 21:28:49.001459 13535 net.cpp:129] Top shape: 16 13 32 (6656)
I0228 21:28:49.001469 13535 net.cpp:137] Memory required for data: 31616
I0228 21:28:49.001492 13535 layer_factory.hpp:77] Creating layer lstm1_W_xc_x_slice
I0228 21:28:49.001502 13535 net.cpp:84] Creating Layer lstm1_W_xc_x_slice
I0228 21:28:49.001505 13535 net.cpp:406] lstm1_W_xc_x_slice <- W_xc_x
I0228 21:28:49.001511 13535 net.cpp:380] lstm1_W_xc_x_slice -> W_xc_x_1
I0228 21:28:49.001518 13535 net.cpp:380] lstm1_W_xc_x_slice -> W_xc_x_2
…
I0228 21:28:49.001557 13535 net.cpp:380] lstm1_W_xc_x_slice -> W_xc_x_10
I0228 21:28:49.001562 13535 net.cpp:380] lstm1_W_xc_x_slice -> W_xc_x_11
I0228 21:28:49.001566 13535 net.cpp:380] lstm1_W_xc_x_slice -> W_xc_x_12
I0228 21:28:49.001577 13535 net.cpp:380] lstm1_W_xc_x_slice -> W_xc_x_13
I0228 21:28:49.001582 13535 net.cpp:380] lstm1_W_xc_x_slice -> W_xc_x_14
I0228 21:28:49.001587 13535 net.cpp:380] lstm1_W_xc_x_slice -> W_xc_x_15
I0228 21:28:49.001592 13535 net.cpp:380] lstm1_W_xc_x_slice -> W_xc_x_16
I0228 21:28:49.001710 13535 net.cpp:122] Setting up lstm1_W_xc_x_slice
I0228 21:28:49.001716 13535 net.cpp:129] Top shape: 1 13 32 (416)
I0228 21:28:49.001720 13535 net.cpp:129] Top shape: 1 13 32 (416)
I0228 21:28:49.001724 13535 net.cpp:129] Top shape: 1 13 32 (416)
I0228 21:28:49.001727 13535 net.cpp:129] Top shape: 1 13 32 (416)
I0228 21:28:49.001731 13535 net.cpp:129] Top shape: 1 13 32 (416)
I0228 21:28:49.001734 13535 net.cpp:129] Top shape: 1 13 32 (416)
I0228 21:28:49.001739 13535 net.cpp:129] Top shape: 1 13 32 (416)
I0228 21:28:49.001742 13535 net.cpp:129] Top shape: 1 13 32 (416)
I0228 21:28:49.001745 13535 net.cpp:129] Top shape: 1 13 32 (416)
I0228 21:28:49.001749 13535 net.cpp:129] Top shape: 1 13 32 (416)
I0228 21:28:49.001752 13535 net.cpp:129] Top shape: 1 13 32 (416)
I0228 21:28:49.001757 13535 net.cpp:129] Top shape: 1 13 32 (416)
I0228 21:28:49.001760 13535 net.cpp:129] Top shape: 1 13 32 (416)
I0228 21:28:49.001765 13535 net.cpp:129] Top shape: 1 13 32 (416)
I0228 21:28:49.001767 13535 net.cpp:129] Top shape: 1 13 32 (416)
I0228 21:28:49.001771 13535 net.cpp:129] Top shape: 1 13 32 (416)
I0228 21:28:49.001775 13535 net.cpp:137] Memory required for data: 58240
I0228 21:28:49.001777 13535 layer_factory.hpp:77] Creating layer lstm1_h_conted_0
I0228 21:28:49.001782 13535 net.cpp:84] Creating Layer lstm1_h_conted_0
I0228 21:28:49.001786 13535 net.cpp:406] lstm1_h_conted_0 <- h_0
I0228 21:28:49.001791 13535 net.cpp:406] lstm1_h_conted_0 <- cont_1_lstm1_cont_slice_0_split_0
I0228 21:28:49.001796 13535 net.cpp:380] lstm1_h_conted_0 -> h_conted_0
I0228 21:28:49.001834 13535 net.cpp:122] Setting up lstm1_h_conted_0
I0228 21:28:49.001840 13535 net.cpp:129] Top shape: 1 13 8 (104)
I0228 21:28:49.001852 13535 net.cpp:137] Memory required for data: 58656
I0228 21:28:49.001855 13535 layer_factory.hpp:77] Creating layer lstm1_transform_1
I0228 21:28:49.001863 13535 net.cpp:84] Creating Layer lstm1_transform_1
I0228 21:28:49.001866 13535 net.cpp:406] lstm1_transform_1 <- h_conted_0
I0228 21:28:49.001870 13535 net.cpp:380] lstm1_transform_1 -> W_hc_h_0
I0228 21:28:49.001917 13535 net.cpp:122] Setting up lstm1_transform_1
I0228 21:28:49.001924 13535 net.cpp:129] Top shape: 1 13 32 (416)
I0228 21:28:49.001926 13535 net.cpp:137] Memory required for data: 60320
I0228 21:28:49.001932 13535 layer_factory.hpp:77] Creating layer lstm1_gate_input_1
I0228 21:28:49.001946 13535 net.cpp:84] Creating Layer lstm1_gate_input_1
I0228 21:28:49.001953 13535 net.cpp:406] lstm1_gate_input_1 <- W_hc_h_0
I0228 21:28:49.001960 13535 net.cpp:406] lstm1_gate_input_1 <- W_xc_x_1
I0228 21:28:49.001965 13535 net.cpp:380] lstm1_gate_input_1 -> gate_input_1
I0228 21:28:49.001994 13535 net.cpp:122] Setting up lstm1_gate_input_1
I0228 21:28:49.002004 13535 net.cpp:129] Top shape: 1 13 32 (416)
I0228 21:28:49.002008 13535 net.cpp:137] Memory required for data: 61984
I0228 21:28:49.002012 13535 layer_factory.hpp:77] Creating layer lstm1_unit_1
I0228 21:28:49.002018 13535 net.cpp:84] Creating Layer lstm1_unit_1
I0228 21:28:49.002022 13535 net.cpp:406] lstm1_unit_1 <- c_0
I0228 21:28:49.002024 13535 net.cpp:406] lstm1_unit_1 <- gate_input_1
I0228 21:28:49.002028 13535 net.cpp:406] lstm1_unit_1 <- cont_1_lstm1_cont_slice_0_split_1
I0228 21:28:49.002032 13535 net.cpp:380] lstm1_unit_1 -> c_1
I0228 21:28:49.002037 13535 net.cpp:380] lstm1_unit_1 -> h_1
I0228 21:28:49.002063 13535 net.cpp:122] Setting up lstm1_unit_1
I0228 21:28:49.002068 13535 net.cpp:129] Top shape: 1 13 8 (104)
I0228 21:28:49.002070 13535 net.cpp:129] Top shape: 1 13 8 (104)
I0228 21:28:49.002074 13535 net.cpp:137] Memory required for data: 62816
I0228 21:28:49.002075 13535 layer_factory.hpp:77] Creating layer h_1_lstm1_unit_1_1_split
I0228 21:28:49.002079 13535 net.cpp:84] Creating Layer h_1_lstm1_unit_1_1_split
I0228 21:28:49.002081 13535 net.cpp:406] h_1_lstm1_unit_1_1_split <- h_1
I0228 21:28:49.002085 13535 net.cpp:380] h_1_lstm1_unit_1_1_split -> h_1_lstm1_unit_1_1_split_0
I0228 21:28:49.002089 13535 net.cpp:380] h_1_lstm1_unit_1_1_split -> h_1_lstm1_unit_1_1_split_1
I0228 21:28:49.002107 13535 net.cpp:122] Setting up h_1_lstm1_unit_1_1_split
I0228 21:28:49.002111 13535 net.cpp:129] Top shape: 1 13 8 (104)
I0228 21:28:49.002115 13535 net.cpp:129] Top shape: 1 13 8 (104)
I0228 21:28:49.002117 13535 net.cpp:137] Memory required for data: 63648
I0228 21:28:49.002120 13535 layer_factory.hpp:77] Creating layer lstm1_h_conted_1
I0228 21:28:49.002123 13535 net.cpp:84] Creating Layer lstm1_h_conted_1
I0228 21:28:49.002126 13535 net.cpp:406] lstm1_h_conted_1 <- h_1_lstm1_unit_1_1_split_0
I0228 21:28:49.002130 13535 net.cpp:406] lstm1_h_conted_1 <- cont_2_lstm1_cont_slice_1_split_0
I0228 21:28:49.002133 13535 net.cpp:380] lstm1_h_conted_1 -> h_conted_1
I0228 21:28:49.002163 13535 net.cpp:122] Setting up lstm1_h_conted_1
I0228 21:28:49.002168 13535 net.cpp:129] Top shape: 1 13 8 (104)
I0228 21:28:49.002171 13535 net.cpp:137] Memory required for data: 64064
I0228 21:28:49.002173 13535 layer_factory.hpp:77] Creating layer lstm1_transform_2
I0228 21:28:49.002177 13535 net.cpp:84] Creating Layer lstm1_transform_2
I0228 21:28:49.002179 13535 net.cpp:406] lstm1_transform_2 <- h_conted_1
I0228 21:28:49.002184 13535 net.cpp:380] lstm1_transform_2 -> W_hc_h_1
I0228 21:28:49.002212 13535 net.cpp:122] Setting up lstm1_transform_2
I0228 21:28:49.002216 13535 net.cpp:129] Top shape: 1 13 32 (416)
I0228 21:28:49.002218 13535 net.cpp:137] Memory required for data: 65728
I0228 21:28:49.002221 13535 net.cpp:465] Sharing parameters 'W_hc' owned by layer 'lstm1_transform_1', param index 0
I0228 21:28:49.002224 13535 layer_factory.hpp:77] Creating layer lstm1_gate_input_2
I0228 21:28:49.002228 13535 net.cpp:84] Creating Layer lstm1_gate_input_2
I0228 21:28:49.002231 13535 net.cpp:406] lstm1_gate_input_2 <- W_hc_h_1
I0228 21:28:49.002240 13535 net.cpp:406] lstm1_gate_input_2 <- W_xc_x_2
I0228 21:28:49.002245 13535 net.cpp:380] lstm1_gate_input_2 -> gate_input_2
I0228 21:28:49.002260 13535 net.cpp:122] Setting up lstm1_gate_input_2
I0228 21:28:49.002264 13535 net.cpp:129] Top shape: 1 13 32 (416)
I0228 21:28:49.002266 13535 net.cpp:137] Memory required for data: 67392
I0228 21:28:49.002269 13535 layer_factory.hpp:77] Creating layer lstm1_unit_2
I0228 21:28:49.002274 13535 net.cpp:84] Creating Layer lstm1_unit_2
I0228 21:28:49.002275 13535 net.cpp:406] lstm1_unit_2 <- c_1
I0228 21:28:49.005223 13535 net.cpp:406] lstm1_unit_2 <- gate_input_2
I0228 21:28:49.005239 13535 net.cpp:406] lstm1_unit_2 <- cont_2_lstm1_cont_slice_1_split_1
I0228 21:28:49.005247 13535 net.cpp:380] lstm1_unit_2 -> c_2
I0228 21:28:49.005254 13535 net.cpp:380] lstm1_unit_2 -> h_2
I0228 21:28:49.005306 13535 net.cpp:122] Setting up lstm1_unit_2
I0228 21:28:49.005316 13535 net.cpp:129] Top shape: 1 13 8 (104)
I0228 21:28:49.005321 13535 net.cpp:129] Top shape: 1 13 8 (104)
I0228 21:28:49.005324 13535 net.cpp:137] Memory required for data: 68224
I0228 21:28:49.005327 13535 layer_factory.hpp:77] Creating layer h_2_lstm1_unit_2_1_split
I0228 21:28:49.005334 13535 net.cpp:84] Creating Layer h_2_lstm1_unit_2_1_split
I0228 21:28:49.005338 13535 net.cpp:406] h_2_lstm1_unit_2_1_split <- h_2
I0228 21:28:49.005342 13535 net.cpp:380] h_2_lstm1_unit_2_1_split -> h_2_lstm1_unit_2_1_split_0
I0228 21:28:49.005347 13535 net.cpp:380] h_2_lstm1_unit_2_1_split -> h_2_lstm1_unit_2_1_split_1
I0228 21:28:49.005384 13535 net.cpp:122] Setting up h_2_lstm1_unit_2_1_split
I0228 21:28:49.005406 13535 net.cpp:129] Top shape: 1 13 8 (104)
I0228 21:28:49.005410 13535 net.cpp:129] Top shape: 1 13 8 (104)
I0228 21:28:49.005414 13535 net.cpp:137] Memory required for data: 69056
I0228 21:28:49.005416 13535 layer_factory.hpp:77] Creating layer lstm1_h_conted_2
I0228 21:28:49.005422 13535 net.cpp:84] Creating Layer lstm1_h_conted_2
I0228 21:28:49.005426 13535 net.cpp:406] lstm1_h_conted_2 <- h_2_lstm1_unit_2_1_split_0
I0228 21:28:49.005430 13535 net.cpp:406] lstm1_h_conted_2 <- cont_3_lstm1_cont_slice_2_split_0
I0228 21:28:49.005435 13535 net.cpp:380] lstm1_h_conted_2 -> h_conted_2
I0228 21:28:49.005471 13535 net.cpp:122] Setting up lstm1_h_conted_2
I0228 21:28:49.005476 13535 net.cpp:129] Top shape: 1 13 8 (104)
I0228 21:28:49.005479 13535 net.cpp:137] Memory required for data: 69472
I0228 21:28:49.005482 13535 layer_factory.hpp:77] Creating layer lstm1_transform_3
I0228 21:28:49.005494 13535 net.cpp:84] Creating Layer lstm1_transform_3
I0228 21:28:49.005498 13535 net.cpp:406] lstm1_transform_3 <- h_conted_2
I0228 21:28:49.005504 13535 net.cpp:380] lstm1_transform_3 -> W_hc_h_2
I0228 21:28:49.005537 13535 net.cpp:122] Setting up lstm1_transform_3
I0228 21:28:49.005543 13535 net.cpp:129] Top shape: 1 13 32 (416)
I0228 21:28:49.005547 13535 net.cpp:137] Memory required for data: 71136
I0228 21:28:49.005553 13535 net.cpp:465] Sharing parameters 'W_hc' owned by layer 'lstm1_transform_1', param index 0
I0228 21:28:49.005556 13535 layer_factory.hpp:77] Creating layer lstm1_gate_input_3
I0228 21:28:49.005561 13535 net.cpp:84] Creating Layer lstm1_gate_input_3
I0228 21:28:49.005579 13535 net.cpp:406] lstm1_gate_input_3 <- W_hc_h_2
I0228 21:28:49.005584 13535 net.cpp:406] lstm1_gate_input_3 <- W_xc_x_3
I0228 21:28:49.005589 13535 net.cpp:380] lstm1_gate_input_3 -> gate_input_3
I0228 21:28:49.005620 13535 net.cpp:122] Setting up lstm1_gate_input_3
I0228 21:28:49.005625 13535 net.cpp:129] Top shape: 1 13 32 (416)
I0228 21:28:49.005627 13535 net.cpp:137] Memory required for data: 72800
I0228 21:28:49.005630 13535 layer_factory.hpp:77] Creating layer lstm1_unit_3
I0228 21:28:49.005635 13535 net.cpp:84] Creating Layer lstm1_unit_3
I0228 21:28:49.005638 13535 net.cpp:406] lstm1_unit_3 <- c_2
I0228 21:28:49.005642 13535 net.cpp:406] lstm1_unit_3 <- gate_input_3
I0228 21:28:49.005645 13535 net.cpp:406] lstm1_unit_3 <- cont_3_lstm1_cont_slice_2_split_1
I0228 21:28:49.005650 13535 net.cpp:380] lstm1_unit_3 -> c_3
I0228 21:28:49.005683 13535 net.cpp:380] lstm1_unit_3 -> h_3
I0228 21:28:49.005740 13535 net.cpp:122] Setting up lstm1_unit_3
I0228 21:28:49.005746 13535 net.cpp:129] Top shape: 1 13 8 (104)
I0228 21:28:49.005750 13535 net.cpp:129] Top shape: 1 13 8 (104)
I0228 21:28:49.005753 13535 net.cpp:137] Memory required for data: 73632
I0228 21:28:49.005756 13535 layer_factory.hpp:77] Creating layer h_3_lstm1_unit_3_1_split
I0228 21:28:49.005761 13535 net.cpp:84] Creating Layer h_3_lstm1_unit_3_1_split
I0228 21:28:49.005765 13535 net.cpp:406] h_3_lstm1_unit_3_1_split <- h_3
I0228 21:28:49.005769 13535 net.cpp:380] h_3_lstm1_unit_3_1_split -> h_3_lstm1_unit_3_1_split_0
I0228 21:28:49.005774 13535 net.cpp:380] h_3_lstm1_unit_3_1_split -> h_3_lstm1_unit_3_1_split_1
I0228 21:28:49.005792 13535 net.cpp:122] Setting up h_3_lstm1_unit_3_1_split
I0228 21:28:49.005797 13535 net.cpp:129] Top shape: 1 13 8 (104)
I0228 21:28:49.005801 13535 net.cpp:129] Top shape: 1 13 8 (104)
I0228 21:28:49.005805 13535 net.cpp:137] Memory required for data: 74464
I0228 21:28:49.005807 13535 layer_factory.hpp:77] Creating layer lstm1_h_conted_3
I0228 21:28:49.005813 13535 net.cpp:84] Creating Layer lstm1_h_conted_3
I0228 21:28:49.005816 13535 net.cpp:406] lstm1_h_conted_3 <- h_3_lstm1_unit_3_1_split_0
I0228 21:28:49.005820 13535 net.cpp:406] lstm1_h_conted_3 <- cont_4_lstm1_cont_slice_3_split_0
I0228 21:28:49.005825 13535 net.cpp:380] lstm1_h_conted_3 -> h_conted_3
I0228 21:28:49.005857 13535 net.cpp:122] Setting up lstm1_h_conted_3
I0228 21:28:49.005863 13535 net.cpp:129] Top shape: 1 13 8 (104)
I0228 21:28:49.005867 13535 net.cpp:137] Memory required for data: 74880
I0228 21:28:49.005870 13535 layer_factory.hpp:77] Creating layer lstm1_transform_4
I0228 21:28:49.005875 13535 net.cpp:84] Creating Layer lstm1_transform_4
I0228 21:28:49.005878 13535 net.cpp:406] lstm1_transform_4 <- h_conted_3
I0228 21:28:49.005883 13535 net.cpp:380] lstm1_transform_4 -> W_hc_h_3
I0228 21:28:49.005914 13535 net.cpp:122] Setting up lstm1_transform_4
I0228 21:28:49.005921 13535 net.cpp:129] Top shape: 1 13 32 (416)
I0228 21:28:49.005924 13535 net.cpp:137] Memory required for data: 76544
I0228 21:28:49.005929 13535 net.cpp:465] Sharing parameters 'W_hc' owned by layer 'lstm1_transform_1', param index 0
I0228 21:28:49.005935 13535 layer_factory.hpp:77] Creating layer lstm1_gate_input_4
I0228 21:28:49.005944 13535 net.cpp:84] Creating Layer lstm1_gate_input_4
I0228 21:28:49.005950 13535 net.cpp:406] lstm1_gate_input_4 <- W_hc_h_3
I0228 21:28:49.005956 13535 net.cpp:406] lstm1_gate_input_4 <- W_xc_x_4
I0228 21:28:49.005962 13535 net.cpp:380] lstm1_gate_input_4 -> gate_input_4
I0228 21:28:49.005997 13535 net.cpp:122] Setting up lstm1_gate_input_4
I0228 21:28:49.006021 13535 net.cpp:129] Top shape: 1 13 32 (416)
I0228 21:28:49.006026 13535 net.cpp:137] Memory required for data: 78208
I0228 21:28:49.006029 13535 layer_factory.hpp:77] Creating layer lstm1_unit_4
I0228 21:28:49.006036 13535 net.cpp:84] Creating Layer lstm1_unit_4
I0228 21:28:49.006039 13535 net.cpp:406] lstm1_unit_4 <- c_3
I0228 21:28:49.006043 13535 net.cpp:406] lstm1_unit_4 <- gate_input_4
I0228 21:28:49.006047 13535 net.cpp:406] lstm1_unit_4 <- cont_4_lstm1_cont_slice_3_split_1
I0228 21:28:49.006052 13535 net.cpp:380] lstm1_unit_4 -> c_4
I0228 21:28:49.006057 13535 net.cpp:380] lstm1_unit_4 -> h_4
I0228 21:28:49.006083 13535 net.cpp:122] Setting up lstm1_unit_4
I0228 21:28:49.006088 13535 net.cpp:129] Top shape: 1 13 8 (104)
I0228 21:28:49.006091 13535 net.cpp:129] Top shape: 1 13 8 (104)
I0228 21:28:49.006094 13535 net.cpp:137] Memory required for data: 79040
I0228 21:28:49.006098 13535 layer_factory.hpp:77] Creating layer h_4_lstm1_unit_4_1_split
I0228 21:28:49.006101 13535 net.cpp:84] Creating Layer h_4_lstm1_unit_4_1_split
I0228 21:28:49.006105 13535 net.cpp:406] h_4_lstm1_unit_4_1_split <- h_4
I0228 21:28:49.006110 13535 net.cpp:380] h_4_lstm1_unit_4_1_split -> h_4_lstm1_unit_4_1_split_0
I0228 21:28:49.006115 13535 net.cpp:380] h_4_lstm1_unit_4_1_split -> h_4_lstm1_unit_4_1_split_1
I0228 21:28:49.006139 13535 net.cpp:122] Setting up h_4_lstm1_unit_4_1_split
I0228 21:28:49.006145 13535 net.cpp:129] Top shape: 1 13 8 (104)
I0228 21:28:49.006148 13535 net.cpp:129] Top shape: 1 13 8 (104)
I0228 21:28:49.006151 13535 net.cpp:137] Memory required for data: 79872
I0228 21:28:49.006155 13535 layer_factory.hpp:77] Creating layer lstm1_h_conted_4
I0228 21:28:49.006160 13535 net.cpp:84] Creating Layer lstm1_h_conted_4
I0228 21:28:49.006163 13535 net.cpp:406] lstm1_h_conted_4 <- h_4_lstm1_unit_4_1_split_0
I0228 21:28:49.006167 13535 net.cpp:406] lstm1_h_conted_4 <- cont_5_lstm1_cont_slice_4_split_0
I0228 21:28:49.006172 13535 net.cpp:380] lstm1_h_conted_4 -> h_conted_4
I0228 21:28:49.006204 13535 net.cpp:122] Setting up lstm1_h_conted_4
I0228 21:28:49.006212 13535 net.cpp:129] Top shape: 1 13 8 (104)
I0228 21:28:49.006217 13535 net.cpp:137] Memory required for data: 80288
I0228 21:28:49.035389 13535 layer_factory.hpp:77] Creating layer lstm1_transform_5
I0228 21:28:49.035425 13535 net.cpp:84] Creating Layer lstm1_transform_5
I0228 21:28:49.035432 13535 net.cpp:406] lstm1_transform_5 <- h_conted_4
I0228 21:28:49.035439 13535 net.cpp:380] lstm1_transform_5 -> W_hc_h_4
I0228 21:28:49.035557 13535 net.cpp:122] Setting up lstm1_transform_5
I0228 21:28:49.035567 13535 net.cpp:129] Top shape: 1 13 32 (416)
I0228 21:28:49.035570 13535 net.cpp:137] Memory required for data: 81952
I0228 21:28:49.035574 13535 net.cpp:465] Sharing parameters 'W_hc' owned by layer 'lstm1_transform_1', param index 0
I0228 21:28:49.035578 13535 layer_factory.hpp:77] Creating layer lstm1_gate_input_5
I0228 21:28:49.035583 13535 net.cpp:84] Creating Layer lstm1_gate_input_5
I0228 21:28:49.035588 13535 net.cpp:406] lstm1_gate_input_5 <- W_hc_h_4
I0228 21:28:49.035593 13535 net.cpp:406] lstm1_gate_input_5 <- W_xc_x_5
I0228 21:28:49.035598 13535 net.cpp:380] lstm1_gate_input_5 -> gate_input_5
I0228 21:28:49.035616 13535 net.cpp:122] Setting up lstm1_gate_input_5
I0228 21:28:49.035621 13535 net.cpp:129] Top shape: 1 13 32 (416)
I0228 21:28:49.035624 13535 net.cpp:137] Memory required for data: 83616
I0228 21:28:49.035627 13535 layer_factory.hpp:77] Creating layer lstm1_unit_5
I0228 21:28:49.035631 13535 net.cpp:84] Creating Layer lstm1_unit_5
I0228 21:28:49.035635 13535 net.cpp:406] lstm1_unit_5 <- c_4
I0228 21:28:49.035640 13535 net.cpp:406] lstm1_unit_5 <- gate_input_5
I0228 21:28:49.035645 13535 net.cpp:406] lstm1_unit_5 <- cont_5_lstm1_cont_slice_4_split_1
I0228 21:28:49.035650 13535 net.cpp:380] lstm1_unit_5 -> c_5
I0228 21:28:49.035655 13535 net.cpp:380] lstm1_unit_5 -> h_5
I0228 21:28:49.035698 13535 net.cpp:122] Setting up lstm1_unit_5
I0228 21:28:49.035703 13535 net.cpp:129] Top shape: 1 13 8 (104)
I0228 21:28:49.035707 13535 net.cpp:129] Top shape: 1 13 8 (104)
I0228 21:28:49.035711 13535 net.cpp:137] Memory required for data: 84448
I0228 21:28:49.035713 13535 layer_factory.hpp:77] Creating layer h_5_lstm1_unit_5_1_split
I0228 21:28:49.035718 13535 net.cpp:84] Creating Layer h_5_lstm1_unit_5_1_split
I0228 21:28:49.035722 13535 net.cpp:406] h_5_lstm1_unit_5_1_split <- h_5
I0228 21:28:49.035727 13535 net.cpp:380] h_5_lstm1_unit_5_1_split -> h_5_lstm1_unit_5_1_split_0
I0228 21:28:49.035732 13535 net.cpp:380] h_5_lstm1_unit_5_1_split -> h_5_lstm1_unit_5_1_split_1
I0228 21:28:49.035750 13535 net.cpp:122] Setting up h_5_lstm1_unit_5_1_split
I0228 21:28:49.035755 13535 net.cpp:129] Top shape: 1 13 8 (104)
I0228 21:28:49.035759 13535 net.cpp:129] Top shape: 1 13 8 (104)
I0228 21:28:49.035763 13535 net.cpp:137] Memory required for data: 85280
I0228 21:28:49.035765 13535 layer_factory.hpp:77] Creating layer lstm1_h_conted_5
I0228 21:28:49.035770 13535 net.cpp:84] Creating Layer lstm1_h_conted_5
I0228 21:28:49.035774 13535 net.cpp:406] lstm1_h_conted_5 <- h_5_lstm1_unit_5_1_split_0
I0228 21:28:49.035778 13535 net.cpp:406] lstm1_h_conted_5 <- cont_6_lstm1_cont_slice_5_split_0
I0228 21:28:49.035784 13535 net.cpp:380] lstm1_h_conted_5 -> h_conted_5
I0228 21:28:49.035820 13535 net.cpp:122] Setting up lstm1_h_conted_5
I0228 21:28:49.035825 13535 net.cpp:129] Top shape: 1 13 8 (104)
I0228 21:28:49.035837 13535 net.cpp:137] Memory required for data: 85696
I0228 21:28:49.035854 13535 layer_factory.hpp:77] Creating layer lstm1_transform_6
I0228 21:28:49.035876 13535 net.cpp:84] Creating Layer lstm1_transform_6
I0228 21:28:49.035881 13535 net.cpp:406] lstm1_transform_6 <- h_conted_5
I0228 21:28:49.035884 13535 net.cpp:380] lstm1_transform_6 -> W_hc_h_5
I0228 21:28:49.035918 13535 net.cpp:122] Setting up lstm1_transform_6
I0228 21:28:49.035925 13535 net.cpp:129] Top shape: 1 13 32 (416)
I0228 21:28:49.035928 13535 net.cpp:137] Memory required for data: 87360
I0228 21:28:49.035933 13535 net.cpp:465] Sharing parameters 'W_hc' owned by layer 'lstm1_transform_1', param index 0
I0228 21:28:49.035938 13535 layer_factory.hpp:77] Creating layer lstm1_gate_input_6
I0228 21:28:49.035946 13535 net.cpp:84] Creating Layer lstm1_gate_input_6
I0228 21:28:49.035953 13535 net.cpp:406] lstm1_gate_input_6 <- W_hc_h_5
I0228 21:28:49.035959 13535 net.cpp:406] lstm1_gate_input_6 <- W_xc_x_6
I0228 21:28:49.035964 13535 net.cpp:380] lstm1_gate_input_6 -> gate_input_6
I0228 21:28:49.035989 13535 net.cpp:122] Setting up lstm1_gate_input_6
I0228 21:28:49.035997 13535 net.cpp:129] Top shape: 1 13 32 (416)
I0228 21:28:49.036003 13535 net.cpp:137] Memory required for data: 89024
I0228 21:28:49.036006 13535 layer_factory.hpp:77] Creating layer lstm1_unit_6
I0228 21:28:49.036011 13535 net.cpp:84] Creating Layer lstm1_unit_6
I0228 21:28:49.036015 13535 net.cpp:406] lstm1_unit_6 <- c_5
I0228 21:28:49.036020 13535 net.cpp:406] lstm1_unit_6 <- gate_input_6
I0228 21:28:49.036023 13535 net.cpp:406] lstm1_unit_6 <- cont_6_lstm1_cont_slice_5_split_1
I0228 21:28:49.036027 13535 net.cpp:380] lstm1_unit_6 -> c_6
I0228 21:28:49.036032 13535 net.cpp:380] lstm1_unit_6 -> h_6
I0228 21:28:49.036062 13535 net.cpp:122] Setting up lstm1_unit_6
I0228 21:28:49.036067 13535 net.cpp:129] Top shape: 1 13 8 (104)
I0228 21:28:49.036072 13535 net.cpp:129] Top shape: 1 13 8 (104)
I0228 21:28:49.036074 13535 net.cpp:137] Memory required for data: 89856
I0228 21:28:49.036077 13535 layer_factory.hpp:77] Creating layer h_6_lstm1_unit_6_1_split
I0228 21:28:49.036082 13535 net.cpp:84] Creating Layer h_6_lstm1_unit_6_1_split
I0228 21:28:49.036085 13535 net.cpp:406] h_6_lstm1_unit_6_1_split <- h_6
I0228 21:28:49.036089 13535 net.cpp:380] h_6_lstm1_unit_6_1_split -> h_6_lstm1_unit_6_1_split_0
I0228 21:28:49.036093 13535 net.cpp:380] h_6_lstm1_unit_6_1_split -> h_6_lstm1_unit_6_1_split_1
I0228 21:28:49.036111 13535 net.cpp:122] Setting up h_6_lstm1_unit_6_1_split
I0228 21:28:49.036116 13535 net.cpp:129] Top shape: 1 13 8 (104)
I0228 21:28:49.036120 13535 net.cpp:129] Top shape: 1 13 8 (104)
I0228 21:28:49.036123 13535 net.cpp:137] Memory required for data: 90688
I0228 21:28:49.036126 13535 layer_factory.hpp:77] Creating layer lstm1_h_conted_6
I0228 21:28:49.036130 13535 net.cpp:84] Creating Layer lstm1_h_conted_6
I0228 21:28:49.036134 13535 net.cpp:406] lstm1_h_conted_6 <- h_6_lstm1_unit_6_1_split_0
I0228 21:28:49.036139 13535 net.cpp:406] lstm1_h_conted_6 <- cont_7_lstm1_cont_slice_6_split_0
I0228 21:28:49.036142 13535 net.cpp:380] lstm1_h_conted_6 -> h_conted_6
I0228 21:28:49.036175 13535 net.cpp:122] Setting up lstm1_h_conted_6
I0228 21:28:49.036181 13535 net.cpp:129] Top shape: 1 13 8 (104)
I0228 21:28:49.036185 13535 net.cpp:137] Memory required for data: 91104
I0228 21:28:49.036190 13535 layer_factory.hpp:77] Creating layer lstm1_transform_7
I0228 21:28:49.036193 13535 net.cpp:84] Creating Layer lstm1_transform_7
I0228 21:28:49.036197 13535 net.cpp:406] lstm1_transform_7 <- h_conted_6
I0228 21:28:49.036202 13535 net.cpp:380] lstm1_transform_7 -> W_hc_h_6
I0228 21:28:49.036229 13535 net.cpp:122] Setting up lstm1_transform_7
I0228 21:28:49.036236 13535 net.cpp:129] Top shape: 1 13 32 (416)
I0228 21:28:49.036238 13535 net.cpp:137] Memory required for data: 92768
I0228 21:28:49.036247 13535 net.cpp:465] Sharing parameters 'W_hc' owned by layer 'lstm1_transform_1', param index 0
I0228 21:28:49.036250 13535 layer_factory.hpp:77] Creating layer lstm1_gate_input_7
I0228 21:28:49.036260 13535 net.cpp:84] Creating Layer lstm1_gate_input_7
I0228 21:28:49.036264 13535 net.cpp:406] lstm1_gate_input_7 <- W_hc_h_6
I0228 21:28:49.036268 13535 net.cpp:406] lstm1_gate_input_7 <- W_xc_x_7
I0228 21:28:49.036273 13535 net.cpp:380] lstm1_gate_input_7 -> gate_input_7
I0228 21:28:49.036288 13535 net.cpp:122] Setting up lstm1_gate_input_7
I0228 21:28:49.036293 13535 net.cpp:129] Top shape: 1 13 32 (416)
I0228 21:28:49.036296 13535 net.cpp:137] Memory required for data: 94432
I0228 21:28:49.036299 13535 layer_factory.hpp:77] Creating layer lstm1_unit_7
I0228 21:28:49.036304 13535 net.cpp:84] Creating Layer lstm1_unit_7
I0228 21:28:49.036308 13535 net.cpp:406] lstm1_unit_7 <- c_6
I0228 21:28:49.038620 13535 net.cpp:406] lstm1_unit_7 <- gate_input_7
I0228 21:28:49.038635 13535 net.cpp:406] lstm1_unit_7 <- cont_7_lstm1_cont_slice_6_split_1
I0228 21:28:49.038641 13535 net.cpp:380] lstm1_unit_7 -> c_7
I0228 21:28:49.038650 13535 net.cpp:380] lstm1_unit_7 -> h_7
I0228 21:28:49.038699 13535 net.cpp:122] Setting up lstm1_unit_7
I0228 21:28:49.038708 13535 net.cpp:129] Top shape: 1 13 8 (104)
I0228 21:28:49.038712 13535 net.cpp:129] Top shape: 1 13 8 (104)
I0228 21:28:49.038715 13535 net.cpp:137] Memory required for data: 95264
I0228 21:28:49.038719 13535 layer_factory.hpp:77] Creating layer h_7_lstm1_unit_7_1_split
I0228 21:28:49.038725 13535 net.cpp:84] Creating Layer h_7_lstm1_unit_7_1_split
I0228 21:28:49.038729 13535 net.cpp:406] h_7_lstm1_unit_7_1_split <- h_7
I0228 21:28:49.038733 13535 net.cpp:380] h_7_lstm1_unit_7_1_split -> h_7_lstm1_unit_7_1_split_0
I0228 21:28:49.038738 13535 net.cpp:380] h_7_lstm1_unit_7_1_split -> h_7_lstm1_unit_7_1_split_1
I0228 21:28:49.038760 13535 net.cpp:122] Setting up h_7_lstm1_unit_7_1_split
I0228 21:28:49.038765 13535 net.cpp:129] Top shape: 1 13 8 (104)
I0228 21:28:49.038769 13535 net.cpp:129] Top shape: 1 13 8 (104)
I0228 21:28:49.038772 13535 net.cpp:137] Memory required for data: 96096
I0228 21:28:49.038775 13535 layer_factory.hpp:77] Creating layer lstm1_h_conted_7
I0228 21:28:49.038782 13535 net.cpp:84] Creating Layer lstm1_h_conted_7
I0228 21:28:49.038785 13535 net.cpp:406] lstm1_h_conted_7 <- h_7_lstm1_unit_7_1_split_0
I0228 21:28:49.038789 13535 net.cpp:406] lstm1_h_conted_7 <- cont_8_lstm1_cont_slice_7_split_0
I0228 21:28:49.038794 13535 net.cpp:380] lstm1_h_conted_7 -> h_conted_7
I0228 21:28:49.038830 13535 net.cpp:122] Setting up lstm1_h_conted_7
I0228 21:28:49.038841 13535 net.cpp:129] Top shape: 1 13 8 (104)
I0228 21:28:49.038846 13535 net.cpp:137] Memory required for data: 96512
I0228 21:28:49.038848 13535 layer_factory.hpp:77] Creating layer lstm1_transform_8
I0228 21:28:49.038853 13535 net.cpp:84] Creating Layer lstm1_transform_8
I0228 21:28:49.038857 13535 net.cpp:406] lstm1_transform_8 <- h_conted_7
I0228 21:28:49.038863 13535 net.cpp:380] lstm1_transform_8 -> W_hc_h_7
I0228 21:28:49.038897 13535 net.cpp:122] Setting up lstm1_transform_8
I0228 21:28:49.038904 13535 net.cpp:129] Top shape: 1 13 32 (416)
I0228 21:28:49.038908 13535 net.cpp:137] Memory required for data: 98176
I0228 21:28:49.038913 13535 net.cpp:465] Sharing parameters 'W_hc' owned by layer 'lstm1_transform_1', param index 0
I0228 21:28:49.038916 13535 layer_factory.hpp:77] Creating layer lstm1_gate_input_8
I0228 21:28:49.038921 13535 net.cpp:84] Creating Layer lstm1_gate_input_8
I0228 21:28:49.038924 13535 net.cpp:406] lstm1_gate_input_8 <- W_hc_h_7
I0228 21:28:49.038928 13535 net.cpp:406] lstm1_gate_input_8 <- W_xc_x_8
I0228 21:28:49.038933 13535 net.cpp:380] lstm1_gate_input_8 -> gate_input_8
I0228 21:28:49.038949 13535 net.cpp:122] Setting up lstm1_gate_input_8
I0228 21:28:49.038954 13535 net.cpp:129] Top shape: 1 13 32 (416)
I0228 21:28:49.038960 13535 net.cpp:137] Memory required for data: 99840
I0228 21:28:49.038965 13535 layer_factory.hpp:77] Creating layer lstm1_unit_8
I0228 21:28:49.038972 13535 net.cpp:84] Creating Layer lstm1_unit_8
I0228 21:28:49.038975 13535 net.cpp:406] lstm1_unit_8 <- c_7
I0228 21:28:49.038980 13535 net.cpp:406] lstm1_unit_8 <- gate_input_8
I0228 21:28:49.038992 13535 net.cpp:406] lstm1_unit_8 <- cont_8_lstm1_cont_slice_7_split_1
I0228 21:28:49.038997 13535 net.cpp:380] lstm1_unit_8 -> c_8
I0228 21:28:49.039002 13535 net.cpp:380] lstm1_unit_8 -> h_8
I0228 21:28:49.039028 13535 net.cpp:122] Setting up lstm1_unit_8
I0228 21:28:49.039034 13535 net.cpp:129] Top shape: 1 13 8 (104)
I0228 21:28:49.039038 13535 net.cpp:129] Top shape: 1 13 8 (104)
I0228 21:28:49.039041 13535 net.cpp:137] Memory required for data: 100672
I0228 21:28:49.039044 13535 layer_factory.hpp:77] Creating layer h_8_lstm1_unit_8_1_split
I0228 21:28:49.039048 13535 net.cpp:84] Creating Layer h_8_lstm1_unit_8_1_split
I0228 21:28:49.039052 13535 net.cpp:406] h_8_lstm1_unit_8_1_split <- h_8
I0228 21:28:49.039057 13535 net.cpp:380] h_8_lstm1_unit_8_1_split -> h_8_lstm1_unit_8_1_split_0
I0228 21:28:49.039062 13535 net.cpp:380] h_8_lstm1_unit_8_1_split -> h_8_lstm1_unit_8_1_split_1
I0228 21:28:49.039078 13535 net.cpp:122] Setting up h_8_lstm1_unit_8_1_split
I0228 21:28:49.039083 13535 net.cpp:129] Top shape: 1 13 8 (104)
I0228 21:28:49.039088 13535 net.cpp:129] Top shape: 1 13 8 (104)
I0228 21:28:49.039090 13535 net.cpp:137] Memory required for data: 101504
I0228 21:28:49.039093 13535 layer_factory.hpp:77] Creating layer lstm1_h_conted_8
I0228 21:28:49.039098 13535 net.cpp:84] Creating Layer lstm1_h_conted_8
I0228 21:28:49.039101 13535 net.cpp:406] lstm1_h_conted_8 <- h_8_lstm1_unit_8_1_split_0
I0228 21:28:49.039105 13535 net.cpp:406] lstm1_h_conted_8 <- cont_9_lstm1_cont_slice_8_split_0
I0228 21:28:49.039110 13535 net.cpp:380] lstm1_h_conted_8 -> h_conted_8
I0228 21:28:49.039141 13535 net.cpp:122] Setting up lstm1_h_conted_8
I0228 21:28:49.039147 13535 net.cpp:129] Top shape: 1 13 8 (104)
I0228 21:28:49.039150 13535 net.cpp:137] Memory required for data: 101920
I0228 21:28:49.039153 13535 layer_factory.hpp:77] Creating layer lstm1_transform_9
I0228 21:28:49.039158 13535 net.cpp:84] Creating Layer lstm1_transform_9
I0228 21:28:49.039161 13535 net.cpp:406] lstm1_transform_9 <- h_conted_8
I0228 21:28:49.039165 13535 net.cpp:380] lstm1_transform_9 -> W_hc_h_8
I0228 21:28:49.039192 13535 net.cpp:122] Setting up lstm1_transform_9
I0228 21:28:49.039198 13535 net.cpp:129] Top shape: 1 13 32 (416)
I0228 21:28:49.039201 13535 net.cpp:137] Memory required for data: 103584
I0228 21:28:49.039204 13535 net.cpp:465] Sharing parameters 'W_hc' owned by layer 'lstm1_transform_1', param index 0
I0228 21:28:49.039208 13535 layer_factory.hpp:77] Creating layer lstm1_gate_input_9
I0228 21:28:49.039213 13535 net.cpp:84] Creating Layer lstm1_gate_input_9
I0228 21:28:49.039217 13535 net.cpp:406] lstm1_gate_input_9 <- W_hc_h_8
I0228 21:28:49.039222 13535 net.cpp:406] lstm1_gate_input_9 <- W_xc_x_9
I0228 21:28:49.039225 13535 net.cpp:380] lstm1_gate_input_9 -> gate_input_9
I0228 21:28:49.039238 13535 net.cpp:122] Setting up lstm1_gate_input_9
I0228 21:28:49.039243 13535 net.cpp:129] Top shape: 1 13 32 (416)
I0228 21:28:49.039247 13535 net.cpp:137] Memory required for data: 105248
I0228 21:28:49.039249 13535 layer_factory.hpp:77] Creating layer lstm1_unit_9
I0228 21:28:49.039265 13535 net.cpp:84] Creating Layer lstm1_unit_9
I0228 21:28:49.039269 13535 net.cpp:406] lstm1_unit_9 <- c_8
I0228 21:28:49.039274 13535 net.cpp:406] lstm1_unit_9 <- gate_input_9
I0228 21:28:49.039278 13535 net.cpp:406] lstm1_unit_9 <- cont_9_lstm1_cont_slice_8_split_1
I0228 21:28:49.039283 13535 net.cpp:380] lstm1_unit_9 -> c_9
I0228 21:28:49.039295 13535 net.cpp:380] lstm1_unit_9 -> h_9
I0228 21:28:49.039320 13535 net.cpp:122] Setting up lstm1_unit_9
I0228 21:28:49.039327 13535 net.cpp:129] Top shape: 1 13 8 (104)
I0228 21:28:49.039331 13535 net.cpp:129] Top shape: 1 13 8 (104)
I0228 21:28:49.039335 13535 net.cpp:137] Memory required for data: 106080
I0228 21:28:49.039337 13535 layer_factory.hpp:77] Creating layer h_9_lstm1_unit_9_1_split
I0228 21:28:49.039342 13535 net.cpp:84] Creating Layer h_9_lstm1_unit_9_1_split
I0228 21:28:49.039345 13535 net.cpp:406] h_9_lstm1_unit_9_1_split <- h_9
I0228 21:28:49.039357 13535 net.cpp:380] h_9_lstm1_unit_9_1_split -> h_9_lstm1_unit_9_1_split_0
I0228 21:28:49.039374 13535 net.cpp:380] h_9_lstm1_unit_9_1_split -> h_9_lstm1_unit_9_1_split_1
I0228 21:28:49.039400 13535 net.cpp:122] Setting up h_9_lstm1_unit_9_1_split
I0228 21:28:49.039409 13535 net.cpp:129] Top shape: 1 13 8 (104)
I0228 21:28:49.039415 13535 net.cpp:129] Top shape: 1 13 8 (104)
I0228 21:28:49.039419 13535 net.cpp:137] Memory required for data: 106912
I0228 21:28:49.039424 13535 layer_factory.hpp:77] Creating layer lstm1_h_conted_9
I0228 21:28:49.039430 13535 net.cpp:84] Creating Layer lstm1_h_conted_9
I0228 21:28:49.065822 13535 net.cpp:406] lstm1_h_conted_9 <- h_9_lstm1_unit_9_1_split_0
I0228 21:28:49.065838 13535 net.cpp:406] lstm1_h_conted_9 <- cont_10_lstm1_cont_slice_9_split_0
I0228 21:28:49.065850 13535 net.cpp:380] lstm1_h_conted_9 -> h_conted_9
I0228 21:28:49.066031 13535 net.cpp:122] Setting up lstm1_h_conted_9
I0228 21:28:49.066059 13535 net.cpp:129] Top shape: 1 13 8 (104)
I0228 21:28:49.066063 13535 net.cpp:137] Memory required for data: 107328
I0228 21:28:49.066066 13535 layer_factory.hpp:77] Creating layer lstm1_transform_10
I0228 21:28:49.066074 13535 net.cpp:84] Creating Layer lstm1_transform_10
I0228 21:28:49.066077 13535 net.cpp:406] lstm1_transform_10 <- h_conted_9
I0228 21:28:49.066083 13535 net.cpp:380] lstm1_transform_10 -> W_hc_h_9
I0228 21:28:49.066123 13535 net.cpp:122] Setting up lstm1_transform_10
I0228 21:28:49.066128 13535 net.cpp:129] Top shape: 1 13 32 (416)
I0228 21:28:49.066131 13535 net.cpp:137] Memory required for data: 108992
I0228 21:28:49.066135 13535 net.cpp:465] Sharing parameters 'W_hc' owned by layer 'lstm1_transform_1', param index 0
I0228 21:28:49.066139 13535 layer_factory.hpp:77] Creating layer lstm1_gate_input_10
I0228 21:28:49.066148 13535 net.cpp:84] Creating Layer lstm1_gate_input_10
I0228 21:28:49.066153 13535 net.cpp:406] lstm1_gate_input_10 <- W_hc_h_9
I0228 21:28:49.066156 13535 net.cpp:406] lstm1_gate_input_10 <- W_xc_x_10
I0228 21:28:49.066161 13535 net.cpp:380] lstm1_gate_input_10 -> gate_input_10
I0228 21:28:49.066179 13535 net.cpp:122] Setting up lstm1_gate_input_10
I0228 21:28:49.066184 13535 net.cpp:129] Top shape: 1 13 32 (416)
I0228 21:28:49.066186 13535 net.cpp:137] Memory required for data: 110656
I0228 21:28:49.066192 13535 layer_factory.hpp:77] Creating layer lstm1_unit_10
I0228 21:28:49.066196 13535 net.cpp:84] Creating Layer lstm1_unit_10
I0228 21:28:49.066201 13535 net.cpp:406] lstm1_unit_10 <- c_9
I0228 21:28:49.066205 13535 net.cpp:406] lstm1_unit_10 <- gate_input_10
I0228 21:28:49.066208 13535 net.cpp:406] lstm1_unit_10 <- cont_10_lstm1_cont_slice_9_split_1
I0228 21:28:49.066227 13535 net.cpp:380] lstm1_unit_10 -> c_10
I0228 21:28:49.066232 13535 net.cpp:380] lstm1_unit_10 -> h_10
I0228 21:28:49.066257 13535 net.cpp:122] Setting up lstm1_unit_10
I0228 21:28:49.066262 13535 net.cpp:129] Top shape: 1 13 8 (104)
I0228 21:28:49.066267 13535 net.cpp:129] Top shape: 1 13 8 (104)
I0228 21:28:49.066272 13535 net.cpp:137] Memory required for data: 111488
I0228 21:28:49.066289 13535 layer_factory.hpp:77] Creating layer h_10_lstm1_unit_10_1_split
I0228 21:28:49.066294 13535 net.cpp:84] Creating Layer h_10_lstm1_unit_10_1_split
I0228 21:28:49.066298 13535 net.cpp:406] h_10_lstm1_unit_10_1_split <- h_10
I0228 21:28:49.066301 13535 net.cpp:380] h_10_lstm1_unit_10_1_split -> h_10_lstm1_unit_10_1_split_0
I0228 21:28:49.066306 13535 net.cpp:380] h_10_lstm1_unit_10_1_split -> h_10_lstm1_unit_10_1_split_1
I0228 21:28:49.066339 13535 net.cpp:122] Setting up h_10_lstm1_unit_10_1_split
I0228 21:28:49.066344 13535 net.cpp:129] Top shape: 1 13 8 (104)
I0228 21:28:49.066347 13535 net.cpp:129] Top shape: 1 13 8 (104)
I0228 21:28:49.066350 13535 net.cpp:137] Memory required for data: 112320
I0228 21:28:49.066354 13535 layer_factory.hpp:77] Creating layer lstm1_h_conted_10
I0228 21:28:49.066359 13535 net.cpp:84] Creating Layer lstm1_h_conted_10
I0228 21:28:49.066364 13535 net.cpp:406] lstm1_h_conted_10 <- h_10_lstm1_unit_10_1_split_0
I0228 21:28:49.066367 13535 net.cpp:406] lstm1_h_conted_10 <- cont_11_lstm1_cont_slice_10_split_0
I0228 21:28:49.066380 13535 net.cpp:380] lstm1_h_conted_10 -> h_conted_10
I0228 21:28:49.066413 13535 net.cpp:122] Setting up lstm1_h_conted_10
I0228 21:28:49.066419 13535 net.cpp:129] Top shape: 1 13 8 (104)
I0228 21:28:49.066422 13535 net.cpp:137] Memory required for data: 112736
I0228 21:28:49.066426 13535 layer_factory.hpp:77] Creating layer lstm1_transform_11
I0228 21:28:49.066431 13535 net.cpp:84] Creating Layer lstm1_transform_11
I0228 21:28:49.066434 13535 net.cpp:406] lstm1_transform_11 <- h_conted_10
I0228 21:28:49.066438 13535 net.cpp:380] lstm1_transform_11 -> W_hc_h_10
I0228 21:28:49.066465 13535 net.cpp:122] Setting up lstm1_transform_11
I0228 21:28:49.066470 13535 net.cpp:129] Top shape: 1 13 32 (416)
I0228 21:28:49.066473 13535 net.cpp:137] Memory required for data: 114400
I0228 21:28:49.066478 13535 net.cpp:465] Sharing parameters 'W_hc' owned by layer 'lstm1_transform_1', param index 0
I0228 21:28:49.066480 13535 layer_factory.hpp:77] Creating layer lstm1_gate_input_11
I0228 21:28:49.066484 13535 net.cpp:84] Creating Layer lstm1_gate_input_11
I0228 21:28:49.066488 13535 net.cpp:406] lstm1_gate_input_11 <- W_hc_h_10
I0228 21:28:49.066491 13535 net.cpp:406] lstm1_gate_input_11 <- W_xc_x_11
I0228 21:28:49.066496 13535 net.cpp:380] lstm1_gate_input_11 -> gate_input_11
I0228 21:28:49.066510 13535 net.cpp:122] Setting up lstm1_gate_input_11
I0228 21:28:49.066515 13535 net.cpp:129] Top shape: 1 13 32 (416)
I0228 21:28:49.066519 13535 net.cpp:137] Memory required for data: 116064
I0228 21:28:49.066521 13535 layer_factory.hpp:77] Creating layer lstm1_unit_11
I0228 21:28:49.066525 13535 net.cpp:84] Creating Layer lstm1_unit_11
I0228 21:28:49.066529 13535 net.cpp:406] lstm1_unit_11 <- c_10
I0228 21:28:49.066532 13535 net.cpp:406] lstm1_unit_11 <- gate_input_11
I0228 21:28:49.066535 13535 net.cpp:406] lstm1_unit_11 <- cont_11_lstm1_cont_slice_10_split_1
I0228 21:28:49.066540 13535 net.cpp:380] lstm1_unit_11 -> c_11
I0228 21:28:49.066545 13535 net.cpp:380] lstm1_unit_11 -> h_11
I0228 21:28:49.066568 13535 net.cpp:122] Setting up lstm1_unit_11
I0228 21:28:49.066573 13535 net.cpp:129] Top shape: 1 13 8 (104)
I0228 21:28:49.066577 13535 net.cpp:129] Top shape: 1 13 8 (104)
I0228 21:28:49.066581 13535 net.cpp:137] Memory required for data: 116896
I0228 21:28:49.066583 13535 layer_factory.hpp:77] Creating layer h_11_lstm1_unit_11_1_split
I0228 21:28:49.066587 13535 net.cpp:84] Creating Layer h_11_lstm1_unit_11_1_split
I0228 21:28:49.066591 13535 net.cpp:406] h_11_lstm1_unit_11_1_split <- h_11
I0228 21:28:49.066594 13535 net.cpp:380] h_11_lstm1_unit_11_1_split -> h_11_lstm1_unit_11_1_split_0
I0228 21:28:49.066599 13535 net.cpp:380] h_11_lstm1_unit_11_1_split -> h_11_lstm1_unit_11_1_split_1
I0228 21:28:49.066617 13535 net.cpp:122] Setting up h_11_lstm1_unit_11_1_split
I0228 21:28:49.066622 13535 net.cpp:129] Top shape: 1 13 8 (104)
I0228 21:28:49.066625 13535 net.cpp:129] Top shape: 1 13 8 (104)
I0228 21:28:49.066627 13535 net.cpp:137] Memory required for data: 117728
I0228 21:28:49.066632 13535 layer_factory.hpp:77] Creating layer lstm1_h_conted_11
I0228 21:28:49.066634 13535 net.cpp:84] Creating Layer lstm1_h_conted_11
I0228 21:28:49.066638 13535 net.cpp:406] lstm1_h_conted_11 <- h_11_lstm1_unit_11_1_split_0
I0228 21:28:49.066642 13535 net.cpp:406] lstm1_h_conted_11 <- cont_12_lstm1_cont_slice_11_split_0
I0228 21:28:49.066649 13535 net.cpp:380] lstm1_h_conted_11 -> h_conted_11
I0228 21:28:49.066709 13535 net.cpp:122] Setting up lstm1_h_conted_11
I0228 21:28:49.066715 13535 net.cpp:129] Top shape: 1 13 8 (104)
I0228 21:28:49.066717 13535 net.cpp:137] Memory required for data: 118144
I0228 21:28:49.066720 13535 layer_factory.hpp:77] Creating layer lstm1_transform_12
I0228 21:28:49.066726 13535 net.cpp:84] Creating Layer lstm1_transform_12
I0228 21:28:49.066730 13535 net.cpp:406] lstm1_transform_12 <- h_conted_11
I0228 21:28:49.066733 13535 net.cpp:380] lstm1_transform_12 -> W_hc_h_11
I0228 21:28:49.066759 13535 net.cpp:122] Setting up lstm1_transform_12
I0228 21:28:49.066764 13535 net.cpp:129] Top shape: 1 13 32 (416)
I0228 21:28:49.066773 13535 net.cpp:137] Memory required for data: 119808
I0228 21:28:49.066776 13535 net.cpp:465] Sharing parameters 'W_hc' owned by layer 'lstm1_transform_1', param index 0
I0228 21:28:49.066781 13535 layer_factory.hpp:77] Creating layer lstm1_gate_input_12
I0228 21:28:49.066784 13535 net.cpp:84] Creating Layer lstm1_gate_input_12
I0228 21:28:49.069303 13535 net.cpp:406] lstm1_gate_input_12 <- W_hc_h_11
I0228 21:28:49.069314 13535 net.cpp:406] lstm1_gate_input_12 <- W_xc_x_12
I0228 21:28:49.069319 13535 net.cpp:380] lstm1_gate_input_12 -> gate_input_12
I0228 21:28:49.069352 13535 net.cpp:122] Setting up lstm1_gate_input_12
I0228 21:28:49.069373 13535 net.cpp:129] Top shape: 1 13 32 (416)
I0228 21:28:49.069376 13535 net.cpp:137] Memory required for data: 121472
I0228 21:28:49.069380 13535 layer_factory.hpp:77] Creating layer lstm1_unit_12
I0228 21:28:49.069386 13535 net.cpp:84] Creating Layer lstm1_unit_12
I0228 21:28:49.069389 13535 net.cpp:406] lstm1_unit_12 <- c_11
I0228 21:28:49.069393 13535 net.cpp:406] lstm1_unit_12 <- gate_input_12
I0228 21:28:49.069398 13535 net.cpp:406] lstm1_unit_12 <- cont_12_lstm1_cont_slice_11_split_1
I0228 21:28:49.069402 13535 net.cpp:380] lstm1_unit_12 -> c_12
I0228 21:28:49.069408 13535 net.cpp:380] lstm1_unit_12 -> h_12
I0228 21:28:49.069435 13535 net.cpp:122] Setting up lstm1_unit_12
I0228 21:28:49.069442 13535 net.cpp:129] Top shape: 1 13 8 (104)
I0228 21:28:49.069445 13535 net.cpp:129] Top shape: 1 13 8 (104)
I0228 21:28:49.069448 13535 net.cpp:137] Memory required for data: 122304
I0228 21:28:49.069452 13535 layer_factory.hpp:77] Creating layer h_12_lstm1_unit_12_1_split
I0228 21:28:49.069456 13535 net.cpp:84] Creating Layer h_12_lstm1_unit_12_1_split
I0228 21:28:49.069459 13535 net.cpp:406] h_12_lstm1_unit_12_1_split <- h_12
I0228 21:28:49.069464 13535 net.cpp:380] h_12_lstm1_unit_12_1_split -> h_12_lstm1_unit_12_1_split_0
I0228 21:28:49.069469 13535 net.cpp:380] h_12_lstm1_unit_12_1_split -> h_12_lstm1_unit_12_1_split_1
I0228 21:28:49.069488 13535 net.cpp:122] Setting up h_12_lstm1_unit_12_1_split
I0228 21:28:49.069492 13535 net.cpp:129] Top shape: 1 13 8 (104)
I0228 21:28:49.069496 13535 net.cpp:129] Top shape: 1 13 8 (104)
I0228 21:28:49.069499 13535 net.cpp:137] Memory required for data: 123136
I0228 21:28:49.069502 13535 layer_factory.hpp:77] Creating layer lstm1_h_conted_12
I0228 21:28:49.069507 13535 net.cpp:84] Creating Layer lstm1_h_conted_12
I0228 21:28:49.069511 13535 net.cpp:406] lstm1_h_conted_12 <- h_12_lstm1_unit_12_1_split_0
I0228 21:28:49.069515 13535 net.cpp:406] lstm1_h_conted_12 <- cont_13_lstm1_cont_slice_12_split_0
I0228 21:28:49.069520 13535 net.cpp:380] lstm1_h_conted_12 -> h_conted_12
I0228 21:28:49.069555 13535 net.cpp:122] Setting up lstm1_h_conted_12
I0228 21:28:49.069559 13535 net.cpp:129] Top shape: 1 13 8 (104)
I0228 21:28:49.069562 13535 net.cpp:137] Memory required for data: 123552
I0228 21:28:49.069579 13535 layer_factory.hpp:77] Creating layer lstm1_transform_13
I0228 21:28:49.069584 13535 net.cpp:84] Creating Layer lstm1_transform_13
I0228 21:28:49.069588 13535 net.cpp:406] lstm1_transform_13 <- h_conted_12
I0228 21:28:49.069593 13535 net.cpp:380] lstm1_transform_13 -> W_hc_h_12
I0228 21:28:49.069627 13535 net.cpp:122] Setting up lstm1_transform_13
I0228 21:28:49.069631 13535 net.cpp:129] Top shape: 1 13 32 (416)
I0228 21:28:49.069634 13535 net.cpp:137] Memory required for data: 125216
I0228 21:28:49.069638 13535 net.cpp:465] Sharing parameters 'W_hc' owned by layer 'lstm1_transform_1', param index 0
I0228 21:28:49.069641 13535 layer_factory.hpp:77] Creating layer lstm1_gate_input_13
I0228 21:28:49.069645 13535 net.cpp:84] Creating Layer lstm1_gate_input_13
I0228 21:28:49.069649 13535 net.cpp:406] lstm1_gate_input_13 <- W_hc_h_12
I0228 21:28:49.069653 13535 net.cpp:406] lstm1_gate_input_13 <- W_xc_x_13
I0228 21:28:49.069656 13535 net.cpp:380] lstm1_gate_input_13 -> gate_input_13
I0228 21:28:49.069670 13535 net.cpp:122] Setting up lstm1_gate_input_13
I0228 21:28:49.069675 13535 net.cpp:129] Top shape: 1 13 32 (416)
I0228 21:28:49.069685 13535 net.cpp:137] Memory required for data: 126880
I0228 21:28:49.069689 13535 layer_factory.hpp:77] Creating layer lstm1_unit_13
I0228 21:28:49.069694 13535 net.cpp:84] Creating Layer lstm1_unit_13
I0228 21:28:49.069697 13535 net.cpp:406] lstm1_unit_13 <- c_12
I0228 21:28:49.069701 13535 net.cpp:406] lstm1_unit_13 <- gate_input_13
I0228 21:28:49.069705 13535 net.cpp:406] lstm1_unit_13 <- cont_13_lstm1_cont_slice_12_split_1
I0228 21:28:49.069710 13535 net.cpp:380] lstm1_unit_13 -> c_13
I0228 21:28:49.069715 13535 net.cpp:380] lstm1_unit_13 -> h_13
I0228 21:28:49.069739 13535 net.cpp:122] Setting up lstm1_unit_13
I0228 21:28:49.069744 13535 net.cpp:129] Top shape: 1 13 8 (104)
I0228 21:28:49.069748 13535 net.cpp:129] Top shape: 1 13 8 (104)
I0228 21:28:49.069751 13535 net.cpp:137] Memory required for data: 127712
I0228 21:28:49.069753 13535 layer_factory.hpp:77] Creating layer h_13_lstm1_unit_13_1_split
I0228 21:28:49.069773 13535 net.cpp:84] Creating Layer h_13_lstm1_unit_13_1_split
I0228 21:28:49.069777 13535 net.cpp:406] h_13_lstm1_unit_13_1_split <- h_13
I0228 21:28:49.069782 13535 net.cpp:380] h_13_lstm1_unit_13_1_split -> h_13_lstm1_unit_13_1_split_0
I0228 21:28:49.069787 13535 net.cpp:380] h_13_lstm1_unit_13_1_split -> h_13_lstm1_unit_13_1_split_1
I0228 21:28:49.069809 13535 net.cpp:122] Setting up h_13_lstm1_unit_13_1_split
I0228 21:28:49.069820 13535 net.cpp:129] Top shape: 1 13 8 (104)
I0228 21:28:49.069828 13535 net.cpp:129] Top shape: 1 13 8 (104)
I0228 21:28:49.069833 13535 net.cpp:137] Memory required for data: 128544
I0228 21:28:49.069838 13535 layer_factory.hpp:77] Creating layer lstm1_h_conted_13
I0228 21:28:49.069842 13535 net.cpp:84] Creating Layer lstm1_h_conted_13
I0228 21:28:49.069846 13535 net.cpp:406] lstm1_h_conted_13 <- h_13_lstm1_unit_13_1_split_0
I0228 21:28:49.069850 13535 net.cpp:406] lstm1_h_conted_13 <- cont_14_lstm1_cont_slice_13_split_0
I0228 21:28:49.069859 13535 net.cpp:380] lstm1_h_conted_13 -> h_conted_13
I0228 21:28:49.069898 13535 net.cpp:122] Setting up lstm1_h_conted_13
I0228 21:28:49.069918 13535 net.cpp:129] Top shape: 1 13 8 (104)
I0228 21:28:49.069921 13535 net.cpp:137] Memory required for data: 128960
I0228 21:28:49.069924 13535 layer_factory.hpp:77] Creating layer lstm1_transform_14
I0228 21:28:49.069929 13535 net.cpp:84] Creating Layer lstm1_transform_14
I0228 21:28:49.069932 13535 net.cpp:406] lstm1_transform_14 <- h_conted_13
I0228 21:28:49.069936 13535 net.cpp:380] lstm1_transform_14 -> W_hc_h_13
I0228 21:28:49.069965 13535 net.cpp:122] Setting up lstm1_transform_14
I0228 21:28:49.069970 13535 net.cpp:129] Top shape: 1 13 32 (416)
I0228 21:28:49.069973 13535 net.cpp:137] Memory required for data: 130624
I0228 21:28:49.069977 13535 net.cpp:465] Sharing parameters 'W_hc' owned by layer 'lstm1_transform_1', param index 0
I0228 21:28:49.069980 13535 layer_factory.hpp:77] Creating layer lstm1_gate_input_14
I0228 21:28:49.069985 13535 net.cpp:84] Creating Layer lstm1_gate_input_14
I0228 21:28:49.069988 13535 net.cpp:406] lstm1_gate_input_14 <- W_hc_h_13
I0228 21:28:49.069993 13535 net.cpp:406] lstm1_gate_input_14 <- W_xc_x_14
I0228 21:28:49.069996 13535 net.cpp:380] lstm1_gate_input_14 -> gate_input_14
I0228 21:28:49.070010 13535 net.cpp:122] Setting up lstm1_gate_input_14
I0228 21:28:49.070015 13535 net.cpp:129] Top shape: 1 13 32 (416)
I0228 21:28:49.070019 13535 net.cpp:137] Memory required for data: 132288
I0228 21:28:49.070021 13535 layer_factory.hpp:77] Creating layer lstm1_unit_14
I0228 21:28:49.070025 13535 net.cpp:84] Creating Layer lstm1_unit_14
I0228 21:28:49.070029 13535 net.cpp:406] lstm1_unit_14 <- c_13
I0228 21:28:49.070034 13535 net.cpp:406] lstm1_unit_14 <- gate_input_14
I0228 21:28:49.070037 13535 net.cpp:406] lstm1_unit_14 <- cont_14_lstm1_cont_slice_13_split_1
I0228 21:28:49.070041 13535 net.cpp:380] lstm1_unit_14 -> c_14
I0228 21:28:49.070046 13535 net.cpp:380] lstm1_unit_14 -> h_14
I0228 21:28:49.070070 13535 net.cpp:122] Setting up lstm1_unit_14
I0228 21:28:49.070075 13535 net.cpp:129] Top shape: 1 13 8 (104)
I0228 21:28:49.070086 13535 net.cpp:129] Top shape: 1 13 8 (104)
I0228 21:28:49.070088 13535 net.cpp:137] Memory required for data: 133120
I0228 21:28:49.096505 13535 layer_factory.hpp:77] Creating layer h_14_lstm1_unit_14_1_split
I0228 21:28:49.096523 13535 net.cpp:84] Creating Layer h_14_lstm1_unit_14_1_split
I0228 21:28:49.096529 13535 net.cpp:406] h_14_lstm1_unit_14_1_split <- h_14
I0228 21:28:49.096534 13535 net.cpp:380] h_14_lstm1_unit_14_1_split -> h_14_lstm1_unit_14_1_split_0
I0228 21:28:49.096546 13535 net.cpp:380] h_14_lstm1_unit_14_1_split -> h_14_lstm1_unit_14_1_split_1
I0228 21:28:49.096595 13535 net.cpp:122] Setting up h_14_lstm1_unit_14_1_split
I0228 21:28:49.096606 13535 net.cpp:129] Top shape: 1 13 8 (104)
I0228 21:28:49.096611 13535 net.cpp:129] Top shape: 1 13 8 (104)
I0228 21:28:49.096613 13535 net.cpp:137] Memory required for data: 133952
I0228 21:28:49.096616 13535 layer_factory.hpp:77] Creating layer lstm1_h_conted_14
I0228 21:28:49.096622 13535 net.cpp:84] Creating Layer lstm1_h_conted_14
I0228 21:28:49.096626 13535 net.cpp:406] lstm1_h_conted_14 <- h_14_lstm1_unit_14_1_split_0
I0228 21:28:49.096632 13535 net.cpp:406] lstm1_h_conted_14 <- cont_15_lstm1_cont_slice_14_split_0
I0228 21:28:49.096652 13535 net.cpp:380] lstm1_h_conted_14 -> h_conted_14
I0228 21:28:49.096721 13535 net.cpp:122] Setting up lstm1_h_conted_14
I0228 21:28:49.096727 13535 net.cpp:129] Top shape: 1 13 8 (104)
I0228 21:28:49.096730 13535 net.cpp:137] Memory required for data: 134368
I0228 21:28:49.096734 13535 layer_factory.hpp:77] Creating layer lstm1_transform_15
I0228 21:28:49.096740 13535 net.cpp:84] Creating Layer lstm1_transform_15
I0228 21:28:49.096743 13535 net.cpp:406] lstm1_transform_15 <- h_conted_14
I0228 21:28:49.096748 13535 net.cpp:380] lstm1_transform_15 -> W_hc_h_14
I0228 21:28:49.096786 13535 net.cpp:122] Setting up lstm1_transform_15
I0228 21:28:49.096792 13535 net.cpp:129] Top shape: 1 13 32 (416)
I0228 21:28:49.096796 13535 net.cpp:137] Memory required for data: 136032
I0228 21:28:49.096806 13535 net.cpp:465] Sharing parameters 'W_hc' owned by layer 'lstm1_transform_1', param index 0
I0228 21:28:49.096809 13535 layer_factory.hpp:77] Creating layer lstm1_gate_input_15
I0228 21:28:49.096817 13535 net.cpp:84] Creating Layer lstm1_gate_input_15
I0228 21:28:49.096820 13535 net.cpp:406] lstm1_gate_input_15 <- W_hc_h_14
I0228 21:28:49.096824 13535 net.cpp:406] lstm1_gate_input_15 <- W_xc_x_15
I0228 21:28:49.096829 13535 net.cpp:380] lstm1_gate_input_15 -> gate_input_15
I0228 21:28:49.096845 13535 net.cpp:122] Setting up lstm1_gate_input_15
I0228 21:28:49.096851 13535 net.cpp:129] Top shape: 1 13 32 (416)
I0228 21:28:49.096854 13535 net.cpp:137] Memory required for data: 137696
I0228 21:28:49.096858 13535 layer_factory.hpp:77] Creating layer lstm1_unit_15
I0228 21:28:49.096861 13535 net.cpp:84] Creating Layer lstm1_unit_15
I0228 21:28:49.096866 13535 net.cpp:406] lstm1_unit_15 <- c_14
I0228 21:28:49.096870 13535 net.cpp:406] lstm1_unit_15 <- gate_input_15
I0228 21:28:49.096874 13535 net.cpp:406] lstm1_unit_15 <- cont_15_lstm1_cont_slice_14_split_1
I0228 21:28:49.096879 13535 net.cpp:380] lstm1_unit_15 -> c_15
I0228 21:28:49.096884 13535 net.cpp:380] lstm1_unit_15 -> h_15
I0228 21:28:49.096911 13535 net.cpp:122] Setting up lstm1_unit_15
I0228 21:28:49.096916 13535 net.cpp:129] Top shape: 1 13 8 (104)
I0228 21:28:49.096920 13535 net.cpp:129] Top shape: 1 13 8 (104)
I0228 21:28:49.096923 13535 net.cpp:137] Memory required for data: 138528
I0228 21:28:49.096926 13535 layer_factory.hpp:77] Creating layer h_15_lstm1_unit_15_1_split
I0228 21:28:49.096930 13535 net.cpp:84] Creating Layer h_15_lstm1_unit_15_1_split
I0228 21:28:49.096933 13535 net.cpp:406] h_15_lstm1_unit_15_1_split <- h_15
I0228 21:28:49.096937 13535 net.cpp:380] h_15_lstm1_unit_15_1_split -> h_15_lstm1_unit_15_1_split_0
I0228 21:28:49.096942 13535 net.cpp:380] h_15_lstm1_unit_15_1_split -> h_15_lstm1_unit_15_1_split_1
I0228 21:28:49.096961 13535 net.cpp:122] Setting up h_15_lstm1_unit_15_1_split
I0228 21:28:49.096966 13535 net.cpp:129] Top shape: 1 13 8 (104)
I0228 21:28:49.096979 13535 net.cpp:129] Top shape: 1 13 8 (104)
I0228 21:28:49.096982 13535 net.cpp:137] Memory required for data: 139360
I0228 21:28:49.096985 13535 layer_factory.hpp:77] Creating layer lstm1_h_conted_15
I0228 21:28:49.096992 13535 net.cpp:84] Creating Layer lstm1_h_conted_15
I0228 21:28:49.096994 13535 net.cpp:406] lstm1_h_conted_15 <- h_15_lstm1_unit_15_1_split_0
I0228 21:28:49.096999 13535 net.cpp:406] lstm1_h_conted_15 <- cont_16_lstm1_cont_slice_15_split_0
I0228 21:28:49.097003 13535 net.cpp:380] lstm1_h_conted_15 -> h_conted_15
I0228 21:28:49.097035 13535 net.cpp:122] Setting up lstm1_h_conted_15
I0228 21:28:49.097043 13535 net.cpp:129] Top shape: 1 13 8 (104)
I0228 21:28:49.097046 13535 net.cpp:137] Memory required for data: 139776
I0228 21:28:49.097049 13535 layer_factory.hpp:77] Creating layer lstm1_transform_16
I0228 21:28:49.097055 13535 net.cpp:84] Creating Layer lstm1_transform_16
I0228 21:28:49.097059 13535 net.cpp:406] lstm1_transform_16 <- h_conted_15
I0228 21:28:49.097064 13535 net.cpp:380] lstm1_transform_16 -> W_hc_h_15
I0228 21:28:49.097092 13535 net.cpp:122] Setting up lstm1_transform_16
I0228 21:28:49.097098 13535 net.cpp:129] Top shape: 1 13 32 (416)
I0228 21:28:49.097101 13535 net.cpp:137] Memory required for data: 141440
I0228 21:28:49.097105 13535 net.cpp:465] Sharing parameters 'W_hc' owned by layer 'lstm1_transform_1', param index 0
I0228 21:28:49.097108 13535 layer_factory.hpp:77] Creating layer lstm1_gate_input_16
I0228 21:28:49.097113 13535 net.cpp:84] Creating Layer lstm1_gate_input_16
I0228 21:28:49.097116 13535 net.cpp:406] lstm1_gate_input_16 <- W_hc_h_15
I0228 21:28:49.097121 13535 net.cpp:406] lstm1_gate_input_16 <- W_xc_x_16
I0228 21:28:49.097126 13535 net.cpp:380] lstm1_gate_input_16 -> gate_input_16
I0228 21:28:49.097139 13535 net.cpp:122] Setting up lstm1_gate_input_16
I0228 21:28:49.097144 13535 net.cpp:129] Top shape: 1 13 32 (416)
I0228 21:28:49.097147 13535 net.cpp:137] Memory required for data: 143104
I0228 21:28:49.097151 13535 layer_factory.hpp:77] Creating layer lstm1_unit_16
I0228 21:28:49.097156 13535 net.cpp:84] Creating Layer lstm1_unit_16
I0228 21:28:49.097158 13535 net.cpp:406] lstm1_unit_16 <- c_15
I0228 21:28:49.097162 13535 net.cpp:406] lstm1_unit_16 <- gate_input_16
I0228 21:28:49.097167 13535 net.cpp:406] lstm1_unit_16 <- cont_16_lstm1_cont_slice_15_split_1
I0228 21:28:49.097170 13535 net.cpp:380] lstm1_unit_16 -> c_16
I0228 21:28:49.097175 13535 net.cpp:380] lstm1_unit_16 -> h_16
I0228 21:28:49.097199 13535 net.cpp:122] Setting up lstm1_unit_16
I0228 21:28:49.097204 13535 net.cpp:129] Top shape: 1 13 8 (104)
I0228 21:28:49.097208 13535 net.cpp:129] Top shape: 1 13 8 (104)
I0228 21:28:49.097211 13535 net.cpp:137] Memory required for data: 143936
I0228 21:28:49.097214 13535 layer_factory.hpp:77] Creating layer lstm1_
I0228 21:28:49.097218 13535 net.cpp:84] Creating Layer lstm1_
I0228 21:28:49.097221 13535 net.cpp:406] lstm1_ <- c_16
I0228 21:28:49.097225 13535 net.cpp:380] lstm1_ -> c_T
I0228 21:28:49.097237 13535 net.cpp:122] Setting up lstm1_
I0228 21:28:49.097242 13535 net.cpp:129] Top shape: 1 13 8 (104)
I0228 21:28:49.097245 13535 net.cpp:137] Memory required for data: 144352
I0228 21:28:49.097249 13535 layer_factory.hpp:77] Creating layer lstm1_h_concat
I0228 21:28:49.097254 13535 net.cpp:84] Creating Layer lstm1_h_concat
I0228 21:28:49.097259 13535 net.cpp:406] lstm1_h_concat <- h_1_lstm1_unit_1_1_split_1
I0228 21:28:49.097262 13535 net.cpp:406] lstm1_h_concat <- h_2_lstm1_unit_2_1_split_1
…
I0228 21:28:49.127034 13535 net.cpp:200] lstm1_ does not need backward computation.
I0228 21:28:49.127038 13535 net.cpp:242] This network produces output c_T
I0228 21:28:49.127045 13535 net.cpp:242] This network produces output h_pseudoloss
I0228 21:28:49.127239 13535 net.cpp:255] Network initialization done.
I0228 21:28:49.127368 13535 recurrent_layer.cpp:150] Adding parameter 0: W_xc
I0228 21:28:49.127373 13535 recurrent_layer.cpp:150] Adding parameter 1: b_c
I0228 21:28:49.127377 13535 recurrent_layer.cpp:150] Adding parameter 2: W_hc
I0228 21:28:49.127496 13535 net.cpp:122] Setting up lstm1
I0228 21:28:49.127507 13535 net.cpp:129] Top shape: 16 13 8 (1664)
I0228 21:28:49.127511 13535 net.cpp:137] Memory required for data: 8512
I0228 21:28:49.127542 13535 layer_factory.hpp:77] Creating layer out
I0228 21:28:49.127563 13535 net.cpp:84] Creating Layer out
I0228 21:28:49.127568 13535 net.cpp:406] out <- lstm1
I0228 21:28:49.127571 13535 net.cpp:380] out -> out
I0228 21:28:49.128340 13535 net.cpp:122] Setting up out
I0228 21:28:49.128352 13535 net.cpp:129] Top shape: 16 5 (80)
I0228 21:28:49.128356 13535 net.cpp:137] Memory required for data: 8832
I0228 21:28:49.128366 13535 layer_factory.hpp:77] Creating layer out_out_0_split
I0228 21:28:49.128373 13535 net.cpp:84] Creating Layer out_out_0_split
I0228 21:28:49.128377 13535 net.cpp:406] out_out_0_split <- out
I0228 21:28:49.128382 13535 net.cpp:380] out_out_0_split -> out_out_0_split_0
I0228 21:28:49.128387 13535 net.cpp:380] out_out_0_split -> out_out_0_split_1
I0228 21:28:49.128420 13535 net.cpp:122] Setting up out_out_0_split
I0228 21:28:49.128427 13535 net.cpp:129] Top shape: 16 5 (80)
I0228 21:28:49.128432 13535 net.cpp:129] Top shape: 16 5 (80)
I0228 21:28:49.128434 13535 net.cpp:137] Memory required for data: 9472
I0228 21:28:49.128437 13535 layer_factory.hpp:77] Creating layer softmax
I0228 21:28:49.128460 13535 net.cpp:84] Creating Layer softmax
I0228 21:28:49.128465 13535 net.cpp:406] softmax <- out_out_0_split_0
I0228 21:28:49.128469 13535 net.cpp:380] softmax -> softmax
I0228 21:28:49.542179 13535 net.cpp:122] Setting up softmax
I0228 21:28:49.542217 13535 net.cpp:129] Top shape: 16 5 (80)
I0228 21:28:49.542222 13535 net.cpp:137] Memory required for data: 9792
I0228 21:28:49.542227 13535 layer_factory.hpp:77] Creating layer softmax_softmax_0_split
I0228 21:28:49.542234 13535 net.cpp:84] Creating Layer softmax_softmax_0_split
I0228 21:28:49.542238 13535 net.cpp:406] softmax_softmax_0_split <- softmax
I0228 21:28:49.542244 13535 net.cpp:380] softmax_softmax_0_split -> softmax_softmax_0_split_0
I0228 21:28:49.542251 13535 net.cpp:380] softmax_softmax_0_split -> softmax_softmax_0_split_1
I0228 21:28:49.542279 13535 net.cpp:122] Setting up softmax_softmax_0_split
I0228 21:28:49.542285 13535 net.cpp:129] Top shape: 16 5 (80)
I0228 21:28:49.542289 13535 net.cpp:129] Top shape: 16 5 (80)
I0228 21:28:49.542292 13535 net.cpp:137] Memory required for data: 10432
I0228 21:28:49.542295 13535 layer_factory.hpp:77] Creating layer argmax
I0228 21:28:49.542299 13535 net.cpp:84] Creating Layer argmax
I0228 21:28:49.542304 13535 net.cpp:406] argmax <- softmax_softmax_0_split_0
I0228 21:28:49.542307 13535 net.cpp:380] argmax -> argmax
I0228 21:28:49.542325 13535 net.cpp:122] Setting up argmax
I0228 21:28:49.542330 13535 net.cpp:129] Top shape: 16 1 1 (16)
I0228 21:28:49.542333 13535 net.cpp:137] Memory required for data: 10496
I0228 21:28:49.542336 13535 layer_factory.hpp:77] Creating layer accuracy
I0228 21:28:49.542361 13535 net.cpp:84] Creating Layer accuracy
I0228 21:28:49.542363 13535 net.cpp:406] accuracy <- softmax_softmax_0_split_1
I0228 21:28:49.542383 13535 net.cpp:406] accuracy <- label_Input_2_split_0
I0228 21:28:49.542387 13535 net.cpp:380] accuracy -> accuracy
…
