…
  top: "data"
  data_param {
    source: "/home/leonida/ThesisCode/LSTM_on_Create2/NavDatabases/LAB-21-2-new-step-condition/states_db-2-21-15-4_lmdb"
    batch_size: 24
    backend: LMDB
  }
}
layer {
  name: "label"
  type: "Data"
  top: "labels"
  data_param {
    source: "/home/leonida/ThesisCode/LSTM_on_Create2/NavDatabases/LAB-21-2-new-step-condition/labels_db-2-21-15-4_twist-variant_lmdb"
    batch_size: 24
    backend: LMDB
  }
}
layer {
  name: "clip"
  type: "Input"
  top: "clip"
  input_param {
    shape {
      dim: 24
      dim: 26
    }
  }
}
layer {
  name: "lstm1"
  type: "LSTM"
  bottom: "data"
  bottom: "clip"
  top: "lstm1"
  recurrent_param {
    num_output: 64
    weight_filler {
      type: "xavier"
    }
    bias_filler {
      type: "constant"
    }
  }
}
layer {
  name: "Drop1"
  type: "Dropout"
  bottom: "lstm1"
  top: "lstm1"
  dropout_param {
    dropout_ratio: 0.5
  }
}
layer {
  name: "out"
  type: "InnerProduct"
  bottom: "lstm1"
  top: "out"
  inner_product_param {
    num_output: 2
    weight_filler {
      type: "gaussian"
      std: 0.1
    }
    bias_filler {
      type: "constant"
    }
  }
}
layer {
  name: "euclideanLoss"
  type: "EuclideanLoss"
  bottom: "out"
  bottom: "labels"
  top: "loss"
}
I0222 17:42:50.278627 25235 layer_factory.hpp:77] Creating layer data
I0222 17:42:50.278703 25235 db_lmdb.cpp:35] Opened lmdb /home/leonida/ThesisCode/LSTM_on_Create2/NavDatabases/LAB-21-2-new-step-condition/states_db-2-21-15-4_lmdb
I0222 17:42:50.278720 25235 net.cpp:84] Creating Layer data
I0222 17:42:50.278726 25235 net.cpp:380] data -> data
I0222 17:42:50.279383 25235 data_layer.cpp:45] output data size: 24,26,1,1
I0222 17:42:50.284081 25235 net.cpp:122] Setting up data
I0222 17:42:50.284101 25235 net.cpp:129] Top shape: 24 26 1 1 (624)
I0222 17:42:50.284129 25235 net.cpp:137] Memory required for data: 2496
I0222 17:42:50.284137 25235 layer_factory.hpp:77] Creating layer label
I0222 17:42:50.284178 25235 db_lmdb.cpp:35] Opened lmdb /home/leonida/ThesisCode/LSTM_on_Create2/NavDatabases/LAB-21-2-new-step-condition/labels_db-2-21-15-4_twist-variant_lmdb
I0222 17:42:50.284191 25235 net.cpp:84] Creating Layer label
I0222 17:42:50.284198 25235 net.cpp:380] label -> labels
I0222 17:42:50.284270 25235 data_layer.cpp:45] output data size: 24,2,1,1
I0222 17:42:50.284674 25235 net.cpp:122] Setting up label
I0222 17:42:50.284684 25235 net.cpp:129] Top shape: 24 2 1 1 (48)
I0222 17:42:50.284700 25235 net.cpp:137] Memory required for data: 2688
I0222 17:42:50.284705 25235 layer_factory.hpp:77] Creating layer clip
I0222 17:42:50.284720 25235 net.cpp:84] Creating Layer clip
I0222 17:42:50.284725 25235 net.cpp:380] clip -> clip
I0222 17:42:50.284749 25235 net.cpp:122] Setting up clip
I0222 17:42:50.284756 25235 net.cpp:129] Top shape: 24 26 (624)
I0222 17:42:50.284760 25235 net.cpp:137] Memory required for data: 5184
I0222 17:42:50.284776 25235 layer_factory.hpp:77] Creating layer lstm1
I0222 17:42:50.284788 25235 net.cpp:84] Creating Layer lstm1
I0222 17:42:50.284795 25235 net.cpp:406] lstm1 <- data
I0222 17:42:50.284804 25235 net.cpp:406] lstm1 <- clip
I0222 17:42:50.284809 25235 net.cpp:380] lstm1 -> lstm1
I0222 17:42:50.284821 25235 recurrent_layer.cpp:20] Initializing recurrent layer: assuming input batch contains 24 timesteps of 26 independent streams.
I0222 17:42:50.285398 25235 net.cpp:51] Initializing net from parameters: 
layer {
  name: "lstm1_"
  type: "Input"
  top: "x"
  top: "cont"
  input_param {
    shape {
      dim: 24
      dim: 26
      dim: 1
      dim: 1
    }
    shape {
      dim: 24
      dim: 26
    }
  }
}
layer {
  name: "lstm1_"
  type: "Input"
  top: "c_0"
  top: "h_0"
  input_param {
    shape {
      dim: 1
      dim: 26
      dim: 64
    }
    shape {
      dim: 1
      dim: 26
      dim: 64
    }
  }
}
layer {
  name: "lstm1_cont_slice"
  type: "Slice"
  bottom: "cont"
  top: "cont_1"
  top: "cont_2"
  top: "cont_3"
  top: "cont_4"
  top: "cont_5"
  top: "cont_6"
  top: "cont_7"
  top: "cont_8"
  top: "cont_9"
  top: "cont_10"
  top: "cont_11"
  top: "cont_12"
  top: "cont_13"
  top: "cont_14"
  top: "cont_15"
  top: "cont_16"
  top: "cont_17"
  top: "cont_18"
  top: "cont_19"
  top: "cont_20"
  top: "cont_21"
  top: "cont_22"
  top: "cont_23"
  top: "cont_24"
  slice_param {
    axis: 0
  }
}
layer {
  name: "lstm1_x_transform"
  type: "InnerProduct"
  bottom: "x"
  top: "W_xc_x"
  param {
    name: "W_xc"
  }
  param {
    name: "b_c"
  }
  propagate_down: true
  inner_product_param {
    num_output: 256
    bias_term: true
    weight_filler {
      type: "xavier"
    }
    bias_filler {
      type: "constant"
    }
    axis: 2
  }
}
layer {
  name: "lstm1_W_xc_x_slice"
  type: "Slice"
  bottom: "W_xc_x"
  top: "W_xc_x_1"
  top: "W_xc_x_2"
  top: "W_xc_x_3"
  top: "W_xc_x_4"
  top: "W_xc_x_5"
  top: "W_xc_x_6"
  top: "W_xc_x_7"
  top: "W_xc_x_8"
  top: "W_xc_x_9"
  top: "W_xc_x_10"
  top: "W_xc_x_11"
  top: "W_xc_x_12"
  top: "W_xc_x_13"
  top: "W_xc_x_14"
  top: "W_xc_x_15"
  top: "W_xc_x_16"
  top: "W_xc_x_17"
  top: "W_xc_x_18"
  top: "W_xc_x_19"
  top: "W_xc_x_20"
  top: "W_xc_x_21"
  top: "W_xc_x_22"
  top: "W_xc_x_23"
  top: "W_xc_x_24"
  slice_param {
    axis: 0
  }
}
layer {
  name: "lstm1_h_conted_0"
  type: "Scale"
  bottom: "h_0"
  bottom: "cont_1"
  top: "h_conted_0"
  scale_param {
    axis: 0
  }
}
layer {
  name: "lstm1_transform_1"
  type: "InnerProduct"
  bottom: "h_conted_0"
  top: "W_hc_h_0"
  param {
    name: "W_hc"
  }
  inner_product_param {
    num_output: 256
    bias_term: false
    weight_filler {
      type: "xavier"
    }
    axis: 2
  }
}
layer {
  name: "lstm1_gate_input_1"
  type: "Eltwise"
  bottom: "W_hc_h_0"
  bottom: "W_xc_x_1"
  top: "gate_input_1"
  eltwise_param {
    operation: SUM
  }
}
layer {
  name: "lstm1_unit_1"
  type: "LSTMUnit"
  bottom: "c_0"
  bottom: "gate_input_1"
  bottom: "cont_1"
  top: "c_1"
  top: "h_1"
}
layer {
  name: "lstm1_h_conted_1"
  type: "Scale"
  bottom: "h_1"
  bottom: "cont_2"
  top: "h_conted_1"
  scale_param {
    axis: 0
  }
}
layer {
  name: "lstm1_transform_2"
  type: "InnerProduct"
  bottom: "h_conted_1"
  top: "W_hc_h_1"
  param {
    name: "W_hc"
  }
  inner_product_param {
    num_output: 256
    bias_term: false
    weight_filler {
      type: "xavier"
    }
    axis: 2
  }
}
layer {
  name: "lstm1_gate_input_2"
  type: "Eltwise"
  bottom: "W_hc_h_1"
  bottom: "W_xc_x_2"
  top: "gate_input_2"
  eltwise_param {
    operation: SUM
  }
}
layer {
  name: "lstm1_unit_2"
  type: "LSTMUnit"
  bottom: "c_1"
  bottom: "gate_input_2"
  bottom: "cont_2"
  top: "c_2"
  top: "h_2"
}
layer {
  name: "lstm1_h_conted_2"
  type: "Scale"
  bottom: "h_2"
  bottom: "cont_3"
  top: "h_conted_2"
  scale_param {
    axis: 0
  }
}
layer {
  name: "lstm1_transform_3"
  type: "InnerProduct"
  bottom: "h_conted_2"
  top: "W_hc_h_2"
  param {
    name: "W_hc"
  }
  inner_product_param {
    num_output: 256
    bias_term: false
    weight_filler {
      type: "xavier"
    }
    axis: 2
  }
}
layer {
  name: "lstm1_gate_input_3"
  type: "Eltwise"
  bottom: "W_hc_h_2"
  bottom: "W_xc_x_3"
  top: "gate_input_3"
  eltwise_param {
    operation: SUM
  }
}
layer {
  name: "lstm1_unit_3"
  type: "LSTMUnit"
  bottom: "c_2"
  bottom: "gate_input_3"
  bottom: "cont_3"
  top: "c_3"
  top: "h_3"
}
layer {
  name: "lstm1_h_conted_3"
  type: "Scale"
  bottom: "h_3"
  bottom: "cont_4"
  top: "h_conted_3"
  scale_param {
    axis: 0
  }
}
layer {
  name: "lstm1_transform_4"
  type: "InnerProduct"
  bottom: "h_conted_3"
  top: "W_hc_h_3"
  param {
    name: "W_hc"
  }
  inner_product_param {
    num_output: 256
    bias_term: false
    weight_filler {
      type: "xavier"
    }
    axis: 2
  }
}
layer {
  name: "lstm1_gate_input_4"
  type: "Eltwise"
  bottom: "W_hc_h_3"
  bottom: "W_xc_x_4"
  top: "gate_input_4"
  eltwise_param {
    operation: SUM
  }
}
layer {
  name: "lstm1_unit_4"
  type: "LSTMUnit"
  bottom: "c_3"
  bottom: "gate_input_4"
  bottom: "cont_4"
  top: "c_4"
  top: "h_4"
}
layer {
  name: "lstm1_h_conted_4"
  type: "Scale"
  bottom: "h_4"
  bottom: "cont_5"
  top: "h_conted_4"
  scale_param {
    axis: 0
  }
}
layer {
  name: "lstm1_transform_5"
  type: "InnerProduct"
  bottom: "h_conted_4"
  top: "W_hc_h_4"
  param {
    name: "W_hc"
  }
  inner_product_param {
    num_output: 256
    bias_term: false
    weight_filler {
      type: "xavier"
    }
    axis: 2
  }
}
layer {
  name: "lstm1_gate_input_5"
  type: "Eltwise"
  bottom: "W_hc_h_4"
  bottom: "W_xc_x_5"
  top: "gate_input_5"
  eltwise_param {
    operation: SUM
  }
}
layer {
  name: "lstm1_unit_5"
  type: "LSTMUnit"
  bottom: "c_4"
  bottom: "gate_input_5"
  bottom: "cont_5"
  top: "c_5"
  top: "h_5"
}
layer {
  name: "lstm1_h_conted_5"
  type: "Scale"
  bottom: "h_5"
  bottom: "cont_6"
  top: "h_conted_5"
  scale_param {
    axis: 0
  }
}
layer {
  name: "lstm1_transform_6"
  type: "InnerProduct"
  bottom: "h_conted_5"
  top: "W_hc_h_5"
  param {
    name: "W_hc"
  }
  inner_product_param {
    num_output: 256
    bias_term: false
    weight_filler {
      type: "xavier"
    }
    axis: 2
  }
}
layer {
  name: "lstm1_gate_input_6"
  type: "Eltwise"
  bottom: "W_hc_h_5"
  bottom: "W_xc_x_6"
  top: "gate_input_6"
  eltwise_param {
    operation: SUM
  }
}
layer {
  name: "lstm1_unit_6"
  type: "LSTMUnit"
  bottom: "c_5"
  bottom: "gate_input_6"
  bottom: "cont_6"
  top: "c_6"
  top: "h_6"
}
layer {
  name: "lstm1_h_conted_6"
  type: "Scale"
  bottom: "h_6"
  bottom: "cont_7"
  top: "h_conted_6"
  scale_param {
    axis: 0
  }
}
layer {
  name: "lstm1_transform_7"
  type: "InnerProduct"
  bottom: "h_conted_6"
  top: "W_hc_h_6"
  param {
    name: "W_hc"
  }
  inner_product_param {
    num_output: 256
    bias_term: false
    weight_filler {
      type: "xavier"
    }
    axis: 2
  }
}
layer {
  name: "lstm1_gate_input_7"
  type: "Eltwise"
  bottom: "W_hc_h_6"
  bottom: "W_xc_x_7"
  top: "gate_input_7"
  eltwise_param {
    operation: SUM
  }
}
layer {
  name: "lstm1_unit_7"
  type: "LSTMUnit"
  bottom: "c_6"
  bottom: "gate_input_7"
  bottom: "cont_7"
  top: "c_7"
  top: "h_7"
}
layer {
  name: "lstm1_h_conted_7"
  type: "Scale"
  bottom: "h_7"
  bottom: "cont_8"
  top: "h_conted_7"
  scale_param {
    axis: 0
  }
}
layer {
  name: "lstm1_transform_8"
  type: "InnerProduct"
  bottom: "h_conted_7"
  top: "W_hc_h_7"
  param {
    name: "W_hc"
  }
  inner_product_param {
    num_output: 256
    bias_term: false
    weight_filler {
      type: "xavier"
    }
    axis: 2
  }
}
layer {
  name: "lstm1_gate_input_8"
  type: "Eltwise"
  bottom: "W_hc_h_7"
  bottom: "W_xc_x_8"
  top: "gate_input_8"
  eltwise_param {
    operation: SUM
  }
}
layer {
  name: "lstm1_unit_8"
  type: "LSTMUnit"
  bottom: "c_7"
  bottom: "gate_input_8"
  bottom: "cont_8"
  top: "c_8"
  top: "h_8"
}
layer {
  name: "lstm1_h_conted_8"
  type: "Scale"
  bottom: "h_8"
  bottom: "cont_9"
  top: "h_conted_8"
  scale_param {
    axis: 0
  }
}
layer {
  name: "lstm1_transform_9"
  type: "InnerProduct"
  bottom: "h_conted_8"
  top: "W_hc_h_8"
  param {
    name: "W_hc"
  }
  inner_product_param {
    num_output: 256
    bias_term: false
    weight_filler {
      type: "xavier"
    }
    axis: 2
  }
}
layer {
  name: "lstm1_gate_input_9"
  type: "Eltwise"
  bottom: "W_hc_h_8"
  bottom: "W_xc_x_9"
  top: "gate_input_9"
  eltwise_param {
    operation: SUM
  }
}
layer {
  name: "lstm1_unit_9"
  type: "LSTMUnit"
  bottom: "c_8"
  bottom: "gate_input_9"
  bottom: "cont_9"
  top: "c_9"
  top: "h_9"
}
layer {
  name: "lstm1_h_conted_9"
  type: "Scale"
  bottom: "h_9"
  bottom: "cont_10"
  top: "h_conted_9"
  scale_param {
    axis: 0
  }
}
layer {
  name: "lstm1_transform_10"
  type: "InnerProduct"
  bottom: "h_conted_9"
  top: "W_hc_h_9"
  param {
    name: "W_hc"
  }
  inner_product_param {
    num_output: 256
    bias_term: false
    weight_filler {
      type: "xavier"
    }
    axis: 2
  }
}
layer {
  name: "lstm1_gate_input_10"
  type: "Eltwise"
  bottom: "W_hc_h_9"
  bottom: "W_xc_x_10"
  top: "gate_input_10"
  eltwise_param {
    operation: SUM
  }
}
layer {
  name: "lstm1_unit_10"
  type: "LSTMUnit"
  bottom: "c_9"
  bottom: "gate_input_10"
  bottom: "cont_10"
  top: "c_10"
  top: "h_10"
}
layer {
  name: "lstm1_h_conted_10"
  type: "Scale"
  bottom: "h_10"
  bottom: "cont_11"
  top: "h_conted_10"
  scale_param {
    axis: 0
  }
}
layer {
  name: "lstm1_transform_11"
  type: "InnerProduct"
  bottom: "h_conted_10"
  top: "W_hc_h_10"
  param {
    name: "W_hc"
  }
  inner_product_param {
    num_output: 256
    bias_term: false
    weight_filler {
      type: "xavier"
    }
    axis: 2
  }
}
layer {
  name: "lstm1_gate_input_11"
  type: "Eltwise"
  bottom: "W_hc_h_10"
  bottom: "W_xc_x_11"
  top: "gate_input_11"
  eltwise_param {
    operation: SUM
  }
}
layer {
  name: "lstm1_unit_11"
  type: "LSTMUnit"
  bottom: "c_10"
  bottom: "gate_input_11"
  bottom: "cont_11"
  top: "c_11"
  top: "h_11"
}
layer {
  name: "lstm1_h_conted_11"
  type: "Scale"
  bottom: "h_11"
  bottom: "cont_12"
  top: "h_conted_11"
  scale_param {
    axis: 0
  }
}
layer {
  name: "lstm1_transform_12"
  type: "InnerProduct"
  bottom: "h_conted_11"
  top: "W_hc_h_11"
  param {
    name: "W_hc"
  }
  inner_product_param {
    num_output: 256
    bias_term: false
    weight_filler {
      type: "xavier"
    }
    axis: 2
  }
}
layer {
  name: "lstm1_gate_input_12"
  type: "Eltwise"
  bottom: "W_hc_h_11"
  bottom: "W_xc_x_12"
  top: "gate_input_12"
  eltwise_param {
    operation: SUM
  }
}
layer {
  name: "lstm1_unit_12"
  type: "LSTMUnit"
  bottom: "c_11"
  bottom: "gate_input_12"
  bottom: "cont_12"
  top: "c_12"
  top: "h_12"
}
layer {
  name: "lstm1_h_conted_12"
  type: "Scale"
  bottom: "h_12"
  bottom: "cont_13"
  top: "h_conted_12"
  scale_param {
    axis: 0
  }
}
layer {
  name: "lstm1_transform_13"
  type: "InnerProduct"
  bottom: "h_conted_12"
  top: "W_hc_h_12"
  param {
    name: "W_hc"
  }
  inner_product_param {
    num_output: 256
    bias_term: false
    weight_filler {
      type: "xavier"
    }
    axis: 2
  }
}
layer {
  name: "lstm1_gate_input_13"
  type: "Eltwise"
  bottom: "W_hc_h_12"
  bottom: "W_xc_x_13"
  top: "gate_input_13"
  eltwise_param {
    operation: SUM
  }
}
layer {
  name: "lstm1_unit_13"
  type: "LSTMUnit"
  bottom: "c_12"
  bottom: "gate_input_13"
  bottom: "cont_13"
  top: "c_13"
  top: "h_13"
}
layer {
  name: "lstm1_h_conted_13"
  type: "Scale"
  bottom: "h_13"
  bottom: "cont_14"
  top: "h_conted_13"
  scale_param {
    axis: 0
  }
}
layer {
  name: "lstm1_transform_14"
  type: "InnerProduct"
  bottom: "h_conted_13"
  top: "W_hc_h_13"
  param {
    name: "W_hc"
  }
  inner_product_param {
    num_output: 256
    bias_term: false
    weight_filler {
      type: "xavier"
    }
    axis: 2
  }
}
layer {
  name: "lstm1_gate_input_14"
  type: "Eltwise"
  bottom: "W_hc_h_13"
  bottom: "W_xc_x_14"
  top: "gate_input_14"
  eltwise_param {
    operation: SUM
  }
}
layer {
  name: "lstm1_unit_14"
  type: "LSTMUnit"
  bottom: "c_13"
  bottom: "gate_input_14"
  bottom: "cont_14"
  top: "c_14"
  top: "h_14"
}
layer {
  name: "lstm1_h_conted_14"
  type: "Scale"
  bottom: "h_14"
  bottom: "cont_15"
  top: "h_conted_14"
  scale_param {
    axis: 0
  }
}
layer {
  name: "lstm1_transform_15"
  type: "InnerProduct"
  bottom: "h_conted_14"
  top: "W_hc_h_14"
  param {
    name: "W_hc"
  }
  inner_product_param {
    num_output: 256
    bias_term: false
    weight_filler {
      type: "xavier"
    }
    axis: 2
  }
}
layer {
  name: "lstm1_gate_input_15"
  type: "Eltwise"
  bottom: "W_hc_h_14"
  bottom: "W_xc_x_15"
  top: "gate_input_15"
  eltwise_param {
    operation: SUM
  }
}
layer {
  name: "lstm1_unit_15"
  type: "LSTMUnit"
  bottom: "c_14"
  bottom: "gate_input_15"
  bottom: "cont_15"
  top: "c_15"
  top: "h_15"
}
layer {
  name: "lstm1_h_conted_15"
  type: "Scale"
  bottom: "h_15"
  bottom: "cont_16"
  top: "h_conted_15"
  scale_param {
    axis: 0
  }
}
layer {
  name: "lstm1_transform_16"
  type: "InnerProduct"
  bottom: "h_conted_15"
  top: "W_hc_h_15"
  param {
    name: "W_hc"
  }
  inner_product_param {
    num_output: 256
    bias_term: false
    weight_filler {
      type: "xavier"
    }
    axis: 2
  }
}
layer {
  name: "lstm1_gate_input_16"
  type: "Eltwise"
  bottom: "W_hc_h_15"
  bottom: "W_xc_x_16"
  top: "gate_input_16"
  eltwise_param {
    operation: SUM
  }
}
layer {
  name: "lstm1_unit_16"
  type: "LSTMUnit"
  bottom: "c_15"
  bottom: "gate_input_16"
  bottom: "cont_16"
  top: "c_16"
  top: "h_16"
}
layer {
  name: "lstm1_h_conted_16"
  type: "Scale"
  bottom: "h_16"
  bottom: "cont_17"
  top: "h_conted_16"
  scale_param {
    axis: 0
  }
}
layer {
  name: "lstm1_transform_17"
  type: "InnerProduct"
  bottom: "h_conted_16"
  top: "W_hc_h_16"
  param {
    name: "W_hc"
  }
  inner_product_param {
    num_output: 256
    bias_term: false
    weight_filler {
      type: "xavier"
    }
    axis: 2
  }
}
layer {
  name: "lstm1_gate_input_17"
  type: "Eltwise"
  bottom: "W_hc_h_16"
  bottom: "W_xc_x_17"
  top: "gate_input_17"
  eltwise_param {
    operation: SUM
  }
}
layer {
  name: "lstm1_unit_17"
  type: "LSTMUnit"
  bottom: "c_16"
  bottom: "gate_input_17"
  bottom: "cont_17"
  top: "c_17"
  top: "h_17"
}
layer {
  name: "lstm1_h_conted_17"
  type: "Scale"
  bottom: "h_17"
  bottom: "cont_18"
  top: "h_conted_17"
  scale_param {
    axis: 0
  }
}
layer {
  name: "lstm1_transform_18"
  type: "InnerProduct"
  bottom: "h_conted_17"
  top: "W_hc_h_17"
  param {
    name: "W_hc"
  }
  inner_product_param {
    num_output: 256
    bias_term: false
    weight_filler {
      type: "xavier"
    }
    axis: 2
  }
}
layer {
  name: "lstm1_gate_input_18"
  type: "Eltwise"
  bottom: "W_hc_h_17"
  bottom: "W_xc_x_18"
  top: "gate_input_18"
  eltwise_param {
    operation: SUM
  }
}
layer {
  name: "lstm1_unit_18"
  type: "LSTMUnit"
  bottom: "c_17"
  bottom: "gate_input_18"
  bottom: "cont_18"
  top: "c_18"
  top: "h_18"
}
layer {
  name: "lstm1_h_conted_18"
  type: "Scale"
  bottom: "h_18"
  bottom: "cont_19"
  top: "h_conted_18"
  scale_param {
    axis: 0
  }
}
layer {
  name: "lstm1_transform_19"
  type: "InnerProduct"
  bottom: "h_conted_18"
  top: "W_hc_h_18"
  param {
    name: "W_hc"
  }
  inner_product_param {
    num_output: 256
    bias_term: false
    weight_filler {
      type: "xavier"
    }
    axis: 2
  }
}
layer {
  name: "lstm1_gate_input_19"
  type: "Eltwise"
  bottom: "W_hc_h_18"
  bottom: "W_xc_x_19"
  top: "gate_input_19"
  eltwise_param {
    operation: SUM
  }
}
layer {
  name: "lstm1_unit_19"
  type: "LSTMUnit"
  bottom: "c_18"
  bottom: "gate_input_19"
  bottom: "cont_19"
  top: "c_19"
  top: "h_19"
}
layer {
  name: "lstm1_h_conted_19"
  type: "Scale"
  bottom: "h_19"
  bottom: "cont_20"
  top: "h_conted_19"
  scale_param {
    axis: 0
  }
}
layer {
  name: "lstm1_transform_20"
  type: "InnerProduct"
  bottom: "h_conted_19"
  top: "W_hc_h_19"
  param {
    name: "W_hc"
  }
  inner_product_param {
    num_output: 256
    bias_term: false
    weight_filler {
      type: "xavier"
    }
    axis: 2
  }
}
layer {
  name: "lstm1_gate_input_20"
  type: "Eltwise"
  bottom: "W_hc_h_19"
  bottom: "W_xc_x_20"
  top: "gate_input_20"
  eltwise_param {
    operation: SUM
  }
}
layer {
  name: "lstm1_unit_20"
  type: "LSTMUnit"
  bottom: "c_19"
  bottom: "gate_input_20"
  bottom: "cont_20"
  top: "c_20"
  top: "h_20"
}
layer {
  name: "lstm1_h_conted_20"
  type: "Scale"
  bottom: "h_20"
  bottom: "cont_21"
  top: "h_conted_20"
  scale_param {
    axis: 0
  }
}
layer {
  name: "lstm1_transform_21"
  type: "InnerProduct"
  bottom: "h_conted_20"
  top: "W_hc_h_20"
  param {
    name: "W_hc"
  }
  inner_product_param {
    num_output: 256
    bias_term: false
    weight_filler {
      type: "xavier"
    }
    axis: 2
  }
}
layer {
  name: "lstm1_gate_input_21"
  type: "Eltwise"
  bottom: "W_hc_h_20"
  bottom: "W_xc_x_21"
  top: "gate_input_21"
  eltwise_param {
    operation: SUM
  }
}
layer {
  name: "lstm1_unit_21"
  type: "LSTMUnit"
  bottom: "c_20"
  bottom: "gate_input_21"
  bottom: "cont_21"
  top: "c_21"
  top: "h_21"
}
layer {
  name: "lstm1_h_conted_21"
  type: "Scale"
  bottom: "h_21"
  bottom: "cont_22"
  top: "h_conted_21"
  scale_param {
    axis: 0
  }
}
layer {
  name: "lstm1_transform_22"
  type: "InnerProduct"
  bottom: "h_conted_21"
  top: "W_hc_h_21"
  param {
    name: "W_hc"
  }
  inner_product_param {
    num_output: 256
    bias_term: false
    weight_filler {
      type: "xavier"
    }
    axis: 2
  }
}
layer {
  name: "lstm1_gate_input_22"
  type: "Eltwise"
  bottom: "W_hc_h_21"
  bottom: "W_xc_x_22"
  top: "gate_input_22"
  eltwise_param {
    operation: SUM
  }
}
layer {
  name: "lstm1_unit_22"
  type: "LSTMUnit"
  bottom: "c_21"
  bottom: "gate_input_22"
  bottom: "cont_22"
  top: "c_22"
  top: "h_22"
}
layer {
  name: "lstm1_h_conted_22"
  type: "Scale"
  bottom: "h_22"
  bottom: "cont_23"
  top: "h_conted_22"
  scale_param {
    axis: 0
  }
}
layer {
  name: "lstm1_transform_23"
  type: "InnerProduct"
  bottom: "h_conted_22"
  top: "W_hc_h_22"
  param {
    name: "W_hc"
  }
  inner_product_param {
    num_output: 256
    bias_term: false
    weight_filler {
      type: "xavier"
    }
    axis: 2
  }
}
layer {
  name: "lstm1_gate_input_23"
  type: "Eltwise"
  bottom: "W_hc_h_22"
  bottom: "W_xc_x_23"
  top: "gate_input_23"
  eltwise_param {
    operation: SUM
  }
}
layer {
  name: "lstm1_unit_23"
  type: "LSTMUnit"
  bottom: "c_22"
  bottom: "gate_input_23"
  bottom: "cont_23"
  top: "c_23"
  top: "h_23"
}
layer {
  name: "lstm1_h_conted_23"
  type: "Scale"
  bottom: "h_23"
  bottom: "cont_24"
  top: "h_conted_23"
  scale_param {
    axis: 0
  }
}
layer {
  name: "lstm1_transform_24"
  type: "InnerProduct"
  bottom: "h_conted_23"
  top: "W_hc_h_23"
  param {
    name: "W_hc"
  }
  inner_product_param {
    num_output: 256
    bias_term: false
    weight_filler {
      type: "xavier"
    }
    axis: 2
  }
}
layer {
  name: "lstm1_gate_input_24"
  type: "Eltwise"
  bottom: "W_hc_h_23"
  bottom: "W_xc_x_24"
  top: "gate_input_24"
  eltwise_param {
    operation: SUM
  }
}
layer {
  name: "lstm1_unit_24"
  type: "LSTMUnit"
  bottom: "c_23"
  bottom: "gate_input_24"
  bottom: "cont_24"
  top: "c_24"
  top: "h_24"
}
layer {
  name: "lstm1_"
  type: "Split"
  bottom: "c_24"
  top: "c_T"
}
layer {
  name: "lstm1_h_concat"
  type: "Concat"
  bottom: "h_1"
  bottom: "h_2"
  bottom: "h_3"
  bottom: "h_4"
  bottom: "h_5"
  bottom: "h_6"
  bottom: "h_7"
  bottom: "h_8"
  bottom: "h_9"
  bottom: "h_10"
  bottom: "h_11"
  bottom: "h_12"
  bottom: "h_13"
  bottom: "h_14"
  bottom: "h_15"
  bottom: "h_16"
  bottom: "h_17"
  bottom: "h_18"
  bottom: "h_19"
  bottom: "h_20"
  bottom: "h_21"
  bottom: "h_22"
  bottom: "h_23"
  bottom: "h_24"
  top: "h"
  concat_param {
    axis: 0
  }
}
layer {
  name: "h_pseudoloss"
  type: "Reduction"
  bottom: "h"
  top: "h_pseudoloss"
  loss_weight: 1
}
I0222 17:42:50.313485 25235 layer_factory.hpp:77] Creating layer lstm1_
I0222 17:42:50.313515 25235 net.cpp:84] Creating Layer lstm1_
I0222 17:42:50.313520 25235 net.cpp:380] lstm1_ -> x
I0222 17:42:50.313529 25235 net.cpp:380] lstm1_ -> cont
I0222 17:42:50.313593 25235 net.cpp:122] Setting up lstm1_
I0222 17:42:50.313601 25235 net.cpp:129] Top shape: 24 26 1 1 (624)
I0222 17:42:50.313604 25235 net.cpp:129] Top shape: 24 26 (624)
I0222 17:42:50.313616 25235 net.cpp:137] Memory required for data: 4992
I0222 17:42:50.313618 25235 layer_factory.hpp:77] Creating layer lstm1_
I0222 17:42:50.313624 25235 net.cpp:84] Creating Layer lstm1_
I0222 17:42:50.313627 25235 net.cpp:380] lstm1_ -> c_0
I0222 17:42:50.313633 25235 net.cpp:380] lstm1_ -> h_0
I0222 17:42:50.313653 25235 net.cpp:122] Setting up lstm1_
I0222 17:42:50.313658 25235 net.cpp:129] Top shape: 1 26 64 (1664)
I0222 17:42:50.313663 25235 net.cpp:129] Top shape: 1 26 64 (1664)
I0222 17:42:50.313665 25235 net.cpp:137] Memory required for data: 18304
I0222 17:42:50.313668 25235 layer_factory.hpp:77] Creating layer lstm1_cont_slice
I0222 17:42:50.313679 25235 net.cpp:84] Creating Layer lstm1_cont_slice
I0222 17:42:50.313683 25235 net.cpp:406] lstm1_cont_slice <- cont
I0222 17:42:50.313688 25235 net.cpp:380] lstm1_cont_slice -> cont_1
I0222 17:42:50.313695 25235 net.cpp:380] lstm1_cont_slice -> cont_2
…
I0222 17:42:50.313777 25235 net.cpp:380] lstm1_cont_slice -> cont_17
I0222 17:42:50.313782 25235 net.cpp:380] lstm1_cont_slice -> cont_18
I0222 17:42:50.313788 25235 net.cpp:380] lstm1_cont_slice -> cont_19
I0222 17:42:50.313793 25235 net.cpp:380] lstm1_cont_slice -> cont_20
I0222 17:42:50.313798 25235 net.cpp:380] lstm1_cont_slice -> cont_21
I0222 17:42:50.313803 25235 net.cpp:380] lstm1_cont_slice -> cont_22
I0222 17:42:50.313808 25235 net.cpp:380] lstm1_cont_slice -> cont_23
I0222 17:42:50.313815 25235 net.cpp:380] lstm1_cont_slice -> cont_24
I0222 17:42:50.313956 25235 net.cpp:122] Setting up lstm1_cont_slice
I0222 17:42:50.313961 25235 net.cpp:129] Top shape: 1 26 (26)
I0222 17:42:50.313964 25235 net.cpp:129] Top shape: 1 26 (26)
I0222 17:42:50.313967 25235 net.cpp:129] Top shape: 1 26 (26)
I0222 17:42:50.313994 25235 net.cpp:129] Top shape: 1 26 (26)
I0222 17:42:50.313999 25235 net.cpp:129] Top shape: 1 26 (26)
I0222 17:42:50.314004 25235 net.cpp:129] Top shape: 1 26 (26)
I0222 17:42:50.314009 25235 net.cpp:129] Top shape: 1 26 (26)
I0222 17:42:50.314013 25235 net.cpp:129] Top shape: 1 26 (26)
I0222 17:42:50.314033 25235 net.cpp:129] Top shape: 1 26 (26)
I0222 17:42:50.314038 25235 net.cpp:129] Top shape: 1 26 (26)
I0222 17:42:50.314041 25235 net.cpp:129] Top shape: 1 26 (26)
I0222 17:42:50.314046 25235 net.cpp:129] Top shape: 1 26 (26)
I0222 17:42:50.314050 25235 net.cpp:129] Top shape: 1 26 (26)
I0222 17:42:50.314054 25235 net.cpp:129] Top shape: 1 26 (26)
I0222 17:42:50.314059 25235 net.cpp:129] Top shape: 1 26 (26)
I0222 17:42:50.314064 25235 net.cpp:129] Top shape: 1 26 (26)
I0222 17:42:50.314067 25235 net.cpp:129] Top shape: 1 26 (26)
I0222 17:42:50.314071 25235 net.cpp:129] Top shape: 1 26 (26)
I0222 17:42:50.314075 25235 net.cpp:129] Top shape: 1 26 (26)
I0222 17:42:50.314079 25235 net.cpp:129] Top shape: 1 26 (26)
I0222 17:42:50.314085 25235 net.cpp:129] Top shape: 1 26 (26)
I0222 17:42:50.314088 25235 net.cpp:129] Top shape: 1 26 (26)
I0222 17:42:50.314092 25235 net.cpp:129] Top shape: 1 26 (26)
I0222 17:42:50.314096 25235 net.cpp:129] Top shape: 1 26 (26)
I0222 17:42:50.314100 25235 net.cpp:137] Memory required for data: 20800
I0222 17:42:50.314108 25235 layer_factory.hpp:77] Creating layer cont_1_lstm1_cont_slice_0_split
I0222 17:42:50.314118 25235 net.cpp:84] Creating Layer cont_1_lstm1_cont_slice_0_split
I0222 17:42:50.314122 25235 net.cpp:406] cont_1_lstm1_cont_slice_0_split <- cont_1
I0222 17:42:50.314127 25235 net.cpp:380] cont_1_lstm1_cont_slice_0_split -> cont_1_lstm1_cont_slice_0_split_0
I0222 17:42:50.314133 25235 net.cpp:380] cont_1_lstm1_cont_slice_0_split -> cont_1_lstm1_cont_slice_0_split_1
I0222 17:42:50.314158 25235 net.cpp:122] Setting up cont_1_lstm1_cont_slice_0_split
I0222 17:42:50.314164 25235 net.cpp:129] Top shape: 1 26 (26)
I0222 17:42:50.314168 25235 net.cpp:129] Top shape: 1 26 (26)
I0222 17:42:50.314172 25235 net.cpp:137] Memory required for data: 21008
I0222 17:42:50.314175 25235 layer_factory.hpp:77] Creating layer cont_2_lstm1_cont_slice_1_split
I0222 17:42:50.314182 25235 net.cpp:84] Creating Layer cont_2_lstm1_cont_slice_1_split
I0222 17:42:50.314185 25235 net.cpp:406] cont_2_lstm1_cont_slice_1_split <- cont_2
I0222 17:42:50.314190 25235 net.cpp:380] cont_2_lstm1_cont_slice_1_split -> cont_2_lstm1_cont_slice_1_split_0
I0222 17:42:50.314196 25235 net.cpp:380] cont_2_lstm1_cont_slice_1_split -> cont_2_lstm1_cont_slice_1_split_1
I0222 17:42:50.314215 25235 net.cpp:122] Setting up cont_2_lstm1_cont_slice_1_split
I0222 17:42:50.314221 25235 net.cpp:129] Top shape: 1 26 (26)
I0222 17:42:50.314225 25235 net.cpp:129] Top shape: 1 26 (26)
I0222 17:42:50.314229 25235 net.cpp:137] Memory required for data: 21216
I0222 17:42:50.314232 25235 layer_factory.hpp:77] Creating layer cont_3_lstm1_cont_slice_2_split
I0222 17:42:50.314239 25235 net.cpp:84] Creating Layer cont_3_lstm1_cont_slice_2_split
I0222 17:42:50.314242 25235 net.cpp:406] cont_3_lstm1_cont_slice_2_split <- cont_3
I0222 17:42:50.314247 25235 net.cpp:380] cont_3_lstm1_cont_slice_2_split -> cont_3_lstm1_cont_slice_2_split_0
I0222 17:42:50.314255 25235 net.cpp:380] cont_3_lstm1_cont_slice_2_split -> cont_3_lstm1_cont_slice_2_split_1
I0222 17:42:50.314275 25235 net.cpp:122] Setting up cont_3_lstm1_cont_slice_2_split
I0222 17:42:50.314281 25235 net.cpp:129] Top shape: 1 26 (26)
I0222 17:42:50.314286 25235 net.cpp:129] Top shape: 1 26 (26)
I0222 17:42:50.314290 25235 net.cpp:137] Memory required for data: 21424
I0222 17:42:50.314293 25235 layer_factory.hpp:77] Creating layer cont_4_lstm1_cont_slice_3_split
I0222 17:42:50.314297 25235 net.cpp:84] Creating Layer cont_4_lstm1_cont_slice_3_split
I0222 17:42:50.314301 25235 net.cpp:406] cont_4_lstm1_cont_slice_3_split <- cont_4
I0222 17:42:50.314306 25235 net.cpp:380] cont_4_lstm1_cont_slice_3_split -> cont_4_lstm1_cont_slice_3_split_0
I0222 17:42:50.314311 25235 net.cpp:380] cont_4_lstm1_cont_slice_3_split -> cont_4_lstm1_cont_slice_3_split_1
I0222 17:42:50.314332 25235 net.cpp:122] Setting up cont_4_lstm1_cont_slice_3_split
I0222 17:42:50.314337 25235 net.cpp:129] Top shape: 1 26 (26)
I0222 17:42:50.314342 25235 net.cpp:129] Top shape: 1 26 (26)
I0222 17:42:50.314344 25235 net.cpp:137] Memory required for data: 21632
I0222 17:42:50.314348 25235 layer_factory.hpp:77] Creating layer cont_5_lstm1_cont_slice_4_split
I0222 17:42:50.314352 25235 net.cpp:84] Creating Layer cont_5_lstm1_cont_slice_4_split
I0222 17:42:50.314357 25235 net.cpp:406] cont_5_lstm1_cont_slice_4_split <- cont_5
I0222 17:42:50.314362 25235 net.cpp:380] cont_5_lstm1_cont_slice_4_split -> cont_5_lstm1_cont_slice_4_split_0
I0222 17:42:50.314368 25235 net.cpp:380] cont_5_lstm1_cont_slice_4_split -> cont_5_lstm1_cont_slice_4_split_1
I0222 17:42:50.314385 25235 net.cpp:122] Setting up cont_5_lstm1_cont_slice_4_split
I0222 17:42:50.314391 25235 net.cpp:129] Top shape: 1 26 (26)
I0222 17:42:50.314395 25235 net.cpp:129] Top shape: 1 26 (26)
I0222 17:42:50.314399 25235 net.cpp:137] Memory required for data: 21840
I0222 17:42:50.314402 25235 layer_factory.hpp:77] Creating layer cont_6_lstm1_cont_slice_5_split
I0222 17:42:50.314409 25235 net.cpp:84] Creating Layer cont_6_lstm1_cont_slice_5_split
I0222 17:42:50.314412 25235 net.cpp:406] cont_6_lstm1_cont_slice_5_split <- cont_6
I0222 17:42:50.314424 25235 net.cpp:380] cont_6_lstm1_cont_slice_5_split -> cont_6_lstm1_cont_slice_5_split_0
I0222 17:42:50.314429 25235 net.cpp:380] cont_6_lstm1_cont_slice_5_split -> cont_6_lstm1_cont_slice_5_split_1
I0222 17:42:50.314447 25235 net.cpp:122] Setting up cont_6_lstm1_cont_slice_5_split
I0222 17:42:50.314453 25235 net.cpp:129] Top shape: 1 26 (26)
I0222 17:42:50.314458 25235 net.cpp:129] Top shape: 1 26 (26)
I0222 17:42:50.314461 25235 net.cpp:137] Memory required for data: 22048
I0222 17:42:50.314465 25235 layer_factory.hpp:77] Creating layer cont_7_lstm1_cont_slice_6_split
I0222 17:42:50.314469 25235 net.cpp:84] Creating Layer cont_7_lstm1_cont_slice_6_split
I0222 17:42:50.314473 25235 net.cpp:406] cont_7_lstm1_cont_slice_6_split <- cont_7
I0222 17:42:50.314478 25235 net.cpp:380] cont_7_lstm1_cont_slice_6_split -> cont_7_lstm1_cont_slice_6_split_0
I0222 17:42:50.314483 25235 net.cpp:380] cont_7_lstm1_cont_slice_6_split -> cont_7_lstm1_cont_slice_6_split_1
I0222 17:42:50.314501 25235 net.cpp:122] Setting up cont_7_lstm1_cont_slice_6_split
I0222 17:42:50.314507 25235 net.cpp:129] Top shape: 1 26 (26)
I0222 17:42:50.314510 25235 net.cpp:129] Top shape: 1 26 (26)
I0222 17:42:50.341253 25235 net.cpp:137] Memory required for data: 22256
I0222 17:42:50.341259 25235 layer_factory.hpp:77] Creating layer cont_8_lstm1_cont_slice_7_split
I0222 17:42:50.341264 25235 net.cpp:84] Creating Layer cont_8_lstm1_cont_slice_7_split
I0222 17:42:50.341269 25235 net.cpp:406] cont_8_lstm1_cont_slice_7_split <- cont_8
I0222 17:42:50.341275 25235 net.cpp:380] cont_8_lstm1_cont_slice_7_split -> cont_8_lstm1_cont_slice_7_split_0
I0222 17:42:50.341281 25235 net.cpp:380] cont_8_lstm1_cont_slice_7_split -> cont_8_lstm1_cont_slice_7_split_1
I0222 17:42:50.341308 25235 net.cpp:122] Setting up cont_8_lstm1_cont_slice_7_split
I0222 17:42:50.341315 25235 net.cpp:129] Top shape: 1 26 (26)
I0222 17:42:50.341320 25235 net.cpp:129] Top shape: 1 26 (26)
I0222 17:42:50.341322 25235 net.cpp:137] Memory required for data: 22464
I0222 17:42:50.341326 25235 layer_factory.hpp:77] Creating layer cont_9_lstm1_cont_slice_8_split
I0222 17:42:50.341332 25235 net.cpp:84] Creating Layer cont_9_lstm1_cont_slice_8_split
I0222 17:42:50.341336 25235 net.cpp:406] cont_9_lstm1_cont_slice_8_split <- cont_9
I0222 17:42:50.341341 25235 net.cpp:380] cont_9_lstm1_cont_slice_8_split -> cont_9_lstm1_cont_slice_8_split_0
I0222 17:42:50.341346 25235 net.cpp:380] cont_9_lstm1_cont_slice_8_split -> cont_9_lstm1_cont_slice_8_split_1
I0222 17:42:50.341379 25235 net.cpp:122] Setting up cont_9_lstm1_cont_slice_8_split
I0222 17:42:50.341385 25235 net.cpp:129] Top shape: 1 26 (26)
I0222 17:42:50.341390 25235 net.cpp:129] Top shape: 1 26 (26)
I0222 17:42:50.341393 25235 net.cpp:137] Memory required for data: 22672
I0222 17:42:50.341398 25235 layer_factory.hpp:77] Creating layer cont_10_lstm1_cont_slice_9_split
I0222 17:42:50.341401 25235 net.cpp:84] Creating Layer cont_10_lstm1_cont_slice_9_split
I0222 17:42:50.341405 25235 net.cpp:406] cont_10_lstm1_cont_slice_9_split <- cont_10
I0222 17:42:50.341410 25235 net.cpp:380] cont_10_lstm1_cont_slice_9_split -> cont_10_lstm1_cont_slice_9_split_0
I0222 17:42:50.341416 25235 net.cpp:380] cont_10_lstm1_cont_slice_9_split -> cont_10_lstm1_cont_slice_9_split_1
I0222 17:42:50.341437 25235 net.cpp:122] Setting up cont_10_lstm1_cont_slice_9_split
I0222 17:42:50.341444 25235 net.cpp:129] Top shape: 1 26 (26)
I0222 17:42:50.341447 25235 net.cpp:129] Top shape: 1 26 (26)
I0222 17:42:50.341451 25235 net.cpp:137] Memory required for data: 22880
I0222 17:42:50.341455 25235 layer_factory.hpp:77] Creating layer cont_11_lstm1_cont_slice_10_split
I0222 17:42:50.341459 25235 net.cpp:84] Creating Layer cont_11_lstm1_cont_slice_10_split
I0222 17:42:50.341464 25235 net.cpp:406] cont_11_lstm1_cont_slice_10_split <- cont_11
I0222 17:42:50.341467 25235 net.cpp:380] cont_11_lstm1_cont_slice_10_split -> cont_11_lstm1_cont_slice_10_split_0
I0222 17:42:50.341475 25235 net.cpp:380] cont_11_lstm1_cont_slice_10_split -> cont_11_lstm1_cont_slice_10_split_1
I0222 17:42:50.341502 25235 net.cpp:122] Setting up cont_11_lstm1_cont_slice_10_split
I0222 17:42:50.341508 25235 net.cpp:129] Top shape: 1 26 (26)
I0222 17:42:50.341512 25235 net.cpp:129] Top shape: 1 26 (26)
I0222 17:42:50.341516 25235 net.cpp:137] Memory required for data: 23088
I0222 17:42:50.341521 25235 layer_factory.hpp:77] Creating layer cont_12_lstm1_cont_slice_11_split
I0222 17:42:50.341526 25235 net.cpp:84] Creating Layer cont_12_lstm1_cont_slice_11_split
I0222 17:42:50.341529 25235 net.cpp:406] cont_12_lstm1_cont_slice_11_split <- cont_12
I0222 17:42:50.341534 25235 net.cpp:380] cont_12_lstm1_cont_slice_11_split -> cont_12_lstm1_cont_slice_11_split_0
I0222 17:42:50.341539 25235 net.cpp:380] cont_12_lstm1_cont_slice_11_split -> cont_12_lstm1_cont_slice_11_split_1
I0222 17:42:50.341558 25235 net.cpp:122] Setting up cont_12_lstm1_cont_slice_11_split
I0222 17:42:50.341564 25235 net.cpp:129] Top shape: 1 26 (26)
I0222 17:42:50.341568 25235 net.cpp:129] Top shape: 1 26 (26)
I0222 17:42:50.341572 25235 net.cpp:137] Memory required for data: 23296
I0222 17:42:50.341575 25235 layer_factory.hpp:77] Creating layer cont_13_lstm1_cont_slice_12_split
I0222 17:42:50.341580 25235 net.cpp:84] Creating Layer cont_13_lstm1_cont_slice_12_split
I0222 17:42:50.341584 25235 net.cpp:406] cont_13_lstm1_cont_slice_12_split <- cont_13
I0222 17:42:50.341588 25235 net.cpp:380] cont_13_lstm1_cont_slice_12_split -> cont_13_lstm1_cont_slice_12_split_0
I0222 17:42:50.341594 25235 net.cpp:380] cont_13_lstm1_cont_slice_12_split -> cont_13_lstm1_cont_slice_12_split_1
I0222 17:42:50.341612 25235 net.cpp:122] Setting up cont_13_lstm1_cont_slice_12_split
I0222 17:42:50.341617 25235 net.cpp:129] Top shape: 1 26 (26)
I0222 17:42:50.341622 25235 net.cpp:129] Top shape: 1 26 (26)
I0222 17:42:50.341625 25235 net.cpp:137] Memory required for data: 23504
I0222 17:42:50.341629 25235 layer_factory.hpp:77] Creating layer cont_14_lstm1_cont_slice_13_split
I0222 17:42:50.341636 25235 net.cpp:84] Creating Layer cont_14_lstm1_cont_slice_13_split
I0222 17:42:50.341640 25235 net.cpp:406] cont_14_lstm1_cont_slice_13_split <- cont_14
I0222 17:42:50.341645 25235 net.cpp:380] cont_14_lstm1_cont_slice_13_split -> cont_14_lstm1_cont_slice_13_split_0
I0222 17:42:50.341651 25235 net.cpp:380] cont_14_lstm1_cont_slice_13_split -> cont_14_lstm1_cont_slice_13_split_1
I0222 17:42:50.341670 25235 net.cpp:122] Setting up cont_14_lstm1_cont_slice_13_split
I0222 17:42:50.341675 25235 net.cpp:129] Top shape: 1 26 (26)
I0222 17:42:50.341680 25235 net.cpp:129] Top shape: 1 26 (26)
I0222 17:42:50.341682 25235 net.cpp:137] Memory required for data: 23712
I0222 17:42:50.341686 25235 layer_factory.hpp:77] Creating layer cont_15_lstm1_cont_slice_14_split
I0222 17:42:50.341692 25235 net.cpp:84] Creating Layer cont_15_lstm1_cont_slice_14_split
I0222 17:42:50.341696 25235 net.cpp:406] cont_15_lstm1_cont_slice_14_split <- cont_15
I0222 17:42:50.341701 25235 net.cpp:380] cont_15_lstm1_cont_slice_14_split -> cont_15_lstm1_cont_slice_14_split_0
I0222 17:42:50.341706 25235 net.cpp:380] cont_15_lstm1_cont_slice_14_split -> cont_15_lstm1_cont_slice_14_split_1
I0222 17:42:50.341724 25235 net.cpp:122] Setting up cont_15_lstm1_cont_slice_14_split
I0222 17:42:50.341729 25235 net.cpp:129] Top shape: 1 26 (26)
I0222 17:42:50.341734 25235 net.cpp:129] Top shape: 1 26 (26)
I0222 17:42:50.341737 25235 net.cpp:137] Memory required for data: 23920
I0222 17:42:50.341742 25235 layer_factory.hpp:77] Creating layer cont_16_lstm1_cont_slice_15_split
I0222 17:42:50.341745 25235 net.cpp:84] Creating Layer cont_16_lstm1_cont_slice_15_split
I0222 17:42:50.341749 25235 net.cpp:406] cont_16_lstm1_cont_slice_15_split <- cont_16
I0222 17:42:50.341754 25235 net.cpp:380] cont_16_lstm1_cont_slice_15_split -> cont_16_lstm1_cont_slice_15_split_0
I0222 17:42:50.341759 25235 net.cpp:380] cont_16_lstm1_cont_slice_15_split -> cont_16_lstm1_cont_slice_15_split_1
I0222 17:42:50.341778 25235 net.cpp:122] Setting up cont_16_lstm1_cont_slice_15_split
I0222 17:42:50.341783 25235 net.cpp:129] Top shape: 1 26 (26)
I0222 17:42:50.341792 25235 net.cpp:129] Top shape: 1 26 (26)
I0222 17:42:50.341796 25235 net.cpp:137] Memory required for data: 24128
I0222 17:42:50.341800 25235 layer_factory.hpp:77] Creating layer cont_17_lstm1_cont_slice_16_split
I0222 17:42:50.341804 25235 net.cpp:84] Creating Layer cont_17_lstm1_cont_slice_16_split
I0222 17:42:50.341809 25235 net.cpp:406] cont_17_lstm1_cont_slice_16_split <- cont_17
I0222 17:42:50.341814 25235 net.cpp:380] cont_17_lstm1_cont_slice_16_split -> cont_17_lstm1_cont_slice_16_split_0
I0222 17:42:50.341819 25235 net.cpp:380] cont_17_lstm1_cont_slice_16_split -> cont_17_lstm1_cont_slice_16_split_1
I0222 17:42:50.341837 25235 net.cpp:122] Setting up cont_17_lstm1_cont_slice_16_split
I0222 17:42:50.341842 25235 net.cpp:129] Top shape: 1 26 (26)
I0222 17:42:50.341847 25235 net.cpp:129] Top shape: 1 26 (26)
I0222 17:42:50.341850 25235 net.cpp:137] Memory required for data: 24336
I0222 17:42:50.343444 25235 layer_factory.hpp:77] Creating layer cont_18_lstm1_cont_slice_17_split
I0222 17:42:50.343453 25235 net.cpp:84] Creating Layer cont_18_lstm1_cont_slice_17_split
I0222 17:42:50.343457 25235 net.cpp:406] cont_18_lstm1_cont_slice_17_split <- cont_18
I0222 17:42:50.343464 25235 net.cpp:380] cont_18_lstm1_cont_slice_17_split -> cont_18_lstm1_cont_slice_17_split_0
I0222 17:42:50.343469 25235 net.cpp:380] cont_18_lstm1_cont_slice_17_split -> cont_18_lstm1_cont_slice_17_split_1
I0222 17:42:50.343508 25235 net.cpp:122] Setting up cont_18_lstm1_cont_slice_17_split
I0222 17:42:50.343514 25235 net.cpp:129] Top shape: 1 26 (26)
I0222 17:42:50.343533 25235 net.cpp:129] Top shape: 1 26 (26)
I0222 17:42:50.343535 25235 net.cpp:137] Memory required for data: 24544
I0222 17:42:50.343538 25235 layer_factory.hpp:77] Creating layer cont_19_lstm1_cont_slice_18_split
I0222 17:42:50.343541 25235 net.cpp:84] Creating Layer cont_19_lstm1_cont_slice_18_split
I0222 17:42:50.343544 25235 net.cpp:406] cont_19_lstm1_cont_slice_18_split <- cont_19
I0222 17:42:50.343549 25235 net.cpp:380] cont_19_lstm1_cont_slice_18_split -> cont_19_lstm1_cont_slice_18_split_0
I0222 17:42:50.343559 25235 net.cpp:380] cont_19_lstm1_cont_slice_18_split -> cont_19_lstm1_cont_slice_18_split_1
I0222 17:42:50.343576 25235 net.cpp:122] Setting up cont_19_lstm1_cont_slice_18_split
I0222 17:42:50.343581 25235 net.cpp:129] Top shape: 1 26 (26)
I0222 17:42:50.343585 25235 net.cpp:129] Top shape: 1 26 (26)
I0222 17:42:50.343588 25235 net.cpp:137] Memory required for data: 24752
I0222 17:42:50.343591 25235 layer_factory.hpp:77] Creating layer cont_20_lstm1_cont_slice_19_split
I0222 17:42:50.343596 25235 net.cpp:84] Creating Layer cont_20_lstm1_cont_slice_19_split
I0222 17:42:50.343600 25235 net.cpp:406] cont_20_lstm1_cont_slice_19_split <- cont_20
I0222 17:42:50.343605 25235 net.cpp:380] cont_20_lstm1_cont_slice_19_split -> cont_20_lstm1_cont_slice_19_split_0
I0222 17:42:50.343608 25235 net.cpp:380] cont_20_lstm1_cont_slice_19_split -> cont_20_lstm1_cont_slice_19_split_1
I0222 17:42:50.343626 25235 net.cpp:122] Setting up cont_20_lstm1_cont_slice_19_split
I0222 17:42:50.343631 25235 net.cpp:129] Top shape: 1 26 (26)
I0222 17:42:50.343634 25235 net.cpp:129] Top shape: 1 26 (26)
I0222 17:42:50.343637 25235 net.cpp:137] Memory required for data: 24960
I0222 17:42:50.343641 25235 layer_factory.hpp:77] Creating layer cont_21_lstm1_cont_slice_20_split
I0222 17:42:50.343644 25235 net.cpp:84] Creating Layer cont_21_lstm1_cont_slice_20_split
I0222 17:42:50.343647 25235 net.cpp:406] cont_21_lstm1_cont_slice_20_split <- cont_21
I0222 17:42:50.343652 25235 net.cpp:380] cont_21_lstm1_cont_slice_20_split -> cont_21_lstm1_cont_slice_20_split_0
I0222 17:42:50.343657 25235 net.cpp:380] cont_21_lstm1_cont_slice_20_split -> cont_21_lstm1_cont_slice_20_split_1
I0222 17:42:50.343672 25235 net.cpp:122] Setting up cont_21_lstm1_cont_slice_20_split
I0222 17:42:50.343677 25235 net.cpp:129] Top shape: 1 26 (26)
I0222 17:42:50.343680 25235 net.cpp:129] Top shape: 1 26 (26)
I0222 17:42:50.343683 25235 net.cpp:137] Memory required for data: 25168
I0222 17:42:50.343686 25235 layer_factory.hpp:77] Creating layer cont_22_lstm1_cont_slice_21_split
I0222 17:42:50.343696 25235 net.cpp:84] Creating Layer cont_22_lstm1_cont_slice_21_split
I0222 17:42:50.343700 25235 net.cpp:406] cont_22_lstm1_cont_slice_21_split <- cont_22
I0222 17:42:50.343704 25235 net.cpp:380] cont_22_lstm1_cont_slice_21_split -> cont_22_lstm1_cont_slice_21_split_0
I0222 17:42:50.343708 25235 net.cpp:380] cont_22_lstm1_cont_slice_21_split -> cont_22_lstm1_cont_slice_21_split_1
I0222 17:42:50.343726 25235 net.cpp:122] Setting up cont_22_lstm1_cont_slice_21_split
I0222 17:42:50.343731 25235 net.cpp:129] Top shape: 1 26 (26)
I0222 17:42:50.343735 25235 net.cpp:129] Top shape: 1 26 (26)
I0222 17:42:50.343737 25235 net.cpp:137] Memory required for data: 25376
I0222 17:42:50.343740 25235 layer_factory.hpp:77] Creating layer cont_23_lstm1_cont_slice_22_split
I0222 17:42:50.343744 25235 net.cpp:84] Creating Layer cont_23_lstm1_cont_slice_22_split
I0222 17:42:50.343747 25235 net.cpp:406] cont_23_lstm1_cont_slice_22_split <- cont_23
I0222 17:42:50.343752 25235 net.cpp:380] cont_23_lstm1_cont_slice_22_split -> cont_23_lstm1_cont_slice_22_split_0
I0222 17:42:50.343757 25235 net.cpp:380] cont_23_lstm1_cont_slice_22_split -> cont_23_lstm1_cont_slice_22_split_1
I0222 17:42:50.343775 25235 net.cpp:122] Setting up cont_23_lstm1_cont_slice_22_split
I0222 17:42:50.343778 25235 net.cpp:129] Top shape: 1 26 (26)
I0222 17:42:50.343782 25235 net.cpp:129] Top shape: 1 26 (26)
I0222 17:42:50.343786 25235 net.cpp:137] Memory required for data: 25584
I0222 17:42:50.343788 25235 layer_factory.hpp:77] Creating layer cont_24_lstm1_cont_slice_23_split
I0222 17:42:50.343791 25235 net.cpp:84] Creating Layer cont_24_lstm1_cont_slice_23_split
I0222 17:42:50.343796 25235 net.cpp:406] cont_24_lstm1_cont_slice_23_split <- cont_24
I0222 17:42:50.343798 25235 net.cpp:380] cont_24_lstm1_cont_slice_23_split -> cont_24_lstm1_cont_slice_23_split_0
I0222 17:42:50.343803 25235 net.cpp:380] cont_24_lstm1_cont_slice_23_split -> cont_24_lstm1_cont_slice_23_split_1
I0222 17:42:50.343821 25235 net.cpp:122] Setting up cont_24_lstm1_cont_slice_23_split
I0222 17:42:50.343824 25235 net.cpp:129] Top shape: 1 26 (26)
I0222 17:42:50.343828 25235 net.cpp:129] Top shape: 1 26 (26)
I0222 17:42:50.343832 25235 net.cpp:137] Memory required for data: 25792
I0222 17:42:50.343834 25235 layer_factory.hpp:77] Creating layer lstm1_x_transform
I0222 17:42:50.343845 25235 net.cpp:84] Creating Layer lstm1_x_transform
I0222 17:42:50.343849 25235 net.cpp:406] lstm1_x_transform <- x
I0222 17:42:50.343854 25235 net.cpp:380] lstm1_x_transform -> W_xc_x
I0222 17:42:50.343930 25235 net.cpp:122] Setting up lstm1_x_transform
I0222 17:42:50.343936 25235 net.cpp:129] Top shape: 24 26 256 (159744)
I0222 17:42:50.343940 25235 net.cpp:137] Memory required for data: 664768
I0222 17:42:50.343950 25235 layer_factory.hpp:77] Creating layer lstm1_W_xc_x_slice
I0222 17:42:50.343957 25235 net.cpp:84] Creating Layer lstm1_W_xc_x_slice
I0222 17:42:50.343961 25235 net.cpp:406] lstm1_W_xc_x_slice <- W_xc_x
I0222 17:42:50.343966 25235 net.cpp:380] lstm1_W_xc_x_slice -> W_xc_x_1
I0222 17:42:50.343971 25235 net.cpp:380] lstm1_W_xc_x_slice -> W_xc_x_2
…
I0222 17:42:50.344064 25235 net.cpp:380] lstm1_W_xc_x_slice -> W_xc_x_18
I0222 17:42:50.344069 25235 net.cpp:380] lstm1_W_xc_x_slice -> W_xc_x_19
I0222 17:42:50.344074 25235 net.cpp:380] lstm1_W_xc_x_slice -> W_xc_x_20
I0222 17:42:50.344079 25235 net.cpp:380] lstm1_W_xc_x_slice -> W_xc_x_21
I0222 17:42:50.344086 25235 net.cpp:380] lstm1_W_xc_x_slice -> W_xc_x_22
I0222 17:42:50.344092 25235 net.cpp:380] lstm1_W_xc_x_slice -> W_xc_x_23
I0222 17:42:50.344097 25235 net.cpp:380] lstm1_W_xc_x_slice -> W_xc_x_24
I0222 17:42:50.344238 25235 net.cpp:122] Setting up lstm1_W_xc_x_slice
I0222 17:42:50.371590 25235 net.cpp:129] Top shape: 1 26 256 (6656)
I0222 17:42:50.371598 25235 net.cpp:129] Top shape: 1 26 256 (6656)
I0222 17:42:50.371603 25235 net.cpp:129] Top shape: 1 26 256 (6656)
I0222 17:42:50.371605 25235 net.cpp:129] Top shape: 1 26 256 (6656)
I0222 17:42:50.371608 25235 net.cpp:129] Top shape: 1 26 256 (6656)
I0222 17:42:50.371613 25235 net.cpp:129] Top shape: 1 26 256 (6656)
I0222 17:42:50.371615 25235 net.cpp:129] Top shape: 1 26 256 (6656)
I0222 17:42:50.371619 25235 net.cpp:129] Top shape: 1 26 256 (6656)
I0222 17:42:50.371623 25235 net.cpp:129] Top shape: 1 26 256 (6656)
I0222 17:42:50.371625 25235 net.cpp:129] Top shape: 1 26 256 (6656)
I0222 17:42:50.371629 25235 net.cpp:129] Top shape: 1 26 256 (6656)
I0222 17:42:50.371632 25235 net.cpp:129] Top shape: 1 26 256 (6656)
I0222 17:42:50.371635 25235 net.cpp:129] Top shape: 1 26 256 (6656)
I0222 17:42:50.371639 25235 net.cpp:129] Top shape: 1 26 256 (6656)
I0222 17:42:50.371642 25235 net.cpp:129] Top shape: 1 26 256 (6656)
I0222 17:42:50.371645 25235 net.cpp:129] Top shape: 1 26 256 (6656)
I0222 17:42:50.371649 25235 net.cpp:129] Top shape: 1 26 256 (6656)
I0222 17:42:50.371652 25235 net.cpp:129] Top shape: 1 26 256 (6656)
I0222 17:42:50.371655 25235 net.cpp:129] Top shape: 1 26 256 (6656)
I0222 17:42:50.371659 25235 net.cpp:129] Top shape: 1 26 256 (6656)
I0222 17:42:50.371662 25235 net.cpp:129] Top shape: 1 26 256 (6656)
I0222 17:42:50.371665 25235 net.cpp:129] Top shape: 1 26 256 (6656)
I0222 17:42:50.371670 25235 net.cpp:129] Top shape: 1 26 256 (6656)
I0222 17:42:50.371672 25235 net.cpp:129] Top shape: 1 26 256 (6656)
I0222 17:42:50.371675 25235 net.cpp:137] Memory required for data: 1303744
I0222 17:42:50.371680 25235 layer_factory.hpp:77] Creating layer lstm1_h_conted_0
I0222 17:42:50.371690 25235 net.cpp:84] Creating Layer lstm1_h_conted_0
I0222 17:42:50.371695 25235 net.cpp:406] lstm1_h_conted_0 <- h_0
I0222 17:42:50.371701 25235 net.cpp:406] lstm1_h_conted_0 <- cont_1_lstm1_cont_slice_0_split_0
I0222 17:42:50.371706 25235 net.cpp:380] lstm1_h_conted_0 -> h_conted_0
I0222 17:42:50.371763 25235 net.cpp:122] Setting up lstm1_h_conted_0
I0222 17:42:50.371769 25235 net.cpp:129] Top shape: 1 26 64 (1664)
I0222 17:42:50.371773 25235 net.cpp:137] Memory required for data: 1310400
I0222 17:42:50.371775 25235 layer_factory.hpp:77] Creating layer lstm1_transform_1
I0222 17:42:50.371780 25235 net.cpp:84] Creating Layer lstm1_transform_1
I0222 17:42:50.371783 25235 net.cpp:406] lstm1_transform_1 <- h_conted_0
I0222 17:42:50.371789 25235 net.cpp:380] lstm1_transform_1 -> W_hc_h_0
I0222 17:42:50.372512 25235 net.cpp:122] Setting up lstm1_transform_1
I0222 17:42:50.372521 25235 net.cpp:129] Top shape: 1 26 256 (6656)
I0222 17:42:50.372525 25235 net.cpp:137] Memory required for data: 1337024
I0222 17:42:50.372534 25235 layer_factory.hpp:77] Creating layer lstm1_gate_input_1
I0222 17:42:50.372545 25235 net.cpp:84] Creating Layer lstm1_gate_input_1
I0222 17:42:50.372547 25235 net.cpp:406] lstm1_gate_input_1 <- W_hc_h_0
I0222 17:42:50.372551 25235 net.cpp:406] lstm1_gate_input_1 <- W_xc_x_1
I0222 17:42:50.372556 25235 net.cpp:380] lstm1_gate_input_1 -> gate_input_1
I0222 17:42:50.372577 25235 net.cpp:122] Setting up lstm1_gate_input_1
I0222 17:42:50.372582 25235 net.cpp:129] Top shape: 1 26 256 (6656)
I0222 17:42:50.372591 25235 net.cpp:137] Memory required for data: 1363648
I0222 17:42:50.372596 25235 layer_factory.hpp:77] Creating layer lstm1_unit_1
I0222 17:42:50.372603 25235 net.cpp:84] Creating Layer lstm1_unit_1
I0222 17:42:50.372608 25235 net.cpp:406] lstm1_unit_1 <- c_0
I0222 17:42:50.372612 25235 net.cpp:406] lstm1_unit_1 <- gate_input_1
I0222 17:42:50.372615 25235 net.cpp:406] lstm1_unit_1 <- cont_1_lstm1_cont_slice_0_split_1
I0222 17:42:50.372620 25235 net.cpp:380] lstm1_unit_1 -> c_1
I0222 17:42:50.372625 25235 net.cpp:380] lstm1_unit_1 -> h_1
I0222 17:42:50.372651 25235 net.cpp:122] Setting up lstm1_unit_1
I0222 17:42:50.372656 25235 net.cpp:129] Top shape: 1 26 64 (1664)
I0222 17:42:50.372659 25235 net.cpp:129] Top shape: 1 26 64 (1664)
I0222 17:42:50.372663 25235 net.cpp:137] Memory required for data: 1376960
I0222 17:42:50.372665 25235 layer_factory.hpp:77] Creating layer h_1_lstm1_unit_1_1_split
I0222 17:42:50.372669 25235 net.cpp:84] Creating Layer h_1_lstm1_unit_1_1_split
I0222 17:42:50.372673 25235 net.cpp:406] h_1_lstm1_unit_1_1_split <- h_1
I0222 17:42:50.372676 25235 net.cpp:380] h_1_lstm1_unit_1_1_split -> h_1_lstm1_unit_1_1_split_0
I0222 17:42:50.372681 25235 net.cpp:380] h_1_lstm1_unit_1_1_split -> h_1_lstm1_unit_1_1_split_1
I0222 17:42:50.372700 25235 net.cpp:122] Setting up h_1_lstm1_unit_1_1_split
I0222 17:42:50.372704 25235 net.cpp:129] Top shape: 1 26 64 (1664)
I0222 17:42:50.372709 25235 net.cpp:129] Top shape: 1 26 64 (1664)
I0222 17:42:50.372711 25235 net.cpp:137] Memory required for data: 1390272
I0222 17:42:50.372714 25235 layer_factory.hpp:77] Creating layer lstm1_h_conted_1
I0222 17:42:50.372719 25235 net.cpp:84] Creating Layer lstm1_h_conted_1
I0222 17:42:50.372722 25235 net.cpp:406] lstm1_h_conted_1 <- h_1_lstm1_unit_1_1_split_0
I0222 17:42:50.372726 25235 net.cpp:406] lstm1_h_conted_1 <- cont_2_lstm1_cont_slice_1_split_0
I0222 17:42:50.372730 25235 net.cpp:380] lstm1_h_conted_1 -> h_conted_1
I0222 17:42:50.372763 25235 net.cpp:122] Setting up lstm1_h_conted_1
I0222 17:42:50.372768 25235 net.cpp:129] Top shape: 1 26 64 (1664)
I0222 17:42:50.372771 25235 net.cpp:137] Memory required for data: 1396928
I0222 17:42:50.372774 25235 layer_factory.hpp:77] Creating layer lstm1_transform_2
I0222 17:42:50.372779 25235 net.cpp:84] Creating Layer lstm1_transform_2
I0222 17:42:50.372783 25235 net.cpp:406] lstm1_transform_2 <- h_conted_1
I0222 17:42:50.372788 25235 net.cpp:380] lstm1_transform_2 -> W_hc_h_1
I0222 17:42:50.372897 25235 net.cpp:122] Setting up lstm1_transform_2
I0222 17:42:50.372902 25235 net.cpp:129] Top shape: 1 26 256 (6656)
I0222 17:42:50.372905 25235 net.cpp:137] Memory required for data: 1423552
I0222 17:42:50.372910 25235 net.cpp:465] Sharing parameters 'W_hc' owned by layer 'lstm1_transform_1', param index 0
I0222 17:42:50.372913 25235 layer_factory.hpp:77] Creating layer lstm1_gate_input_2
I0222 17:42:50.372931 25235 net.cpp:84] Creating Layer lstm1_gate_input_2
I0222 17:42:50.372936 25235 net.cpp:406] lstm1_gate_input_2 <- W_hc_h_1
I0222 17:42:50.372939 25235 net.cpp:406] lstm1_gate_input_2 <- W_xc_x_2
I0222 17:42:50.372943 25235 net.cpp:380] lstm1_gate_input_2 -> gate_input_2
I0222 17:42:50.372957 25235 net.cpp:122] Setting up lstm1_gate_input_2
I0222 17:42:50.372962 25235 net.cpp:129] Top shape: 1 26 256 (6656)
I0222 17:42:50.372965 25235 net.cpp:137] Memory required for data: 1450176
I0222 17:42:50.372968 25235 layer_factory.hpp:77] Creating layer lstm1_unit_2
I0222 17:42:50.372972 25235 net.cpp:84] Creating Layer lstm1_unit_2
I0222 17:42:50.372975 25235 net.cpp:406] lstm1_unit_2 <- c_1
I0222 17:42:50.372979 25235 net.cpp:406] lstm1_unit_2 <- gate_input_2
I0222 17:42:50.373000 25235 net.cpp:406] lstm1_unit_2 <- cont_2_lstm1_cont_slice_1_split_1
I0222 17:42:50.373004 25235 net.cpp:380] lstm1_unit_2 -> c_2
I0222 17:42:50.373009 25235 net.cpp:380] lstm1_unit_2 -> h_2
I0222 17:42:50.373034 25235 net.cpp:122] Setting up lstm1_unit_2
I0222 17:42:50.373039 25235 net.cpp:129] Top shape: 1 26 64 (1664)
I0222 17:42:50.373057 25235 net.cpp:129] Top shape: 1 26 64 (1664)
I0222 17:42:50.373065 25235 net.cpp:137] Memory required for data: 1463488
I0222 17:42:50.373069 25235 layer_factory.hpp:77] Creating layer h_2_lstm1_unit_2_1_split
I0222 17:42:50.373075 25235 net.cpp:84] Creating Layer h_2_lstm1_unit_2_1_split
I0222 17:42:50.373077 25235 net.cpp:406] h_2_lstm1_unit_2_1_split <- h_2
I0222 17:42:50.373081 25235 net.cpp:380] h_2_lstm1_unit_2_1_split -> h_2_lstm1_unit_2_1_split_0
I0222 17:42:50.373086 25235 net.cpp:380] h_2_lstm1_unit_2_1_split -> h_2_lstm1_unit_2_1_split_1
I0222 17:42:50.374769 25235 net.cpp:122] Setting up h_2_lstm1_unit_2_1_split
I0222 17:42:50.374779 25235 net.cpp:129] Top shape: 1 26 64 (1664)
I0222 17:42:50.374783 25235 net.cpp:129] Top shape: 1 26 64 (1664)
I0222 17:42:50.374786 25235 net.cpp:137] Memory required for data: 1476800
I0222 17:42:50.374789 25235 layer_factory.hpp:77] Creating layer lstm1_h_conted_2
I0222 17:42:50.374795 25235 net.cpp:84] Creating Layer lstm1_h_conted_2
I0222 17:42:50.374799 25235 net.cpp:406] lstm1_h_conted_2 <- h_2_lstm1_unit_2_1_split_0
I0222 17:42:50.374804 25235 net.cpp:406] lstm1_h_conted_2 <- cont_3_lstm1_cont_slice_2_split_0
I0222 17:42:50.374809 25235 net.cpp:380] lstm1_h_conted_2 -> h_conted_2
I0222 17:42:50.374843 25235 net.cpp:122] Setting up lstm1_h_conted_2
I0222 17:42:50.374848 25235 net.cpp:129] Top shape: 1 26 64 (1664)
I0222 17:42:50.374851 25235 net.cpp:137] Memory required for data: 1483456
I0222 17:42:50.374855 25235 layer_factory.hpp:77] Creating layer lstm1_transform_3
I0222 17:42:50.374860 25235 net.cpp:84] Creating Layer lstm1_transform_3
I0222 17:42:50.374862 25235 net.cpp:406] lstm1_transform_3 <- h_conted_2
I0222 17:42:50.374868 25235 net.cpp:380] lstm1_transform_3 -> W_hc_h_2
I0222 17:42:50.374965 25235 net.cpp:122] Setting up lstm1_transform_3
I0222 17:42:50.374971 25235 net.cpp:129] Top shape: 1 26 256 (6656)
I0222 17:42:50.374974 25235 net.cpp:137] Memory required for data: 1510080
I0222 17:42:50.374979 25235 net.cpp:465] Sharing parameters 'W_hc' owned by layer 'lstm1_transform_1', param index 0
I0222 17:42:50.374984 25235 layer_factory.hpp:77] Creating layer lstm1_gate_input_3
I0222 17:42:50.374989 25235 net.cpp:84] Creating Layer lstm1_gate_input_3
I0222 17:42:50.374991 25235 net.cpp:406] lstm1_gate_input_3 <- W_hc_h_2
I0222 17:42:50.374995 25235 net.cpp:406] lstm1_gate_input_3 <- W_xc_x_3
I0222 17:42:50.375000 25235 net.cpp:380] lstm1_gate_input_3 -> gate_input_3
I0222 17:42:50.375013 25235 net.cpp:122] Setting up lstm1_gate_input_3
I0222 17:42:50.375017 25235 net.cpp:129] Top shape: 1 26 256 (6656)
I0222 17:42:50.375020 25235 net.cpp:137] Memory required for data: 1536704
I0222 17:42:50.375023 25235 layer_factory.hpp:77] Creating layer lstm1_unit_3
I0222 17:42:50.375030 25235 net.cpp:84] Creating Layer lstm1_unit_3
I0222 17:42:50.375033 25235 net.cpp:406] lstm1_unit_3 <- c_2
I0222 17:42:50.375036 25235 net.cpp:406] lstm1_unit_3 <- gate_input_3
I0222 17:42:50.375041 25235 net.cpp:406] lstm1_unit_3 <- cont_3_lstm1_cont_slice_2_split_1
I0222 17:42:50.375044 25235 net.cpp:380] lstm1_unit_3 -> c_3
I0222 17:42:50.375049 25235 net.cpp:380] lstm1_unit_3 -> h_3
I0222 17:42:50.375073 25235 net.cpp:122] Setting up lstm1_unit_3
I0222 17:42:50.375078 25235 net.cpp:129] Top shape: 1 26 64 (1664)
I0222 17:42:50.375082 25235 net.cpp:129] Top shape: 1 26 64 (1664)
I0222 17:42:50.375085 25235 net.cpp:137] Memory required for data: 1550016
I0222 17:42:50.375088 25235 layer_factory.hpp:77] Creating layer h_3_lstm1_unit_3_1_split
I0222 17:42:50.375092 25235 net.cpp:84] Creating Layer h_3_lstm1_unit_3_1_split
I0222 17:42:50.375095 25235 net.cpp:406] h_3_lstm1_unit_3_1_split <- h_3
I0222 17:42:50.375100 25235 net.cpp:380] h_3_lstm1_unit_3_1_split -> h_3_lstm1_unit_3_1_split_0
I0222 17:42:50.375105 25235 net.cpp:380] h_3_lstm1_unit_3_1_split -> h_3_lstm1_unit_3_1_split_1
I0222 17:42:50.375121 25235 net.cpp:122] Setting up h_3_lstm1_unit_3_1_split
I0222 17:42:50.375128 25235 net.cpp:129] Top shape: 1 26 64 (1664)
I0222 17:42:50.375131 25235 net.cpp:129] Top shape: 1 26 64 (1664)
I0222 17:42:50.375134 25235 net.cpp:137] Memory required for data: 1563328
I0222 17:42:50.375144 25235 layer_factory.hpp:77] Creating layer lstm1_h_conted_3
I0222 17:42:50.375149 25235 net.cpp:84] Creating Layer lstm1_h_conted_3
I0222 17:42:50.375152 25235 net.cpp:406] lstm1_h_conted_3 <- h_3_lstm1_unit_3_1_split_0
I0222 17:42:50.375155 25235 net.cpp:406] lstm1_h_conted_3 <- cont_4_lstm1_cont_slice_3_split_0
I0222 17:42:50.375161 25235 net.cpp:380] lstm1_h_conted_3 -> h_conted_3
I0222 17:42:50.375195 25235 net.cpp:122] Setting up lstm1_h_conted_3
I0222 17:42:50.375200 25235 net.cpp:129] Top shape: 1 26 64 (1664)
I0222 17:42:50.375202 25235 net.cpp:137] Memory required for data: 1569984
I0222 17:42:50.375205 25235 layer_factory.hpp:77] Creating layer lstm1_transform_4
I0222 17:42:50.375210 25235 net.cpp:84] Creating Layer lstm1_transform_4
I0222 17:42:50.375213 25235 net.cpp:406] lstm1_transform_4 <- h_conted_3
I0222 17:42:50.375217 25235 net.cpp:380] lstm1_transform_4 -> W_hc_h_3
I0222 17:42:50.375309 25235 net.cpp:122] Setting up lstm1_transform_4
I0222 17:42:50.375315 25235 net.cpp:129] Top shape: 1 26 256 (6656)
I0222 17:42:50.375319 25235 net.cpp:137] Memory required for data: 1596608
I0222 17:42:50.375321 25235 net.cpp:465] Sharing parameters 'W_hc' owned by layer 'lstm1_transform_1', param index 0
I0222 17:42:50.375324 25235 layer_factory.hpp:77] Creating layer lstm1_gate_input_4
I0222 17:42:50.375330 25235 net.cpp:84] Creating Layer lstm1_gate_input_4
I0222 17:42:50.375334 25235 net.cpp:406] lstm1_gate_input_4 <- W_hc_h_3
I0222 17:42:50.375337 25235 net.cpp:406] lstm1_gate_input_4 <- W_xc_x_4
I0222 17:42:50.375341 25235 net.cpp:380] lstm1_gate_input_4 -> gate_input_4
I0222 17:42:50.375355 25235 net.cpp:122] Setting up lstm1_gate_input_4
I0222 17:42:50.375360 25235 net.cpp:129] Top shape: 1 26 256 (6656)
I0222 17:42:50.375362 25235 net.cpp:137] Memory required for data: 1623232
I0222 17:42:50.375365 25235 layer_factory.hpp:77] Creating layer lstm1_unit_4
I0222 17:42:50.375370 25235 net.cpp:84] Creating Layer lstm1_unit_4
I0222 17:42:50.375372 25235 net.cpp:406] lstm1_unit_4 <- c_3
I0222 17:42:50.375376 25235 net.cpp:406] lstm1_unit_4 <- gate_input_4
I0222 17:42:50.375380 25235 net.cpp:406] lstm1_unit_4 <- cont_4_lstm1_cont_slice_3_split_1
I0222 17:42:50.375385 25235 net.cpp:380] lstm1_unit_4 -> c_4
I0222 17:42:50.375391 25235 net.cpp:380] lstm1_unit_4 -> h_4
I0222 17:42:50.375414 25235 net.cpp:122] Setting up lstm1_unit_4
I0222 17:42:50.375419 25235 net.cpp:129] Top shape: 1 26 64 (1664)
I0222 17:42:50.375422 25235 net.cpp:129] Top shape: 1 26 64 (1664)
I0222 17:42:50.375425 25235 net.cpp:137] Memory required for data: 1636544
I0222 17:42:50.375428 25235 layer_factory.hpp:77] Creating layer h_4_lstm1_unit_4_1_split
I0222 17:42:50.375432 25235 net.cpp:84] Creating Layer h_4_lstm1_unit_4_1_split
I0222 17:42:50.375435 25235 net.cpp:406] h_4_lstm1_unit_4_1_split <- h_4
I0222 17:42:50.375439 25235 net.cpp:380] h_4_lstm1_unit_4_1_split -> h_4_lstm1_unit_4_1_split_0
I0222 17:42:50.375444 25235 net.cpp:380] h_4_lstm1_unit_4_1_split -> h_4_lstm1_unit_4_1_split_1
I0222 17:42:50.375474 25235 net.cpp:122] Setting up h_4_lstm1_unit_4_1_split
I0222 17:42:50.375479 25235 net.cpp:129] Top shape: 1 26 64 (1664)
I0222 17:42:50.375483 25235 net.cpp:129] Top shape: 1 26 64 (1664)
I0222 17:42:50.375486 25235 net.cpp:137] Memory required for data: 1649856
I0222 17:42:50.375489 25235 layer_factory.hpp:77] Creating layer lstm1_h_conted_4
I0222 17:42:50.375494 25235 net.cpp:84] Creating Layer lstm1_h_conted_4
I0222 17:42:50.375499 25235 net.cpp:406] lstm1_h_conted_4 <- h_4_lstm1_unit_4_1_split_0
I0222 17:42:50.375502 25235 net.cpp:406] lstm1_h_conted_4 <- cont_5_lstm1_cont_slice_4_split_0
I0222 17:42:50.375506 25235 net.cpp:380] lstm1_h_conted_4 -> h_conted_4
I0222 17:42:50.375537 25235 net.cpp:122] Setting up lstm1_h_conted_4
I0222 17:42:50.375542 25235 net.cpp:129] Top shape: 1 26 64 (1664)
I0222 17:42:50.375545 25235 net.cpp:137] Memory required for data: 1656512
I0222 17:42:50.375548 25235 layer_factory.hpp:77] Creating layer lstm1_transform_5
I0222 17:42:50.375555 25235 net.cpp:84] Creating Layer lstm1_transform_5
I0222 17:42:50.375562 25235 net.cpp:406] lstm1_transform_5 <- h_conted_4
I0222 17:42:50.375566 25235 net.cpp:380] lstm1_transform_5 -> W_hc_h_4
I0222 17:42:50.402004 25235 net.cpp:122] Setting up lstm1_transform_5
I0222 17:42:50.402015 25235 net.cpp:129] Top shape: 1 26 256 (6656)
I0222 17:42:50.402019 25235 net.cpp:137] Memory required for data: 1683136
I0222 17:42:50.402022 25235 net.cpp:465] Sharing parameters 'W_hc' owned by layer 'lstm1_transform_1', param index 0
I0222 17:42:50.402026 25235 layer_factory.hpp:77] Creating layer lstm1_gate_input_5
I0222 17:42:50.402032 25235 net.cpp:84] Creating Layer lstm1_gate_input_5
I0222 17:42:50.402036 25235 net.cpp:406] lstm1_gate_input_5 <- W_hc_h_4
I0222 17:42:50.402040 25235 net.cpp:406] lstm1_gate_input_5 <- W_xc_x_5
I0222 17:42:50.402045 25235 net.cpp:380] lstm1_gate_input_5 -> gate_input_5
I0222 17:42:50.402062 25235 net.cpp:122] Setting up lstm1_gate_input_5
I0222 17:42:50.402067 25235 net.cpp:129] Top shape: 1 26 256 (6656)
I0222 17:42:50.402070 25235 net.cpp:137] Memory required for data: 1709760
I0222 17:42:50.402073 25235 layer_factory.hpp:77] Creating layer lstm1_unit_5
I0222 17:42:50.402078 25235 net.cpp:84] Creating Layer lstm1_unit_5
I0222 17:42:50.402082 25235 net.cpp:406] lstm1_unit_5 <- c_4
I0222 17:42:50.402086 25235 net.cpp:406] lstm1_unit_5 <- gate_input_5
I0222 17:42:50.402089 25235 net.cpp:406] lstm1_unit_5 <- cont_5_lstm1_cont_slice_4_split_1
I0222 17:42:50.402094 25235 net.cpp:380] lstm1_unit_5 -> c_5
I0222 17:42:50.402099 25235 net.cpp:380] lstm1_unit_5 -> h_5
I0222 17:42:50.402125 25235 net.cpp:122] Setting up lstm1_unit_5
I0222 17:42:50.402130 25235 net.cpp:129] Top shape: 1 26 64 (1664)
I0222 17:42:50.402133 25235 net.cpp:129] Top shape: 1 26 64 (1664)
I0222 17:42:50.402137 25235 net.cpp:137] Memory required for data: 1723072
I0222 17:42:50.402139 25235 layer_factory.hpp:77] Creating layer h_5_lstm1_unit_5_1_split
I0222 17:42:50.402144 25235 net.cpp:84] Creating Layer h_5_lstm1_unit_5_1_split
I0222 17:42:50.402148 25235 net.cpp:406] h_5_lstm1_unit_5_1_split <- h_5
I0222 17:42:50.402151 25235 net.cpp:380] h_5_lstm1_unit_5_1_split -> h_5_lstm1_unit_5_1_split_0
I0222 17:42:50.402156 25235 net.cpp:380] h_5_lstm1_unit_5_1_split -> h_5_lstm1_unit_5_1_split_1
I0222 17:42:50.402175 25235 net.cpp:122] Setting up h_5_lstm1_unit_5_1_split
I0222 17:42:50.402179 25235 net.cpp:129] Top shape: 1 26 64 (1664)
I0222 17:42:50.402184 25235 net.cpp:129] Top shape: 1 26 64 (1664)
I0222 17:42:50.402186 25235 net.cpp:137] Memory required for data: 1736384
I0222 17:42:50.402189 25235 layer_factory.hpp:77] Creating layer lstm1_h_conted_5
I0222 17:42:50.402194 25235 net.cpp:84] Creating Layer lstm1_h_conted_5
I0222 17:42:50.402196 25235 net.cpp:406] lstm1_h_conted_5 <- h_5_lstm1_unit_5_1_split_0
I0222 17:42:50.402200 25235 net.cpp:406] lstm1_h_conted_5 <- cont_6_lstm1_cont_slice_5_split_0
I0222 17:42:50.402204 25235 net.cpp:380] lstm1_h_conted_5 -> h_conted_5
I0222 17:42:50.402237 25235 net.cpp:122] Setting up lstm1_h_conted_5
I0222 17:42:50.402242 25235 net.cpp:129] Top shape: 1 26 64 (1664)
I0222 17:42:50.402245 25235 net.cpp:137] Memory required for data: 1743040
I0222 17:42:50.402248 25235 layer_factory.hpp:77] Creating layer lstm1_transform_6
I0222 17:42:50.402253 25235 net.cpp:84] Creating Layer lstm1_transform_6
I0222 17:42:50.402257 25235 net.cpp:406] lstm1_transform_6 <- h_conted_5
I0222 17:42:50.402262 25235 net.cpp:380] lstm1_transform_6 -> W_hc_h_5
I0222 17:42:50.402356 25235 net.cpp:122] Setting up lstm1_transform_6
I0222 17:42:50.402361 25235 net.cpp:129] Top shape: 1 26 256 (6656)
I0222 17:42:50.402364 25235 net.cpp:137] Memory required for data: 1769664
I0222 17:42:50.402367 25235 net.cpp:465] Sharing parameters 'W_hc' owned by layer 'lstm1_transform_1', param index 0
I0222 17:42:50.402371 25235 layer_factory.hpp:77] Creating layer lstm1_gate_input_6
I0222 17:42:50.402375 25235 net.cpp:84] Creating Layer lstm1_gate_input_6
I0222 17:42:50.402379 25235 net.cpp:406] lstm1_gate_input_6 <- W_hc_h_5
I0222 17:42:50.402382 25235 net.cpp:406] lstm1_gate_input_6 <- W_xc_x_6
I0222 17:42:50.402395 25235 net.cpp:380] lstm1_gate_input_6 -> gate_input_6
I0222 17:42:50.402411 25235 net.cpp:122] Setting up lstm1_gate_input_6
I0222 17:42:50.402416 25235 net.cpp:129] Top shape: 1 26 256 (6656)
I0222 17:42:50.402420 25235 net.cpp:137] Memory required for data: 1796288
I0222 17:42:50.402422 25235 layer_factory.hpp:77] Creating layer lstm1_unit_6
I0222 17:42:50.402426 25235 net.cpp:84] Creating Layer lstm1_unit_6
I0222 17:42:50.402429 25235 net.cpp:406] lstm1_unit_6 <- c_5
I0222 17:42:50.402433 25235 net.cpp:406] lstm1_unit_6 <- gate_input_6
I0222 17:42:50.402436 25235 net.cpp:406] lstm1_unit_6 <- cont_6_lstm1_cont_slice_5_split_1
I0222 17:42:50.402442 25235 net.cpp:380] lstm1_unit_6 -> c_6
I0222 17:42:50.402447 25235 net.cpp:380] lstm1_unit_6 -> h_6
I0222 17:42:50.402472 25235 net.cpp:122] Setting up lstm1_unit_6
I0222 17:42:50.402477 25235 net.cpp:129] Top shape: 1 26 64 (1664)
I0222 17:42:50.402480 25235 net.cpp:129] Top shape: 1 26 64 (1664)
I0222 17:42:50.402483 25235 net.cpp:137] Memory required for data: 1809600
I0222 17:42:50.402487 25235 layer_factory.hpp:77] Creating layer h_6_lstm1_unit_6_1_split
I0222 17:42:50.402492 25235 net.cpp:84] Creating Layer h_6_lstm1_unit_6_1_split
I0222 17:42:50.402494 25235 net.cpp:406] h_6_lstm1_unit_6_1_split <- h_6
I0222 17:42:50.402499 25235 net.cpp:380] h_6_lstm1_unit_6_1_split -> h_6_lstm1_unit_6_1_split_0
I0222 17:42:50.402503 25235 net.cpp:380] h_6_lstm1_unit_6_1_split -> h_6_lstm1_unit_6_1_split_1
I0222 17:42:50.402524 25235 net.cpp:122] Setting up h_6_lstm1_unit_6_1_split
I0222 17:42:50.402529 25235 net.cpp:129] Top shape: 1 26 64 (1664)
I0222 17:42:50.402534 25235 net.cpp:129] Top shape: 1 26 64 (1664)
I0222 17:42:50.402535 25235 net.cpp:137] Memory required for data: 1822912
I0222 17:42:50.402539 25235 layer_factory.hpp:77] Creating layer lstm1_h_conted_6
I0222 17:42:50.402544 25235 net.cpp:84] Creating Layer lstm1_h_conted_6
I0222 17:42:50.402547 25235 net.cpp:406] lstm1_h_conted_6 <- h_6_lstm1_unit_6_1_split_0
I0222 17:42:50.402551 25235 net.cpp:406] lstm1_h_conted_6 <- cont_7_lstm1_cont_slice_6_split_0
I0222 17:42:50.402555 25235 net.cpp:380] lstm1_h_conted_6 -> h_conted_6
I0222 17:42:50.402586 25235 net.cpp:122] Setting up lstm1_h_conted_6
I0222 17:42:50.402592 25235 net.cpp:129] Top shape: 1 26 64 (1664)
I0222 17:42:50.402595 25235 net.cpp:137] Memory required for data: 1829568
I0222 17:42:50.402598 25235 layer_factory.hpp:77] Creating layer lstm1_transform_7
I0222 17:42:50.402602 25235 net.cpp:84] Creating Layer lstm1_transform_7
I0222 17:42:50.402606 25235 net.cpp:406] lstm1_transform_7 <- h_conted_6
I0222 17:42:50.402611 25235 net.cpp:380] lstm1_transform_7 -> W_hc_h_6
I0222 17:42:50.402704 25235 net.cpp:122] Setting up lstm1_transform_7
I0222 17:42:50.402709 25235 net.cpp:129] Top shape: 1 26 256 (6656)
I0222 17:42:50.402712 25235 net.cpp:137] Memory required for data: 1856192
I0222 17:42:50.402719 25235 net.cpp:465] Sharing parameters 'W_hc' owned by layer 'lstm1_transform_1', param index 0
I0222 17:42:50.402722 25235 layer_factory.hpp:77] Creating layer lstm1_gate_input_7
I0222 17:42:50.402726 25235 net.cpp:84] Creating Layer lstm1_gate_input_7
I0222 17:42:50.402730 25235 net.cpp:406] lstm1_gate_input_7 <- W_hc_h_6
I0222 17:42:50.402734 25235 net.cpp:406] lstm1_gate_input_7 <- W_xc_x_7
I0222 17:42:50.402739 25235 net.cpp:380] lstm1_gate_input_7 -> gate_input_7
I0222 17:42:50.402751 25235 net.cpp:122] Setting up lstm1_gate_input_7
I0222 17:42:50.402755 25235 net.cpp:129] Top shape: 1 26 256 (6656)
I0222 17:42:50.402758 25235 net.cpp:137] Memory required for data: 1882816
I0222 17:42:50.402761 25235 layer_factory.hpp:77] Creating layer lstm1_unit_7
I0222 17:42:50.402766 25235 net.cpp:84] Creating Layer lstm1_unit_7
I0222 17:42:50.402770 25235 net.cpp:406] lstm1_unit_7 <- c_6
I0222 17:42:50.402773 25235 net.cpp:406] lstm1_unit_7 <- gate_input_7
I0222 17:42:50.402777 25235 net.cpp:406] lstm1_unit_7 <- cont_7_lstm1_cont_slice_6_split_1
I0222 17:42:50.402781 25235 net.cpp:380] lstm1_unit_7 -> c_7
I0222 17:42:50.402786 25235 net.cpp:380] lstm1_unit_7 -> h_7
I0222 17:42:50.402815 25235 net.cpp:122] Setting up lstm1_unit_7
I0222 17:42:50.402820 25235 net.cpp:129] Top shape: 1 26 64 (1664)
I0222 17:42:50.402823 25235 net.cpp:129] Top shape: 1 26 64 (1664)
I0222 17:42:50.402827 25235 net.cpp:137] Memory required for data: 1896128
I0222 17:42:50.402829 25235 layer_factory.hpp:77] Creating layer h_7_lstm1_unit_7_1_split
I0222 17:42:50.402833 25235 net.cpp:84] Creating Layer h_7_lstm1_unit_7_1_split
I0222 17:42:50.402837 25235 net.cpp:406] h_7_lstm1_unit_7_1_split <- h_7
I0222 17:42:50.405620 25235 net.cpp:380] h_7_lstm1_unit_7_1_split -> h_7_lstm1_unit_7_1_split_0
I0222 17:42:50.405632 25235 net.cpp:380] h_7_lstm1_unit_7_1_split -> h_7_lstm1_unit_7_1_split_1
I0222 17:42:50.405674 25235 net.cpp:122] Setting up h_7_lstm1_unit_7_1_split
I0222 17:42:50.405683 25235 net.cpp:129] Top shape: 1 26 64 (1664)
I0222 17:42:50.405688 25235 net.cpp:129] Top shape: 1 26 64 (1664)
I0222 17:42:50.405690 25235 net.cpp:137] Memory required for data: 1909440
I0222 17:42:50.405695 25235 layer_factory.hpp:77] Creating layer lstm1_h_conted_7
I0222 17:42:50.405706 25235 net.cpp:84] Creating Layer lstm1_h_conted_7
I0222 17:42:50.405711 25235 net.cpp:406] lstm1_h_conted_7 <- h_7_lstm1_unit_7_1_split_0
I0222 17:42:50.405716 25235 net.cpp:406] lstm1_h_conted_7 <- cont_8_lstm1_cont_slice_7_split_0
I0222 17:42:50.405721 25235 net.cpp:380] lstm1_h_conted_7 -> h_conted_7
I0222 17:42:50.405757 25235 net.cpp:122] Setting up lstm1_h_conted_7
I0222 17:42:50.405763 25235 net.cpp:129] Top shape: 1 26 64 (1664)
I0222 17:42:50.405766 25235 net.cpp:137] Memory required for data: 1916096
I0222 17:42:50.405771 25235 layer_factory.hpp:77] Creating layer lstm1_transform_8
I0222 17:42:50.405776 25235 net.cpp:84] Creating Layer lstm1_transform_8
I0222 17:42:50.405781 25235 net.cpp:406] lstm1_transform_8 <- h_conted_7
I0222 17:42:50.405786 25235 net.cpp:380] lstm1_transform_8 -> W_hc_h_7
I0222 17:42:50.405882 25235 net.cpp:122] Setting up lstm1_transform_8
I0222 17:42:50.405889 25235 net.cpp:129] Top shape: 1 26 256 (6656)
I0222 17:42:50.405892 25235 net.cpp:137] Memory required for data: 1942720
I0222 17:42:50.405896 25235 net.cpp:465] Sharing parameters 'W_hc' owned by layer 'lstm1_transform_1', param index 0
I0222 17:42:50.405900 25235 layer_factory.hpp:77] Creating layer lstm1_gate_input_8
I0222 17:42:50.405905 25235 net.cpp:84] Creating Layer lstm1_gate_input_8
I0222 17:42:50.405910 25235 net.cpp:406] lstm1_gate_input_8 <- W_hc_h_7
I0222 17:42:50.405915 25235 net.cpp:406] lstm1_gate_input_8 <- W_xc_x_8
I0222 17:42:50.405920 25235 net.cpp:380] lstm1_gate_input_8 -> gate_input_8
I0222 17:42:50.405936 25235 net.cpp:122] Setting up lstm1_gate_input_8
I0222 17:42:50.405941 25235 net.cpp:129] Top shape: 1 26 256 (6656)
I0222 17:42:50.405944 25235 net.cpp:137] Memory required for data: 1969344
I0222 17:42:50.405947 25235 layer_factory.hpp:77] Creating layer lstm1_unit_8
I0222 17:42:50.405952 25235 net.cpp:84] Creating Layer lstm1_unit_8
I0222 17:42:50.405956 25235 net.cpp:406] lstm1_unit_8 <- c_7
I0222 17:42:50.405961 25235 net.cpp:406] lstm1_unit_8 <- gate_input_8
I0222 17:42:50.405966 25235 net.cpp:406] lstm1_unit_8 <- cont_8_lstm1_cont_slice_7_split_1
I0222 17:42:50.405971 25235 net.cpp:380] lstm1_unit_8 -> c_8
I0222 17:42:50.405975 25235 net.cpp:380] lstm1_unit_8 -> h_8
I0222 17:42:50.406000 25235 net.cpp:122] Setting up lstm1_unit_8
I0222 17:42:50.406006 25235 net.cpp:129] Top shape: 1 26 64 (1664)
I0222 17:42:50.406010 25235 net.cpp:129] Top shape: 1 26 64 (1664)
I0222 17:42:50.406013 25235 net.cpp:137] Memory required for data: 1982656
I0222 17:42:50.406018 25235 layer_factory.hpp:77] Creating layer h_8_lstm1_unit_8_1_split
I0222 17:42:50.406023 25235 net.cpp:84] Creating Layer h_8_lstm1_unit_8_1_split
I0222 17:42:50.406026 25235 net.cpp:406] h_8_lstm1_unit_8_1_split <- h_8
I0222 17:42:50.406031 25235 net.cpp:380] h_8_lstm1_unit_8_1_split -> h_8_lstm1_unit_8_1_split_0
I0222 17:42:50.406038 25235 net.cpp:380] h_8_lstm1_unit_8_1_split -> h_8_lstm1_unit_8_1_split_1
I0222 17:42:50.406056 25235 net.cpp:122] Setting up h_8_lstm1_unit_8_1_split
I0222 17:42:50.406069 25235 net.cpp:129] Top shape: 1 26 64 (1664)
I0222 17:42:50.406074 25235 net.cpp:129] Top shape: 1 26 64 (1664)
I0222 17:42:50.406076 25235 net.cpp:137] Memory required for data: 1995968
I0222 17:42:50.406080 25235 layer_factory.hpp:77] Creating layer lstm1_h_conted_8
I0222 17:42:50.406085 25235 net.cpp:84] Creating Layer lstm1_h_conted_8
I0222 17:42:50.406090 25235 net.cpp:406] lstm1_h_conted_8 <- h_8_lstm1_unit_8_1_split_0
I0222 17:42:50.406095 25235 net.cpp:406] lstm1_h_conted_8 <- cont_9_lstm1_cont_slice_8_split_0
I0222 17:42:50.406100 25235 net.cpp:380] lstm1_h_conted_8 -> h_conted_8
I0222 17:42:50.406152 25235 net.cpp:122] Setting up lstm1_h_conted_8
I0222 17:42:50.406157 25235 net.cpp:129] Top shape: 1 26 64 (1664)
I0222 17:42:50.406162 25235 net.cpp:137] Memory required for data: 2002624
I0222 17:42:50.406178 25235 layer_factory.hpp:77] Creating layer lstm1_transform_9
I0222 17:42:50.406183 25235 net.cpp:84] Creating Layer lstm1_transform_9
I0222 17:42:50.406188 25235 net.cpp:406] lstm1_transform_9 <- h_conted_8
I0222 17:42:50.406193 25235 net.cpp:380] lstm1_transform_9 -> W_hc_h_8
I0222 17:42:50.406286 25235 net.cpp:122] Setting up lstm1_transform_9
I0222 17:42:50.406291 25235 net.cpp:129] Top shape: 1 26 256 (6656)
I0222 17:42:50.406296 25235 net.cpp:137] Memory required for data: 2029248
I0222 17:42:50.406299 25235 net.cpp:465] Sharing parameters 'W_hc' owned by layer 'lstm1_transform_1', param index 0
I0222 17:42:50.406302 25235 layer_factory.hpp:77] Creating layer lstm1_gate_input_9
I0222 17:42:50.406307 25235 net.cpp:84] Creating Layer lstm1_gate_input_9
I0222 17:42:50.406311 25235 net.cpp:406] lstm1_gate_input_9 <- W_hc_h_8
I0222 17:42:50.406316 25235 net.cpp:406] lstm1_gate_input_9 <- W_xc_x_9
I0222 17:42:50.406322 25235 net.cpp:380] lstm1_gate_input_9 -> gate_input_9
I0222 17:42:50.406334 25235 net.cpp:122] Setting up lstm1_gate_input_9
I0222 17:42:50.406340 25235 net.cpp:129] Top shape: 1 26 256 (6656)
I0222 17:42:50.406343 25235 net.cpp:137] Memory required for data: 2055872
I0222 17:42:50.406347 25235 layer_factory.hpp:77] Creating layer lstm1_unit_9
I0222 17:42:50.406353 25235 net.cpp:84] Creating Layer lstm1_unit_9
I0222 17:42:50.406358 25235 net.cpp:406] lstm1_unit_9 <- c_8
I0222 17:42:50.406361 25235 net.cpp:406] lstm1_unit_9 <- gate_input_9
I0222 17:42:50.406366 25235 net.cpp:406] lstm1_unit_9 <- cont_9_lstm1_cont_slice_8_split_1
I0222 17:42:50.406370 25235 net.cpp:380] lstm1_unit_9 -> c_9
I0222 17:42:50.406376 25235 net.cpp:380] lstm1_unit_9 -> h_9
I0222 17:42:50.406401 25235 net.cpp:122] Setting up lstm1_unit_9
I0222 17:42:50.406407 25235 net.cpp:129] Top shape: 1 26 64 (1664)
I0222 17:42:50.406411 25235 net.cpp:129] Top shape: 1 26 64 (1664)
I0222 17:42:50.406415 25235 net.cpp:137] Memory required for data: 2069184
I0222 17:42:50.406419 25235 layer_factory.hpp:77] Creating layer h_9_lstm1_unit_9_1_split
I0222 17:42:50.406424 25235 net.cpp:84] Creating Layer h_9_lstm1_unit_9_1_split
I0222 17:42:50.406426 25235 net.cpp:406] h_9_lstm1_unit_9_1_split <- h_9
I0222 17:42:50.406432 25235 net.cpp:380] h_9_lstm1_unit_9_1_split -> h_9_lstm1_unit_9_1_split_0
I0222 17:42:50.406438 25235 net.cpp:380] h_9_lstm1_unit_9_1_split -> h_9_lstm1_unit_9_1_split_1
I0222 17:42:50.406455 25235 net.cpp:122] Setting up h_9_lstm1_unit_9_1_split
I0222 17:42:50.406461 25235 net.cpp:129] Top shape: 1 26 64 (1664)
I0222 17:42:50.406466 25235 net.cpp:129] Top shape: 1 26 64 (1664)
I0222 17:42:50.406468 25235 net.cpp:137] Memory required for data: 2082496
I0222 17:42:50.406472 25235 layer_factory.hpp:77] Creating layer lstm1_h_conted_9
I0222 17:42:50.406478 25235 net.cpp:84] Creating Layer lstm1_h_conted_9
I0222 17:42:50.406482 25235 net.cpp:406] lstm1_h_conted_9 <- h_9_lstm1_unit_9_1_split_0
I0222 17:42:50.406487 25235 net.cpp:406] lstm1_h_conted_9 <- cont_10_lstm1_cont_slice_9_split_0
I0222 17:42:50.406492 25235 net.cpp:380] lstm1_h_conted_9 -> h_conted_9
I0222 17:42:50.406524 25235 net.cpp:122] Setting up lstm1_h_conted_9
I0222 17:42:50.406529 25235 net.cpp:129] Top shape: 1 26 64 (1664)
I0222 17:42:50.406538 25235 net.cpp:137] Memory required for data: 2089152
I0222 17:42:50.406543 25235 layer_factory.hpp:77] Creating layer lstm1_transform_10
I0222 17:42:50.406548 25235 net.cpp:84] Creating Layer lstm1_transform_10
I0222 17:42:50.406551 25235 net.cpp:406] lstm1_transform_10 <- h_conted_9
I0222 17:42:50.406556 25235 net.cpp:380] lstm1_transform_10 -> W_hc_h_9
I0222 17:42:50.432855 25235 net.cpp:122] Setting up lstm1_transform_10
I0222 17:42:50.432868 25235 net.cpp:129] Top shape: 1 26 256 (6656)
I0222 17:42:50.432870 25235 net.cpp:137] Memory required for data: 2115776
I0222 17:42:50.432875 25235 net.cpp:465] Sharing parameters 'W_hc' owned by layer 'lstm1_transform_1', param index 0
I0222 17:42:50.432880 25235 layer_factory.hpp:77] Creating layer lstm1_gate_input_10
I0222 17:42:50.432891 25235 net.cpp:84] Creating Layer lstm1_gate_input_10
I0222 17:42:50.432895 25235 net.cpp:406] lstm1_gate_input_10 <- W_hc_h_9
I0222 17:42:50.432901 25235 net.cpp:406] lstm1_gate_input_10 <- W_xc_x_10
I0222 17:42:50.432906 25235 net.cpp:380] lstm1_gate_input_10 -> gate_input_10
I0222 17:42:50.432924 25235 net.cpp:122] Setting up lstm1_gate_input_10
I0222 17:42:50.432929 25235 net.cpp:129] Top shape: 1 26 256 (6656)
I0222 17:42:50.432932 25235 net.cpp:137] Memory required for data: 2142400
I0222 17:42:50.432936 25235 layer_factory.hpp:77] Creating layer lstm1_unit_10
I0222 17:42:50.432942 25235 net.cpp:84] Creating Layer lstm1_unit_10
I0222 17:42:50.432946 25235 net.cpp:406] lstm1_unit_10 <- c_9
I0222 17:42:50.432951 25235 net.cpp:406] lstm1_unit_10 <- gate_input_10
I0222 17:42:50.432955 25235 net.cpp:406] lstm1_unit_10 <- cont_10_lstm1_cont_slice_9_split_1
I0222 17:42:50.432962 25235 net.cpp:380] lstm1_unit_10 -> c_10
I0222 17:42:50.432968 25235 net.cpp:380] lstm1_unit_10 -> h_10
I0222 17:42:50.432994 25235 net.cpp:122] Setting up lstm1_unit_10
I0222 17:42:50.433001 25235 net.cpp:129] Top shape: 1 26 64 (1664)
I0222 17:42:50.433004 25235 net.cpp:129] Top shape: 1 26 64 (1664)
I0222 17:42:50.433008 25235 net.cpp:137] Memory required for data: 2155712
I0222 17:42:50.433012 25235 layer_factory.hpp:77] Creating layer h_10_lstm1_unit_10_1_split
I0222 17:42:50.433017 25235 net.cpp:84] Creating Layer h_10_lstm1_unit_10_1_split
I0222 17:42:50.433020 25235 net.cpp:406] h_10_lstm1_unit_10_1_split <- h_10
I0222 17:42:50.433025 25235 net.cpp:380] h_10_lstm1_unit_10_1_split -> h_10_lstm1_unit_10_1_split_0
I0222 17:42:50.433032 25235 net.cpp:380] h_10_lstm1_unit_10_1_split -> h_10_lstm1_unit_10_1_split_1
I0222 17:42:50.433051 25235 net.cpp:122] Setting up h_10_lstm1_unit_10_1_split
I0222 17:42:50.433058 25235 net.cpp:129] Top shape: 1 26 64 (1664)
I0222 17:42:50.433061 25235 net.cpp:129] Top shape: 1 26 64 (1664)
I0222 17:42:50.433065 25235 net.cpp:137] Memory required for data: 2169024
I0222 17:42:50.433068 25235 layer_factory.hpp:77] Creating layer lstm1_h_conted_10
I0222 17:42:50.433074 25235 net.cpp:84] Creating Layer lstm1_h_conted_10
I0222 17:42:50.433079 25235 net.cpp:406] lstm1_h_conted_10 <- h_10_lstm1_unit_10_1_split_0
I0222 17:42:50.433084 25235 net.cpp:406] lstm1_h_conted_10 <- cont_11_lstm1_cont_slice_10_split_0
I0222 17:42:50.433090 25235 net.cpp:380] lstm1_h_conted_10 -> h_conted_10
I0222 17:42:50.433125 25235 net.cpp:122] Setting up lstm1_h_conted_10
I0222 17:42:50.433131 25235 net.cpp:129] Top shape: 1 26 64 (1664)
I0222 17:42:50.433135 25235 net.cpp:137] Memory required for data: 2175680
I0222 17:42:50.433138 25235 layer_factory.hpp:77] Creating layer lstm1_transform_11
I0222 17:42:50.433146 25235 net.cpp:84] Creating Layer lstm1_transform_11
I0222 17:42:50.433151 25235 net.cpp:406] lstm1_transform_11 <- h_conted_10
I0222 17:42:50.433156 25235 net.cpp:380] lstm1_transform_11 -> W_hc_h_10
I0222 17:42:50.433251 25235 net.cpp:122] Setting up lstm1_transform_11
I0222 17:42:50.433257 25235 net.cpp:129] Top shape: 1 26 256 (6656)
I0222 17:42:50.433261 25235 net.cpp:137] Memory required for data: 2202304
I0222 17:42:50.433265 25235 net.cpp:465] Sharing parameters 'W_hc' owned by layer 'lstm1_transform_1', param index 0
I0222 17:42:50.433276 25235 layer_factory.hpp:77] Creating layer lstm1_gate_input_11
I0222 17:42:50.433282 25235 net.cpp:84] Creating Layer lstm1_gate_input_11
I0222 17:42:50.433286 25235 net.cpp:406] lstm1_gate_input_11 <- W_hc_h_10
I0222 17:42:50.433291 25235 net.cpp:406] lstm1_gate_input_11 <- W_xc_x_11
I0222 17:42:50.433297 25235 net.cpp:380] lstm1_gate_input_11 -> gate_input_11
I0222 17:42:50.433312 25235 net.cpp:122] Setting up lstm1_gate_input_11
I0222 17:42:50.433318 25235 net.cpp:129] Top shape: 1 26 256 (6656)
I0222 17:42:50.433321 25235 net.cpp:137] Memory required for data: 2228928
I0222 17:42:50.433326 25235 layer_factory.hpp:77] Creating layer lstm1_unit_11
I0222 17:42:50.433331 25235 net.cpp:84] Creating Layer lstm1_unit_11
I0222 17:42:50.433334 25235 net.cpp:406] lstm1_unit_11 <- c_10
I0222 17:42:50.433339 25235 net.cpp:406] lstm1_unit_11 <- gate_input_11
I0222 17:42:50.433344 25235 net.cpp:406] lstm1_unit_11 <- cont_11_lstm1_cont_slice_10_split_1
I0222 17:42:50.433349 25235 net.cpp:380] lstm1_unit_11 -> c_11
I0222 17:42:50.433365 25235 net.cpp:380] lstm1_unit_11 -> h_11
I0222 17:42:50.433393 25235 net.cpp:122] Setting up lstm1_unit_11
I0222 17:42:50.433398 25235 net.cpp:129] Top shape: 1 26 64 (1664)
I0222 17:42:50.433403 25235 net.cpp:129] Top shape: 1 26 64 (1664)
I0222 17:42:50.433406 25235 net.cpp:137] Memory required for data: 2242240
I0222 17:42:50.433409 25235 layer_factory.hpp:77] Creating layer h_11_lstm1_unit_11_1_split
I0222 17:42:50.433414 25235 net.cpp:84] Creating Layer h_11_lstm1_unit_11_1_split
I0222 17:42:50.433418 25235 net.cpp:406] h_11_lstm1_unit_11_1_split <- h_11
I0222 17:42:50.433423 25235 net.cpp:380] h_11_lstm1_unit_11_1_split -> h_11_lstm1_unit_11_1_split_0
I0222 17:42:50.433429 25235 net.cpp:380] h_11_lstm1_unit_11_1_split -> h_11_lstm1_unit_11_1_split_1
I0222 17:42:50.433449 25235 net.cpp:122] Setting up h_11_lstm1_unit_11_1_split
I0222 17:42:50.433454 25235 net.cpp:129] Top shape: 1 26 64 (1664)
I0222 17:42:50.433459 25235 net.cpp:129] Top shape: 1 26 64 (1664)
I0222 17:42:50.433462 25235 net.cpp:137] Memory required for data: 2255552
I0222 17:42:50.433466 25235 layer_factory.hpp:77] Creating layer lstm1_h_conted_11
I0222 17:42:50.433471 25235 net.cpp:84] Creating Layer lstm1_h_conted_11
I0222 17:42:50.433475 25235 net.cpp:406] lstm1_h_conted_11 <- h_11_lstm1_unit_11_1_split_0
I0222 17:42:50.433480 25235 net.cpp:406] lstm1_h_conted_11 <- cont_12_lstm1_cont_slice_11_split_0
I0222 17:42:50.433485 25235 net.cpp:380] lstm1_h_conted_11 -> h_conted_11
I0222 17:42:50.433518 25235 net.cpp:122] Setting up lstm1_h_conted_11
I0222 17:42:50.433524 25235 net.cpp:129] Top shape: 1 26 64 (1664)
I0222 17:42:50.433528 25235 net.cpp:137] Memory required for data: 2262208
I0222 17:42:50.433532 25235 layer_factory.hpp:77] Creating layer lstm1_transform_12
I0222 17:42:50.433537 25235 net.cpp:84] Creating Layer lstm1_transform_12
I0222 17:42:50.433542 25235 net.cpp:406] lstm1_transform_12 <- h_conted_11
I0222 17:42:50.433547 25235 net.cpp:380] lstm1_transform_12 -> W_hc_h_11
I0222 17:42:50.433642 25235 net.cpp:122] Setting up lstm1_transform_12
I0222 17:42:50.433648 25235 net.cpp:129] Top shape: 1 26 256 (6656)
I0222 17:42:50.433651 25235 net.cpp:137] Memory required for data: 2288832
I0222 17:42:50.433656 25235 net.cpp:465] Sharing parameters 'W_hc' owned by layer 'lstm1_transform_1', param index 0
I0222 17:42:50.433660 25235 layer_factory.hpp:77] Creating layer lstm1_gate_input_12
I0222 17:42:50.433665 25235 net.cpp:84] Creating Layer lstm1_gate_input_12
I0222 17:42:50.433670 25235 net.cpp:406] lstm1_gate_input_12 <- W_hc_h_11
I0222 17:42:50.433673 25235 net.cpp:406] lstm1_gate_input_12 <- W_xc_x_12
I0222 17:42:50.433678 25235 net.cpp:380] lstm1_gate_input_12 -> gate_input_12
I0222 17:42:50.433694 25235 net.cpp:122] Setting up lstm1_gate_input_12
I0222 17:42:50.433699 25235 net.cpp:129] Top shape: 1 26 256 (6656)
I0222 17:42:50.433703 25235 net.cpp:137] Memory required for data: 2315456
I0222 17:42:50.433706 25235 layer_factory.hpp:77] Creating layer lstm1_unit_12
I0222 17:42:50.433717 25235 net.cpp:84] Creating Layer lstm1_unit_12
I0222 17:42:50.433722 25235 net.cpp:406] lstm1_unit_12 <- c_11
I0222 17:42:50.433727 25235 net.cpp:406] lstm1_unit_12 <- gate_input_12
I0222 17:42:50.437106 25235 net.cpp:406] lstm1_unit_12 <- cont_12_lstm1_cont_slice_11_split_1
I0222 17:42:50.437117 25235 net.cpp:380] lstm1_unit_12 -> c_12
I0222 17:42:50.437124 25235 net.cpp:380] lstm1_unit_12 -> h_12
I0222 17:42:50.437155 25235 net.cpp:122] Setting up lstm1_unit_12
I0222 17:42:50.437161 25235 net.cpp:129] Top shape: 1 26 64 (1664)
I0222 17:42:50.437165 25235 net.cpp:129] Top shape: 1 26 64 (1664)
I0222 17:42:50.437168 25235 net.cpp:137] Memory required for data: 2328768
I0222 17:42:50.437171 25235 layer_factory.hpp:77] Creating layer h_12_lstm1_unit_12_1_split
I0222 17:42:50.437177 25235 net.cpp:84] Creating Layer h_12_lstm1_unit_12_1_split
I0222 17:42:50.437180 25235 net.cpp:406] h_12_lstm1_unit_12_1_split <- h_12
I0222 17:42:50.437186 25235 net.cpp:380] h_12_lstm1_unit_12_1_split -> h_12_lstm1_unit_12_1_split_0
I0222 17:42:50.437191 25235 net.cpp:380] h_12_lstm1_unit_12_1_split -> h_12_lstm1_unit_12_1_split_1
I0222 17:42:50.437209 25235 net.cpp:122] Setting up h_12_lstm1_unit_12_1_split
I0222 17:42:50.437214 25235 net.cpp:129] Top shape: 1 26 64 (1664)
I0222 17:42:50.437218 25235 net.cpp:129] Top shape: 1 26 64 (1664)
I0222 17:42:50.437221 25235 net.cpp:137] Memory required for data: 2342080
I0222 17:42:50.437223 25235 layer_factory.hpp:77] Creating layer lstm1_h_conted_12
I0222 17:42:50.437229 25235 net.cpp:84] Creating Layer lstm1_h_conted_12
I0222 17:42:50.437233 25235 net.cpp:406] lstm1_h_conted_12 <- h_12_lstm1_unit_12_1_split_0
I0222 17:42:50.437237 25235 net.cpp:406] lstm1_h_conted_12 <- cont_13_lstm1_cont_slice_12_split_0
I0222 17:42:50.437242 25235 net.cpp:380] lstm1_h_conted_12 -> h_conted_12
I0222 17:42:50.437275 25235 net.cpp:122] Setting up lstm1_h_conted_12
I0222 17:42:50.437280 25235 net.cpp:129] Top shape: 1 26 64 (1664)
I0222 17:42:50.437283 25235 net.cpp:137] Memory required for data: 2348736
I0222 17:42:50.437286 25235 layer_factory.hpp:77] Creating layer lstm1_transform_13
I0222 17:42:50.437291 25235 net.cpp:84] Creating Layer lstm1_transform_13
I0222 17:42:50.437295 25235 net.cpp:406] lstm1_transform_13 <- h_conted_12
I0222 17:42:50.437300 25235 net.cpp:380] lstm1_transform_13 -> W_hc_h_12
I0222 17:42:50.437410 25235 net.cpp:122] Setting up lstm1_transform_13
I0222 17:42:50.437417 25235 net.cpp:129] Top shape: 1 26 256 (6656)
I0222 17:42:50.437419 25235 net.cpp:137] Memory required for data: 2375360
I0222 17:42:50.437422 25235 net.cpp:465] Sharing parameters 'W_hc' owned by layer 'lstm1_transform_1', param index 0
I0222 17:42:50.437427 25235 layer_factory.hpp:77] Creating layer lstm1_gate_input_13
I0222 17:42:50.437430 25235 net.cpp:84] Creating Layer lstm1_gate_input_13
I0222 17:42:50.437434 25235 net.cpp:406] lstm1_gate_input_13 <- W_hc_h_12
I0222 17:42:50.437438 25235 net.cpp:406] lstm1_gate_input_13 <- W_xc_x_13
I0222 17:42:50.437443 25235 net.cpp:380] lstm1_gate_input_13 -> gate_input_13
I0222 17:42:50.437455 25235 net.cpp:122] Setting up lstm1_gate_input_13
I0222 17:42:50.437460 25235 net.cpp:129] Top shape: 1 26 256 (6656)
I0222 17:42:50.437463 25235 net.cpp:137] Memory required for data: 2401984
I0222 17:42:50.437466 25235 layer_factory.hpp:77] Creating layer lstm1_unit_13
I0222 17:42:50.437471 25235 net.cpp:84] Creating Layer lstm1_unit_13
I0222 17:42:50.437475 25235 net.cpp:406] lstm1_unit_13 <- c_12
I0222 17:42:50.437479 25235 net.cpp:406] lstm1_unit_13 <- gate_input_13
I0222 17:42:50.437484 25235 net.cpp:406] lstm1_unit_13 <- cont_13_lstm1_cont_slice_12_split_1
I0222 17:42:50.437487 25235 net.cpp:380] lstm1_unit_13 -> c_13
I0222 17:42:50.437492 25235 net.cpp:380] lstm1_unit_13 -> h_13
I0222 17:42:50.437516 25235 net.cpp:122] Setting up lstm1_unit_13
I0222 17:42:50.437521 25235 net.cpp:129] Top shape: 1 26 64 (1664)
I0222 17:42:50.437525 25235 net.cpp:129] Top shape: 1 26 64 (1664)
I0222 17:42:50.437527 25235 net.cpp:137] Memory required for data: 2415296
I0222 17:42:50.437537 25235 layer_factory.hpp:77] Creating layer h_13_lstm1_unit_13_1_split
I0222 17:42:50.437541 25235 net.cpp:84] Creating Layer h_13_lstm1_unit_13_1_split
I0222 17:42:50.437546 25235 net.cpp:406] h_13_lstm1_unit_13_1_split <- h_13
I0222 17:42:50.437551 25235 net.cpp:380] h_13_lstm1_unit_13_1_split -> h_13_lstm1_unit_13_1_split_0
I0222 17:42:50.437556 25235 net.cpp:380] h_13_lstm1_unit_13_1_split -> h_13_lstm1_unit_13_1_split_1
I0222 17:42:50.437573 25235 net.cpp:122] Setting up h_13_lstm1_unit_13_1_split
I0222 17:42:50.437577 25235 net.cpp:129] Top shape: 1 26 64 (1664)
I0222 17:42:50.437582 25235 net.cpp:129] Top shape: 1 26 64 (1664)
I0222 17:42:50.437584 25235 net.cpp:137] Memory required for data: 2428608
I0222 17:42:50.437587 25235 layer_factory.hpp:77] Creating layer lstm1_h_conted_13
I0222 17:42:50.437592 25235 net.cpp:84] Creating Layer lstm1_h_conted_13
I0222 17:42:50.437597 25235 net.cpp:406] lstm1_h_conted_13 <- h_13_lstm1_unit_13_1_split_0
I0222 17:42:50.437600 25235 net.cpp:406] lstm1_h_conted_13 <- cont_14_lstm1_cont_slice_13_split_0
I0222 17:42:50.437608 25235 net.cpp:380] lstm1_h_conted_13 -> h_conted_13
I0222 17:42:50.437640 25235 net.cpp:122] Setting up lstm1_h_conted_13
I0222 17:42:50.437645 25235 net.cpp:129] Top shape: 1 26 64 (1664)
I0222 17:42:50.437649 25235 net.cpp:137] Memory required for data: 2435264
I0222 17:42:50.437651 25235 layer_factory.hpp:77] Creating layer lstm1_transform_14
I0222 17:42:50.437655 25235 net.cpp:84] Creating Layer lstm1_transform_14
I0222 17:42:50.437659 25235 net.cpp:406] lstm1_transform_14 <- h_conted_13
I0222 17:42:50.437664 25235 net.cpp:380] lstm1_transform_14 -> W_hc_h_13
I0222 17:42:50.437757 25235 net.cpp:122] Setting up lstm1_transform_14
I0222 17:42:50.437762 25235 net.cpp:129] Top shape: 1 26 256 (6656)
I0222 17:42:50.437765 25235 net.cpp:137] Memory required for data: 2461888
I0222 17:42:50.437769 25235 net.cpp:465] Sharing parameters 'W_hc' owned by layer 'lstm1_transform_1', param index 0
I0222 17:42:50.437772 25235 layer_factory.hpp:77] Creating layer lstm1_gate_input_14
I0222 17:42:50.437777 25235 net.cpp:84] Creating Layer lstm1_gate_input_14
I0222 17:42:50.437782 25235 net.cpp:406] lstm1_gate_input_14 <- W_hc_h_13
I0222 17:42:50.437784 25235 net.cpp:406] lstm1_gate_input_14 <- W_xc_x_14
I0222 17:42:50.437789 25235 net.cpp:380] lstm1_gate_input_14 -> gate_input_14
I0222 17:42:50.437803 25235 net.cpp:122] Setting up lstm1_gate_input_14
I0222 17:42:50.437806 25235 net.cpp:129] Top shape: 1 26 256 (6656)
I0222 17:42:50.437809 25235 net.cpp:137] Memory required for data: 2488512
I0222 17:42:50.437813 25235 layer_factory.hpp:77] Creating layer lstm1_unit_14
I0222 17:42:50.437816 25235 net.cpp:84] Creating Layer lstm1_unit_14
I0222 17:42:50.437819 25235 net.cpp:406] lstm1_unit_14 <- c_13
I0222 17:42:50.437824 25235 net.cpp:406] lstm1_unit_14 <- gate_input_14
I0222 17:42:50.437827 25235 net.cpp:406] lstm1_unit_14 <- cont_14_lstm1_cont_slice_13_split_1
I0222 17:42:50.437832 25235 net.cpp:380] lstm1_unit_14 -> c_14
I0222 17:42:50.437837 25235 net.cpp:380] lstm1_unit_14 -> h_14
I0222 17:42:50.437862 25235 net.cpp:122] Setting up lstm1_unit_14
I0222 17:42:50.437866 25235 net.cpp:129] Top shape: 1 26 64 (1664)
I0222 17:42:50.437870 25235 net.cpp:129] Top shape: 1 26 64 (1664)
I0222 17:42:50.437873 25235 net.cpp:137] Memory required for data: 2501824
I0222 17:42:50.437876 25235 layer_factory.hpp:77] Creating layer h_14_lstm1_unit_14_1_split
I0222 17:42:50.437880 25235 net.cpp:84] Creating Layer h_14_lstm1_unit_14_1_split
I0222 17:42:50.437883 25235 net.cpp:406] h_14_lstm1_unit_14_1_split <- h_14
I0222 17:42:50.437887 25235 net.cpp:380] h_14_lstm1_unit_14_1_split -> h_14_lstm1_unit_14_1_split_0
I0222 17:42:50.437892 25235 net.cpp:380] h_14_lstm1_unit_14_1_split -> h_14_lstm1_unit_14_1_split_1
I0222 17:42:50.437909 25235 net.cpp:122] Setting up h_14_lstm1_unit_14_1_split
I0222 17:42:50.437914 25235 net.cpp:129] Top shape: 1 26 64 (1664)
I0222 17:42:50.437918 25235 net.cpp:129] Top shape: 1 26 64 (1664)
I0222 17:42:50.437921 25235 net.cpp:137] Memory required for data: 2515136
I0222 17:42:50.463238 25235 layer_factory.hpp:77] Creating layer lstm1_h_conted_14
I0222 17:42:50.463251 25235 net.cpp:84] Creating Layer lstm1_h_conted_14
I0222 17:42:50.463256 25235 net.cpp:406] lstm1_h_conted_14 <- h_14_lstm1_unit_14_1_split_0
I0222 17:42:50.463263 25235 net.cpp:406] lstm1_h_conted_14 <- cont_15_lstm1_cont_slice_14_split_0
I0222 17:42:50.463268 25235 net.cpp:380] lstm1_h_conted_14 -> h_conted_14
I0222 17:42:50.463318 25235 net.cpp:122] Setting up lstm1_h_conted_14
I0222 17:42:50.463325 25235 net.cpp:129] Top shape: 1 26 64 (1664)
I0222 17:42:50.463328 25235 net.cpp:137] Memory required for data: 2521792
I0222 17:42:50.463331 25235 layer_factory.hpp:77] Creating layer lstm1_transform_15
I0222 17:42:50.463337 25235 net.cpp:84] Creating Layer lstm1_transform_15
I0222 17:42:50.463341 25235 net.cpp:406] lstm1_transform_15 <- h_conted_14
I0222 17:42:50.463346 25235 net.cpp:380] lstm1_transform_15 -> W_hc_h_14
I0222 17:42:50.463443 25235 net.cpp:122] Setting up lstm1_transform_15
I0222 17:42:50.463449 25235 net.cpp:129] Top shape: 1 26 256 (6656)
I0222 17:42:50.463452 25235 net.cpp:137] Memory required for data: 2548416
I0222 17:42:50.463460 25235 net.cpp:465] Sharing parameters 'W_hc' owned by layer 'lstm1_transform_1', param index 0
I0222 17:42:50.463464 25235 layer_factory.hpp:77] Creating layer lstm1_gate_input_15
I0222 17:42:50.463469 25235 net.cpp:84] Creating Layer lstm1_gate_input_15
I0222 17:42:50.463472 25235 net.cpp:406] lstm1_gate_input_15 <- W_hc_h_14
I0222 17:42:50.463476 25235 net.cpp:406] lstm1_gate_input_15 <- W_xc_x_15
I0222 17:42:50.463481 25235 net.cpp:380] lstm1_gate_input_15 -> gate_input_15
I0222 17:42:50.463496 25235 net.cpp:122] Setting up lstm1_gate_input_15
I0222 17:42:50.463501 25235 net.cpp:129] Top shape: 1 26 256 (6656)
I0222 17:42:50.463505 25235 net.cpp:137] Memory required for data: 2575040
I0222 17:42:50.463507 25235 layer_factory.hpp:77] Creating layer lstm1_unit_15
I0222 17:42:50.463511 25235 net.cpp:84] Creating Layer lstm1_unit_15
I0222 17:42:50.463515 25235 net.cpp:406] lstm1_unit_15 <- c_14
I0222 17:42:50.463520 25235 net.cpp:406] lstm1_unit_15 <- gate_input_15
I0222 17:42:50.463523 25235 net.cpp:406] lstm1_unit_15 <- cont_15_lstm1_cont_slice_14_split_1
I0222 17:42:50.463528 25235 net.cpp:380] lstm1_unit_15 -> c_15
I0222 17:42:50.463533 25235 net.cpp:380] lstm1_unit_15 -> h_15
I0222 17:42:50.463559 25235 net.cpp:122] Setting up lstm1_unit_15
I0222 17:42:50.463564 25235 net.cpp:129] Top shape: 1 26 64 (1664)
I0222 17:42:50.463568 25235 net.cpp:129] Top shape: 1 26 64 (1664)
I0222 17:42:50.463572 25235 net.cpp:137] Memory required for data: 2588352
I0222 17:42:50.463574 25235 layer_factory.hpp:77] Creating layer h_15_lstm1_unit_15_1_split
I0222 17:42:50.463578 25235 net.cpp:84] Creating Layer h_15_lstm1_unit_15_1_split
I0222 17:42:50.463582 25235 net.cpp:406] h_15_lstm1_unit_15_1_split <- h_15
I0222 17:42:50.463585 25235 net.cpp:380] h_15_lstm1_unit_15_1_split -> h_15_lstm1_unit_15_1_split_0
I0222 17:42:50.463590 25235 net.cpp:380] h_15_lstm1_unit_15_1_split -> h_15_lstm1_unit_15_1_split_1
I0222 17:42:50.463609 25235 net.cpp:122] Setting up h_15_lstm1_unit_15_1_split
I0222 17:42:50.463613 25235 net.cpp:129] Top shape: 1 26 64 (1664)
I0222 17:42:50.463618 25235 net.cpp:129] Top shape: 1 26 64 (1664)
I0222 17:42:50.463620 25235 net.cpp:137] Memory required for data: 2601664
I0222 17:42:50.463624 25235 layer_factory.hpp:77] Creating layer lstm1_h_conted_15
I0222 17:42:50.463627 25235 net.cpp:84] Creating Layer lstm1_h_conted_15
I0222 17:42:50.463630 25235 net.cpp:406] lstm1_h_conted_15 <- h_15_lstm1_unit_15_1_split_0
I0222 17:42:50.463635 25235 net.cpp:406] lstm1_h_conted_15 <- cont_16_lstm1_cont_slice_15_split_0
I0222 17:42:50.463640 25235 net.cpp:380] lstm1_h_conted_15 -> h_conted_15
I0222 17:42:50.463673 25235 net.cpp:122] Setting up lstm1_h_conted_15
I0222 17:42:50.463678 25235 net.cpp:129] Top shape: 1 26 64 (1664)
I0222 17:42:50.463681 25235 net.cpp:137] Memory required for data: 2608320
I0222 17:42:50.463685 25235 layer_factory.hpp:77] Creating layer lstm1_transform_16
I0222 17:42:50.463698 25235 net.cpp:84] Creating Layer lstm1_transform_16
I0222 17:42:50.463702 25235 net.cpp:406] lstm1_transform_16 <- h_conted_15
I0222 17:42:50.463707 25235 net.cpp:380] lstm1_transform_16 -> W_hc_h_15
I0222 17:42:50.463801 25235 net.cpp:122] Setting up lstm1_transform_16
I0222 17:42:50.463806 25235 net.cpp:129] Top shape: 1 26 256 (6656)
I0222 17:42:50.463809 25235 net.cpp:137] Memory required for data: 2634944
I0222 17:42:50.463814 25235 net.cpp:465] Sharing parameters 'W_hc' owned by layer 'lstm1_transform_1', param index 0
I0222 17:42:50.463816 25235 layer_factory.hpp:77] Creating layer lstm1_gate_input_16
I0222 17:42:50.463821 25235 net.cpp:84] Creating Layer lstm1_gate_input_16
I0222 17:42:50.463824 25235 net.cpp:406] lstm1_gate_input_16 <- W_hc_h_15
I0222 17:42:50.463829 25235 net.cpp:406] lstm1_gate_input_16 <- W_xc_x_16
I0222 17:42:50.463832 25235 net.cpp:380] lstm1_gate_input_16 -> gate_input_16
I0222 17:42:50.463846 25235 net.cpp:122] Setting up lstm1_gate_input_16
I0222 17:42:50.463851 25235 net.cpp:129] Top shape: 1 26 256 (6656)
I0222 17:42:50.463855 25235 net.cpp:137] Memory required for data: 2661568
I0222 17:42:50.463857 25235 layer_factory.hpp:77] Creating layer lstm1_unit_16
I0222 17:42:50.463862 25235 net.cpp:84] Creating Layer lstm1_unit_16
I0222 17:42:50.463865 25235 net.cpp:406] lstm1_unit_16 <- c_15
I0222 17:42:50.463870 25235 net.cpp:406] lstm1_unit_16 <- gate_input_16
I0222 17:42:50.463872 25235 net.cpp:406] lstm1_unit_16 <- cont_16_lstm1_cont_slice_15_split_1
I0222 17:42:50.463877 25235 net.cpp:380] lstm1_unit_16 -> c_16
I0222 17:42:50.463881 25235 net.cpp:380] lstm1_unit_16 -> h_16
I0222 17:42:50.463907 25235 net.cpp:122] Setting up lstm1_unit_16
I0222 17:42:50.463912 25235 net.cpp:129] Top shape: 1 26 64 (1664)
I0222 17:42:50.463915 25235 net.cpp:129] Top shape: 1 26 64 (1664)
I0222 17:42:50.463918 25235 net.cpp:137] Memory required for data: 2674880
I0222 17:42:50.463922 25235 layer_factory.hpp:77] Creating layer h_16_lstm1_unit_16_1_split
I0222 17:42:50.463925 25235 net.cpp:84] Creating Layer h_16_lstm1_unit_16_1_split
I0222 17:42:50.463928 25235 net.cpp:406] h_16_lstm1_unit_16_1_split <- h_16
I0222 17:42:50.463932 25235 net.cpp:380] h_16_lstm1_unit_16_1_split -> h_16_lstm1_unit_16_1_split_0
I0222 17:42:50.463937 25235 net.cpp:380] h_16_lstm1_unit_16_1_split -> h_16_lstm1_unit_16_1_split_1
I0222 17:42:50.463955 25235 net.cpp:122] Setting up h_16_lstm1_unit_16_1_split
I0222 17:42:50.463960 25235 net.cpp:129] Top shape: 1 26 64 (1664)
I0222 17:42:50.463963 25235 net.cpp:129] Top shape: 1 26 64 (1664)
I0222 17:42:50.463966 25235 net.cpp:137] Memory required for data: 2688192
I0222 17:42:50.463969 25235 layer_factory.hpp:77] Creating layer lstm1_h_conted_16
I0222 17:42:50.463973 25235 net.cpp:84] Creating Layer lstm1_h_conted_16
I0222 17:42:50.463977 25235 net.cpp:406] lstm1_h_conted_16 <- h_16_lstm1_unit_16_1_split_0
I0222 17:42:50.463981 25235 net.cpp:406] lstm1_h_conted_16 <- cont_17_lstm1_cont_slice_16_split_0
I0222 17:42:50.463985 25235 net.cpp:380] lstm1_h_conted_16 -> h_conted_16
I0222 17:42:50.464017 25235 net.cpp:122] Setting up lstm1_h_conted_16
I0222 17:42:50.464022 25235 net.cpp:129] Top shape: 1 26 64 (1664)
I0222 17:42:50.464025 25235 net.cpp:137] Memory required for data: 2694848
I0222 17:42:50.464028 25235 layer_factory.hpp:77] Creating layer lstm1_transform_17
I0222 17:42:50.464033 25235 net.cpp:84] Creating Layer lstm1_transform_17
I0222 17:42:50.464036 25235 net.cpp:406] lstm1_transform_17 <- h_conted_16
I0222 17:42:50.464041 25235 net.cpp:380] lstm1_transform_17 -> W_hc_h_16
I0222 17:42:50.464134 25235 net.cpp:122] Setting up lstm1_transform_17
I0222 17:42:50.464140 25235 net.cpp:129] Top shape: 1 26 256 (6656)
I0222 17:42:50.464143 25235 net.cpp:137] Memory required for data: 2721472
I0222 17:42:50.467711 25235 net.cpp:465] Sharing parameters 'W_hc' owned by layer 'lstm1_transform_1', param index 0
I0222 17:42:50.467720 25235 layer_factory.hpp:77] Creating layer lstm1_gate_input_17
I0222 17:42:50.467725 25235 net.cpp:84] Creating Layer lstm1_gate_input_17
I0222 17:42:50.467736 25235 net.cpp:406] lstm1_gate_input_17 <- W_hc_h_16
I0222 17:42:50.467741 25235 net.cpp:406] lstm1_gate_input_17 <- W_xc_x_17
I0222 17:42:50.467746 25235 net.cpp:380] lstm1_gate_input_17 -> gate_input_17
I0222 17:42:50.467769 25235 net.cpp:122] Setting up lstm1_gate_input_17
I0222 17:42:50.467775 25235 net.cpp:129] Top shape: 1 26 256 (6656)
I0222 17:42:50.467778 25235 net.cpp:137] Memory required for data: 2748096
I0222 17:42:50.467782 25235 layer_factory.hpp:77] Creating layer lstm1_unit_17
I0222 17:42:50.467787 25235 net.cpp:84] Creating Layer lstm1_unit_17
I0222 17:42:50.467790 25235 net.cpp:406] lstm1_unit_17 <- c_16
I0222 17:42:50.467794 25235 net.cpp:406] lstm1_unit_17 <- gate_input_17
I0222 17:42:50.467798 25235 net.cpp:406] lstm1_unit_17 <- cont_17_lstm1_cont_slice_16_split_1
I0222 17:42:50.467803 25235 net.cpp:380] lstm1_unit_17 -> c_17
I0222 17:42:50.467808 25235 net.cpp:380] lstm1_unit_17 -> h_17
I0222 17:42:50.467840 25235 net.cpp:122] Setting up lstm1_unit_17
I0222 17:42:50.467845 25235 net.cpp:129] Top shape: 1 26 64 (1664)
I0222 17:42:50.467849 25235 net.cpp:129] Top shape: 1 26 64 (1664)
I0222 17:42:50.467852 25235 net.cpp:137] Memory required for data: 2761408
I0222 17:42:50.467855 25235 layer_factory.hpp:77] Creating layer h_17_lstm1_unit_17_1_split
I0222 17:42:50.467861 25235 net.cpp:84] Creating Layer h_17_lstm1_unit_17_1_split
I0222 17:42:50.467864 25235 net.cpp:406] h_17_lstm1_unit_17_1_split <- h_17
I0222 17:42:50.467869 25235 net.cpp:380] h_17_lstm1_unit_17_1_split -> h_17_lstm1_unit_17_1_split_0
I0222 17:42:50.467874 25235 net.cpp:380] h_17_lstm1_unit_17_1_split -> h_17_lstm1_unit_17_1_split_1
I0222 17:42:50.467893 25235 net.cpp:122] Setting up h_17_lstm1_unit_17_1_split
I0222 17:42:50.467897 25235 net.cpp:129] Top shape: 1 26 64 (1664)
I0222 17:42:50.467901 25235 net.cpp:129] Top shape: 1 26 64 (1664)
I0222 17:42:50.467905 25235 net.cpp:137] Memory required for data: 2774720
I0222 17:42:50.467907 25235 layer_factory.hpp:77] Creating layer lstm1_h_conted_17
I0222 17:42:50.467912 25235 net.cpp:84] Creating Layer lstm1_h_conted_17
I0222 17:42:50.467916 25235 net.cpp:406] lstm1_h_conted_17 <- h_17_lstm1_unit_17_1_split_0
I0222 17:42:50.467921 25235 net.cpp:406] lstm1_h_conted_17 <- cont_18_lstm1_cont_slice_17_split_0
I0222 17:42:50.467924 25235 net.cpp:380] lstm1_h_conted_17 -> h_conted_17
I0222 17:42:50.467957 25235 net.cpp:122] Setting up lstm1_h_conted_17
I0222 17:42:50.467963 25235 net.cpp:129] Top shape: 1 26 64 (1664)
I0222 17:42:50.467967 25235 net.cpp:137] Memory required for data: 2781376
I0222 17:42:50.467969 25235 layer_factory.hpp:77] Creating layer lstm1_transform_18
I0222 17:42:50.467974 25235 net.cpp:84] Creating Layer lstm1_transform_18
I0222 17:42:50.467978 25235 net.cpp:406] lstm1_transform_18 <- h_conted_17
I0222 17:42:50.467983 25235 net.cpp:380] lstm1_transform_18 -> W_hc_h_17
I0222 17:42:50.468080 25235 net.cpp:122] Setting up lstm1_transform_18
I0222 17:42:50.468084 25235 net.cpp:129] Top shape: 1 26 256 (6656)
I0222 17:42:50.468087 25235 net.cpp:137] Memory required for data: 2808000
I0222 17:42:50.468091 25235 net.cpp:465] Sharing parameters 'W_hc' owned by layer 'lstm1_transform_1', param index 0
I0222 17:42:50.468094 25235 layer_factory.hpp:77] Creating layer lstm1_gate_input_18
I0222 17:42:50.468098 25235 net.cpp:84] Creating Layer lstm1_gate_input_18
I0222 17:42:50.468101 25235 net.cpp:406] lstm1_gate_input_18 <- W_hc_h_17
I0222 17:42:50.468106 25235 net.cpp:406] lstm1_gate_input_18 <- W_xc_x_18
I0222 17:42:50.468111 25235 net.cpp:380] lstm1_gate_input_18 -> gate_input_18
I0222 17:42:50.468123 25235 net.cpp:122] Setting up lstm1_gate_input_18
I0222 17:42:50.468127 25235 net.cpp:129] Top shape: 1 26 256 (6656)
I0222 17:42:50.468130 25235 net.cpp:137] Memory required for data: 2834624
I0222 17:42:50.468133 25235 layer_factory.hpp:77] Creating layer lstm1_unit_18
I0222 17:42:50.468139 25235 net.cpp:84] Creating Layer lstm1_unit_18
I0222 17:42:50.468142 25235 net.cpp:406] lstm1_unit_18 <- c_17
I0222 17:42:50.468147 25235 net.cpp:406] lstm1_unit_18 <- gate_input_18
I0222 17:42:50.468156 25235 net.cpp:406] lstm1_unit_18 <- cont_18_lstm1_cont_slice_17_split_1
I0222 17:42:50.468160 25235 net.cpp:380] lstm1_unit_18 -> c_18
I0222 17:42:50.468165 25235 net.cpp:380] lstm1_unit_18 -> h_18
I0222 17:42:50.468191 25235 net.cpp:122] Setting up lstm1_unit_18
I0222 17:42:50.468195 25235 net.cpp:129] Top shape: 1 26 64 (1664)
I0222 17:42:50.468199 25235 net.cpp:129] Top shape: 1 26 64 (1664)
I0222 17:42:50.468202 25235 net.cpp:137] Memory required for data: 2847936
I0222 17:42:50.468205 25235 layer_factory.hpp:77] Creating layer h_18_lstm1_unit_18_1_split
I0222 17:42:50.468209 25235 net.cpp:84] Creating Layer h_18_lstm1_unit_18_1_split
I0222 17:42:50.468212 25235 net.cpp:406] h_18_lstm1_unit_18_1_split <- h_18
I0222 17:42:50.468217 25235 net.cpp:380] h_18_lstm1_unit_18_1_split -> h_18_lstm1_unit_18_1_split_0
I0222 17:42:50.468222 25235 net.cpp:380] h_18_lstm1_unit_18_1_split -> h_18_lstm1_unit_18_1_split_1
I0222 17:42:50.468240 25235 net.cpp:122] Setting up h_18_lstm1_unit_18_1_split
I0222 17:42:50.468243 25235 net.cpp:129] Top shape: 1 26 64 (1664)
I0222 17:42:50.468247 25235 net.cpp:129] Top shape: 1 26 64 (1664)
I0222 17:42:50.468250 25235 net.cpp:137] Memory required for data: 2861248
I0222 17:42:50.468253 25235 layer_factory.hpp:77] Creating layer lstm1_h_conted_18
I0222 17:42:50.468258 25235 net.cpp:84] Creating Layer lstm1_h_conted_18
I0222 17:42:50.468261 25235 net.cpp:406] lstm1_h_conted_18 <- h_18_lstm1_unit_18_1_split_0
I0222 17:42:50.468266 25235 net.cpp:406] lstm1_h_conted_18 <- cont_19_lstm1_cont_slice_18_split_0
I0222 17:42:50.468271 25235 net.cpp:380] lstm1_h_conted_18 -> h_conted_18
I0222 17:42:50.468302 25235 net.cpp:122] Setting up lstm1_h_conted_18
I0222 17:42:50.468307 25235 net.cpp:129] Top shape: 1 26 64 (1664)
I0222 17:42:50.468310 25235 net.cpp:137] Memory required for data: 2867904
I0222 17:42:50.468313 25235 layer_factory.hpp:77] Creating layer lstm1_transform_19
I0222 17:42:50.468317 25235 net.cpp:84] Creating Layer lstm1_transform_19
I0222 17:42:50.468322 25235 net.cpp:406] lstm1_transform_19 <- h_conted_18
I0222 17:42:50.468325 25235 net.cpp:380] lstm1_transform_19 -> W_hc_h_18
I0222 17:42:50.468418 25235 net.cpp:122] Setting up lstm1_transform_19
I0222 17:42:50.468423 25235 net.cpp:129] Top shape: 1 26 256 (6656)
I0222 17:42:50.468426 25235 net.cpp:137] Memory required for data: 2894528
I0222 17:42:50.468430 25235 net.cpp:465] Sharing parameters 'W_hc' owned by layer 'lstm1_transform_1', param index 0
I0222 17:42:50.468433 25235 layer_factory.hpp:77] Creating layer lstm1_gate_input_19
I0222 17:42:50.468439 25235 net.cpp:84] Creating Layer lstm1_gate_input_19
I0222 17:42:50.468442 25235 net.cpp:406] lstm1_gate_input_19 <- W_hc_h_18
I0222 17:42:50.468446 25235 net.cpp:406] lstm1_gate_input_19 <- W_xc_x_19
I0222 17:42:50.468451 25235 net.cpp:380] lstm1_gate_input_19 -> gate_input_19
I0222 17:42:50.468463 25235 net.cpp:122] Setting up lstm1_gate_input_19
I0222 17:42:50.468468 25235 net.cpp:129] Top shape: 1 26 256 (6656)
I0222 17:42:50.468472 25235 net.cpp:137] Memory required for data: 2921152
I0222 17:42:50.468474 25235 layer_factory.hpp:77] Creating layer lstm1_unit_19
I0222 17:42:50.468478 25235 net.cpp:84] Creating Layer lstm1_unit_19
I0222 17:42:50.468482 25235 net.cpp:406] lstm1_unit_19 <- c_18
I0222 17:42:50.468485 25235 net.cpp:406] lstm1_unit_19 <- gate_input_19
I0222 17:42:50.468489 25235 net.cpp:406] lstm1_unit_19 <- cont_19_lstm1_cont_slice_18_split_1
I0222 17:42:50.468494 25235 net.cpp:380] lstm1_unit_19 -> c_19
I0222 17:42:50.468499 25235 net.cpp:380] lstm1_unit_19 -> h_19
I0222 17:42:50.468524 25235 net.cpp:122] Setting up lstm1_unit_19
I0222 17:42:50.493837 25235 net.cpp:129] Top shape: 1 26 64 (1664)
I0222 17:42:50.493846 25235 net.cpp:129] Top shape: 1 26 64 (1664)
I0222 17:42:50.493849 25235 net.cpp:137] Memory required for data: 2934464
I0222 17:42:50.493854 25235 layer_factory.hpp:77] Creating layer h_19_lstm1_unit_19_1_split
I0222 17:42:50.493860 25235 net.cpp:84] Creating Layer h_19_lstm1_unit_19_1_split
I0222 17:42:50.493873 25235 net.cpp:406] h_19_lstm1_unit_19_1_split <- h_19
I0222 17:42:50.493880 25235 net.cpp:380] h_19_lstm1_unit_19_1_split -> h_19_lstm1_unit_19_1_split_0
I0222 17:42:50.493885 25235 net.cpp:380] h_19_lstm1_unit_19_1_split -> h_19_lstm1_unit_19_1_split_1
I0222 17:42:50.493921 25235 net.cpp:122] Setting up h_19_lstm1_unit_19_1_split
I0222 17:42:50.493927 25235 net.cpp:129] Top shape: 1 26 64 (1664)
I0222 17:42:50.493930 25235 net.cpp:129] Top shape: 1 26 64 (1664)
I0222 17:42:50.493933 25235 net.cpp:137] Memory required for data: 2947776
I0222 17:42:50.493937 25235 layer_factory.hpp:77] Creating layer lstm1_h_conted_19
I0222 17:42:50.493942 25235 net.cpp:84] Creating Layer lstm1_h_conted_19
I0222 17:42:50.493947 25235 net.cpp:406] lstm1_h_conted_19 <- h_19_lstm1_unit_19_1_split_0
I0222 17:42:50.493950 25235 net.cpp:406] lstm1_h_conted_19 <- cont_20_lstm1_cont_slice_19_split_0
I0222 17:42:50.493955 25235 net.cpp:380] lstm1_h_conted_19 -> h_conted_19
I0222 17:42:50.493993 25235 net.cpp:122] Setting up lstm1_h_conted_19
I0222 17:42:50.493999 25235 net.cpp:129] Top shape: 1 26 64 (1664)
I0222 17:42:50.494001 25235 net.cpp:137] Memory required for data: 2954432
I0222 17:42:50.494004 25235 layer_factory.hpp:77] Creating layer lstm1_transform_20
I0222 17:42:50.494010 25235 net.cpp:84] Creating Layer lstm1_transform_20
I0222 17:42:50.494014 25235 net.cpp:406] lstm1_transform_20 <- h_conted_19
I0222 17:42:50.494019 25235 net.cpp:380] lstm1_transform_20 -> W_hc_h_19
I0222 17:42:50.494117 25235 net.cpp:122] Setting up lstm1_transform_20
I0222 17:42:50.494123 25235 net.cpp:129] Top shape: 1 26 256 (6656)
I0222 17:42:50.494127 25235 net.cpp:137] Memory required for data: 2981056
I0222 17:42:50.494129 25235 net.cpp:465] Sharing parameters 'W_hc' owned by layer 'lstm1_transform_1', param index 0
I0222 17:42:50.494133 25235 layer_factory.hpp:77] Creating layer lstm1_gate_input_20
I0222 17:42:50.494138 25235 net.cpp:84] Creating Layer lstm1_gate_input_20
I0222 17:42:50.494141 25235 net.cpp:406] lstm1_gate_input_20 <- W_hc_h_19
I0222 17:42:50.494145 25235 net.cpp:406] lstm1_gate_input_20 <- W_xc_x_20
I0222 17:42:50.494151 25235 net.cpp:380] lstm1_gate_input_20 -> gate_input_20
I0222 17:42:50.494165 25235 net.cpp:122] Setting up lstm1_gate_input_20
I0222 17:42:50.494169 25235 net.cpp:129] Top shape: 1 26 256 (6656)
I0222 17:42:50.494173 25235 net.cpp:137] Memory required for data: 3007680
I0222 17:42:50.494175 25235 layer_factory.hpp:77] Creating layer lstm1_unit_20
I0222 17:42:50.494180 25235 net.cpp:84] Creating Layer lstm1_unit_20
I0222 17:42:50.494184 25235 net.cpp:406] lstm1_unit_20 <- c_19
I0222 17:42:50.494187 25235 net.cpp:406] lstm1_unit_20 <- gate_input_20
I0222 17:42:50.494191 25235 net.cpp:406] lstm1_unit_20 <- cont_20_lstm1_cont_slice_19_split_1
I0222 17:42:50.494195 25235 net.cpp:380] lstm1_unit_20 -> c_20
I0222 17:42:50.494200 25235 net.cpp:380] lstm1_unit_20 -> h_20
I0222 17:42:50.494225 25235 net.cpp:122] Setting up lstm1_unit_20
I0222 17:42:50.494230 25235 net.cpp:129] Top shape: 1 26 64 (1664)
I0222 17:42:50.494235 25235 net.cpp:129] Top shape: 1 26 64 (1664)
I0222 17:42:50.494237 25235 net.cpp:137] Memory required for data: 3020992
I0222 17:42:50.494240 25235 layer_factory.hpp:77] Creating layer h_20_lstm1_unit_20_1_split
I0222 17:42:50.494256 25235 net.cpp:84] Creating Layer h_20_lstm1_unit_20_1_split
I0222 17:42:50.494259 25235 net.cpp:406] h_20_lstm1_unit_20_1_split <- h_20
I0222 17:42:50.494263 25235 net.cpp:380] h_20_lstm1_unit_20_1_split -> h_20_lstm1_unit_20_1_split_0
I0222 17:42:50.494268 25235 net.cpp:380] h_20_lstm1_unit_20_1_split -> h_20_lstm1_unit_20_1_split_1
I0222 17:42:50.494287 25235 net.cpp:122] Setting up h_20_lstm1_unit_20_1_split
I0222 17:42:50.494292 25235 net.cpp:129] Top shape: 1 26 64 (1664)
I0222 17:42:50.494295 25235 net.cpp:129] Top shape: 1 26 64 (1664)
I0222 17:42:50.494298 25235 net.cpp:137] Memory required for data: 3034304
I0222 17:42:50.494302 25235 layer_factory.hpp:77] Creating layer lstm1_h_conted_20
I0222 17:42:50.494305 25235 net.cpp:84] Creating Layer lstm1_h_conted_20
I0222 17:42:50.494315 25235 net.cpp:406] lstm1_h_conted_20 <- h_20_lstm1_unit_20_1_split_0
I0222 17:42:50.494319 25235 net.cpp:406] lstm1_h_conted_20 <- cont_21_lstm1_cont_slice_20_split_0
I0222 17:42:50.494324 25235 net.cpp:380] lstm1_h_conted_20 -> h_conted_20
I0222 17:42:50.494356 25235 net.cpp:122] Setting up lstm1_h_conted_20
I0222 17:42:50.494361 25235 net.cpp:129] Top shape: 1 26 64 (1664)
I0222 17:42:50.494364 25235 net.cpp:137] Memory required for data: 3040960
I0222 17:42:50.494367 25235 layer_factory.hpp:77] Creating layer lstm1_transform_21
I0222 17:42:50.494372 25235 net.cpp:84] Creating Layer lstm1_transform_21
I0222 17:42:50.494375 25235 net.cpp:406] lstm1_transform_21 <- h_conted_20
I0222 17:42:50.494384 25235 net.cpp:380] lstm1_transform_21 -> W_hc_h_20
I0222 17:42:50.494477 25235 net.cpp:122] Setting up lstm1_transform_21
I0222 17:42:50.494482 25235 net.cpp:129] Top shape: 1 26 256 (6656)
I0222 17:42:50.494484 25235 net.cpp:137] Memory required for data: 3067584
I0222 17:42:50.494488 25235 net.cpp:465] Sharing parameters 'W_hc' owned by layer 'lstm1_transform_1', param index 0
I0222 17:42:50.494491 25235 layer_factory.hpp:77] Creating layer lstm1_gate_input_21
I0222 17:42:50.494495 25235 net.cpp:84] Creating Layer lstm1_gate_input_21
I0222 17:42:50.494499 25235 net.cpp:406] lstm1_gate_input_21 <- W_hc_h_20
I0222 17:42:50.494503 25235 net.cpp:406] lstm1_gate_input_21 <- W_xc_x_21
I0222 17:42:50.494508 25235 net.cpp:380] lstm1_gate_input_21 -> gate_input_21
I0222 17:42:50.494520 25235 net.cpp:122] Setting up lstm1_gate_input_21
I0222 17:42:50.494525 25235 net.cpp:129] Top shape: 1 26 256 (6656)
I0222 17:42:50.494529 25235 net.cpp:137] Memory required for data: 3094208
I0222 17:42:50.494531 25235 layer_factory.hpp:77] Creating layer lstm1_unit_21
I0222 17:42:50.494536 25235 net.cpp:84] Creating Layer lstm1_unit_21
I0222 17:42:50.494540 25235 net.cpp:406] lstm1_unit_21 <- c_20
I0222 17:42:50.494544 25235 net.cpp:406] lstm1_unit_21 <- gate_input_21
I0222 17:42:50.494547 25235 net.cpp:406] lstm1_unit_21 <- cont_21_lstm1_cont_slice_20_split_1
I0222 17:42:50.494551 25235 net.cpp:380] lstm1_unit_21 -> c_21
I0222 17:42:50.494556 25235 net.cpp:380] lstm1_unit_21 -> h_21
I0222 17:42:50.494580 25235 net.cpp:122] Setting up lstm1_unit_21
I0222 17:42:50.494585 25235 net.cpp:129] Top shape: 1 26 64 (1664)
I0222 17:42:50.494588 25235 net.cpp:129] Top shape: 1 26 64 (1664)
I0222 17:42:50.494591 25235 net.cpp:137] Memory required for data: 3107520
I0222 17:42:50.494594 25235 layer_factory.hpp:77] Creating layer h_21_lstm1_unit_21_1_split
I0222 17:42:50.494598 25235 net.cpp:84] Creating Layer h_21_lstm1_unit_21_1_split
I0222 17:42:50.494602 25235 net.cpp:406] h_21_lstm1_unit_21_1_split <- h_21
I0222 17:42:50.494611 25235 net.cpp:380] h_21_lstm1_unit_21_1_split -> h_21_lstm1_unit_21_1_split_0
I0222 17:42:50.494616 25235 net.cpp:380] h_21_lstm1_unit_21_1_split -> h_21_lstm1_unit_21_1_split_1
I0222 17:42:50.494633 25235 net.cpp:122] Setting up h_21_lstm1_unit_21_1_split
I0222 17:42:50.494638 25235 net.cpp:129] Top shape: 1 26 64 (1664)
I0222 17:42:50.494642 25235 net.cpp:129] Top shape: 1 26 64 (1664)
I0222 17:42:50.494644 25235 net.cpp:137] Memory required for data: 3120832
I0222 17:42:50.494647 25235 layer_factory.hpp:77] Creating layer lstm1_h_conted_21
I0222 17:42:50.494652 25235 net.cpp:84] Creating Layer lstm1_h_conted_21
I0222 17:42:50.494657 25235 net.cpp:406] lstm1_h_conted_21 <- h_21_lstm1_unit_21_1_split_0
I0222 17:42:50.498004 25235 net.cpp:406] lstm1_h_conted_21 <- cont_22_lstm1_cont_slice_21_split_0
I0222 17:42:50.498018 25235 net.cpp:380] lstm1_h_conted_21 -> h_conted_21
I0222 17:42:50.498075 25235 net.cpp:122] Setting up lstm1_h_conted_21
I0222 17:42:50.498082 25235 net.cpp:129] Top shape: 1 26 64 (1664)
I0222 17:42:50.498086 25235 net.cpp:137] Memory required for data: 3127488
I0222 17:42:50.498090 25235 layer_factory.hpp:77] Creating layer lstm1_transform_22
I0222 17:42:50.498096 25235 net.cpp:84] Creating Layer lstm1_transform_22
I0222 17:42:50.498100 25235 net.cpp:406] lstm1_transform_22 <- h_conted_21
I0222 17:42:50.498113 25235 net.cpp:380] lstm1_transform_22 -> W_hc_h_21
I0222 17:42:50.498211 25235 net.cpp:122] Setting up lstm1_transform_22
I0222 17:42:50.498217 25235 net.cpp:129] Top shape: 1 26 256 (6656)
I0222 17:42:50.498221 25235 net.cpp:137] Memory required for data: 3154112
I0222 17:42:50.498225 25235 net.cpp:465] Sharing parameters 'W_hc' owned by layer 'lstm1_transform_1', param index 0
I0222 17:42:50.498229 25235 layer_factory.hpp:77] Creating layer lstm1_gate_input_22
I0222 17:42:50.498235 25235 net.cpp:84] Creating Layer lstm1_gate_input_22
I0222 17:42:50.498239 25235 net.cpp:406] lstm1_gate_input_22 <- W_hc_h_21
I0222 17:42:50.498245 25235 net.cpp:406] lstm1_gate_input_22 <- W_xc_x_22
I0222 17:42:50.498250 25235 net.cpp:380] lstm1_gate_input_22 -> gate_input_22
I0222 17:42:50.498265 25235 net.cpp:122] Setting up lstm1_gate_input_22
I0222 17:42:50.498270 25235 net.cpp:129] Top shape: 1 26 256 (6656)
I0222 17:42:50.498273 25235 net.cpp:137] Memory required for data: 3180736
I0222 17:42:50.498277 25235 layer_factory.hpp:77] Creating layer lstm1_unit_22
I0222 17:42:50.498282 25235 net.cpp:84] Creating Layer lstm1_unit_22
I0222 17:42:50.498286 25235 net.cpp:406] lstm1_unit_22 <- c_21
I0222 17:42:50.498291 25235 net.cpp:406] lstm1_unit_22 <- gate_input_22
I0222 17:42:50.498296 25235 net.cpp:406] lstm1_unit_22 <- cont_22_lstm1_cont_slice_21_split_1
I0222 17:42:50.498302 25235 net.cpp:380] lstm1_unit_22 -> c_22
I0222 17:42:50.498308 25235 net.cpp:380] lstm1_unit_22 -> h_22
I0222 17:42:50.498333 25235 net.cpp:122] Setting up lstm1_unit_22
I0222 17:42:50.498339 25235 net.cpp:129] Top shape: 1 26 64 (1664)
I0222 17:42:50.498344 25235 net.cpp:129] Top shape: 1 26 64 (1664)
I0222 17:42:50.498347 25235 net.cpp:137] Memory required for data: 3194048
I0222 17:42:50.498351 25235 layer_factory.hpp:77] Creating layer h_22_lstm1_unit_22_1_split
I0222 17:42:50.498356 25235 net.cpp:84] Creating Layer h_22_lstm1_unit_22_1_split
I0222 17:42:50.498359 25235 net.cpp:406] h_22_lstm1_unit_22_1_split <- h_22
I0222 17:42:50.498364 25235 net.cpp:380] h_22_lstm1_unit_22_1_split -> h_22_lstm1_unit_22_1_split_0
I0222 17:42:50.498370 25235 net.cpp:380] h_22_lstm1_unit_22_1_split -> h_22_lstm1_unit_22_1_split_1
I0222 17:42:50.498389 25235 net.cpp:122] Setting up h_22_lstm1_unit_22_1_split
I0222 17:42:50.498395 25235 net.cpp:129] Top shape: 1 26 64 (1664)
I0222 17:42:50.498399 25235 net.cpp:129] Top shape: 1 26 64 (1664)
I0222 17:42:50.498402 25235 net.cpp:137] Memory required for data: 3207360
I0222 17:42:50.498406 25235 layer_factory.hpp:77] Creating layer lstm1_h_conted_22
I0222 17:42:50.498412 25235 net.cpp:84] Creating Layer lstm1_h_conted_22
I0222 17:42:50.498416 25235 net.cpp:406] lstm1_h_conted_22 <- h_22_lstm1_unit_22_1_split_0
I0222 17:42:50.498421 25235 net.cpp:406] lstm1_h_conted_22 <- cont_23_lstm1_cont_slice_22_split_0
I0222 17:42:50.498426 25235 net.cpp:380] lstm1_h_conted_22 -> h_conted_22
I0222 17:42:50.498461 25235 net.cpp:122] Setting up lstm1_h_conted_22
I0222 17:42:50.498466 25235 net.cpp:129] Top shape: 1 26 64 (1664)
I0222 17:42:50.498469 25235 net.cpp:137] Memory required for data: 3214016
I0222 17:42:50.498473 25235 layer_factory.hpp:77] Creating layer lstm1_transform_23
I0222 17:42:50.498479 25235 net.cpp:84] Creating Layer lstm1_transform_23
I0222 17:42:50.498483 25235 net.cpp:406] lstm1_transform_23 <- h_conted_22
I0222 17:42:50.498488 25235 net.cpp:380] lstm1_transform_23 -> W_hc_h_22
I0222 17:42:50.498596 25235 net.cpp:122] Setting up lstm1_transform_23
I0222 17:42:50.498603 25235 net.cpp:129] Top shape: 1 26 256 (6656)
I0222 17:42:50.498607 25235 net.cpp:137] Memory required for data: 3240640
I0222 17:42:50.498611 25235 net.cpp:465] Sharing parameters 'W_hc' owned by layer 'lstm1_transform_1', param index 0
I0222 17:42:50.498615 25235 layer_factory.hpp:77] Creating layer lstm1_gate_input_23
I0222 17:42:50.498620 25235 net.cpp:84] Creating Layer lstm1_gate_input_23
I0222 17:42:50.498625 25235 net.cpp:406] lstm1_gate_input_23 <- W_hc_h_22
I0222 17:42:50.498630 25235 net.cpp:406] lstm1_gate_input_23 <- W_xc_x_23
I0222 17:42:50.498641 25235 net.cpp:380] lstm1_gate_input_23 -> gate_input_23
I0222 17:42:50.498656 25235 net.cpp:122] Setting up lstm1_gate_input_23
I0222 17:42:50.498662 25235 net.cpp:129] Top shape: 1 26 256 (6656)
I0222 17:42:50.498666 25235 net.cpp:137] Memory required for data: 3267264
I0222 17:42:50.498669 25235 layer_factory.hpp:77] Creating layer lstm1_unit_23
I0222 17:42:50.498674 25235 net.cpp:84] Creating Layer lstm1_unit_23
I0222 17:42:50.498678 25235 net.cpp:406] lstm1_unit_23 <- c_22
I0222 17:42:50.498683 25235 net.cpp:406] lstm1_unit_23 <- gate_input_23
I0222 17:42:50.498687 25235 net.cpp:406] lstm1_unit_23 <- cont_23_lstm1_cont_slice_22_split_1
I0222 17:42:50.498692 25235 net.cpp:380] lstm1_unit_23 -> c_23
I0222 17:42:50.498697 25235 net.cpp:380] lstm1_unit_23 -> h_23
I0222 17:42:50.498723 25235 net.cpp:122] Setting up lstm1_unit_23
I0222 17:42:50.498729 25235 net.cpp:129] Top shape: 1 26 64 (1664)
I0222 17:42:50.498733 25235 net.cpp:129] Top shape: 1 26 64 (1664)
I0222 17:42:50.498737 25235 net.cpp:137] Memory required for data: 3280576
I0222 17:42:50.498740 25235 layer_factory.hpp:77] Creating layer h_23_lstm1_unit_23_1_split
I0222 17:42:50.498746 25235 net.cpp:84] Creating Layer h_23_lstm1_unit_23_1_split
I0222 17:42:50.498750 25235 net.cpp:406] h_23_lstm1_unit_23_1_split <- h_23
I0222 17:42:50.498755 25235 net.cpp:380] h_23_lstm1_unit_23_1_split -> h_23_lstm1_unit_23_1_split_0
I0222 17:42:50.498760 25235 net.cpp:380] h_23_lstm1_unit_23_1_split -> h_23_lstm1_unit_23_1_split_1
I0222 17:42:50.498780 25235 net.cpp:122] Setting up h_23_lstm1_unit_23_1_split
I0222 17:42:50.498785 25235 net.cpp:129] Top shape: 1 26 64 (1664)
I0222 17:42:50.498790 25235 net.cpp:129] Top shape: 1 26 64 (1664)
I0222 17:42:50.498793 25235 net.cpp:137] Memory required for data: 3293888
I0222 17:42:50.498796 25235 layer_factory.hpp:77] Creating layer lstm1_h_conted_23
I0222 17:42:50.498801 25235 net.cpp:84] Creating Layer lstm1_h_conted_23
I0222 17:42:50.498805 25235 net.cpp:406] lstm1_h_conted_23 <- h_23_lstm1_unit_23_1_split_0
I0222 17:42:50.498811 25235 net.cpp:406] lstm1_h_conted_23 <- cont_24_lstm1_cont_slice_23_split_0
I0222 17:42:50.498816 25235 net.cpp:380] lstm1_h_conted_23 -> h_conted_23
I0222 17:42:50.498850 25235 net.cpp:122] Setting up lstm1_h_conted_23
I0222 17:42:50.498857 25235 net.cpp:129] Top shape: 1 26 64 (1664)
I0222 17:42:50.498860 25235 net.cpp:137] Memory required for data: 3300544
I0222 17:42:50.498863 25235 layer_factory.hpp:77] Creating layer lstm1_transform_24
I0222 17:42:50.498868 25235 net.cpp:84] Creating Layer lstm1_transform_24
I0222 17:42:50.498872 25235 net.cpp:406] lstm1_transform_24 <- h_conted_23
I0222 17:42:50.498878 25235 net.cpp:380] lstm1_transform_24 -> W_hc_h_23
I0222 17:42:50.498988 25235 net.cpp:122] Setting up lstm1_transform_24
I0222 17:42:50.498996 25235 net.cpp:129] Top shape: 1 26 256 (6656)
I0222 17:42:50.498998 25235 net.cpp:137] Memory required for data: 3327168
I0222 17:42:50.499002 25235 net.cpp:465] Sharing parameters 'W_hc' owned by layer 'lstm1_transform_1', param index 0
I0222 17:42:50.499006 25235 layer_factory.hpp:77] Creating layer lstm1_gate_input_24
I0222 17:42:50.499011 25235 net.cpp:84] Creating Layer lstm1_gate_input_24
I0222 17:42:50.499016 25235 net.cpp:406] lstm1_gate_input_24 <- W_hc_h_23
I0222 17:42:50.499020 25235 net.cpp:406] lstm1_gate_input_24 <- W_xc_x_24
I0222 17:42:50.499025 25235 net.cpp:380] lstm1_gate_input_24 -> gate_input_24
I0222 17:42:50.499039 25235 net.cpp:122] Setting up lstm1_gate_input_24
I0222 17:42:50.499044 25235 net.cpp:129] Top shape: 1 26 256 (6656)
I0222 17:42:50.499048 25235 net.cpp:137] Memory required for data: 3353792
I0222 17:42:50.499052 25235 layer_factory.hpp:77] Creating layer lstm1_unit_24
I0222 17:42:50.524138 25235 net.cpp:84] Creating Layer lstm1_unit_24
I0222 17:42:50.524150 25235 net.cpp:406] lstm1_unit_24 <- c_23
I0222 17:42:50.524157 25235 net.cpp:406] lstm1_unit_24 <- gate_input_24
I0222 17:42:50.524160 25235 net.cpp:406] lstm1_unit_24 <- cont_24_lstm1_cont_slice_23_split_1
I0222 17:42:50.524165 25235 net.cpp:380] lstm1_unit_24 -> c_24
I0222 17:42:50.524188 25235 net.cpp:380] lstm1_unit_24 -> h_24
I0222 17:42:50.524232 25235 net.cpp:122] Setting up lstm1_unit_24
I0222 17:42:50.524240 25235 net.cpp:129] Top shape: 1 26 64 (1664)
I0222 17:42:50.524243 25235 net.cpp:129] Top shape: 1 26 64 (1664)
I0222 17:42:50.524246 25235 net.cpp:137] Memory required for data: 3367104
I0222 17:42:50.524250 25235 layer_factory.hpp:77] Creating layer lstm1_
I0222 17:42:50.524255 25235 net.cpp:84] Creating Layer lstm1_
I0222 17:42:50.524257 25235 net.cpp:406] lstm1_ <- c_24
I0222 17:42:50.524263 25235 net.cpp:380] lstm1_ -> c_T
I0222 17:42:50.524276 25235 net.cpp:122] Setting up lstm1_
I0222 17:42:50.524281 25235 net.cpp:129] Top shape: 1 26 64 (1664)
I0222 17:42:50.524283 25235 net.cpp:137] Memory required for data: 3373760
I0222 17:42:50.524286 25235 layer_factory.hpp:77] Creating layer lstm1_h_concat
I0222 17:42:50.524293 25235 net.cpp:84] Creating Layer lstm1_h_concat
I0222 17:42:50.524297 25235 net.cpp:406] lstm1_h_concat <- h_1_lstm1_unit_1_1_split_1
I0222 17:42:50.524302 25235 net.cpp:406] lstm1_h_concat <- h_2_lstm1_unit_2_1_split_1
…
