…
  type: "Data"
  top: "data"
  data_param {
    source: "/home/leonida/ThesisCode/LSTM_on_Create2/NavDatabases/LAB-21-2-new-step-condition/states_db-2-21-15-4_lmdb"
    batch_size: 24
    backend: LMDB
  }
}
layer {
  name: "label"
  type: "Data"
  top: "label"
  data_param {
    source: "/home/leonida/ThesisCode/LSTM_on_Create2/NavDatabases/LAB-21-2-new-step-condition/labels_db-2-21-15-4_twist-variant_lmdb"
    batch_size: 24
    backend: LMDB
  }
}
layer {
  name: "clip"
  type: "Input"
  top: "clip"
  input_param {
    shape {
      dim: 24
      dim: 26
    }
  }
}
layer {
  name: "lstm1"
  type: "LSTM"
  bottom: "data"
  bottom: "clip"
  top: "lstm1"
  recurrent_param {
    num_output: 16
    weight_filler {
      type: "xavier"
    }
    bias_filler {
      type: "constant"
    }
  }
}
layer {
  name: "out"
  type: "InnerProduct"
  bottom: "lstm1"
  top: "out"
  inner_product_param {
    num_output: 2
    weight_filler {
      type: "gaussian"
      std: 0.1
    }
    bias_filler {
      type: "constant"
    }
  }
}
layer {
  name: "euclideanLoss"
  type: "EuclideanLoss"
  bottom: "out"
  bottom: "label"
  top: "loss"
}
I0222 17:33:26.553594 24292 layer_factory.hpp:77] Creating layer data
I0222 17:33:26.553663 24292 db_lmdb.cpp:35] Opened lmdb /home/leonida/ThesisCode/LSTM_on_Create2/NavDatabases/LAB-21-2-new-step-condition/states_db-2-21-15-4_lmdb
I0222 17:33:26.553679 24292 net.cpp:84] Creating Layer data
I0222 17:33:26.553686 24292 net.cpp:380] data -> data
I0222 17:33:26.554350 24292 data_layer.cpp:45] output data size: 24,26,1,1
I0222 17:33:26.556185 24292 net.cpp:122] Setting up data
I0222 17:33:26.556200 24292 net.cpp:129] Top shape: 24 26 1 1 (624)
I0222 17:33:26.556203 24292 net.cpp:137] Memory required for data: 2496
I0222 17:33:26.556208 24292 layer_factory.hpp:77] Creating layer label
I0222 17:33:26.556277 24292 db_lmdb.cpp:35] Opened lmdb /home/leonida/ThesisCode/LSTM_on_Create2/NavDatabases/LAB-21-2-new-step-condition/labels_db-2-21-15-4_twist-variant_lmdb
I0222 17:33:26.556311 24292 net.cpp:84] Creating Layer label
I0222 17:33:26.556334 24292 net.cpp:380] label -> label
I0222 17:33:26.556408 24292 data_layer.cpp:45] output data size: 24,2,1,1
I0222 17:33:26.557297 24292 net.cpp:122] Setting up label
I0222 17:33:26.557307 24292 net.cpp:129] Top shape: 24 2 1 1 (48)
I0222 17:33:26.557309 24292 net.cpp:137] Memory required for data: 2688
I0222 17:33:26.557312 24292 layer_factory.hpp:77] Creating layer clip
I0222 17:33:26.557318 24292 net.cpp:84] Creating Layer clip
I0222 17:33:26.557323 24292 net.cpp:380] clip -> clip
I0222 17:33:26.557387 24292 net.cpp:122] Setting up clip
I0222 17:33:26.557410 24292 net.cpp:129] Top shape: 24 26 (624)
I0222 17:33:26.557430 24292 net.cpp:137] Memory required for data: 5184
I0222 17:33:26.557435 24292 layer_factory.hpp:77] Creating layer lstm1
I0222 17:33:26.557446 24292 net.cpp:84] Creating Layer lstm1
I0222 17:33:26.557459 24292 net.cpp:406] lstm1 <- data
I0222 17:33:26.557466 24292 net.cpp:406] lstm1 <- clip
I0222 17:33:26.557473 24292 net.cpp:380] lstm1 -> lstm1
I0222 17:33:26.557485 24292 recurrent_layer.cpp:20] Initializing recurrent layer: assuming input batch contains 24 timesteps of 26 independent streams.
I0222 17:33:26.557976 24292 net.cpp:51] Initializing net from parameters: 
layer {
  name: "lstm1_"
  type: "Input"
  top: "x"
  top: "cont"
  input_param {
    shape {
      dim: 24
      dim: 26
      dim: 1
      dim: 1
    }
    shape {
      dim: 24
      dim: 26
    }
  }
}
layer {
  name: "lstm1_"
  type: "Input"
  top: "c_0"
  top: "h_0"
  input_param {
    shape {
      dim: 1
      dim: 26
      dim: 16
    }
    shape {
      dim: 1
      dim: 26
      dim: 16
    }
  }
}
layer {
  name: "lstm1_cont_slice"
  type: "Slice"
  bottom: "cont"
  top: "cont_1"
  top: "cont_2"
  top: "cont_3"
  top: "cont_4"
  top: "cont_5"
  top: "cont_6"
  top: "cont_7"
  top: "cont_8"
  top: "cont_9"
  top: "cont_10"
  top: "cont_11"
  top: "cont_12"
  top: "cont_13"
  top: "cont_14"
  top: "cont_15"
  top: "cont_16"
  top: "cont_17"
  top: "cont_18"
  top: "cont_19"
  top: "cont_20"
  top: "cont_21"
  top: "cont_22"
  top: "cont_23"
  top: "cont_24"
  slice_param {
    axis: 0
  }
}
layer {
  name: "lstm1_x_transform"
  type: "InnerProduct"
  bottom: "x"
  top: "W_xc_x"
  param {
    name: "W_xc"
  }
  param {
    name: "b_c"
  }
  propagate_down: true
  inner_product_param {
    num_output: 64
    bias_term: true
    weight_filler {
      type: "xavier"
    }
    bias_filler {
      type: "constant"
    }
    axis: 2
  }
}
layer {
  name: "lstm1_W_xc_x_slice"
  type: "Slice"
  bottom: "W_xc_x"
  top: "W_xc_x_1"
  top: "W_xc_x_2"
  top: "W_xc_x_3"
  top: "W_xc_x_4"
  top: "W_xc_x_5"
  top: "W_xc_x_6"
  top: "W_xc_x_7"
  top: "W_xc_x_8"
  top: "W_xc_x_9"
  top: "W_xc_x_10"
  top: "W_xc_x_11"
  top: "W_xc_x_12"
  top: "W_xc_x_13"
  top: "W_xc_x_14"
  top: "W_xc_x_15"
  top: "W_xc_x_16"
  top: "W_xc_x_17"
  top: "W_xc_x_18"
  top: "W_xc_x_19"
  top: "W_xc_x_20"
  top: "W_xc_x_21"
  top: "W_xc_x_22"
  top: "W_xc_x_23"
  top: "W_xc_x_24"
  slice_param {
    axis: 0
  }
}
layer {
  name: "lstm1_h_conted_0"
  type: "Scale"
  bottom: "h_0"
  bottom: "cont_1"
  top: "h_conted_0"
  scale_param {
    axis: 0
  }
}
layer {
  name: "lstm1_transform_1"
  type: "InnerProduct"
  bottom: "h_conted_0"
  top: "W_hc_h_0"
  param {
    name: "W_hc"
  }
  inner_product_param {
    num_output: 64
    bias_term: false
    weight_filler {
      type: "xavier"
    }
    axis: 2
  }
}
layer {
  name: "lstm1_gate_input_1"
  type: "Eltwise"
  bottom: "W_hc_h_0"
  bottom: "W_xc_x_1"
  top: "gate_input_1"
  eltwise_param {
    operation: SUM
  }
}
layer {
  name: "lstm1_unit_1"
  type: "LSTMUnit"
  bottom: "c_0"
  bottom: "gate_input_1"
  bottom: "cont_1"
  top: "c_1"
  top: "h_1"
}
layer {
  name: "lstm1_h_conted_1"
  type: "Scale"
  bottom: "h_1"
  bottom: "cont_2"
  top: "h_conted_1"
  scale_param {
    axis: 0
  }
}
layer {
  name: "lstm1_transform_2"
  type: "InnerProduct"
  bottom: "h_conted_1"
  top: "W_hc_h_1"
  param {
    name: "W_hc"
  }
  inner_product_param {
    num_output: 64
    bias_term: false
    weight_filler {
      type: "xavier"
    }
    axis: 2
  }
}
layer {
  name: "lstm1_gate_input_2"
  type: "Eltwise"
  bottom: "W_hc_h_1"
  bottom: "W_xc_x_2"
  top: "gate_input_2"
  eltwise_param {
    operation: SUM
  }
}
layer {
  name: "lstm1_unit_2"
  type: "LSTMUnit"
  bottom: "c_1"
  bottom: "gate_input_2"
  bottom: "cont_2"
  top: "c_2"
  top: "h_2"
}
layer {
  name: "lstm1_h_conted_2"
  type: "Scale"
  bottom: "h_2"
  bottom: "cont_3"
  top: "h_conted_2"
  scale_param {
    axis: 0
  }
}
layer {
  name: "lstm1_transform_3"
  type: "InnerProduct"
  bottom: "h_conted_2"
  top: "W_hc_h_2"
  param {
    name: "W_hc"
  }
  inner_product_param {
    num_output: 64
    bias_term: false
    weight_filler {
      type: "xavier"
    }
    axis: 2
  }
}
layer {
  name: "lstm1_gate_input_3"
  type: "Eltwise"
  bottom: "W_hc_h_2"
  bottom: "W_xc_x_3"
  top: "gate_input_3"
  eltwise_param {
    operation: SUM
  }
}
layer {
  name: "lstm1_unit_3"
  type: "LSTMUnit"
  bottom: "c_2"
  bottom: "gate_input_3"
  bottom: "cont_3"
  top: "c_3"
  top: "h_3"
}
layer {
  name: "lstm1_h_conted_3"
  type: "Scale"
  bottom: "h_3"
  bottom: "cont_4"
  top: "h_conted_3"
  scale_param {
    axis: 0
  }
}
layer {
  name: "lstm1_transform_4"
  type: "InnerProduct"
  bottom: "h_conted_3"
  top: "W_hc_h_3"
  param {
    name: "W_hc"
  }
  inner_product_param {
    num_output: 64
    bias_term: false
    weight_filler {
      type: "xavier"
    }
    axis: 2
  }
}
layer {
  name: "lstm1_gate_input_4"
  type: "Eltwise"
  bottom: "W_hc_h_3"
  bottom: "W_xc_x_4"
  top: "gate_input_4"
  eltwise_param {
    operation: SUM
  }
}
layer {
  name: "lstm1_unit_4"
  type: "LSTMUnit"
  bottom: "c_3"
  bottom: "gate_input_4"
  bottom: "cont_4"
  top: "c_4"
  top: "h_4"
}
layer {
  name: "lstm1_h_conted_4"
  type: "Scale"
  bottom: "h_4"
  bottom: "cont_5"
  top: "h_conted_4"
  scale_param {
    axis: 0
  }
}
layer {
  name: "lstm1_transform_5"
  type: "InnerProduct"
  bottom: "h_conted_4"
  top: "W_hc_h_4"
  param {
    name: "W_hc"
  }
  inner_product_param {
    num_output: 64
    bias_term: false
    weight_filler {
      type: "xavier"
    }
    axis: 2
  }
}
layer {
  name: "lstm1_gate_input_5"
  type: "Eltwise"
  bottom: "W_hc_h_4"
  bottom: "W_xc_x_5"
  top: "gate_input_5"
  eltwise_param {
    operation: SUM
  }
}
layer {
  name: "lstm1_unit_5"
  type: "LSTMUnit"
  bottom: "c_4"
  bottom: "gate_input_5"
  bottom: "cont_5"
  top: "c_5"
  top: "h_5"
}
layer {
  name: "lstm1_h_conted_5"
  type: "Scale"
  bottom: "h_5"
  bottom: "cont_6"
  top: "h_conted_5"
  scale_param {
    axis: 0
  }
}
layer {
  name: "lstm1_transform_6"
  type: "InnerProduct"
  bottom: "h_conted_5"
  top: "W_hc_h_5"
  param {
    name: "W_hc"
  }
  inner_product_param {
    num_output: 64
    bias_term: false
    weight_filler {
      type: "xavier"
    }
    axis: 2
  }
}
layer {
  name: "lstm1_gate_input_6"
  type: "Eltwise"
  bottom: "W_hc_h_5"
  bottom: "W_xc_x_6"
  top: "gate_input_6"
  eltwise_param {
    operation: SUM
  }
}
layer {
  name: "lstm1_unit_6"
  type: "LSTMUnit"
  bottom: "c_5"
  bottom: "gate_input_6"
  bottom: "cont_6"
  top: "c_6"
  top: "h_6"
}
layer {
  name: "lstm1_h_conted_6"
  type: "Scale"
  bottom: "h_6"
  bottom: "cont_7"
  top: "h_conted_6"
  scale_param {
    axis: 0
  }
}
layer {
  name: "lstm1_transform_7"
  type: "InnerProduct"
  bottom: "h_conted_6"
  top: "W_hc_h_6"
  param {
    name: "W_hc"
  }
  inner_product_param {
    num_output: 64
    bias_term: false
    weight_filler {
      type: "xavier"
    }
    axis: 2
  }
}
layer {
  name: "lstm1_gate_input_7"
  type: "Eltwise"
  bottom: "W_hc_h_6"
  bottom: "W_xc_x_7"
  top: "gate_input_7"
  eltwise_param {
    operation: SUM
  }
}
layer {
  name: "lstm1_unit_7"
  type: "LSTMUnit"
  bottom: "c_6"
  bottom: "gate_input_7"
  bottom: "cont_7"
  top: "c_7"
  top: "h_7"
}
layer {
  name: "lstm1_h_conted_7"
  type: "Scale"
  bottom: "h_7"
  bottom: "cont_8"
  top: "h_conted_7"
  scale_param {
    axis: 0
  }
}
layer {
  name: "lstm1_transform_8"
  type: "InnerProduct"
  bottom: "h_conted_7"
  top: "W_hc_h_7"
  param {
    name: "W_hc"
  }
  inner_product_param {
    num_output: 64
    bias_term: false
    weight_filler {
      type: "xavier"
    }
    axis: 2
  }
}
layer {
  name: "lstm1_gate_input_8"
  type: "Eltwise"
  bottom: "W_hc_h_7"
  bottom: "W_xc_x_8"
  top: "gate_input_8"
  eltwise_param {
    operation: SUM
  }
}
layer {
  name: "lstm1_unit_8"
  type: "LSTMUnit"
  bottom: "c_7"
  bottom: "gate_input_8"
  bottom: "cont_8"
  top: "c_8"
  top: "h_8"
}
layer {
  name: "lstm1_h_conted_8"
  type: "Scale"
  bottom: "h_8"
  bottom: "cont_9"
  top: "h_conted_8"
  scale_param {
    axis: 0
  }
}
layer {
  name: "lstm1_transform_9"
  type: "InnerProduct"
  bottom: "h_conted_8"
  top: "W_hc_h_8"
  param {
    name: "W_hc"
  }
  inner_product_param {
    num_output: 64
    bias_term: false
    weight_filler {
      type: "xavier"
    }
    axis: 2
  }
}
layer {
  name: "lstm1_gate_input_9"
  type: "Eltwise"
  bottom: "W_hc_h_8"
  bottom: "W_xc_x_9"
  top: "gate_input_9"
  eltwise_param {
    operation: SUM
  }
}
layer {
  name: "lstm1_unit_9"
  type: "LSTMUnit"
  bottom: "c_8"
  bottom: "gate_input_9"
  bottom: "cont_9"
  top: "c_9"
  top: "h_9"
}
layer {
  name: "lstm1_h_conted_9"
  type: "Scale"
  bottom: "h_9"
  bottom: "cont_10"
  top: "h_conted_9"
  scale_param {
    axis: 0
  }
}
layer {
  name: "lstm1_transform_10"
  type: "InnerProduct"
  bottom: "h_conted_9"
  top: "W_hc_h_9"
  param {
    name: "W_hc"
  }
  inner_product_param {
    num_output: 64
    bias_term: false
    weight_filler {
      type: "xavier"
    }
    axis: 2
  }
}
layer {
  name: "lstm1_gate_input_10"
  type: "Eltwise"
  bottom: "W_hc_h_9"
  bottom: "W_xc_x_10"
  top: "gate_input_10"
  eltwise_param {
    operation: SUM
  }
}
layer {
  name: "lstm1_unit_10"
  type: "LSTMUnit"
  bottom: "c_9"
  bottom: "gate_input_10"
  bottom: "cont_10"
  top: "c_10"
  top: "h_10"
}
layer {
  name: "lstm1_h_conted_10"
  type: "Scale"
  bottom: "h_10"
  bottom: "cont_11"
  top: "h_conted_10"
  scale_param {
    axis: 0
  }
}
layer {
  name: "lstm1_transform_11"
  type: "InnerProduct"
  bottom: "h_conted_10"
  top: "W_hc_h_10"
  param {
    name: "W_hc"
  }
  inner_product_param {
    num_output: 64
    bias_term: false
    weight_filler {
      type: "xavier"
    }
    axis: 2
  }
}
layer {
  name: "lstm1_gate_input_11"
  type: "Eltwise"
  bottom: "W_hc_h_10"
  bottom: "W_xc_x_11"
  top: "gate_input_11"
  eltwise_param {
    operation: SUM
  }
}
layer {
  name: "lstm1_unit_11"
  type: "LSTMUnit"
  bottom: "c_10"
  bottom: "gate_input_11"
  bottom: "cont_11"
  top: "c_11"
  top: "h_11"
}
layer {
  name: "lstm1_h_conted_11"
  type: "Scale"
  bottom: "h_11"
  bottom: "cont_12"
  top: "h_conted_11"
  scale_param {
    axis: 0
  }
}
layer {
  name: "lstm1_transform_12"
  type: "InnerProduct"
  bottom: "h_conted_11"
  top: "W_hc_h_11"
  param {
    name: "W_hc"
  }
  inner_product_param {
    num_output: 64
    bias_term: false
    weight_filler {
      type: "xavier"
    }
    axis: 2
  }
}
layer {
  name: "lstm1_gate_input_12"
  type: "Eltwise"
  bottom: "W_hc_h_11"
  bottom: "W_xc_x_12"
  top: "gate_input_12"
  eltwise_param {
    operation: SUM
  }
}
layer {
  name: "lstm1_unit_12"
  type: "LSTMUnit"
  bottom: "c_11"
  bottom: "gate_input_12"
  bottom: "cont_12"
  top: "c_12"
  top: "h_12"
}
layer {
  name: "lstm1_h_conted_12"
  type: "Scale"
  bottom: "h_12"
  bottom: "cont_13"
  top: "h_conted_12"
  scale_param {
    axis: 0
  }
}
layer {
  name: "lstm1_transform_13"
  type: "InnerProduct"
  bottom: "h_conted_12"
  top: "W_hc_h_12"
  param {
    name: "W_hc"
  }
  inner_product_param {
    num_output: 64
    bias_term: false
    weight_filler {
      type: "xavier"
    }
    axis: 2
  }
}
layer {
  name: "lstm1_gate_input_13"
  type: "Eltwise"
  bottom: "W_hc_h_12"
  bottom: "W_xc_x_13"
  top: "gate_input_13"
  eltwise_param {
    operation: SUM
  }
}
layer {
  name: "lstm1_unit_13"
  type: "LSTMUnit"
  bottom: "c_12"
  bottom: "gate_input_13"
  bottom: "cont_13"
  top: "c_13"
  top: "h_13"
}
layer {
  name: "lstm1_h_conted_13"
  type: "Scale"
  bottom: "h_13"
  bottom: "cont_14"
  top: "h_conted_13"
  scale_param {
    axis: 0
  }
}
layer {
  name: "lstm1_transform_14"
  type: "InnerProduct"
  bottom: "h_conted_13"
  top: "W_hc_h_13"
  param {
    name: "W_hc"
  }
  inner_product_param {
    num_output: 64
    bias_term: false
    weight_filler {
      type: "xavier"
    }
    axis: 2
  }
}
layer {
  name: "lstm1_gate_input_14"
  type: "Eltwise"
  bottom: "W_hc_h_13"
  bottom: "W_xc_x_14"
  top: "gate_input_14"
  eltwise_param {
    operation: SUM
  }
}
layer {
  name: "lstm1_unit_14"
  type: "LSTMUnit"
  bottom: "c_13"
  bottom: "gate_input_14"
  bottom: "cont_14"
  top: "c_14"
  top: "h_14"
}
layer {
  name: "lstm1_h_conted_14"
  type: "Scale"
  bottom: "h_14"
  bottom: "cont_15"
  top: "h_conted_14"
  scale_param {
    axis: 0
  }
}
layer {
  name: "lstm1_transform_15"
  type: "InnerProduct"
  bottom: "h_conted_14"
  top: "W_hc_h_14"
  param {
    name: "W_hc"
  }
  inner_product_param {
    num_output: 64
    bias_term: false
    weight_filler {
      type: "xavier"
    }
    axis: 2
  }
}
layer {
  name: "lstm1_gate_input_15"
  type: "Eltwise"
  bottom: "W_hc_h_14"
  bottom: "W_xc_x_15"
  top: "gate_input_15"
  eltwise_param {
    operation: SUM
  }
}
layer {
  name: "lstm1_unit_15"
  type: "LSTMUnit"
  bottom: "c_14"
  bottom: "gate_input_15"
  bottom: "cont_15"
  top: "c_15"
  top: "h_15"
}
layer {
  name: "lstm1_h_conted_15"
  type: "Scale"
  bottom: "h_15"
  bottom: "cont_16"
  top: "h_conted_15"
  scale_param {
    axis: 0
  }
}
layer {
  name: "lstm1_transform_16"
  type: "InnerProduct"
  bottom: "h_conted_15"
  top: "W_hc_h_15"
  param {
    name: "W_hc"
  }
  inner_product_param {
    num_output: 64
    bias_term: false
    weight_filler {
      type: "xavier"
    }
    axis: 2
  }
}
layer {
  name: "lstm1_gate_input_16"
  type: "Eltwise"
  bottom: "W_hc_h_15"
  bottom: "W_xc_x_16"
  top: "gate_input_16"
  eltwise_param {
    operation: SUM
  }
}
layer {
  name: "lstm1_unit_16"
  type: "LSTMUnit"
  bottom: "c_15"
  bottom: "gate_input_16"
  bottom: "cont_16"
  top: "c_16"
  top: "h_16"
}
layer {
  name: "lstm1_h_conted_16"
  type: "Scale"
  bottom: "h_16"
  bottom: "cont_17"
  top: "h_conted_16"
  scale_param {
    axis: 0
  }
}
layer {
  name: "lstm1_transform_17"
  type: "InnerProduct"
  bottom: "h_conted_16"
  top: "W_hc_h_16"
  param {
    name: "W_hc"
  }
  inner_product_param {
    num_output: 64
    bias_term: false
    weight_filler {
      type: "xavier"
    }
    axis: 2
  }
}
layer {
  name: "lstm1_gate_input_17"
  type: "Eltwise"
  bottom: "W_hc_h_16"
  bottom: "W_xc_x_17"
  top: "gate_input_17"
  eltwise_param {
    operation: SUM
  }
}
layer {
  name: "lstm1_unit_17"
  type: "LSTMUnit"
  bottom: "c_16"
  bottom: "gate_input_17"
  bottom: "cont_17"
  top: "c_17"
  top: "h_17"
}
layer {
  name: "lstm1_h_conted_17"
  type: "Scale"
  bottom: "h_17"
  bottom: "cont_18"
  top: "h_conted_17"
  scale_param {
    axis: 0
  }
}
layer {
  name: "lstm1_transform_18"
  type: "InnerProduct"
  bottom: "h_conted_17"
  top: "W_hc_h_17"
  param {
    name: "W_hc"
  }
  inner_product_param {
    num_output: 64
    bias_term: false
    weight_filler {
      type: "xavier"
    }
    axis: 2
  }
}
layer {
  name: "lstm1_gate_input_18"
  type: "Eltwise"
  bottom: "W_hc_h_17"
  bottom: "W_xc_x_18"
  top: "gate_input_18"
  eltwise_param {
    operation: SUM
  }
}
layer {
  name: "lstm1_unit_18"
  type: "LSTMUnit"
  bottom: "c_17"
  bottom: "gate_input_18"
  bottom: "cont_18"
  top: "c_18"
  top: "h_18"
}
layer {
  name: "lstm1_h_conted_18"
  type: "Scale"
  bottom: "h_18"
  bottom: "cont_19"
  top: "h_conted_18"
  scale_param {
    axis: 0
  }
}
layer {
  name: "lstm1_transform_19"
  type: "InnerProduct"
  bottom: "h_conted_18"
  top: "W_hc_h_18"
  param {
    name: "W_hc"
  }
  inner_product_param {
    num_output: 64
    bias_term: false
    weight_filler {
      type: "xavier"
    }
    axis: 2
  }
}
layer {
  name: "lstm1_gate_input_19"
  type: "Eltwise"
  bottom: "W_hc_h_18"
  bottom: "W_xc_x_19"
  top: "gate_input_19"
  eltwise_param {
    operation: SUM
  }
}
layer {
  name: "lstm1_unit_19"
  type: "LSTMUnit"
  bottom: "c_18"
  bottom: "gate_input_19"
  bottom: "cont_19"
  top: "c_19"
  top: "h_19"
}
layer {
  name: "lstm1_h_conted_19"
  type: "Scale"
  bottom: "h_19"
  bottom: "cont_20"
  top: "h_conted_19"
  scale_param {
    axis: 0
  }
}
layer {
  name: "lstm1_transform_20"
  type: "InnerProduct"
  bottom: "h_conted_19"
  top: "W_hc_h_19"
  param {
    name: "W_hc"
  }
  inner_product_param {
    num_output: 64
    bias_term: false
    weight_filler {
      type: "xavier"
    }
    axis: 2
  }
}
layer {
  name: "lstm1_gate_input_20"
  type: "Eltwise"
  bottom: "W_hc_h_19"
  bottom: "W_xc_x_20"
  top: "gate_input_20"
  eltwise_param {
    operation: SUM
  }
}
layer {
  name: "lstm1_unit_20"
  type: "LSTMUnit"
  bottom: "c_19"
  bottom: "gate_input_20"
  bottom: "cont_20"
  top: "c_20"
  top: "h_20"
}
layer {
  name: "lstm1_h_conted_20"
  type: "Scale"
  bottom: "h_20"
  bottom: "cont_21"
  top: "h_conted_20"
  scale_param {
    axis: 0
  }
}
layer {
  name: "lstm1_transform_21"
  type: "InnerProduct"
  bottom: "h_conted_20"
  top: "W_hc_h_20"
  param {
    name: "W_hc"
  }
  inner_product_param {
    num_output: 64
    bias_term: false
    weight_filler {
      type: "xavier"
    }
    axis: 2
  }
}
layer {
  name: "lstm1_gate_input_21"
  type: "Eltwise"
  bottom: "W_hc_h_20"
  bottom: "W_xc_x_21"
  top: "gate_input_21"
  eltwise_param {
    operation: SUM
  }
}
layer {
  name: "lstm1_unit_21"
  type: "LSTMUnit"
  bottom: "c_20"
  bottom: "gate_input_21"
  bottom: "cont_21"
  top: "c_21"
  top: "h_21"
}
layer {
  name: "lstm1_h_conted_21"
  type: "Scale"
  bottom: "h_21"
  bottom: "cont_22"
  top: "h_conted_21"
  scale_param {
    axis: 0
  }
}
layer {
  name: "lstm1_transform_22"
  type: "InnerProduct"
  bottom: "h_conted_21"
  top: "W_hc_h_21"
  param {
    name: "W_hc"
  }
  inner_product_param {
    num_output: 64
    bias_term: false
    weight_filler {
      type: "xavier"
    }
    axis: 2
  }
}
layer {
  name: "lstm1_gate_input_22"
  type: "Eltwise"
  bottom: "W_hc_h_21"
  bottom: "W_xc_x_22"
  top: "gate_input_22"
  eltwise_param {
    operation: SUM
  }
}
layer {
  name: "lstm1_unit_22"
  type: "LSTMUnit"
  bottom: "c_21"
  bottom: "gate_input_22"
  bottom: "cont_22"
  top: "c_22"
  top: "h_22"
}
layer {
  name: "lstm1_h_conted_22"
  type: "Scale"
  bottom: "h_22"
  bottom: "cont_23"
  top: "h_conted_22"
  scale_param {
    axis: 0
  }
}
layer {
  name: "lstm1_transform_23"
  type: "InnerProduct"
  bottom: "h_conted_22"
  top: "W_hc_h_22"
  param {
    name: "W_hc"
  }
  inner_product_param {
    num_output: 64
    bias_term: false
    weight_filler {
      type: "xavier"
    }
    axis: 2
  }
}
layer {
  name: "lstm1_gate_input_23"
  type: "Eltwise"
  bottom: "W_hc_h_22"
  bottom: "W_xc_x_23"
  top: "gate_input_23"
  eltwise_param {
    operation: SUM
  }
}
layer {
  name: "lstm1_unit_23"
  type: "LSTMUnit"
  bottom: "c_22"
  bottom: "gate_input_23"
  bottom: "cont_23"
  top: "c_23"
  top: "h_23"
}
layer {
  name: "lstm1_h_conted_23"
  type: "Scale"
  bottom: "h_23"
  bottom: "cont_24"
  top: "h_conted_23"
  scale_param {
    axis: 0
  }
}
layer {
  name: "lstm1_transform_24"
  type: "InnerProduct"
  bottom: "h_conted_23"
  top: "W_hc_h_23"
  param {
    name: "W_hc"
  }
  inner_product_param {
    num_output: 64
    bias_term: false
    weight_filler {
      type: "xavier"
    }
    axis: 2
  }
}
layer {
  name: "lstm1_gate_input_24"
  type: "Eltwise"
  bottom: "W_hc_h_23"
  bottom: "W_xc_x_24"
  top: "gate_input_24"
  eltwise_param {
    operation: SUM
  }
}
layer {
  name: "lstm1_unit_24"
  type: "LSTMUnit"
  bottom: "c_23"
  bottom: "gate_input_24"
  bottom: "cont_24"
  top: "c_24"
  top: "h_24"
}
layer {
  name: "lstm1_"
  type: "Split"
  bottom: "c_24"
  top: "c_T"
}
layer {
  name: "lstm1_h_concat"
  type: "Concat"
  bottom: "h_1"
  bottom: "h_2"
  bottom: "h_3"
  bottom: "h_4"
  bottom: "h_5"
  bottom: "h_6"
  bottom: "h_7"
  bottom: "h_8"
  bottom: "h_9"
  bottom: "h_10"
  bottom: "h_11"
  bottom: "h_12"
  bottom: "h_13"
  bottom: "h_14"
  bottom: "h_15"
  bottom: "h_16"
  bottom: "h_17"
  bottom: "h_18"
  bottom: "h_19"
  bottom: "h_20"
  bottom: "h_21"
  bottom: "h_22"
  bottom: "h_23"
  bottom: "h_24"
  top: "h"
  concat_param {
    axis: 0
  }
}
layer {
  name: "h_pseudoloss"
  type: "Reduction"
  bottom: "h"
  top: "h_pseudoloss"
  loss_weight: 1
}
I0222 17:33:26.568104 24292 layer_factory.hpp:77] Creating layer lstm1_
I0222 17:33:26.568114 24292 net.cpp:84] Creating Layer lstm1_
I0222 17:33:26.568117 24292 net.cpp:380] lstm1_ -> x
I0222 17:33:26.568123 24292 net.cpp:380] lstm1_ -> cont
I0222 17:33:26.568150 24292 net.cpp:122] Setting up lstm1_
I0222 17:33:26.568155 24292 net.cpp:129] Top shape: 24 26 1 1 (624)
I0222 17:33:26.568158 24292 net.cpp:129] Top shape: 24 26 (624)
I0222 17:33:26.568161 24292 net.cpp:137] Memory required for data: 4992
I0222 17:33:26.568163 24292 layer_factory.hpp:77] Creating layer lstm1_
I0222 17:33:26.568174 24292 net.cpp:84] Creating Layer lstm1_
I0222 17:33:26.568177 24292 net.cpp:380] lstm1_ -> c_0
I0222 17:33:26.568182 24292 net.cpp:380] lstm1_ -> h_0
I0222 17:33:26.568202 24292 net.cpp:122] Setting up lstm1_
I0222 17:33:26.568207 24292 net.cpp:129] Top shape: 1 26 16 (416)
I0222 17:33:26.568210 24292 net.cpp:129] Top shape: 1 26 16 (416)
I0222 17:33:26.568212 24292 net.cpp:137] Memory required for data: 8320
I0222 17:33:26.568215 24292 layer_factory.hpp:77] Creating layer lstm1_cont_slice
I0222 17:33:26.568223 24292 net.cpp:84] Creating Layer lstm1_cont_slice
I0222 17:33:26.568226 24292 net.cpp:406] lstm1_cont_slice <- cont
I0222 17:33:26.568231 24292 net.cpp:380] lstm1_cont_slice -> cont_1
I0222 17:33:26.568238 24292 net.cpp:380] lstm1_cont_slice -> cont_2
…
I0222 17:33:26.568318 24292 net.cpp:380] lstm1_cont_slice -> cont_17
I0222 17:33:26.568325 24292 net.cpp:380] lstm1_cont_slice -> cont_18
I0222 17:33:26.568331 24292 net.cpp:380] lstm1_cont_slice -> cont_19
I0222 17:33:26.568336 24292 net.cpp:380] lstm1_cont_slice -> cont_20
I0222 17:33:26.568341 24292 net.cpp:380] lstm1_cont_slice -> cont_21
I0222 17:33:26.568346 24292 net.cpp:380] lstm1_cont_slice -> cont_22
I0222 17:33:26.568351 24292 net.cpp:380] lstm1_cont_slice -> cont_23
I0222 17:33:26.568356 24292 net.cpp:380] lstm1_cont_slice -> cont_24
I0222 17:33:26.568491 24292 net.cpp:122] Setting up lstm1_cont_slice
I0222 17:33:26.568496 24292 net.cpp:129] Top shape: 1 26 (26)
I0222 17:33:26.568500 24292 net.cpp:129] Top shape: 1 26 (26)
I0222 17:33:26.568503 24292 net.cpp:129] Top shape: 1 26 (26)
I0222 17:33:26.568507 24292 net.cpp:129] Top shape: 1 26 (26)
I0222 17:33:26.568511 24292 net.cpp:129] Top shape: 1 26 (26)
I0222 17:33:26.568513 24292 net.cpp:129] Top shape: 1 26 (26)
I0222 17:33:26.568517 24292 net.cpp:129] Top shape: 1 26 (26)
I0222 17:33:26.568521 24292 net.cpp:129] Top shape: 1 26 (26)
I0222 17:33:26.568523 24292 net.cpp:129] Top shape: 1 26 (26)
I0222 17:33:26.568526 24292 net.cpp:129] Top shape: 1 26 (26)
I0222 17:33:26.568531 24292 net.cpp:129] Top shape: 1 26 (26)
I0222 17:33:26.568533 24292 net.cpp:129] Top shape: 1 26 (26)
I0222 17:33:26.568536 24292 net.cpp:129] Top shape: 1 26 (26)
I0222 17:33:26.568541 24292 net.cpp:129] Top shape: 1 26 (26)
I0222 17:33:26.568543 24292 net.cpp:129] Top shape: 1 26 (26)
I0222 17:33:26.568547 24292 net.cpp:129] Top shape: 1 26 (26)
I0222 17:33:26.568549 24292 net.cpp:129] Top shape: 1 26 (26)
I0222 17:33:26.568553 24292 net.cpp:129] Top shape: 1 26 (26)
I0222 17:33:26.568557 24292 net.cpp:129] Top shape: 1 26 (26)
I0222 17:33:26.568559 24292 net.cpp:129] Top shape: 1 26 (26)
I0222 17:33:26.568562 24292 net.cpp:129] Top shape: 1 26 (26)
I0222 17:33:26.568565 24292 net.cpp:129] Top shape: 1 26 (26)
I0222 17:33:26.568569 24292 net.cpp:129] Top shape: 1 26 (26)
I0222 17:33:26.568572 24292 net.cpp:129] Top shape: 1 26 (26)
I0222 17:33:26.568575 24292 net.cpp:137] Memory required for data: 10816
I0222 17:33:26.568578 24292 layer_factory.hpp:77] Creating layer cont_1_lstm1_cont_slice_0_split
I0222 17:33:26.568584 24292 net.cpp:84] Creating Layer cont_1_lstm1_cont_slice_0_split
I0222 17:33:26.568593 24292 net.cpp:406] cont_1_lstm1_cont_slice_0_split <- cont_1
I0222 17:33:26.568598 24292 net.cpp:380] cont_1_lstm1_cont_slice_0_split -> cont_1_lstm1_cont_slice_0_split_0
I0222 17:33:26.568603 24292 net.cpp:380] cont_1_lstm1_cont_slice_0_split -> cont_1_lstm1_cont_slice_0_split_1
I0222 17:33:26.568626 24292 net.cpp:122] Setting up cont_1_lstm1_cont_slice_0_split
I0222 17:33:26.568630 24292 net.cpp:129] Top shape: 1 26 (26)
I0222 17:33:26.568634 24292 net.cpp:129] Top shape: 1 26 (26)
I0222 17:33:26.568637 24292 net.cpp:137] Memory required for data: 11024
I0222 17:33:26.568657 24292 layer_factory.hpp:77] Creating layer cont_2_lstm1_cont_slice_1_split
I0222 17:33:26.568662 24292 net.cpp:84] Creating Layer cont_2_lstm1_cont_slice_1_split
I0222 17:33:26.568665 24292 net.cpp:406] cont_2_lstm1_cont_slice_1_split <- cont_2
I0222 17:33:26.568670 24292 net.cpp:380] cont_2_lstm1_cont_slice_1_split -> cont_2_lstm1_cont_slice_1_split_0
I0222 17:33:26.568675 24292 net.cpp:380] cont_2_lstm1_cont_slice_1_split -> cont_2_lstm1_cont_slice_1_split_1
I0222 17:33:26.568692 24292 net.cpp:122] Setting up cont_2_lstm1_cont_slice_1_split
I0222 17:33:26.568696 24292 net.cpp:129] Top shape: 1 26 (26)
I0222 17:33:26.568701 24292 net.cpp:129] Top shape: 1 26 (26)
I0222 17:33:26.568703 24292 net.cpp:137] Memory required for data: 11232
I0222 17:33:26.568720 24292 layer_factory.hpp:77] Creating layer cont_3_lstm1_cont_slice_2_split
I0222 17:33:26.568724 24292 net.cpp:84] Creating Layer cont_3_lstm1_cont_slice_2_split
I0222 17:33:26.568728 24292 net.cpp:406] cont_3_lstm1_cont_slice_2_split <- cont_3
I0222 17:33:26.568732 24292 net.cpp:380] cont_3_lstm1_cont_slice_2_split -> cont_3_lstm1_cont_slice_2_split_0
I0222 17:33:26.568738 24292 net.cpp:380] cont_3_lstm1_cont_slice_2_split -> cont_3_lstm1_cont_slice_2_split_1
I0222 17:33:26.568755 24292 net.cpp:122] Setting up cont_3_lstm1_cont_slice_2_split
I0222 17:33:26.568759 24292 net.cpp:129] Top shape: 1 26 (26)
I0222 17:33:26.568763 24292 net.cpp:129] Top shape: 1 26 (26)
I0222 17:33:26.568781 24292 net.cpp:137] Memory required for data: 11440
I0222 17:33:26.568784 24292 layer_factory.hpp:77] Creating layer cont_4_lstm1_cont_slice_3_split
I0222 17:33:26.568789 24292 net.cpp:84] Creating Layer cont_4_lstm1_cont_slice_3_split
I0222 17:33:26.568792 24292 net.cpp:406] cont_4_lstm1_cont_slice_3_split <- cont_4
I0222 17:33:26.568796 24292 net.cpp:380] cont_4_lstm1_cont_slice_3_split -> cont_4_lstm1_cont_slice_3_split_0
I0222 17:33:26.568800 24292 net.cpp:380] cont_4_lstm1_cont_slice_3_split -> cont_4_lstm1_cont_slice_3_split_1
I0222 17:33:26.568820 24292 net.cpp:122] Setting up cont_4_lstm1_cont_slice_3_split
I0222 17:33:26.568825 24292 net.cpp:129] Top shape: 1 26 (26)
I0222 17:33:26.568828 24292 net.cpp:129] Top shape: 1 26 (26)
I0222 17:33:26.568831 24292 net.cpp:137] Memory required for data: 11648
I0222 17:33:26.568850 24292 layer_factory.hpp:77] Creating layer cont_5_lstm1_cont_slice_4_split
I0222 17:33:26.568852 24292 net.cpp:84] Creating Layer cont_5_lstm1_cont_slice_4_split
I0222 17:33:26.568856 24292 net.cpp:406] cont_5_lstm1_cont_slice_4_split <- cont_5
I0222 17:33:26.568876 24292 net.cpp:380] cont_5_lstm1_cont_slice_4_split -> cont_5_lstm1_cont_slice_4_split_0
I0222 17:33:26.568881 24292 net.cpp:380] cont_5_lstm1_cont_slice_4_split -> cont_5_lstm1_cont_slice_4_split_1
I0222 17:33:26.568898 24292 net.cpp:122] Setting up cont_5_lstm1_cont_slice_4_split
I0222 17:33:26.568903 24292 net.cpp:129] Top shape: 1 26 (26)
I0222 17:33:26.568907 24292 net.cpp:129] Top shape: 1 26 (26)
I0222 17:33:26.568909 24292 net.cpp:137] Memory required for data: 11856
I0222 17:33:26.568912 24292 layer_factory.hpp:77] Creating layer cont_6_lstm1_cont_slice_5_split
I0222 17:33:26.568917 24292 net.cpp:84] Creating Layer cont_6_lstm1_cont_slice_5_split
I0222 17:33:26.568922 24292 net.cpp:406] cont_6_lstm1_cont_slice_5_split <- cont_6
I0222 17:33:26.568925 24292 net.cpp:380] cont_6_lstm1_cont_slice_5_split -> cont_6_lstm1_cont_slice_5_split_0
I0222 17:33:26.568943 24292 net.cpp:380] cont_6_lstm1_cont_slice_5_split -> cont_6_lstm1_cont_slice_5_split_1
I0222 17:33:26.568966 24292 net.cpp:122] Setting up cont_6_lstm1_cont_slice_5_split
I0222 17:33:26.568971 24292 net.cpp:129] Top shape: 1 26 (26)
I0222 17:33:26.568975 24292 net.cpp:129] Top shape: 1 26 (26)
I0222 17:33:26.568979 24292 net.cpp:137] Memory required for data: 12064
I0222 17:33:26.568981 24292 layer_factory.hpp:77] Creating layer cont_7_lstm1_cont_slice_6_split
I0222 17:33:26.568984 24292 net.cpp:84] Creating Layer cont_7_lstm1_cont_slice_6_split
I0222 17:33:26.568987 24292 net.cpp:406] cont_7_lstm1_cont_slice_6_split <- cont_7
I0222 17:33:26.568991 24292 net.cpp:380] cont_7_lstm1_cont_slice_6_split -> cont_7_lstm1_cont_slice_6_split_0
I0222 17:33:26.568995 24292 net.cpp:380] cont_7_lstm1_cont_slice_6_split -> cont_7_lstm1_cont_slice_6_split_1
I0222 17:33:26.569011 24292 net.cpp:122] Setting up cont_7_lstm1_cont_slice_6_split
I0222 17:33:26.569016 24292 net.cpp:129] Top shape: 1 26 (26)
I0222 17:33:26.569020 24292 net.cpp:129] Top shape: 1 26 (26)
I0222 17:33:26.597878 24292 net.cpp:137] Memory required for data: 12272
I0222 17:33:26.597900 24292 layer_factory.hpp:77] Creating layer cont_8_lstm1_cont_slice_7_split
I0222 17:33:26.597923 24292 net.cpp:84] Creating Layer cont_8_lstm1_cont_slice_7_split
I0222 17:33:26.597928 24292 net.cpp:406] cont_8_lstm1_cont_slice_7_split <- cont_8
I0222 17:33:26.597936 24292 net.cpp:380] cont_8_lstm1_cont_slice_7_split -> cont_8_lstm1_cont_slice_7_split_0
I0222 17:33:26.597944 24292 net.cpp:380] cont_8_lstm1_cont_slice_7_split -> cont_8_lstm1_cont_slice_7_split_1
I0222 17:33:26.598006 24292 net.cpp:122] Setting up cont_8_lstm1_cont_slice_7_split
I0222 17:33:26.598012 24292 net.cpp:129] Top shape: 1 26 (26)
I0222 17:33:26.598016 24292 net.cpp:129] Top shape: 1 26 (26)
I0222 17:33:26.598032 24292 net.cpp:137] Memory required for data: 12480
I0222 17:33:26.598034 24292 layer_factory.hpp:77] Creating layer cont_9_lstm1_cont_slice_8_split
I0222 17:33:26.598039 24292 net.cpp:84] Creating Layer cont_9_lstm1_cont_slice_8_split
I0222 17:33:26.598058 24292 net.cpp:406] cont_9_lstm1_cont_slice_8_split <- cont_9
I0222 17:33:26.598063 24292 net.cpp:380] cont_9_lstm1_cont_slice_8_split -> cont_9_lstm1_cont_slice_8_split_0
I0222 17:33:26.598068 24292 net.cpp:380] cont_9_lstm1_cont_slice_8_split -> cont_9_lstm1_cont_slice_8_split_1
I0222 17:33:26.598101 24292 net.cpp:122] Setting up cont_9_lstm1_cont_slice_8_split
I0222 17:33:26.598106 24292 net.cpp:129] Top shape: 1 26 (26)
I0222 17:33:26.598109 24292 net.cpp:129] Top shape: 1 26 (26)
I0222 17:33:26.598112 24292 net.cpp:137] Memory required for data: 12688
I0222 17:33:26.598115 24292 layer_factory.hpp:77] Creating layer cont_10_lstm1_cont_slice_9_split
I0222 17:33:26.598119 24292 net.cpp:84] Creating Layer cont_10_lstm1_cont_slice_9_split
I0222 17:33:26.598122 24292 net.cpp:406] cont_10_lstm1_cont_slice_9_split <- cont_10
I0222 17:33:26.598126 24292 net.cpp:380] cont_10_lstm1_cont_slice_9_split -> cont_10_lstm1_cont_slice_9_split_0
I0222 17:33:26.598131 24292 net.cpp:380] cont_10_lstm1_cont_slice_9_split -> cont_10_lstm1_cont_slice_9_split_1
I0222 17:33:26.598150 24292 net.cpp:122] Setting up cont_10_lstm1_cont_slice_9_split
I0222 17:33:26.598155 24292 net.cpp:129] Top shape: 1 26 (26)
I0222 17:33:26.598158 24292 net.cpp:129] Top shape: 1 26 (26)
I0222 17:33:26.598161 24292 net.cpp:137] Memory required for data: 12896
I0222 17:33:26.598165 24292 layer_factory.hpp:77] Creating layer cont_11_lstm1_cont_slice_10_split
I0222 17:33:26.598167 24292 net.cpp:84] Creating Layer cont_11_lstm1_cont_slice_10_split
I0222 17:33:26.598171 24292 net.cpp:406] cont_11_lstm1_cont_slice_10_split <- cont_11
I0222 17:33:26.598175 24292 net.cpp:380] cont_11_lstm1_cont_slice_10_split -> cont_11_lstm1_cont_slice_10_split_0
I0222 17:33:26.598181 24292 net.cpp:380] cont_11_lstm1_cont_slice_10_split -> cont_11_lstm1_cont_slice_10_split_1
I0222 17:33:26.598197 24292 net.cpp:122] Setting up cont_11_lstm1_cont_slice_10_split
I0222 17:33:26.598201 24292 net.cpp:129] Top shape: 1 26 (26)
I0222 17:33:26.598214 24292 net.cpp:129] Top shape: 1 26 (26)
I0222 17:33:26.598217 24292 net.cpp:137] Memory required for data: 13104
I0222 17:33:26.598222 24292 layer_factory.hpp:77] Creating layer cont_12_lstm1_cont_slice_11_split
I0222 17:33:26.598225 24292 net.cpp:84] Creating Layer cont_12_lstm1_cont_slice_11_split
I0222 17:33:26.598229 24292 net.cpp:406] cont_12_lstm1_cont_slice_11_split <- cont_12
I0222 17:33:26.598233 24292 net.cpp:380] cont_12_lstm1_cont_slice_11_split -> cont_12_lstm1_cont_slice_11_split_0
I0222 17:33:26.598237 24292 net.cpp:380] cont_12_lstm1_cont_slice_11_split -> cont_12_lstm1_cont_slice_11_split_1
I0222 17:33:26.598255 24292 net.cpp:122] Setting up cont_12_lstm1_cont_slice_11_split
I0222 17:33:26.598260 24292 net.cpp:129] Top shape: 1 26 (26)
I0222 17:33:26.598263 24292 net.cpp:129] Top shape: 1 26 (26)
I0222 17:33:26.598266 24292 net.cpp:137] Memory required for data: 13312
I0222 17:33:26.598269 24292 layer_factory.hpp:77] Creating layer cont_13_lstm1_cont_slice_12_split
I0222 17:33:26.598273 24292 net.cpp:84] Creating Layer cont_13_lstm1_cont_slice_12_split
I0222 17:33:26.598276 24292 net.cpp:406] cont_13_lstm1_cont_slice_12_split <- cont_13
I0222 17:33:26.598279 24292 net.cpp:380] cont_13_lstm1_cont_slice_12_split -> cont_13_lstm1_cont_slice_12_split_0
I0222 17:33:26.598284 24292 net.cpp:380] cont_13_lstm1_cont_slice_12_split -> cont_13_lstm1_cont_slice_12_split_1
I0222 17:33:26.598301 24292 net.cpp:122] Setting up cont_13_lstm1_cont_slice_12_split
I0222 17:33:26.598305 24292 net.cpp:129] Top shape: 1 26 (26)
I0222 17:33:26.598309 24292 net.cpp:129] Top shape: 1 26 (26)
I0222 17:33:26.598311 24292 net.cpp:137] Memory required for data: 13520
I0222 17:33:26.598315 24292 layer_factory.hpp:77] Creating layer cont_14_lstm1_cont_slice_13_split
I0222 17:33:26.598320 24292 net.cpp:84] Creating Layer cont_14_lstm1_cont_slice_13_split
I0222 17:33:26.598325 24292 net.cpp:406] cont_14_lstm1_cont_slice_13_split <- cont_14
I0222 17:33:26.598328 24292 net.cpp:380] cont_14_lstm1_cont_slice_13_split -> cont_14_lstm1_cont_slice_13_split_0
I0222 17:33:26.598333 24292 net.cpp:380] cont_14_lstm1_cont_slice_13_split -> cont_14_lstm1_cont_slice_13_split_1
I0222 17:33:26.598350 24292 net.cpp:122] Setting up cont_14_lstm1_cont_slice_13_split
I0222 17:33:26.598353 24292 net.cpp:129] Top shape: 1 26 (26)
I0222 17:33:26.598357 24292 net.cpp:129] Top shape: 1 26 (26)
I0222 17:33:26.598361 24292 net.cpp:137] Memory required for data: 13728
I0222 17:33:26.598363 24292 layer_factory.hpp:77] Creating layer cont_15_lstm1_cont_slice_14_split
I0222 17:33:26.598367 24292 net.cpp:84] Creating Layer cont_15_lstm1_cont_slice_14_split
I0222 17:33:26.598371 24292 net.cpp:406] cont_15_lstm1_cont_slice_14_split <- cont_15
I0222 17:33:26.598374 24292 net.cpp:380] cont_15_lstm1_cont_slice_14_split -> cont_15_lstm1_cont_slice_14_split_0
I0222 17:33:26.598379 24292 net.cpp:380] cont_15_lstm1_cont_slice_14_split -> cont_15_lstm1_cont_slice_14_split_1
I0222 17:33:26.598395 24292 net.cpp:122] Setting up cont_15_lstm1_cont_slice_14_split
I0222 17:33:26.598399 24292 net.cpp:129] Top shape: 1 26 (26)
I0222 17:33:26.598403 24292 net.cpp:129] Top shape: 1 26 (26)
I0222 17:33:26.598407 24292 net.cpp:137] Memory required for data: 13936
I0222 17:33:26.598409 24292 layer_factory.hpp:77] Creating layer cont_16_lstm1_cont_slice_15_split
I0222 17:33:26.598412 24292 net.cpp:84] Creating Layer cont_16_lstm1_cont_slice_15_split
I0222 17:33:26.598415 24292 net.cpp:406] cont_16_lstm1_cont_slice_15_split <- cont_16
I0222 17:33:26.598419 24292 net.cpp:380] cont_16_lstm1_cont_slice_15_split -> cont_16_lstm1_cont_slice_15_split_0
I0222 17:33:26.598423 24292 net.cpp:380] cont_16_lstm1_cont_slice_15_split -> cont_16_lstm1_cont_slice_15_split_1
I0222 17:33:26.598440 24292 net.cpp:122] Setting up cont_16_lstm1_cont_slice_15_split
I0222 17:33:26.598444 24292 net.cpp:129] Top shape: 1 26 (26)
I0222 17:33:26.598448 24292 net.cpp:129] Top shape: 1 26 (26)
I0222 17:33:26.598451 24292 net.cpp:137] Memory required for data: 14144
I0222 17:33:26.598453 24292 layer_factory.hpp:77] Creating layer cont_17_lstm1_cont_slice_16_split
I0222 17:33:26.598461 24292 net.cpp:84] Creating Layer cont_17_lstm1_cont_slice_16_split
I0222 17:33:26.598464 24292 net.cpp:406] cont_17_lstm1_cont_slice_16_split <- cont_17
I0222 17:33:26.598469 24292 net.cpp:380] cont_17_lstm1_cont_slice_16_split -> cont_17_lstm1_cont_slice_16_split_0
I0222 17:33:26.598474 24292 net.cpp:380] cont_17_lstm1_cont_slice_16_split -> cont_17_lstm1_cont_slice_16_split_1
I0222 17:33:26.598490 24292 net.cpp:122] Setting up cont_17_lstm1_cont_slice_16_split
I0222 17:33:26.598495 24292 net.cpp:129] Top shape: 1 26 (26)
I0222 17:33:26.598498 24292 net.cpp:129] Top shape: 1 26 (26)
I0222 17:33:26.598501 24292 net.cpp:137] Memory required for data: 14352
I0222 17:33:26.601406 24292 layer_factory.hpp:77] Creating layer cont_18_lstm1_cont_slice_17_split
I0222 17:33:26.601415 24292 net.cpp:84] Creating Layer cont_18_lstm1_cont_slice_17_split
I0222 17:33:26.601419 24292 net.cpp:406] cont_18_lstm1_cont_slice_17_split <- cont_18
I0222 17:33:26.601426 24292 net.cpp:380] cont_18_lstm1_cont_slice_17_split -> cont_18_lstm1_cont_slice_17_split_0
I0222 17:33:26.601433 24292 net.cpp:380] cont_18_lstm1_cont_slice_17_split -> cont_18_lstm1_cont_slice_17_split_1
I0222 17:33:26.601461 24292 net.cpp:122] Setting up cont_18_lstm1_cont_slice_17_split
I0222 17:33:26.601469 24292 net.cpp:129] Top shape: 1 26 (26)
I0222 17:33:26.601475 24292 net.cpp:129] Top shape: 1 26 (26)
I0222 17:33:26.601478 24292 net.cpp:137] Memory required for data: 14560
I0222 17:33:26.601481 24292 layer_factory.hpp:77] Creating layer cont_19_lstm1_cont_slice_18_split
I0222 17:33:26.601485 24292 net.cpp:84] Creating Layer cont_19_lstm1_cont_slice_18_split
I0222 17:33:26.601490 24292 net.cpp:406] cont_19_lstm1_cont_slice_18_split <- cont_19
I0222 17:33:26.601493 24292 net.cpp:380] cont_19_lstm1_cont_slice_18_split -> cont_19_lstm1_cont_slice_18_split_0
I0222 17:33:26.601503 24292 net.cpp:380] cont_19_lstm1_cont_slice_18_split -> cont_19_lstm1_cont_slice_18_split_1
I0222 17:33:26.601524 24292 net.cpp:122] Setting up cont_19_lstm1_cont_slice_18_split
I0222 17:33:26.601529 24292 net.cpp:129] Top shape: 1 26 (26)
I0222 17:33:26.601532 24292 net.cpp:129] Top shape: 1 26 (26)
I0222 17:33:26.601536 24292 net.cpp:137] Memory required for data: 14768
I0222 17:33:26.601538 24292 layer_factory.hpp:77] Creating layer cont_20_lstm1_cont_slice_19_split
I0222 17:33:26.601542 24292 net.cpp:84] Creating Layer cont_20_lstm1_cont_slice_19_split
I0222 17:33:26.601547 24292 net.cpp:406] cont_20_lstm1_cont_slice_19_split <- cont_20
I0222 17:33:26.601552 24292 net.cpp:380] cont_20_lstm1_cont_slice_19_split -> cont_20_lstm1_cont_slice_19_split_0
I0222 17:33:26.601557 24292 net.cpp:380] cont_20_lstm1_cont_slice_19_split -> cont_20_lstm1_cont_slice_19_split_1
I0222 17:33:26.601573 24292 net.cpp:122] Setting up cont_20_lstm1_cont_slice_19_split
I0222 17:33:26.601578 24292 net.cpp:129] Top shape: 1 26 (26)
I0222 17:33:26.601583 24292 net.cpp:129] Top shape: 1 26 (26)
I0222 17:33:26.601585 24292 net.cpp:137] Memory required for data: 14976
I0222 17:33:26.601588 24292 layer_factory.hpp:77] Creating layer cont_21_lstm1_cont_slice_20_split
I0222 17:33:26.601593 24292 net.cpp:84] Creating Layer cont_21_lstm1_cont_slice_20_split
I0222 17:33:26.601595 24292 net.cpp:406] cont_21_lstm1_cont_slice_20_split <- cont_21
I0222 17:33:26.601599 24292 net.cpp:380] cont_21_lstm1_cont_slice_20_split -> cont_21_lstm1_cont_slice_20_split_0
I0222 17:33:26.601603 24292 net.cpp:380] cont_21_lstm1_cont_slice_20_split -> cont_21_lstm1_cont_slice_20_split_1
I0222 17:33:26.601620 24292 net.cpp:122] Setting up cont_21_lstm1_cont_slice_20_split
I0222 17:33:26.601625 24292 net.cpp:129] Top shape: 1 26 (26)
I0222 17:33:26.601629 24292 net.cpp:129] Top shape: 1 26 (26)
I0222 17:33:26.601631 24292 net.cpp:137] Memory required for data: 15184
I0222 17:33:26.601634 24292 layer_factory.hpp:77] Creating layer cont_22_lstm1_cont_slice_21_split
I0222 17:33:26.601637 24292 net.cpp:84] Creating Layer cont_22_lstm1_cont_slice_21_split
I0222 17:33:26.601647 24292 net.cpp:406] cont_22_lstm1_cont_slice_21_split <- cont_22
I0222 17:33:26.601651 24292 net.cpp:380] cont_22_lstm1_cont_slice_21_split -> cont_22_lstm1_cont_slice_21_split_0
I0222 17:33:26.601656 24292 net.cpp:380] cont_22_lstm1_cont_slice_21_split -> cont_22_lstm1_cont_slice_21_split_1
I0222 17:33:26.601675 24292 net.cpp:122] Setting up cont_22_lstm1_cont_slice_21_split
I0222 17:33:26.601680 24292 net.cpp:129] Top shape: 1 26 (26)
I0222 17:33:26.601683 24292 net.cpp:129] Top shape: 1 26 (26)
I0222 17:33:26.601686 24292 net.cpp:137] Memory required for data: 15392
I0222 17:33:26.601688 24292 layer_factory.hpp:77] Creating layer cont_23_lstm1_cont_slice_22_split
I0222 17:33:26.601692 24292 net.cpp:84] Creating Layer cont_23_lstm1_cont_slice_22_split
I0222 17:33:26.601696 24292 net.cpp:406] cont_23_lstm1_cont_slice_22_split <- cont_23
I0222 17:33:26.601701 24292 net.cpp:380] cont_23_lstm1_cont_slice_22_split -> cont_23_lstm1_cont_slice_22_split_0
I0222 17:33:26.601704 24292 net.cpp:380] cont_23_lstm1_cont_slice_22_split -> cont_23_lstm1_cont_slice_22_split_1
I0222 17:33:26.601721 24292 net.cpp:122] Setting up cont_23_lstm1_cont_slice_22_split
I0222 17:33:26.601724 24292 net.cpp:129] Top shape: 1 26 (26)
I0222 17:33:26.601728 24292 net.cpp:129] Top shape: 1 26 (26)
I0222 17:33:26.601732 24292 net.cpp:137] Memory required for data: 15600
I0222 17:33:26.601734 24292 layer_factory.hpp:77] Creating layer cont_24_lstm1_cont_slice_23_split
I0222 17:33:26.601738 24292 net.cpp:84] Creating Layer cont_24_lstm1_cont_slice_23_split
I0222 17:33:26.601742 24292 net.cpp:406] cont_24_lstm1_cont_slice_23_split <- cont_24
I0222 17:33:26.601745 24292 net.cpp:380] cont_24_lstm1_cont_slice_23_split -> cont_24_lstm1_cont_slice_23_split_0
I0222 17:33:26.601750 24292 net.cpp:380] cont_24_lstm1_cont_slice_23_split -> cont_24_lstm1_cont_slice_23_split_1
I0222 17:33:26.601768 24292 net.cpp:122] Setting up cont_24_lstm1_cont_slice_23_split
I0222 17:33:26.601771 24292 net.cpp:129] Top shape: 1 26 (26)
I0222 17:33:26.601775 24292 net.cpp:129] Top shape: 1 26 (26)
I0222 17:33:26.601778 24292 net.cpp:137] Memory required for data: 15808
I0222 17:33:26.601780 24292 layer_factory.hpp:77] Creating layer lstm1_x_transform
I0222 17:33:26.601791 24292 net.cpp:84] Creating Layer lstm1_x_transform
I0222 17:33:26.601794 24292 net.cpp:406] lstm1_x_transform <- x
I0222 17:33:26.601799 24292 net.cpp:380] lstm1_x_transform -> W_xc_x
I0222 17:33:26.601872 24292 net.cpp:122] Setting up lstm1_x_transform
I0222 17:33:26.601877 24292 net.cpp:129] Top shape: 24 26 64 (39936)
I0222 17:33:26.601881 24292 net.cpp:137] Memory required for data: 175552
I0222 17:33:26.601893 24292 layer_factory.hpp:77] Creating layer lstm1_W_xc_x_slice
I0222 17:33:26.601899 24292 net.cpp:84] Creating Layer lstm1_W_xc_x_slice
I0222 17:33:26.601903 24292 net.cpp:406] lstm1_W_xc_x_slice <- W_xc_x
I0222 17:33:26.601908 24292 net.cpp:380] lstm1_W_xc_x_slice -> W_xc_x_1
I0222 17:33:26.601914 24292 net.cpp:380] lstm1_W_xc_x_slice -> W_xc_x_2
…
I0222 17:33:26.602010 24292 net.cpp:380] lstm1_W_xc_x_slice -> W_xc_x_18
I0222 17:33:26.602016 24292 net.cpp:380] lstm1_W_xc_x_slice -> W_xc_x_19
I0222 17:33:26.602022 24292 net.cpp:380] lstm1_W_xc_x_slice -> W_xc_x_20
I0222 17:33:26.602027 24292 net.cpp:380] lstm1_W_xc_x_slice -> W_xc_x_21
I0222 17:33:26.602032 24292 net.cpp:380] lstm1_W_xc_x_slice -> W_xc_x_22
I0222 17:33:26.602038 24292 net.cpp:380] lstm1_W_xc_x_slice -> W_xc_x_23
I0222 17:33:26.602043 24292 net.cpp:380] lstm1_W_xc_x_slice -> W_xc_x_24
I0222 17:33:26.602179 24292 net.cpp:122] Setting up lstm1_W_xc_x_slice
I0222 17:33:26.628582 24292 net.cpp:129] Top shape: 1 26 64 (1664)
I0222 17:33:26.628597 24292 net.cpp:129] Top shape: 1 26 64 (1664)
I0222 17:33:26.628613 24292 net.cpp:129] Top shape: 1 26 64 (1664)
I0222 17:33:26.628617 24292 net.cpp:129] Top shape: 1 26 64 (1664)
I0222 17:33:26.628619 24292 net.cpp:129] Top shape: 1 26 64 (1664)
I0222 17:33:26.628623 24292 net.cpp:129] Top shape: 1 26 64 (1664)
I0222 17:33:26.628625 24292 net.cpp:129] Top shape: 1 26 64 (1664)
I0222 17:33:26.628628 24292 net.cpp:129] Top shape: 1 26 64 (1664)
I0222 17:33:26.628631 24292 net.cpp:129] Top shape: 1 26 64 (1664)
I0222 17:33:26.628635 24292 net.cpp:129] Top shape: 1 26 64 (1664)
I0222 17:33:26.628638 24292 net.cpp:129] Top shape: 1 26 64 (1664)
I0222 17:33:26.628641 24292 net.cpp:129] Top shape: 1 26 64 (1664)
I0222 17:33:26.628645 24292 net.cpp:129] Top shape: 1 26 64 (1664)
I0222 17:33:26.628648 24292 net.cpp:129] Top shape: 1 26 64 (1664)
I0222 17:33:26.628651 24292 net.cpp:129] Top shape: 1 26 64 (1664)
I0222 17:33:26.628655 24292 net.cpp:129] Top shape: 1 26 64 (1664)
I0222 17:33:26.628659 24292 net.cpp:129] Top shape: 1 26 64 (1664)
I0222 17:33:26.628662 24292 net.cpp:129] Top shape: 1 26 64 (1664)
I0222 17:33:26.628665 24292 net.cpp:129] Top shape: 1 26 64 (1664)
I0222 17:33:26.628669 24292 net.cpp:129] Top shape: 1 26 64 (1664)
I0222 17:33:26.628672 24292 net.cpp:129] Top shape: 1 26 64 (1664)
I0222 17:33:26.628675 24292 net.cpp:129] Top shape: 1 26 64 (1664)
I0222 17:33:26.628679 24292 net.cpp:129] Top shape: 1 26 64 (1664)
I0222 17:33:26.628682 24292 net.cpp:129] Top shape: 1 26 64 (1664)
I0222 17:33:26.628685 24292 net.cpp:137] Memory required for data: 335296
I0222 17:33:26.628690 24292 layer_factory.hpp:77] Creating layer lstm1_h_conted_0
I0222 17:33:26.628698 24292 net.cpp:84] Creating Layer lstm1_h_conted_0
I0222 17:33:26.628705 24292 net.cpp:406] lstm1_h_conted_0 <- h_0
I0222 17:33:26.628710 24292 net.cpp:406] lstm1_h_conted_0 <- cont_1_lstm1_cont_slice_0_split_0
I0222 17:33:26.628720 24292 net.cpp:380] lstm1_h_conted_0 -> h_conted_0
I0222 17:33:26.628787 24292 net.cpp:122] Setting up lstm1_h_conted_0
I0222 17:33:26.628793 24292 net.cpp:129] Top shape: 1 26 16 (416)
I0222 17:33:26.628795 24292 net.cpp:137] Memory required for data: 336960
I0222 17:33:26.628798 24292 layer_factory.hpp:77] Creating layer lstm1_transform_1
I0222 17:33:26.628806 24292 net.cpp:84] Creating Layer lstm1_transform_1
I0222 17:33:26.628809 24292 net.cpp:406] lstm1_transform_1 <- h_conted_0
I0222 17:33:26.628814 24292 net.cpp:380] lstm1_transform_1 -> W_hc_h_0
I0222 17:33:26.628857 24292 net.cpp:122] Setting up lstm1_transform_1
I0222 17:33:26.628862 24292 net.cpp:129] Top shape: 1 26 64 (1664)
I0222 17:33:26.628865 24292 net.cpp:137] Memory required for data: 343616
I0222 17:33:26.628875 24292 layer_factory.hpp:77] Creating layer lstm1_gate_input_1
I0222 17:33:26.628883 24292 net.cpp:84] Creating Layer lstm1_gate_input_1
I0222 17:33:26.628887 24292 net.cpp:406] lstm1_gate_input_1 <- W_hc_h_0
I0222 17:33:26.628890 24292 net.cpp:406] lstm1_gate_input_1 <- W_xc_x_1
I0222 17:33:26.628897 24292 net.cpp:380] lstm1_gate_input_1 -> gate_input_1
I0222 17:33:26.629354 24292 net.cpp:122] Setting up lstm1_gate_input_1
I0222 17:33:26.629384 24292 net.cpp:129] Top shape: 1 26 64 (1664)
I0222 17:33:26.629390 24292 net.cpp:137] Memory required for data: 350272
I0222 17:33:26.629396 24292 layer_factory.hpp:77] Creating layer lstm1_unit_1
I0222 17:33:26.629411 24292 net.cpp:84] Creating Layer lstm1_unit_1
I0222 17:33:26.629431 24292 net.cpp:406] lstm1_unit_1 <- c_0
I0222 17:33:26.629441 24292 net.cpp:406] lstm1_unit_1 <- gate_input_1
I0222 17:33:26.629448 24292 net.cpp:406] lstm1_unit_1 <- cont_1_lstm1_cont_slice_0_split_1
I0222 17:33:26.629456 24292 net.cpp:380] lstm1_unit_1 -> c_1
I0222 17:33:26.629467 24292 net.cpp:380] lstm1_unit_1 -> h_1
I0222 17:33:26.629508 24292 net.cpp:122] Setting up lstm1_unit_1
I0222 17:33:26.629518 24292 net.cpp:129] Top shape: 1 26 16 (416)
I0222 17:33:26.629524 24292 net.cpp:129] Top shape: 1 26 16 (416)
I0222 17:33:26.629529 24292 net.cpp:137] Memory required for data: 353600
I0222 17:33:26.629534 24292 layer_factory.hpp:77] Creating layer h_1_lstm1_unit_1_1_split
I0222 17:33:26.629544 24292 net.cpp:84] Creating Layer h_1_lstm1_unit_1_1_split
I0222 17:33:26.629551 24292 net.cpp:406] h_1_lstm1_unit_1_1_split <- h_1
I0222 17:33:26.629559 24292 net.cpp:380] h_1_lstm1_unit_1_1_split -> h_1_lstm1_unit_1_1_split_0
I0222 17:33:26.629566 24292 net.cpp:380] h_1_lstm1_unit_1_1_split -> h_1_lstm1_unit_1_1_split_1
I0222 17:33:26.629595 24292 net.cpp:122] Setting up h_1_lstm1_unit_1_1_split
I0222 17:33:26.629603 24292 net.cpp:129] Top shape: 1 26 16 (416)
I0222 17:33:26.629611 24292 net.cpp:129] Top shape: 1 26 16 (416)
I0222 17:33:26.629616 24292 net.cpp:137] Memory required for data: 356928
I0222 17:33:26.629621 24292 layer_factory.hpp:77] Creating layer lstm1_h_conted_1
I0222 17:33:26.629629 24292 net.cpp:84] Creating Layer lstm1_h_conted_1
I0222 17:33:26.629636 24292 net.cpp:406] lstm1_h_conted_1 <- h_1_lstm1_unit_1_1_split_0
I0222 17:33:26.629642 24292 net.cpp:406] lstm1_h_conted_1 <- cont_2_lstm1_cont_slice_1_split_0
I0222 17:33:26.629649 24292 net.cpp:380] lstm1_h_conted_1 -> h_conted_1
I0222 17:33:26.629698 24292 net.cpp:122] Setting up lstm1_h_conted_1
I0222 17:33:26.629706 24292 net.cpp:129] Top shape: 1 26 16 (416)
I0222 17:33:26.629711 24292 net.cpp:137] Memory required for data: 358592
I0222 17:33:26.629717 24292 layer_factory.hpp:77] Creating layer lstm1_transform_2
I0222 17:33:26.629725 24292 net.cpp:84] Creating Layer lstm1_transform_2
I0222 17:33:26.629731 24292 net.cpp:406] lstm1_transform_2 <- h_conted_1
I0222 17:33:26.629739 24292 net.cpp:380] lstm1_transform_2 -> W_hc_h_1
I0222 17:33:26.629787 24292 net.cpp:122] Setting up lstm1_transform_2
I0222 17:33:26.629796 24292 net.cpp:129] Top shape: 1 26 64 (1664)
I0222 17:33:26.629801 24292 net.cpp:137] Memory required for data: 365248
I0222 17:33:26.629807 24292 net.cpp:465] Sharing parameters 'W_hc' owned by layer 'lstm1_transform_1', param index 0
I0222 17:33:26.629813 24292 layer_factory.hpp:77] Creating layer lstm1_gate_input_2
I0222 17:33:26.629822 24292 net.cpp:84] Creating Layer lstm1_gate_input_2
I0222 17:33:26.629827 24292 net.cpp:406] lstm1_gate_input_2 <- W_hc_h_1
I0222 17:33:26.629834 24292 net.cpp:406] lstm1_gate_input_2 <- W_xc_x_2
I0222 17:33:26.629858 24292 net.cpp:380] lstm1_gate_input_2 -> gate_input_2
I0222 17:33:26.629876 24292 net.cpp:122] Setting up lstm1_gate_input_2
I0222 17:33:26.629884 24292 net.cpp:129] Top shape: 1 26 64 (1664)
I0222 17:33:26.629889 24292 net.cpp:137] Memory required for data: 371904
I0222 17:33:26.629895 24292 layer_factory.hpp:77] Creating layer lstm1_unit_2
I0222 17:33:26.629904 24292 net.cpp:84] Creating Layer lstm1_unit_2
I0222 17:33:26.629910 24292 net.cpp:406] lstm1_unit_2 <- c_1
I0222 17:33:26.629917 24292 net.cpp:406] lstm1_unit_2 <- gate_input_2
I0222 17:33:26.629923 24292 net.cpp:406] lstm1_unit_2 <- cont_2_lstm1_cont_slice_1_split_1
I0222 17:33:26.629931 24292 net.cpp:380] lstm1_unit_2 -> c_2
I0222 17:33:26.629940 24292 net.cpp:380] lstm1_unit_2 -> h_2
I0222 17:33:26.629976 24292 net.cpp:122] Setting up lstm1_unit_2
I0222 17:33:26.629986 24292 net.cpp:129] Top shape: 1 26 16 (416)
I0222 17:33:26.629992 24292 net.cpp:129] Top shape: 1 26 16 (416)
I0222 17:33:26.629997 24292 net.cpp:137] Memory required for data: 375232
I0222 17:33:26.630003 24292 layer_factory.hpp:77] Creating layer h_2_lstm1_unit_2_1_split
I0222 17:33:26.630009 24292 net.cpp:84] Creating Layer h_2_lstm1_unit_2_1_split
I0222 17:33:26.630023 24292 net.cpp:406] h_2_lstm1_unit_2_1_split <- h_2
I0222 17:33:26.630033 24292 net.cpp:380] h_2_lstm1_unit_2_1_split -> h_2_lstm1_unit_2_1_split_0
I0222 17:33:26.630041 24292 net.cpp:380] h_2_lstm1_unit_2_1_split -> h_2_lstm1_unit_2_1_split_1
I0222 17:33:26.631659 24292 net.cpp:122] Setting up h_2_lstm1_unit_2_1_split
I0222 17:33:26.631667 24292 net.cpp:129] Top shape: 1 26 16 (416)
I0222 17:33:26.631673 24292 net.cpp:129] Top shape: 1 26 16 (416)
I0222 17:33:26.631678 24292 net.cpp:137] Memory required for data: 378560
I0222 17:33:26.631682 24292 layer_factory.hpp:77] Creating layer lstm1_h_conted_2
I0222 17:33:26.631690 24292 net.cpp:84] Creating Layer lstm1_h_conted_2
I0222 17:33:26.631696 24292 net.cpp:406] lstm1_h_conted_2 <- h_2_lstm1_unit_2_1_split_0
I0222 17:33:26.631702 24292 net.cpp:406] lstm1_h_conted_2 <- cont_3_lstm1_cont_slice_2_split_0
I0222 17:33:26.631711 24292 net.cpp:380] lstm1_h_conted_2 -> h_conted_2
I0222 17:33:26.631796 24292 net.cpp:122] Setting up lstm1_h_conted_2
I0222 17:33:26.631804 24292 net.cpp:129] Top shape: 1 26 16 (416)
I0222 17:33:26.631824 24292 net.cpp:137] Memory required for data: 380224
I0222 17:33:26.631830 24292 layer_factory.hpp:77] Creating layer lstm1_transform_3
I0222 17:33:26.631837 24292 net.cpp:84] Creating Layer lstm1_transform_3
I0222 17:33:26.631844 24292 net.cpp:406] lstm1_transform_3 <- h_conted_2
I0222 17:33:26.631863 24292 net.cpp:380] lstm1_transform_3 -> W_hc_h_2
I0222 17:33:26.631947 24292 net.cpp:122] Setting up lstm1_transform_3
I0222 17:33:26.631970 24292 net.cpp:129] Top shape: 1 26 64 (1664)
I0222 17:33:26.631975 24292 net.cpp:137] Memory required for data: 386880
I0222 17:33:26.631999 24292 net.cpp:465] Sharing parameters 'W_hc' owned by layer 'lstm1_transform_1', param index 0
I0222 17:33:26.632019 24292 layer_factory.hpp:77] Creating layer lstm1_gate_input_3
I0222 17:33:26.632026 24292 net.cpp:84] Creating Layer lstm1_gate_input_3
I0222 17:33:26.632056 24292 net.cpp:406] lstm1_gate_input_3 <- W_hc_h_2
I0222 17:33:26.632078 24292 net.cpp:406] lstm1_gate_input_3 <- W_xc_x_3
I0222 17:33:26.632086 24292 net.cpp:380] lstm1_gate_input_3 -> gate_input_3
I0222 17:33:26.632119 24292 net.cpp:122] Setting up lstm1_gate_input_3
I0222 17:33:26.632140 24292 net.cpp:129] Top shape: 1 26 64 (1664)
I0222 17:33:26.632144 24292 net.cpp:137] Memory required for data: 393536
I0222 17:33:26.632163 24292 layer_factory.hpp:77] Creating layer lstm1_unit_3
I0222 17:33:26.632169 24292 net.cpp:84] Creating Layer lstm1_unit_3
I0222 17:33:26.632187 24292 net.cpp:406] lstm1_unit_3 <- c_2
I0222 17:33:26.632194 24292 net.cpp:406] lstm1_unit_3 <- gate_input_3
I0222 17:33:26.632200 24292 net.cpp:406] lstm1_unit_3 <- cont_3_lstm1_cont_slice_2_split_1
I0222 17:33:26.632208 24292 net.cpp:380] lstm1_unit_3 -> c_3
I0222 17:33:26.632217 24292 net.cpp:380] lstm1_unit_3 -> h_3
I0222 17:33:26.632256 24292 net.cpp:122] Setting up lstm1_unit_3
I0222 17:33:26.632266 24292 net.cpp:129] Top shape: 1 26 16 (416)
I0222 17:33:26.632272 24292 net.cpp:129] Top shape: 1 26 16 (416)
I0222 17:33:26.632277 24292 net.cpp:137] Memory required for data: 396864
I0222 17:33:26.632282 24292 layer_factory.hpp:77] Creating layer h_3_lstm1_unit_3_1_split
I0222 17:33:26.632288 24292 net.cpp:84] Creating Layer h_3_lstm1_unit_3_1_split
I0222 17:33:26.632293 24292 net.cpp:406] h_3_lstm1_unit_3_1_split <- h_3
I0222 17:33:26.632300 24292 net.cpp:380] h_3_lstm1_unit_3_1_split -> h_3_lstm1_unit_3_1_split_0
I0222 17:33:26.632308 24292 net.cpp:380] h_3_lstm1_unit_3_1_split -> h_3_lstm1_unit_3_1_split_1
I0222 17:33:26.632336 24292 net.cpp:122] Setting up h_3_lstm1_unit_3_1_split
I0222 17:33:26.632344 24292 net.cpp:129] Top shape: 1 26 16 (416)
I0222 17:33:26.632350 24292 net.cpp:129] Top shape: 1 26 16 (416)
I0222 17:33:26.632355 24292 net.cpp:137] Memory required for data: 400192
I0222 17:33:26.632360 24292 layer_factory.hpp:77] Creating layer lstm1_h_conted_3
I0222 17:33:26.632369 24292 net.cpp:84] Creating Layer lstm1_h_conted_3
I0222 17:33:26.632375 24292 net.cpp:406] lstm1_h_conted_3 <- h_3_lstm1_unit_3_1_split_0
I0222 17:33:26.632388 24292 net.cpp:406] lstm1_h_conted_3 <- cont_4_lstm1_cont_slice_3_split_0
I0222 17:33:26.632396 24292 net.cpp:380] lstm1_h_conted_3 -> h_conted_3
I0222 17:33:26.632443 24292 net.cpp:122] Setting up lstm1_h_conted_3
I0222 17:33:26.632452 24292 net.cpp:129] Top shape: 1 26 16 (416)
I0222 17:33:26.632457 24292 net.cpp:137] Memory required for data: 401856
I0222 17:33:26.632462 24292 layer_factory.hpp:77] Creating layer lstm1_transform_4
I0222 17:33:26.632470 24292 net.cpp:84] Creating Layer lstm1_transform_4
I0222 17:33:26.632477 24292 net.cpp:406] lstm1_transform_4 <- h_conted_3
I0222 17:33:26.632484 24292 net.cpp:380] lstm1_transform_4 -> W_hc_h_3
I0222 17:33:26.632527 24292 net.cpp:122] Setting up lstm1_transform_4
I0222 17:33:26.632536 24292 net.cpp:129] Top shape: 1 26 64 (1664)
I0222 17:33:26.632541 24292 net.cpp:137] Memory required for data: 408512
I0222 17:33:26.632547 24292 net.cpp:465] Sharing parameters 'W_hc' owned by layer 'lstm1_transform_1', param index 0
I0222 17:33:26.632552 24292 layer_factory.hpp:77] Creating layer lstm1_gate_input_4
I0222 17:33:26.632560 24292 net.cpp:84] Creating Layer lstm1_gate_input_4
I0222 17:33:26.632565 24292 net.cpp:406] lstm1_gate_input_4 <- W_hc_h_3
I0222 17:33:26.632572 24292 net.cpp:406] lstm1_gate_input_4 <- W_xc_x_4
I0222 17:33:26.632580 24292 net.cpp:380] lstm1_gate_input_4 -> gate_input_4
I0222 17:33:26.632599 24292 net.cpp:122] Setting up lstm1_gate_input_4
I0222 17:33:26.632607 24292 net.cpp:129] Top shape: 1 26 64 (1664)
I0222 17:33:26.632612 24292 net.cpp:137] Memory required for data: 415168
I0222 17:33:26.632617 24292 layer_factory.hpp:77] Creating layer lstm1_unit_4
I0222 17:33:26.632624 24292 net.cpp:84] Creating Layer lstm1_unit_4
I0222 17:33:26.632629 24292 net.cpp:406] lstm1_unit_4 <- c_3
I0222 17:33:26.632637 24292 net.cpp:406] lstm1_unit_4 <- gate_input_4
I0222 17:33:26.632642 24292 net.cpp:406] lstm1_unit_4 <- cont_4_lstm1_cont_slice_3_split_1
I0222 17:33:26.632649 24292 net.cpp:380] lstm1_unit_4 -> c_4
I0222 17:33:26.632658 24292 net.cpp:380] lstm1_unit_4 -> h_4
I0222 17:33:26.632692 24292 net.cpp:122] Setting up lstm1_unit_4
I0222 17:33:26.632700 24292 net.cpp:129] Top shape: 1 26 16 (416)
I0222 17:33:26.632706 24292 net.cpp:129] Top shape: 1 26 16 (416)
I0222 17:33:26.632712 24292 net.cpp:137] Memory required for data: 418496
I0222 17:33:26.632717 24292 layer_factory.hpp:77] Creating layer h_4_lstm1_unit_4_1_split
I0222 17:33:26.632724 24292 net.cpp:84] Creating Layer h_4_lstm1_unit_4_1_split
I0222 17:33:26.632728 24292 net.cpp:406] h_4_lstm1_unit_4_1_split <- h_4
I0222 17:33:26.632735 24292 net.cpp:380] h_4_lstm1_unit_4_1_split -> h_4_lstm1_unit_4_1_split_0
I0222 17:33:26.632743 24292 net.cpp:380] h_4_lstm1_unit_4_1_split -> h_4_lstm1_unit_4_1_split_1
I0222 17:33:26.632779 24292 net.cpp:122] Setting up h_4_lstm1_unit_4_1_split
I0222 17:33:26.632787 24292 net.cpp:129] Top shape: 1 26 16 (416)
I0222 17:33:26.632794 24292 net.cpp:129] Top shape: 1 26 16 (416)
I0222 17:33:26.632800 24292 net.cpp:137] Memory required for data: 421824
I0222 17:33:26.632805 24292 layer_factory.hpp:77] Creating layer lstm1_h_conted_4
I0222 17:33:26.632812 24292 net.cpp:84] Creating Layer lstm1_h_conted_4
I0222 17:33:26.632817 24292 net.cpp:406] lstm1_h_conted_4 <- h_4_lstm1_unit_4_1_split_0
I0222 17:33:26.632824 24292 net.cpp:406] lstm1_h_conted_4 <- cont_5_lstm1_cont_slice_4_split_0
I0222 17:33:26.632832 24292 net.cpp:380] lstm1_h_conted_4 -> h_conted_4
I0222 17:33:26.632874 24292 net.cpp:122] Setting up lstm1_h_conted_4
I0222 17:33:26.632884 24292 net.cpp:129] Top shape: 1 26 16 (416)
I0222 17:33:26.632889 24292 net.cpp:137] Memory required for data: 423488
I0222 17:33:26.632894 24292 layer_factory.hpp:77] Creating layer lstm1_transform_5
I0222 17:33:26.632900 24292 net.cpp:84] Creating Layer lstm1_transform_5
I0222 17:33:26.632906 24292 net.cpp:406] lstm1_transform_5 <- h_conted_4
I0222 17:33:26.632915 24292 net.cpp:380] lstm1_transform_5 -> W_hc_h_4
I0222 17:33:26.632959 24292 net.cpp:122] Setting up lstm1_transform_5
I0222 17:33:26.632974 24292 net.cpp:129] Top shape: 1 26 64 (1664)
I0222 17:33:26.658921 24292 net.cpp:137] Memory required for data: 430144
I0222 17:33:26.658931 24292 net.cpp:465] Sharing parameters 'W_hc' owned by layer 'lstm1_transform_1', param index 0
I0222 17:33:26.658937 24292 layer_factory.hpp:77] Creating layer lstm1_gate_input_5
I0222 17:33:26.658977 24292 net.cpp:84] Creating Layer lstm1_gate_input_5
I0222 17:33:26.658983 24292 net.cpp:406] lstm1_gate_input_5 <- W_hc_h_4
I0222 17:33:26.658990 24292 net.cpp:406] lstm1_gate_input_5 <- W_xc_x_5
I0222 17:33:26.659010 24292 net.cpp:380] lstm1_gate_input_5 -> gate_input_5
I0222 17:33:26.659070 24292 net.cpp:122] Setting up lstm1_gate_input_5
I0222 17:33:26.659080 24292 net.cpp:129] Top shape: 1 26 64 (1664)
I0222 17:33:26.659099 24292 net.cpp:137] Memory required for data: 436800
I0222 17:33:26.659104 24292 layer_factory.hpp:77] Creating layer lstm1_unit_5
I0222 17:33:26.659112 24292 net.cpp:84] Creating Layer lstm1_unit_5
I0222 17:33:26.659117 24292 net.cpp:406] lstm1_unit_5 <- c_4
I0222 17:33:26.659123 24292 net.cpp:406] lstm1_unit_5 <- gate_input_5
I0222 17:33:26.659142 24292 net.cpp:406] lstm1_unit_5 <- cont_5_lstm1_cont_slice_4_split_1
I0222 17:33:26.659163 24292 net.cpp:380] lstm1_unit_5 -> c_5
I0222 17:33:26.659171 24292 net.cpp:380] lstm1_unit_5 -> h_5
I0222 17:33:26.659237 24292 net.cpp:122] Setting up lstm1_unit_5
I0222 17:33:26.659260 24292 net.cpp:129] Top shape: 1 26 16 (416)
I0222 17:33:26.659279 24292 net.cpp:129] Top shape: 1 26 16 (416)
I0222 17:33:26.659286 24292 net.cpp:137] Memory required for data: 440128
I0222 17:33:26.659289 24292 layer_factory.hpp:77] Creating layer h_5_lstm1_unit_5_1_split
I0222 17:33:26.659297 24292 net.cpp:84] Creating Layer h_5_lstm1_unit_5_1_split
I0222 17:33:26.659302 24292 net.cpp:406] h_5_lstm1_unit_5_1_split <- h_5
I0222 17:33:26.659322 24292 net.cpp:380] h_5_lstm1_unit_5_1_split -> h_5_lstm1_unit_5_1_split_0
I0222 17:33:26.659343 24292 net.cpp:380] h_5_lstm1_unit_5_1_split -> h_5_lstm1_unit_5_1_split_1
I0222 17:33:26.659370 24292 net.cpp:122] Setting up h_5_lstm1_unit_5_1_split
I0222 17:33:26.659379 24292 net.cpp:129] Top shape: 1 26 16 (416)
I0222 17:33:26.659385 24292 net.cpp:129] Top shape: 1 26 16 (416)
I0222 17:33:26.659390 24292 net.cpp:137] Memory required for data: 443456
I0222 17:33:26.659395 24292 layer_factory.hpp:77] Creating layer lstm1_h_conted_5
I0222 17:33:26.659404 24292 net.cpp:84] Creating Layer lstm1_h_conted_5
I0222 17:33:26.659410 24292 net.cpp:406] lstm1_h_conted_5 <- h_5_lstm1_unit_5_1_split_0
I0222 17:33:26.659416 24292 net.cpp:406] lstm1_h_conted_5 <- cont_6_lstm1_cont_slice_5_split_0
I0222 17:33:26.659425 24292 net.cpp:380] lstm1_h_conted_5 -> h_conted_5
I0222 17:33:26.659471 24292 net.cpp:122] Setting up lstm1_h_conted_5
I0222 17:33:26.659479 24292 net.cpp:129] Top shape: 1 26 16 (416)
I0222 17:33:26.659484 24292 net.cpp:137] Memory required for data: 445120
I0222 17:33:26.659490 24292 layer_factory.hpp:77] Creating layer lstm1_transform_6
I0222 17:33:26.659497 24292 net.cpp:84] Creating Layer lstm1_transform_6
I0222 17:33:26.659504 24292 net.cpp:406] lstm1_transform_6 <- h_conted_5
I0222 17:33:26.659512 24292 net.cpp:380] lstm1_transform_6 -> W_hc_h_5
I0222 17:33:26.659559 24292 net.cpp:122] Setting up lstm1_transform_6
I0222 17:33:26.659567 24292 net.cpp:129] Top shape: 1 26 64 (1664)
I0222 17:33:26.659574 24292 net.cpp:137] Memory required for data: 451776
I0222 17:33:26.659579 24292 net.cpp:465] Sharing parameters 'W_hc' owned by layer 'lstm1_transform_1', param index 0
I0222 17:33:26.659585 24292 layer_factory.hpp:77] Creating layer lstm1_gate_input_6
I0222 17:33:26.659592 24292 net.cpp:84] Creating Layer lstm1_gate_input_6
I0222 17:33:26.659598 24292 net.cpp:406] lstm1_gate_input_6 <- W_hc_h_5
I0222 17:33:26.659605 24292 net.cpp:406] lstm1_gate_input_6 <- W_xc_x_6
I0222 17:33:26.659612 24292 net.cpp:380] lstm1_gate_input_6 -> gate_input_6
I0222 17:33:26.659631 24292 net.cpp:122] Setting up lstm1_gate_input_6
I0222 17:33:26.659641 24292 net.cpp:129] Top shape: 1 26 64 (1664)
I0222 17:33:26.659653 24292 net.cpp:137] Memory required for data: 458432
I0222 17:33:26.659659 24292 layer_factory.hpp:77] Creating layer lstm1_unit_6
I0222 17:33:26.659668 24292 net.cpp:84] Creating Layer lstm1_unit_6
I0222 17:33:26.659675 24292 net.cpp:406] lstm1_unit_6 <- c_5
I0222 17:33:26.659682 24292 net.cpp:406] lstm1_unit_6 <- gate_input_6
I0222 17:33:26.659688 24292 net.cpp:406] lstm1_unit_6 <- cont_6_lstm1_cont_slice_5_split_1
I0222 17:33:26.659696 24292 net.cpp:380] lstm1_unit_6 -> c_6
I0222 17:33:26.659704 24292 net.cpp:380] lstm1_unit_6 -> h_6
I0222 17:33:26.659741 24292 net.cpp:122] Setting up lstm1_unit_6
I0222 17:33:26.659749 24292 net.cpp:129] Top shape: 1 26 16 (416)
I0222 17:33:26.659756 24292 net.cpp:129] Top shape: 1 26 16 (416)
I0222 17:33:26.659761 24292 net.cpp:137] Memory required for data: 461760
I0222 17:33:26.659766 24292 layer_factory.hpp:77] Creating layer h_6_lstm1_unit_6_1_split
I0222 17:33:26.659773 24292 net.cpp:84] Creating Layer h_6_lstm1_unit_6_1_split
I0222 17:33:26.659778 24292 net.cpp:406] h_6_lstm1_unit_6_1_split <- h_6
I0222 17:33:26.659787 24292 net.cpp:380] h_6_lstm1_unit_6_1_split -> h_6_lstm1_unit_6_1_split_0
I0222 17:33:26.659796 24292 net.cpp:380] h_6_lstm1_unit_6_1_split -> h_6_lstm1_unit_6_1_split_1
I0222 17:33:26.659822 24292 net.cpp:122] Setting up h_6_lstm1_unit_6_1_split
I0222 17:33:26.659831 24292 net.cpp:129] Top shape: 1 26 16 (416)
I0222 17:33:26.659837 24292 net.cpp:129] Top shape: 1 26 16 (416)
I0222 17:33:26.659842 24292 net.cpp:137] Memory required for data: 465088
I0222 17:33:26.659847 24292 layer_factory.hpp:77] Creating layer lstm1_h_conted_6
I0222 17:33:26.659855 24292 net.cpp:84] Creating Layer lstm1_h_conted_6
I0222 17:33:26.659862 24292 net.cpp:406] lstm1_h_conted_6 <- h_6_lstm1_unit_6_1_split_0
I0222 17:33:26.659868 24292 net.cpp:406] lstm1_h_conted_6 <- cont_7_lstm1_cont_slice_6_split_0
I0222 17:33:26.659876 24292 net.cpp:380] lstm1_h_conted_6 -> h_conted_6
I0222 17:33:26.659922 24292 net.cpp:122] Setting up lstm1_h_conted_6
I0222 17:33:26.659930 24292 net.cpp:129] Top shape: 1 26 16 (416)
I0222 17:33:26.659936 24292 net.cpp:137] Memory required for data: 466752
I0222 17:33:26.659941 24292 layer_factory.hpp:77] Creating layer lstm1_transform_7
I0222 17:33:26.659950 24292 net.cpp:84] Creating Layer lstm1_transform_7
I0222 17:33:26.659955 24292 net.cpp:406] lstm1_transform_7 <- h_conted_6
I0222 17:33:26.659963 24292 net.cpp:380] lstm1_transform_7 -> W_hc_h_6
I0222 17:33:26.660008 24292 net.cpp:122] Setting up lstm1_transform_7
I0222 17:33:26.660017 24292 net.cpp:129] Top shape: 1 26 64 (1664)
I0222 17:33:26.660023 24292 net.cpp:137] Memory required for data: 473408
I0222 17:33:26.660032 24292 net.cpp:465] Sharing parameters 'W_hc' owned by layer 'lstm1_transform_1', param index 0
I0222 17:33:26.660039 24292 layer_factory.hpp:77] Creating layer lstm1_gate_input_7
I0222 17:33:26.660048 24292 net.cpp:84] Creating Layer lstm1_gate_input_7
I0222 17:33:26.660054 24292 net.cpp:406] lstm1_gate_input_7 <- W_hc_h_6
I0222 17:33:26.660060 24292 net.cpp:406] lstm1_gate_input_7 <- W_xc_x_7
I0222 17:33:26.660068 24292 net.cpp:380] lstm1_gate_input_7 -> gate_input_7
I0222 17:33:26.660087 24292 net.cpp:122] Setting up lstm1_gate_input_7
I0222 17:33:26.660095 24292 net.cpp:129] Top shape: 1 26 64 (1664)
I0222 17:33:26.660100 24292 net.cpp:137] Memory required for data: 480064
I0222 17:33:26.660106 24292 layer_factory.hpp:77] Creating layer lstm1_unit_7
I0222 17:33:26.660112 24292 net.cpp:84] Creating Layer lstm1_unit_7
I0222 17:33:26.660118 24292 net.cpp:406] lstm1_unit_7 <- c_6
I0222 17:33:26.660125 24292 net.cpp:406] lstm1_unit_7 <- gate_input_7
I0222 17:33:26.660131 24292 net.cpp:406] lstm1_unit_7 <- cont_7_lstm1_cont_slice_6_split_1
I0222 17:33:26.660140 24292 net.cpp:380] lstm1_unit_7 -> c_7
I0222 17:33:26.660148 24292 net.cpp:380] lstm1_unit_7 -> h_7
I0222 17:33:26.660184 24292 net.cpp:122] Setting up lstm1_unit_7
I0222 17:33:26.660192 24292 net.cpp:129] Top shape: 1 26 16 (416)
I0222 17:33:26.660199 24292 net.cpp:129] Top shape: 1 26 16 (416)
I0222 17:33:26.660204 24292 net.cpp:137] Memory required for data: 483392
I0222 17:33:26.660217 24292 layer_factory.hpp:77] Creating layer h_7_lstm1_unit_7_1_split
I0222 17:33:26.660223 24292 net.cpp:84] Creating Layer h_7_lstm1_unit_7_1_split
I0222 17:33:26.660229 24292 net.cpp:406] h_7_lstm1_unit_7_1_split <- h_7
I0222 17:33:26.660236 24292 net.cpp:380] h_7_lstm1_unit_7_1_split -> h_7_lstm1_unit_7_1_split_0
I0222 17:33:26.660244 24292 net.cpp:380] h_7_lstm1_unit_7_1_split -> h_7_lstm1_unit_7_1_split_1
I0222 17:33:26.661978 24292 net.cpp:122] Setting up h_7_lstm1_unit_7_1_split
I0222 17:33:26.661988 24292 net.cpp:129] Top shape: 1 26 16 (416)
I0222 17:33:26.662006 24292 net.cpp:129] Top shape: 1 26 16 (416)
I0222 17:33:26.662025 24292 net.cpp:137] Memory required for data: 486720
I0222 17:33:26.662030 24292 layer_factory.hpp:77] Creating layer lstm1_h_conted_7
I0222 17:33:26.662060 24292 net.cpp:84] Creating Layer lstm1_h_conted_7
I0222 17:33:26.662066 24292 net.cpp:406] lstm1_h_conted_7 <- h_7_lstm1_unit_7_1_split_0
I0222 17:33:26.662087 24292 net.cpp:406] lstm1_h_conted_7 <- cont_8_lstm1_cont_slice_7_split_0
I0222 17:33:26.662107 24292 net.cpp:380] lstm1_h_conted_7 -> h_conted_7
I0222 17:33:26.662179 24292 net.cpp:122] Setting up lstm1_h_conted_7
I0222 17:33:26.662186 24292 net.cpp:129] Top shape: 1 26 16 (416)
I0222 17:33:26.662205 24292 net.cpp:137] Memory required for data: 488384
I0222 17:33:26.662211 24292 layer_factory.hpp:77] Creating layer lstm1_transform_8
I0222 17:33:26.662219 24292 net.cpp:84] Creating Layer lstm1_transform_8
I0222 17:33:26.662235 24292 net.cpp:406] lstm1_transform_8 <- h_conted_7
I0222 17:33:26.662256 24292 net.cpp:380] lstm1_transform_8 -> W_hc_h_7
I0222 17:33:26.662313 24292 net.cpp:122] Setting up lstm1_transform_8
I0222 17:33:26.662322 24292 net.cpp:129] Top shape: 1 26 64 (1664)
I0222 17:33:26.662340 24292 net.cpp:137] Memory required for data: 495040
I0222 17:33:26.662345 24292 net.cpp:465] Sharing parameters 'W_hc' owned by layer 'lstm1_transform_1', param index 0
I0222 17:33:26.662351 24292 layer_factory.hpp:77] Creating layer lstm1_gate_input_8
I0222 17:33:26.662372 24292 net.cpp:84] Creating Layer lstm1_gate_input_8
I0222 17:33:26.662377 24292 net.cpp:406] lstm1_gate_input_8 <- W_hc_h_7
I0222 17:33:26.662397 24292 net.cpp:406] lstm1_gate_input_8 <- W_xc_x_8
I0222 17:33:26.662405 24292 net.cpp:380] lstm1_gate_input_8 -> gate_input_8
I0222 17:33:26.662449 24292 net.cpp:122] Setting up lstm1_gate_input_8
I0222 17:33:26.662457 24292 net.cpp:129] Top shape: 1 26 64 (1664)
I0222 17:33:26.662462 24292 net.cpp:137] Memory required for data: 501696
I0222 17:33:26.662467 24292 layer_factory.hpp:77] Creating layer lstm1_unit_8
I0222 17:33:26.662474 24292 net.cpp:84] Creating Layer lstm1_unit_8
I0222 17:33:26.662480 24292 net.cpp:406] lstm1_unit_8 <- c_7
I0222 17:33:26.662487 24292 net.cpp:406] lstm1_unit_8 <- gate_input_8
I0222 17:33:26.662492 24292 net.cpp:406] lstm1_unit_8 <- cont_8_lstm1_cont_slice_7_split_1
I0222 17:33:26.662499 24292 net.cpp:380] lstm1_unit_8 -> c_8
I0222 17:33:26.662508 24292 net.cpp:380] lstm1_unit_8 -> h_8
I0222 17:33:26.662541 24292 net.cpp:122] Setting up lstm1_unit_8
I0222 17:33:26.662549 24292 net.cpp:129] Top shape: 1 26 16 (416)
I0222 17:33:26.662555 24292 net.cpp:129] Top shape: 1 26 16 (416)
I0222 17:33:26.662560 24292 net.cpp:137] Memory required for data: 505024
I0222 17:33:26.662565 24292 layer_factory.hpp:77] Creating layer h_8_lstm1_unit_8_1_split
I0222 17:33:26.662571 24292 net.cpp:84] Creating Layer h_8_lstm1_unit_8_1_split
I0222 17:33:26.662577 24292 net.cpp:406] h_8_lstm1_unit_8_1_split <- h_8
I0222 17:33:26.662585 24292 net.cpp:380] h_8_lstm1_unit_8_1_split -> h_8_lstm1_unit_8_1_split_0
I0222 17:33:26.662592 24292 net.cpp:380] h_8_lstm1_unit_8_1_split -> h_8_lstm1_unit_8_1_split_1
I0222 17:33:26.662617 24292 net.cpp:122] Setting up h_8_lstm1_unit_8_1_split
I0222 17:33:26.662624 24292 net.cpp:129] Top shape: 1 26 16 (416)
I0222 17:33:26.662631 24292 net.cpp:129] Top shape: 1 26 16 (416)
I0222 17:33:26.662636 24292 net.cpp:137] Memory required for data: 508352
I0222 17:33:26.662647 24292 layer_factory.hpp:77] Creating layer lstm1_h_conted_8
I0222 17:33:26.662657 24292 net.cpp:84] Creating Layer lstm1_h_conted_8
I0222 17:33:26.662662 24292 net.cpp:406] lstm1_h_conted_8 <- h_8_lstm1_unit_8_1_split_0
I0222 17:33:26.662668 24292 net.cpp:406] lstm1_h_conted_8 <- cont_9_lstm1_cont_slice_8_split_0
I0222 17:33:26.662677 24292 net.cpp:380] lstm1_h_conted_8 -> h_conted_8
I0222 17:33:26.662720 24292 net.cpp:122] Setting up lstm1_h_conted_8
I0222 17:33:26.662729 24292 net.cpp:129] Top shape: 1 26 16 (416)
I0222 17:33:26.662734 24292 net.cpp:137] Memory required for data: 510016
I0222 17:33:26.662739 24292 layer_factory.hpp:77] Creating layer lstm1_transform_9
I0222 17:33:26.662745 24292 net.cpp:84] Creating Layer lstm1_transform_9
I0222 17:33:26.662750 24292 net.cpp:406] lstm1_transform_9 <- h_conted_8
I0222 17:33:26.662757 24292 net.cpp:380] lstm1_transform_9 -> W_hc_h_8
I0222 17:33:26.662799 24292 net.cpp:122] Setting up lstm1_transform_9
I0222 17:33:26.662807 24292 net.cpp:129] Top shape: 1 26 64 (1664)
I0222 17:33:26.662812 24292 net.cpp:137] Memory required for data: 516672
I0222 17:33:26.662817 24292 net.cpp:465] Sharing parameters 'W_hc' owned by layer 'lstm1_transform_1', param index 0
I0222 17:33:26.662823 24292 layer_factory.hpp:77] Creating layer lstm1_gate_input_9
I0222 17:33:26.662829 24292 net.cpp:84] Creating Layer lstm1_gate_input_9
I0222 17:33:26.662835 24292 net.cpp:406] lstm1_gate_input_9 <- W_hc_h_8
I0222 17:33:26.662842 24292 net.cpp:406] lstm1_gate_input_9 <- W_xc_x_9
I0222 17:33:26.662850 24292 net.cpp:380] lstm1_gate_input_9 -> gate_input_9
I0222 17:33:26.662881 24292 net.cpp:122] Setting up lstm1_gate_input_9
I0222 17:33:26.662889 24292 net.cpp:129] Top shape: 1 26 64 (1664)
I0222 17:33:26.662894 24292 net.cpp:137] Memory required for data: 523328
I0222 17:33:26.662899 24292 layer_factory.hpp:77] Creating layer lstm1_unit_9
I0222 17:33:26.662905 24292 net.cpp:84] Creating Layer lstm1_unit_9
I0222 17:33:26.662911 24292 net.cpp:406] lstm1_unit_9 <- c_8
I0222 17:33:26.662917 24292 net.cpp:406] lstm1_unit_9 <- gate_input_9
I0222 17:33:26.662925 24292 net.cpp:406] lstm1_unit_9 <- cont_9_lstm1_cont_slice_8_split_1
I0222 17:33:26.662932 24292 net.cpp:380] lstm1_unit_9 -> c_9
I0222 17:33:26.662940 24292 net.cpp:380] lstm1_unit_9 -> h_9
I0222 17:33:26.662976 24292 net.cpp:122] Setting up lstm1_unit_9
I0222 17:33:26.662983 24292 net.cpp:129] Top shape: 1 26 16 (416)
I0222 17:33:26.662991 24292 net.cpp:129] Top shape: 1 26 16 (416)
I0222 17:33:26.662995 24292 net.cpp:137] Memory required for data: 526656
I0222 17:33:26.663000 24292 layer_factory.hpp:77] Creating layer h_9_lstm1_unit_9_1_split
I0222 17:33:26.663007 24292 net.cpp:84] Creating Layer h_9_lstm1_unit_9_1_split
I0222 17:33:26.663012 24292 net.cpp:406] h_9_lstm1_unit_9_1_split <- h_9
I0222 17:33:26.663018 24292 net.cpp:380] h_9_lstm1_unit_9_1_split -> h_9_lstm1_unit_9_1_split_0
I0222 17:33:26.663027 24292 net.cpp:380] h_9_lstm1_unit_9_1_split -> h_9_lstm1_unit_9_1_split_1
I0222 17:33:26.663053 24292 net.cpp:122] Setting up h_9_lstm1_unit_9_1_split
I0222 17:33:26.663060 24292 net.cpp:129] Top shape: 1 26 16 (416)
I0222 17:33:26.663067 24292 net.cpp:129] Top shape: 1 26 16 (416)
I0222 17:33:26.663072 24292 net.cpp:137] Memory required for data: 529984
I0222 17:33:26.663077 24292 layer_factory.hpp:77] Creating layer lstm1_h_conted_9
I0222 17:33:26.663084 24292 net.cpp:84] Creating Layer lstm1_h_conted_9
I0222 17:33:26.663089 24292 net.cpp:406] lstm1_h_conted_9 <- h_9_lstm1_unit_9_1_split_0
I0222 17:33:26.663096 24292 net.cpp:406] lstm1_h_conted_9 <- cont_10_lstm1_cont_slice_9_split_0
I0222 17:33:26.663105 24292 net.cpp:380] lstm1_h_conted_9 -> h_conted_9
I0222 17:33:26.663151 24292 net.cpp:122] Setting up lstm1_h_conted_9
I0222 17:33:26.663158 24292 net.cpp:129] Top shape: 1 26 16 (416)
I0222 17:33:26.663163 24292 net.cpp:137] Memory required for data: 531648
I0222 17:33:26.663168 24292 layer_factory.hpp:77] Creating layer lstm1_transform_10
I0222 17:33:26.663177 24292 net.cpp:84] Creating Layer lstm1_transform_10
I0222 17:33:26.663188 24292 net.cpp:406] lstm1_transform_10 <- h_conted_9
I0222 17:33:26.663197 24292 net.cpp:380] lstm1_transform_10 -> W_hc_h_9
I0222 17:33:26.663240 24292 net.cpp:122] Setting up lstm1_transform_10
I0222 17:33:26.663249 24292 net.cpp:129] Top shape: 1 26 64 (1664)
I0222 17:33:26.689092 24292 net.cpp:137] Memory required for data: 538304
I0222 17:33:26.689107 24292 net.cpp:465] Sharing parameters 'W_hc' owned by layer 'lstm1_transform_1', param index 0
I0222 17:33:26.689127 24292 layer_factory.hpp:77] Creating layer lstm1_gate_input_10
I0222 17:33:26.689137 24292 net.cpp:84] Creating Layer lstm1_gate_input_10
I0222 17:33:26.689144 24292 net.cpp:406] lstm1_gate_input_10 <- W_hc_h_9
I0222 17:33:26.689152 24292 net.cpp:406] lstm1_gate_input_10 <- W_xc_x_10
I0222 17:33:26.689159 24292 net.cpp:380] lstm1_gate_input_10 -> gate_input_10
I0222 17:33:26.689204 24292 net.cpp:122] Setting up lstm1_gate_input_10
I0222 17:33:26.689215 24292 net.cpp:129] Top shape: 1 26 64 (1664)
I0222 17:33:26.689221 24292 net.cpp:137] Memory required for data: 544960
I0222 17:33:26.689226 24292 layer_factory.hpp:77] Creating layer lstm1_unit_10
I0222 17:33:26.689234 24292 net.cpp:84] Creating Layer lstm1_unit_10
I0222 17:33:26.689241 24292 net.cpp:406] lstm1_unit_10 <- c_9
I0222 17:33:26.689249 24292 net.cpp:406] lstm1_unit_10 <- gate_input_10
I0222 17:33:26.689254 24292 net.cpp:406] lstm1_unit_10 <- cont_10_lstm1_cont_slice_9_split_1
I0222 17:33:26.689262 24292 net.cpp:380] lstm1_unit_10 -> c_10
I0222 17:33:26.689271 24292 net.cpp:380] lstm1_unit_10 -> h_10
I0222 17:33:26.689311 24292 net.cpp:122] Setting up lstm1_unit_10
I0222 17:33:26.689321 24292 net.cpp:129] Top shape: 1 26 16 (416)
I0222 17:33:26.689327 24292 net.cpp:129] Top shape: 1 26 16 (416)
I0222 17:33:26.689332 24292 net.cpp:137] Memory required for data: 548288
I0222 17:33:26.689337 24292 layer_factory.hpp:77] Creating layer h_10_lstm1_unit_10_1_split
I0222 17:33:26.689344 24292 net.cpp:84] Creating Layer h_10_lstm1_unit_10_1_split
I0222 17:33:26.689350 24292 net.cpp:406] h_10_lstm1_unit_10_1_split <- h_10
I0222 17:33:26.689371 24292 net.cpp:380] h_10_lstm1_unit_10_1_split -> h_10_lstm1_unit_10_1_split_0
I0222 17:33:26.689380 24292 net.cpp:380] h_10_lstm1_unit_10_1_split -> h_10_lstm1_unit_10_1_split_1
I0222 17:33:26.689409 24292 net.cpp:122] Setting up h_10_lstm1_unit_10_1_split
I0222 17:33:26.689416 24292 net.cpp:129] Top shape: 1 26 16 (416)
I0222 17:33:26.689424 24292 net.cpp:129] Top shape: 1 26 16 (416)
I0222 17:33:26.689429 24292 net.cpp:137] Memory required for data: 551616
I0222 17:33:26.689433 24292 layer_factory.hpp:77] Creating layer lstm1_h_conted_10
I0222 17:33:26.689441 24292 net.cpp:84] Creating Layer lstm1_h_conted_10
I0222 17:33:26.689447 24292 net.cpp:406] lstm1_h_conted_10 <- h_10_lstm1_unit_10_1_split_0
I0222 17:33:26.689455 24292 net.cpp:406] lstm1_h_conted_10 <- cont_11_lstm1_cont_slice_10_split_0
I0222 17:33:26.689461 24292 net.cpp:380] lstm1_h_conted_10 -> h_conted_10
I0222 17:33:26.689510 24292 net.cpp:122] Setting up lstm1_h_conted_10
I0222 17:33:26.689519 24292 net.cpp:129] Top shape: 1 26 16 (416)
I0222 17:33:26.689525 24292 net.cpp:137] Memory required for data: 553280
I0222 17:33:26.689530 24292 layer_factory.hpp:77] Creating layer lstm1_transform_11
I0222 17:33:26.689538 24292 net.cpp:84] Creating Layer lstm1_transform_11
I0222 17:33:26.689544 24292 net.cpp:406] lstm1_transform_11 <- h_conted_10
I0222 17:33:26.689554 24292 net.cpp:380] lstm1_transform_11 -> W_hc_h_10
I0222 17:33:26.689607 24292 net.cpp:122] Setting up lstm1_transform_11
I0222 17:33:26.689616 24292 net.cpp:129] Top shape: 1 26 64 (1664)
I0222 17:33:26.689621 24292 net.cpp:137] Memory required for data: 559936
I0222 17:33:26.689627 24292 net.cpp:465] Sharing parameters 'W_hc' owned by layer 'lstm1_transform_1', param index 0
I0222 17:33:26.689633 24292 layer_factory.hpp:77] Creating layer lstm1_gate_input_11
I0222 17:33:26.689640 24292 net.cpp:84] Creating Layer lstm1_gate_input_11
I0222 17:33:26.689646 24292 net.cpp:406] lstm1_gate_input_11 <- W_hc_h_10
I0222 17:33:26.689652 24292 net.cpp:406] lstm1_gate_input_11 <- W_xc_x_11
I0222 17:33:26.689671 24292 net.cpp:380] lstm1_gate_input_11 -> gate_input_11
I0222 17:33:26.689693 24292 net.cpp:122] Setting up lstm1_gate_input_11
I0222 17:33:26.689702 24292 net.cpp:129] Top shape: 1 26 64 (1664)
I0222 17:33:26.689707 24292 net.cpp:137] Memory required for data: 566592
I0222 17:33:26.689713 24292 layer_factory.hpp:77] Creating layer lstm1_unit_11
I0222 17:33:26.689719 24292 net.cpp:84] Creating Layer lstm1_unit_11
I0222 17:33:26.689725 24292 net.cpp:406] lstm1_unit_11 <- c_10
I0222 17:33:26.689733 24292 net.cpp:406] lstm1_unit_11 <- gate_input_11
I0222 17:33:26.689738 24292 net.cpp:406] lstm1_unit_11 <- cont_11_lstm1_cont_slice_10_split_1
I0222 17:33:26.689746 24292 net.cpp:380] lstm1_unit_11 -> c_11
I0222 17:33:26.689754 24292 net.cpp:380] lstm1_unit_11 -> h_11
I0222 17:33:26.689790 24292 net.cpp:122] Setting up lstm1_unit_11
I0222 17:33:26.689797 24292 net.cpp:129] Top shape: 1 26 16 (416)
I0222 17:33:26.689805 24292 net.cpp:129] Top shape: 1 26 16 (416)
I0222 17:33:26.689810 24292 net.cpp:137] Memory required for data: 569920
I0222 17:33:26.689815 24292 layer_factory.hpp:77] Creating layer h_11_lstm1_unit_11_1_split
I0222 17:33:26.689822 24292 net.cpp:84] Creating Layer h_11_lstm1_unit_11_1_split
I0222 17:33:26.689828 24292 net.cpp:406] h_11_lstm1_unit_11_1_split <- h_11
I0222 17:33:26.689836 24292 net.cpp:380] h_11_lstm1_unit_11_1_split -> h_11_lstm1_unit_11_1_split_0
I0222 17:33:26.689844 24292 net.cpp:380] h_11_lstm1_unit_11_1_split -> h_11_lstm1_unit_11_1_split_1
I0222 17:33:26.689872 24292 net.cpp:122] Setting up h_11_lstm1_unit_11_1_split
I0222 17:33:26.689879 24292 net.cpp:129] Top shape: 1 26 16 (416)
I0222 17:33:26.689885 24292 net.cpp:129] Top shape: 1 26 16 (416)
I0222 17:33:26.689890 24292 net.cpp:137] Memory required for data: 573248
I0222 17:33:26.689895 24292 layer_factory.hpp:77] Creating layer lstm1_h_conted_11
I0222 17:33:26.689903 24292 net.cpp:84] Creating Layer lstm1_h_conted_11
I0222 17:33:26.689909 24292 net.cpp:406] lstm1_h_conted_11 <- h_11_lstm1_unit_11_1_split_0
I0222 17:33:26.689916 24292 net.cpp:406] lstm1_h_conted_11 <- cont_12_lstm1_cont_slice_11_split_0
I0222 17:33:26.689924 24292 net.cpp:380] lstm1_h_conted_11 -> h_conted_11
I0222 17:33:26.689975 24292 net.cpp:122] Setting up lstm1_h_conted_11
I0222 17:33:26.689983 24292 net.cpp:129] Top shape: 1 26 16 (416)
I0222 17:33:26.689988 24292 net.cpp:137] Memory required for data: 574912
I0222 17:33:26.689995 24292 layer_factory.hpp:77] Creating layer lstm1_transform_12
I0222 17:33:26.690001 24292 net.cpp:84] Creating Layer lstm1_transform_12
I0222 17:33:26.690007 24292 net.cpp:406] lstm1_transform_12 <- h_conted_11
I0222 17:33:26.690014 24292 net.cpp:380] lstm1_transform_12 -> W_hc_h_11
I0222 17:33:26.690060 24292 net.cpp:122] Setting up lstm1_transform_12
I0222 17:33:26.690068 24292 net.cpp:129] Top shape: 1 26 64 (1664)
I0222 17:33:26.690073 24292 net.cpp:137] Memory required for data: 581568
I0222 17:33:26.690079 24292 net.cpp:465] Sharing parameters 'W_hc' owned by layer 'lstm1_transform_1', param index 0
I0222 17:33:26.690085 24292 layer_factory.hpp:77] Creating layer lstm1_gate_input_12
I0222 17:33:26.690091 24292 net.cpp:84] Creating Layer lstm1_gate_input_12
I0222 17:33:26.690098 24292 net.cpp:406] lstm1_gate_input_12 <- W_hc_h_11
I0222 17:33:26.690104 24292 net.cpp:406] lstm1_gate_input_12 <- W_xc_x_12
I0222 17:33:26.690110 24292 net.cpp:380] lstm1_gate_input_12 -> gate_input_12
I0222 17:33:26.690129 24292 net.cpp:122] Setting up lstm1_gate_input_12
I0222 17:33:26.690137 24292 net.cpp:129] Top shape: 1 26 64 (1664)
I0222 17:33:26.690142 24292 net.cpp:137] Memory required for data: 588224
I0222 17:33:26.690147 24292 layer_factory.hpp:77] Creating layer lstm1_unit_12
I0222 17:33:26.690155 24292 net.cpp:84] Creating Layer lstm1_unit_12
I0222 17:33:26.690161 24292 net.cpp:406] lstm1_unit_12 <- c_11
I0222 17:33:26.690168 24292 net.cpp:406] lstm1_unit_12 <- gate_input_12
I0222 17:33:26.690174 24292 net.cpp:406] lstm1_unit_12 <- cont_12_lstm1_cont_slice_11_split_1
I0222 17:33:26.690188 24292 net.cpp:380] lstm1_unit_12 -> c_12
I0222 17:33:26.692046 24292 net.cpp:380] lstm1_unit_12 -> h_12
I0222 17:33:26.692104 24292 net.cpp:122] Setting up lstm1_unit_12
I0222 17:33:26.692126 24292 net.cpp:129] Top shape: 1 26 16 (416)
I0222 17:33:26.692147 24292 net.cpp:129] Top shape: 1 26 16 (416)
I0222 17:33:26.692152 24292 net.cpp:137] Memory required for data: 591552
I0222 17:33:26.692157 24292 layer_factory.hpp:77] Creating layer h_12_lstm1_unit_12_1_split
I0222 17:33:26.692163 24292 net.cpp:84] Creating Layer h_12_lstm1_unit_12_1_split
I0222 17:33:26.692168 24292 net.cpp:406] h_12_lstm1_unit_12_1_split <- h_12
I0222 17:33:26.692189 24292 net.cpp:380] h_12_lstm1_unit_12_1_split -> h_12_lstm1_unit_12_1_split_0
I0222 17:33:26.692212 24292 net.cpp:380] h_12_lstm1_unit_12_1_split -> h_12_lstm1_unit_12_1_split_1
I0222 17:33:26.692239 24292 net.cpp:122] Setting up h_12_lstm1_unit_12_1_split
I0222 17:33:26.692246 24292 net.cpp:129] Top shape: 1 26 16 (416)
I0222 17:33:26.692253 24292 net.cpp:129] Top shape: 1 26 16 (416)
I0222 17:33:26.692258 24292 net.cpp:137] Memory required for data: 594880
I0222 17:33:26.692263 24292 layer_factory.hpp:77] Creating layer lstm1_h_conted_12
I0222 17:33:26.692271 24292 net.cpp:84] Creating Layer lstm1_h_conted_12
I0222 17:33:26.692278 24292 net.cpp:406] lstm1_h_conted_12 <- h_12_lstm1_unit_12_1_split_0
I0222 17:33:26.692286 24292 net.cpp:406] lstm1_h_conted_12 <- cont_13_lstm1_cont_slice_12_split_0
I0222 17:33:26.692296 24292 net.cpp:380] lstm1_h_conted_12 -> h_conted_12
I0222 17:33:26.692342 24292 net.cpp:122] Setting up lstm1_h_conted_12
I0222 17:33:26.692350 24292 net.cpp:129] Top shape: 1 26 16 (416)
I0222 17:33:26.692355 24292 net.cpp:137] Memory required for data: 596544
I0222 17:33:26.692361 24292 layer_factory.hpp:77] Creating layer lstm1_transform_13
I0222 17:33:26.692368 24292 net.cpp:84] Creating Layer lstm1_transform_13
I0222 17:33:26.692375 24292 net.cpp:406] lstm1_transform_13 <- h_conted_12
I0222 17:33:26.692382 24292 net.cpp:380] lstm1_transform_13 -> W_hc_h_12
I0222 17:33:26.692430 24292 net.cpp:122] Setting up lstm1_transform_13
I0222 17:33:26.692437 24292 net.cpp:129] Top shape: 1 26 64 (1664)
I0222 17:33:26.692443 24292 net.cpp:137] Memory required for data: 603200
I0222 17:33:26.692450 24292 net.cpp:465] Sharing parameters 'W_hc' owned by layer 'lstm1_transform_1', param index 0
I0222 17:33:26.692454 24292 layer_factory.hpp:77] Creating layer lstm1_gate_input_13
I0222 17:33:26.692463 24292 net.cpp:84] Creating Layer lstm1_gate_input_13
I0222 17:33:26.692469 24292 net.cpp:406] lstm1_gate_input_13 <- W_hc_h_12
I0222 17:33:26.692476 24292 net.cpp:406] lstm1_gate_input_13 <- W_xc_x_13
I0222 17:33:26.692483 24292 net.cpp:380] lstm1_gate_input_13 -> gate_input_13
I0222 17:33:26.692502 24292 net.cpp:122] Setting up lstm1_gate_input_13
I0222 17:33:26.692510 24292 net.cpp:129] Top shape: 1 26 64 (1664)
I0222 17:33:26.692517 24292 net.cpp:137] Memory required for data: 609856
I0222 17:33:26.692522 24292 layer_factory.hpp:77] Creating layer lstm1_unit_13
I0222 17:33:26.692528 24292 net.cpp:84] Creating Layer lstm1_unit_13
I0222 17:33:26.692533 24292 net.cpp:406] lstm1_unit_13 <- c_12
I0222 17:33:26.692540 24292 net.cpp:406] lstm1_unit_13 <- gate_input_13
I0222 17:33:26.692548 24292 net.cpp:406] lstm1_unit_13 <- cont_13_lstm1_cont_slice_12_split_1
I0222 17:33:26.692555 24292 net.cpp:380] lstm1_unit_13 -> c_13
I0222 17:33:26.692564 24292 net.cpp:380] lstm1_unit_13 -> h_13
I0222 17:33:26.692600 24292 net.cpp:122] Setting up lstm1_unit_13
I0222 17:33:26.692607 24292 net.cpp:129] Top shape: 1 26 16 (416)
I0222 17:33:26.692615 24292 net.cpp:129] Top shape: 1 26 16 (416)
I0222 17:33:26.692620 24292 net.cpp:137] Memory required for data: 613184
I0222 17:33:26.692625 24292 layer_factory.hpp:77] Creating layer h_13_lstm1_unit_13_1_split
I0222 17:33:26.692631 24292 net.cpp:84] Creating Layer h_13_lstm1_unit_13_1_split
I0222 17:33:26.692637 24292 net.cpp:406] h_13_lstm1_unit_13_1_split <- h_13
I0222 17:33:26.692644 24292 net.cpp:380] h_13_lstm1_unit_13_1_split -> h_13_lstm1_unit_13_1_split_0
I0222 17:33:26.692661 24292 net.cpp:380] h_13_lstm1_unit_13_1_split -> h_13_lstm1_unit_13_1_split_1
I0222 17:33:26.692688 24292 net.cpp:122] Setting up h_13_lstm1_unit_13_1_split
I0222 17:33:26.692697 24292 net.cpp:129] Top shape: 1 26 16 (416)
I0222 17:33:26.692703 24292 net.cpp:129] Top shape: 1 26 16 (416)
I0222 17:33:26.692708 24292 net.cpp:137] Memory required for data: 616512
I0222 17:33:26.692713 24292 layer_factory.hpp:77] Creating layer lstm1_h_conted_13
I0222 17:33:26.692721 24292 net.cpp:84] Creating Layer lstm1_h_conted_13
I0222 17:33:26.692728 24292 net.cpp:406] lstm1_h_conted_13 <- h_13_lstm1_unit_13_1_split_0
I0222 17:33:26.692734 24292 net.cpp:406] lstm1_h_conted_13 <- cont_14_lstm1_cont_slice_13_split_0
I0222 17:33:26.692742 24292 net.cpp:380] lstm1_h_conted_13 -> h_conted_13
I0222 17:33:26.692790 24292 net.cpp:122] Setting up lstm1_h_conted_13
I0222 17:33:26.692798 24292 net.cpp:129] Top shape: 1 26 16 (416)
I0222 17:33:26.692803 24292 net.cpp:137] Memory required for data: 618176
I0222 17:33:26.692809 24292 layer_factory.hpp:77] Creating layer lstm1_transform_14
I0222 17:33:26.692818 24292 net.cpp:84] Creating Layer lstm1_transform_14
I0222 17:33:26.692824 24292 net.cpp:406] lstm1_transform_14 <- h_conted_13
I0222 17:33:26.692832 24292 net.cpp:380] lstm1_transform_14 -> W_hc_h_13
I0222 17:33:26.692876 24292 net.cpp:122] Setting up lstm1_transform_14
I0222 17:33:26.692885 24292 net.cpp:129] Top shape: 1 26 64 (1664)
I0222 17:33:26.692891 24292 net.cpp:137] Memory required for data: 624832
I0222 17:33:26.692896 24292 net.cpp:465] Sharing parameters 'W_hc' owned by layer 'lstm1_transform_1', param index 0
I0222 17:33:26.692903 24292 layer_factory.hpp:77] Creating layer lstm1_gate_input_14
I0222 17:33:26.692909 24292 net.cpp:84] Creating Layer lstm1_gate_input_14
I0222 17:33:26.692915 24292 net.cpp:406] lstm1_gate_input_14 <- W_hc_h_13
I0222 17:33:26.692921 24292 net.cpp:406] lstm1_gate_input_14 <- W_xc_x_14
I0222 17:33:26.692930 24292 net.cpp:380] lstm1_gate_input_14 -> gate_input_14
I0222 17:33:26.692950 24292 net.cpp:122] Setting up lstm1_gate_input_14
I0222 17:33:26.692957 24292 net.cpp:129] Top shape: 1 26 64 (1664)
I0222 17:33:26.692963 24292 net.cpp:137] Memory required for data: 631488
I0222 17:33:26.692968 24292 layer_factory.hpp:77] Creating layer lstm1_unit_14
I0222 17:33:26.692975 24292 net.cpp:84] Creating Layer lstm1_unit_14
I0222 17:33:26.692981 24292 net.cpp:406] lstm1_unit_14 <- c_13
I0222 17:33:26.692987 24292 net.cpp:406] lstm1_unit_14 <- gate_input_14
I0222 17:33:26.692994 24292 net.cpp:406] lstm1_unit_14 <- cont_14_lstm1_cont_slice_13_split_1
I0222 17:33:26.693001 24292 net.cpp:380] lstm1_unit_14 -> c_14
I0222 17:33:26.693011 24292 net.cpp:380] lstm1_unit_14 -> h_14
I0222 17:33:26.693047 24292 net.cpp:122] Setting up lstm1_unit_14
I0222 17:33:26.693054 24292 net.cpp:129] Top shape: 1 26 16 (416)
I0222 17:33:26.693061 24292 net.cpp:129] Top shape: 1 26 16 (416)
I0222 17:33:26.693066 24292 net.cpp:137] Memory required for data: 634816
I0222 17:33:26.693071 24292 layer_factory.hpp:77] Creating layer h_14_lstm1_unit_14_1_split
I0222 17:33:26.693078 24292 net.cpp:84] Creating Layer h_14_lstm1_unit_14_1_split
I0222 17:33:26.693084 24292 net.cpp:406] h_14_lstm1_unit_14_1_split <- h_14
I0222 17:33:26.693091 24292 net.cpp:380] h_14_lstm1_unit_14_1_split -> h_14_lstm1_unit_14_1_split_0
I0222 17:33:26.693099 24292 net.cpp:380] h_14_lstm1_unit_14_1_split -> h_14_lstm1_unit_14_1_split_1
I0222 17:33:26.693150 24292 net.cpp:122] Setting up h_14_lstm1_unit_14_1_split
I0222 17:33:26.693158 24292 net.cpp:129] Top shape: 1 26 16 (416)
I0222 17:33:26.693164 24292 net.cpp:129] Top shape: 1 26 16 (416)
I0222 17:33:26.693168 24292 net.cpp:137] Memory required for data: 638144
I0222 17:33:26.693173 24292 layer_factory.hpp:77] Creating layer lstm1_h_conted_14
I0222 17:33:26.693202 24292 net.cpp:84] Creating Layer lstm1_h_conted_14
I0222 17:33:26.719295 24292 net.cpp:406] lstm1_h_conted_14 <- h_14_lstm1_unit_14_1_split_0
I0222 17:33:26.719307 24292 net.cpp:406] lstm1_h_conted_14 <- cont_15_lstm1_cont_slice_14_split_0
I0222 17:33:26.719358 24292 net.cpp:380] lstm1_h_conted_14 -> h_conted_14
I0222 17:33:26.719465 24292 net.cpp:122] Setting up lstm1_h_conted_14
I0222 17:33:26.719488 24292 net.cpp:129] Top shape: 1 26 16 (416)
I0222 17:33:26.719493 24292 net.cpp:137] Memory required for data: 639808
I0222 17:33:26.719499 24292 layer_factory.hpp:77] Creating layer lstm1_transform_15
I0222 17:33:26.719507 24292 net.cpp:84] Creating Layer lstm1_transform_15
I0222 17:33:26.719513 24292 net.cpp:406] lstm1_transform_15 <- h_conted_14
I0222 17:33:26.719535 24292 net.cpp:380] lstm1_transform_15 -> W_hc_h_14
I0222 17:33:26.719614 24292 net.cpp:122] Setting up lstm1_transform_15
I0222 17:33:26.719622 24292 net.cpp:129] Top shape: 1 26 64 (1664)
I0222 17:33:26.719641 24292 net.cpp:137] Memory required for data: 646464
I0222 17:33:26.719655 24292 net.cpp:465] Sharing parameters 'W_hc' owned by layer 'lstm1_transform_1', param index 0
I0222 17:33:26.719661 24292 layer_factory.hpp:77] Creating layer lstm1_gate_input_15
I0222 17:33:26.719681 24292 net.cpp:84] Creating Layer lstm1_gate_input_15
I0222 17:33:26.719686 24292 net.cpp:406] lstm1_gate_input_15 <- W_hc_h_14
I0222 17:33:26.719707 24292 net.cpp:406] lstm1_gate_input_15 <- W_xc_x_15
I0222 17:33:26.719714 24292 net.cpp:380] lstm1_gate_input_15 -> gate_input_15
I0222 17:33:26.719736 24292 net.cpp:122] Setting up lstm1_gate_input_15
I0222 17:33:26.719758 24292 net.cpp:129] Top shape: 1 26 64 (1664)
I0222 17:33:26.719777 24292 net.cpp:137] Memory required for data: 653120
I0222 17:33:26.719784 24292 layer_factory.hpp:77] Creating layer lstm1_unit_15
I0222 17:33:26.719791 24292 net.cpp:84] Creating Layer lstm1_unit_15
I0222 17:33:26.719799 24292 net.cpp:406] lstm1_unit_15 <- c_14
I0222 17:33:26.719816 24292 net.cpp:406] lstm1_unit_15 <- gate_input_15
I0222 17:33:26.719822 24292 net.cpp:406] lstm1_unit_15 <- cont_15_lstm1_cont_slice_14_split_1
I0222 17:33:26.719828 24292 net.cpp:380] lstm1_unit_15 -> c_15
I0222 17:33:26.719835 24292 net.cpp:380] lstm1_unit_15 -> h_15
I0222 17:33:26.719873 24292 net.cpp:122] Setting up lstm1_unit_15
I0222 17:33:26.719882 24292 net.cpp:129] Top shape: 1 26 16 (416)
I0222 17:33:26.719887 24292 net.cpp:129] Top shape: 1 26 16 (416)
I0222 17:33:26.719892 24292 net.cpp:137] Memory required for data: 656448
I0222 17:33:26.719895 24292 layer_factory.hpp:77] Creating layer h_15_lstm1_unit_15_1_split
I0222 17:33:26.719902 24292 net.cpp:84] Creating Layer h_15_lstm1_unit_15_1_split
I0222 17:33:26.719905 24292 net.cpp:406] h_15_lstm1_unit_15_1_split <- h_15
I0222 17:33:26.719913 24292 net.cpp:380] h_15_lstm1_unit_15_1_split -> h_15_lstm1_unit_15_1_split_0
I0222 17:33:26.719920 24292 net.cpp:380] h_15_lstm1_unit_15_1_split -> h_15_lstm1_unit_15_1_split_1
I0222 17:33:26.719945 24292 net.cpp:122] Setting up h_15_lstm1_unit_15_1_split
I0222 17:33:26.719952 24292 net.cpp:129] Top shape: 1 26 16 (416)
I0222 17:33:26.719959 24292 net.cpp:129] Top shape: 1 26 16 (416)
I0222 17:33:26.719964 24292 net.cpp:137] Memory required for data: 659776
I0222 17:33:26.719969 24292 layer_factory.hpp:77] Creating layer lstm1_h_conted_15
I0222 17:33:26.719976 24292 net.cpp:84] Creating Layer lstm1_h_conted_15
I0222 17:33:26.719982 24292 net.cpp:406] lstm1_h_conted_15 <- h_15_lstm1_unit_15_1_split_0
I0222 17:33:26.719988 24292 net.cpp:406] lstm1_h_conted_15 <- cont_16_lstm1_cont_slice_15_split_0
I0222 17:33:26.719995 24292 net.cpp:380] lstm1_h_conted_15 -> h_conted_15
I0222 17:33:26.720041 24292 net.cpp:122] Setting up lstm1_h_conted_15
I0222 17:33:26.720049 24292 net.cpp:129] Top shape: 1 26 16 (416)
I0222 17:33:26.720054 24292 net.cpp:137] Memory required for data: 661440
I0222 17:33:26.720059 24292 layer_factory.hpp:77] Creating layer lstm1_transform_16
I0222 17:33:26.720067 24292 net.cpp:84] Creating Layer lstm1_transform_16
I0222 17:33:26.720072 24292 net.cpp:406] lstm1_transform_16 <- h_conted_15
I0222 17:33:26.720080 24292 net.cpp:380] lstm1_transform_16 -> W_hc_h_15
I0222 17:33:26.720129 24292 net.cpp:122] Setting up lstm1_transform_16
I0222 17:33:26.720139 24292 net.cpp:129] Top shape: 1 26 64 (1664)
I0222 17:33:26.720149 24292 net.cpp:137] Memory required for data: 668096
I0222 17:33:26.720155 24292 net.cpp:465] Sharing parameters 'W_hc' owned by layer 'lstm1_transform_1', param index 0
I0222 17:33:26.720161 24292 layer_factory.hpp:77] Creating layer lstm1_gate_input_16
I0222 17:33:26.720168 24292 net.cpp:84] Creating Layer lstm1_gate_input_16
I0222 17:33:26.720175 24292 net.cpp:406] lstm1_gate_input_16 <- W_hc_h_15
I0222 17:33:26.720180 24292 net.cpp:406] lstm1_gate_input_16 <- W_xc_x_16
I0222 17:33:26.720187 24292 net.cpp:380] lstm1_gate_input_16 -> gate_input_16
I0222 17:33:26.720208 24292 net.cpp:122] Setting up lstm1_gate_input_16
I0222 17:33:26.720216 24292 net.cpp:129] Top shape: 1 26 64 (1664)
I0222 17:33:26.720221 24292 net.cpp:137] Memory required for data: 674752
I0222 17:33:26.720227 24292 layer_factory.hpp:77] Creating layer lstm1_unit_16
I0222 17:33:26.720232 24292 net.cpp:84] Creating Layer lstm1_unit_16
I0222 17:33:26.720238 24292 net.cpp:406] lstm1_unit_16 <- c_15
I0222 17:33:26.720244 24292 net.cpp:406] lstm1_unit_16 <- gate_input_16
I0222 17:33:26.720250 24292 net.cpp:406] lstm1_unit_16 <- cont_16_lstm1_cont_slice_15_split_1
I0222 17:33:26.720257 24292 net.cpp:380] lstm1_unit_16 -> c_16
I0222 17:33:26.720265 24292 net.cpp:380] lstm1_unit_16 -> h_16
I0222 17:33:26.720300 24292 net.cpp:122] Setting up lstm1_unit_16
I0222 17:33:26.720307 24292 net.cpp:129] Top shape: 1 26 16 (416)
I0222 17:33:26.720314 24292 net.cpp:129] Top shape: 1 26 16 (416)
I0222 17:33:26.720319 24292 net.cpp:137] Memory required for data: 678080
I0222 17:33:26.720324 24292 layer_factory.hpp:77] Creating layer h_16_lstm1_unit_16_1_split
I0222 17:33:26.720331 24292 net.cpp:84] Creating Layer h_16_lstm1_unit_16_1_split
I0222 17:33:26.720337 24292 net.cpp:406] h_16_lstm1_unit_16_1_split <- h_16
I0222 17:33:26.720345 24292 net.cpp:380] h_16_lstm1_unit_16_1_split -> h_16_lstm1_unit_16_1_split_0
I0222 17:33:26.720352 24292 net.cpp:380] h_16_lstm1_unit_16_1_split -> h_16_lstm1_unit_16_1_split_1
I0222 17:33:26.720378 24292 net.cpp:122] Setting up h_16_lstm1_unit_16_1_split
I0222 17:33:26.720386 24292 net.cpp:129] Top shape: 1 26 16 (416)
I0222 17:33:26.720392 24292 net.cpp:129] Top shape: 1 26 16 (416)
I0222 17:33:26.720397 24292 net.cpp:137] Memory required for data: 681408
I0222 17:33:26.720402 24292 layer_factory.hpp:77] Creating layer lstm1_h_conted_16
I0222 17:33:26.720410 24292 net.cpp:84] Creating Layer lstm1_h_conted_16
I0222 17:33:26.720417 24292 net.cpp:406] lstm1_h_conted_16 <- h_16_lstm1_unit_16_1_split_0
I0222 17:33:26.720423 24292 net.cpp:406] lstm1_h_conted_16 <- cont_17_lstm1_cont_slice_16_split_0
I0222 17:33:26.720430 24292 net.cpp:380] lstm1_h_conted_16 -> h_conted_16
I0222 17:33:26.720474 24292 net.cpp:122] Setting up lstm1_h_conted_16
I0222 17:33:26.720481 24292 net.cpp:129] Top shape: 1 26 16 (416)
I0222 17:33:26.720486 24292 net.cpp:137] Memory required for data: 683072
I0222 17:33:26.720491 24292 layer_factory.hpp:77] Creating layer lstm1_transform_17
I0222 17:33:26.720499 24292 net.cpp:84] Creating Layer lstm1_transform_17
I0222 17:33:26.720504 24292 net.cpp:406] lstm1_transform_17 <- h_conted_16
I0222 17:33:26.720511 24292 net.cpp:380] lstm1_transform_17 -> W_hc_h_16
I0222 17:33:26.720556 24292 net.cpp:122] Setting up lstm1_transform_17
I0222 17:33:26.720563 24292 net.cpp:129] Top shape: 1 26 64 (1664)
I0222 17:33:26.720568 24292 net.cpp:137] Memory required for data: 689728
I0222 17:33:26.720574 24292 net.cpp:465] Sharing parameters 'W_hc' owned by layer 'lstm1_transform_1', param index 0
I0222 17:33:26.720579 24292 layer_factory.hpp:77] Creating layer lstm1_gate_input_17
I0222 17:33:26.720587 24292 net.cpp:84] Creating Layer lstm1_gate_input_17
I0222 17:33:26.722723 24292 net.cpp:406] lstm1_gate_input_17 <- W_hc_h_16
I0222 17:33:26.722730 24292 net.cpp:406] lstm1_gate_input_17 <- W_xc_x_17
I0222 17:33:26.722738 24292 net.cpp:380] lstm1_gate_input_17 -> gate_input_17
I0222 17:33:26.722759 24292 net.cpp:122] Setting up lstm1_gate_input_17
I0222 17:33:26.722767 24292 net.cpp:129] Top shape: 1 26 64 (1664)
I0222 17:33:26.722791 24292 net.cpp:137] Memory required for data: 696384
I0222 17:33:26.722811 24292 layer_factory.hpp:77] Creating layer lstm1_unit_17
I0222 17:33:26.722820 24292 net.cpp:84] Creating Layer lstm1_unit_17
I0222 17:33:26.722826 24292 net.cpp:406] lstm1_unit_17 <- c_16
I0222 17:33:26.722846 24292 net.cpp:406] lstm1_unit_17 <- gate_input_17
I0222 17:33:26.722851 24292 net.cpp:406] lstm1_unit_17 <- cont_17_lstm1_cont_slice_16_split_1
I0222 17:33:26.722872 24292 net.cpp:380] lstm1_unit_17 -> c_17
I0222 17:33:26.722879 24292 net.cpp:380] lstm1_unit_17 -> h_17
I0222 17:33:26.722942 24292 net.cpp:122] Setting up lstm1_unit_17
I0222 17:33:26.722964 24292 net.cpp:129] Top shape: 1 26 16 (416)
I0222 17:33:26.722970 24292 net.cpp:129] Top shape: 1 26 16 (416)
I0222 17:33:26.722988 24292 net.cpp:137] Memory required for data: 699712
I0222 17:33:26.722993 24292 layer_factory.hpp:77] Creating layer h_17_lstm1_unit_17_1_split
I0222 17:33:26.723000 24292 net.cpp:84] Creating Layer h_17_lstm1_unit_17_1_split
I0222 17:33:26.723006 24292 net.cpp:406] h_17_lstm1_unit_17_1_split <- h_17
I0222 17:33:26.723013 24292 net.cpp:380] h_17_lstm1_unit_17_1_split -> h_17_lstm1_unit_17_1_split_0
I0222 17:33:26.723021 24292 net.cpp:380] h_17_lstm1_unit_17_1_split -> h_17_lstm1_unit_17_1_split_1
I0222 17:33:26.723047 24292 net.cpp:122] Setting up h_17_lstm1_unit_17_1_split
I0222 17:33:26.723053 24292 net.cpp:129] Top shape: 1 26 16 (416)
I0222 17:33:26.723059 24292 net.cpp:129] Top shape: 1 26 16 (416)
I0222 17:33:26.723064 24292 net.cpp:137] Memory required for data: 703040
I0222 17:33:26.723069 24292 layer_factory.hpp:77] Creating layer lstm1_h_conted_17
I0222 17:33:26.723078 24292 net.cpp:84] Creating Layer lstm1_h_conted_17
I0222 17:33:26.723084 24292 net.cpp:406] lstm1_h_conted_17 <- h_17_lstm1_unit_17_1_split_0
I0222 17:33:26.723090 24292 net.cpp:406] lstm1_h_conted_17 <- cont_18_lstm1_cont_slice_17_split_0
I0222 17:33:26.723099 24292 net.cpp:380] lstm1_h_conted_17 -> h_conted_17
I0222 17:33:26.723145 24292 net.cpp:122] Setting up lstm1_h_conted_17
I0222 17:33:26.723153 24292 net.cpp:129] Top shape: 1 26 16 (416)
I0222 17:33:26.723158 24292 net.cpp:137] Memory required for data: 704704
I0222 17:33:26.723163 24292 layer_factory.hpp:77] Creating layer lstm1_transform_18
I0222 17:33:26.723170 24292 net.cpp:84] Creating Layer lstm1_transform_18
I0222 17:33:26.723176 24292 net.cpp:406] lstm1_transform_18 <- h_conted_17
I0222 17:33:26.723183 24292 net.cpp:380] lstm1_transform_18 -> W_hc_h_17
I0222 17:33:26.723227 24292 net.cpp:122] Setting up lstm1_transform_18
I0222 17:33:26.723234 24292 net.cpp:129] Top shape: 1 26 64 (1664)
I0222 17:33:26.723240 24292 net.cpp:137] Memory required for data: 711360
I0222 17:33:26.723245 24292 net.cpp:465] Sharing parameters 'W_hc' owned by layer 'lstm1_transform_1', param index 0
I0222 17:33:26.723251 24292 layer_factory.hpp:77] Creating layer lstm1_gate_input_18
I0222 17:33:26.723259 24292 net.cpp:84] Creating Layer lstm1_gate_input_18
I0222 17:33:26.723265 24292 net.cpp:406] lstm1_gate_input_18 <- W_hc_h_17
I0222 17:33:26.723271 24292 net.cpp:406] lstm1_gate_input_18 <- W_xc_x_18
I0222 17:33:26.723278 24292 net.cpp:380] lstm1_gate_input_18 -> gate_input_18
I0222 17:33:26.723297 24292 net.cpp:122] Setting up lstm1_gate_input_18
I0222 17:33:26.723304 24292 net.cpp:129] Top shape: 1 26 64 (1664)
I0222 17:33:26.723310 24292 net.cpp:137] Memory required for data: 718016
I0222 17:33:26.723315 24292 layer_factory.hpp:77] Creating layer lstm1_unit_18
I0222 17:33:26.723321 24292 net.cpp:84] Creating Layer lstm1_unit_18
I0222 17:33:26.723327 24292 net.cpp:406] lstm1_unit_18 <- c_17
I0222 17:33:26.723333 24292 net.cpp:406] lstm1_unit_18 <- gate_input_18
I0222 17:33:26.723340 24292 net.cpp:406] lstm1_unit_18 <- cont_18_lstm1_cont_slice_17_split_1
I0222 17:33:26.723348 24292 net.cpp:380] lstm1_unit_18 -> c_18
I0222 17:33:26.723356 24292 net.cpp:380] lstm1_unit_18 -> h_18
I0222 17:33:26.723392 24292 net.cpp:122] Setting up lstm1_unit_18
I0222 17:33:26.723399 24292 net.cpp:129] Top shape: 1 26 16 (416)
I0222 17:33:26.723412 24292 net.cpp:129] Top shape: 1 26 16 (416)
I0222 17:33:26.723417 24292 net.cpp:137] Memory required for data: 721344
I0222 17:33:26.723421 24292 layer_factory.hpp:77] Creating layer h_18_lstm1_unit_18_1_split
I0222 17:33:26.723428 24292 net.cpp:84] Creating Layer h_18_lstm1_unit_18_1_split
I0222 17:33:26.723433 24292 net.cpp:406] h_18_lstm1_unit_18_1_split <- h_18
I0222 17:33:26.723440 24292 net.cpp:380] h_18_lstm1_unit_18_1_split -> h_18_lstm1_unit_18_1_split_0
I0222 17:33:26.723448 24292 net.cpp:380] h_18_lstm1_unit_18_1_split -> h_18_lstm1_unit_18_1_split_1
I0222 17:33:26.723474 24292 net.cpp:122] Setting up h_18_lstm1_unit_18_1_split
I0222 17:33:26.723482 24292 net.cpp:129] Top shape: 1 26 16 (416)
I0222 17:33:26.723489 24292 net.cpp:129] Top shape: 1 26 16 (416)
I0222 17:33:26.723493 24292 net.cpp:137] Memory required for data: 724672
I0222 17:33:26.723498 24292 layer_factory.hpp:77] Creating layer lstm1_h_conted_18
I0222 17:33:26.723505 24292 net.cpp:84] Creating Layer lstm1_h_conted_18
I0222 17:33:26.723510 24292 net.cpp:406] lstm1_h_conted_18 <- h_18_lstm1_unit_18_1_split_0
I0222 17:33:26.723518 24292 net.cpp:406] lstm1_h_conted_18 <- cont_19_lstm1_cont_slice_18_split_0
I0222 17:33:26.723526 24292 net.cpp:380] lstm1_h_conted_18 -> h_conted_18
I0222 17:33:26.723569 24292 net.cpp:122] Setting up lstm1_h_conted_18
I0222 17:33:26.723577 24292 net.cpp:129] Top shape: 1 26 16 (416)
I0222 17:33:26.723582 24292 net.cpp:137] Memory required for data: 726336
I0222 17:33:26.723587 24292 layer_factory.hpp:77] Creating layer lstm1_transform_19
I0222 17:33:26.723595 24292 net.cpp:84] Creating Layer lstm1_transform_19
I0222 17:33:26.723601 24292 net.cpp:406] lstm1_transform_19 <- h_conted_18
I0222 17:33:26.723608 24292 net.cpp:380] lstm1_transform_19 -> W_hc_h_18
I0222 17:33:26.723654 24292 net.cpp:122] Setting up lstm1_transform_19
I0222 17:33:26.723662 24292 net.cpp:129] Top shape: 1 26 64 (1664)
I0222 17:33:26.723667 24292 net.cpp:137] Memory required for data: 732992
I0222 17:33:26.723673 24292 net.cpp:465] Sharing parameters 'W_hc' owned by layer 'lstm1_transform_1', param index 0
I0222 17:33:26.723678 24292 layer_factory.hpp:77] Creating layer lstm1_gate_input_19
I0222 17:33:26.723685 24292 net.cpp:84] Creating Layer lstm1_gate_input_19
I0222 17:33:26.723690 24292 net.cpp:406] lstm1_gate_input_19 <- W_hc_h_18
I0222 17:33:26.723696 24292 net.cpp:406] lstm1_gate_input_19 <- W_xc_x_19
I0222 17:33:26.723706 24292 net.cpp:380] lstm1_gate_input_19 -> gate_input_19
I0222 17:33:26.723724 24292 net.cpp:122] Setting up lstm1_gate_input_19
I0222 17:33:26.723731 24292 net.cpp:129] Top shape: 1 26 64 (1664)
I0222 17:33:26.723737 24292 net.cpp:137] Memory required for data: 739648
I0222 17:33:26.723742 24292 layer_factory.hpp:77] Creating layer lstm1_unit_19
I0222 17:33:26.723748 24292 net.cpp:84] Creating Layer lstm1_unit_19
I0222 17:33:26.723768 24292 net.cpp:406] lstm1_unit_19 <- c_18
I0222 17:33:26.723775 24292 net.cpp:406] lstm1_unit_19 <- gate_input_19
I0222 17:33:26.723783 24292 net.cpp:406] lstm1_unit_19 <- cont_19_lstm1_cont_slice_18_split_1
I0222 17:33:26.723789 24292 net.cpp:380] lstm1_unit_19 -> c_19
I0222 17:33:26.723798 24292 net.cpp:380] lstm1_unit_19 -> h_19
I0222 17:33:26.723846 24292 net.cpp:122] Setting up lstm1_unit_19
I0222 17:33:26.723870 24292 net.cpp:129] Top shape: 1 26 16 (416)
I0222 17:33:26.723892 24292 net.cpp:129] Top shape: 1 26 16 (416)
I0222 17:33:26.723897 24292 net.cpp:137] Memory required for data: 742976
I0222 17:33:26.723903 24292 layer_factory.hpp:77] Creating layer h_19_lstm1_unit_19_1_split
I0222 17:33:26.723909 24292 net.cpp:84] Creating Layer h_19_lstm1_unit_19_1_split
I0222 17:33:26.723915 24292 net.cpp:406] h_19_lstm1_unit_19_1_split <- h_19
I0222 17:33:26.723922 24292 net.cpp:380] h_19_lstm1_unit_19_1_split -> h_19_lstm1_unit_19_1_split_0
I0222 17:33:26.723930 24292 net.cpp:380] h_19_lstm1_unit_19_1_split -> h_19_lstm1_unit_19_1_split_1
I0222 17:33:26.749902 24292 net.cpp:122] Setting up h_19_lstm1_unit_19_1_split
I0222 17:33:26.749914 24292 net.cpp:129] Top shape: 1 26 16 (416)
I0222 17:33:26.749930 24292 net.cpp:129] Top shape: 1 26 16 (416)
I0222 17:33:26.749935 24292 net.cpp:137] Memory required for data: 746304
I0222 17:33:26.749940 24292 layer_factory.hpp:77] Creating layer lstm1_h_conted_19
I0222 17:33:26.749948 24292 net.cpp:84] Creating Layer lstm1_h_conted_19
I0222 17:33:26.749953 24292 net.cpp:406] lstm1_h_conted_19 <- h_19_lstm1_unit_19_1_split_0
I0222 17:33:26.749961 24292 net.cpp:406] lstm1_h_conted_19 <- cont_20_lstm1_cont_slice_19_split_0
I0222 17:33:26.749970 24292 net.cpp:380] lstm1_h_conted_19 -> h_conted_19
I0222 17:33:26.750021 24292 net.cpp:122] Setting up lstm1_h_conted_19
I0222 17:33:26.750030 24292 net.cpp:129] Top shape: 1 26 16 (416)
I0222 17:33:26.750035 24292 net.cpp:137] Memory required for data: 747968
I0222 17:33:26.750039 24292 layer_factory.hpp:77] Creating layer lstm1_transform_20
I0222 17:33:26.750046 24292 net.cpp:84] Creating Layer lstm1_transform_20
I0222 17:33:26.750051 24292 net.cpp:406] lstm1_transform_20 <- h_conted_19
I0222 17:33:26.750061 24292 net.cpp:380] lstm1_transform_20 -> W_hc_h_19
I0222 17:33:26.750109 24292 net.cpp:122] Setting up lstm1_transform_20
I0222 17:33:26.750119 24292 net.cpp:129] Top shape: 1 26 64 (1664)
I0222 17:33:26.750123 24292 net.cpp:137] Memory required for data: 754624
I0222 17:33:26.750128 24292 net.cpp:465] Sharing parameters 'W_hc' owned by layer 'lstm1_transform_1', param index 0
I0222 17:33:26.750133 24292 layer_factory.hpp:77] Creating layer lstm1_gate_input_20
I0222 17:33:26.750140 24292 net.cpp:84] Creating Layer lstm1_gate_input_20
I0222 17:33:26.750145 24292 net.cpp:406] lstm1_gate_input_20 <- W_hc_h_19
I0222 17:33:26.750151 24292 net.cpp:406] lstm1_gate_input_20 <- W_xc_x_20
I0222 17:33:26.750159 24292 net.cpp:380] lstm1_gate_input_20 -> gate_input_20
I0222 17:33:26.750180 24292 net.cpp:122] Setting up lstm1_gate_input_20
I0222 17:33:26.750190 24292 net.cpp:129] Top shape: 1 26 64 (1664)
I0222 17:33:26.750195 24292 net.cpp:137] Memory required for data: 761280
I0222 17:33:26.750200 24292 layer_factory.hpp:77] Creating layer lstm1_unit_20
I0222 17:33:26.750206 24292 net.cpp:84] Creating Layer lstm1_unit_20
I0222 17:33:26.750213 24292 net.cpp:406] lstm1_unit_20 <- c_19
I0222 17:33:26.750219 24292 net.cpp:406] lstm1_unit_20 <- gate_input_20
I0222 17:33:26.750226 24292 net.cpp:406] lstm1_unit_20 <- cont_20_lstm1_cont_slice_19_split_1
I0222 17:33:26.750234 24292 net.cpp:380] lstm1_unit_20 -> c_20
I0222 17:33:26.750244 24292 net.cpp:380] lstm1_unit_20 -> h_20
I0222 17:33:26.750284 24292 net.cpp:122] Setting up lstm1_unit_20
I0222 17:33:26.750293 24292 net.cpp:129] Top shape: 1 26 16 (416)
I0222 17:33:26.750300 24292 net.cpp:129] Top shape: 1 26 16 (416)
I0222 17:33:26.750305 24292 net.cpp:137] Memory required for data: 764608
I0222 17:33:26.750310 24292 layer_factory.hpp:77] Creating layer h_20_lstm1_unit_20_1_split
I0222 17:33:26.750332 24292 net.cpp:84] Creating Layer h_20_lstm1_unit_20_1_split
I0222 17:33:26.750339 24292 net.cpp:406] h_20_lstm1_unit_20_1_split <- h_20
I0222 17:33:26.750349 24292 net.cpp:380] h_20_lstm1_unit_20_1_split -> h_20_lstm1_unit_20_1_split_0
I0222 17:33:26.750357 24292 net.cpp:380] h_20_lstm1_unit_20_1_split -> h_20_lstm1_unit_20_1_split_1
I0222 17:33:26.750386 24292 net.cpp:122] Setting up h_20_lstm1_unit_20_1_split
I0222 17:33:26.750396 24292 net.cpp:129] Top shape: 1 26 16 (416)
I0222 17:33:26.750401 24292 net.cpp:129] Top shape: 1 26 16 (416)
I0222 17:33:26.750406 24292 net.cpp:137] Memory required for data: 767936
I0222 17:33:26.750411 24292 layer_factory.hpp:77] Creating layer lstm1_h_conted_20
I0222 17:33:26.750421 24292 net.cpp:84] Creating Layer lstm1_h_conted_20
I0222 17:33:26.750427 24292 net.cpp:406] lstm1_h_conted_20 <- h_20_lstm1_unit_20_1_split_0
I0222 17:33:26.750433 24292 net.cpp:406] lstm1_h_conted_20 <- cont_21_lstm1_cont_slice_20_split_0
I0222 17:33:26.750442 24292 net.cpp:380] lstm1_h_conted_20 -> h_conted_20
I0222 17:33:26.750488 24292 net.cpp:122] Setting up lstm1_h_conted_20
I0222 17:33:26.750496 24292 net.cpp:129] Top shape: 1 26 16 (416)
I0222 17:33:26.750510 24292 net.cpp:137] Memory required for data: 769600
I0222 17:33:26.750516 24292 layer_factory.hpp:77] Creating layer lstm1_transform_21
I0222 17:33:26.750524 24292 net.cpp:84] Creating Layer lstm1_transform_21
I0222 17:33:26.750530 24292 net.cpp:406] lstm1_transform_21 <- h_conted_20
I0222 17:33:26.750537 24292 net.cpp:380] lstm1_transform_21 -> W_hc_h_20
I0222 17:33:26.750583 24292 net.cpp:122] Setting up lstm1_transform_21
I0222 17:33:26.750593 24292 net.cpp:129] Top shape: 1 26 64 (1664)
I0222 17:33:26.750598 24292 net.cpp:137] Memory required for data: 776256
I0222 17:33:26.750604 24292 net.cpp:465] Sharing parameters 'W_hc' owned by layer 'lstm1_transform_1', param index 0
I0222 17:33:26.750610 24292 layer_factory.hpp:77] Creating layer lstm1_gate_input_21
I0222 17:33:26.750618 24292 net.cpp:84] Creating Layer lstm1_gate_input_21
I0222 17:33:26.750624 24292 net.cpp:406] lstm1_gate_input_21 <- W_hc_h_20
I0222 17:33:26.750632 24292 net.cpp:406] lstm1_gate_input_21 <- W_xc_x_21
I0222 17:33:26.750638 24292 net.cpp:380] lstm1_gate_input_21 -> gate_input_21
I0222 17:33:26.750658 24292 net.cpp:122] Setting up lstm1_gate_input_21
I0222 17:33:26.750666 24292 net.cpp:129] Top shape: 1 26 64 (1664)
I0222 17:33:26.750671 24292 net.cpp:137] Memory required for data: 782912
I0222 17:33:26.750676 24292 layer_factory.hpp:77] Creating layer lstm1_unit_21
I0222 17:33:26.750684 24292 net.cpp:84] Creating Layer lstm1_unit_21
I0222 17:33:26.750689 24292 net.cpp:406] lstm1_unit_21 <- c_20
I0222 17:33:26.750696 24292 net.cpp:406] lstm1_unit_21 <- gate_input_21
I0222 17:33:26.750702 24292 net.cpp:406] lstm1_unit_21 <- cont_21_lstm1_cont_slice_20_split_1
I0222 17:33:26.750711 24292 net.cpp:380] lstm1_unit_21 -> c_21
I0222 17:33:26.750720 24292 net.cpp:380] lstm1_unit_21 -> h_21
I0222 17:33:26.750756 24292 net.cpp:122] Setting up lstm1_unit_21
I0222 17:33:26.750764 24292 net.cpp:129] Top shape: 1 26 16 (416)
I0222 17:33:26.750771 24292 net.cpp:129] Top shape: 1 26 16 (416)
I0222 17:33:26.750777 24292 net.cpp:137] Memory required for data: 786240
I0222 17:33:26.750782 24292 layer_factory.hpp:77] Creating layer h_21_lstm1_unit_21_1_split
I0222 17:33:26.750788 24292 net.cpp:84] Creating Layer h_21_lstm1_unit_21_1_split
I0222 17:33:26.750793 24292 net.cpp:406] h_21_lstm1_unit_21_1_split <- h_21
I0222 17:33:26.750802 24292 net.cpp:380] h_21_lstm1_unit_21_1_split -> h_21_lstm1_unit_21_1_split_0
I0222 17:33:26.750809 24292 net.cpp:380] h_21_lstm1_unit_21_1_split -> h_21_lstm1_unit_21_1_split_1
I0222 17:33:26.750836 24292 net.cpp:122] Setting up h_21_lstm1_unit_21_1_split
I0222 17:33:26.750845 24292 net.cpp:129] Top shape: 1 26 16 (416)
I0222 17:33:26.750851 24292 net.cpp:129] Top shape: 1 26 16 (416)
I0222 17:33:26.750856 24292 net.cpp:137] Memory required for data: 789568
I0222 17:33:26.750861 24292 layer_factory.hpp:77] Creating layer lstm1_h_conted_21
I0222 17:33:26.750869 24292 net.cpp:84] Creating Layer lstm1_h_conted_21
I0222 17:33:26.750875 24292 net.cpp:406] lstm1_h_conted_21 <- h_21_lstm1_unit_21_1_split_0
I0222 17:33:26.750882 24292 net.cpp:406] lstm1_h_conted_21 <- cont_22_lstm1_cont_slice_21_split_0
I0222 17:33:26.750890 24292 net.cpp:380] lstm1_h_conted_21 -> h_conted_21
I0222 17:33:26.750938 24292 net.cpp:122] Setting up lstm1_h_conted_21
I0222 17:33:26.750947 24292 net.cpp:129] Top shape: 1 26 16 (416)
I0222 17:33:26.750952 24292 net.cpp:137] Memory required for data: 791232
I0222 17:33:26.750958 24292 layer_factory.hpp:77] Creating layer lstm1_transform_22
I0222 17:33:26.750967 24292 net.cpp:84] Creating Layer lstm1_transform_22
I0222 17:33:26.750972 24292 net.cpp:406] lstm1_transform_22 <- h_conted_21
I0222 17:33:26.750980 24292 net.cpp:380] lstm1_transform_22 -> W_hc_h_21
I0222 17:33:26.754010 24292 net.cpp:122] Setting up lstm1_transform_22
I0222 17:33:26.754020 24292 net.cpp:129] Top shape: 1 26 64 (1664)
I0222 17:33:26.754039 24292 net.cpp:137] Memory required for data: 797888
I0222 17:33:26.754043 24292 net.cpp:465] Sharing parameters 'W_hc' owned by layer 'lstm1_transform_1', param index 0
I0222 17:33:26.754063 24292 layer_factory.hpp:77] Creating layer lstm1_gate_input_22
I0222 17:33:26.754078 24292 net.cpp:84] Creating Layer lstm1_gate_input_22
I0222 17:33:26.754084 24292 net.cpp:406] lstm1_gate_input_22 <- W_hc_h_21
I0222 17:33:26.754091 24292 net.cpp:406] lstm1_gate_input_22 <- W_xc_x_22
I0222 17:33:26.754101 24292 net.cpp:380] lstm1_gate_input_22 -> gate_input_22
I0222 17:33:26.754120 24292 net.cpp:122] Setting up lstm1_gate_input_22
I0222 17:33:26.754129 24292 net.cpp:129] Top shape: 1 26 64 (1664)
I0222 17:33:26.754134 24292 net.cpp:137] Memory required for data: 804544
I0222 17:33:26.754140 24292 layer_factory.hpp:77] Creating layer lstm1_unit_22
I0222 17:33:26.754148 24292 net.cpp:84] Creating Layer lstm1_unit_22
I0222 17:33:26.754153 24292 net.cpp:406] lstm1_unit_22 <- c_21
I0222 17:33:26.754159 24292 net.cpp:406] lstm1_unit_22 <- gate_input_22
I0222 17:33:26.754166 24292 net.cpp:406] lstm1_unit_22 <- cont_22_lstm1_cont_slice_21_split_1
I0222 17:33:26.754173 24292 net.cpp:380] lstm1_unit_22 -> c_22
I0222 17:33:26.754182 24292 net.cpp:380] lstm1_unit_22 -> h_22
I0222 17:33:26.754221 24292 net.cpp:122] Setting up lstm1_unit_22
I0222 17:33:26.754230 24292 net.cpp:129] Top shape: 1 26 16 (416)
I0222 17:33:26.754236 24292 net.cpp:129] Top shape: 1 26 16 (416)
I0222 17:33:26.754241 24292 net.cpp:137] Memory required for data: 807872
I0222 17:33:26.754247 24292 layer_factory.hpp:77] Creating layer h_22_lstm1_unit_22_1_split
I0222 17:33:26.754253 24292 net.cpp:84] Creating Layer h_22_lstm1_unit_22_1_split
I0222 17:33:26.754259 24292 net.cpp:406] h_22_lstm1_unit_22_1_split <- h_22
I0222 17:33:26.754266 24292 net.cpp:380] h_22_lstm1_unit_22_1_split -> h_22_lstm1_unit_22_1_split_0
I0222 17:33:26.754274 24292 net.cpp:380] h_22_lstm1_unit_22_1_split -> h_22_lstm1_unit_22_1_split_1
I0222 17:33:26.754302 24292 net.cpp:122] Setting up h_22_lstm1_unit_22_1_split
I0222 17:33:26.754312 24292 net.cpp:129] Top shape: 1 26 16 (416)
I0222 17:33:26.754318 24292 net.cpp:129] Top shape: 1 26 16 (416)
I0222 17:33:26.754323 24292 net.cpp:137] Memory required for data: 811200
I0222 17:33:26.754328 24292 layer_factory.hpp:77] Creating layer lstm1_h_conted_22
I0222 17:33:26.754335 24292 net.cpp:84] Creating Layer lstm1_h_conted_22
I0222 17:33:26.754341 24292 net.cpp:406] lstm1_h_conted_22 <- h_22_lstm1_unit_22_1_split_0
I0222 17:33:26.754348 24292 net.cpp:406] lstm1_h_conted_22 <- cont_23_lstm1_cont_slice_22_split_0
I0222 17:33:26.754359 24292 net.cpp:380] lstm1_h_conted_22 -> h_conted_22
I0222 17:33:26.754406 24292 net.cpp:122] Setting up lstm1_h_conted_22
I0222 17:33:26.754415 24292 net.cpp:129] Top shape: 1 26 16 (416)
I0222 17:33:26.754420 24292 net.cpp:137] Memory required for data: 812864
I0222 17:33:26.754426 24292 layer_factory.hpp:77] Creating layer lstm1_transform_23
I0222 17:33:26.754433 24292 net.cpp:84] Creating Layer lstm1_transform_23
I0222 17:33:26.754439 24292 net.cpp:406] lstm1_transform_23 <- h_conted_22
I0222 17:33:26.754447 24292 net.cpp:380] lstm1_transform_23 -> W_hc_h_22
I0222 17:33:26.754514 24292 net.cpp:122] Setting up lstm1_transform_23
I0222 17:33:26.754525 24292 net.cpp:129] Top shape: 1 26 64 (1664)
I0222 17:33:26.754532 24292 net.cpp:137] Memory required for data: 819520
I0222 17:33:26.754539 24292 net.cpp:465] Sharing parameters 'W_hc' owned by layer 'lstm1_transform_1', param index 0
I0222 17:33:26.754544 24292 layer_factory.hpp:77] Creating layer lstm1_gate_input_23
I0222 17:33:26.754551 24292 net.cpp:84] Creating Layer lstm1_gate_input_23
I0222 17:33:26.754557 24292 net.cpp:406] lstm1_gate_input_23 <- W_hc_h_22
I0222 17:33:26.754564 24292 net.cpp:406] lstm1_gate_input_23 <- W_xc_x_23
I0222 17:33:26.754570 24292 net.cpp:380] lstm1_gate_input_23 -> gate_input_23
I0222 17:33:26.754591 24292 net.cpp:122] Setting up lstm1_gate_input_23
I0222 17:33:26.754600 24292 net.cpp:129] Top shape: 1 26 64 (1664)
I0222 17:33:26.754604 24292 net.cpp:137] Memory required for data: 826176
I0222 17:33:26.754609 24292 layer_factory.hpp:77] Creating layer lstm1_unit_23
I0222 17:33:26.754618 24292 net.cpp:84] Creating Layer lstm1_unit_23
I0222 17:33:26.754632 24292 net.cpp:406] lstm1_unit_23 <- c_22
I0222 17:33:26.754639 24292 net.cpp:406] lstm1_unit_23 <- gate_input_23
I0222 17:33:26.754645 24292 net.cpp:406] lstm1_unit_23 <- cont_23_lstm1_cont_slice_22_split_1
I0222 17:33:26.754653 24292 net.cpp:380] lstm1_unit_23 -> c_23
I0222 17:33:26.754662 24292 net.cpp:380] lstm1_unit_23 -> h_23
I0222 17:33:26.754699 24292 net.cpp:122] Setting up lstm1_unit_23
I0222 17:33:26.754707 24292 net.cpp:129] Top shape: 1 26 16 (416)
I0222 17:33:26.754714 24292 net.cpp:129] Top shape: 1 26 16 (416)
I0222 17:33:26.754719 24292 net.cpp:137] Memory required for data: 829504
I0222 17:33:26.754724 24292 layer_factory.hpp:77] Creating layer h_23_lstm1_unit_23_1_split
I0222 17:33:26.754730 24292 net.cpp:84] Creating Layer h_23_lstm1_unit_23_1_split
I0222 17:33:26.754736 24292 net.cpp:406] h_23_lstm1_unit_23_1_split <- h_23
I0222 17:33:26.754745 24292 net.cpp:380] h_23_lstm1_unit_23_1_split -> h_23_lstm1_unit_23_1_split_0
I0222 17:33:26.754753 24292 net.cpp:380] h_23_lstm1_unit_23_1_split -> h_23_lstm1_unit_23_1_split_1
I0222 17:33:26.754779 24292 net.cpp:122] Setting up h_23_lstm1_unit_23_1_split
I0222 17:33:26.754788 24292 net.cpp:129] Top shape: 1 26 16 (416)
I0222 17:33:26.754794 24292 net.cpp:129] Top shape: 1 26 16 (416)
I0222 17:33:26.754799 24292 net.cpp:137] Memory required for data: 832832
I0222 17:33:26.754804 24292 layer_factory.hpp:77] Creating layer lstm1_h_conted_23
I0222 17:33:26.754812 24292 net.cpp:84] Creating Layer lstm1_h_conted_23
I0222 17:33:26.754818 24292 net.cpp:406] lstm1_h_conted_23 <- h_23_lstm1_unit_23_1_split_0
I0222 17:33:26.754825 24292 net.cpp:406] lstm1_h_conted_23 <- cont_24_lstm1_cont_slice_23_split_0
I0222 17:33:26.754833 24292 net.cpp:380] lstm1_h_conted_23 -> h_conted_23
I0222 17:33:26.754882 24292 net.cpp:122] Setting up lstm1_h_conted_23
I0222 17:33:26.754891 24292 net.cpp:129] Top shape: 1 26 16 (416)
I0222 17:33:26.754896 24292 net.cpp:137] Memory required for data: 834496
I0222 17:33:26.754901 24292 layer_factory.hpp:77] Creating layer lstm1_transform_24
I0222 17:33:26.754909 24292 net.cpp:84] Creating Layer lstm1_transform_24
I0222 17:33:26.754915 24292 net.cpp:406] lstm1_transform_24 <- h_conted_23
I0222 17:33:26.754923 24292 net.cpp:380] lstm1_transform_24 -> W_hc_h_23
I0222 17:33:26.754968 24292 net.cpp:122] Setting up lstm1_transform_24
I0222 17:33:26.754977 24292 net.cpp:129] Top shape: 1 26 64 (1664)
I0222 17:33:26.754982 24292 net.cpp:137] Memory required for data: 841152
I0222 17:33:26.754988 24292 net.cpp:465] Sharing parameters 'W_hc' owned by layer 'lstm1_transform_1', param index 0
I0222 17:33:26.754994 24292 layer_factory.hpp:77] Creating layer lstm1_gate_input_24
I0222 17:33:26.755002 24292 net.cpp:84] Creating Layer lstm1_gate_input_24
I0222 17:33:26.755008 24292 net.cpp:406] lstm1_gate_input_24 <- W_hc_h_23
I0222 17:33:26.755015 24292 net.cpp:406] lstm1_gate_input_24 <- W_xc_x_24
I0222 17:33:26.755023 24292 net.cpp:380] lstm1_gate_input_24 -> gate_input_24
I0222 17:33:26.755043 24292 net.cpp:122] Setting up lstm1_gate_input_24
I0222 17:33:26.755051 24292 net.cpp:129] Top shape: 1 26 64 (1664)
I0222 17:33:26.755056 24292 net.cpp:137] Memory required for data: 847808
I0222 17:33:26.755061 24292 layer_factory.hpp:77] Creating layer lstm1_unit_24
I0222 17:33:26.755069 24292 net.cpp:84] Creating Layer lstm1_unit_24
I0222 17:33:26.755074 24292 net.cpp:406] lstm1_unit_24 <- c_23
I0222 17:33:26.755080 24292 net.cpp:406] lstm1_unit_24 <- gate_input_24
I0222 17:33:26.780120 24292 net.cpp:406] lstm1_unit_24 <- cont_24_lstm1_cont_slice_23_split_1
I0222 17:33:26.780138 24292 net.cpp:380] lstm1_unit_24 -> c_24
I0222 17:33:26.780161 24292 net.cpp:380] lstm1_unit_24 -> h_24
I0222 17:33:26.780237 24292 net.cpp:122] Setting up lstm1_unit_24
I0222 17:33:26.780261 24292 net.cpp:129] Top shape: 1 26 16 (416)
I0222 17:33:26.780268 24292 net.cpp:129] Top shape: 1 26 16 (416)
I0222 17:33:26.780273 24292 net.cpp:137] Memory required for data: 851136
I0222 17:33:26.780278 24292 layer_factory.hpp:77] Creating layer lstm1_
I0222 17:33:26.780285 24292 net.cpp:84] Creating Layer lstm1_
I0222 17:33:26.780329 24292 net.cpp:406] lstm1_ <- c_24
I0222 17:33:26.780339 24292 net.cpp:380] lstm1_ -> c_T
I0222 17:33:26.780359 24292 net.cpp:122] Setting up lstm1_
I0222 17:33:26.780381 24292 net.cpp:129] Top shape: 1 26 16 (416)
I0222 17:33:26.780385 24292 net.cpp:137] Memory required for data: 852800
I0222 17:33:26.780390 24292 layer_factory.hpp:77] Creating layer lstm1_h_concat
I0222 17:33:26.780414 24292 net.cpp:84] Creating Layer lstm1_h_concat
I0222 17:33:26.780421 24292 net.cpp:406] lstm1_h_concat <- h_1_lstm1_unit_1_1_split_1
I0222 17:33:26.780426 24292 net.cpp:406] lstm1_h_concat <- h_2_lstm1_unit_2_1_split_1
…
