…
  top: "data"
  data_param {
    source: "/home/leonida/ThesisCode/LSTM_on_Create2/NavDatabases/LAB-21-2-new-step-condition/states_db-2-21-15-4_lmdb"
    batch_size: 24
    backend: LMDB
  }
}
layer {
  name: "label"
  type: "Data"
  top: "labels"
  data_param {
    source: "/home/leonida/ThesisCode/LSTM_on_Create2/NavDatabases/LAB-21-2-new-step-condition/labels_db-2-21-15-4_twist-variant_lmdb"
    batch_size: 24
    backend: LMDB
  }
}
layer {
  name: "clip"
  type: "Input"
  top: "clip"
  input_param {
    shape {
      dim: 24
      dim: 26
    }
  }
}
layer {
  name: "lstm1"
  type: "LSTM"
  bottom: "data"
  bottom: "clip"
  top: "lstm1"
  recurrent_param {
    num_output: 64
    weight_filler {
      type: "xavier"
    }
    bias_filler {
      type: "constant"
    }
  }
}
layer {
  name: "bn1"
  type: "BatchNorm"
  bottom: "lstm1"
  top: "bn1"
  batch_norm_param {
    use_global_stats: false
  }
}
layer {
  name: "lstm2"
  type: "LSTM"
  bottom: "bn1"
  bottom: "clip"
  top: "lstm2"
  recurrent_param {
    num_output: 64
    weight_filler {
      type: "xavier"
    }
    bias_filler {
      type: "constant"
    }
  }
}
layer {
  name: "bn2"
  type: "BatchNorm"
  bottom: "lstm2"
  top: "bn2"
  batch_norm_param {
    use_global_stats: false
  }
}
layer {
  name: "lstm3"
  type: "LSTM"
  bottom: "bn2"
  bottom: "clip"
  top: "lstm3"
  recurrent_param {
    num_output: 64
    weight_filler {
      type: "xavier"
    }
    bias_filler {
      type: "constant"
    }
  }
}
layer {
  name: "bn3"
  type: "BatchNorm"
  bottom: "lstm3"
  top: "bn3"
  batch_norm_param {
    use_global_stats: false
  }
}
layer {
  name: "lstm4"
  type: "LSTM"
  bottom: "bn3"
  bottom: "clip"
  top: "lstm4"
  recurrent_param {
    num_output: 64
    weight_filler {
      type: "xavier"
    }
    bias_filler {
      type: "constant"
    }
  }
}
layer {
  name: "out"
  type: "InnerProduct"
  bottom: "lstm4"
  top: "out"
  inner_product_param {
    num_output: 2
    weight_filler {
      type: "gaussian"
      std: 0.1
    }
    bias_filler {
      type: "constant"
    }
  }
}
layer {
  name: "euclideanLoss"
  type: "EuclideanLoss"
  bottom: "out"
  bottom: "labels"
  top: "loss"
}
I0222 17:54:00.992245 25770 layer_factory.hpp:77] Creating layer data
I0222 17:54:00.992322 25770 db_lmdb.cpp:35] Opened lmdb /home/leonida/ThesisCode/LSTM_on_Create2/NavDatabases/LAB-21-2-new-step-condition/states_db-2-21-15-4_lmdb
I0222 17:54:00.992341 25770 net.cpp:84] Creating Layer data
I0222 17:54:00.992348 25770 net.cpp:380] data -> data
I0222 17:54:00.993039 25770 data_layer.cpp:45] output data size: 24,26,1,1
I0222 17:54:00.994179 25770 net.cpp:122] Setting up data
I0222 17:54:00.994197 25770 net.cpp:129] Top shape: 24 26 1 1 (624)
I0222 17:54:00.994201 25770 net.cpp:137] Memory required for data: 2496
I0222 17:54:00.994207 25770 layer_factory.hpp:77] Creating layer label
I0222 17:54:00.994252 25770 db_lmdb.cpp:35] Opened lmdb /home/leonida/ThesisCode/LSTM_on_Create2/NavDatabases/LAB-21-2-new-step-condition/labels_db-2-21-15-4_twist-variant_lmdb
I0222 17:54:00.994271 25770 net.cpp:84] Creating Layer label
I0222 17:54:00.994277 25770 net.cpp:380] label -> labels
I0222 17:54:00.994333 25770 data_layer.cpp:45] output data size: 24,2,1,1
I0222 17:54:00.994484 25770 net.cpp:122] Setting up label
I0222 17:54:00.994493 25770 net.cpp:129] Top shape: 24 2 1 1 (48)
I0222 17:54:00.994496 25770 net.cpp:137] Memory required for data: 2688
I0222 17:54:00.994499 25770 layer_factory.hpp:77] Creating layer clip
I0222 17:54:00.994510 25770 net.cpp:84] Creating Layer clip
I0222 17:54:00.994514 25770 net.cpp:380] clip -> clip
I0222 17:54:00.994571 25770 net.cpp:122] Setting up clip
I0222 17:54:00.994577 25770 net.cpp:129] Top shape: 24 26 (624)
I0222 17:54:00.994580 25770 net.cpp:137] Memory required for data: 5184
I0222 17:54:00.994582 25770 layer_factory.hpp:77] Creating layer clip_clip_0_split
I0222 17:54:00.994602 25770 net.cpp:84] Creating Layer clip_clip_0_split
I0222 17:54:00.994621 25770 net.cpp:406] clip_clip_0_split <- clip
I0222 17:54:00.994628 25770 net.cpp:380] clip_clip_0_split -> clip_clip_0_split_0
I0222 17:54:00.994633 25770 net.cpp:380] clip_clip_0_split -> clip_clip_0_split_1
I0222 17:54:00.994638 25770 net.cpp:380] clip_clip_0_split -> clip_clip_0_split_2
I0222 17:54:00.994657 25770 net.cpp:380] clip_clip_0_split -> clip_clip_0_split_3
I0222 17:54:00.994719 25770 net.cpp:122] Setting up clip_clip_0_split
I0222 17:54:00.994724 25770 net.cpp:129] Top shape: 24 26 (624)
I0222 17:54:00.994742 25770 net.cpp:129] Top shape: 24 26 (624)
I0222 17:54:00.994746 25770 net.cpp:129] Top shape: 24 26 (624)
I0222 17:54:00.994750 25770 net.cpp:129] Top shape: 24 26 (624)
I0222 17:54:00.994752 25770 net.cpp:137] Memory required for data: 15168
I0222 17:54:00.994755 25770 layer_factory.hpp:77] Creating layer lstm1
I0222 17:54:00.994761 25770 net.cpp:84] Creating Layer lstm1
I0222 17:54:00.994765 25770 net.cpp:406] lstm1 <- data
I0222 17:54:00.994768 25770 net.cpp:406] lstm1 <- clip_clip_0_split_0
I0222 17:54:00.994772 25770 net.cpp:380] lstm1 -> lstm1
I0222 17:54:00.994781 25770 recurrent_layer.cpp:20] Initializing recurrent layer: assuming input batch contains 24 timesteps of 26 independent streams.
I0222 17:54:00.995291 25770 net.cpp:51] Initializing net from parameters: 
layer {
  name: "lstm1_"
  type: "Input"
  top: "x"
  top: "cont"
  input_param {
    shape {
      dim: 24
      dim: 26
      dim: 1
      dim: 1
    }
    shape {
      dim: 24
      dim: 26
    }
  }
}
layer {
  name: "lstm1_"
  type: "Input"
  top: "c_0"
  top: "h_0"
  input_param {
    shape {
      dim: 1
      dim: 26
      dim: 64
    }
    shape {
      dim: 1
      dim: 26
      dim: 64
    }
  }
}
layer {
  name: "lstm1_cont_slice"
  type: "Slice"
  bottom: "cont"
  top: "cont_1"
  top: "cont_2"
  top: "cont_3"
  top: "cont_4"
  top: "cont_5"
  top: "cont_6"
  top: "cont_7"
  top: "cont_8"
  top: "cont_9"
  top: "cont_10"
  top: "cont_11"
  top: "cont_12"
  top: "cont_13"
  top: "cont_14"
  top: "cont_15"
  top: "cont_16"
  top: "cont_17"
  top: "cont_18"
  top: "cont_19"
  top: "cont_20"
  top: "cont_21"
  top: "cont_22"
  top: "cont_23"
  top: "cont_24"
  slice_param {
    axis: 0
  }
}
layer {
  name: "lstm1_x_transform"
  type: "InnerProduct"
  bottom: "x"
  top: "W_xc_x"
  param {
    name: "W_xc"
  }
  param {
    name: "b_c"
  }
  propagate_down: true
  inner_product_param {
    num_output: 256
    bias_term: true
    weight_filler {
      type: "xavier"
    }
    bias_filler {
      type: "constant"
    }
    axis: 2
  }
}
layer {
  name: "lstm1_W_xc_x_slice"
  type: "Slice"
  bottom: "W_xc_x"
  top: "W_xc_x_1"
  top: "W_xc_x_2"
  top: "W_xc_x_3"
  top: "W_xc_x_4"
  top: "W_xc_x_5"
  top: "W_xc_x_6"
  top: "W_xc_x_7"
  top: "W_xc_x_8"
  top: "W_xc_x_9"
  top: "W_xc_x_10"
  top: "W_xc_x_11"
  top: "W_xc_x_12"
  top: "W_xc_x_13"
  top: "W_xc_x_14"
  top: "W_xc_x_15"
  top: "W_xc_x_16"
  top: "W_xc_x_17"
  top: "W_xc_x_18"
  top: "W_xc_x_19"
  top: "W_xc_x_20"
  top: "W_xc_x_21"
  top: "W_xc_x_22"
  top: "W_xc_x_23"
  top: "W_xc_x_24"
  slice_param {
    axis: 0
  }
}
layer {
  name: "lstm1_h_conted_0"
  type: "Scale"
  bottom: "h_0"
  bottom: "cont_1"
  top: "h_conted_0"
  scale_param {
    axis: 0
  }
}
layer {
  name: "lstm1_transform_1"
  type: "InnerProduct"
  bottom: "h_conted_0"
  top: "W_hc_h_0"
  param {
    name: "W_hc"
  }
  inner_product_param {
    num_output: 256
    bias_term: false
    weight_filler {
      type: "xavier"
    }
    axis: 2
  }
}
layer {
  name: "lstm1_gate_input_1"
  type: "Eltwise"
  bottom: "W_hc_h_0"
  bottom: "W_xc_x_1"
  top: "gate_input_1"
  eltwise_param {
    operation: SUM
  }
}
layer {
  name: "lstm1_unit_1"
  type: "LSTMUnit"
  bottom: "c_0"
  bottom: "gate_input_1"
  bottom: "cont_1"
  top: "c_1"
  top: "h_1"
}
layer {
  name: "lstm1_h_conted_1"
  type: "Scale"
  bottom: "h_1"
  bottom: "cont_2"
  top: "h_conted_1"
  scale_param {
    axis: 0
  }
}
layer {
  name: "lstm1_transform_2"
  type: "InnerProduct"
  bottom: "h_conted_1"
  top: "W_hc_h_1"
  param {
    name: "W_hc"
  }
  inner_product_param {
    num_output: 256
    bias_term: false
    weight_filler {
      type: "xavier"
    }
    axis: 2
  }
}
layer {
  name: "lstm1_gate_input_2"
  type: "Eltwise"
  bottom: "W_hc_h_1"
  bottom: "W_xc_x_2"
  top: "gate_input_2"
  eltwise_param {
    operation: SUM
  }
}
layer {
  name: "lstm1_unit_2"
  type: "LSTMUnit"
  bottom: "c_1"
  bottom: "gate_input_2"
  bottom: "cont_2"
  top: "c_2"
  top: "h_2"
}
layer {
  name: "lstm1_h_conted_2"
  type: "Scale"
  bottom: "h_2"
  bottom: "cont_3"
  top: "h_conted_2"
  scale_param {
    axis: 0
  }
}
layer {
  name: "lstm1_transform_3"
  type: "InnerProduct"
  bottom: "h_conted_2"
  top: "W_hc_h_2"
  param {
    name: "W_hc"
  }
  inner_product_param {
    num_output: 256
    bias_term: false
    weight_filler {
      type: "xavier"
    }
    axis: 2
  }
}
layer {
  name: "lstm1_gate_input_3"
  type: "Eltwise"
  bottom: "W_hc_h_2"
  bottom: "W_xc_x_3"
  top: "gate_input_3"
  eltwise_param {
    operation: SUM
  }
}
layer {
  name: "lstm1_unit_3"
  type: "LSTMUnit"
  bottom: "c_2"
  bottom: "gate_input_3"
  bottom: "cont_3"
  top: "c_3"
  top: "h_3"
}
layer {
  name: "lstm1_h_conted_3"
  type: "Scale"
  bottom: "h_3"
  bottom: "cont_4"
  top: "h_conted_3"
  scale_param {
    axis: 0
  }
}
layer {
  name: "lstm1_transform_4"
  type: "InnerProduct"
  bottom: "h_conted_3"
  top: "W_hc_h_3"
  param {
    name: "W_hc"
  }
  inner_product_param {
    num_output: 256
    bias_term: false
    weight_filler {
      type: "xavier"
    }
    axis: 2
  }
}
layer {
  name: "lstm1_gate_input_4"
  type: "Eltwise"
  bottom: "W_hc_h_3"
  bottom: "W_xc_x_4"
  top: "gate_input_4"
  eltwise_param {
    operation: SUM
  }
}
layer {
  name: "lstm1_unit_4"
  type: "LSTMUnit"
  bottom: "c_3"
  bottom: "gate_input_4"
  bottom: "cont_4"
  top: "c_4"
  top: "h_4"
}
layer {
  name: "lstm1_h_conted_4"
  type: "Scale"
  bottom: "h_4"
  bottom: "cont_5"
  top: "h_conted_4"
  scale_param {
    axis: 0
  }
}
layer {
  name: "lstm1_transform_5"
  type: "InnerProduct"
  bottom: "h_conted_4"
  top: "W_hc_h_4"
  param {
    name: "W_hc"
  }
  inner_product_param {
    num_output: 256
    bias_term: false
    weight_filler {
      type: "xavier"
    }
    axis: 2
  }
}
layer {
  name: "lstm1_gate_input_5"
  type: "Eltwise"
  bottom: "W_hc_h_4"
  bottom: "W_xc_x_5"
  top: "gate_input_5"
  eltwise_param {
    operation: SUM
  }
}
layer {
  name: "lstm1_unit_5"
  type: "LSTMUnit"
  bottom: "c_4"
  bottom: "gate_input_5"
  bottom: "cont_5"
  top: "c_5"
  top: "h_5"
}
layer {
  name: "lstm1_h_conted_5"
  type: "Scale"
  bottom: "h_5"
  bottom: "cont_6"
  top: "h_conted_5"
  scale_param {
    axis: 0
  }
}
layer {
  name: "lstm1_transform_6"
  type: "InnerProduct"
  bottom: "h_conted_5"
  top: "W_hc_h_5"
  param {
    name: "W_hc"
  }
  inner_product_param {
    num_output: 256
    bias_term: false
    weight_filler {
      type: "xavier"
    }
    axis: 2
  }
}
layer {
  name: "lstm1_gate_input_6"
  type: "Eltwise"
  bottom: "W_hc_h_5"
  bottom: "W_xc_x_6"
  top: "gate_input_6"
  eltwise_param {
    operation: SUM
  }
}
layer {
  name: "lstm1_unit_6"
  type: "LSTMUnit"
  bottom: "c_5"
  bottom: "gate_input_6"
  bottom: "cont_6"
  top: "c_6"
  top: "h_6"
}
layer {
  name: "lstm1_h_conted_6"
  type: "Scale"
  bottom: "h_6"
  bottom: "cont_7"
  top: "h_conted_6"
  scale_param {
    axis: 0
  }
}
layer {
  name: "lstm1_transform_7"
  type: "InnerProduct"
  bottom: "h_conted_6"
  top: "W_hc_h_6"
  param {
    name: "W_hc"
  }
  inner_product_param {
    num_output: 256
    bias_term: false
    weight_filler {
      type: "xavier"
    }
    axis: 2
  }
}
layer {
  name: "lstm1_gate_input_7"
  type: "Eltwise"
  bottom: "W_hc_h_6"
  bottom: "W_xc_x_7"
  top: "gate_input_7"
  eltwise_param {
    operation: SUM
  }
}
layer {
  name: "lstm1_unit_7"
  type: "LSTMUnit"
  bottom: "c_6"
  bottom: "gate_input_7"
  bottom: "cont_7"
  top: "c_7"
  top: "h_7"
}
layer {
  name: "lstm1_h_conted_7"
  type: "Scale"
  bottom: "h_7"
  bottom: "cont_8"
  top: "h_conted_7"
  scale_param {
    axis: 0
  }
}
layer {
  name: "lstm1_transform_8"
  type: "InnerProduct"
  bottom: "h_conted_7"
  top: "W_hc_h_7"
  param {
    name: "W_hc"
  }
  inner_product_param {
    num_output: 256
    bias_term: false
    weight_filler {
      type: "xavier"
    }
    axis: 2
  }
}
layer {
  name: "lstm1_gate_input_8"
  type: "Eltwise"
  bottom: "W_hc_h_7"
  bottom: "W_xc_x_8"
  top: "gate_input_8"
  eltwise_param {
    operation: SUM
  }
}
layer {
  name: "lstm1_unit_8"
  type: "LSTMUnit"
  bottom: "c_7"
  bottom: "gate_input_8"
  bottom: "cont_8"
  top: "c_8"
  top: "h_8"
}
layer {
  name: "lstm1_h_conted_8"
  type: "Scale"
  bottom: "h_8"
  bottom: "cont_9"
  top: "h_conted_8"
  scale_param {
    axis: 0
  }
}
layer {
  name: "lstm1_transform_9"
  type: "InnerProduct"
  bottom: "h_conted_8"
  top: "W_hc_h_8"
  param {
    name: "W_hc"
  }
  inner_product_param {
    num_output: 256
    bias_term: false
    weight_filler {
      type: "xavier"
    }
    axis: 2
  }
}
layer {
  name: "lstm1_gate_input_9"
  type: "Eltwise"
  bottom: "W_hc_h_8"
  bottom: "W_xc_x_9"
  top: "gate_input_9"
  eltwise_param {
    operation: SUM
  }
}
layer {
  name: "lstm1_unit_9"
  type: "LSTMUnit"
  bottom: "c_8"
  bottom: "gate_input_9"
  bottom: "cont_9"
  top: "c_9"
  top: "h_9"
}
layer {
  name: "lstm1_h_conted_9"
  type: "Scale"
  bottom: "h_9"
  bottom: "cont_10"
  top: "h_conted_9"
  scale_param {
    axis: 0
  }
}
layer {
  name: "lstm1_transform_10"
  type: "InnerProduct"
  bottom: "h_conted_9"
  top: "W_hc_h_9"
  param {
    name: "W_hc"
  }
  inner_product_param {
    num_output: 256
    bias_term: false
    weight_filler {
      type: "xavier"
    }
    axis: 2
  }
}
layer {
  name: "lstm1_gate_input_10"
  type: "Eltwise"
  bottom: "W_hc_h_9"
  bottom: "W_xc_x_10"
  top: "gate_input_10"
  eltwise_param {
    operation: SUM
  }
}
layer {
  name: "lstm1_unit_10"
  type: "LSTMUnit"
  bottom: "c_9"
  bottom: "gate_input_10"
  bottom: "cont_10"
  top: "c_10"
  top: "h_10"
}
layer {
  name: "lstm1_h_conted_10"
  type: "Scale"
  bottom: "h_10"
  bottom: "cont_11"
  top: "h_conted_10"
  scale_param {
    axis: 0
  }
}
layer {
  name: "lstm1_transform_11"
  type: "InnerProduct"
  bottom: "h_conted_10"
  top: "W_hc_h_10"
  param {
    name: "W_hc"
  }
  inner_product_param {
    num_output: 256
    bias_term: false
    weight_filler {
      type: "xavier"
    }
    axis: 2
  }
}
layer {
  name: "lstm1_gate_input_11"
  type: "Eltwise"
  bottom: "W_hc_h_10"
  bottom: "W_xc_x_11"
  top: "gate_input_11"
  eltwise_param {
    operation: SUM
  }
}
layer {
  name: "lstm1_unit_11"
  type: "LSTMUnit"
  bottom: "c_10"
  bottom: "gate_input_11"
  bottom: "cont_11"
  top: "c_11"
  top: "h_11"
}
layer {
  name: "lstm1_h_conted_11"
  type: "Scale"
  bottom: "h_11"
  bottom: "cont_12"
  top: "h_conted_11"
  scale_param {
    axis: 0
  }
}
layer {
  name: "lstm1_transform_12"
  type: "InnerProduct"
  bottom: "h_conted_11"
  top: "W_hc_h_11"
  param {
    name: "W_hc"
  }
  inner_product_param {
    num_output: 256
    bias_term: false
    weight_filler {
      type: "xavier"
    }
    axis: 2
  }
}
layer {
  name: "lstm1_gate_input_12"
  type: "Eltwise"
  bottom: "W_hc_h_11"
  bottom: "W_xc_x_12"
  top: "gate_input_12"
  eltwise_param {
    operation: SUM
  }
}
layer {
  name: "lstm1_unit_12"
  type: "LSTMUnit"
  bottom: "c_11"
  bottom: "gate_input_12"
  bottom: "cont_12"
  top: "c_12"
  top: "h_12"
}
layer {
  name: "lstm1_h_conted_12"
  type: "Scale"
  bottom: "h_12"
  bottom: "cont_13"
  top: "h_conted_12"
  scale_param {
    axis: 0
  }
}
layer {
  name: "lstm1_transform_13"
  type: "InnerProduct"
  bottom: "h_conted_12"
  top: "W_hc_h_12"
  param {
    name: "W_hc"
  }
  inner_product_param {
    num_output: 256
    bias_term: false
    weight_filler {
      type: "xavier"
    }
    axis: 2
  }
}
layer {
  name: "lstm1_gate_input_13"
  type: "Eltwise"
  bottom: "W_hc_h_12"
  bottom: "W_xc_x_13"
  top: "gate_input_13"
  eltwise_param {
    operation: SUM
  }
}
layer {
  name: "lstm1_unit_13"
  type: "LSTMUnit"
  bottom: "c_12"
  bottom: "gate_input_13"
  bottom: "cont_13"
  top: "c_13"
  top: "h_13"
}
layer {
  name: "lstm1_h_conted_13"
  type: "Scale"
  bottom: "h_13"
  bottom: "cont_14"
  top: "h_conted_13"
  scale_param {
    axis: 0
  }
}
layer {
  name: "lstm1_transform_14"
  type: "InnerProduct"
  bottom: "h_conted_13"
  top: "W_hc_h_13"
  param {
    name: "W_hc"
  }
  inner_product_param {
    num_output: 256
    bias_term: false
    weight_filler {
      type: "xavier"
    }
    axis: 2
  }
}
layer {
  name: "lstm1_gate_input_14"
  type: "Eltwise"
  bottom: "W_hc_h_13"
  bottom: "W_xc_x_14"
  top: "gate_input_14"
  eltwise_param {
    operation: SUM
  }
}
layer {
  name: "lstm1_unit_14"
  type: "LSTMUnit"
  bottom: "c_13"
  bottom: "gate_input_14"
  bottom: "cont_14"
  top: "c_14"
  top: "h_14"
}
layer {
  name: "lstm1_h_conted_14"
  type: "Scale"
  bottom: "h_14"
  bottom: "cont_15"
  top: "h_conted_14"
  scale_param {
    axis: 0
  }
}
layer {
  name: "lstm1_transform_15"
  type: "InnerProduct"
  bottom: "h_conted_14"
  top: "W_hc_h_14"
  param {
    name: "W_hc"
  }
  inner_product_param {
    num_output: 256
    bias_term: false
    weight_filler {
      type: "xavier"
    }
    axis: 2
  }
}
layer {
  name: "lstm1_gate_input_15"
  type: "Eltwise"
  bottom: "W_hc_h_14"
  bottom: "W_xc_x_15"
  top: "gate_input_15"
  eltwise_param {
    operation: SUM
  }
}
layer {
  name: "lstm1_unit_15"
  type: "LSTMUnit"
  bottom: "c_14"
  bottom: "gate_input_15"
  bottom: "cont_15"
  top: "c_15"
  top: "h_15"
}
layer {
  name: "lstm1_h_conted_15"
  type: "Scale"
  bottom: "h_15"
  bottom: "cont_16"
  top: "h_conted_15"
  scale_param {
    axis: 0
  }
}
layer {
  name: "lstm1_transform_16"
  type: "InnerProduct"
  bottom: "h_conted_15"
  top: "W_hc_h_15"
  param {
    name: "W_hc"
  }
  inner_product_param {
    num_output: 256
    bias_term: false
    weight_filler {
      type: "xavier"
    }
    axis: 2
  }
}
layer {
  name: "lstm1_gate_input_16"
  type: "Eltwise"
  bottom: "W_hc_h_15"
  bottom: "W_xc_x_16"
  top: "gate_input_16"
  eltwise_param {
    operation: SUM
  }
}
layer {
  name: "lstm1_unit_16"
  type: "LSTMUnit"
  bottom: "c_15"
  bottom: "gate_input_16"
  bottom: "cont_16"
  top: "c_16"
  top: "h_16"
}
layer {
  name: "lstm1_h_conted_16"
  type: "Scale"
  bottom: "h_16"
  bottom: "cont_17"
  top: "h_conted_16"
  scale_param {
    axis: 0
  }
}
layer {
  name: "lstm1_transform_17"
  type: "InnerProduct"
  bottom: "h_conted_16"
  top: "W_hc_h_16"
  param {
    name: "W_hc"
  }
  inner_product_param {
    num_output: 256
    bias_term: false
    weight_filler {
      type: "xavier"
    }
    axis: 2
  }
}
layer {
  name: "lstm1_gate_input_17"
  type: "Eltwise"
  bottom: "W_hc_h_16"
  bottom: "W_xc_x_17"
  top: "gate_input_17"
  eltwise_param {
    operation: SUM
  }
}
layer {
  name: "lstm1_unit_17"
  type: "LSTMUnit"
  bottom: "c_16"
  bottom: "gate_input_17"
  bottom: "cont_17"
  top: "c_17"
  top: "h_17"
}
layer {
  name: "lstm1_h_conted_17"
  type: "Scale"
  bottom: "h_17"
  bottom: "cont_18"
  top: "h_conted_17"
  scale_param {
    axis: 0
  }
}
layer {
  name: "lstm1_transform_18"
  type: "InnerProduct"
  bottom: "h_conted_17"
  top: "W_hc_h_17"
  param {
    name: "W_hc"
  }
  inner_product_param {
    num_output: 256
    bias_term: false
    weight_filler {
      type: "xavier"
    }
    axis: 2
  }
}
layer {
  name: "lstm1_gate_input_18"
  type: "Eltwise"
  bottom: "W_hc_h_17"
  bottom: "W_xc_x_18"
  top: "gate_input_18"
  eltwise_param {
    operation: SUM
  }
}
layer {
  name: "lstm1_unit_18"
  type: "LSTMUnit"
  bottom: "c_17"
  bottom: "gate_input_18"
  bottom: "cont_18"
  top: "c_18"
  top: "h_18"
}
layer {
  name: "lstm1_h_conted_18"
  type: "Scale"
  bottom: "h_18"
  bottom: "cont_19"
  top: "h_conted_18"
  scale_param {
    axis: 0
  }
}
layer {
  name: "lstm1_transform_19"
  type: "InnerProduct"
  bottom: "h_conted_18"
  top: "W_hc_h_18"
  param {
    name: "W_hc"
  }
  inner_product_param {
    num_output: 256
    bias_term: false
    weight_filler {
      type: "xavier"
    }
    axis: 2
  }
}
layer {
  name: "lstm1_gate_input_19"
  type: "Eltwise"
  bottom: "W_hc_h_18"
  bottom: "W_xc_x_19"
  top: "gate_input_19"
  eltwise_param {
    operation: SUM
  }
}
layer {
  name: "lstm1_unit_19"
  type: "LSTMUnit"
  bottom: "c_18"
  bottom: "gate_input_19"
  bottom: "cont_19"
  top: "c_19"
  top: "h_19"
}
layer {
  name: "lstm1_h_conted_19"
  type: "Scale"
  bottom: "h_19"
  bottom: "cont_20"
  top: "h_conted_19"
  scale_param {
    axis: 0
  }
}
layer {
  name: "lstm1_transform_20"
  type: "InnerProduct"
  bottom: "h_conted_19"
  top: "W_hc_h_19"
  param {
    name: "W_hc"
  }
  inner_product_param {
    num_output: 256
    bias_term: false
    weight_filler {
      type: "xavier"
    }
    axis: 2
  }
}
layer {
  name: "lstm1_gate_input_20"
  type: "Eltwise"
  bottom: "W_hc_h_19"
  bottom: "W_xc_x_20"
  top: "gate_input_20"
  eltwise_param {
    operation: SUM
  }
}
layer {
  name: "lstm1_unit_20"
  type: "LSTMUnit"
  bottom: "c_19"
  bottom: "gate_input_20"
  bottom: "cont_20"
  top: "c_20"
  top: "h_20"
}
layer {
  name: "lstm1_h_conted_20"
  type: "Scale"
  bottom: "h_20"
  bottom: "cont_21"
  top: "h_conted_20"
  scale_param {
    axis: 0
  }
}
layer {
  name: "lstm1_transform_21"
  type: "InnerProduct"
  bottom: "h_conted_20"
  top: "W_hc_h_20"
  param {
    name: "W_hc"
  }
  inner_product_param {
    num_output: 256
    bias_term: false
    weight_filler {
      type: "xavier"
    }
    axis: 2
  }
}
layer {
  name: "lstm1_gate_input_21"
  type: "Eltwise"
  bottom: "W_hc_h_20"
  bottom: "W_xc_x_21"
  top: "gate_input_21"
  eltwise_param {
    operation: SUM
  }
}
layer {
  name: "lstm1_unit_21"
  type: "LSTMUnit"
  bottom: "c_20"
  bottom: "gate_input_21"
  bottom: "cont_21"
  top: "c_21"
  top: "h_21"
}
layer {
  name: "lstm1_h_conted_21"
  type: "Scale"
  bottom: "h_21"
  bottom: "cont_22"
  top: "h_conted_21"
  scale_param {
    axis: 0
  }
}
layer {
  name: "lstm1_transform_22"
  type: "InnerProduct"
  bottom: "h_conted_21"
  top: "W_hc_h_21"
  param {
    name: "W_hc"
  }
  inner_product_param {
    num_output: 256
    bias_term: false
    weight_filler {
      type: "xavier"
    }
    axis: 2
  }
}
layer {
  name: "lstm1_gate_input_22"
  type: "Eltwise"
  bottom: "W_hc_h_21"
  bottom: "W_xc_x_22"
  top: "gate_input_22"
  eltwise_param {
    operation: SUM
  }
}
layer {
  name: "lstm1_unit_22"
  type: "LSTMUnit"
  bottom: "c_21"
  bottom: "gate_input_22"
  bottom: "cont_22"
  top: "c_22"
  top: "h_22"
}
layer {
  name: "lstm1_h_conted_22"
  type: "Scale"
  bottom: "h_22"
  bottom: "cont_23"
  top: "h_conted_22"
  scale_param {
    axis: 0
  }
}
layer {
  name: "lstm1_transform_23"
  type: "InnerProduct"
  bottom: "h_conted_22"
  top: "W_hc_h_22"
  param {
    name: "W_hc"
  }
  inner_product_param {
    num_output: 256
    bias_term: false
    weight_filler {
      type: "xavier"
    }
    axis: 2
  }
}
layer {
  name: "lstm1_gate_input_23"
  type: "Eltwise"
  bottom: "W_hc_h_22"
  bottom: "W_xc_x_23"
  top: "gate_input_23"
  eltwise_param {
    operation: SUM
  }
}
layer {
  name: "lstm1_unit_23"
  type: "LSTMUnit"
  bottom: "c_22"
  bottom: "gate_input_23"
  bottom: "cont_23"
  top: "c_23"
  top: "h_23"
}
layer {
  name: "lstm1_h_conted_23"
  type: "Scale"
  bottom: "h_23"
  bottom: "cont_24"
  top: "h_conted_23"
  scale_param {
    axis: 0
  }
}
layer {
  name: "lstm1_transform_24"
  type: "InnerProduct"
  bottom: "h_conted_23"
  top: "W_hc_h_23"
  param {
    name: "W_hc"
  }
  inner_product_param {
    num_output: 256
    bias_term: false
    weight_filler {
      type: "xavier"
    }
    axis: 2
  }
}
layer {
  name: "lstm1_gate_input_24"
  type: "Eltwise"
  bottom: "W_hc_h_23"
  bottom: "W_xc_x_24"
  top: "gate_input_24"
  eltwise_param {
    operation: SUM
  }
}
layer {
  name: "lstm1_unit_24"
  type: "LSTMUnit"
  bottom: "c_23"
  bottom: "gate_input_24"
  bottom: "cont_24"
  top: "c_24"
  top: "h_24"
}
layer {
  name: "lstm1_"
  type: "Split"
  bottom: "c_24"
  top: "c_T"
}
layer {
  name: "lstm1_h_concat"
  type: "Concat"
  bottom: "h_1"
  bottom: "h_2"
  bottom: "h_3"
  bottom: "h_4"
  bottom: "h_5"
  bottom: "h_6"
  bottom: "h_7"
  bottom: "h_8"
  bottom: "h_9"
  bottom: "h_10"
  bottom: "h_11"
  bottom: "h_12"
  bottom: "h_13"
  bottom: "h_14"
  bottom: "h_15"
  bottom: "h_16"
  bottom: "h_17"
  bottom: "h_18"
  bottom: "h_19"
  bottom: "h_20"
  bottom: "h_21"
  bottom: "h_22"
  bottom: "h_23"
  bottom: "h_24"
  top: "h"
  concat_param {
    axis: 0
  }
}
layer {
  name: "h_pseudoloss"
  type: "Reduction"
  bottom: "h"
  top: "h_pseudoloss"
  loss_weight: 1
}
I0222 17:54:01.007488 25770 layer_factory.hpp:77] Creating layer lstm1_
I0222 17:54:01.007503 25770 net.cpp:84] Creating Layer lstm1_
I0222 17:54:01.007508 25770 net.cpp:380] lstm1_ -> x
I0222 17:54:01.007516 25770 net.cpp:380] lstm1_ -> cont
I0222 17:54:01.007556 25770 net.cpp:122] Setting up lstm1_
I0222 17:54:01.007563 25770 net.cpp:129] Top shape: 24 26 1 1 (624)
I0222 17:54:01.007566 25770 net.cpp:129] Top shape: 24 26 (624)
I0222 17:54:01.007570 25770 net.cpp:137] Memory required for data: 4992
I0222 17:54:01.007571 25770 layer_factory.hpp:77] Creating layer lstm1_
I0222 17:54:01.007576 25770 net.cpp:84] Creating Layer lstm1_
I0222 17:54:01.007580 25770 net.cpp:380] lstm1_ -> c_0
I0222 17:54:01.007585 25770 net.cpp:380] lstm1_ -> h_0
I0222 17:54:01.007601 25770 net.cpp:122] Setting up lstm1_
I0222 17:54:01.007606 25770 net.cpp:129] Top shape: 1 26 64 (1664)
I0222 17:54:01.007609 25770 net.cpp:129] Top shape: 1 26 64 (1664)
I0222 17:54:01.007611 25770 net.cpp:137] Memory required for data: 18304
I0222 17:54:01.007614 25770 layer_factory.hpp:77] Creating layer lstm1_cont_slice
I0222 17:54:01.007623 25770 net.cpp:84] Creating Layer lstm1_cont_slice
I0222 17:54:01.007627 25770 net.cpp:406] lstm1_cont_slice <- cont
I0222 17:54:01.007632 25770 net.cpp:380] lstm1_cont_slice -> cont_1
I0222 17:54:01.007637 25770 net.cpp:380] lstm1_cont_slice -> cont_2
…
I0222 17:54:01.007714 25770 net.cpp:380] lstm1_cont_slice -> cont_17
I0222 17:54:01.007719 25770 net.cpp:380] lstm1_cont_slice -> cont_18
I0222 17:54:01.007724 25770 net.cpp:380] lstm1_cont_slice -> cont_19
I0222 17:54:01.007728 25770 net.cpp:380] lstm1_cont_slice -> cont_20
I0222 17:54:01.007743 25770 net.cpp:380] lstm1_cont_slice -> cont_21
I0222 17:54:01.007750 25770 net.cpp:380] lstm1_cont_slice -> cont_22
I0222 17:54:01.007755 25770 net.cpp:380] lstm1_cont_slice -> cont_23
I0222 17:54:01.007760 25770 net.cpp:380] lstm1_cont_slice -> cont_24
I0222 17:54:01.007897 25770 net.cpp:122] Setting up lstm1_cont_slice
I0222 17:54:01.007920 25770 net.cpp:129] Top shape: 1 26 (26)
I0222 17:54:01.007923 25770 net.cpp:129] Top shape: 1 26 (26)
I0222 17:54:01.007927 25770 net.cpp:129] Top shape: 1 26 (26)
I0222 17:54:01.007930 25770 net.cpp:129] Top shape: 1 26 (26)
I0222 17:54:01.007935 25770 net.cpp:129] Top shape: 1 26 (26)
I0222 17:54:01.007937 25770 net.cpp:129] Top shape: 1 26 (26)
I0222 17:54:01.007941 25770 net.cpp:129] Top shape: 1 26 (26)
I0222 17:54:01.007944 25770 net.cpp:129] Top shape: 1 26 (26)
I0222 17:54:01.007947 25770 net.cpp:129] Top shape: 1 26 (26)
I0222 17:54:01.007951 25770 net.cpp:129] Top shape: 1 26 (26)
I0222 17:54:01.007954 25770 net.cpp:129] Top shape: 1 26 (26)
I0222 17:54:01.007957 25770 net.cpp:129] Top shape: 1 26 (26)
I0222 17:54:01.007961 25770 net.cpp:129] Top shape: 1 26 (26)
I0222 17:54:01.007964 25770 net.cpp:129] Top shape: 1 26 (26)
I0222 17:54:01.007982 25770 net.cpp:129] Top shape: 1 26 (26)
I0222 17:54:01.007984 25770 net.cpp:129] Top shape: 1 26 (26)
I0222 17:54:01.007987 25770 net.cpp:129] Top shape: 1 26 (26)
I0222 17:54:01.007992 25770 net.cpp:129] Top shape: 1 26 (26)
I0222 17:54:01.007994 25770 net.cpp:129] Top shape: 1 26 (26)
I0222 17:54:01.008056 25770 net.cpp:129] Top shape: 1 26 (26)
I0222 17:54:01.008061 25770 net.cpp:129] Top shape: 1 26 (26)
I0222 17:54:01.008064 25770 net.cpp:129] Top shape: 1 26 (26)
I0222 17:54:01.008067 25770 net.cpp:129] Top shape: 1 26 (26)
I0222 17:54:01.008070 25770 net.cpp:129] Top shape: 1 26 (26)
I0222 17:54:01.008074 25770 net.cpp:137] Memory required for data: 20800
I0222 17:54:01.008076 25770 layer_factory.hpp:77] Creating layer cont_1_lstm1_cont_slice_0_split
I0222 17:54:01.008081 25770 net.cpp:84] Creating Layer cont_1_lstm1_cont_slice_0_split
I0222 17:54:01.008085 25770 net.cpp:406] cont_1_lstm1_cont_slice_0_split <- cont_1
I0222 17:54:01.008090 25770 net.cpp:380] cont_1_lstm1_cont_slice_0_split -> cont_1_lstm1_cont_slice_0_split_0
I0222 17:54:01.008095 25770 net.cpp:380] cont_1_lstm1_cont_slice_0_split -> cont_1_lstm1_cont_slice_0_split_1
I0222 17:54:01.008146 25770 net.cpp:122] Setting up cont_1_lstm1_cont_slice_0_split
I0222 17:54:01.008149 25770 net.cpp:129] Top shape: 1 26 (26)
I0222 17:54:01.008153 25770 net.cpp:129] Top shape: 1 26 (26)
I0222 17:54:01.008157 25770 net.cpp:137] Memory required for data: 21008
I0222 17:54:01.008159 25770 layer_factory.hpp:77] Creating layer cont_2_lstm1_cont_slice_1_split
I0222 17:54:01.008165 25770 net.cpp:84] Creating Layer cont_2_lstm1_cont_slice_1_split
I0222 17:54:01.008168 25770 net.cpp:406] cont_2_lstm1_cont_slice_1_split <- cont_2
I0222 17:54:01.008172 25770 net.cpp:380] cont_2_lstm1_cont_slice_1_split -> cont_2_lstm1_cont_slice_1_split_0
I0222 17:54:01.008178 25770 net.cpp:380] cont_2_lstm1_cont_slice_1_split -> cont_2_lstm1_cont_slice_1_split_1
I0222 17:54:01.008210 25770 net.cpp:122] Setting up cont_2_lstm1_cont_slice_1_split
I0222 17:54:01.008214 25770 net.cpp:129] Top shape: 1 26 (26)
I0222 17:54:01.008219 25770 net.cpp:129] Top shape: 1 26 (26)
I0222 17:54:01.008220 25770 net.cpp:137] Memory required for data: 21216
I0222 17:54:01.008224 25770 layer_factory.hpp:77] Creating layer cont_3_lstm1_cont_slice_2_split
I0222 17:54:01.008229 25770 net.cpp:84] Creating Layer cont_3_lstm1_cont_slice_2_split
I0222 17:54:01.008231 25770 net.cpp:406] cont_3_lstm1_cont_slice_2_split <- cont_3
I0222 17:54:01.008235 25770 net.cpp:380] cont_3_lstm1_cont_slice_2_split -> cont_3_lstm1_cont_slice_2_split_0
I0222 17:54:01.008241 25770 net.cpp:380] cont_3_lstm1_cont_slice_2_split -> cont_3_lstm1_cont_slice_2_split_1
I0222 17:54:01.008260 25770 net.cpp:122] Setting up cont_3_lstm1_cont_slice_2_split
I0222 17:54:01.008265 25770 net.cpp:129] Top shape: 1 26 (26)
I0222 17:54:01.008273 25770 net.cpp:129] Top shape: 1 26 (26)
I0222 17:54:01.008276 25770 net.cpp:137] Memory required for data: 21424
I0222 17:54:01.008280 25770 layer_factory.hpp:77] Creating layer cont_4_lstm1_cont_slice_3_split
I0222 17:54:01.008283 25770 net.cpp:84] Creating Layer cont_4_lstm1_cont_slice_3_split
I0222 17:54:01.008286 25770 net.cpp:406] cont_4_lstm1_cont_slice_3_split <- cont_4
I0222 17:54:01.008291 25770 net.cpp:380] cont_4_lstm1_cont_slice_3_split -> cont_4_lstm1_cont_slice_3_split_0
I0222 17:54:01.008296 25770 net.cpp:380] cont_4_lstm1_cont_slice_3_split -> cont_4_lstm1_cont_slice_3_split_1
I0222 17:54:01.008313 25770 net.cpp:122] Setting up cont_4_lstm1_cont_slice_3_split
I0222 17:54:01.008318 25770 net.cpp:129] Top shape: 1 26 (26)
I0222 17:54:01.008322 25770 net.cpp:129] Top shape: 1 26 (26)
I0222 17:54:01.008324 25770 net.cpp:137] Memory required for data: 21632
I0222 17:54:01.008327 25770 layer_factory.hpp:77] Creating layer cont_5_lstm1_cont_slice_4_split
I0222 17:54:01.008330 25770 net.cpp:84] Creating Layer cont_5_lstm1_cont_slice_4_split
I0222 17:54:01.008333 25770 net.cpp:406] cont_5_lstm1_cont_slice_4_split <- cont_5
I0222 17:54:01.008338 25770 net.cpp:380] cont_5_lstm1_cont_slice_4_split -> cont_5_lstm1_cont_slice_4_split_0
I0222 17:54:01.008343 25770 net.cpp:380] cont_5_lstm1_cont_slice_4_split -> cont_5_lstm1_cont_slice_4_split_1
I0222 17:54:01.008359 25770 net.cpp:122] Setting up cont_5_lstm1_cont_slice_4_split
I0222 17:54:01.037214 25770 net.cpp:129] Top shape: 1 26 (26)
I0222 17:54:01.037226 25770 net.cpp:129] Top shape: 1 26 (26)
I0222 17:54:01.037230 25770 net.cpp:137] Memory required for data: 21840
I0222 17:54:01.037235 25770 layer_factory.hpp:77] Creating layer cont_6_lstm1_cont_slice_5_split
I0222 17:54:01.037247 25770 net.cpp:84] Creating Layer cont_6_lstm1_cont_slice_5_split
I0222 17:54:01.037252 25770 net.cpp:406] cont_6_lstm1_cont_slice_5_split <- cont_6
I0222 17:54:01.037258 25770 net.cpp:380] cont_6_lstm1_cont_slice_5_split -> cont_6_lstm1_cont_slice_5_split_0
I0222 17:54:01.037266 25770 net.cpp:380] cont_6_lstm1_cont_slice_5_split -> cont_6_lstm1_cont_slice_5_split_1
I0222 17:54:01.037314 25770 net.cpp:122] Setting up cont_6_lstm1_cont_slice_5_split
I0222 17:54:01.037319 25770 net.cpp:129] Top shape: 1 26 (26)
I0222 17:54:01.037323 25770 net.cpp:129] Top shape: 1 26 (26)
I0222 17:54:01.037326 25770 net.cpp:137] Memory required for data: 22048
I0222 17:54:01.037329 25770 layer_factory.hpp:77] Creating layer cont_7_lstm1_cont_slice_6_split
I0222 17:54:01.037333 25770 net.cpp:84] Creating Layer cont_7_lstm1_cont_slice_6_split
I0222 17:54:01.037336 25770 net.cpp:406] cont_7_lstm1_cont_slice_6_split <- cont_7
I0222 17:54:01.037341 25770 net.cpp:380] cont_7_lstm1_cont_slice_6_split -> cont_7_lstm1_cont_slice_6_split_0
I0222 17:54:01.037346 25770 net.cpp:380] cont_7_lstm1_cont_slice_6_split -> cont_7_lstm1_cont_slice_6_split_1
I0222 17:54:01.037397 25770 net.cpp:122] Setting up cont_7_lstm1_cont_slice_6_split
I0222 17:54:01.037403 25770 net.cpp:129] Top shape: 1 26 (26)
I0222 17:54:01.037406 25770 net.cpp:129] Top shape: 1 26 (26)
I0222 17:54:01.037423 25770 net.cpp:137] Memory required for data: 22256
I0222 17:54:01.037426 25770 layer_factory.hpp:77] Creating layer cont_8_lstm1_cont_slice_7_split
I0222 17:54:01.037431 25770 net.cpp:84] Creating Layer cont_8_lstm1_cont_slice_7_split
I0222 17:54:01.037434 25770 net.cpp:406] cont_8_lstm1_cont_slice_7_split <- cont_8
I0222 17:54:01.037438 25770 net.cpp:380] cont_8_lstm1_cont_slice_7_split -> cont_8_lstm1_cont_slice_7_split_0
I0222 17:54:01.037443 25770 net.cpp:380] cont_8_lstm1_cont_slice_7_split -> cont_8_lstm1_cont_slice_7_split_1
I0222 17:54:01.037463 25770 net.cpp:122] Setting up cont_8_lstm1_cont_slice_7_split
I0222 17:54:01.037467 25770 net.cpp:129] Top shape: 1 26 (26)
I0222 17:54:01.037470 25770 net.cpp:129] Top shape: 1 26 (26)
I0222 17:54:01.037473 25770 net.cpp:137] Memory required for data: 22464
I0222 17:54:01.037477 25770 layer_factory.hpp:77] Creating layer cont_9_lstm1_cont_slice_8_split
I0222 17:54:01.037480 25770 net.cpp:84] Creating Layer cont_9_lstm1_cont_slice_8_split
I0222 17:54:01.037497 25770 net.cpp:406] cont_9_lstm1_cont_slice_8_split <- cont_9
I0222 17:54:01.037503 25770 net.cpp:380] cont_9_lstm1_cont_slice_8_split -> cont_9_lstm1_cont_slice_8_split_0
I0222 17:54:01.037506 25770 net.cpp:380] cont_9_lstm1_cont_slice_8_split -> cont_9_lstm1_cont_slice_8_split_1
I0222 17:54:01.037525 25770 net.cpp:122] Setting up cont_9_lstm1_cont_slice_8_split
I0222 17:54:01.037530 25770 net.cpp:129] Top shape: 1 26 (26)
I0222 17:54:01.037533 25770 net.cpp:129] Top shape: 1 26 (26)
I0222 17:54:01.037536 25770 net.cpp:137] Memory required for data: 22672
I0222 17:54:01.037539 25770 layer_factory.hpp:77] Creating layer cont_10_lstm1_cont_slice_9_split
I0222 17:54:01.037544 25770 net.cpp:84] Creating Layer cont_10_lstm1_cont_slice_9_split
I0222 17:54:01.037546 25770 net.cpp:406] cont_10_lstm1_cont_slice_9_split <- cont_10
I0222 17:54:01.037551 25770 net.cpp:380] cont_10_lstm1_cont_slice_9_split -> cont_10_lstm1_cont_slice_9_split_0
I0222 17:54:01.037556 25770 net.cpp:380] cont_10_lstm1_cont_slice_9_split -> cont_10_lstm1_cont_slice_9_split_1
I0222 17:54:01.037573 25770 net.cpp:122] Setting up cont_10_lstm1_cont_slice_9_split
I0222 17:54:01.037577 25770 net.cpp:129] Top shape: 1 26 (26)
I0222 17:54:01.037580 25770 net.cpp:129] Top shape: 1 26 (26)
I0222 17:54:01.037583 25770 net.cpp:137] Memory required for data: 22880
I0222 17:54:01.037586 25770 layer_factory.hpp:77] Creating layer cont_11_lstm1_cont_slice_10_split
I0222 17:54:01.037590 25770 net.cpp:84] Creating Layer cont_11_lstm1_cont_slice_10_split
I0222 17:54:01.037595 25770 net.cpp:406] cont_11_lstm1_cont_slice_10_split <- cont_11
I0222 17:54:01.037598 25770 net.cpp:380] cont_11_lstm1_cont_slice_10_split -> cont_11_lstm1_cont_slice_10_split_0
I0222 17:54:01.037602 25770 net.cpp:380] cont_11_lstm1_cont_slice_10_split -> cont_11_lstm1_cont_slice_10_split_1
I0222 17:54:01.037619 25770 net.cpp:122] Setting up cont_11_lstm1_cont_slice_10_split
I0222 17:54:01.037623 25770 net.cpp:129] Top shape: 1 26 (26)
I0222 17:54:01.037626 25770 net.cpp:129] Top shape: 1 26 (26)
I0222 17:54:01.037629 25770 net.cpp:137] Memory required for data: 23088
I0222 17:54:01.037632 25770 layer_factory.hpp:77] Creating layer cont_12_lstm1_cont_slice_11_split
I0222 17:54:01.037636 25770 net.cpp:84] Creating Layer cont_12_lstm1_cont_slice_11_split
I0222 17:54:01.037639 25770 net.cpp:406] cont_12_lstm1_cont_slice_11_split <- cont_12
I0222 17:54:01.037643 25770 net.cpp:380] cont_12_lstm1_cont_slice_11_split -> cont_12_lstm1_cont_slice_11_split_0
I0222 17:54:01.037647 25770 net.cpp:380] cont_12_lstm1_cont_slice_11_split -> cont_12_lstm1_cont_slice_11_split_1
I0222 17:54:01.037664 25770 net.cpp:122] Setting up cont_12_lstm1_cont_slice_11_split
I0222 17:54:01.037668 25770 net.cpp:129] Top shape: 1 26 (26)
I0222 17:54:01.037672 25770 net.cpp:129] Top shape: 1 26 (26)
I0222 17:54:01.037675 25770 net.cpp:137] Memory required for data: 23296
I0222 17:54:01.037678 25770 layer_factory.hpp:77] Creating layer cont_13_lstm1_cont_slice_12_split
I0222 17:54:01.037681 25770 net.cpp:84] Creating Layer cont_13_lstm1_cont_slice_12_split
I0222 17:54:01.037684 25770 net.cpp:406] cont_13_lstm1_cont_slice_12_split <- cont_13
I0222 17:54:01.037688 25770 net.cpp:380] cont_13_lstm1_cont_slice_12_split -> cont_13_lstm1_cont_slice_12_split_0
I0222 17:54:01.037693 25770 net.cpp:380] cont_13_lstm1_cont_slice_12_split -> cont_13_lstm1_cont_slice_12_split_1
I0222 17:54:01.037709 25770 net.cpp:122] Setting up cont_13_lstm1_cont_slice_12_split
I0222 17:54:01.037714 25770 net.cpp:129] Top shape: 1 26 (26)
I0222 17:54:01.037717 25770 net.cpp:129] Top shape: 1 26 (26)
I0222 17:54:01.037720 25770 net.cpp:137] Memory required for data: 23504
I0222 17:54:01.037724 25770 layer_factory.hpp:77] Creating layer cont_14_lstm1_cont_slice_13_split
I0222 17:54:01.037729 25770 net.cpp:84] Creating Layer cont_14_lstm1_cont_slice_13_split
I0222 17:54:01.037732 25770 net.cpp:406] cont_14_lstm1_cont_slice_13_split <- cont_14
I0222 17:54:01.037736 25770 net.cpp:380] cont_14_lstm1_cont_slice_13_split -> cont_14_lstm1_cont_slice_13_split_0
I0222 17:54:01.037745 25770 net.cpp:380] cont_14_lstm1_cont_slice_13_split -> cont_14_lstm1_cont_slice_13_split_1
I0222 17:54:01.037763 25770 net.cpp:122] Setting up cont_14_lstm1_cont_slice_13_split
I0222 17:54:01.037767 25770 net.cpp:129] Top shape: 1 26 (26)
I0222 17:54:01.037770 25770 net.cpp:129] Top shape: 1 26 (26)
I0222 17:54:01.037773 25770 net.cpp:137] Memory required for data: 23712
I0222 17:54:01.037776 25770 layer_factory.hpp:77] Creating layer cont_15_lstm1_cont_slice_14_split
I0222 17:54:01.037781 25770 net.cpp:84] Creating Layer cont_15_lstm1_cont_slice_14_split
I0222 17:54:01.040309 25770 net.cpp:406] cont_15_lstm1_cont_slice_14_split <- cont_15
I0222 17:54:01.040324 25770 net.cpp:380] cont_15_lstm1_cont_slice_14_split -> cont_15_lstm1_cont_slice_14_split_0
I0222 17:54:01.040333 25770 net.cpp:380] cont_15_lstm1_cont_slice_14_split -> cont_15_lstm1_cont_slice_14_split_1
I0222 17:54:01.040374 25770 net.cpp:122] Setting up cont_15_lstm1_cont_slice_14_split
I0222 17:54:01.040381 25770 net.cpp:129] Top shape: 1 26 (26)
I0222 17:54:01.040385 25770 net.cpp:129] Top shape: 1 26 (26)
I0222 17:54:01.040387 25770 net.cpp:137] Memory required for data: 23920
I0222 17:54:01.040390 25770 layer_factory.hpp:77] Creating layer cont_16_lstm1_cont_slice_15_split
I0222 17:54:01.040395 25770 net.cpp:84] Creating Layer cont_16_lstm1_cont_slice_15_split
I0222 17:54:01.040396 25770 net.cpp:406] cont_16_lstm1_cont_slice_15_split <- cont_16
I0222 17:54:01.040400 25770 net.cpp:380] cont_16_lstm1_cont_slice_15_split -> cont_16_lstm1_cont_slice_15_split_0
I0222 17:54:01.040408 25770 net.cpp:380] cont_16_lstm1_cont_slice_15_split -> cont_16_lstm1_cont_slice_15_split_1
I0222 17:54:01.040426 25770 net.cpp:122] Setting up cont_16_lstm1_cont_slice_15_split
I0222 17:54:01.040431 25770 net.cpp:129] Top shape: 1 26 (26)
I0222 17:54:01.040433 25770 net.cpp:129] Top shape: 1 26 (26)
I0222 17:54:01.040436 25770 net.cpp:137] Memory required for data: 24128
I0222 17:54:01.040439 25770 layer_factory.hpp:77] Creating layer cont_17_lstm1_cont_slice_16_split
I0222 17:54:01.040444 25770 net.cpp:84] Creating Layer cont_17_lstm1_cont_slice_16_split
I0222 17:54:01.040447 25770 net.cpp:406] cont_17_lstm1_cont_slice_16_split <- cont_17
I0222 17:54:01.040452 25770 net.cpp:380] cont_17_lstm1_cont_slice_16_split -> cont_17_lstm1_cont_slice_16_split_0
I0222 17:54:01.040457 25770 net.cpp:380] cont_17_lstm1_cont_slice_16_split -> cont_17_lstm1_cont_slice_16_split_1
I0222 17:54:01.040475 25770 net.cpp:122] Setting up cont_17_lstm1_cont_slice_16_split
I0222 17:54:01.040479 25770 net.cpp:129] Top shape: 1 26 (26)
I0222 17:54:01.040483 25770 net.cpp:129] Top shape: 1 26 (26)
I0222 17:54:01.040485 25770 net.cpp:137] Memory required for data: 24336
I0222 17:54:01.040488 25770 layer_factory.hpp:77] Creating layer cont_18_lstm1_cont_slice_17_split
I0222 17:54:01.040493 25770 net.cpp:84] Creating Layer cont_18_lstm1_cont_slice_17_split
I0222 17:54:01.040495 25770 net.cpp:406] cont_18_lstm1_cont_slice_17_split <- cont_18
I0222 17:54:01.040499 25770 net.cpp:380] cont_18_lstm1_cont_slice_17_split -> cont_18_lstm1_cont_slice_17_split_0
I0222 17:54:01.040504 25770 net.cpp:380] cont_18_lstm1_cont_slice_17_split -> cont_18_lstm1_cont_slice_17_split_1
I0222 17:54:01.040520 25770 net.cpp:122] Setting up cont_18_lstm1_cont_slice_17_split
I0222 17:54:01.040525 25770 net.cpp:129] Top shape: 1 26 (26)
I0222 17:54:01.040529 25770 net.cpp:129] Top shape: 1 26 (26)
I0222 17:54:01.040531 25770 net.cpp:137] Memory required for data: 24544
I0222 17:54:01.040534 25770 layer_factory.hpp:77] Creating layer cont_19_lstm1_cont_slice_18_split
I0222 17:54:01.040539 25770 net.cpp:84] Creating Layer cont_19_lstm1_cont_slice_18_split
I0222 17:54:01.040541 25770 net.cpp:406] cont_19_lstm1_cont_slice_18_split <- cont_19
I0222 17:54:01.040545 25770 net.cpp:380] cont_19_lstm1_cont_slice_18_split -> cont_19_lstm1_cont_slice_18_split_0
I0222 17:54:01.040558 25770 net.cpp:380] cont_19_lstm1_cont_slice_18_split -> cont_19_lstm1_cont_slice_18_split_1
I0222 17:54:01.040591 25770 net.cpp:122] Setting up cont_19_lstm1_cont_slice_18_split
I0222 17:54:01.040597 25770 net.cpp:129] Top shape: 1 26 (26)
I0222 17:54:01.040601 25770 net.cpp:129] Top shape: 1 26 (26)
I0222 17:54:01.040603 25770 net.cpp:137] Memory required for data: 24752
I0222 17:54:01.040606 25770 layer_factory.hpp:77] Creating layer cont_20_lstm1_cont_slice_19_split
I0222 17:54:01.040611 25770 net.cpp:84] Creating Layer cont_20_lstm1_cont_slice_19_split
I0222 17:54:01.040614 25770 net.cpp:406] cont_20_lstm1_cont_slice_19_split <- cont_20
I0222 17:54:01.040618 25770 net.cpp:380] cont_20_lstm1_cont_slice_19_split -> cont_20_lstm1_cont_slice_19_split_0
I0222 17:54:01.040623 25770 net.cpp:380] cont_20_lstm1_cont_slice_19_split -> cont_20_lstm1_cont_slice_19_split_1
I0222 17:54:01.040642 25770 net.cpp:122] Setting up cont_20_lstm1_cont_slice_19_split
I0222 17:54:01.040645 25770 net.cpp:129] Top shape: 1 26 (26)
I0222 17:54:01.040649 25770 net.cpp:129] Top shape: 1 26 (26)
I0222 17:54:01.040652 25770 net.cpp:137] Memory required for data: 24960
I0222 17:54:01.040654 25770 layer_factory.hpp:77] Creating layer cont_21_lstm1_cont_slice_20_split
I0222 17:54:01.040658 25770 net.cpp:84] Creating Layer cont_21_lstm1_cont_slice_20_split
I0222 17:54:01.040662 25770 net.cpp:406] cont_21_lstm1_cont_slice_20_split <- cont_21
I0222 17:54:01.040665 25770 net.cpp:380] cont_21_lstm1_cont_slice_20_split -> cont_21_lstm1_cont_slice_20_split_0
I0222 17:54:01.040670 25770 net.cpp:380] cont_21_lstm1_cont_slice_20_split -> cont_21_lstm1_cont_slice_20_split_1
I0222 17:54:01.040686 25770 net.cpp:122] Setting up cont_21_lstm1_cont_slice_20_split
I0222 17:54:01.040691 25770 net.cpp:129] Top shape: 1 26 (26)
I0222 17:54:01.040694 25770 net.cpp:129] Top shape: 1 26 (26)
I0222 17:54:01.040697 25770 net.cpp:137] Memory required for data: 25168
I0222 17:54:01.040700 25770 layer_factory.hpp:77] Creating layer cont_22_lstm1_cont_slice_21_split
I0222 17:54:01.040704 25770 net.cpp:84] Creating Layer cont_22_lstm1_cont_slice_21_split
I0222 17:54:01.040707 25770 net.cpp:406] cont_22_lstm1_cont_slice_21_split <- cont_22
I0222 17:54:01.040711 25770 net.cpp:380] cont_22_lstm1_cont_slice_21_split -> cont_22_lstm1_cont_slice_21_split_0
I0222 17:54:01.040715 25770 net.cpp:380] cont_22_lstm1_cont_slice_21_split -> cont_22_lstm1_cont_slice_21_split_1
I0222 17:54:01.040732 25770 net.cpp:122] Setting up cont_22_lstm1_cont_slice_21_split
I0222 17:54:01.040736 25770 net.cpp:129] Top shape: 1 26 (26)
I0222 17:54:01.040740 25770 net.cpp:129] Top shape: 1 26 (26)
I0222 17:54:01.040742 25770 net.cpp:137] Memory required for data: 25376
I0222 17:54:01.040745 25770 layer_factory.hpp:77] Creating layer cont_23_lstm1_cont_slice_22_split
I0222 17:54:01.040750 25770 net.cpp:84] Creating Layer cont_23_lstm1_cont_slice_22_split
I0222 17:54:01.040752 25770 net.cpp:406] cont_23_lstm1_cont_slice_22_split <- cont_23
I0222 17:54:01.040755 25770 net.cpp:380] cont_23_lstm1_cont_slice_22_split -> cont_23_lstm1_cont_slice_22_split_0
I0222 17:54:01.040760 25770 net.cpp:380] cont_23_lstm1_cont_slice_22_split -> cont_23_lstm1_cont_slice_22_split_1
I0222 17:54:01.040776 25770 net.cpp:122] Setting up cont_23_lstm1_cont_slice_22_split
I0222 17:54:01.040781 25770 net.cpp:129] Top shape: 1 26 (26)
I0222 17:54:01.040784 25770 net.cpp:129] Top shape: 1 26 (26)
I0222 17:54:01.040786 25770 net.cpp:137] Memory required for data: 25584
I0222 17:54:01.040789 25770 layer_factory.hpp:77] Creating layer cont_24_lstm1_cont_slice_23_split
I0222 17:54:01.040793 25770 net.cpp:84] Creating Layer cont_24_lstm1_cont_slice_23_split
I0222 17:54:01.040796 25770 net.cpp:406] cont_24_lstm1_cont_slice_23_split <- cont_24
I0222 17:54:01.040801 25770 net.cpp:380] cont_24_lstm1_cont_slice_23_split -> cont_24_lstm1_cont_slice_23_split_0
I0222 17:54:01.040804 25770 net.cpp:380] cont_24_lstm1_cont_slice_23_split -> cont_24_lstm1_cont_slice_23_split_1
I0222 17:54:01.040822 25770 net.cpp:122] Setting up cont_24_lstm1_cont_slice_23_split
I0222 17:54:01.040825 25770 net.cpp:129] Top shape: 1 26 (26)
I0222 17:54:01.040829 25770 net.cpp:129] Top shape: 1 26 (26)
I0222 17:54:01.040838 25770 net.cpp:137] Memory required for data: 25792
I0222 17:54:01.040840 25770 layer_factory.hpp:77] Creating layer lstm1_x_transform
I0222 17:54:01.040851 25770 net.cpp:84] Creating Layer lstm1_x_transform
I0222 17:54:01.040854 25770 net.cpp:406] lstm1_x_transform <- x
I0222 17:54:01.040859 25770 net.cpp:380] lstm1_x_transform -> W_xc_x
I0222 17:54:01.040935 25770 net.cpp:122] Setting up lstm1_x_transform
I0222 17:54:01.067653 25770 net.cpp:129] Top shape: 24 26 256 (159744)
I0222 17:54:01.067664 25770 net.cpp:137] Memory required for data: 664768
I0222 17:54:01.067698 25770 layer_factory.hpp:77] Creating layer lstm1_W_xc_x_slice
I0222 17:54:01.067724 25770 net.cpp:84] Creating Layer lstm1_W_xc_x_slice
I0222 17:54:01.067729 25770 net.cpp:406] lstm1_W_xc_x_slice <- W_xc_x
I0222 17:54:01.067737 25770 net.cpp:380] lstm1_W_xc_x_slice -> W_xc_x_1
I0222 17:54:01.067760 25770 net.cpp:380] lstm1_W_xc_x_slice -> W_xc_x_2
…
I0222 17:54:01.067922 25770 net.cpp:380] lstm1_W_xc_x_slice -> W_xc_x_18
I0222 17:54:01.067927 25770 net.cpp:380] lstm1_W_xc_x_slice -> W_xc_x_19
I0222 17:54:01.067946 25770 net.cpp:380] lstm1_W_xc_x_slice -> W_xc_x_20
I0222 17:54:01.067952 25770 net.cpp:380] lstm1_W_xc_x_slice -> W_xc_x_21
I0222 17:54:01.067957 25770 net.cpp:380] lstm1_W_xc_x_slice -> W_xc_x_22
I0222 17:54:01.067962 25770 net.cpp:380] lstm1_W_xc_x_slice -> W_xc_x_23
I0222 17:54:01.067967 25770 net.cpp:380] lstm1_W_xc_x_slice -> W_xc_x_24
I0222 17:54:01.068188 25770 net.cpp:122] Setting up lstm1_W_xc_x_slice
I0222 17:54:01.068194 25770 net.cpp:129] Top shape: 1 26 256 (6656)
I0222 17:54:01.068197 25770 net.cpp:129] Top shape: 1 26 256 (6656)
I0222 17:54:01.068202 25770 net.cpp:129] Top shape: 1 26 256 (6656)
I0222 17:54:01.068205 25770 net.cpp:129] Top shape: 1 26 256 (6656)
I0222 17:54:01.068208 25770 net.cpp:129] Top shape: 1 26 256 (6656)
I0222 17:54:01.068212 25770 net.cpp:129] Top shape: 1 26 256 (6656)
I0222 17:54:01.068215 25770 net.cpp:129] Top shape: 1 26 256 (6656)
I0222 17:54:01.068218 25770 net.cpp:129] Top shape: 1 26 256 (6656)
I0222 17:54:01.068222 25770 net.cpp:129] Top shape: 1 26 256 (6656)
I0222 17:54:01.068225 25770 net.cpp:129] Top shape: 1 26 256 (6656)
I0222 17:54:01.068228 25770 net.cpp:129] Top shape: 1 26 256 (6656)
I0222 17:54:01.068231 25770 net.cpp:129] Top shape: 1 26 256 (6656)
I0222 17:54:01.068235 25770 net.cpp:129] Top shape: 1 26 256 (6656)
I0222 17:54:01.068238 25770 net.cpp:129] Top shape: 1 26 256 (6656)
I0222 17:54:01.068241 25770 net.cpp:129] Top shape: 1 26 256 (6656)
I0222 17:54:01.068245 25770 net.cpp:129] Top shape: 1 26 256 (6656)
I0222 17:54:01.068248 25770 net.cpp:129] Top shape: 1 26 256 (6656)
I0222 17:54:01.068253 25770 net.cpp:129] Top shape: 1 26 256 (6656)
I0222 17:54:01.068255 25770 net.cpp:129] Top shape: 1 26 256 (6656)
I0222 17:54:01.068259 25770 net.cpp:129] Top shape: 1 26 256 (6656)
I0222 17:54:01.068262 25770 net.cpp:129] Top shape: 1 26 256 (6656)
I0222 17:54:01.068279 25770 net.cpp:129] Top shape: 1 26 256 (6656)
I0222 17:54:01.068284 25770 net.cpp:129] Top shape: 1 26 256 (6656)
I0222 17:54:01.068286 25770 net.cpp:129] Top shape: 1 26 256 (6656)
I0222 17:54:01.068289 25770 net.cpp:137] Memory required for data: 1303744
I0222 17:54:01.068292 25770 layer_factory.hpp:77] Creating layer lstm1_h_conted_0
I0222 17:54:01.068300 25770 net.cpp:84] Creating Layer lstm1_h_conted_0
I0222 17:54:01.068305 25770 net.cpp:406] lstm1_h_conted_0 <- h_0
I0222 17:54:01.068308 25770 net.cpp:406] lstm1_h_conted_0 <- cont_1_lstm1_cont_slice_0_split_0
I0222 17:54:01.068315 25770 net.cpp:380] lstm1_h_conted_0 -> h_conted_0
I0222 17:54:01.068358 25770 net.cpp:122] Setting up lstm1_h_conted_0
I0222 17:54:01.068365 25770 net.cpp:129] Top shape: 1 26 64 (1664)
I0222 17:54:01.068368 25770 net.cpp:137] Memory required for data: 1310400
I0222 17:54:01.068372 25770 layer_factory.hpp:77] Creating layer lstm1_transform_1
I0222 17:54:01.068378 25770 net.cpp:84] Creating Layer lstm1_transform_1
I0222 17:54:01.068382 25770 net.cpp:406] lstm1_transform_1 <- h_conted_0
I0222 17:54:01.068387 25770 net.cpp:380] lstm1_transform_1 -> W_hc_h_0
I0222 17:54:01.069125 25770 net.cpp:122] Setting up lstm1_transform_1
I0222 17:54:01.069136 25770 net.cpp:129] Top shape: 1 26 256 (6656)
I0222 17:54:01.069140 25770 net.cpp:137] Memory required for data: 1337024
I0222 17:54:01.069149 25770 layer_factory.hpp:77] Creating layer lstm1_gate_input_1
I0222 17:54:01.069160 25770 net.cpp:84] Creating Layer lstm1_gate_input_1
I0222 17:54:01.069164 25770 net.cpp:406] lstm1_gate_input_1 <- W_hc_h_0
I0222 17:54:01.069169 25770 net.cpp:406] lstm1_gate_input_1 <- W_xc_x_1
I0222 17:54:01.069173 25770 net.cpp:380] lstm1_gate_input_1 -> gate_input_1
I0222 17:54:01.069196 25770 net.cpp:122] Setting up lstm1_gate_input_1
I0222 17:54:01.069201 25770 net.cpp:129] Top shape: 1 26 256 (6656)
I0222 17:54:01.069206 25770 net.cpp:137] Memory required for data: 1363648
I0222 17:54:01.069211 25770 layer_factory.hpp:77] Creating layer lstm1_unit_1
I0222 17:54:01.069222 25770 net.cpp:84] Creating Layer lstm1_unit_1
I0222 17:54:01.069231 25770 net.cpp:406] lstm1_unit_1 <- c_0
I0222 17:54:01.069236 25770 net.cpp:406] lstm1_unit_1 <- gate_input_1
I0222 17:54:01.069239 25770 net.cpp:406] lstm1_unit_1 <- cont_1_lstm1_cont_slice_0_split_1
I0222 17:54:01.069244 25770 net.cpp:380] lstm1_unit_1 -> c_1
I0222 17:54:01.069249 25770 net.cpp:380] lstm1_unit_1 -> h_1
I0222 17:54:01.069279 25770 net.cpp:122] Setting up lstm1_unit_1
I0222 17:54:01.069284 25770 net.cpp:129] Top shape: 1 26 64 (1664)
I0222 17:54:01.069288 25770 net.cpp:129] Top shape: 1 26 64 (1664)
I0222 17:54:01.069291 25770 net.cpp:137] Memory required for data: 1376960
I0222 17:54:01.069294 25770 layer_factory.hpp:77] Creating layer h_1_lstm1_unit_1_1_split
I0222 17:54:01.069298 25770 net.cpp:84] Creating Layer h_1_lstm1_unit_1_1_split
I0222 17:54:01.069301 25770 net.cpp:406] h_1_lstm1_unit_1_1_split <- h_1
I0222 17:54:01.069306 25770 net.cpp:380] h_1_lstm1_unit_1_1_split -> h_1_lstm1_unit_1_1_split_0
I0222 17:54:01.069311 25770 net.cpp:380] h_1_lstm1_unit_1_1_split -> h_1_lstm1_unit_1_1_split_1
I0222 17:54:01.069331 25770 net.cpp:122] Setting up h_1_lstm1_unit_1_1_split
I0222 17:54:01.069335 25770 net.cpp:129] Top shape: 1 26 64 (1664)
I0222 17:54:01.069339 25770 net.cpp:129] Top shape: 1 26 64 (1664)
I0222 17:54:01.069342 25770 net.cpp:137] Memory required for data: 1390272
I0222 17:54:01.069345 25770 layer_factory.hpp:77] Creating layer lstm1_h_conted_1
I0222 17:54:01.069351 25770 net.cpp:84] Creating Layer lstm1_h_conted_1
I0222 17:54:01.069375 25770 net.cpp:406] lstm1_h_conted_1 <- h_1_lstm1_unit_1_1_split_0
I0222 17:54:01.069381 25770 net.cpp:406] lstm1_h_conted_1 <- cont_2_lstm1_cont_slice_1_split_0
I0222 17:54:01.069386 25770 net.cpp:380] lstm1_h_conted_1 -> h_conted_1
I0222 17:54:01.069424 25770 net.cpp:122] Setting up lstm1_h_conted_1
I0222 17:54:01.069429 25770 net.cpp:129] Top shape: 1 26 64 (1664)
I0222 17:54:01.069432 25770 net.cpp:137] Memory required for data: 1396928
I0222 17:54:01.069435 25770 layer_factory.hpp:77] Creating layer lstm1_transform_2
I0222 17:54:01.069449 25770 net.cpp:84] Creating Layer lstm1_transform_2
I0222 17:54:01.069453 25770 net.cpp:406] lstm1_transform_2 <- h_conted_1
I0222 17:54:01.069458 25770 net.cpp:380] lstm1_transform_2 -> W_hc_h_1
I0222 17:54:01.069556 25770 net.cpp:122] Setting up lstm1_transform_2
I0222 17:54:01.069561 25770 net.cpp:129] Top shape: 1 26 256 (6656)
I0222 17:54:01.069564 25770 net.cpp:137] Memory required for data: 1423552
I0222 17:54:01.072129 25770 net.cpp:465] Sharing parameters 'W_hc' owned by layer 'lstm1_transform_1', param index 0
I0222 17:54:01.072140 25770 layer_factory.hpp:77] Creating layer lstm1_gate_input_2
I0222 17:54:01.072149 25770 net.cpp:84] Creating Layer lstm1_gate_input_2
I0222 17:54:01.072152 25770 net.cpp:406] lstm1_gate_input_2 <- W_hc_h_1
I0222 17:54:01.072160 25770 net.cpp:406] lstm1_gate_input_2 <- W_xc_x_2
I0222 17:54:01.072166 25770 net.cpp:380] lstm1_gate_input_2 -> gate_input_2
I0222 17:54:01.072207 25770 net.cpp:122] Setting up lstm1_gate_input_2
I0222 17:54:01.072214 25770 net.cpp:129] Top shape: 1 26 256 (6656)
I0222 17:54:01.072217 25770 net.cpp:137] Memory required for data: 1450176
I0222 17:54:01.072221 25770 layer_factory.hpp:77] Creating layer lstm1_unit_2
I0222 17:54:01.072226 25770 net.cpp:84] Creating Layer lstm1_unit_2
I0222 17:54:01.072230 25770 net.cpp:406] lstm1_unit_2 <- c_1
I0222 17:54:01.072234 25770 net.cpp:406] lstm1_unit_2 <- gate_input_2
I0222 17:54:01.072238 25770 net.cpp:406] lstm1_unit_2 <- cont_2_lstm1_cont_slice_1_split_1
I0222 17:54:01.072242 25770 net.cpp:380] lstm1_unit_2 -> c_2
I0222 17:54:01.072249 25770 net.cpp:380] lstm1_unit_2 -> h_2
I0222 17:54:01.072276 25770 net.cpp:122] Setting up lstm1_unit_2
I0222 17:54:01.072281 25770 net.cpp:129] Top shape: 1 26 64 (1664)
I0222 17:54:01.072285 25770 net.cpp:129] Top shape: 1 26 64 (1664)
I0222 17:54:01.072288 25770 net.cpp:137] Memory required for data: 1463488
I0222 17:54:01.072291 25770 layer_factory.hpp:77] Creating layer h_2_lstm1_unit_2_1_split
I0222 17:54:01.072296 25770 net.cpp:84] Creating Layer h_2_lstm1_unit_2_1_split
I0222 17:54:01.072299 25770 net.cpp:406] h_2_lstm1_unit_2_1_split <- h_2
I0222 17:54:01.072304 25770 net.cpp:380] h_2_lstm1_unit_2_1_split -> h_2_lstm1_unit_2_1_split_0
I0222 17:54:01.072309 25770 net.cpp:380] h_2_lstm1_unit_2_1_split -> h_2_lstm1_unit_2_1_split_1
I0222 17:54:01.072327 25770 net.cpp:122] Setting up h_2_lstm1_unit_2_1_split
I0222 17:54:01.072331 25770 net.cpp:129] Top shape: 1 26 64 (1664)
I0222 17:54:01.072335 25770 net.cpp:129] Top shape: 1 26 64 (1664)
I0222 17:54:01.072338 25770 net.cpp:137] Memory required for data: 1476800
I0222 17:54:01.072341 25770 layer_factory.hpp:77] Creating layer lstm1_h_conted_2
I0222 17:54:01.072346 25770 net.cpp:84] Creating Layer lstm1_h_conted_2
I0222 17:54:01.072350 25770 net.cpp:406] lstm1_h_conted_2 <- h_2_lstm1_unit_2_1_split_0
I0222 17:54:01.072355 25770 net.cpp:406] lstm1_h_conted_2 <- cont_3_lstm1_cont_slice_2_split_0
I0222 17:54:01.072360 25770 net.cpp:380] lstm1_h_conted_2 -> h_conted_2
I0222 17:54:01.072394 25770 net.cpp:122] Setting up lstm1_h_conted_2
I0222 17:54:01.072401 25770 net.cpp:129] Top shape: 1 26 64 (1664)
I0222 17:54:01.072403 25770 net.cpp:137] Memory required for data: 1483456
I0222 17:54:01.072407 25770 layer_factory.hpp:77] Creating layer lstm1_transform_3
I0222 17:54:01.072412 25770 net.cpp:84] Creating Layer lstm1_transform_3
I0222 17:54:01.072417 25770 net.cpp:406] lstm1_transform_3 <- h_conted_2
I0222 17:54:01.072420 25770 net.cpp:380] lstm1_transform_3 -> W_hc_h_2
I0222 17:54:01.072525 25770 net.cpp:122] Setting up lstm1_transform_3
I0222 17:54:01.072530 25770 net.cpp:129] Top shape: 1 26 256 (6656)
I0222 17:54:01.072532 25770 net.cpp:137] Memory required for data: 1510080
I0222 17:54:01.072540 25770 net.cpp:465] Sharing parameters 'W_hc' owned by layer 'lstm1_transform_1', param index 0
I0222 17:54:01.072543 25770 layer_factory.hpp:77] Creating layer lstm1_gate_input_3
I0222 17:54:01.072547 25770 net.cpp:84] Creating Layer lstm1_gate_input_3
I0222 17:54:01.072563 25770 net.cpp:406] lstm1_gate_input_3 <- W_hc_h_2
I0222 17:54:01.072568 25770 net.cpp:406] lstm1_gate_input_3 <- W_xc_x_3
I0222 17:54:01.072572 25770 net.cpp:380] lstm1_gate_input_3 -> gate_input_3
I0222 17:54:01.072587 25770 net.cpp:122] Setting up lstm1_gate_input_3
I0222 17:54:01.072592 25770 net.cpp:129] Top shape: 1 26 256 (6656)
I0222 17:54:01.072594 25770 net.cpp:137] Memory required for data: 1536704
I0222 17:54:01.072598 25770 layer_factory.hpp:77] Creating layer lstm1_unit_3
I0222 17:54:01.072602 25770 net.cpp:84] Creating Layer lstm1_unit_3
I0222 17:54:01.072605 25770 net.cpp:406] lstm1_unit_3 <- c_2
I0222 17:54:01.072609 25770 net.cpp:406] lstm1_unit_3 <- gate_input_3
I0222 17:54:01.072613 25770 net.cpp:406] lstm1_unit_3 <- cont_3_lstm1_cont_slice_2_split_1
I0222 17:54:01.072618 25770 net.cpp:380] lstm1_unit_3 -> c_3
I0222 17:54:01.072621 25770 net.cpp:380] lstm1_unit_3 -> h_3
I0222 17:54:01.072648 25770 net.cpp:122] Setting up lstm1_unit_3
I0222 17:54:01.072652 25770 net.cpp:129] Top shape: 1 26 64 (1664)
I0222 17:54:01.072656 25770 net.cpp:129] Top shape: 1 26 64 (1664)
I0222 17:54:01.072659 25770 net.cpp:137] Memory required for data: 1550016
I0222 17:54:01.072661 25770 layer_factory.hpp:77] Creating layer h_3_lstm1_unit_3_1_split
I0222 17:54:01.072665 25770 net.cpp:84] Creating Layer h_3_lstm1_unit_3_1_split
I0222 17:54:01.072669 25770 net.cpp:406] h_3_lstm1_unit_3_1_split <- h_3
I0222 17:54:01.072674 25770 net.cpp:380] h_3_lstm1_unit_3_1_split -> h_3_lstm1_unit_3_1_split_0
I0222 17:54:01.072677 25770 net.cpp:380] h_3_lstm1_unit_3_1_split -> h_3_lstm1_unit_3_1_split_1
I0222 17:54:01.072696 25770 net.cpp:122] Setting up h_3_lstm1_unit_3_1_split
I0222 17:54:01.072701 25770 net.cpp:129] Top shape: 1 26 64 (1664)
I0222 17:54:01.072705 25770 net.cpp:129] Top shape: 1 26 64 (1664)
I0222 17:54:01.072707 25770 net.cpp:137] Memory required for data: 1563328
I0222 17:54:01.072710 25770 layer_factory.hpp:77] Creating layer lstm1_h_conted_3
I0222 17:54:01.072715 25770 net.cpp:84] Creating Layer lstm1_h_conted_3
I0222 17:54:01.072718 25770 net.cpp:406] lstm1_h_conted_3 <- h_3_lstm1_unit_3_1_split_0
I0222 17:54:01.072722 25770 net.cpp:406] lstm1_h_conted_3 <- cont_4_lstm1_cont_slice_3_split_0
I0222 17:54:01.072726 25770 net.cpp:380] lstm1_h_conted_3 -> h_conted_3
I0222 17:54:01.072758 25770 net.cpp:122] Setting up lstm1_h_conted_3
I0222 17:54:01.072763 25770 net.cpp:129] Top shape: 1 26 64 (1664)
I0222 17:54:01.072767 25770 net.cpp:137] Memory required for data: 1569984
I0222 17:54:01.072769 25770 layer_factory.hpp:77] Creating layer lstm1_transform_4
I0222 17:54:01.072774 25770 net.cpp:84] Creating Layer lstm1_transform_4
I0222 17:54:01.072777 25770 net.cpp:406] lstm1_transform_4 <- h_conted_3
I0222 17:54:01.072783 25770 net.cpp:380] lstm1_transform_4 -> W_hc_h_3
I0222 17:54:01.072880 25770 net.cpp:122] Setting up lstm1_transform_4
I0222 17:54:01.072885 25770 net.cpp:129] Top shape: 1 26 256 (6656)
I0222 17:54:01.072887 25770 net.cpp:137] Memory required for data: 1596608
I0222 17:54:01.072891 25770 net.cpp:465] Sharing parameters 'W_hc' owned by layer 'lstm1_transform_1', param index 0
I0222 17:54:01.072895 25770 layer_factory.hpp:77] Creating layer lstm1_gate_input_4
I0222 17:54:01.072898 25770 net.cpp:84] Creating Layer lstm1_gate_input_4
I0222 17:54:01.072902 25770 net.cpp:406] lstm1_gate_input_4 <- W_hc_h_3
I0222 17:54:01.072906 25770 net.cpp:406] lstm1_gate_input_4 <- W_xc_x_4
I0222 17:54:01.072911 25770 net.cpp:380] lstm1_gate_input_4 -> gate_input_4
I0222 17:54:01.072924 25770 net.cpp:122] Setting up lstm1_gate_input_4
I0222 17:54:01.072928 25770 net.cpp:129] Top shape: 1 26 256 (6656)
I0222 17:54:01.072932 25770 net.cpp:137] Memory required for data: 1623232
I0222 17:54:01.072934 25770 layer_factory.hpp:77] Creating layer lstm1_unit_4
I0222 17:54:01.072938 25770 net.cpp:84] Creating Layer lstm1_unit_4
I0222 17:54:01.072942 25770 net.cpp:406] lstm1_unit_4 <- c_3
I0222 17:54:01.072945 25770 net.cpp:406] lstm1_unit_4 <- gate_input_4
I0222 17:54:01.072949 25770 net.cpp:406] lstm1_unit_4 <- cont_4_lstm1_cont_slice_3_split_1
I0222 17:54:01.072959 25770 net.cpp:380] lstm1_unit_4 -> c_4
I0222 17:54:01.072964 25770 net.cpp:380] lstm1_unit_4 -> h_4
I0222 17:54:01.072989 25770 net.cpp:122] Setting up lstm1_unit_4
I0222 17:54:01.098321 25770 net.cpp:129] Top shape: 1 26 64 (1664)
I0222 17:54:01.098332 25770 net.cpp:129] Top shape: 1 26 64 (1664)
I0222 17:54:01.098335 25770 net.cpp:137] Memory required for data: 1636544
I0222 17:54:01.098340 25770 layer_factory.hpp:77] Creating layer h_4_lstm1_unit_4_1_split
I0222 17:54:01.098350 25770 net.cpp:84] Creating Layer h_4_lstm1_unit_4_1_split
I0222 17:54:01.098354 25770 net.cpp:406] h_4_lstm1_unit_4_1_split <- h_4
I0222 17:54:01.098361 25770 net.cpp:380] h_4_lstm1_unit_4_1_split -> h_4_lstm1_unit_4_1_split_0
I0222 17:54:01.098367 25770 net.cpp:380] h_4_lstm1_unit_4_1_split -> h_4_lstm1_unit_4_1_split_1
I0222 17:54:01.098430 25770 net.cpp:122] Setting up h_4_lstm1_unit_4_1_split
I0222 17:54:01.098435 25770 net.cpp:129] Top shape: 1 26 64 (1664)
I0222 17:54:01.098439 25770 net.cpp:129] Top shape: 1 26 64 (1664)
I0222 17:54:01.098443 25770 net.cpp:137] Memory required for data: 1649856
I0222 17:54:01.098445 25770 layer_factory.hpp:77] Creating layer lstm1_h_conted_4
I0222 17:54:01.098450 25770 net.cpp:84] Creating Layer lstm1_h_conted_4
I0222 17:54:01.098453 25770 net.cpp:406] lstm1_h_conted_4 <- h_4_lstm1_unit_4_1_split_0
I0222 17:54:01.098457 25770 net.cpp:406] lstm1_h_conted_4 <- cont_5_lstm1_cont_slice_4_split_0
I0222 17:54:01.098461 25770 net.cpp:380] lstm1_h_conted_4 -> h_conted_4
I0222 17:54:01.098500 25770 net.cpp:122] Setting up lstm1_h_conted_4
I0222 17:54:01.098505 25770 net.cpp:129] Top shape: 1 26 64 (1664)
I0222 17:54:01.098507 25770 net.cpp:137] Memory required for data: 1656512
I0222 17:54:01.098510 25770 layer_factory.hpp:77] Creating layer lstm1_transform_5
I0222 17:54:01.098515 25770 net.cpp:84] Creating Layer lstm1_transform_5
I0222 17:54:01.098518 25770 net.cpp:406] lstm1_transform_5 <- h_conted_4
I0222 17:54:01.098522 25770 net.cpp:380] lstm1_transform_5 -> W_hc_h_4
I0222 17:54:01.098625 25770 net.cpp:122] Setting up lstm1_transform_5
I0222 17:54:01.098630 25770 net.cpp:129] Top shape: 1 26 256 (6656)
I0222 17:54:01.098632 25770 net.cpp:137] Memory required for data: 1683136
I0222 17:54:01.098635 25770 net.cpp:465] Sharing parameters 'W_hc' owned by layer 'lstm1_transform_1', param index 0
I0222 17:54:01.098639 25770 layer_factory.hpp:77] Creating layer lstm1_gate_input_5
I0222 17:54:01.098645 25770 net.cpp:84] Creating Layer lstm1_gate_input_5
I0222 17:54:01.098649 25770 net.cpp:406] lstm1_gate_input_5 <- W_hc_h_4
I0222 17:54:01.098652 25770 net.cpp:406] lstm1_gate_input_5 <- W_xc_x_5
I0222 17:54:01.098656 25770 net.cpp:380] lstm1_gate_input_5 -> gate_input_5
I0222 17:54:01.098670 25770 net.cpp:122] Setting up lstm1_gate_input_5
I0222 17:54:01.098673 25770 net.cpp:129] Top shape: 1 26 256 (6656)
I0222 17:54:01.098675 25770 net.cpp:137] Memory required for data: 1709760
I0222 17:54:01.098678 25770 layer_factory.hpp:77] Creating layer lstm1_unit_5
I0222 17:54:01.098682 25770 net.cpp:84] Creating Layer lstm1_unit_5
I0222 17:54:01.098685 25770 net.cpp:406] lstm1_unit_5 <- c_4
I0222 17:54:01.098688 25770 net.cpp:406] lstm1_unit_5 <- gate_input_5
I0222 17:54:01.098691 25770 net.cpp:406] lstm1_unit_5 <- cont_5_lstm1_cont_slice_4_split_1
I0222 17:54:01.098696 25770 net.cpp:380] lstm1_unit_5 -> c_5
I0222 17:54:01.098701 25770 net.cpp:380] lstm1_unit_5 -> h_5
I0222 17:54:01.098724 25770 net.cpp:122] Setting up lstm1_unit_5
I0222 17:54:01.098728 25770 net.cpp:129] Top shape: 1 26 64 (1664)
I0222 17:54:01.098731 25770 net.cpp:129] Top shape: 1 26 64 (1664)
I0222 17:54:01.098734 25770 net.cpp:137] Memory required for data: 1723072
I0222 17:54:01.098737 25770 layer_factory.hpp:77] Creating layer h_5_lstm1_unit_5_1_split
I0222 17:54:01.098739 25770 net.cpp:84] Creating Layer h_5_lstm1_unit_5_1_split
I0222 17:54:01.098742 25770 net.cpp:406] h_5_lstm1_unit_5_1_split <- h_5
I0222 17:54:01.098745 25770 net.cpp:380] h_5_lstm1_unit_5_1_split -> h_5_lstm1_unit_5_1_split_0
I0222 17:54:01.098759 25770 net.cpp:380] h_5_lstm1_unit_5_1_split -> h_5_lstm1_unit_5_1_split_1
I0222 17:54:01.098778 25770 net.cpp:122] Setting up h_5_lstm1_unit_5_1_split
I0222 17:54:01.098783 25770 net.cpp:129] Top shape: 1 26 64 (1664)
I0222 17:54:01.098785 25770 net.cpp:129] Top shape: 1 26 64 (1664)
I0222 17:54:01.098788 25770 net.cpp:137] Memory required for data: 1736384
I0222 17:54:01.101184 25770 layer_factory.hpp:77] Creating layer lstm1_h_conted_5
I0222 17:54:01.101197 25770 net.cpp:84] Creating Layer lstm1_h_conted_5
I0222 17:54:01.101203 25770 net.cpp:406] lstm1_h_conted_5 <- h_5_lstm1_unit_5_1_split_0
I0222 17:54:01.101208 25770 net.cpp:406] lstm1_h_conted_5 <- cont_6_lstm1_cont_slice_5_split_0
I0222 17:54:01.101213 25770 net.cpp:380] lstm1_h_conted_5 -> h_conted_5
I0222 17:54:01.101269 25770 net.cpp:122] Setting up lstm1_h_conted_5
I0222 17:54:01.101275 25770 net.cpp:129] Top shape: 1 26 64 (1664)
I0222 17:54:01.101279 25770 net.cpp:137] Memory required for data: 1743040
I0222 17:54:01.101281 25770 layer_factory.hpp:77] Creating layer lstm1_transform_6
I0222 17:54:01.101294 25770 net.cpp:84] Creating Layer lstm1_transform_6
I0222 17:54:01.101297 25770 net.cpp:406] lstm1_transform_6 <- h_conted_5
I0222 17:54:01.101302 25770 net.cpp:380] lstm1_transform_6 -> W_hc_h_5
I0222 17:54:01.101414 25770 net.cpp:122] Setting up lstm1_transform_6
I0222 17:54:01.101419 25770 net.cpp:129] Top shape: 1 26 256 (6656)
I0222 17:54:01.101423 25770 net.cpp:137] Memory required for data: 1769664
I0222 17:54:01.101426 25770 net.cpp:465] Sharing parameters 'W_hc' owned by layer 'lstm1_transform_1', param index 0
I0222 17:54:01.101430 25770 layer_factory.hpp:77] Creating layer lstm1_gate_input_6
I0222 17:54:01.101435 25770 net.cpp:84] Creating Layer lstm1_gate_input_6
I0222 17:54:01.101439 25770 net.cpp:406] lstm1_gate_input_6 <- W_hc_h_5
I0222 17:54:01.101444 25770 net.cpp:406] lstm1_gate_input_6 <- W_xc_x_6
I0222 17:54:01.101451 25770 net.cpp:380] lstm1_gate_input_6 -> gate_input_6
I0222 17:54:01.101466 25770 net.cpp:122] Setting up lstm1_gate_input_6
I0222 17:54:01.101471 25770 net.cpp:129] Top shape: 1 26 256 (6656)
I0222 17:54:01.101475 25770 net.cpp:137] Memory required for data: 1796288
I0222 17:54:01.101477 25770 layer_factory.hpp:77] Creating layer lstm1_unit_6
I0222 17:54:01.101481 25770 net.cpp:84] Creating Layer lstm1_unit_6
I0222 17:54:01.101485 25770 net.cpp:406] lstm1_unit_6 <- c_5
I0222 17:54:01.101490 25770 net.cpp:406] lstm1_unit_6 <- gate_input_6
I0222 17:54:01.101493 25770 net.cpp:406] lstm1_unit_6 <- cont_6_lstm1_cont_slice_5_split_1
I0222 17:54:01.101497 25770 net.cpp:380] lstm1_unit_6 -> c_6
I0222 17:54:01.101503 25770 net.cpp:380] lstm1_unit_6 -> h_6
I0222 17:54:01.101528 25770 net.cpp:122] Setting up lstm1_unit_6
I0222 17:54:01.101533 25770 net.cpp:129] Top shape: 1 26 64 (1664)
I0222 17:54:01.101537 25770 net.cpp:129] Top shape: 1 26 64 (1664)
I0222 17:54:01.101539 25770 net.cpp:137] Memory required for data: 1809600
I0222 17:54:01.101543 25770 layer_factory.hpp:77] Creating layer h_6_lstm1_unit_6_1_split
I0222 17:54:01.101547 25770 net.cpp:84] Creating Layer h_6_lstm1_unit_6_1_split
I0222 17:54:01.101550 25770 net.cpp:406] h_6_lstm1_unit_6_1_split <- h_6
I0222 17:54:01.101554 25770 net.cpp:380] h_6_lstm1_unit_6_1_split -> h_6_lstm1_unit_6_1_split_0
I0222 17:54:01.101559 25770 net.cpp:380] h_6_lstm1_unit_6_1_split -> h_6_lstm1_unit_6_1_split_1
I0222 17:54:01.101577 25770 net.cpp:122] Setting up h_6_lstm1_unit_6_1_split
I0222 17:54:01.101583 25770 net.cpp:129] Top shape: 1 26 64 (1664)
I0222 17:54:01.101586 25770 net.cpp:129] Top shape: 1 26 64 (1664)
I0222 17:54:01.101589 25770 net.cpp:137] Memory required for data: 1822912
I0222 17:54:01.101593 25770 layer_factory.hpp:77] Creating layer lstm1_h_conted_6
I0222 17:54:01.101596 25770 net.cpp:84] Creating Layer lstm1_h_conted_6
I0222 17:54:01.101599 25770 net.cpp:406] lstm1_h_conted_6 <- h_6_lstm1_unit_6_1_split_0
I0222 17:54:01.101603 25770 net.cpp:406] lstm1_h_conted_6 <- cont_7_lstm1_cont_slice_6_split_0
I0222 17:54:01.101608 25770 net.cpp:380] lstm1_h_conted_6 -> h_conted_6
I0222 17:54:01.101651 25770 net.cpp:122] Setting up lstm1_h_conted_6
I0222 17:54:01.101656 25770 net.cpp:129] Top shape: 1 26 64 (1664)
I0222 17:54:01.101660 25770 net.cpp:137] Memory required for data: 1829568
I0222 17:54:01.101662 25770 layer_factory.hpp:77] Creating layer lstm1_transform_7
I0222 17:54:01.101668 25770 net.cpp:84] Creating Layer lstm1_transform_7
I0222 17:54:01.101671 25770 net.cpp:406] lstm1_transform_7 <- h_conted_6
I0222 17:54:01.101676 25770 net.cpp:380] lstm1_transform_7 -> W_hc_h_6
I0222 17:54:01.101773 25770 net.cpp:122] Setting up lstm1_transform_7
I0222 17:54:01.101778 25770 net.cpp:129] Top shape: 1 26 256 (6656)
I0222 17:54:01.101780 25770 net.cpp:137] Memory required for data: 1856192
I0222 17:54:01.101788 25770 net.cpp:465] Sharing parameters 'W_hc' owned by layer 'lstm1_transform_1', param index 0
I0222 17:54:01.101791 25770 layer_factory.hpp:77] Creating layer lstm1_gate_input_7
I0222 17:54:01.101795 25770 net.cpp:84] Creating Layer lstm1_gate_input_7
I0222 17:54:01.101799 25770 net.cpp:406] lstm1_gate_input_7 <- W_hc_h_6
I0222 17:54:01.101804 25770 net.cpp:406] lstm1_gate_input_7 <- W_xc_x_7
I0222 17:54:01.101807 25770 net.cpp:380] lstm1_gate_input_7 -> gate_input_7
I0222 17:54:01.101821 25770 net.cpp:122] Setting up lstm1_gate_input_7
I0222 17:54:01.101826 25770 net.cpp:129] Top shape: 1 26 256 (6656)
I0222 17:54:01.101830 25770 net.cpp:137] Memory required for data: 1882816
I0222 17:54:01.101832 25770 layer_factory.hpp:77] Creating layer lstm1_unit_7
I0222 17:54:01.101836 25770 net.cpp:84] Creating Layer lstm1_unit_7
I0222 17:54:01.101840 25770 net.cpp:406] lstm1_unit_7 <- c_6
I0222 17:54:01.101845 25770 net.cpp:406] lstm1_unit_7 <- gate_input_7
I0222 17:54:01.101847 25770 net.cpp:406] lstm1_unit_7 <- cont_7_lstm1_cont_slice_6_split_1
I0222 17:54:01.101852 25770 net.cpp:380] lstm1_unit_7 -> c_7
I0222 17:54:01.101857 25770 net.cpp:380] lstm1_unit_7 -> h_7
I0222 17:54:01.101883 25770 net.cpp:122] Setting up lstm1_unit_7
I0222 17:54:01.101888 25770 net.cpp:129] Top shape: 1 26 64 (1664)
I0222 17:54:01.101891 25770 net.cpp:129] Top shape: 1 26 64 (1664)
I0222 17:54:01.101894 25770 net.cpp:137] Memory required for data: 1896128
I0222 17:54:01.101897 25770 layer_factory.hpp:77] Creating layer h_7_lstm1_unit_7_1_split
I0222 17:54:01.101902 25770 net.cpp:84] Creating Layer h_7_lstm1_unit_7_1_split
I0222 17:54:01.101904 25770 net.cpp:406] h_7_lstm1_unit_7_1_split <- h_7
I0222 17:54:01.101908 25770 net.cpp:380] h_7_lstm1_unit_7_1_split -> h_7_lstm1_unit_7_1_split_0
I0222 17:54:01.101913 25770 net.cpp:380] h_7_lstm1_unit_7_1_split -> h_7_lstm1_unit_7_1_split_1
I0222 17:54:01.101933 25770 net.cpp:122] Setting up h_7_lstm1_unit_7_1_split
I0222 17:54:01.101938 25770 net.cpp:129] Top shape: 1 26 64 (1664)
I0222 17:54:01.101941 25770 net.cpp:129] Top shape: 1 26 64 (1664)
I0222 17:54:01.101944 25770 net.cpp:137] Memory required for data: 1909440
I0222 17:54:01.101948 25770 layer_factory.hpp:77] Creating layer lstm1_h_conted_7
I0222 17:54:01.101958 25770 net.cpp:84] Creating Layer lstm1_h_conted_7
I0222 17:54:01.101961 25770 net.cpp:406] lstm1_h_conted_7 <- h_7_lstm1_unit_7_1_split_0
I0222 17:54:01.101965 25770 net.cpp:406] lstm1_h_conted_7 <- cont_8_lstm1_cont_slice_7_split_0
I0222 17:54:01.101969 25770 net.cpp:380] lstm1_h_conted_7 -> h_conted_7
I0222 17:54:01.102001 25770 net.cpp:122] Setting up lstm1_h_conted_7
I0222 17:54:01.102006 25770 net.cpp:129] Top shape: 1 26 64 (1664)
I0222 17:54:01.102010 25770 net.cpp:137] Memory required for data: 1916096
I0222 17:54:01.102012 25770 layer_factory.hpp:77] Creating layer lstm1_transform_8
I0222 17:54:01.102018 25770 net.cpp:84] Creating Layer lstm1_transform_8
I0222 17:54:01.102021 25770 net.cpp:406] lstm1_transform_8 <- h_conted_7
I0222 17:54:01.102026 25770 net.cpp:380] lstm1_transform_8 -> W_hc_h_7
I0222 17:54:01.102129 25770 net.cpp:122] Setting up lstm1_transform_8
I0222 17:54:01.102138 25770 net.cpp:129] Top shape: 1 26 256 (6656)
I0222 17:54:01.102141 25770 net.cpp:137] Memory required for data: 1942720
I0222 17:54:01.102145 25770 net.cpp:465] Sharing parameters 'W_hc' owned by layer 'lstm1_transform_1', param index 0
I0222 17:54:01.102155 25770 layer_factory.hpp:77] Creating layer lstm1_gate_input_8
I0222 17:54:01.102162 25770 net.cpp:84] Creating Layer lstm1_gate_input_8
I0222 17:54:01.102166 25770 net.cpp:406] lstm1_gate_input_8 <- W_hc_h_7
I0222 17:54:01.102172 25770 net.cpp:406] lstm1_gate_input_8 <- W_xc_x_8
I0222 17:54:01.102179 25770 net.cpp:380] lstm1_gate_input_8 -> gate_input_8
I0222 17:54:01.102195 25770 net.cpp:122] Setting up lstm1_gate_input_8
I0222 17:54:01.102249 25770 net.cpp:129] Top shape: 1 26 256 (6656)
I0222 17:54:01.102255 25770 net.cpp:137] Memory required for data: 1969344
I0222 17:54:01.102259 25770 layer_factory.hpp:77] Creating layer lstm1_unit_8
I0222 17:54:01.102264 25770 net.cpp:84] Creating Layer lstm1_unit_8
I0222 17:54:01.102269 25770 net.cpp:406] lstm1_unit_8 <- c_7
I0222 17:54:01.102275 25770 net.cpp:406] lstm1_unit_8 <- gate_input_8
I0222 17:54:01.102280 25770 net.cpp:406] lstm1_unit_8 <- cont_8_lstm1_cont_slice_7_split_1
I0222 17:54:01.102288 25770 net.cpp:380] lstm1_unit_8 -> c_8
I0222 17:54:01.102295 25770 net.cpp:380] lstm1_unit_8 -> h_8
I0222 17:54:01.102330 25770 net.cpp:122] Setting up lstm1_unit_8
I0222 17:54:01.102339 25770 net.cpp:129] Top shape: 1 26 64 (1664)
I0222 17:54:01.102344 25770 net.cpp:129] Top shape: 1 26 64 (1664)
I0222 17:54:01.102347 25770 net.cpp:137] Memory required for data: 1982656
I0222 17:54:01.102351 25770 layer_factory.hpp:77] Creating layer h_8_lstm1_unit_8_1_split
I0222 17:54:01.102356 25770 net.cpp:84] Creating Layer h_8_lstm1_unit_8_1_split
I0222 17:54:01.102360 25770 net.cpp:406] h_8_lstm1_unit_8_1_split <- h_8
I0222 17:54:01.102366 25770 net.cpp:380] h_8_lstm1_unit_8_1_split -> h_8_lstm1_unit_8_1_split_0
I0222 17:54:01.102372 25770 net.cpp:380] h_8_lstm1_unit_8_1_split -> h_8_lstm1_unit_8_1_split_1
I0222 17:54:01.102396 25770 net.cpp:122] Setting up h_8_lstm1_unit_8_1_split
I0222 17:54:01.102401 25770 net.cpp:129] Top shape: 1 26 64 (1664)
I0222 17:54:01.102406 25770 net.cpp:129] Top shape: 1 26 64 (1664)
I0222 17:54:01.102409 25770 net.cpp:137] Memory required for data: 1995968
I0222 17:54:01.102413 25770 layer_factory.hpp:77] Creating layer lstm1_h_conted_8
I0222 17:54:01.102419 25770 net.cpp:84] Creating Layer lstm1_h_conted_8
I0222 17:54:01.102424 25770 net.cpp:406] lstm1_h_conted_8 <- h_8_lstm1_unit_8_1_split_0
I0222 17:54:01.102429 25770 net.cpp:406] lstm1_h_conted_8 <- cont_9_lstm1_cont_slice_8_split_0
I0222 17:54:01.102435 25770 net.cpp:380] lstm1_h_conted_8 -> h_conted_8
I0222 17:54:01.102473 25770 net.cpp:122] Setting up lstm1_h_conted_8
I0222 17:54:01.102480 25770 net.cpp:129] Top shape: 1 26 64 (1664)
I0222 17:54:01.102484 25770 net.cpp:137] Memory required for data: 2002624
I0222 17:54:01.102488 25770 layer_factory.hpp:77] Creating layer lstm1_transform_9
I0222 17:54:01.102495 25770 net.cpp:84] Creating Layer lstm1_transform_9
I0222 17:54:01.102500 25770 net.cpp:406] lstm1_transform_9 <- h_conted_8
I0222 17:54:01.102505 25770 net.cpp:380] lstm1_transform_9 -> W_hc_h_8
I0222 17:54:01.102615 25770 net.cpp:122] Setting up lstm1_transform_9
I0222 17:54:01.102622 25770 net.cpp:129] Top shape: 1 26 256 (6656)
I0222 17:54:01.102627 25770 net.cpp:137] Memory required for data: 2029248
I0222 17:54:01.102632 25770 net.cpp:465] Sharing parameters 'W_hc' owned by layer 'lstm1_transform_1', param index 0
I0222 17:54:01.102635 25770 layer_factory.hpp:77] Creating layer lstm1_gate_input_9
I0222 17:54:01.102641 25770 net.cpp:84] Creating Layer lstm1_gate_input_9
I0222 17:54:01.102646 25770 net.cpp:406] lstm1_gate_input_9 <- W_hc_h_8
I0222 17:54:01.102651 25770 net.cpp:406] lstm1_gate_input_9 <- W_xc_x_9
I0222 17:54:01.102658 25770 net.cpp:380] lstm1_gate_input_9 -> gate_input_9
I0222 17:54:01.102674 25770 net.cpp:122] Setting up lstm1_gate_input_9
I0222 17:54:01.102680 25770 net.cpp:129] Top shape: 1 26 256 (6656)
I0222 17:54:01.102684 25770 net.cpp:137] Memory required for data: 2055872
I0222 17:54:01.102689 25770 layer_factory.hpp:77] Creating layer lstm1_unit_9
I0222 17:54:01.102701 25770 net.cpp:84] Creating Layer lstm1_unit_9
I0222 17:54:01.102706 25770 net.cpp:406] lstm1_unit_9 <- c_8
I0222 17:54:01.102711 25770 net.cpp:406] lstm1_unit_9 <- gate_input_9
I0222 17:54:01.102717 25770 net.cpp:406] lstm1_unit_9 <- cont_9_lstm1_cont_slice_8_split_1
I0222 17:54:01.102722 25770 net.cpp:380] lstm1_unit_9 -> c_9
I0222 17:54:01.102730 25770 net.cpp:380] lstm1_unit_9 -> h_9
I0222 17:54:01.129413 25770 net.cpp:122] Setting up lstm1_unit_9
I0222 17:54:01.129428 25770 net.cpp:129] Top shape: 1 26 64 (1664)
I0222 17:54:01.129432 25770 net.cpp:129] Top shape: 1 26 64 (1664)
I0222 17:54:01.129436 25770 net.cpp:137] Memory required for data: 2069184
I0222 17:54:01.129439 25770 layer_factory.hpp:77] Creating layer h_9_lstm1_unit_9_1_split
I0222 17:54:01.129448 25770 net.cpp:84] Creating Layer h_9_lstm1_unit_9_1_split
I0222 17:54:01.129452 25770 net.cpp:406] h_9_lstm1_unit_9_1_split <- h_9
I0222 17:54:01.129457 25770 net.cpp:380] h_9_lstm1_unit_9_1_split -> h_9_lstm1_unit_9_1_split_0
I0222 17:54:01.129462 25770 net.cpp:380] h_9_lstm1_unit_9_1_split -> h_9_lstm1_unit_9_1_split_1
I0222 17:54:01.129483 25770 net.cpp:122] Setting up h_9_lstm1_unit_9_1_split
I0222 17:54:01.129488 25770 net.cpp:129] Top shape: 1 26 64 (1664)
I0222 17:54:01.129492 25770 net.cpp:129] Top shape: 1 26 64 (1664)
I0222 17:54:01.129494 25770 net.cpp:137] Memory required for data: 2082496
I0222 17:54:01.129498 25770 layer_factory.hpp:77] Creating layer lstm1_h_conted_9
I0222 17:54:01.129503 25770 net.cpp:84] Creating Layer lstm1_h_conted_9
I0222 17:54:01.129506 25770 net.cpp:406] lstm1_h_conted_9 <- h_9_lstm1_unit_9_1_split_0
I0222 17:54:01.129513 25770 net.cpp:406] lstm1_h_conted_9 <- cont_10_lstm1_cont_slice_9_split_0
I0222 17:54:01.129516 25770 net.cpp:380] lstm1_h_conted_9 -> h_conted_9
I0222 17:54:01.129556 25770 net.cpp:122] Setting up lstm1_h_conted_9
I0222 17:54:01.129562 25770 net.cpp:129] Top shape: 1 26 64 (1664)
I0222 17:54:01.129565 25770 net.cpp:137] Memory required for data: 2089152
I0222 17:54:01.129568 25770 layer_factory.hpp:77] Creating layer lstm1_transform_10
I0222 17:54:01.129575 25770 net.cpp:84] Creating Layer lstm1_transform_10
I0222 17:54:01.129577 25770 net.cpp:406] lstm1_transform_10 <- h_conted_9
I0222 17:54:01.129583 25770 net.cpp:380] lstm1_transform_10 -> W_hc_h_9
I0222 17:54:01.129693 25770 net.cpp:122] Setting up lstm1_transform_10
I0222 17:54:01.129699 25770 net.cpp:129] Top shape: 1 26 256 (6656)
I0222 17:54:01.129703 25770 net.cpp:137] Memory required for data: 2115776
I0222 17:54:01.129706 25770 net.cpp:465] Sharing parameters 'W_hc' owned by layer 'lstm1_transform_1', param index 0
I0222 17:54:01.129710 25770 layer_factory.hpp:77] Creating layer lstm1_gate_input_10
I0222 17:54:01.129716 25770 net.cpp:84] Creating Layer lstm1_gate_input_10
I0222 17:54:01.129719 25770 net.cpp:406] lstm1_gate_input_10 <- W_hc_h_9
I0222 17:54:01.129724 25770 net.cpp:406] lstm1_gate_input_10 <- W_xc_x_10
I0222 17:54:01.129729 25770 net.cpp:380] lstm1_gate_input_10 -> gate_input_10
I0222 17:54:01.129742 25770 net.cpp:122] Setting up lstm1_gate_input_10
I0222 17:54:01.129746 25770 net.cpp:129] Top shape: 1 26 256 (6656)
I0222 17:54:01.129750 25770 net.cpp:137] Memory required for data: 2142400
I0222 17:54:01.129752 25770 layer_factory.hpp:77] Creating layer lstm1_unit_10
I0222 17:54:01.129758 25770 net.cpp:84] Creating Layer lstm1_unit_10
I0222 17:54:01.129762 25770 net.cpp:406] lstm1_unit_10 <- c_9
I0222 17:54:01.129766 25770 net.cpp:406] lstm1_unit_10 <- gate_input_10
I0222 17:54:01.129770 25770 net.cpp:406] lstm1_unit_10 <- cont_10_lstm1_cont_slice_9_split_1
I0222 17:54:01.129775 25770 net.cpp:380] lstm1_unit_10 -> c_10
I0222 17:54:01.129781 25770 net.cpp:380] lstm1_unit_10 -> h_10
I0222 17:54:01.129808 25770 net.cpp:122] Setting up lstm1_unit_10
I0222 17:54:01.129814 25770 net.cpp:129] Top shape: 1 26 64 (1664)
I0222 17:54:01.129817 25770 net.cpp:129] Top shape: 1 26 64 (1664)
I0222 17:54:01.129820 25770 net.cpp:137] Memory required for data: 2155712
I0222 17:54:01.129823 25770 layer_factory.hpp:77] Creating layer h_10_lstm1_unit_10_1_split
I0222 17:54:01.129837 25770 net.cpp:84] Creating Layer h_10_lstm1_unit_10_1_split
I0222 17:54:01.129840 25770 net.cpp:406] h_10_lstm1_unit_10_1_split <- h_10
I0222 17:54:01.129847 25770 net.cpp:380] h_10_lstm1_unit_10_1_split -> h_10_lstm1_unit_10_1_split_0
I0222 17:54:01.129851 25770 net.cpp:380] h_10_lstm1_unit_10_1_split -> h_10_lstm1_unit_10_1_split_1
I0222 17:54:01.129870 25770 net.cpp:122] Setting up h_10_lstm1_unit_10_1_split
I0222 17:54:01.129875 25770 net.cpp:129] Top shape: 1 26 64 (1664)
I0222 17:54:01.129879 25770 net.cpp:129] Top shape: 1 26 64 (1664)
I0222 17:54:01.129881 25770 net.cpp:137] Memory required for data: 2169024
I0222 17:54:01.129884 25770 layer_factory.hpp:77] Creating layer lstm1_h_conted_10
I0222 17:54:01.129889 25770 net.cpp:84] Creating Layer lstm1_h_conted_10
I0222 17:54:01.129892 25770 net.cpp:406] lstm1_h_conted_10 <- h_10_lstm1_unit_10_1_split_0
I0222 17:54:01.129897 25770 net.cpp:406] lstm1_h_conted_10 <- cont_11_lstm1_cont_slice_10_split_0
I0222 17:54:01.129902 25770 net.cpp:380] lstm1_h_conted_10 -> h_conted_10
I0222 17:54:01.129935 25770 net.cpp:122] Setting up lstm1_h_conted_10
I0222 17:54:01.129940 25770 net.cpp:129] Top shape: 1 26 64 (1664)
I0222 17:54:01.129943 25770 net.cpp:137] Memory required for data: 2175680
I0222 17:54:01.129946 25770 layer_factory.hpp:77] Creating layer lstm1_transform_11
I0222 17:54:01.129951 25770 net.cpp:84] Creating Layer lstm1_transform_11
I0222 17:54:01.129954 25770 net.cpp:406] lstm1_transform_11 <- h_conted_10
I0222 17:54:01.129959 25770 net.cpp:380] lstm1_transform_11 -> W_hc_h_10
I0222 17:54:01.130056 25770 net.cpp:122] Setting up lstm1_transform_11
I0222 17:54:01.130061 25770 net.cpp:129] Top shape: 1 26 256 (6656)
I0222 17:54:01.130064 25770 net.cpp:137] Memory required for data: 2202304
I0222 17:54:01.130069 25770 net.cpp:465] Sharing parameters 'W_hc' owned by layer 'lstm1_transform_1', param index 0
I0222 17:54:01.130071 25770 layer_factory.hpp:77] Creating layer lstm1_gate_input_11
I0222 17:54:01.130079 25770 net.cpp:84] Creating Layer lstm1_gate_input_11
I0222 17:54:01.130081 25770 net.cpp:406] lstm1_gate_input_11 <- W_hc_h_10
I0222 17:54:01.130085 25770 net.cpp:406] lstm1_gate_input_11 <- W_xc_x_11
I0222 17:54:01.130089 25770 net.cpp:380] lstm1_gate_input_11 -> gate_input_11
I0222 17:54:01.130105 25770 net.cpp:122] Setting up lstm1_gate_input_11
I0222 17:54:01.130110 25770 net.cpp:129] Top shape: 1 26 256 (6656)
I0222 17:54:01.130115 25770 net.cpp:137] Memory required for data: 2228928
I0222 17:54:01.130118 25770 layer_factory.hpp:77] Creating layer lstm1_unit_11
I0222 17:54:01.130123 25770 net.cpp:84] Creating Layer lstm1_unit_11
I0222 17:54:01.130127 25770 net.cpp:406] lstm1_unit_11 <- c_10
I0222 17:54:01.130133 25770 net.cpp:406] lstm1_unit_11 <- gate_input_11
I0222 17:54:01.130137 25770 net.cpp:406] lstm1_unit_11 <- cont_11_lstm1_cont_slice_10_split_1
I0222 17:54:01.130144 25770 net.cpp:380] lstm1_unit_11 -> c_11
I0222 17:54:01.130151 25770 net.cpp:380] lstm1_unit_11 -> h_11
I0222 17:54:01.130182 25770 net.cpp:122] Setting up lstm1_unit_11
I0222 17:54:01.130187 25770 net.cpp:129] Top shape: 1 26 64 (1664)
I0222 17:54:01.130190 25770 net.cpp:129] Top shape: 1 26 64 (1664)
I0222 17:54:01.130193 25770 net.cpp:137] Memory required for data: 2242240
I0222 17:54:01.130197 25770 layer_factory.hpp:77] Creating layer h_11_lstm1_unit_11_1_split
I0222 17:54:01.130200 25770 net.cpp:84] Creating Layer h_11_lstm1_unit_11_1_split
I0222 17:54:01.130203 25770 net.cpp:406] h_11_lstm1_unit_11_1_split <- h_11
I0222 17:54:01.130208 25770 net.cpp:380] h_11_lstm1_unit_11_1_split -> h_11_lstm1_unit_11_1_split_0
I0222 17:54:01.130213 25770 net.cpp:380] h_11_lstm1_unit_11_1_split -> h_11_lstm1_unit_11_1_split_1
I0222 17:54:01.130230 25770 net.cpp:122] Setting up h_11_lstm1_unit_11_1_split
I0222 17:54:01.130235 25770 net.cpp:129] Top shape: 1 26 64 (1664)
I0222 17:54:01.130239 25770 net.cpp:129] Top shape: 1 26 64 (1664)
I0222 17:54:01.130241 25770 net.cpp:137] Memory required for data: 2255552
I0222 17:54:01.130244 25770 layer_factory.hpp:77] Creating layer lstm1_h_conted_11
I0222 17:54:01.130255 25770 net.cpp:84] Creating Layer lstm1_h_conted_11
I0222 17:54:01.130259 25770 net.cpp:406] lstm1_h_conted_11 <- h_11_lstm1_unit_11_1_split_0
I0222 17:54:01.134263 25770 net.cpp:406] lstm1_h_conted_11 <- cont_12_lstm1_cont_slice_11_split_0
I0222 17:54:01.134296 25770 net.cpp:380] lstm1_h_conted_11 -> h_conted_11
I0222 17:54:01.134392 25770 net.cpp:122] Setting up lstm1_h_conted_11
I0222 17:54:01.134414 25770 net.cpp:129] Top shape: 1 26 64 (1664)
I0222 17:54:01.134418 25770 net.cpp:137] Memory required for data: 2262208
I0222 17:54:01.134421 25770 layer_factory.hpp:77] Creating layer lstm1_transform_12
I0222 17:54:01.134428 25770 net.cpp:84] Creating Layer lstm1_transform_12
I0222 17:54:01.134433 25770 net.cpp:406] lstm1_transform_12 <- h_conted_11
I0222 17:54:01.134436 25770 net.cpp:380] lstm1_transform_12 -> W_hc_h_11
I0222 17:54:01.134580 25770 net.cpp:122] Setting up lstm1_transform_12
I0222 17:54:01.134585 25770 net.cpp:129] Top shape: 1 26 256 (6656)
I0222 17:54:01.134603 25770 net.cpp:137] Memory required for data: 2288832
I0222 17:54:01.134605 25770 net.cpp:465] Sharing parameters 'W_hc' owned by layer 'lstm1_transform_1', param index 0
I0222 17:54:01.134609 25770 layer_factory.hpp:77] Creating layer lstm1_gate_input_12
I0222 17:54:01.134614 25770 net.cpp:84] Creating Layer lstm1_gate_input_12
I0222 17:54:01.134618 25770 net.cpp:406] lstm1_gate_input_12 <- W_hc_h_11
I0222 17:54:01.134622 25770 net.cpp:406] lstm1_gate_input_12 <- W_xc_x_12
I0222 17:54:01.134629 25770 net.cpp:380] lstm1_gate_input_12 -> gate_input_12
I0222 17:54:01.134644 25770 net.cpp:122] Setting up lstm1_gate_input_12
I0222 17:54:01.134649 25770 net.cpp:129] Top shape: 1 26 256 (6656)
I0222 17:54:01.134651 25770 net.cpp:137] Memory required for data: 2315456
I0222 17:54:01.134654 25770 layer_factory.hpp:77] Creating layer lstm1_unit_12
I0222 17:54:01.134658 25770 net.cpp:84] Creating Layer lstm1_unit_12
I0222 17:54:01.134662 25770 net.cpp:406] lstm1_unit_12 <- c_11
I0222 17:54:01.134666 25770 net.cpp:406] lstm1_unit_12 <- gate_input_12
I0222 17:54:01.134670 25770 net.cpp:406] lstm1_unit_12 <- cont_12_lstm1_cont_slice_11_split_1
I0222 17:54:01.134675 25770 net.cpp:380] lstm1_unit_12 -> c_12
I0222 17:54:01.134680 25770 net.cpp:380] lstm1_unit_12 -> h_12
I0222 17:54:01.134706 25770 net.cpp:122] Setting up lstm1_unit_12
I0222 17:54:01.134711 25770 net.cpp:129] Top shape: 1 26 64 (1664)
I0222 17:54:01.134714 25770 net.cpp:129] Top shape: 1 26 64 (1664)
I0222 17:54:01.134717 25770 net.cpp:137] Memory required for data: 2328768
I0222 17:54:01.134721 25770 layer_factory.hpp:77] Creating layer h_12_lstm1_unit_12_1_split
I0222 17:54:01.134726 25770 net.cpp:84] Creating Layer h_12_lstm1_unit_12_1_split
I0222 17:54:01.134728 25770 net.cpp:406] h_12_lstm1_unit_12_1_split <- h_12
I0222 17:54:01.134732 25770 net.cpp:380] h_12_lstm1_unit_12_1_split -> h_12_lstm1_unit_12_1_split_0
I0222 17:54:01.134737 25770 net.cpp:380] h_12_lstm1_unit_12_1_split -> h_12_lstm1_unit_12_1_split_1
I0222 17:54:01.134755 25770 net.cpp:122] Setting up h_12_lstm1_unit_12_1_split
I0222 17:54:01.134760 25770 net.cpp:129] Top shape: 1 26 64 (1664)
I0222 17:54:01.134764 25770 net.cpp:129] Top shape: 1 26 64 (1664)
I0222 17:54:01.134766 25770 net.cpp:137] Memory required for data: 2342080
I0222 17:54:01.134769 25770 layer_factory.hpp:77] Creating layer lstm1_h_conted_12
I0222 17:54:01.134774 25770 net.cpp:84] Creating Layer lstm1_h_conted_12
I0222 17:54:01.134778 25770 net.cpp:406] lstm1_h_conted_12 <- h_12_lstm1_unit_12_1_split_0
I0222 17:54:01.134783 25770 net.cpp:406] lstm1_h_conted_12 <- cont_13_lstm1_cont_slice_12_split_0
I0222 17:54:01.134788 25770 net.cpp:380] lstm1_h_conted_12 -> h_conted_12
I0222 17:54:01.134819 25770 net.cpp:122] Setting up lstm1_h_conted_12
I0222 17:54:01.134824 25770 net.cpp:129] Top shape: 1 26 64 (1664)
I0222 17:54:01.134827 25770 net.cpp:137] Memory required for data: 2348736
I0222 17:54:01.134830 25770 layer_factory.hpp:77] Creating layer lstm1_transform_13
I0222 17:54:01.134836 25770 net.cpp:84] Creating Layer lstm1_transform_13
I0222 17:54:01.134855 25770 net.cpp:406] lstm1_transform_13 <- h_conted_12
I0222 17:54:01.134860 25770 net.cpp:380] lstm1_transform_13 -> W_hc_h_12
I0222 17:54:01.134955 25770 net.cpp:122] Setting up lstm1_transform_13
I0222 17:54:01.134960 25770 net.cpp:129] Top shape: 1 26 256 (6656)
I0222 17:54:01.134963 25770 net.cpp:137] Memory required for data: 2375360
I0222 17:54:01.134968 25770 net.cpp:465] Sharing parameters 'W_hc' owned by layer 'lstm1_transform_1', param index 0
I0222 17:54:01.134970 25770 layer_factory.hpp:77] Creating layer lstm1_gate_input_13
I0222 17:54:01.134975 25770 net.cpp:84] Creating Layer lstm1_gate_input_13
I0222 17:54:01.134979 25770 net.cpp:406] lstm1_gate_input_13 <- W_hc_h_12
I0222 17:54:01.134982 25770 net.cpp:406] lstm1_gate_input_13 <- W_xc_x_13
I0222 17:54:01.134986 25770 net.cpp:380] lstm1_gate_input_13 -> gate_input_13
I0222 17:54:01.135000 25770 net.cpp:122] Setting up lstm1_gate_input_13
I0222 17:54:01.135005 25770 net.cpp:129] Top shape: 1 26 256 (6656)
I0222 17:54:01.135009 25770 net.cpp:137] Memory required for data: 2401984
I0222 17:54:01.135011 25770 layer_factory.hpp:77] Creating layer lstm1_unit_13
I0222 17:54:01.135015 25770 net.cpp:84] Creating Layer lstm1_unit_13
I0222 17:54:01.135018 25770 net.cpp:406] lstm1_unit_13 <- c_12
I0222 17:54:01.135022 25770 net.cpp:406] lstm1_unit_13 <- gate_input_13
I0222 17:54:01.135026 25770 net.cpp:406] lstm1_unit_13 <- cont_13_lstm1_cont_slice_12_split_1
I0222 17:54:01.135030 25770 net.cpp:380] lstm1_unit_13 -> c_13
I0222 17:54:01.135035 25770 net.cpp:380] lstm1_unit_13 -> h_13
I0222 17:54:01.135061 25770 net.cpp:122] Setting up lstm1_unit_13
I0222 17:54:01.135066 25770 net.cpp:129] Top shape: 1 26 64 (1664)
I0222 17:54:01.135069 25770 net.cpp:129] Top shape: 1 26 64 (1664)
I0222 17:54:01.135072 25770 net.cpp:137] Memory required for data: 2415296
I0222 17:54:01.135076 25770 layer_factory.hpp:77] Creating layer h_13_lstm1_unit_13_1_split
I0222 17:54:01.135079 25770 net.cpp:84] Creating Layer h_13_lstm1_unit_13_1_split
I0222 17:54:01.135082 25770 net.cpp:406] h_13_lstm1_unit_13_1_split <- h_13
I0222 17:54:01.135087 25770 net.cpp:380] h_13_lstm1_unit_13_1_split -> h_13_lstm1_unit_13_1_split_0
I0222 17:54:01.135092 25770 net.cpp:380] h_13_lstm1_unit_13_1_split -> h_13_lstm1_unit_13_1_split_1
I0222 17:54:01.135110 25770 net.cpp:122] Setting up h_13_lstm1_unit_13_1_split
I0222 17:54:01.135115 25770 net.cpp:129] Top shape: 1 26 64 (1664)
I0222 17:54:01.135118 25770 net.cpp:129] Top shape: 1 26 64 (1664)
I0222 17:54:01.135121 25770 net.cpp:137] Memory required for data: 2428608
I0222 17:54:01.135124 25770 layer_factory.hpp:77] Creating layer lstm1_h_conted_13
I0222 17:54:01.135128 25770 net.cpp:84] Creating Layer lstm1_h_conted_13
I0222 17:54:01.135133 25770 net.cpp:406] lstm1_h_conted_13 <- h_13_lstm1_unit_13_1_split_0
I0222 17:54:01.135136 25770 net.cpp:406] lstm1_h_conted_13 <- cont_14_lstm1_cont_slice_13_split_0
I0222 17:54:01.135140 25770 net.cpp:380] lstm1_h_conted_13 -> h_conted_13
I0222 17:54:01.135172 25770 net.cpp:122] Setting up lstm1_h_conted_13
I0222 17:54:01.135177 25770 net.cpp:129] Top shape: 1 26 64 (1664)
I0222 17:54:01.135180 25770 net.cpp:137] Memory required for data: 2435264
I0222 17:54:01.135184 25770 layer_factory.hpp:77] Creating layer lstm1_transform_14
I0222 17:54:01.135187 25770 net.cpp:84] Creating Layer lstm1_transform_14
I0222 17:54:01.135191 25770 net.cpp:406] lstm1_transform_14 <- h_conted_13
I0222 17:54:01.135198 25770 net.cpp:380] lstm1_transform_14 -> W_hc_h_13
I0222 17:54:01.135294 25770 net.cpp:122] Setting up lstm1_transform_14
I0222 17:54:01.135300 25770 net.cpp:129] Top shape: 1 26 256 (6656)
I0222 17:54:01.135303 25770 net.cpp:137] Memory required for data: 2461888
I0222 17:54:01.135306 25770 net.cpp:465] Sharing parameters 'W_hc' owned by layer 'lstm1_transform_1', param index 0
I0222 17:54:01.135310 25770 layer_factory.hpp:77] Creating layer lstm1_gate_input_14
I0222 17:54:01.135314 25770 net.cpp:84] Creating Layer lstm1_gate_input_14
I0222 17:54:01.135318 25770 net.cpp:406] lstm1_gate_input_14 <- W_hc_h_13
I0222 17:54:01.160537 25770 net.cpp:406] lstm1_gate_input_14 <- W_xc_x_14
I0222 17:54:01.160586 25770 net.cpp:380] lstm1_gate_input_14 -> gate_input_14
I0222 17:54:01.160650 25770 net.cpp:122] Setting up lstm1_gate_input_14
I0222 17:54:01.160676 25770 net.cpp:129] Top shape: 1 26 256 (6656)
I0222 17:54:01.160682 25770 net.cpp:137] Memory required for data: 2488512
I0222 17:54:01.160688 25770 layer_factory.hpp:77] Creating layer lstm1_unit_14
I0222 17:54:01.160698 25770 net.cpp:84] Creating Layer lstm1_unit_14
I0222 17:54:01.160704 25770 net.cpp:406] lstm1_unit_14 <- c_13
I0222 17:54:01.160723 25770 net.cpp:406] lstm1_unit_14 <- gate_input_14
I0222 17:54:01.160728 25770 net.cpp:406] lstm1_unit_14 <- cont_14_lstm1_cont_slice_13_split_1
I0222 17:54:01.160749 25770 net.cpp:380] lstm1_unit_14 -> c_14
I0222 17:54:01.160758 25770 net.cpp:380] lstm1_unit_14 -> h_14
I0222 17:54:01.160840 25770 net.cpp:122] Setting up lstm1_unit_14
I0222 17:54:01.160861 25770 net.cpp:129] Top shape: 1 26 64 (1664)
I0222 17:54:01.160867 25770 net.cpp:129] Top shape: 1 26 64 (1664)
I0222 17:54:01.160871 25770 net.cpp:137] Memory required for data: 2501824
I0222 17:54:01.160876 25770 layer_factory.hpp:77] Creating layer h_14_lstm1_unit_14_1_split
I0222 17:54:01.160895 25770 net.cpp:84] Creating Layer h_14_lstm1_unit_14_1_split
I0222 17:54:01.160900 25770 net.cpp:406] h_14_lstm1_unit_14_1_split <- h_14
I0222 17:54:01.160919 25770 net.cpp:380] h_14_lstm1_unit_14_1_split -> h_14_lstm1_unit_14_1_split_0
I0222 17:54:01.160926 25770 net.cpp:380] h_14_lstm1_unit_14_1_split -> h_14_lstm1_unit_14_1_split_1
I0222 17:54:01.160953 25770 net.cpp:122] Setting up h_14_lstm1_unit_14_1_split
I0222 17:54:01.160960 25770 net.cpp:129] Top shape: 1 26 64 (1664)
I0222 17:54:01.160966 25770 net.cpp:129] Top shape: 1 26 64 (1664)
I0222 17:54:01.160970 25770 net.cpp:137] Memory required for data: 2515136
I0222 17:54:01.160975 25770 layer_factory.hpp:77] Creating layer lstm1_h_conted_14
I0222 17:54:01.160981 25770 net.cpp:84] Creating Layer lstm1_h_conted_14
I0222 17:54:01.160989 25770 net.cpp:406] lstm1_h_conted_14 <- h_14_lstm1_unit_14_1_split_0
I0222 17:54:01.160995 25770 net.cpp:406] lstm1_h_conted_14 <- cont_15_lstm1_cont_slice_14_split_0
I0222 17:54:01.161001 25770 net.cpp:380] lstm1_h_conted_14 -> h_conted_14
I0222 17:54:01.161056 25770 net.cpp:122] Setting up lstm1_h_conted_14
I0222 17:54:01.161062 25770 net.cpp:129] Top shape: 1 26 64 (1664)
I0222 17:54:01.161067 25770 net.cpp:137] Memory required for data: 2521792
I0222 17:54:01.161072 25770 layer_factory.hpp:77] Creating layer lstm1_transform_15
I0222 17:54:01.161080 25770 net.cpp:84] Creating Layer lstm1_transform_15
I0222 17:54:01.161085 25770 net.cpp:406] lstm1_transform_15 <- h_conted_14
I0222 17:54:01.161092 25770 net.cpp:380] lstm1_transform_15 -> W_hc_h_14
I0222 17:54:01.161231 25770 net.cpp:122] Setting up lstm1_transform_15
I0222 17:54:01.161238 25770 net.cpp:129] Top shape: 1 26 256 (6656)
I0222 17:54:01.161242 25770 net.cpp:137] Memory required for data: 2548416
I0222 17:54:01.161257 25770 net.cpp:465] Sharing parameters 'W_hc' owned by layer 'lstm1_transform_1', param index 0
I0222 17:54:01.161262 25770 layer_factory.hpp:77] Creating layer lstm1_gate_input_15
I0222 17:54:01.161270 25770 net.cpp:84] Creating Layer lstm1_gate_input_15
I0222 17:54:01.161275 25770 net.cpp:406] lstm1_gate_input_15 <- W_hc_h_14
I0222 17:54:01.161281 25770 net.cpp:406] lstm1_gate_input_15 <- W_xc_x_15
I0222 17:54:01.161288 25770 net.cpp:380] lstm1_gate_input_15 -> gate_input_15
I0222 17:54:01.161305 25770 net.cpp:122] Setting up lstm1_gate_input_15
I0222 17:54:01.161312 25770 net.cpp:129] Top shape: 1 26 256 (6656)
I0222 17:54:01.161316 25770 net.cpp:137] Memory required for data: 2575040
I0222 17:54:01.161321 25770 layer_factory.hpp:77] Creating layer lstm1_unit_15
I0222 17:54:01.161329 25770 net.cpp:84] Creating Layer lstm1_unit_15
I0222 17:54:01.161334 25770 net.cpp:406] lstm1_unit_15 <- c_14
I0222 17:54:01.161339 25770 net.cpp:406] lstm1_unit_15 <- gate_input_15
I0222 17:54:01.161377 25770 net.cpp:406] lstm1_unit_15 <- cont_15_lstm1_cont_slice_14_split_1
I0222 17:54:01.161386 25770 net.cpp:380] lstm1_unit_15 -> c_15
I0222 17:54:01.161393 25770 net.cpp:380] lstm1_unit_15 -> h_15
I0222 17:54:01.161428 25770 net.cpp:122] Setting up lstm1_unit_15
I0222 17:54:01.161435 25770 net.cpp:129] Top shape: 1 26 64 (1664)
I0222 17:54:01.161442 25770 net.cpp:129] Top shape: 1 26 64 (1664)
I0222 17:54:01.161447 25770 net.cpp:137] Memory required for data: 2588352
I0222 17:54:01.161450 25770 layer_factory.hpp:77] Creating layer h_15_lstm1_unit_15_1_split
I0222 17:54:01.161456 25770 net.cpp:84] Creating Layer h_15_lstm1_unit_15_1_split
I0222 17:54:01.161461 25770 net.cpp:406] h_15_lstm1_unit_15_1_split <- h_15
I0222 17:54:01.161468 25770 net.cpp:380] h_15_lstm1_unit_15_1_split -> h_15_lstm1_unit_15_1_split_0
I0222 17:54:01.161476 25770 net.cpp:380] h_15_lstm1_unit_15_1_split -> h_15_lstm1_unit_15_1_split_1
I0222 17:54:01.161501 25770 net.cpp:122] Setting up h_15_lstm1_unit_15_1_split
I0222 17:54:01.161507 25770 net.cpp:129] Top shape: 1 26 64 (1664)
I0222 17:54:01.161514 25770 net.cpp:129] Top shape: 1 26 64 (1664)
I0222 17:54:01.161518 25770 net.cpp:137] Memory required for data: 2601664
I0222 17:54:01.161522 25770 layer_factory.hpp:77] Creating layer lstm1_h_conted_15
I0222 17:54:01.161530 25770 net.cpp:84] Creating Layer lstm1_h_conted_15
I0222 17:54:01.161535 25770 net.cpp:406] lstm1_h_conted_15 <- h_15_lstm1_unit_15_1_split_0
I0222 17:54:01.161541 25770 net.cpp:406] lstm1_h_conted_15 <- cont_16_lstm1_cont_slice_15_split_0
I0222 17:54:01.161548 25770 net.cpp:380] lstm1_h_conted_15 -> h_conted_15
I0222 17:54:01.161593 25770 net.cpp:122] Setting up lstm1_h_conted_15
I0222 17:54:01.161600 25770 net.cpp:129] Top shape: 1 26 64 (1664)
I0222 17:54:01.161604 25770 net.cpp:137] Memory required for data: 2608320
I0222 17:54:01.161609 25770 layer_factory.hpp:77] Creating layer lstm1_transform_16
I0222 17:54:01.161617 25770 net.cpp:84] Creating Layer lstm1_transform_16
I0222 17:54:01.161622 25770 net.cpp:406] lstm1_transform_16 <- h_conted_15
I0222 17:54:01.161628 25770 net.cpp:380] lstm1_transform_16 -> W_hc_h_15
I0222 17:54:01.161756 25770 net.cpp:122] Setting up lstm1_transform_16
I0222 17:54:01.161763 25770 net.cpp:129] Top shape: 1 26 256 (6656)
I0222 17:54:01.161768 25770 net.cpp:137] Memory required for data: 2634944
I0222 17:54:01.161773 25770 net.cpp:465] Sharing parameters 'W_hc' owned by layer 'lstm1_transform_1', param index 0
I0222 17:54:01.161779 25770 layer_factory.hpp:77] Creating layer lstm1_gate_input_16
I0222 17:54:01.161787 25770 net.cpp:84] Creating Layer lstm1_gate_input_16
I0222 17:54:01.161792 25770 net.cpp:406] lstm1_gate_input_16 <- W_hc_h_15
I0222 17:54:01.161798 25770 net.cpp:406] lstm1_gate_input_16 <- W_xc_x_16
I0222 17:54:01.161804 25770 net.cpp:380] lstm1_gate_input_16 -> gate_input_16
I0222 17:54:01.161823 25770 net.cpp:122] Setting up lstm1_gate_input_16
I0222 17:54:01.161828 25770 net.cpp:129] Top shape: 1 26 256 (6656)
I0222 17:54:01.161834 25770 net.cpp:137] Memory required for data: 2661568
I0222 17:54:01.161837 25770 layer_factory.hpp:77] Creating layer lstm1_unit_16
I0222 17:54:01.161844 25770 net.cpp:84] Creating Layer lstm1_unit_16
I0222 17:54:01.161849 25770 net.cpp:406] lstm1_unit_16 <- c_15
I0222 17:54:01.161854 25770 net.cpp:406] lstm1_unit_16 <- gate_input_16
I0222 17:54:01.161859 25770 net.cpp:406] lstm1_unit_16 <- cont_16_lstm1_cont_slice_15_split_1
I0222 17:54:01.161867 25770 net.cpp:380] lstm1_unit_16 -> c_16
I0222 17:54:01.161875 25770 net.cpp:380] lstm1_unit_16 -> h_16
I0222 17:54:01.161907 25770 net.cpp:122] Setting up lstm1_unit_16
I0222 17:54:01.161914 25770 net.cpp:129] Top shape: 1 26 64 (1664)
I0222 17:54:01.161919 25770 net.cpp:129] Top shape: 1 26 64 (1664)
I0222 17:54:01.161924 25770 net.cpp:137] Memory required for data: 2674880
I0222 17:54:01.161928 25770 layer_factory.hpp:77] Creating layer h_16_lstm1_unit_16_1_split
I0222 17:54:01.166016 25770 net.cpp:84] Creating Layer h_16_lstm1_unit_16_1_split
I0222 17:54:01.166028 25770 net.cpp:406] h_16_lstm1_unit_16_1_split <- h_16
I0222 17:54:01.166049 25770 net.cpp:380] h_16_lstm1_unit_16_1_split -> h_16_lstm1_unit_16_1_split_0
I0222 17:54:01.166059 25770 net.cpp:380] h_16_lstm1_unit_16_1_split -> h_16_lstm1_unit_16_1_split_1
I0222 17:54:01.166105 25770 net.cpp:122] Setting up h_16_lstm1_unit_16_1_split
I0222 17:54:01.166115 25770 net.cpp:129] Top shape: 1 26 64 (1664)
I0222 17:54:01.166118 25770 net.cpp:129] Top shape: 1 26 64 (1664)
I0222 17:54:01.166121 25770 net.cpp:137] Memory required for data: 2688192
I0222 17:54:01.166124 25770 layer_factory.hpp:77] Creating layer lstm1_h_conted_16
I0222 17:54:01.166131 25770 net.cpp:84] Creating Layer lstm1_h_conted_16
I0222 17:54:01.166134 25770 net.cpp:406] lstm1_h_conted_16 <- h_16_lstm1_unit_16_1_split_0
I0222 17:54:01.166139 25770 net.cpp:406] lstm1_h_conted_16 <- cont_17_lstm1_cont_slice_16_split_0
I0222 17:54:01.166144 25770 net.cpp:380] lstm1_h_conted_16 -> h_conted_16
I0222 17:54:01.166187 25770 net.cpp:122] Setting up lstm1_h_conted_16
I0222 17:54:01.166193 25770 net.cpp:129] Top shape: 1 26 64 (1664)
I0222 17:54:01.166195 25770 net.cpp:137] Memory required for data: 2694848
I0222 17:54:01.166198 25770 layer_factory.hpp:77] Creating layer lstm1_transform_17
I0222 17:54:01.166205 25770 net.cpp:84] Creating Layer lstm1_transform_17
I0222 17:54:01.166208 25770 net.cpp:406] lstm1_transform_17 <- h_conted_16
I0222 17:54:01.166214 25770 net.cpp:380] lstm1_transform_17 -> W_hc_h_16
I0222 17:54:01.166319 25770 net.cpp:122] Setting up lstm1_transform_17
I0222 17:54:01.166324 25770 net.cpp:129] Top shape: 1 26 256 (6656)
I0222 17:54:01.166327 25770 net.cpp:137] Memory required for data: 2721472
I0222 17:54:01.166332 25770 net.cpp:465] Sharing parameters 'W_hc' owned by layer 'lstm1_transform_1', param index 0
I0222 17:54:01.166335 25770 layer_factory.hpp:77] Creating layer lstm1_gate_input_17
I0222 17:54:01.166342 25770 net.cpp:84] Creating Layer lstm1_gate_input_17
I0222 17:54:01.166344 25770 net.cpp:406] lstm1_gate_input_17 <- W_hc_h_16
I0222 17:54:01.166348 25770 net.cpp:406] lstm1_gate_input_17 <- W_xc_x_17
I0222 17:54:01.166354 25770 net.cpp:380] lstm1_gate_input_17 -> gate_input_17
I0222 17:54:01.166369 25770 net.cpp:122] Setting up lstm1_gate_input_17
I0222 17:54:01.166374 25770 net.cpp:129] Top shape: 1 26 256 (6656)
I0222 17:54:01.166376 25770 net.cpp:137] Memory required for data: 2748096
I0222 17:54:01.166379 25770 layer_factory.hpp:77] Creating layer lstm1_unit_17
I0222 17:54:01.166384 25770 net.cpp:84] Creating Layer lstm1_unit_17
I0222 17:54:01.166388 25770 net.cpp:406] lstm1_unit_17 <- c_16
I0222 17:54:01.166393 25770 net.cpp:406] lstm1_unit_17 <- gate_input_17
I0222 17:54:01.166396 25770 net.cpp:406] lstm1_unit_17 <- cont_17_lstm1_cont_slice_16_split_1
I0222 17:54:01.166400 25770 net.cpp:380] lstm1_unit_17 -> c_17
I0222 17:54:01.166406 25770 net.cpp:380] lstm1_unit_17 -> h_17
I0222 17:54:01.166432 25770 net.cpp:122] Setting up lstm1_unit_17
I0222 17:54:01.166437 25770 net.cpp:129] Top shape: 1 26 64 (1664)
I0222 17:54:01.166440 25770 net.cpp:129] Top shape: 1 26 64 (1664)
I0222 17:54:01.166443 25770 net.cpp:137] Memory required for data: 2761408
I0222 17:54:01.166446 25770 layer_factory.hpp:77] Creating layer h_17_lstm1_unit_17_1_split
I0222 17:54:01.166450 25770 net.cpp:84] Creating Layer h_17_lstm1_unit_17_1_split
I0222 17:54:01.166453 25770 net.cpp:406] h_17_lstm1_unit_17_1_split <- h_17
I0222 17:54:01.166457 25770 net.cpp:380] h_17_lstm1_unit_17_1_split -> h_17_lstm1_unit_17_1_split_0
I0222 17:54:01.166462 25770 net.cpp:380] h_17_lstm1_unit_17_1_split -> h_17_lstm1_unit_17_1_split_1
I0222 17:54:01.166481 25770 net.cpp:122] Setting up h_17_lstm1_unit_17_1_split
I0222 17:54:01.166486 25770 net.cpp:129] Top shape: 1 26 64 (1664)
I0222 17:54:01.166489 25770 net.cpp:129] Top shape: 1 26 64 (1664)
I0222 17:54:01.166492 25770 net.cpp:137] Memory required for data: 2774720
I0222 17:54:01.166496 25770 layer_factory.hpp:77] Creating layer lstm1_h_conted_17
I0222 17:54:01.166499 25770 net.cpp:84] Creating Layer lstm1_h_conted_17
I0222 17:54:01.166503 25770 net.cpp:406] lstm1_h_conted_17 <- h_17_lstm1_unit_17_1_split_0
I0222 17:54:01.166512 25770 net.cpp:406] lstm1_h_conted_17 <- cont_18_lstm1_cont_slice_17_split_0
I0222 17:54:01.166518 25770 net.cpp:380] lstm1_h_conted_17 -> h_conted_17
I0222 17:54:01.166551 25770 net.cpp:122] Setting up lstm1_h_conted_17
I0222 17:54:01.166556 25770 net.cpp:129] Top shape: 1 26 64 (1664)
I0222 17:54:01.166559 25770 net.cpp:137] Memory required for data: 2781376
I0222 17:54:01.166563 25770 layer_factory.hpp:77] Creating layer lstm1_transform_18
I0222 17:54:01.166568 25770 net.cpp:84] Creating Layer lstm1_transform_18
I0222 17:54:01.166573 25770 net.cpp:406] lstm1_transform_18 <- h_conted_17
I0222 17:54:01.166576 25770 net.cpp:380] lstm1_transform_18 -> W_hc_h_17
I0222 17:54:01.166682 25770 net.cpp:122] Setting up lstm1_transform_18
I0222 17:54:01.166688 25770 net.cpp:129] Top shape: 1 26 256 (6656)
I0222 17:54:01.166692 25770 net.cpp:137] Memory required for data: 2808000
I0222 17:54:01.166695 25770 net.cpp:465] Sharing parameters 'W_hc' owned by layer 'lstm1_transform_1', param index 0
I0222 17:54:01.166698 25770 layer_factory.hpp:77] Creating layer lstm1_gate_input_18
I0222 17:54:01.166703 25770 net.cpp:84] Creating Layer lstm1_gate_input_18
I0222 17:54:01.166707 25770 net.cpp:406] lstm1_gate_input_18 <- W_hc_h_17
I0222 17:54:01.166710 25770 net.cpp:406] lstm1_gate_input_18 <- W_xc_x_18
I0222 17:54:01.166715 25770 net.cpp:380] lstm1_gate_input_18 -> gate_input_18
I0222 17:54:01.166729 25770 net.cpp:122] Setting up lstm1_gate_input_18
I0222 17:54:01.166734 25770 net.cpp:129] Top shape: 1 26 256 (6656)
I0222 17:54:01.166738 25770 net.cpp:137] Memory required for data: 2834624
I0222 17:54:01.166740 25770 layer_factory.hpp:77] Creating layer lstm1_unit_18
I0222 17:54:01.166744 25770 net.cpp:84] Creating Layer lstm1_unit_18
I0222 17:54:01.166749 25770 net.cpp:406] lstm1_unit_18 <- c_17
I0222 17:54:01.166752 25770 net.cpp:406] lstm1_unit_18 <- gate_input_18
I0222 17:54:01.166755 25770 net.cpp:406] lstm1_unit_18 <- cont_18_lstm1_cont_slice_17_split_1
I0222 17:54:01.166759 25770 net.cpp:380] lstm1_unit_18 -> c_18
I0222 17:54:01.166764 25770 net.cpp:380] lstm1_unit_18 -> h_18
I0222 17:54:01.166788 25770 net.cpp:122] Setting up lstm1_unit_18
I0222 17:54:01.166793 25770 net.cpp:129] Top shape: 1 26 64 (1664)
I0222 17:54:01.166797 25770 net.cpp:129] Top shape: 1 26 64 (1664)
I0222 17:54:01.166800 25770 net.cpp:137] Memory required for data: 2847936
I0222 17:54:01.166803 25770 layer_factory.hpp:77] Creating layer h_18_lstm1_unit_18_1_split
I0222 17:54:01.166808 25770 net.cpp:84] Creating Layer h_18_lstm1_unit_18_1_split
I0222 17:54:01.166811 25770 net.cpp:406] h_18_lstm1_unit_18_1_split <- h_18
I0222 17:54:01.166815 25770 net.cpp:380] h_18_lstm1_unit_18_1_split -> h_18_lstm1_unit_18_1_split_0
I0222 17:54:01.166821 25770 net.cpp:380] h_18_lstm1_unit_18_1_split -> h_18_lstm1_unit_18_1_split_1
I0222 17:54:01.166842 25770 net.cpp:122] Setting up h_18_lstm1_unit_18_1_split
I0222 17:54:01.166847 25770 net.cpp:129] Top shape: 1 26 64 (1664)
I0222 17:54:01.166851 25770 net.cpp:129] Top shape: 1 26 64 (1664)
I0222 17:54:01.166854 25770 net.cpp:137] Memory required for data: 2861248
I0222 17:54:01.166857 25770 layer_factory.hpp:77] Creating layer lstm1_h_conted_18
I0222 17:54:01.166862 25770 net.cpp:84] Creating Layer lstm1_h_conted_18
I0222 17:54:01.166865 25770 net.cpp:406] lstm1_h_conted_18 <- h_18_lstm1_unit_18_1_split_0
I0222 17:54:01.166869 25770 net.cpp:406] lstm1_h_conted_18 <- cont_19_lstm1_cont_slice_18_split_0
I0222 17:54:01.166873 25770 net.cpp:380] lstm1_h_conted_18 -> h_conted_18
I0222 17:54:01.166905 25770 net.cpp:122] Setting up lstm1_h_conted_18
I0222 17:54:01.166910 25770 net.cpp:129] Top shape: 1 26 64 (1664)
I0222 17:54:01.191184 25770 net.cpp:137] Memory required for data: 2867904
I0222 17:54:01.191195 25770 layer_factory.hpp:77] Creating layer lstm1_transform_19
I0222 17:54:01.191206 25770 net.cpp:84] Creating Layer lstm1_transform_19
I0222 17:54:01.191211 25770 net.cpp:406] lstm1_transform_19 <- h_conted_18
I0222 17:54:01.191220 25770 net.cpp:380] lstm1_transform_19 -> W_hc_h_18
I0222 17:54:01.191375 25770 net.cpp:122] Setting up lstm1_transform_19
I0222 17:54:01.191381 25770 net.cpp:129] Top shape: 1 26 256 (6656)
I0222 17:54:01.191385 25770 net.cpp:137] Memory required for data: 2894528
I0222 17:54:01.191387 25770 net.cpp:465] Sharing parameters 'W_hc' owned by layer 'lstm1_transform_1', param index 0
I0222 17:54:01.191391 25770 layer_factory.hpp:77] Creating layer lstm1_gate_input_19
I0222 17:54:01.191396 25770 net.cpp:84] Creating Layer lstm1_gate_input_19
I0222 17:54:01.191399 25770 net.cpp:406] lstm1_gate_input_19 <- W_hc_h_18
I0222 17:54:01.191402 25770 net.cpp:406] lstm1_gate_input_19 <- W_xc_x_19
I0222 17:54:01.191407 25770 net.cpp:380] lstm1_gate_input_19 -> gate_input_19
I0222 17:54:01.191424 25770 net.cpp:122] Setting up lstm1_gate_input_19
I0222 17:54:01.191428 25770 net.cpp:129] Top shape: 1 26 256 (6656)
I0222 17:54:01.191431 25770 net.cpp:137] Memory required for data: 2921152
I0222 17:54:01.191433 25770 layer_factory.hpp:77] Creating layer lstm1_unit_19
I0222 17:54:01.191438 25770 net.cpp:84] Creating Layer lstm1_unit_19
I0222 17:54:01.191442 25770 net.cpp:406] lstm1_unit_19 <- c_18
I0222 17:54:01.191445 25770 net.cpp:406] lstm1_unit_19 <- gate_input_19
I0222 17:54:01.191449 25770 net.cpp:406] lstm1_unit_19 <- cont_19_lstm1_cont_slice_18_split_1
I0222 17:54:01.191452 25770 net.cpp:380] lstm1_unit_19 -> c_19
I0222 17:54:01.191457 25770 net.cpp:380] lstm1_unit_19 -> h_19
I0222 17:54:01.191483 25770 net.cpp:122] Setting up lstm1_unit_19
I0222 17:54:01.191488 25770 net.cpp:129] Top shape: 1 26 64 (1664)
I0222 17:54:01.191490 25770 net.cpp:129] Top shape: 1 26 64 (1664)
I0222 17:54:01.191493 25770 net.cpp:137] Memory required for data: 2934464
I0222 17:54:01.191495 25770 layer_factory.hpp:77] Creating layer h_19_lstm1_unit_19_1_split
I0222 17:54:01.191498 25770 net.cpp:84] Creating Layer h_19_lstm1_unit_19_1_split
I0222 17:54:01.191501 25770 net.cpp:406] h_19_lstm1_unit_19_1_split <- h_19
I0222 17:54:01.191506 25770 net.cpp:380] h_19_lstm1_unit_19_1_split -> h_19_lstm1_unit_19_1_split_0
I0222 17:54:01.191510 25770 net.cpp:380] h_19_lstm1_unit_19_1_split -> h_19_lstm1_unit_19_1_split_1
I0222 17:54:01.191529 25770 net.cpp:122] Setting up h_19_lstm1_unit_19_1_split
I0222 17:54:01.191531 25770 net.cpp:129] Top shape: 1 26 64 (1664)
I0222 17:54:01.191534 25770 net.cpp:129] Top shape: 1 26 64 (1664)
I0222 17:54:01.191537 25770 net.cpp:137] Memory required for data: 2947776
I0222 17:54:01.191540 25770 layer_factory.hpp:77] Creating layer lstm1_h_conted_19
I0222 17:54:01.191543 25770 net.cpp:84] Creating Layer lstm1_h_conted_19
I0222 17:54:01.191546 25770 net.cpp:406] lstm1_h_conted_19 <- h_19_lstm1_unit_19_1_split_0
I0222 17:54:01.191550 25770 net.cpp:406] lstm1_h_conted_19 <- cont_20_lstm1_cont_slice_19_split_0
I0222 17:54:01.191556 25770 net.cpp:380] lstm1_h_conted_19 -> h_conted_19
I0222 17:54:01.191589 25770 net.cpp:122] Setting up lstm1_h_conted_19
I0222 17:54:01.191593 25770 net.cpp:129] Top shape: 1 26 64 (1664)
I0222 17:54:01.191596 25770 net.cpp:137] Memory required for data: 2954432
I0222 17:54:01.191598 25770 layer_factory.hpp:77] Creating layer lstm1_transform_20
I0222 17:54:01.191602 25770 net.cpp:84] Creating Layer lstm1_transform_20
I0222 17:54:01.191606 25770 net.cpp:406] lstm1_transform_20 <- h_conted_19
I0222 17:54:01.191609 25770 net.cpp:380] lstm1_transform_20 -> W_hc_h_19
I0222 17:54:01.191704 25770 net.cpp:122] Setting up lstm1_transform_20
I0222 17:54:01.191709 25770 net.cpp:129] Top shape: 1 26 256 (6656)
I0222 17:54:01.191710 25770 net.cpp:137] Memory required for data: 2981056
I0222 17:54:01.191714 25770 net.cpp:465] Sharing parameters 'W_hc' owned by layer 'lstm1_transform_1', param index 0
I0222 17:54:01.191716 25770 layer_factory.hpp:77] Creating layer lstm1_gate_input_20
I0222 17:54:01.191720 25770 net.cpp:84] Creating Layer lstm1_gate_input_20
I0222 17:54:01.194999 25770 net.cpp:406] lstm1_gate_input_20 <- W_hc_h_19
I0222 17:54:01.195013 25770 net.cpp:406] lstm1_gate_input_20 <- W_xc_x_20
I0222 17:54:01.195024 25770 net.cpp:380] lstm1_gate_input_20 -> gate_input_20
I0222 17:54:01.195071 25770 net.cpp:122] Setting up lstm1_gate_input_20
I0222 17:54:01.195080 25770 net.cpp:129] Top shape: 1 26 256 (6656)
I0222 17:54:01.195082 25770 net.cpp:137] Memory required for data: 3007680
I0222 17:54:01.195086 25770 layer_factory.hpp:77] Creating layer lstm1_unit_20
I0222 17:54:01.195091 25770 net.cpp:84] Creating Layer lstm1_unit_20
I0222 17:54:01.195096 25770 net.cpp:406] lstm1_unit_20 <- c_19
I0222 17:54:01.195102 25770 net.cpp:406] lstm1_unit_20 <- gate_input_20
I0222 17:54:01.195106 25770 net.cpp:406] lstm1_unit_20 <- cont_20_lstm1_cont_slice_19_split_1
I0222 17:54:01.195111 25770 net.cpp:380] lstm1_unit_20 -> c_20
I0222 17:54:01.195116 25770 net.cpp:380] lstm1_unit_20 -> h_20
I0222 17:54:01.195144 25770 net.cpp:122] Setting up lstm1_unit_20
I0222 17:54:01.195149 25770 net.cpp:129] Top shape: 1 26 64 (1664)
I0222 17:54:01.195153 25770 net.cpp:129] Top shape: 1 26 64 (1664)
I0222 17:54:01.195155 25770 net.cpp:137] Memory required for data: 3020992
I0222 17:54:01.195158 25770 layer_factory.hpp:77] Creating layer h_20_lstm1_unit_20_1_split
I0222 17:54:01.195175 25770 net.cpp:84] Creating Layer h_20_lstm1_unit_20_1_split
I0222 17:54:01.195180 25770 net.cpp:406] h_20_lstm1_unit_20_1_split <- h_20
I0222 17:54:01.195184 25770 net.cpp:380] h_20_lstm1_unit_20_1_split -> h_20_lstm1_unit_20_1_split_0
I0222 17:54:01.195189 25770 net.cpp:380] h_20_lstm1_unit_20_1_split -> h_20_lstm1_unit_20_1_split_1
I0222 17:54:01.195212 25770 net.cpp:122] Setting up h_20_lstm1_unit_20_1_split
I0222 17:54:01.195216 25770 net.cpp:129] Top shape: 1 26 64 (1664)
I0222 17:54:01.195220 25770 net.cpp:129] Top shape: 1 26 64 (1664)
I0222 17:54:01.195224 25770 net.cpp:137] Memory required for data: 3034304
I0222 17:54:01.195226 25770 layer_factory.hpp:77] Creating layer lstm1_h_conted_20
I0222 17:54:01.195231 25770 net.cpp:84] Creating Layer lstm1_h_conted_20
I0222 17:54:01.195235 25770 net.cpp:406] lstm1_h_conted_20 <- h_20_lstm1_unit_20_1_split_0
I0222 17:54:01.195238 25770 net.cpp:406] lstm1_h_conted_20 <- cont_21_lstm1_cont_slice_20_split_0
I0222 17:54:01.195245 25770 net.cpp:380] lstm1_h_conted_20 -> h_conted_20
I0222 17:54:01.195281 25770 net.cpp:122] Setting up lstm1_h_conted_20
I0222 17:54:01.195286 25770 net.cpp:129] Top shape: 1 26 64 (1664)
I0222 17:54:01.195289 25770 net.cpp:137] Memory required for data: 3040960
I0222 17:54:01.195292 25770 layer_factory.hpp:77] Creating layer lstm1_transform_21
I0222 17:54:01.195299 25770 net.cpp:84] Creating Layer lstm1_transform_21
I0222 17:54:01.195302 25770 net.cpp:406] lstm1_transform_21 <- h_conted_20
I0222 17:54:01.195307 25770 net.cpp:380] lstm1_transform_21 -> W_hc_h_20
I0222 17:54:01.195407 25770 net.cpp:122] Setting up lstm1_transform_21
I0222 17:54:01.195412 25770 net.cpp:129] Top shape: 1 26 256 (6656)
I0222 17:54:01.195415 25770 net.cpp:137] Memory required for data: 3067584
I0222 17:54:01.195420 25770 net.cpp:465] Sharing parameters 'W_hc' owned by layer 'lstm1_transform_1', param index 0
I0222 17:54:01.195423 25770 layer_factory.hpp:77] Creating layer lstm1_gate_input_21
I0222 17:54:01.195427 25770 net.cpp:84] Creating Layer lstm1_gate_input_21
I0222 17:54:01.195431 25770 net.cpp:406] lstm1_gate_input_21 <- W_hc_h_20
I0222 17:54:01.195436 25770 net.cpp:406] lstm1_gate_input_21 <- W_xc_x_21
I0222 17:54:01.195439 25770 net.cpp:380] lstm1_gate_input_21 -> gate_input_21
I0222 17:54:01.195453 25770 net.cpp:122] Setting up lstm1_gate_input_21
I0222 17:54:01.195457 25770 net.cpp:129] Top shape: 1 26 256 (6656)
I0222 17:54:01.195461 25770 net.cpp:137] Memory required for data: 3094208
I0222 17:54:01.195464 25770 layer_factory.hpp:77] Creating layer lstm1_unit_21
I0222 17:54:01.195468 25770 net.cpp:84] Creating Layer lstm1_unit_21
I0222 17:54:01.195472 25770 net.cpp:406] lstm1_unit_21 <- c_20
I0222 17:54:01.195475 25770 net.cpp:406] lstm1_unit_21 <- gate_input_21
I0222 17:54:01.195479 25770 net.cpp:406] lstm1_unit_21 <- cont_21_lstm1_cont_slice_20_split_1
I0222 17:54:01.195483 25770 net.cpp:380] lstm1_unit_21 -> c_21
I0222 17:54:01.195488 25770 net.cpp:380] lstm1_unit_21 -> h_21
I0222 17:54:01.195519 25770 net.cpp:122] Setting up lstm1_unit_21
I0222 17:54:01.195525 25770 net.cpp:129] Top shape: 1 26 64 (1664)
I0222 17:54:01.195528 25770 net.cpp:129] Top shape: 1 26 64 (1664)
I0222 17:54:01.195531 25770 net.cpp:137] Memory required for data: 3107520
I0222 17:54:01.195534 25770 layer_factory.hpp:77] Creating layer h_21_lstm1_unit_21_1_split
I0222 17:54:01.195538 25770 net.cpp:84] Creating Layer h_21_lstm1_unit_21_1_split
I0222 17:54:01.195542 25770 net.cpp:406] h_21_lstm1_unit_21_1_split <- h_21
I0222 17:54:01.195546 25770 net.cpp:380] h_21_lstm1_unit_21_1_split -> h_21_lstm1_unit_21_1_split_0
I0222 17:54:01.195550 25770 net.cpp:380] h_21_lstm1_unit_21_1_split -> h_21_lstm1_unit_21_1_split_1
I0222 17:54:01.195569 25770 net.cpp:122] Setting up h_21_lstm1_unit_21_1_split
I0222 17:54:01.195574 25770 net.cpp:129] Top shape: 1 26 64 (1664)
I0222 17:54:01.195578 25770 net.cpp:129] Top shape: 1 26 64 (1664)
I0222 17:54:01.195580 25770 net.cpp:137] Memory required for data: 3120832
I0222 17:54:01.195583 25770 layer_factory.hpp:77] Creating layer lstm1_h_conted_21
I0222 17:54:01.195587 25770 net.cpp:84] Creating Layer lstm1_h_conted_21
I0222 17:54:01.195591 25770 net.cpp:406] lstm1_h_conted_21 <- h_21_lstm1_unit_21_1_split_0
I0222 17:54:01.195595 25770 net.cpp:406] lstm1_h_conted_21 <- cont_22_lstm1_cont_slice_21_split_0
I0222 17:54:01.195600 25770 net.cpp:380] lstm1_h_conted_21 -> h_conted_21
I0222 17:54:01.195631 25770 net.cpp:122] Setting up lstm1_h_conted_21
I0222 17:54:01.195636 25770 net.cpp:129] Top shape: 1 26 64 (1664)
I0222 17:54:01.195639 25770 net.cpp:137] Memory required for data: 3127488
I0222 17:54:01.195642 25770 layer_factory.hpp:77] Creating layer lstm1_transform_22
I0222 17:54:01.195647 25770 net.cpp:84] Creating Layer lstm1_transform_22
I0222 17:54:01.195652 25770 net.cpp:406] lstm1_transform_22 <- h_conted_21
I0222 17:54:01.195657 25770 net.cpp:380] lstm1_transform_22 -> W_hc_h_21
I0222 17:54:01.195752 25770 net.cpp:122] Setting up lstm1_transform_22
I0222 17:54:01.195757 25770 net.cpp:129] Top shape: 1 26 256 (6656)
I0222 17:54:01.195760 25770 net.cpp:137] Memory required for data: 3154112
I0222 17:54:01.195765 25770 net.cpp:465] Sharing parameters 'W_hc' owned by layer 'lstm1_transform_1', param index 0
I0222 17:54:01.195767 25770 layer_factory.hpp:77] Creating layer lstm1_gate_input_22
I0222 17:54:01.195772 25770 net.cpp:84] Creating Layer lstm1_gate_input_22
I0222 17:54:01.195775 25770 net.cpp:406] lstm1_gate_input_22 <- W_hc_h_21
I0222 17:54:01.195780 25770 net.cpp:406] lstm1_gate_input_22 <- W_xc_x_22
I0222 17:54:01.195785 25770 net.cpp:380] lstm1_gate_input_22 -> gate_input_22
I0222 17:54:01.195796 25770 net.cpp:122] Setting up lstm1_gate_input_22
I0222 17:54:01.195801 25770 net.cpp:129] Top shape: 1 26 256 (6656)
I0222 17:54:01.195804 25770 net.cpp:137] Memory required for data: 3180736
I0222 17:54:01.195807 25770 layer_factory.hpp:77] Creating layer lstm1_unit_22
I0222 17:54:01.195813 25770 net.cpp:84] Creating Layer lstm1_unit_22
I0222 17:54:01.195816 25770 net.cpp:406] lstm1_unit_22 <- c_21
I0222 17:54:01.195821 25770 net.cpp:406] lstm1_unit_22 <- gate_input_22
I0222 17:54:01.195824 25770 net.cpp:406] lstm1_unit_22 <- cont_22_lstm1_cont_slice_21_split_1
I0222 17:54:01.195828 25770 net.cpp:380] lstm1_unit_22 -> c_22
I0222 17:54:01.195833 25770 net.cpp:380] lstm1_unit_22 -> h_22
I0222 17:54:01.195858 25770 net.cpp:122] Setting up lstm1_unit_22
I0222 17:54:01.195863 25770 net.cpp:129] Top shape: 1 26 64 (1664)
I0222 17:54:01.195865 25770 net.cpp:129] Top shape: 1 26 64 (1664)
I0222 17:54:01.195868 25770 net.cpp:137] Memory required for data: 3194048
I0222 17:54:01.195871 25770 layer_factory.hpp:77] Creating layer h_22_lstm1_unit_22_1_split
I0222 17:54:01.195876 25770 net.cpp:84] Creating Layer h_22_lstm1_unit_22_1_split
I0222 17:54:01.195880 25770 net.cpp:406] h_22_lstm1_unit_22_1_split <- h_22
I0222 17:54:01.195884 25770 net.cpp:380] h_22_lstm1_unit_22_1_split -> h_22_lstm1_unit_22_1_split_0
I0222 17:54:01.195888 25770 net.cpp:380] h_22_lstm1_unit_22_1_split -> h_22_lstm1_unit_22_1_split_1
I0222 17:54:01.195912 25770 net.cpp:122] Setting up h_22_lstm1_unit_22_1_split
I0222 17:54:01.195917 25770 net.cpp:129] Top shape: 1 26 64 (1664)
I0222 17:54:01.195930 25770 net.cpp:129] Top shape: 1 26 64 (1664)
I0222 17:54:01.195933 25770 net.cpp:137] Memory required for data: 3207360
I0222 17:54:01.195936 25770 layer_factory.hpp:77] Creating layer lstm1_h_conted_22
I0222 17:54:01.195941 25770 net.cpp:84] Creating Layer lstm1_h_conted_22
I0222 17:54:01.195945 25770 net.cpp:406] lstm1_h_conted_22 <- h_22_lstm1_unit_22_1_split_0
I0222 17:54:01.195952 25770 net.cpp:406] lstm1_h_conted_22 <- cont_23_lstm1_cont_slice_22_split_0
I0222 17:54:01.195956 25770 net.cpp:380] lstm1_h_conted_22 -> h_conted_22
I0222 17:54:01.195993 25770 net.cpp:122] Setting up lstm1_h_conted_22
I0222 17:54:01.195999 25770 net.cpp:129] Top shape: 1 26 64 (1664)
I0222 17:54:01.196002 25770 net.cpp:137] Memory required for data: 3214016
I0222 17:54:01.196005 25770 layer_factory.hpp:77] Creating layer lstm1_transform_23
I0222 17:54:01.196009 25770 net.cpp:84] Creating Layer lstm1_transform_23
I0222 17:54:01.196013 25770 net.cpp:406] lstm1_transform_23 <- h_conted_22
I0222 17:54:01.196017 25770 net.cpp:380] lstm1_transform_23 -> W_hc_h_22
I0222 17:54:01.196130 25770 net.cpp:122] Setting up lstm1_transform_23
I0222 17:54:01.196136 25770 net.cpp:129] Top shape: 1 26 256 (6656)
I0222 17:54:01.196139 25770 net.cpp:137] Memory required for data: 3240640
I0222 17:54:01.196143 25770 net.cpp:465] Sharing parameters 'W_hc' owned by layer 'lstm1_transform_1', param index 0
I0222 17:54:01.196146 25770 layer_factory.hpp:77] Creating layer lstm1_gate_input_23
I0222 17:54:01.196151 25770 net.cpp:84] Creating Layer lstm1_gate_input_23
I0222 17:54:01.196154 25770 net.cpp:406] lstm1_gate_input_23 <- W_hc_h_22
I0222 17:54:01.196158 25770 net.cpp:406] lstm1_gate_input_23 <- W_xc_x_23
I0222 17:54:01.196163 25770 net.cpp:380] lstm1_gate_input_23 -> gate_input_23
I0222 17:54:01.196177 25770 net.cpp:122] Setting up lstm1_gate_input_23
I0222 17:54:01.196182 25770 net.cpp:129] Top shape: 1 26 256 (6656)
I0222 17:54:01.196184 25770 net.cpp:137] Memory required for data: 3267264
I0222 17:54:01.196187 25770 layer_factory.hpp:77] Creating layer lstm1_unit_23
I0222 17:54:01.196192 25770 net.cpp:84] Creating Layer lstm1_unit_23
I0222 17:54:01.196195 25770 net.cpp:406] lstm1_unit_23 <- c_22
I0222 17:54:01.196199 25770 net.cpp:406] lstm1_unit_23 <- gate_input_23
I0222 17:54:01.196202 25770 net.cpp:406] lstm1_unit_23 <- cont_23_lstm1_cont_slice_22_split_1
I0222 17:54:01.196208 25770 net.cpp:380] lstm1_unit_23 -> c_23
I0222 17:54:01.196213 25770 net.cpp:380] lstm1_unit_23 -> h_23
I0222 17:54:01.196240 25770 net.cpp:122] Setting up lstm1_unit_23
I0222 17:54:01.196247 25770 net.cpp:129] Top shape: 1 26 64 (1664)
I0222 17:54:01.196254 25770 net.cpp:129] Top shape: 1 26 64 (1664)
I0222 17:54:01.196259 25770 net.cpp:137] Memory required for data: 3280576
I0222 17:54:01.196262 25770 layer_factory.hpp:77] Creating layer h_23_lstm1_unit_23_1_split
I0222 17:54:01.196269 25770 net.cpp:84] Creating Layer h_23_lstm1_unit_23_1_split
I0222 17:54:01.196274 25770 net.cpp:406] h_23_lstm1_unit_23_1_split <- h_23
I0222 17:54:01.196281 25770 net.cpp:380] h_23_lstm1_unit_23_1_split -> h_23_lstm1_unit_23_1_split_0
I0222 17:54:01.222189 25770 net.cpp:380] h_23_lstm1_unit_23_1_split -> h_23_lstm1_unit_23_1_split_1
I0222 17:54:01.222298 25770 net.cpp:122] Setting up h_23_lstm1_unit_23_1_split
I0222 17:54:01.222323 25770 net.cpp:129] Top shape: 1 26 64 (1664)
I0222 17:54:01.222328 25770 net.cpp:129] Top shape: 1 26 64 (1664)
I0222 17:54:01.222332 25770 net.cpp:137] Memory required for data: 3293888
I0222 17:54:01.222337 25770 layer_factory.hpp:77] Creating layer lstm1_h_conted_23
I0222 17:54:01.222344 25770 net.cpp:84] Creating Layer lstm1_h_conted_23
I0222 17:54:01.222362 25770 net.cpp:406] lstm1_h_conted_23 <- h_23_lstm1_unit_23_1_split_0
I0222 17:54:01.222385 25770 net.cpp:406] lstm1_h_conted_23 <- cont_24_lstm1_cont_slice_23_split_0
I0222 17:54:01.222393 25770 net.cpp:380] lstm1_h_conted_23 -> h_conted_23
I0222 17:54:01.222510 25770 net.cpp:122] Setting up lstm1_h_conted_23
I0222 17:54:01.222519 25770 net.cpp:129] Top shape: 1 26 64 (1664)
I0222 17:54:01.222538 25770 net.cpp:137] Memory required for data: 3300544
I0222 17:54:01.222543 25770 layer_factory.hpp:77] Creating layer lstm1_transform_24
I0222 17:54:01.222551 25770 net.cpp:84] Creating Layer lstm1_transform_24
I0222 17:54:01.222556 25770 net.cpp:406] lstm1_transform_24 <- h_conted_23
I0222 17:54:01.222576 25770 net.cpp:380] lstm1_transform_24 -> W_hc_h_23
I0222 17:54:01.222728 25770 net.cpp:122] Setting up lstm1_transform_24
I0222 17:54:01.222736 25770 net.cpp:129] Top shape: 1 26 256 (6656)
I0222 17:54:01.222741 25770 net.cpp:137] Memory required for data: 3327168
I0222 17:54:01.222748 25770 net.cpp:465] Sharing parameters 'W_hc' owned by layer 'lstm1_transform_1', param index 0
I0222 17:54:01.222753 25770 layer_factory.hpp:77] Creating layer lstm1_gate_input_24
I0222 17:54:01.222760 25770 net.cpp:84] Creating Layer lstm1_gate_input_24
I0222 17:54:01.222766 25770 net.cpp:406] lstm1_gate_input_24 <- W_hc_h_23
I0222 17:54:01.222772 25770 net.cpp:406] lstm1_gate_input_24 <- W_xc_x_24
I0222 17:54:01.222779 25770 net.cpp:380] lstm1_gate_input_24 -> gate_input_24
I0222 17:54:01.222800 25770 net.cpp:122] Setting up lstm1_gate_input_24
I0222 17:54:01.222807 25770 net.cpp:129] Top shape: 1 26 256 (6656)
I0222 17:54:01.222812 25770 net.cpp:137] Memory required for data: 3353792
I0222 17:54:01.222816 25770 layer_factory.hpp:77] Creating layer lstm1_unit_24
I0222 17:54:01.222823 25770 net.cpp:84] Creating Layer lstm1_unit_24
I0222 17:54:01.222828 25770 net.cpp:406] lstm1_unit_24 <- c_23
I0222 17:54:01.222834 25770 net.cpp:406] lstm1_unit_24 <- gate_input_24
I0222 17:54:01.222841 25770 net.cpp:406] lstm1_unit_24 <- cont_24_lstm1_cont_slice_23_split_1
I0222 17:54:01.222846 25770 net.cpp:380] lstm1_unit_24 -> c_24
I0222 17:54:01.222853 25770 net.cpp:380] lstm1_unit_24 -> h_24
I0222 17:54:01.222889 25770 net.cpp:122] Setting up lstm1_unit_24
I0222 17:54:01.222896 25770 net.cpp:129] Top shape: 1 26 64 (1664)
I0222 17:54:01.222903 25770 net.cpp:129] Top shape: 1 26 64 (1664)
I0222 17:54:01.222906 25770 net.cpp:137] Memory required for data: 3367104
I0222 17:54:01.222911 25770 layer_factory.hpp:77] Creating layer lstm1_
I0222 17:54:01.222918 25770 net.cpp:84] Creating Layer lstm1_
I0222 17:54:01.222923 25770 net.cpp:406] lstm1_ <- c_24
I0222 17:54:01.222929 25770 net.cpp:380] lstm1_ -> c_T
I0222 17:54:01.222945 25770 net.cpp:122] Setting up lstm1_
I0222 17:54:01.222951 25770 net.cpp:129] Top shape: 1 26 64 (1664)
I0222 17:54:01.222956 25770 net.cpp:137] Memory required for data: 3373760
I0222 17:54:01.222960 25770 layer_factory.hpp:77] Creating layer lstm1_h_concat
I0222 17:54:01.222970 25770 net.cpp:84] Creating Layer lstm1_h_concat
I0222 17:54:01.222975 25770 net.cpp:406] lstm1_h_concat <- h_1_lstm1_unit_1_1_split_1
I0222 17:54:01.222981 25770 net.cpp:406] lstm1_h_concat <- h_2_lstm1_unit_2_1_split_1
…
I0222 17:54:01.253042 25770 net.cpp:200] lstm1_ does not need backward computation.
I0222 17:54:01.253046 25770 net.cpp:242] This network produces output c_T
I0222 17:54:01.253053 25770 net.cpp:242] This network produces output h_pseudoloss
I0222 17:54:01.253283 25770 net.cpp:255] Network initialization done.
I0222 17:54:01.253499 25770 recurrent_layer.cpp:150] Adding parameter 0: W_xc
I0222 17:54:01.253509 25770 recurrent_layer.cpp:150] Adding parameter 1: b_c
I0222 17:54:01.253515 25770 recurrent_layer.cpp:150] Adding parameter 2: W_hc
I0222 17:54:01.254568 25770 net.cpp:122] Setting up lstm1
I0222 17:54:01.254585 25770 net.cpp:129] Top shape: 24 26 64 (39936)
I0222 17:54:01.254590 25770 net.cpp:137] Memory required for data: 174912
I0222 17:54:01.254606 25770 layer_factory.hpp:77] Creating layer bn1
I0222 17:54:01.254621 25770 net.cpp:84] Creating Layer bn1
I0222 17:54:01.254627 25770 net.cpp:406] bn1 <- lstm1
I0222 17:54:01.254633 25770 net.cpp:380] bn1 -> bn1
I0222 17:54:01.254833 25770 net.cpp:122] Setting up bn1
I0222 17:54:01.254849 25770 net.cpp:129] Top shape: 24 26 64 (39936)
I0222 17:54:01.254853 25770 net.cpp:137] Memory required for data: 334656
I0222 17:54:01.254859 25770 layer_factory.hpp:77] Creating layer lstm2
I0222 17:54:01.254865 25770 net.cpp:84] Creating Layer lstm2
I0222 17:54:01.254868 25770 net.cpp:406] lstm2 <- bn1
I0222 17:54:01.254871 25770 net.cpp:406] lstm2 <- clip_clip_0_split_1
I0222 17:54:01.254875 25770 net.cpp:380] lstm2 -> lstm2
I0222 17:54:01.254880 25770 recurrent_layer.cpp:20] Initializing recurrent layer: assuming input batch contains 24 timesteps of 26 independent streams.
I0222 17:54:01.255360 25770 net.cpp:51] Initializing net from parameters: 
layer {
  name: "lstm2_"
  type: "Input"
  top: "x"
  top: "cont"
  input_param {
    shape {
      dim: 24
      dim: 26
      dim: 64
    }
    shape {
      dim: 24
      dim: 26
    }
  }
}
layer {
  name: "lstm2_"
  type: "Input"
  top: "c_0"
  top: "h_0"
  input_param {
    shape {
      dim: 1
      dim: 26
      dim: 64
    }
    shape {
      dim: 1
      dim: 26
      dim: 64
    }
  }
}
layer {
  name: "lstm2_cont_slice"
  type: "Slice"
  bottom: "cont"
  top: "cont_1"
  top: "cont_2"
  top: "cont_3"
  top: "cont_4"
  top: "cont_5"
  top: "cont_6"
  top: "cont_7"
  top: "cont_8"
  top: "cont_9"
  top: "cont_10"
  top: "cont_11"
  top: "cont_12"
  top: "cont_13"
  top: "cont_14"
  top: "cont_15"
  top: "cont_16"
  top: "cont_17"
  top: "cont_18"
  top: "cont_19"
  top: "cont_20"
  top: "cont_21"
  top: "cont_22"
  top: "cont_23"
  top: "cont_24"
  slice_param {
    axis: 0
  }
}
layer {
  name: "lstm2_x_transform"
  type: "InnerProduct"
  bottom: "x"
  top: "W_xc_x"
  param {
    name: "W_xc"
  }
  param {
    name: "b_c"
  }
  propagate_down: true
  inner_product_param {
    num_output: 256
    bias_term: true
    weight_filler {
      type: "xavier"
    }
    bias_filler {
      type: "constant"
    }
    axis: 2
  }
}
layer {
  name: "lstm2_W_xc_x_slice"
  type: "Slice"
  bottom: "W_xc_x"
  top: "W_xc_x_1"
  top: "W_xc_x_2"
  top: "W_xc_x_3"
  top: "W_xc_x_4"
  top: "W_xc_x_5"
  top: "W_xc_x_6"
  top: "W_xc_x_7"
  top: "W_xc_x_8"
  top: "W_xc_x_9"
  top: "W_xc_x_10"
  top: "W_xc_x_11"
  top: "W_xc_x_12"
  top: "W_xc_x_13"
  top: "W_xc_x_14"
  top: "W_xc_x_15"
  top: "W_xc_x_16"
  top: "W_xc_x_17"
  top: "W_xc_x_18"
  top: "W_xc_x_19"
  top: "W_xc_x_20"
  top: "W_xc_x_21"
  top: "W_xc_x_22"
  top: "W_xc_x_23"
  top: "W_xc_x_24"
  slice_param {
    axis: 0
  }
}
layer {
  name: "lstm2_h_conted_0"
  type: "Scale"
  bottom: "h_0"
  bottom: "cont_1"
  top: "h_conted_0"
  scale_param {
    axis: 0
  }
}
layer {
  name: "lstm2_transform_1"
  type: "InnerProduct"
  bottom: "h_conted_0"
  top: "W_hc_h_0"
  param {
    name: "W_hc"
  }
  inner_product_param {
    num_output: 256
    bias_term: false
    weight_filler {
      type: "xavier"
    }
    axis: 2
  }
}
layer {
  name: "lstm2_gate_input_1"
  type: "Eltwise"
  bottom: "W_hc_h_0"
  bottom: "W_xc_x_1"
  top: "gate_input_1"
  eltwise_param {
    operation: SUM
  }
}
layer {
  name: "lstm2_unit_1"
  type: "LSTMUnit"
  bottom: "c_0"
  bottom: "gate_input_1"
  bottom: "cont_1"
  top: "c_1"
  top: "h_1"
}
layer {
  name: "lstm2_h_conted_1"
  type: "Scale"
  bottom: "h_1"
  bottom: "cont_2"
  top: "h_conted_1"
  scale_param {
    axis: 0
  }
}
layer {
  name: "lstm2_transform_2"
  type: "InnerProduct"
  bottom: "h_conted_1"
  top: "W_hc_h_1"
  param {
    name: "W_hc"
  }
  inner_product_param {
    num_output: 256
    bias_term: false
    weight_filler {
      type: "xavier"
    }
    axis: 2
  }
}
layer {
  name: "lstm2_gate_input_2"
  type: "Eltwise"
  bottom: "W_hc_h_1"
  bottom: "W_xc_x_2"
  top: "gate_input_2"
  eltwise_param {
    operation: SUM
  }
}
layer {
  name: "lstm2_unit_2"
  type: "LSTMUnit"
  bottom: "c_1"
  bottom: "gate_input_2"
  bottom: "cont_2"
  top: "c_2"
  top: "h_2"
}
layer {
  name: "lstm2_h_conted_2"
  type: "Scale"
  bottom: "h_2"
  bottom: "cont_3"
  top: "h_conted_2"
  scale_param {
    axis: 0
  }
}
layer {
  name: "lstm2_transform_3"
  type: "InnerProduct"
  bottom: "h_conted_2"
  top: "W_hc_h_2"
  param {
    name: "W_hc"
  }
  inner_product_param {
    num_output: 256
    bias_term: false
    weight_filler {
      type: "xavier"
    }
    axis: 2
  }
}
layer {
  name: "lstm2_gate_input_3"
  type: "Eltwise"
  bottom: "W_hc_h_2"
  bottom: "W_xc_x_3"
  top: "gate_input_3"
  eltwise_param {
    operation: SUM
  }
}
layer {
  name: "lstm2_unit_3"
  type: "LSTMUnit"
  bottom: "c_2"
  bottom: "gate_input_3"
  bottom: "cont_3"
  top: "c_3"
  top: "h_3"
}
layer {
  name: "lstm2_h_conted_3"
  type: "Scale"
  bottom: "h_3"
  bottom: "cont_4"
  top: "h_conted_3"
  scale_param {
    axis: 0
  }
}
layer {
  name: "lstm2_transform_4"
  type: "InnerProduct"
  bottom: "h_conted_3"
  top: "W_hc_h_3"
  param {
    name: "W_hc"
  }
  inner_product_param {
    num_output: 256
    bias_term: false
    weight_filler {
      type: "xavier"
    }
    axis: 2
  }
}
layer {
  name: "lstm2_gate_input_4"
  type: "Eltwise"
  bottom: "W_hc_h_3"
  bottom: "W_xc_x_4"
  top: "gate_input_4"
  eltwise_param {
    operation: SUM
  }
}
layer {
  name: "lstm2_unit_4"
  type: "LSTMUnit"
  bottom: "c_3"
  bottom: "gate_input_4"
  bottom: "cont_4"
  top: "c_4"
  top: "h_4"
}
layer {
  name: "lstm2_h_conted_4"
  type: "Scale"
  bottom: "h_4"
  bottom: "cont_5"
  top: "h_conted_4"
  scale_param {
    axis: 0
  }
}
layer {
  name: "lstm2_transform_5"
  type: "InnerProduct"
  bottom: "h_conted_4"
  top: "W_hc_h_4"
  param {
    name: "W_hc"
  }
  inner_product_param {
    num_output: 256
    bias_term: false
    weight_filler {
      type: "xavier"
    }
    axis: 2
  }
}
layer {
  name: "lstm2_gate_input_5"
  type: "Eltwise"
  bottom: "W_hc_h_4"
  bottom: "W_xc_x_5"
  top: "gate_input_5"
  eltwise_param {
    operation: SUM
  }
}
layer {
  name: "lstm2_unit_5"
  type: "LSTMUnit"
  bottom: "c_4"
  bottom: "gate_input_5"
  bottom: "cont_5"
  top: "c_5"
  top: "h_5"
}
layer {
  name: "lstm2_h_conted_5"
  type: "Scale"
  bottom: "h_5"
  bottom: "cont_6"
  top: "h_conted_5"
  scale_param {
    axis: 0
  }
}
layer {
  name: "lstm2_transform_6"
  type: "InnerProduct"
  bottom: "h_conted_5"
  top: "W_hc_h_5"
  param {
    name: "W_hc"
  }
  inner_product_param {
    num_output: 256
    bias_term: false
    weight_filler {
      type: "xavier"
    }
    axis: 2
  }
}
layer {
  name: "lstm2_gate_input_6"
  type: "Eltwise"
  bottom: "W_hc_h_5"
  bottom: "W_xc_x_6"
  top: "gate_input_6"
  eltwise_param {
    operation: SUM
  }
}
layer {
  name: "lstm2_unit_6"
  type: "LSTMUnit"
  bottom: "c_5"
  bottom: "gate_input_6"
  bottom: "cont_6"
  top: "c_6"
  top: "h_6"
}
layer {
  name: "lstm2_h_conted_6"
  type: "Scale"
  bottom: "h_6"
  bottom: "cont_7"
  top: "h_conted_6"
  scale_param {
    axis: 0
  }
}
layer {
  name: "lstm2_transform_7"
  type: "InnerProduct"
  bottom: "h_conted_6"
  top: "W_hc_h_6"
  param {
    name: "W_hc"
  }
  inner_product_param {
    num_output: 256
    bias_term: false
    weight_filler {
      type: "xavier"
    }
    axis: 2
  }
}
layer {
  name: "lstm2_gate_input_7"
  type: "Eltwise"
  bottom: "W_hc_h_6"
  bottom: "W_xc_x_7"
  top: "gate_input_7"
  eltwise_param {
    operation: SUM
  }
}
layer {
  name: "lstm2_unit_7"
  type: "LSTMUnit"
  bottom: "c_6"
  bottom: "gate_input_7"
  bottom: "cont_7"
  top: "c_7"
  top: "h_7"
}
layer {
  name: "lstm2_h_conted_7"
  type: "Scale"
  bottom: "h_7"
  bottom: "cont_8"
  top: "h_conted_7"
  scale_param {
    axis: 0
  }
}
layer {
  name: "lstm2_transform_8"
  type: "InnerProduct"
  bottom: "h_conted_7"
  top: "W_hc_h_7"
  param {
    name: "W_hc"
  }
  inner_product_param {
    num_output: 256
    bias_term: false
    weight_filler {
      type: "xavier"
    }
    axis: 2
  }
}
layer {
  name: "lstm2_gate_input_8"
  type: "Eltwise"
  bottom: "W_hc_h_7"
  bottom: "W_xc_x_8"
  top: "gate_input_8"
  eltwise_param {
    operation: SUM
  }
}
layer {
  name: "lstm2_unit_8"
  type: "LSTMUnit"
  bottom: "c_7"
  bottom: "gate_input_8"
  bottom: "cont_8"
  top: "c_8"
  top: "h_8"
}
layer {
  name: "lstm2_h_conted_8"
  type: "Scale"
  bottom: "h_8"
  bottom: "cont_9"
  top: "h_conted_8"
  scale_param {
    axis: 0
  }
}
layer {
  name: "lstm2_transform_9"
  type: "InnerProduct"
  bottom: "h_conted_8"
  top: "W_hc_h_8"
  param {
    name: "W_hc"
  }
  inner_product_param {
    num_output: 256
    bias_term: false
    weight_filler {
      type: "xavier"
    }
    axis: 2
  }
}
layer {
  name: "lstm2_gate_input_9"
  type: "Eltwise"
  bottom: "W_hc_h_8"
  bottom: "W_xc_x_9"
  top: "gate_input_9"
  eltwise_param {
    operation: SUM
  }
}
layer {
  name: "lstm2_unit_9"
  type: "LSTMUnit"
  bottom: "c_8"
  bottom: "gate_input_9"
  bottom: "cont_9"
  top: "c_9"
  top: "h_9"
}
layer {
  name: "lstm2_h_conted_9"
  type: "Scale"
  bottom: "h_9"
  bottom: "cont_10"
  top: "h_conted_9"
  scale_param {
    axis: 0
  }
}
layer {
  name: "lstm2_transform_10"
  type: "InnerProduct"
  bottom: "h_conted_9"
  top: "W_hc_h_9"
  param {
    name: "W_hc"
  }
  inner_product_param {
    num_output: 256
    bias_term: false
    weight_filler {
      type: "xavier"
    }
    axis: 2
  }
}
layer {
  name: "lstm2_gate_input_10"
  type: "Eltwise"
  bottom: "W_hc_h_9"
  bottom: "W_xc_x_10"
  top: "gate_input_10"
  eltwise_param {
    operation: SUM
  }
}
layer {
  name: "lstm2_unit_10"
  type: "LSTMUnit"
  bottom: "c_9"
  bottom: "gate_input_10"
  bottom: "cont_10"
  top: "c_10"
  top: "h_10"
}
layer {
  name: "lstm2_h_conted_10"
  type: "Scale"
  bottom: "h_10"
  bottom: "cont_11"
  top: "h_conted_10"
  scale_param {
    axis: 0
  }
}
layer {
  name: "lstm2_transform_11"
  type: "InnerProduct"
  bottom: "h_conted_10"
  top: "W_hc_h_10"
  param {
    name: "W_hc"
  }
  inner_product_param {
    num_output: 256
    bias_term: false
    weight_filler {
      type: "xavier"
    }
    axis: 2
  }
}
layer {
  name: "lstm2_gate_input_11"
  type: "Eltwise"
  bottom: "W_hc_h_10"
  bottom: "W_xc_x_11"
  top: "gate_input_11"
  eltwise_param {
    operation: SUM
  }
}
layer {
  name: "lstm2_unit_11"
  type: "LSTMUnit"
  bottom: "c_10"
  bottom: "gate_input_11"
  bottom: "cont_11"
  top: "c_11"
  top: "h_11"
}
layer {
  name: "lstm2_h_conted_11"
  type: "Scale"
  bottom: "h_11"
  bottom: "cont_12"
  top: "h_conted_11"
  scale_param {
    axis: 0
  }
}
layer {
  name: "lstm2_transform_12"
  type: "InnerProduct"
  bottom: "h_conted_11"
  top: "W_hc_h_11"
  param {
    name: "W_hc"
  }
  inner_product_param {
    num_output: 256
    bias_term: false
    weight_filler {
      type: "xavier"
    }
    axis: 2
  }
}
layer {
  name: "lstm2_gate_input_12"
  type: "Eltwise"
  bottom: "W_hc_h_11"
  bottom: "W_xc_x_12"
  top: "gate_input_12"
  eltwise_param {
    operation: SUM
  }
}
layer {
  name: "lstm2_unit_12"
  type: "LSTMUnit"
  bottom: "c_11"
  bottom: "gate_input_12"
  bottom: "cont_12"
  top: "c_12"
  top: "h_12"
}
layer {
  name: "lstm2_h_conted_12"
  type: "Scale"
  bottom: "h_12"
  bottom: "cont_13"
  top: "h_conted_12"
  scale_param {
    axis: 0
  }
}
layer {
  name: "lstm2_transform_13"
  type: "InnerProduct"
  bottom: "h_conted_12"
  top: "W_hc_h_12"
  param {
    name: "W_hc"
  }
  inner_product_param {
    num_output: 256
    bias_term: false
    weight_filler {
      type: "xavier"
    }
    axis: 2
  }
}
layer {
  name: "lstm2_gate_input_13"
  type: "Eltwise"
  bottom: "W_hc_h_12"
  bottom: "W_xc_x_13"
  top: "gate_input_13"
  eltwise_param {
    operation: SUM
  }
}
layer {
  name: "lstm2_unit_13"
  type: "LSTMUnit"
  bottom: "c_12"
  bottom: "gate_input_13"
  bottom: "cont_13"
  top: "c_13"
  top: "h_13"
}
layer {
  name: "lstm2_h_conted_13"
  type: "Scale"
  bottom: "h_13"
  bottom: "cont_14"
  top: "h_conted_13"
  scale_param {
    axis: 0
  }
}
layer {
  name: "lstm2_transform_14"
  type: "InnerProduct"
  bottom: "h_conted_13"
  top: "W_hc_h_13"
  param {
    name: "W_hc"
  }
  inner_product_param {
    num_output: 256
    bias_term: false
    weight_filler {
      type: "xavier"
    }
    axis: 2
  }
}
layer {
  name: "lstm2_gate_input_14"
  type: "Eltwise"
  bottom: "W_hc_h_13"
  bottom: "W_xc_x_14"
  top: "gate_input_14"
  eltwise_param {
    operation: SUM
  }
}
layer {
  name: "lstm2_unit_14"
  type: "LSTMUnit"
  bottom: "c_13"
  bottom: "gate_input_14"
  bottom: "cont_14"
  top: "c_14"
  top: "h_14"
}
layer {
  name: "lstm2_h_conted_14"
  type: "Scale"
  bottom: "h_14"
  bottom: "cont_15"
  top: "h_conted_14"
  scale_param {
    axis: 0
  }
}
layer {
  name: "lstm2_transform_15"
  type: "InnerProduct"
  bottom: "h_conted_14"
  top: "W_hc_h_14"
  param {
    name: "W_hc"
  }
  inner_product_param {
    num_output: 256
    bias_term: false
    weight_filler {
      type: "xavier"
    }
    axis: 2
  }
}
layer {
  name: "lstm2_gate_input_15"
  type: "Eltwise"
  bottom: "W_hc_h_14"
  bottom: "W_xc_x_15"
  top: "gate_input_15"
  eltwise_param {
    operation: SUM
  }
}
layer {
  name: "lstm2_unit_15"
  type: "LSTMUnit"
  bottom: "c_14"
  bottom: "gate_input_15"
  bottom: "cont_15"
  top: "c_15"
  top: "h_15"
}
layer {
  name: "lstm2_h_conted_15"
  type: "Scale"
  bottom: "h_15"
  bottom: "cont_16"
  top: "h_conted_15"
  scale_param {
    axis: 0
  }
}
layer {
  name: "lstm2_transform_16"
  type: "InnerProduct"
  bottom: "h_conted_15"
  top: "W_hc_h_15"
  param {
    name: "W_hc"
  }
  inner_product_param {
    num_output: 256
    bias_term: false
    weight_filler {
      type: "xavier"
    }
    axis: 2
  }
}
layer {
  name: "lstm2_gate_input_16"
  type: "Eltwise"
  bottom: "W_hc_h_15"
  bottom: "W_xc_x_16"
  top: "gate_input_16"
  eltwise_param {
    operation: SUM
  }
}
layer {
  name: "lstm2_unit_16"
  type: "LSTMUnit"
  bottom: "c_15"
  bottom: "gate_input_16"
  bottom: "cont_16"
  top: "c_16"
  top: "h_16"
}
layer {
  name: "lstm2_h_conted_16"
  type: "Scale"
  bottom: "h_16"
  bottom: "cont_17"
  top: "h_conted_16"
  scale_param {
    axis: 0
  }
}
layer {
  name: "lstm2_transform_17"
  type: "InnerProduct"
  bottom: "h_conted_16"
  top: "W_hc_h_16"
  param {
    name: "W_hc"
  }
  inner_product_param {
    num_output: 256
    bias_term: false
    weight_filler {
      type: "xavier"
    }
    axis: 2
  }
}
layer {
  name: "lstm2_gate_input_17"
  type: "Eltwise"
  bottom: "W_hc_h_16"
  bottom: "W_xc_x_17"
  top: "gate_input_17"
  eltwise_param {
    operation: SUM
  }
}
layer {
  name: "lstm2_unit_17"
  type: "LSTMUnit"
  bottom: "c_16"
  bottom: "gate_input_17"
  bottom: "cont_17"
  top: "c_17"
  top: "h_17"
}
layer {
  name: "lstm2_h_conted_17"
  type: "Scale"
  bottom: "h_17"
  bottom: "cont_18"
  top: "h_conted_17"
  scale_param {
    axis: 0
  }
}
layer {
  name: "lstm2_transform_18"
  type: "InnerProduct"
  bottom: "h_conted_17"
  top: "W_hc_h_17"
  param {
    name: "W_hc"
  }
  inner_product_param {
    num_output: 256
    bias_term: false
    weight_filler {
      type: "xavier"
    }
    axis: 2
  }
}
layer {
  name: "lstm2_gate_input_18"
  type: "Eltwise"
  bottom: "W_hc_h_17"
  bottom: "W_xc_x_18"
  top: "gate_input_18"
  eltwise_param {
    operation: SUM
  }
}
layer {
  name: "lstm2_unit_18"
  type: "LSTMUnit"
  bottom: "c_17"
  bottom: "gate_input_18"
  bottom: "cont_18"
  top: "c_18"
  top: "h_18"
}
layer {
  name: "lstm2_h_conted_18"
  type: "Scale"
  bottom: "h_18"
  bottom: "cont_19"
  top: "h_conted_18"
  scale_param {
    axis: 0
  }
}
layer {
  name: "lstm2_transform_19"
  type: "InnerProduct"
  bottom: "h_conted_18"
  top: "W_hc_h_18"
  param {
    name: "W_hc"
  }
  inner_product_param {
    num_output: 256
    bias_term: false
    weight_filler {
      type: "xavier"
    }
    axis: 2
  }
}
layer {
  name: "lstm2_gate_input_19"
  type: "Eltwise"
  bottom: "W_hc_h_18"
  bottom: "W_xc_x_19"
  top: "gate_input_19"
  eltwise_param {
    operation: SUM
  }
}
layer {
  name: "lstm2_unit_19"
  type: "LSTMUnit"
  bottom: "c_18"
  bottom: "gate_input_19"
  bottom: "cont_19"
  top: "c_19"
  top: "h_19"
}
layer {
  name: "lstm2_h_conted_19"
  type: "Scale"
  bottom: "h_19"
  bottom: "cont_20"
  top: "h_conted_19"
  scale_param {
    axis: 0
  }
}
layer {
  name: "lstm2_transform_20"
  type: "InnerProduct"
  bottom: "h_conted_19"
  top: "W_hc_h_19"
  param {
    name: "W_hc"
  }
  inner_product_param {
    num_output: 256
    bias_term: false
    weight_filler {
      type: "xavier"
    }
    axis: 2
  }
}
layer {
  name: "lstm2_gate_input_20"
  type: "Eltwise"
  bottom: "W_hc_h_19"
  bottom: "W_xc_x_20"
  top: "gate_input_20"
  eltwise_param {
    operation: SUM
  }
}
layer {
  name: "lstm2_unit_20"
  type: "LSTMUnit"
  bottom: "c_19"
  bottom: "gate_input_20"
  bottom: "cont_20"
  top: "c_20"
  top: "h_20"
}
layer {
  name: "lstm2_h_conted_20"
  type: "Scale"
  bottom: "h_20"
  bottom: "cont_21"
  top: "h_conted_20"
  scale_param {
    axis: 0
  }
}
layer {
  name: "lstm2_transform_21"
  type: "InnerProduct"
  bottom: "h_conted_20"
  top: "W_hc_h_20"
  param {
    name: "W_hc"
  }
  inner_product_param {
    num_output: 256
    bias_term: false
    weight_filler {
      type: "xavier"
    }
    axis: 2
  }
}
layer {
  name: "lstm2_gate_input_21"
  type: "Eltwise"
  bottom: "W_hc_h_20"
  bottom: "W_xc_x_21"
  top: "gate_input_21"
  eltwise_param {
    operation: SUM
  }
}
layer {
  name: "lstm2_unit_21"
  type: "LSTMUnit"
  bottom: "c_20"
  bottom: "gate_input_21"
  bottom: "cont_21"
  top: "c_21"
  top: "h_21"
}
layer {
  name: "lstm2_h_conted_21"
  type: "Scale"
  bottom: "h_21"
  bottom: "cont_22"
  top: "h_conted_21"
  scale_param {
    axis: 0
  }
}
layer {
  name: "lstm2_transform_22"
  type: "InnerProduct"
  bottom: "h_conted_21"
  top: "W_hc_h_21"
  param {
    name: "W_hc"
  }
  inner_product_param {
    num_output: 256
    bias_term: false
    weight_filler {
      type: "xavier"
    }
    axis: 2
  }
}
layer {
  name: "lstm2_gate_input_22"
  type: "Eltwise"
  bottom: "W_hc_h_21"
  bottom: "W_xc_x_22"
  top: "gate_input_22"
  eltwise_param {
    operation: SUM
  }
}
layer {
  name: "lstm2_unit_22"
  type: "LSTMUnit"
  bottom: "c_21"
  bottom: "gate_input_22"
  bottom: "cont_22"
  top: "c_22"
  top: "h_22"
}
layer {
  name: "lstm2_h_conted_22"
  type: "Scale"
  bottom: "h_22"
  bottom: "cont_23"
  top: "h_conted_22"
  scale_param {
    axis: 0
  }
}
layer {
  name: "lstm2_transform_23"
  type: "InnerProduct"
  bottom: "h_conted_22"
  top: "W_hc_h_22"
  param {
    name: "W_hc"
  }
  inner_product_param {
    num_output: 256
    bias_term: false
    weight_filler {
      type: "xavier"
    }
    axis: 2
  }
}
layer {
  name: "lstm2_gate_input_23"
  type: "Eltwise"
  bottom: "W_hc_h_22"
  bottom: "W_xc_x_23"
  top: "gate_input_23"
  eltwise_param {
    operation: SUM
  }
}
layer {
  name: "lstm2_unit_23"
  type: "LSTMUnit"
  bottom: "c_22"
  bottom: "gate_input_23"
  bottom: "cont_23"
  top: "c_23"
  top: "h_23"
}
layer {
  name: "lstm2_h_conted_23"
  type: "Scale"
  bottom: "h_23"
  bottom: "cont_24"
  top: "h_conted_23"
  scale_param {
    axis: 0
  }
}
layer {
  name: "lstm2_transform_24"
  type: "InnerProduct"
  bottom: "h_conted_23"
  top: "W_hc_h_23"
  param {
    name: "W_hc"
  }
  inner_product_param {
    num_output: 256
    bias_term: false
    weight_filler {
      type: "xavier"
    }
    axis: 2
  }
}
layer {
  name: "lstm2_gate_input_24"
  type: "Eltwise"
  bottom: "W_hc_h_23"
  bottom: "W_xc_x_24"
  top: "gate_input_24"
  eltwise_param {
    operation: SUM
  }
}
layer {
  name: "lstm2_unit_24"
  type: "LSTMUnit"
  bottom: "c_23"
  bottom: "gate_input_24"
  bottom: "cont_24"
  top: "c_24"
  top: "h_24"
}
layer {
  name: "lstm2_"
  type: "Split"
  bottom: "c_24"
  top: "c_T"
}
layer {
  name: "lstm2_h_concat"
  type: "Concat"
  bottom: "h_1"
  bottom: "h_2"
  bottom: "h_3"
  bottom: "h_4"
  bottom: "h_5"
  bottom: "h_6"
  bottom: "h_7"
  bottom: "h_8"
  bottom: "h_9"
  bottom: "h_10"
  bottom: "h_11"
  bottom: "h_12"
  bottom: "h_13"
  bottom: "h_14"
  bottom: "h_15"
  bottom: "h_16"
  bottom: "h_17"
  bottom: "h_18"
  bottom: "h_19"
  bottom: "h_20"
  bottom: "h_21"
  bottom: "h_22"
  bottom: "h_23"
  bottom: "h_24"
  top: "h"
  concat_param {
    axis: 0
  }
}
layer {
  name: "h_pseudoloss"
  type: "Reduction"
  bottom: "h"
  top: "h_pseudoloss"
  loss_weight: 1
}
I0222 17:54:01.287080 25770 layer_factory.hpp:77] Creating layer lstm2_
I0222 17:54:01.287115 25770 net.cpp:84] Creating Layer lstm2_
I0222 17:54:01.287120 25770 net.cpp:380] lstm2_ -> x
I0222 17:54:01.287129 25770 net.cpp:380] lstm2_ -> cont
I0222 17:54:01.287246 25770 net.cpp:122] Setting up lstm2_
I0222 17:54:01.287253 25770 net.cpp:129] Top shape: 24 26 64 (39936)
I0222 17:54:01.287273 25770 net.cpp:129] Top shape: 24 26 (624)
I0222 17:54:01.287276 25770 net.cpp:137] Memory required for data: 162240
I0222 17:54:01.287281 25770 layer_factory.hpp:77] Creating layer lstm2_
I0222 17:54:01.287286 25770 net.cpp:84] Creating Layer lstm2_
I0222 17:54:01.287289 25770 net.cpp:380] lstm2_ -> c_0
I0222 17:54:01.287294 25770 net.cpp:380] lstm2_ -> h_0
I0222 17:54:01.287319 25770 net.cpp:122] Setting up lstm2_
I0222 17:54:01.287324 25770 net.cpp:129] Top shape: 1 26 64 (1664)
I0222 17:54:01.287328 25770 net.cpp:129] Top shape: 1 26 64 (1664)
I0222 17:54:01.287330 25770 net.cpp:137] Memory required for data: 175552
I0222 17:54:01.287334 25770 layer_factory.hpp:77] Creating layer lstm2_cont_slice
I0222 17:54:01.287340 25770 net.cpp:84] Creating Layer lstm2_cont_slice
I0222 17:54:01.287343 25770 net.cpp:406] lstm2_cont_slice <- cont
I0222 17:54:01.287348 25770 net.cpp:380] lstm2_cont_slice -> cont_1
I0222 17:54:01.287355 25770 net.cpp:380] lstm2_cont_slice -> cont_2
…
