…
iter_size: 1
I0228 21:19:56.376576 11790 solver.cpp:87] Creating training net from net file: /home/leonida/ThesisCode/LSTM_on_Create2/src/neural_network_planner/NetModels/LSTM/deep_stack-fc_net.prototxt
I0228 21:19:56.376869 11790 net.cpp:51] Initializing net from parameters: 
name: "LSTM_stack-3-16"
state {
  phase: TRAIN
}
layer {
  name: "Input"
  type: "Input"
  top: "data"
  top: "clip"
  top: "label"
  input_param {
    shape {
      dim: 16
      dim: 13
      dim: 1
    }
    shape {
      dim: 16
      dim: 13
    }
    shape {
      dim: 16
    }
  }
}
layer {
  name: "lstm1"
  type: "LSTM"
  bottom: "data"
  bottom: "clip"
  top: "lstm1"
  recurrent_param {
    num_output: 16
    weight_filler {
      type: "xavier"
    }
    bias_filler {
      type: "constant"
    }
  }
}
layer {
  name: "lstm2"
  type: "LSTM"
  bottom: "lstm1"
  bottom: "clip"
  top: "lstm2"
  recurrent_param {
    num_output: 16
    weight_filler {
      type: "xavier"
    }
    bias_filler {
      type: "constant"
    }
  }
}
layer {
  name: "lstm3"
  type: "LSTM"
  bottom: "lstm2"
  bottom: "clip"
  top: "lstm3"
  recurrent_param {
    num_output: 16
    weight_filler {
      type: "xavier"
    }
    bias_filler {
      type: "constant"
    }
  }
}
layer {
  name: "fc1"
  type: "InnerProduct"
  bottom: "lstm3"
  top: "fc1"
  param {
    lr_mult: 1
    decay_mult: 1
  }
  param {
    lr_mult: 2
    decay_mult: 0
  }
  inner_product_param {
    num_output: 16
    weight_filler {
      type: "gaussian"
      std: 0.01
    }
    bias_filler {
      type: "constant"
      value: 0
    }
  }
}
layer {
  name: "out"
  type: "InnerProduct"
  bottom: "fc1"
  top: "out"
  inner_product_param {
    num_output: 1
    weight_filler {
      type: "gaussian"
      std: 0.1
    }
    bias_filler {
      type: "constant"
    }
  }
}
layer {
  name: "euclideanLoss"
  type: "EuclideanLoss"
  bottom: "out"
  bottom: "label"
  top: "loss"
}
I0228 21:19:56.376983 11790 layer_factory.hpp:77] Creating layer Input
I0228 21:19:56.377014 11790 net.cpp:84] Creating Layer Input
I0228 21:19:56.377022 11790 net.cpp:380] Input -> data
I0228 21:19:56.377068 11790 net.cpp:380] Input -> clip
I0228 21:19:56.377077 11790 net.cpp:380] Input -> label
I0228 21:19:56.377698 11790 net.cpp:122] Setting up Input
I0228 21:19:56.377727 11790 net.cpp:129] Top shape: 16 13 1 (208)
I0228 21:19:56.377733 11790 net.cpp:129] Top shape: 16 13 (208)
I0228 21:19:56.377737 11790 net.cpp:129] Top shape: 16 (16)
I0228 21:19:56.377740 11790 net.cpp:137] Memory required for data: 1728
I0228 21:19:56.377746 11790 layer_factory.hpp:77] Creating layer clip_Input_1_split
I0228 21:19:56.377756 11790 net.cpp:84] Creating Layer clip_Input_1_split
I0228 21:19:56.377763 11790 net.cpp:406] clip_Input_1_split <- clip
I0228 21:19:56.377770 11790 net.cpp:380] clip_Input_1_split -> clip_Input_1_split_0
I0228 21:19:56.377776 11790 net.cpp:380] clip_Input_1_split -> clip_Input_1_split_1
I0228 21:19:56.377781 11790 net.cpp:380] clip_Input_1_split -> clip_Input_1_split_2
I0228 21:19:56.377810 11790 net.cpp:122] Setting up clip_Input_1_split
I0228 21:19:56.377817 11790 net.cpp:129] Top shape: 16 13 (208)
I0228 21:19:56.377822 11790 net.cpp:129] Top shape: 16 13 (208)
I0228 21:19:56.377835 11790 net.cpp:129] Top shape: 16 13 (208)
I0228 21:19:56.377840 11790 net.cpp:137] Memory required for data: 4224
I0228 21:19:56.377842 11790 layer_factory.hpp:77] Creating layer lstm1
I0228 21:19:56.377851 11790 net.cpp:84] Creating Layer lstm1
I0228 21:19:56.377854 11790 net.cpp:406] lstm1 <- data
I0228 21:19:56.377858 11790 net.cpp:406] lstm1 <- clip_Input_1_split_0
I0228 21:19:56.377866 11790 net.cpp:380] lstm1 -> lstm1
I0228 21:19:56.377877 11790 recurrent_layer.cpp:20] Initializing recurrent layer: assuming input batch contains 16 timesteps of 13 independent streams.
I0228 21:19:56.378247 11790 net.cpp:51] Initializing net from parameters: 
layer {
  name: "lstm1_"
  type: "Input"
  top: "x"
  top: "cont"
  input_param {
    shape {
      dim: 16
      dim: 13
      dim: 1
    }
    shape {
      dim: 16
      dim: 13
    }
  }
}
layer {
  name: "lstm1_"
  type: "Input"
  top: "c_0"
  top: "h_0"
  input_param {
    shape {
      dim: 1
      dim: 13
      dim: 16
    }
    shape {
      dim: 1
      dim: 13
      dim: 16
    }
  }
}
layer {
  name: "lstm1_cont_slice"
  type: "Slice"
  bottom: "cont"
  top: "cont_1"
  top: "cont_2"
  top: "cont_3"
  top: "cont_4"
  top: "cont_5"
  top: "cont_6"
  top: "cont_7"
  top: "cont_8"
  top: "cont_9"
  top: "cont_10"
  top: "cont_11"
  top: "cont_12"
  top: "cont_13"
  top: "cont_14"
  top: "cont_15"
  top: "cont_16"
  slice_param {
    axis: 0
  }
}
layer {
  name: "lstm1_x_transform"
  type: "InnerProduct"
  bottom: "x"
  top: "W_xc_x"
  param {
    name: "W_xc"
  }
  param {
    name: "b_c"
  }
  propagate_down: true
  inner_product_param {
    num_output: 64
    bias_term: true
    weight_filler {
      type: "xavier"
    }
    bias_filler {
      type: "constant"
    }
    axis: 2
  }
}
layer {
  name: "lstm1_W_xc_x_slice"
  type: "Slice"
  bottom: "W_xc_x"
  top: "W_xc_x_1"
  top: "W_xc_x_2"
  top: "W_xc_x_3"
  top: "W_xc_x_4"
  top: "W_xc_x_5"
  top: "W_xc_x_6"
  top: "W_xc_x_7"
  top: "W_xc_x_8"
  top: "W_xc_x_9"
  top: "W_xc_x_10"
  top: "W_xc_x_11"
  top: "W_xc_x_12"
  top: "W_xc_x_13"
  top: "W_xc_x_14"
  top: "W_xc_x_15"
  top: "W_xc_x_16"
  slice_param {
    axis: 0
  }
}
layer {
  name: "lstm1_h_conted_0"
  type: "Scale"
  bottom: "h_0"
  bottom: "cont_1"
  top: "h_conted_0"
  scale_param {
    axis: 0
  }
}
layer {
  name: "lstm1_transform_1"
  type: "InnerProduct"
  bottom: "h_conted_0"
  top: "W_hc_h_0"
  param {
    name: "W_hc"
  }
  inner_product_param {
    num_output: 64
    bias_term: false
    weight_filler {
      type: "xavier"
    }
    axis: 2
  }
}
layer {
  name: "lstm1_gate_input_1"
  type: "Eltwise"
  bottom: "W_hc_h_0"
  bottom: "W_xc_x_1"
  top: "gate_input_1"
  eltwise_param {
    operation: SUM
  }
}
layer {
  name: "lstm1_unit_1"
  type: "LSTMUnit"
  bottom: "c_0"
  bottom: "gate_input_1"
  bottom: "cont_1"
  top: "c_1"
  top: "h_1"
}
layer {
  name: "lstm1_h_conted_1"
  type: "Scale"
  bottom: "h_1"
  bottom: "cont_2"
  top: "h_conted_1"
  scale_param {
    axis: 0
  }
}
layer {
  name: "lstm1_transform_2"
  type: "InnerProduct"
  bottom: "h_conted_1"
  top: "W_hc_h_1"
  param {
    name: "W_hc"
  }
  inner_product_param {
    num_output: 64
    bias_term: false
    weight_filler {
      type: "xavier"
    }
    axis: 2
  }
}
layer {
  name: "lstm1_gate_input_2"
  type: "Eltwise"
  bottom: "W_hc_h_1"
  bottom: "W_xc_x_2"
  top: "gate_input_2"
  eltwise_param {
    operation: SUM
  }
}
layer {
  name: "lstm1_unit_2"
  type: "LSTMUnit"
  bottom: "c_1"
  bottom: "gate_input_2"
  bottom: "cont_2"
  top: "c_2"
  top: "h_2"
}
layer {
  name: "lstm1_h_conted_2"
  type: "Scale"
  bottom: "h_2"
  bottom: "cont_3"
  top: "h_conted_2"
  scale_param {
    axis: 0
  }
}
layer {
  name: "lstm1_transform_3"
  type: "InnerProduct"
  bottom: "h_conted_2"
  top: "W_hc_h_2"
  param {
    name: "W_hc"
  }
  inner_product_param {
    num_output: 64
    bias_term: false
    weight_filler {
      type: "xavier"
    }
    axis: 2
  }
}
layer {
  name: "lstm1_gate_input_3"
  type: "Eltwise"
  bottom: "W_hc_h_2"
  bottom: "W_xc_x_3"
  top: "gate_input_3"
  eltwise_param {
    operation: SUM
  }
}
layer {
  name: "lstm1_unit_3"
  type: "LSTMUnit"
  bottom: "c_2"
  bottom: "gate_input_3"
  bottom: "cont_3"
  top: "c_3"
  top: "h_3"
}
layer {
  name: "lstm1_h_conted_3"
  type: "Scale"
  bottom: "h_3"
  bottom: "cont_4"
  top: "h_conted_3"
  scale_param {
    axis: 0
  }
}
layer {
  name: "lstm1_transform_4"
  type: "InnerProduct"
  bottom: "h_conted_3"
  top: "W_hc_h_3"
  param {
    name: "W_hc"
  }
  inner_product_param {
    num_output: 64
    bias_term: false
    weight_filler {
      type: "xavier"
    }
    axis: 2
  }
}
layer {
  name: "lstm1_gate_input_4"
  type: "Eltwise"
  bottom: "W_hc_h_3"
  bottom: "W_xc_x_4"
  top: "gate_input_4"
  eltwise_param {
    operation: SUM
  }
}
layer {
  name: "lstm1_unit_4"
  type: "LSTMUnit"
  bottom: "c_3"
  bottom: "gate_input_4"
  bottom: "cont_4"
  top: "c_4"
  top: "h_4"
}
layer {
  name: "lstm1_h_conted_4"
  type: "Scale"
  bottom: "h_4"
  bottom: "cont_5"
  top: "h_conted_4"
  scale_param {
    axis: 0
  }
}
layer {
  name: "lstm1_transform_5"
  type: "InnerProduct"
  bottom: "h_conted_4"
  top: "W_hc_h_4"
  param {
    name: "W_hc"
  }
  inner_product_param {
    num_output: 64
    bias_term: false
    weight_filler {
      type: "xavier"
    }
    axis: 2
  }
}
layer {
  name: "lstm1_gate_input_5"
  type: "Eltwise"
  bottom: "W_hc_h_4"
  bottom: "W_xc_x_5"
  top: "gate_input_5"
  eltwise_param {
    operation: SUM
  }
}
layer {
  name: "lstm1_unit_5"
  type: "LSTMUnit"
  bottom: "c_4"
  bottom: "gate_input_5"
  bottom: "cont_5"
  top: "c_5"
  top: "h_5"
}
layer {
  name: "lstm1_h_conted_5"
  type: "Scale"
  bottom: "h_5"
  bottom: "cont_6"
  top: "h_conted_5"
  scale_param {
    axis: 0
  }
}
layer {
  name: "lstm1_transform_6"
  type: "InnerProduct"
  bottom: "h_conted_5"
  top: "W_hc_h_5"
  param {
    name: "W_hc"
  }
  inner_product_param {
    num_output: 64
    bias_term: false
    weight_filler {
      type: "xavier"
    }
    axis: 2
  }
}
layer {
  name: "lstm1_gate_input_6"
  type: "Eltwise"
  bottom: "W_hc_h_5"
  bottom: "W_xc_x_6"
  top: "gate_input_6"
  eltwise_param {
    operation: SUM
  }
}
layer {
  name: "lstm1_unit_6"
  type: "LSTMUnit"
  bottom: "c_5"
  bottom: "gate_input_6"
  bottom: "cont_6"
  top: "c_6"
  top: "h_6"
}
layer {
  name: "lstm1_h_conted_6"
  type: "Scale"
  bottom: "h_6"
  bottom: "cont_7"
  top: "h_conted_6"
  scale_param {
    axis: 0
  }
}
layer {
  name: "lstm1_transform_7"
  type: "InnerProduct"
  bottom: "h_conted_6"
  top: "W_hc_h_6"
  param {
    name: "W_hc"
  }
  inner_product_param {
    num_output: 64
    bias_term: false
    weight_filler {
      type: "xavier"
    }
    axis: 2
  }
}
layer {
  name: "lstm1_gate_input_7"
  type: "Eltwise"
  bottom: "W_hc_h_6"
  bottom: "W_xc_x_7"
  top: "gate_input_7"
  eltwise_param {
    operation: SUM
  }
}
layer {
  name: "lstm1_unit_7"
  type: "LSTMUnit"
  bottom: "c_6"
  bottom: "gate_input_7"
  bottom: "cont_7"
  top: "c_7"
  top: "h_7"
}
layer {
  name: "lstm1_h_conted_7"
  type: "Scale"
  bottom: "h_7"
  bottom: "cont_8"
  top: "h_conted_7"
  scale_param {
    axis: 0
  }
}
layer {
  name: "lstm1_transform_8"
  type: "InnerProduct"
  bottom: "h_conted_7"
  top: "W_hc_h_7"
  param {
    name: "W_hc"
  }
  inner_product_param {
    num_output: 64
    bias_term: false
    weight_filler {
      type: "xavier"
    }
    axis: 2
  }
}
layer {
  name: "lstm1_gate_input_8"
  type: "Eltwise"
  bottom: "W_hc_h_7"
  bottom: "W_xc_x_8"
  top: "gate_input_8"
  eltwise_param {
    operation: SUM
  }
}
layer {
  name: "lstm1_unit_8"
  type: "LSTMUnit"
  bottom: "c_7"
  bottom: "gate_input_8"
  bottom: "cont_8"
  top: "c_8"
  top: "h_8"
}
layer {
  name: "lstm1_h_conted_8"
  type: "Scale"
  bottom: "h_8"
  bottom: "cont_9"
  top: "h_conted_8"
  scale_param {
    axis: 0
  }
}
layer {
  name: "lstm1_transform_9"
  type: "InnerProduct"
  bottom: "h_conted_8"
  top: "W_hc_h_8"
  param {
    name: "W_hc"
  }
  inner_product_param {
    num_output: 64
    bias_term: false
    weight_filler {
      type: "xavier"
    }
    axis: 2
  }
}
layer {
  name: "lstm1_gate_input_9"
  type: "Eltwise"
  bottom: "W_hc_h_8"
  bottom: "W_xc_x_9"
  top: "gate_input_9"
  eltwise_param {
    operation: SUM
  }
}
layer {
  name: "lstm1_unit_9"
  type: "LSTMUnit"
  bottom: "c_8"
  bottom: "gate_input_9"
  bottom: "cont_9"
  top: "c_9"
  top: "h_9"
}
layer {
  name: "lstm1_h_conted_9"
  type: "Scale"
  bottom: "h_9"
  bottom: "cont_10"
  top: "h_conted_9"
  scale_param {
    axis: 0
  }
}
layer {
  name: "lstm1_transform_10"
  type: "InnerProduct"
  bottom: "h_conted_9"
  top: "W_hc_h_9"
  param {
    name: "W_hc"
  }
  inner_product_param {
    num_output: 64
    bias_term: false
    weight_filler {
      type: "xavier"
    }
    axis: 2
  }
}
layer {
  name: "lstm1_gate_input_10"
  type: "Eltwise"
  bottom: "W_hc_h_9"
  bottom: "W_xc_x_10"
  top: "gate_input_10"
  eltwise_param {
    operation: SUM
  }
}
layer {
  name: "lstm1_unit_10"
  type: "LSTMUnit"
  bottom: "c_9"
  bottom: "gate_input_10"
  bottom: "cont_10"
  top: "c_10"
  top: "h_10"
}
layer {
  name: "lstm1_h_conted_10"
  type: "Scale"
  bottom: "h_10"
  bottom: "cont_11"
  top: "h_conted_10"
  scale_param {
    axis: 0
  }
}
layer {
  name: "lstm1_transform_11"
  type: "InnerProduct"
  bottom: "h_conted_10"
  top: "W_hc_h_10"
  param {
    name: "W_hc"
  }
  inner_product_param {
    num_output: 64
    bias_term: false
    weight_filler {
      type: "xavier"
    }
    axis: 2
  }
}
layer {
  name: "lstm1_gate_input_11"
  type: "Eltwise"
  bottom: "W_hc_h_10"
  bottom: "W_xc_x_11"
  top: "gate_input_11"
  eltwise_param {
    operation: SUM
  }
}
layer {
  name: "lstm1_unit_11"
  type: "LSTMUnit"
  bottom: "c_10"
  bottom: "gate_input_11"
  bottom: "cont_11"
  top: "c_11"
  top: "h_11"
}
layer {
  name: "lstm1_h_conted_11"
  type: "Scale"
  bottom: "h_11"
  bottom: "cont_12"
  top: "h_conted_11"
  scale_param {
    axis: 0
  }
}
layer {
  name: "lstm1_transform_12"
  type: "InnerProduct"
  bottom: "h_conted_11"
  top: "W_hc_h_11"
  param {
    name: "W_hc"
  }
  inner_product_param {
    num_output: 64
    bias_term: false
    weight_filler {
      type: "xavier"
    }
    axis: 2
  }
}
layer {
  name: "lstm1_gate_input_12"
  type: "Eltwise"
  bottom: "W_hc_h_11"
  bottom: "W_xc_x_12"
  top: "gate_input_12"
  eltwise_param {
    operation: SUM
  }
}
layer {
  name: "lstm1_unit_12"
  type: "LSTMUnit"
  bottom: "c_11"
  bottom: "gate_input_12"
  bottom: "cont_12"
  top: "c_12"
  top: "h_12"
}
layer {
  name: "lstm1_h_conted_12"
  type: "Scale"
  bottom: "h_12"
  bottom: "cont_13"
  top: "h_conted_12"
  scale_param {
    axis: 0
  }
}
layer {
  name: "lstm1_transform_13"
  type: "InnerProduct"
  bottom: "h_conted_12"
  top: "W_hc_h_12"
  param {
    name: "W_hc"
  }
  inner_product_param {
    num_output: 64
    bias_term: false
    weight_filler {
      type: "xavier"
    }
    axis: 2
  }
}
layer {
  name: "lstm1_gate_input_13"
  type: "Eltwise"
  bottom: "W_hc_h_12"
  bottom: "W_xc_x_13"
  top: "gate_input_13"
  eltwise_param {
    operation: SUM
  }
}
layer {
  name: "lstm1_unit_13"
  type: "LSTMUnit"
  bottom: "c_12"
  bottom: "gate_input_13"
  bottom: "cont_13"
  top: "c_13"
  top: "h_13"
}
layer {
  name: "lstm1_h_conted_13"
  type: "Scale"
  bottom: "h_13"
  bottom: "cont_14"
  top: "h_conted_13"
  scale_param {
    axis: 0
  }
}
layer {
  name: "lstm1_transform_14"
  type: "InnerProduct"
  bottom: "h_conted_13"
  top: "W_hc_h_13"
  param {
    name: "W_hc"
  }
  inner_product_param {
    num_output: 64
    bias_term: false
    weight_filler {
      type: "xavier"
    }
    axis: 2
  }
}
layer {
  name: "lstm1_gate_input_14"
  type: "Eltwise"
  bottom: "W_hc_h_13"
  bottom: "W_xc_x_14"
  top: "gate_input_14"
  eltwise_param {
    operation: SUM
  }
}
layer {
  name: "lstm1_unit_14"
  type: "LSTMUnit"
  bottom: "c_13"
  bottom: "gate_input_14"
  bottom: "cont_14"
  top: "c_14"
  top: "h_14"
}
layer {
  name: "lstm1_h_conted_14"
  type: "Scale"
  bottom: "h_14"
  bottom: "cont_15"
  top: "h_conted_14"
  scale_param {
    axis: 0
  }
}
layer {
  name: "lstm1_transform_15"
  type: "InnerProduct"
  bottom: "h_conted_14"
  top: "W_hc_h_14"
  param {
    name: "W_hc"
  }
  inner_product_param {
    num_output: 64
    bias_term: false
    weight_filler {
      type: "xavier"
    }
    axis: 2
  }
}
layer {
  name: "lstm1_gate_input_15"
  type: "Eltwise"
  bottom: "W_hc_h_14"
  bottom: "W_xc_x_15"
  top: "gate_input_15"
  eltwise_param {
    operation: SUM
  }
}
layer {
  name: "lstm1_unit_15"
  type: "LSTMUnit"
  bottom: "c_14"
  bottom: "gate_input_15"
  bottom: "cont_15"
  top: "c_15"
  top: "h_15"
}
layer {
  name: "lstm1_h_conted_15"
  type: "Scale"
  bottom: "h_15"
  bottom: "cont_16"
  top: "h_conted_15"
  scale_param {
    axis: 0
  }
}
layer {
  name: "lstm1_transform_16"
  type: "InnerProduct"
  bottom: "h_conted_15"
  top: "W_hc_h_15"
  param {
    name: "W_hc"
  }
  inner_product_param {
    num_output: 64
    bias_term: false
    weight_filler {
      type: "xavier"
    }
    axis: 2
  }
}
layer {
  name: "lstm1_gate_input_16"
  type: "Eltwise"
  bottom: "W_hc_h_15"
  bottom: "W_xc_x_16"
  top: "gate_input_16"
  eltwise_param {
    operation: SUM
  }
}
layer {
  name: "lstm1_unit_16"
  type: "LSTMUnit"
  bottom: "c_15"
  bottom: "gate_input_16"
  bottom: "cont_16"
  top: "c_16"
  top: "h_16"
}
layer {
  name: "lstm1_"
  type: "Split"
  bottom: "c_16"
  top: "c_T"
}
layer {
  name: "lstm1_h_concat"
  type: "Concat"
  bottom: "h_1"
  bottom: "h_2"
  bottom: "h_3"
  bottom: "h_4"
  bottom: "h_5"
  bottom: "h_6"
  bottom: "h_7"
  bottom: "h_8"
  bottom: "h_9"
  bottom: "h_10"
  bottom: "h_11"
  bottom: "h_12"
  bottom: "h_13"
  bottom: "h_14"
  bottom: "h_15"
  bottom: "h_16"
  top: "h"
  concat_param {
    axis: 0
  }
}
layer {
  name: "h_pseudoloss"
  type: "Reduction"
  bottom: "h"
  top: "h_pseudoloss"
  loss_weight: 1
}
I0228 21:19:56.378897 11790 layer_factory.hpp:77] Creating layer lstm1_
I0228 21:19:56.378907 11790 net.cpp:84] Creating Layer lstm1_
I0228 21:19:56.378911 11790 net.cpp:380] lstm1_ -> x
I0228 21:19:56.378918 11790 net.cpp:380] lstm1_ -> cont
I0228 21:19:56.378942 11790 net.cpp:122] Setting up lstm1_
I0228 21:19:56.378949 11790 net.cpp:129] Top shape: 16 13 1 (208)
I0228 21:19:56.378953 11790 net.cpp:129] Top shape: 16 13 (208)
I0228 21:19:56.378957 11790 net.cpp:137] Memory required for data: 1664
I0228 21:19:56.378960 11790 layer_factory.hpp:77] Creating layer lstm1_
I0228 21:19:56.378965 11790 net.cpp:84] Creating Layer lstm1_
I0228 21:19:56.378969 11790 net.cpp:380] lstm1_ -> c_0
I0228 21:19:56.378974 11790 net.cpp:380] lstm1_ -> h_0
I0228 21:19:56.378993 11790 net.cpp:122] Setting up lstm1_
I0228 21:19:56.378998 11790 net.cpp:129] Top shape: 1 13 16 (208)
I0228 21:19:56.379001 11790 net.cpp:129] Top shape: 1 13 16 (208)
I0228 21:19:56.379004 11790 net.cpp:137] Memory required for data: 3328
I0228 21:19:56.379009 11790 layer_factory.hpp:77] Creating layer lstm1_cont_slice
I0228 21:19:56.379016 11790 net.cpp:84] Creating Layer lstm1_cont_slice
I0228 21:19:56.379020 11790 net.cpp:406] lstm1_cont_slice <- cont
I0228 21:19:56.379026 11790 net.cpp:380] lstm1_cont_slice -> cont_1
I0228 21:19:56.379034 11790 net.cpp:380] lstm1_cont_slice -> cont_2
…
I0228 21:19:56.379068 11790 net.cpp:380] lstm1_cont_slice -> cont_9
I0228 21:19:56.379073 11790 net.cpp:380] lstm1_cont_slice -> cont_10
I0228 21:19:56.379078 11790 net.cpp:380] lstm1_cont_slice -> cont_11
I0228 21:19:56.379083 11790 net.cpp:380] lstm1_cont_slice -> cont_12
I0228 21:19:56.379088 11790 net.cpp:380] lstm1_cont_slice -> cont_13
I0228 21:19:56.379094 11790 net.cpp:380] lstm1_cont_slice -> cont_14
I0228 21:19:56.379098 11790 net.cpp:380] lstm1_cont_slice -> cont_15
I0228 21:19:56.379103 11790 net.cpp:380] lstm1_cont_slice -> cont_16
I0228 21:19:56.379197 11790 net.cpp:122] Setting up lstm1_cont_slice
I0228 21:19:56.379222 11790 net.cpp:129] Top shape: 1 13 (13)
I0228 21:19:56.379226 11790 net.cpp:129] Top shape: 1 13 (13)
I0228 21:19:56.379230 11790 net.cpp:129] Top shape: 1 13 (13)
I0228 21:19:56.379233 11790 net.cpp:129] Top shape: 1 13 (13)
I0228 21:19:56.379237 11790 net.cpp:129] Top shape: 1 13 (13)
I0228 21:19:56.379240 11790 net.cpp:129] Top shape: 1 13 (13)
I0228 21:19:56.379245 11790 net.cpp:129] Top shape: 1 13 (13)
I0228 21:19:56.379283 11790 net.cpp:129] Top shape: 1 13 (13)
I0228 21:19:56.379287 11790 net.cpp:129] Top shape: 1 13 (13)
I0228 21:19:56.379292 11790 net.cpp:129] Top shape: 1 13 (13)
I0228 21:19:56.379294 11790 net.cpp:129] Top shape: 1 13 (13)
I0228 21:19:56.379298 11790 net.cpp:129] Top shape: 1 13 (13)
I0228 21:19:56.379302 11790 net.cpp:129] Top shape: 1 13 (13)
I0228 21:19:56.379307 11790 net.cpp:129] Top shape: 1 13 (13)
I0228 21:19:56.379309 11790 net.cpp:129] Top shape: 1 13 (13)
I0228 21:19:56.379312 11790 net.cpp:129] Top shape: 1 13 (13)
I0228 21:19:56.379315 11790 net.cpp:137] Memory required for data: 4160
I0228 21:19:56.379319 11790 layer_factory.hpp:77] Creating layer cont_1_lstm1_cont_slice_0_split
I0228 21:19:56.379336 11790 net.cpp:84] Creating Layer cont_1_lstm1_cont_slice_0_split
I0228 21:19:56.379340 11790 net.cpp:406] cont_1_lstm1_cont_slice_0_split <- cont_1
I0228 21:19:56.379344 11790 net.cpp:380] cont_1_lstm1_cont_slice_0_split -> cont_1_lstm1_cont_slice_0_split_0
I0228 21:19:56.379351 11790 net.cpp:380] cont_1_lstm1_cont_slice_0_split -> cont_1_lstm1_cont_slice_0_split_1
I0228 21:19:56.379371 11790 net.cpp:122] Setting up cont_1_lstm1_cont_slice_0_split
I0228 21:19:56.379376 11790 net.cpp:129] Top shape: 1 13 (13)
I0228 21:19:56.379380 11790 net.cpp:129] Top shape: 1 13 (13)
I0228 21:19:56.379384 11790 net.cpp:137] Memory required for data: 4264
I0228 21:19:56.379386 11790 layer_factory.hpp:77] Creating layer cont_2_lstm1_cont_slice_1_split
I0228 21:19:56.379392 11790 net.cpp:84] Creating Layer cont_2_lstm1_cont_slice_1_split
I0228 21:19:56.381222 11790 net.cpp:406] cont_2_lstm1_cont_slice_1_split <- cont_2
I0228 21:19:56.381234 11790 net.cpp:380] cont_2_lstm1_cont_slice_1_split -> cont_2_lstm1_cont_slice_1_split_0
I0228 21:19:56.381243 11790 net.cpp:380] cont_2_lstm1_cont_slice_1_split -> cont_2_lstm1_cont_slice_1_split_1
I0228 21:19:56.381278 11790 net.cpp:122] Setting up cont_2_lstm1_cont_slice_1_split
I0228 21:19:56.381286 11790 net.cpp:129] Top shape: 1 13 (13)
I0228 21:19:56.381290 11790 net.cpp:129] Top shape: 1 13 (13)
I0228 21:19:56.381294 11790 net.cpp:137] Memory required for data: 4368
I0228 21:19:56.381296 11790 layer_factory.hpp:77] Creating layer cont_3_lstm1_cont_slice_2_split
I0228 21:19:56.381301 11790 net.cpp:84] Creating Layer cont_3_lstm1_cont_slice_2_split
I0228 21:19:56.381304 11790 net.cpp:406] cont_3_lstm1_cont_slice_2_split <- cont_3
I0228 21:19:56.381309 11790 net.cpp:380] cont_3_lstm1_cont_slice_2_split -> cont_3_lstm1_cont_slice_2_split_0
I0228 21:19:56.381314 11790 net.cpp:380] cont_3_lstm1_cont_slice_2_split -> cont_3_lstm1_cont_slice_2_split_1
I0228 21:19:56.381333 11790 net.cpp:122] Setting up cont_3_lstm1_cont_slice_2_split
I0228 21:19:56.381340 11790 net.cpp:129] Top shape: 1 13 (13)
I0228 21:19:56.381343 11790 net.cpp:129] Top shape: 1 13 (13)
I0228 21:19:56.381346 11790 net.cpp:137] Memory required for data: 4472
I0228 21:19:56.381350 11790 layer_factory.hpp:77] Creating layer cont_4_lstm1_cont_slice_3_split
I0228 21:19:56.381353 11790 net.cpp:84] Creating Layer cont_4_lstm1_cont_slice_3_split
I0228 21:19:56.381371 11790 net.cpp:406] cont_4_lstm1_cont_slice_3_split <- cont_4
I0228 21:19:56.381374 11790 net.cpp:380] cont_4_lstm1_cont_slice_3_split -> cont_4_lstm1_cont_slice_3_split_0
I0228 21:19:56.381379 11790 net.cpp:380] cont_4_lstm1_cont_slice_3_split -> cont_4_lstm1_cont_slice_3_split_1
I0228 21:19:56.381399 11790 net.cpp:122] Setting up cont_4_lstm1_cont_slice_3_split
I0228 21:19:56.381404 11790 net.cpp:129] Top shape: 1 13 (13)
I0228 21:19:56.381408 11790 net.cpp:129] Top shape: 1 13 (13)
I0228 21:19:56.381418 11790 net.cpp:137] Memory required for data: 4576
I0228 21:19:56.381422 11790 layer_factory.hpp:77] Creating layer cont_5_lstm1_cont_slice_4_split
I0228 21:19:56.381425 11790 net.cpp:84] Creating Layer cont_5_lstm1_cont_slice_4_split
I0228 21:19:56.381429 11790 net.cpp:406] cont_5_lstm1_cont_slice_4_split <- cont_5
I0228 21:19:56.381434 11790 net.cpp:380] cont_5_lstm1_cont_slice_4_split -> cont_5_lstm1_cont_slice_4_split_0
I0228 21:19:56.381439 11790 net.cpp:380] cont_5_lstm1_cont_slice_4_split -> cont_5_lstm1_cont_slice_4_split_1
I0228 21:19:56.381458 11790 net.cpp:122] Setting up cont_5_lstm1_cont_slice_4_split
I0228 21:19:56.381464 11790 net.cpp:129] Top shape: 1 13 (13)
I0228 21:19:56.381466 11790 net.cpp:129] Top shape: 1 13 (13)
I0228 21:19:56.381469 11790 net.cpp:137] Memory required for data: 4680
I0228 21:19:56.381486 11790 layer_factory.hpp:77] Creating layer cont_6_lstm1_cont_slice_5_split
I0228 21:19:56.381495 11790 net.cpp:84] Creating Layer cont_6_lstm1_cont_slice_5_split
I0228 21:19:56.381500 11790 net.cpp:406] cont_6_lstm1_cont_slice_5_split <- cont_6
I0228 21:19:56.381506 11790 net.cpp:380] cont_6_lstm1_cont_slice_5_split -> cont_6_lstm1_cont_slice_5_split_0
I0228 21:19:56.381515 11790 net.cpp:380] cont_6_lstm1_cont_slice_5_split -> cont_6_lstm1_cont_slice_5_split_1
I0228 21:19:56.381599 11790 net.cpp:122] Setting up cont_6_lstm1_cont_slice_5_split
I0228 21:19:56.381610 11790 net.cpp:129] Top shape: 1 13 (13)
I0228 21:19:56.381616 11790 net.cpp:129] Top shape: 1 13 (13)
I0228 21:19:56.381621 11790 net.cpp:137] Memory required for data: 4784
I0228 21:19:56.381625 11790 layer_factory.hpp:77] Creating layer cont_7_lstm1_cont_slice_6_split
I0228 21:19:56.381631 11790 net.cpp:84] Creating Layer cont_7_lstm1_cont_slice_6_split
I0228 21:19:56.381636 11790 net.cpp:406] cont_7_lstm1_cont_slice_6_split <- cont_7
I0228 21:19:56.381644 11790 net.cpp:380] cont_7_lstm1_cont_slice_6_split -> cont_7_lstm1_cont_slice_6_split_0
I0228 21:19:56.381669 11790 net.cpp:380] cont_7_lstm1_cont_slice_6_split -> cont_7_lstm1_cont_slice_6_split_1
I0228 21:19:56.381705 11790 net.cpp:122] Setting up cont_7_lstm1_cont_slice_6_split
I0228 21:19:56.381712 11790 net.cpp:129] Top shape: 1 13 (13)
I0228 21:19:56.381716 11790 net.cpp:129] Top shape: 1 13 (13)
I0228 21:19:56.381719 11790 net.cpp:137] Memory required for data: 4888
I0228 21:19:56.381722 11790 layer_factory.hpp:77] Creating layer cont_8_lstm1_cont_slice_7_split
I0228 21:19:56.381727 11790 net.cpp:84] Creating Layer cont_8_lstm1_cont_slice_7_split
I0228 21:19:56.381731 11790 net.cpp:406] cont_8_lstm1_cont_slice_7_split <- cont_8
I0228 21:19:56.381737 11790 net.cpp:380] cont_8_lstm1_cont_slice_7_split -> cont_8_lstm1_cont_slice_7_split_0
I0228 21:19:56.381743 11790 net.cpp:380] cont_8_lstm1_cont_slice_7_split -> cont_8_lstm1_cont_slice_7_split_1
I0228 21:19:56.381798 11790 net.cpp:122] Setting up cont_8_lstm1_cont_slice_7_split
I0228 21:19:56.381803 11790 net.cpp:129] Top shape: 1 13 (13)
I0228 21:19:56.381808 11790 net.cpp:129] Top shape: 1 13 (13)
I0228 21:19:56.381810 11790 net.cpp:137] Memory required for data: 4992
I0228 21:19:56.381814 11790 layer_factory.hpp:77] Creating layer cont_9_lstm1_cont_slice_8_split
I0228 21:19:56.381817 11790 net.cpp:84] Creating Layer cont_9_lstm1_cont_slice_8_split
I0228 21:19:56.381820 11790 net.cpp:406] cont_9_lstm1_cont_slice_8_split <- cont_9
I0228 21:19:56.381825 11790 net.cpp:380] cont_9_lstm1_cont_slice_8_split -> cont_9_lstm1_cont_slice_8_split_0
I0228 21:19:56.381830 11790 net.cpp:380] cont_9_lstm1_cont_slice_8_split -> cont_9_lstm1_cont_slice_8_split_1
I0228 21:19:56.381848 11790 net.cpp:122] Setting up cont_9_lstm1_cont_slice_8_split
I0228 21:19:56.381855 11790 net.cpp:129] Top shape: 1 13 (13)
I0228 21:19:56.381860 11790 net.cpp:129] Top shape: 1 13 (13)
I0228 21:19:56.381862 11790 net.cpp:137] Memory required for data: 5096
I0228 21:19:56.381866 11790 layer_factory.hpp:77] Creating layer cont_10_lstm1_cont_slice_9_split
I0228 21:19:56.381870 11790 net.cpp:84] Creating Layer cont_10_lstm1_cont_slice_9_split
I0228 21:19:56.381881 11790 net.cpp:406] cont_10_lstm1_cont_slice_9_split <- cont_10
I0228 21:19:56.381886 11790 net.cpp:380] cont_10_lstm1_cont_slice_9_split -> cont_10_lstm1_cont_slice_9_split_0
I0228 21:19:56.381893 11790 net.cpp:380] cont_10_lstm1_cont_slice_9_split -> cont_10_lstm1_cont_slice_9_split_1
I0228 21:19:56.381913 11790 net.cpp:122] Setting up cont_10_lstm1_cont_slice_9_split
I0228 21:19:56.381919 11790 net.cpp:129] Top shape: 1 13 (13)
I0228 21:19:56.381924 11790 net.cpp:129] Top shape: 1 13 (13)
I0228 21:19:56.381928 11790 net.cpp:137] Memory required for data: 5200
I0228 21:19:56.381932 11790 layer_factory.hpp:77] Creating layer cont_11_lstm1_cont_slice_10_split
I0228 21:19:56.381939 11790 net.cpp:84] Creating Layer cont_11_lstm1_cont_slice_10_split
I0228 21:19:56.381944 11790 net.cpp:406] cont_11_lstm1_cont_slice_10_split <- cont_11
I0228 21:19:56.381949 11790 net.cpp:380] cont_11_lstm1_cont_slice_10_split -> cont_11_lstm1_cont_slice_10_split_0
I0228 21:19:56.381955 11790 net.cpp:380] cont_11_lstm1_cont_slice_10_split -> cont_11_lstm1_cont_slice_10_split_1
I0228 21:19:56.381974 11790 net.cpp:122] Setting up cont_11_lstm1_cont_slice_10_split
I0228 21:19:56.381981 11790 net.cpp:129] Top shape: 1 13 (13)
I0228 21:19:56.381986 11790 net.cpp:129] Top shape: 1 13 (13)
I0228 21:19:56.381990 11790 net.cpp:137] Memory required for data: 5304
I0228 21:19:56.381994 11790 layer_factory.hpp:77] Creating layer cont_12_lstm1_cont_slice_11_split
I0228 21:19:56.381999 11790 net.cpp:84] Creating Layer cont_12_lstm1_cont_slice_11_split
I0228 21:19:56.382004 11790 net.cpp:406] cont_12_lstm1_cont_slice_11_split <- cont_12
I0228 21:19:56.382009 11790 net.cpp:380] cont_12_lstm1_cont_slice_11_split -> cont_12_lstm1_cont_slice_11_split_0
I0228 21:19:56.382014 11790 net.cpp:380] cont_12_lstm1_cont_slice_11_split -> cont_12_lstm1_cont_slice_11_split_1
I0228 21:19:56.382035 11790 net.cpp:122] Setting up cont_12_lstm1_cont_slice_11_split
I0228 21:19:56.382041 11790 net.cpp:129] Top shape: 1 13 (13)
I0228 21:19:56.382046 11790 net.cpp:129] Top shape: 1 13 (13)
I0228 21:19:56.382050 11790 net.cpp:137] Memory required for data: 5408
I0228 21:19:56.382055 11790 layer_factory.hpp:77] Creating layer cont_13_lstm1_cont_slice_12_split
I0228 21:19:56.382059 11790 net.cpp:84] Creating Layer cont_13_lstm1_cont_slice_12_split
I0228 21:19:56.382063 11790 net.cpp:406] cont_13_lstm1_cont_slice_12_split <- cont_13
I0228 21:19:56.382069 11790 net.cpp:380] cont_13_lstm1_cont_slice_12_split -> cont_13_lstm1_cont_slice_12_split_0
I0228 21:19:56.382074 11790 net.cpp:380] cont_13_lstm1_cont_slice_12_split -> cont_13_lstm1_cont_slice_12_split_1
I0228 21:19:56.382095 11790 net.cpp:122] Setting up cont_13_lstm1_cont_slice_12_split
I0228 21:19:56.382102 11790 net.cpp:129] Top shape: 1 13 (13)
I0228 21:19:56.382107 11790 net.cpp:129] Top shape: 1 13 (13)
I0228 21:19:56.382110 11790 net.cpp:137] Memory required for data: 5512
I0228 21:19:56.382114 11790 layer_factory.hpp:77] Creating layer cont_14_lstm1_cont_slice_13_split
I0228 21:19:56.382122 11790 net.cpp:84] Creating Layer cont_14_lstm1_cont_slice_13_split
I0228 21:19:56.382128 11790 net.cpp:406] cont_14_lstm1_cont_slice_13_split <- cont_14
I0228 21:19:56.382133 11790 net.cpp:380] cont_14_lstm1_cont_slice_13_split -> cont_14_lstm1_cont_slice_13_split_0
I0228 21:19:56.382138 11790 net.cpp:380] cont_14_lstm1_cont_slice_13_split -> cont_14_lstm1_cont_slice_13_split_1
I0228 21:19:56.382158 11790 net.cpp:122] Setting up cont_14_lstm1_cont_slice_13_split
I0228 21:19:56.382166 11790 net.cpp:129] Top shape: 1 13 (13)
I0228 21:19:56.382172 11790 net.cpp:129] Top shape: 1 13 (13)
I0228 21:19:56.382175 11790 net.cpp:137] Memory required for data: 5616
I0228 21:19:56.382179 11790 layer_factory.hpp:77] Creating layer cont_15_lstm1_cont_slice_14_split
I0228 21:19:56.382182 11790 net.cpp:84] Creating Layer cont_15_lstm1_cont_slice_14_split
I0228 21:19:56.382185 11790 net.cpp:406] cont_15_lstm1_cont_slice_14_split <- cont_15
I0228 21:19:56.382189 11790 net.cpp:380] cont_15_lstm1_cont_slice_14_split -> cont_15_lstm1_cont_slice_14_split_0
I0228 21:19:56.382200 11790 net.cpp:380] cont_15_lstm1_cont_slice_14_split -> cont_15_lstm1_cont_slice_14_split_1
I0228 21:19:56.382218 11790 net.cpp:122] Setting up cont_15_lstm1_cont_slice_14_split
I0228 21:19:56.382223 11790 net.cpp:129] Top shape: 1 13 (13)
I0228 21:19:56.382227 11790 net.cpp:129] Top shape: 1 13 (13)
I0228 21:19:56.382230 11790 net.cpp:137] Memory required for data: 5720
I0228 21:19:56.382233 11790 layer_factory.hpp:77] Creating layer cont_16_lstm1_cont_slice_15_split
I0228 21:19:56.382236 11790 net.cpp:84] Creating Layer cont_16_lstm1_cont_slice_15_split
I0228 21:19:56.382239 11790 net.cpp:406] cont_16_lstm1_cont_slice_15_split <- cont_16
I0228 21:19:56.382243 11790 net.cpp:380] cont_16_lstm1_cont_slice_15_split -> cont_16_lstm1_cont_slice_15_split_0
I0228 21:19:56.382248 11790 net.cpp:380] cont_16_lstm1_cont_slice_15_split -> cont_16_lstm1_cont_slice_15_split_1
I0228 21:19:56.395576 11790 net.cpp:122] Setting up cont_16_lstm1_cont_slice_15_split
I0228 21:19:56.395592 11790 net.cpp:129] Top shape: 1 13 (13)
I0228 21:19:56.395596 11790 net.cpp:129] Top shape: 1 13 (13)
I0228 21:19:56.395599 11790 net.cpp:137] Memory required for data: 5824
I0228 21:19:56.395602 11790 layer_factory.hpp:77] Creating layer lstm1_x_transform
I0228 21:19:56.395614 11790 net.cpp:84] Creating Layer lstm1_x_transform
I0228 21:19:56.395618 11790 net.cpp:406] lstm1_x_transform <- x
I0228 21:19:56.395623 11790 net.cpp:380] lstm1_x_transform -> W_xc_x
I0228 21:19:56.396001 11790 net.cpp:122] Setting up lstm1_x_transform
I0228 21:19:56.396023 11790 net.cpp:129] Top shape: 16 13 64 (13312)
I0228 21:19:56.396024 11790 net.cpp:137] Memory required for data: 59072
I0228 21:19:56.396042 11790 layer_factory.hpp:77] Creating layer lstm1_W_xc_x_slice
I0228 21:19:56.396049 11790 net.cpp:84] Creating Layer lstm1_W_xc_x_slice
I0228 21:19:56.396052 11790 net.cpp:406] lstm1_W_xc_x_slice <- W_xc_x
I0228 21:19:56.396056 11790 net.cpp:380] lstm1_W_xc_x_slice -> W_xc_x_1
I0228 21:19:56.396061 11790 net.cpp:380] lstm1_W_xc_x_slice -> W_xc_x_2
…
I0228 21:19:56.396102 11790 net.cpp:380] lstm1_W_xc_x_slice -> W_xc_x_10
I0228 21:19:56.396106 11790 net.cpp:380] lstm1_W_xc_x_slice -> W_xc_x_11
I0228 21:19:56.396111 11790 net.cpp:380] lstm1_W_xc_x_slice -> W_xc_x_12
I0228 21:19:56.396121 11790 net.cpp:380] lstm1_W_xc_x_slice -> W_xc_x_13
I0228 21:19:56.396126 11790 net.cpp:380] lstm1_W_xc_x_slice -> W_xc_x_14
I0228 21:19:56.396129 11790 net.cpp:380] lstm1_W_xc_x_slice -> W_xc_x_15
I0228 21:19:56.396133 11790 net.cpp:380] lstm1_W_xc_x_slice -> W_xc_x_16
I0228 21:19:56.396245 11790 net.cpp:122] Setting up lstm1_W_xc_x_slice
I0228 21:19:56.396250 11790 net.cpp:129] Top shape: 1 13 64 (832)
I0228 21:19:56.396253 11790 net.cpp:129] Top shape: 1 13 64 (832)
I0228 21:19:56.396256 11790 net.cpp:129] Top shape: 1 13 64 (832)
I0228 21:19:56.396260 11790 net.cpp:129] Top shape: 1 13 64 (832)
I0228 21:19:56.396262 11790 net.cpp:129] Top shape: 1 13 64 (832)
I0228 21:19:56.396265 11790 net.cpp:129] Top shape: 1 13 64 (832)
I0228 21:19:56.396268 11790 net.cpp:129] Top shape: 1 13 64 (832)
I0228 21:19:56.396271 11790 net.cpp:129] Top shape: 1 13 64 (832)
I0228 21:19:56.396275 11790 net.cpp:129] Top shape: 1 13 64 (832)
I0228 21:19:56.396277 11790 net.cpp:129] Top shape: 1 13 64 (832)
I0228 21:19:56.396281 11790 net.cpp:129] Top shape: 1 13 64 (832)
I0228 21:19:56.396284 11790 net.cpp:129] Top shape: 1 13 64 (832)
I0228 21:19:56.396287 11790 net.cpp:129] Top shape: 1 13 64 (832)
I0228 21:19:56.396291 11790 net.cpp:129] Top shape: 1 13 64 (832)
I0228 21:19:56.396301 11790 net.cpp:129] Top shape: 1 13 64 (832)
I0228 21:19:56.396304 11790 net.cpp:129] Top shape: 1 13 64 (832)
I0228 21:19:56.396306 11790 net.cpp:137] Memory required for data: 112320
I0228 21:19:56.396309 11790 layer_factory.hpp:77] Creating layer lstm1_h_conted_0
I0228 21:19:56.396314 11790 net.cpp:84] Creating Layer lstm1_h_conted_0
I0228 21:19:56.396317 11790 net.cpp:406] lstm1_h_conted_0 <- h_0
I0228 21:19:56.396320 11790 net.cpp:406] lstm1_h_conted_0 <- cont_1_lstm1_cont_slice_0_split_0
I0228 21:19:56.396324 11790 net.cpp:380] lstm1_h_conted_0 -> h_conted_0
I0228 21:19:56.396361 11790 net.cpp:122] Setting up lstm1_h_conted_0
I0228 21:19:56.398615 11790 net.cpp:129] Top shape: 1 13 16 (208)
I0228 21:19:56.398624 11790 net.cpp:137] Memory required for data: 113152
I0228 21:19:56.398628 11790 layer_factory.hpp:77] Creating layer lstm1_transform_1
I0228 21:19:56.398635 11790 net.cpp:84] Creating Layer lstm1_transform_1
I0228 21:19:56.398640 11790 net.cpp:406] lstm1_transform_1 <- h_conted_0
I0228 21:19:56.398648 11790 net.cpp:380] lstm1_transform_1 -> W_hc_h_0
I0228 21:19:56.399332 11790 net.cpp:122] Setting up lstm1_transform_1
I0228 21:19:56.399355 11790 net.cpp:129] Top shape: 1 13 64 (832)
I0228 21:19:56.399359 11790 net.cpp:137] Memory required for data: 116480
I0228 21:19:56.399372 11790 layer_factory.hpp:77] Creating layer lstm1_gate_input_1
I0228 21:19:56.399389 11790 net.cpp:84] Creating Layer lstm1_gate_input_1
I0228 21:19:56.399392 11790 net.cpp:406] lstm1_gate_input_1 <- W_hc_h_0
I0228 21:19:56.399395 11790 net.cpp:406] lstm1_gate_input_1 <- W_xc_x_1
I0228 21:19:56.399401 11790 net.cpp:380] lstm1_gate_input_1 -> gate_input_1
I0228 21:19:56.399430 11790 net.cpp:122] Setting up lstm1_gate_input_1
I0228 21:19:56.399436 11790 net.cpp:129] Top shape: 1 13 64 (832)
I0228 21:19:56.399440 11790 net.cpp:137] Memory required for data: 119808
I0228 21:19:56.399443 11790 layer_factory.hpp:77] Creating layer lstm1_unit_1
I0228 21:19:56.399448 11790 net.cpp:84] Creating Layer lstm1_unit_1
I0228 21:19:56.399452 11790 net.cpp:406] lstm1_unit_1 <- c_0
I0228 21:19:56.399456 11790 net.cpp:406] lstm1_unit_1 <- gate_input_1
I0228 21:19:56.399461 11790 net.cpp:406] lstm1_unit_1 <- cont_1_lstm1_cont_slice_0_split_1
I0228 21:19:56.399466 11790 net.cpp:380] lstm1_unit_1 -> c_1
I0228 21:19:56.399471 11790 net.cpp:380] lstm1_unit_1 -> h_1
I0228 21:19:56.399508 11790 net.cpp:122] Setting up lstm1_unit_1
I0228 21:19:56.399518 11790 net.cpp:129] Top shape: 1 13 16 (208)
I0228 21:19:56.399523 11790 net.cpp:129] Top shape: 1 13 16 (208)
I0228 21:19:56.399525 11790 net.cpp:137] Memory required for data: 121472
I0228 21:19:56.399529 11790 layer_factory.hpp:77] Creating layer h_1_lstm1_unit_1_1_split
I0228 21:19:56.399533 11790 net.cpp:84] Creating Layer h_1_lstm1_unit_1_1_split
I0228 21:19:56.399538 11790 net.cpp:406] h_1_lstm1_unit_1_1_split <- h_1
I0228 21:19:56.399541 11790 net.cpp:380] h_1_lstm1_unit_1_1_split -> h_1_lstm1_unit_1_1_split_0
I0228 21:19:56.399547 11790 net.cpp:380] h_1_lstm1_unit_1_1_split -> h_1_lstm1_unit_1_1_split_1
I0228 21:19:56.399571 11790 net.cpp:122] Setting up h_1_lstm1_unit_1_1_split
I0228 21:19:56.399577 11790 net.cpp:129] Top shape: 1 13 16 (208)
I0228 21:19:56.399581 11790 net.cpp:129] Top shape: 1 13 16 (208)
I0228 21:19:56.399583 11790 net.cpp:137] Memory required for data: 123136
I0228 21:19:56.399586 11790 layer_factory.hpp:77] Creating layer lstm1_h_conted_1
I0228 21:19:56.399593 11790 net.cpp:84] Creating Layer lstm1_h_conted_1
I0228 21:19:56.399597 11790 net.cpp:406] lstm1_h_conted_1 <- h_1_lstm1_unit_1_1_split_0
I0228 21:19:56.399600 11790 net.cpp:406] lstm1_h_conted_1 <- cont_2_lstm1_cont_slice_1_split_0
I0228 21:19:56.399605 11790 net.cpp:380] lstm1_h_conted_1 -> h_conted_1
I0228 21:19:56.399638 11790 net.cpp:122] Setting up lstm1_h_conted_1
I0228 21:19:56.399643 11790 net.cpp:129] Top shape: 1 13 16 (208)
I0228 21:19:56.399646 11790 net.cpp:137] Memory required for data: 123968
I0228 21:19:56.399649 11790 layer_factory.hpp:77] Creating layer lstm1_transform_2
I0228 21:19:56.399655 11790 net.cpp:84] Creating Layer lstm1_transform_2
I0228 21:19:56.399669 11790 net.cpp:406] lstm1_transform_2 <- h_conted_1
I0228 21:19:56.399673 11790 net.cpp:380] lstm1_transform_2 -> W_hc_h_1
I0228 21:19:56.399708 11790 net.cpp:122] Setting up lstm1_transform_2
I0228 21:19:56.399713 11790 net.cpp:129] Top shape: 1 13 64 (832)
I0228 21:19:56.399714 11790 net.cpp:137] Memory required for data: 127296
I0228 21:19:56.399718 11790 net.cpp:465] Sharing parameters 'W_hc' owned by layer 'lstm1_transform_1', param index 0
I0228 21:19:56.399721 11790 layer_factory.hpp:77] Creating layer lstm1_gate_input_2
I0228 21:19:56.399726 11790 net.cpp:84] Creating Layer lstm1_gate_input_2
I0228 21:19:56.399729 11790 net.cpp:406] lstm1_gate_input_2 <- W_hc_h_1
I0228 21:19:56.399734 11790 net.cpp:406] lstm1_gate_input_2 <- W_xc_x_2
I0228 21:19:56.399739 11790 net.cpp:380] lstm1_gate_input_2 -> gate_input_2
I0228 21:19:56.399755 11790 net.cpp:122] Setting up lstm1_gate_input_2
I0228 21:19:56.399760 11790 net.cpp:129] Top shape: 1 13 64 (832)
I0228 21:19:56.399762 11790 net.cpp:137] Memory required for data: 130624
I0228 21:19:56.399765 11790 layer_factory.hpp:77] Creating layer lstm1_unit_2
I0228 21:19:56.399770 11790 net.cpp:84] Creating Layer lstm1_unit_2
I0228 21:19:56.399773 11790 net.cpp:406] lstm1_unit_2 <- c_1
I0228 21:19:56.399777 11790 net.cpp:406] lstm1_unit_2 <- gate_input_2
I0228 21:19:56.399780 11790 net.cpp:406] lstm1_unit_2 <- cont_2_lstm1_cont_slice_1_split_1
I0228 21:19:56.399785 11790 net.cpp:380] lstm1_unit_2 -> c_2
I0228 21:19:56.399791 11790 net.cpp:380] lstm1_unit_2 -> h_2
I0228 21:19:56.399816 11790 net.cpp:122] Setting up lstm1_unit_2
I0228 21:19:56.399821 11790 net.cpp:129] Top shape: 1 13 16 (208)
I0228 21:19:56.399824 11790 net.cpp:129] Top shape: 1 13 16 (208)
I0228 21:19:56.399827 11790 net.cpp:137] Memory required for data: 132288
I0228 21:19:56.399832 11790 layer_factory.hpp:77] Creating layer h_2_lstm1_unit_2_1_split
I0228 21:19:56.399834 11790 net.cpp:84] Creating Layer h_2_lstm1_unit_2_1_split
I0228 21:19:56.399837 11790 net.cpp:406] h_2_lstm1_unit_2_1_split <- h_2
I0228 21:19:56.399842 11790 net.cpp:380] h_2_lstm1_unit_2_1_split -> h_2_lstm1_unit_2_1_split_0
I0228 21:19:56.399847 11790 net.cpp:380] h_2_lstm1_unit_2_1_split -> h_2_lstm1_unit_2_1_split_1
I0228 21:19:56.399864 11790 net.cpp:122] Setting up h_2_lstm1_unit_2_1_split
I0228 21:19:56.399869 11790 net.cpp:129] Top shape: 1 13 16 (208)
I0228 21:19:56.399873 11790 net.cpp:129] Top shape: 1 13 16 (208)
I0228 21:19:56.399876 11790 net.cpp:137] Memory required for data: 133952
I0228 21:19:56.399879 11790 layer_factory.hpp:77] Creating layer lstm1_h_conted_2
I0228 21:19:56.399884 11790 net.cpp:84] Creating Layer lstm1_h_conted_2
I0228 21:19:56.399888 11790 net.cpp:406] lstm1_h_conted_2 <- h_2_lstm1_unit_2_1_split_0
I0228 21:19:56.399891 11790 net.cpp:406] lstm1_h_conted_2 <- cont_3_lstm1_cont_slice_2_split_0
I0228 21:19:56.399897 11790 net.cpp:380] lstm1_h_conted_2 -> h_conted_2
I0228 21:19:56.399929 11790 net.cpp:122] Setting up lstm1_h_conted_2
I0228 21:19:56.399935 11790 net.cpp:129] Top shape: 1 13 16 (208)
I0228 21:19:56.399937 11790 net.cpp:137] Memory required for data: 134784
I0228 21:19:56.399940 11790 layer_factory.hpp:77] Creating layer lstm1_transform_3
I0228 21:19:56.399950 11790 net.cpp:84] Creating Layer lstm1_transform_3
I0228 21:19:56.399953 11790 net.cpp:406] lstm1_transform_3 <- h_conted_2
I0228 21:19:56.399957 11790 net.cpp:380] lstm1_transform_3 -> W_hc_h_2
I0228 21:19:56.399989 11790 net.cpp:122] Setting up lstm1_transform_3
I0228 21:19:56.399996 11790 net.cpp:129] Top shape: 1 13 64 (832)
I0228 21:19:56.399998 11790 net.cpp:137] Memory required for data: 138112
I0228 21:19:56.400003 11790 net.cpp:465] Sharing parameters 'W_hc' owned by layer 'lstm1_transform_1', param index 0
I0228 21:19:56.400007 11790 layer_factory.hpp:77] Creating layer lstm1_gate_input_3
I0228 21:19:56.400012 11790 net.cpp:84] Creating Layer lstm1_gate_input_3
I0228 21:19:56.400015 11790 net.cpp:406] lstm1_gate_input_3 <- W_hc_h_2
I0228 21:19:56.400018 11790 net.cpp:406] lstm1_gate_input_3 <- W_xc_x_3
I0228 21:19:56.400029 11790 net.cpp:380] lstm1_gate_input_3 -> gate_input_3
I0228 21:19:56.400044 11790 net.cpp:122] Setting up lstm1_gate_input_3
I0228 21:19:56.400049 11790 net.cpp:129] Top shape: 1 13 64 (832)
I0228 21:19:56.400053 11790 net.cpp:137] Memory required for data: 141440
I0228 21:19:56.400055 11790 layer_factory.hpp:77] Creating layer lstm1_unit_3
I0228 21:19:56.400060 11790 net.cpp:84] Creating Layer lstm1_unit_3
I0228 21:19:56.400064 11790 net.cpp:406] lstm1_unit_3 <- c_2
I0228 21:19:56.400068 11790 net.cpp:406] lstm1_unit_3 <- gate_input_3
I0228 21:19:56.400071 11790 net.cpp:406] lstm1_unit_3 <- cont_3_lstm1_cont_slice_2_split_1
I0228 21:19:56.400075 11790 net.cpp:380] lstm1_unit_3 -> c_3
I0228 21:19:56.400081 11790 net.cpp:380] lstm1_unit_3 -> h_3
I0228 21:19:56.400105 11790 net.cpp:122] Setting up lstm1_unit_3
I0228 21:19:56.400111 11790 net.cpp:129] Top shape: 1 13 16 (208)
I0228 21:19:56.400115 11790 net.cpp:129] Top shape: 1 13 16 (208)
I0228 21:19:56.400117 11790 net.cpp:137] Memory required for data: 143104
I0228 21:19:56.400120 11790 layer_factory.hpp:77] Creating layer h_3_lstm1_unit_3_1_split
I0228 21:19:56.400125 11790 net.cpp:84] Creating Layer h_3_lstm1_unit_3_1_split
I0228 21:19:56.400128 11790 net.cpp:406] h_3_lstm1_unit_3_1_split <- h_3
I0228 21:19:56.400132 11790 net.cpp:380] h_3_lstm1_unit_3_1_split -> h_3_lstm1_unit_3_1_split_0
I0228 21:19:56.400137 11790 net.cpp:380] h_3_lstm1_unit_3_1_split -> h_3_lstm1_unit_3_1_split_1
I0228 21:19:56.400154 11790 net.cpp:122] Setting up h_3_lstm1_unit_3_1_split
I0228 21:19:56.400159 11790 net.cpp:129] Top shape: 1 13 16 (208)
I0228 21:19:56.400163 11790 net.cpp:129] Top shape: 1 13 16 (208)
I0228 21:19:56.400166 11790 net.cpp:137] Memory required for data: 144768
I0228 21:19:56.400169 11790 layer_factory.hpp:77] Creating layer lstm1_h_conted_3
I0228 21:19:56.400173 11790 net.cpp:84] Creating Layer lstm1_h_conted_3
I0228 21:19:56.400177 11790 net.cpp:406] lstm1_h_conted_3 <- h_3_lstm1_unit_3_1_split_0
I0228 21:19:56.400180 11790 net.cpp:406] lstm1_h_conted_3 <- cont_4_lstm1_cont_slice_3_split_0
I0228 21:19:56.400185 11790 net.cpp:380] lstm1_h_conted_3 -> h_conted_3
I0228 21:19:56.400215 11790 net.cpp:122] Setting up lstm1_h_conted_3
I0228 21:19:56.400220 11790 net.cpp:129] Top shape: 1 13 16 (208)
I0228 21:19:56.400223 11790 net.cpp:137] Memory required for data: 145600
I0228 21:19:56.400225 11790 layer_factory.hpp:77] Creating layer lstm1_transform_4
I0228 21:19:56.400230 11790 net.cpp:84] Creating Layer lstm1_transform_4
I0228 21:19:56.400233 11790 net.cpp:406] lstm1_transform_4 <- h_conted_3
I0228 21:19:56.400238 11790 net.cpp:380] lstm1_transform_4 -> W_hc_h_3
I0228 21:19:56.400295 11790 net.cpp:122] Setting up lstm1_transform_4
I0228 21:19:56.400298 11790 net.cpp:129] Top shape: 1 13 64 (832)
I0228 21:19:56.400301 11790 net.cpp:137] Memory required for data: 148928
I0228 21:19:56.400303 11790 net.cpp:465] Sharing parameters 'W_hc' owned by layer 'lstm1_transform_1', param index 0
I0228 21:19:56.400306 11790 layer_factory.hpp:77] Creating layer lstm1_gate_input_4
I0228 21:19:56.400310 11790 net.cpp:84] Creating Layer lstm1_gate_input_4
I0228 21:19:56.400327 11790 net.cpp:406] lstm1_gate_input_4 <- W_hc_h_3
I0228 21:19:56.400331 11790 net.cpp:406] lstm1_gate_input_4 <- W_xc_x_4
I0228 21:19:56.400334 11790 net.cpp:380] lstm1_gate_input_4 -> gate_input_4
I0228 21:19:56.400347 11790 net.cpp:122] Setting up lstm1_gate_input_4
I0228 21:19:56.400367 11790 net.cpp:129] Top shape: 1 13 64 (832)
I0228 21:19:56.400368 11790 net.cpp:137] Memory required for data: 152256
I0228 21:19:56.400372 11790 layer_factory.hpp:77] Creating layer lstm1_unit_4
I0228 21:19:56.400374 11790 net.cpp:84] Creating Layer lstm1_unit_4
I0228 21:19:56.400377 11790 net.cpp:406] lstm1_unit_4 <- c_3
I0228 21:19:56.400380 11790 net.cpp:406] lstm1_unit_4 <- gate_input_4
I0228 21:19:56.400383 11790 net.cpp:406] lstm1_unit_4 <- cont_4_lstm1_cont_slice_3_split_1
I0228 21:19:56.400388 11790 net.cpp:380] lstm1_unit_4 -> c_4
I0228 21:19:56.400393 11790 net.cpp:380] lstm1_unit_4 -> h_4
I0228 21:19:56.400426 11790 net.cpp:122] Setting up lstm1_unit_4
I0228 21:19:56.400432 11790 net.cpp:129] Top shape: 1 13 16 (208)
I0228 21:19:56.400435 11790 net.cpp:129] Top shape: 1 13 16 (208)
I0228 21:19:56.400439 11790 net.cpp:137] Memory required for data: 153920
I0228 21:19:56.400440 11790 layer_factory.hpp:77] Creating layer h_4_lstm1_unit_4_1_split
I0228 21:19:56.400446 11790 net.cpp:84] Creating Layer h_4_lstm1_unit_4_1_split
I0228 21:19:56.400449 11790 net.cpp:406] h_4_lstm1_unit_4_1_split <- h_4
I0228 21:19:56.428892 11790 net.cpp:380] h_4_lstm1_unit_4_1_split -> h_4_lstm1_unit_4_1_split_0
I0228 21:19:56.428910 11790 net.cpp:380] h_4_lstm1_unit_4_1_split -> h_4_lstm1_unit_4_1_split_1
I0228 21:19:56.428962 11790 net.cpp:122] Setting up h_4_lstm1_unit_4_1_split
I0228 21:19:56.428973 11790 net.cpp:129] Top shape: 1 13 16 (208)
I0228 21:19:56.428978 11790 net.cpp:129] Top shape: 1 13 16 (208)
I0228 21:19:56.428982 11790 net.cpp:137] Memory required for data: 155584
I0228 21:19:56.428984 11790 layer_factory.hpp:77] Creating layer lstm1_h_conted_4
I0228 21:19:56.428992 11790 net.cpp:84] Creating Layer lstm1_h_conted_4
I0228 21:19:56.428995 11790 net.cpp:406] lstm1_h_conted_4 <- h_4_lstm1_unit_4_1_split_0
I0228 21:19:56.429000 11790 net.cpp:406] lstm1_h_conted_4 <- cont_5_lstm1_cont_slice_4_split_0
I0228 21:19:56.429005 11790 net.cpp:380] lstm1_h_conted_4 -> h_conted_4
I0228 21:19:56.429045 11790 net.cpp:122] Setting up lstm1_h_conted_4
I0228 21:19:56.429050 11790 net.cpp:129] Top shape: 1 13 16 (208)
I0228 21:19:56.429054 11790 net.cpp:137] Memory required for data: 156416
I0228 21:19:56.429056 11790 layer_factory.hpp:77] Creating layer lstm1_transform_5
I0228 21:19:56.429064 11790 net.cpp:84] Creating Layer lstm1_transform_5
I0228 21:19:56.429066 11790 net.cpp:406] lstm1_transform_5 <- h_conted_4
I0228 21:19:56.429072 11790 net.cpp:380] lstm1_transform_5 -> W_hc_h_4
I0228 21:19:56.429121 11790 net.cpp:122] Setting up lstm1_transform_5
I0228 21:19:56.429126 11790 net.cpp:129] Top shape: 1 13 64 (832)
I0228 21:19:56.429131 11790 net.cpp:137] Memory required for data: 159744
I0228 21:19:56.429134 11790 net.cpp:465] Sharing parameters 'W_hc' owned by layer 'lstm1_transform_1', param index 0
I0228 21:19:56.429137 11790 layer_factory.hpp:77] Creating layer lstm1_gate_input_5
I0228 21:19:56.429143 11790 net.cpp:84] Creating Layer lstm1_gate_input_5
I0228 21:19:56.429147 11790 net.cpp:406] lstm1_gate_input_5 <- W_hc_h_4
I0228 21:19:56.429152 11790 net.cpp:406] lstm1_gate_input_5 <- W_xc_x_5
I0228 21:19:56.429157 11790 net.cpp:380] lstm1_gate_input_5 -> gate_input_5
I0228 21:19:56.429173 11790 net.cpp:122] Setting up lstm1_gate_input_5
I0228 21:19:56.429178 11790 net.cpp:129] Top shape: 1 13 64 (832)
I0228 21:19:56.429181 11790 net.cpp:137] Memory required for data: 163072
I0228 21:19:56.429184 11790 layer_factory.hpp:77] Creating layer lstm1_unit_5
I0228 21:19:56.429189 11790 net.cpp:84] Creating Layer lstm1_unit_5
I0228 21:19:56.429194 11790 net.cpp:406] lstm1_unit_5 <- c_4
I0228 21:19:56.429198 11790 net.cpp:406] lstm1_unit_5 <- gate_input_5
I0228 21:19:56.429203 11790 net.cpp:406] lstm1_unit_5 <- cont_5_lstm1_cont_slice_4_split_1
I0228 21:19:56.429206 11790 net.cpp:380] lstm1_unit_5 -> c_5
I0228 21:19:56.429211 11790 net.cpp:380] lstm1_unit_5 -> h_5
I0228 21:19:56.429235 11790 net.cpp:122] Setting up lstm1_unit_5
I0228 21:19:56.429240 11790 net.cpp:129] Top shape: 1 13 16 (208)
I0228 21:19:56.429244 11790 net.cpp:129] Top shape: 1 13 16 (208)
I0228 21:19:56.429247 11790 net.cpp:137] Memory required for data: 164736
I0228 21:19:56.429250 11790 layer_factory.hpp:77] Creating layer h_5_lstm1_unit_5_1_split
I0228 21:19:56.429256 11790 net.cpp:84] Creating Layer h_5_lstm1_unit_5_1_split
I0228 21:19:56.429261 11790 net.cpp:406] h_5_lstm1_unit_5_1_split <- h_5
I0228 21:19:56.429270 11790 net.cpp:380] h_5_lstm1_unit_5_1_split -> h_5_lstm1_unit_5_1_split_0
I0228 21:19:56.429275 11790 net.cpp:380] h_5_lstm1_unit_5_1_split -> h_5_lstm1_unit_5_1_split_1
I0228 21:19:56.429303 11790 net.cpp:122] Setting up h_5_lstm1_unit_5_1_split
I0228 21:19:56.429324 11790 net.cpp:129] Top shape: 1 13 16 (208)
I0228 21:19:56.429332 11790 net.cpp:129] Top shape: 1 13 16 (208)
I0228 21:19:56.429337 11790 net.cpp:137] Memory required for data: 166400
I0228 21:19:56.429343 11790 layer_factory.hpp:77] Creating layer lstm1_h_conted_5
I0228 21:19:56.429350 11790 net.cpp:84] Creating Layer lstm1_h_conted_5
I0228 21:19:56.429368 11790 net.cpp:406] lstm1_h_conted_5 <- h_5_lstm1_unit_5_1_split_0
I0228 21:19:56.429373 11790 net.cpp:406] lstm1_h_conted_5 <- cont_6_lstm1_cont_slice_5_split_0
I0228 21:19:56.429379 11790 net.cpp:380] lstm1_h_conted_5 -> h_conted_5
I0228 21:19:56.429417 11790 net.cpp:122] Setting up lstm1_h_conted_5
I0228 21:19:56.429425 11790 net.cpp:129] Top shape: 1 13 16 (208)
I0228 21:19:56.429427 11790 net.cpp:137] Memory required for data: 167232
I0228 21:19:56.429430 11790 layer_factory.hpp:77] Creating layer lstm1_transform_6
I0228 21:19:56.429435 11790 net.cpp:84] Creating Layer lstm1_transform_6
I0228 21:19:56.429440 11790 net.cpp:406] lstm1_transform_6 <- h_conted_5
I0228 21:19:56.429443 11790 net.cpp:380] lstm1_transform_6 -> W_hc_h_5
I0228 21:19:56.429476 11790 net.cpp:122] Setting up lstm1_transform_6
I0228 21:19:56.429481 11790 net.cpp:129] Top shape: 1 13 64 (832)
I0228 21:19:56.429483 11790 net.cpp:137] Memory required for data: 170560
I0228 21:19:56.429487 11790 net.cpp:465] Sharing parameters 'W_hc' owned by layer 'lstm1_transform_1', param index 0
I0228 21:19:56.429491 11790 layer_factory.hpp:77] Creating layer lstm1_gate_input_6
I0228 21:19:56.429497 11790 net.cpp:84] Creating Layer lstm1_gate_input_6
I0228 21:19:56.429499 11790 net.cpp:406] lstm1_gate_input_6 <- W_hc_h_5
I0228 21:19:56.429503 11790 net.cpp:406] lstm1_gate_input_6 <- W_xc_x_6
I0228 21:19:56.429508 11790 net.cpp:380] lstm1_gate_input_6 -> gate_input_6
I0228 21:19:56.429522 11790 net.cpp:122] Setting up lstm1_gate_input_6
I0228 21:19:56.429527 11790 net.cpp:129] Top shape: 1 13 64 (832)
I0228 21:19:56.429530 11790 net.cpp:137] Memory required for data: 173888
I0228 21:19:56.429533 11790 layer_factory.hpp:77] Creating layer lstm1_unit_6
I0228 21:19:56.429538 11790 net.cpp:84] Creating Layer lstm1_unit_6
I0228 21:19:56.429540 11790 net.cpp:406] lstm1_unit_6 <- c_5
I0228 21:19:56.429546 11790 net.cpp:406] lstm1_unit_6 <- gate_input_6
I0228 21:19:56.429550 11790 net.cpp:406] lstm1_unit_6 <- cont_6_lstm1_cont_slice_5_split_1
I0228 21:19:56.429554 11790 net.cpp:380] lstm1_unit_6 -> c_6
I0228 21:19:56.429559 11790 net.cpp:380] lstm1_unit_6 -> h_6
I0228 21:19:56.429584 11790 net.cpp:122] Setting up lstm1_unit_6
I0228 21:19:56.429589 11790 net.cpp:129] Top shape: 1 13 16 (208)
I0228 21:19:56.429591 11790 net.cpp:129] Top shape: 1 13 16 (208)
I0228 21:19:56.429594 11790 net.cpp:137] Memory required for data: 175552
I0228 21:19:56.429597 11790 layer_factory.hpp:77] Creating layer h_6_lstm1_unit_6_1_split
I0228 21:19:56.429601 11790 net.cpp:84] Creating Layer h_6_lstm1_unit_6_1_split
I0228 21:19:56.429605 11790 net.cpp:406] h_6_lstm1_unit_6_1_split <- h_6
I0228 21:19:56.429610 11790 net.cpp:380] h_6_lstm1_unit_6_1_split -> h_6_lstm1_unit_6_1_split_0
I0228 21:19:56.429615 11790 net.cpp:380] h_6_lstm1_unit_6_1_split -> h_6_lstm1_unit_6_1_split_1
I0228 21:19:56.429631 11790 net.cpp:122] Setting up h_6_lstm1_unit_6_1_split
I0228 21:19:56.429636 11790 net.cpp:129] Top shape: 1 13 16 (208)
I0228 21:19:56.429641 11790 net.cpp:129] Top shape: 1 13 16 (208)
I0228 21:19:56.429643 11790 net.cpp:137] Memory required for data: 177216
I0228 21:19:56.429646 11790 layer_factory.hpp:77] Creating layer lstm1_h_conted_6
I0228 21:19:56.429651 11790 net.cpp:84] Creating Layer lstm1_h_conted_6
I0228 21:19:56.429671 11790 net.cpp:406] lstm1_h_conted_6 <- h_6_lstm1_unit_6_1_split_0
I0228 21:19:56.429674 11790 net.cpp:406] lstm1_h_conted_6 <- cont_7_lstm1_cont_slice_6_split_0
I0228 21:19:56.429679 11790 net.cpp:380] lstm1_h_conted_6 -> h_conted_6
I0228 21:19:56.429710 11790 net.cpp:122] Setting up lstm1_h_conted_6
I0228 21:19:56.429716 11790 net.cpp:129] Top shape: 1 13 16 (208)
I0228 21:19:56.429725 11790 net.cpp:137] Memory required for data: 178048
I0228 21:19:56.429728 11790 layer_factory.hpp:77] Creating layer lstm1_transform_7
I0228 21:19:56.429734 11790 net.cpp:84] Creating Layer lstm1_transform_7
I0228 21:19:56.429738 11790 net.cpp:406] lstm1_transform_7 <- h_conted_6
I0228 21:19:56.429744 11790 net.cpp:380] lstm1_transform_7 -> W_hc_h_6
I0228 21:19:56.429777 11790 net.cpp:122] Setting up lstm1_transform_7
I0228 21:19:56.429783 11790 net.cpp:129] Top shape: 1 13 64 (832)
I0228 21:19:56.429786 11790 net.cpp:137] Memory required for data: 181376
I0228 21:19:56.429795 11790 net.cpp:465] Sharing parameters 'W_hc' owned by layer 'lstm1_transform_1', param index 0
I0228 21:19:56.429798 11790 layer_factory.hpp:77] Creating layer lstm1_gate_input_7
I0228 21:19:56.429802 11790 net.cpp:84] Creating Layer lstm1_gate_input_7
I0228 21:19:56.432132 11790 net.cpp:406] lstm1_gate_input_7 <- W_hc_h_6
I0228 21:19:56.432144 11790 net.cpp:406] lstm1_gate_input_7 <- W_xc_x_7
I0228 21:19:56.432152 11790 net.cpp:380] lstm1_gate_input_7 -> gate_input_7
I0228 21:19:56.432183 11790 net.cpp:122] Setting up lstm1_gate_input_7
I0228 21:19:56.432189 11790 net.cpp:129] Top shape: 1 13 64 (832)
I0228 21:19:56.432193 11790 net.cpp:137] Memory required for data: 184704
I0228 21:19:56.432196 11790 layer_factory.hpp:77] Creating layer lstm1_unit_7
I0228 21:19:56.432201 11790 net.cpp:84] Creating Layer lstm1_unit_7
I0228 21:19:56.432205 11790 net.cpp:406] lstm1_unit_7 <- c_6
I0228 21:19:56.432209 11790 net.cpp:406] lstm1_unit_7 <- gate_input_7
I0228 21:19:56.432214 11790 net.cpp:406] lstm1_unit_7 <- cont_7_lstm1_cont_slice_6_split_1
I0228 21:19:56.432219 11790 net.cpp:380] lstm1_unit_7 -> c_7
I0228 21:19:56.432224 11790 net.cpp:380] lstm1_unit_7 -> h_7
I0228 21:19:56.432262 11790 net.cpp:122] Setting up lstm1_unit_7
I0228 21:19:56.432271 11790 net.cpp:129] Top shape: 1 13 16 (208)
I0228 21:19:56.432278 11790 net.cpp:129] Top shape: 1 13 16 (208)
I0228 21:19:56.432283 11790 net.cpp:137] Memory required for data: 186368
I0228 21:19:56.432289 11790 layer_factory.hpp:77] Creating layer h_7_lstm1_unit_7_1_split
I0228 21:19:56.432296 11790 net.cpp:84] Creating Layer h_7_lstm1_unit_7_1_split
I0228 21:19:56.432301 11790 net.cpp:406] h_7_lstm1_unit_7_1_split <- h_7
I0228 21:19:56.432304 11790 net.cpp:380] h_7_lstm1_unit_7_1_split -> h_7_lstm1_unit_7_1_split_0
I0228 21:19:56.432310 11790 net.cpp:380] h_7_lstm1_unit_7_1_split -> h_7_lstm1_unit_7_1_split_1
I0228 21:19:56.432340 11790 net.cpp:122] Setting up h_7_lstm1_unit_7_1_split
I0228 21:19:56.432349 11790 net.cpp:129] Top shape: 1 13 16 (208)
I0228 21:19:56.432355 11790 net.cpp:129] Top shape: 1 13 16 (208)
I0228 21:19:56.432359 11790 net.cpp:137] Memory required for data: 188032
I0228 21:19:56.432363 11790 layer_factory.hpp:77] Creating layer lstm1_h_conted_7
I0228 21:19:56.432368 11790 net.cpp:84] Creating Layer lstm1_h_conted_7
I0228 21:19:56.432371 11790 net.cpp:406] lstm1_h_conted_7 <- h_7_lstm1_unit_7_1_split_0
I0228 21:19:56.432375 11790 net.cpp:406] lstm1_h_conted_7 <- cont_8_lstm1_cont_slice_7_split_0
I0228 21:19:56.432381 11790 net.cpp:380] lstm1_h_conted_7 -> h_conted_7
I0228 21:19:56.432420 11790 net.cpp:122] Setting up lstm1_h_conted_7
I0228 21:19:56.432425 11790 net.cpp:129] Top shape: 1 13 16 (208)
I0228 21:19:56.432430 11790 net.cpp:137] Memory required for data: 188864
I0228 21:19:56.432432 11790 layer_factory.hpp:77] Creating layer lstm1_transform_8
I0228 21:19:56.432440 11790 net.cpp:84] Creating Layer lstm1_transform_8
I0228 21:19:56.432445 11790 net.cpp:406] lstm1_transform_8 <- h_conted_7
I0228 21:19:56.432449 11790 net.cpp:380] lstm1_transform_8 -> W_hc_h_7
I0228 21:19:56.432489 11790 net.cpp:122] Setting up lstm1_transform_8
I0228 21:19:56.432497 11790 net.cpp:129] Top shape: 1 13 64 (832)
I0228 21:19:56.432500 11790 net.cpp:137] Memory required for data: 192192
I0228 21:19:56.432505 11790 net.cpp:465] Sharing parameters 'W_hc' owned by layer 'lstm1_transform_1', param index 0
I0228 21:19:56.432510 11790 layer_factory.hpp:77] Creating layer lstm1_gate_input_8
I0228 21:19:56.432528 11790 net.cpp:84] Creating Layer lstm1_gate_input_8
I0228 21:19:56.432533 11790 net.cpp:406] lstm1_gate_input_8 <- W_hc_h_7
I0228 21:19:56.432538 11790 net.cpp:406] lstm1_gate_input_8 <- W_xc_x_8
I0228 21:19:56.432543 11790 net.cpp:380] lstm1_gate_input_8 -> gate_input_8
I0228 21:19:56.432562 11790 net.cpp:122] Setting up lstm1_gate_input_8
I0228 21:19:56.432569 11790 net.cpp:129] Top shape: 1 13 64 (832)
I0228 21:19:56.432574 11790 net.cpp:137] Memory required for data: 195520
I0228 21:19:56.432576 11790 layer_factory.hpp:77] Creating layer lstm1_unit_8
I0228 21:19:56.432582 11790 net.cpp:84] Creating Layer lstm1_unit_8
I0228 21:19:56.432586 11790 net.cpp:406] lstm1_unit_8 <- c_7
I0228 21:19:56.432591 11790 net.cpp:406] lstm1_unit_8 <- gate_input_8
I0228 21:19:56.432596 11790 net.cpp:406] lstm1_unit_8 <- cont_8_lstm1_cont_slice_7_split_1
I0228 21:19:56.432602 11790 net.cpp:380] lstm1_unit_8 -> c_8
I0228 21:19:56.432608 11790 net.cpp:380] lstm1_unit_8 -> h_8
I0228 21:19:56.432638 11790 net.cpp:122] Setting up lstm1_unit_8
I0228 21:19:56.432646 11790 net.cpp:129] Top shape: 1 13 16 (208)
I0228 21:19:56.432651 11790 net.cpp:129] Top shape: 1 13 16 (208)
I0228 21:19:56.432654 11790 net.cpp:137] Memory required for data: 197184
I0228 21:19:56.432658 11790 layer_factory.hpp:77] Creating layer h_8_lstm1_unit_8_1_split
I0228 21:19:56.432663 11790 net.cpp:84] Creating Layer h_8_lstm1_unit_8_1_split
I0228 21:19:56.432667 11790 net.cpp:406] h_8_lstm1_unit_8_1_split <- h_8
I0228 21:19:56.432673 11790 net.cpp:380] h_8_lstm1_unit_8_1_split -> h_8_lstm1_unit_8_1_split_0
I0228 21:19:56.432679 11790 net.cpp:380] h_8_lstm1_unit_8_1_split -> h_8_lstm1_unit_8_1_split_1
I0228 21:19:56.432700 11790 net.cpp:122] Setting up h_8_lstm1_unit_8_1_split
I0228 21:19:56.432706 11790 net.cpp:129] Top shape: 1 13 16 (208)
I0228 21:19:56.432711 11790 net.cpp:129] Top shape: 1 13 16 (208)
I0228 21:19:56.432715 11790 net.cpp:137] Memory required for data: 198848
I0228 21:19:56.432720 11790 layer_factory.hpp:77] Creating layer lstm1_h_conted_8
I0228 21:19:56.432725 11790 net.cpp:84] Creating Layer lstm1_h_conted_8
I0228 21:19:56.432729 11790 net.cpp:406] lstm1_h_conted_8 <- h_8_lstm1_unit_8_1_split_0
I0228 21:19:56.432734 11790 net.cpp:406] lstm1_h_conted_8 <- cont_9_lstm1_cont_slice_8_split_0
I0228 21:19:56.432740 11790 net.cpp:380] lstm1_h_conted_8 -> h_conted_8
I0228 21:19:56.432775 11790 net.cpp:122] Setting up lstm1_h_conted_8
I0228 21:19:56.432781 11790 net.cpp:129] Top shape: 1 13 16 (208)
I0228 21:19:56.432785 11790 net.cpp:137] Memory required for data: 199680
I0228 21:19:56.432787 11790 layer_factory.hpp:77] Creating layer lstm1_transform_9
I0228 21:19:56.432792 11790 net.cpp:84] Creating Layer lstm1_transform_9
I0228 21:19:56.432796 11790 net.cpp:406] lstm1_transform_9 <- h_conted_8
I0228 21:19:56.432801 11790 net.cpp:380] lstm1_transform_9 -> W_hc_h_8
I0228 21:19:56.432832 11790 net.cpp:122] Setting up lstm1_transform_9
I0228 21:19:56.432837 11790 net.cpp:129] Top shape: 1 13 64 (832)
I0228 21:19:56.432842 11790 net.cpp:137] Memory required for data: 203008
I0228 21:19:56.432844 11790 net.cpp:465] Sharing parameters 'W_hc' owned by layer 'lstm1_transform_1', param index 0
I0228 21:19:56.432847 11790 layer_factory.hpp:77] Creating layer lstm1_gate_input_9
I0228 21:19:56.432852 11790 net.cpp:84] Creating Layer lstm1_gate_input_9
I0228 21:19:56.432855 11790 net.cpp:406] lstm1_gate_input_9 <- W_hc_h_8
I0228 21:19:56.432859 11790 net.cpp:406] lstm1_gate_input_9 <- W_xc_x_9
I0228 21:19:56.432863 11790 net.cpp:380] lstm1_gate_input_9 -> gate_input_9
I0228 21:19:56.432878 11790 net.cpp:122] Setting up lstm1_gate_input_9
I0228 21:19:56.432883 11790 net.cpp:129] Top shape: 1 13 64 (832)
I0228 21:19:56.432885 11790 net.cpp:137] Memory required for data: 206336
I0228 21:19:56.432888 11790 layer_factory.hpp:77] Creating layer lstm1_unit_9
I0228 21:19:56.432899 11790 net.cpp:84] Creating Layer lstm1_unit_9
I0228 21:19:56.432904 11790 net.cpp:406] lstm1_unit_9 <- c_8
I0228 21:19:56.432907 11790 net.cpp:406] lstm1_unit_9 <- gate_input_9
I0228 21:19:56.432917 11790 net.cpp:406] lstm1_unit_9 <- cont_9_lstm1_cont_slice_8_split_1
I0228 21:19:56.432921 11790 net.cpp:380] lstm1_unit_9 -> c_9
I0228 21:19:56.432934 11790 net.cpp:380] lstm1_unit_9 -> h_9
I0228 21:19:56.432960 11790 net.cpp:122] Setting up lstm1_unit_9
I0228 21:19:56.432967 11790 net.cpp:129] Top shape: 1 13 16 (208)
I0228 21:19:56.432971 11790 net.cpp:129] Top shape: 1 13 16 (208)
I0228 21:19:56.432974 11790 net.cpp:137] Memory required for data: 208000
I0228 21:19:56.432977 11790 layer_factory.hpp:77] Creating layer h_9_lstm1_unit_9_1_split
I0228 21:19:56.432981 11790 net.cpp:84] Creating Layer h_9_lstm1_unit_9_1_split
I0228 21:19:56.432986 11790 net.cpp:406] h_9_lstm1_unit_9_1_split <- h_9
I0228 21:19:56.459303 11790 net.cpp:380] h_9_lstm1_unit_9_1_split -> h_9_lstm1_unit_9_1_split_0
I0228 21:19:56.459321 11790 net.cpp:380] h_9_lstm1_unit_9_1_split -> h_9_lstm1_unit_9_1_split_1
I0228 21:19:56.459410 11790 net.cpp:122] Setting up h_9_lstm1_unit_9_1_split
I0228 21:19:56.459435 11790 net.cpp:129] Top shape: 1 13 16 (208)
I0228 21:19:56.459439 11790 net.cpp:129] Top shape: 1 13 16 (208)
I0228 21:19:56.459442 11790 net.cpp:137] Memory required for data: 209664
I0228 21:19:56.459446 11790 layer_factory.hpp:77] Creating layer lstm1_h_conted_9
I0228 21:19:56.459452 11790 net.cpp:84] Creating Layer lstm1_h_conted_9
I0228 21:19:56.459456 11790 net.cpp:406] lstm1_h_conted_9 <- h_9_lstm1_unit_9_1_split_0
I0228 21:19:56.459475 11790 net.cpp:406] lstm1_h_conted_9 <- cont_10_lstm1_cont_slice_9_split_0
I0228 21:19:56.459481 11790 net.cpp:380] lstm1_h_conted_9 -> h_conted_9
I0228 21:19:56.459519 11790 net.cpp:122] Setting up lstm1_h_conted_9
I0228 21:19:56.459524 11790 net.cpp:129] Top shape: 1 13 16 (208)
I0228 21:19:56.459527 11790 net.cpp:137] Memory required for data: 210496
I0228 21:19:56.459530 11790 layer_factory.hpp:77] Creating layer lstm1_transform_10
I0228 21:19:56.459537 11790 net.cpp:84] Creating Layer lstm1_transform_10
I0228 21:19:56.459539 11790 net.cpp:406] lstm1_transform_10 <- h_conted_9
I0228 21:19:56.459552 11790 net.cpp:380] lstm1_transform_10 -> W_hc_h_9
I0228 21:19:56.459592 11790 net.cpp:122] Setting up lstm1_transform_10
I0228 21:19:56.459599 11790 net.cpp:129] Top shape: 1 13 64 (832)
I0228 21:19:56.459601 11790 net.cpp:137] Memory required for data: 213824
I0228 21:19:56.459605 11790 net.cpp:465] Sharing parameters 'W_hc' owned by layer 'lstm1_transform_1', param index 0
I0228 21:19:56.459609 11790 layer_factory.hpp:77] Creating layer lstm1_gate_input_10
I0228 21:19:56.459614 11790 net.cpp:84] Creating Layer lstm1_gate_input_10
I0228 21:19:56.459619 11790 net.cpp:406] lstm1_gate_input_10 <- W_hc_h_9
I0228 21:19:56.459622 11790 net.cpp:406] lstm1_gate_input_10 <- W_xc_x_10
I0228 21:19:56.459627 11790 net.cpp:380] lstm1_gate_input_10 -> gate_input_10
I0228 21:19:56.459645 11790 net.cpp:122] Setting up lstm1_gate_input_10
I0228 21:19:56.459650 11790 net.cpp:129] Top shape: 1 13 64 (832)
I0228 21:19:56.459653 11790 net.cpp:137] Memory required for data: 217152
I0228 21:19:56.459656 11790 layer_factory.hpp:77] Creating layer lstm1_unit_10
I0228 21:19:56.459661 11790 net.cpp:84] Creating Layer lstm1_unit_10
I0228 21:19:56.459666 11790 net.cpp:406] lstm1_unit_10 <- c_9
I0228 21:19:56.459686 11790 net.cpp:406] lstm1_unit_10 <- gate_input_10
I0228 21:19:56.459689 11790 net.cpp:406] lstm1_unit_10 <- cont_10_lstm1_cont_slice_9_split_1
I0228 21:19:56.459693 11790 net.cpp:380] lstm1_unit_10 -> c_10
I0228 21:19:56.459698 11790 net.cpp:380] lstm1_unit_10 -> h_10
I0228 21:19:56.459736 11790 net.cpp:122] Setting up lstm1_unit_10
I0228 21:19:56.459741 11790 net.cpp:129] Top shape: 1 13 16 (208)
I0228 21:19:56.459745 11790 net.cpp:129] Top shape: 1 13 16 (208)
I0228 21:19:56.459748 11790 net.cpp:137] Memory required for data: 218816
I0228 21:19:56.459751 11790 layer_factory.hpp:77] Creating layer h_10_lstm1_unit_10_1_split
I0228 21:19:56.459756 11790 net.cpp:84] Creating Layer h_10_lstm1_unit_10_1_split
I0228 21:19:56.459759 11790 net.cpp:406] h_10_lstm1_unit_10_1_split <- h_10
I0228 21:19:56.459764 11790 net.cpp:380] h_10_lstm1_unit_10_1_split -> h_10_lstm1_unit_10_1_split_0
I0228 21:19:56.459776 11790 net.cpp:380] h_10_lstm1_unit_10_1_split -> h_10_lstm1_unit_10_1_split_1
I0228 21:19:56.459795 11790 net.cpp:122] Setting up h_10_lstm1_unit_10_1_split
I0228 21:19:56.459800 11790 net.cpp:129] Top shape: 1 13 16 (208)
I0228 21:19:56.459805 11790 net.cpp:129] Top shape: 1 13 16 (208)
I0228 21:19:56.459807 11790 net.cpp:137] Memory required for data: 220480
I0228 21:19:56.459810 11790 layer_factory.hpp:77] Creating layer lstm1_h_conted_10
I0228 21:19:56.459815 11790 net.cpp:84] Creating Layer lstm1_h_conted_10
I0228 21:19:56.459818 11790 net.cpp:406] lstm1_h_conted_10 <- h_10_lstm1_unit_10_1_split_0
I0228 21:19:56.459823 11790 net.cpp:406] lstm1_h_conted_10 <- cont_11_lstm1_cont_slice_10_split_0
I0228 21:19:56.459827 11790 net.cpp:380] lstm1_h_conted_10 -> h_conted_10
I0228 21:19:56.459857 11790 net.cpp:122] Setting up lstm1_h_conted_10
I0228 21:19:56.459862 11790 net.cpp:129] Top shape: 1 13 16 (208)
I0228 21:19:56.459866 11790 net.cpp:137] Memory required for data: 221312
I0228 21:19:56.459868 11790 layer_factory.hpp:77] Creating layer lstm1_transform_11
I0228 21:19:56.459872 11790 net.cpp:84] Creating Layer lstm1_transform_11
I0228 21:19:56.459877 11790 net.cpp:406] lstm1_transform_11 <- h_conted_10
I0228 21:19:56.459880 11790 net.cpp:380] lstm1_transform_11 -> W_hc_h_10
I0228 21:19:56.459930 11790 net.cpp:122] Setting up lstm1_transform_11
I0228 21:19:56.459938 11790 net.cpp:129] Top shape: 1 13 64 (832)
I0228 21:19:56.459940 11790 net.cpp:137] Memory required for data: 224640
I0228 21:19:56.459944 11790 net.cpp:465] Sharing parameters 'W_hc' owned by layer 'lstm1_transform_1', param index 0
I0228 21:19:56.459947 11790 layer_factory.hpp:77] Creating layer lstm1_gate_input_11
I0228 21:19:56.459951 11790 net.cpp:84] Creating Layer lstm1_gate_input_11
I0228 21:19:56.459955 11790 net.cpp:406] lstm1_gate_input_11 <- W_hc_h_10
I0228 21:19:56.459959 11790 net.cpp:406] lstm1_gate_input_11 <- W_xc_x_11
I0228 21:19:56.459964 11790 net.cpp:380] lstm1_gate_input_11 -> gate_input_11
I0228 21:19:56.459976 11790 net.cpp:122] Setting up lstm1_gate_input_11
I0228 21:19:56.459981 11790 net.cpp:129] Top shape: 1 13 64 (832)
I0228 21:19:56.459985 11790 net.cpp:137] Memory required for data: 227968
I0228 21:19:56.459987 11790 layer_factory.hpp:77] Creating layer lstm1_unit_11
I0228 21:19:56.459993 11790 net.cpp:84] Creating Layer lstm1_unit_11
I0228 21:19:56.459996 11790 net.cpp:406] lstm1_unit_11 <- c_10
I0228 21:19:56.460000 11790 net.cpp:406] lstm1_unit_11 <- gate_input_11
I0228 21:19:56.460005 11790 net.cpp:406] lstm1_unit_11 <- cont_11_lstm1_cont_slice_10_split_1
I0228 21:19:56.460008 11790 net.cpp:380] lstm1_unit_11 -> c_11
I0228 21:19:56.460013 11790 net.cpp:380] lstm1_unit_11 -> h_11
I0228 21:19:56.460039 11790 net.cpp:122] Setting up lstm1_unit_11
I0228 21:19:56.460044 11790 net.cpp:129] Top shape: 1 13 16 (208)
I0228 21:19:56.460048 11790 net.cpp:129] Top shape: 1 13 16 (208)
I0228 21:19:56.460052 11790 net.cpp:137] Memory required for data: 229632
I0228 21:19:56.460054 11790 layer_factory.hpp:77] Creating layer h_11_lstm1_unit_11_1_split
I0228 21:19:56.460058 11790 net.cpp:84] Creating Layer h_11_lstm1_unit_11_1_split
I0228 21:19:56.460062 11790 net.cpp:406] h_11_lstm1_unit_11_1_split <- h_11
I0228 21:19:56.460067 11790 net.cpp:380] h_11_lstm1_unit_11_1_split -> h_11_lstm1_unit_11_1_split_0
I0228 21:19:56.460072 11790 net.cpp:380] h_11_lstm1_unit_11_1_split -> h_11_lstm1_unit_11_1_split_1
I0228 21:19:56.460089 11790 net.cpp:122] Setting up h_11_lstm1_unit_11_1_split
I0228 21:19:56.460094 11790 net.cpp:129] Top shape: 1 13 16 (208)
I0228 21:19:56.460098 11790 net.cpp:129] Top shape: 1 13 16 (208)
I0228 21:19:56.460101 11790 net.cpp:137] Memory required for data: 231296
I0228 21:19:56.460104 11790 layer_factory.hpp:77] Creating layer lstm1_h_conted_11
I0228 21:19:56.460110 11790 net.cpp:84] Creating Layer lstm1_h_conted_11
I0228 21:19:56.460115 11790 net.cpp:406] lstm1_h_conted_11 <- h_11_lstm1_unit_11_1_split_0
I0228 21:19:56.460127 11790 net.cpp:406] lstm1_h_conted_11 <- cont_12_lstm1_cont_slice_11_split_0
I0228 21:19:56.460134 11790 net.cpp:380] lstm1_h_conted_11 -> h_conted_11
I0228 21:19:56.460177 11790 net.cpp:122] Setting up lstm1_h_conted_11
I0228 21:19:56.460188 11790 net.cpp:129] Top shape: 1 13 16 (208)
I0228 21:19:56.460194 11790 net.cpp:137] Memory required for data: 232128
I0228 21:19:56.460199 11790 layer_factory.hpp:77] Creating layer lstm1_transform_12
I0228 21:19:56.462483 11790 net.cpp:84] Creating Layer lstm1_transform_12
I0228 21:19:56.462496 11790 net.cpp:406] lstm1_transform_12 <- h_conted_11
I0228 21:19:56.462503 11790 net.cpp:380] lstm1_transform_12 -> W_hc_h_11
I0228 21:19:56.462571 11790 net.cpp:122] Setting up lstm1_transform_12
I0228 21:19:56.462580 11790 net.cpp:129] Top shape: 1 13 64 (832)
I0228 21:19:56.462584 11790 net.cpp:137] Memory required for data: 235456
I0228 21:19:56.462589 11790 net.cpp:465] Sharing parameters 'W_hc' owned by layer 'lstm1_transform_1', param index 0
I0228 21:19:56.462592 11790 layer_factory.hpp:77] Creating layer lstm1_gate_input_12
I0228 21:19:56.462599 11790 net.cpp:84] Creating Layer lstm1_gate_input_12
I0228 21:19:56.462602 11790 net.cpp:406] lstm1_gate_input_12 <- W_hc_h_11
I0228 21:19:56.462606 11790 net.cpp:406] lstm1_gate_input_12 <- W_xc_x_12
I0228 21:19:56.462611 11790 net.cpp:380] lstm1_gate_input_12 -> gate_input_12
I0228 21:19:56.462631 11790 net.cpp:122] Setting up lstm1_gate_input_12
I0228 21:19:56.462640 11790 net.cpp:129] Top shape: 1 13 64 (832)
I0228 21:19:56.462643 11790 net.cpp:137] Memory required for data: 238784
I0228 21:19:56.462647 11790 layer_factory.hpp:77] Creating layer lstm1_unit_12
I0228 21:19:56.462653 11790 net.cpp:84] Creating Layer lstm1_unit_12
I0228 21:19:56.462659 11790 net.cpp:406] lstm1_unit_12 <- c_11
I0228 21:19:56.462666 11790 net.cpp:406] lstm1_unit_12 <- gate_input_12
I0228 21:19:56.462671 11790 net.cpp:406] lstm1_unit_12 <- cont_12_lstm1_cont_slice_11_split_1
I0228 21:19:56.462678 11790 net.cpp:380] lstm1_unit_12 -> c_12
I0228 21:19:56.462684 11790 net.cpp:380] lstm1_unit_12 -> h_12
I0228 21:19:56.462713 11790 net.cpp:122] Setting up lstm1_unit_12
I0228 21:19:56.462718 11790 net.cpp:129] Top shape: 1 13 16 (208)
I0228 21:19:56.462721 11790 net.cpp:129] Top shape: 1 13 16 (208)
I0228 21:19:56.462724 11790 net.cpp:137] Memory required for data: 240448
I0228 21:19:56.462728 11790 layer_factory.hpp:77] Creating layer h_12_lstm1_unit_12_1_split
I0228 21:19:56.462733 11790 net.cpp:84] Creating Layer h_12_lstm1_unit_12_1_split
I0228 21:19:56.462736 11790 net.cpp:406] h_12_lstm1_unit_12_1_split <- h_12
I0228 21:19:56.462740 11790 net.cpp:380] h_12_lstm1_unit_12_1_split -> h_12_lstm1_unit_12_1_split_0
I0228 21:19:56.462744 11790 net.cpp:380] h_12_lstm1_unit_12_1_split -> h_12_lstm1_unit_12_1_split_1
I0228 21:19:56.462764 11790 net.cpp:122] Setting up h_12_lstm1_unit_12_1_split
I0228 21:19:56.462769 11790 net.cpp:129] Top shape: 1 13 16 (208)
I0228 21:19:56.462772 11790 net.cpp:129] Top shape: 1 13 16 (208)
I0228 21:19:56.462775 11790 net.cpp:137] Memory required for data: 242112
I0228 21:19:56.462779 11790 layer_factory.hpp:77] Creating layer lstm1_h_conted_12
I0228 21:19:56.462785 11790 net.cpp:84] Creating Layer lstm1_h_conted_12
I0228 21:19:56.462788 11790 net.cpp:406] lstm1_h_conted_12 <- h_12_lstm1_unit_12_1_split_0
I0228 21:19:56.462792 11790 net.cpp:406] lstm1_h_conted_12 <- cont_13_lstm1_cont_slice_12_split_0
I0228 21:19:56.462796 11790 net.cpp:380] lstm1_h_conted_12 -> h_conted_12
I0228 21:19:56.462832 11790 net.cpp:122] Setting up lstm1_h_conted_12
I0228 21:19:56.462852 11790 net.cpp:129] Top shape: 1 13 16 (208)
I0228 21:19:56.462854 11790 net.cpp:137] Memory required for data: 242944
I0228 21:19:56.462857 11790 layer_factory.hpp:77] Creating layer lstm1_transform_13
I0228 21:19:56.462862 11790 net.cpp:84] Creating Layer lstm1_transform_13
I0228 21:19:56.462867 11790 net.cpp:406] lstm1_transform_13 <- h_conted_12
I0228 21:19:56.462870 11790 net.cpp:380] lstm1_transform_13 -> W_hc_h_12
I0228 21:19:56.462903 11790 net.cpp:122] Setting up lstm1_transform_13
I0228 21:19:56.462918 11790 net.cpp:129] Top shape: 1 13 64 (832)
I0228 21:19:56.462923 11790 net.cpp:137] Memory required for data: 246272
I0228 21:19:56.462925 11790 net.cpp:465] Sharing parameters 'W_hc' owned by layer 'lstm1_transform_1', param index 0
I0228 21:19:56.462929 11790 layer_factory.hpp:77] Creating layer lstm1_gate_input_13
I0228 21:19:56.462934 11790 net.cpp:84] Creating Layer lstm1_gate_input_13
I0228 21:19:56.462936 11790 net.cpp:406] lstm1_gate_input_13 <- W_hc_h_12
I0228 21:19:56.462940 11790 net.cpp:406] lstm1_gate_input_13 <- W_xc_x_13
I0228 21:19:56.462945 11790 net.cpp:380] lstm1_gate_input_13 -> gate_input_13
I0228 21:19:56.462960 11790 net.cpp:122] Setting up lstm1_gate_input_13
I0228 21:19:56.462965 11790 net.cpp:129] Top shape: 1 13 64 (832)
I0228 21:19:56.462967 11790 net.cpp:137] Memory required for data: 249600
I0228 21:19:56.462970 11790 layer_factory.hpp:77] Creating layer lstm1_unit_13
I0228 21:19:56.462975 11790 net.cpp:84] Creating Layer lstm1_unit_13
I0228 21:19:56.462977 11790 net.cpp:406] lstm1_unit_13 <- c_12
I0228 21:19:56.462981 11790 net.cpp:406] lstm1_unit_13 <- gate_input_13
I0228 21:19:56.462985 11790 net.cpp:406] lstm1_unit_13 <- cont_13_lstm1_cont_slice_12_split_1
I0228 21:19:56.462990 11790 net.cpp:380] lstm1_unit_13 -> c_13
I0228 21:19:56.462993 11790 net.cpp:380] lstm1_unit_13 -> h_13
I0228 21:19:56.463017 11790 net.cpp:122] Setting up lstm1_unit_13
I0228 21:19:56.463022 11790 net.cpp:129] Top shape: 1 13 16 (208)
I0228 21:19:56.463027 11790 net.cpp:129] Top shape: 1 13 16 (208)
I0228 21:19:56.463029 11790 net.cpp:137] Memory required for data: 251264
I0228 21:19:56.463032 11790 layer_factory.hpp:77] Creating layer h_13_lstm1_unit_13_1_split
I0228 21:19:56.463035 11790 net.cpp:84] Creating Layer h_13_lstm1_unit_13_1_split
I0228 21:19:56.463039 11790 net.cpp:406] h_13_lstm1_unit_13_1_split <- h_13
I0228 21:19:56.463043 11790 net.cpp:380] h_13_lstm1_unit_13_1_split -> h_13_lstm1_unit_13_1_split_0
I0228 21:19:56.463048 11790 net.cpp:380] h_13_lstm1_unit_13_1_split -> h_13_lstm1_unit_13_1_split_1
I0228 21:19:56.463065 11790 net.cpp:122] Setting up h_13_lstm1_unit_13_1_split
I0228 21:19:56.463070 11790 net.cpp:129] Top shape: 1 13 16 (208)
I0228 21:19:56.463074 11790 net.cpp:129] Top shape: 1 13 16 (208)
I0228 21:19:56.463078 11790 net.cpp:137] Memory required for data: 252928
I0228 21:19:56.463080 11790 layer_factory.hpp:77] Creating layer lstm1_h_conted_13
I0228 21:19:56.463084 11790 net.cpp:84] Creating Layer lstm1_h_conted_13
I0228 21:19:56.463088 11790 net.cpp:406] lstm1_h_conted_13 <- h_13_lstm1_unit_13_1_split_0
I0228 21:19:56.463091 11790 net.cpp:406] lstm1_h_conted_13 <- cont_14_lstm1_cont_slice_13_split_0
I0228 21:19:56.463111 11790 net.cpp:380] lstm1_h_conted_13 -> h_conted_13
I0228 21:19:56.463171 11790 net.cpp:122] Setting up lstm1_h_conted_13
I0228 21:19:56.463176 11790 net.cpp:129] Top shape: 1 13 16 (208)
I0228 21:19:56.463179 11790 net.cpp:137] Memory required for data: 253760
I0228 21:19:56.463183 11790 layer_factory.hpp:77] Creating layer lstm1_transform_14
I0228 21:19:56.463191 11790 net.cpp:84] Creating Layer lstm1_transform_14
I0228 21:19:56.463193 11790 net.cpp:406] lstm1_transform_14 <- h_conted_13
I0228 21:19:56.463201 11790 net.cpp:380] lstm1_transform_14 -> W_hc_h_13
I0228 21:19:56.463234 11790 net.cpp:122] Setting up lstm1_transform_14
I0228 21:19:56.463241 11790 net.cpp:129] Top shape: 1 13 64 (832)
I0228 21:19:56.463258 11790 net.cpp:137] Memory required for data: 257088
I0228 21:19:56.463263 11790 net.cpp:465] Sharing parameters 'W_hc' owned by layer 'lstm1_transform_1', param index 0
I0228 21:19:56.463266 11790 layer_factory.hpp:77] Creating layer lstm1_gate_input_14
I0228 21:19:56.463271 11790 net.cpp:84] Creating Layer lstm1_gate_input_14
I0228 21:19:56.463275 11790 net.cpp:406] lstm1_gate_input_14 <- W_hc_h_13
I0228 21:19:56.463280 11790 net.cpp:406] lstm1_gate_input_14 <- W_xc_x_14
I0228 21:19:56.463285 11790 net.cpp:380] lstm1_gate_input_14 -> gate_input_14
I0228 21:19:56.463306 11790 net.cpp:122] Setting up lstm1_gate_input_14
I0228 21:19:56.463317 11790 net.cpp:129] Top shape: 1 13 64 (832)
I0228 21:19:56.463321 11790 net.cpp:137] Memory required for data: 260416
I0228 21:19:56.463325 11790 layer_factory.hpp:77] Creating layer lstm1_unit_14
I0228 21:19:56.489621 11790 net.cpp:84] Creating Layer lstm1_unit_14
I0228 21:19:56.489639 11790 net.cpp:406] lstm1_unit_14 <- c_13
I0228 21:19:56.489663 11790 net.cpp:406] lstm1_unit_14 <- gate_input_14
I0228 21:19:56.489671 11790 net.cpp:406] lstm1_unit_14 <- cont_14_lstm1_cont_slice_13_split_1
I0228 21:19:56.489677 11790 net.cpp:380] lstm1_unit_14 -> c_14
I0228 21:19:56.489686 11790 net.cpp:380] lstm1_unit_14 -> h_14
I0228 21:19:56.489753 11790 net.cpp:122] Setting up lstm1_unit_14
I0228 21:19:56.489764 11790 net.cpp:129] Top shape: 1 13 16 (208)
I0228 21:19:56.489769 11790 net.cpp:129] Top shape: 1 13 16 (208)
I0228 21:19:56.489773 11790 net.cpp:137] Memory required for data: 262080
I0228 21:19:56.489778 11790 layer_factory.hpp:77] Creating layer h_14_lstm1_unit_14_1_split
I0228 21:19:56.489784 11790 net.cpp:84] Creating Layer h_14_lstm1_unit_14_1_split
I0228 21:19:56.489786 11790 net.cpp:406] h_14_lstm1_unit_14_1_split <- h_14
I0228 21:19:56.489791 11790 net.cpp:380] h_14_lstm1_unit_14_1_split -> h_14_lstm1_unit_14_1_split_0
I0228 21:19:56.489797 11790 net.cpp:380] h_14_lstm1_unit_14_1_split -> h_14_lstm1_unit_14_1_split_1
I0228 21:19:56.489819 11790 net.cpp:122] Setting up h_14_lstm1_unit_14_1_split
I0228 21:19:56.489826 11790 net.cpp:129] Top shape: 1 13 16 (208)
I0228 21:19:56.489847 11790 net.cpp:129] Top shape: 1 13 16 (208)
I0228 21:19:56.489850 11790 net.cpp:137] Memory required for data: 263744
I0228 21:19:56.489854 11790 layer_factory.hpp:77] Creating layer lstm1_h_conted_14
I0228 21:19:56.489861 11790 net.cpp:84] Creating Layer lstm1_h_conted_14
I0228 21:19:56.489864 11790 net.cpp:406] lstm1_h_conted_14 <- h_14_lstm1_unit_14_1_split_0
I0228 21:19:56.489869 11790 net.cpp:406] lstm1_h_conted_14 <- cont_15_lstm1_cont_slice_14_split_0
I0228 21:19:56.489888 11790 net.cpp:380] lstm1_h_conted_14 -> h_conted_14
I0228 21:19:56.489930 11790 net.cpp:122] Setting up lstm1_h_conted_14
I0228 21:19:56.489936 11790 net.cpp:129] Top shape: 1 13 16 (208)
I0228 21:19:56.489940 11790 net.cpp:137] Memory required for data: 264576
I0228 21:19:56.489943 11790 layer_factory.hpp:77] Creating layer lstm1_transform_15
I0228 21:19:56.489949 11790 net.cpp:84] Creating Layer lstm1_transform_15
I0228 21:19:56.489953 11790 net.cpp:406] lstm1_transform_15 <- h_conted_14
I0228 21:19:56.489960 11790 net.cpp:380] lstm1_transform_15 -> W_hc_h_14
I0228 21:19:56.490001 11790 net.cpp:122] Setting up lstm1_transform_15
I0228 21:19:56.490008 11790 net.cpp:129] Top shape: 1 13 64 (832)
I0228 21:19:56.490011 11790 net.cpp:137] Memory required for data: 267904
I0228 21:19:56.490022 11790 net.cpp:465] Sharing parameters 'W_hc' owned by layer 'lstm1_transform_1', param index 0
I0228 21:19:56.490026 11790 layer_factory.hpp:77] Creating layer lstm1_gate_input_15
I0228 21:19:56.490032 11790 net.cpp:84] Creating Layer lstm1_gate_input_15
I0228 21:19:56.490036 11790 net.cpp:406] lstm1_gate_input_15 <- W_hc_h_14
I0228 21:19:56.490041 11790 net.cpp:406] lstm1_gate_input_15 <- W_xc_x_15
I0228 21:19:56.490046 11790 net.cpp:380] lstm1_gate_input_15 -> gate_input_15
I0228 21:19:56.490064 11790 net.cpp:122] Setting up lstm1_gate_input_15
I0228 21:19:56.490070 11790 net.cpp:129] Top shape: 1 13 64 (832)
I0228 21:19:56.490073 11790 net.cpp:137] Memory required for data: 271232
I0228 21:19:56.490077 11790 layer_factory.hpp:77] Creating layer lstm1_unit_15
I0228 21:19:56.490082 11790 net.cpp:84] Creating Layer lstm1_unit_15
I0228 21:19:56.490085 11790 net.cpp:406] lstm1_unit_15 <- c_14
I0228 21:19:56.490089 11790 net.cpp:406] lstm1_unit_15 <- gate_input_15
I0228 21:19:56.490094 11790 net.cpp:406] lstm1_unit_15 <- cont_15_lstm1_cont_slice_14_split_1
I0228 21:19:56.490098 11790 net.cpp:380] lstm1_unit_15 -> c_15
I0228 21:19:56.490106 11790 net.cpp:380] lstm1_unit_15 -> h_15
I0228 21:19:56.490133 11790 net.cpp:122] Setting up lstm1_unit_15
I0228 21:19:56.490147 11790 net.cpp:129] Top shape: 1 13 16 (208)
I0228 21:19:56.490152 11790 net.cpp:129] Top shape: 1 13 16 (208)
I0228 21:19:56.490155 11790 net.cpp:137] Memory required for data: 272896
I0228 21:19:56.490159 11790 layer_factory.hpp:77] Creating layer h_15_lstm1_unit_15_1_split
I0228 21:19:56.490164 11790 net.cpp:84] Creating Layer h_15_lstm1_unit_15_1_split
I0228 21:19:56.490169 11790 net.cpp:406] h_15_lstm1_unit_15_1_split <- h_15
I0228 21:19:56.490190 11790 net.cpp:380] h_15_lstm1_unit_15_1_split -> h_15_lstm1_unit_15_1_split_0
I0228 21:19:56.490197 11790 net.cpp:380] h_15_lstm1_unit_15_1_split -> h_15_lstm1_unit_15_1_split_1
I0228 21:19:56.490226 11790 net.cpp:122] Setting up h_15_lstm1_unit_15_1_split
I0228 21:19:56.490236 11790 net.cpp:129] Top shape: 1 13 16 (208)
I0228 21:19:56.490243 11790 net.cpp:129] Top shape: 1 13 16 (208)
I0228 21:19:56.490248 11790 net.cpp:137] Memory required for data: 274560
I0228 21:19:56.490253 11790 layer_factory.hpp:77] Creating layer lstm1_h_conted_15
I0228 21:19:56.490259 11790 net.cpp:84] Creating Layer lstm1_h_conted_15
I0228 21:19:56.490263 11790 net.cpp:406] lstm1_h_conted_15 <- h_15_lstm1_unit_15_1_split_0
I0228 21:19:56.490268 11790 net.cpp:406] lstm1_h_conted_15 <- cont_16_lstm1_cont_slice_15_split_0
I0228 21:19:56.490273 11790 net.cpp:380] lstm1_h_conted_15 -> h_conted_15
I0228 21:19:56.490320 11790 net.cpp:122] Setting up lstm1_h_conted_15
I0228 21:19:56.490326 11790 net.cpp:129] Top shape: 1 13 16 (208)
I0228 21:19:56.490329 11790 net.cpp:137] Memory required for data: 275392
I0228 21:19:56.490334 11790 layer_factory.hpp:77] Creating layer lstm1_transform_16
I0228 21:19:56.490339 11790 net.cpp:84] Creating Layer lstm1_transform_16
I0228 21:19:56.490342 11790 net.cpp:406] lstm1_transform_16 <- h_conted_15
I0228 21:19:56.490347 11790 net.cpp:380] lstm1_transform_16 -> W_hc_h_15
I0228 21:19:56.490382 11790 net.cpp:122] Setting up lstm1_transform_16
I0228 21:19:56.490388 11790 net.cpp:129] Top shape: 1 13 64 (832)
I0228 21:19:56.490391 11790 net.cpp:137] Memory required for data: 278720
I0228 21:19:56.490396 11790 net.cpp:465] Sharing parameters 'W_hc' owned by layer 'lstm1_transform_1', param index 0
I0228 21:19:56.490399 11790 layer_factory.hpp:77] Creating layer lstm1_gate_input_16
I0228 21:19:56.490404 11790 net.cpp:84] Creating Layer lstm1_gate_input_16
I0228 21:19:56.490408 11790 net.cpp:406] lstm1_gate_input_16 <- W_hc_h_15
I0228 21:19:56.490412 11790 net.cpp:406] lstm1_gate_input_16 <- W_xc_x_16
I0228 21:19:56.490417 11790 net.cpp:380] lstm1_gate_input_16 -> gate_input_16
I0228 21:19:56.490432 11790 net.cpp:122] Setting up lstm1_gate_input_16
I0228 21:19:56.490437 11790 net.cpp:129] Top shape: 1 13 64 (832)
I0228 21:19:56.490442 11790 net.cpp:137] Memory required for data: 282048
I0228 21:19:56.490444 11790 layer_factory.hpp:77] Creating layer lstm1_unit_16
I0228 21:19:56.490450 11790 net.cpp:84] Creating Layer lstm1_unit_16
I0228 21:19:56.490468 11790 net.cpp:406] lstm1_unit_16 <- c_15
I0228 21:19:56.490473 11790 net.cpp:406] lstm1_unit_16 <- gate_input_16
I0228 21:19:56.490478 11790 net.cpp:406] lstm1_unit_16 <- cont_16_lstm1_cont_slice_15_split_1
I0228 21:19:56.490483 11790 net.cpp:380] lstm1_unit_16 -> c_16
I0228 21:19:56.490487 11790 net.cpp:380] lstm1_unit_16 -> h_16
I0228 21:19:56.490525 11790 net.cpp:122] Setting up lstm1_unit_16
I0228 21:19:56.490531 11790 net.cpp:129] Top shape: 1 13 16 (208)
I0228 21:19:56.490536 11790 net.cpp:129] Top shape: 1 13 16 (208)
I0228 21:19:56.490540 11790 net.cpp:137] Memory required for data: 283712
I0228 21:19:56.490543 11790 layer_factory.hpp:77] Creating layer lstm1_
I0228 21:19:56.490547 11790 net.cpp:84] Creating Layer lstm1_
I0228 21:19:56.490551 11790 net.cpp:406] lstm1_ <- c_16
I0228 21:19:56.490557 11790 net.cpp:380] lstm1_ -> c_T
I0228 21:19:56.490571 11790 net.cpp:122] Setting up lstm1_
I0228 21:19:56.490576 11790 net.cpp:129] Top shape: 1 13 16 (208)
I0228 21:19:56.490579 11790 net.cpp:137] Memory required for data: 284544
I0228 21:19:56.490582 11790 layer_factory.hpp:77] Creating layer lstm1_h_concat
I0228 21:19:56.492760 11790 net.cpp:84] Creating Layer lstm1_h_concat
I0228 21:19:56.492769 11790 net.cpp:406] lstm1_h_concat <- h_1_lstm1_unit_1_1_split_1
I0228 21:19:56.492774 11790 net.cpp:406] lstm1_h_concat <- h_2_lstm1_unit_2_1_split_1
…
I0228 21:19:56.520133 11790 net.cpp:200] lstm1_ does not need backward computation.
I0228 21:19:56.520136 11790 net.cpp:242] This network produces output c_T
I0228 21:19:56.520145 11790 net.cpp:242] This network produces output h_pseudoloss
I0228 21:19:56.520335 11790 net.cpp:255] Network initialization done.
I0228 21:19:56.520478 11790 recurrent_layer.cpp:150] Adding parameter 0: W_xc
I0228 21:19:56.520483 11790 recurrent_layer.cpp:150] Adding parameter 1: b_c
I0228 21:19:56.520486 11790 recurrent_layer.cpp:150] Adding parameter 2: W_hc
I0228 21:19:56.520618 11790 net.cpp:122] Setting up lstm1
I0228 21:19:56.520630 11790 net.cpp:129] Top shape: 16 13 16 (3328)
I0228 21:19:56.520633 11790 net.cpp:137] Memory required for data: 17536
I0228 21:19:56.520658 11790 layer_factory.hpp:77] Creating layer lstm2
I0228 21:19:56.520668 11790 net.cpp:84] Creating Layer lstm2
I0228 21:19:56.520671 11790 net.cpp:406] lstm2 <- lstm1
I0228 21:19:56.520676 11790 net.cpp:406] lstm2 <- clip_Input_1_split_1
I0228 21:19:56.520681 11790 net.cpp:380] lstm2 -> lstm2
I0228 21:19:56.520689 11790 recurrent_layer.cpp:20] Initializing recurrent layer: assuming input batch contains 16 timesteps of 13 independent streams.
I0228 21:19:56.521006 11790 net.cpp:51] Initializing net from parameters: 
layer {
  name: "lstm2_"
  type: "Input"
  top: "x"
  top: "cont"
  input_param {
    shape {
      dim: 16
      dim: 13
      dim: 16
    }
    shape {
      dim: 16
      dim: 13
    }
  }
}
layer {
  name: "lstm2_"
  type: "Input"
  top: "c_0"
  top: "h_0"
  input_param {
    shape {
      dim: 1
      dim: 13
      dim: 16
    }
    shape {
      dim: 1
      dim: 13
      dim: 16
    }
  }
}
layer {
  name: "lstm2_cont_slice"
  type: "Slice"
  bottom: "cont"
  top: "cont_1"
  top: "cont_2"
  top: "cont_3"
  top: "cont_4"
  top: "cont_5"
  top: "cont_6"
  top: "cont_7"
  top: "cont_8"
  top: "cont_9"
  top: "cont_10"
  top: "cont_11"
  top: "cont_12"
  top: "cont_13"
  top: "cont_14"
  top: "cont_15"
  top: "cont_16"
  slice_param {
    axis: 0
  }
}
layer {
  name: "lstm2_x_transform"
  type: "InnerProduct"
  bottom: "x"
  top: "W_xc_x"
  param {
    name: "W_xc"
  }
  param {
    name: "b_c"
  }
  propagate_down: true
  inner_product_param {
    num_output: 64
    bias_term: true
    weight_filler {
      type: "xavier"
    }
    bias_filler {
      type: "constant"
    }
    axis: 2
  }
}
layer {
  name: "lstm2_W_xc_x_slice"
  type: "Slice"
  bottom: "W_xc_x"
  top: "W_xc_x_1"
  top: "W_xc_x_2"
  top: "W_xc_x_3"
  top: "W_xc_x_4"
  top: "W_xc_x_5"
  top: "W_xc_x_6"
  top: "W_xc_x_7"
  top: "W_xc_x_8"
  top: "W_xc_x_9"
  top: "W_xc_x_10"
  top: "W_xc_x_11"
  top: "W_xc_x_12"
  top: "W_xc_x_13"
  top: "W_xc_x_14"
  top: "W_xc_x_15"
  top: "W_xc_x_16"
  slice_param {
    axis: 0
  }
}
layer {
  name: "lstm2_h_conted_0"
  type: "Scale"
  bottom: "h_0"
  bottom: "cont_1"
  top: "h_conted_0"
  scale_param {
    axis: 0
  }
}
layer {
  name: "lstm2_transform_1"
  type: "InnerProduct"
  bottom: "h_conted_0"
  top: "W_hc_h_0"
  param {
    name: "W_hc"
  }
  inner_product_param {
    num_output: 64
    bias_term: false
    weight_filler {
      type: "xavier"
    }
    axis: 2
  }
}
layer {
  name: "lstm2_gate_input_1"
  type: "Eltwise"
  bottom: "W_hc_h_0"
  bottom: "W_xc_x_1"
  top: "gate_input_1"
  eltwise_param {
    operation: SUM
  }
}
layer {
  name: "lstm2_unit_1"
  type: "LSTMUnit"
  bottom: "c_0"
  bottom: "gate_input_1"
  bottom: "cont_1"
  top: "c_1"
  top: "h_1"
}
layer {
  name: "lstm2_h_conted_1"
  type: "Scale"
  bottom: "h_1"
  bottom: "cont_2"
  top: "h_conted_1"
  scale_param {
    axis: 0
  }
}
layer {
  name: "lstm2_transform_2"
  type: "InnerProduct"
  bottom: "h_conted_1"
  top: "W_hc_h_1"
  param {
    name: "W_hc"
  }
  inner_product_param {
    num_output: 64
    bias_term: false
    weight_filler {
      type: "xavier"
    }
    axis: 2
  }
}
layer {
  name: "lstm2_gate_input_2"
  type: "Eltwise"
  bottom: "W_hc_h_1"
  bottom: "W_xc_x_2"
  top: "gate_input_2"
  eltwise_param {
    operation: SUM
  }
}
layer {
  name: "lstm2_unit_2"
  type: "LSTMUnit"
  bottom: "c_1"
  bottom: "gate_input_2"
  bottom: "cont_2"
  top: "c_2"
  top: "h_2"
}
layer {
  name: "lstm2_h_conted_2"
  type: "Scale"
  bottom: "h_2"
  bottom: "cont_3"
  top: "h_conted_2"
  scale_param {
    axis: 0
  }
}
layer {
  name: "lstm2_transform_3"
  type: "InnerProduct"
  bottom: "h_conted_2"
  top: "W_hc_h_2"
  param {
    name: "W_hc"
  }
  inner_product_param {
    num_output: 64
    bias_term: false
    weight_filler {
      type: "xavier"
    }
    axis: 2
  }
}
layer {
  name: "lstm2_gate_input_3"
  type: "Eltwise"
  bottom: "W_hc_h_2"
  bottom: "W_xc_x_3"
  top: "gate_input_3"
  eltwise_param {
    operation: SUM
  }
}
layer {
  name: "lstm2_unit_3"
  type: "LSTMUnit"
  bottom: "c_2"
  bottom: "gate_input_3"
  bottom: "cont_3"
  top: "c_3"
  top: "h_3"
}
layer {
  name: "lstm2_h_conted_3"
  type: "Scale"
  bottom: "h_3"
  bottom: "cont_4"
  top: "h_conted_3"
  scale_param {
    axis: 0
  }
}
layer {
  name: "lstm2_transform_4"
  type: "InnerProduct"
  bottom: "h_conted_3"
  top: "W_hc_h_3"
  param {
    name: "W_hc"
  }
  inner_product_param {
    num_output: 64
    bias_term: false
    weight_filler {
      type: "xavier"
    }
    axis: 2
  }
}
layer {
  name: "lstm2_gate_input_4"
  type: "Eltwise"
  bottom: "W_hc_h_3"
  bottom: "W_xc_x_4"
  top: "gate_input_4"
  eltwise_param {
    operation: SUM
  }
}
layer {
  name: "lstm2_unit_4"
  type: "LSTMUnit"
  bottom: "c_3"
  bottom: "gate_input_4"
  bottom: "cont_4"
  top: "c_4"
  top: "h_4"
}
layer {
  name: "lstm2_h_conted_4"
  type: "Scale"
  bottom: "h_4"
  bottom: "cont_5"
  top: "h_conted_4"
  scale_param {
    axis: 0
  }
}
layer {
  name: "lstm2_transform_5"
  type: "InnerProduct"
  bottom: "h_conted_4"
  top: "W_hc_h_4"
  param {
    name: "W_hc"
  }
  inner_product_param {
    num_output: 64
    bias_term: false
    weight_filler {
      type: "xavier"
    }
    axis: 2
  }
}
layer {
  name: "lstm2_gate_input_5"
  type: "Eltwise"
  bottom: "W_hc_h_4"
  bottom: "W_xc_x_5"
  top: "gate_input_5"
  eltwise_param {
    operation: SUM
  }
}
layer {
  name: "lstm2_unit_5"
  type: "LSTMUnit"
  bottom: "c_4"
  bottom: "gate_input_5"
  bottom: "cont_5"
  top: "c_5"
  top: "h_5"
}
layer {
  name: "lstm2_h_conted_5"
  type: "Scale"
  bottom: "h_5"
  bottom: "cont_6"
  top: "h_conted_5"
  scale_param {
    axis: 0
  }
}
layer {
  name: "lstm2_transform_6"
  type: "InnerProduct"
  bottom: "h_conted_5"
  top: "W_hc_h_5"
  param {
    name: "W_hc"
  }
  inner_product_param {
    num_output: 64
    bias_term: false
    weight_filler {
      type: "xavier"
    }
    axis: 2
  }
}
layer {
  name: "lstm2_gate_input_6"
  type: "Eltwise"
  bottom: "W_hc_h_5"
  bottom: "W_xc_x_6"
  top: "gate_input_6"
  eltwise_param {
    operation: SUM
  }
}
layer {
  name: "lstm2_unit_6"
  type: "LSTMUnit"
  bottom: "c_5"
  bottom: "gate_input_6"
  bottom: "cont_6"
  top: "c_6"
  top: "h_6"
}
layer {
  name: "lstm2_h_conted_6"
  type: "Scale"
  bottom: "h_6"
  bottom: "cont_7"
  top: "h_conted_6"
  scale_param {
    axis: 0
  }
}
layer {
  name: "lstm2_transform_7"
  type: "InnerProduct"
  bottom: "h_conted_6"
  top: "W_hc_h_6"
  param {
    name: "W_hc"
  }
  inner_product_param {
    num_output: 64
    bias_term: false
    weight_filler {
      type: "xavier"
    }
    axis: 2
  }
}
layer {
  name: "lstm2_gate_input_7"
  type: "Eltwise"
  bottom: "W_hc_h_6"
  bottom: "W_xc_x_7"
  top: "gate_input_7"
  eltwise_param {
    operation: SUM
  }
}
layer {
  name: "lstm2_unit_7"
  type: "LSTMUnit"
  bottom: "c_6"
  bottom: "gate_input_7"
  bottom: "cont_7"
  top: "c_7"
  top: "h_7"
}
layer {
  name: "lstm2_h_conted_7"
  type: "Scale"
  bottom: "h_7"
  bottom: "cont_8"
  top: "h_conted_7"
  scale_param {
    axis: 0
  }
}
layer {
  name: "lstm2_transform_8"
  type: "InnerProduct"
  bottom: "h_conted_7"
  top: "W_hc_h_7"
  param {
    name: "W_hc"
  }
  inner_product_param {
    num_output: 64
    bias_term: false
    weight_filler {
      type: "xavier"
    }
    axis: 2
  }
}
layer {
  name: "lstm2_gate_input_8"
  type: "Eltwise"
  bottom: "W_hc_h_7"
  bottom: "W_xc_x_8"
  top: "gate_input_8"
  eltwise_param {
    operation: SUM
  }
}
layer {
  name: "lstm2_unit_8"
  type: "LSTMUnit"
  bottom: "c_7"
  bottom: "gate_input_8"
  bottom: "cont_8"
  top: "c_8"
  top: "h_8"
}
layer {
  name: "lstm2_h_conted_8"
  type: "Scale"
  bottom: "h_8"
  bottom: "cont_9"
  top: "h_conted_8"
  scale_param {
    axis: 0
  }
}
layer {
  name: "lstm2_transform_9"
  type: "InnerProduct"
  bottom: "h_conted_8"
  top: "W_hc_h_8"
  param {
    name: "W_hc"
  }
  inner_product_param {
    num_output: 64
    bias_term: false
    weight_filler {
      type: "xavier"
    }
    axis: 2
  }
}
layer {
  name: "lstm2_gate_input_9"
  type: "Eltwise"
  bottom: "W_hc_h_8"
  bottom: "W_xc_x_9"
  top: "gate_input_9"
  eltwise_param {
    operation: SUM
  }
}
layer {
  name: "lstm2_unit_9"
  type: "LSTMUnit"
  bottom: "c_8"
  bottom: "gate_input_9"
  bottom: "cont_9"
  top: "c_9"
  top: "h_9"
}
layer {
  name: "lstm2_h_conted_9"
  type: "Scale"
  bottom: "h_9"
  bottom: "cont_10"
  top: "h_conted_9"
  scale_param {
    axis: 0
  }
}
layer {
  name: "lstm2_transform_10"
  type: "InnerProduct"
  bottom: "h_conted_9"
  top: "W_hc_h_9"
  param {
    name: "W_hc"
  }
  inner_product_param {
    num_output: 64
    bias_term: false
    weight_filler {
      type: "xavier"
    }
    axis: 2
  }
}
layer {
  name: "lstm2_gate_input_10"
  type: "Eltwise"
  bottom: "W_hc_h_9"
  bottom: "W_xc_x_10"
  top: "gate_input_10"
  eltwise_param {
    operation: SUM
  }
}
layer {
  name: "lstm2_unit_10"
  type: "LSTMUnit"
  bottom: "c_9"
  bottom: "gate_input_10"
  bottom: "cont_10"
  top: "c_10"
  top: "h_10"
}
layer {
  name: "lstm2_h_conted_10"
  type: "Scale"
  bottom: "h_10"
  bottom: "cont_11"
  top: "h_conted_10"
  scale_param {
    axis: 0
  }
}
layer {
  name: "lstm2_transform_11"
  type: "InnerProduct"
  bottom: "h_conted_10"
  top: "W_hc_h_10"
  param {
    name: "W_hc"
  }
  inner_product_param {
    num_output: 64
    bias_term: false
    weight_filler {
      type: "xavier"
    }
    axis: 2
  }
}
layer {
  name: "lstm2_gate_input_11"
  type: "Eltwise"
  bottom: "W_hc_h_10"
  bottom: "W_xc_x_11"
  top: "gate_input_11"
  eltwise_param {
    operation: SUM
  }
}
layer {
  name: "lstm2_unit_11"
  type: "LSTMUnit"
  bottom: "c_10"
  bottom: "gate_input_11"
  bottom: "cont_11"
  top: "c_11"
  top: "h_11"
}
layer {
  name: "lstm2_h_conted_11"
  type: "Scale"
  bottom: "h_11"
  bottom: "cont_12"
  top: "h_conted_11"
  scale_param {
    axis: 0
  }
}
layer {
  name: "lstm2_transform_12"
  type: "InnerProduct"
  bottom: "h_conted_11"
  top: "W_hc_h_11"
  param {
    name: "W_hc"
  }
  inner_product_param {
    num_output: 64
    bias_term: false
    weight_filler {
      type: "xavier"
    }
    axis: 2
  }
}
layer {
  name: "lstm2_gate_input_12"
  type: "Eltwise"
  bottom: "W_hc_h_11"
  bottom: "W_xc_x_12"
  top: "gate_input_12"
  eltwise_param {
    operation: SUM
  }
}
layer {
  name: "lstm2_unit_12"
  type: "LSTMUnit"
  bottom: "c_11"
  bottom: "gate_input_12"
  bottom: "cont_12"
  top: "c_12"
  top: "h_12"
}
layer {
  name: "lstm2_h_conted_12"
  type: "Scale"
  bottom: "h_12"
  bottom: "cont_13"
  top: "h_conted_12"
  scale_param {
    axis: 0
  }
}
layer {
  name: "lstm2_transform_13"
  type: "InnerProduct"
  bottom: "h_conted_12"
  top: "W_hc_h_12"
  param {
    name: "W_hc"
  }
  inner_product_param {
    num_output: 64
    bias_term: false
    weight_filler {
      type: "xavier"
    }
    axis: 2
  }
}
layer {
  name: "lstm2_gate_input_13"
  type: "Eltwise"
  bottom: "W_hc_h_12"
  bottom: "W_xc_x_13"
  top: "gate_input_13"
  eltwise_param {
    operation: SUM
  }
}
layer {
  name: "lstm2_unit_13"
  type: "LSTMUnit"
  bottom: "c_12"
  bottom: "gate_input_13"
  bottom: "cont_13"
  top: "c_13"
  top: "h_13"
}
layer {
  name: "lstm2_h_conted_13"
  type: "Scale"
  bottom: "h_13"
  bottom: "cont_14"
  top: "h_conted_13"
  scale_param {
    axis: 0
  }
}
layer {
  name: "lstm2_transform_14"
  type: "InnerProduct"
  bottom: "h_conted_13"
  top: "W_hc_h_13"
  param {
    name: "W_hc"
  }
  inner_product_param {
    num_output: 64
    bias_term: false
    weight_filler {
      type: "xavier"
    }
    axis: 2
  }
}
layer {
  name: "lstm2_gate_input_14"
  type: "Eltwise"
  bottom: "W_hc_h_13"
  bottom: "W_xc_x_14"
  top: "gate_input_14"
  eltwise_param {
    operation: SUM
  }
}
layer {
  name: "lstm2_unit_14"
  type: "LSTMUnit"
  bottom: "c_13"
  bottom: "gate_input_14"
  bottom: "cont_14"
  top: "c_14"
  top: "h_14"
}
layer {
  name: "lstm2_h_conted_14"
  type: "Scale"
  bottom: "h_14"
  bottom: "cont_15"
  top: "h_conted_14"
  scale_param {
    axis: 0
  }
}
layer {
  name: "lstm2_transform_15"
  type: "InnerProduct"
  bottom: "h_conted_14"
  top: "W_hc_h_14"
  param {
    name: "W_hc"
  }
  inner_product_param {
    num_output: 64
    bias_term: false
    weight_filler {
      type: "xavier"
    }
    axis: 2
  }
}
layer {
  name: "lstm2_gate_input_15"
  type: "Eltwise"
  bottom: "W_hc_h_14"
  bottom: "W_xc_x_15"
  top: "gate_input_15"
  eltwise_param {
    operation: SUM
  }
}
layer {
  name: "lstm2_unit_15"
  type: "LSTMUnit"
  bottom: "c_14"
  bottom: "gate_input_15"
  bottom: "cont_15"
  top: "c_15"
  top: "h_15"
}
layer {
  name: "lstm2_h_conted_15"
  type: "Scale"
  bottom: "h_15"
  bottom: "cont_16"
  top: "h_conted_15"
  scale_param {
    axis: 0
  }
}
layer {
  name: "lstm2_transform_16"
  type: "InnerProduct"
  bottom: "h_conted_15"
  top: "W_hc_h_15"
  param {
    name: "W_hc"
  }
  inner_product_param {
    num_output: 64
    bias_term: false
    weight_filler {
      type: "xavier"
    }
    axis: 2
  }
}
layer {
  name: "lstm2_gate_input_16"
  type: "Eltwise"
  bottom: "W_hc_h_15"
  bottom: "W_xc_x_16"
  top: "gate_input_16"
  eltwise_param {
    operation: SUM
  }
}
layer {
  name: "lstm2_unit_16"
  type: "LSTMUnit"
  bottom: "c_15"
  bottom: "gate_input_16"
  bottom: "cont_16"
  top: "c_16"
  top: "h_16"
}
layer {
  name: "lstm2_"
  type: "Split"
  bottom: "c_16"
  top: "c_T"
}
layer {
  name: "lstm2_h_concat"
  type: "Concat"
  bottom: "h_1"
  bottom: "h_2"
  bottom: "h_3"
  bottom: "h_4"
  bottom: "h_5"
  bottom: "h_6"
  bottom: "h_7"
  bottom: "h_8"
  bottom: "h_9"
  bottom: "h_10"
  bottom: "h_11"
  bottom: "h_12"
  bottom: "h_13"
  bottom: "h_14"
  bottom: "h_15"
  bottom: "h_16"
  top: "h"
  concat_param {
    axis: 0
  }
}
layer {
  name: "h_pseudoloss"
  type: "Reduction"
  bottom: "h"
  top: "h_pseudoloss"
  loss_weight: 1
}
I0228 21:19:56.550880 11790 layer_factory.hpp:77] Creating layer lstm2_
I0228 21:19:56.550905 11790 net.cpp:84] Creating Layer lstm2_
I0228 21:19:56.550912 11790 net.cpp:380] lstm2_ -> x
I0228 21:19:56.550925 11790 net.cpp:380] lstm2_ -> cont
I0228 21:19:56.550987 11790 net.cpp:122] Setting up lstm2_
I0228 21:19:56.551002 11790 net.cpp:129] Top shape: 16 13 16 (3328)
I0228 21:19:56.551008 11790 net.cpp:129] Top shape: 16 13 (208)
I0228 21:19:56.551014 11790 net.cpp:137] Memory required for data: 14144
I0228 21:19:56.551019 11790 layer_factory.hpp:77] Creating layer lstm2_
I0228 21:19:56.551028 11790 net.cpp:84] Creating Layer lstm2_
I0228 21:19:56.551034 11790 net.cpp:380] lstm2_ -> c_0
I0228 21:19:56.551044 11790 net.cpp:380] lstm2_ -> h_0
I0228 21:19:56.551079 11790 net.cpp:122] Setting up lstm2_
I0228 21:19:56.551086 11790 net.cpp:129] Top shape: 1 13 16 (208)
I0228 21:19:56.551092 11790 net.cpp:129] Top shape: 1 13 16 (208)
I0228 21:19:56.551096 11790 net.cpp:137] Memory required for data: 15808
I0228 21:19:56.551100 11790 layer_factory.hpp:77] Creating layer lstm2_cont_slice
I0228 21:19:56.551110 11790 net.cpp:84] Creating Layer lstm2_cont_slice
I0228 21:19:56.551115 11790 net.cpp:406] lstm2_cont_slice <- cont
I0228 21:19:56.551121 11790 net.cpp:380] lstm2_cont_slice -> cont_1
I0228 21:19:56.551131 11790 net.cpp:380] lstm2_cont_slice -> cont_2
…
I0228 21:19:56.890498 11790 solver.cpp:172] Creating test net (#0) specified by test_net file: /home/leonida/ThesisCode/LSTM_on_Create2/src/neural_network_planner/NetModels/LSTM/deep_stack-fc_testnet.prototxt
I0228 21:19:56.890568 11790 net.cpp:51] Initializing net from parameters: 
name: "LSTM_stack-1-16"
state {
  phase: TEST
}
layer {
  name: "Input"
  type: "Input"
  top: "data"
  top: "clip"
  top: "label"
  input_param {
    shape {
      dim: 16
      dim: 13
      dim: 1
    }
    shape {
      dim: 16
      dim: 13
    }
    shape {
      dim: 1
    }
  }
}
layer {
  name: "lstm1"
  type: "LSTM"
  bottom: "data"
  bottom: "clip"
  top: "lstm1"
  recurrent_param {
    num_output: 16
    weight_filler {
      type: "xavier"
    }
    bias_filler {
      type: "constant"
    }
  }
}
layer {
  name: "lstm2"
  type: "LSTM"
  bottom: "lstm1"
  bottom: "clip"
  top: "lstm2"
  recurrent_param {
    num_output: 16
    weight_filler {
      type: "xavier"
    }
    bias_filler {
      type: "constant"
    }
  }
}
layer {
  name: "lstm3"
  type: "LSTM"
  bottom: "lstm2"
  bottom: "clip"
  top: "lstm3"
  recurrent_param {
    num_output: 16
    weight_filler {
      type: "xavier"
    }
    bias_filler {
      type: "constant"
    }
  }
}
layer {
  name: "fc1"
  type: "InnerProduct"
  bottom: "lstm3"
  top: "fc1"
  param {
    lr_mult: 1
    decay_mult: 1
  }
  param {
    lr_mult: 2
    decay_mult: 0
  }
  inner_product_param {
    num_output: 16
    weight_filler {
      type: "gaussian"
      std: 0.01
    }
    bias_filler {
      type: "constant"
      value: 0
    }
  }
}
layer {
  name: "out"
  type: "InnerProduct"
  bottom: "fc1"
  top: "out"
  inner_product_param {
    num_output: 1
    weight_filler {
      type: "gaussian"
      std: 0.1
    }
    bias_filler {
      type: "constant"
    }
  }
}
layer {
  name: "euclideanLoss"
  type: "EuclideanLoss"
  bottom: "out"
  bottom: "label"
  top: "loss"
}
I0228 21:19:56.890664 11790 layer_factory.hpp:77] Creating layer Input
I0228 21:19:56.890673 11790 net.cpp:84] Creating Layer Input
I0228 21:19:56.890677 11790 net.cpp:380] Input -> data
I0228 21:19:56.890691 11790 net.cpp:380] Input -> clip
I0228 21:19:56.890697 11790 net.cpp:380] Input -> label
I0228 21:19:56.890729 11790 net.cpp:122] Setting up Input
I0228 21:19:56.890736 11790 net.cpp:129] Top shape: 16 13 1 (208)
I0228 21:19:56.890740 11790 net.cpp:129] Top shape: 16 13 (208)
I0228 21:19:56.890744 11790 net.cpp:129] Top shape: 1 (1)
I0228 21:19:56.890748 11790 net.cpp:137] Memory required for data: 1668
I0228 21:19:56.890750 11790 layer_factory.hpp:77] Creating layer clip_Input_1_split
I0228 21:19:56.890756 11790 net.cpp:84] Creating Layer clip_Input_1_split
I0228 21:19:56.890759 11790 net.cpp:406] clip_Input_1_split <- clip
I0228 21:19:56.890763 11790 net.cpp:380] clip_Input_1_split -> clip_Input_1_split_0
I0228 21:19:56.890769 11790 net.cpp:380] clip_Input_1_split -> clip_Input_1_split_1
I0228 21:19:56.890774 11790 net.cpp:380] clip_Input_1_split -> clip_Input_1_split_2
I0228 21:19:56.890802 11790 net.cpp:122] Setting up clip_Input_1_split
I0228 21:19:56.890808 11790 net.cpp:129] Top shape: 16 13 (208)
I0228 21:19:56.890812 11790 net.cpp:129] Top shape: 16 13 (208)
I0228 21:19:56.890816 11790 net.cpp:129] Top shape: 16 13 (208)
I0228 21:19:56.890820 11790 net.cpp:137] Memory required for data: 4164
I0228 21:19:56.890822 11790 layer_factory.hpp:77] Creating layer lstm1
I0228 21:19:56.890828 11790 net.cpp:84] Creating Layer lstm1
I0228 21:19:56.890832 11790 net.cpp:406] lstm1 <- data
I0228 21:19:56.890836 11790 net.cpp:406] lstm1 <- clip_Input_1_split_0
I0228 21:19:56.890841 11790 net.cpp:380] lstm1 -> lstm1
I0228 21:19:56.890846 11790 recurrent_layer.cpp:20] Initializing recurrent layer: assuming input batch contains 16 timesteps of 13 independent streams.
I0228 21:19:56.891189 11790 net.cpp:51] Initializing net from parameters: 
layer {
  name: "lstm1_"
  type: "Input"
  top: "x"
  top: "cont"
  input_param {
    shape {
      dim: 16
      dim: 13
      dim: 1
    }
    shape {
      dim: 16
      dim: 13
    }
  }
}
layer {
  name: "lstm1_"
  type: "Input"
  top: "c_0"
  top: "h_0"
  input_param {
    shape {
      dim: 1
      dim: 13
      dim: 16
    }
    shape {
      dim: 1
      dim: 13
      dim: 16
    }
  }
}
layer {
  name: "lstm1_cont_slice"
  type: "Slice"
  bottom: "cont"
  top: "cont_1"
  top: "cont_2"
  top: "cont_3"
  top: "cont_4"
  top: "cont_5"
  top: "cont_6"
  top: "cont_7"
  top: "cont_8"
  top: "cont_9"
  top: "cont_10"
  top: "cont_11"
  top: "cont_12"
  top: "cont_13"
  top: "cont_14"
  top: "cont_15"
  top: "cont_16"
  slice_param {
    axis: 0
  }
}
layer {
  name: "lstm1_x_transform"
  type: "InnerProduct"
  bottom: "x"
  top: "W_xc_x"
  param {
    name: "W_xc"
  }
  param {
    name: "b_c"
  }
  propagate_down: true
  inner_product_param {
    num_output: 64
    bias_term: true
    weight_filler {
      type: "xavier"
    }
    bias_filler {
      type: "constant"
    }
    axis: 2
  }
}
layer {
  name: "lstm1_W_xc_x_slice"
  type: "Slice"
  bottom: "W_xc_x"
  top: "W_xc_x_1"
  top: "W_xc_x_2"
  top: "W_xc_x_3"
  top: "W_xc_x_4"
  top: "W_xc_x_5"
  top: "W_xc_x_6"
  top: "W_xc_x_7"
  top: "W_xc_x_8"
  top: "W_xc_x_9"
  top: "W_xc_x_10"
  top: "W_xc_x_11"
  top: "W_xc_x_12"
  top: "W_xc_x_13"
  top: "W_xc_x_14"
  top: "W_xc_x_15"
  top: "W_xc_x_16"
  slice_param {
    axis: 0
  }
}
layer {
  name: "lstm1_h_conted_0"
  type: "Scale"
  bottom: "h_0"
  bottom: "cont_1"
  top: "h_conted_0"
  scale_param {
    axis: 0
  }
}
layer {
  name: "lstm1_transform_1"
  type: "InnerProduct"
  bottom: "h_conted_0"
  top: "W_hc_h_0"
  param {
    name: "W_hc"
  }
  inner_product_param {
    num_output: 64
    bias_term: false
    weight_filler {
      type: "xavier"
    }
    axis: 2
  }
}
layer {
  name: "lstm1_gate_input_1"
  type: "Eltwise"
  bottom: "W_hc_h_0"
  bottom: "W_xc_x_1"
  top: "gate_input_1"
  eltwise_param {
    operation: SUM
  }
}
layer {
  name: "lstm1_unit_1"
  type: "LSTMUnit"
  bottom: "c_0"
  bottom: "gate_input_1"
  bottom: "cont_1"
  top: "c_1"
  top: "h_1"
}
layer {
  name: "lstm1_h_conted_1"
  type: "Scale"
  bottom: "h_1"
  bottom: "cont_2"
  top: "h_conted_1"
  scale_param {
    axis: 0
  }
}
layer {
  name: "lstm1_transform_2"
  type: "InnerProduct"
  bottom: "h_conted_1"
  top: "W_hc_h_1"
  param {
    name: "W_hc"
  }
  inner_product_param {
    num_output: 64
    bias_term: false
    weight_filler {
      type: "xavier"
    }
    axis: 2
  }
}
layer {
  name: "lstm1_gate_input_2"
  type: "Eltwise"
  bottom: "W_hc_h_1"
  bottom: "W_xc_x_2"
  top: "gate_input_2"
  eltwise_param {
    operation: SUM
  }
}
layer {
  name: "lstm1_unit_2"
  type: "LSTMUnit"
  bottom: "c_1"
  bottom: "gate_input_2"
  bottom: "cont_2"
  top: "c_2"
  top: "h_2"
}
layer {
  name: "lstm1_h_conted_2"
  type: "Scale"
  bottom: "h_2"
  bottom: "cont_3"
  top: "h_conted_2"
  scale_param {
    axis: 0
  }
}
layer {
  name: "lstm1_transform_3"
  type: "InnerProduct"
  bottom: "h_conted_2"
  top: "W_hc_h_2"
  param {
    name: "W_hc"
  }
  inner_product_param {
    num_output: 64
    bias_term: false
    weight_filler {
      type: "xavier"
    }
    axis: 2
  }
}
layer {
  name: "lstm1_gate_input_3"
  type: "Eltwise"
  bottom: "W_hc_h_2"
  bottom: "W_xc_x_3"
  top: "gate_input_3"
  eltwise_param {
    operation: SUM
  }
}
layer {
  name: "lstm1_unit_3"
  type: "LSTMUnit"
  bottom: "c_2"
  bottom: "gate_input_3"
  bottom: "cont_3"
  top: "c_3"
  top: "h_3"
}
layer {
  name: "lstm1_h_conted_3"
  type: "Scale"
  bottom: "h_3"
  bottom: "cont_4"
  top: "h_conted_3"
  scale_param {
    axis: 0
  }
}
layer {
  name: "lstm1_transform_4"
  type: "InnerProduct"
  bottom: "h_conted_3"
  top: "W_hc_h_3"
  param {
    name: "W_hc"
  }
  inner_product_param {
    num_output: 64
    bias_term: false
    weight_filler {
      type: "xavier"
    }
    axis: 2
  }
}
layer {
  name: "lstm1_gate_input_4"
  type: "Eltwise"
  bottom: "W_hc_h_3"
  bottom: "W_xc_x_4"
  top: "gate_input_4"
  eltwise_param {
    operation: SUM
  }
}
layer {
  name: "lstm1_unit_4"
  type: "LSTMUnit"
  bottom: "c_3"
  bottom: "gate_input_4"
  bottom: "cont_4"
  top: "c_4"
  top: "h_4"
}
layer {
  name: "lstm1_h_conted_4"
  type: "Scale"
  bottom: "h_4"
  bottom: "cont_5"
  top: "h_conted_4"
  scale_param {
    axis: 0
  }
}
layer {
  name: "lstm1_transform_5"
  type: "InnerProduct"
  bottom: "h_conted_4"
  top: "W_hc_h_4"
  param {
    name: "W_hc"
  }
  inner_product_param {
    num_output: 64
    bias_term: false
    weight_filler {
      type: "xavier"
    }
    axis: 2
  }
}
layer {
  name: "lstm1_gate_input_5"
  type: "Eltwise"
  bottom: "W_hc_h_4"
  bottom: "W_xc_x_5"
  top: "gate_input_5"
  eltwise_param {
    operation: SUM
  }
}
layer {
  name: "lstm1_unit_5"
  type: "LSTMUnit"
  bottom: "c_4"
  bottom: "gate_input_5"
  bottom: "cont_5"
  top: "c_5"
  top: "h_5"
}
layer {
  name: "lstm1_h_conted_5"
  type: "Scale"
  bottom: "h_5"
  bottom: "cont_6"
  top: "h_conted_5"
  scale_param {
    axis: 0
  }
}
layer {
  name: "lstm1_transform_6"
  type: "InnerProduct"
  bottom: "h_conted_5"
  top: "W_hc_h_5"
  param {
    name: "W_hc"
  }
  inner_product_param {
    num_output: 64
    bias_term: false
    weight_filler {
      type: "xavier"
    }
    axis: 2
  }
}
layer {
  name: "lstm1_gate_input_6"
  type: "Eltwise"
  bottom: "W_hc_h_5"
  bottom: "W_xc_x_6"
  top: "gate_input_6"
  eltwise_param {
    operation: SUM
  }
}
layer {
  name: "lstm1_unit_6"
  type: "LSTMUnit"
  bottom: "c_5"
  bottom: "gate_input_6"
  bottom: "cont_6"
  top: "c_6"
  top: "h_6"
}
layer {
  name: "lstm1_h_conted_6"
  type: "Scale"
  bottom: "h_6"
  bottom: "cont_7"
  top: "h_conted_6"
  scale_param {
    axis: 0
  }
}
layer {
  name: "lstm1_transform_7"
  type: "InnerProduct"
  bottom: "h_conted_6"
  top: "W_hc_h_6"
  param {
    name: "W_hc"
  }
  inner_product_param {
    num_output: 64
    bias_term: false
    weight_filler {
      type: "xavier"
    }
    axis: 2
  }
}
layer {
  name: "lstm1_gate_input_7"
  type: "Eltwise"
  bottom: "W_hc_h_6"
  bottom: "W_xc_x_7"
  top: "gate_input_7"
  eltwise_param {
    operation: SUM
  }
}
layer {
  name: "lstm1_unit_7"
  type: "LSTMUnit"
  bottom: "c_6"
  bottom: "gate_input_7"
  bottom: "cont_7"
  top: "c_7"
  top: "h_7"
}
layer {
  name: "lstm1_h_conted_7"
  type: "Scale"
  bottom: "h_7"
  bottom: "cont_8"
  top: "h_conted_7"
  scale_param {
    axis: 0
  }
}
layer {
  name: "lstm1_transform_8"
  type: "InnerProduct"
  bottom: "h_conted_7"
  top: "W_hc_h_7"
  param {
    name: "W_hc"
  }
  inner_product_param {
    num_output: 64
    bias_term: false
    weight_filler {
      type: "xavier"
    }
    axis: 2
  }
}
layer {
  name: "lstm1_gate_input_8"
  type: "Eltwise"
  bottom: "W_hc_h_7"
  bottom: "W_xc_x_8"
  top: "gate_input_8"
  eltwise_param {
    operation: SUM
  }
}
layer {
  name: "lstm1_unit_8"
  type: "LSTMUnit"
  bottom: "c_7"
  bottom: "gate_input_8"
  bottom: "cont_8"
  top: "c_8"
  top: "h_8"
}
layer {
  name: "lstm1_h_conted_8"
  type: "Scale"
  bottom: "h_8"
  bottom: "cont_9"
  top: "h_conted_8"
  scale_param {
    axis: 0
  }
}
layer {
  name: "lstm1_transform_9"
  type: "InnerProduct"
  bottom: "h_conted_8"
  top: "W_hc_h_8"
  param {
    name: "W_hc"
  }
  inner_product_param {
    num_output: 64
    bias_term: false
    weight_filler {
      type: "xavier"
    }
    axis: 2
  }
}
layer {
  name: "lstm1_gate_input_9"
  type: "Eltwise"
  bottom: "W_hc_h_8"
  bottom: "W_xc_x_9"
  top: "gate_input_9"
  eltwise_param {
    operation: SUM
  }
}
layer {
  name: "lstm1_unit_9"
  type: "LSTMUnit"
  bottom: "c_8"
  bottom: "gate_input_9"
  bottom: "cont_9"
  top: "c_9"
  top: "h_9"
}
layer {
  name: "lstm1_h_conted_9"
  type: "Scale"
  bottom: "h_9"
  bottom: "cont_10"
  top: "h_conted_9"
  scale_param {
    axis: 0
  }
}
layer {
  name: "lstm1_transform_10"
  type: "InnerProduct"
  bottom: "h_conted_9"
  top: "W_hc_h_9"
  param {
    name: "W_hc"
  }
  inner_product_param {
    num_output: 64
    bias_term: false
    weight_filler {
      type: "xavier"
    }
    axis: 2
  }
}
layer {
  name: "lstm1_gate_input_10"
  type: "Eltwise"
  bottom: "W_hc_h_9"
  bottom: "W_xc_x_10"
  top: "gate_input_10"
  eltwise_param {
    operation: SUM
  }
}
layer {
  name: "lstm1_unit_10"
  type: "LSTMUnit"
  bottom: "c_9"
  bottom: "gate_input_10"
  bottom: "cont_10"
  top: "c_10"
  top: "h_10"
}
layer {
  name: "lstm1_h_conted_10"
  type: "Scale"
  bottom: "h_10"
  bottom: "cont_11"
  top: "h_conted_10"
  scale_param {
    axis: 0
  }
}
layer {
  name: "lstm1_transform_11"
  type: "InnerProduct"
  bottom: "h_conted_10"
  top: "W_hc_h_10"
  param {
    name: "W_hc"
  }
  inner_product_param {
    num_output: 64
    bias_term: false
    weight_filler {
      type: "xavier"
    }
    axis: 2
  }
}
layer {
  name: "lstm1_gate_input_11"
  type: "Eltwise"
  bottom: "W_hc_h_10"
  bottom: "W_xc_x_11"
  top: "gate_input_11"
  eltwise_param {
    operation: SUM
  }
}
layer {
  name: "lstm1_unit_11"
  type: "LSTMUnit"
  bottom: "c_10"
  bottom: "gate_input_11"
  bottom: "cont_11"
  top: "c_11"
  top: "h_11"
}
layer {
  name: "lstm1_h_conted_11"
  type: "Scale"
  bottom: "h_11"
  bottom: "cont_12"
  top: "h_conted_11"
  scale_param {
    axis: 0
  }
}
layer {
  name: "lstm1_transform_12"
  type: "InnerProduct"
  bottom: "h_conted_11"
  top: "W_hc_h_11"
  param {
    name: "W_hc"
  }
  inner_product_param {
    num_output: 64
    bias_term: false
    weight_filler {
      type: "xavier"
    }
    axis: 2
  }
}
layer {
  name: "lstm1_gate_input_12"
  type: "Eltwise"
  bottom: "W_hc_h_11"
  bottom: "W_xc_x_12"
  top: "gate_input_12"
  eltwise_param {
    operation: SUM
  }
}
layer {
  name: "lstm1_unit_12"
  type: "LSTMUnit"
  bottom: "c_11"
  bottom: "gate_input_12"
  bottom: "cont_12"
  top: "c_12"
  top: "h_12"
}
layer {
  name: "lstm1_h_conted_12"
  type: "Scale"
  bottom: "h_12"
  bottom: "cont_13"
  top: "h_conted_12"
  scale_param {
    axis: 0
  }
}
layer {
  name: "lstm1_transform_13"
  type: "InnerProduct"
  bottom: "h_conted_12"
  top: "W_hc_h_12"
  param {
    name: "W_hc"
  }
  inner_product_param {
    num_output: 64
    bias_term: false
    weight_filler {
      type: "xavier"
    }
    axis: 2
  }
}
layer {
  name: "lstm1_gate_input_13"
  type: "Eltwise"
  bottom: "W_hc_h_12"
  bottom: "W_xc_x_13"
  top: "gate_input_13"
  eltwise_param {
    operation: SUM
  }
}
layer {
  name: "lstm1_unit_13"
  type: "LSTMUnit"
  bottom: "c_12"
  bottom: "gate_input_13"
  bottom: "cont_13"
  top: "c_13"
  top: "h_13"
}
layer {
  name: "lstm1_h_conted_13"
  type: "Scale"
  bottom: "h_13"
  bottom: "cont_14"
  top: "h_conted_13"
  scale_param {
    axis: 0
  }
}
layer {
  name: "lstm1_transform_14"
  type: "InnerProduct"
  bottom: "h_conted_13"
  top: "W_hc_h_13"
  param {
    name: "W_hc"
  }
  inner_product_param {
    num_output: 64
    bias_term: false
    weight_filler {
      type: "xavier"
    }
    axis: 2
  }
}
layer {
  name: "lstm1_gate_input_14"
  type: "Eltwise"
  bottom: "W_hc_h_13"
  bottom: "W_xc_x_14"
  top: "gate_input_14"
  eltwise_param {
    operation: SUM
  }
}
layer {
  name: "lstm1_unit_14"
  type: "LSTMUnit"
  bottom: "c_13"
  bottom: "gate_input_14"
  bottom: "cont_14"
  top: "c_14"
  top: "h_14"
}
layer {
  name: "lstm1_h_conted_14"
  type: "Scale"
  bottom: "h_14"
  bottom: "cont_15"
  top: "h_conted_14"
  scale_param {
    axis: 0
  }
}
layer {
  name: "lstm1_transform_15"
  type: "InnerProduct"
  bottom: "h_conted_14"
  top: "W_hc_h_14"
  param {
    name: "W_hc"
  }
  inner_product_param {
    num_output: 64
    bias_term: false
    weight_filler {
      type: "xavier"
    }
    axis: 2
  }
}
layer {
  name: "lstm1_gate_input_15"
  type: "Eltwise"
  bottom: "W_hc_h_14"
  bottom: "W_xc_x_15"
  top: "gate_input_15"
  eltwise_param {
    operation: SUM
  }
}
layer {
  name: "lstm1_unit_15"
  type: "LSTMUnit"
  bottom: "c_14"
  bottom: "gate_input_15"
  bottom: "cont_15"
  top: "c_15"
  top: "h_15"
}
layer {
  name: "lstm1_h_conted_15"
  type: "Scale"
  bottom: "h_15"
  bottom: "cont_16"
  top: "h_conted_15"
  scale_param {
    axis: 0
  }
}
layer {
  name: "lstm1_transform_16"
  type: "InnerProduct"
  bottom: "h_conted_15"
  top: "W_hc_h_15"
  param {
    name: "W_hc"
  }
  inner_product_param {
    num_output: 64
    bias_term: false
    weight_filler {
      type: "xavier"
    }
    axis: 2
  }
}
layer {
  name: "lstm1_gate_input_16"
  type: "Eltwise"
  bottom: "W_hc_h_15"
  bottom: "W_xc_x_16"
  top: "gate_input_16"
  eltwise_param {
    operation: SUM
  }
}
layer {
  name: "lstm1_unit_16"
  type: "LSTMUnit"
  bottom: "c_15"
  bottom: "gate_input_16"
  bottom: "cont_16"
  top: "c_16"
  top: "h_16"
}
layer {
  name: "lstm1_"
  type: "Split"
  bottom: "c_16"
  top: "c_T"
}
layer {
  name: "lstm1_h_concat"
  type: "Concat"
  bottom: "h_1"
  bottom: "h_2"
  bottom: "h_3"
  bottom: "h_4"
  bottom: "h_5"
  bottom: "h_6"
  bottom: "h_7"
  bottom: "h_8"
  bottom: "h_9"
  bottom: "h_10"
  bottom: "h_11"
  bottom: "h_12"
  bottom: "h_13"
  bottom: "h_14"
  bottom: "h_15"
  bottom: "h_16"
  top: "h"
  concat_param {
    axis: 0
  }
}
layer {
  name: "h_pseudoloss"
  type: "Reduction"
  bottom: "h"
  top: "h_pseudoloss"
  loss_weight: 1
}
I0228 21:19:56.920163 11790 layer_factory.hpp:77] Creating layer lstm1_
I0228 21:19:56.920184 11790 net.cpp:84] Creating Layer lstm1_
I0228 21:19:56.920191 11790 net.cpp:380] lstm1_ -> x
I0228 21:19:56.920200 11790 net.cpp:380] lstm1_ -> cont
I0228 21:19:56.920254 11790 net.cpp:122] Setting up lstm1_
I0228 21:19:56.920267 11790 net.cpp:129] Top shape: 16 13 1 (208)
I0228 21:19:56.920272 11790 net.cpp:129] Top shape: 16 13 (208)
I0228 21:19:56.920276 11790 net.cpp:137] Memory required for data: 1664
I0228 21:19:56.920280 11790 layer_factory.hpp:77] Creating layer lstm1_
I0228 21:19:56.920287 11790 net.cpp:84] Creating Layer lstm1_
I0228 21:19:56.920291 11790 net.cpp:380] lstm1_ -> c_0
I0228 21:19:56.920298 11790 net.cpp:380] lstm1_ -> h_0
I0228 21:19:56.920323 11790 net.cpp:122] Setting up lstm1_
I0228 21:19:56.920331 11790 net.cpp:129] Top shape: 1 13 16 (208)
I0228 21:19:56.920336 11790 net.cpp:129] Top shape: 1 13 16 (208)
I0228 21:19:56.920338 11790 net.cpp:137] Memory required for data: 3328
I0228 21:19:56.920342 11790 layer_factory.hpp:77] Creating layer lstm1_cont_slice
I0228 21:19:56.920349 11790 net.cpp:84] Creating Layer lstm1_cont_slice
I0228 21:19:56.920353 11790 net.cpp:406] lstm1_cont_slice <- cont
I0228 21:19:56.920369 11790 net.cpp:380] lstm1_cont_slice -> cont_1
I0228 21:19:56.920380 11790 net.cpp:380] lstm1_cont_slice -> cont_2
…
